colagnn-master-Run-Epi/src/save/cola_gnn_epi.us_hhs.w-20.h-8.RNN.lam-0.5.epo-500.pt (torch, 49334 bytes, 32 tensors)

V f4 [15]
00000000: 4b01 83be 8428 95be b43b 5c3f ad90 083e
00000010: 11df 4d3f 67c9 113e c307 093f 980e 6cbf
00000020: 4b19 74be 3d50 9f3b f21d 8dbe 6d58 093e
00000030: 8bca 4e3f 643d 9fbe 65a6 843f
-0.25586924 -0.29132473 0.860286 0.1333644 0.804185 0.14236985 0.5352747 -0.9220977
-0.23837774 0.00486186 -0.2756191 0.13412638 0.80777806 -0.31101525 1.036328

W1 f4 [15, 30]
00000000: 5ffd f3be 265e b93e e1e7 bebe f72a 883e
00000010: 1703 bfbe 95d8 a43e e2ce a0be 7a5c 90be
00000020: 0b44 d23e ad31 a53e 1b11 e9be 7cc9 e0be
00000030: c175 a83e 5a40 d53e 2547 81be f521 9fbe
00000040: cfd4 ef3e c2bd 3ebe f66c 0bbf 89d7 6ebe
00000050: 2a82 e0be 4a57 f1be 5e70 ff3e 60c7 a03e
00000060: 22f2 99be 905a 08bf 8bdd 603e e374 dd3e
00000070: 0789 9ebe 3021 7e3e 165a 75be 04a8 543e
00000080: 2ed2 80be 57ab 303e fbfe 81be 8848 cd3e
00000090: fe4a 98be 1f79 2abe b1f9 753e 03fc c23e
000000a0: ec44 0bbe 7948 86be 6c98 c13d 1e4f c23e
000000b0: eb2b e8bd 7bd9 9abe e0ee 5c3e 9b12 afbd
000000c0: d304 71be e59a 82be 2736 d2be a108 32be
000000d0: de86 853e 1cbe c53e f247 a1bd d90f 63be
000000e0: 3d0f ed3d d45a 6f3e 4f74 f1bd 9d8a 4d3e
000000f0: 913f 92be 5d4b c03e 2672 40be 2693 cd3c
00000100: 5189 08bf 16db fe3e f62e 43be 3f37 22bc
00000110: c6c0 7f3e 9acd 003f 27af 86be 084c b5be
00000120: 6a7a b73e ba0c c53e 429a 7bbe 33ad 7fbe
00000130: 102d c83e d3a2 20bc 140d e8be ff74 0cbd
00000140: a3d3 90be c0dc 33bd c4ca cc3e 7e43 c83e
00000150: 5091 99be 7ecb b1be 53bd 323d 3141 ed3d
00000160: d400 85be d13e cabb 967d e33c 9a44 023d
00000170: 1e6d db3c c6e3 2cbd 8b74 05bd c632 873c
00000180: b6f8 d63c d686 d23c 95fd dbbc 94a1 053d
00000190: a89c d7bb a89c e9bb a156 0c3d c3b5 063d
000001a0: 8a64 edbb da68 ca3c ac3f e43c 64f9 fe3b
000001b0: a661 ebbc 13e2 a33c e767 c53c e6a3 e03c
000001c0: 5b70 cc3c 2bef 073d 10ec 20bc f0b7 02bd
000001d0: 6658 40bd 1a1d dabc d3b7 e3bb 1721 eabc
000001e0: 2d68 93be fbe7 303e b61c 63be 0572 be3d
000001f0: 1605 d0be 8b64 c93e 5c22 b6be 0198 16be
00000200: fb65 ab3e 74d1 bf3e 6093 82be c871 90be
00000210: 95ce e93d 1131 a73e 7706 1ebe 4313 7abe
00000220: 27ca ac3e 1bd9 50bd cd04 d8be 0fa5 9ebd
00000230: 8759 afbe 3b92 1dbe 93ec 953e ef01 913e
00000240: fd0f 10be 1b5d c2be d3d2 8a3d 042a 793e
00000250: 9023 31be 6ad4 e03d 6d89 6a3d f11e 623c
00000260: 9393 543d 941d 61bd 9162 4dbc c5b1 8b3c
00000270: a00e 963d 8dfa 3c3d 8383 74bd bb7c e63c
00000280: a29d 90bb 9978 febb f315 b83c f7b3 fb3c
00000290: 69a8 b0bb af50 733d 919c d63c bec2 1b3c
000002a0: 8d0e 5cbc 407e 103d e5f5 743d 44f6 7b3d
000002b0: 4ed4 7a3c 8155 bc3c 7e15 ffbb 0d80 debc
000002c0: 2cf2 26bd 01b2 69bd 53dc a8bb d745 0abd
000002d0: 3944 6bba 690d 7eba d897 67ba 55e1 b03a
000002e0: de64 523a ba44 5dba c099 6eba ba21 b1ba
000002f0: e6f0 6e3a dfcd 1bba e91c d23a dc8c d03a
00000300: db2f 98ba c8a1 6fba c46a ce3a 4cef 67ba
00000310: 12ed 52ba d5e2 9dba 898a 4e3a 6687 d4ba
00000320: a6e3 6eba d6a2 71ba c16d 8dba b9a2 54ba
00000330: 4f66 cd3a beb7 4d3a 9b87 d93a ddc8 6e3a
00000340: 188f d43a 1fe6 d83a dca7 da3e 6451 e4be
00000350: b364 583e 83f7 83be 595e 0f3f ca1c 11bf
00000360: c328 6b3e 8769 993e ee4f bbbe ed0c f7be
00000370: 0736 023f eeeb d43e 0590 d3be a1a0 10bf
00000380: cf8b 0b3f 3413 d23e 1262 26bf 0440 0b3e
00000390: f36e 143f 80ce 9b3d 78ff d03e 34f6 bf3e
000003a0: 5b4b 09bf 1a81 1dbf 1d36 ec3e 94fb fa3e
000003b0: b0ff 0cbe 94e4 c4be ce30 103f 76a2 66be
000003c0: 0513 e8be 7da3 d23e 6225 f6be 286a fb3e
000003d0: edd6 ddbe fa42 d63e dea7 e1be 0123 f3be
000003e0: 36ea be3e 9b0c d53e d01a 05be f9f5 f5bd
000003f0: d58d bd3e 7e0b f53e 2d07 11be 1a0f f4be
-0.47654244 0.36204642 -0.37286285 0.2659528 -0.37307045 0.3219649 -0.3140784 -0.28195554
0.41067538 0.32264462 -0.45520863 -0.4390372 0.3290234 0.4165066 -0.2524959 -0.31080595
0.46842048 -0.18627074 -0.54463136 -0.23324408 -0.43849307 -0.4713691 0.49890417 0.3140211
-0.30067545 -0.5326319 0.21959512 0.4325324 -0.3096392 0.24817348 -0.23960146 0.20767218
-0.25160354 0.17252861 -0.25389847 0.400944 -0.29744714 -0.16647767 0.24021031 0.38082895
-0.1360051 -0.26227167 0.094529 0.37950987 -0.11336502 -0.3024405 0.21575499 -0.085484706
-0.23536997 -0.255088 -0.4105694 -0.17386104 0.26079458 0.38621604 -0.078750506 -0.22174014
0.11575172 0.23374492 -0.11789762 0.20072408 -0.28564122 0.37557498 -0.18793544 0.02509458
-0.5333453 0.49776524 -0.19060883 -0.009900867 0.24975881 0.50313723 -0.26305506 -0.3540957
0.35835582 0.38486272 -0.24570563 -0.24968414 0.3909688 -0.009804445 -0.45322478 -0.034291264
-0.28286466 -0.043911695 0.39998448 0.39113992 -0.29993677 -0.34725565 0.043637585 0.115847
-0.25977194 -0.006172039 0.027769845 0.031803705 0.02678543 -0.04220941 -0.032581847 0.016503703
0.026241641 0.02569906 -0.026854316 0.032624796 -0.006579954 -0.0071292706 0.034262303 0.032888185
-0.007244651 0.0247082 0.027862392 0.0077811945 -0.028733086 0.020005262 0.024097396 0.027421903
0.024955919 0.033187073 -0.009821907 -0.031913698 -0.046959303 -0.026625205 -0.006949404 -0.028580232
-0.28790417 0.17275994 -0.22178921 0.09299091 -0.4062888 0.3933452 -0.3557309 -0.14706422
0.33476242 0.37464488 -0.25503063 -0.28211808 0.114163555 0.32654622 -0.15432154 -0.2442141
0.3374798 -0.050988298 -0.42191163 -0.07746326 -0.3424799 -0.15387814 0.29282054 0.28321788
-0.14068599 -0.3796166 0.06778493 0.24332434 -0.17298722 0.10978015 0.057259966 0.013801322
0.05189855 -0.05495985 -0.012535707 0.01705254 0.07327008 0.04613738 -0.05969573 0.028135648
-0.0044133225 -0.007765841 0.022471404 0.030725462 -0.00539117 0.059403118 0.026197704 0.009506879
-0.013431204 0.03527665 0.059804816 0.061514154 0.015309406 0.02298999 -0.0077845445 -0.027160669
-0.040758297 -0.057054523 -0.005153218 -0.03375801 -0.00089747045 -0.00096913293 -0.0008834577 0.0013494889
0.00080258946 -0.0008440722 -0.000910189 -0.001351408 0.0009114876 -0.0005943458 0.0016030344 0.001591112
-0.0011610942 -0.0009141234 0.0015748371 -0.00088476087 -0.00080461905 -0.0012045751 0.000787892 -0.0016214668
-0.0009112902 -0.0009217685 -0.0010790156 -0.0008111406 0.0015670749 0.0007847509 0.00165962 0.00091089105
0.0016216962 0.0016548074 0.42706192 -0.44593346 0.21132164 -0.25774774 0.5600334 -0.56684554
0.22964768 0.29963323 -0.3658442 -0.4825205 0.5086369 0.4158625 -0.41320816 -0.564951
0.54510206 0.41030276 -0.64993393 0.13598639 0.57981795 0.07607746 0.40819907 0.37492526
-0.5363061 -0.6152512 0.46135035 0.49020064 -0.13769412 -0.3845564 0.5632447 -0.22522911
-0.4532701 0.41140357 -0.48075396 0.49104428 -0.43328038 0.41847974 -0.44073385 -0.47487643
0.37288064 0.4161118 -0.1299851 -0.12009806 0.37022272 0.4786033 -0.14162894 -0.47667772

b1 f4 [15]
00000000: e270 babe cea1 d8be 2605 09bf c2a3 13bd
00000010: e0b2 ddbe ff70 7ebc f378 533a 2a63 c83e
00000020: eb17 dbbe 5536 843e e6e8 923e 708c 873d
00000030: 1ab7 1fbf 6501 233f 82a6 06bf
-0.36414248 -0.42310947 -0.5352348 -0.036044843 -0.43300533 -0.01552987 0.0008067034 0.39138156
-0.42791685 0.25822702 0.28693312 0.06618583 -0.62388766 0.63674 -0.5259782

W2 f4 [15, 30]
00000000: dccf cbbe a383 943e 94a1 6abe 1515 6d3e
00000010: 5963 83be c63e 763e 7f3a b5be 9d7d d5be
00000020: c6a9 ac3e dc84 e63e 38ce ecbd 901d 4cbe
00000030: 3933 963e ab9d ee3e db3a 24be 452f eebe
00000040: 5736 023f 6014 4bbe a7fa a2be 4fd7 abbe
00000050: 7934 d3be 8bec 9ebe 8be8 893e 2f61 cc3e
00000060: c698 49be 85cb a6be 79a1 2c3e 59e6 c13e
00000070: a1fe 64be d8d0 ca3e 89f9 d2be fa6e 313e
00000080: e3f3 2ebe 362a 273e 2a1b 9bbe 822f d83e
00000090: fa6b 36be 209c 57be c42d 8f3e b840 f03e
000000a0: 4b8c 6ebd 2023 7abe b4da a83d 1c38 db3e
000000b0: 090c dfbd 5571 babe aa7f be3e 9c74 ecbd
000000c0: 3618 25be 89f5 11be c132 e0be 8bc6 2cbe
000000d0: 0096 5d3e 71ff 993e da88 cbbd 3fad 9bbe
000000e0: dcb9 bb3d 4a63 043f 4e71 58bd 9420 a33e
000000f0: e8d9 8cbe 814e d53e ca92 4dbe 186e ad3a
00000100: 4239 e2be a4e9 f13e f1b5 4abe db84 babd
00000110: 6101 923e 32e1 0f3f 30aa 88be 74b1 80be
00000120: 4730 a33e 000e 043f e840 64be 96dc 81be
00000130: fe3e 0a3f 0a08 0bbd b5ea 8ebe 36f5 1e3c
00000140: 2f8c 34be 7ff0 ccbd 39d4 d03e 6354 ec3e
00000150: 3d6d 84be 6689 d4be 69b2 23bd d88f 783e
00000160: 3cb1 4fbe 3ac8 df3d 8620 9b3c 8ce7 053d
00000170: 231d d93c d029 d0bc 64dc 22bd dbde 903c
00000180: 7d8a be3c f735 983c c298 e0bc 57fd 103d
00000190: 562c 0c3b 64b3 11bc d60e 233d 6ea1 183d
000001a0: 1aac 79bb ca93 c73c a461 0c3d d8af e33a
000001b0: af49 dcbc 3e01 b33c 1264 bb3c 19c2 c23c
000001c0: bdaa 7f3c db8a 063d 2b3e b9bb 5b81 0ebd
000001d0: 7f3c 45bd 7e7e bebc ab3b a73a d695 a6bc
000001e0: 4b9e a3be 1f08 593e f5df 3abe c647 713d
000001f0: 30c4 98be 56fd b13e 3611 9dbe 52e7 fbbd
00000200: 1e1b 9c3e bdd4 d43e 9eba 0bbe 104a 48be
00000210: 94f2 093e d7d5 b63e ff3a 0abe 0635 91be
00000220: 08e8 ee3e 9901 4cbd 8820 94be f740 cbbd
00000230: 8500 9cbe 11ff cdbd f9b9 833e 5a61 c23e
00000240: 6639 ccbd 89e1 babe 3377 333d cf81 893e
00000250: 3293 ecbd ca99 133e 1a32 123d 11b1 6e3c
00000260: 5430 183d 3975 50bd de31 dabc bac5 183c
00000270: decd 4f3d 68eb cb3c 261b 2dbd ea70 f03c
00000280: 9f4f f53a afee 91bb fb08 cd3c 3138 213d
00000290: 6506 0d3a 4b40 223d 6e49 d73c 9249 edb9
000002a0: 23ca 2fbc ae28 a93c 2709 323d 3df4 1e3d
000002b0: 3cb1 1e3c 8c44 903c 55b7 a7bb bdb3 1ebd
000002c0: 60ab 31bd 4702 0abd 4ca9 d1b9 8d0e e6bc
000002d0: ee19 f2b9 5060 76ba 5a0a 28ba df35 ae3a
000002e0: b055 4a3a b0f6 50ba 3ea7 6fba ce93 abba
000002f0: 362c 6f3a 866a 6c3d 9f40 cf3a 98ee d13a
00000300: c52c 51be 0cb5 6eba 4c14 d53a b414 69ba
00000310: e496 4eba 361c 02bb 6ac8 473a b456 cfba
00000320: 33dd 6eba 9a17 7bba bc94 80ba 180f 4bba
00000330: a49d c83a 129f 4d3a 1589 d63a c206 6d3a
00000340: 3413 d43a 239b db3a f528 6b3e 25f2 19bf
00000350: 8f02 cf3e cad3 9dbe 59cc ec3e 1f6d 0bbf
00000360: 9496 003f e29e b23e d46f 7fbe 0ff9 cfbe
00000370: a40b d23e c01c bd3e 2e53 01bf e97d b2be
00000380: 8b58 fe3e 5e6b 763e ef7f b3be 1624 e83c
00000390: cba5 2b3f 38c4 923e 849b 903e d042 bb3e
000003a0: 42bd 17bf 4188 0ebf cb90 9d3e a2b9 e13e
000003b0: e714 c4bd dbff 41be 99de aa3e 2e2c a6bd
000003c0: be9b d3be 3ae0 e83e 2d78 98be 5704 ba3e
000003d0: 1de6 d5be 2f4c a83e 3ab7 f0be 8785 04bf
000003e0: 71d9 a53e 8345 e53e 9b24 45be ab41 f5bd
000003f0: 72c4 c53e 21e1 d33e 37fb f5bd 16e4 debe
-0.39807022 0.2900668 -0.229132 0.23152573 -0.25661734 0.24047384 -0.3539619 -0.41697398
0.33723277 0.4502324 -0.115627706 -0.19933152 0.29335955 0.46604666 -0.16038077 -0.4652044
0.50864166 -0.19831991 -0.31831858 -0.33562705 -0.4125097 -0.31039843 0.2693523 0.39917895
-0.19687185 -0.32577148 0.16858472 0.37871054 -0.22362758 0.3961246 -0.41206005 0.1732749
-0.17085223 0.16324696 -0.30294162 0.42223746 -0.17814627 -0.2105565 0.27964604 0.46924376
-0.058239263 -0.24427462 0.08244839 0.42816246 -0.108909674 -0.3641459 0.37206775 -0.11545679
-0.16122517 -0.1425382 -0.43788722 -0.16872613 0.21639252 0.300777 -0.09938212 -0.30405614
0.09166309 0.51714003 -0.05284243 0.31860793 -0.2751 0.41661456 -0.20075527 0.0013231663
-0.4418431 0.47248566 -0.19795968 -0.091073714 0.28516677 0.56202996 -0.26692343 -0.25135386
0.3187277 0.5158386 -0.22290385 -0.25363606 0.5400237 -0.033943214 -0.27913442 0.0097020175
-0.17631601 -0.100068085 0.40786913 0.46158132 -0.25864592 -0.41511077 -0.039965067 0.24273622
-0.20282453 0.10926862 0.018936407 0.032691523 0.026503151 -0.025410563 -0.039760962 0.01768439
0.023259396 0.01858042 -0.02741659 0.035397854 0.002138873 -0.008892868 0.03980907 0.037263326
-0.0038096965 0.024362464 0.034272805 0.0017371131 -0.026890604 0.021851178 0.022874866 0.023774194
0.015604672 0.032847267 -0.005653163 -0.03479133 -0.048153397 -0.023253676 0.0012758871 -0.02033512
-0.31956705 0.21194504 -0.18249495 0.05890634 -0.2983718 0.34763592 -0.30677193 -0.1229998
0.3048944 0.41568556 -0.13645408 -0.19559503 0.13471442 0.35710022 -0.13499068 -0.28360766
0.466614 -0.04980621 -0.2893107 -0.099245004 -0.30469146 -0.10058416 0.25727823 0.37964898
-0.099718854 -0.36500195 0.04381485 0.2685685 -0.11551513 0.14414135 0.03569231 0.014568583
0.037155464 -0.050893042 -0.026635107 0.009324485 0.05073344 0.024892524 -0.04226222 0.029350717
0.0018715746 -0.004453502 0.025028696 0.03936023 0.0005379676 0.039612096 0.026280131 -0.00045258977
-0.0107293455 0.02064928 0.04346576 0.038807143 0.009685811 0.01761081 -0.0051182904 -0.03874563
-0.043376327 -0.033693578 -0.00039989722 -0.02808311 -0.00046177156 -0.0009398507 -0.0006410234 0.0013291201
0.0007718457 -0.00079713296 -0.00091420475 -0.0013090314 0.00091237144 0.057718776 0.0015812105 0.0016016541
-0.20427234 -0.00091059576 0.0016256659 -0.00088913296 -0.0007880761 -0.001985324 0.00076211116 -0.0015818686
-0.0009111941 -0.0009578407 -0.0009809951 -0.00077460846 0.001530577 0.0007843833 0.0016367758 0.00090418395
0.0016180039 0.0016754608 0.22964843 -0.6013511 0.4043164 -0.30825645 0.46249655 -0.5446338
0.50229764 0.34886843 -0.24945003 -0.40619704 0.41024506 0.36935997 -0.5051755 -0.34861687
0.49676928 0.24064395 -0.35058543 0.02833752 0.67049855 0.28665328 0.2824365 0.3657441
-0.5927316 -0.55676657 0.3077453 0.4408694 -0.09574299 -0.18945257 0.33372954 -0.08113895
-0.4132976 0.4548357 -0.29779187 0.36331436 -0.41777125 0.32870623 -0.4701479 -0.51766247
0.32392457 0.44779596 -0.19252245 -0.11975416 0.38626438 0.41382697 -0.12010806 -0.4353339

Wb f4 [10, 10]
00000000: 8706 983e dc79 503f e808 c33d f5f5 373f
00000010: 188b 1e3f 3f6a 6c3f 28fa 003f 9300 243d
00000020: d162 08c0 6241 2ebf eb04 aa3e d7f2 5e3f
00000030: 5013 483e 7f7b 5d3f a1bb 8f3e 433d 403f
00000040: 9c91 413f 1b39 4fbe 03a4 febf 95ba 2abf
00000050: c6a1 af3e 77f7 5f3f 4112 063e 7584 293f
00000060: 6731 dd3e c77f 383f 7b86 043f 108d 843e
00000070: 1253 f8bf 8928 2dbf 5a73 983e 5927 4f3f
00000080: 44b6 a53d c7b5 603f 7bab 873e 7567 673f
00000090: bb2d df3e 86e1 e9bd acd5 f5bf d10d 1fbf
000000a0: e641 ac3e 8505 643f c9c5 cb3d c242 3c3f
000000b0: 0484 733e aa8c 873f be85 2c3f c9bb f93e
000000c0: 26ad 07c0 2181 31bf d36e b03e 2140 503f
000000d0: b7d3 cc3d f2e1 703f 1692 533e d71d 523f
000000e0: 17a2 223f 11fa f93e b760 02c0 dc17 37bf
000000f0: fe3f aa3e dcc1 643f a988 c73d 1d56 583f
00000100: 78f9 753e caf6 433f 1b6f 1d3f d46a b03e
00000110: f73c fabf 5105 38bf 0179 9e3e 1ee0 5d3f
00000120: d929 113e 8155 493f 561d 943e 000a 903f
00000130: 4647 bb3e bc3d 22be 0bed f3bf a586 32bf
00000140: 6ccc ab3e 763a 503f 5d47 0f3e be23 3a3f
00000150: f97c 173f 2363 883f 1f4f 103f 4d9b 3a3e
00000160: 3443 06c0 a06c 34bf 9975 9c3e 3be1 5c3f
00000170: c750 073e a9fc 803f 006f dc3e d1ca 643f
00000180: 2660 cd3e 38f6 a53e 2138 0ac0 7fe2 24bf
0.2969248 0.8143594 0.09523183 0.71859676 0.6193099 0.9234962 0.5038171 0.04003961
-2.1310313 -0.68068516 0.33206877 0.87089294 0.19538617 0.86516565 0.28072837 0.7509348
0.7561281 -0.20236628 -1.9893802 -0.6669095 0.3430311 0.87486976 0.13092901 0.6621774
0.43201753 0.7206997 0.517677 0.25888872 -1.9400351 -0.67639977 0.29775506 0.80919415
0.08091405 0.8777737 0.26498017 0.9039224 0.43589577 -0.11419968 -1.9205832 -0.6213046
0.33644027 0.8907092 0.09949834 0.73539364 0.23780829 1.0589802 0.67391574 0.4877608
-2.1199431 -0.6933766 0.34459552 0.8134785 0.10001319 0.94094765 0.20661196 0.8207678
0.6352858 0.48823598 -2.037153 -0.7152078 0.33251947 0.89358306 0.09742863 0.845064
0.24020946 0.76548445 0.6149766 0.34456503 -1.9549855 -0.7188311 0.30951694 0.866701
0.1417612 0.78646094 0.28928632 1.1253052 0.36577815 -0.15843862 -1.9056715 -0.697367
0.335544 0.81339204 0.13992067 0.7271079 0.5917507 1.0655254 0.5637073 0.18223305
-2.0978518 -0.7047825 0.3055847 0.86281174 0.13214408 1.0077106 0.43053436 0.89371973
0.40112418 0.32414412 -2.1596758 -0.64408106

conv.weight f4 [10, 1, 20]
00000000: 937e 65be 2817 3ebe 7c86 61be 4752 7abe
00000010: 76cf 88be 2c81 93be 0f92 42be 516c 3dbe
00000020: f374 89be 2dbc 4ebe d08f 75be e7fb 23be
00000030: 3fdb 72be 7745 2bbe 64f3 3dbe b8f9 56be
00000040: e027 53be 12db 7bbe 5682 7fbe b2fe b1be
00000050: 86c6 0e3f b9b1 0f3f bca9 0b3f 8d7b 0d3f
00000060: d424 123f fc43 163f 8cab 1a3f 26ba 203f
00000070: d8dd 203f 1b5c 173f f812 093f 301b 053f
00000080: 881f ef3e 340f b23e c7c9 963e 857a 473e
00000090: 949f ba3c 5f14 e3bd 38d2 5abe ac7f bfbe
000000a0: d09f 01be 2976 16be 40b6 eabd b7bf e2bd
000000b0: 970e f0bd 0cb5 b5bd ce5b 00be bd60 07be
000000c0: d541 05be 0368 afbd e6da f1bd ce6e b2bd
000000d0: 887b cebd 25fc b6bd 3a81 fcbd e707 f4bd
000000e0: c256 0cbe 7231 24be 5885 28be 38dd 0bbe
000000f0: bf9a 2e3e f3b2 2b3e 3277 e63d dedf 003e
00000100: 42a1 be3d ac88 b83c d179 2cbd f6a0 53bd
00000110: 5464 b5bd fb18 1abe adc9 1cbe 237a 05be
00000120: bb00 01be d65c ecbd 6807 e4bd 508e d0bd
00000130: 41bb b1bd 8e08 acbd fcb5 aabd 4122 a0bd
00000140: 89d1 20bd cbec 08bd af7a 42bd 6441 31bd
00000150: 33de 54bd e4cc 3bbd fff5 8bbd 0c13 9dbd
00000160: 1497 acbd 9926 c6bd bfcf b4bd 5ba3 90bd
00000170: 80cb d9bd 6eed debd 207c 04be 8ccb 1cbe
00000180: a0f1 04be 647e 17be 758e 5ebe c5aa 05be
00000190: d666 2539 2aa2 3438 2f14 08b8 0c09 f7b8
000001a0: 87c3 0fb9 72ff 26b9 7c7f f5b8 151b 09b9
000001b0: 9e51 c5b8 3588 96b8 076a b9b8 8ea1 d5b8
000001c0: 6e8b 36b9 56c4 1eb9 580d 1fb9 0029 18b9
000001d0: 7bb1 05b9 2edf f0b8 6e2f ecb8 28c2 01b9
000001e0: 8aad 2338 8337 b538 8664 8338 4027 a538
000001f0: 7519 0339 18a8 2039 7267 1f39 cce6 8e39
00000200: c381 bc39 e430 e239 325c d639 f2b4 cf39
00000210: 5897 dc39 2629 c439 6f24 9b39 45fb 3d39
00000220: 36d0 0e39 6292 7738 430d 45b8 0df4 d237
00000230: 5a31 55be bc9e 3fbe 94d2 6dbe 8be3 3cbe
00000240: 2e64 8cbe 4829 2dbe 53da 84be 4390 84be
00000250: 5256 34be 7770 6cbe 64c5 39be b260 80be
00000260: e221 34be 20d6 2bbe 2acb 5dbe 129f 4bbe
00000270: 8a3b 9cbe f8ed 93be cdf8 82be 0210 74be
00000280: fb23 80be 19c6 2fbe e1ca 75be ba7f 76be
00000290: 909b 42be c9c2 83be 496b 84be 5fe8 36be
000002a0: 834f 34be 7dc2 30be 7ee5 4ebe 57d2 6bbe
000002b0: 97da 76be 833d 0ebe 75e8 87be 2f03 54be
000002c0: 7d6b 35be bbeb 43be c98f 9abe dd83 8fbe
000002d0: 6a07 72be e3f3 1ebe c33d 7fbe 8c8f 6ebe
000002e0: bb07 5bbe 6678 0fbe 91f4 13be 5dcb 10be
000002f0: 3914 0bbe c8a0 4cbe 5ee0 4dbe 2dc4 48be
00000300: b3fb 1fbe 747d 1fbe c0eb 36be d991 81be
00000310: 3e33 54be 7c38 86be d127 7dbe 7a47 7fbe
-0.22411565 -0.18563521 -0.22023958 -0.24445449 -0.2672078 -0.28809488 -0.1900103 -0.1849835
-0.26847038 -0.20188971 -0.23980641 -0.16014062 -0.23716448 -0.16725717 -0.18549877 -0.20993698
-0.2062068 -0.24595287 -0.24952063 -0.3476463 0.5577167 0.5613056 0.5455587 0.5526665
0.57087445 0.58697486 0.6041801 0.6278404 0.62838507 0.59124917 0.5354457 0.5199461
0.46703744 0.34777224 0.2945082 0.19480331 0.02278117 -0.1108787 -0.21369255 -0.37402093
-0.1265862 -0.14693512 -0.11460543 -0.11071723 -0.11721533 -0.088724226 -0.1253502 -0.13220496
-0.13013394 -0.085647605 -0.1180933 -0.087125406 -0.100821555 -0.089348115 -0.123293355 -0.1191557
-0.1370497 -0.16034487 -0.16457117 -0.13658607 0.17051218 0.16767482 0.112532035 0.12585399
0.09308101 0.022526108 -0.04210836 -0.051667176 -0.08857027 -0.15048592 -0.15311308 -0.13034873
-0.12597935 -0.115411445 -0.11134225 -0.10183394 -0.08678294 -0.08400069 -0.08335492 -0.078190334
-0.03926233 -0.03342895 -0.04748028 -0.043275252 -0.05196972 -0.045849696 -0.068340294 -0.076696485
-0.08427253 -0.09675331 -0.08828687 -0.070624076 -0.10634518 -0.1088513 -0.12937975 -0.15312022
-0.12982798 -0.14794308 -0.2173403 -0.13053425 0.00015773936 4.306637e-05 -3.2443724e-05 -0.00011779563
-0.00013710382 -0.00015926154 -0.00011706256 -0.00013075427 -9.4088944e-05 -7.177928e-05 -8.8412366e-05 -0.000101867234
-0.00017408814 -0.00015141195 -0.00015168393 -0.00014511123 -0.00012749985 -0.00011485662 -0.000112621914 -0.00012374728
3.902385e-05 8.6410924e-05 6.265291e-05 7.875124e-05 0.00012502617 0.00015321409 0.00015201958 0.00027256308
0.00035954834 0.00043142505 0.00040885952 0.00039616931 0.0004207443 0.0003741469 0.0002959105 0.0001811805
0.0001361974 5.902572e-05 -4.698081e-05 2.5147596e-05 -0.20819607 -0.18712896 -0.2322486 -0.18446176
-0.2742018 -0.16910279 -0.25947818 -0.25891313 -0.17611054 -0.23089777 -0.18141705 -0.25073773
-0.1759105 -0.16780901 -0.21659532 -0.198849 -0.30514175 -0.28892493 -0.25580445 -0.23834231
-0.2502745 -0.17165412 -0.24003173 -0.24072161 -0.19004655 -0.25734547 -0.25863102 -0.1786208
-0.17608456 -0.17261691 -0.20204732 -0.23029457 -0.24106823 -0.13890652 -0.26544538 -0.2070434
-0.17716785 -0.19132893 -0.30187824 -0.2803029 -0.2363564 -0.15522723 -0.24925904 -0.23296946
-0.21389668 -0.14010772 -0.14448763 -0.14140077 -0.13581933 -0.19983208 -0.2010512 -0.19606085
-0.1562336 -0.155752 -0.17863369 -0.25306585 -0.20722672 -0.2621497 -0.2472222 -0.2492961

conv.bias f4 [10]
00000000: 3423 f0be 8cf6 15be 3563 47be 385c 89be
00000010: ab44 e1be 7ad4 9abb 9388 8ebd a55f a9be
00000020: aa72 95be 6b13 8bbe
-0.46901858 -0.14644831 -0.19471438 -0.2682817 -0.43997702 -0.004725036 -0.06959643 -0.33080783
-0.29189044 -0.27163252

conv_long.weight f4 [10, 1, 10]
00000000: a514 39bb 4b5e 07ba 9b0d 763a 0a6c 813a
00000010: b994 4e3a 31e4 473a 0083 7b37 285b 92bb
00000020: c18c 82bc 6e3e 1bbd 86bc e0bb 0ea7 cebb
00000030: 65f1 01bc cb61 23bc 6b69 25bc 7dc7 1ebc
00000040: 9c44 f4bb 160f a4bb 5e1d 99bb aea1 3cbc
00000050: f72d 86be 9dc7 f1be 57d1 a0be 18b0 b4be
00000060: d8d1 d8be 0e2f 97be 9e04 92be f9b0 b4be
00000070: a65a 9abe bd7e 9bbe fb59 b1b8 34ad 6bb9
00000080: b04b 5eb9 f0f9 5cb7 3795 1839 3260 72b7
00000090: 0017 efb8 60e7 b6b7 44f3 a937 ba22 51b8
000000a0: 182d f3bd 81a4 6bbe 5cb3 38be 8335 24be
000000b0: 66da c5bd 28bf 00be 70fe 5abe 9aa0 ccbd
000000c0: e3c9 94be 8067 48be 5246 3cbe 25a7 3abe
000000d0: 3fb9 9abe 3ae6 adbe 7854 57be 1d89 30be
000000e0: c364 a1be 29cb 98be b2e5 bebe b3a7 82be
000000f0: 2d77 a4ba c84a 29ba 9ea7 03ba 5ebb f2b9
00000100: b23c 38b9 5f49 adba f3eb daba 44f7 fbba
00000110: 89cf a2ba bc7f 27ba 1494 4e38 2f6c 5c39
00000120: 288c 6039 bade 79b9 acca f7b8 2425 a539
00000130: eb0c 6eb9 988c 2fb9 e64b d639 a418 c038
00000140: 951c dabe 4b20 8fbe 7dd0 f4be 4310 86be
00000150: 5d68 07bf 453a fabe da53 a9be 3c99 e8be
00000160: 354b bdbe abcb 84be 8060 90be ab4d 4ebe
00000170: b7cf cabe 25a7 c9be b1a9 aebe cf5e b3be
00000180: cf28 c9be ad82 b8be fa22 6fbe c9e2 eebe
-0.0028241065 -0.0005163892 0.00093861826 0.0009874117 0.0007880438 0.0007625251 1.4991267e-05 -0.004466433
-0.015936257 -0.037901334 -0.0068584112 -0.0063065356 -0.007931088 -0.009972046 -0.010095934 -0.009691116
-0.007454468 -0.005006681 -0.0046726903 -0.011513157 -0.26206943 -0.47222605 -0.31409714 -0.352906
-0.42347598 -0.29528087 -0.28519148 -0.3529127 -0.30147284 -0.3037013 -8.456778e-05 -0.0002247587
-0.00021199766 -1.3171215e-05 0.00014551436 -1.4446721e-05 -0.00011400692 -2.1803833e-05 2.025965e-05 -4.9861825e-05
-0.11873835 -0.23011972 -0.1803717 -0.16036038 -0.09660797 -0.1257292 -0.21386123 -0.0999157
-0.29060277 -0.19570732 -0.183862 -0.18227823 -0.30219457 -0.3396471 -0.21028316 -0.17239805
-0.31522188 -0.298425 -0.3728462 -0.2551857 -0.0012547724 -0.00064579817 -0.00050222303 -0.00046297436
-0.00017570218 -0.0013220719 -0.0016702398 -0.0019223471 -0.001242147 -0.00063895783 4.9252136e-05 0.00021021136
0.00021414517 -0.00023829463 -0.000118156284 0.00031498924 -0.00022702261 -0.00016741676 0.0004087381 9.159863e-05
-0.4259993 -0.27954325 -0.47815314 -0.26184282 -0.5289362 -0.4887258 -0.33071786 -0.4542941
-0.3697144 -0.25936636 -0.28198624 -0.20146815 -0.396116 -0.39385334 -0.3411384 -0.3503327
-0.39288947 -0.36037198 -0.23353186 -0.46657398

conv_long.bias f4 [10]
00000000: 72ba d8be 1a03 b8be edca abbe 8f4c e6bd
00000010: d782 fabe 7090 c0be 8df8 cebd c308 02bb
00000020: 83d1 76be 4967 8dbe
-0.42329746 -0.35939866 -0.33553258 -0.11245071 -0.48927948 -0.37610197 -0.10106001 -0.0019841648
-0.2410336 -0.27617863

conv1.weight f4 [30, 30]
00000000: 420b 17b9 af4e 1db7 02d6 8e36 e5d3 8638
00000010: 2ae3 dcb7 bc93 8bbe 75af 8739 ed16 97bc
00000020: a0e5 07b9 700e abbe aee0 d438 9936 19b9
00000030: b9d3 55be 74f9 bdbd 898d bfbd 1078 b4be
00000040: da26 8236 1fd8 adbe ebb4 1d38 1f00 bab6
00000050: d51c 96bd 5e6e bdb7 6808 53b7 9fa3 9fbe
00000060: 3441 0ebe b9b9 d3b7 673f bebe 7a15 a1b8
00000070: 61a8 64be 073b ebbe 055e 3236 16de d237
00000080: 7ffb 05b7 46d7 bd37 1e45 bd37 9a6f a837
00000090: 18c1 5eb7 0a56 ccb7 86aa 59bb 0725 b63a
000000a0: bfb8 d238 e28a 11bc 1faa 00ba 6f46 1ab8
000000b0: 9c91 16b8 0d67 1b36 f2f8 e3b6 1479 0ab9
000000c0: 9045 18b8 b284 8fb7 4597 b7b6 18f4 1d38
000000d0: 305e c436 387e 0bba 90c7 8c3b db0e 3c37
000000e0: fa2a 8f3a f5b7 40bc f612 263b f6b6 ddb7
000000f0: 0073 7ab5 3800 63b8 a894 8a35 ff44 20b7
00000100: facf 92b6 0eb9 c937 8c32 1ab6 96e2 e237
00000110: e4a0 6cbb 858c 9f3a 1300 0339 f1ea c1bb
00000120: 44bb 11ba 11a8 ddb7 c1fb 1db8 765d 2d38
00000130: 18ef 8835 0d78 b0b9 6b61 eab7 6c44 7937
00000140: 6733 98b7 76b2 9538 a113 5637 70a1 12ba
00000150: ca63 c83b e87a 0936 9e52 1b3b 732e 00bd
00000160: 7475 623b 0adc ec37 e837 8cb6 3505 fd38
00000170: 607c b2b6 0863 d936 1690 08b7 7ed5 2c37
00000180: 8ac6 e136 5dd9 b3b6 1b02 0737 a1e8 0eb7
00000190: b2b0 d2b6 a994 8c37 06d1 26b6 b08f 7ab6
000001a0: 1c1b 4736 00ac 7435 5893 6c35 e034 2db4
000001b0: be32 4837 26ed b5be b8c9 bcb5 8dff 9ab9
000001c0: 9e34 223f e4fb a036 eb98 0837 6c32 f735
000001d0: 75d4 2e37 e105 4637 1980 7bb7 9db6 9a37
000001e0: 2a21 97b6 0083 83b7 5cf4 cfb6 dbde a238
000001f0: c346 0437 8600 8eb8 74d1 a8b6 9601 92b6
00000200: 4f80 c039 e449 c8b9 43ee 4db8 40ee 0c37
00000210: 129b 5239 357a c637 fb0c a837 4de2 9837
00000220: 93ce cdb6 50f6 8639 bbfe 75b8 ee2c 0d37
00000230: d634 f736 da34 d537 fd98 b7b7 3461 2939
00000240: ab26 d6b9 ecb2 f636 02e0 feb9 3a0d b9bb
00000250: 0ac0 54ba 26d4 aeb5 9f32 bb36 fd49 1738
00000260: a867 bf36 545e e238 537f 6737 076f 32b8
00000270: 1237 8eb7 9287 9b36 23d6 9d39 792e bdb9
00000280: 5093 5ab7 da45 89b9 0184 1539 89c5 27b7
00000290: a1aa 46b7 9738 1638 d048 f7b6 0a2f 3639
000002a0: a9db cc37 5330 e7b6 eaed ea37 1b79 dcb7
000002b0: 52f2 40b7 d200 3139 463f 19ba 5f52 e8b6
000002c0: d218 07ba 280c 50bb 399a 1aba 181e c136
000002d0: 100a b938 6ba4 1637 0f5c 3eb7 c4e2 0c39
000002e0: c2d3 01b6 9dd3 b4be 5736 a4b9 7f47 21bd
000002f0: d9c6 c239 cc66 8cbe 0a70 a637 2a8e b8ba
00000300: a418 c6be 23d0 21be ffd3 ddbd fec1 bebe
00000310: 3394 2837 624e a0be b9a1 76b8 c061 01b5
00000320: 7504 87bd 99b5 8938 e51f 9e38 153d 8ebe
00000330: 728f cdbd afee 26b8 8340 f1be cafc a6bb
00000340: 3f35 b9be 72c5 16bf d21e 7ab8 0e95 2338
00000350: 9f14 0db8 6993 9037 f63c a236 3fb2 47be
00000360: 2657 9d39 9e2d 5bbc 44c1 b0bb 0498 4abe
00000370: 9c3e 1939 1acd 06bc 3d89 eabd d4fa b0bd
00000380: 9ec7 bcbd 59b2 5bbe d830 a836 7974 e5be
00000390: 5e4c 4bb8 961a 7536 7871 85bd b5ff 3538
000003a0: 662b eeb7 6265 c1be 8b79 e0bd 9c6d a7b8
000003b0: 87cc 4abe c405 c0bc 4bcc 12be 6e2f 77be
000003c0: 40c7 2437 460c 8837 30ad 79b6 bb9d 2eb8
000003d0: 87bd 0338 b7fb 75be 0542 c139 c95a 6bbc
000003e0: 56ae 69bb ce2f 0fbe 71b4 6b38 7fb1 3ebc
000003f0: 929d f7bd 001c dfbd 3c40 d4bd f234 dfbe
-0.00014404676 -9.376249e-06 4.2568436e-06 6.429086e-05 -2.6331825e-05 -0.2726115 0.00025879932 -0.018443549
-0.00012960145 -0.33409452 0.000101507976 -0.00014611556 -0.20881547 -0.09276095 -0.093531676 -0.3524785
3.878825e-06 -0.3395395 3.760021e-05 -5.543246e-06 -0.07329718 -2.258195e-05 -1.2578537e-05 -0.3117952
-0.1389206 -2.5239644e-05 -0.37157747 -7.6810786e-05 -0.22329856 -0.45943472 2.6578793e-06 2.5137368e-05
-7.985974e-06 2.26308e-05 2.2562741e-05 2.007913e-05 -1.3277189e-05 -2.435876e-05 -0.0033213212 0.0013896533
0.00010047992 -0.00888321 -0.00049081625 -3.6782058e-05 -3.5898396e-05 2.3156783e-06 -6.7941082e-06 -0.0001320581
-3.630441e-05 -1.710872e-05 -5.471435e-06 3.7659047e-05 5.85222e-06 -0.0005321237 0.0042962506 1.1209132e-05
0.0010922842 -0.011762609 0.0025340891 -2.643045e-05 -9.3299604e-07 -5.412122e-05 1.0325066e-06 -9.552808e-06
-4.3753507e-06 2.404724e-05 -2.297721e-06 2.7046812e-05 -0.003610664 0.0012172615 0.00012493161 -0.0059179
-0.0005559216 -2.6423515e-05 -3.766618e-05 4.1333456e-05 1.0202375e-06 -0.0003365878 -2.7940338e-05 1.4857487e-05
-1.8143748e-05 7.1381146e-05 1.2759964e-05 -0.0005593514 0.0061154114 2.0486132e-06 0.0023700367 -0.031294297
0.003455487 2.8235856e-05 -4.1788335e-06 0.0001206495 -5.3192925e-06 6.4786327e-06 -8.139779e-06 1.0301706e-05
6.7286355e-06 -5.35992e-06 8.047117e-06 -8.518023e-06 -6.2790577e-06 1.6758526e-05 -2.4857595e-06 -3.733654e-06
2.966909e-06 9.1147376e-07 8.8131264e-07 -1.6131116e-07 1.1932743e-05 -0.35532492 -1.4065799e-06 -0.0002956357
0.6336154 4.7976955e-06 8.141836e-06 1.8417609e-06 1.0420675e-05 1.18030885e-05 -1.4990591e-05 1.8443267e-05
-4.5040115e-06 -1.5677419e-05 -6.197528e-06 7.766272e-05 7.884289e-06 -6.771185e-05 -5.0311737e-06 -4.3513237e-06
0.0003671669 -0.00038202025 -4.9097707e-05 8.400122e-06 0.00020084929 2.3660346e-05 2.0033205e-05 1.8225192e-05
-6.1335245e-06 0.0002574199 -5.8649788e-05 8.414716e-06 7.3673245e-06 2.541619e-05 -2.188654e-05 0.00016153307
-0.0004084607 7.3522006e-06 -0.00048613554 -0.0056473287 -0.0008115774 -1.3025754e-06 5.5789274e-06 3.6070112e-05
5.7043108e-06 0.0001079409 1.3798318e-05 -4.254191e-05 -1.6953363e-05 4.6351424e-06 0.00030104918 -0.00036083514
-1.3028111e-05 -0.0002618272 0.00014258923 -9.999968e-06 -1.1841447e-05 3.581549e-05 -7.36965e-06 0.00017374396
2.4420982e-05 -6.889962e-06 2.8005761e-05 -2.6282438e-05 -1.1500511e-05 0.00016880341 -0.00058459153 -6.923728e-06
-0.000515354 -0.0031745527 -0.0005897615 5.7553516e-06 8.823362e-05 8.978978e-06 -1.1346317e-05 0.00013435917
-1.9345757e-06 -0.35317698 -0.00031321004 -0.039374825 0.00037150717 -0.27422178 1.9840914e-05 -0.0014080454
-0.38690674 -0.15802054 -0.10831451 -0.3725738 1.0048086e-05 -0.313098 -5.8801586e-05 -4.819849e-07
-0.06592647 6.566494e-05 7.539968e-05 -0.27780977 -0.10037126 -3.9799776e-05 -0.4711953 -0.005096053
-0.36173436 -0.5889503 -5.963335e-05 3.9001046e-05 -3.3636225e-05 1.723478e-05 4.835073e-06 -0.19501589
0.00030010304 -0.013377575 -0.005394133 -0.19784552 0.00014614541 -0.008227611 -0.114519574 -0.08641592
-0.092177615 -0.21454753 5.0124763e-06 -0.44815424 -4.8470094e-05 3.652332e-06 -0.06515783 4.339191e-05
-2.839202e-05 -0.3777266 -0.109606825 -7.983597e-05 -0.19804583 -0.02344025 -0.14335744 -0.24139187
9.821553e-06 1.6218179e-05 -3.72047e-06 -4.163173e-05 3.1409345e-05 -0.24021803 0.00036861017 -0.014364907
-0.003565689 -0.1398308 5.6196415e-05 -0.011638998 -0.12090601 -0.108940125 -0.10363814 -0.43595082

conv1.bias f4 [30]
00000000: 645d 56be debf 09bf 3715 94b9 3726 98bd
00000010: 5767 6fbe c621 e0be cd4b 4dbe e7ed f5bd
00000020: 7dc8 59be bff7 86be ca53 49bd 61c9 84be
00000030: f7e8 40be 14a7 6dbe 4b9c 5cbe 2f7c 07bf
00000040: d4d0 98be 2b66 0ebf 0406 1cbf 6ac1 81bd
00000050: 567a 0cbe 543c 2cbf 9737 383e f811 5cbe
00000060: 3117 54be 9d5f 92bd 5312 f4bd 1fd3 96be
00000070: e5c7 26be d572 f7be
-0.20934063 -0.5380839 -0.00028244566 -0.07429164 -0.23379265 -0.43775767 -0.20048447 -0.12008267
-0.21267886 -0.2636089 -0.049152173 -0.2593489 -0.18838869 -0.23208266 -0.21543996 -0.52923864
-0.29846823 -0.55624646 -0.6094668 -0.06335719 -0.13718542 -0.67279553 0.17989956 -0.2149123
-0.20711972 -0.07147143 -0.119175576 -0.29457948 -0.16287191 -0.48329797

conv2.weight f4 [30, 10]
00000000: f53a a336 49f5 f43d 2e37 4f3c d8bd c236
00000010: 4472 ae3c 192c a93d d0b5 c539 88f8 50b6
00000020: 1c33 e2b7 5c2e cfb6 cc92 c83d e918 013b
00000030: 5705 c33b 94c3 29b6 00b4 8a37 e218 053c
00000040: 180f 8837 4ea0 2ab6 30db 65b6 f5a8 43b7
00000050: 0a1c f6b7 a275 1db9 502a b5b7 c903 6237
00000060: daae 6638 5de1 9e38 e4e1 54b8 65fa 8837
00000070: 5005 7635 9f0d cfb6 a4d2 f736 9109 953e
00000080: 5cbe 7e3d e63c 5cbd 3626 f73c b9c7 0d3e
00000090: cc93 38b7 b14a 22bc dc10 6837 f73b 07be
000000a0: 0183 57bd 2747 aabd 6f80 52be 77c4 ccbc
000000b0: 0cd1 4d39 4a73 2f3d 2e79 5e36 550f 7a39
000000c0: b34a b037 f4fd 77bd 8345 1c38 4a83 84be
000000d0: 4ef9 89be 08a5 7a37 9c70 a2bd 3c3a bfbd
000000e0: fb62 aa37 6b5d 9837 5aa6 4ebe 69d0 80b6
000000f0: 0098 7135 0437 833d 5e81 b13c 11e3 2eb7
00000100: 7a07 ce3c 597f 553b 806c de39 96ca 50b6
00000110: 1c31 22b8 1e0e 20b7 dcce 7736 9527 ff39
00000120: ceb6 0ab9 13a7 a9b7 90aa 6037 07c6 54b9
00000130: 425f 0837 7699 36b7 da28 bbb8 8fd6 9537
00000140: 94bd 86b7 a8c3 923e d336 5a3e 241d d0bd
00000150: 6fdc 493e 4796 493e 493f 4bb7 4fa2 c4bd
00000160: a6b4 12b9 ace6 92be bf2a e438 610a adbe
00000170: 53b5 1dbf 77b5 f6bd 79f0 05be 6304 f7be
00000180: 5cc1 43b9 741e 8cbb cbae 9abd 6b66 62bd
00000190: dab8 8b37 5bad 143e 903f 793e 9182 1dbe
000001a0: 0f21 e33d 1141 e13d f929 3f37 73fc c6bd
000001b0: 8d06 ceb8 a9aa e1be 769e b836 3968 0039
000001c0: a6cf 2439 768c b138 1635 5538 3cd7 4eb9
000001d0: d2d1 23b7 b65f 93b8 23b8 21b8 e232 4eb8
000001e0: 4f7e a0b8 a811 b6be f854 cabd 28e0 86bd
000001f0: bcf5 7fbe 4f1c 01bf a3e0 d938 1434 6537
00000200: 7bad f1be 88a2 29bd f387 dbb6 3635 9ab7
00000210: f4cd cab8 0ffd 07b7 e995 9cb8 20c8 7938
00000220: bc0d 4a37 1bee c937 d7bb 61b8 5042 b6b6
00000230: f622 9737 5090 0abd d49a 97ba 7089 6db7
00000240: 90de 4db6 4508 1abc bd74 28b6 a4b3 b3b6
00000250: 1c2f 48b9 5230 6bb7 9904 ab38 e408 81be
00000260: ba64 1fbe 1dc0 a3b7 6eeb 72be c7c2 e1be
00000270: 87d1 4837 3c3f f7b6 8b2e a1bd c827 7e38
00000280: 32eb 6a37 e96f 903c 1d04 9638 ca53 99b8
00000290: 896c ec39 a92a 7fb8 3eb6 2db7 0a02 b537
000002a0: cf49 86b7 acdb 8338 af9b abb8 ba56 bebe
000002b0: 317c 03be c547 dc38 b506 44be 7b30 2abe
000002c0: 68af a6b5 2bb7 b738 aa64 5bbe 46f4 98b9
000002d0: 4c3e 1f3a 5f0b 4e3d 8a85 5a3b 3d02 f6bc
000002e0: a29d bc3a fd94 f03c b41a 0737 a09c f139
000002f0: 82cc 9838 284b bcbd caa4 2a3b 08bb 013e
00000300: 5d26 903e 669d b5b6 a367 3eb8 7b25 4a3e
00000310: 3874 1ab5 cc55 dfb5 6f20 a3b7 c097 6d36
00000320: 2b2e 96b8 8b86 ecbe 6ed0 a2be e292 9d36
00000330: b61d 5ebe 9b4b 8cbe 3895 f536 5cee 5a36
00000340: 54f8 97be 704d 73b7 8316 a2b9 21db 903d
00000350: ca4f 133a 0385 65bc 7c18 40ba 612d 943c
00000360: 5066 a235 7b41 83b8 b0fe eb35 8101 a3bc
00000370: 7ac1 39bd 9d7d 9d3e 1ce8 293e 64e2 6737
00000380: 2051 0fbe c904 7e3e 50df ef37 2187 3db7
00000390: 737b 54b6 62cf 28b6 521e 1f38 6e0a 1dbe
000003a0: b0bc 88be 1fae fdbd 442b a5be 2ade d1be
000003b0: 7650 4138 24c1 dfbc edcc 0dbe 8834 c0bd
000003c0: c434 bbb8 dd77 b3be 6bd6 e3be f40c ddbd
000003d0: 35e7 3cbe e455 35bf c00c c3b7 490b dfbc
000003e0: 36ee 24bf f96e 95be e0c1 6235 00c6 ef3d
000003f0: 3f40 403c 4091 af33 a5f8 d03b 540a e23c
4.864642e-06 0.11960847 0.012647433 5.8037513e-06 0.02129472 0.08260364 0.0003771023 -3.113908e-06
-2.69651e-05 -6.1744777e-06 0.09793624 0.0019698686 0.0059515643 -2.5296804e-06 1.6534701e-05 0.008123608
1.6219492e-05 -2.5425284e-06 -3.4251243e-06 -1.1662244e-05 -2.9338542e-05 -0.00015016508 -2.1596585e-05 1.3471531e-05
5.4999116e-05 7.576004e-05 -5.0755116e-05 1.6329062e-05 9.164987e-07 -6.1706664e-06 7.3856954e-06 0.2910886
0.06219326 -0.053769015 0.030169588 0.1384572 -1.1001666e-05 -0.009905503 1.3832203e-05 -0.13206469
-0.05261517 -0.083143525 -0.20556806 -0.024996025 0.000196282 0.042834558 3.3151114e-06 0.0002384757
2.101562e-05 -0.060544923 3.7258036e-05 -0.25881416 -0.26948017 1.49395855e-05 -0.07931635 -0.09337279
2.031167e-05 1.8163313e-05 -0.20180646 -3.8389594e-06 9.0000685e-07 0.06406978 0.021668132 -1.0424076e-05
0.02515005 0.0032577126 0.00042423978 -3.1112336e-06 -3.8669546e-05 -9.54003e-06 3.6926276e-06 0.0004866688
-0.00013228806 -2.022417e-05 1.3391153e-05 -0.00020291666 8.128411e-06 -1.0883776e-05 -8.924464e-05 1.7862096e-05
-1.6062324e-05 0.286649 0.21309976 -0.10161808 0.19712995 0.19686233 -1.2114478e-05 -0.096012704
-0.00013990942 -0.28691614 0.00010879849 -0.3379698 -0.61604804 -0.120463304 -0.13080014 -0.48245534
-0.00018668681 -0.0042760912 -0.0755287 -0.055273455 1.665617e-05 0.14519255 0.24340653 -0.15381838
0.1109029 0.109987386 1.139426e-05 -0.097161196 -9.824066e-05 -0.44075516 5.5020746e-06 0.00012245857
0.00015717614 8.4661806e-05 5.0832597e-05 -0.00019725872 -9.76441e-06 -7.027334e-05 -3.8556882e-05 -4.9161616e-05
-7.652921e-05 -0.35560346 -0.09879488 -0.06585723 -0.24996084 -0.5043382 0.00010389208 1.3661589e-05
-0.47202668 -0.041414768 -6.542535e-06 -1.8383009e-05 -9.670472e-05 -8.105547e-06 -7.4665826e-05 5.9552607e-05
1.2043336e-05 2.4071944e-05 -5.381912e-05 -5.4317425e-06 1.8016883e-05 -0.033829033 -0.0011566528 -1.41583005e-05
-3.067693e-06 -0.009401386 -2.5101901e-06 -5.3555286e-06 -0.00019091036 -1.4018342e-05 8.154772e-05 -0.25202096
-0.15565768 -1.9520574e-05 -0.23722622 -0.44093916 1.1969713e-05 -7.368535e-06 -0.078702055 6.059537e-05
1.4002248e-05 0.017631488 7.1533235e-05 -7.3112154e-05 0.00045094293 -6.0836468e-05 -1.0354035e-05 2.1577831e-05
-1.6008415e-05 6.287484e-05 -8.182914e-05 -0.37175542 -0.12840344 0.000105037856 -0.19143184 -0.16620056
-1.2419014e-06 8.760238e-05 -0.21425119 -0.00029173697 0.00060746516 0.050303813 0.0033343756 -0.030030364
0.001439024 0.029367918 8.052844e-06 0.00046083797 7.286017e-05 -0.091940224 0.0026038163 0.12669003
0.2815427 -5.412544e-06 -4.539605e-05 0.1974086 -5.753859e-07 -1.6639765e-06 -1.9446217e-05 3.5404082e-06
-7.161157e-05 -0.46196398 -0.31799644 4.696064e-06 -0.21691021 -0.27401432 7.3189403e-06 3.2623275e-06
-0.29681647 -1.45019585e-05 -0.0003091582 0.070730455 0.00056194945 -0.014008763 -0.0007327867 0.018088045
1.2099717e-06 -6.2587635e-05 1.7582988e-06 -0.019898178 -0.04535053 0.30759898 0.16592449 1.3821384e-05
-0.1399579 0.24806513 2.8595008e-05 -1.129674e-05 -3.1662319e-06 -2.5154663e-06 3.7936792e-05 -0.1533601
-0.26706457 -0.123867266 -0.32259572 -0.4098981 4.608972e-05 -0.027313776 -0.13847704 -0.093850195
-8.926683e-05 -0.35052386 -0.44499525 -0.10793486 -0.18447573 -0.70834184 -2.3251749e-05 -0.02722706
-0.6442598 -0.29186228 8.4473686e-07 0.117076874 0.011734067 8.175493e-08 0.006377297 0.027592815

conv2.bias f4 [10]
00000000: 888f b13c 65a8 863e 5977 773e dd49 62be
00000010: 0e75 b4be 2c02 743e a347 10be 1e48 83be
00000020: 6a4f 55be f7dd 91be
0.021674886 0.2630035 0.24166621 -0.22098489 -0.35245556 0.23828954 -0.14089827 -0.2564096
-0.20831075 -0.28489658

rnn.weight_ih_l0 f4 [30, 1]
00000000: d1ab 3fbf 8c8a a33e 1132 44bf cb4c 4f3f
00000010: afe2 8cbf 8ac9 3fbf f3b5 3bbe e935 e1be
00000020: a8f6 563f 2113 fbbe 75dc 023f ba48 763f
00000030: 64e3 a93f fdef fabe 7415 04bd f74c ffbe
00000040: 57dd bc3d 65c7 103f 3ad5 4c3f 3897 11bf
00000050: 5303 45bf 9b15 47bf 4bee 89bf c6f0 2ebe
00000060: b460 23bf 9caf a3bf 63a7 393f 197a 763f
00000070: 8983 a0be a882 3c3f
-0.74871546 0.3194164 -0.76638895 0.8097655 -1.1006678 -0.749169 -0.18331127 -0.43986443
0.8397012 -0.49038032 0.5111764 0.9620472 1.3272519 -0.49011222 -0.03224702 -0.49863407
0.09221905 0.5655425 0.8001286 -0.56871367 -0.769582 -0.7776734 -1.0775846 -0.17084035
-0.6381943 -1.2787967 0.72521037 0.96280056 -0.31350353 0.73636866

rnn.weight_hh_l0 f4 [30, 30]
00000000: 51b5 04bf 69bc 1e3f 2f3b 2b3d 7060 50bd
00000010: 39d6 f2be e395 7b3e 4c7e 013d 3403 d63e
00000020: ea8f 1a3e e641 b33e 49b4 96bf 3c1e 5cbf
00000030: b5da ccbd 4bbb f63e 90fe 9f3c 4c32 4c3f
00000040: 82e1 c23d 7739 13bf 8344 1dbf 3c54 8e3e
00000050: 6278 92be 9038 843e 5117 a23e b50f 183f
00000060: b32d 9ebe a4cc 56bf fc8f fcbd a763 1cbe
00000070: c8aa 623d 1f48 04be 7bbf d03d 9046 bbbd
00000080: c83b a4bf 4dd7 9e3f 9640 763e 77d4 3ebf
00000090: 5bd9 9bbf d57c 03bf b3a4 8a3e f8d4 d83d
000000a0: aae2 2c3f 829b 743f b46d 4a3e e7e8 47be
000000b0: 6aea b33e 6f1b 53bf 4848 54bf 766f f13d
000000c0: a66a d13e be1d 47bf 7909 8cbf 44be 8dbf
000000d0: 4bc1 0fbe 0a48 93bd f18f 9a3e ccdd 073f
000000e0: 921e a13e 64cf a93f 31a8 153f 1806 383d
000000f0: b76f 15be 52c2 d23e 931c 83be 2779 24bf
00000100: 6f70 dbbe 7007 e63e d3dd 8f3e 7066 0e3f
00000110: 4a5e 2c3e f84e 833e 304d d4be 35ec 8bbf
00000120: a78c 40be c1f2 af3e 9ed9 f43e 3b32 ec3d
00000130: 3fff 993e 55f6 1dbf ac88 e0be ae1b 033f
00000140: 16c0 d93c 70e2 d03e c6d2 443e 5c1c be3e
00000150: 7e41 693d a310 65bf 4d82 dd3d d73a cf3c
00000160: cfde 24bd e6ca 01bc e4c6 1c3f 7fcd 08be
00000170: c3fb db3e 3fc4 4dbc cb3b 633f d587 f0be
00000180: 3a16 493f 4c98 163f ec57 83bf 6329 5fbf
00000190: 8123 a43c 57fb 553e 795a 993e 71e9 cabe
000001a0: ba39 74bf 79e6 543c 6331 9cbe feaa 143f
000001b0: c786 153e 6aba 643e fa5e 813f 1609 76be
000001c0: 4902 1f3e 650d 4bbe c07c ffbe b071 ed3e
000001d0: cda3 af3e 79c6 6ebd 2b53 d1be 7a99 3ebc
000001e0: 85ea 463d be72 32be bad6 953f 3972 d4bf
000001f0: 9ce9 bbbc bc99 133f e7dd a13f 4b42 333f
00000200: 6e41 48be f212 ccbe 3526 4bbf 30b5 cabe
00000210: 8aee 2ebe 5529 d63e c4a3 0bbf 983e 523f
00000220: 832d ec3e a140 b4bd d373 d4be 9cea a23f
00000230: 45ee 9a3f 30f1 cb3f fe8d 523e e015 d1be
00000240: 8020 11bf 3cee 51bf 1a51 943e 9bb1 99bf
00000250: 4679 123e 5182 123f 4946 b4bf 9533 34be
00000260: db98 60bf 17f9 4d3e 84ce d8be 4680 0ebd
00000270: 6e48 8cbf 797c 31be cbd5 ac3f 7944 433f
00000280: 51e6 673f 5249 023f a323 b8bd 2758 72be
00000290: 6bce d63e 5ff8 2bbf 609a f63b 3f80 db3d
000002a0: 9c67 d83e 7c6d 9dbf 99f6 8abf ffe2 a3bf
000002b0: 72bd 51be 890b 413e 922a 0c3f 1a4a 8f3d
000002c0: 5754 cfbe ff9f 853f 5ceb f13e 32ac 913e
000002d0: e163 69bd 93e8 903f e3ff 10be d224 9d3d
000002e0: 8cad 2abf 748d 073f b4db d5be b148 f4bd
000002f0: 94a7 ba3e cced f53e 1422 05be fbd0 a8be
00000300: 5a86 b63f 636c eebe 6964 6b3d 4637 acbd
00000310: e93f 483f 365b 3a3f cd6b 7fbf b5e5 1cbd
00000320: affc d0be e71f 4a3d 4644 a03e 701a 493f
00000330: 4007 87be e3bb aabf c102 4dbe f06e f03e
00000340: da97 033e 4499 833d e878 49bf 0d5f 803f
00000350: 6f0f 1e3e c803 8d3e 700a d5bf f611 26be
00000360: a217 62bf 7736 3fbd 8cad 563f bea6 d33e
00000370: 0c8e a6be acb4 0c3e 4834 4a3f d6be 05be
00000380: f8e3 3dbe c90b 9d3e 11b5 ba3e b3fb b33f
00000390: 1de6 7fbf 4f48 1ebe b4e2 5ebf 55dc 11bf
000003a0: d767 2e3f 5d16 0b3e 3a17 62bf 5569 39bf
000003b0: 48d0 133f 9c5f a83e 722c 14bf 6b3d 7c3e
000003c0: 6524 c53e 10fe 4dbe 1e06 8d3e c73e ea3d
000003d0: c7e2 193f 7c5c 15bf 025b 9bbd 9bfa 93bd
000003e0: 4758 02bf 51b0 07bf f93c 5e3f f5ca 9c3f
000003f0: 766a 22bd 3f30 3cbf 432a dfbe d606 9ebe
-0.51839167 0.6200624 0.04180449 -0.05087322 -0.47429064 0.24568896 0.031614587 0.4179932
0.15093961 0.35011214 -1.1773769 -0.85983634 -0.100026526 0.48189768 0.019530565 0.79764247
0.095156685 -0.5750956 -0.61432666 0.2779864 -0.2860747 0.25824404 0.31658414 0.5939897
-0.3089424 -0.83906007 -0.1233215 -0.1527239 0.05533865 -0.12918137 0.10192772 -0.09144318
-1.2830744 1.2409455 0.24048075 -0.74542946 -1.2175707 -0.51362354 0.2707878 0.105874956
0.6753336 0.95549786 0.19768411 -0.19522439 0.3513978 -0.82463735 -0.8292279 0.117888376
0.4090168 -0.7777976 -1.0940391 -1.107369 -0.14038579 -0.07191475 0.30187944 0.5307281
0.31468636 1.3266416 0.58459765 0.044927686 -0.14593397 0.4116388 -0.25607738 -0.64247364
-0.42859218 0.4492755 0.28098926 0.5562506 0.16832843 0.25646186 -0.4146514 -1.093146
-0.18803655 0.34364894 0.4782228 0.11533018 0.3007755 -0.61704 -0.43854272 0.5121411
0.026580852 0.40797758 0.19221029 0.3713101 0.056947224 -0.8947851 0.108158685 0.025296612
-0.04025155 -0.00792191 0.61240983 -0.1335964 0.42965516 -0.012558996 0.8876311 -0.46978632
0.7854954 0.58826137 -1.0261207 -0.87172526 0.02003646 0.2089666 0.29951838 -0.39631227
-0.95400584 0.012994402 -0.3050643 0.58073413 0.14602195 0.22336736 1.010711 -0.24026904
0.15528215 -0.19829328 -0.49899864 0.463758 0.34304658 -0.058294747 -0.40883765 -0.011633271
0.0485635 -0.17426583 1.1706154 -1.6597358 -0.022938542 0.57656455 1.2645844 0.7002303
-0.1955621 -0.39858204 -0.79355174 -0.3959136 -0.17083183 0.4182841 -0.5454676 0.8212676
0.46128473 -0.088013895 -0.41494617 1.2727847 1.2103964 1.593298 0.20561978 -0.40837002
-0.56690216 -0.8200414 0.28968126 -1.2007326 0.14304075 0.572301 -1.4083949 -0.17597802
-0.8773324 0.20114551 -0.4234506 -0.0347903 -1.0959604 -0.17332639 1.3502744 0.76276356
0.9058581 0.5089313 -0.08991172 -0.2366644 0.4195436 -0.6717586 0.007525727 0.107178204
0.42266548 -1.2299037 -1.0856506 -1.2803649 -0.20482424 0.18852057 0.5475246 0.069965556
-0.40494034 1.0439452 0.47249877 0.28451687 -0.056980018 1.1320976 -0.14160113 0.076730385
-0.6667106 0.52950215 -0.41769183 -0.11927927 0.36455977 0.48032987 -0.13001281 -0.3297194
1.4259751 -0.46567068 0.057468805 -0.0840898 0.7822252 0.72795427 -0.99773866 -0.038305003
-0.40817782 0.04934683 0.31302088 0.78555965 -0.2637272 -1.3338588 -0.20020582 0.4695964
0.12850896 0.064257175 -0.78700113 1.0029007 0.15435575 0.27541947 -1.664381 -0.16217789
-0.8831731 -0.0466828 0.8385856 0.41338152 -0.32530248 0.13740796 0.78986025 -0.1306108
-0.18543994 0.30673054 0.36466268 1.4061188 -0.999605 -0.15457271 -0.8706467 -0.56976825
0.681272 0.1358275 -0.8831669 -0.7242635 0.57739687 0.32885444 -0.5788032 0.24632804
0.3850433 -0.20116448 0.2754373 0.11437755 0.6011166 -0.58344245 -0.07585718 -0.072255336
-0.5091595 -0.5300341 0.86811787 1.2249438 -0.03965231 -0.7351112 -0.4358693 -0.3086459

rnn.bias_ih_l0 f4 [30]
00000000: 2e41 3cbf 168f 733f c606 23bf 2d0b 773f
00000010: 12be 87bf faba 0fbf 6952 18bf dcae cfbe
00000020: 995e 523f 63bb 9dbe b89d d63d e102 973f
00000030: a47c 813f bd73 27bf 6590 d0be 7b57 0cbd
00000040: 48e9 473d 981d 7f3f dd7c 433e 80d0 04bf
00000050: 3dae 87bf 7011 33bf ea28 29bf f183 593e
00000060: 378f 25bf dc3d 96bf 4b14 f33e 7be6 833f
00000070: b8a8 2bbf 7624 0f3d
-0.73536956 0.95140207 -0.6368221 0.9650143 -1.060488 -0.5614468 -0.5950075 -0.40563095
0.82175595 -0.30807027 0.10479301 1.1797754 1.0116162 -0.6541098 -0.40735164 -0.034263115
0.04880646 0.9965453 0.190906 -0.51880646 -1.0600048 -0.6994848 -0.66078055 0.21241738
-0.64671654 -1.1737628 0.4747642 1.0304712 -0.6705432 0.03494688

rnn.bias_hh_l0 f4 [30]
00000000: c623 3ebf 6212 3d3f d149 e7be 059c 7b3f
00000010: f843 8abf 5f79 43bf 344b 16bf e2e0 44be
00000020: af8a 753f c5ce c3be f62e ce3e 3e60 8c3f
00000030: 916b a13f 9a0e 29bf 3f31 b3be 2440 873e
00000040: 3e7b 0d3c fbe4 833f 64bf 753e 688a 47bf
00000050: a047 5fbf 8823 d0be 6a44 1bbf 3e62 8d3e
00000060: dac8 3abf 8c2f 83bf 0044 103f 7b81 3f3f
00000070: 9ec1 bcbe 5e42 123e
-0.74273336 0.73856175 -0.45173505 0.9828494 -1.0801992 -0.7635707 -0.587085 -0.19226411
0.9591474 -0.3824369 0.40270203 1.0966871 1.2610952 -0.66037905 -0.3499851 0.26416123
0.00863534 1.0304254 0.23998791 -0.77945566 -0.87218666 -0.40652108 -0.60651267 0.27614015
-0.72962725 -1.0248885 0.5635376 0.74806947 -0.36866468 0.1428313

out.weight f4 [1, 40]
00000000: e3b3 b2bb 394c eabd e30b f4bd 55ab ac3e
00000010: 52ce 96be 1883 e5bd 25cb 333e b398 eeb9
00000020: 8f0a c2be 880e 603e e079 213e db5e 68be
00000030: 8f2b 873c ba48 d8bd c031 9fbe ac82 a73d
00000040: ccdc 4a3e 983e 57bd 2c04 d7bd 4ac6 f7be
00000050: 8309 bf3d 396c 98bc 860f 803e 64ee 423d
00000060: c06b 9a3d 3a3f 45be ee98 07be 1201 c4be
00000070: 6488 0d3f d5aa dfbe 21e7 0dbd b5b2 ffbd
00000080: 7680 773d 62b8 ba3e 178d 593e 3828 013d
00000090: 5a83 b7be 010a 39be 9077 3d3e 8fda e9bd
-0.005453573 -0.114403196 -0.1191633 0.33724466 -0.29454285 -0.11206645 0.17557962 -0.00045508667
-0.3789868 0.21880543 0.15769148 -0.22692434 0.016500263 -0.105607465 -0.31092644 0.081792206
0.1981079 -0.05254993 -0.104988426 -0.4839347 0.09327986 -0.018606292 0.25011843 0.04759063
0.07540083 -0.192624 -0.13241932 -0.38282067 0.5528624 -0.43685022 -0.03464425 -0.124852575
0.060425244 0.36468798 0.21245228 0.031532496 -0.358424 -0.18070222 0.1850264 -0.1141864

GRU2.weight_ih_l0 f4 [90, 1]
00000000: d1a2 9e3d a227 bdbd e3e6 9bbf bb5f 49bf
00000010: 3446 833b 1a34 a5bd 0eac 60bd be0f 253e
00000020: a1f7 37bb 80a2 7abe b11d aebe b89f 883d
00000030: 2bfb 6cbd bc66 efbb 53cd b7bd b5a8 78be
00000040: 640d 69be d819 e8bd 3d71 ec3d 8663 a6be
00000050: 31fa 76bd bce5 34be 1a8b 80be 01b8 87bd
00000060: c971 a1be 94d8 41bf 8669 dc3d 115c aebf
00000070: e75f 3f3d 5917 08be 7d17 193f afec 563e
00000080: bd0a 02c0 3716 e6bf 713c f8bd 298b 2d3e
00000090: 6c8b af3e 31d4 11bd 36da 8b3e 88f8 2dbe
000000a0: 7626 ff3e b531 a93e 1a33 b1bf c76f ca3d
000000b0: 2d3f d5bd a4e4 febe 7b79 0f3e f8bc 113f
000000c0: 732e 543e 8da0 8e3c 3afd 7d3e 94b2 b2bf
000000d0: 44cf 03c0 f6dd 9c3d 059f 3f3e ff72 0c3f
000000e0: 3302 5c3e 0d9b d1bf eb89 fc3d 1d4e a03d
000000f0: 7f27 303e 4279 d4bd 8fe0 0840 ade0 1640
00000100: 2ecd 4c3f 3f84 133e c270 24bd 4ebd 01be
00000110: 6db8 6f3f c376 c13f e644 063f fd73 18bd
00000120: 959d 0140 903d 29bf eb6f 7a3f d3fc e6bf
00000130: 1f0e b23d 5bad 873e bb72 bbbe ce94 2a3f
00000140: 20a0 6abe 0de1 f83f f9be 0f40 de79 093e
00000150: 7b23 07be 6e4d 2c3f 2755 9ebe 4c3e 1340
00000160: 03f8 31bf 5930 2a3d
0.077458985 -0.09236075 -1.2179836 -0.786617 0.0040061716 -0.08066578 -0.054851584 0.16119286
-0.0028071182 -0.24476051 -0.34007028 0.06671089 -0.05785672 -0.007305948 -0.08974709 -0.24283107
-0.22759014 -0.11333054 0.11545036 -0.32497805 -0.060297195 -0.17665762 -0.25106126 -0.06626893
-0.31532124 -0.75721097 0.107623145 -1.3621846 0.04672232 -0.13290156 0.59801465 0.20988725
-2.0319054 -1.797553 -0.12120903 0.16947617 0.34286058 -0.035602752 0.2731492 -0.16989338
0.4983403 0.33045736 -1.384372 0.09884601 -0.104124404 -0.49783814 0.14011185 0.5692897
0.20720844 0.017410541 0.2480363 -1.3960748 -2.0595255 0.07659523 0.18713005 0.5486297
0.21485214 -1.6375443 0.12330993 0.07827399 0.17202567 -0.103746906 2.138706 2.3574631
0.8000058 0.14405917 -0.040146597 -0.1266987 0.93640786 1.5114368 0.5244888 -0.03721999
2.025243 -0.6610956 0.97827023 -1.8045906 0.086941 0.26499447 -0.3661097 0.6663331
-0.22912645 1.944368 2.246031 0.13425395 -0.13197128 0.6730565 -0.3092434 2.3006773
-0.6951906 0.041550014
