colagnn-master-Run-Epi/src/save/cola_gnn_epi.us_states_covid_mov_14.w-20.h-4.RNN.lam-0.1.epo-500.pt (torch, 61046 bytes, 32 tensors)

V f4 [15]
-4.2942534e-06 -8.3338935e-05 1.451675e-06 -8.582998e-07 -0.0023095442 -5.795937e-06 0.0005247734 -3.4221466e-05
3.4546251e-06 -0.0019000841 0.000110048175 0.0015361616 1.3891676e-05 0.00013023784 0.0003263742
00000000: 5b17 90b6 40c6 aeb8 2cd7 c235 ea65 66b5
00000010: b95b 17bb b87a c2b6 f290 093a 0589 0fb8
00000020: 02d6 6736 3e0c f9ba aac9 e638 0859 c93a
00000030: 4b10 6937 7490 0839 341d ab39

W1 f4 [15, 30]
9.510029e-08 2.3194775e-07 -3.529184e-07 -1.5670319e-06 -9.923485e-08 2.1809217e-07 -1.3265665e-07 1.4676824e-06
-2.9047283e-07 7.090637e-08 8.853078e-08 -4.936711e-07 -9.7141765e-08 3.0181377e-07 -2.9254056e-07 2.6537123e-07
-7.6310005e-07 -1.2906924e-07 2.1537494e-07 -1.7763205e-07 4.2349197e-06 -4.7251024e-07 3.8413737e-07 1.8519836e-07
1.3003648e-07 6.432887e-07 -1.6596341e-06 -1.279071e-06 1.8105433e-06 9.748951e-07 -3.4899327e-05 2.6280235e-05
-3.0501971e-05 3.6594403e-05 2.6182759e-05 2.5681264e-05 5.562635e-06 -3.9853225e-05 -2.993923e-05 3.0603525e-05
4.9006608e-06 -2.7797636e-05 -2.7847858e-05 2.8784634e-05 3.3088032e-05 -2.9040417e-05 -2.3468376e-05 3.053089e-05
-3.891983e-05 -2.4915342e-05 -2.7452032e-05 3.3372668e-05 2.760471e-05 -3.4514473e-05 2.830158e-05 4.539678e-05
3.769214e-05 3.239855e-05 -3.7391866e-05 -4.118064e-05 -1.5360047e-07 2.3455372e-07 -2.1862701e-07 1.1273197e-07
1.7745222e-07 2.0449976e-07 -2.1459721e-07 -8.150678e-08 -2.2340113e-07 2.2131039e-07 -1.5857387e-07 -2.1948051e-07
-2.1348345e-07 1.9466113e-07 1.4568482e-07 -2.134201e-07 -2.5836982e-07 2.1369848e-07 -1.4938598e-07 -1.9007035e-07
-3.250405e-07 1.9431118e-07 2.2562992e-07 -1.9834711e-07 1.9027678e-07 7.5020677e-07 6.9202414e-08 9.638176e-08
-8.676461e-08 -1.0325366e-07 6.0432774e-07 -6.3310813e-07 6.194871e-07 -5.5311466e-07 -5.857439e-07 -5.959562e-07
1.4410041e-07 5.2369074e-07 6.2703356e-07 -6.264992e-07 9.0884456e-10 6.2388614e-07 6.205295e-07 -6.279326e-07
-6.078988e-07 6.2766065e-07 6.261746e-07 -6.1902534e-07 6.0503817e-07 6.183246e-07 2.873056e-07 -6.1685836e-07
-6.2720665e-07 6.2018944e-07 -6.220477e-07 -5.558041e-07 -5.320478e-07 -5.476192e-07 5.6030103e-07 5.595497e-07
-0.0003940273 0.00056310924 -0.0005855113 -0.00063232915 0.00059402216 0.00064649154 -0.00047863537 0.00063093903
-0.00054898486 0.0005430961 -0.00017303473 -0.0006385222 -0.0006289882 0.0005700222 0.0003022891 -0.00047458528
-0.0006239084 0.00049644953 -0.00043383057 -0.0005773723 0.00042374036 0.00027938717 0.00057287724 -0.00040589974
0.0005410394 -0.00041146704 -0.0006962059 -0.000560084 0.00069453707 0.00029760465 1.2329987e-05 1.3136396e-05
1.0522535e-05 -4.369782e-06 -1.1519501e-05 -1.2703456e-05 1.1278155e-06 8.74242e-06 -1.6721187e-06 -1.2807221e-05
-4.023817e-07 -5.914061e-06 3.7327054e-06 -4.0782893e-06 3.6741935e-06 5.8711535e-06 1.1434383e-05 -1.2197234e-05
-2.1186738e-06 -8.3458635e-06 -8.414153e-06 6.0737716e-07 -1.421876e-05 1.0265105e-06 1.3031976e-05 1.6443471e-05
-5.4480006e-07 -7.84978e-06 -1.9937625e-06 -9.4001425e-06 0.00016902445 -6.3888016e-05 -0.00018502522 -4.8154725e-05
-0.00016815598 -0.00018869649 -0.0001472252 9.356582e-05 -0.000154699 -0.00017211658 -2.7817896e-06 0.00022200166
0.00022136382 -0.000102829465 -8.84313e-05 4.753041e-06 -3.457015e-05 0.0001826551 -9.6885866e-05 -6.645651e-05
0.00018881253 -0.000119203585 5.832604e-06 -0.00010973503 -0.0001709269 -6.449598e-05 -0.00010907807 -4.5817324e-05
0.0001059323 -6.541166e-05 -1.4771312e-05 1.4815696e-05 -1.4929482e-05 -4.630971e-06 1.4239004e-05 1.4090069e-05
-3.7343016e-06 -6.128637e-07 -1.48758945e-05 1.4895508e-05 -7.493299e-07 -1.5056608e-05 -1.4957698e-05 1.4790529e-05
1.4278042e-05 -1.3625841e-05 -1.5029817e-05 1.4092744e-05 -1.4897814e-05 -1.4781166e-05 4.89186e-06 1.2117052e-05
1.4952919e-05 -1.4130636e-05 1.4639813e-05 1.4203251e-05 -4.6488703e-06 2.8019172e-06 7.089334e-06 -8.066181e-06
7.5990533e-07 -6.837006e-07 7.275422e-07 -7.9230506e-07 -7.258436e-07 -6.3879986e-07 9.504122e-08 8.3662337e-07
7.187968e-07 -7.154382e-07 -1.7686846e-08 7.261276e-07 7.1231204e-07 -7.1274144e-07 -7.5612536e-07 7.6168027e-07
00000000: f039 cc33 500d 7934 bc78 bdb4 ce52 d2b5
00000010: f01a d5b3 b82c 6a34 6270 0eb4 2ffd c435
00000020: 48f2 9bb4 3045 9833 501e be33 d284 04b5
00000030: 409c d0b3 f808 a234 780e 9db4 5878 8e34
00000040: d6d7 4cb5 4896 0ab4 d041 6734 20bb 3eb4
00000050: af19 8e36 50ad fdb4 703b ce34 f0da 4634
00000060: 28a0 0b34 76ae 2c35 98c0 deb5 8bac abb5
00000070: cb01 f335 24d9 8235 de60 12b8 6074 dc37
00000080: 7cde ffb7 f17c 1938 0ca3 db37 186e d737
00000090: aca6 ba36 1328 27b8 0226 fbb7 495c 0038
000000a0: 5b70 a436 f82e e9b7 d29a e9b7 8876 f137
000000b0: 01c8 0a38 d29b f3b7 f4dd c4b7 4b0e 0038
000000c0: d93d 23b8 4a01 d1b7 ca48 e6b7 a1f9 0b38
000000d0: aa90 e737 a2c3 10b8 2e69 ed37 6c68 3e38
000000e0: a117 1e38 aee3 0738 36d5 1cb8 60b9 2cb8
000000f0: 60ed 24b4 a3d9 7b34 bcbf 6ab4 0e17 f233
00000100: b289 3e34 7794 5b34 086c 66b4 d408 afb3
00000110: 09e0 6fb4 56a1 6d34 7444 2ab4 58aa 6bb4
00000120: e239 65b4 0b04 5134 8a6d 1c34 7828 65b4
00000130: 14b6 8ab4 fe74 6534 e866 20b4 2416 4cb4
00000140: 3a81 aeb4 daa3 5034 ae44 7234 3df9 54b4
00000150: e24e 4c34 d161 4935 6e9c 9433 6ffa ce33
00000160: 5953 bab3 4dbc ddb3 1639 2235 dcf2 29b5
00000170: d44a 2635 c079 14b5 043c 1db5 ccf9 1fb5
00000180: 05ba 1a34 c193 0c35 6b51 2835 b22c 28b5
00000190: 40d2 7930 2179 2735 7692 2635 338f 28b5
000001a0: 7d2e 23b5 837c 2835 6416 2835 192b 26b5
000001b0: e869 2235 f1fa 2535 fb3e 9a34 2f96 25b5
000001c0: 505d 28b5 187b 2635 cbfa 26b5 9132 15b5
000001d0: 0cd2 0eb5 1b00 13b5 9867 1635 f633 1635
000001e0: 7395 ceb9 9f9d 133a 007d 19ba e4c2 25ba
000001f0: 27b8 1b3a 5079 293a 5af1 fab9 9a65 253a
00000200: c0e9 0fba 905e 0e3a a870 35b9 8062 27ba
00000210: afe2 24ba 8b6d 153a 8e7c 9e39 c2d1 f8b9
00000220: c98d 23ba 2a24 023a c173 e3b9 cd5a 17ba
00000230: 7829 de39 b67a 9239 242d 163a f1ce d4b9
00000240: 8ad4 0d3a 2cba d7b9 9681 36ba 9ad2 12ba
00000250: 9811 363a d207 9c39 e4dc 4e37 6464 5c37
00000260: f289 3037 24a0 92b6 e143 41b7 ee20 55b7
00000270: 725f 9735 68ac 1237 906d e0b5 98de 56b7
00000280: eb06 d8b4 6671 c6b6 647f 7a36 3dd8 88b6
00000290: 2a92 7636 d300 c536 4dd6 3f37 b9a2 4cb7
000002a0: 8a2e 0eb6 3605 0cb7 832a 0db7 a40a 2335
000002b0: 1c8d 6eb7 a2c6 8935 e9a3 5a37 16f0 8937
000002c0: 603e 12b5 8cb2 03b7 94cc 05b6 4eb5 1db7
000002d0: 283c 3139 9efb 85b8 5403 42b9 bef9 49b8
000002e0: 0753 30b9 d4dc 45b9 7760 1ab9 c438 c438
000002f0: b236 22b9 317a 34b9 c8ae 3ab6 1ec9 6839
00000300: e61d 6839 26a6 d7b8 3174 b9b8 507c 9f36
00000310: 6aff 10b8 1b87 3f39 342f cbb8 915e 8bb8
00000320: fafb 4539 f0fc f9b8 b0b5 c336 8c21 e6b8
00000330: d73a 33b9 0442 87b8 d8c0 e4b8 fa2b 40b8
00000340: f827 de38 9e2d 89b8 4dd2 77b7 ee90 7837
00000350: a379 7ab7 bd63 9bb6 0ee4 6e37 6364 6c37
00000360: d09a 7ab6 ac83 24b5 7b93 79b7 b8e7 7937
00000370: 8f25 49b5 a49b 7cb7 d3f2 7ab7 d724 7837
00000380: b98b 6f37 8b9a 64b7 9328 7cb7 e06f 6c37
00000390: a0f1 79b7 a0fc 77b7 c224 a436 584a 4b37
000003a0: 4cde 7a37 9f12 6db7 859d 7537 804a 6e37
000003b0: 7efd 9bb6 9208 3c36 eae0 ed36 fc53 07b7
000003c0: 4cfc 4b35 8c87 37b5 524c 4335 caae 54b5
000003d0: 98d7 42b5 fe79 2bb5 7719 cc33 5294 6035
000003e0: 57f3 4035 8a0c 40b5 c9ed 97b2 1ceb 4235
000003f0: b635 3f35 3853 3fb5 8af8 4ab5 4576 4c35

b1 f4 [15]
-2.653885e-07 -3.6082936e-05 -2.268054e-07 6.281431e-07 -0.0005824953 7.584057e-06 -0.00018865487 -1.4848448e-05
7.179388e-07 0.00032142072 0.00012707725 0.00049440435 -4.1337e-06 3.179375e-05 7.172509e-05
00000000: b87a 8eb4 c257 17b8 cb87 73b4 aa9d 2835
00000010: 99b2 18ba 8e7a fe36 a8d1 45b9 991d 79b7
00000020: 61b8 4035 5c84 a839 0a40 0539 ea9a 013a
00000030: 36b4 8ab6 475a 0538 1d6b 9638

W2 f4 [15, 30]
3.619158e-07 5.561585e-07 -3.0576973e-07 2.797268e-07 -3.5935852e-07 1.7374794e-07 3.62293e-07 6.1205935e-07
-3.1287811e-07 3.632374e-07 -2.4336646e-07 -1.4759962e-08 -1.612932e-07 3.5639823e-07 -1.4410875e-07 -5.2489395e-07
-7.043586e-07 4.779042e-07 4.6300977e-07 -2.5480801e-07 2.6725115e-06 5.9083527e-07 6.148639e-08 -4.6938897e-07
5.20339e-07 -2.652214e-07 -2.5035797e-07 -5.1429356e-07 -1.2310579e-07 6.54235e-07 -3.511344e-05 2.5500965e-05
-2.9988638e-05 2.9547602e-05 2.5289384e-05 3.395198e-05 -8.318022e-06 -2.8760493e-05 -3.4471002e-05 3.1337233e-05
1.4756703e-05 -2.7215905e-05 -3.222245e-05 2.9670035e-05 4.2279673e-05 -3.0997588e-05 -1.9344709e-05 3.3002485e-05
-3.2628068e-05 -1.14241775e-05 7.555389e-05 3.1761694e-05 3.3452598e-05 -3.4514873e-05 2.83039e-05 1.2492203e-05
3.1811913e-05 3.024864e-05 -3.3142624e-05 -3.726018e-05 -1.9498518e-07 2.2677935e-07 -2.119634e-07 1.7842105e-07
1.9968135e-07 1.5510804e-07 -2.7819138e-07 -1.6566203e-07 -2.0616491e-07 2.2444604e-07 -2.3453057e-07 -2.0488461e-07
-2.1074048e-07 2.181063e-07 1.7026002e-07 -2.049024e-07 -2.4282147e-07 2.1757322e-07 -1.9801203e-07 -2.0603039e-07
5.9238437e-07 2.0612413e-07 2.2506063e-07 -2.0705166e-07 2.2521454e-07 4.17271e-07 1.7342174e-07 1.885361e-07
-1.8542556e-07 -1.8765135e-07 6.2383964e-07 -6.293675e-07 6.2483565e-07 -6.19198e-07 -5.947018e-07 -5.986219e-07
-5.81117e-09 6.2330463e-07 6.2486174e-07 -6.21845e-07 2.0918174e-07 6.142998e-07 6.2331566e-07 -6.2790656e-07
-6.3463307e-07 6.187274e-07 6.2962727e-07 -6.2799313e-07 6.356654e-07 5.907576e-07 -1.323356e-07 -6.2470195e-07
-6.2331287e-07 6.2754975e-07 -6.238343e-07 -5.661208e-07 -6.203641e-07 -6.0324027e-07 5.975528e-07 6.162079e-07
-0.00043544773 0.00060737284 -0.00057701854 0.0005054345 0.0006340302 0.00064935663 -3.9966486e-05 -0.0002965993
-0.0005611452 0.0005793297 -0.00043343744 -0.00061059784 -0.0005688253 0.0005560931 0.00046904274 -0.00062311615
-0.0006031117 0.0006216909 -0.00044885773 -0.000629105 0.00061773875 0.00060931523 0.0005613972 -0.00059916946
0.0006049335 0.00023548474 0.00039279775 0.00030490066 -0.00051548856 -0.00037830317 5.4247394e-06 1.14970935e-05
4.7352646e-06 3.6352753e-06 -8.214853e-06 1.0929628e-05 -2.608976e-06 1.3512877e-06 1.3067027e-05 -1.1698785e-05
-4.434065e-06 2.5521363e-06 -7.320488e-06 -8.823015e-06 -6.5840277e-06 -7.648046e-06 -2.503214e-06 1.4018206e-05
-5.4179236e-06 -1.7314542e-06 -9.238581e-06 -4.7202534e-06 1.1254338e-06 -1.50770475e-05 1.4160825e-05 5.789092e-06
7.0438414e-06 -3.0954159e-06 -2.553587e-06 -6.9025027e-06 -0.000169852 -0.000115259034 5.6122444e-05 0.00012412108
1.7014332e-05 -0.00011520364 -0.00013323122 0.00016387117 -0.0001890316 0.00018631376 4.22236e-05 8.544185e-05
0.00017271558 0.00015753634 0.00017849835 0.00019646247 6.217677e-06 -0.00011615447 -0.00013799594 -7.439953e-05
-6.5373875e-05 0.00018917605 3.493124e-05 -0.00016751303 -0.0002405212 0.00026320916 -0.00020417382 -0.00019724699
-0.00018735183 -0.00018429385 -1.3950745e-05 1.5106618e-05 -1.4814954e-05 1.5113307e-05 1.3467646e-05 1.4207193e-05
2.6294174e-06 -1.2530408e-05 -1.4926019e-05 1.4923333e-05 -6.3079065e-06 -1.4808655e-05 -1.4702791e-05 1.492803e-05
1.4343973e-05 -1.5137463e-05 -1.4909655e-05 1.5117936e-05 -1.3153513e-05 -1.402331e-05 8.202951e-06 1.516804e-05
1.49122425e-05 -1.5162949e-05 1.5127737e-05 5.0409712e-06 1.4046019e-05 1.299687e-05 -1.5026386e-05 -1.2794178e-05
7.56913e-07 -6.7395877e-07 7.287139e-07 -7.5684454e-07 -7.001195e-07 -6.947207e-07 -2.1702577e-07 7.3981414e-07
7.201344e-07 -7.137875e-07 2.3744533e-07 7.0943383e-07 7.142932e-07 -7.1507884e-07 -7.358186e-07 7.460983e-07
00000000: 544d c234 ec4a 1535 ac28 a4b4 5c2d 9634
00000010: dced c0b4 788f 3a34 2c81 c234 664c 2435
00000020: a4f9 a7b4 f802 c334 08a8 82b4 0093 7db2
00000030: f02f 2db4 0057 bf34 50bc 1ab4 70e6 0cb5
00000040: 2813 3db5 5449 0035 9493 f834 8ccc 88b4
00000050: 6659 3336 e499 1e35 800a 8433 5400 fcb4
00000060: 6cad 0b35 c063 8eb4 f068 86b4 fc0d 0ab5
00000070: 102f 04b4 b09e 2f35 c546 13b8 e8ea d537
00000080: 1c90 fbb7 fedc f737 8a24 d437 a967 0e38
00000090: a28d 0bb7 b042 f1b7 f594 10b8 1970 0338
000000a0: 8f93 7737 b64d e4b7 9826 07b8 eae3 f837
000000b0: 7455 3138 6803 02b8 7246 a2b7 266c 0a38
000000c0: 1fda 08b8 78aa 3fb7 b072 9e38 dc37 0538
000000d0: 744f 0c38 10c4 10b8 2a6e ed37 9a95 5137
000000e0: c86d 0538 76be fd37 9f02 0bb8 d047 1cb8
000000f0: 1e5d 51b4 a280 7334 0e98 63b4 0194 3f34
00000100: fe67 5634 c68b 2634 555a 95b4 d5e0 31b4
00000110: 2e5e 5db4 42ff 7034 46d3 7bb4 41fe 5bb4
00000120: e747 62b4 9a30 6a34 b8d0 3634 2503 5cb4
00000130: 215d 82b4 129e 6934 229d 54b4 3439 5db4
00000140: 5804 1f35 f852 5d34 32a8 7134 ed51 5eb4
00000150: 80d2 7134 4a05 e034 ce35 3a34 6970 4a34
00000160: 6419 47b4 367d 49b4 ef75 2735 cef1 28b5
00000170: 61ba 2735 f636 26b5 99a3 1fb5 fcb0 20b5
00000180: 98ab c7b1 2b51 2735 2cbc 2735 ddec 26b5
00000190: 709b 6034 5ce6 2435 ed51 2735 698d 28b5
000001a0: a75b 2ab5 a016 2635 a803 2935 5c93 28b5
000001b0: 98a2 2a35 8e94 1e35 2218 0eb4 31b1 27b5
000001c0: bc51 27b5 e474 2835 9175 27b5 86f7 17b5
000001d0: 1987 26b5 5bee 21b5 8467 2035 7c69 2535
000001e0: ce4c e4b9 1a38 1f3a 0f43 17ba 237f 043a
000001f0: 0c35 263a 9639 2a3a b0a1 27b8 e280 9bb9
00000200: d119 13ba 28de 173a fd3e e3b9 8710 20ba
00000210: 381d 15ba c7c6 113a dae9 f539 9e58 23ba
00000220: 241a 1eba f8f8 223a aa54 ebb9 86ea 24ba
00000230: bfef 213a 74ba 1f3a ba2a 133a 9511 1dba
00000240: 6694 1e3a 74ec 7639 6cf0 cd39 13db 9f39
00000250: da21 07ba fe56 c6b9 2806 b636 a4e3 4037
00000260: 9de3 9e36 8ef5 7336 86d2 09b7 655e 3737
00000270: de15 2fb6 e45d b535 743a 5b37 e645 44b7
00000280: 54c8 94b6 5e45 2b36 83a2 f5b6 9006 14b7
00000290: 5eec dcb6 1c50 00b7 e4fc 27b6 bc2f 6b37
000002a0: 9ccb b5b6 5064 e8b5 67ff 1ab7 ab62 9eb6
000002b0: 9c0d 9735 6df3 7cb7 4894 6d37 ec3f c236
000002c0: 235a ec36 d7ba 4fb6 4a5e 2bb6 0c9c e7b6
000002d0: 4d1a 32b9 39b7 f1b8 0465 6b38 8026 0239
000002e0: 00ba 8e37 7c99 f1b8 fcb3 0bb9 d5d4 2b39
000002f0: c936 46b9 385d 4339 3f19 3138 3e2f b338
00000300: fc1a 3539 5730 2539 492b 3b39 7e01 4e39
00000310: 70a1 d036 f597 f3b8 01b3 10b9 f206 9cb8
00000320: 5519 89b8 8f5d 4639 2283 1238 70a6 2fb9
00000330: 6b34 7cb9 56ff 8939 7e17 56b9 16d4 4eb9
00000340: e073 44b9 013f 41b9 fe0d 6ab7 6e72 7d37
00000350: be8d 78b7 298f 7d37 19f3 6137 6e5b 6e37
00000360: 0c75 3036 b139 52b7 c36a 7ab7 3a5f 7a37
00000370: 81a8 d3b6 b072 78b7 02ac 76b7 6773 7a37
00000380: e5a6 7037 e9f6 7db7 7b24 7ab7 0aa3 7d37
00000390: e8ad 5cb7 a845 6bb7 689f 0937 3c7a 7e37
000003a0: 982f 7a37 5f64 7eb7 23cd 7d37 9d25 a936
000003b0: 31a7 6b37 220d 5a37 d619 7cb7 93a6 56b7
000003c0: aa2e 4b35 18ea 34b5 d79c 4335 f629 4bb5
000003d0: d8ef 3bb5 d87c 3ab5 9707 69b4 a497 4635
000003e0: 424f 4135 1a9b 3fb5 7af4 7e34 ec6f 3e35
000003f0: dbbd 3f35 d8f3 3fb5 1285 45b5 7c47 4835

Wb f4 [55, 55]
0.016964408 0.000608973 -0.009528624 -0.0042921156 -0.016455553 -0.03417747 -0.0008501655 0.007134556
0.003837057 -0.0190447 0.01623099 -0.0017678874 -0.0015882374 -0.0072065718 -0.014344362 0.0190964
-0.0057661785 -0.009722926 -0.026425712 -0.010559442 0.009077195 -0.004862706 0.004786434 -0.013335828
-0.008071282 0.0015918915 -0.0021843184 0.00059647206 -0.010228016 -0.007865842 -0.009396515 0.012583106
-0.042092003 -0.0016523639 -7.0504844e-05 -0.006342164 -0.00024600653 -0.0010214623 0.0154186785 -0.04215435
-0.025026318 0.000730288 -0.0056737848 0.0009097012 -0.013844397 0.001421253 0.015219661 0.010903748
-0.01392952 -0.0014042531 -0.020200143 -0.0027305356 -0.020420821 0.0054886 0.0034116665 0.017145172
0.0009956528 -0.0095434375 -0.0036966186 -0.009532302 -0.034444656 -0.0041867513 0.0025231089 0.002952082
-0.018963091 0.016105099 -0.00043803948 0.0014753382 -0.0074500414 -0.014824146 0.019053224 -0.006941946
-0.0047834907 -0.026242955 -0.01078889 0.009083408 -0.0047754967 0.0020145262 -0.013643103 -0.007642685
-0.0033586104 -0.0022877613 0.0011041476 -0.008647357 -0.007030307 -0.0074287914 0.012572789 -0.042083677
-0.0013862241 0.0043655685 -0.00640605 0.0007685259 -0.0020272543 0.015347628 -0.043451987 -0.02620476
0.00083087524 -0.010044448 1.5344936e-05 -0.011947785 -0.00058826804 0.015099035 0.011097911 -0.012512583
-4.4470653e-08 -0.020400977 -0.0032465947 -0.02065995 0.0055543506 0.0032379813 0.012427116 -0.0012883252
-0.009550462 -0.0040301997 -0.018015226 -0.034118272 -0.0021344803 0.0068994 0.003916811 -0.020247782
0.016362548 -0.0007167992 -4.608417e-05 -0.007551159 -0.014597617 0.019111894 -0.007248572 -0.002525771
-0.026611555 -0.010460981 0.009865269 -0.004795662 0.0060221488 -0.013130704 -0.009032693 0.0016374502
-0.0022430553 0.0010688773 -0.008651672 -0.007071647 -0.008642745 0.012478421 -0.042101905 -0.0019574298
-0.0021280986 -0.006398399 0.0006265356 -0.0022427991 0.013480164 -0.044121932 -0.023712749 0.0009502745
-0.010011001 0.00060712546 -0.011881159 -0.0016485315 0.0150556285 0.011515868 -0.013223171 -0.0009278419
-0.019921923 -0.0028479353 -0.020636616 0.005226046 0.0028823605 0.012383107 -0.00014741067 -0.009530731
-0.0038174726 -0.01937039 -0.033867862 0.0019756136 0.0045741764 0.0057583572 -0.018319592 0.016141199
-0.0016456088 0.000958307 -0.007315641 -0.0136555685 0.019203803 -0.005750116 -0.0029623536 -0.026228763
-0.009460865 0.009571652 -0.004785879 0.003867383 -0.013246446 -0.0076684384 -0.0007117023 -0.0021276325
0.00027002953 -0.0066712815 -0.0065914653 -0.008095535 0.012544559 -0.04195016 -0.0030343574 0.0033464725
-0.0065045347 0.000922879 -0.0022256398 0.01592118 -0.04301579 -0.024938375 -0.00047734997 -0.010444121
0.0009505063 -0.013888483 -0.0028764484 0.015013553 0.011429256 -0.012491701 -0.0008069605 -0.01992402
-0.0028822396 -0.02064209 0.005499263 0.003452844 0.011982122 0.0009517269 -0.009786688 -0.003601836
-0.014548848 -0.034477737 0.0018568162 0.0069002295 0.005139663 -0.01875765 0.016341738 -0.0018761317
0.0003641714 -0.0073875193 -0.014486039 0.019171394 -0.0068917084 -0.00015091244 -0.026235249 -0.010928328
0.010516658 -0.004871638 0.0058981543 -0.013226293 -0.00733129 0.00159395 -0.002262651 0.0020191222
-0.008542432 -0.0073883138 -0.008637598 0.012640781 -0.04209649 -0.003680553 0.004968245 -0.006307488
00000000: f1f8 8a3c 7ca3 1f3a f21d 1cbc e0a4 8cbb
00000010: cccd 86bc adfd 0bbd a4dd 5eba fec8 e93b
00000020: 2277 7b3b a103 9cbc daf6 843c 75b8 e7ba
00000030: 672c d0ba 1b25 ecbb 9d04 6bbc 0e70 9c3c
00000040: 36f2 bcbb e84c 1fbc bc7a d8bc 8301 2dbc
00000050: 84b8 143c 5657 9fbb 85d7 9c3b 847e 5abc
00000060: 693d 04bc 04a7 d03a c826 0fbb 905c 1c3a
00000070: 6993 27bc bcdf 00bc d7f3 19bc 5f29 4e3c
00000080: aa68 2cbd 2294 d8ba 00dc 93b8 edd1 cfbb
00000090: 70fa 80b9 96e2 85ba a09e 7c3c 0aaa 2cbd
000000a0: fe03 cdbc cc70 3f3a 28eb b9bb 0479 6e3a
000000b0: 9cd3 62bc 5649 ba3a e35b 793c a2a5 323c
000000c0: a438 64bc ea0e b8ba c57a a5bc c9f2 32bb
000000d0: 9149 a7bc b7d9 b33b 4496 5f3b 0874 8c3c
000000e0: 9080 823a 145c 1cbc f842 72bb 5f2d 1cbc
000000f0: d715 0dbd 0431 89bb be5a 253b b877 413b
00000100: 7c58 9bbc d7ee 833c aaa8 e5b9 2360 c13a
00000110: 7a1f f4bb fae0 72bc 8215 9c3c 4479 e3bb
00000120: d4be 9cbb 77fb d6bc e2c3 30bc 93d2 143c
00000130: c57b 9cbb 2406 043b 5287 5fbc 7d6f fabb
00000140: 221c 5cbb 44ee 15bb 0cb9 903a a5ad 0dbc
00000150: 7d5e e6bb 386d f3bb 19fe 4d3c ef5f 2cbd
00000160: f6b1 b5ba 0b0d 8f3b d8e9 d1bb e676 493a
00000170: afdb 04bb 9e74 7b3c b6fa 31bd 5dab d6bc
00000180: 18cf 593a 7891 24bc 00b9 8037 a4c0 43bc
00000190: 0036 1aba f161 773c 03d4 353c 9401 4dbc
000001a0: 0000 3fb3 f31f a7bc d2c4 54bb 0e3f a9bc
000001b0: 4501 b63b 5034 543b 1a9b 4b3c 05dd a8ba
000001c0: 8a79 1cbc c40f 84bb ab94 93bc 9abf 0bbd
000001d0: a3e2 0bbb 5d14 e23b 9858 803b adde a5bc
000001e0: c00a 863c 94e7 3bba 804a 41b8 b66f f7bb
000001f0: d82a 6fbc 8c90 9c3c 6e85 edbb 6887 25bb
00000200: 7a00 dabc 8964 2bbc f0a1 213c ee24 9dbb
00000210: 7255 c53b 2a22 57bc dcfd 13bc b69f d63a
00000220: 3900 13bb 9219 8c3a bebf 0dbc 46b9 e7bb
00000230: 4d9a 0dbc 4b72 4c3c 0c73 2cbd 3948 00bb
00000240: 9277 0bbb a9a9 d1bb 183e 243a edfb 12bb
00000250: e8db 5c3c 33b9 34bd 3d41 c2bc d81b 793a
00000260: 2e05 24bc 8027 1f3a 31a9 42bc 8a13 d8ba
00000270: e2ab 763c 0dad 3c3c 00a6 58bc 6a3a 73ba
00000280: 4d33 a3bc 6da4 3abb 1f0e a9bc 403f ab3b
00000290: fce5 3c3b 84e2 4a3c 4092 1ab9 c826 1cbc
000002a0: 902e 7abb a7ae 9ebc 07b9 0abd 4c79 013b
000002b0: f9e2 953b 9ab0 bc3b f812 96bc 8c3a 843c
000002c0: 78b1 d7ba e536 7b3a 0bb8 efbb 9bbb 5fbc
000002d0: 4b51 9d3c 786b bcbb 0c24 42bb b4dd d6bc
000002e0: be01 1bbc 6bd2 1c3c ddd2 9cbb ec73 7d3b
000002f0: 9f07 59bc 8647 fbbb 8891 3aba c06f 0bbb
00000300: c092 8d39 c49a dabb 38fd d7bb 23a3 04bc
00000310: b287 4d3c eed3 2bbd 12dc 46bb 7e50 5b3b
00000320: fe23 d5bb 5ced 713a 0adc 11bb 226d 823c
00000330: 5331 30bd 904b ccbc d444 fab9 d21d 2bbc
00000340: 662b 793a 858c 63bc cc82 3cbb 68fb 753c
00000350: c641 3b3c fea9 4cbc 348a 53ba b337 a3bc
00000360: f5e3 3cbb 9a19 a9bc 2933 b43b 1c49 623b
00000370: aa50 443c 507d 793a 5858 20bc c80c 6cbb
00000380: 4b5e 6ebc 8738 0dbd 6a60 f33a 521b e23b
00000390: 9e6a a83b a5a9 99bc 1cdf 853c 89e8 f5ba
000003a0: 42ee be39 0113 f2bb da56 6dbc 540d 9d3c
000003b0: d7d3 e1bb 403e 1eb9 4eeb d6bc bb0c 33bc
000003c0: 104e 2c3c 43a2 9fbb 4e45 c13b 18b3 58bc
000003d0: 513b f0bb 16ec d03a fc48 14bb 4053 043b
000003e0: 8ff5 0bbc ab19 f2bb b684 0dbc 471b 4f3c
000003f0: 5e6d 2cbd 6f35 71bb a9cc a23b 0baf cebb

conv.weight f4 [10, 1, 20]
-1.7115084e-20 -6.100587e-20 -4.2143133e-20 -3.5710298e-20 -3.9711604e-20 -9.6832044e-20 -7.432017e-20 -7.8323115e-20
-7.712712e-20 -9.003425e-20 -9.054637e-20 -1.04724264e-19 -6.832904e-20 -4.1083305e-20 -2.5618391e-20 -5.0307916e-20
8.324442e-22 -2.3152895e-20 1.4571606e-20 2.4829254e-20 -2.2938586e-05 -2.3543898e-05 -2.4263903e-05 -2.467873e-05
-2.4917801e-05 -2.547353e-05 -2.619111e-05 -2.628133e-05 -2.769983e-05 -2.8282317e-05 -2.854464e-05 -2.871038e-05
-2.9183799e-05 -3.004061e-05 -3.0392663e-05 -3.097463e-05 -3.1103864e-05 -3.2360014e-05 -3.2559135e-05 -3.314866e-05
-2.5446063e-06 -2.5875484e-06 -2.694957e-06 -2.823243e-06 -2.865515e-06 -2.878426e-06 -2.9457497e-06 -2.9747919e-06
-2.96137e-06 -2.9809225e-06 -2.9567293e-06 -3.0294682e-06 -3.052461e-06 -2.892117e-06 -2.793736e-06 -2.626073e-06
-2.520891e-06 -2.2221166e-06 -2.0757564e-06 -1.8141061e-06 -3.0556115e-05 -6.730405e-06 -1.3832611e-05 -1.5498748e-05
-2.554425e-05 -1.0907244e-05 -1.598809e-05 -5.43448e-06 -1.457859e-05 -5.95623e-06 -6.3428306e-06 -1.3417488e-05
-2.8836475e-05 -1.1310788e-05 -2.4115467e-05 -1.1454452e-05 -1.4389562e-05 -2.7101332e-06 -2.1579039e-05 -2.1149446e-05
-0.064895086 -0.058859397 -0.05321853 -0.047007896 -0.04139424 -0.035390083 -0.030090317 -0.025532926
-0.021632455 -0.016540015 -0.010864232 -0.0062015974 -0.0006656612 0.0034830563 0.008009881 0.012251482
0.016710749 0.019857394 0.02432068 0.02906717 -1.9127175e-14 -2.1548042e-14 -2.9192374e-14 -3.640948e-14
-4.8473426e-14 -6.31116e-14 -7.003046e-14 -8.183282e-14 -9.618981e-14 -1.0462456e-13 -1.129116e-13 -1.1868635e-13
-1.3094563e-13 -1.35974e-13 -1.3423415e-13 -1.4158404e-13 -1.4327444e-13 -1.5207707e-13 -1.4896911e-13 -1.5771923e-13
0.0155547345 0.015593758 0.016148599 0.016703077 0.01687992 0.017033326 0.017958734 0.018635908
0.019428836 0.01980994 0.02096114 0.021613952 0.022627335 0.02396911 0.02508042 0.026404008
0.028308852 0.031011222 0.03237143 0.033980884 -6.462881e-05 -6.9109505e-05 -5.607644e-05 -5.0327904e-05
-5.3343523e-05 -2.0092324e-05 -2.4854357e-05 -3.086726e-05 -4.8104124e-05 -4.0151324e-05 -1.9382906e-05 -3.2513923e-05
-5.665057e-05 -2.8281376e-05 -1.8559364e-05 -3.5535562e-05 -3.2245767e-05 -3.0357676e-05 -1.4401212e-05 -8.811822e-06
-1.1448013e-11 -1.14101775e-11 -1.1327537e-11 -1.1118551e-11 -1.09806e-11 -1.0946583e-11 -1.08908065e-11 -1.0793741e-11
-1.0921571e-11 -1.10635225e-11 -1.1038413e-11 -1.1061575e-11 -1.1155707e-11 -1.13144025e-11 -1.1320605e-11 -1.1483957e-11
-1.152562e-11 -1.19578306e-11 -1.2112213e-11 -1.2426902e-11 1.0762842e-07 2.052251e-08 -7.0011694e-08 -9.035996e-08
-1.3518083e-07 -1.6408845e-07 -1.857868e-07 -1.8770496e-07 -1.9245006e-07 -1.9267283e-07 -1.8764989e-07 -1.8429654e-07
-1.5866317e-07 -1.6633821e-07 -1.748678e-07 -1.4757194e-07 -1.6042762e-07 -1.6230112e-07 -1.55127e-07 -1.16910094e-07
00000000: bca5 a19e c90b 909f ec03 479f 1aa3 289f
00000010: 6288 3b9f 61a3 e49f c97b af9f 6bef b89f
00000020: 7c1c b69f 5d96 d49f eccb d59f ef45 f79f
00000030: 5f56 a19f ab02 429f 78f5 f19e 8a92 6d9f
00000040: 4097 7b1c 44ac da9e fb9f 891e 7481 ea1e
00000050: 3d6c c0b7 2380 c5b7 568a cbb7 2b05 cfb7
00000060: 9206 d1b7 fdaf d5b7 fbb4 dbb7 ba76 dcb7
00000070: ef5c e8b7 d03f edb7 2673 efb7 12d7 f0b7
00000080: bbcf f4b7 b8ff fbb7 bff3 feb7 c1ea 01b8
00000090: 8575 02b8 4dba 07b8 1b90 08b8 1a09 0bb8
000000a0: 01c4 2ab6 bea5 2db6 02db 34b6 f276 3db6
000000b0: 2c4d 40b6 fb2a 41b6 98af 45b6 89a2 47b6
000000c0: f3bb 46b6 dc0b 48b6 396c 46b6 de4d 4bb6
000000d0: e1d8 4cb6 3116 42b6 057c 3bb6 973b 30b6
000000e0: 942c 29b6 ac1f 15b6 394d 0bb6 367c f3b5
000000f0: 6129 00b8 bdd5 e1b6 9d12 68b7 4f03 82b7
00000100: dc47 d6b7 42fe 36b7 291e 86b7 d459 b6b6
00000110: 9196 74b7 a0db c7b6 80d4 d4b6 ac1b 61b7
00000120: dce5 f1b7 77c3 3db7 924b cab7 7f2c 40b7
00000130: b36a 71b7 bcdf 35b6 a204 b5b7 176a b1b7
00000140: b7e7 84bd 8d16 71bd acfb 59bd 5a8b 40bd
00000150: 028d 29bd 31f5 10bd f87f f6bc 6d2a d1bc
00000160: 8c36 b1bc ed7e 87bc e4ff 31bc c536 cbbb
00000170: c47f 2eba fd43 643b e03b 033c 71ba 483c
00000180: fbe4 883c f9ab a23c 2a3c c73c 461e ee3c
00000190: 4348 aca8 6716 c2a8 8478 03a9 46f9 23a9
000001a0: 0e4e 5aa9 5c1d 8ea9 d0b1 9da9 6945 b8a9
000001b0: a699 d8a9 f497 eba9 1b41 fea9 03a1 05aa
000001c0: 826e 13aa d617 19aa 5c22 17aa d268 1faa
000001d0: 0c50 21aa 3b39 2baa 6cb9 27aa 7993 31aa
000001e0: 49d9 7e3c f67c 7f3c 114a 843c e4d4 883c
000001f0: c247 8a3c 7989 8b3c 321e 933c 55aa 983c
00000200: 3929 9f3c 7548 a23c b2b6 ab3c be0f b13c
00000210: f65c b93c de5a c43c 7475 cd3c 384d d83c
00000220: f7e7 e73c 3f0b fe3c e897 043d 8a2f 0b3d
00000230: 5489 87b8 e2ee 90b8 9e33 6bb8 2d17 53b8
00000240: 2cbd 5fb8 f08b a8b7 537e d0b7 7877 01b8
00000250: 69c3 49b8 2868 28b8 7998 a2b7 8f5f 08b8
00000260: 169c 6db8 cb3d edb7 eeaf 9bb7 050c 15b8
00000270: a13f 07b8 9da8 feb7 bc9c 71b7 7dd6 13b7
00000280: 4465 49ad dfba 48ad b146 47ad 8199 43ad
00000290: 3a2c 41ad 0793 40ad d597 3fad b0e2 3dad
000002a0: 6222 40ad ada1 42ad 9830 42ad e898 42ad
000002b0: d640 44ad 8a0b 47ad 7927 47ad 2507 4aad
000002c0: c7c2 4aad 485d 52ad 8f14 55ad cb9d 5aad
000002d0: 5a21 e733 7a49 b032 5659 96b3 ea0b c2b3
000002e0: 3926 11b4 4a30 30b4 b07c 47b4 f28b 49b4
000002f0: 45a4 4eb4 81e1 4eb4 cf7c 49b4 0ce3 45b4
00000300: 005d 2ab4 b39a 32b4 4bc3 3bb4 4474 1eb4
00000310: 0242 2cb4 fe44 2eb4 fc90 26b4 0110 fbb3

conv.bias f4 [10]
-1.2518592e-08 -8.07247e-05 -0.00042598794 -0.058721095 -0.7661741 5.9082074e-13 -0.21405219 -0.04566412
-8.131482e-11 -6.374793e-07
00000000: 5a11 57b2 be4a a9b8 2257 dfb9 8885 70bd
00000010: fc23 44bf 1f4d 262b 7f30 5bbe 4d0a 3bbd
00000020: 2dd0 b2ae 3e1f 2bb5

conv_long.weight f4 [10, 1, 10]
-0.00039415772 -0.0012566913 -0.0014251493 -0.00094382884 -0.00071776856 -0.00079002505 -0.00020628958 -0.00046626042
-0.00088902714 -0.00068255654 -6.391827e-20 -1.6706108e-20 2.5063508e-20 -9.745157e-22 8.022279e-23 -5.8515125e-20
-2.6572754e-20 7.059079e-20 -5.776233e-21 -6.2590786e-20 -1.6088996e-20 -3.5040734e-20 -2.6094387e-20 -2.037213e-20
-1.504303e-20 3.479747e-21 1.8958657e-20 4.716897e-20 5.9874377e-20 2.9707e-20 -2.575613e-14 -6.467375e-14
-1.1765486e-13 -1.2984999e-13 -1.5769866e-13 -1.7638358e-13 -1.8319583e-13 -1.8364124e-13 -1.8542343e-13 -1.9117919e-13
-6.116129e-13 -5.7839345e-13 -6.324635e-13 -6.114847e-13 -5.998019e-13 -5.5653594e-13 -4.9263203e-13 -4.618092e-13
-3.6922386e-13 -2.1187323e-13 -1.6836426e-19 -4.2544714e-19 -1.5818172e-19 -6.057515e-20 4.2468435e-20 2.0966702e-19
4.2022432e-19 5.1540554e-19 7.2839565e-19 7.595023e-19 -1.0665894e-11 -1.0379174e-11 -1.3199322e-11 -1.4129083e-11
-1.314923e-11 -7.544042e-12 -4.8309312e-12 1.6423731e-12 2.5066134e-12 4.257368e-12 -4.4576405e-05 -2.1384783e-05
-1.9077155e-05 -4.2620435e-05 -6.5079585e-05 -3.711745e-05 -3.4535915e-05 -1.43535635e-05 -3.483606e-05 -4.7502246e-05
-9.802105e-13 -8.8901683e-13 -7.5803594e-13 -4.4704052e-13 -1.04247774e-13 3.6888672e-13 7.7002966e-13 1.1004813e-12
1.2428482e-12 1.257829e-12 5.227318e-19 1.3711745e-19 -2.6159259e-19 -3.2019495e-19 -3.5442094e-19 -3.179808e-19
-2.361065e-19 -1.9925191e-19 -8.012764e-20 1.0374471e-19
00000000: f4a6 ceb9 90b7 a4ba 13cc baba 486b 77ba
00000010: a228 3cba af19 4fba 704f 58b9 6a74 f4b9
00000020: 9a0d 69ba 98ed 32ba 39ec 969f e4c8 9d9e
00000030: d8b7 ec1e c043 939c 80f7 c11a 392a 8a9f
00000040: faf8 fa9e 84ad a61f 4c38 da9d cfc9 939f
00000050: cef4 979e a679 259f 5b74 f69e ca68 c09e
00000060: d113 8e9e 0c76 831d 380f b31e c9bf 5e1f
00000070: d75f 8d1f 8f49 0c1f 98fd e7a8 e1a1 91a9
00000080: b477 04aa b632 12aa 8b8d 31aa 1b97 46aa
00000090: 9a42 4eaa fcc2 4eaa aac4 50aa a63f 57aa
000000a0: 5b27 2cab a4cd 22ab cc05 32ab 1e1e 2cab
000000b0: 48d4 28ab a4a6 1cab e1a9 0aab dcfc 01ab
000000c0: c4da cfaa 4d8c 6eaa fac4 46a0 c123 fba0
000000d0: 7ebf 3aa0 6e07 8f9f 308d 481f f887 7720
000000e0: 810e f820 f11e 1821 05fc 5621 5f2a 6021
000000f0: eba2 3bad a597 36ad 7634 68ad bc8f 78ad
00000100: de52 67ad 58b7 04ad 29f9 a9ac ba24 e72b
00000110: 2263 302c f6ca 952c 8df7 3ab8 7963 b3b7
00000120: e107 a0b7 58c3 32b8 567b 88b8 8fae 1bb8
00000130: a8da 10b8 16d0 70b7 ef1c 12b8 263d 47b8
00000140: cef3 89ab 6a3c 7aab 3f5e 55ab 54a9 fbaa
00000150: c0be eaa9 2eaa cf2a 7cbe 582b 04e1 9a2b
00000160: 53ea ae2b 1106 b12b 8048 1a21 35e1 2120
00000170: c16a 9aa0 7e02 bda0 9436 d1a0 e6b3 bba0
00000180: 685f 8ba0 323c 6ba0 3032 bd9f d4f5 f41f

conv_long.bias f4 [10]
-0.12353809 -0.00029428804 -1.4010337e-06 -1.7311598e-13 -1.7041207e-12 -1.5587961e-09 5.759901e-11 -0.08715983
2.3981728e-12 -1.569223e-07
00000000: 8a01 fdbd ac4a 9ab9 270b bcb5 49e9 42aa
00000010: 6bd5 efab 433d d6b0 b852 7d2e da80 b2bd
00000020: a4c1 282c 797e 28b4

conv1.weight f4 [30, 30]
-5.086355e-21 -6.8539596e-21 -5.355993e-21 -2.1909838e-05 -1.5416351e-21 -1.1316404e-21 1.04828586e-16 -4.323481e-22
-1.7021815e-20 1.842516e-20 3.2066264e-20 6.6086e-17 7.0302395e-21 3.5945602e-20 -2.0587404e-20 1.8715255e-20
1.1094184e-20 1.3417962e-15 2.1209297e-21 -1.2155647e-19 -1.0687571e-20 2.0879663e-17 -9.317543e-21 4.1462537e-21
2.6760406e-17 -1.0614224e-19 6.1932596e-21 8.5183527e-10 -4.9149856e-21 -1.9392446e-21 2.309708e-21 2.0223839e-22
-1.7999913e-06 -4.1982307e-15 1.1563953e-21 1.9309267e-21 1.540347e-20 1.7312838e-21 -6.007143e-20 -3.900968e-20
-0.00019509287 -0.0007235171 -1.8325532e-20 -4.9862327e-05 -2.6987223e-07 -0.00033536277 -1.2157392e-20 -3.396736e-06
9.556466e-21 -1.7691129e-09 -3.9754502e-21 3.0634107e-20 -1.360762e-20 8.738882e-21 1.0714406e-19 -0.00212924
-3.0216892e-21 -0.013465841 -1.6901285e-21 6.6357725e-21 6.338585e-21 7.8632476e-21 -1.8879517e-06 -2.6608682e-15
-2.767578e-21 4.5045716e-21 -2.5921094e-20 -4.609141e-22 -6.4247344e-20 -3.6964097e-20 -0.0001224251 -0.0023304308
-1.6623278e-20 -6.627135e-05 -2.1386771e-07 -0.0005072013 1.7930067e-20 -6.082165e-06 -1.4104682e-22 -2.2125017e-09
-2.3744345e-21 3.288612e-20 5.3385025e-21 -1.2787647e-21 1.0690741e-19 -0.0026359325 1.5710903e-20 -0.00747834
3.62078e-21 -1.2649482e-22 3.9122965e-21 2.0475522e-07 -1.1990082e-21 2.3939968e-21 -2.8536473e-10 -5.659059e-07
2.517462e-21 1.01384666e-17 5.764572e-07 1.05183195e-10 6.0126297e-23 -4.929757e-21 4.258529e-08 2.3925057e-13
-4.4604535e-21 -1.79027e-21 0.00015139692 -1.3746276e-20 1.9820358e-21 9.883146e-21 0.00053235487 -1.14960374e-20
7.2465944e-10 0.0016837456 1.7327903e-21 -4.5646355e-22 -7.550633e-07 6.444567e-21 -1.3995286e-19 -2.5558759e-16
-1.1579682e-20 -3.7300773e-20 -3.4879226e-21 2.4550293e-18 -1.7993186e-21 7.075292e-21 4.1228685e-21 -3.871207e-21
1.7162633e-20 5.5827526e-21 -2.1676381e-20 -8.834318e-21 2.009279e-20 3.7128858e-22 8.73595e-22 2.8302536e-21
-2.0517653e-20 3.12256e-20 8.139859e-21 6.69877e-20 1.24874675e-20 2.1481595e-20 1.1417682e-20 -6.1608634e-21
-1.430219e-20 8.6595745e-21 -2.482766e-21 1.4307623e-19 9.761158e-21 -1.2601764e-20 -7.023538e-21 -3.7967474e-20
7.8015774e-22 -9.300384e-19 -1.4972274e-21 -7.022006e-21 8.8410316e-21 -1.4137979e-21 2.8681502e-21 2.4144267e-21
-1.3176963e-21 1.5474998e-20 2.1681183e-20 9.8102344e-21 1.5847842e-21 1.9844693e-21 -2.2517948e-20 4.0927246e-20
2.5751197e-21 5.5559234e-20 -1.1434007e-21 -1.6600802e-20 -8.2773185e-21 -1.4998555e-20 -1.8544664e-20 -6.931774e-21
-6.5539273e-21 2.8222353e-19 4.885979e-21 1.3039289e-20 1.815865e-16 1.0203037e-05 -2.9014707e-21 -9.7331305e-21
2.722049e-09 7.721269e-07 6.145024e-21 9.571985e-16 6.1914e-08 -9.0679075e-11 4.8934297e-22 7.933481e-21
-1.5134162e-07 -1.6124234e-14 -2.212903e-21 6.1079747e-21 7.84539e-06 6.972352e-21 -3.4969044e-21 6.2752393e-22
1.3463795e-16 -5.783591e-21 1.4111511e-12 0.007935874 -1.0900563e-20 -5.7819945e-22 -5.2909195e-06 1.0335774e-20
9.235023e-07 4.509608e-14 2.1244486e-21 -6.4303664e-21 -4.7040513e-21 7.73779e-21 4.3281567e-21 3.7686114e-21
2.0983448e-21 -4.333172e-21 -8.3235526e-21 -8.544386e-23 -5.338571e-21 3.4755215e-20 -5.6574307e-22 -1.18249564e-20
1.8943195e-21 7.2265637e-22 9.4645e-21 -9.862544e-21 -5.0022887e-21 -8.173065e-21 -3.9219654e-21 7.5746076e-21
1.0475131e-20 -1.8007431e-20 9.202195e-21 -2.1854429e-21 7.253185e-21 -1.9737691e-20 -1.5625529e-20 3.3696893e-21
8.630829e-21 -9.471066e-21 -3.487282e-21 -2.9224247e-21 2.0510317e-21 9.655518e-21 -3.5480374e-21 4.6764147e-21
-4.5818697e-21 5.0386067e-21 -3.4879343e-21 1.8037643e-20 -3.2389977e-21 1.1205866e-20 -2.3208004e-21 -5.4543397e-21
00000000: 3528 c09d b777 019e fc57 ca9d 05cb b7b7
00000010: 1ff7 e89c 3802 ab9c e0b7 f124 50ab 029c
00000020: 39c4 a09e 4e05 ae1e bc6d 171f 4a62 9824
00000030: 27cc 041e 91bf 291f 4a71 c29e b6c2 b01e
00000040: 2f90 511e 8b5f c126 bf40 201d 3082 0fa0
00000050: ece1 499e b694 c023 e000 309e 1ba4 9c1d
00000060: 39d2 f623 0c9f fa9f 88f9 e91d 9426 6a30
00000070: d3ae b99d 7286 129d 4084 2e1d c07d 741b
00000080: 3b97 f1b5 d841 97a7 e0bf ae1c 8ee5 111d
00000090: 4e7b 911e e6cf 021d f4d6 8d9f cf37 389f
000000a0: d891 4cb9 69aa 3dba 6b14 ad9e 4423 51b8
000000b0: f5e2 90b4 a1d3 afb9 8aa5 659e 7bf3 63b6
000000c0: 3c84 341e 2025 f3b0 3230 969d 5daa 101f
000000d0: 3585 809e a412 251e 9cfc fc1f b88a 0bbb
000000e0: f84f 649d d59f 5cbc ae67 ff9c 41b1 fa1d
000000f0: 0877 ef1d 5588 141e 8765 fdb5 5bbc 3fa7
00000100: be1c 519d 8b2d aa1d 5cd1 f49e 804d 0b9c
00000110: 23b3 979f da8e 2e9f 3d5f 00b9 24ba 18bb
00000120: 9f00 9d9e 29fb 8ab8 82a3 65b4 b4f5 04ba
00000130: 3e58 a91e 6615 ccb6 e083 2a9b be0a 18b1
00000140: 3e68 339d e14c 1b1f d4ae c91d d03d c19c
00000150: 906d fc1f 9cbf 2cbb a262 941e dd0c f5bb
00000160: 09ca 881d 40ec 189b 69cd 931d b0da 5b34
00000170: 6230 b59c a2e2 341d 84e1 9caf c2e8 17b5
00000180: cc36 3e1d 8e05 3b23 d6bd 1a35 e04c e72e
00000190: 6060 911a af3d ba9d 06e7 3633 a4af 862a
000001a0: dc82 a89d dc44 079d 4dc0 1e39 75d4 819e
000001b0: 26c2 151d f6af 3a1e bb8d 0b3a 6d27 599e
000001c0: 6031 4730 21b1 dc3a 0aed 021d 28f5 099c
000001d0: 8eaf 4ab5 0778 f31d 283a 25a0 1256 93a5
000001e0: e8bb 5a9e de25 309f 1ec5 839d 3126 3522
000001f0: e2f3 079d 03a6 051e f0c1 9b1d 0440 929d
00000200: b318 a21e 12e9 d21d 46ba cc9e 24e0 269e
00000210: 63c5 bd1e 206e e01b 9203 841c 11d9 551d
00000220: a4c8 c19e 6f75 131f f1c1 191e 942b 9e1f
00000230: b0e1 6b1e 4fe3 ca1e 86ac 571e 37c0 e89d
00000240: 9314 879e 2293 231e ae97 3b9d 23ea 2820
00000250: 1062 381e 640a 6e9e bfab 049e dc4b 339f
00000260: c8c9 6b1c db3f 89a1 2e41 e29c 56a4 049e
00000270: 9b00 271e a8a5 d59c 18b6 581d ce6d 361d
00000280: e81f c79c 4028 921e e2c5 cc1e 624f 391e
00000290: 5f7c ef1c 38f1 151d 0fad d49e 0146 411f
000002a0: 0f92 421d 7f2f 831f 2cc9 ac9c 47ca 9c9e
000002b0: a85a 1c9e 48a8 8d9e 3f26 af9e 01f0 029e
000002c0: b299 f79d 6a98 a620 4a96 b81d 224e 761e
000002d0: e05a 5125 b62d 2b37 9b3a 5b9d 88da 379e
000002e0: cb0e 3b31 2844 4f35 0727 e81d 64f2 8926
000002f0: 95f5 8433 c867 c7ae 14e5 131c f6db 151e
00000300: 7880 22b4 f43b 91a8 c533 279d b5c0 e61d
00000310: b29f 0337 3ab4 031e fc1b 849d 50a8 3d1c
00000320: 1c3a 1b25 767f da9d 149a c62b 7805 023c
00000330: e3e7 4d9e 04c0 2e9c a788 b1b6 bc3c 431e
00000340: 98e6 7735 3e18 4b29 d084 201d b0ee f29d
00000350: cbb6 b19d a829 121e 5d83 a31d c65f 8e1d
00000360: e48b 1e1d deb3 a39d 3b3a 1d9e 3097 ce9a
00000370: 7eaf c99d 7a20 241f 40fc 2a9c fb5d 5f9e
00000380: 7821 0f1d d468 5a1c 84c7 321e 564c 3a9e
00000390: 2bfb bc9d 8462 1a9e ec2a 949d 8e14 0f1e
000003a0: a0de 451e 4c13 aa9e 16d3 2d1e 9d20 259d
000003b0: 4002 091e cf6a ba9e 3694 939e 459b 7e1d
000003c0: 2108 231e 44e7 329e ecbe 839d eacf 5c9d
000003d0: b9f8 1a1d 3863 361e 830a 869d 82ab b01d
000003e0: 2019 ad9d 6a5a be1d 3bc5 839d 585c aa1e
000003f0: 54bb 749d 3eac 531e cf5a 2f9d 230f ce9d

conv1.bias f4 [30]
2.373786e-14 -4.410892e-05 -2.67801e-05 -0.0038292224 -2.4789233e-07 -4.4308057e-05 -8.213407e-07 -6.8573662e-12
-2.2281187e-05 -2.4548111e-08 -0.0008475291 -0.016937055 -5.9049267e-05 -0.60236377 -5.0079384e-06 -0.002452746
0.96091217 -0.0016631605 7.1576256e-12 -2.4475075e-05 0.0012930294 -1.4248513e-07 1.4734509e-05 -0.23886701
9.524631e-12 -0.0062802583 -7.304143e-05 -0.06884764 -8.968395e-06 -0.007789474
00000000: c7cf d528 9801 39b8 d4a5 e0b7 b1f3 7abb
00000010: 1016 85b4 6ad7 39b8 1a7a 5cb5 aa45 f1ac
00000020: 7ce8 bab7 dedd d2b2 b72c 5eba 94bf 8abc
00000030: abab 77b8 8334 1abf dd09 a8b6 40be 20bb
00000040: 57fe 753f 68fe d9ba 29d6 fb2c d34f cdb7
00000050: de7a a93a 04fe 18b4 3c34 7737 8e99 74be
00000060: 208f 272d a0ca cdbb d22d 99b8 feff 8cbd
00000070: f776 16b7 d83e ffbb

conv2.weight f4 [30, 10]
1.2866223e-21 -1.0337115e-20 2.4640268e-19 1.620128e-18 -6.0829226e-21 -1.9192238e-21 2.7705502e-22 1.2817357e-21
-3.3221189e-21 -3.153169e-13 -1.080709e-21 3.2965942e-13 4.1790716e-21 1.8382265e-14 7.114196e-21 5.9916274e-21
-1.2865319e-20 -3.2094317e-21 -3.4178832e-21 0.006798161 -0.00049529935 -2.2585955e-21 1.2576272e-13 3.5996295e-21
2.315041e-21 -4.8426707e-21 -3.247654e-21 6.0687083e-19 -0.0067653675 -0.021418057 -3.2872284e-20 6.2823277e-21
2.6477816e-20 -6.185994e-08 -4.111103e-17 -4.8144962e-20 -1.2940802e-15 1.0513714e-20 -4.9765073e-20 1.339284e-09
2.7917372e-21 -1.0941929e-18 -2.9877738e-19 -1.305332e-17 1.811234e-21 -4.967703e-21 -1.6584317e-21 1.808895e-21
5.8864786e-21 -2.1306537e-08 -2.2947687e-21 4.1819958e-21 -2.3205583e-20 4.2452317e-15 -2.0016105e-21 -6.4626935e-21
-3.3781856e-20 -2.9636074e-21 -5.438642e-21 -3.4075836e-06 1.6730927e-20 1.4181957e-20 -4.0154724e-21 -2.2416116e-09
-2.7483686e-18 -3.1387916e-19 3.1845163e-17 2.672375e-22 -1.0678102e-20 -2.2049633e-14 5.4986532e-21 4.8141956e-21
-8.217585e-21 4.610169e-15 -1.5047045e-21 -3.8676797e-21 2.6793111e-21 -7.828845e-21 -5.9581133e-21 5.4317766e-12
1.9835485e-18 3.1962941e-21 3.978919e-21 -1.8492428e-06 -4.825656e-18 -2.5647796e-18 -1.667986e-16 2.9892348e-21
-1.4928518e-11 0.003922741 4.5279834e-20 -6.629708e-15 -1.2660032e-21 -2.2989364e-15 -1.9016375e-21 -5.502052e-21
3.3638287e-21 -2.6158577e-21 -9.64497e-20 6.8718062e-09 -0.0015595156 -1.0352488e-21 2.983186e-08 9.406652e-21
2.4687234e-21 -1.0849343e-20 2.7207877e-20 -1.6327388e-14 -0.018567832 -0.031267773 -0.05457139 8.988415e-21
0.004123514 -8.409979e-22 3.61104e-21 -1.1815015e-20 7.300935e-21 4.603115e-05 -0.022967393 -0.09667777
3.041111e-21 -1.833859e-20 -5.9386406e-21 4.5796528e-18 1.3553359e-20 -7.5462096e-22 -1.3233852e-20 5.1631564e-21
-3.829799e-19 1.6902068e-05 -0.016284367 -0.14995626 -0.0098448135 -0.0047938754 -1.0350717e-17 4.52529e-18
1.9439922e-16 -0.027093677 -0.065325186 -0.21168415 -1.8570907e-05 -3.936354e-21 -1.8507011e-17 -5.268133e-21
-3.0979586e-21 -4.7311706e-21 -2.8476583e-21 -3.6702372e-20 -0.0011778495 -0.004856364 -0.018470192 -2.488819e-21
0.00011634882 -1.5272581e-20 -3.4808863e-21 9.988713e-22 -6.184064e-21 -5.605031e-07 -0.038350318 -0.073141776
-8.690024e-21 5.845921e-21 -1.7252726e-21 -3.4399456e-20 -2.433773e-20 -1.8046076e-20 1.7749222e-20 1.248488e-21
5.3456507e-21 -0.8764018 -0.07387599 2.044423e-20 0.008559508 2.755548e-19 9.766174e-21 -2.3013418e-20
3.4980906e-20 -0.0006748587 -0.09521716 -0.12909754 -4.509068e-21 -1.9864298e-21 2.5951646e-20 -1.9466503e-05
-8.385949e-16 -5.7822764e-17 -8.077861e-14 -2.4375518e-21 -6.09052e-19 2.5864549e-05 -0.06938168 -1.0714964e-20
0.0030691181 -1.06857164e-13 -4.453563e-20 -5.391226e-20 4.7010448e-20 -0.00023957061 -0.07046003 -0.13634132
2.8576544e-21 -1.0327117e-13 -1.9228987e-21 -1.8527164e-15 -4.641703e-21 5.06275e-21 9.7154794e-21 -2.7748606e-21
1.08748e-22 -0.0051783016 6.4699176e-21 -4.322972e-22 8.316439e-20 -6.431766e-07 3.732213e-17 5.8423887e-18
1.1038897e-16 1.0837725e-19 5.101643e-20 2.7401097e-07 1.0428185e-21 1.5162122e-19 1.1816361e-20 -5.2113666e-17
5.012064e-22 1.039269e-21 -5.6578625e-21 6.757301e-22 -8.53735e-22 -2.1703248e-05 2.9601418e-21 5.8493423e-22
-7.707946e-23 3.793664e-20 -1.5459214e-21 -3.4334397e-22 -8.354597e-21 -4.5112092e-21 4.6981015e-21 -0.67236364
-4.914378e-22 1.0712498e-21 2.1577216e-22 4.0098383e-18 -2.6020601e-20 3.6688333e-20 3.987262e-20 -1.9807845e-22
2.8131954e-20 -4.37907e-17 -0.00012960339 3.0769556e-21 9.132053e-16 -3.6485636e-21 2.5105792e-21 1.4426228e-21
00000000: ca6d c21c 3943 439e 5273 9120 b516 ef21
00000010: 6bce e59d 3003 119d 3078 a71b c0b0 c11c
00000020: 2003 7b9d f481 b1aa e84f a39c ee94 b92a
00000030: 80e1 9d1d 9e92 a528 2462 061e 775b e21d
00000040: de04 739e 707f 729d bd1f 819d 1cc3 de3b
00000050: fad6 01ba 97a7 2a9d a398 0d2a 7bfd 871d
00000060: 68eb 2e1d 70f3 b69d c462 759d dd1d 3321
00000070: 04b0 ddbb ec74 afbc 273c 1b9f f256 ed1d
00000080: 6e13 fa1e ddd7 84b3 5697 3da4 b05b 639f
00000090: 227f baa6 3499 461e 4802 6b9f de11 b830
000000a0: 0df0 521d 7079 a1a1 f65d b0a0 90ca 70a3
000000b0: 5cda 081d adac bb9d 789d fa9c 1ead 081d
000000c0: 8762 de1d 9205 b7b2 4863 2d9d c8fd 9d1d
000000d0: a82b db9e 5af3 9827 c73c 179d 5627 f49d
000000e0: c287 1f9f 81ec 5f9d 5177 cd9d d7ad 64b6
000000f0: e604 9e1e def1 851e 44b3 979d d90a 1ab1
00000100: 37cb 4aa2 1448 b9a0 22dc 1224 0089 a11b
00000110: 22b4 499e fe9a c6a8 b6bb cf1d 0be0 b51d
00000120: cd39 1b9e 4e19 a627 7062 e39c e71d 929d
00000130: 6a71 4a1d f9e1 139e 5617 e19d 181d bf2c
00000140: 2c5c 1222 5281 711d be51 961d 8033 f8b5
00000150: 0809 b2a2 513f 3da2 424e 40a5 36dc 611d
00000160: 0950 83ad 568a 803b f6d3 551f 43dc eea7
00000170: 2050 bf9c e4a7 25a7 05af 0f9d 95dc cf9d
00000180: e929 7e1d 0ca6 459d 44bc e39f 0c1d ec31
00000190: a968 ccba 4071 9c9c 7a20 0033 c7af 311e
000001a0: 0e88 3a1d 34f0 4c9e 4e7c 001f 6510 93a8
000001b0: 911b 98bc a312 00bd 4086 5fbd 4fc9 291e
000001c0: 8b1e 873b 102d 7e9c d66b 881d e82d 5f9e
000001d0: 28e9 091e 9211 4138 1d26 bcbc fffe c5bd
000001e0: a4c7 651d fd33 ad9e 025b e09d 99f5 a822
000001f0: 0302 801e f811 649c fbfa 799e fc0e c31d
00000200: 4912 e2a0 eac8 8d37 cb66 85bc 228e 19be
00000210: 244c 21bc f115 9dbb e1ef 3ea3 28f4 a622
00000220: 8620 6025 8ff3 ddbc 36c9 85bd bbc3 58be
00000230: b8c8 9bb7 14b6 949d 72b2 aaa3 4206 c79d
00000240: 3c13 6a9d 13bd b29d b929 579d 7252 2d9f
00000250: 1262 9aba 2222 9fbb cd4e 97bc c30c 3c9d
00000260: 4c00 f438 d63e 909e 1181 839d f6f1 961c
00000270: 99a0 e99d 7b75 16b5 3915 1dbd 5bcb 95bd
00000280: 6126 249e 47da dc1d a05b 029d 6472 229f
00000290: 05dd e59e bc70 aa9e fca2 a71e 8aaa bc1c
000002a0: f6f3 c91d de5b 60bf 4c4c 97bd 1d17 c11e
000002b0: 2e3d 0c3c aaa8 a220 527a 381e 085b d99e
000002c0: 5231 251f 00e9 30ba 3701 c3bd 2532 04be
000002d0: 0859 aa9d 2417 169d 3b1b f51e ff4b a3b7
000002e0: 62b5 71a6 8954 85a4 b3e5 b5a9 1c2d 389d
000002f0: abc2 33a1 b2f7 d837 fb17 8ebd 6366 4a9e
00000300: 4223 493b f69e f0a9 4650 529f ec97 7e9f
00000310: 2500 5e1f 3f35 7bb9 594d 90bd 0f9d 0bbe
00000320: 13eb 571d c78b e8a9 454a 119d 9680 05a7
00000330: cc5b af9d ea43 bf1d 2d85 371e 9ca9 519d
00000340: e077 031b beae a9bb 346d f41d 60a7 029c
00000350: ca5d c41f c2a6 2cb5 321e 2c24 cd8b d722
00000360: 268a fe24 07e6 ff1f 14eb 701f c81b 9334
00000370: 1696 9d1c b400 3320 6a34 5f1e f554 70a4
00000380: f87a 171c c60c 9d1c 7dbf d59d 163a 4c1c
00000390: 4603 819c 5f0f b6b7 78a9 5f1d 18c9 301c
000003a0: e05d ba9a 9526 331f f09c e99c e889 cf9b
000003b0: 5ad0 1d9e bd6d aa9d 407d b11d 0620 2cbf
000003c0: 2887 149c f8e1 a11c 206d 821b daef 9322
000003d0: f4c1 f59e 7941 2d1f 0a4b 3c1f 5076 6f9b
000003e0: 72d9 041f eff2 49a4 25e6 07b9 fa7c 681d
000003f0: 549b 8326 bed6 899d aab1 3d1d c400 da1c

conv2.bias f4 [10]
-0.008101096 -0.054591086 -0.012632169 -0.050879616 -2.8990624e-05 -4.2396337e-06 -3.7013313e-05 -0.024068996
-0.027957026 0.55241346
00000000: 76ba 04bc e79a 5fbd 28f7 4ebc 2567 50bd
00000010: e430 f3b7 2d42 8eb6 be3e 1bb8 582c c5bc
00000020: 2206 e5bc f86a 0d3f

rnn.weight_ih_l0 f4 [30, 1]
0.0182833 -0.35084388 0.0013615158 0.4888632 0.15523776 -0.028969755 -0.5386055 -0.46338886
0.050287332 -0.27078235 1.7252716 0.27425024 0.0031737764 -0.4660093 0.41681337 0.12852526
0.124213524 0.5343485 -0.35951054 0.41324803 1.5217899 1.0125396 -1.146097 -0.036896426
-0.6289714 5.2735333 0.6367866 0.31781638 0.28040045 -0.21771772
00000000: dcc6 953c cfa1 b3be e474 b23a 474c fa3e
00000010: a6f6 1e3e fb51 edbc 0de2 09bf 4e41 edbe
00000020: 17fa 4d3d fca3 8abe b3d5 dc3f 876a 8c3e
00000030: 22ff 4f3b c598 eebe 9068 d53e 209c 033e
00000040: a963 fe3d 10cb 083f c411 b8be 3f95 d33e
00000050: 03ca c23f e69a 813f 4eb3 92bf b520 17bd
00000060: 4504 21bf c9c0 a840 7204 233f d4b8 a23e
00000070: a690 8f3e 65f1 5ebe
