colagnn-master-Run-Epi/src/save/cola_gnn_epi.us_hhs.w-20.h-1.RNN.lam-0.5.epo-500.pt (torch, 49334 bytes, 32 tensors)

V f4 [15]
0	0xbe8c5f99	-0.27416685
1	0xbe4623a0	-0.19349527
2	0xbe97e538	-0.29667068
3	0xbe41fce0	-0.1894412
4	0xbda967b7	-0.08271735
5	0x3f07636a	0.5288607
6	0x0748a97d	1.5096136e-34
7	0x33be2699	8.854585e-08
8	0x3f892b2a	1.0716298
9	0xbe3a8dc5	-0.18218143
10	0x3a80d2ed	0.0009828486
11	0xba827214	-0.0009952211
12	0x8b1e61c6	-3.050325e-32
13	0x8173589d	-4.4695628e-38
14	0xbe91d1ad	-0.28480282

W1 f4 [15, 30]
0	0x3b63a604	0.0034736404
1	0x3b4ed92e	0.0031562555
2	0x3be8408f	0.007087774
3	0xbc9a9b75	-0.018872956
4	0x3bc92534	0.006138468
5	0x3c48e728	0.012262143
6	0xbb29670f	-0.0025848781
7	0xbd005538	-0.03133127
8	0x3b5daa00	0.0033823252
9	0x3b4fd6b0	0.0031713657
10	0x3aa22756	0.0012371342
11	0xbc373a29	-0.0111833
12	0xbb9d51a2	-0.004800991
13	0x3b80f18c	0.0039350446
14	0xbc469476	-0.012120357
15	0x3b4146b3	0.0029491603
16	0x3c246ab8	0.010035209
17	0xbb572b27	-0.0032832117
18	0xbb4ee587	-0.0031569914
19	0x3b522e26	0.0032070964
20	0x3c0a1338	0.008427434
21	0x3be21286	0.006899181
22	0x3b5f813c	0.003410413
23	0x3c5eb084	0.013591889
24	0x3b4f7cc1	0.0031660052
25	0xbb5398f7	-0.003228722
26	0x3b5d9a48	0.0033813883
27	0x3bbbae93	0.005727598
28	0xbb4f4b2f	-0.0031630506
29	0x3d88f2fd	0.06686971
30	0x3b191529	0.002335856
31	0x3b05b088	0.002039941
32	0x3be1ca3e	0.006890564
33	0xbca6ea2b	-0.020375332
34	0x3b9dd128	0.004816193
35	0x3c385aec	0.011252146
36	0xbab49d25	-0.0013779743
37	0xbce2c8fc	-0.027683727
38	0x3bb07ed6	0.005386214
39	0x3b089bd9	0.0020844846
40	0x39844f97	0.000252363
41	0xbc1f3d4f	-0.009719207
42	0xbb00c165	-0.0019646522
43	0x39b4958d	0.000344437
44	0xbbec50dd	-0.007211788
45	0x3afc3e0b	0.0019244564
46	0x3c08a58e	0.008340253
47	0xbb062fdb	-0.0020475301
48	0xbb05fc66	-0.002044463
49	0x3b0b572f	0.0021261682
50	0x3b13dab8	0.0022560786
51	0x3b9e6ed5	0.0048349896
52	0x3b06002f	0.0020446887
53	0x3c05f037	0.008174947
54	0x3b07f135	0.0020743136
55	0xbb0b8131	-0.002128672
56	0x3b108333	0.0022050857
57	0x3b6a0996	0.003571128
58	0xbb06a1d3	-0.0020543232
59	0x3d87c2d4	0.066289574
60	0x3ae2494f	0.0017264279
61	0x3ab854df	0.001406338
62	0x3bd88b7e	0.0066084256
63	0xbc917204	-0.017754562
64	0x3b8d4ba1	0.004311994
65	0x3c3e96d6	0.011632642
66	0xba64f4c4	-0.00087339827
67	0xbd030f3e	-0.031996958
68	0x3b0fdb7c	0.0021950891
69	0x3ab962a0	0.0014143772
70	0x3ac8e084	0.00153257
71	0xbc2c3d43	-0.010512653
72	0xbb60c353	-0.003429611
73	0x3bab9287	0.0052359733
74	0xbc5443eb	-0.012955646
75	0x3a9abb27	0.0011805043
76	0x3c230b91	0.009951488
77	0xbacd4acc	-0.001566255
78	0xbab86dc6	-0.0014070801
79	0x3abe63ad	0.0014525555
80	0x3c16f6c7	0.00921411
81	0x3c1518bb	0.0091001345
82	0x3ae32d49	0.0017332222
83	0x3c7a7b8c	0.015288245
84	0x3ab92639	0.0014125771
85	0xbac4ed80	-0.0015024394
86	0x3ad757b4	0.0016429336
87	0x3b53a7a2	0.0032295962
88	0xbab8e6b4	-0.0014106841
89	0x3d8091f9	0.06277842
90	0xbc2396fc	-0.009984728
91	0xbc26bf61	-0.010177464
92	0x3a800ba3	0.0009769093
93	0x3b31c9df	0.0027128381
94	0xbc13cd56	-0.009021124
95	0x3b6dbe3e	0.0036276723
96	0x3c2d759b	0.010587121
97	0xbc865a2a	-0.016400415
98	0xbb9114ad	-0.0044275136
99	0xbc2700c9	-0.010193058
100	0x3b075813	0.0020651862
101	0xbb95ab30	-0.0045675263
102	0x3c1dedfb	0.0096392585
103	0x3c1e2f92	0.009654896
104	0xbc588cc0	-0.013217151
105	0xbc2844b5	-0.010270287
106	0x3bde01ce	0.0067751175
107	0x3c274179	0.010208481
108	0x3c2735dd	0.010205713
109	0xbc26ced8	-0.010181151
110	0xbc24b204	-0.010052208
111	0x3c462e8d	0.0120960595
112	0xbc271ed8	-0.010200225
113	0x3c63d511	0.013905779
114	0xbc26f94b	-0.010191272
115	0x3c258e7b	0.010104771
116	0xbc25a2fb	-0.010109658
117	0xbc060103	-0.008178952
118	0x3c272cb6	0.010203531
119	0x3c50a3e9	0.012734392
120	0x3995dea7	0.00028585384
121	0x3941af7f	0.00018471292
122	0x3af46790	0.0018646587
123	0xbb8f16d1	-0.0043667336
124	0x3a89de1c	0.0010518464
125	0x3b5d0794	0.003372644
126	0x38c74d97	9.503512e-05
127	0xbc222f24	-0.0098989345
128	0x399cbd2a	0.00029895577
129	0x3946f764	0.00018974912
130	0x3a1bb5f5	0.00059398945
131	0xbb4c2295	-0.0031148542
132	0xba1157d7	-0.00055444
133	0x3b05b177	0.0020399967
134	0xbb8f89a0	-0.00438042
135	0x38ebdf99	0.000112473215
136	0x3b4d13ea	0.0031292387
137	0xb981e03a	-0.0002477186
138	0xb948af67	-0.00019138829
139	0x39562664	0.00020422932
140	0x3b087326	0.0020820587
141	0x3a854716	0.001016828
142	0x39a03537	0.00030557226
143	0x3ba27f7e	0.004959046
144	0x3946ec4e	0.00018970782
145	0xb96304d0	-0.000216502
146	0x398c7593	0.0002679048
147	0x3a55aeee	0.0008151372
148	0xb9429698	-0.00018557382
149	0x3c9049bc	0.017613284
150	0xbb757cca	-0.0037458413
151	0xbb4c7b64	-0.0031201476
152	0xbc6df62f	-0.014524027
153	0x3cdac4db	0.026705196
154	0xbc040f59	-0.0080603
155	0xbce8dafd	-0.028424734
156	0x3aa92567	0.0012904824
157	0x3d52b0a9	0.051438008
158	0xbc16288e	-0.009164942
159	0xbb4fb31e	-0.0031692456
160	0xbb30b2e1	-0.002696209
161	0x3cf32bb9	0.029683935
162	0x3be2ca6f	0.0069211046
163	0xbc4deb36	-0.012568286
164	0x3cfe29d9	0.031025814
165	0xbb2d9100	-0.0026484132
166	0xbce1d5ea	-0.027567822
167	0x3b544521	0.0032389837
168	0x3b50e7be	0.003187641
169	0xbb4484a8	-0.0029986296
170	0xbb6c6735	-0.0036072258
171	0xbcbe71b3	-0.023247575
172	0xbb56d86f	-0.0032782813
173	0xbc90b09a	-0.017662335
174	0xbb4da669	-0.0031379706
175	0x3b44b784	0.003001661
176	0xbb621653	-0.003449817
177	0xbbf1094a	-0.0073558437
178	0x3b54e999	0.0032487868
179	0xbe0f9130	-0.14020228
180	0x8511b60c	-6.851304e-36
181	0x85291a89	-7.9512156e-36
182	0x032f40b4	5.1502153e-37
183	0x83f45b8a	-1.4362047e-36
184	0x8518b2e6	-7.179864e-36
185	0x03979b1c	8.910594e-37
186	0x05231d70	7.66963e-36
187	0x841af22c	-1.8213813e-36
188	0x01b3c0e8	6.603102e-38
189	0x850b4592	-6.5485266e-36
190	0x0259ed12	1.6010678e-37
191	0x8345ed74	-5.816568e-37
192	0x04def859	5.242002e-36
193	0x82fdeb44	-3.7310045e-37
194	0x035c756c	6.4786983e-37
195	0x8525aee0	-7.790382e-36
196	0x02faff57	3.6880756e-37
197	0x0505e916	6.296441e-36
198	0x052aea9e	8.036454e-36
199	0x84e2260c	-5.3167285e-36
200	0x84e31d80	-5.3394535e-36
201	0x84dfaacf	-5.258391e-36
202	0x85329519	-8.396905e-36
203	0x030e6db4	4.1855982e-37
204	0x850cdeca	-6.623688e-36
205	0x052f0bfa	8.23066e-36
206	0x8517fc11	-7.146283e-36
207	0x84692d00	-2.7409681e-36
208	0x04f3b2e3	5.7293307e-36
209	0x85511535	-9.831028e-36
210	0xb2ef564e	-2.7862509e-08
211	0xb2ef46e2	-2.7855496e-08
212	0xb234e34e	-1.0529062e-08
213	0x32d28494	2.4507507e-08
214	0xb309f14e	-3.2117264e-08
215	0xb30531d4	-3.1011794e-08
216	0x32efe6cf	2.7928222e-08
217	0x32ab03d7	1.9908766e-08
218	0xb29152cb	-1.6917872e-08
219	0xb2e97a2e	-2.718033e-08
220	0xb0259a47	-6.024589e-10
221	0x3307dee5	3.163486e-08
222	0x32ea1abd	2.7253344e-08
223	0xb19fdfc5	-4.6529487e-09
224	0x32db8ea8	2.5559828e-08
225	0xb2ea14b8	-2.7250607e-08
226	0xb2c8cda4	-2.3376579e-08
227	0x32eec6fd	2.7797336e-08
228	0x32f1616a	2.8100391e-08
229	0xb2e3677b	-2.6473336e-08
230	0xb395b243	-6.970779e-08
231	0xb3b3c7a2	-8.37165e-08
232	0xb2f95c77	-2.9029463e-08
233	0xb2324608	-1.0376887e-08
234	0xb2ea03ae	-2.7242859e-08
235	0x32edcb83	2.7682978e-08
236	0xb2f099c7	-2.8009607e-08
237	0xb2f23b3b	-2.8199443e-08
238	0x32e8537a	2.7046315e-08
239	0xb40f08ac	-1.3321068e-07
240	0x3d2323be	0.03982901
241	0x3d271598	0.040792078
242	0xbbed2c2e	-0.0072379326
243	0x3c32536b	0.010884146
244	0x3d0b8b97	0.03406867
245	0xbcc18b12	-0.023625884
246	0xbd35ddb5	-0.04440089
247	0x3dd98879	0.10621733
248	0x3ce26dd4	0.02764026
249	0x3d2770d3	0.040879082
250	0xbc4c0454	-0.012452204
251	0x3cebe7d0	0.02879706
252	0xbca8fd32	-0.020628545
253	0xbd78bd14	-0.060727194
254	0x3d9b1c77	0.075737886
255	0x3d2aba95	0.041681845

b1 f4 [15]
0	0x3b4db4c3	0.003138826
1	0x3b05a90a	0.0020394945
2	0x3ab4a4bc	0.0013782005
3	0xbc27b31f	-0.010235577
4	0x393cbdc8	0.00017999776
5	0xbb4f3a43	-0.003162042
6	0x84b9eb93	-4.370963e-36
7	0xb2e40057	-2.6542848e-08
8	0x3d28022f	0.041017707
9	0xbc2e4681	-0.010636927
10	0x37694014	1.3902802e-05
11	0xb89633a3	-7.1621755e-05
12	0x8b92ef33	-5.659706e-32
13	0x002ad5c9	3.933783e-39
14	0x3b57f728	0.0032953713

W2 f4 [15, 30]
0	0x3b63429b	0.003467715
1	0x3b4d6243	0.0031339086
2	0x3c0be52d	0.0085385265
3	0xbbf7d06b	-0.007562687
4	0x3ba5aa71	0.0050557186
5	0x3c287413	0.0102815805
6	0xbb209e59	-0.0024508445
7	0xba042648	-0.0005041105
8	0x3b259512	0.0025265855
9	0x3b4bb1c6	0.0031081303
10	0xb9d9cfe0	-0.00041544344
11	0xbc32689e	-0.0108892005
12	0xbb9a979b	-0.00471778
13	0x3bcf18c8	0.006320093
14	0xbc92376d	-0.017848695
15	0x3b40c06d	0.002941157
16	0x3c872f08	0.016501918
17	0xbb537aa7	-0.0032269151
18	0xbb4b769a	-0.0031046034
19	0x3b4c9aaa	0.0031220117
20	0x3c07aaec	0.008280497
21	0x3bbb8302	0.0057224045
22	0x3b5a2223	0.0033284507
23	0x39c1e462	0.00036981987
24	0x3b4a8f58	0.0030908193
25	0xbb459f9a	-0.0030154944
26	0x3b5a52f2	0.00333136
27	0x3b370022	0.0027923663
28	0xbb4c604e	-0.0031185332
29	0x3de1987c	0.11015412
30	0x3b1a2c9b	0.0023525122
31	0x3b04928b	0.0020228948
32	0x3bf3e289	0.0074427766
33	0xbc3b6331	-0.011437223
34	0x3b845f19	0.004039657
35	0x3c29fdda	0.010375464
36	0xbaa39958	-0.0012481613
37	0xba7bcf01	-0.0009605736
38	0x3ba19f3f	0.0049323137
39	0x3b051036	0.0020303852
40	0xba67da88	-0.00088445144
41	0xbc2f2dc0	-0.01069206
42	0xbaf9bc6a	-0.0019053344
43	0x3b24c6fb	0.0025143016
44	0xbc5d1edf	-0.01349613
45	0x3afa7511	0.0019108375
46	0x3c68201c	0.014167812
47	0xbb035925	-0.0020042148
48	0xbb03225d	-0.0020009496
49	0x3b062b15	0.0020472456
50	0x3b143224	0.0022612894
51	0x3b8b7a2f	0.004256509
52	0x3b029d60	0.0019930229
53	0xbb650b38	-0.0034949314
54	0x3b03927b	0.0020076323
55	0xbafe3d50	-0.0019396935
56	0x3b0e4eca	0.0021714442
57	0x3a9a83ea	0.0011788581
58	0xbb0421d8	-0.0020161774
59	0x3dd57201	0.10422135
60	0x3adf6622	0.0017043988
61	0x3ab55acb	0.0013836263
62	0x3c043102	0.008068325
63	0xbbcd7255	-0.006269733
64	0x3b4a1e89	0.0030840954
65	0x3c19b1ac	0.009380739
66	0xba4335f0	-0.0007446697
67	0xb9db6a22	-0.0004185001
68	0x3aa3ed08	0.0012506554
69	0x3ab14c70	0.0013526808
70	0xb96bbbae	-0.00022481263
71	0xbc1e7954	-0.009672482
72	0xbb5b1323	-0.0033428154
73	0x3bf819d7	0.0075714397
74	0xbc91e212	-0.017807994
75	0x3a99d5ac	0.0011736653
76	0x3c83a2db	0.016068866
77	0xbac5c5ed	-0.0015088894
78	0xbab19baa	-0.001355042
79	0x3ab3ae0c	0.0013708486
80	0x3c16bdc9	0.009200522
81	0x3c010dda	0.007876838
82	0x3ad7ca4d	0.0016463489
83	0x3b1f894d	0.0024343312
84	0x3aafa34d	0.0013400108
85	0xbaa968fc	-0.0012924965
86	0x3ad007da	0.001587148
87	0x3981f963	0.00024790605
88	0xbab31ffc	-0.0013666148
89	0x3dce6793	0.10078349
90	0xbc226435	-0.0099115865
91	0xbc270d6b	-0.01019607
92	0x3ba538a5	0.005042153
93	0x3be74769	0.0070580733
94	0xbc189ad4	-0.009314258
95	0x3ba76d45	0.0051094615
96	0x3c2f0fb2	0.010684894
97	0x3710eac0	8.637726e-06
98	0xbb615696	-0.0034383885
99	0xbc278493	-0.010224479
100	0x3a381ba4	0.0007023162
101	0xbbe496f5	-0.0069760033
102	0x3c1fe2c2	0.009758653
103	0x3c32b78e	0.010908021
104	0xbc887f7a	-0.016662348
105	0xbc289642	-0.0102897305
106	0x3c2f780a	0.010709772
107	0x3c2793c1	0.010228098
108	0x3c279436	0.010228207
109	0xbc279600	-0.010228634
110	0xbc242c48	-0.010020323
111	0x3c42df02	0.0118939895
112	0xbc27851f	-0.01022461
113	0x3c0e1271	0.008671389
114	0xbc27ac72	-0.010233985
115	0x3c27bb5f	0.010237544
116	0xbc25ba3a	-0.010115201
117	0xbc15c252	-0.009140568
118	0x3c2780e6	0.010223603
119	0x3d2e1b99	0.042506788
120	0x39a2c988	0.000310492
121	0x3937a0b8	0.00017512112
122	0x3b55b0de	0.0032606642
123	0xbaa293f0	-0.0012403708
124	0x3a5f8928	0.0008527213
125	0x3b81a0b3	0.0039559244
126	0x392b1b7a	0.00016318067
127	0xb905c766	-0.0001275815
128	0x3a291118	0.00064493855
129	0x393058c5	0.00016817737
130	0x3734ea39	1.078337e-05
131	0xbb954d81	-0.0045563583
132	0xba08101a	-0.00051903876
133	0x3b4350f6	0.0029802895
134	0xbbf1ce42	-0.007379324
135	0x38d0809f	9.9421704e-05
136	0x3bcb193b	0.006198076
137	0xb9721ef3	-0.00023090448
138	0xb9375c8b	-0.00017486715
139	0x39317626	0.00016924049
140	0x3af60267	0.0018769027
141	0x3a28545d	0.00064212625
142	0x3990c6fe	0.0002761408
143	0x3a110483	0.00055319833
144	0x392886c7	0.00016071937
145	0xb905076c	-0.00012686633
146	0x3988c69d	0.0002608792
147	0x3888c974	6.522509e-05
148	0xb93396cc	-0.00017126946
149	0x3d22086d	0.039558817
150	0xbb8a1d24	-0.0042148996
151	0xbb47e4cb	-0.0030501361
152	0xbcde642d	-0.027147377
153	0x3c7cf52d	0.015439314
154	0xbc13bcf6	-0.00901722
155	0xbd1d8f04	-0.03846647
156	0x3a46771c	0.0007570849
157	0x3b12f5af	0.002242427
158	0xbc604fc5	-0.013690894
159	0xbb46cbd3	-0.003033389
160	0xb8fffa80	-0.00012206007
161	0x3d495437	0.04915258
162	0x3bdbdc34	0.0067096
163	0xbc8bb335	-0.017053226
164	0x3d63cb30	0.055613697
165	0xbb25106b	-0.0025186788
166	0xbd3eb0f1	-0.046555463
167	0x3b501390	0.0031749941
168	0x3b4b5224	0.0031024301
169	0xbb3a19f4	-0.0028396817
170	0xbb7ea122	-0.0038853367
171	0xbcb826c7	-0.022479428
172	0xbb50c524	-0.0031855786
173	0x3c0edcb6	0.008719614
174	0xbb406ad6	-0.0029360554
175	0x3b227994	0.0024791704
176	0xbb67fac0	-0.0035397261
177	0xbbb6130e	-0.0055564707
178	0x3b5045c2	0.003177986
179	0xbeb6b192	-0.3568235
180	0x850a08f2	-6.490372e-36
181	0x85251788	-7.762585e-36
182	0x836ceea8	-6.962813e-37
183	0x02af8900	2.5792573e-37
184	0x853e3fe0	-8.945489e-36
185	0x845e6f0f	-2.614697e-36
186	0x05264f56	7.819854e-36
187	0x04c33c63	4.5899736e-36
188	0x8494686c	-3.489053e-36
189	0x85021f84	-6.118359e-36
190	0x835d7ce8	-6.508945e-37
191	0x04e76b20	5.4406218e-36
192	0x04d8f305	5.1004534e-36
193	0x83f6e305	-1.4510702e-36
194	0x044fe07c	2.4435811e-36
195	0x8526a796	-7.836063e-36
196	0x83c8170f	-1.17602375e-36
197	0x0507afd7	6.379966e-36
198	0x052d2d9f	8.1428e-36
199	0x84db3e7e	-5.1544043e-36
200	0x84d9a48e	-5.1167574e-36
201	0x84dfe5bc	-5.2638026e-36
202	0x85319d7e	-8.351427e-36
203	0x848501de	-3.1269864e-36
204	0x8502db28	-6.152823e-36
205	0x0529ed28	7.9899005e-36
206	0x851c4014	-7.346854e-36
207	0x84a35fca	-3.8409084e-36
208	0x04ebdb13	5.5449422e-36
209	0x8501ae01	-6.09751e-36
210	0xb2eb069e	-2.736061e-08
211	0xb2eec4c2	-2.7796322e-08
212	0xb131c48c	-2.5868614e-09
213	0x31ef9c66	6.973596e-09
214	0xb2f4e124	-2.850772e-08
215	0xb257d5f3	-1.25632935e-08
216	0x32f02c63	2.7959862e-08
217	0xb0c036b1	-1.3985383e-09
218	0xb1defb3d	-6.489613e-09
219	0xb2e764b7	-2.693774e-08
220	0x3032d11a	6.5053174e-10
221	0x323bf1e0	1.0939829e-08
222	0x32e8e1b8	2.7111e-08
223	0xb15eeab6	-3.243867e-09
224	0x32810616	1.5020344e-08
225	0xb2eacaff	-2.7333497e-08
226	0xb26b7ccf	-1.37071785e-08
227	0x32ee64e9	2.7752735e-08
228	0x32f101b4	2.8056867e-08
229	0xb2e35064	-2.6462835e-08
230	0xb39d6a28	-7.330192e-08
231	0xb3b42c17	-8.389923e-08
232	0xb2f7fefd	-2.887054e-08
233	0x30aa070e	1.2371133e-09
234	0xb2e7ea86	-2.6998588e-08
235	0x32ee4387	2.7737554e-08
236	0xb2efbafc	-2.7908293e-08
237	0xb2cef1bf	-2.409149e-08
238	0x32e7590c	2.6932433e-08
239	0xb4030047	-1.2200427e-07
240	0x3d1d0ec6	0.038344167
241	0x3d27d9b1	0.04097909
242	0xbd42a9ba	-0.047525145
243	0xbc83e55b	-0.016100576
244	0x3d030c65	0.031994242
245	0xbd780be3	-0.06055821
246	0xbd3a1838	-0.045433253
247	0x3aac9652	0.0013167358
248	0x3c00f3d1	0.00787063
249	0x3d288eb8	0.041151732
250	0xbbbacbc6	-0.005700561
251	0x3dab2089	0.08355815
252	0xbcb18d01	-0.021673681
253	0xbd984646	-0.074352786
254	0x3dfeef82	0.12448026
255	0x3d2c11f7	0.04200932

Wb f4 [10, 10]
0	0xbded9b63	-0.11601903
1	0xbe545055	-0.20733769
2	0xbe3c4aae	-0.18387863
3	0xbe4c5fcb	-0.19958417
4	0xbd943b4f	-0.07237875
5	0xbe7973ed	-0.24360628
6	0xbd6531bc	-0.055955634
7	0xbef41237	-0.47670147
8	0xbe39343f	-0.18086337
9	0x3fa81f14	1.3134484
10	0xbde972c9	-0.11398847
11	0xbe580833	-0.21096878
12	0xbe3bcc26	-0.18339595
13	0xbe491d33	-0.19640045
14	0xbd948a1f	-0.07252907
15	0xbe789269	-0.24274601
16	0xbd65b866	-0.05608406
17	0xbef432ce	-0.4769501
18	0xbe3e0028	-0.18554747
19	0x3fa7fd76	1.3124225
20	0xbded6624	-0.115917474
21	0xbe5540ee	-0.2082555
22	0xbe3cf1fd	-0.18451686
23	0xbe4b2b49	-0.1984073
24	0xbd94eabc	-0.072713345
25	0xbe7a9dad	-0.24474211
26	0xbd66164e	-0.056173615
27	0xbef41f86	-0.476803
28	0xbe396eb7	-0.1810864
29	0x3fa8237e	1.3135831
30	0xbdef1527	-0.11673956
31	0xbe59dfbd	-0.21276756
32	0xbe3ee7a4	-0.18643051
33	0xbe46c7a2	-0.19412091
34	0xbd977f90	-0.073973775
35	0xbe7a99c8	-0.24472725
36	0xbd6913cc	-0.056903645
37	0xbef3f60b	-0.47648653
38	0xbe3e08a5	-0.18557985
39	0x3fa7d87e	1.3112943
40	0xbded47f4	-0.115859896
41	0xbe54fb6d	-0.20799036
42	0xbe3cebe6	-0.18449363
43	0xbe4bd837	-0.19906698
44	0xbd94b237	-0.07260554
45	0xbe79b343	-0.24384789
46	0xbd656936	-0.05600854
47	0xbef3e091	-0.47632268
48	0xbe39c676	-0.18142113
49	0x3fa7c017	1.3105496
50	0xbdee9a39	-0.116505094
51	0xbe57ffd7	-0.21093689
52	0xbe3e3670	-0.18575454
53	0xbe4a2a0b	-0.197426
54	0xbd961e02	-0.07329942
55	0xbe78d334	-0.24299318
56	0xbd670a73	-0.05640645
57	0xbef394e1	-0.47574523
58	0xbe3c2a41	-0.18375494
59	0x3fa76581	1.3077852
60	0xbdec0f16	-0.11526315
61	0xbe5532a6	-0.20820102
62	0xbe3c8dea	-0.18413511
63	0xbe4c2fac	-0.1994006
64	0xbd94635a	-0.07245512
65	0xbe786814	-0.24258453
66	0xbd6346e4	-0.05548753
67	0xbef3f0ad	-0.4764456
68	0xbe3a71e1	-0.18207504
69	0x3fa7bb4a	1.3104031
70	0xbdec640d	-0.11542521
71	0xbe5490fa	-0.20758429
72	0xbe3c6ab4	-0.18400079
73	0xbe4cb44e	-0.19990656
74	0xbd93a703	-0.07209589
75	0xbe77cb6d	-0.24198695
76	0xbd648407	-0.055789974
77	0xbef390c4	-0.47571385
78	0xbe3ad772	-0.18246248
79	0x3fa7641c	1.3077426
80	0xbde77572	-0.11301698
81	0xbe57a6f8	-0.21059787
82	0xbe3b3de2	-0.18285325
83	0xbe48c8e6	-0.19607887
84	0xbd93889a	-0.07203789
85	0xbe76fa47	-0.2411891
86	0xbd63b5f0	-0.05559343
87	0xbef42075	-0.47681013
88	0xbe40582d	-0.18783636
89	0x3fa7fe14	1.3124413
90	0xbde88b1f	-0.1135466
91	0xbe53f1bd	-0.20697685
92	0xbe3acb49	-0.1824161
93	0xbe4c4faa	-0.19952264
94	0xbd9351f8	-0.07193369
95	0xbe77e6f1	-0.24209191
96	0xbd635efb	-0.055510502
97	0xbef3f653	-0.47648868
98	0xbe39e0b1	-0.18152119
99	0x3fa7b6a3	1.3102611

conv.weight f4 [10, 1, 20]
0	0x80002076	-1.1645e-41
1	0x80002042	-1.1572e-41
2	0x00000a2d	3.65e-42
3	0x000020dc	1.1788e-41
4	0x80000111	-3.83e-43
5	0x80002261	-1.2333e-41
6	0x00000242	8.1e-43
7	0x00000bb3	4.197e-42
8	0x00002252	1.2312e-41
9	0x00000807	2.88e-42
10	0x800003c4	-1.351e-42
11	0x0000221a	1.2233e-41
12	0x800011e2	-6.415e-42
13	0x800005d5	-2.092e-42
14	0x8000200b	-1.1495e-41
15	0x8000210f	-1.1859e-41
16	0x8000219d	-1.2058e-41
17	0x80002115	-1.1868e-41
18	0x800006d7	-2.454e-42
19	0x800005d3	-2.09e-42
20	0xa7ba3c06	-5.169045e-15
21	0x28207b24	8.908486e-15
22	0xa7be04c4	-5.274076e-15
23	0xa8171296	-8.386214e-15
24	0xa737bb28	-2.549781e-15
25	0x2810a7ba	8.029976e-15
26	0x2785a1c3	3.70903e-15
27	0x262ac8e0	5.9252835e-16
28	0xa5ec5660	-4.0998004e-16
29	0xa4e21300	-9.8044064e-17
30	0xa7aaa1ec	-4.7360035e-15
31	0x28066ac6	7.461647e-15
32	0x27fdda88	7.045854e-15
33	0x267cce68	8.7709796e-16
34	0x27d886be	6.009813e-15
35	0x26e49774	1.586173e-15
36	0xa6b05ad4	-1.2237072e-15
37	0xa73d6e24	-2.6288726e-15
38	0xa780e007	-3.5770028e-15
39	0xa6f126c6	-1.6733244e-15
40	0x94f19b58	-2.4396054e-26
41	0x9526226c	-3.3550587e-26
42	0x95d34e21	-8.534549e-26
43	0x96094e53	-1.1091487e-25
44	0x960a03ab	-1.1148709e-25
45	0x962e5c7f	-1.4084795e-25
46	0x96370b9f	-1.4786289e-25
47	0x963003f4	-1.4218414e-25
48	0x962a7e3b	-1.3772322e-25
49	0x96266408	-1.3440938e-25
50	0x96204108	-1.2945217e-25
51	0x9634708e	-1.45758e-25
52	0x96258c30	-1.3372829e-25
53	0x96264904	-1.3432413e-25
54	0x96160be7	-1.2120659e-25
55	0x95f7aa0d	-1.000308e-25
56	0x95ec915f	-9.5548996e-26
57	0x95f5cca0	-9.9277553e-26
58	0x96225f72	-1.3116373e-25
59	0x9634257d	-1.4552113e-25
60	0xa82ab166	-9.475363e-15
61	0x283d6b1e	1.0514835e-14
62	0x2765b6c0	3.1879203e-15
63	0xa7972b14	-4.1957625e-15
64	0x28596343	1.2067444e-14
65	0x286acca4	1.3033984e-14
66	0xa7b994fa	-5.1509336e-15
67	0xa88507d6	-1.4769365e-14
68	0x26661580	7.982642e-16
69	0xa86a0c91	-1.2992334e-14
70	0xa8d5d702	-2.3740995e-14
71	0xa8eec69d	-2.6509443e-14
72	0xa8134220	-8.174478e-15
73	0x2766ddb0	3.203909e-15
74	0xa960c812	-4.9911525e-14
75	0x28d9491c	2.4123546e-14
76	0x2951e62d	4.6606968e-14
77	0x29e15d3a	1.00081795e-13
78	0xa80d4588	-7.8421495e-15
79	0xa9d84ee0	-9.6060096e-14
80	0x800007c2	-2.783e-42
81	0x80000827	-2.925e-42
82	0x000003f2	1.415e-42
83	0x0000223b	1.228e-41
84	0x0000229d	1.2417e-41
85	0x80001fae	-1.1365e-41
86	0x00000545	1.89e-42
87	0x00002040	1.1569e-41
88	0x00002289	1.2389e-41
89	0x800017d4	-8.548e-42
90	0x80002050	-1.1592e-41
91	0x000017e6	8.573e-42
92	0x800020af	-1.1725e-41
93	0x80002000	-1.148e-41
94	0x00000f9a	5.597e-42
95	0x000021fe	1.2194e-41
96	0x00001f30	1.1188e-41
97	0x00000cca	4.588e-42
98	0x800021cb	-1.2123e-41
99	0x80000ea8	-5.258e-42
100	0x00000226	7.71e-43
101	0x000007a1	2.737e-42
102	0x800009c4	-3.503e-42
103	0x800015d6	-7.833e-42
104	0x00001d5d	1.0534e-41
105	0x0000003a	8.1e-44
106	0x8000039e	-1.298e-42
107	0x0000009c	2.19e-43
108	0x00000e34	5.095e-42
109	0x8000134b	-6.921e-42
110	0x000004a3	1.663e-42
111	0x80001715	-8.28e-42
112	0x00001dac	1.0644e-41
113	0x0000148b	7.37e-42
114	0x00000204	7.23e-43
115	0x800013d5	-7.114e-42
116	0x80001081	-5.92e-42
117	0x80000b94	-4.153e-42
118	0x00000dda	4.969e-42
119	0x800009c3	-3.502e-42
120	0x25c09abf	3.341155e-16
121	0x25ae0489	3.0187262e-16
122	0xa4a06ffe	-6.957866e-17
123	0xa5fdf140	-4.405198e-16
124	0xa5abb037	-2.978318e-16
125	0x25d78d42	3.7392275e-16
126	0x25dc004e	3.8164123e-16
127	0xa5debffe	-3.864096e-16
128	0xa433d5cc	-3.899553e-17
129	0xa4d89016	-9.391916e-17
130	0xa3d90d80	-2.3532905e-17
131	0x2618fe7a	5.3080474e-16
132	0x25808590	2.2294966e-16
133	0xa5b47373	-3.1303254e-16
134	0xa5e79965	-4.0176056e-16
135	0xa57a7522	-2.172373e-16
136	0x23aca1f8	1.8716874e-17
137	0x25be8a13	3.305331e-16
138	0x25bf82a2	3.3221739e-16
139	0xa5974e04	-2.624719e-16
140	0x0000091a	3.265e-42
141	0x800002d4	-1.015e-42
142	0x8000200d	-1.1498e-41
143	0x0000020e	7.37e-43
144	0x00001dd9	1.0707e-41
145	0x80000653	-2.269e-42
146	0x800018fd	-8.964e-42
147	0x00000b3a	4.027e-42
148	0x00001c69	1.0192e-41
149	0x80000888	-3.06e-42
150	0x80000a85	-3.774e-42
151	0x00001ebb	1.1024e-41
152	0x80000d0a	-4.678e-42
153	0x80001b26	-9.739e-42
154	0x000012ac	6.698e-42
155	0x00001fe9	1.1447e-41
156	0x000020e0	1.1793e-41
157	0x0000200a	1.1493e-41
158	0x0000099c	3.447e-42
159	0x8000198d	-9.166e-42
160	0x800002c9	-9.99e-43
161	0x800003b5	-1.33e-42
162	0x80001ff7	-1.1467e-41
163	0x00001583	7.717e-42
164	0x00000c34	4.378e-42
165	0x80001485	-7.361e-42
166	0x80001a30	-9.394e-42
167	0x0000072c	2.573e-42
168	0x0000170a	8.265e-42
169	0x0000217e	1.2015e-41
170	0x8000057c	-1.967e-42
171	0x0000216b	1.1988e-41
172	0x80001b8a	-9.879e-42
173	0x800001bc	-6.22e-43
174	0x80001623	-7.941e-42
175	0x80001200	-6.457e-42
176	0x80001eb5	-1.1016e-41
177	0x800022fb	-1.2549e-41
178	0x80001eaa	-1.1e-41
179	0x80001ff7	-1.1467e-41
180	0x80001315	-6.845e-42
181	0x80001182	-6.28e-42
182	0x00000b37	4.023e-42
183	0x00002292	1.2401e-41
184	0x0000147e	7.351e-42
185	0x8000220f	-1.2218e-41
186	0x0000093c	3.313e-42
187	0x00001f6d	1.1273e-41
188	0x000018e3	8.928e-42
189	0x80002042	-1.1572e-41
190	0x80002158	-1.1961e-41
191	0x80000c27	-4.36e-42
192	0x80001f39	-1.12e-41
193	0x80001e9a	-1.0978e-41
194	0x00001bec	1.0016e-41
195	0x0000162a	7.951e-42
196	0x000021f1	1.2176e-41
197	0x000021ad	1.208e-41
198	0x00001014	5.768e-42
199	0x00000c84	4.49e-42

conv.bias f4 [10]
0	0xac80a1e9	-3.6559544e-12
1	0xa8934774	-1.6351266e-14
2	0x978de091	-9.1686e-25
3	0xa92ad175	-3.7929258e-14
4	0xa7a95c73	-4.7007156e-15
5	0x80001e24	-1.0812e-41
6	0xa55169da	-1.8163724e-16
7	0xa73fc03f	-2.6610792e-15
8	0xa7ac88aa	-4.788776e-15
9	0xa665b94f	-7.9701475e-16

conv_long.weight f4 [10, 1, 10]
0	0xa27ae91b	-3.4004723e-18
1	0xa19a457e	-1.045384e-18
2	0x219eaa83	1.0751631e-18
3	0x225935c6	2.9437451e-18
4	0x22652ab0	3.1057886e-18
5	0x2262fc17	3.0762167e-18
6	0x2281f6c4	3.5226793e-18
7	0x22524512	2.8496873e-18
8	0x217e4318	8.6147345e-19
9	0xa1711504	-8.168179e-19
10	0xa7c4dbf2	-5.4639393e-15
11	0xa7be8254	-5.2876896e-15
12	0xa779007f	-3.455596e-15
13	0xa786fb50	-3.7464945e-15
14	0xa78956ec	-3.811938e-15
15	0xa78b0929	-3.859018e-15
16	0xa7915d31	-4.0346623e-15
17	0xa79cd37f	-4.3528002e-15
18	0xa77bfee5	-3.4971426e-15
19	0xa751b4ef	-2.910266e-15
20	0x9ba3e856	-2.7116232e-22
21	0x95a42c52	-6.6309e-26
22	0x10ae2af1	6.869706e-29
23	0x0912f9ac	1.7691506e-33
24	0x83315766	-5.2115954e-37
25	0x0329269a	4.970895e-37
26	0x813a9a9b	-3.4273729e-38
27	0x000e857b	1.333581e-39
28	0x000195c0	1.45556e-40
29	0x803e0026	-5.693854e-39
30	0x2b1a92ef	5.49157e-13
31	0x2b1c896f	5.561306e-13
32	0x2b07a08c	4.818444e-13
33	0x2b11070e	5.152414e-13
34	0x2b04f2dc	4.7232856e-13
35	0x2a9df3dc	2.8058014e-13
36	0x2a629d66	2.0127441e-13
37	0x2a401cbd	1.7062996e-13
38	0x2a586895	1.9220938e-13
39	0x2a9f2453	2.826928e-13
40	0x80000857	-2.992e-42
41	0x000022a1	1.2423e-41
42	0x800007aa	-2.75e-42
43	0x000020af	1.1725e-41
44	0x800009f8	-3.576e-42
45	0x800020ed	-1.1812e-41
46	0x0000124b	6.562e-42
47	0x0000215d	1.1968e-41
48	0x8000219f	-1.2061e-41
49	0x00001f6b	1.127e-41
50	0x000021a2	1.2065e-41
51	0x8000206f	-1.1635e-41
52	0x000022e0	1.2511e-41
53	0x8000114c	-6.205e-42
54	0x80001fac	-1.1362e-41
55	0x8000143f	-7.263e-42
56	0x000009db	3.535e-42
57	0x00002034	1.1552e-41
58	0x00002027	1.1534e-41
59	0x0000036d	1.229e-42
60	0x2c4186a0	2.7501681e-12
61	0x2c4cdae3	2.911165e-12
62	0x2c690211	3.3112439e-12
63	0x2c7783e5	3.5174027e-12
64	0x2c7674d9	3.5023566e-12
65	0x2c74a12a	3.476395e-12
66	0x2c78750d	3.5307896e-12
67	0x2c6bbd81	3.3500704e-12
68	0x2c5a391d	3.1011368e-12
69	0x2c50205a	2.9576537e-12
70	0x2c67f082	3.2960583e-12
71	0xabea47ce	-1.664663e-12
72	0xac852266	-3.7839063e-12
73	0xac64eff6	-3.2533954e-12
74	0xac0bbe44	-1.9858707e-12
75	0xaab66273	-3.2398007e-13
76	0x2a3d0196	1.6787122e-13
77	0x29c25924	8.630794e-14
78	0x2aefa571	4.2569726e-13
79	0x2be31c87	1.6137238e-12
80	0x9f1451cb	-3.1407877e-20
81	0x99527eec	-1.0882377e-23
82	0x138a3dff	3.489723e-27
83	0x8c95a608	-2.3057011e-31
84	0x08db950c	1.3215624e-33
85	0x87a08ddf	-2.4157509e-34
86	0x850a6fb8	-6.509248e-36
87	0x0201d92b	9.539747e-38
88	0x01f01265	8.818847e-38
89	0x039c5dca	9.190389e-37
90	0x8c8ae1d4	-2.1398182e-31
91	0x85661943	-1.0819188e-35
92	0x81814021	-4.7479136e-38
93	0x00000705	2.518e-42
94	0x0000215e	1.197e-41
95	0x00002140	1.1928e-41
96	0x00000303	1.08e-42
97	0x80000dd4	-4.96e-42
98	0x00002115	1.1868e-41
99	0x00000015	3e-44

conv_long.bias f4 [10]
0	0xa2f6ef2b	-6.6931663e-18
1	0xa8b1165d	-1.9660646e-14
2	0xb5bb7240	-1.3965837e-06
3	0xac1426f7	-2.1053695e-12
4	0xa70c708b	-1.9489913e-15
5	0xad9778e3	-1.7220397e-11
6	0xacef3618	-6.798794e-12
7	0xad0409dd	-7.505521e-12
8	0xb5a8b454	-1.2569458e-06
9	0xb2850fd0	-1.5490428e-08

conv1.weight f4 [30, 30]
0	0x80000259	-8.42e-43
1	0x800010af	-5.985e-42
2	0x252fbd52	1.5242975e-16
3	0x000012c0	6.726e-42
4	0x0000df6f	8.0153e-41
5	0x00000042	9.2e-44
6	0x800000b2	-2.5e-43
7	0x000022ea	1.2525e-41
8	0x000010a6	5.972e-42
9	0x00000225	7.7e-43
10	0x80001123	-6.147e-42
11	0x00000d37	4.74e-42
12	0x80001261	-6.593e-42
13	0x80000b23	-3.995e-42
14	0x0000200e	1.1499e-41
15	0x814667b6	-3.6441265e-38
16	0x00001fe1	1.1436e-41
17	0x122e3b52	5.4977837e-28
18	0x0000d826	7.754e-41
19	0x8002e5cd	-2.66108e-40
20	0x00001f97	1.1332e-41
21	0x800588c8	-5.08245e-40
22	0x80001ddd	-1.0713e-41
23	0x0420033e	1.8809398e-36
24	0x00000901	3.23e-42
25	0x25baa158	3.2375187e-16
26	0x8e2f7378	-2.1626012e-30
27	0x80000cf5	-4.648e-42
28	0x00000221	7.64e-43
29	0x86bf2c0a	-7.1910924e-35
30	0xb69829be	-4.5348124e-06
31	0x84aaf6c1	-4.0193416e-36
32	0x32ded8be	2.5942764e-08
33	0x0ae550c7	2.2082283e-32
34	0x84303d08	-2.0716725e-36
35	0x8000179b	-8.468e-42
36	0x317653ba	3.5845305e-09
37	0x8000b31b	-6.4251e-41
38	0x882cb221	-5.1968757e-34
39	0x0000228c	1.2393e-41
40	0x0708abad	1.0281954e-34
41	0x063cf09a	3.5535636e-35
42	0x80001d94	-1.061e-41
43	0x8cb79eee	-2.8291267e-31
44	0x861aa0a6	-2.9082207e-35
45	0x8000163c	-7.976e-42
46	0x8003cfe6	-3.50086e-40
47	0x000012dd	6.767e-42
48	0x10f76ed8	9.7595104e-29
49	0x12fce10e	1.5958916e-27
50	0x02322400	1.3087706e-37
51	0x00000c84	4.49e-42
52	0xa3f03078	-2.604138e-17
53	0x80001cfc	-1.0398e-41
54	0x80001f6d	-1.1273e-41
55	0xa8858def	-1.482752e-14
56	0x80001f7d	-1.1296e-41
57	0x136b59ae	2.9705386e-27
58	0x80001a46	-9.425e-42
59	0x00001ce9	1.0371e-41
60	0x2f8116fc	2.3481295e-10
61	0x842945ce	-1.9897907e-36
62	0x34c317be	3.6338855e-07
63	0x0b444b53	3.7804895e-32
64	0x844e5314	-2.4253331e-36
65	0x00001362	6.953e-42
66	0x8b9d911c	-6.0692537e-32
67	0x800009d5	-3.527e-42
68	0x883a8425	-5.6127674e-34
69	0x80002159	-1.1963e-41
70	0x070ab28f	1.043444e-34
71	0x064740c2	3.7475317e-35
72	0x8000214a	-1.1942e-41
73	0x8ce54b35	-3.53283e-31
74	0x050e0418	6.67756e-36
75	0x80001062	-5.877e-42
76	0x8003734f	-3.16871e-40
77	0x000016ef	8.227e-42
78	0x10b87b30	7.2765004e-29
79	0x9103d2d3	-1.0399043e-28
80	0x83d64fc6	-1.2596105e-36
81	0x80008429	-4.741e-41
82	0xad75ab46	-1.3964668e-11
83	0x80002204	-1.2203e-41
84	0x80002000	-1.148e-41
85	0x18f8cb28	6.4311633e-24
86	0x80001cc2	-1.0316e-41
87	0x13734ae0	3.0707828e-27
88	0x8000166e	-8.046e-42
89	0x000015fe	7.89e-42
90	0x27696a44	3.2392852e-15
91	0x2f408e56	1.7512866e-10
92	0x92eaf0f0	-1.4826872e-27
93	0xb32506a4	-3.8423096e-08
94	0x09c49dd6	4.7333712e-33
95	0x00009107	5.2026e-41
96	0xab276881	-5.9475347e-13
97	0xb3da4230	-1.01634555e-07
98	0x2ae7b930	4.1162343e-13
99	0x31badae4	5.4381974e-09
100	0x36d7d6b2	6.432493e-06
101	0xb6558ba0	-3.1820746e-06
102	0x00034e3c	3.03572e-40
103	0xa60c3988	-4.8650227e-16
104	0x964aea68	-1.6391396e-25
105	0xb0116708	-5.289711e-10
106	0x2fae3068	3.168481e-10
107	0x98885168	-3.5237375e-24
108	0x3a616e85	0.00085995375
109	0x01889880	5.0177337e-38
110	0xabd70db0	-1.5280468e-12
111	0xadec56e4	-2.6868681e-11
112	0xa61baa8c	-5.400756e-16
113	0xab9131f8	-1.0316739e-12
114	0x8001ed5b	-1.76983e-40
115	0x88a00800	-9.6315305e-34
116	0x989c4b58	-4.0401133e-24
117	0x1b679658	1.9156451e-22
118	0x00178b09	2.162093e-39
119	0x0000136d	6.969e-42
120	0x34eee114	4.449472e-07
121	0x8c39e2c0	-1.4320117e-31
122	0x9688f890	-2.212885e-25
123	0x985bdd60	-2.8416852e-24
124	0x0cb19963	2.7363484e-31
125	0x000013b1	7.064e-42
126	0x301fd3b4	5.814471e-10
127	0x048e8831	3.350911e-36
128	0x0fbb1529	1.8447774e-29
129	0x00001c4a	1.0148e-41
130	0x0c51b10c	1.6154052e-31
131	0x0bed15e4	9.1322017e-32
132	0x000021c3	1.2111e-41
133	0x990a8de5	-7.163088e-24
134	0x9957089a	-1.11169766e-23
135	0x00000d61	4.8e-42
136	0x11c6e0cf	3.137744e-28
137	0x00002019	1.1514e-41
138	0x98325e3a	-2.3053533e-24
139	0xba3b5540	-0.0007146187
140	0x0b2d8ccf	3.342452e-32
141	0x80002352	-1.267e-41
142	0x9ad0554c	-8.616459e-23
143	0x000012d0	6.749e-42
144	0x80001c5a	-1.017e-41
145	0xb019b700	-5.5921134e-10
146	0x80001a4f	-9.438e-42
147	0x1907998e	7.0103465e-24
148	0x80001e80	-1.0941e-41
149	0x8003bc07	-3.42958e-40
150	0x3b4ccc46	0.0031249686
151	0x8f7aa2f3	-1.23573345e-29
152	0x342d4058	1.6135289e-07
153	0x98d14f4c	-5.4105303e-24
154	0x0c98baf2	2.3531822e-31
155	0x00000e94	5.23e-42
156	0x16a79940	2.707702e-25
157	0x04a6560b	3.910543e-36
158	0x0fcdc200	2.0289287e-29
159	0x0000143e	7.262e-42
160	0x0c4031b2	1.4806097e-31
161	0x0bcd3758	7.90464e-32
162	0x000018ec	8.94e-42
163	0xb885a797	-6.37315e-05
164	0x9a69a0fa	-4.8313307e-23
165	0x8000b8b7	-6.6263e-41
166	0x9158f1dd	-1.7113925e-28
167	0x80000d3e	-4.75e-42
168	0x98669cc5	-2.9805952e-24
169	0xb25e1b00	-1.292824e-08
170	0x8b32aa38	-3.440961e-32
171	0x80015fb5	-1.26169e-40
172	0x3229e744	9.889678e-09
173	0x80001d28	-1.0459e-41
174	0x80001ed1	-1.1055e-41
175	0xac561554	-3.0423069e-12
176	0x80001ef7	-1.1108e-41
177	0x190782da	7.005762e-24
178	0x80001fc3	-1.1394e-41
179	0x0000b74f	6.5759e-41
180	0x00001c36	1.012e-41
181	0x9944f402	-1.01822395e-23
182	0x80001096	-5.95e-42
183	0x80001f4e	-1.123e-41
184	0x349e698c	2.950659e-07
185	0x000019d6	9.268e-42
186	0x00001920	9.013e-42
187	0x0000014b	4.64e-43
188	0x80001c73	-1.0206e-41
189	0x00000d6e	4.818e-42
190	0x80000d82	-4.846e-42
191	0x80002247	-1.2296e-41
192	0x00000075	1.64e-43
193	0x0000011c	3.98e-43
194	0x02af53dd	2.5762074e-37
195	0x08a605cb	9.9921235e-34
196	0x80002059	-1.1604e-41
197	0x9a9c1326	-6.4551024e-23
198	0x0393db1c	8.6901885e-37
199	0x000011a0	6.323e-42
200	0x800022e6	-1.2519e-41
201	0x800009b8	-3.486e-42
202	0x8303af6c	-3.8698814e-37
203	0x8bf58476	-9.456987e-32
204	0x80001ff3	-1.1461e-41
205	0x36d92310	6.4711858e-06
206	0x98b18576	-4.588819e-24
207	0x826f8b48	-1.7598919e-37
208	0x000016ba	8.153e-42
209	0x111a2d37	1.2162391e-28
210	0x00002050	1.1592e-41
211	0x80023c26	-2.05248e-40
212	0x80001a91	-9.53e-42
213	0x00001120	6.143e-42
214	0x00017114	1.324e-40
215	0x000001ce	6.47e-43
216	0x00001b82	9.868e-42
217	0x80001a5f	-9.46e-42
218	0x80000a6a	-3.736e-42
219	0x80001f2b	-1.1181e-41
220	0x8000053d	-1.879e-42
221	0x00001f1e	1.1163e-41
222	0x8000150c	-7.55e-42
223	0x80001c2e	-1.0109e-41
224	0x00001d29	1.046e-41
225	0x800020e6	-1.1802e-41
226	0x80001b1b	-9.724e-42
227	0x8b6173e6	-4.3420616e-32
228	0x00009bef	5.5938e-41
229	0x00000912	3.254e-42
230	0x80001c4f	-1.0155e-41
231	0x80009143	-5.211e-41
232	0x8000fa59	-8.9808e-41
233	0x00082896	7.49243e-40
234	0x80000964	-3.369e-42
235	0xb5b08141	-1.315064e-06
236	0x0641b2ce	3.643063e-35
237	0x00001dcc	1.0689e-41
238	0x00000eba	5.283e-42
239	0x804dd954	-7.149296e-39
240	0x80000e06	-5.03e-42
241	0x0000feb5	9.1372e-41
242	0x00001362	6.953e-42
243	0x800005a7	-2.028e-42
244	0x8002646c	-2.19696e-40
245	0x80000121	-4.05e-43
246	0x80001b0e	-9.705e-42
247	0x800014f2	-7.514e-42
248	0x8000210d	-1.1856e-41
249	0x800021e7	-1.2162e-41
250	0x80001152	-6.213e-42
251	0x000022c8	1.2477e-41
252	0x80001540	-7.623e-42
253	0x80001371	-6.974e-42
254	0x00000735	2.585e-42
255	0x0000038e	1.275e-42

conv1.bias f4 [30]
0	0xab5a32a1	-7.751942e-13
1	0xaa9d2209	-2.791242e-13
2	0x2b839431	9.349241e-13
3	0x2e1f1def	3.6179e-11
4	0xa22ced60	-2.3436012e-18
5	0xa7418a7c	-2.6859203e-15
6	0x29cf5778	9.20782e-14
7	0x99079d2e	-7.0110786e-24
8	0xa813a5ac	-8.196064e-15
9	0x9503e789	-2.6637888e-26
10	0xa53b51f4	-1.6247431e-16
11	0x258fb80d	2.4931263e-16
12	0x1130e44a	1.3954299e-28
13	0x2bc24881	1.3804653e-12
14	0xaf97fe75	-2.7647543e-10
15	0xa2ee0269	-6.451258e-18
16	0x23f9397d	2.7020981e-17
17	0xac14797b	-2.10995e-12
18	0xb0971635	-1.0993008e-09
19	0x2e3784b9	4.1727264e-11
20	0xa218c126	-2.0702093e-18
21	0x14136d2c	7.443134e-27
22	0x303e727d	6.9284295e-10
23	0xa7417500	-2.6847556e-15
24	0x000e660d	1.322306e-39
25	0x33289361	3.924959e-08
26	0xadf10fcf	-2.7405548e-11
27	0x349661a1	2.8010712e-07
28	0x9be7fc80	-3.8378919e-22
29	0xa7beb3de	-5.2930606e-15

conv2.weight f4 [30, 10]
0	0x312e314e	2.534836e-09
1	0x8000202d	-1.1542e-41
2	0x8000199e	-9.19e-42
3	0x2818c5b4	8.480565e-15
4	0x000020bf	1.1747e-41
5	0x00001859	8.734e-42
6	0x2fd2edf4	3.8367853e-10
7	0xb0025628	-4.741616e-10
8	0x8001c80f	-1.63603e-40
9	0xa04237b4	-1.645087e-19
10	0x801bf488	-2.56728e-39
11	0x00007b7d	4.4299e-41
12	0x800017bb	-8.513e-42
13	0x1fa21644	6.8646504e-20
14	0x00025725	2.14933e-40
15	0x8000d2e1	-7.5649e-41
16	0x2936b19b	4.0566166e-14
17	0x3114b99b	2.164234e-09
18	0x129b0ba0	9.784741e-28
19	0x9a3aaaf3	-3.860199e-23
20	0x0a8d29e2	1.359356e-32
21	0x000021be	1.2104e-41
22	0x8000220d	-1.2215e-41
23	0x3480604a	2.3911917e-07
24	0x00001ce9	1.0371e-41
25	0x80001ded	-1.0735e-41
26	0xa25ef35a	-3.021544e-18
27	0x26a581bc	1.148434e-15
28	0x0060414b	8.83963e-39
29	0xa63290ba	-6.1952297e-16
30	0x208a9e89	2.348302e-19
31	0x80000983	-3.412e-42
32	0x00001d53	1.052e-41
33	0x92cccec4	-1.2925182e-27
34	0x000022e9	1.2523e-41
35	0x80001d79	-1.0573e-41
36	0xb32f3c40	-4.080016e-08
37	0x2605f5ff	4.647703e-16
38	0x80003e6a	-2.239e-41
39	0x22e4ef3c	6.2052823e-18
40	0x000083b5	4.7248e-41
41	0x800020d6	-1.178e-41
42	0x000007bf	2.779e-42
43	0x19b48ef0	1.8669296e-23
44	0x00000a70	3.744e-42
45	0x8000214c	-1.1945e-41
46	0x2877969d	1.3743913e-14
47	0xa383c72d	-1.4287403e-17
48	0x80000591	-1.997e-42
49	0x0a01c49c	6.248102e-33
50	0x80001e22	-1.081e-41
51	0x0c10a080	1.1141655e-31
52	0x0000020b	7.33e-43
53	0x932d8229	-2.1899844e-27
54	0x800020c5	-1.1755e-41
55	0x0000847e	4.7529e-41
56	0x93d63c1d	-5.408047e-27
57	0xba249f14	-0.0006279808
58	0x80001a60	-9.462e-42
59	0x05a06268	1.5082476e-35
60	0x000a61d9	9.53456e-40
61	0x800011da	-6.404e-42
62	0x80002193	-1.2044e-41
63	0xaf018a9c	-1.1781726e-10
64	0x80000bcd	-4.233e-42
65	0x80001a44	-9.422e-42
66	0x964e9a06	-1.6689149e-25
67	0x3000248f	4.661808e-10
68	0x00007723	4.2738e-41
69	0x399dad20	0.00030074362
70	0x000021cb	1.2123e-41
71	0x94a1ac8d	-1.6324905e-26
72	0x000021d2	1.2132e-41
73	0x16d1ebe8	3.391465e-25
74	0x000000fe	3.56e-43
75	0x032d9cd5	5.1020165e-37
76	0xa2ae8387	-4.7302054e-18
77	0xa969092c	-5.1744348e-14
78	0x802946fb	-3.790718e-39
79	0x9561651e	-4.5518156e-26
80	0x800565cb	-4.95694e-40
81	0x00000086	1.88e-43
82	0x00001e88	1.0953e-41
83	0x97ec0e9e	-1.5254832e-24
84	0x8000125e	-6.589e-42
85	0x8000059a	-2.01e-42
86	0xacc15fae	-5.4960125e-12
87	0x1d88dc63	3.6226775e-21
88	0x00001477	7.341e-42
89	0x09a62326	3.99961e-33
90	0x800008ad	-3.112e-42
91	0xb0e9f270	-1.7021886e-09
92	0xa7583423	-3.0004285e-15
93	0x141422e1	7.478969e-27
94	0x225bb9bb	2.977836e-18
95	0xac0f0426	-2.0323825e-12
96	0x1406cd40	6.8057495e-27
97	0x12027e15	4.1176175e-28
98	0x02c9cfee	2.9653641e-37
99	0x107b7f6e	4.959919e-29
100	0x8310a8d5	-4.2511606e-37
101	0x80001fe4	-1.144e-41
102	0x0000039d	1.296e-42
103	0x139dcaee	3.9832476e-27
104	0x0000206b	1.163e-41
105	0x8000211e	-1.188e-41
106	0xb1b4c8dc	-5.2615245e-09
107	0x092352f8	1.9659423e-33
108	0x00001056	5.86e-42
109	0x161f05ed	1.2845788e-25
110	0x000583c7	5.0645e-40
111	0x00001c2e	1.0109e-41
112	0x000012e6	6.78e-42
113	0x14923c63	1.4766051e-26
114	0x00000447	1.534e-42
115	0x0000083a	2.951e-42
116	0xaf359a47	-1.6516664e-10
117	0x9cb0e730	-1.1706464e-21
118	0x80038630	-3.23644e-40
119	0x984b0340	-2.6238776e-24
120	0x00000802	2.873e-42
121	0xadeddf01	-2.7042814e-11
122	0x1e047a2f	7.013289e-21
123	0x0000213a	1.192e-41
124	0x9b115a2e	-1.2023258e-22
125	0xa73783f9	-2.5467894e-15
126	0x0fc30bb0	1.9232986e-29
127	0x0a806aff	1.2366199e-32
128	0x000021ca	1.2121e-41
129	0x84daa73e	-5.140514e-36
130	0x2c964ad8	4.2715657e-12
131	0x000015ac	7.774e-42
132	0x00001a73	9.488e-42
133	0xb13024e0	-2.5632332e-09
134	0x800018d6	-8.91e-42
135	0x8000102b	-5.8e-42
136	0xad242cfa	-9.3323075e-12
137	0xa9617474	-5.0061043e-14
138	0x00026ecf	2.23422e-40
139	0xaf3fb218	-1.743462e-10
140	0x8000e90e	-8.3604e-41
141	0x00002248	1.2298e-41
142	0x80002051	-1.1593e-41
143	0xaab5759c	-3.2233667e-13
144	0x80001b25	-9.738e-42
145	0x80001f7f	-1.1299e-41
146	0xb8d45941	-0.000101255726
147	0x8d3790e8	-5.6565653e-31
148	0x80001681	-8.073e-42
149	0xa68fdcfc	-9.982516e-16
150	0x00000589	1.986e-42
151	0xa5763ba2	-2.1357303e-16
152	0x8c692e16	-1.7963536e-31
153	0x00001430	7.242e-42
154	0x86ecf844	-8.9138127e-35
155	0x9a38e06f	-3.8231604e-23
156	0x18eb6a4c	6.085341e-24
157	0x1186c162	2.1260654e-28
158	0x000006ff	2.51e-42
159	0x0584fa08	1.2505067e-35
160	0x80000afb	-3.939e-42
161	0x00002105	1.1845e-41
162	0x0000156a	7.682e-42
163	0x800ea631	-1.345315e-39
164	0x800021ef	-1.2173e-41
165	0x00000c06	4.313e-42
166	0xb23d9a40	-1.103632e-08
167	0x24bc2fb8	8.161284e-17
168	0x80003c5e	-2.1656e-41
169	0x198ccb1c	1.4557696e-23
170	0x80001b06	-9.694e-42
171	0xabab63ba	-1.217796e-12
172	0x198d8b88	1.4635415e-23
173	0x800006a4	-2.382e-42
174	0x9498e562	-1.5438553e-26
175	0xa1f7991e	-1.6777901e-18
176	0x0000958c	5.3647e-41
177	0x00001691	8.095e-42
178	0x000004c3	1.708e-42
179	0x80001c41	-1.0136e-41
180	0x80001ce1	-1.036e-41
181	0x00001623	7.941e-42
182	0x00001fe1	1.1436e-41
183	0x19f5d856	2.5419784e-23
184	0x80001ee6	-1.1084e-41
185	0x00002276	1.2362e-41
186	0x3589d160	1.0268232e-06
187	0x2345dd47	1.0726249e-17
188	0x8000191f	-9.012e-42
189	0x8c0a79d1	-1.0667791e-31
190	0x80001fec	-1.1451e-41
191	0x0000177f	8.429e-42
192	0x0000141f	7.218e-42
193	0x9d699538	-3.0914438e-21
194	0x000020e4	1.1799e-41
195	0x80000365	-1.218e-42
196	0xa9c9c82a	-8.960916e-14
197	0xb51a1a91	-5.740813e-07
198	0x0005a127	5.16988e-40
199	0xac8a68d8	-3.933836e-12
200	0x00002235	1.2271e-41
201	0x9cf70427	-1.6346162e-21
202	0x000c6e32	1.141557e-39
203	0x98567e30	-2.772256e-24
204	0x00001222	6.505e-42
205	0x0a68bd8b	1.1206043e-32
206	0x2691bf56	1.0113258e-15
207	0xa5092044	-1.1893788e-16
208	0x800146bd	-1.17212e-40
209	0x0a5cdf93	1.0634664e-32
210	0x80006447	-3.5973e-41
211	0x80001738	-8.33e-42
212	0x800022d9	-1.2501e-41
213	0x9cd572b6	-1.412481e-21
214	0x80001b21	-9.732e-42
215	0x80001b27	-9.74e-42
216	0xa8cc6ea3	-2.269653e-14
217	0xa2de8eac	-6.032428e-18
218	0x00006385	3.5701e-41
219	0x9c08ac38	-4.5221213e-22
220	0x378e1398	1.6936843e-05
221	0x800022c1	-1.2467e-41
222	0x80000045	-9.7e-44
223	0x363899a8	2.7507576e-06
224	0x0000230a	1.257e-41
225	0x000013a8	7.051e-42
226	0xb597b002	-1.1301602e-06
227	0x25244767	1.4248925e-16
228	0x3217620b	8.811649e-09
229	0xbac45d94	-0.0014981502
230	0x80000f57	-5.503e-42
231	0x2e07895f	3.0817456e-11
232	0xa35c91f8	-1.1957134e-17
233	0x000013e8	7.141e-42
234	0xa0077dd9	-1.1476584e-19
235	0xa9a6af78	-7.40232e-14
236	0x00077a1a	6.8665e-40
237	0x00000489	1.627e-42
238	0x000454d1	3.97768e-40
239	0x8000044d	-1.543e-42
240	0x80000e34	-5.095e-42
241	0xb3c1c59d	-9.0232085e-08
242	0xac9aa13a	-4.394843e-12
243	0x8000185f	-8.743e-42
244	0x28107076	8.017992e-15
245	0xb0baae39	-1.3582798e-09
246	0x80001dad	-1.0646e-41
247	0x00001765	8.392e-42
248	0x12d808bd	1.3633671e-27
249	0x00000af0	3.924e-42
250	0x000022bd	1.2462e-41
251	0x80001ef8	-1.111e-41
252	0x00001769	8.398e-42
253	0xae60c1e4	-5.1103913e-11
254	0x00000f0a	5.395e-42
255	0x80001e52	-1.0877e-41

conv2.bias f4 [10]
0	0xafb81862	-3.348673e-10
1	0xa7760dbc	-3.4146803e-15
2	0xa297ee47	-4.118092e-18
3	0xb50d22d4	-5.2577275e-07
4	0x9db10f03	-4.686703e-21
5	0xa8a24dcd	-1.8019354e-14
6	0xbc99d0d6	-0.018776339
7	0xb845d184	-4.7163587e-05
8	0xbbb4c7a8	-0.005516965
9	0xb2a8cdb9	-1.9651326e-08

rnn.weight_ih_l0 f4 [30, 1]
0	0xbe5b3ee8	-0.21410716
1	0x3d19dcd8	0.03756413
2	0xbde0de65	-0.109799184
3	0xbd873b10	-0.06603062
4	0xbe8bb56b	-0.27286848
5	0xbd243dd3	-0.040098023
6	0xbbe6b3d8	-0.007040482
7	0xbeda9705	-0.42693344
8	0x3d11949d	0.03554212
9	0x3e0fb957	0.14035545
10	0x3cd0f1d7	0.025505943
11	0x3e225792	0.15853718
12	0xbe1b8a5b	-0.15189497
13	0xbc2b8e13	-0.010470885
14	0x3ebf0d3b	0.37314782
15	0xbcae9aa6	-0.021313976
16	0xbe1915d8	-0.14949739
17	0xbe0f71ec	-0.14008301
18	0xbe1dbf9d	-0.15405126
19	0x3e0dd4e1	0.13850738
20	0xbe2f36be	-0.17110726
21	0x3e25da8e	0.16196653
22	0x3e10b5f1	0.14131905
23	0x3e9f15ac	0.31071222
24	0x3e8953ce	0.2682175
25	0xbe8a0ebf	-0.26964375
26	0xbdddfc28	-0.108391106
27	0xbbbd84c3	-0.0057836487
28	0xbe1f0498	-0.15529096
29	0xc09e0ed1	-4.9393086

rnn.weight_hh_l0 f4 [30, 30]
0	0x3dce32ef	0.100683086
1	0x3e14bceb	0.14525191
2	0x3c212c4c	0.009837221
3	0xbd7485d5	-0.059697945
4	0x3de99ac2	0.11406471
5	0xbcf8bff8	-0.030364975
6	0xbe014f7e	-0.1262798
7	0x3b0574c7	0.0020363794
8	0xbbe20956	-0.0068980856
9	0x3e188ad6	0.14896712
10	0x3c991174	0.01868508
11	0x3d4d81e5	0.050172705
12	0xbdd3d8af	-0.103440635
13	0xbc806a80	-0.015675783
14	0x3dc0785e	0.09397958
15	0x3e0c1c36	0.13682637
16	0xbcc9231d	-0.024552876
17	0xbe1994c4	-0.14998156
18	0xbe18a37e	-0.14906117
19	0x3e1702cc	0.1474716
20	0x3e0911bc	0.13385671
21	0x3cafab96	0.021444123
22	0x3e1931b1	0.14960362
23	0xbd8b47f0	-0.0680083
24	0x3e15b15a	0.14618436
25	0xbe204a94	-0.1565345
26	0x3e14faec	0.14548844
27	0x3e07f456	0.132768
28	0xbe16f77a	-0.14742842
29	0x3db378e2	0.08763291
30	0xbefa0212	-0.48829705
31	0x3c5d37a3	0.013502034
32	0x3e10e7f5	0.14150985
33	0x3d717d58	0.058957428
34	0xbf091833	-0.5355255
35	0xbace0eea	-0.0015720997
36	0xbee131c8	-0.43983293
37	0xbc684505	-0.014176612
38	0xbbc6a4c7	-0.0060621235
39	0x3e8a9bbb	0.27071938
40	0x3dda1dd3	0.1065022
41	0x3d24d5e1	0.040243033
42	0xbe938e2e	-0.28819412
43	0xbddafa16	-0.10692231
44	0x3e6b3234	0.2296837
45	0x3e38a718	0.18032491
46	0xbcde67ad	-0.027149046
47	0xbec978fb	-0.39350113
48	0xbe5a0c08	-0.21293652
49	0x3e75a347	0.23988067
50	0x3e35f41c	0.17768902
51	0xbe8e9c4e	-0.27853626
52	0x3e97dcab	0.29660544
53	0xbd6d80f1	-0.057984296
54	0x3d808404	0.0627518
55	0xbe96c488	-0.29446816
56	0x3f0d81d4	0.55276227
57	0xbb6748a6	-0.0035291105
58	0xbed1905b	-0.40930447
59	0x3daff20c	0.08591089
60	0xbca51069	-0.020149427
61	0xbc6c9eb8	-0.014442138
62	0xbe6f0bcd	-0.23344345
63	0x3d4d8be0	0.050182223
64	0xbcd6d162	-0.026222888
65	0x3c6020a9	0.013679662
66	0x3d4f2abd	0.050577868
67	0xbd1fd072	-0.03901715
68	0x3bd6083c	0.0065317433
69	0xbc641bd5	-0.013922651
70	0x3cf5ac82	0.029989485
71	0xbd4dcf8a	-0.050246753
72	0x3c809132	0.015694235
73	0x3e1cc440	0.15309238
74	0xbcc95642	-0.024577264
75	0xbc97b6f6	-0.01851986
76	0x3dc1c6c5	0.094617404
77	0x3c087536	0.0083287265
78	0x3c24a0d3	0.010048109
79	0xbc3d1dde	-0.011542765
80	0xbc26cff7	-0.010181419
81	0xbcab5dca	-0.020918746
82	0xbc38e97e	-0.011286138
83	0x3bcd8723	0.006272213
84	0xbc5c64e9	-0.013451793
85	0x3c8baed2	0.017051134
86	0xbbd6cf65	-0.006555485
87	0x3d333fa2	0.043761857
88	0x3b6ff2bb	0.0036613184
89	0x3c24951d	0.010045317
90	0xbbcd6809	-0.0062685055
91	0xbd0e5ff0	-0.034759462
92	0xbec672f0	-0.38759565
93	0xbeb68e9e	-0.35655683
94	0xbd023773	-0.03179116
95	0x3ce18cf5	0.027533034
96	0x3d359972	0.04433579
97	0xbe2091b9	-0.15680589
98	0xbd02dcab	-0.031948727
99	0xbbf2ab18	-0.00740565
100	0x3db47265	0.088108815
101	0xbdfd150d	-0.12357531
102	0xbe25d68f	-0.16195129
103	0x3ebb5536	0.36588448
104	0xbdc6f5eb	-0.09714874
105	0x3b30b946	0.00269659
106	0x3f13969f	0.57651705
107	0x3c251e74	0.010078061
108	0x3c8ae37f	0.016954182
109	0xbc7ecdb2	-0.015551971
110	0xbcfe64d8	-0.031053945
111	0xbcc44806	-0.023960125
112	0xbc42a682	-0.011880519
113	0x3d502e68	0.050825506
114	0xbc28b330	-0.010296628
115	0x3c5a321d	0.013317612
116	0xbc8f4998	-0.017491147
117	0x3e497ea4	0.19677216
118	0x3bffd455	0.0078072944
119	0xbe8bc5e6	-0.27299422
120	0x3dd8f3ed	0.105934
121	0x3dc7e9bc	0.09761378
122	0x3ba483a7	0.005020577
123	0xbe037851	-0.12838866
124	0x3c6eb786	0.014570123
125	0x3c7074e9	0.014676311
126	0xbdcc80c4	-0.099854976
127	0x3c843c2f	0.016141979
128	0xbd3e022c	-0.04638879
129	0x3dc37134	0.09543076
130	0x3c12c9a2	0.008959206
131	0x3ca589ae	0.020207252
132	0x3cbdfdab	0.023192247
133	0x3c7413c2	0.014897289
134	0x3d96f059	0.073700614
135	0x3d91372e	0.07090603
136	0xbd7f7157	-0.06236395
137	0xbdf7dfe9	-0.12103254
138	0xbdd60c8a	-0.104516104
139	0x3dcfddeb	0.10149749
140	0x3dd2e3ae	0.10297333
141	0xbb06cd88	-0.0020569284
142	0x3dd7be20	0.1053431
143	0xbd5e0f34	-0.054213718
144	0x3dac14b1	0.08402384
145	0xbdf61530	-0.1201576
146	0x3dea57e8	0.11442548
147	0x3dbaf340	0.091284275
148	0xbde17b67	-0.11009865
149	0x3e387607	0.18013774
150	0x3cc806fb	0.024417391
151	0x3c23a566	0.0099881645
152	0xbdc9abb1	-0.09847201
153	0xbe98cfa8	-0.2984593
154	0x3d224a27	0.0396215
155	0xbdf31fbe	-0.11871289
156	0xbdd06adf	-0.10176634
157	0x3cc3f1db	0.023919037
158	0xbd985f0f	-0.07440006
159	0x3d3a58ec	0.04549496
160	0xbd7a9c49	-0.0611842
161	0x3c01f8d7	0.007932863
162	0x3b41d886	0.002957852
163	0x3dd1d17c	0.10245034
164	0x3cc904b9	0.024538385
165	0xbd87d13e	-0.06631707
166	0xbaaf3557	-0.0013367337
167	0xbcdcd928	-0.026959017
168	0x3dbe73f0	0.09299457
169	0x3c81e555	0.015856424
170	0xbdae0995	-0.084979214
171	0x3cbd5cbf	0.023115514
172	0xbcb0055f	-0.021486936
173	0xbd87d250	-0.06631911
174	0x3d7d4849	0.061836515
175	0xbce2b580	-0.027674437
176	0x3d92cca2	0.07167937
177	0x3cc6cc4f	0.024267344
178	0x3c1fa9ab	0.009745042
179	0x3e51dd16	0.20494494
180	0xbe3bc77d	-0.18337817
181	0xbe309bdb	-0.17246954
182	0x3c4d567d	0.012532827
183	0xbcf7724c	-0.030205868
184	0xbe32c378	-0.17457378
185	0x3d2e9126	0.042618893
186	0xbe590075	-0.2119158
187	0x3c9d31fc	0.019188873
188	0x3c507f78	0.012725703
189	0xbe3aee65	-0.18255003
190	0xbc7baab9	-0.015360528
191	0x3d0b9fb0	0.034087837
192	0x3e3ac74f	0.18240093
193	0xbd94441a	-0.07239552
194	0xbc31020e	-0.0108037125
195	0xbe257432	-0.16157606
196	0xbb2048d9	-0.0024457483
197	0x3e3d9f5a	0.18517819
198	0x3e3c7e82	0.18407634
199	0xbe32ba69	-0.17453922
200	0xbe3c7df8	-0.18407428
201	0xbe351d80	-0.17687035
202	0xbe3af8a2	-0.18258908
203	0x3cff042b	0.031129917
204	0xbe32f9d6	-0.17478117
205	0x3e392f19	0.18084373
206	0xbe3eadea	-0.1862103
207	0xbe314bb7	-0.17314039
208	0x3e3c68ef	0.18399404
209	0xbda967c0	-0.08271742
210	0x3d7a719e	0.06114351
211	0x3d2212c9	0.039568696
212	0x3d4b96d7	0.0497044
213	0x3cd4d07d	0.025978321
214	0xbd2f9203	-0.042863857
215	0xbd3856de	-0.045004718
216	0xbd8bd4db	-0.06827708
217	0xbf1598dd	-0.58436376
218	0x3d02044a	0.03174237
219	0x3d4aa351	0.049472157
220	0x3d46f701	0.048575405
221	0x3c9f3b97	0.019437594
222	0xbda6ce55	-0.081448235
223	0x3c847852	0.016170654
224	0x3b12b50c	0.0022385744
225	0x3da4b13d	0.08041618
226	0xbb814c9e	-0.003945901
227	0x3d89edec	0.06734833
228	0xbd9a915a	-0.07547255
229	0xbdfb7123	-0.122774385
230	0x3d04d3df	0.03242862
231	0x3dc4cf04	0.096097976
232	0x3db4dfc1	0.0883174
233	0xbe57863c	-0.210473
234	0x3dd41c9a	0.10357018
235	0x3c5d3f9d	0.013503936
236	0x3c9149bb	0.017735353
237	0xbeeb2ae8	-0.45931172
238	0xbd97baac	-0.07408652
239	0xbec8a3bc	-0.3918742
240	0xbce0ecfe	-0.027456757
241	0xbd600596	-0.054692827
242	0x3d690075	0.0568852
243	0xbded4414	-0.115852505
244	0xbc9be268	-0.019028857
245	0x3d904087	0.070435576
246	0xbb62c648	-0.0034603048
247	0xbdb63988	-0.08897692
248	0xbe808f0c	-0.25109136
249	0x3adfafed	0.001706598
250	0x3bec861f	0.007218137
251	0x3d51e743	0.05124594
252	0xbd73c926	-0.059518002
253	0x3db6e920	0.08931184
254	0x3c589292	0.013218539
255	0xbcf002f4	-0.029298283

rnn.bias_ih_l0 f4 [30]
0	0x3e026646	0.12734327
1	0x3e9c7323	0.30556592
2	0x3d0cdba7	0.034389164
3	0xbcc029dd	-0.023457462
4	0x3db40878	0.08790678
5	0xbd40faad	-0.047114063
6	0xbe3ab562	-0.18233255
7	0xbdcf7460	-0.10129619
8	0x3cf48818	0.02985005
9	0x3ed72b0c	0.4202503
10	0x3d20668b	0.039160293
11	0x3e17b744	0.14816004
12	0xbe006cb1	-0.12541462
13	0xbceae28e	-0.028672483
14	0x3e86c315	0.2632071
15	0x3eb4e604	0.35331738
16	0xbee24704	-0.44194806
17	0xbe16b70e	-0.14718267
18	0xbe185e55	-0.14879735
19	0x3da86dc3	0.082240604
20	0x3e051ff8	0.13000476
21	0x3df019b8	0.117236555
22	0x3e0c47af	0.1369922
23	0x3d984672	0.074353114
24	0x3ef46bca	0.47738487
25	0xbe4a4a8b	-0.19754998
26	0x3e152fd4	0.14569026
27	0xbe8f6877	-0.28009388
28	0xbe1d383f	-0.15353487
29	0x3dd38c9a	0.10329552
