colagnn-master-Run-Epi/src/save/cola_gnn_epi.us_hhs.w-20.h-4.RNN.lam-0.1.epo-500.pt (torch, 49334 bytes, 32 tensors)

V f4 [15]
0	0x35df5caf	1.6641769e-06
1	0xbdc7ccff	-0.09755897
2	0xbf293227	-0.6609215
3	0x32b2398c	2.0748097e-08
4	0xbc712692	-0.014718669
5	0x3d82809f	0.06372189
6	0xbd94554a	-0.0724283
7	0xa01442a1	-1.2558133e-19
8	0xbebdb2a3	-0.37050352
9	0xa77e223c	-3.526814e-15
10	0xbcb66f7c	-0.022269957
11	0xa7120481	-2.0264012e-15
12	0xb8257b82	-3.945409e-05
13	0x3b78f9f5	0.0037990783
14	0x3ecdd29d	0.40199748

W1 f4 [15, 30]
0	0x345b5e69	2.043031e-07
1	0xb4805a01	-2.3907344e-07
2	0x347b652f	2.3413007e-07
3	0x3479ea5e	2.3275194e-07
4	0xb4321602	-1.6585548e-07
5	0xb47649a3	-2.2937324e-07
6	0x3479c241	2.3260601e-07
7	0xb47b1e66	-2.3387256e-07
8	0x3300188a	2.982464e-08
9	0xb446aed3	-1.8503788e-07
10	0x35250d43	6.148659e-07
11	0x347bc153	2.3446528e-07
12	0x346e78c5	2.2209413e-07
13	0x347e1b00	2.3665416e-07
14	0x343c2ef1	1.7525942e-07
15	0x347c1ff9	2.348096e-07
16	0xb47994dd	-2.3244088e-07
17	0xb3991f7b	-7.130344e-08
18	0x341fece5	1.489421e-07
19	0xb41ba0a0	-1.4493935e-07
20	0xb47ca525	-2.3529408e-07
21	0x3470cf93	2.2427257e-07
22	0xb2019cd6	-7.544449e-09
23	0x356585ec	8.550403e-07
24	0x34736535	2.2667957e-07
25	0x347ba569	2.3436372e-07
26	0xb47a073b	-2.3285695e-07
27	0xb47a87fb	-2.3332534e-07
28	0xb082f408	-9.528103e-10
29	0xb4098d9d	-1.2810638e-07
30	0x3a857655	0.001018236
31	0xba078950	-0.00051703025
32	0x3a370962	0.0006982294
33	0x3a38c7a0	0.00070487894
34	0x3ad641d4	0.0016346523
35	0xba3c8cb4	-0.0007192597
36	0x3a38cb0f	0.0007049301
37	0xba390260	-0.0007057544
38	0xbb8a867b	-0.004227457
39	0x3a7970a7	0.00095153827
40	0xbc52afb7	-0.0128592765
41	0x3a324cd6	0.00068016106
42	0x3a859e8d	0.0010194347
43	0x3a26f340	0.00063686445
44	0xba43f59a	-0.0007475257
45	0x3a312bd2	0.0006758544
46	0xba44f820	-0.000751378
47	0xba802233	-0.0009775817
48	0xba2c21d2	-0.0006566319
49	0x3a2fddea	0.0006708788
50	0xba2c3f2c	-0.00065706926
51	0x3a3b2524	0.0007139018
52	0xba88ef4b	-0.0010447291
53	0xbc6d928b	-0.014500271
54	0x3a4048e2	0.0007335079
55	0x3a3754cf	0.00069935335
56	0xba4e1d99	-0.0007862687
57	0xba379bfc	-0.00070041395
58	0x3aa10f20	0.0012287833
59	0xb82e6f98	-4.1588763e-05
60	0x3d0b292e	0.03397482
61	0xbd03ea7a	-0.032206036
62	0x3d0418ca	0.032250203
63	0x3d040e8f	0.032240447
64	0xbd22ae9b	-0.039717298
65	0xbd05c2ab	-0.032656353
66	0x3d03c94d	0.032174397
67	0xbd048066	-0.032349013
68	0xbd349ac2	-0.0440929
69	0xbd1f8e2c	-0.038953945
70	0x3bd8dec6	0.0066183535
71	0x3d047f97	0.03234824
72	0x3d06da43	0.032922994
73	0x3d036d69	0.032086764
74	0x3d20273f	0.039099928
75	0x3d0392dd	0.03212248
76	0xbd03c7f7	-0.032173123
77	0xbcc8a30c	-0.02449181
78	0x3d270a2a	0.040781178
79	0xbd28b58c	-0.04118876
80	0xbd033e4c	-0.032041833
81	0x3cee8278	0.029114947
82	0x3c1f19fe	0.009710787
83	0xbb85fb5d	-0.0040888027
84	0x3cf50380	0.029908895
85	0x3d046ebc	0.032332167
86	0xbd0465a0	-0.03232348
87	0xbd042d16	-0.03226956
88	0x3c40fc59	0.011778914
89	0xbd2dc953	-0.042428326
90	0xb0b171d8	-1.2910801e-09
91	0x30a52254	1.2015087e-09
92	0xb0b8f1d9	-1.3456499e-09
93	0xb0b7df5a	-1.3378483e-09
94	0xb10ca364	-2.0465558e-09
95	0x30b4bdc5	1.315066e-09
96	0xb0b9822b	-1.3497518e-09
97	0x30b94147	1.3479075e-09
98	0x311d3a4d	2.2879647e-09
99	0xb0c52213	-1.4343321e-09
100	0x32163d99	8.745155e-09
101	0xb0b6db7a	-1.3304622e-09
102	0xb0d0059c	-1.5135586e-09
103	0xb0b2d700	-1.3012311e-09
104	0x30baebb4	1.3600272e-09
105	0xb0b6c8a8	-1.3299273e-09
106	0x30bd022e	1.3752179e-09
107	0x30c500de	1.4333883e-09
108	0x30b66a92	1.3272532e-09
109	0xb0b5ff28	-1.3242003e-09
110	0x30b55060	1.3192327e-09
111	0xb0bb2649	-1.3616922e-09
112	0x30ae1ad2	1.2667789e-09
113	0x321ac064	9.007724e-09
114	0xb0bc45f0	-1.3698678e-09
115	0xb0b927ab	-1.3471796e-09
116	0x30c06af2	1.4000234e-09
117	0x30b94d10	1.3482424e-09
118	0xb0b8d0f5	-1.3447151e-09
119	0xb062addc	-8.246539e-10
120	0x382c9bf2	4.115323e-05
121	0x388e01e2	6.771438e-05
122	0xb83ef2c6	-4.552563e-05
123	0xb83151b1	-4.227617e-05
124	0x3866ebe7	5.5055974e-05
125	0x380d271a	3.3653436e-05
126	0xb83833ba	-4.3917193e-05
127	0x38378fd4	4.376455e-05
128	0xba343ce2	-0.00068755273
129	0x381c9c33	3.733877e-05
130	0xbafa369b	-0.001908976
131	0xb844738c	-4.6837653e-05
132	0x35a29880	1.2114324e-06
133	0xb8650567	-5.4602886e-05
134	0xb6f1e168	-7.2086004e-06
135	0xb84b2d69	-4.8441263e-05
136	0x3821adf1	3.8547387e-05
137	0xb647f940	-2.9798393e-06
138	0x38468aed	4.7336263e-05
139	0xb85d2166	-5.272161e-05
140	0x38539222	5.0442417e-05
141	0xb8357b3c	-4.3268534e-05
142	0x37b2ee7a	2.1330303e-05
143	0xbb1d95da	-0.0024045617
144	0xb8274d1f	-3.9887727e-05
145	0xb83e7a4a	-4.541342e-05
146	0x3814e419	3.5498382e-05
147	0x383dc71e	4.5246554e-05
148	0x385a8c22	5.210576e-05
149	0xb917d371	-0.0001447925
150	0x3c4a0c05	0.012331967
151	0xbc4ec98e	-0.012621297
152	0x3c4ddae1	0.012564392
153	0x3c4d85a6	0.012544071
154	0xbc3b0108	-0.01141382
155	0xbc4d4db1	-0.01253073
156	0x3c4d6d1b	0.01253822
157	0xbc4daec8	-0.012553878
158	0xbc2555e8	-0.010091282
159	0xbc3c33b3	-0.011486935
160	0x3c82c9f1	0.015965434
161	0x3c4e00ea	0.01257346
162	0x3c4cad61	0.012492509
163	0x3c4e9314	0.012608308
164	0x3c3ca462	0.011513801
165	0x3c4e1bd3	0.012579876
166	0xbc4dbc24	-0.012557063
167	0xbc1778c0	-0.009245098
168	0x3c3814d4	0.011235435
169	0xbc37299d	-0.011179355
170	0xbc4e5deb	-0.012595634
171	0x3c52144c	0.012822222
172	0xba982c62	-0.0011609907
173	0x3c8ec8c3	0.017429715
174	0x3c547f25	0.012969767
175	0x3c4dcfa6	0.012561714
176	0xbc4d6f60	-0.012538761
177	0xbc4df3a2	-0.012570294
178	0x3b9b8969	0.004746605
179	0xbc3444bd	-0.011002717
180	0x3a7cc7f4	0.00096428324
181	0xba130cf4	-0.0005609535
182	0x3a38bb1e	0.00070469256
183	0x3a3a58e4	0.00071085826
184	0x3aae59e6	0.0013301938
185	0xba3dd76a	-0.0007241877
186	0x3a3a3002	0.00071024906
187	0xba3a670c	-0.0007110692
188	0xbb5fab62	-0.0034129252
189	0x3a29bd14	0.0006475013
190	0xbc21850a	-0.009858379
191	0x3a351e2d	0.00069090986
192	0x3a78694b	0.0009476139
193	0x3a2c04a9	0.0006561974
194	0xba4567cc	-0.00075304206
195	0x3a340a2c	0.0006867971
196	0xba42dd51	-0.00074334914
197	0xba7657f0	-0.0009397259
198	0xba30804c	-0.0006732985
199	0x3a332026	0.00068330986
200	0xba308b49	-0.00067346223
201	0x3a3b8264	0.00071529136
202	0xba43c67e	-0.00074682373
203	0xbc3a13b7	-0.011357239
204	0x3a3f5011	0.00072980026
205	0x3a390bda	0.0007058956
206	0xba495cf6	-0.0007681394
207	0xba394a47	-0.0007068258
208	0x3a9907de	0.0011675318
209	0x38e62ae8	0.000109752466
210	0x1e3ddcf2	1.0051267e-20
211	0x9e32e1a0	-9.4699e-21
212	0x1e3ab9f9	9.885216e-21
213	0x1e390824	9.795502e-21
214	0x1e8f7e1a	1.5192868e-20
215	0x9e3667b3	-9.656444e-21
216	0x1e3944b1	9.8080235e-21
217	0x9e3a39df	-9.8587255e-21
218	0x9e64c518	-1.21109775e-20
219	0x1e844ddd	1.4008247e-20
220	0x1ed59a7f	2.261615e-20
221	0x1e3ac47c	9.88739e-21
222	0x1e26c2b5	8.828231e-21
223	0x1e39f544	9.844538e-21
224	0x9e06c841	-7.1353125e-21
225	0x1e39f60d	9.8447006e-21
226	0x9e3aad8f	-9.882649e-21
227	0x9e94ef2b	-1.5769027e-20
228	0x9e8b63f7	-1.4758542e-20
229	0x1ea6d07e	1.7662164e-20
230	0x9e39f67a	-9.844789e-21
231	0x1e66a9b6	1.2211194e-20
232	0x1db70a04	4.8450053e-21
233	0x1e7c3c5c	1.3353251e-20
234	0x1e61d6de	1.1955834e-20
235	0x1e3a9c9f	9.8791465e-21
236	0x9e38c507	-9.781623e-21
237	0x9e3c276a	-9.960788e-21
238	0x1d92e1d0	3.8879363e-21
239	0x1ea811fd	1.7795132e-20
240	0x3cc01c6f	0.023451058
241	0xbcb79934	-0.02241192
242	0x3cb84b4b	0.02249684
243	0x3cb8602a	0.022506792
244	0xbce04da8	-0.02738078
245	0xbcbac6a5	-0.0227998
246	0x3cb7df18	0.022445247
247	0xbcb884a4	-0.022524185
248	0xbcf58862	-0.029972259
249	0xbcdc9943	-0.02692855
250	0x3bce2a61	0.006291673
251	0x3cb80cfb	0.022467127
252	0x3cbade9b	0.022811225
253	0x3cb88a1a	0.02252679
254	0x3cde9138	0.027168855
255	0x3cb8c7c1	0.022556188

b1 f4 [15]
0	0x347bf4d5	2.3465266e-07
1	0x3a379a73	0.0007003911
2	0x3d048aa6	0.032358788
3	0xb0b948e2	-1.3481236e-09
4	0xb83dd124	-4.525589e-05
5	0x3c4de80d	0.012567532
6	0x3a39480e	0.0007067927
7	0x1e3a0c92	9.8493575e-21
8	0x3cb822f2	0.0224776
9	0xa6536772	-7.3345525e-16
10	0x3d4a11ba	0.04933331
11	0x2683e540	9.152089e-16
12	0x38ad75db	8.271235e-05
13	0xbb106b90	-0.0022036768
14	0xbbfe2e31	-0.0077569713

W2 f4 [15, 30]
0	0xb307e1b0	-3.16374e-08
1	0x340cb3eb	1.310397e-07
2	0x347a7c67	2.3328322e-07
3	0x347c7a73	2.3513876e-07
4	0xb43cb8ee	-1.7576141e-07
5	0xb482af65	-2.4342003e-07
6	0x347a55a1	2.3314216e-07
7	0xb47f2268	-2.3761243e-07
8	0x3520b0d9	5.986199e-07
9	0x34c07142	3.5845193e-07
10	0xb54b4e95	-7.5737745e-07
11	0x347452ee	2.275444e-07
12	0xb58bded0	-1.0421154e-06
13	0x344c3e99	1.9021753e-07
14	0xb402e674	-1.2191032e-07
15	0x34752d2c	2.2833837e-07
16	0xb4669d95	-2.1477747e-07
17	0xb4934af2	-2.7435414e-07
18	0x33f72125	1.1507863e-07
19	0xb43c6200	-1.7544517e-07
20	0xb4635731	-2.1172742e-07
21	0x3470002a	2.2351801e-07
22	0x34570417	2.0024923e-07
23	0xb59b3af6	-1.156556e-06
24	0x34753bae	2.2839114e-07
25	0x347bc116	2.3446441e-07
26	0xb46f42c8	-2.2282904e-07
27	0xb47b2af6	-2.3391826e-07
28	0xb47d7570	-2.3605185e-07
29	0xb4899258	-2.5624718e-07
30	0x3b52e8ab	0.0032182138
31	0xbba80c96	-0.0051284535
32	0x3a3b611c	0.00071479543
33	0x3a3f29e9	0.0007292317
34	0xba332b7e	-0.0006834789
35	0xba329948	-0.0006813002
36	0x3a370b0e	0.0006982543
37	0xba267e8a	-0.0006351253
38	0xbcb7fe58	-0.022460148
39	0xbc5ba11d	-0.013405112
40	0x3c1f0806	0.009706503
41	0x3a6bf380	0.0009000823
42	0x3c40e91e	0.0117743295
43	0x3abbb540	0.0014320984
44	0xba14b9a4	-0.00056734146
45	0x3a39d290	0.0007088566
46	0xba6883a2	-0.00088697125
47	0xb9d1ba92	-0.00040002592
48	0xba5a8036	-0.0008335145
49	0x3a905324	0.0011011106
50	0xba984d40	-0.0011619702
51	0x3a405487	0.00073368143
52	0xbb5dd6a1	-0.0033849853
53	0x3b31c1cd	0.002712357
54	0x3a37be62	0.0007009265
55	0x3a38756a	0.0007036539
56	0xba5e9983	-0.0008491503
57	0xba374cd4	-0.0006992344
58	0x3babf079	0.0052471724
59	0x3babf63b	0.005247859
60	0x3d2a67ba	0.041602828
61	0xbd49d282	-0.04927302
62	0x3d043f24	0.032286778
63	0x3d040427	0.032230522
64	0xbd20634a	-0.03915719
65	0xbd006403	-0.03134538
66	0x3d037179	0.032090638
67	0xbd03dff4	-0.032196
68	0xbd8fbcb2	-0.07018413
69	0xbd8cf240	-0.06882143
70	0x3d9ce3b2	0.07660617
71	0x3d06451a	0.032780744
72	0x3dbb8d37	0.09157794
73	0x3d0c4905	0.034249324
74	0x3d73e14f	0.059541043
75	0x3d060d34	0.032727435
76	0xbd082779	-0.03324077
77	0xbb5a442c	-0.0033304794
78	0x3d31ad2b	0.043378036
79	0xbd229020	-0.03968823
80	0xbd088475	-0.033329446
81	0x3cf6c98c	0.030125402
82	0xbd741672	-0.059591718
83	0x3e0266a2	0.12734464
84	0x3cf49966	0.029858302
85	0x3d04c0d5	0.03241046
86	0xbd0660b6	-0.032807074
87	0xbd0459be	-0.032312147
88	0x3cdf083f	0.027225612
89	0xbd08fbac	-0.033443138
90	0xb130b7c5	-2.5715832e-09
91	0x314d2828	2.9854252e-09
92	0xb0b99fd6	-1.350595e-09
93	0xb0bc703c	-1.3710699e-09
94	0xafc1f4da	-3.5280473e-10
95	0x30c21594	1.4121491e-09
96	0xb0b9770a	-1.3494355e-09
97	0x30b460a6	1.3124193e-09
98	0x3256ed4a	1.2510393e-08
99	0x31f6cf2a	7.183094e-09
100	0xb2067539	-7.82648e-09
101	0xb0c6320c	-1.442062e-09
102	0xb11f1b1e	-2.315296e-09
103	0xb0edd4b7	-1.7304477e-09
104	0x30cbf3f7	1.4839533e-09
105	0xb0b904f0	-1.3461925e-09
106	0x30c3e578	1.4253336e-09
107	0x30b12083	1.2887685e-09
108	0x30be31be	1.3838457e-09
109	0xb0d1d9bc	-1.5268635e-09
110	0x30dc1854	1.6014021e-09
111	0xb0bacdaf	-1.359174e-09
112	0xb04cf119	-7.455739e-10
113	0x320be5f8	8.143154e-09
114	0xb0bb5cfc	-1.3632468e-09
115	0xb0b97eaa	-1.3496522e-09
116	0x30bfc27a	1.3952353e-09
117	0x30b90f20	1.346482e-09
118	0xb139dc7b	-2.7046372e-09
119	0xb177e9dc	-3.6076164e-09
120	0x3a09cb8f	0.0005256468
121	0xba7bd0ff	-0.0009606033
122	0xb8321871	-4.246127e-05
123	0xb83bfa5c	-4.481744e-05
124	0xb91b8b33	-0.00014833808
125	0x38918a05	6.939847e-05
126	0xb8380b0f	-4.3879318e-05
127	0x3869dc90	5.5756944e-05
128	0xbb281eb8	-0.0025653075
129	0xbb0fe3cb	-0.0021955844
130	0x3b28819d	0.002571202
131	0xb7a1f2c0	-1.9305735e-05
132	0x3b4e4ee3	0.0031480126
133	0x38c0e6ad	9.19824e-05
134	0x3a01677c	0.000493638
135	0xb82cfcad	-4.124332e-05
136	0x34e4c900	4.2614556e-07
137	0x39887642	0.0002602805
138	0x388a937b	6.607823e-05
139	0x3821e49a	3.8598293e-05
140	0xb8065eef	-3.2036503e-05
141	0xb822b2e0	-3.87904e-05
142	0xbab8a797	-0.0014088032
143	0x3b4525ac	0.0030082269
144	0xb84b2763	-4.8435653e-05
145	0xb83b4e31	-4.4657096e-05
146	0x3749014c	1.1980836e-05
147	0x383d9a11	4.5204597e-05
148	0x3a5e0c23	0.00084704364
149	0x39d6e73f	0.00040989553
150	0x3c35fcda	0.011107648
151	0xbc25181b	-0.010076548
152	0x3c4d9ae5	0.012549137
153	0x3c4df8f6	0.012571564
154	0xbc3eba0c	-0.011641037
155	0xbc5089da	-0.012728179
156	0x3c4dd92c	0.012563985
157	0xbc4e36ae	-0.012586279
158	0xbbccc363	-0.006248878
159	0xbbf4940e	-0.0074639386
160	0x3bbcf259	0.005766195
161	0x3c4cea3e	0.01250702
162	0x3b69cdcb	0.003567564
163	0x3c491958	0.012274109
164	0x3c06546b	0.008198838
165	0x3c4cb2df	0.012493818
166	0xbc4b74dc	-0.012417998
167	0xbc52a9b1	-0.01285784
168	0x3c30e578	0.010796897
169	0xbc3adf06	-0.011405712
170	0xbc4b7401	-0.012417794
171	0x3c52799a	0.012846375
172	0x3bffe59b	0.0078093535
173	0xbb274aa0	-0.0025526658
174	0x3c54da53	0.012991506
175	0x3c4df427	0.0125704175
176	0xbc4cdb7f	-0.012503504
177	0xbc4dd862	-0.012563797
178	0x3b40972b	0.0029386978
179	0xbc4a7178	-0.012356155
180	0x3b31cb8c	0.002712938
181	0xbb8b893e	-0.004258304
182	0x3a3c082e	0.000717285
183	0x3a3e6294	0.0007262614
184	0xb9cd7cca	-0.00039193622
185	0xba33aead	-0.0006854337
186	0x3a38f90c	0.0007056154
187	0xba2c1a54	-0.00065652025
188	0xbc87dfe5	-0.016586253
189	0xbc292db6	-0.01032584
190	0x3c06c41c	0.008225467
191	0x3a5fa7ae	0.0008531761
192	0x3c2258b2	0.009908842
193	0x3aa79332	0.0012784956
194	0xba05e82a	-0.00051081425
195	0x3a3ac240	0.00071242824
196	0xba5fdbc4	-0.00085395225
197	0xb9f9564d	-0.0004755728
198	0xba53b597	-0.000807607
199	0x3a86086f	0.0010225902
200	0xba8b46d0	-0.0010625962
201	0x3a3f7369	0.0007303269
202	0xbb37bb8c	-0.002803537
203	0x3b3a3cfe	0.0028417702
204	0x3a38977a	0.0007041615
205	0x3a39f35e	0.00070934545
206	0xba57e47c	-0.0008235646
207	0xba391c32	-0.00070613914
208	0x3b8dfb82	0.0043329606
209	0x3b812ed9	0.0039423523
210	0x1e703611	1.2716675e-20
211	0x9ecfcfa2	-2.2002852e-20
212	0x1e3a8999	9.8752125e-21
213	0x1e3c8108	9.97932e-21
214	0x1e441593	1.0380615e-20
215	0x9e62783a	-1.1989203e-20
216	0x1e3085eb	9.345056e-21
217	0x9e375c49	-9.7070235e-21
218	0x1e79eca8	1.323089e-20
219	0x1ea31eb9	1.7271003e-20
220	0x1eb20c08	1.8851459e-20
221	0x1e3d61bb	1.0025787e-20
222	0x1ee5d0f1	2.4332734e-20
223	0x1e527a41	1.1142589e-20
224	0x9fdd10a8	-9.3624696e-20
225	0x1e1bae3f	8.241665e-21
226	0x9e26f7bf	-8.8391995e-21
227	0x1f469c20	4.2057274e-20
228	0x9edae4e4	-2.3176315e-20
229	0x1e9f151e	1.6843514e-20
230	0x9e5086ee	-1.1039331e-20
231	0x1e65d1f3	1.21665755e-20
232	0x9e407a8e	-1.0189739e-20
233	0xa0375b3f	-1.5530894e-19
234	0x1e6a0eb6	1.2390899e-20
235	0x1e39c258	9.834008e-21
236	0x9e36d1ab	-9.678358e-21
237	0x9e3b72da	-9.923448e-21
238	0x1e13d13d	7.825385e-21
239	0x1efaf2f7	2.6570268e-20
240	0x3ce7ce10	0.0282965
241	0xbd07feb6	-0.033201896
242	0x3cb85e90	0.022506028
243	0x3cb82473	0.022478318
244	0xbce07a37	-0.027402027
245	0xbcb525e7	-0.0221128
246	0x3cb7b30e	0.022424247
247	0xbcb7ac2a	-0.022420961
248	0xbd3e10f1	-0.046402875
249	0xbd3add4d	-0.045621205
250	0x3d4ff88a	0.050774135
251	0x3cba3ce8	0.02273412
252	0x3d769b65	0.06020679
253	0x3cc41974	0.023937918
254	0x3d25f00d	0.040512133
255	0x3cba7980	0.022763014

Wb f4 [10, 10]
0	0xbf202924	-0.62562776
1	0xbf7759b8	-0.96621275
2	0x3eca8e0c	0.39561498
3	0x3ecf7da7	0.40525553
4	0x3f1a98d1	0.6038943
5	0x3f05423a	0.5205418
6	0x3edc5da9	0.43040207
7	0x3f36615f	0.71242326
8	0xbf4e666f	-0.8062505
9	0xbedec72a	-0.43511325
10	0xbf203d80	-0.6259384
11	0xbf775ca1	-0.96625715
12	0x3eca8c18	0.39560008
13	0x3ecf8ea2	0.40538508
14	0x3f1a96ea	0.60386527
15	0x3f05359d	0.5203493
16	0x3edc5e86	0.43040866
17	0x3f366129	0.71242005
18	0xbf4e7541	-0.80647665
19	0xbedee343	-0.43532762
20	0xbf2035c0	-0.62582016
21	0xbf776050	-0.96631336
22	0x3eca9aa8	0.39571118
23	0x3ecf7bbd	0.40524092
24	0x3f1a985e	0.60388744
25	0x3f054217	0.5205397
26	0x3edc5916	0.43036717
27	0x3f366305	0.7124484
28	0xbf4e79fe	-0.80654895
29	0xbedec242	-0.43507582
30	0xbf20346b	-0.62579983
31	0xbf775292	-0.9661037
32	0x3eca7a89	0.39546612
33	0x3ecf927b	0.40541443
34	0x3f1a96dd	0.6038645
35	0x3f053eba	0.5204884
36	0x3edc5120	0.43030643
37	0x3f366838	0.71252775
38	0xbf4e7d8c	-0.8066032
39	0xbedeb95c	-0.43500793
40	0xbf203468	-0.62579966
41	0xbf776511	-0.9663859
42	0x3eca9451	0.3956628
43	0x3ecf7c40	0.40524483
44	0x3f1a970f	0.6038675
45	0x3f0546d9	0.5206123
46	0x3edc5dfe	0.4304046
47	0x3f3666b2	0.7125045
48	0xbf4e6ed2	-0.8063785
49	0xbedebe49	-0.4350455
50	0xbf204166	-0.6259979
51	0xbf7752a0	-0.9661045
52	0x3eca8fe1	0.39562896
53	0x3ecf8c2c	0.4053663
54	0x3f1a969b	0.60386056
55	0x3f0542f0	0.52055264
56	0x3edc3cec	0.4301523
57	0x3f366341	0.712452
58	0xbf4e7de9	-0.80660874
59	0xbededef8	-0.43529487
60	0xbf203801	-0.62585455
61	0xbf7765ee	-0.9663991
62	0x3eca7bfc	0.39547718
63	0x3ecf899b	0.40534672
64	0x3f1a9874	0.60388875
65	0x3f054c53	0.52069587
66	0x3edc52f0	0.43032026
67	0x3f366947	0.7125439
68	0xbf4e7d95	-0.8066037
69	0xbedec86f	-0.43512294
70	0xbf203427	-0.6257958
71	0xbf7760af	-0.966319
72	0x3eca83b3	0.39553604
73	0x3ecf8294	0.4052931
74	0x3f1a999a	0.6039063
75	0x3f054baa	0.5206858
76	0x3edc4d6d	0.4302782
77	0x3f3664d2	0.7124759
78	0xbf4e85b3	-0.8067276
79	0xbededc30	-0.43527365
80	0xbf204668	-0.6260743
81	0xbf775795	-0.96618015
82	0x3eca7ad7	0.39546844
83	0x3ecf9a8e	0.40547603
84	0x3f1a9d22	0.60396016
85	0x3f054552	0.520589
86	0x3edc520c	0.43031347
87	0x3f36683c	0.712528
88	0xbf4e88b9	-0.8067737
89	0xbedee7d6	-0.43536252
90	0xbf203a87	-0.62589306
91	0xbf775b58	-0.96623755
92	0x3eca87a3	0.39556608
93	0x3ecf90c4	0.40540135
94	0x3f1a9bce	0.6039399
95	0x3f0543d0	0.520566
96	0x3edc43dc	0.43020523
97	0x3f365d2f	0.71235937
98	0xbf4e7b2d	-0.806567
99	0xbeded934	-0.43525088

conv.weight f4 [10, 1, 20]
0	0xb5ed945c	-1.7701054e-06
1	0xb5c98cda	-1.501666e-06
2	0xb60c19c5	-2.0876626e-06
3	0xb6a3426c	-4.865511e-06
4	0xb6a6609f	-4.9584337e-06
5	0xb6f48056	-7.286707e-06
6	0xb638a7e1	-2.7515855e-06
7	0xb5b503d9	-1.3486671e-06
8	0xb60f1786	-2.1322353e-06
9	0xb588b773	-1.018618e-06
10	0xb556d985	-8.0037745e-07
11	0xb4a90218	-3.1480226e-07
12	0xb50fe716	-5.3607926e-07
13	0xb4ab06bb	-3.185613e-07
14	0xb47ea279	-2.37147e-07
15	0xb43c0082	-1.7509049e-07
16	0xb42dbc6e	-1.6180431e-07
17	0xb39be4e7	-7.259387e-08
18	0xb39bfd8a	-7.2638684e-08
19	0xb43352bd	-1.6700774e-07
20	0x9d1c1cdc	-2.0661348e-21
21	0x9d747469	-3.2353314e-21
22	0x9d78d502	-3.293265e-21
23	0x9d5b824b	-2.9051769e-21
24	0x9ce090a2	-1.4860463e-21
25	0x9c0e5ce2	-4.7103907e-22
26	0x1d136bc1	1.9510995e-21
27	0x1d5f8887	2.9584387e-21
28	0x1d31e1a4	2.3542408e-21
29	0x1d296432	2.2418764e-21
30	0x1d1550fb	1.9761852e-21
31	0x9d096985	-1.8186351e-21
32	0x9bd251bb	-3.4794403e-22
33	0x1ced084a	1.5685487e-21
34	0x1c8d62e0	9.356156e-22
35	0x9ca6feda	-1.1050836e-21
36	0x9bbdb9ea	-3.1387571e-22
37	0x9ce20c30	-1.4958576e-21
38	0x1b341f4e	1.4899366e-22
39	0x1d069405	1.7811277e-21
40	0x2a50e270	1.8552672e-13
41	0x2a37d890	1.63288e-13
42	0x299854fe	6.7649e-14
43	0xac820a56	-3.6959697e-12
44	0xabef6dcc	-1.7012446e-12
45	0xac995422	-4.357862e-12
46	0xab127a6b	-5.203951e-13
47	0x2a869ad3	2.3910613e-13
48	0x2a4e5abf	1.8327959e-13
49	0x29357ea3	4.0299913e-14
50	0x26a3a38e	1.1354729e-15
51	0xa768042e	-3.2198734e-15
52	0xa7999e9c	-4.2637995e-15
53	0xa76b8d14	-3.268928e-15
54	0xa782a8ac	-3.6265123e-15
55	0xa6987649	-1.057918e-15
56	0xa6be1cf6	-1.3191748e-15
57	0x25886903	2.3663398e-16
58	0x25904649	2.5027645e-16
59	0x252e9e97	1.5145827e-16
60	0x99f7572f	-2.5574415e-23
61	0x9a0617dd	-2.7729827e-23
62	0x9a136bb9	-3.0485905e-23
63	0x99df503c	-2.3090066e-23
64	0x991ac132	-8.000629e-24
65	0x9a1e8316	-3.2779525e-23
66	0x9a2665d6	-3.4410258e-23
67	0x1913fb8c	7.650521e-24
68	0x9965e13f	-1.18845106e-23
69	0x9a108c25	-2.989171e-23
70	0x1a34b3b2	3.7368284e-23
71	0x199254b2	1.5130254e-23
72	0x99cf08a6	-2.1406791e-23
73	0x19adb624	1.7961347e-23
74	0x9a2777dd	-3.4631615e-23
75	0x18bbfc4c	4.859312e-24
76	0x99d92a64	-2.2454396e-23
77	0x9ad97341	-8.99353e-23
78	0x1b054a49	1.1025505e-22
79	0x9ab87744	-7.62933e-23
80	0x19af1fc0	1.81074e-23
81	0x1997bb4f	1.5688687e-23
82	0x98feb40a	-6.5839254e-24
83	0x99453ac3	-1.0196528e-23
84	0x9a1eb346	-3.281845e-23
85	0x9a889a98	-5.649804e-23
86	0x17557950	6.897713e-25
87	0x9b2150c6	-1.3343707e-22
88	0x9bc346df	-3.2305843e-22
89	0x9ccca226	-1.3541502e-21
90	0x1d285745	2.2279732e-21
91	0x1bc88b14	3.3177102e-22
92	0x9ea04c50	-1.6972221e-20
93	0x1f80542a	5.4349346e-20
94	0xa05748a5	-1.8235244e-19
95	0x2254458e	2.876818e-18
96	0xa30a52f0	-7.498558e-18
97	0x2259c5f2	2.9513775e-18
98	0xa3bd8bbb	-2.05506e-17
99	0xa3887919	-1.4796436e-17
100	0x1a96287f	6.210397e-23
101	0x1a904578	5.966924e-23
102	0x9a9051f1	-5.968939e-23
103	0x9a3e9d38	-3.941808e-23
104	0x1a81b1a9	5.3640175e-23
105	0x9a47cf6a	-4.1319783e-23
106	0x9a4bf167	-4.217442e-23
107	0x99f0302e	-2.4834878e-23
108	0x19265870	8.599859e-24
109	0x1a1aca10	3.2009678e-23
110	0x9a20dc95	-3.326541e-23
111	0x985f4c8e	-2.8860725e-24
112	0x99690ec9	-1.20488035e-23
113	0x99c0af9d	-1.9923264e-23
114	0x997cfd99	-1.3079308e-23
115	0x979e11dd	-1.021502e-24
116	0x9918e58d	-7.904573e-24
117	0x19b652e2	1.8851835e-23
118	0x19622f32	1.1693457e-23
119	0x989a03c3	-3.9811865e-24
120	0x98fc7f34	-6.5268916e-24
121	0x9a112628	-3.001612e-23
122	0x98f4ea5f	-6.3309176e-24
123	0x9a096b89	-2.8417802e-23
124	0x98d994bf	-5.624338e-24
125	0x19e863e5	2.4028585e-23
126	0x1948ac8c	1.0374603e-23
127	0x199de898	1.6327363e-23
128	0x19365015	9.425352e-24
129	0x99aa4a44	-1.7607584e-23
130	0x1946bf90	1.0275046e-23
131	0x19590929	1.1220487e-23
132	0x1978d284	1.2863813e-23
133	0x196698e5	1.1921598e-23
134	0x1922401a	8.388149e-24
135	0x197a39df	1.2936384e-23
136	0x990bba61	-7.2237705e-24
137	0x98329eea	-2.3086192e-24
138	0x18538fd6	2.734373e-24
139	0x18c1525c	4.9972492e-24
140	0xb3fe7ee7	-1.185088e-07
141	0xb3fd71cd	-1.1801931e-07
142	0xb449944a	-1.8773531e-07
143	0xb49632d0	-2.7976648e-07
144	0xb4ffa6a7	-4.7618707e-07
145	0xb499e4fa	-2.8665073e-07
146	0xb4d84ab4	-4.028749e-07
147	0xb43981ca	-1.7276685e-07
148	0xb3a3ec4a	-7.63326e-08
149	0xb3ad4295	-8.0680515e-08
150	0xb2ed6744	-2.7637391e-08
151	0xb3173dc3	-3.52136e-08
152	0xb280dae3	-1.50007e-08
153	0xb288ce24	-1.5926226e-08
154	0xb27b6b90	-1.463458e-08
155	0xb1e57c08	-6.678878e-09
156	0xb2685ae0	-1.352484e-08
157	0xb1492bf6	-2.9274339e-09
158	0xb12ff9c0	-2.5607818e-09
159	0xb16739ef	-3.3647856e-09
160	0xb44d2406	-1.9105218e-07
161	0xb4043d51	-1.2315765e-07
162	0xb454abf3	-1.9806593e-07
163	0xb4e84a50	-4.3267437e-07
164	0xb494760a	-2.7653033e-07
165	0xb52e11cd	-6.4845955e-07
166	0xb4e9adb0	-4.3526006e-07
167	0xb3ebb9a2	-1.0976807e-07
168	0xb3d12b3e	-9.7401866e-08
169	0xb391e111	-6.793028e-08
170	0xb3582d2b	-5.03325e-08
171	0xb350d408	-4.8621615e-08
172	0xb346067f	-4.6106376e-08
173	0xb2c1b697	-2.255119e-08
174	0xb32195c0	-3.762193e-08
175	0xb270eed4	-1.4024142e-08
176	0xb230b4b3	-1.0285635e-08
177	0xb1524e32	-3.060347e-09
178	0xb1e7d785	-6.7474866e-09
179	0xb222246e	-9.437924e-09
180	0xb34966b3	-4.6892364e-08
181	0xb3075a90	-3.1514503e-08
182	0xb37e2ba1	-5.9178664e-08
183	0xb411f4e5	-1.359327e-07
184	0xb3db9e19	-1.022674e-07
185	0xb3b1d646	-8.281181e-08
186	0xb36ac179	-5.4658333e-08
187	0xb29790d4	-1.7644574e-08
188	0xb26c9f67	-1.3773252e-08
189	0xb2864a44	-1.5633425e-08
190	0xb1fbe37b	-7.330923e-09
191	0xb1ae73ec	-5.0772453e-09
192	0xb1417b27	-2.81552e-09
193	0xb15d3887	-3.2191865e-09
194	0xb102febb	-1.9062287e-09
195	0xb0ba6ca4	-1.3564159e-09
196	0xb08b1aa8	-1.0121157e-09
197	0xaf840dbc	-2.402042e-10
198	0xaf7ba0ec	-2.2885488e-10
199	0xafea020c	-4.2565806e-10

conv.bias f4 [10]
0	0xbceb7ead	-0.028746927
1	0x1c494b3a	6.660255e-22
2	0xba48400e	-0.00076389394
3	0xae30b20e	-4.017591e-11
4	0xb8e8e2c2	-0.00011104859
5	0x9afc609a	-1.04380825e-22
6	0x1faf57fa	7.426093e-20
7	0xbbd0d443	-0.00637296
8	0xbc1ad8e8	-0.009451129
9	0xbbbf4462	-0.0058370093

conv_long.weight f4 [10, 1, 10]
0	0x992860a1	-8.7049105e-24
1	0x9a208af5	-3.3199473e-23
2	0x19af4368	1.8121801e-23
3	0x99941333	-1.5310596e-23
4	0x96232d20	-1.3181274e-25
5	0x99f08712	-2.4869973e-23
6	0x1a1f9998	3.30045e-23
7	0x99cd83b8	-2.1249704e-23
8	0x1a987896	6.3060544e-23
9	0x9b2a5482	-1.4089376e-22
10	0x9b17dfd7	-1.2562754e-22
11	0x1b11689b	1.2027919e-22
12	0x1c27d051	5.552491e-22
13	0x1c10abb1	4.786751e-22
14	0x9bd61363	-3.5415859e-22
15	0x1b232367	1.3494483e-22
16	0x9b813cdd	-2.1380592e-22
17	0x9ba504ea	-2.7300136e-22
18	0x9ab47c8b	-7.4647465e-23
19	0x9bcd5dec	-3.39751e-22
20	0xba1e44a9	-0.0006037453
21	0xbb0c3b7f	-0.0021397767
22	0xbab73907	-0.0013978787
23	0xbad31eed	-0.0016107239
24	0xbacb0358	-0.0015488667
25	0xba27623e	-0.00063851837
26	0xba019017	-0.00049424305
27	0xba15b950	-0.00057115126
28	0xb9a231db	-0.00030936193
29	0xb959be57	-0.0002076564
30	0x99cb3f8c	-2.1015374e-23
31	0x1a9d5066	6.506357e-23
32	0x1a6cd1b4	4.8973053e-23
33	0x18181d58	1.9660354e-24
34	0x9a433ff8	-4.0376728e-23
35	0x99d81db5	-2.2345875e-23
36	0x982737a0	-2.1612328e-24
37	0x1a51aff6	4.3362327e-23
38	0x1a5b2fee	4.5326856e-23
39	0x997cc48f	-1.3067789e-23
40	0x2a24525c	1.45947e-13
41	0xa9a228cc	-7.201322e-14
42	0x2a6d8af4	2.1098038e-13
43	0xa7ae245a	-4.8334114e-15
44	0xa39825cf	-1.6495886e-17
45	0x9f43c86d	-4.1458644e-20
46	0x1d7a2918	3.310847e-21
47	0x9b6e2002	-1.9697241e-22
48	0x1af220b5	1.00141695e-22
49	0x1a458dcc	4.0853188e-23
50	0xb69e9a46	-4.7267267e-06
51	0xb7133426	-8.7740245e-06
52	0xb7d61d51	-2.552444e-05
53	0xb77f1742	-1.52046e-05
54	0xb68f765b	-4.2755105e-06
55	0xb59c9b5b	-1.166812e-06
56	0xb647c421	-2.9767473e-06
57	0xb5b4f367	-1.3481884e-06
58	0xb5620ba6	-8.420851e-07
59	0xb4cb30f0	-3.7847303e-07
60	0x1a58a626	4.4801967e-23
61	0x9a2790d5	-3.4651785e-23
62	0x9a745cc8	-5.0532965e-23
63	0x9a66e80e	-4.7750338e-23
64	0x9a13f1d0	-3.0594222e-23
65	0x186b13d6	3.0383053e-24
66	0x1981144d	1.3346487e-23
67	0x19130c94	7.602262e-24
68	0x9880e937	-3.332271e-24
69	0x18ec3849	6.1061404e-24
70	0x9d8b2ecb	-3.6841376e-21
71	0x1d6a6530	3.1021955e-21
72	0x9d511659	-2.7672473e-21
73	0x9c8e7ac6	-9.428508e-22
74	0x1cff2082	1.6882888e-21
75	0x9cc77095	-1.3197817e-21
76	0x9cb92f3f	-1.2254486e-21
77	0x9c65536c	-7.5877564e-22
78	0x9cac14ca	-1.1387379e-21
79	0x1ab3c4d8	7.435068e-23
80	0xbb86d403	-0.0041146292
81	0xbb08cd65	-0.0020874378
82	0xbbdca1b0	-0.006733142
83	0xbb0b62e6	-0.0021268665
84	0xbbbc7320	-0.0057510287
85	0xbb86f224	-0.004118221
86	0xbb03613e	-0.0020046975
87	0xbb3534e2	-0.0027649929
88	0xbac5d06f	-0.0015092025
89	0xba0b3b91	-0.0005311305
90	0xb986e78e	-0.00025730993
91	0xb926d8a4	-0.00015911699
92	0xba3562bb	-0.0006919314
93	0xba0d4583	-0.0005389081
94	0xb9a48e1c	-0.00031386397
95	0xb960ecd4	-0.0002145053
96	0xb96b6f27	-0.00022452754
97	0xb9126871	-0.00013962552
98	0xb8216e68	-3.8488215e-05
99	0xb8e75af4	-0.0001103188

conv_long.bias f4 [10]
0	0xbaae79c9	-0.0013311441
1	0xb6846b51	-3.9464e-06
2	0xbd12ce8e	-0.035841517
3	0xa21ef873	-2.154452e-18
4	0xba0fa376	-0.00054793747
5	0xbcc0d155	-0.023537317
6	0xa156bb4c	-7.2753906e-19
7	0x1cbd8f83	1.2544068e-21
8	0x3b0f7a17	0.002189284
9	0xbc93edc2	-0.018057708

conv1.weight f4 [30, 30]
0	0x18b8e51e	4.7794234e-24
1	0x1749f024	6.5249703e-25
2	0x9781aeeb	-8.380585e-25
3	0x170a8900	4.4763123e-25
4	0x1787a7d6	8.766538e-25
5	0xb902d65b	-0.0001247762
6	0x190d13d0	7.29353e-24
7	0xb02293d8	-5.9145355e-10
8	0x1817b69a	1.9608483e-24
9	0xb8dfca8c	-0.00010671196
10	0x175bf148	7.1067256e-25
11	0x9903b2e0	-6.808665e-24
12	0xb7508bd3	-1.24303215e-05
13	0xa7296ab4	-2.3511305e-15
14	0xa7bc9451	-5.2341287e-15
15	0xb9f8c773	-0.00047450847
16	0x20648f2e	1.9359725e-19
17	0xbb42c820	-0.0029721335
18	0x17a4d09b	1.0650911e-24
19	0x97aae9b2	-1.10449855e-24
20	0x21e5a65d	1.556168e-18
21	0x9805d603	-1.7297895e-24
22	0x186dcacf	3.0733924e-24
23	0xba5a6e46	-0.0008332472
24	0xb2208823	-9.34418e-09
25	0x971d81a1	-5.089305e-25
26	0xbb256166	-0.0025235056
27	0x1908722f	7.0540944e-24
28	0xb88f168f	-6.822973e-05
29	0xb9742054	-0.00023281696
30	0x9691fb1c	-2.3584486e-25
31	0x97c9f8fa	-1.3052171e-24
32	0x971b24a2	-5.012944e-25
33	0x98a9e964	-4.392114e-24
34	0x97903dcc	-9.321382e-25
35	0x9818f493	-1.9769018e-24
36	0x970f6fb4	-4.634678e-25
37	0x17d4cd48	1.3751999e-24
38	0x1a75cc4a	5.0829836e-23
39	0x1a14bbb2	3.0757302e-23
40	0x185fc7e2	2.892299e-24
41	0x1b96b468	2.4932003e-22
42	0x19295672	8.754553e-24
43	0x978fe870	-9.299834e-25
44	0x179ed8d4	1.0265246e-24
45	0x14bb24c0	1.889667e-26
46	0x9708ac2d	-4.4161286e-25
47	0x98837be1	-3.3987792e-24
48	0x17941750	9.570161e-25
49	0x16b1b6d7	2.871128e-25
50	0x97020466	-4.2010817e-25
51	0x9745f985	-6.396907e-25
52	0x9607e006	-1.0975902e-25
53	0x19a29e54	1.6814356e-23
54	0x9b3bab5d	-1.5523648e-22
55	0x1700a0d2	4.1562014e-25
56	0x1a212595	3.3324378e-23
57	0x1bb48d2b	2.986973e-22
58	0x995ced22	-1.1421622e-23
59	0x16a49a69	2.6593076e-25
60	0x968946aa	-2.217814e-25
61	0x17fb6e90	1.6248405e-24
62	0x1696a359	2.4336894e-25
63	0x98ac156b	-4.4482585e-24
64	0x97181c94	-4.914992e-25
65	0x978233a8	-8.414093e-25
66	0x1769689c	7.5418396e-25
67	0x9740bbec	-6.2275737e-25
68	0x1a88592d	5.639235e-23
69	0x1982c8e3	1.3522822e-23
70	0x98b5b69b	-4.6971788e-24
71	0x1b1fe496	1.3226032e-22
72	0x985334b8	-2.7297727e-24
73	0x9773a31b	-7.8723403e-25
74	0x1796507c	9.71384e-25
75	0x98178d94	-1.9587771e-24
76	0x173493e1	5.8347786e-25
77	0x9911410e	-7.509462e-24
78	0x975cf62c	-7.1396546e-25
79	0x9726234b	-5.368204e-25
80	0x16f66d99	3.981261e-25
81	0x988fcfec	-3.717458e-24
82	0x968a9d47	-2.2394358e-25
83	0x1963a8f0	1.17697416e-23
84	0x9b72fec4	-2.010009e-22
85	0x960cca10	-1.137287e-25
86	0x197013ca	1.24117056e-23
87	0x1c6d75b2	7.856884e-22
88	0x1a0f7da6	2.9673205e-23
89	0x97c83863	-1.2938931e-24
90	0x16cd4bf9	3.3167482e-25
91	0x191a76d4	7.9856105e-24
92	0x95a00b20	-6.464104e-26
93	0x13d39780	5.341328e-27
94	0x96c744a5	-3.2193505e-25
95	0x95d76800	-8.700189e-26
96	0x96a5406a	-2.6697839e-25
97	0x1668bca4	1.8800335e-25
98	0x9715f86b	-4.8458044e-25
99	0x98e6419b	-5.951985e-24
100	0x98ac5df8	-4.4555842e-24
101	0x17244307	5.307586e-25
102	0x9afde09c	-1.05001224e-22
103	0x969d764d	-2.5439376e-25
104	0x96fe75e4	-4.1110313e-25
105	0x16959d9f	2.417172e-25
106	0x16a57f54	2.6737543e-25
107	0x190b0084	7.186236e-24
108	0x195977d0	1.1242833e-23
109	0x9adbdd66	-9.0933966e-23
110	0x96848b12	-2.1413516e-25
111	0x18fd0cdb	6.5411948e-24
112	0x165d0594	1.7853998e-25
113	0x18ea50cf	6.056918e-24
114	0xb1e378b1	-6.6202905e-09
115	0x16b3e77d	2.90651e-25
116	0x1dc3e15c	5.1849086e-21
117	0x16c0917c	3.1111087e-25
118	0x1e83b42d	1.3944683e-20
119	0x9cd465bc	-1.4055281e-21
120	0x969436e1	-2.3945323e-25
121	0x97a14822	-1.042259e-24
122	0x96128144	-1.1834575e-25
123	0x1896d4dc	3.8989024e-24
124	0x170cb35d	4.546283e-25
125	0x183d2d5f	2.4450584e-24
126	0x16b76122	2.9626544e-25
127	0x1577ee50	5.0069248e-26
128	0x1937b014	9.496437e-24
129	0x193ea666	9.856374e-24
130	0x985e2632	-2.8712111e-24
131	0x1951dfc2	1.0850234e-23
132	0x1908380e	7.042355e-24
133	0x1731bb37	5.7428083e-25
134	0x17497dbd	6.5105307e-25
135	0x96bca688	-3.0478134e-25
136	0x16ea3f94	3.7844862e-25
137	0x99191199	-7.9134684e-24
138	0x9791f650	-9.432583e-25
139	0x15c1b030	7.8230054e-26
140	0x16ff099b	4.1203534e-25
141	0x179adea0	1.0008215e-24
142	0x170d9b38	4.575547e-25
143	0x98636dec	-2.9394559e-24
144	0x9a129cf2	-3.0318872e-23
145	0x16eb5850	3.802203e-25
146	0x19921563	1.5104684e-23
147	0x9aea4a4a	-9.690015e-23
148	0x9a139e7c	-3.052691e-23
149	0x17284232	5.436728e-25
150	0x16b22260	2.8779145e-25
151	0x97dc22bc	-1.4225935e-24
152	0x16c39346	3.1596892e-25
153	0x17a223c4	1.0478033e-24
154	0x973f6aa4	-6.185003e-25
155	0x97dbbed6	-1.4200717e-24
156	0x170c9ce4	4.5434464e-25
157	0x96382540	-1.4875156e-25
158	0x195f786d	1.15531496e-23
159	0x190a5b08	7.1528164e-24
160	0x985c6101	-2.8483308e-24
161	0x1a04f4cf	2.7494715e-23
162	0x18c81ff8	5.173107e-24
163	0x166f3844	1.932402e-25
164	0x1614cb34	1.2019464e-25
165	0x97efc013	-1.5493499e-24
166	0x172aa78c	5.5141436e-25
167	0x98caa02a	-5.23775e-24
168	0x97b7e1a4	-1.1883058e-24
169	0x96c149c7	-3.1227392e-25
170	0x16bdef7c	3.0685733e-25
171	0x9807ebd8	-1.7567412e-24
172	0x17157386	4.829031e-25
173	0x98db4038	-5.6675018e-24
174	0x9a819d27	-5.360704e-23
175	0x96ac8f75	-2.7878633e-25
176	0x1992ec42	1.519147e-23
177	0x9a63059a	-4.6947025e-23
178	0x99e1bca1	-2.3340641e-23
179	0x16ae25da	2.8135104e-25
180	0x191b916f	8.042682e-24
181	0x97636ee8	-7.348764e-25
182	0x9742506a	-6.278628e-25
183	0x9856e9d8	-2.7776913e-24
184	0x16ee736c	3.8523815e-25
185	0xb9dcd2e8	-0.00042118807
186	0x990e07c7	-7.3427986e-24
187	0xb2e48a30	-2.6605534e-08
188	0x196c3533	1.22116575e-23
189	0xb9698e2b	-0.00022273573
190	0x9820a1e7	-2.0761255e-24
191	0x997a2a60	-1.2933255e-23
192	0xb8e4d595	-0.0001091167
193	0x2a942daf	2.632178e-13
194	0x2a646e80	2.0288805e-13
195	0xba831070	-0.0009999406
196	0x20c0946d	3.2624285e-19
197	0xbb6aff7a	-0.0035857842
198	0x97ab9d4a	-1.1090321e-24
199	0x178a7a22	8.948872e-25
200	0xa35b0f76	-1.1875288e-17
201	0x178572b0	8.623875e-25
202	0x17e614e2	1.4868673e-24
203	0xba9a4287	-0.0011769094
204	0xb2e80a32	-2.7012991e-08
205	0x171668fa	4.8600113e-25
206	0xbbcec639	-0.006310251
207	0x9ac79a8a	-8.255414e-23
208	0xb9d12d1c	-0.00039897196
209	0xba55bbc1	-0.00081532827
210	0x18cdc2cf	5.3187964e-24
211	0x97980d41	-9.826116e-25
212	0x97b5cf3e	-1.1749166e-24
213	0x18e83039	6.0019287e-24
214	0x168283cc	2.1085808e-25
215	0xb7950330	-1.7763668e-05
216	0x968652b0	-2.170105e-25
217	0xaa978509	-2.69153e-13
218	0x9b1a656e	-1.2771355e-22
219	0xb7401c83	-1.145073e-05
220	0x97b2bd8a	-1.1550827e-24
221	0x1af5cb72	1.0165831e-22
222	0x34e22790	4.2124566e-07
223	0xa3acce7b	-1.8735725e-17
224	0xa3f392f2	-2.6408347e-17
225	0xb75c2412	-1.312142e-05
226	0x1d626e10	2.9967752e-21
227	0xbb0ad75a	-0.0021185488
228	0x97448209	-6.3495143e-25
229	0x1714715e	4.796447e-25
230	0x9edf3fbe	-2.3637407e-20
231	0x98582dfd	-2.7940564e-24
232	0x19466a8d	1.0257878e-23
233	0xb9f88fb5	-0.00047409316
234	0xaf292600	-1.5383961e-10
235	0x1789334b	8.866366e-25
236	0x3896a171	7.182628e-05
237	0x9caaf042	-1.1311762e-21
238	0x361d8878	2.3474258e-06
239	0xb75bb43e	-1.3095383e-05
240	0x18dc865f	5.7004347e-24
241	0x98060396	-1.7320905e-24
242	0x9734cdcd	-5.8420894e-25
243	0x18b20ee2	4.602695e-24
244	0x16ec2008	3.814807e-25
245	0xb7ab735a	-2.0438503e-05
246	0x18f9c742	6.456619e-24
247	0xaa3082e5	-1.5677353e-13
248	0x9ab7bd17	-7.599252e-23
249	0xb686cef2	-4.017603e-06
250	0x18942871	3.829794e-24
251	0x1b517653	1.7326307e-22
252	0x34a73b26	3.114921e-07
253	0xa3b43a3e	-1.9540306e-17
254	0xa41b7058	-3.3705426e-17
255	0xb93602f3	-0.00017357971

conv1.bias f4 [30]
0	0x200bed3b	1.1852251e-19
1	0xb97dc7be	-0.0002420237
2	0xa53f61b5	-1.6599714e-16
3	0x2b9a579e	1.0966677e-12
4	0xbbd58851	-0.0065164943
5	0xbb950855	-0.0045481124
6	0xa5fd3a43	-4.3927984e-16
7	0xb71e9b23	-9.4536545e-06
8	0xb4815c20	-2.4095152e-07
9	0xba2184f2	-0.0006161473
10	0xb134f741	-2.6333995e-09
11	0xb5cce6f0	-1.5266396e-06
12	0xbb04ca0e	-0.0020262036
13	0xb4321386	-1.6584644e-07
14	0xb3d5fddc	-9.964762e-08
15	0xbbb83e99	-0.0056226966
16	0xab7da7b5	-9.0116396e-13
17	0xbcbd73a5	-0.023126433
18	0xb9d13c09	-0.00039908316
19	0x22331332	2.4269186e-18
20	0xae09f9bb	-3.1372e-11
21	0x9ffcd241	-1.0707399e-19
22	0x253f7dfa	1.6609292e-16
23	0xbc4c8831	-0.012483642
24	0xbb0fb7cc	-0.002192962
25	0xbc9e7558	-0.019343063
26	0x3c36323d	0.011120376
27	0xb72876e2	-1.004126e-05
28	0x3bb0e568	0.005398441
29	0xbb911081	-0.0044270162

conv2.weight f4 [30, 10]
0	0x16c1c8f5	3.1307653e-25
1	0x2149ddfd	6.839525e-19
2	0x1d03bdf0	1.7435901e-21
3	0x157a8588	5.0592436e-26
4	0x1e891e2c	1.4517918e-20
5	0x9a49bcc0	-4.1718297e-23
6	0x1526c4e8	3.3678765e-26
7	0x16d4d811	3.4386804e-25
8	0x981cf615	-2.0286767e-24
9	0x1719f579	4.9746796e-25
10	0x96927480	-2.3661094e-25
11	0x9c94aa70	-9.837876e-22
12	0x2ae6326b	4.0891192e-13
13	0x1781de1c	8.392498e-25
14	0x25b6f6ca	3.1739198e-16
15	0xa614b9d3	-5.1599654e-16
16	0x96c1079c	-3.1185634e-25
17	0x9747bdfe	-6.454017e-25
18	0x96a2ca3c	-2.630014e-25
19	0x1747c622	6.4550447e-25
20	0x163bbdd8	1.5165644e-25
21	0xa22f737a	-2.3778055e-18
22	0xa1114f64	-4.9232984e-19
23	0x96cd79ba	-3.3196357e-25
24	0xa232c6af	-2.422868e-18
25	0x2067241d	1.957841e-19
26	0x1637b8f1	1.484098e-25
27	0x96f360f6	-3.9319958e-25
28	0x159fcf00	6.454618e-26
29	0x96a29a99	-2.6270076e-25
30	0x1607ca2e	1.096901e-25
31	0x3197738c	4.4078146e-09
32	0xa467f800	-5.0300205e-17
33	0x2391d5d4	1.5811491e-17
34	0xa50aa017	-1.2023833e-16
35	0xa5ca3bcb	-3.5081932e-16
36	0x96b469c8	-2.9147326e-25
37	0x1b416db3	1.6000032e-22
38	0x18a656ae	4.299752e-24
39	0xaa4c25d1	-1.813196e-13
40	0x9671afdc	-1.9523316e-25
41	0xa1e0fb5c	-1.5245365e-18
42	0x1ef763a3	2.6193351e-20
43	0x1c4365c1	6.46516e-22
44	0x2067708e	1.9603702e-19
45	0xa0af828c	-2.9732542e-19
46	0x96bb20f2	-3.023227e-25
47	0x99c692f6	-2.0532077e-23
48	0x17e1ae58	1.4584295e-24
49	0x9f128472	-3.102626e-20
50	0x18085bc4	1.7623918e-24
51	0xba2789e8	-0.0006391094
52	0xb6fa0808	-7.4515156e-06
53	0x9753fe33	-6.849862e-25
54	0xb5212a1d	-6.0038457e-07
55	0xb7bbef9b	-2.2403712e-05
56	0x975270c8	-6.799701e-25
57	0x9657543a	-1.7394139e-25
58	0x2ae4cba0	4.064223e-13
59	0x172d9259	5.608403e-25
60	0x97368412	-5.897407e-25
61	0xaa490ca9	-1.7856779e-13
62	0x9f0b1384	-2.9450538e-20
63	0x1715463a	4.8233135e-25
64	0x9f1d715a	-3.3339805e-20
65	0xa2437352	-2.6488478e-18
66	0x967f064e	-2.0600725e-25
67	0x96b3cf85	-2.9049973e-25
68	0x9856be91	-2.7755063e-24
69	0x15ee7cd8	9.6324403e-26
70	0x9825c20c	-2.1423719e-24
71	0xbb929746	-0.0044735996
72	0xb98b4ece	-0.0002657086
73	0x16c20af2	3.1349298e-25
74	0xb8c363f6	-9.316944e-05
75	0xba674b7a	-0.00088231976
76	0x934cca00	-2.5848014e-27
77	0x9638c7b4	-1.4926417e-25
78	0xb324ecbc	-3.8399534e-08
79	0x17f5dfe4	1.5889272e-24
80	0x96ee1102	-3.8461707e-25
81	0x37cffc98	2.4793946e-05
82	0x2c2badd7	2.4397062e-12
83	0xb1835b1c	-3.8229597e-09
84	0x281cc0f8	8.701583e-15
85	0x32d0e236	2.4317256e-08
86	0x16ed14f7	3.8302646e-25
87	0xa399598b	-1.6626216e-17
88	0x987f636c	-3.3008173e-24
89	0xb601375a	-1.9254717e-06
90	0x17e8542e	1.5013899e-24
91	0xbca59989	-0.020214813
92	0xbd011660	-0.03151548
93	0xa1c0f162	-1.307432e-18
94	0x3b47770f	0.0030435955
95	0xbd088684	-0.03333141
96	0x1789d4c8	8.907131e-25
97	0x18be0ef8	4.9128963e-24
98	0xb91fc196	-0.00015235538
99	0xa6f4c944	-1.6985454e-15
100	0x9734a54e	-5.836978e-25
101	0x36872687	4.0277987e-06
102	0x2b9fb460	1.1347694e-12
103	0xafcee5d4	-3.7634484e-10
104	0xab5e6a9b	-7.901819e-13
105	0x30892a20	9.980035e-10
106	0x170442f7	4.273602e-25
107	0x2296e3dc	4.0898837e-18
108	0x18c5ca6e	5.112771e-24
109	0xb5253300	-6.1541505e-07
110	0x176dfce1	7.689801e-25
111	0x98f49ef9	-6.3233043e-24
112	0x18b7795c	4.7426933e-24
113	0x17f2266b	1.5648582e-24
114	0x173fb621	6.1945308e-25
115	0x98a2b79d	-4.206142e-24
116	0x972aa8c5	-5.514298e-25
117	0x167d3c70	2.0456248e-25
118	0x97a1a6ca	-1.0446485e-24
119	0x18e84843	6.004356e-24
120	0x97f099cc	-1.554846e-24
121	0xbc92d94f	-0.017925886
122	0x3b1692f2	0.002297577
123	0x1ec92199	2.1295598e-20
124	0xba5a8d40	-0.0008337088
125	0xbc737efb	-0.0148618175
126	0x159918e0	6.1835454e-26
127	0x181662ba	1.943689e-24
128	0xb9256600	-0.00015773624
129	0x2260ea64	3.0481746e-18
130	0x1666dae2	1.8648319e-25
131	0x18c7c942	5.1643513e-24
132	0x97909b1e	-9.344939e-25
133	0x971d655b	-5.0857365e-25
134	0x16efc1be	3.87348e-25
135	0x98939e04	-3.8158164e-24
136	0x9748e9c0	-6.491852e-25
137	0x96f2e83c	-3.924377e-25
138	0x17dbafb6	1.4196899e-24
139	0x960d6dbc	-1.1424515e-25
140	0x979830f8	-9.835131e-25
141	0x9f3437dd	-3.8162692e-20
142	0x9abd9c69	-7.842126e-23
143	0x972ebc80	-5.6460353e-25
144	0x9a5d3d1a	-4.5751086e-23
145	0x1c1c3eff	5.169749e-22
146	0x963f6874	-1.5461817e-25
147	0x95101ab0	-2.910162e-26
148	0x98fe868c	-6.579332e-24
149	0x1793eaeb	9.558954e-25
150	0x1848f036	2.597067e-24
151	0xbbda4c65	-0.006661939
152	0xb9ced66a	-0.00039451133
153	0x17ca605e	1.3078271e-24
154	0xba08b04d	-0.0005214259
155	0xbbb385c3	-0.005478592
156	0x16e4ce32	3.6965514e-25
157	0x97a78152	-1.0824767e-24
158	0xb6863383	-3.999508e-06
159	0x17dcbba4	1.4264534e-24
160	0x16e10644	3.6354665e-25
161	0xbb7391f1	-0.0037165845
162	0xb7813585	-1.540292e-05
163	0x980de326	-1.8338504e-24
164	0xb6ed3970	-7.069837e-06
165	0xba090730	-0.0005227206
166	0x9716ac46	-4.8685054e-25
167	0x1788f6da	8.851108e-25
168	0xaef0d470	-1.0951673e-10
169	0x16b74003	2.9605642e-25
170	0x975c1d7a	-7.112304e-25
171	0xbcadcac9	-0.02121486
172	0x38c306b8	9.299576e-05
173	0x982891a2	-2.1787017e-24
174	0xba727893	-0.00092495343
175	0xba7a02f5	-0.0009537184
176	0x14dc9700	2.2273882e-26
177	0x183d145b	2.4437954e-24
178	0xb88cbb71	-6.710634e-05
179	0x97e36dea	-1.4697277e-24
180	0x96b072e9	-2.8506852e-25
181	0x2624e20a	5.720527e-16
182	0xb06ed680	-8.688872e-10
183	0x1b588cc1	1.7912581e-22
184	0x2c81cc4c	3.689082e-12
185	0x2f517b97	1.9052347e-10
186	0x16c9dc86	3.2612471e-25
187	0x18f86c79	6.4216027e-24
188	0x97be9a37	-1.2317392e-24
189	0x2075ea0f	2.0829751e-19
190	0x178917e1	8.859445e-25
191	0x20a020ae	2.712668e-19
192	0xa1fde7da	-1.7205317e-18
193	0x96c767e1	-3.221574e-25
194	0x22aa087d	4.608758e-18
195	0x9f991045	-6.4824936e-20
196	0x95a4c1b0	-6.654466e-26
197	0x958578a4	-5.390861e-26
198	0x96a9b3a0	-2.7416782e-25
199	0x1685169a	2.1501572e-25
200	0x981141f0	-1.87741e-24
201	0xbb870946	-0.0041209785
202	0xb8cabd15	-9.66733e-05
203	0x9745cbcb	-6.3911356e-25
204	0xb7d507e7	-2.5395258e-05
205	0xb9d869d7	-0.00041277587
206	0x166a1a72	1.8910714e-25
207	0x94e045b0	-2.2645707e-26
208	0xb19f4405	-4.635242e-09
209	0x978c78d6	-9.077791e-25
210	0x160dad12	1.1444501e-25
211	0x20037161	1.1133646e-19
212	0x9f731bda	-5.148029e-20
213	0x9c19cb62	-5.088632e-22
214	0x9f62d738	-4.8035386e-20
215	0x1e9bcc29	1.6495702e-20
216	0x164b175c	1.640558e-25
217	0x198c9cf1	1.4539049e-23
218	0x9802db7b	-1.6912916e-24
219	0x1d4408ea	2.5944992e-21
220	0x971fdbd5	-5.165314e-25
221	0x9ff506f0	-1.0377301e-19
222	0xa15abaef	-7.410868e-19
223	0x172d9c36	5.609648e-25
224	0x220c628f	1.9025715e-18
225	0xa1128cef	-4.965325e-19
226	0x160bff14	1.1308819e-25
227	0x17036ef2	4.2468416e-25
228	0x16602509	1.8106262e-25
229	0x95d20d30	-8.483913e-26
230	0x186b6083	3.0421764e-24
231	0x3c252389	0.010079273
232	0xbb589331	-0.0033046717
233	0xa7999bdb	-4.263501e-15
234	0xbb8e9c32	-0.004352116
235	0xbc8d2138	-0.017227754
236	0x1767a300	7.484586e-25
237	0x1dafc78e	4.652845e-21
238	0xb93a8db8	-0.00017791137
239	0xb017feb2	-5.5295424e-10
240	0x18d519de	5.508533e-24
241	0xbd069485	-0.032856483
242	0xbca1492a	-0.019688208
243	0xa7b840e4	-5.1140614e-15
244	0x3c30804b	0.010772775
245	0xbd9e2448	-0.07721764
246	0xb639a403	-2.7662616e-06
247	0x9ccdb6de	-1.3613032e-21
248	0xbbf0aa61	-0.0073445295
249	0xb08de04f	-1.0322853e-09
250	0xb36280b6	-5.2736787e-08
251	0xae90536c	-6.5631806e-11
252	0xb96fdb0a	-0.00022874415
253	0x96d2b2a8	-3.4040078e-25
254	0xb89e3c2e	-7.5452364e-05
255	0xb9d99026	-0.00041496864

conv2.bias f4 [10]
0	0xbd877428	-0.06613952
1	0x3704e613	7.921381e-06
2	0x3880705f	6.1244464e-05
3	0xb9b9c2d6	-0.00035431114
4	0xb6a7cab0	-5.0005838e-06
5	0x36dd4a20	6.5949425e-06
6	0xbc84e2fd	-0.016221518
7	0xb60f4235	-2.1347198e-06
8	0xb6e6750d	-6.8681607e-06
9	0xbb2844dc	-0.002567581

rnn.weight_ih_l0 f4 [30, 1]
0	0x3e85133f	0.25991246
1	0x3ed170de	0.40906423
2	0xbcb9d80f	-0.022686033
3	0x3e8857a4	0.26629364
4	0x3e802943	0.2503148
5	0xbf495aed	-0.78654367
6	0x3ead2d07	0.33823416
7	0xbd45690a	-0.048195876
8	0xbebf9d7b	-0.37424836
9	0x3f8ed77c	1.1159511
10	0xc05bd9a7	-3.4351594
11	0xbbca7f72	-0.0061797434
12	0xbfa626e1	-1.2980615
13	0x3e3213fa	0.17390433
14	0xbfa007db	-1.2502397
15	0xbdce0446	-0.10059409
16	0xbe9ab7a0	-0.3021822
17	0xbfb0128a	-1.3755658
18	0xbe116d1d	-0.1420178
19	0xbe0bd820	-0.13656664
20	0x3c2ebb5c	0.010664787
21	0x3f49d8cf	0.7884645
22	0x3e2cb572	0.16866091
23	0xbff7e130	-1.9365597
24	0x3d0a98db	0.03383718
25	0xbd8a23b6	-0.067450926
26	0xbeaedc59	-0.34152487
27	0xbe169d3c	-0.14708418
28	0xbd8bd363	-0.06827428
29	0x3efb517f	0.49085614

rnn.weight_hh_l0 f4 [30, 30]
0	0xbf1ce1c6	-0.61282
1	0xbe0ec6d4	-0.13943034
2	0x3e9d2624	0.3069316
3	0xbdcb16e2	-0.09916474
4	0xbee0bb22	-0.4389277
5	0x3e2e819d	0.17041631
6	0x3ea97c08	0.3310244
7	0x3ec29ca1	0.38010123
8	0x3eb622c3	0.35573396
9	0x3e97d416	0.29653996
10	0xbe975096	-0.2955367
11	0xbec067d2	-0.3757921
12	0xbe80baf9	-0.2514265
13	0x3e5daee4	0.21648747
14	0xbf75e19c	-0.9604738
15	0x3e9c5f11	0.3054128
16	0x3e91a73f	0.2844791
17	0x3e8a3768	0.26995397
18	0xbf2f77cd	-0.68542176
19	0xbe2cb62b	-0.16866367
20	0xbd65b395	-0.056079466
21	0xbe48895a	-0.19583645
22	0x3ed6ca88	0.41951394
23	0xbf0757be	-0.5286826
24	0xbf0660cf	-0.5249147
25	0xbf1b1c5d	-0.60590154
26	0x3f173e0f	0.5907907
27	0x3f0386eb	0.51377743
28	0xbefa1048	-0.48840547
29	0x3e42dfb2	0.19030645
30	0xbe7d1696	-0.24715647
31	0xbe94d5d9	-0.29069403
32	0xbe4ab4f2	-0.19795588
33	0xbdb4abbb	-0.088218175
34	0xbe97e796	-0.29668874
35	0xbcad60de	-0.021164354
36	0xbe128e84	-0.14312178
37	0x3e23fd0a	0.16014495
38	0xbc6bdb24	-0.014395509
39	0x3d4c6530	0.049901187
40	0x3e03c2c2	0.12867263
41	0xbe05ec47	-0.13078414
42	0xbdfee392	-0.12445749
43	0x3e03ccaa	0.12871042
44	0x3dc24e30	0.09487569
45	0xbe3609a6	-0.17777118
46	0xbd0274c8	-0.031849653
47	0xbde4205d	-0.11138985
48	0x3daee92b	0.08540567
49	0x3e0ae2f2	0.13563135
50	0xbe4a41fc	-0.19751734
51	0x3d8b564d	0.0680357
52	0xbd80bf88	-0.06286532
53	0x3b0b828f	0.0021287536
54	0xbd835412	-0.064125195
55	0xbdefae8b	-0.11703213
56	0x3e70ec1c	0.23527569
57	0x3ce6ef29	0.028190212
58	0x3d21d924	0.039513722
59	0x3e634b05	0.22196586
60	0xbc5af1da	-0.013363326
61	0x3e7ad466	0.24495086
62	0x3ebbc2bd	0.3667201
63	0x3c95c899	0.018284129
64	0xbe8be6b1	-0.2732444
65	0x3f085bd4	0.5326512
66	0x3d3afd15	0.045651514
67	0x3df4557e	0.11930369
68	0x3ea40563	0.3203536
69	0xbdc7d6e0	-0.09757781
70	0xbe030b41	-0.12797262
71	0xbe5a7d43	-0.21336846
72	0xbd7f754d	-0.062367726
73	0xbe43bbea	-0.19114652
74	0xbda277de	-0.07933019
75	0x3e9e7be5	0.309539
76	0x3eddcb7d	0.43319312
77	0x3c9503ee	0.01819035
78	0xbef84cab	-0.48495993
79	0x3d2490be	0.0401771
80	0x3e9dc212	0.30812126
81	0xbdfbde9f	-0.12298321
82	0x3e887ba1	0.2665682
83	0xbea9d4f9	-0.33170298
84	0xbeeac9b5	-0.45857015
85	0xbe939224	-0.28822434
86	0x3e4f4651	0.20241667
87	0x3e60fd5f	0.21971653
88	0xbe24f941	-0.16110708
89	0xbe0dbfac	-0.13842648
90	0x3d5d29fc	0.053995118
91	0x3e740972	0.23831728
92	0x3e72ce04	0.23711401
93	0x3e3d56a0	0.18490076
94	0x3e1febe0	0.15617323
95	0x3e78ec5e	0.24308917
96	0x3e56ef50	0.20989728
97	0x3e45e318	0.1932491
98	0xbcafa10e	-0.021439102
99	0xbe63f7e9	-0.22262539
100	0xbdd58271	-0.1042527
101	0x3e45bacc	0.19309539
102	0x3d5385c7	0.051641252
103	0xbeb22c12	-0.34799248
104	0xbe896fb5	-0.26843038
105	0x3dfd17db	0.12358066
106	0x3e92d032	0.28674465
107	0x3e96b73d	0.29436675
108	0xbe9b8e22	-0.30381876
109	0xbe2db32c	-0.1696288
110	0x3e9548c3	0.29157075
111	0x3d09f683	0.033682358
112	0x3e7f850f	0.24953102
113	0xbd9ddabb	-0.07707735
114	0xbe9ea61b	-0.30986103
115	0xbd9420c8	-0.07232815
116	0xbd509cf9	-0.05093095
117	0x3e0f526e	0.13996288
118	0xbd99b61a	-0.07505436
119	0x3d68ab80	0.05680418
120	0xbd98bd76	-0.07458012
121	0xbe23562d	-0.15950842
122	0xbd074243	-0.033022176
123	0xbe1eb54e	-0.1549885
124	0xbe337bcf	-0.17527698
125	0x3e865ab8	0.26241088
126	0xbd7d8a48	-0.061899453
127	0x3e2936d9	0.16524829
128	0xbd0fafb7	-0.035079684
129	0xbe218d92	-0.15776661
130	0x3d0154ff	0.0315752
131	0xbdd48f15	-0.10378853
132	0xbe08e2d1	-0.13367774
133	0x3dc48de7	0.09597378
134	0x3cb85df2	0.022505734
135	0xbd93b749	-0.07212693
136	0x3e761e2b	0.24034946
137	0xbdad39a1	-0.084582575
138	0x3bd83956	0.006598632
139	0xbce736e0	-0.028224409
140	0xbd5a27c5	-0.053260583
141	0x3d3c42a1	0.04596198
142	0xbd14202d	-0.036163498
143	0xbe9cb2b5	-0.30605093
144	0xbecb6f7f	-0.39733502
145	0xbe562591	-0.20912768
146	0x3e7e0bd8	0.24809206
147	0xbc71e1d1	-0.0147633115
148	0xbde551b1	-0.11197222
149	0x3e2ae4b6	0.16688809
150	0xbdfbec6a	-0.12300952
151	0xbe8b100d	-0.27160683
152	0xbe1853f6	-0.14875779
153	0xbdcb85c1	-0.09937621
154	0xbe9ab96d	-0.30219594
155	0xbd7be7cb	-0.061500352
156	0xbe2b5f79	-0.16735639
157	0x3df43a17	0.11925142
158	0xbd195de0	-0.03744304
159	0x3e0e1bc5	0.1387778
160	0xbd9f760e	-0.07786189
161	0x3d2771e1	0.040880088
162	0xbe0bd368	-0.13654864
163	0x3e76c294	0.24097663
164	0x3e556779	0.20840253
165	0xbe5a5c48	-0.21324265
166	0xbdb187c3	-0.086684726
167	0xbe0b01e2	-0.13574937
168	0x3d995848	0.074875414
169	0x3da0ecbe	0.07857655
170	0xbea40cd9	-0.32041052
171	0xbcb69dbe	-0.022292014
172	0xbe001a05	-0.12509926
173	0x3e1af072	0.15130785
174	0x3e2205e3	0.15822558
175	0x3dc2fe93	0.095212124
176	0x3d90a305	0.070623435
177	0x3d41a0b1	0.047272388
178	0x3e0ee14d	0.13953133
179	0x3dfdb6f6	0.12388413
180	0xbdd84e81	-0.105618484
181	0x3dd52cdf	0.10408949
182	0x3e40b238	0.18817985
183	0xbe5bc7bf	-0.21462916
184	0xbdae7aca	-0.08519514
185	0x3eeccb88	0.46249032
186	0xbd6e6bd5	-0.058208305
187	0x3ab640cf	0.0013904813
188	0x3e5bd11f	0.21466492
189	0xbcb09708	-0.021556392
190	0x3c9e82c0	0.019349456
191	0xbeb8b380	-0.36074448
192	0x3d010eb8	0.031508178
193	0xbe3c081f	-0.18362473
194	0xbdb41194	-0.08792415
195	0x3dbb3ab2	0.091420546
196	0x3eb43891	0.35199407
197	0x3e17da0c	0.14829272
198	0xbd64d0f9	-0.055863354
199	0xbe4272e0	-0.18989134
200	0x3b698af8	0.003563581
201	0xbe38de6f	-0.18053602
202	0x3e1ac8b1	0.1511562
203	0xbeba8b3f	-0.3643436
204	0xbed46bce	-0.41488498
205	0xbeccf2c4	-0.40028965
206	0x3e49f6c2	0.19723037
207	0x3e570cd7	0.21000992
208	0xbed0a2df	-0.4074926
209	0x3d82e1f5	0.06390754
210	0x3ea8bc02	0.3295594
211	0xbc7b4dc2	-0.015338363
212	0x3e0e9f73	0.13928013
213	0xbdad068e	-0.08448516
214	0xbe001e40	-0.1251154
215	0xbe8925e3	-0.26786718
216	0xbefc8f56	-0.49328107
217	0xbec25e15	-0.37962404
218	0xbe1c09b7	-0.15238081
219	0x3d9d16e7	0.07670384
220	0xbe8ed801	-0.27899173
221	0x3ed1126f	0.40834376
222	0x3ea2ab9c	0.31771553
223	0x3e0d89b3	0.1382206
224	0x3ec80158	0.39063525
225	0xbd2880c8	-0.04113844
226	0xbf21e8c1	-0.6324578
227	0xbec1e786	-0.3787195
228	0x3eee4d71	0.46543458
229	0x3ecde5e0	0.40214443
230	0xbe1e7a07	-0.15476237
231	0xbd484120	-0.048890233
232	0xbc49a861	-0.012308211
233	0x3e9dc8be	0.30817217
234	0x3ea502c6	0.32228678
235	0x3f1443ae	0.5791577
236	0xbe1b7580	-0.15181541
237	0xbe07532b	-0.1321532
238	0x3d1d43ac	0.038394615
239	0xbeb1684b	-0.34649882
240	0x3e79cdab	0.24394862
241	0x3e1b069e	0.15139243
242	0x3ee20530	0.44144583
243	0xbe0de8e4	-0.13858372
244	0x3e4eabe8	0.20182765
245	0x3d3e7770	0.046500623
246	0xbeaa5231	-0.33265832
247	0xbdd4b4fb	-0.10386082
248	0xbebacbc8	-0.36483598
249	0xbe35a70a	-0.17739502
250	0x3f4e18c9	0.8050657
251	0x3e84f788	0.259701
252	0xbca9ab44	-0.020711549
253	0xbe215b73	-0.15757541
254	0x3f037ca9	0.5136209
255	0xbbcda1de	-0.0062753996
