colagnn-master-Run-Epi/src/save/cola_gnn_epi.us_regions.w-20.h-8.RNN.lam-0.5.epo-500.pt (torch, 52278 bytes, 32 tensors)

V f4 [15]
000000 d1 ce 84 bf d5 4d d1 bf e1 06 80 3f 4d 50 1e 3f
       -1.0375615 -1.6351877 1.0002099 0.6184128
000010 4a f4 71 bf ae aa 8b 3f a4 62 89 3f 46 c0 67 3f
       -0.9451338 1.0911462 1.0733228 0.9052776
000020 9c 04 41 3e 1d 72 98 3f 18 07 ab 3f b3 01 4a 3f
       0.18849415 1.1909825 1.336154 0.7890884
000030 e5 e4 80 bf 19 96 af 3f 24 5c 86 bf
       -1.0069853 1.3717681 -1.0496869

W1 f4 [15, 30]
000000 29 f1 a4 3e 37 6f a4 be 2b a3 a4 be 08 de a4 3e
       0.3221524 -0.321161 -0.32155737 0.32200646
000010 52 76 a4 be 4e fb 56 3a 0f f5 a4 be 36 00 a5 3e
       -0.3212152 0.00082008995 -0.32218215 0.32226723
000020 8b 90 a4 3e 17 ab a4 3e e4 ec 0b bb 3a d4 a4 3e
       0.32141528 0.3216178 -0.0021350915 0.32193166
000030 1d b2 a4 be 37 87 a3 be 04 da a4 3e 93 84 a4 3e
       -0.3216714 -0.31939098 0.32197583 0.32132396
000040 62 f3 a3 3e be d2 a4 3e 99 c1 3e be 55 d6 a4 be
       0.32021624 0.32192034 -0.18628539 -0.32194772
000050 d3 67 a4 be b0 2e a4 3e 61 1c a5 3e d3 ee a4 be
       -0.32110462 0.3206687 0.32248214 -0.32213458
000060 c6 db a4 be 36 5d a4 3e 2a 98 68 be 63 30 a4 3e
       -0.32198924 0.32102364 -0.22714296 0.32068166
000070 1e 55 a4 be 53 29 a3 ba 67 43 79 bf 1a bb 60 3f
       -0.3209619 -0.0012448229 -0.9736847 0.87785494
000080 2c 89 6e 3f 9e 25 78 bf b3 89 74 3f 92 54 41 3d
       0.9317806 -0.969324 0.9552261 0.047199793
000090 98 b8 79 3f 2a 92 79 bf d0 f1 78 bf e7 d3 78 bf
       0.9754729 -0.97488654 -0.97243977 -0.9719834
0000a0 58 1c 14 3e 8e 15 77 bf 54 ba 73 3f 7e 6b 65 3f
       0.14463937 -0.96517265 0.9520619 0.89617145
0000b0 df 65 75 bf 88 2f 70 bf 57 52 5d bf 02 6b 79 bf
       -0.9585857 -0.93822527 -0.86453766 -0.97428906
0000c0 e4 15 4f 3f b3 6d 78 3f ab 6c 71 3f 4a 79 61 bf
       0.8089278 0.9704239 0.9430644 -0.880757
0000d0 d2 d1 7b bf 6f 25 78 3f ba e1 77 3f 19 6e 5d bf
       -0.98367035 0.9693212 0.96828806 -0.8649612
0000e0 56 f6 58 3f 26 f7 5d bf a0 50 6f 3f 0d ba 08 bd
       0.8475088 -0.86705244 0.934824 -0.033380557
0000f0 51 c8 8c ba 8e 85 8c 3a 46 a8 8c 3a d1 f0 8c ba
       -0.0010740851 0.0010720955 0.0010731302 -0.0010752921
000100 7f 5d 8c 3a 57 de 61 ba f6 d9 8c 3a 24 f0 8c ba
       0.0010709016 -0.00086162 0.001074611 -0.001075272
000110 ab fc 8a ba 7a 5c 8c ba 9e 29 62 3b c9 ba 8c ba
       -0.0010603865 -0.0010708713 0.003450967 -0.0010736819
000120 cb b6 8c 3a 85 2a 88 3a 31 da 8c ba da 8b 8b ba
       0.0010735629 0.0010388648 -0.0010746178 -0.0010646537
000130 d3 c2 8b ba 99 7a 8c ba d6 0b 18 bb e8 c1 8c 3a
       -0.001066292 -0.0010717689 -0.0023200414 0.0010738941
000140 c3 4f 8c 3a 92 41 8c ba 91 90 8c ba 8f e9 8c 3a
       0.0010704923 -0.0010700694 -0.0010724236 0.0010750758
000150 ba a4 8c 3a df 76 8c ba 24 32 22 ba d6 61 8c ba
       0.0010730245 -0.0010716579 -0.0006187281 -0.001071031
000160 a2 51 8c 3a 04 8d d8 3a d9 3f 15 bc bb 4d 18 3c
       0.0010705481 0.0016521518 -0.009109461 0.009295876
000170 60 6a 17 3c 25 83 15 bc df bb 15 3c 5a 95 19 bd
       0.00924167 -0.009125506 0.00913903 -0.03749595
000180 0b 37 15 3c e9 3f 15 bc 6a 60 15 bc 1c 48 15 bc
       0.009107362 -0.009109476 -0.009117225 -0.0091114305
000190 bd ba 09 bd f4 f1 15 bc 04 30 16 3c 8c cb 17 3c
       -0.033625353 -0.009151924 0.009166721 0.009264838
0001a0 44 53 15 bc 80 d5 16 bc 61 f5 16 bc d6 34 15 bc
       -0.00911409 -0.009206176 -0.009213776 -0.009106835
0001b0 13 d0 81 3b 93 37 15 3c e5 27 16 3c 84 3e 17 bc
       0.003961572 0.009107488 0.009164785 -0.0092312135
0001c0 10 2d 15 bc 5c 45 15 3c 69 3b 15 3c 4e ec 17 bc
       -0.009104982 0.009110775 0.009108403 -0.009272648
0001d0 68 cc fc 3b 9e 83 17 bc 1a 34 16 3c 3a 71 52 3d
       0.007714797 -0.009247689 0.009167695 0.051377513
0001e0 3f e2 0a 3f 60 ca 0a bf 7d d3 0a bf 07 dc 0a 3f
       0.54251474 -0.5421505 -0.54228956 0.54241985
0001f0 9d aa 0a bf f9 44 30 3b 8f de 0a bf b8 da 0a 3f
       -0.54166585 0.002689658 -0.5424585 0.5423999
000200 b2 b5 0a 3f 19 a5 0a 3f 54 33 71 3b d6 d4 0a 3f
       0.54183495 0.5415817 0.0036804276 0.5423101
000210 7d da 0a bf 54 75 0a bf 59 dc 0a 3f 7b b9 0a 3f
       -0.54239637 -0.5408528 0.54242474 0.5418927
000220 dd 99 0a 3f 95 ab 0a 3f f2 ca d0 be ce d1 0a bf
       0.54141027 0.54168063 -0.40779835 -0.54226387
000230 97 b0 0a bf 10 b1 0a 3f bd c7 0a 3f e3 df 0a bf
       -0.54175705 0.54176426 0.54211026 -0.54247874
000240 15 cf 0a bf c4 ca 0a 3f 71 1c e7 be 61 b7 0a 3f
       -0.5422223 0.54215646 -0.45138887 0.54186064
000250 d2 ab 0a bf 56 f1 07 3b 69 94 82 bb 3a 53 83 3b
       -0.54168427 0.0020743213 -0.003984977 0.004007724
000260 5c 3f 83 3b 66 bc 82 bb 5a 2d 83 3b da 67 7e bb
       0.0040053558 -0.003989744 0.004003209 -0.0038819225
000270 29 78 82 3b a9 87 82 bb 1c 20 83 bb 44 ac 82 bb
       0.0039816094 -0.003983457 -0.0040016305 -0.003987821
000280 57 3c 74 bb e8 fb 82 bb d1 13 83 3b 0e 19 83 3b
       -0.003726741 -0.0039973147 0.004000165 0.0040007895
000290 53 fd 82 bb a3 1c 83 bb b4 ff 82 bb 11 79 82 bb
       -0.0039974838 -0.0040012165 -0.0039977673 -0.0039817174
0002a0 c4 a2 63 ba 14 e2 82 3b 4e 47 83 3b 03 69 83 bb
       -0.0008683617 0.003994236 0.004006303 -0.004010321
0002b0 6f 06 82 bb 57 bd 82 3b ff e2 82 3b 21 55 83 bb
       -0.003968052 0.003989856 0.003994345 -0.004007951
0002c0 e3 94 90 3b b1 68 83 bb bc 54 83 3b 58 4d 82 b9
       0.00441228 -0.004010283 0.004007904 -0.00024853158
0002d0 9b e7 42 3c 87 b3 8e b9 13 b1 46 bb fb b7 2a 3c
       0.011896039 -0.0002721811 -0.0030317947 0.010419841
0002e0 ea 88 c2 bb a2 39 5a 3b 67 ea 50 bc 74 4c 4a 3c
       -0.0059367316 0.0033298512 -0.012751198 0.012347329
0002f0 09 b3 3d 3c d1 3a 38 3c 8c f8 d2 3a cc 37 f9 3b
       0.01157833 0.011244492 0.0016095801 0.0076055285
000300 06 08 cc bb 30 02 84 ba f2 aa f3 3b c0 e4 67 3b
       -0.0062265424 -0.0010071453 0.0074361498 0.0035384148
000310 01 1c fe b9 25 3f 4e 3c b5 90 36 3b b2 c9 10 bc
       -0.0004846752 0.012588297 0.0027857248 -0.00883715
000320 2c 8b 82 bb 90 82 80 37 de 3b 91 3c 79 07 2a bc
       -0.0039838757 1.5319587e-05 0.017728742 -0.010377758
000330 36 7b 1f bc e8 fd 04 ba 9f a7 1e 3b e5 c7 b7 b9
       -0.009733966 -0.00050732354 0.0024208797 -0.00035053413
000340 a6 f1 4d bb 31 7b 5d bb a8 d6 e7 ba bf 5f e8 3a
       -0.0031424551 -0.0033795352 -0.0017687874 0.001772873
000350 a9 18 e8 3a f9 5c e8 ba 12 76 e6 3a 6e 66 d3 ba
       0.0017707545 -0.0017727903 0.0017582795 -0.0016128549
000360 05 c5 e7 3a 3c 77 e7 ba 32 6d e8 ba 5d b9 e5 ba
       0.0017682618 -0.0017659436 -0.0017732738 -0.0017526556
000370 ce 4d 59 3a ca 03 e9 ba aa bd e8 3a 48 ae e2 3a
       0.0008289487 -0.0017777618 0.001775672 0.0017294372
000380 59 38 e8 ba 68 ba e7 ba 58 06 e6 ba 04 5f e5 ba
       -0.0017716988 -0.0017679455 -0.0017549498 -0.001749963
000390 84 53 fd b9 d2 38 e8 3a 93 ce e6 3a 20 44 e6 ba
       -0.00048318144 0.0017717129 0.0017609171 -0.001756791
0003a0 c6 4b e8 ba bf aa e7 3a d3 4b e8 3a 46 cb e7 ba
       -0.0017722778 0.0017674788 0.0017722793 -0.0017684482
0003b0 28 cf cd 3a 0e 96 e6 ba 77 ab e6 3a a6 53 ae bb
       0.0015701996 -0.0017592327 0.0017598708 -0.0053200303
0003c0 34 00 9f 3a 65 d8 a5 ba fc 7e 9f ba bd bd 9e 3a
       0.0012130798 -0.0012652992 -0.0012168582 0.001211099
0003d0 10 1f 9f ba 28 38 7d ba b3 8f 9e ba 86 d7 9e 3a
       -0.0012139995 -0.0009659552 -0.0012097269 0.0012118674
0003e0 c1 e2 9e 3a 90 62 9e 3a 24 77 34 ba af 7c 9e 3a
       0.0012122021 0.0012083817 -0.00068842084 0.0012091602
0003f0 9e 61 9f ba 69 2d a3 ba 6d 2b 9f 3a ec de 9f 3a
       -0.001215983 -0.0012449446 0.0012143679 0.0012197173

b1 f4 [15]
000000 59 c9 a4 be d1 bc 79 3f fd 6f 8c 3a 8e 34 15 3c
       -0.32184866 0.97553736 0.0010714527 0.009106768
000010 d0 a9 0a bf 19 66 82 3b d9 9d 54 bc 89 4f e5 3a
       -0.54165363 0.003979456 -0.012977087 0.0017495017
000020 f4 3a 9e ba 57 67 4c 3b 8e 18 32 3b 29 36 aa 3b
       -0.0012072013 0.0031189525 0.002717528 0.0051944447
000030 31 40 14 3c 77 a7 a0 3b 1f f5 db bd
       0.009048508 0.004902776 -0.107401125

W2 f4 [15, 30]
000000 08 06 a5 3e 8a d4 a4 be 21 68 a4 be 99 cf a4 3e
       0.32231164 -0.32193404 -0.32110694 0.32189634
000010 a5 2c a4 be 4f 8a e0 3a 93 02 a5 be e5 01 a5 3e
       -0.3206531 0.0017131063 -0.32228526 0.32228008
000020 e9 b7 a4 3e 1e 80 a4 3e 33 c4 f9 3a 35 8a a4 3e
       0.32171562 0.32128996 0.0019055664 0.32136694
000030 b6 e6 a4 be 08 9d a3 be 9e c1 a4 3e fa e2 a4 3e
       -0.32207268 -0.31955743 0.32178968 0.3220442
000040 b8 00 a4 3e 7c c2 a4 3e 27 14 6e be fb 9f a4 be
       0.32031798 0.3217963 -0.23249875 -0.32153305
000050 4a 53 a4 be e8 41 a4 3e 1e 8a a4 3e 19 fd a4 be
       -0.32094795 0.32081532 0.32136625 -0.32224348
000060 af 0a a5 be 84 28 a4 3e e1 93 7d be 46 6a a4 3e
       -0.32234713 0.3206216 -0.24763443 0.3211233
000070 a1 96 a4 be c5 c6 95 3a 76 0e 7a bf 82 d2 76 3f
       -0.3214617 0.0011427036 -0.97678316 0.9641496
000080 9d f6 5d 3f 07 29 73 bf cf 9e 5d 3f 7a 2b 00 3d
       0.86704427 -0.9498448 0.8657045 0.031291462
000090 ec ad 79 3f af b0 79 bf e7 9f 76 bf 51 6b 74 bf
       0.9753101 -0.9753522 -0.9633774 -0.9547625
0000a0 32 40 ac 3d 4b 9f 65 bf a5 33 78 3f 76 62 64 3f
       0.08410682 -0.89696187 0.96953803 0.8921274
0000b0 31 af 74 bf ae 9d 77 bf 1c f1 61 bf 54 40 79 bf
       -0.9557982 -0.96724975 -0.8825853 -0.9736378
0000c0 e0 04 9c 3f a6 9a 70 3f ef 91 5f 3f 27 53 6b bf
       1.2188988 0.93985975 0.8733205 -0.91923755
0000d0 87 03 64 bf e3 8b 79 3f 41 95 78 3f a2 d2 5d bf
       -0.8906788 0.97479075 0.97102743 -0.86649525
0000e0 40 af a7 3f 27 d7 72 bf 20 23 77 3f 14 c0 b2 bc
       1.3100357 -0.94859546 0.9653797 -0.021820106
0000f0 73 e1 8c ba 8d c1 8c 3a 1c 77 8c 3a 6b c5 8c ba
       -0.0010748341 0.0010738835 0.001071665 -0.0010739987
000100 5f 39 8c 3a 76 11 27 bb db e1 8c 3a cc ee 8c ba
       0.001069825 -0.0025492585 0.0010748463 -0.0010752319
000110 b9 b7 89 ba 8b 5d 8c ba 0f 5d 85 b9 32 8a 8c ba
       -0.0010507024 -0.001070903 -0.0002543707 -0.0010722338
000120 b1 d5 8c 3a 85 6c 88 3a 82 b8 8c ba 27 3b a9 ba
       0.0010744837 0.0010408318 -0.001073614 -0.0012911306
000130 aa 75 0c ba 19 45 8c ba bd cb 5e 3e 1e a6 8c 3a
       -0.00053581095 -0.0010701745 0.21757407 0.0010730659
000140 fa 7a 8c 3a 53 43 8c ba f9 41 8a ba 39 00 8d 3a
       0.0010717802 -0.0010701217 -0.0010548226 0.0010757513
000150 2b 8b 8f 3a b8 50 8c ba dd 60 12 3e 1c 51 8c ba
       0.001095151 -0.0010705208 0.14294763 -0.0010705325
000160 74 68 8c 3a 3b f0 f8 ba 5a 36 15 bc 83 7c 15 3c
       0.0010712282 -0.0018992493 -0.009107197 0.009123924
000170 d7 53 18 3c 83 44 16 bc 05 73 17 3c 89 5d 11 bc
       0.009297333 -0.009171608 0.009243731 -0.008872398
000180 6a 35 15 3c 14 3a 15 bc 17 38 15 bc aa 8d 15 bc
       0.009106973 -0.009108085 -0.009107611 -0.009128014
000190 86 44 27 bc a5 b9 16 bc 8a 7b 15 3c 3e 97 16 3c
       -0.010209208 -0.009199535 0.009123692 0.009191332
0001a0 80 fe 15 bc 8e aa 13 bc c2 a0 1b bc 31 3a 15 bc
       -0.009154916 -0.009012831 -0.009498777 -0.009108112
0001b0 40 c0 7f bc d2 1c 17 3c d9 d9 18 3c ab 5a 16 bc
       -0.015609801 0.00922318 0.009329283 -0.00917689
0001c0 a3 40 18 bc 6b 35 15 3c 88 25 15 3c 6f 79 17 bc
       -0.009292754 0.009106974 0.009103186 -0.009245261
0001d0 27 ba 2e bd b8 c0 15 bc 02 39 15 3c a4 15 1e 3c
       -0.042657997 -0.009140186 0.00910783 0.009648714
0001e0 94 e2 0a 3f 17 db 0a bf 5e c8 0a bf 36 d5 0a 3f
       0.5425198 -0.54240555 -0.54211986 0.54231584
0001f0 79 ad 0a bf aa db de ba 26 e2 0a bf bb df 0a 3f
       -0.5417095 -0.0017002721 -0.54251325 0.54247636
000200 a5 c1 0a 3f 4d aa 0a 3f 59 63 0d bc 84 ce 0a 3f
       0.5420173 0.5416611 -0.008629643 0.5422137
000210 10 d3 0a bf 44 76 0a bf 47 d3 0a 3f 25 db 0a 3f
       -0.54228306 -0.5408671 0.54228634 0.5424064
000220 ec 94 0a 3f 99 ae 0a 3f f7 99 eb be 45 d5 0a bf
       0.54133487 0.54172665 -0.46015903 -0.54231673
000230 63 c3 0a bf d4 ac 0a 3f e4 ca 0a 3f 30 e4 0a bf
       -0.54204386 0.54169965 0.54215837 -0.54254436
000240 cf e7 0a bf 93 b6 0a 3f cc 64 f0 be 2e a9 0a 3f
       -0.5425996 0.54184836 -0.46951902 0.541644
000250 58 a3 0a bf 5f df 33 bb 68 66 82 bb 91 e5 82 3b
       -0.5415549 -0.0027446372 -0.003979493 0.0039946516
000260 65 55 83 3b ce 23 83 bb a4 61 83 3b e1 fb 86 bb
       0.0040079826 -0.004002071 0.0040094424 -0.004119382
000270 cb 79 82 3b c4 7f 82 bb ac 53 82 bb 20 24 83 bb
       0.003981804 -0.003982516 -0.0039772596 -0.004002109
000280 61 0f 98 bb 94 4c 83 bb 2e b7 82 3b 03 1b 83 3b
       -0.004640505 -0.0040069316 0.003989122 0.004001023
000290 07 11 83 bb 3a 60 88 bb 76 0f 69 bb e0 75 82 bb
       -0.0039998326 -0.0041618617 -0.0035562194 -0.003981337
0002a0 dd 28 8f 3e a1 3b 83 3b e0 54 83 3b 63 5f 83 bb
       0.27960864 0.004004911 0.0040079206 -0.0040091737
0002b0 5a ac 82 bb 2e 82 82 3b 56 b8 82 3b 3d 69 83 bb
       -0.003987831 0.003982804 0.0039892597 -0.004010348
0002c0 15 57 25 3e cf 3b 83 bb 5f f1 82 3b f3 8c f2 3a
       0.161465 -0.0040049325 0.003996059 0.0018505141
0002d0 fe 92 55 3c cd 4a 0b bc 8e 37 a1 39 1d b6 b6 3b
       0.013035534 -0.008501721 0.00030749704 0.005575909
0002e0 d8 c6 cf 39 83 ce 12 3b d9 6c 51 bc 82 8e 4e 3c
       0.00039630267 0.0022400923 -0.012782299 0.012607219
0002f0 16 b4 f9 3b de 49 c4 3b ae ed e8 3a 3a a3 45 3a
       0.007620345 0.005990251 0.0017771029 0.0007539276
000300 ca e3 2b bc 69 3c 76 ba 56 43 ce 3b 78 e6 13 3c
       -0.010491321 -0.0009393157 0.006294648 0.009027116
000310 ca 90 e4 39 57 dd 4a 3c 8a 53 a7 3d 3a a9 5f bb
       0.00043595425 0.012381873 0.08170231 -0.0034127967
000320 4f 86 21 3a 77 d6 ea 3a 89 b2 d7 39 59 4d 4c bc
       0.0006161676 0.0017916699 0.00041141015 -0.012469613
000330 e9 84 2e bc e6 49 be b9 d1 d9 1f 3d 99 23 a1 3b
       -0.010651805 -0.00036294683 0.039026085 0.0049175736
000340 46 aa 0b bc 91 3e 8f bb 71 45 e8 ba a4 02 e8 3a
       -0.008524483 -0.004371472 -0.001772089 0.0017700982
000350 5b fe e7 3a 92 ab e8 ba 4c 91 e6 3a 96 f8 dc ba
       0.0017699705 -0.0017751327 0.0017590909 -0.0016858752
000360 a8 a5 e7 3a e8 1a e8 ba 68 7c e5 ba 10 33 e6 ba
       0.0017673271 -0.0017708214 -0.001750839 -0.0017562825
000370 fd 52 d7 ba c1 7c e8 ba 5c 92 e8 3a c1 5d e3 3a
       -0.0016427931 -0.0017737375 0.0017743814 0.0017346666
000380 b5 aa e7 ba 8e c1 fa ba de 13 ba ba 10 13 e5 ba
       -0.0017674776 -0.001913117 -0.0014196595 -0.0017476995
000390 ce 38 41 3e ca d4 e8 3a 5a 38 e7 3a f9 e4 e5 ba
       0.18869326 0.0017763611 0.0017640695 -0.0017539553
0003a0 ae 7e e5 ba 78 66 e8 3a 68 7f e8 3a a0 68 e6 ba
       -0.0017509067 0.0017730733 0.0017738165 -0.0017578788
0003b0 b1 a8 04 3e 01 57 e6 ba 33 8b e5 3a f8 31 56 39
       0.12954976 -0.0017573537 0.0017512798 0.00020427245
0003c0 97 ac 9e 3a ba d5 9e ba 25 4c a6 ba 08 56 9f 3a
       0.0012105879 -0.0012118139 -0.0012687488 0.0012156377
0003d0 28 32 a6 ba 06 a4 7b b9 9e c3 9e ba 02 69 9e 3a
       -0.0012679743 -0.00023998329 -0.0012112742 0.0012085738
0003e0 f3 0a 9f 3a 54 2d 9f 3a d3 42 82 ba ca 7a a3 3a
       0.0012134 0.0012144246 -0.0009938128 0.0012472507
0003f0 cd 02 9f ba 5f e1 a2 ba c8 38 9f 3a f8 1d 9d 3a
       -0.0012131572 -0.0012426785 0.001214766 0.0011987081

Wb f4 [29, 29]
000000 a4 52 53 3f 44 5b a7 3c b9 96 f0 3e b2 f5 14 3f
       0.82547975 0.020429261 0.46989992 0.581874
000010 07 bd a9 3e db b6 29 3f 78 a9 c7 be d1 28 26 bf
       0.3315203 0.6629464 -0.38996482 -0.6490603
000020 a9 a3 f8 3e 23 7e f3 be a3 17 1f bf 51 0a ff be
       0.48562363 -0.47557172 -0.6214544 -0.49812558
000030 e0 75 fc be 0f 27 17 bf 47 4f 24 be 3a f8 c1 be
       -0.4930868 -0.59043974 -0.16045867 -0.37884694
000040 11 5a e7 3e ea 7a 0a bf 6a 08 5a 3e 58 46 05 bf
       0.45185903 -0.540938 0.21292272 -0.5206046
000050 82 d0 07 3f 4c 17 00 3f a4 5a a6 3e 20 14 42 3f
       0.5305253 0.5003555 0.32491028 0.7581196
000060 05 a9 59 3e e2 d7 fb be 3a 42 bc be d1 11 11 3f
       0.21255882 -0.49188143 -0.36769277 0.5666781
000070 ae 07 92 be ac 92 4c 3f bb ca a1 3c 0a 9b f0 3e
       -0.28521484 0.79911304 0.01974999 0.46993285
000080 a1 f3 14 3f 94 b1 a9 3e 0a db 29 3f ec 41 c9 be
       0.5818425 0.33143294 0.6634985 -0.39308107
000090 78 27 26 bf 03 9c f8 3e 4f a3 f3 be ba 19 1f bf
       -0.64903975 0.48556527 -0.47585532 -0.6214863
0000a0 71 0a ff be 86 c4 fd be 11 fd 16 bf e3 3a 24 be
       -0.49812654 -0.49563998 -0.589799 -0.16038089
0000b0 72 d6 c1 be d6 6a e7 3e f8 74 0a bf cd a4 58 3e
       -0.3785892 0.45198697 -0.5408473 0.21156617
0000c0 ba 1a 05 bf 22 b6 07 3f 39 08 00 3f b4 78 a6 3e
       -0.51993906 0.5301229 0.50012547 0.32513964
0000d0 e2 42 42 3f 2a 95 59 3e bb 63 fc be f6 0c bc be
       0.75883305 0.21248308 -0.49294838 -0.36728638
0000e0 88 2c 11 3f 18 19 92 be 4a 35 52 3f c9 c6 b1 3c
       0.56708574 -0.2853477 0.8211256 0.021701233
0000f0 07 97 f0 3e dd be 14 3f 22 da a9 3e ed c1 29 3f
       0.46990225 0.58103734 0.33174235 0.6631153
000100 0b 9f c8 be a9 26 26 bf ba a6 f8 3e 09 d5 f3 be
       -0.3918384 -0.6490274 0.48564702 -0.4762347
000110 46 16 1f bf 81 29 ff be 30 d0 fd be 3f 03 17 bf
       -0.6214336 -0.49836352 -0.49572897 -0.5898933
000120 f0 3a 24 be 11 f5 c1 be 6b 25 e7 3e ad 78 0a bf
       -0.16038108 -0.37882283 0.45145735 -0.54090387
000130 52 c5 59 3e 73 f0 04 bf 5d b7 07 3f 30 01 00 3f
       0.21266678 -0.51929396 0.53014165 0.5000181
000140 a0 65 a6 3e 77 f3 41 3f 6c 83 59 3e cc 2e fc be
       0.3249941 0.7576212 0.2124154 -0.49254453
000150 8a fb ba be 96 0b 11 3f b1 17 92 be 40 a3 50 3f
       -0.36520034 0.56658304 -0.285337 0.814991
000160 38 23 a4 3c 76 98 f0 3e f7 05 15 3f 25 9e a9 3e
       0.020036325 0.46991318 0.58212227 0.33128467
000170 67 c6 29 3f 2b 60 c7 be 50 27 26 bf 2d a3 f8 3e
       0.6631836 -0.38940558 -0.64903736 0.48561993
000180 c8 a9 f3 be cc 15 1f bf b5 08 ff be 67 b5 fd be
       -0.4759047 -0.62142634 -0.4981133 -0.49552462
000190 a3 07 17 bf 76 1f 24 be 96 e7 c1 be 79 66 e7 3e
       -0.5899603 -0.16027626 -0.37872 0.45195368
0001a0 eb 78 0a bf 14 04 5a 3e 6a 47 05 bf 0d d1 07 3f
       -0.54090756 0.21290618 -0.52062094 0.5305336
0001b0 ee 17 00 3f d8 66 a6 3e 04 22 42 3f 91 c9 59 3e
       0.50036514 0.3250034 0.75833154 0.21268298
0001c0 f5 36 fc be be cc bb be d9 18 11 3f 9b 11 92 be
       -0.4926068 -0.36679643 0.5667854 -0.28529057
0001d0 65 b7 4a 3f 2f 2b a6 3c a4 9a f0 3e e6 f2 14 3f
       0.7918609 0.020284263 0.4699298 0.58183134
0001e0 04 ae a9 3e 80 ca 29 3f 91 64 c9 be cd 25 26 bf
       0.33140576 0.66324615 -0.3933454 -0.6490143
0001f0 21 a4 f8 3e a7 14 f4 be e5 28 1f bf d3 00 ff be
       0.4856272 -0.47672006 -0.62171775 -0.49805316
000200 bf c3 fd be 62 ce 16 bf 9f 3e 24 be 28 d6 c1 be
       -0.49563405 -0.58908665 -0.16039513 -0.378587
000210 10 62 e7 3e 2c 74 0a bf 4c 1a 5a 3e 27 fe 04 bf
       0.45192003 -0.54083514 0.21299094 -0.51950306
000220 f8 b5 07 3f 46 07 00 3f af 8f a6 3e a0 3a 42 3f
       0.5301204 0.500111 0.32531497 0.75870705
000230 1f c1 59 3e 14 bc fc be 1c a8 be be bd 45 11 3f
       0.21265076 -0.49362242 -0.37237632 0.5674704
000240 0e 1f 92 be 49 b9 51 3f 27 48 a2 3c 26 97 f0 3e
       -0.28539318 0.8192335 0.019809796 0.46990317
000250 23 cf 14 3f 89 97 a9 3e 87 d3 29 3f 3a dc c8 be
       0.58128566 0.33123425 0.6633839 -0.3923052
000260 72 27 26 bf a0 a1 f8 3e 09 9d f3 be 53 18 1f bf
       -0.6490394 0.4856081 -0.47580746 -0.6214649
000270 83 05 ff be c6 b2 fd be 71 0c 17 bf 47 5f 24 be
       -0.49808893 -0.49550456 -0.5900336 -0.1605197
000280 88 d6 c1 be 9b 75 e7 3e 18 73 0a bf 42 25 5a 3e
       -0.37858987 0.45206913 -0.5408187 0.21303275
000290 d2 0b 05 bf 80 b4 07 3f c3 f8 ff 3e 04 62 a6 3e
       -0.5197116 0.53009796 0.49994478 0.32496655
0002a0 27 28 42 3f e8 b8 59 3e 28 1b fc be 7c 7e bc be
       0.7584252 0.21261942 -0.4923947 -0.3681525
0002b0 ee 0c 11 3f 58 1d 92 be 5d 1a 51 3f fd 15 a2 3c
       0.56660354 -0.28538013 0.8168085 0.019785875
0002c0 65 98 f0 3e f7 cf 14 3f 88 8f a9 3e 2c de 29 3f
       0.46991268 0.5812983 0.33117318 0.6635463
0002d0 42 cb c8 be f0 26 26 bf fa a1 f8 3e bf a5 f3 be
       -0.39217573 -0.64903164 0.48561078 -0.47587392
0002e0 a0 15 1f bf a1 06 ff be 5d b0 fd be 2c e7 16 bf
       -0.6214237 -0.49809745 -0.49548617 -0.5894649
0002f0 74 3c 24 be f6 d5 c1 be 32 6b e7 3e e9 73 0a bf
       -0.16038686 -0.37858552 0.4519897 -0.54083115
000300 e9 88 58 3e 37 1f 05 bf ed b7 07 3f 2b fe ff 3e
       0.21145977 -0.52000755 0.53015023 0.49998602
000310 db 65 a6 3e a5 33 42 3f 4c 30 59 3e e4 4d fc be
       0.32499585 0.75860053 0.2120983 -0.49278176
000320 3e 4b bb be cc 0f 11 3f 08 19 92 be fc ef 4e 3f
       -0.36580843 0.5666473 -0.28534722 0.8083494
000330 38 cc a3 3c be 9c f0 3e 70 f2 14 3f fb 9a a9 3e
       0.01999484 0.46994585 0.5818243 0.33126053
000340 e7 eb 29 3f 04 22 c8 be a6 29 26 bf de 9b f8 3e
       0.66375583 -0.39088452 -0.649073 0.48556417
000350 da 65 f3 be 6b 13 1f bf f2 05 ff be ce ad fd be
       -0.47538644 -0.62139004 -0.49809223 -0.49546665
000360 a3 0b 17 bf 1e 3f 24 be 39 d9 c1 be 7d 4c e7 3e
       -0.5900213 -0.16039702 -0.3786104 0.45175543
000370 9c 77 0a bf fc c5 59 3e be 41 05 bf 03 d9 07 3f
       -0.5408876 0.21266931 -0.5205344 0.5306551
000380 fe 16 00 3f 4a 81 a6 3e 88 48 42 3f 80 22 59 3e
       0.50035083 0.32520515 0.75891924 0.21204567
000390 16 05 fc be c9 6d ba be a7 23 11 3f 94 0b 92 be
       -0.4922263 -0.36411884 0.56695026 -0.28524458
0003a0 53 83 50 3f 17 16 a4 3c a6 9a f0 3e 33 ce 14 3f
       0.81450385 0.020030065 0.46992987 0.58127135
0003b0 67 9f a9 3e 9d ce 29 3f f5 ab c8 be a9 25 26 bf
       0.33129427 0.6633089 -0.39193693 -0.64901215
0003c0 e0 a2 f8 3e ae d1 f3 be a8 1e 1f bf 12 12 ff be
       0.48561764 -0.4762091 -0.6215615 -0.49818474
0003d0 73 b7 fd be a6 cf 16 bf 71 43 24 be 00 d7 c1 be
       -0.49554023 -0.58910596 -0.16041352 -0.37859344
0003e0 3a 50 e7 3e 07 79 0a bf ff 51 5a 3e ce bf 04 bf
       0.45178396 -0.54090923 0.21320342 -0.5185517
0003f0 81 b6 07 3f 97 ff ff 3e cb 6d a6 3e d4 28 42 3f
       0.53012854 0.49999687 0.3250564 0.7584355

conv.weight f4 [10, 1, 20]
000000 e6 b6 2c b6 da 5a e4 35 63 cc be 35 65 38 cd 35
       -2.5736458e-06 1.7013765e-06 1.4215587e-06 1.5290103e-06
000010 52 b3 c9 b5 28 ea 08 b3 cb 48 cd 35 82 82 e5 35
       -1.5027856e-06 -3.187793e-08 1.5294876e-06 1.7099812e-06
000020 5a bd 1e 34 c1 7e 2a 37 8e 8a 68 36 80 76 06 b9
       1.4783782e-07 1.0162302e-05 3.4651343e-06 -0.0001282338
000030 53 dd d0 b9 4b 8d 22 bb 8f 65 2d bb 4a 51 b0 bb
       -0.0003983775 -0.0024803455 -0.0026458239 -0.005380784
000040 93 aa 40 bb 9e 75 fa ba 8e ea ad ba 87 ab 31 bb
       -0.0029398545 -0.0019108539 -0.0013268755 -0.0027110295
000050 ba 88 34 34 70 ab 10 35 56 02 a6 33 e4 1b 9d 34
       1.6813547e-07 5.3893655e-07 7.730402e-08 2.9263822e-07
000060 21 4e fd 34 14 99 44 b2 6b 64 1f 34 f1 64 f1 b4
       4.7181769e-07 -1.14435075e-08 1.4844561e-07 -4.4963193e-07
000070 83 a8 e1 34 3e d0 a4 b4 a1 b2 11 b5 11 97 86 35
       4.2032124e-07 -3.0698897e-07 -5.427665e-07 1.0027744e-06
000080 6d 46 08 35 ee 3e 6b b5 51 d2 cd 35 2e 00 54 35
       5.076643e-07 -8.7635897e-07 1.53349e-06 7.8976416e-07
000090 40 5b 74 35 98 40 d7 34 48 05 08 35 16 ac de 34
       9.102987e-07 4.009387e-07 5.0671633e-07 4.147593e-07
0000a0 e8 26 e9 34 e5 d7 f8 b4 db a6 1f b5 4d 8b 03 b5
       4.342794e-07 -4.6350684e-07 -5.947492e-07 -4.900401e-07
0000b0 43 a9 ea b4 b3 a3 b6 34 d8 57 07 b5 5a 06 a1 b3
       -4.370905e-07 3.4019249e-07 -5.041925e-07 -7.498302e-08
0000c0 71 d5 0e b5 72 1f fb 34 a4 9c 05 35 91 6c 4f b5
       -5.320972e-07 4.6775273e-07 4.9774303e-07 -7.7271494e-07
0000d0 c4 c6 13 33 fa ff d8 35 00 dc a8 35 f0 76 14 b5
       3.440688e-08 1.6167753e-06 1.2581004e-06 -5.5307373e-07
0000e0 58 8e c5 35 ca b3 d4 35 61 3e 08 36 52 42 0d b6
       1.4719071e-06 1.5847556e-06 2.0301889e-06 -2.104924e-06
0000f0 4c 4a 89 b8 16 fe 82 3a 3c 97 52 3a 7a ef 05 39
       -6.546508e-05 0.0009993936 0.00080334 0.0001277308
000100 56 30 69 ba 20 44 2d 37 6b f0 14 ba 65 e8 3a ba
       -0.0008895447 1.0327465e-05 -0.0005681577 -0.00071299664
000110 fc df ab 39 1d 5a 03 ba b1 dc b0 b9 cc d1 b3 39
       0.00032782543 -0.00050106813 -0.00033733764 0.0003429785
000120 4c 0a 17 39 d2 c6 5a b9 b9 20 81 b9 ee 90 8e b9
       0.00014404318 -0.00020864166 -0.00024629178 -0.00027192332
000130 30 03 59 b9 7f 57 8f b9 70 9a 3c b9 35 13 48 b9
       -0.0002069592 -0.00027340275 -0.0001798661 -0.00019080642
000140 d9 df f9 35 6e 5a 09 36 b5 be 50 35 08 ec 99 34
       1.8617094e-06 2.0467228e-06 7.7763553e-07 2.8670206e-07
000150 c5 d6 94 b5 df f7 47 35 d1 c6 32 b5 89 9c b2 b4
       -1.1089365e-06 7.4493977e-07 -6.6599483e-07 -3.3268978e-07
000160 d0 f2 e6 b4 c0 6f 50 32 9c 26 ca b4 8c a7 6d 34
       -4.3017508e-07 1.21326025e-08 -3.7653524e-07 2.2133298e-07
000170 3e 40 74 34 7f 1b d1 34 e0 5a 23 34 6c 71 e1 b4
       2.2747642e-07 3.894929e-07 1.5213618e-07 -4.199204e-07
000180 29 3d 5f 34 ec 07 4d 35 b8 c3 f5 34 1c 45 0b 35
       2.0790743e-07 7.637998e-07 4.577721e-07 5.18821e-07
000190 28 5f 34 38 1b 1d 26 3a c4 f4 4e b9 6a 99 0c b9
       4.3003965e-05 0.00063367345 -0.00019736873 -0.00013408592
0001a0 82 95 5a b9 a7 34 11 3a 24 0b 07 38 10 62 d3 b7
       -0.00020845796 0.0005539157 3.2196884e-05 -2.5198824e-05
0001b0 b0 01 a4 38 78 a0 bc b8 1b d5 c5 38 83 0c ea b8
       7.820444e-05 -8.994428e-05 9.433386e-05 -0.0001116032
0001c0 f0 3e 49 38 74 1f 61 b8 9a 34 dc b8 e0 72 88 b6
       4.798075e-05 -5.3673473e-05 -0.00010500215 -4.066489e-06
0001d0 47 2a 06 38 4c fc be 38 ee fe 11 b9 a9 b1 9c b8
       3.1987463e-05 9.1069e-05 -0.00013923246 -7.4717515e-05
0001e0 b2 14 e6 34 21 c0 07 35 d1 81 95 34 9d a0 85 34
       4.2855896e-07 5.0571003e-07 2.7847867e-07 2.4890042e-07
0001f0 e6 3e f6 b4 a6 5e 49 34 1e c0 ae b4 d5 70 36 b4
       -4.5866835e-07 1.8754017e-07 -3.254981e-07 -1.6991119e-07
000200 b4 11 31 34 5e ff 18 34 45 24 4c b4 ec ab 15 b4
       1.649085e-07 1.4249005e-07 -1.9012175e-07 -1.3939251e-07
000210 22 f9 1f 34 f8 4e 38 b2 7e d7 5e b4 2c fb 13 b4
       1.4898663e-07 -1.0728165e-08 -2.0753757e-07 -1.3781818e-07
000220 2c 61 72 34 1f 28 d7 b4 89 3e ce 34 e0 4e 3b 33
       2.2573357e-07 -4.0076063e-07 3.841599e-07 4.3611067e-08
000230 84 be cd 34 76 c0 dc b4 d8 18 b9 35 00 2e 89 33
       3.8322844e-07 -4.1118227e-07 1.3790805e-06 6.387927e-08
000240 11 24 50 b6 fe e3 0f 37 98 e9 04 37 1c 0a 23 b8
       -3.1015409e-06 8.576548e-06 7.922201e-06 -3.8871643e-05
000250 66 9a a1 b8 56 14 15 37 22 89 98 35 df 03 0a b5
       -7.705837e-05 8.885827e-06 1.1364793e-06 -5.141464e-07
000260 6d 82 9b 35 2e 9c 57 b4 a4 d5 78 b5 db 16 50 b5
       1.1586359e-06 -2.0080253e-07 -9.269809e-07 -7.75193e-07
000270 c5 4f f9 b3 6c 4f 6d b5 f4 6b ef b4 f1 1d 8c b5
       -1.1609476e-07 -8.8404954e-07 -4.4595765e-07 -1.0439527e-06
000280 8c 4a 1a b6 d5 08 a8 b5 ce 39 be 35 32 4a d0 35
       -2.299118e-06 -1.2519546e-06 1.4172927e-06 1.5518801e-06
000290 d9 ec 01 36 e0 cf f8 35 3f 34 e1 35 69 ba 3b 35
       1.9360361e-06 1.853794e-06 1.6779012e-06 6.993419e-07
0002a0 30 81 db 34 e7 53 bb 35 2d ec 2b 35 1a b2 0c 36
       4.0885925e-07 1.3957005e-06 6.4046145e-07 2.0965294e-06
0002b0 b6 c6 d7 35 d1 ce cd 35 71 48 10 36 f8 97 7a b5
       1.6076581e-06 1.5333882e-06 2.1499839e-06 -9.33534e-07
0002c0 fd 4c ba 35 a0 bc 3a b5 be 74 9e 35 25 f8 86 b6
       1.3880486e-06 -6.9564885e-07 1.1805894e-06 -4.022399e-06
0002d0 80 95 85 39 1c 94 d1 38 9e 5a c3 b9 df 02 1e ba
       0.00025479123 9.993484e-05 -0.00037260813 -0.00060276495
0002e0 ae 4f 71 3a 0b a8 86 b9 89 d2 32 ba 93 02 46 3a
       0.00092052936 -0.00025683673 -0.00068215333 0.0007553484
0002f0 30 e7 8a b8 ee 7d 42 ba 2c c1 04 ba 66 13 19 ba
       -6.623415e-05 -0.00074192777 -0.0005064185 -0.00058393774
000300 ef 1f f5 b9 19 d5 2f b9 0f 7e fc b9 88 61 a9 b9
       -0.00046753834 -0.00016768686 -0.00048159107 -0.00032306858
000310 94 cd 8d b9 3b 53 cf b9 d2 2d 02 ba 62 c8 b5 b9
       -0.00027046783 -0.00039544128 -0.0004965934 -0.00034672307

conv.bias f4 [10]
000000 41 cc 4f be cf a5 9a bc 2b 49 01 be 22 89 29 3b
       -0.2029276 -0.018877892 -0.12625568 0.002586909
000010 f7 ba 65 be d2 04 b7 3a c5 72 15 be ef 95 a6 bd
       -0.22434603 0.0013963229 -0.14594562 -0.08134066
000020 2a e1 34 be f8 83 27 b9
       -0.17664018 -0.00015975523

conv_long.weight f4 [10, 1, 10]
000000 40 01 a5 36 15 74 cb b6 46 96 19 36 b2 ff 89 36
       4.9175287e-06 -6.063385e-06 2.2886247e-06 4.112685e-06
000010 41 54 60 b6 0e 6f 28 b5 8d fc 96 36 36 5e ce 36
       -3.3427643e-06 -6.2746483e-07 4.499749e-06 6.150246e-06
000020 08 7a f2 b4 97 50 d5 b5 e8 e6 05 b5 25 05 14 35
       -4.5164802e-07 -1.5893191e-06 -4.9882374e-07 5.514178e-07
000030 5f f2 c4 33 84 1a c8 b4 c7 53 24 b5 4a 24 63 34
       9.171048e-08 -3.7272196e-07 -6.1216673e-07 2.1154224e-07
000040 e1 c3 95 b5 ee 19 85 b4 36 cc a1 34 5b 08 8d 34
       -1.1158373e-06 -2.4792047e-07 3.013717e-07 2.6269376e-07
000050 69 bc b3 b6 bc d8 3a 36 c9 21 78 34 00 31 81 b5
       -5.3565495e-06 2.7842316e-06 2.3109091e-07 -9.62551e-07
000060 9a 3f f2 35 62 f5 d4 34 c9 7e 8f b5 59 62 b5 b5
       1.8048916e-06 3.9666617e-07 -1.069123e-06 -1.3514174e-06
000070 26 54 d3 34 5b c4 86 ba 72 89 8d b9 60 db d7 b7
       3.936304e-07 -0.0010281907 -0.0002699602 -2.5732152e-05
000080 3a cd 0a b6 5b b7 ac b6 50 c6 52 ba 1a 26 e3 bb
       -2.068306e-06 -5.147345e-06 -0.0008040415 -0.0069320323
000090 a9 5b a8 bc 34 dc 38 bd 82 8f 04 bd c2 04 9a bc
       -0.02055152 -0.045131877 -0.032363422 -0.018801097
0000a0 eb d2 b1 33 91 ee c7 b4 b0 63 96 b4 18 ce 87 b4
       8.2805705e-08 -3.7240218e-07 -2.801221e-07 -2.5295662e-07
0000b0 f0 a5 be 32 f4 3a 63 b3 b4 6f 2e b4 8a d6 2e b5
       2.219437e-08 -5.2906174e-08 -1.624565e-07 -6.5132247e-07
0000c0 7a b3 c3 34 04 4b a0 34 5a 8e 11 ba d4 17 e6 b8
       3.6452167e-07 2.9856903e-07 -0.0005552523 -0.00010971693
0000d0 cc 52 39 b9 fb 20 dc b9 c4 56 a3 bb c2 39 6a bc
       -0.00017673819 -0.00041986242 -0.0049847085 -0.014295997
0000e0 24 b9 f4 bc e3 41 d7 bc 98 cc 4d bd b1 c3 4f bd
       -0.029873438 -0.026276534 -0.050243944 -0.050723735
0000f0 f2 d6 aa 38 69 5e 39 b8 a4 d4 41 b8 a6 e4 00 b8
       8.1462684e-05 -4.4195363e-05 -4.6212823e-05 -3.0730524e-05
000100 14 49 d9 36 1b a0 36 b8 28 0c 51 38 8c c1 3a b8
       6.4756114e-06 -4.354129e-05 4.9840804e-05 -4.452611e-05
000110 4e c6 98 b8 a7 a9 99 b8 57 7d 0d b5 4c 29 2c 35
       -7.284862e-05 -7.327209e-05 -5.2708987e-07 6.413509e-07
000120 b5 7f 2b b5 15 22 a3 34 28 26 49 35 6a 6c 1f b5
       -6.38883e-07 3.0385914e-07 7.493386e-07 -5.938988e-07
000130 7a 3c d2 b4 3b 33 34 b4 ac 9f fc b3 fd e6 94 34
       -3.915955e-07 -1.6782444e-07 -1.17637086e-07 2.7735214e-07
000140 63 89 88 b5 ab 29 84 b5 1b 4f fa b5 f3 12 07 b5
       -1.0172774e-06 -9.846893e-07 -1.8649474e-06 -5.0318994e-07
000150 fd 92 60 37 94 ed 67 b9 ff 51 38 bb 91 73 6b bb
       1.3385664e-05 -0.00022118381 -0.0028125045 -0.0035927037
000160 4d 1b c6 b9 cd 95 47 37 b4 c8 31 35 35 f2 30 35
       -0.00037785844 1.18962025e-05 6.62297e-07 6.5917567e-07
000170 e1 4b 7d 35 ee a2 99 35 ed 13 a8 b3 5f 90 8d b4
       9.4360263e-07 1.1446807e-06 -7.826734e-08 -2.636834e-07
000180 b8 ee c9 34 eb 46 4b b5 91 c9 18 b5 16 a9 0d b6
       3.7612858e-07 -7.572659e-07 -5.691773e-07 -2.1109058e-06

conv_long.bias f4 [10]
000000 04 a1 06 bc f2 96 7d bd 5d 33 af be 95 22 a3 be
       -0.0082171 -0.06191153 -0.34218875 -0.31862321
000010 b9 e6 95 37 4a bc 1a be b9 3f d7 39 24 ee 72 37
       1.7869623e-05 -0.15110889 0.00041055473 1.44797705e-05
000020 e6 29 aa bd a2 aa 37 bd
       -0.08308773 -0.044840463

conv1.weight f4 [30, 30]
000000 d7 59 9f ba 50 b7 73 ba 0e 9a 5e bb 5d 9d e5 ba
       -0.0012157512 -0.000929703 -0.0033966335 -0.0017518211
000010 fa 91 a1 bd 65 0a 58 34 78 0a 8c 34 4a d9 bf 36
       -0.07889171 2.0120349e-07 2.608465e-07 5.7175394e-06
000020 84 ad 23 b6 23 5c 0b 3b 93 3b 8d b4 a7 fd 20 b9
       -2.4389892e-06 0.0021264635 -2.6306643e-07 -0.00015353282
000030 7f f6 2a b5 14 e6 c2 37 ac 8c 4d 34 5b 5e ff b7
       -6.3688634e-07 2.323374e-05 1.9143289e-07 -3.0442307e-05
000040 66 a4 fc bc 80 c3 fa bb a2 20 62 3c b1 ce be bb
       -0.03084011 -0.0076527 0.013801726 -0.0058229794
000050 b8 b5 bd 31 0c 1d a4 bb e8 aa 5c b2 0a b7 e9 ba
       5.521283e-09 -0.0050083455 -1.2844545e-08 -0.0017831039
000060 bf 76 5a 37 6a 7f 94 ba 59 be ee 3a 4e 98 82 ba
       1.302146e-05 -0.0011329476 0.0018214687 -0.0009963603
000070 1a c4 04 b8 a1 ea 0e b5 39 bd 07 b4 23 84 43 b3
       -3.1653886e-05 -5.324055e-07 -1.2641694e-07 -4.5522153e-08
000080 c6 51 a0 b3 69 f3 25 33 7d c8 15 b3 a4 4b 90 b2
       -7.465455e-08 3.8638436e-08 -3.487411e-08 -1.6798204e-08
000090 e0 11 8d 32 76 37 e9 32 d0 73 e9 b2 90 f6 73 b1
       1.6422689e-08 2.714999e-08 -2.7177435e-08 -3.5501309e-09
0000a0 41 49 ab b3 58 59 14 b3 54 29 8c b3 99 04 ac 33
       -7.976133e-08 -3.4540193e-08 -6.5267756e-08 8.0102105e-08
0000b0 fc 90 38 b3 bf 70 2d 37 90 0b 16 34 a5 19 9a b3
       -4.29727e-08 1.0337854e-05 1.3974045e-07 -7.1758485e-08
0000c0 e2 a1 bc 33 38 b6 14 b3 78 71 a2 33 9e a4 e1 35
       8.7838785e-08 -3.4624662e-08 7.564353e-08 1.6811716e-06
0000d0 56 8d 65 33 6c 7c a0 31 98 75 7b b2 18 b3 05 32
       5.344676e-08 4.670758e-09 -1.4636861e-08 7.78234e-09
0000e0 cd 37 61 b3 fc 5b 16 b2 a8 bd e7 33 70 fc 52 31
       -5.2437645e-08 -8.752064e-09 1.0791274e-07 3.0702516e-09
0000f0 45 38 c1 b3 52 14 96 b3 50 c9 35 b2 09 bc 8c b3
       -8.997498e-08 -6.9886156e-08 -1.058136e-08 -6.5534614e-08
000100 20 80 37 33 a0 e8 a0 33 ca b8 2f b2 30 9f 6c 32
       4.2724537e-08 7.492895e-08 -1.0228357e-08 1.3773203e-08
000110 f4 87 a0 33 fe 3f 1f 33 29 af d2 b3 1c a6 37 32
       7.47531e-08 3.7078273e-08 -9.8107485e-08 1.0689771e-08
000120 86 00 b2 b3 db e4 f6 b3 40 a9 22 32 a8 5f 19 37
       -8.288866e-08 -1.1496896e-07 9.468124e-09 9.141782e-06
000130 c5 1a 11 34 0a 18 43 b4 a6 c1 87 b3 bc d2 42 33
       1.3513916e-07 -1.8169536e-07 -6.321652e-08 4.5360807e-08
000140 41 ba 1d 33 66 56 aa b5 fc 74 d6 31 56 a6 07 33
       3.6723808e-08 -1.2691132e-06 6.2415193e-09 3.158342e-08
000150 d4 ce d6 b3 6a fa a6 b2 c4 71 7d b3 f0 a5 3c 31
       -1.00027734e-07 -1.9438819e-08 -5.9009622e-08 2.7451925e-09
000160 80 85 56 34 d6 f4 9e 32 f3 f5 e5 b5 a1 fc 8f 33
       1.997887e-07 1.850496e-08 -1.713341e-06 6.704909e-08
000170 87 62 b0 33 61 2b 8d 34 fd 25 83 b6 18 8a f3 b2
       8.213561e-08 2.629486e-07 -3.9085267e-06 -2.8351721e-08
000180 05 17 2b b3 ae 45 df 33 17 4d 5e 33 64 80 3d b5
       -3.9834976e-08 1.03969214e-07 5.1758516e-08 -7.059482e-07
000190 c9 de fe 33 20 1f 27 33 c4 8c 12 b4 08 82 d5 b4
       1.1868321e-07 3.8911026e-08 -1.364852e-07 -3.9768952e-07
0001a0 e9 ab 7e 33 98 41 91 b3 3c 6f 25 34 7d 6e 2a 34
       5.9295335e-08 -6.76402e-08 1.540729e-07 1.5872679e-07
0001b0 12 28 8c 34 5e 28 9e 34 bc 6e 91 33 59 5f 8f b8
       2.6106187e-07 2.9459164e-07 6.772231e-08 -6.836531e-05
0001c0 42 0f bd 33 e2 27 b2 b2 68 d4 04 35 50 0e bb b3
       8.803774e-08 -2.0740064e-08 4.9482924e-07 -8.7104695e-08
0001d0 ca 78 b3 37 0a 58 38 33 4a cd 15 b5 05 21 83 b4
       2.139471e-05 4.292091e-08 -5.580556e-07 -2.4424676e-07
0001e0 9c 3d 3b 34 95 99 69 b2 02 11 92 b3 20 38 ae b3
       1.7438146e-07 -1.35973055e-08 -6.8017485e-08 -8.1127155e-08
0001f0 21 56 e2 33 e4 8c 12 34 ae 23 f0 33 78 91 87 b3
       1.0539612e-07 1.3648565e-07 1.1182361e-07 -6.312888e-08
000200 1f 75 84 34 ac 5e 54 34 8d 79 5a 34 7f 14 d8 32
       2.4672133e-07 1.977848e-07 2.0347052e-07 2.515503e-08
000210 61 11 84 34 1f af 6a 34 cd b4 85 b2 6d 06 9b b3
       2.459956e-07 2.1856657e-07 -1.5565456e-08 -7.218919e-08
000220 24 09 49 34 47 d0 63 35 a0 3a 09 b5 66 6b 61 35
       1.8722909e-07 8.4867173e-07 -5.112179e-07 8.3975317e-07
000230 bc 70 98 b4 51 18 f1 b3 af 25 2a 33 d1 92 72 33
       -2.839423e-07 -1.122686e-07 3.9615482e-08 5.6478545e-08
000240 e1 5a 19 b5 7c cf c1 b3 5e d9 e3 33 92 74 00 b5
       -5.712919e-07 -9.025004e-08 1.061005e-07 -4.785335e-07
000250 d9 45 50 35 ce f7 8a 34 ea 2c 08 34 b9 95 b1 b2
       7.758768e-07 2.5884805e-07 1.2682327e-07 -2.0673598e-08
000260 1a 4b b4 b2 0a 10 92 b3 50 40 bf 33 b6 38 62 b4
       -2.098891e-08 -6.801572e-08 8.905829e-08 -2.1068522e-07
000270 75 d4 ea b3 6c 0c 9f 32 ac 39 3e 32 dd 8f 5b b4
       -1.093512e-07 1.8515685e-08 1.1072569e-08 -2.0448302e-07
000280 8a c6 70 b4 22 0a d0 31 ea a4 5e 34 4e 92 86 34
       -2.242397e-07 6.0547487e-09 2.0735357e-07 2.5065896e-07
000290 0b 60 22 33 a4 3e 12 b3 78 c7 29 34 81 b8 5f 35
       3.7805915e-08 -3.4050245e-08 1.5811918e-07 8.334246e-07
0002a0 c8 83 cf b4 7e 41 ab 35 b0 57 a9 33 bd f4 5a b4
       -3.8652638e-07 1.2759554e-06 7.885626e-08 -2.0391867e-07
0002b0 fc cd c6 33 89 46 78 33 65 76 1a b5 4b c6 8e b4
       9.257562e-08 5.780615e-08 -5.754176e-07 -2.6593838e-07
0002c0 d5 a1 7c 33 c9 7b 00 b5 62 84 2a 35 0b 1b 92 34
       5.8820508e-08 -4.7863847e-07 6.352258e-07 2.7214296e-07
0002d0 32 eb b9 3b 86 ae b1 36 d8 00 ad ba 67 8b ab ba
       0.0056737894 5.2953283e-06 -0.0013199104 -0.001308781
0002e0 da e8 82 bd 95 7e 4f b4 8d 26 2a 34 98 9a 09 b6
       -0.06392069 -1.9324428e-07 1.5846508e-07 -2.0504576e-06
0002f0 0c 5d d0 34 c8 7c 4c 38 0c 9c 54 32 44 fb c4 b4
       3.881072e-07 4.87536e-05 1.2375505e-08 -3.6690665e-07
000300 d3 c0 df 34 52 27 74 33 95 83 1c b3 8f ca 5e 35
       4.1677285e-07 5.684644e-08 -3.6441254e-08 8.2996206e-07
000310 16 bf 26 bc e8 e0 d5 37 77 a9 8f ba f5 fb ac b6
       -0.010177394 2.5496309e-05 -0.0010960539 -5.155331e-06
000320 7d 4c b2 34 a4 af ae bd 77 30 f4 33 90 ec 33 ba
       3.3210736e-07 -0.085295945 1.1370951e-07 -0.00068635587
000330 45 2a 59 b5 30 93 89 b8 46 04 79 bd 0c 04 6d 37
       -8.090031e-07 -6.560085e-05 -0.06079509 1.4127243e-05
000340 6f 22 b8 35 5a 23 f0 34 e0 0e 51 37 3e 71 0f 34
       1.371909e-06 4.4729205e-07 1.2460834e-05 1.335911e-07
000350 d5 22 20 b3 ba 71 0e b6 35 73 95 b9 42 80 a1 b4
       -3.7284583e-08 -2.1225846e-06 -0.0002850533 -3.0081907e-07
000360 51 a2 d2 34 66 a9 43 b4 18 67 73 b7 3c 1e af 3b
       3.923365e-07 -1.8222417e-07 -1.4507932e-05 0.0053441804
000370 18 fd 9a 34 46 a2 90 b3 2c 3f 6f 35 f8 f3 8b ba
       2.8868885e-07 -6.73504e-08 8.9126365e-07 -0.0010677567
000380 00 bb 6b af 58 76 31 b3 6a 08 83 bb f3 db 86 bc
       -2.1439561e-10 -4.1318657e-08 -0.003998806 -0.016462302
000390 72 c0 15 3b 7e 74 9b bc 55 9e f7 33 e1 08 16 bc
       0.0022850302 -0.018976446 1.1530634e-07 -0.00915739
0003a0 76 7f 56 34 bf a4 1a 35 48 77 39 b9 e6 e4 0e 33
       1.9976673e-07 5.760921e-07 -0.0001768741 3.3270133e-08
0003b0 0d 5f 3f bb 66 19 17 36 83 09 1f bb 42 20 99 b5
       -0.0029200942 2.2515537e-06 -0.0024267144 -1.1408777e-06
0003c0 77 48 54 b9 8c 5b 3d 34 77 05 a2 b3 cc 48 b4 b5
       -0.00020244891 1.7635301e-07 -7.544707e-08 -1.3432232e-06
0003d0 d6 e0 e1 b7 5c a6 ee 34 6e d8 ae 34 4d 9c 28 b4
       -2.6926788e-05 4.4451997e-07 3.25675e-07 -1.5703081e-07
0003e0 64 14 b8 36 08 e1 c0 3b e7 b0 67 34 e8 c8 51 b4
       5.486001e-06 0.005886201 2.1577908e-07 -1.9537731e-07
0003f0 ce 3f a6 35 ad e2 d9 b9 a2 ca a7 33 15 3d a2 b3
       1.2386533e-06 -0.00041558352 7.813402e-08 -7.5548236e-08

conv1.bias f4 [30]
000000 44 eb e2 bd a2 e9 bc bd bf 2c 77 bd 2e 9f a2 bd
       -0.110800296 -0.092242494 -0.060345408 -0.07940517
000010 f6 dc 5e bd 63 1f 63 bf f8 6c 21 3a c7 fa 56 bc
       -0.054409944 -0.8871977 0.00061579 -0.013121313
000020 76 4d 7e bd 31 7a dd be f5 ac b4 37 85 49 dc bd
       -0.06208559 -0.43257287 2.1538212e-05 -0.1075621
000030 fe b6 6a bc 26 81 d6 bd 0a 30 53 bb 13 00 0b bd
       -0.014325855 -0.10473852 -0.0032224678 -0.033935618
000040 d3 08 82 be 91 50 83 be fe 49 32 be a4 9f 30 be
       -0.25397357 -0.25647405 -0.17411038 -0.17248398
000050 73 cb 1d 39 4b 5f 91 bd 1f 91 6b b8 8e ce 34 be
       0.00015048478 -0.07098254 -5.616352e-05 -0.1765692
000060 29 1e be bd 3d 68 3c be d9 f4 da bd 62 5d 29 be
       -0.09283096 -0.18399139 -0.10691232 -0.16539529
000070 47 61 d2 bd 6c 22 88 bc
       -0.102724604 -0.016617976

conv2.weight f4 [30, 10]
000000 bd 9e 10 34 9f 4b cb bd ca 04 bc ba 7d 96 5a b6
       1.3468794e-07 -0.09926533 -0.0014344689 -3.2572127e-06
000010 b8 73 bc bc ea 11 ad bd f4 08 6a b2 df df 22 3d
       -0.023004398 -0.084506825 -1.3622628e-08 0.03976428
000020 84 57 bd 3c e8 2d 0c b3 f4 b0 b1 32 c0 20 95 b4
       0.02311302 -3.263804e-08 2.0685981e-08 -2.7777241e-07
000030 6e b6 fe 33 3e 0c a0 b3 c0 06 a1 b2 71 0a 85 34
       1.18609805e-07 -7.4528074e-08 -1.8745936e-08 2.4780778e-07
000040 48 7e bf 32 52 ed 31 bc 08 56 00 3d 9a f2 e2 b2
       2.2292753e-08 -0.010859804 0.031332046 -2.6420185e-08
000050 59 dd 79 33 56 d4 fe bd d1 c6 58 bc 36 a1 e6 35
       5.8176145e-08 -0.124428436 -0.013230995 1.7183254e-06
000060 a8 c3 ad bd 22 c4 6f b4 bf 37 52 b4 a4 0d fe 3d
       -0.08484584 -2.2329962e-07 -1.9578054e-07 0.124049455
000070 4a 37 9f bd 17 c5 05 b4 c6 80 28 b3 db f4 e3 bd
       -0.077742174 -1.2458291e-07 -3.9232667e-08 -0.11130687
000080 e1 8d 4b bb d7 33 9c 37 2e e6 a8 bd 38 7a 8e b4
       -0.0031059908 1.8620789e-05 -0.08247028 -2.6538487e-07
000090 6c c4 f8 33 74 3b 08 3e ad db 42 bc d3 e0 66 b3
       1.1584129e-07 0.1330393 -0.011893195 -5.3755524e-08
0000a0 1c e5 9e b4 6b 57 30 bd 1d e3 32 b9 b1 1a 1f b6
       -2.9596492e-07 -0.04305212 -0.00017060009 -2.3708383e-06
0000b0 10 f0 82 bd 59 45 a8 bd 53 f8 e1 34 be ff 29 bc
       -0.063934445 -0.08216352 4.2090196e-07 -0.010375915
0000c0 b5 f5 d9 bd 32 d7 3d 33 f5 6d 16 33 92 cb 1b 33
       -0.10642568 4.420071e-08 3.5024602e-08 3.6273896e-08
0000d0 cb 9b c1 33 ac 96 95 b3 f0 2c 05 32 bc 56 39 32
       9.0156014e-08 -6.96576e-08 7.7518365e-09 1.0788138e-08
0000e0 75 ae 85 bf e5 f1 7e 32 aa b4 11 39 ae 38 c5 32
       -1.0443865 1.4839746e-08 0.0001389558 2.2959593e-08
0000f0 f0 05 c0 32 dc 6b 84 32 22 d3 c1 32 a4 45 d7 34
       2.2354442e-08 1.5415871e-08 2.256417e-08 4.009754e-07
000100 ac 56 aa 36 b9 91 03 b3 27 42 07 b8 8d 18 61 b3
       5.0764847e-06 -3.063335e-08 -3.2248117e-05 -5.2409224e-08
000110 50 07 0f 37 e6 d9 f7 37 f3 5a 97 b3 15 f3 64 b6
       8.525167e-06 2.9546161e-05 -7.048029e-08 -3.411614e-06
000120 ce d5 b8 34 68 6e 60 34 54 75 44 b2 76 72 8b 32
       3.4428234e-07 2.0901791e-07 -1.1435379e-08 1.623378e-08
000130 28 36 07 b2 39 49 60 b7 d1 32 45 bb e2 3b b8 33
       -7.870348e-09 -1.3368489e-05 -0.0030090103 8.57906e-08
000140 96 97 88 32 2c 07 a6 b3 aa 03 cc b2 e9 87 e2 34
       1.5901417e-08 -7.731282e-08 -2.3750392e-08 4.2194668e-07
000150 95 c8 9a bb 3c e3 d6 32 f4 87 96 b2 24 3d 7c b3
       -0.0047236183 2.5016213e-08 -1.7524123e-08 -5.872893e-08
000160 b4 fd 1a 3c 71 61 9c 33 69 94 03 37 89 aa 08 be
       0.009459902 7.2820406e-08 7.842763e-06 -0.13346304
000170 1d 6a 75 bb a2 1d 59 b5 07 b6 4e bb 87 89 24 3d
       -0.0037447282 -8.088192e-07 -0.0031541602 0.04017022
000180 c9 6e 1c b4 32 56 35 be e3 88 90 3e c1 c5 39 33
       -1.4568936e-07 -0.17708662 0.28229436 4.3253525e-08
000190 d6 80 cb b2 63 24 a9 32 aa b1 23 b3 a6 df 9e b3
       -2.3690898e-08 1.9690736e-08 -3.811298e-08 -7.39813e-08
0001a0 9a a5 25 34 8e 60 b9 b3 15 27 9d 33 20 54 d8 b1
       1.5427068e-07 -8.632297e-08 7.317991e-08 -6.2959913e-09
0001b0 68 33 2a b4 fe f1 33 32 10 2a 62 b3 32 8e bf b4
       -1.5851185e-07 1.0474194e-08 -5.265798e-08 -3.5679983e-07
0001c0 4a b2 13 34 3c 72 e9 b3 a8 08 09 33 7d 44 e4 b5
       1.3755303e-07 -1.0870687e-07 3.190567e-08 -1.7007256e-06
0001d0 74 b6 ba b2 29 7e a4 bd da fe c1 3d d3 dc 96 b2
       -2.173622e-08 -0.08031876 0.09472437 -1.7562718e-08
0001e0 b1 6e d8 b2 5f c8 bf 33 e2 20 21 b3 c8 76 4a 34
       -2.5196046e-08 8.930578e-08 -3.751564e-08 1.8855928e-07
0001f0 c1 44 ca bb f7 7a 81 33 6d 5a bd b3 da 6e c4 b2
       -0.006172747 6.029398e-08 -8.817447e-08 -2.2867813e-08
000200 15 9d d8 3b 28 6d 08 31 ce 2d 05 b3 dc 1e c6 31
       0.0066105225 1.9852653e-09 -3.1008135e-08 5.7660667e-09
000210 0a 45 74 b2 85 06 16 b5 33 5c 11 bb f4 a2 41 b3
       -1.4218367e-08 -5.588884e-07 -0.00221802 -4.508452e-08
000220 9b 73 0d 34 b0 d9 22 b1 bb 44 6d 3b c2 d8 9a b3
       1.3173705e-07 -2.3697844e-09 0.0036204297 -7.210612e-08
000230 fa c6 29 b4 32 7d 11 b3 66 f3 bd b2 b2 7a 30 b2
       -1.5811739e-07 -3.3874308e-08 -2.211318e-08 -1.0272446e-08
000240 c0 9e cf af 53 a8 40 34 c4 f8 a2 33 20 1a 39 b4
       -3.776588e-10 1.794263e-07 7.588963e-08 -1.7238972e-07
000250 19 0d e9 b4 18 c7 4f 32 d5 bc 62 b6 e3 7a 24 33
       -4.3409162e-07 1.20942545e-08 -3.378654e-06 3.829599e-08
000260 7d 36 f3 32 64 bf 31 b2 cc 87 d4 b1 63 3d 33 be
       2.8313702e-08 -1.0346273e-08 -6.1854504e-09 -0.17503886
000270 fe ed 10 b3 50 03 70 be 62 1b ad bb 8f 45 bf 3b
       -3.3744065e-08 -0.23438764 -0.0052828053 0.0058371495
000280 97 1f 82 b3 8d 9d 97 37 44 4d 10 b5 65 eb 8f 37
       -6.059343e-08 1.8073968e-05 -5.3756617e-07 1.7156543e-05
000290 4e 47 54 bd 84 b3 0a b2 69 93 25 35 37 76 a3 38
       -0.051825814 -8.073474e-09 6.16818e-07 7.794465e-05
0002a0 0f 9c d3 3d 28 a1 f0 33 db 1a 99 b2 48 b7 e8 31
       0.103325 1.1205185e-07 -1.7823757e-08 6.7729253e-09
0002b0 70 e4 df b1 be ab ab 34 dc 3c 80 bb 34 92 83 b3
       -6.5161245e-09 3.197619e-07 -0.003913505 -6.126757e-08
0002c0 26 e2 32 34 71 24 b0 32 a8 f2 57 3b 2d d8 8e b3
       1.6659814e-07 2.0505668e-08 0.003295103 -6.6517124e-08
0002d0 3f 57 a7 33 af 95 86 be 8b e2 99 bc 8a 1f cf b8
       7.7924135e-08 -0.26286075 -0.018784782 -9.876404e-05
0002e0 ba b7 31 bd b7 1e b4 bc 60 ec 8e 34 78 64 ee 3d
       -0.043388106 -0.021987302 2.6621547e-07 0.11640257
0002f0 f3 64 38 3e 84 77 c0 33 db ed d3 b3 16 df 94 b3
       0.18007259 8.9624365e-08 -9.868719e-08 -6.932366e-08
000300 32 8e 38 32 a8 74 43 b5 4d c4 6a bc 64 3e 8d b2
       1.0742541e-08 -7.281292e-07 -0.014329028 -1.6442932e-08
000310 66 2d 48 b3 f5 77 9a b3 30 45 4e 3c 98 db b6 b3
       -4.660742e-08 -7.193004e-08 0.012589738 -8.514979e-08
000320 a4 2a 62 32 22 ff 86 b3 0a e1 ff 32 40 ce ae 32
       1.3164627e-08 -6.2862696e-08 2.9788243e-08 2.0350058e-08
000330 c6 88 f8 33 ab 10 c9 33 fa c4 ef ba 39 53 9e b3
       1.1573279e-07 9.362824e-08 -0.0018292957 -7.3725865e-08
000340 e1 f5 02 b4 e0 4c 31 33 3c 78 2e b5 28 fa 7a bd
       -1.2196644e-07 4.128094e-08 -6.4995015e-07 -0.061273724
000350 eb b4 80 ba a9 03 e8 b4 5a 8f a6 33 6a fb c5 bd
       -0.0009819543 -4.321603e-07 7.756053e-08 -0.09667094
000360 d4 fd cd b2 32 e9 50 bd 2f 41 08 be 02 15 b6 3a
       -2.3980569e-08 -0.051003642 -0.13306116 0.0013891759
000370 20 f8 a7 b2 f2 96 7d b2 c8 3e 26 33 c5 a2 4b b5
       -1.9554193e-08 -1.4760859e-08 3.8706986e-08 -7.5860254e-07
000380 a9 fa 26 bb 00 c2 5d 2f f8 de c9 b3 46 d9 ad 32
       -0.0025478995 2.0168756e-10 -9.40035e-08 2.0238655e-08
000390 8c a8 3e 3b 1a b2 9e b3 54 95 e5 32 3e e1 f7 b4
       0.002909216 -7.389845e-08 2.6727015e-08 -4.617122e-07
0003a0 6d 07 56 34 63 6f 25 b4 bf 22 40 33 ed a3 13 35
       1.9933005e-07 -1.5407345e-07 4.4735085e-08 5.500031e-07
0003b0 bc 58 a8 b3 ef 60 c7 bc f3 72 22 3d 9c 03 05 b2
       -7.83925e-08 -0.024338214 0.039660405 -7.74244e-09
0003c0 33 58 4b b3 e0 b2 33 30 d8 2b 9e b3 53 7b e2 33
       -4.7344837e-08 6.537402e-10 -7.3654235e-08 1.05463776e-07
0003d0 5c 18 be 35 40 11 77 b1 87 aa 33 b4 82 bb cb 32
       1.4163193e-06 -3.5953036e-09 -1.6732712e-07 2.3717579e-08
0003e0 ab 3d 9d b5 3b 73 6e b3 43 ba b9 b4 3b ab 53 bd
       -1.1715359e-06 -5.5518495e-08 -3.4594458e-07 -0.05167697
0003f0 9f 10 02 37 ec a4 86 34 a8 cd d3 34 19 ac 83 bd
       7.752474e-06 2.5079441e-07 3.9451447e-07 -0.064293094

conv2.bias f4 [10]
000000 c4 cc 31 bd 16 7f 98 be fe 52 64 bd f3 dc 43 bd
       -0.04340817 -0.2978446 -0.05574321 -0.047818135
000010 3b 25 a5 be cd c8 6d bd d4 31 95 be 07 17 f5 be
       -0.32254967 -0.058052827 -0.29139578 -0.4786913
000020 a7 55 d1 ba aa 3b 77 bc
       -0.0015970961 -0.015089909

rnn.weight_ih_l0 f4 [30, 1]
000000 3b 27 1b 3e e4 9c e1 3d 8a e0 af bd 7a 7d 01 3e
       0.15151684 0.11016253 -0.08587749 0.12645522
000010 55 20 e5 3e 49 8b b6 3d 9b 91 32 3d 40 3b 76 3e
       0.4475123 0.08913285 0.04359589 0.2404604
000020 bf a3 6e bd c0 ca 1d be 8b fd 32 bd 1b e3 1d bd
       -0.05826163 -0.15409374 -0.04369883 -0.038546663
000030 5c 57 69 be 84 19 29 3c 28 35 6c bb 4e 8a b7 3d
       -0.22787231 0.010321025 -0.0036042426 0.089619264
000040 01 3e 8c be bc 00 fb be 7e b6 73 bf fc a7 4a bc
       -0.27391055 -0.49023998 -0.95200336 -0.012369152
000050 42 e7 12 3d e8 34 b7 be d4 9c ea bd 56 dc 95 bc
       0.035865076 -0.35782552 -0.11455694 -0.01829354
000060 5c cd 84 be 4a ef 9e be 69 ec 44 bf 9e 50 00 bf
       -0.25937927 -0.31041938 -0.76923233 -0.5012301
000070 a4 c2 f1 3e 08 92 27 3e
       0.47218812 0.163643
