colagnn-master-Run-Epi/src/save/cola_gnn_epi.us_states_covid_mov_14.w-20.h-8.RNN.lam-0.1.epo-500.pt (torch, 61046 bytes, 32 tensors)

V f4 [15]
0	0xbd4ce62a	-0.05002419
1	0x3eacecdf	0.33774468
2	0x3ea2ccbd	0.31796828
3	0x3de56c2a	0.11202271
4	0xbe3811b5	-0.17975505
5	0x3daae48b	0.08344372
6	0x3ec80900	0.39069366
7	0xbf6f4b5a	-0.9347435
8	0x33603eda	5.2211227e-08
9	0x3d57e35d	0.052707065
10	0xb125fba6	-2.4153706e-09
11	0xbebc4f77	-0.36779377
12	0xbf9cfecf	-1.2265261
13	0x31af7e69	5.1075415e-09
14	0x3eaced0d	0.33774605

W1 f4 [15, 30]
0	0xbb42af99	-0.0029706715
1	0xbbe98544	-0.007126482
2	0xbbe7b793	-0.0070714443
3	0x3bea627e	0.0071528545
4	0x3be72eae	0.007055125
5	0x3be9fd88	0.007140819
6	0x3bea0204	0.0071413536
7	0xb9fb13e8	-0.00047889282
8	0xbbea282c	-0.007145902
9	0xbbea211f	-0.0071450616
10	0x3bea8242	0.007156641
11	0xbbea5411	-0.007151135
12	0xbba8a8bf	-0.005147069
13	0x3bea38e1	0.007147894
14	0x3bdcc356	0.006737153
15	0xbc39e7a2	-0.0113467295
16	0xbbe9ea0c	-0.0071384963
17	0xbbea0b5c	-0.0071424674
18	0xbb3d29c5	-0.0028864008
19	0xbbe7ee15	-0.007077942
20	0xbc9b34e8	-0.018946126
21	0xbba71260	-0.005098626
22	0xbbea08fe	-0.0071421852
23	0x3bea6c92	0.007154056
24	0xbbe9b244	-0.0071318466
25	0xbbe7127b	-0.0070517636
26	0x3be990d8	0.0071278624
27	0x3be5c2aa	0.007011731
28	0x3bea6980	0.00715369
29	0x3beaab9c	0.0071615707
30	0xbb622235	-0.0034505252
31	0x3cb5abac	0.022176586
32	0x3caf2ed7	0.02138464
33	0xbcb5aaf9	-0.022176253
34	0xbcb5806a	-0.02215596
35	0xbcb58c18	-0.022161528
36	0xbcb58174	-0.022156455
37	0x3c47b6d6	0.012189588
38	0x3cb5c38b	0.022187969
39	0x3cb5c9bb	0.02219092
40	0xbcb5aa8a	-0.022176046
41	0x3cb5cfd6	0.02219383
42	0x3c9e6155	0.01933352
43	0xbcb5cda0	-0.022192776
44	0xbcb1e40e	-0.02171519
45	0x3ba29e41	0.004962713
46	0x3cb5aff7	0.022178633
47	0x3cb5ad6d	0.022177422
48	0xbbec0c80	-0.0072036386
49	0x3cb57923	0.022152489
50	0xbd0893ab	-0.033343952
51	0x3cb0972a	0.021556456
52	0x3cb5b53f	0.022181151
53	0xbcb5b334	-0.022180177
54	0x3cb58c3b	0.022161594
55	0x3cb49488	0.022043481
56	0xbcac3472	-0.021021102
57	0xbcb5976d	-0.022166932
58	0xbcb5bc60	-0.02218455
59	0xbcb5c708	-0.022189632
60	0xbadacc41	-0.0016692952
61	0x3c3694ab	0.011143844
62	0x3c300ba6	0.010744965
63	0xbc367e1f	-0.011138468
64	0xbc36ae58	-0.011149965
65	0xbc36560a	-0.011128912
66	0xbc365a96	-0.011129996
67	0x3b443166	0.002993667
68	0x3c367107	0.011135346
69	0x3c35e8b2	0.011102842
70	0xbc36a0bd	-0.011146721
71	0x3c369ba0	0.011145502
72	0x3c10790e	0.008817924
73	0xbc369948	-0.011144944
74	0xbc320e5a	-0.0108676795
75	0x3c25a7da	0.01011082
76	0x3c36aaa4	0.011149082
77	0x3c36b536	0.0111516025
78	0xbb695bd7	-0.003560772
79	0x3c36a016	0.011146566
80	0xbc8a1063	-0.016853517
81	0x3c2e17a6	0.010625755
82	0x3c35a91e	0.011087684
83	0xbc367ee3	-0.011138651
84	0x3c3643e2	0.011124583
85	0x3c34ed76	0.011042943
86	0xbc2cd87c	-0.010549661
87	0xbc366935	-0.011133482
88	0xbc367e74	-0.011138547
89	0xbc3696f2	-0.011144387
90	0x3d1e0492	0.038578577
91	0xbe303d20	-0.17210817
92	0xbe2d5f27	-0.16930829
93	0x3e306638	0.17226493
94	0x3e305603	0.17220311
95	0x3e306768	0.17226946
96	0x3e301aed	0.17197771
97	0xbe2f474c	-0.17117041
98	0xbe2fd448	-0.17170823
99	0xbe2ee9f9	-0.17081441
100	0x3e30711a	0.17230645
101	0xbe304a4c	-0.17215842
102	0xbe3003a1	-0.17188884
103	0x3e2ffcf7	0.17186342
104	0x3e1ee689	0.1551763
105	0x3e2daca7	0.16960393
106	0xbe306373	-0.17225437
107	0xbe30684f	-0.1722729
108	0x3c7e0c0a	0.0155058
109	0xbe305660	-0.1722045
110	0xbc2e6fdc	-0.010646787
111	0xbdd2f68a	-0.1030093
112	0xbe2d3246	-0.16913709
113	0x3e306571	0.17226197
114	0xbe303d6c	-0.1721093
115	0xbe306ba4	-0.17228562
116	0x3e2f5c0c	0.17124957
117	0x3e30514d	0.17218514
118	0x3e306a47	0.17228042
119	0x3e306615	0.17226441
120	0xbd269c80	-0.040676594
121	0x3e367c76	0.17820916
122	0x3e3390e8	0.17535746
123	0xbe36a534	-0.17836457
124	0xbe35c9f3	-0.17752819
125	0xbe369e51	-0.1783383
126	0xbe36640b	-0.17811601
127	0x3e35f668	0.17769778
128	0x3e369d10	0.17833352
129	0x3e36980a	0.17831436
130	0xbe36afb8	-0.17840469
131	0x3e369ef8	0.1783408
132	0x3e353701	0.17696764
133	0xbe369b0e	-0.17832586
134	0xbe28c72c	-0.16482228
135	0xbe34f866	-0.17672881
136	0x3e367dbd	0.17821403
137	0x3e368645	0.17824657
138	0xbcafcf6f	-0.021461217
139	0x3e35ecd2	0.17766121
140	0x3ce55c40	0.02799809
141	0x3de6f5d9	0.112773605
142	0x3e3696ff	0.17831038
143	0xbe36a97a	-0.17838088
144	0x3e36994d	0.17831917
145	0x3e36ab43	0.17838769
146	0xbe356ac5	-0.1771651
147	0xbe359320	-0.17731905
148	0xbe3698cb	-0.17831723
149	0xbe36aa5e	-0.17838427
150	0x3af181b0	0.0018425491
151	0xbba11514	-0.004915843
152	0xbb9aabfa	-0.0047202082
153	0x3ba1571b	0.004923714
154	0x3ba08fd9	0.0048999605
155	0x3ba126d4	0.0049179588
156	0x3ba11955	0.00491635
157	0xbb70a90d	-0.0036721856
158	0xbba1404f	-0.0049209963
159	0xbba0ff3a	-0.004913238
160	0x3ba151fb	0.004923103
161	0xbba15781	-0.0049237614
162	0xbb955ab9	-0.004557934
163	0x3ba12c8f	0.004918642
164	0x3b9eea67	0.0048497203
165	0x3a89ef85	0.0010523653
166	0xbba13406	-0.0049195318
167	0xbba1301b	-0.0049190647
168	0x3b271834	0.0025496604
169	0xbba0a79f	-0.0049027945
170	0x3c35f66a	0.011106113
171	0xbba77b24	-0.005111115
172	0xbba0e4b7	-0.0049100774
173	0x3ba152e6	0.0049232123
174	0xbba11692	-0.0049160207
175	0xbba0c8fd	-0.004906772
176	0x3b982e45	0.0046441876
177	0x3ba06077	0.004894312
178	0x3ba152f3	0.0049232184
179	0x3ba159b6	0.0049240245
180	0xbbca6951	-0.0061771055
181	0x3d06135a	0.0327333
182	0x3d017957	0.03160986
183	0xbd061d92	-0.032743044
184	0xbd060ddb	-0.032728057
185	0xbd06183f	-0.032737967
186	0xbd05f613	-0.032705378
187	0x3cf9db7a	0.030500162
188	0x3d061a73	0.032740068
189	0x3d061593	0.03273542
190	0xbd06173f	-0.032737013
191	0x3d061c15	0.032741625
192	0x3d03b86d	0.032158304
193	0xbd061b66	-0.032740973
194	0xbd0348a2	-0.03205169
195	0xbccb2854	-0.024799503
196	0x3d061a88	0.032740146
197	0x3d061ace	0.032740407
198	0xbc3a4154	-0.0113681145
199	0x3d06083e	0.032722704
200	0xbd3ec35f	-0.04657304
201	0x3d052998	0.03251037
202	0x3d06108b	0.03273062
203	0xbd061d5d	-0.032742847
204	0x3d0614cf	0.03273469
205	0x3d05fe19	0.03271303
206	0xbcff2902	-0.031147484
207	0xbd06071e	-0.03272163
208	0xbd061b06	-0.032740615
209	0xbd061c08	-0.032741576
210	0x398f7ef0	0.0002736966
211	0xbd007537	-0.031361785
212	0xbcf89ff0	-0.030349702
213	0x3d030742	0.031989343
214	0x3cef522e	0.029213991
215	0x3d01d23e	0.031694643
216	0x3d0214c9	0.031758104
217	0xbc7ef54d	-0.015561414
218	0xbd01dac8	-0.031702787
219	0xbd017c3c	-0.03161262
220	0x3d0237bb	0.03179143
221	0xbd024120	-0.03180039
222	0xbcc0b658	-0.023524448
223	0x3d021456	0.031757675
224	0x3cee6f65	0.029105851
225	0xbc63f60f	-0.013913645
226	0xbd007c19	-0.03136835
227	0xbd00f8f7	-0.03148743
228	0x3aed1876	0.0018088955
229	0xbcf34d76	-0.029700022
230	0xbd8c7fd5	-0.068603195
231	0xbcc4ba98	-0.024014756
232	0xbd008fd0	-0.03138715
233	0x3d031bf1	0.03200907
234	0xbd01d5ca	-0.031698026
235	0xbd00a767	-0.031409647
236	0x3cf78652	0.030215416
237	0x3ce945b6	0.028475624
238	0x3d031193	0.031999182
239	0x3d0396fa	0.032126404
240	0xb189a1ed	-4.0056336e-09
241	0xb2057b79	-7.769693e-09
242	0xb2048d0e	-7.715483e-09
243	0x3205482e	7.758031e-09
244	0x32054ea2	7.759498e-09
245	0x3205d25a	7.789447e-09
246	0x32052222	7.74938e-09
247	0xb2895775	-1.598867e-08
248	0xb20579e6	-7.769335e-09
249	0xb205391e	-7.754606e-09
250	0x32058308	7.771412e-09
251	0xb2055056	-7.759885e-09
252	0xb22df406	-1.012541e-08
253	0x320535ae	7.753824e-09
254	0x31fa62c4	7.287186e-09
255	0x32f41e11	2.8419011e-08

b1 f4 [15]
0	0x3bea8fde	0.0071582636
1	0xbcb5c291	-0.022187503
2	0xbc369b21	-0.011145384
3	0x3e305e21	0.17223407
4	0xbe36a955	-0.17838033
5	0x3ba16433	0.0049252748
6	0xbd061ddd	-0.032743324
7	0x3d028b1d	0.03187095
8	0x320573c0	7.767937e-09
9	0x3c51628e	0.012779845
10	0xb1e27fd3	-6.5919976e-09
11	0xbcdf7683	-0.02727819
12	0x3e360e3d	0.17778869
13	0xae960228	-6.821593e-11
14	0xbdd02078	-0.10162443

W2 f4 [15, 30]
0	0x3a116db6	0.0005547659
1	0xbbe9777f	-0.0071248407
2	0xbbe249f3	-0.006905788
3	0x3bea8860	0.0071573704
4	0x3be689df	0.0070354785
5	0x3be9d0a8	0.0071354695
6	0x3be9fbcf	0.0071406136
7	0x399d5558	0.0003000896
8	0xbbea24a4	-0.007145481
9	0xbbea1d6b	-0.00714462
10	0x3bea1b50	0.007144369
11	0xbbea9ebf	-0.0071600373
12	0xbbdadf95	-0.006679485
13	0x3bea52b3	0.007150972
14	0x3be34fca	0.006937002
15	0xbc4bd296	-0.012440344
16	0xbbe9b2ea	-0.007131924
17	0xbbe9bbfb	-0.0071330047
18	0xba23a277	-0.00062421657
19	0xbbe75cc9	-0.0070606214
20	0x3c3de80e	0.011590971
21	0xbc102490	-0.00879778
22	0xbbea13c1	-0.007143468
23	0x3bea682a	0.0071535306
24	0xbbe99fd2	-0.007129648
25	0xbbe6f70c	-0.0070484933
26	0x3bd761a6	0.00657292
27	0x3be6b963	0.007041143
28	0x3bea61ef	0.007152788
29	0x3bea6e74	0.0071542803
30	0xbb228c2c	-0.0024802787
31	0x3cb5a17d	0.02217173
32	0x3caf92e8	0.021432355
33	0xbcb5b323	-0.022180146
34	0xbcb57d3d	-0.022154445
35	0xbcb58935	-0.022160152
36	0xbcb587be	-0.022159453
37	0x3c34d809	0.011037835
38	0x3cb5b783	0.022182232
39	0x3cb5bb53	0.02218405
40	0xbcb59fef	-0.022170989
41	0x3cb5cb10	0.022191554
42	0x3cb16153	0.021652853
43	0xbcb5c7ea	-0.022190053
44	0xbcb180c6	-0.02166785
45	0x3bd55542	0.0065104077
46	0x3cb5ba56	0.022183578
47	0x3cb5aafd	0.02217626
48	0xbbd1d22d	-0.0064032287
49	0x3cb575ad	0.022150839
50	0xbcc608ce	-0.02417412
51	0x3cc71978	0.024304137
52	0x3cb5c5e2	0.022189084
53	0xbcb5aba0	-0.022176564
54	0x3cb580b7	0.022156103
55	0x3cb46f80	0.022025824
56	0xbcada25b	-0.021195581
57	0xbcb57be5	-0.022153804
58	0xbcb5ae1c	-0.022177748
59	0xbcb5bee9	-0.02218576
60	0xba94395c	-0.0011308598
61	0x3c368507	0.011140115
62	0x3c308126	0.010772979
63	0xbc3664ab	-0.0111324
64	0xbc36a536	-0.011147788
65	0xbc366c29	-0.011134186
66	0xbc368430	-0.011139914
67	0x3b07b1e6	0.00207054
68	0x3c36aa1a	0.011148954
69	0x3c361570	0.01111351
70	0xbc36b1fe	-0.011150835
71	0x3c36d652	0.011159496
72	0x3c2f8276	0.010712257
73	0xbc36a405	-0.011147504
74	0xbc31b748	-0.01084692
75	0x3c3804e4	0.011231635
76	0x3c369a9a	0.011145258
77	0x3c36ae9a	0.011150027
78	0xbb4c5a48	-0.0031181742
79	0x3c367544	0.011136357
80	0xbc3bc0ba	-0.011459524
81	0x3c5370a4	0.012905274
82	0x3c35a55c	0.011086788
83	0xbc366fc2	-0.011135044
84	0x3c362097	0.011116168
85	0x3c34a870	0.011026487
86	0xbc2ee015	-0.0106735425
87	0xbc366a04	-0.0111336745
88	0xbc36783d	-0.0111370655
89	0xbc3692da	-0.011143411
90	0xbcb68814	-0.022281684
91	0xbe300dfb	-0.17192833
92	0xbe27b0f4	-0.16376096
93	0x3e304de7	0.17217217
94	0x3e3064cd	0.17225952
95	0x3e305cde	0.17222926
96	0x3e3003e6	0.17188987
97	0xbe2f52a2	-0.17121366
98	0xbe303477	-0.17207514
99	0xbe2f5ec5	-0.17125995
100	0x3e306e29	0.17229523
101	0xbe305923	-0.17221503
102	0xbe304edc	-0.17217582
103	0x3e304428	0.172135
104	0x3e27f7d7	0.16403137
105	0x3e2d5e8e	0.16930601
106	0xbe305cf0	-0.17222953
107	0xbe305e8b	-0.17223565
108	0x3c213675	0.009839644
109	0xbe304384	-0.17213255
110	0x3e49a0cc	0.19690245
111	0xbe3770f2	-0.17914179
112	0xbe2da338	-0.16956794
113	0x3e303bc5	0.172103
114	0xbe30435c	-0.17213196
115	0xbe306423	-0.17225699
116	0x3e192394	0.14954978
117	0x3e306985	0.17227753
118	0x3e306ba5	0.17228563
119	0x3e30884d	0.17239495
120	0x3c8f6150	0.017502457
121	0x3e367d2a	0.17821184
122	0x3e2e445a	0.17018262
123	0xbe36a969	-0.17838062
124	0xbe35aacb	-0.17740934
125	0xbe36a17f	-0.17835043
126	0xbe36540a	-0.17805496
127	0x3e35e4d6	0.17763075
128	0x3e369f4e	0.17834207
129	0x3e369b3e	0.17832658
130	0xbe36b06a	-0.17840734
131	0x3e369d17	0.17833363
132	0x3e35935d	0.17731996
133	0xbe36a0e0	-0.17834806
134	0xbe2fc3ba	-0.17164508
135	0xbe34f1a1	-0.17670299
136	0x3e36780f	0.17819236
137	0x3e367bd3	0.17820673
138	0xbc31a765	-0.010843133
139	0x3e35d2f4	0.17756253
140	0xbe459b93	-0.19297628
141	0x3e3ca36d	0.18421717
142	0x3e369f91	0.17834307
143	0xbe36a916	-0.17837939
144	0x3e369992	0.1783202
145	0x3e36a3c2	0.17835906
146	0xbe214662	-0.15749505
147	0xbe35a342	-0.17738059
148	0xbe369ba1	-0.17832805
149	0xbe369c7c	-0.17833132
150	0x39c6be0d	0.00037907102
151	0xbba10ebf	-0.004915088
152	0xbb9bd5a1	-0.004755691
153	0x3ba15e71	0.0049245884
154	0x3ba05d66	0.0048939465
155	0x3ba13c0e	0.004920489
156	0x3ba1060c	0.004914051
157	0xbb665a6d	-0.0035149113
158	0xbba14a29	-0.0049221707
159	0xbba1075e	-0.0049142083
160	0x3ba14935	0.004922057
161	0xbba13a1f	-0.0049202587
162	0xbb9e4859	-0.004830402
163	0x3ba15485	0.0049234056
164	0x3b9def38	0.004819777
165	0x3a4cf37c	0.00078182644
166	0xbba12c5a	-0.004918617
167	0xbba12d48	-0.004918728
168	0x3b040b2e	0.0020148265
169	0xbba0793f	-0.004897266
170	0x3baef3cf	0.005339123
171	0xbba8acbc	-0.0051475447
172	0xbba0f446	-0.004911932
173	0x3ba14ca3	0.004922466
174	0xbba1158d	-0.004915899
175	0xbba0d1fb	-0.004907844
176	0x3b99328d	0.0046752156
177	0x3ba071f4	0.004896397
178	0x3ba14cf2	0.0049225027
179	0x3ba155fa	0.0049235793
180	0xbb8a9903	-0.004229666
181	0x3d061170	0.032731473
182	0x3d01c0d8	0.03167805
183	0xbd061e1d	-0.032743562
184	0xbd060b3b	-0.032725554
185	0xbd0618eb	-0.032738607
186	0xbd05f8e2	-0.032708056
187	0x3cf76f37	0.030204399
188	0x3d061bc8	0.032741338
189	0x3d061773	0.032737207
190	0xbd0617cf	-0.03273755
191	0x3d061d22	0.032742627
192	0x3d059887	0.032616165
193	0xbd061c31	-0.03274173
194	0xbd033350	-0.032031357
195	0xbcc5c6b4	-0.0241426
196	0x3d06199d	0.03273927
197	0x3d061a33	0.03273983
198	0xbc2b903e	-0.010471402
199	0x3d060668	0.032720953
200	0xbd1ddae6	-0.038538836
201	0x3d08249b	0.033238035
202	0x3d06125f	0.032732364
203	0xbd061cc1	-0.032742266
204	0x3d0614f9	0.032734845
205	0x3d05fac0	0.032709837
206	0xbd00336a	-0.031299032
207	0xbd060951	-0.03272373
208	0xbd061b14	-0.032740667
209	0xbd061c4a	-0.032741822
210	0xbae94220	-0.0017796196
211	0xbcff84f4	-0.031191327
212	0xbcf2f3bb	-0.029657235
213	0x3d035347	0.03206184
214	0x3ceb68fa	0.02873658
215	0x3d01df79	0.03170726
216	0x3d0234e5	0.031788725
217	0xbc5e065e	-0.013551323
218	0xbd0227a4	-0.031776085
219	0xbd01c916	-0.03168591
220	0x3d0273e2	0.031848796
221	0xbd01f951	-0.031731907
222	0xbce415de	-0.027842458
223	0x3d0231a0	0.031785607
224	0x3cf61dd7	0.030043526
225	0xbc8824f2	-0.01661918
226	0xbcff9f1c	-0.031203799
227	0xbd00b387	-0.03142121
228	0x3a912ffc	0.0011076923
229	0xbcf099ac	-0.029370151
230	0x3d5ebc31	0.054378692
231	0xbd121fad	-0.03567474
232	0xbd013ac9	-0.031550203
233	0x3d02c9e6	0.031930827
234	0xbd023860	-0.031792045
235	0xbd0112fa	-0.031512238
236	0x3cf31dab	0.029677233
237	0x3ceb4802	0.02872086
238	0x3d036c21	0.03208554
239	0x3d03318e	0.03202968
240	0x2f4324c8	1.7748214e-10
241	0xb204dea8	-7.734037e-09
242	0xb20159cc	-7.529206e-09
243	0x320526a5	7.750406e-09
244	0x320543ef	7.757065e-09
245	0x3205afc9	7.781588e-09
246	0x32050ee5	7.7450055e-09
247	0xb290b175	-1.6844504e-08
248	0xb205844c	-7.7717e-09
249	0xb2056280	-7.764015e-09
250	0x3204e999	7.736525e-09
251	0xb20538e2	-7.7545526e-09
252	0xb20c8d39	-8.181183e-09
253	0x320583e2	7.771606e-09
254	0x32012fbc	7.519642e-09
255	0x32fcc677	2.9426912e-08

Wb f4 [55, 55]
0	0x3b37d1ac	0.0028048558
1	0xba48ef5e	-0.0007665063
2	0xbbfad9d7	-0.007655363
3	0xbc3770bf	-0.011196314
4	0x3c65b8be	0.014021097
5	0x3c336c8e	0.010951174
6	0x3b69dadc	0.003568343
7	0x3b919bfe	0.0044436445
8	0xbc39cb3a	-0.011339957
9	0xba15adcb	-0.0005709796
10	0xbd33db57	-0.04391035
11	0xba832fa0	-0.00100087
12	0xbabbb8f0	-0.0014322083
13	0x3cb72b96	0.02235965
14	0x3ccb5398	0.024820134
15	0x3c236b2b	0.009974281
16	0xbc8f6cf6	-0.017508011
17	0x3b9984b4	0.004685009
18	0x3dd162fd	0.10223959
19	0x3bfa6e58	0.0076425485
20	0xbca5deba	-0.020247806
21	0xbbbe9844	-0.0058164913
22	0xbb6a3b40	-0.0035740882
23	0x3c8ee1ca	0.017441649
24	0xbd815466	-0.06314926
25	0xbc911bc8	-0.017713442
26	0x3cb2abb2	0.021810386
27	0x3c23661f	0.009973078
28	0x3c315038	0.010822348
29	0xba793814	-0.00095069525
30	0x3d029246	0.03187778
31	0x3cc03cac	0.02346643
32	0xb99f46e0	-0.0003037965
33	0x3bf96822	0.0076112906
34	0xbc6fc5e8	-0.014634587
35	0xbba63958	-0.005072754
36	0x3a211840	0.0006145276
37	0x3c7fbf2d	0.015609545
38	0x3ca678ee	0.020321336
39	0x3cb5c8e9	0.022190528
40	0x3cc0b822	0.023525301
41	0xbab534b6	-0.0013824913
42	0x39e8dce0	0.00044415053
43	0xbcb764db	-0.022386959
44	0xbc9058cb	-0.017620465
45	0xbd1896b8	-0.03725311
46	0xbd489c10	-0.048976958
47	0x3c9df6a0	0.019282639
48	0x3c765dae	0.015036983
49	0xbb281663	-0.002564811
50	0x3c6d8fbc	0.014499601
51	0xbca6c28c	-0.020356439
52	0x3ce58fdc	0.028022699
53	0xbcb27e9a	-0.021788884
54	0xbbdde0ea	-0.0067711966
55	0x3b027142	0.0019903933
56	0xb944dea0	-0.00018774951
57	0xbc140107	-0.009033448
58	0xbc2e7d35	-0.010649969
59	0x3ca4b1c7	0.020104302
60	0x3c361e32	0.011115598
61	0x3b613508	0.0034363884
62	0x3bef00cc	0.007293796
63	0xbc545b72	-0.012961255
64	0xb900ecf0	-0.00012295297
65	0xbd32dc37	-0.043667044
66	0xb96b3ee0	-0.00022434769
67	0xbab66ea6	-0.0013918474
68	0x3cb17a50	0.021664768
69	0x3ccbd5c8	0.024882212
70	0x3c22c5a1	0.009934814
71	0xbc8cb5a6	-0.01717646
72	0x3b7edc82	0.0038888757
73	0x3dceb16d	0.10092435
74	0x3c09d3a0	0.008412272
75	0xbca63da5	-0.020293066
76	0xbbade0ac	-0.005306324
77	0xbbaab6c4	-0.0052097756
78	0x3c802c12	0.015646014
79	0xbd838052	-0.064209595
80	0xbc94e993	-0.018177783
81	0x3cb236f2	0.021754716
82	0x3c347202	0.01101351
83	0xbb8499d6	-0.004046659
84	0xba541030	-0.00080895703
85	0x3d0f0ed5	0.034926254
86	0x3cc18c85	0.023626575
87	0x3b2b660c	0.0026153354
88	0x3be1e518	0.006893765
89	0xbc37c7d2	-0.0112170745
90	0xbbb67c22	-0.005568997
91	0x3a138bb0	0.000562842
92	0x3c63e008	0.013908394
93	0x3ca824bd	0.02052533
94	0x3c9f0450	0.019411236
95	0x3cc3f99c	0.023922734
96	0xba40b8dd	-0.00073517655
97	0x3a9955d8	0.0011698557
98	0xbcc5e39a	-0.02415638
99	0xbc863ec8	-0.016387358
100	0xbd17b708	-0.037039787
101	0xbd44f01a	-0.04808054
102	0x3ca175c6	0.019709479
103	0x3c6e2058	0.014534079
104	0x3b7e302b	0.0038786035
105	0x3c791a5a	0.015204037
106	0xbca72633	-0.020403957
107	0x3ce70cb3	0.028204298
108	0xbcb37dfa	-0.021910656
109	0xbbfa82ae	-0.0076449728
110	0x3b8d74db	0.004316909
111	0xba8cfad8	-0.001075591
112	0xbc0db40b	-0.008648883
113	0xbc33ffdd	-0.0109862955
114	0x3c7c4ecc	0.015399646
115	0x3c3e1208	0.011600979
116	0x3a116860	0.0005546864
117	0x3b5ce9fc	0.0033708801
118	0xbc716816	-0.014734289
119	0xb9e978e3	-0.0004453129
120	0xbd3372cb	-0.043810647
121	0x3b817a98	0.003951382
122	0x3b724f61	0.0036973583
123	0x3cb97d4a	0.02264275
124	0x3ccaf6d8	0.024775907
125	0x3c235852	0.009969788
126	0xbc8eee02	-0.017447475
127	0x3bb1cae4	0.005425798
128	0x3dd4e95e	0.10396074
129	0x3bef0654	0.0072944555
130	0xbca53907	-0.020168794
131	0xbbc241ee	-0.0059282696
132	0xbbad283c	-0.0052843373
133	0x3c8a519c	0.016884618
134	0xbd810822	-0.06300379
135	0xbc85e4b2	-0.016344402
136	0x3cb29658	0.021800205
137	0x3c2499c3	0.010046425
138	0x3c59e002	0.0132980365
139	0xba88dcf0	-0.0010441821
140	0x3d05e6d8	0.032690853
141	0x3cc2c1d0	0.023774058
142	0x39c345a0	0.00037245173
143	0x3bf6814a	0.0075227367
144	0xbbd95854	-0.006632844
145	0xbba7913a	-0.005113748
146	0xbaef143d	-0.0018240284
147	0x3c59de74	0.013297666
148	0x3ca91a1d	0.020642335
149	0x3cb3325e	0.021874603
150	0x3cc4ad2e	0.02400836
151	0xba2d5acf	-0.0006612958
152	0x3aa0f648	0.0012280429
153	0xbca636fb	-0.020289889
154	0xbc8af5af	-0.016962854
155	0xbd15b982	-0.036553867
156	0xbd49fd84	-0.049314037
157	0x3c9b4f9f	0.018958865
158	0x3c6f7aed	0.01461671
159	0xba19aed0	-0.0005862536
160	0x3c724ad0	0.0147883445
161	0xbc66e378	-0.014092319
162	0x3ce08768	0.027408317
163	0xbcb0c7e4	-0.02157969
164	0xbc0e42bb	-0.008682902
165	0x3bb3366e	0.005469135
166	0x3b84ca9a	0.0040524723
167	0xbbfa9c79	-0.0076480475
168	0xbc35a05b	-0.011085595
169	0x3c961352	0.01831976
170	0x3c3a23b2	0.0113610495
171	0x3bcafa5e	0.006194397
172	0x3b4df1f9	0.0031424745
173	0xbc6aa417	-0.014321349
174	0xb93be258	-0.0001791803
175	0xbd33c654	-0.043890312
176	0xba452114	-0.00075198826
177	0xbb20a80e	-0.002451423
178	0x3cb6fcc9	0.022337334
179	0x3cccd9ae	0.025006142
180	0x3c22df6a	0.009940961
181	0xbc90d866	-0.017681312
182	0x3b9ddda6	0.0048176823
183	0x3dcadb1c	0.09905073
184	0x3bf6cb20	0.0075315386
185	0xbca1e56e	-0.01976272
186	0xbbb3f458	-0.0054917745
187	0xbb6f2b70	-0.0036494397
188	0x3c8a7593	0.016901767
189	0xbd82a52b	-0.063791595
190	0xbc975e0d	-0.018477464
191	0x3cb2cf70	0.02182743
192	0x3c24b114	0.010051984
193	0x3b0ac5ec	0.00211751
194	0xba3166dc	-0.00067673414
195	0x3d1297c6	0.035789274
196	0x3cbff67a	0.023432959
197	0x3b650b50	0.003494937
198	0x3bf73fba	0.0075454386
199	0xbc3771a0	-0.011196524
200	0xbb945dec	-0.004527798
201	0xbb1ca993	-0.0023904785
202	0x3c5b1f20	0.01337412
203	0x3ca35454	0.019937672
204	0x3ca9dde8	0.020735696
205	0x3cc180f8	0.023621067
206	0xbb4580d5	-0.0030136604
207	0xbb20d0fc	-0.0024538627
208	0xbca327cc	-0.019916438
209	0xbc903a80	-0.01760602
210	0xbd10fb26	-0.035395764
211	0xbd4a5cdd	-0.049404968
212	0x3ca1daf0	0.019757718
213	0x3c6b4482	0.014359595
214	0x391de2d0	0.00015057181
215	0x3c701268	0.014652826
216	0xbc681fda	-0.01416775
217	0x3ce079cc	0.027401827
218	0xbcb6e0b7	-0.02232395
219	0xbbe26d44	-0.006909998
220	0x3b92c20f	0.0044787
221	0xbb20be3c	-0.002452745
222	0xbc080e92	-0.008304255
223	0xbc333ae8	-0.010939337
224	0x3c97d08c	0.01853206
225	0x3c2ea63e	0.010659752
226	0xb7998400	-1.8300489e-05
227	0x3b52e2bc	0.0032178601
228	0xbc7a980c	-0.01529504
229	0xb98a93c0	-0.00026431493
230	0xbd33e992	-0.043923922
231	0xbaba26ce	-0.0014202239
232	0xba122fd0	-0.00055765826
233	0x3cba3dda	0.022734571
234	0x3cc88b76	0.024480563
235	0x3c238616	0.009980699
236	0xbc8f9527	-0.017527176
237	0x3ba6d7b1	0.0050916304
238	0x3dcf95ef	0.101360194
239	0x3c0bf4d0	0.008542255
240	0xbca133e4	-0.019678064
241	0xbbccec4c	-0.0062537547
242	0xbb94ee88	-0.0045450367
243	0x3c898c2a	0.016790468
244	0xbd837d44	-0.06420377
245	0xbc86d903	-0.016460901
246	0x3cb24854	0.021763004
247	0x3c2569b8	0.010096006
248	0xbb4424aa	-0.002992908
249	0xbab90398	-0.0014115451
250	0x3d0edb38	0.034877032
251	0x3cc29860	0.023754299
252	0x3a434d30	0.00074501615
253	0x3bfdf8d4	0.00775061
254	0xbc5358f0	-0.012899622
255	0xbb987ecc	-0.0046537872

conv.weight f4 [10, 1, 20]
0	0xa2f08ba0	-6.5199964e-18
1	0xa2b10170	-4.797747e-18
2	0xa2a8272d	-4.557797e-18
3	0xa2b0c496	-4.791304e-18
4	0xa2b933f7	-5.019937e-18
5	0x229ce663	4.2527816e-18
6	0x22f4de87	6.6371943e-18
7	0x22dac368	5.9295913e-18
8	0x23161698	8.136301e-18
9	0x237b05ca	1.3607963e-17
10	0x231712a8	8.189677e-18
11	0x2375cd65	1.3324971e-17
12	0x23302b12	9.5501e-18
13	0x230f8618	7.780441e-18
14	0x22dbed50	5.9611333e-18
15	0x2383a4e2	1.4272879e-17
16	0x2309ee5d	7.47726e-18
17	0x2329d0c0	9.205713e-18
18	0x2298856e	4.1340957e-18
19	0x21fe3350	1.7225292e-18
20	0xa8d93e78	-2.4118931e-14
21	0xa8da74ae	-2.4253464e-14
22	0xa8d39c06	-2.349337e-14
23	0xa8b53a7c	-2.01204e-14
24	0xa8d0e841	-2.3193363e-14
25	0xa8d1d542	-2.3296147e-14
26	0xa8f2c8be	-2.6954455e-14
27	0xa8db406b	-2.4341821e-14
28	0xa8e12d66	-2.4999706e-14
29	0xa8c16ac1	-2.1473602e-14
30	0xa8d34f7c	-2.3460177e-14
31	0xa8b98578	-2.0597009e-14
32	0xa8174fa4	-8.399453e-15
33	0xa7f80f19	-6.8850196e-15
34	0xa6df4958	-1.5493613e-15
35	0x2794909d	4.123504e-15
36	0x280d1eea	7.833776e-15
37	0x281299b6	8.137959e-15
38	0x26cddd66	1.4284743e-15
39	0xa7f6fd59	-6.8553396e-15
40	0x3823a694	3.9017366e-05
41	0x3822b0fd	3.8788643e-05
42	0x38211c7e	3.8411927e-05
43	0x38205ffe	3.8236372e-05
44	0x381f49d0	3.7977297e-05
45	0x381f6a2f	3.8007445e-05
46	0x381fa7bc	3.806477e-05
47	0x3820a82d	3.83036e-05
48	0x382117ee	3.8407677e-05
49	0x381f5f47	3.7997288e-05
50	0x381fe97a	3.8125996e-05
51	0x381ff3a6	3.813547e-05
52	0x3821dacf	3.8589173e-05
53	0x38204051	3.8206872e-05
54	0x38203d39	3.820399e-05
55	0x381f9ef4	3.805659e-05
56	0x381fa4fc	3.8062208e-05
57	0x381dd597	3.7630638e-05
58	0x381c36f5	3.724448e-05
59	0x3819b624	3.6647674e-05
60	0x2ad4a9e8	3.777666e-13
61	0x2a84e277	2.3605052e-13
62	0x2aa04e4c	2.847604e-13
63	0x2aa25692	2.883705e-13
64	0x2ac5020a	3.4995645e-13
65	0x2a824ced	2.3146017e-13
66	0x2a63d3c3	2.023512e-13
67	0x299cbcea	6.960563e-14
68	0x281e982c	8.803759e-15
69	0xa8ff5e88	-2.8351684e-14
70	0xa9d4591a	-9.430148e-14
71	0xaa5e0722	-1.9720036e-13
72	0xaa783634	-2.204563e-13
73	0xaa9aebf7	-2.751963e-13
74	0xaae35ad0	-4.0386314e-13
75	0xaabc3fc5	-3.3439758e-13
76	0xaaf6b6cb	-4.3825216e-13
77	0xaaa12e90	-2.8631654e-13
78	0xab00abf0	-4.5713346e-13
79	0xab01ab4a	-4.606772e-13
80	0x2617d55a	5.2677794e-16
81	0x2613c004	5.12611e-16
82	0x26108ef3	5.015377e-16
83	0x26115e80	5.043505e-16
84	0x260a9352	4.8078024e-16
85	0x26036a50	4.5593835e-16
86	0x25ff2154	4.4258033e-16
87	0x25f92f6d	4.3226752e-16
88	0x26020e33	4.5122054e-16
89	0x260ac836	4.8149704e-16
90	0x260f811c	4.9788067e-16
91	0x2613c98b	5.127401e-16
92	0x25fcb4af	4.3837468e-16
93	0x260f4e67	4.9719346e-16
94	0x26062696	4.6542883e-16
95	0x26137e10	5.1171717e-16
96	0x26115255	5.041856e-16
97	0x2603f1a4	4.577724e-16
98	0x25bb7b59	3.2522913e-16
99	0x2569dc81	2.0284238e-16
100	0x25220152	1.4051707e-16
101	0x251dcb62	1.3686488e-16
102	0x250b934c	1.2106234e-16
103	0x24ecb6a9	1.02658123e-16
104	0x24ca968a	8.785856e-17
105	0x249ba5b1	6.750123e-17
106	0x2499a20e	6.6627704e-17
107	0x242f2fc2	3.798753e-17
108	0x24085607	2.9563167e-17
109	0x23965baf	1.6301862e-17
110	0x239473b5	1.6095196e-17
111	0xa3403b9e	-1.0420965e-17
112	0xa44e4c49	-4.4733746e-17
113	0xa46d72c6	-5.14884e-17
114	0xa4743a78	-5.295859e-17
115	0xa48e21c6	-6.16399e-17
116	0xa49c0c66	-6.767522e-17
117	0xa4c23dbb	-8.4238664e-17
118	0xa4e5b5be	-9.96208e-17
119	0xa5022f2b	-1.1291684e-16
120	0xa45a45cc	-4.7330335e-17
121	0xa4838a6c	-5.704669e-17
122	0xa486f960	-5.8535694e-17
123	0xa4adc276	-7.535622e-17
124	0xa4d2f7ac	-9.1492555e-17
125	0xa502d870	-1.1349034e-16
126	0xa504971c	-1.1500373e-16
127	0xa4e8ff1e	-1.0104615e-16
128	0xa5001b0b	-1.1111393e-16
129	0xa5081fa8	-1.1806845e-16
130	0xa511a569	-1.2632788e-16
131	0xa511d90d	-1.2650285e-16
132	0xa512f3e4	-1.2746115e-16
133	0xa50fd189	-1.2474266e-16
134	0xa50e3ff2	-1.2338202e-16
135	0xa50f7e1f	-1.2446004e-16
136	0xa50deb36	-1.2309493e-16
137	0xa50ca98b	-1.2200508e-16
138	0xa50a5118	-1.1997068e-16
139	0xa50d046c	-1.2231299e-16
140	0x38077813	3.2298336e-05
141	0x37af4065	2.0891612e-05
142	0x3809b28d	3.2829634e-05
143	0x3833fa95	4.29103e-05
144	0x38019a56	3.0899733e-05
145	0x38a3adc4	7.804812e-05
146	0x388c6193	6.693895e-05
147	0x386b11bd	5.6044886e-05
148	0x37e2a3ee	2.7017635e-05
149	0x381906a5	3.648423e-05
150	0x38a2d5e1	7.7646e-05
151	0x3860a4a7	5.3559106e-05
152	0x36dc12c8	6.5586974e-06
153	0x3871b00c	5.7622834e-05
154	0x38ab35fd	8.1639715e-05
155	0x38438a88	4.662064e-05
156	0x385171ba	4.99354e-05
157	0x38629f77	5.4031112e-05
158	0x38bd2809	9.0196794e-05
159	0x38d13a96	9.976809e-05
160	0xa5ac5f71	-2.9901917e-16
161	0xa5afa229	-3.0467545e-16
162	0xa567d02e	-2.010659e-16
163	0xa50939ba	-1.1902414e-16
164	0x23cc5890	2.2155232e-17
165	0x24694ff8	5.0591557e-17
166	0xa50b8cb4	-1.2104e-16
167	0x241b6140	3.369264e-17
168	0x250dddb4	1.2304916e-16
169	0x254b39fc	1.7627089e-16
170	0x24ade4e4	7.5414546e-17
171	0x256417b6	1.9783881e-16
172	0x2556be1c	1.8625953e-16
173	0x258d6675	2.4529029e-16
174	0x2546441e	1.7196841e-16
175	0x255b6f8e	1.9033018e-16
176	0x25a3aad3	2.8391748e-16
177	0x258953a9	2.3822402e-16
178	0x259e8c82	2.7503843e-16
179	0x25c1d440	3.362399e-16
180	0xa78aa415	-3.8480592e-15
181	0xa75011ae	-2.8875383e-15
182	0xa71cfd4f	-2.1786668e-15
183	0xa63ef5a3	-6.625239e-16
184	0x249efa60	6.894573e-17
185	0x26110400	5.03124e-16
186	0x2716e40a	2.0940302e-15
187	0x27652905	3.180237e-15
188	0x27703fd6	3.3341296e-15
189	0x278e8b81	3.9564168e-15
190	0x279380e2	4.094043e-15
191	0x2792f4f2	4.078871e-15
192	0x27958654	4.1501447e-15
193	0x27457f8a	2.740838e-15
194	0x2755354e	2.9588585e-15
195	0x276326f7	3.1523701e-15
196	0x27496189	2.7947227e-15
197	0x272e3411	2.4175576e-15
198	0x273c5279	2.613495e-15
199	0x274f1d0f	2.8742773e-15

conv.bias f4 [10]
0	0x2edbe42b	9.999498e-11
1	0xa95d9af9	-4.9206275e-14
2	0x3d06bc23	0.032894265
3	0xba6c471a	-0.00090132805
4	0x2f0310d4	1.1920359e-10
5	0xb1c7d444	-5.815794e-09
6	0xa5bd32e2	-3.2820753e-16
7	0x3d57a6c6	0.052649282
8	0xa7885256	-3.783685e-15
9	0x28adb21a	1.9284098e-14

conv_long.weight f4 [10, 1, 10]
0	0xa94f6889	-4.6053903e-14
1	0xa9595026	-4.8253197e-14
2	0xa94e21c3	-4.5770472e-14
3	0xa93ee51a	-4.238719e-14
4	0xa9325fb8	-3.9606962e-14
5	0xa9288b9f	-3.7424596e-14
6	0xa931403c	-3.935761e-14
7	0xa9017e52	-2.875332e-14
8	0xa87b9898	-1.39663875e-14
9	0xa7a1e378	-4.49331e-15
10	0x2512c4dc	1.273018e-16
11	0x25092076	1.1893854e-16
12	0x24dd23a2	9.5903836e-17
13	0x2465aeea	4.9804617e-17
14	0x24536ea2	4.584704e-17
15	0x24f75e83	1.07279284e-16
16	0x250ba831	1.2113314e-16
17	0x253ba5a6	1.6275788e-16
18	0x24659010	4.9778485e-17
19	0xa50b066c	-1.2058504e-16
20	0x239a57c5	1.6733885e-17
21	0x23b6a422	1.9801992e-17
22	0x2383f2f3	1.4305941e-17
23	0x2323f4da	8.888097e-18
24	0x228b25e8	3.771616e-18
25	0xa300da28	-6.98509e-18
26	0xa30a6ae6	-7.503632e-18
27	0x22b8ca4d	5.0087494e-18
28	0x23029008	7.077814e-18
29	0x23bbdaa5	2.036718e-17
30	0x269c2da6	1.0837048e-15
31	0xa73c1ebc	-2.6106902e-15
32	0xa7858762	-3.70617e-15
33	0xa72904a1	-2.345597e-15
34	0xa677e671	-8.6007646e-16
35	0x2594f0b4	2.5837014e-16
36	0x263469af	6.2593273e-16
37	0x259b1574	2.690275e-16
38	0xa5eaa3ec	-4.0703607e-16
39	0xa65e91bf	-7.7219245e-16
40	0xa4692934	-5.055872e-17
41	0xa5044638	-1.1472966e-16
42	0xa5cf10b0	-3.5920084e-16
43	0xa5dc25d9	-3.8189563e-16
44	0xa5d03ee0	-3.6124854e-16
45	0xa5bf223e	-3.3156422e-16
46	0xa5af0fd0	-3.0368376e-16
47	0xa5b3819a	-3.1139372e-16
48	0xa53c9766	-1.6357696e-16
49	0x25a58cd6	2.8718371e-16
50	0x279f5e38	4.4233517e-15
51	0x27a54aec	4.587793e-15
52	0x27aed830	4.8529093e-15
53	0x27b78dab	5.09463e-15
54	0x27c1bd26	5.3773336e-15
55	0x27ccfffb	5.689891e-15
56	0x27d0d0dc	5.7958043e-15
57	0x27d65310	5.948699e-15
58	0x27da4327	6.057996e-15
59	0x27da0bf1	6.05201e-15
60	0x270f015c	1.9845973e-15
61	0x278d90fa	3.9292546e-15
62	0x27c43a91	5.4464426e-15
63	0x27db638f	6.0892652e-15
64	0x27deb1bd	6.181008e-15
65	0x27daea29	6.076103e-15
66	0x27da01fe	6.0509315e-15
67	0x27d9d2d5	6.0458184e-15
68	0x27db3c52	6.085011e-15
69	0x27d98e41	6.038383e-15
70	0xac0fd76e	-2.044111e-12
71	0xabf327e3	-1.7277259e-12
72	0xa9fb7f40	-1.11687135e-13
73	0x2b3b4884	6.653638e-13
74	0x2c2d391f	2.4616487e-12
75	0x2be7d224	1.6471863e-12
76	0xac55ae39	-3.0365834e-12
77	0xaa774f30	-2.196548e-13
78	0xac80c4cb	-3.659827e-12
79	0x2bb21884	1.2654465e-12
80	0xa77ebb23	-3.5351028e-15
81	0xa79388d0	-4.094903e-15
82	0xa75e9f25	-3.0894961e-15
83	0xa7bcf175	-5.244227e-15
84	0xa7cd00fc	-5.6899997e-15
85	0xa7d5a550	-5.929861e-15
86	0xa7d7cfe7	-5.9899896e-15
87	0xa7dafc22	-6.0780518e-15
88	0xa7866930	-3.7306516e-15
89	0xa719bbcf	-2.1334827e-15
90	0xab272814	-5.938594e-13
91	0xab2fcea3	-6.2459255e-13
92	0xab368aae	-6.4851846e-13
93	0xab39eea2	-6.605637e-13
94	0xab355004	-6.441516e-13
95	0xab34e280	-6.426318e-13
96	0xab29f6b1	-6.0383214e-13
97	0xab433feb	-6.936662e-13
98	0xab48eeba	-7.1385573e-13
99	0xab45f0ca	-7.032262e-13

conv_long.bias f4 [10]
0	0x2a511e50	1.8573446e-13
1	0xb985123b	-0.0002538132
2	0xb667bf58	-3.453306e-06
3	0x28555088	1.1841338e-14
4	0x289f57ef	1.7690681e-14
5	0xa635df81	-6.3099894e-16
6	0x2785deef	3.715662e-15
7	0x2e3b8c16	4.26433e-11
8	0xa839700d	-1.029386e-14
9	0x2b858a01	9.488522e-13

conv1.weight f4 [30, 30]
0	0x21dcecbb	1.4970442e-18
1	0xa23cc73d	-2.5584227e-18
2	0x239ee2ce	1.722645e-17
3	0xbbd89871	-0.0066099693
4	0x2702bea1	1.8144464e-15
5	0xa1dc64c7	-1.4934455e-18
6	0xa91b7ea6	-3.4526764e-14
7	0x22a4ce74	4.467088e-18
8	0x269ac833	1.0740161e-15
9	0x22ffb27f	6.930688e-18
10	0xacbd8276	-5.386187e-12
11	0x216b7c28	7.9785416e-19
12	0xa20f0544	-1.9382901e-18
13	0x35aa05d4	1.2667683e-06
14	0x23d7a1ea	2.337892e-17
15	0xa0165243	-1.2732712e-19
16	0xa3cd1e14	-2.2238883e-17
17	0x235c739a	1.19507035e-17
18	0xb266ee31	-1.34419205e-08
19	0x329d6f45	1.8327805e-08
20	0x20b67cf8	3.0914697e-19
21	0xac86e24a	-3.833632e-12
22	0x20833c4c	2.2232164e-19
23	0xa1cb04ff	-1.3757138e-18
24	0xa55d14ff	-1.9175808e-16
25	0x2afaadbf	4.4529482e-13
26	0xa294763a	-4.0240658e-18
27	0x393130c6	0.00016898205
28	0x224071f2	2.6081174e-18
29	0xa2046093	-1.7940462e-18
30	0x23c6b44f	2.1543567e-17
31	0xa246e6bd	-2.6956156e-18
32	0x1f4840b0	4.2405156e-20
33	0xa127e8c0	-5.6889843e-19
34	0xa8948d51	-1.6492587e-14
35	0x2374846e	1.32553096e-17
36	0x223c6a90	2.5535165e-18
37	0x20d17854	3.5485604e-19
38	0xa9b36c96	-7.9680335e-14
39	0xa9bb74d8	-8.3247374e-14
40	0x21cf601b	1.4052305e-18
41	0x22184646	2.0637044e-18
42	0x2908cf5d	3.0377925e-14
43	0xa8a24b52	-1.8018278e-14
44	0x21869295	9.118993e-19
45	0x25815960	2.2438496e-16
46	0x21894a8a	9.303211e-19
47	0xa2a21e9a	-4.394259e-18
48	0x21dd8405	1.5010488e-18
49	0x27ee18ba	6.608508e-15
50	0x22e9ae83	6.333955e-18
51	0x22138564	1.9992831e-18
52	0xa86db3fa	-1.3195169e-14
53	0x29b804a8	8.172049e-14
54	0x217aff90	8.504153e-19
55	0x20e0b261	3.8065117e-19
56	0x25b0effa	3.0693748e-16
57	0xa21c4315	-2.1177455e-18
58	0xa1891c12	-9.290911e-19
59	0xa911c866	-3.2370286e-14
60	0x245c5fce	4.7786045e-17
61	0x224704e0	2.697211e-18
62	0xa0e5d87a	-3.893736e-19
63	0x218fd324	9.745945e-19
64	0x27e5ed84	6.3817783e-15
65	0xa34a4cb7	-1.0966687e-17
66	0x222628a9	2.251872e-18
67	0x1fcbb350	8.627049e-20
68	0xa983f95a	-5.860824e-14
69	0xa9af9cd6	-7.798768e-14
70	0x2047eeac	1.6934926e-19
71	0x2196b46d	1.0212154e-18
72	0x28414b06	1.072992e-14
73	0xa7b13612	-4.918599e-15
74	0xa0e524ca	-3.8818454e-19
75	0xa4d10cf6	-9.066126e-17
76	0x21b5eaec	1.232722e-18
77	0xa2ae154f	-4.7185356e-18
78	0xa1f514a4	-1.6607309e-18
79	0x290356e9	2.9163226e-14
80	0xa3afa644	-1.9043954e-17
81	0xa2a16aea	-4.3752337e-18
82	0x233aaa00	1.0119079e-17
83	0x29b6af74	8.11286e-14
84	0xa0e314a8	-3.8468965e-19
85	0xa1d4acfa	-1.4411465e-18
86	0x25c1c8e4	3.3616292e-16
87	0x22286267	2.282034e-18
88	0x21df2318	1.5120357e-18
89	0xa707abc0	-1.882812e-15
90	0xa1c2c8e4	-1.3199127e-18
91	0x21a20272	1.0978194e-18
92	0xa143b9cb	-6.6314465e-19
93	0x2215e7d2	2.031599e-18
94	0xa8b9fb10	-2.0648007e-14
95	0xa2243984	-2.2256593e-18
96	0xa100cc6c	-4.3638637e-19
97	0xa2410d90	-2.6163557e-18
98	0x26c44448	1.361874e-15
99	0x28fcf950	2.8085742e-14
100	0x21405887	6.5169295e-19
101	0x1f367488	3.863639e-20
102	0x28297e00	9.4087065e-15
103	0xa864c4f1	-1.2699247e-14
104	0x20ad9fe0	2.9413136e-19
105	0x25a8c010	2.92735e-16
106	0xa1330dce	-6.066583e-19
107	0x2182c0d9	8.860189e-19
108	0x21e812a5	1.5725867e-18
109	0xa8678d39	-1.2853699e-14
110	0xa2679f3c	-3.1390636e-18
111	0x22acda33	4.685172e-18
112	0xa6968a8f	-1.0445897e-15
113	0xa8d03cf9	-2.3119082e-14
114	0xa13e8c48	-6.4560165e-19
115	0xa18cfea9	-9.554177e-19
116	0x26aad217	1.1853065e-15
117	0x223c77b2	2.5542117e-18
118	0xa1a550b3	-1.1202196e-18
119	0xa6d2d674	-1.4629805e-15
120	0xa0b74ba4	-3.105146e-19
121	0xa22a413f	-2.3073837e-18
122	0xa2def8e5	-6.0436748e-18
123	0xb15a3d00	-3.175785e-09
124	0x2242bf72	2.6393253e-18
125	0x21c1f0a4	1.3141886e-18
126	0xa3722b74	-1.3128048e-17
127	0xa166f694	-7.8253375e-19
128	0xa2482a11	-2.7127324e-18
129	0xa1a28780	-1.1013414e-18
130	0x235464de	1.15139025e-17
131	0x23d61585	2.321104e-17
132	0x21b89613	1.2508049e-18
133	0x242569a5	3.5868156e-17
134	0xa30717cf	-7.323406e-18
135	0x9fc408b0	-8.30236e-20
136	0xa380424e	-1.3905869e-17
137	0xa3e234d5	-2.4525344e-17
138	0xa3ae86f0	-1.8922266e-17
139	0xa3da0b54	-2.3640405e-17
140	0x20c06e18	3.259892e-19
141	0xa1777280	-8.3838395e-19
142	0x2113651c	4.9939354e-19
143	0xa344722f	-1.0649361e-17
144	0xa31697b4	-8.163641e-18
145	0x23ec7d34	2.5640197e-17
146	0xa2a1c490	-4.3847256e-18
147	0xa502cbba	-1.1344728e-16
148	0x20bf6f88	3.2430464e-19
149	0x21673912	7.8341376e-19
150	0xa255558d	-2.8912173e-18
151	0xa157550c	-7.295739e-19
152	0xa2f9930e	-6.7647285e-18
153	0x30def949	1.6223477e-09
154	0xa194bd6a	-1.0079008e-18
155	0x2225fb95	2.2494856e-18
156	0xa3b82db6	-1.996868e-17
157	0x22959579	4.054479e-18
158	0xa1de3668	-1.5057706e-18
159	0xa38eaa3b	-1.5467766e-17
160	0x238c9f83	1.5246386e-17
161	0x241557af	3.2383496e-17
162	0x21e10c66	1.5249875e-18
163	0x23eb50fd	2.5513051e-17
164	0xa3004f04	-6.955626e-18
165	0xa21a17ad	-2.0883426e-18
166	0xa3668593	-1.24966104e-17
167	0xa402a4f5	-2.832898e-17
168	0xa3e8621a	-2.5195038e-17
169	0xa364f9d4	-1.2412808e-17
170	0x2270ab3c	3.2616716e-18
171	0x23d43629	2.3008024e-17
172	0xa1a3b541	-1.1093287e-18
173	0xa32dd1bb	-9.422761e-18
174	0xa3039da2	-7.134904e-18
175	0x2429587b	3.672098e-17
176	0x223b568d	2.5389045e-18
177	0xa5830493	-2.2727977e-16
178	0xa185b68a	-9.060748e-19
179	0xa1991da0	-1.0375525e-18
180	0x2bc6afac	1.4117505e-12
181	0xa948cc80	-4.4586296e-14
182	0xa565185d	-1.9870838e-16
183	0xbcc7037d	-0.024293656
184	0x30c85789	1.4576794e-09
185	0xa8a98a34	-1.8822705e-14
186	0xa09780f1	-2.566572e-19
187	0x25728e29	2.103832e-16
188	0x3badca00	0.0053036213
189	0xbd06cdea	-0.03291122
190	0x2d640b5c	1.2962822e-11
191	0xa27c36bc	-3.4181345e-18
192	0x2da90963	1.9217244e-11
193	0x3a498138	0.00076867966
194	0xaabd4a7a	-3.3624823e-13
195	0xab9336a6	-1.0460146e-12
196	0x294293db	4.3204898e-14
197	0x2c32b836	2.539758e-12
198	0x23b2a5dc	1.9369043e-17
199	0xba1bff11	-0.00059507886
200	0x2a544c48	1.8855848e-13
201	0x219661df	1.0190302e-18
202	0x31a0b318	4.6769735e-09
203	0x3a170310	0.0005760649
204	0xaba09896	-1.1411035e-12
205	0x2d102dd6	8.19563e-12
206	0x302c2b63	6.263489e-10
207	0xb8de5ca9	-0.00010603044
208	0x2a21307c	1.4316494e-13
209	0xb4466e34	-1.8480279e-07
210	0xa2cf13d0	-5.612844e-18
211	0xa30dfdf2	-7.6974e-18
212	0xa159dff6	-7.381887e-19
213	0x21eb1e58	1.5932251e-18
214	0x218820c4	9.224391e-19
215	0x21c69f9c	1.345925e-18
216	0xa1c81708	-1.3558623e-18
217	0x212b0448	5.794272e-19
218	0x22ae575b	4.7255286e-18
219	0x2063c1b1	1.9291735e-19
220	0x2206d83c	1.827486e-18
221	0xa17880ac	-8.4195964e-19
222	0x22761ac3	3.3353384e-18
223	0xa1dcbeb4	-1.4958259e-18
224	0x219f67ba	1.0801715e-18
225	0xa19ae69a	-1.0496486e-18
226	0x220d86f8	1.9180515e-18
227	0xa3795d28	-1.3518044e-17
228	0xa2a13a50	-4.370088e-18
229	0x216516f8	7.7618617e-19
230	0xa209948c	-1.8645602e-18
231	0x22479219	2.7046872e-18
232	0x21e096d5	1.5218755e-18
233	0xa114ebd2	-5.0456456e-19
234	0x21318d3e	6.0156865e-19
235	0xa1514dfb	-7.091516e-19
236	0x22b98fa1	5.0296423e-18
237	0xa35e7acd	-1.2060648e-17
238	0xa28bd75a	-3.7904038e-18
239	0xa175bcba	-8.3259006e-19
240	0x227e0fbf	3.4431755e-18
241	0xa2feddba	-6.90816e-18
242	0x2149a966	6.8325646e-19
243	0xa293a0b1	-4.001457e-18
244	0xa1c67959	-1.3449122e-18
245	0x2281d43e	3.519024e-18
246	0x2235207a	2.4547267e-18
247	0x21e4d8b6	1.5507244e-18
248	0x21f70f25	1.674138e-18
249	0xa165292a	-7.76427e-19
250	0x1fe5dd90	9.735182e-20
251	0xa23964a0	-2.5125446e-18
252	0xa284d619	-3.6005356e-18
253	0xa2a0d7a1	-4.3596393e-18
254	0x212862bc	5.705129e-19
255	0xa1ba2d2f	-1.261581e-18

conv1.bias f4 [30]
0	0x2c5eb7f6	3.1650216e-12
1	0xa6f3d514	-1.6919267e-15
2	0xa78ae22a	-3.85479e-15
3	0xbc89f39c	-0.016839795
4	0x32891d21	1.5962145e-08
5	0x29696beb	5.1829997e-14
6	0xb68f3b2c	-4.2686206e-06
7	0xa6c1bdb9	-1.344349e-15
8	0x3de969b6	0.11397116
9	0x3dd2de5b	0.10296317
10	0xba52ddbc	-0.0008043905
11	0x2f124948	1.3304657e-10
12	0xaeef28bc	-1.08756976e-10
13	0x3cd08da8	0.025458172
14	0xad563f14	-1.2178498e-11
15	0xacc27782	-5.5270797e-12
16	0x290d4509	3.1368168e-14
17	0xaf88c823	-2.4880462e-10
18	0xb834d149	-4.3110256e-05
19	0x3d7510ad	0.059830356
20	0x2addefaf	3.94238e-13
21	0xb775c791	-1.4649603e-05
22	0x32606d76	1.3063405e-08
23	0x3dbfe9ac	0.09370741
24	0xac604767	-3.187195e-12
25	0xba70c3fc	-0.00091844774
26	0x31177035	2.2037174e-09
27	0xbcc9cf89	-0.024635093
28	0x286e38b5	1.322395e-14
29	0x367a573d	3.7303682e-06

conv2.weight f4 [30, 10]
0	0x21ad6b9e	1.1751422e-18
1	0x224265a0	2.6345703e-18
2	0xab56a33f	-7.625462e-13
3	0xa43cb397	-4.091812e-17
4	0xa1b21568	-1.2067415e-18
5	0x20919c10	2.466723e-19
6	0xa2db1c4b	-5.9390025e-18
7	0xa65a3584	-7.570647e-16
8	0x217cabee	8.560847e-19
9	0x201f3ce8	1.3487976e-19
10	0x21a53e84	1.1197383e-18
11	0xa2ad0241	-4.689413e-18
12	0xa91fdeca	-3.549833e-14
13	0x2fd72198	3.9132142e-10
14	0x226ebb78	3.235426e-18
15	0x2175a50e	8.3227677e-19
16	0x245e43f6	4.819614e-17
17	0x213b9a69	6.3562425e-19
18	0x216b2f77	7.9683916e-19
19	0x228392f3	3.566321e-18
20	0xa3bed236	-2.0688869e-17
21	0x21365b03	6.178445e-19
22	0x27e65570	6.3930455e-15
23	0x27fe3b3c	7.0563384e-15
24	0xa0c79972	-3.3813453e-19
25	0xa2058c87	-1.8099256e-18
26	0x2148c254	6.8019827e-19
27	0x20cc55e6	3.4615787e-19
28	0x262bc19c	5.958993e-16
29	0x28690d23	1.2936947e-14
30	0xa929e5b4	-3.7724774e-14
31	0xa1b6ad28	-1.2378634e-18
32	0xb8382fcc	-4.3913533e-05
33	0xba578254	-0.00082210195
34	0xb01e5c12	-5.7610905e-10
35	0xb15021a6	-3.028711e-09
36	0xb73c14e1	-1.12105345e-05
37	0xa31cd4ac	-8.501812e-18
38	0xb606959c	-2.005464e-06
39	0xba9491a5	-0.0011334909
40	0xa0b97cec	-3.1422885e-19
41	0x21c84bdc	1.3572607e-18
42	0x300d7ea0	5.1475446e-10
43	0xb31e52bb	-3.6862485e-08
44	0xa06e82da	-2.0202679e-19
45	0x21e08032	1.5212763e-18
46	0x2207d10a	1.8406576e-18
47	0x2bbbbae1	1.3339018e-12
48	0xa210b793	-1.9612822e-18
49	0x221ec6b4	2.1518185e-18
50	0x21292b16	5.731645e-19
51	0xa3a4272e	-1.7797509e-17
52	0x28cc5762	2.2686446e-14
53	0x2a935538	2.6171578e-13
54	0x20e4a236	3.8732045e-19
55	0x21f3da6e	1.6524138e-18
56	0x23094d62	7.443171e-18
57	0x288342b6	1.4572853e-14
58	0xa1f7379c	-1.6752091e-18
59	0xa1352eda	-6.1387193e-19
60	0xa25e7287	-3.014724e-18
61	0x20b20380	3.015669e-19
62	0xa126ef60	-5.65598e-19
63	0xb33feded	-4.4687045e-08
64	0xa637fef4	-6.3836405e-16
65	0xa4b1f748	-7.7180425e-17
66	0x258da669	2.4572365e-16
67	0xa2083d8e	-1.8464024e-18
68	0x22dadc32	5.932216e-18
69	0xab0a30f1	-4.909537e-13
70	0x22e5352a	6.2126864e-18
71	0xa0e5e210	-3.8943705e-19
72	0xa78c192e	-3.8885106e-15
73	0xa6c50755	-1.3671608e-15
74	0x1f09b6e0	2.916215e-20
75	0xa212b10c	-1.9880417e-18
76	0xa25bd7f0	-2.979435e-18
77	0x297b9356	5.586099e-14
78	0x2350124b	1.1279576e-17
79	0xa30bfb4c	-7.588419e-18
80	0xb99580e8	-0.00028515537
81	0xb627d2a8	-2.5007557e-06
82	0xbe1effc5	-0.15527256
83	0xbe5af8f9	-0.21384038
84	0xa94351ae	-4.3369544e-14
85	0x2c195170	2.1787815e-12
86	0xb54f8ae5	-7.731563e-07
87	0xbb2c3d32	-0.0026281592
88	0xbd2bf365	-0.041980166
89	0xbde38bdd	-0.11110661
90	0x24f669c6	1.0686468e-16
91	0xb47fc309	-2.3819679e-07
92	0xbdc1956a	-0.094523266
93	0xbc38c45b	-0.011277284
94	0xa10b4caf	-4.719652e-19
95	0xa1cf20dd	-1.4035564e-18
96	0x2065bf48	1.9460344e-19
97	0xbc118d33	-0.008883762
98	0xb807441e	-3.2249947e-05
99	0xba66368b	-0.0008781931
100	0x2976a7c5	5.476849e-14
101	0x20cf5a68	3.512699e-19
102	0xa288ae6c	-3.704755e-18
103	0xa5c396c0	-3.392926e-16
104	0x20a06374	2.7170867e-19
105	0xa33e53c4	-1.0317659e-17
106	0xa2aaddd2	-4.6313454e-18
107	0x21bdf948	1.2873122e-18
108	0xb4ccaa1b	-3.812173e-07
109	0xb84b8662	-4.8524125e-05
110	0xa0e71ccb	-3.9151976e-19
111	0x22413c26	2.618822e-18
112	0xa17a0307	-8.47073e-19
113	0x22bb3465	5.0741926e-18
114	0x21a3afff	1.1091895e-18
115	0x2140ccf0	6.5323363e-19
116	0xa1a65399	-1.1270726e-18
117	0xa08b1bc8	-2.35659e-19
118	0xa0895fbc	-2.3272054e-19
119	0x212c345a	5.8345153e-19
120	0xa1013aba	-4.3784624e-19
121	0x261a9307	5.362874e-16
122	0x2f39cb28	1.6897828e-10
123	0x2d9fdbe2	1.8173855e-11
124	0x205cf2a8	1.8715013e-19
125	0xa141f573	-6.5715793e-19
126	0x22180f30	2.0607881e-18
127	0x2b0b453a	4.947879e-13
128	0xa18bc805	-9.471951e-19
129	0xa0847d38	-2.2444533e-19
130	0xb7644a2c	-1.36071285e-05
131	0x2b39502a	6.5836453e-13
132	0xbd2dcb7f	-0.042430397
133	0xbd076990	-0.033059657
134	0xa79b6920	-4.313512e-15
135	0x28622ab4	1.255478e-14
136	0x2e243b86	3.734215e-11
137	0xb80aada0	-3.3063465e-05
138	0xbc6ef28b	-0.014584194
139	0xbd4bff84	-0.049804226
140	0xa4c64b19	-8.599603e-17
141	0x2212922d	1.9864074e-18
142	0xac1c0d3a	-2.2176276e-12
143	0xae3c9a07	-4.2883055e-11
144	0x2120f3a8	5.4532585e-19
145	0x21a61d48	1.1256348e-18
146	0xa0cfd38c	-3.5207154e-19
147	0x22185401	2.0644313e-18
148	0xa9b286cd	-7.928172e-14
149	0x2eabf84a	7.820285e-11
150	0x200fa93c	1.2168566e-19
151	0x2973b21a	5.4111317e-14
152	0x2a92b5b4	2.6060892e-13
153	0x2d2e61da	9.912482e-12
154	0x22129df8	1.9870318e-18
155	0x21021f98	4.4087527e-19
156	0xa1a29f19	-1.101966e-18
157	0xa9a41721	-7.287075e-14
158	0xa0d5ab8c	-3.6197124e-19
159	0x225903aa	2.9410924e-18
160	0x21cbe49f	1.3816331e-18
161	0x22098280	1.8636048e-18
162	0x27d20498	5.829169e-15
163	0xa840d8b6	-1.0705133e-14
164	0x22fd45ca	6.864968e-18
165	0x222f3ba0	2.3748488e-18
166	0x22fdc24c	6.8781507e-18
167	0xa18fa8ea	-9.734768e-19
168	0x20a2ba54	2.756717e-19
169	0x222d8c33	2.3520093e-18
170	0xa55583d0	-1.8519465e-16
171	0xa2438134	-2.6495828e-18
172	0x2371a188	1.3098842e-17
173	0xaf6d9036	-2.1606258e-10
174	0x20d514c2	3.609734e-19
175	0xa0c0884a	-3.2616254e-19
176	0xa233d362	-2.4370929e-18
177	0xa0bdac68	-3.2131934e-19
178	0xacc5062c	-5.599762e-12
179	0xb4fbf37e	-4.6929557e-07
180	0xa2c087f2	-5.218564e-18
181	0xa0f69305	-4.177131e-19
182	0x210266d5	4.418181e-19
183	0xbb3ddd2b	-0.0028970938
184	0x2f42dd93	1.7722916e-10
185	0xb126499b	-2.419802e-09
186	0xb7143b0a	-8.8352335e-06
187	0xa16b6bbd	-7.976369e-19
188	0x24077d29	2.9379473e-17
189	0x39626cb9	0.00021593542
190	0xb9a0ba1d	-0.00030656243
191	0x309811e9	1.1064546e-09
192	0xbdbd78ee	-0.09251581
193	0xbdb98904	-0.09059337
194	0xa41868d9	-3.3048555e-17
195	0x25079980	1.1761391e-16
196	0x2b088887	4.8506376e-13
197	0xbbc6bc54	-0.006064931
198	0xbd424044	-0.04742457
199	0xbdfaf0de	-0.12252973
200	0x2085b5da	2.2651416e-19
201	0xa130f234	-5.9951673e-19
202	0x2af07806	4.2715847e-13
203	0xa19b6d95	-1.0532215e-18
204	0x21b768cb	1.2428301e-18
205	0x20eec058	4.044605e-19
206	0x228436cc	3.583669e-18
207	0xa4d5947e	-9.262558e-17
208	0xa0459f4c	-1.6739256e-19
209	0xa18b8b86	-9.455938e-19
210	0x22103b01	1.9546876e-18
211	0xa21ae320	-2.099113e-18
212	0x233ba6d0	1.0172614e-17
213	0xb3a2ebf8	-7.586635e-08
214	0xa6125ca2	-5.0779466e-16
215	0xa55c913a	-1.9131163e-16
216	0x273b108a	2.596043e-15
217	0x21b8ba05	1.2517564e-18
218	0x22d98229	5.895578e-18
219	0xaae9c5e3	-4.1526426e-13
220	0xa130290d	-5.968545e-19
221	0xa2aa37a9	-4.6137525e-18
222	0xb3bd1fcd	-8.806783e-08
223	0xb00e3b87	-5.174389e-10
224	0xa18103ca	-8.742383e-19
225	0xa12397af	-5.54273e-19
226	0x225335b0	2.8624254e-18
227	0xa5cdda8c	-3.5709924e-16
228	0x2101d071	4.398277e-19
229	0x2184c77f	8.997474e-19
230	0xa1b7d1f8	-1.2456141e-18
231	0xb90f2c10	-0.00013653957
232	0xbcc2afc8	-0.02376546
233	0xbce97d83	-0.028502231
234	0xa0c78f08	-3.3806561e-19
235	0xa0da8b72	-3.7022914e-19
236	0x209b3748	2.6294603e-19
237	0xbad3c84d	-0.0016157717
238	0x21296564	5.7393617e-19
239	0x21aac028	1.1570511e-18
240	0xa2853b94	-3.6112803e-18
241	0x211e1441	5.355929e-19
242	0xab7891a4	-8.8309416e-13
243	0x2d10950d	8.218548e-12
244	0xa2462f91	-2.6859185e-18
245	0x22686c12	3.1499075e-18
246	0xa32ee83a	-9.481735e-18
247	0x29eb2048	1.0441696e-13
248	0xa2aa6e6e	-4.6195514e-18
249	0x230fef72	7.80275e-18
250	0x2ebdd550	8.632617e-11
251	0xa1626317	-7.6702923e-19
252	0xa36ba443	-1.2774159e-17
253	0x23fc3734	2.7345274e-17
254	0x21626609	7.670682e-19
255	0x2169b507	7.918306e-19

conv2.bias f4 [10]
0	0xba91057f	-0.001106426
1	0xbc1bcd69	-0.009509423
2	0xbc67f72d	-0.014158052
3	0xbe060420	-0.13087511
4	0xba4d2738	-0.00078259734
5	0xba737b51	-0.000928809
6	0xbb3d178c	-0.0028853146
7	0xb9abf0f7	-0.00032795194
8	0xbd330bc5	-0.043712396
9	0xbd399597	-0.045308676

rnn.weight_ih_l0 f4 [30, 1]
0	0xbe537545	-0.20650204
1	0x3e18e5ae	0.14931366
2	0xbec54392	-0.38528115
3	0xbd6f076d	-0.05835669
4	0xbddc3ca4	-0.10753754
5	0x3eafb3ce	0.34316868
6	0x3dedb48a	0.11606701
7	0xbedb1eab	-0.42796835
8	0xbe82464c	-0.25444257
9	0xbc93a4d8	-0.01802294
10	0x3f3f847a	0.7481152
11	0x3d801af6	0.062551424
12	0x3c06f415	0.008236905
13	0x3e81a74e	0.25322956
14	0xbe722466	-0.23646697
15	0x3d466ede	0.048445575
16	0xbdacccda	-0.0843751
17	0xbda45a0e	-0.08024989
18	0xbba13eeb	-0.0049208305
19	0xbca1d032	-0.019752596
20	0xc096168d	-4.690253
21	0x3faf05db	1.3673662
22	0x3c9603b6	0.018312316
23	0xbd86c85a	-0.06581183
24	0xbda27a29	-0.079334565
25	0xbf5c0a75	-0.85953456
26	0x40412bd5	3.0183003
27	0x3e514d3b	0.20439617
28	0x3c40b87e	0.011762736
29	0xbd27a0a0	-0.04092467
