colagnn-master-Run-Epi/src/save/cola_gnn_epi.us_regions.w-20.h-1.RNN.lam-1.0.epo-500.pt (torch, 52278 bytes, 32 tensors)

V f4 [15]
00000000: bbf7 3cbe 090a 4abe 3899 5d3b 6e76 e83e
00000010: f7a9 933d f4c3 72be 5f7d b5be d78e f0bd
00000020: aba1 363f 63e7 e3be 7bc9 45bf a501 41bd
00000030: b870 27be 1b75 1bbf 8b77 70be
-0.18453877 -0.1973039 0.003381325 0.45402855 0.072101526 -0.23707563 -0.35447213 -0.117459945
0.71340436 -0.44512472 -0.7726056 -0.04712071 -0.16351593 -0.60725564 -0.23483102

W1 f4 [15, 30]
00000000: f92d a73e 6bce a3be c75f a7be 9647 a6be
00000010: 7f0a a1be 3154 a83e 5958 a13e 3f3c a73e
00000020: e8f7 a5be 4abd a83e 61b8 a83e ee35 a2be
00000030: 3969 a63e bfea a6be 8191 a8be 3b5d a9be
00000040: fb73 9bbe d537 a63e abc5 963e 484a a33e
00000050: 6e5e 8f3e 0cc9 243e cdbb a4be 0aba a43e
00000060: 6d66 a7be 9c83 8fbe dcc2 9a3e d528 9dbe
00000070: 317a a6be 8a60 a73e b9fd e6bd a8d3 c73b
00000080: ad15 143b 7be7 0abe c58e 3fbd 6fb8 0dbd
00000090: 20d9 0e3e 823c 30be 6eb7 adbd b4a4 3f3d
000000a0: bf47 b0bd b125 21bd 0c60 e83d 9b91 a5bd
000000b0: 7c8c b5bd 2050 aebd 2d5b 06bd 7596 7b3d
000000c0: b68a 273d b4a3 7f3d 1f20 253b e06b 7f3a
000000d0: b62d b0bd ebb1 bd3d e2ac a93d ed68 1c3b
000000e0: 3864 203d 0a56 dcbc 2393 e4bd 1f3f 183d
000000f0: af0e acbd 1c2c a93d 1be1 b93d 52d3 a03d
00000100: 4761 a53d 626b aebd 42bd 95bd 0ff1 b0bd
00000110: b63c 993d 163f a8bd ec9c aebd 3f92 a63d
00000120: 6699 9fbd ea39 aa3d 7823 a53d d4ce bb3d
00000130: 4dee 9e3d 0777 a0bd 8132 98bd e558 a8bd
00000140: 22b1 8dbd 20fa 2ebd 4d97 a73d cbfb 97bd
00000150: 77c7 b13d 3fe7 8d3d 4218 9ebd bf2e a13d
00000160: c29f a73d 458f a9bd 8e6d c1be 6e7a b23e
00000170: c320 b83e 4149 bf3e 5020 b13e be48 bbbe
00000180: 2549 c2be 56a2 c1be 6889 c03e b340 bdbe
00000190: 730d bbbe 870e b23e 3a42 bfbe df6b b73e
000001a0: 2f70 be3e 9ae3 b83e e1d5 ac3e bf4f c2be
000001b0: a8ec aabe 834c b1be a1db a7be 7fc6 1ebe
000001c0: c3de a33e 2fb4 c0be 90a8 c03e a2af a73e
000001d0: 07ae abbe bad5 ad3e dbf8 b73e 2a0f b8be
000001e0: be7d e7bd 436f d43d 1e8a e03d c138 e23d
000001f0: ad50 ce3d 1984 e1bd f509 e0bd 728b e6bd
00000200: 2fa1 e03d f37f e1bd a2e9 e0bd 0d7a d03d
00000210: 851a e1bd 2fea da3d a285 e23d e227 e23d
00000220: fabd c43d 1368 e3bd cc7b bdbd 9e1b d3bd
00000230: 3b60 b3bd 65de 57bd 3915 c83d 8ebc e0bd
00000240: e7e9 e63d 7169 b33d 4f39 c4bd 4578 c73d
00000250: f762 db3d 91b5 dbbd 99d6 ffbd c322 2f3d
00000260: ec8f bb3c b737 bdbd 86c2 dfbc 7c51 debd
00000270: b47d 333e 85b4 53be cd12 1cbe ed51 913d
00000280: 4936 94bd 8eec 4bbd 61cc d13d 11ba a3bd
00000290: cc7e 9ebd 0a4b cfbd 7aeb f8bb b170 f43d
000002a0: 2a3d a03c 47f2 533d ae8a 26ba ee4d eeba
000002b0: 3b9a e9bd b5c0 ff3d 612f b73d 5bc7 173b
000002c0: ca6a b13c 4431 0abb af7d 63bd 1373 493d
000002d0: 7d76 bd3d 02bf 19bd e3ea 29bd 4690 b4bd
000002e0: 6ebf 95bc 1065 9b3d 251e bf3d 4cbe bd3d
000002f0: 99d1 b6bd 2df2 a13d 1be3 943d 9a2a c8bc
00000300: b3e1 af3d 47e3 65bd 7ae4 a9bd 1d3a 30bd
00000310: 4d68 243b a8f0 bd3d 5204 37bc 53f9 153d
00000320: ed1d 173c 0dda 1f3b c5eb 95bd 7486 b73d
00000330: 5f1f b5bd a042 09bc adf6 bfba f0f8 d2ba
00000340: 5db7 74bd fab8 6e3d 8bc3 d9bd c637 1a3d
00000350: b6e0 753d 2683 403c ff1e 023d d336 73bd
00000360: f07b 5f3d a275 f2bd 9f20 c7bc 8552 e5bb
00000370: 984c 7ebd ba0f 0a3d 6b77 a33c c9e7 bc3c
00000380: d954 41bb 2a15 453d af4b 273d fdc7 2ebc
00000390: aa31 20bd 18e8 f5bc 1b4d 1bbd 2f68 d2bc
000003a0: 6028 033c 4207 8a3d a8fd 9e3d f694 1b3d
000003b0: 0331 14bd 45ce 2b3d 48da d0bb 383b 54bc
000003c0: f7b2 76be 1ea8 073e 72fd 0e3e e42e 6b3e
000003d0: 0388 d03d 3bfb 4fbe ffb1 78be cb4c 77be
000003e0: 062c 6e3e 4ca9 56be 5fca 49be 776a e53d
000003f0: a905 66be c164 293e 6917 5f3e 2a10 133e
0.32652262 -0.31993422 -0.3269026 -0.3247649 -0.3145332 0.32876733 0.31512716 0.32663152
-0.324157 0.32956916 0.3295317 -0.3168177 0.32502154 -0.32600972 -0.3292351 -0.33078942
-0.30361924 0.3246447 0.29447684 0.3189261 0.28001732 0.16092318 -0.3217453 0.32173187
-0.32695332 -0.28030097 0.3022679 -0.30695215 -0.325151 0.3269084 -0.112788625 0.0060982294
0.0022595928 -0.13564865 -0.046767015 -0.034599718 0.13950014 -0.17210582 -0.08482252 0.046787933
-0.086074345 -0.039342586 0.113464445 -0.08084413 -0.08864686 -0.085113764 -0.032801796 0.061422784
0.04090377 0.06241198 0.0025196148 0.00097435527 -0.08602469 0.09262451 0.08284928 0.0023866252
0.039158076 -0.026896495 -0.111608766 0.037169572 -0.08401238 0.08260366 0.090761386 0.07852806
0.08075195 -0.085165754 -0.07311489 -0.08639728 0.07482283 -0.08215158 -0.08526024 0.08133363
-0.0779293 0.083118275 0.08063406 0.09170309 0.07760296 -0.07835203 -0.07431508 -0.0822008
-0.06918551 -0.042719007 0.08183155 -0.074210726 0.08680623 0.06928872 -0.077194706 0.07870244
0.08184768 -0.082792796 -0.37778896 0.3485903 0.35962495 0.37360576 0.34594965 -0.36578935
-0.3794643 -0.37819165 0.37604833 -0.36963424 -0.36533698 0.34776708 -0.37355214 0.35824487
0.37194964 0.36111146 0.33756927 -0.37951466 -0.3338368 -0.34628686 -0.3278475 -0.15505408
0.3200589 -0.3763747 0.37628603 0.32751185 -0.3353121 0.33952123 0.3593205 -0.3594907
-0.1130328 0.10372784 0.10963844 0.11045981 0.100739814 -0.11011524 -0.10939399 -0.11257066
0.10968243 -0.110107325 -0.10982062 0.10179529 -0.10991386 0.10689198 0.11060645 0.11042763
0.09606548 -0.11103835 -0.09252128 -0.10308002 -0.08758589 -0.052702326 0.09769673 -0.10973464
0.11275082 0.08760346 -0.09581243 0.097397365 0.107122354 -0.107279904 -0.12492103 0.04275776
0.022895776 -0.092391424 -0.027314436 -0.10855386 0.1752842 -0.20674331 -0.15241547 0.07095704
-0.072369166 -0.049786143 0.1024406 -0.07994474 -0.07739028 -0.101217344 -0.0075964304 0.11935557
0.019560415 0.051744726 -0.00063530623 -0.0018181184 -0.1140637 0.12487928 0.08944584 0.0023159597
0.021657366 -0.0021086494 -0.055539783 0.04918201 0.092511155 -0.037535675 -0.04148377 -0.088165805
-0.018279757 0.075876355 0.093319215 0.09264812 -0.08926696 0.079075195 0.072698794 -0.024434377
0.085879706 -0.05612495 -0.082955316 -0.04302417 0.0025086582 0.09274417 -0.011170464 0.036614727
0.009223443 0.0024391443 -0.0732036 0.08961192 -0.08843874 -0.008377701 -0.0014645659 -0.0016095918
-0.05974518 0.058281876 -0.10633 0.037650846 0.060028754 0.011750018 0.03176784 -0.059378456
0.054561555 -0.11838843 -0.024307547 -0.0069983625 -0.062084764 0.033706404 0.019954404 0.023059743
-0.0029500036 0.048115887 0.040843662 -0.010667798 -0.039109863 -0.030017897 -0.03791533 -0.025684444
0.008005232 0.067396656 0.07763225 0.037983857 -0.036179554 0.04194476 -0.0063736774 -0.012953572
-0.24091707 0.13247725 0.13963869 0.22967106 0.10182192 -0.2031068 -0.2428665 -0.24150388
0.23258981 -0.20963019 -0.19706105 0.11201947 -0.22463097 0.16542341 0.21786274 0.14361635

b1 f4 [15]
00000000: 0afb afbe 28fd 3dbe 925b c53d 2874 d33e
00000010: d5a8 023e 26b0 55be a003 dbbd 45d4 debc
00000020: f8cd 823e 96df aabe ea0c 14be b0a9 bab8
00000030: 8953 f5bd 8cae dfbe 7bc9 7ebe
-0.34371215 -0.18553603 0.09636606 0.41299558 0.12759717 -0.20867977 -0.10694051 -0.027200827
0.25547767 -0.33373708 -0.14458051 -8.900778e-05 -0.11978824 -0.43687856 -0.24881546

W2 f4 [15, 30]
00000000: b97b a83e 8d45 a7be 1f63 a5be 3eb8 aabe
00000010: 8c30 a0be 81e5 a93e b259 a43e 4a61 a83e
00000020: c3a6 a5be aa73 a83e f3fb a93e a698 a0be
00000030: c0cb a53e d45d a7be 7320 a8be 4caf aabe
00000040: 0219 9ebe 0299 a53e 485c 983e 1d2d a33e
00000050: d4f3 913e 0a00 fe3e 8021 a5be ac70 a53e
00000060: 380f a9be 73c4 91be 85ff 9b3e 3a94 a0be
00000070: f9e9 a7be c9a5 a73e f771 1ebe c05d 503c
00000080: 9591 00bb c84b 5bbd f0fd 3abd 1e51 cbbc
00000090: c402 093e 494e 01be 4988 05be 7db1 b53d
000000a0: 9d76 9bbd 9c24 36bd e999 c63d af04 93bd
000000b0: 91b2 18be 1d82 95bd 23d9 fcbc 2913 c13d
000000c0: 13e4 293d 6d36 5e3d 91e2 8b3b b81c 733c
000000d0: 7991 24bd 97b2 ea3d c38b af3d dcf3 84bb
000000e0: 2aac 2a3d 9ebe a0bc 7c60 afbd 25ba ba3d
000000f0: b3aa adbd 4984 ac3d efdd b23d e582 a43d
00000100: ea2e a33d 8c95 afbd f313 96bd d194 b1bd
00000110: 7f8f 9b3d 8e39 aabd 5c42 b1bd 13ef a33d
00000120: f734 9dbd e790 ab3d 9f55 a93d d51b be3d
00000130: a8de a13d e088 a4bd 5e90 9abd 35a0 a8bd
00000140: 490e 8fbd 9814 e5bd 2e03 a93d 6846 99bd
00000150: 62e6 ac3d bad9 8e3d 13d7 9ebd 918f a53d
00000160: 7377 a93d 306f aabd 07a5 c2be 99a6 b53e
00000170: e657 b73e 4f13 c03e 7ea4 af3e 20d6 bcbe
00000180: ae83 c3be 06d3 c2be ca23 c13e d3a1 bdbe
00000190: ae31 bdbe 8f2f b03e 13ca c0be e4f7 b73e
000001a0: ec2a bf3e cdae ba3e 3587 ae3e 2f4a c3be
000001b0: 6333 acbe c606 b1be 02ec a8be 7116 f4be
000001c0: c7bf a93e c1ed c1be 1450 be3e c69c a83e
000001d0: ddb6 acbe 0dcc af3e 694c b93e 963a b8be
000001e0: caf1 e8bd 45eb d93d 1d41 db3d f3bd e43d
000001f0: f910 cb3d d3de e3bd 6d7f e1bd c6f9 e8bd
00000200: d54d e23d f1e3 e2bd 6fd7 e3bd 8828 cc3d
00000210: 5abf e3bd b5f7 db3d b57a e43d c726 e53d
00000220: 92d5 c73d c4a1 e5bd b6bb bfbd de22 d2bd
00000230: 87b9 b4bd b988 0cbe f624 cf3d be7c e2bd
00000240: 6f4c e43d 1065 b43d 62e4 c4bd 894a cc3d
00000250: af83 dd3d d742 dcbd 4363 01be 1152 fb3c
00000260: dced 8b3c dc36 31be 28a2 19bd ebed 2bbd
00000270: aae8 d93d b894 dfbd 079b e8bd 6afd dc3d
00000280: 0772 c0bd 65c3 d3bc 5dc3 fa3d 595f 45bd
00000290: 4ed2 63bd b774 90bd 5de3 10bc 98ef 9f3d
000002a0: 0eed 9a3c c971 253d f85c 02bb d0d1 983b
000002b0: 56fb 36bc 7c5e 313e b330 a13d 6153 063b
000002c0: 4168 d03c c994 9e3b d6e2 81bd 1f44 283d
000002d0: 7b89 bf3d 0a21 4abd 47a9 11bd 3326 b5bd
000002e0: 1205 11bc 35d8 9f3d 0810 c13d 85bc bf3d
000002f0: 3005 b7bd 0cbb a03d 0cd8 9c3d b612 28bc
00000300: 56d6 b33d 04a4 5ebd 46a3 aabd 69fe 3abd
00000310: 7696 99ba 16ba bf3d 3085 36bc 23cc f83c
00000320: 6cdf 0c3c 0373 c5bc f2ed 8dbd bed9 b93d
00000330: 00d4 b4bd 2d99 0cbc ac5e 81bb 028f 0abc
00000340: 8fc1 79bd a408 6f3d 2e1b b2bd 91aa 323d
00000350: 93f0 383d 0676 913c 3eb2 113d f7e3 62bd
00000360: 5e2c 6f3d a321 a0bd a5b5 12bd 060b fabb
00000370: ed49 6ebd 5c1c 0f3d 8fcd 133d fed6 c23c
00000380: 86eb 64bb 3072 5c3d f7fb 243d 6107 1aba
00000390: 0566 21bd 756d 12bd b812 1cbd 13db 97bd
000003a0: 2e7d 67ba e90f 303d 237a 813d 36b8 1b3d
000003b0: 1da6 19bd 63b3 323d 8b36 0b3c 2b06 bcbc
000003c0: 501c 78be a0d2 1b3e f1b0 073e cc6f 6a3e
000003d0: b22c b23d 0770 53be 50eb 79be 6f72 78be
000003e0: 89ad 6d3e cee2 54be b3fb 50be a478 b83d
000003f0: 3f7f 69be 7605 273e be47 5f3e 0c9d 183e
0.32906893 -0.3267025 -0.32302186 -0.3334369 -0.31287038 0.3318291 0.32099682 0.32886726
-0.32353792 0.32900745 0.33200034 -0.31366462 0.3238201 -0.32688773 -0.32837257 -0.33336866
-0.30878454 0.32343298 0.29757905 0.31870356 0.2850634 0.49609405 -0.3225212 0.32312524
-0.33019423 -0.2847019 0.30468383 -0.31363088 -0.32795694 0.32743672 -0.15473162 0.012717664
-0.0019618024 -0.053539068 -0.04565233 -0.024818953 0.13379961 -0.1262752 -0.1304027 0.08871744
-0.07590983 -0.044468507 0.09697325 -0.07178628 -0.14911868 -0.07300208 -0.030865258 0.09427483
0.041477274 0.054251123 0.004268952 0.01483839 -0.040177796 0.114598446 0.08571579 -0.0040573906
0.041668095 -0.019622143 -0.08563325 0.091175355 -0.08479824 0.08423669 0.08733737 0.08032779
0.079679325 -0.08573446 -0.07328024 -0.086709626 0.07595729 -0.08311759 -0.08655235 0.08004584
-0.07676118 0.08377247 0.08268284 0.09282652 0.079037964 -0.08033919 -0.07547067 -0.08233682
-0.069851466 -0.111855686 0.082525596 -0.07484132 0.084423795 0.06975122 -0.07755866 0.08084024
0.08274736 -0.083219886 -0.3801653 0.35478666 0.3580925 0.3751473 0.34305185 -0.36882114
-0.381864 -0.38051623 0.37722617 -0.37037525 -0.36951965 0.34411284 -0.3765417 0.35931313
0.37337434 0.36461487 0.3408753 -0.38142535 -0.33632955 -0.3457548 -0.3299256 -0.4767337
0.33154127 -0.37876704 0.3717047 0.3293211 -0.33733264 0.34335366 0.3619111 -0.35982198
-0.113742426 0.10640577 0.10705779 0.111690424 0.09915347 -0.11126485 -0.11010633 -0.113757655
0.110500015 -0.110786326 -0.11125075 0.09968668 -0.11120482 0.10740606 0.11156217 0.11189037
0.09757532 -0.11212495 -0.09361975 -0.10260557 -0.08824449 -0.1372403 0.101144716 -0.11058949
0.11147391 0.08808339 -0.09613873 0.09975154 0.10816132 -0.10754936 -0.12635522 0.03067878
0.017081194 -0.17306083 -0.03750816 -0.041974943 0.1064008 -0.10917038 -0.11357694 0.107905224
-0.09396749 -0.025850007 0.12244294 -0.048186634 -0.055620484 -0.070535116 -0.00884327 0.07809371
0.018911865 0.040391717 -0.001989184 0.0046636835 -0.011168322 0.17321199 0.07870617 0.0020496475
0.025440337 0.004839514 -0.06342094 0.04108059 0.09352394 -0.049347915 -0.035561826 -0.088451765
-0.0088513065 0.0780491 0.09426886 0.09362129 -0.08936536 0.07848176 0.07658395 -0.010258367
0.08781116 -0.054355636 -0.08331923 -0.04565278 -0.0011717814 0.09361665 -0.011140153 0.030370777
0.00859819 -0.024102693 -0.0693015 0.09074734 -0.08829498 -0.008581442 -0.0039480533 -0.008456947
-0.060975607 0.05835785 -0.0869659 0.043619696 0.045151304 0.017756473 0.035570376 -0.055393185
0.05839192 -0.07818916 -0.03581776 -0.0076307086 -0.05817597 0.034939155 0.036084708 0.023784157
-0.0034930422 0.053819835 0.040279355 -0.00058757333 -0.039403934 -0.035748918 -0.03810379 -0.07414832
-0.0008830604 0.042983923 0.06322124 0.038017474 -0.037511934 0.043628108 0.008496891 -0.02295216
-0.2422955 0.15217066 0.13251092 0.2289421 0.08699931 -0.20648204 -0.24406171 -0.24262403
0.2321073 -0.20789644 -0.20408516 0.090073854 -0.22802447 0.16310677 0.21804711 0.14903659

Wb f4 [29, 29]
00000000: 6b70 1dbf bf75 b1be 342f debe 4941 d5be
00000010: c33f 41be a699 0bbf 6bf6 a4be 4a72 853e
00000020: b115 033f 3878 bebe a7e8 033f a252 8cbe
00000030: 1c3e e53e cf10 3a3f ae6e f73e 92b1 f63e
00000040: e5d0 01be d2a7 2b3e 56e9 fa3c f855 debe
00000050: d3fe a1be c8b8 db3e 789e 283e 5a2a 90be
00000060: fa36 e43c ca93 b4bd 9e92 103f e2cb 273f
00000070: b925 96be 5b94 1ebf 997f b2be 5f37 debe
00000080: 3d5e d8be 7014 3ebe 7502 0dbf a5ec a4be
00000090: c35b 843e 3efe 023f 68e5 bebe 54e8 033f
000000a0: 1571 8cbe a74d e53e 330f 3a3f 43ab f73e
000000b0: bcab f63e 22cc 01be dea5 2b3e ec0c fd3c
000000c0: 9742 debe d40d a2be 14b6 db3e fd94 283e
000000d0: 9420 8fbe 50cd ec3c ac17 b5bd db91 103f
000000e0: 5085 273f b425 96be d426 1ebf 71fe afbe
000000f0: ef16 debe 360f d8be 20fd 41be d46f 0cbf
00000100: 59e9 a4be 466e 843e 0a06 033f 5bbb bebe
00000110: 2ec6 033f 573d 8cbe b033 e53e 0a11 3a3f
00000120: 8a9d f73e 79ae f63e 6bc8 01be 74b9 2b3e
00000130: f70c fe3c 5848 debe 6cfd a1be cab0 db3e
00000140: fb8f 283e c46b 8fbe f2d0 ee3c 3076 b5bd
00000150: 1d93 103f 0278 273f 2c24 96be a098 1ebf
00000160: d848 b2be e39d debe 5890 d5be 042d 42be
00000170: 63fe 0cbf 29f0 a4be 76dc 833e ec14 033f
00000180: b0e5 bebe 4ef9 033f d243 8cbe 453b e53e
00000190: 0c21 3a3f aa98 f73e 53b5 f63e 55d8 01be
000001a0: b6a7 2b3e ca3d f63c 4d50 debe 78e6 a1be
000001b0: d9c0 db3e e89d 283e bbff 8ebe 00e7 ec3c
000001c0: 1c9b b5bd 0293 103f b088 273f 0919 96be
000001d0: e097 1ebf d10a b1be 4783 dbbe be60 d7be
000001e0: 5c05 3abe 221b 0dbf fde4 a4be a9f1 833e
000001f0: 63f4 023f de36 bfbe 5bce 033f 37ca 8dbe
00000200: 3b4a e53e ce17 3a3f d36e f73e 65b1 f63e
00000210: 7ab8 01be 6cb3 2b3e ce5a f23c a445 debe
00000220: 7535 a2be d0d4 db3e 0490 283e 3aa9 91be
00000230: b6b8 ea3c d355 b5bd 6292 103f 2e8e 273f
00000240: 1528 96be 22cd 1dbf b0b1 b0be e7a7 debe
00000250: 438d d7be a23a 41be f3a6 0bbf 85f8 a4be
00000260: c3be 843e ee15 033f d9d8 bebe 52e6 033f
00000270: 50d1 8cbe 7047 e53e e305 3a3f e4dd f73e
00000280: 8ebc f63e 6ed5 01be 6797 2b3e 7680 f13c
00000290: 9454 debe 5cfc a1be 49ba db3e 7a8e 283e
000002a0: 1754 91be 5cca e33c 2cbb b5bd 4e93 103f
000002b0: 27b9 273f b427 96be 753b 1ebf 2f4c b1be
000002c0: 1188 debe 516d d8be 4973 41be cf25 0cbf
000002d0: 8cf0 a4be e2ac 843e 0715 033f 8fa0 bebe
000002e0: b7f2 033f ed96 8cbe 814d e53e 6a0a 3a3f
000002f0: 4ae1 f73e 4abc f63e 94d3 01be 0098 2b3e
00000300: c4ba f93c 2154 debe 340c a2be 0ebb db3e
00000310: 608f 283e 76ae 90be d0e3 e83c d25c b5bd
00000320: 8992 103f 138f 273f 3b23 96be 77fc 1dbf
00000330: a576 b1be 5eae debe 7406 d8be ce93 3dbe
00000340: 8e3f 0cbf 07f1 a4be 9b4c 853e f20c 033f
00000350: b47a bebe 05f1 033f fa44 8cbe 5250 e53e
00000360: b60c 3a3f 66a7 f73e c9b4 f63e 85d0 01be
00000370: dda2 2b3e 3634 ef3c 004a debe 8209 a2be
00000380: 4cbb db3e 5990 283e d50f 92be cc28 e33c
00000390: 27bb b4bd 9991 103f 41a2 273f 9323 96be
000003a0: 5a76 1ebf f98e b1be d47a dcbe bc7e d7be
000003b0: b6fb 3bbe 3d29 0dbf 26de a4be e09d 833e
000003c0: 9a02 033f efb8 bebe c2b4 033f 33b3 8dbe
000003d0: 7347 e53e d83a 3a3f f8f1 f73e 0fb0 f63e
000003e0: af9f 01be cec6 2b3e de03 f53c 9246 debe
000003f0: fa2a a2be 1bd1 db3e a08e 283e 150e 91be
-0.6149966 -0.34660146 -0.43395388 -0.4165137 -0.1887198 -0.54531324 -0.32219252 0.26063758
0.51204973 -0.37201095 0.51526874 -0.27406794 0.44773948 0.726819 0.4832663 0.4818235
-0.12677343 0.16763237 0.030628841 -0.43424964 -0.31639728 0.42914414 0.16466701 -0.28157312
0.027858246 -0.08817251 0.5647372 0.65545475 -0.29325655 -0.6194512 -0.34862974 -0.4340162
-0.42259398 -0.18562484 -0.55081874 -0.32211795 0.2585126 0.5116919 -0.37284398 0.5152638
-0.27430025 0.44785807 0.7267944 0.4837285 0.48177898 -0.12675527 0.16762492 0.03088995
-0.4341018 -0.31651175 0.42912352 0.16463085 -0.27954543 0.028906494 -0.08842406 0.5647256
0.65437794 -0.2932564 -0.61777997 -0.3437381 -0.43376872 -0.42199105 -0.18944216 -0.54858136
-0.3220928 0.25865382 0.5118109 -0.37252316 0.51474273 -0.2739055 0.44765997 0.7268225
0.4836238 0.48179987 -0.1267411 0.16769964 0.031012041 -0.4341457 -0.31638658 0.42908317
0.16461174 -0.28011906 0.029152367 -0.08860433 0.5647448 0.6541749 -0.29324472 -0.6195164
-0.348212 -0.43479833 -0.41711688 -0.18962485 -0.55075663 -0.32214478 0.25754136 0.512038
-0.37284613 0.51552284 -0.27395493 0.44771782 0.72706676 0.4835866 0.48185214 -0.1268018
0.16763195 0.03005876 -0.4342064 -0.31621146 0.4292057 0.16466486 -0.27929482 0.028918743
-0.088674754 0.56474316 0.65442944 -0.29315975 -0.6195049 -0.34578565 -0.42873594 -0.42065996
-0.18166107 -0.55119526 -0.32205954 0.2577031 0.51154155 -0.37346548 0.5148675 -0.2769334
0.44783196 0.72692573 0.4832674 0.48182216 -0.12668028 0.16767663 0.029584315 -0.43412507
-0.3168141 0.429358 0.16461188 -0.28449422 0.02865253 -0.0885426 0.5647336 0.65451324
-0.29327455 -0.6164113 -0.34510565 -0.43487474 -0.42099962 -0.18870023 -0.5455162 -0.32220855
0.2592679 0.5120534 -0.37274817 0.51523316 -0.27503443 0.44781065 0.7266523 0.48411477
0.4819073 -0.12679073 0.16756974 0.0294802 -0.43423903 -0.31637847 0.42915562 0.164606
-0.28384468 0.027806453 -0.08873591 0.5647477 0.65516895 -0.29327166 -0.61809474 -0.34628436
-0.43463185 -0.42270902 -0.18891634 -0.5474519 -0.32214773 0.2591315 0.5120396 -0.3723187
0.5154223 -0.27458897 0.44785693 0.7267214 0.4841407 0.48190528 -0.12678367 0.16757202
0.030484565 -0.4342356 -0.31649935 0.4291615 0.16460943 -0.28258103 0.028428942 -0.08855595
0.56473595 0.6545269 -0.29323754 -0.61713356 -0.3466083 -0.43492407 -0.42192423 -0.18513414
-0.54784477 -0.3221514 0.26035008 0.5119163 -0.3720299 0.5153964 -0.27396375 0.44787842
0.72675645 0.48369902 0.48184803 -0.126772 0.16761346 0.0291997 -0.43415833 -0.3164788
0.42916334 0.16461314 -0.28527704 0.027729414 -0.08824759 0.56472164 0.65481955 -0.29324016
-0.6189934 -0.34679392 -0.4306246 -0.42088878 -0.18357739 -0.5514105 -0.32200736 0.25706387
0.51175845 -0.37250468 0.5144769 -0.2767578 0.44781074 0.7274604 0.48426795 0.48181197
-0.1265857 0.16775057 0.02990907 -0.43413216 -0.31673414 0.42932972 0.16460657 -0.28331056

conv.weight f4 [10, 1, 20]
00000000: 0ab6 b81d b258 c19c 3835 ef9c 6a49 349f
00000010: 898f 891e 0bfe aa9e 7ca3 da9d 6ddf 929e
00000020: 9e3f 0520 70fb 3c9f cd8e 901f 5735 2b9f
00000030: 13ef 01a0 20ca 151f 69b5 129e bcee a99e
00000040: 0553 119f 2296 ed9e f76c 6120 af99 83a1
00000050: eaed 8d1d 4820 0e9e 168d 7d9c 4645 e59d
00000060: db87 1d1c de4a 081d 82de 6a1c dce4 489d
00000070: 93af 979c a16f ba1c 06fa ac9d 48e1 bc9d
00000080: 1556 9f1e b770 d69e 1654 b29e 2f55 b89e
00000090: ca61 249e c93c 879e 0049 ea9e f347 909f
000000a0: 417f cd1c 9e02 911d e04e 389d 6340 6c1c
000000b0: aa2b d71c 7752 4b1c 29fa 291d d282 ae9c
000000c0: a0b2 989d 76a4 9a9d 1a77 571d 08a4 079e
000000d0: 7625 c31d 8ca8 801e b9d3 301e 4af6 491e
000000e0: 9ec2 841c ba41 131e 7304 a31e 4e25 7e1d
000000f0: 0008 541b 1bb9 489c 4e21 6d1c b4f3 241c
00000100: fd83 1a1d 7c46 619d 210f 0c1d 20c5 8a9d
00000110: 56bd ff9c b615 8e1d ada9 af9d 1eb4 cc9d
00000120: 387b 091b ec0b d79d 6e81 f09d 71d6 8c9d
00000130: 083f 491d ff1a cc9d 4a83 2b9d c9cb 151e
00000140: 403e 991e 7bbf 439d ad99 5f9e f059 f59d
00000150: 4b35 c71d 010e fc9d 01ee d31c 870e 241d
00000160: 2ccb b81d 6da3 989d 897e be1d 77a7 a01d
00000170: 607a ba9d 1362 6b9d 3d8f 019e bdc2 a01d
00000180: c67d 2a9e 1c64 141d dc29 2b9e e06b 191c
00000190: 674a 0d9d 2cdf cb9d 9bb9 171e 09d9 4a1e
000001a0: 8088 561a 3e21 761e c8bd 939e 3a2d b71e
000001b0: e500 cc1e 289c 5e1e 9e5b 3e1e b0bb 951d
000001c0: b2b0 ca1d 74ac 9f1b 3654 369c b18f 8c1c
000001d0: 051a 2a9d 66ed 109d b26b 0a1d 04dc 0b1c
000001e0: bb25 609d 76c2 8e1d 4b85 6b1c 4bfa d91c
000001f0: 58ce a69c 2f52 071d 148b 371d 84df b79d
00000200: f834 2c9c 6eb3 b31d e8eb 2a1d f640 399d
00000210: 09c2 939d 29ec 4d9d 446c bd9d 9f91 0e9d
00000220: 3f91 199c 35b0 951c 142c b49a ee2e 781d
00000230: f7da 8f9c c4ae 771d 6171 1d1d 2df3 711d
00000240: 8a19 0a1d b0ea 3e1d df2f 991c 48f9 ee9c
00000250: 3b15 939c d41b 241b c5de b71c 6874 609d
00000260: 2f1b 1e9d bccd b01b 27d9 911d 6527 881d
00000270: 50a1 7d1c dc6f 061d bb05 819d 301b 8c9b
00000280: fa33 34a0 9f86 bd9f 752f a69f b9c5 011f
00000290: b8c6 b89f a5a0 181f 35f2 071e 40b1 f59a
000002a0: 680d 299f a8f1 219f cac1 a89e 5df3 f91e
000002b0: acd4 711f d657 6c9f 1845 9b1f b2dd 689f
000002c0: db95 901f 6d05 dc9f 6a28 a31e 202c 6b20
000002d0: e6c5 981c 80f3 0c1d b2f5 089d d938 221d
000002e0: f8d1 631d 5e58 a71d 2a9e 571d b405 6e9c
000002f0: 787a 051d d683 c71c 701b ca1b 14f8 d71c
00000300: 6675 159e d200 c31c b446 0b9e 019a f09d
00000310: d270 d21c a491 011e 6ddb ec1d 67aa d19d
4.889262e-21 -1.2794596e-21 -1.582945e-21 -3.817721e-20 1.4564804e-20 -1.810452e-20 -5.787316e-21 -1.5550758e-20
1.1286587e-19 -4.0018533e-20 6.1222616e-20 -3.625478e-20 -1.1005828e-19 3.171917e-20 -7.76669e-21 -1.799231e-20
-3.0773616e-20 -2.5155445e-20 1.9094295e-19 -8.917585e-19 3.7568387e-21 -7.524093e-21 -8.3893027e-22 -6.0687422e-21
5.212253e-22 1.8038156e-21 7.771169e-22 -2.6588097e-21 -1.0037727e-21 1.2337303e-21 -4.578654e-21 -4.999612e-21
1.6870383e-20 -2.2704749e-20 -1.888126e-20 -1.9516989e-20 -8.70231e-21 -1.4318821e-20 -2.4805906e-20 -6.11054e-20
1.3598656e-21 3.8383887e-21 -2.4392975e-21 7.816907e-22 1.4238793e-21 6.727365e-22 2.2496294e-21 -1.154817e-21
-4.041876e-21 -4.093351e-21 2.8516587e-21 -7.180761e-21 5.1654804e-21 1.3622237e-20 9.361146e-21 1.0691783e-20
8.785335e-22 7.795707e-21 1.7260136e-20 3.3635906e-21 1.7538814e-22 -6.641369e-22 7.8459767e-22 5.4578027e-22
2.0449967e-21 -2.9814942e-21 1.8536667e-21 -3.673212e-21 -1.6923427e-21 3.7609536e-21 -4.6497555e-21 -5.4184587e-21
1.1372189e-22 -5.6922353e-21 -6.36613e-21 -3.727942e-21 2.6634715e-21 -5.4026264e-21 -2.2699536e-21 7.930136e-21
1.6225251e-20 -2.5907028e-21 -1.1837301e-20 -6.4943953e-21 5.2729965e-21 -6.6718324e-21 1.4024331e-21 2.171273e-21
4.891447e-21 -4.0403043e-21 5.0423416e-21 4.25248e-21 -4.9360323e-21 -3.1152694e-21 -6.858824e-21 4.2553002e-21
-9.025734e-21 1.9639392e-21 -9.061321e-21 5.076288e-22 -1.869966e-21 -5.3964407e-21 8.032256e-21 1.0738673e-20
4.4364427e-23 1.3030006e-20 -1.5642722e-20 1.9394584e-20 2.159971e-20 1.17848745e-20 1.0077462e-20 3.9634036e-21
5.3651653e-21 2.6415789e-22 -6.032759e-22 9.301566e-22 -2.2512764e-21 -1.9180973e-21 1.8319825e-21 4.6275606e-22
-2.966566e-21 3.7788155e-21 7.7927255e-22 1.4424555e-21 -1.1038297e-21 1.790959e-21 2.429175e-21 -4.8670806e-21
-5.6978487e-22 4.756643e-21 2.2621273e-21 -2.451813e-21 -3.9111204e-21 -2.7253616e-21 -5.0139827e-21 -1.8868828e-21
-5.081118e-22 9.905541e-22 -7.451747e-23 3.2846789e-21 -9.519547e-22 3.278053e-21 2.0837393e-21 3.2021803e-21
1.8277351e-21 2.5267621e-21 1.0137065e-21 -1.5813957e-21 -9.733132e-22 1.3574754e-22 1.2167509e-21 -2.9706334e-21
-2.092518e-21 2.924971e-22 3.860571e-21 3.6039633e-21 8.391917e-22 1.7792582e-21 -3.415194e-21 -2.3178627e-22
-1.5263791e-19 -8.0267325e-20 -7.0382246e-20 2.7480365e-20 -7.8255784e-20 3.2320134e-20 7.196928e-21 -1.0161599e-22
-3.579823e-20 -3.429297e-20 -1.7867841e-20 2.6464553e-20 5.1209653e-20 -5.00476e-20 6.575936e-20 -4.9311293e-20
6.123429e-20 -9.31826e-20 1.7275011e-20 1.9919874e-19 1.0109672e-21 1.8654732e-21 -1.8126472e-21 2.1469911e-21
3.0151751e-21 4.42959e-21 2.8536782e-21 -7.8754965e-22 1.7665718e-21 1.3202794e-21 3.3435828e-22 1.4291633e-21
-7.912272e-21 1.290423e-21 -7.37322e-21 -6.3686707e-21 1.3925798e-21 6.859321e-21 6.269556e-21 -5.549803e-21

conv.bias f4 [10]
00000000: b7b3 f1ba a9ac 5ab9 284a c6b7 74b0 fc1f
00000010: e4a5 beba 33a9 b7a0 e7f6 bcb7 1c79 30b1
00000020: 8a6b 2c3a 3996 3e1f
-0.00184404 -0.00020854421 -2.3637971e-05 1.0701807e-19 -0.0014545289 -3.1113373e-19 -2.252632e-05 -2.5680214e-09
0.0006577304 4.0358326e-20

conv_long.weight f4 [10, 1, 10]
00000000: 68e0 769e 2ea0 6e9e ec7b 511c f0c6 221d
00000010: 800d 2a1e 809b f41a 00f2 289a 6491 011e
00000020: 4326 6b9d 74f7 e09d 941f c61c 8770 ce9d
00000030: faa4 229c 70c9 1c1c 7ef2 259c 34a7 6c9e
00000040: 8bd2 7f9d 19aa 231e 9257 129e 4878 121c
00000050: 5211 e51e 5003 429c b1eb 351f 025e ef1e
00000060: 9f93 b61d c408 369f 7b7e 5b1f 9440 6c1f
00000070: 391d c4a1 ada6 9ba3 c486 121f 59c8 b39f
00000080: 98a4 1c21 48c3 ac21 fecd 0a23 69b5 7e25
00000090: 53e1 46a8 b772 ba27 c860 4aaa db31 6c2c
000000a0: 2301 2a9d b2b6 0e1d 2101 189d 3c1d f11c
000000b0: 471c a41d 5d58 119d 5364 e01d e810 ae1b
000000c0: 76e2 199e 1fff 211e 528f c79e 00d4 9f9f
000000d0: 49c0 3da0 957c c8a0 4826 b51f 5cb9 e91f
000000e0: b527 3e25 8ec8 4ea4 fa8c 8da2 da5e 90a4
000000f0: 35d8 c11c b681 409c c64d 421e 8e16 959e
00000100: a17a 431e ab12 001e 2813 d31d ee44 ba9c
00000110: 535d 861d f038 9c9d 64bc e61d 99ba b49e
00000120: a2bd 109f 81fa 7b1e b81a be9f f16d 471e
00000130: c6b3 339e 87a9 0a1e 3adf c99c ae7c 689c
00000140: af5a 171e 3cea d39b 47d4 8d1d cf88 641e
00000150: b6ab 3720 66f4 87a1 7c3d 8524 87cd 0a23
00000160: 8f00 0021 960c 76a0 c968 009e a444 4a9d
00000170: a6d7 13a1 c4d2 ce20 dd9c ab1f 9ab9 701e
00000180: 6048 869e aa80 b99e 830d 1020 3f20 061f
-1.3069538e-20 -1.26327395e-20 6.9312464e-22 2.154337e-21 9.002517e-21 1.0116726e-22 -3.4937072e-23 6.859269e-21
-3.1121772e-21 -5.9548167e-21 1.3110704e-21 -5.4644097e-21 -5.381453e-22 5.187642e-22 -5.4907334e-22 -1.2528313e-20
-3.3857817e-21 8.6643235e-21 -7.747285e-21 4.846281e-22 2.4253482e-20 -6.4193497e-22 3.85232e-20 2.534399e-20
4.8327636e-21 -3.854725e-20 4.6479676e-20 5.0028362e-20 -1.3289212e-18 -1.6875724e-17 3.1028178e-20 -7.6140896e-20
5.3072694e-19 1.1706864e-18 7.5246155e-18 2.2092452e-16 -1.1040067e-14 5.1749745e-15 -1.7974782e-13 3.3565292e-12
-2.24999e-21 1.8887995e-21 -2.0117616e-21 1.5955599e-21 4.3439677e-21 -1.9236273e-21 5.939604e-21 2.879681e-22
-8.1465836e-21 8.576027e-21 -2.112922e-20 -6.7689844e-20 -1.6072545e-19 -3.396376e-19 7.671981e-20 9.898599e-20
1.6493326e-16 -4.4839006e-17 -3.836739e-18 -6.261073e-17 1.2827557e-21 -6.369512e-22 1.0286358e-20 -1.5785317e-20
1.0348573e-20 6.780124e-21 5.5871042e-21 -1.2326265e-21 3.5566e-21 -4.135173e-21 6.1075284e-21 -1.9135416e-20
-3.0650047e-20 1.3339632e-20 -8.051233e-20 1.0557708e-20 -9.513357e-21 7.340717e-21 -1.3358767e-21 -7.6923506e-22
8.012626e-21 -3.5058392e-22 3.754188e-21 1.2098511e-20 1.5557517e-19 -9.212648e-19 5.7783714e-17 7.524517e-18
4.3368826e-19 -2.0841175e-19 -6.797933e-21 -2.6769964e-21 -5.0090946e-19 3.503723e-19 7.2680826e-20 1.2743876e-20
-1.4217735e-20 -1.9640851e-20 1.2201745e-19 2.8402277e-20

conv_long.bias f4 [10]
00000000: 751e 131f 35c3 45af d4b9 b3bc 357c 04bd
00000010: e150 55a0 983f cdbc 1d0d b3a0 33c2 76a4
00000020: 41a6 59b5 f6d3 1ab4
3.1153654e-20 -1.7986397e-10 -0.021939196 -0.032345016 -1.8068562e-19 -0.025054738 -3.0332457e-19 -5.350724e-17
-8.108073e-07 -1.4419479e-07

conv1.weight f4 [30, 30]
00000000: 50bc 72b4 d8cc 9d9e c905 0ba5 80d3 29a2
00000010: 9217 96b3 dc2d fa9c 9feb 719d 60bd 531d
00000020: 88e3 f59c 17d2 8b26 981a 6a9d 7205 2e21
00000030: 58f9 aa1d 2a44 4920 1025 999b e9b0 819d
00000040: 2daa bda7 1d81 7e25 f332 c728 a4ae 1b24
00000050: 4e90 dd9d 5502 fcb7 e69a 051d 8a6b 0b24
00000060: a630 129d 673a e5a1 155a 6b31 70aa 649e
00000070: 573c 3321 ad5d 151e 2686 d09c b46d 3b1b
00000080: f710 b61c 929d 089c 3c5b b21b eea0 6e1c
00000090: ccb1 bd1c 4698 401c f813 3a1c f7b4 2f1e
000000a0: 0bcd 9b1c 8739 af1c 9a67 7e1c 3025 549c
000000b0: 64c9 419d 3ed8 841c 2afd bc9c 10dd 159d
000000c0: 24e8 e99c cbae 001c 76fe 9d9c 54b2 891b
000000d0: 5276 7f9c 845f 681b 3577 cb1c 040b fe9b
000000e0: ae3d a19c 1062 af1c 7446 101d 8ff4 f39c
000000f0: 1bad 4b9c f395 0b1c b401 249c dd93 811c
00000100: 2406 1a9c ab91 399c 9dd6 9f1d 960e a99b
00000110: eab1 a41c 2a79 fc9e 0296 4c9c f076 071a
00000120: 9e47 b81c 56f0 b61c 3c33 9b9d 5e9b 2f1c
00000130: 0a07 939c d801 d39c 618c bf9c 3f6f b49c
00000140: b02f 7b9b 1290 941c 4834 079c 4a41 9f1b
00000150: 0150 179c 7c6f ef9b db7c 299c db72 571e
00000160: 599c 879c 4a24 0d9c e2b6 32b3 fff5 279d
00000170: 691d fba5 eccf 1423 ec07 f0b2 3cd6 e21c
00000180: f0c7 809c 247e 4c1f dad0 6b1d 6c8e 1d20
00000190: 4ae3 0f1d 420e 659e aee6 559d 1eb2 a41d
000001a0: d852 969d 1dfa 991c d894 17a6 990c 441f
000001b0: 9ffc be27 94a1 4e1e 7971 b11d 44cc f7b7
000001c0: 3ae9 d09c ca9b 071f 3a4b 2e9e 1e6a 6621
000001d0: cca9 aab6 90d1 ab1f 3229 541e 4af6 8b1d
000001e0: 8238 499d 738c de1b cc56 9b1c ce71 e01d
000001f0: b6a5 ed9b 0498 3b9b 6b25 cb1c 45a3 b01c
00000200: b83e 009e 4876 1b9e d8a5 479c 450b 041c
00000210: add7 331c ab75 831c 90c0 049a fb1b 951c
00000220: 5506 271e b3a6 b69e dfff 559e 5774 6b9e
00000230: f27f 341d be22 e79c ac1a c61c dcaa 711c
00000240: 77ed fc1d b09e dd1c 9e93 0c1d 9383 b89c
00000250: 6765 559e b0eb ff9c 5351 619d 8ad8 c11b
00000260: 8d26 b89c 5fc6 f61d 5c7f 089d dd7c cb1c
00000270: 8e71 781c e4f5 299b 4069 861c 0e2e 2f1e
00000280: 3cbf 479d 72bf d21b a1ce bf1c 4483 181c
00000290: 1c35 241c 4511 e21b af4e 111e 7672 639e
000002a0: e910 341e 27d0 989e 05a0 801d 6350 001d
000002b0: 72e2 6a1c 9cf6 061b 5540 141e b938 711d
000002c0: bda5 069d 880b ea1c afa9 399e 946e 589d
000002d0: 288c ccb2 68ff 3f1e f1da 9024 9898 0123
000002e0: bd48 0bb2 482b 1b1b 967e 341d aad0 bf9e
000002f0: 0c55 e71b 749c 60a1 905e 1b9d 2450 951f
00000300: 41de 891d 641e 501c 4f5c 4c9d eec6 6c1b
00000310: 5e45 9da6 5c04 1a1f 33a5 6027 91f3 3a9e
00000320: 2094 b79c 083a d7b7 bb59 049c 5140 5b21
00000330: 144e 201e d23d 2221 e276 1cb6 2c1b 00a0
00000340: e74e a31e f2a5 cf1d e036 c7a2 bdfc 3b9d
00000350: 79cf 6b9d 2c50 241d c0c5 8ca2 1c52 399e
00000360: 4065 661b 8948 151e 9e4c 0b21 4986 de26
00000370: ef4e 2e9f d0ab 8b9c 2368 e31e 008f 49a4
00000380: b006 a29b a7bb 9c9c 6c6f 8c25 1ace 82af
00000390: 9c76 2b26 5cc5 4e28 5849 a49f 6cea 15aa
000003a0: d0dd 499d b86d 2f9e 83b6 fea1 2302 491d
000003b0: fa8f 7d26 dadd 5ba0 d824 8b25 fa4c 2f1f
000003c0: 750b b5a2 8a91 bd1c 9b68 7e9c 0be4 969f
000003d0: 44eb 3221 94cb d71b 68bd 589d f83b a01d
000003e0: 2fb1 5020 66b8 fa24 be13 349f 1f83 079d
000003f0: f422 ae9e 8d0a 1723 8e4b 591c 0f1e cd1c
-2.2606514e-07 -1.6707743e-20 -1.2058288e-16 -2.3015738e-18 -6.989207e-08 -1.6555467e-21 -3.2017898e-21 2.8023522e-21
-1.6271555e-21 9.702007e-16 -3.098339e-21 5.89607e-19 4.525644e-21 1.7047916e-19 -2.5335678e-22 -3.4328937e-21
-5.2642543e-15 2.2074733e-16 2.2115534e-14 3.3758194e-17 -5.864742e-21 -3.0041827e-05 1.7682484e-21 3.023191e-17
-1.934809e-21 -1.5533103e-18 3.4248206e-09 -1.2105465e-20 6.072742e-19 7.907366e-21 -1.3798962e-21 1.5503724e-22
1.2048135e-21 -4.520228e-22 2.9506589e-22 7.895559e-22 1.255293e-21 6.372428e-22 6.1568047e-22 9.3018455e-21
1.0310042e-21 1.1595399e-21 8.417545e-22 -7.019298e-22 -2.5647454e-21 8.790925e-22 -1.2506238e-21 -1.9834272e-21
-1.5478654e-21 4.257756e-22 -1.0455165e-21 2.277999e-22 -8.452535e-22 1.9221453e-22 1.3464227e-21 -4.2027894e-22
-1.067003e-21 1.1605877e-21 1.9094665e-21 -1.6143608e-21 -6.73908e-22 4.6185047e-22 -5.426525e-22 8.574726e-22
-5.096226e-22 -6.1399637e-22 4.2308854e-21 -2.796813e-22 1.0898599e-21 -2.673165e-20 -6.769182e-22 2.8013423e-23
1.2194611e-21 1.2105875e-21 -4.1081133e-21 5.810345e-22 -9.729464e-22 -1.3963285e-21 -1.2675607e-21 -1.1940157e-21
-2.0777642e-22 9.83106e-22 -4.4735325e-22 2.6346536e-22 -5.006511e-22 -3.9611278e-22 -5.607878e-22 1.1405757e-20
-8.973966e-22 -4.669989e-22 -4.1610186e-08 -2.2229443e-21 -4.3561488e-16 8.067125e-18 -2.794328e-08 1.5010804e-21
-8.522012e-22 4.330302e-20 3.1209965e-21 1.3345541e-19 1.9043398e-21 -1.21261075e-20 -2.8309574e-21 4.3594607e-21
-3.9790328e-21 1.0189343e-21 -5.259037e-16 4.1515035e-20 5.3009486e-15 1.0938963e-20 4.6968838e-21 -2.9539813e-05
-1.3824573e-21 2.8716228e-20 -9.22704e-21 7.8067476e-19 -5.0861618e-06 7.276801e-20 1.12317055e-20 3.704765e-21
-2.6631342e-21 3.6817582e-22 1.0279476e-21 5.9409978e-21 -3.931545e-22 -1.5517396e-22 1.3443085e-21 1.1688907e-21
-6.7892335e-21 -8.230092e-21 -6.6057925e-22 4.36897e-22 5.9504886e-22 8.699269e-22 -2.745251e-23 9.867226e-22
8.842216e-21 -1.9338945e-20 -1.1329039e-20 -1.2464855e-20 2.3888948e-21 -1.5295278e-21 1.3109435e-21 7.996104e-22
6.6949377e-21 1.4665573e-21 1.8605162e-21 -1.221011e-21 -1.1297096e-20 -1.6935408e-21 -2.9820546e-21 3.2069107e-22
-1.2186064e-21 6.532077e-21 -1.8065293e-21 1.346569e-21 8.2203083e-22 -1.4058804e-22 8.894583e-22 9.273947e-21
-2.6436297e-21 3.4865304e-22 1.2692732e-21 5.046224e-22 5.433169e-22 3.7399724e-22 7.6925075e-21 -1.204095e-20
9.5326176e-21 -1.6179716e-20 3.4046774e-21 1.6982218e-21 7.771678e-22 1.1163904e-22 7.848358e-21 3.192541e-21
-1.7820437e-21 1.5487802e-21 -9.828908e-21 -2.864453e-21 -2.3812461e-08 1.01642726e-20 6.2820946e-17 7.025417e-18
-8.107404e-09 1.2835284e-22 2.3888245e-21 -2.0309213e-20 3.8270705e-22 -7.6101216e-19 -2.0562967e-21 6.3236536e-20
3.6493403e-21 6.8860706e-22 -2.7046898e-21 1.958574e-22 -1.0912865e-15 3.2614374e-20 3.11758e-15 -9.897126e-21
-1.2148214e-21 -2.565702e-05 -4.379111e-22 7.428521e-19 8.486476e-21 5.4969553e-19 -2.331501e-06 -1.0851012e-19
1.729093e-20 5.4964027e-21 -5.399716e-18 -2.4879907e-21 -3.1209252e-21 2.1746667e-21 -3.815645e-18 -9.810798e-21
1.905787e-22 7.902994e-21 4.7196434e-19 1.5440743e-15 -3.6911226e-20 -9.242661e-22 2.407763e-20 -4.3706053e-17
-2.6804974e-22 -1.0371721e-21 2.436163e-16 -2.3793306e-10 5.948829e-16 1.1478093e-14 -6.957804e-20 -1.331519e-13
-2.6716803e-21 -9.287112e-21 -1.726002e-18 2.6603233e-21 8.797213e-16 -1.8623426e-19 2.4137623e-16 3.7121365e-20
-4.907228e-18 1.2544592e-21 -8.417675e-22 -6.3904736e-20 6.0620117e-19 3.5700326e-22 -2.8685283e-21 4.2413654e-21
1.767691e-19 1.087326e-16 -3.8132813e-20 -1.793489e-21 -1.8437423e-20 8.187961e-18 7.189693e-22 1.3573532e-21

conv1.bias f4 [30]
00000000: 1162 2bbb 351b 3eab f5ec c4b7 2081 89b7
00000010: 9371 acba 3ee4 4d9f 4414 b1a0 9c53 21aa
00000020: ca01 24b3 889e ad3c b561 50a4 b7ea a5b7
00000030: f027 b827 b259 0eb7 1d74 b49f 18ee 0bb5
00000040: d8a2 2aba d0d3 14bb 2253 e4bb b0ef c3b9
00000050: 6088 0e29 dc98 0dbc 0c64 ffa1 2df0 7ab9
00000060: 5afb 30b5 3ab9 60bb 4407 09bc 6492 b4bb
00000070: 4e46 01b8 fd79 5b29
-0.0026150981 -6.7539317e-13 -2.3475362e-05 -1.6391801e-05 -0.0013156406 -4.3599236e-20 -2.9998377e-19 -1.432868e-13
-3.8185853e-08 0.021193758 -4.518557e-17 -1.977883e-05 5.111356e-15 -8.484743e-06 -7.642506e-20 -5.2128007e-07
-0.0006509251 -0.0022709258 -0.006967918 -0.0003737188 3.164862e-14 -0.008642402 -1.7305954e-18 -0.0002393133
-6.5930874e-07 -0.003429009 -0.008363549 -0.005510615 -3.0821473e-05 4.8733576e-14

conv2.weight f4 [30, 10]
00000000: 800c 671a e045 38b8 fe60 1022 2743 0c1f
00000010: 885c a1b1 0606 dd1c c3ac af1d 5e9b ec39
00000020: 080a 733b 33ec bc1c 8dce 1f9c eeec a99c
00000030: 0095 4a1a 08b0 991b 58ef 1d1c 209e 669d
00000040: 46d6 9e1b fa7e 0928 4240 2da9 3e98 e09b
00000050: faa3 949c 34a1 b0b9 1845 1025 809f b41f
00000060: 9c98 89b4 ce39 1b9a 9cc5 029e 88aa e53a
00000070: ae17 ecbb 922b 629c 8448 ff9b 60cb 17b8
00000080: d8eb bc21 a6bc 89a0 cde5 09b5 218d 361d
00000090: d0ad eb1d f94f 1e3a 918b 5bba 93bc b61c
000000a0: 8844 9f1c 911e 1cb3 b9cc 471e 24bc 981e
000000b0: 7865 06b3 2265 109b 0b2b f19d 6de2 c935
000000c0: a6f6 a1b8 1a0a 8c9c 348a 411b 15ee 259c
000000d0: ed1a c81c ca46 0d1d 061e 5b9d 3be1 d19b
000000e0: 9426 3522 119c de9b d8fa 761d 62f2 141c
000000f0: 4fe1 d49b 2e21 509c 4402 6c9c 382b fe9d
00000100: 2c52 64a1 9205 2a1c 661e fd22 9150 a420
00000110: 9ac3 6aa1 01a2 181c e58b ac1c d482 4f9e
00000120: bb1e b1a1 d2ee 4f1d b7ac 671c f5c9 bd1b
00000130: 4066 ac19 bc4d 22a1 8861 65a9 a0cd 289c
00000140: 4127 4b9c 20e1 6a9c fa68 a79b 5136 da1d
00000150: e138 87a6 da90 011c 2684 2d1d 6aee 3d1c
00000160: f125 bba7 e8f7 e51b fa8a 53a4 e9e5 58b8
00000170: 3cc3 13b1 bd13 591f 7e43 c7a4 337c 9bb2
00000180: a404 a425 03be 283d d380 d9bb c651 a3b7
00000190: 5451 7f1c 89ca 171b d06c 6e9b 148a 879c
000001a0: 9c61 3b1d ba21 219c 6461 6c9c 0c1a d21c
000001b0: c568 ae9c 2716 d19b 1d7c d39d a61a 021e
000001c0: 824f 9c9c 1a33 001c e3df 761c 65e7 901d
000001d0: dc2a b51b 07a8 3eb6 2d7b 1937 3ab0 ad1d
000001e0: bb3e 601c e89a ae1b c8d3 3921 b7c8 ca1d
000001f0: 3f3e 8ea6 5e44 8d9c d8bd 061d 7c23 da1b
00000200: 3edb 23a8 e1e6 c89b 1928 d89b 8477 1d1b
00000210: bd5f f89b 568f 889d 948f 0723 0016 439b
00000220: 2d70 ab9c 789d f01a 9c5c f823 09a7 da1b
00000230: de5b f11b aede 331b d0c3 b59a a590 859b
00000240: 0c97 1f1c 1089 981b a407 2c1c 6a6c 209f
00000250: e8c6 3a1c b8b1 f51b 546e 169e 0c37 6a1c
00000260: 92c3 579c e497 329b 72e6 921b 9cb8 079f
00000270: 8cf5 5e9c d86c 8431 8fd3 bab2 5b12 e01d
00000280: 5a1c 731c 5bb7 771e e7d5 8c9d 358c d09f
00000290: d610 0db7 a6b2 849c 2179 b49d 9bb3 2f9e
000002a0: 613a 2b38 c838 919c c078 c798 d8d2 5f1c
000002b0: e479 0b9b 17a6 7c1e decd 2da8 d627 b81c
000002c0: cd1d af1d b22b 939b 702f 4629 0ba9 bb1b
000002d0: d33e 051e 6b16 52ba 6a81 b2a4 a514 1921
000002e0: 9047 34b3 9da3 d5a0 ea1a 881d 4dd9 123c
000002f0: a8ea 813c be2d f11c 5813 929c 8093 b41a
00000300: f8c6 031c 4b76 d49d dae7 cea9 2696 0b1c
00000310: aafa 881b 2ae2 ab9c f881 d7aa ccb8 191b
00000320: 884a 2d1c 0ae2 7f1c 762d 3720 7e9f af1b
00000330: d9a9 5b9d 1a09 e01c 48f8 939c 93ce d69c
00000340: 12f2 871d 20a6 141a 815b bb1c d06a 21b5
00000350: eae5 4120 1a04 3a1e c0b9 621d 38cd 3a9d
00000360: db04 571c dd6a 3e37 ba13 73b9 6871 2f1c
00000370: 2e20 779c e022 a49b 0615 4b1c 8490 261e
00000380: 5298 40a2 0025 101b 719f 819d acb7 6da1
00000390: 0990 53a3 44f7 421b 100c 6e1b f317 3f9d
000003a0: 453a 481c c001 b49c ba15 999c 7512 d89b
000003b0: a07d 8b9b 2e59 062c 2c71 bf2f fc68 a61c
000003c0: 7470 961c d9c8 a29b 386d 349b 5bef 3e9d
000003d0: 5e40 f91e 8e92 981c b41d 381d 1267 859b
000003e0: 69f5 ea9e 906a 821b f1f9 1b9d aee5 93b3
000003f0: 37fd 2d1f 51c9 2e1d d43b 199d b6c0 f99d
4.7779778e-23 -4.3934095e-05 1.9566986e-18 2.97017e-20 -4.6962363e-09 1.462611e-21 4.6500746e-21 0.00045129185
0.0037084837 1.2501852e-21 -5.287565e-22 -1.1244727e-21 4.1892982e-23 2.5425484e-22 5.2256287e-22 -3.0521995e-21
2.6277378e-22 7.632561e-15 -3.846945e-14 -3.7156076e-22 -9.836205e-22 -0.00033689442 1.2513419e-16 7.6496836e-20
-2.5629276e-07 -3.2099943e-23 -6.923007e-21 0.0017522136 -0.0072049713 -7.483344e-22 -4.2233073e-22 -3.6190613e-05
1.2801803e-18 -2.333354e-19 -5.137088e-07 2.4160461e-21 6.23837e-21 0.00060391385 -0.0008374984 1.2092495e-21
1.0539452e-21 -3.634938e-08 1.0577308e-20 1.6171439e-20 -3.129159e-08 -1.1944079e-22 -6.3836674e-21 1.5041566e-06
-7.72302e-05 -9.267034e-22 1.6009242e-22 -5.4901634e-22 1.324185e-21 1.8697792e-21 -2.899993e-21 -3.4721701e-22
2.4550497e-18 -3.6827675e-22 3.2687512e-21 4.9282365e-22 -3.521806e-22 -6.886431e-22 -7.808878e-22 -6.7277927e-21
-7.735816e-19 5.625548e-22 6.8607973e-18 2.7835995e-19 -7.954116e-19 5.0501966e-22 1.1418167e-21 -1.0985543e-20
-1.2002121e-18 2.751969e-21 7.6654717e-22 3.139794e-22 1.7825682e-23 -5.4990616e-19 -5.093281e-14 -5.58523e-22
-6.72178e-22 -7.7715073e-22 -2.7695672e-22 5.776028e-21 -9.382924e-16 4.2869736e-22 2.2964678e-21 6.2842997e-22
-5.1944063e-15 3.8045078e-22 -4.587105e-17 -5.1712534e-05 -2.1502293e-09 4.5967865e-20 -8.641683e-17 -1.8100854e-08
2.845261e-16 0.041196834 -0.0066376715 -1.9469193e-05 8.4477537e-22 1.255587e-22 -1.9722058e-22 -8.969243e-22
2.4799707e-21 -5.331402e-22 -7.8211724e-22 1.3903367e-21 -1.1541436e-21 -3.4590465e-22 -5.5979565e-21 6.8876535e-21
-1.0343766e-21 4.2417695e-22 8.168394e-22 3.835574e-21 2.9971635e-22 -2.841001e-06 9.14819e-06 4.5974933e-21
7.419646e-22 2.888599e-22 6.296073e-19 5.367649e-21 -9.870101e-16 -9.34827e-22 1.78329e-21 3.6088006e-22
-9.095858e-15 -3.3236426e-22 -3.5760115e-22 1.3025353e-22 -4.1090028e-22 -3.6147106e-21 7.3487685e-18 -1.613713e-22
-1.1344828e-21 9.951608e-23 2.6927435e-17 3.6173019e-22 3.9929473e-22 1.4878485e-22 -7.51762e-23 -2.2096479e-22
5.280391e-22 2.5234865e-22 5.69199e-22 -3.3970996e-20 6.179932e-22 4.0646698e-22 -7.963749e-21 7.749525e-22
-7.13903e-22 -1.4772893e-22 2.4302596e-22 -2.8740067e-20 -7.3771e-22 3.8540797e-09 -2.1749456e-08 5.9311285e-21
8.04386e-22 1.3113988e-20 -3.727886e-21 -8.832338e-20 -8.408175e-06 -8.781207e-22 -4.7770848e-21 -9.301564e-21
4.0823947e-05 -9.609973e-22 -5.156222e-24 7.405702e-22 -1.1537195e-22 1.33751155e-20 -9.6480695e-15 1.2186396e-21
4.6352928e-21 -2.4347347e-22 4.4005977e-14 3.1045796e-22 7.053953e-21 -0.0008014205 -7.741443e-17 5.186574e-19
-4.19746e-08 -3.6191874e-19 3.602673e-21 0.008962941 0.015858963 1.5959866e-21 -9.66647e-22 7.4684554e-23
4.3601425e-22 -5.6238245e-21 -9.1884576e-14 4.6185304e-22 2.26613e-22 -1.1374293e-21 -3.8281856e-13 1.2715574e-22
5.733723e-22 8.466457e-22 1.5515745e-19 2.905439e-22 -2.9072218e-21 1.4825429e-21 -9.791823e-22 -1.421473e-21
3.5984497e-21 3.0739877e-23 1.2398275e-21 -6.0132606e-07 1.6423808e-19 9.847606e-21 3.0006881e-21 -2.472299e-21
7.114381e-22 1.1349764e-05 -0.00023181635 5.8049217e-22 -8.1767036e-22 -2.7154062e-22 6.719424e-22 8.817852e-21
-2.610149e-18 1.1923356e-22 -3.4310874e-21 -8.054181e-19 -1.14688336e-17 1.61272e-22 1.9690796e-22 -2.529102e-21
6.624976e-22 -1.1911853e-21 -1.0130307e-21 -3.574613e-22 -2.3076804e-22 1.909205e-12 3.482311e-10 1.1012096e-21
9.955236e-22 -2.6930447e-22 -1.4924542e-22 -2.5270034e-21 2.6390522e-20 1.00964e-21 2.4367553e-21 -2.2069612e-22
-2.4877213e-20 2.157556e-22 -2.0643296e-21 -6.8869994e-08 3.684363e-20 2.3132786e-21 -2.0280312e-21 -6.610901e-21

conv2.bias f4 [10]
00000000: db89 46b2 36d3 adbb d634 49b3 aca2 89b2
00000010: f8c3 bfbc a731 88b8 1557 98bb 028d 81bc
00000020: fd0c 2ebc 6a21 e3ba
-1.1556462e-08 -0.0053047193 -4.6847013e-08 -1.6022874e-08 -0.023408875 -6.494234e-05 -0.004649053 -0.015814308
-0.010623214 -0.0017328684

rnn.weight_ih_l0 f4 [30, 1]
00000000: cd08 393e aa91 b83d 994c 29be 304c 37be
00000010: 9092 34bd cb96 9abd 57b9 a83d 028b a33d
00000020: 2938 293d 152c 3a3c 6b1f a1bc 0180 c3bc
00000030: 5245 843b b3a2 64bc 1f61 32bd 1cda fcbd
00000040: c38c af3d be3c 9e3d e415 763c 4102 bd3c
00000050: 37de efbc 60b8 8c40 1610 e3bc 2000 d2bb
00000060: 53b4 343a 8ebf 193d fffe 0c3d d9b5 873e
00000070: 0e60 ab39 90b6 213c
0.18069763 0.09012158 -0.16533126 -0.17900157 -0.044085085 -0.07548293 0.08238476 0.07985498
0.041313324 0.011363049 -0.019668302 -0.023864748 0.004036584 -0.013954806 -0.043549653 -0.123462886
0.0857177 0.077264294 0.015019868 0.023072364 -0.029280765 4.3975067 -0.027717631 -0.0064087063
0.00068933255 0.037536196 0.03442287 0.26505926 0.00032687228 0.009870186

rnn.weight_hh_l0 f4 [30, 30]
00000000: 93da c4bd 1547 e93d bb28 c23d c8d8 ed3d
00000010: 7a0a ec3d 30ec e5bd f4f0 e1bd 6b47 d2bd
00000020: 3f40 eb3d 12fb ebbd bb60 f2bd ab6e e73d
00000030: 0668 e8bd 7232 e33d 9dc8 e63d 7a86 583c
00000040: f865 e73d 2c87 e8bd 6974 eabd d055 e8bd
00000050: 3875 f2bd 5da3 8d3e b431 e93d 3bb0 febd
00000060: 9673 ea3d ea44 ec3d b94d e43d 835c e93d
00000070: 6d8f e73d 0599 ecbd dafa ac3e b65a 36be
00000080: 36e8 67be a189 84be dbda c0be e7e0 a53e
00000090: 912e 833e fe3c 9e3e c1e8 83be 1789 8e3e
000000a0: ec1a a33e 216f bfbe 4d84 663e 6708 a9be
000000b0: a853 8dbe 993e cc3e 5ced c8be 43d1 6b3e
000000c0: 5975 da3e d8e7 b03e 2ae6 fa3e e27c 46be
000000d0: a280 9bbe 9559 893e 6703 bfbe 5617 fcbe
000000e0: c63d 37be b4a1 c5be 3367 aabe 7750 a63e
000000f0: d538 013d 0e62 8bbe f782 4d3e 1e2f b5bd
00000100: 3715 07be 4133 193e a4bf e83d 65bc 0b3d
00000110: 0321 d1bd e222 5a3d ebc8 a13d 98e2 07be
00000120: 19c6 c33d 2d41 c8bd a965 03be 761d 8dbe
00000130: e50d 43be ee70 4e3d f075 3f3d 6257 8b3e
00000140: 9420 203e a312 6dbe 4cfc e4bd 8dc7 8b3d
00000150: 6bba 3bbe 5231 3bbe ac11 a83d 9f19 57be
00000160: 1cb5 c0bd 3f51 b73d be1b 893c 7e5c 4dbc
00000170: 49d0 8abd 48c4 0cbe 2c25 16be c4a2 133e
00000180: f34c 943d 05e4 e53c 8ec1 e5bd 1985 363e
00000190: b4e7 833c efbc 0fbe 5ca0 9d3d 53b5 1cbe
000001a0: 6607 1ebe f03a d9bd bc62 f5bd 2c68 453e
000001b0: 9af4 6a3d 3257 143e a734 f83d 28d6 87be
000001c0: a99e 09be 50c9 023e 5a56 1fbe d6f7 98bd
000001d0: d20e 2c3d 6a0a 2bbd c273 06be 5602 293e
000001e0: 4748 853e 090e 28be 3098 86be 3c79 c6be
000001f0: 3281 b6be 7062 703e 61cb a23e e3d9 413e
00000200: bca0 81be 7515 ce3e 6604 f13d ed22 c0be
00000210: a6f5 733e a61c d6be 9660 9ebe 6c09 b7be
00000220: 29a6 a3be 444b ba3e e778 bc3e 7b99 b13e
00000230: c24e a03e a16b 8c3d d311 81be e0f7 a23e
00000240: d04b 24be bc89 acbe f996 b63e aeb8 98be
00000250: 4619 a4be c1c9 d43e a3c7 29be 5c29 573e
00000260: c3fc dd3d 3071 753e b9f6 763e b5c3 46bd
00000270: 2949 6dbe 7b79 28be 292d 7c3e f137 75be
00000280: f506 41be 76ce 763e 2eda 7dbe 70af 773e
00000290: 215b 733e 8ec9 46be 615a 693e 2786 7cbe
000002a0: 7198 6cbe bbc5 76be 5a6a 7bbe 3784 d9bd
000002b0: efaa 743e 6221 6ebe e595 263e 9c4e 7e3e
000002c0: 5d46 163e 21f6 673e 7d21 703e 0ef9 74be
000002d0: db43 04be 1b77 9d3d dcbe 793d 8d09 bb3d
000002e0: 6a9c 033e c7ea 23be a22c b3bd b45a e6bd
000002f0: 166e a63d 347f cdbd 064f 8cbd 7f51 b63d
00000300: c89c bebd 755f cc3d bae0 ad3d b27d 133d
00000310: a7b1 a63d 3c65 dcbd 4bdb b9bd 7716 d4bd
00000320: 08b4 e9bd 0096 9b3e d9b6 c73d f76f 31bd
00000330: b7ec 1c3e 61c6 b53d 86dd 823d 6b17 9f3d
00000340: 5708 9e3d 8e0a e2bd 95e8 fcbd d38c f53d
00000350: 9749 e93d f9a4 fb3d 1e59 023e 0042 01be
00000360: 4387 f2bd 85fc fdbd 2d51 f53d 6524 f7bd
00000370: 2eaa febd 8c30 f53d 01d7 f6bd 6d8c f23d
00000380: f1fc f43d 779d e0bc 2240 fa3d 6ab0 f5bd
00000390: f3a5 f6bd 3e25 f5bd 351e 01be 5292 5a3e
000003a0: fe0b f83d 6c48 03be 8c3e 023e 06e1 fa3d
000003b0: b198 043e 515d f43d 6f3a f23d 008d f6bd
000003c0: eeda e63d c248 e5bd 1997 aebd 5af6 f6bd
000003d0: 47a5 f7bd 3a68 e83d 2431 f23d 7a0d e73d
000003e0: d85e edbd 8289 f63d 72c4 e83d 468d eebd
000003f0: 447e f43d d797 f3bd fd27 f1bd d1ff 80bb
-0.09612002 0.11390511 0.09480425 0.11613613 0.11525436 -0.1122669 -0.11032286 -0.10267528
0.11486863 -0.11522497 -0.11834856 0.11300405 -0.11347966 0.11093606 0.11268733 0.013215655
0.11298746 -0.11353907 -0.11447985 -0.113444924 -0.11838764 0.276637 0.11386433 -0.12435957
0.114478275 0.11536582 0.11147637 0.11394598 0.11306653 -0.11552624 0.33785135 -0.17808041
-0.22647175 -0.25886253 -0.37666973 0.3239815 0.25621465 0.30905908 -0.25763515 0.27838966
0.31856477 -0.37389472 0.22511406 -0.33014223 -0.27602887 0.39891508 -0.3924359 0.23029046
0.42667654 0.34551883 0.49003726 -0.19383577 -0.30371577 0.26826158 -0.37307283 -0.49236554
-0.17894658 -0.38599932 -0.3328186 0.32483265 0.03154834 -0.27223247 0.2006949 -0.088468775
-0.13191687 0.14960958 0.113646775 0.034115214 -0.102113746 0.053255923 0.0789965 -0.13270032
0.095592685 -0.09778056 -0.12831749 -0.2756154 -0.19048269 0.050400667 0.046743333 0.27215105
0.15637428 -0.2315164 -0.11180934 0.06825171 -0.18332832 -0.18280533 0.08206496 -0.21005867
-0.09409544 0.08951043 0.016736861 -0.012534259 -0.067780085 -0.1374675 -0.14662617 0.14417559
0.072412394 0.02806283 -0.11218558 0.1782421 0.016101696 -0.14036916 0.07696602 -0.15303545
-0.1543251 -0.106069446 -0.11981723 0.1927802 0.057362176 0.14486387 0.12119418 -0.26530576
-0.1343943 0.12772107 -0.15560284 -0.07469146 0.04200632 -0.04175798 -0.13130096 0.16504797
0.26031706 -0.16411604 -0.26287985 -0.3876437 -0.35645443 0.23475051 0.3179579 0.18930773
-0.25317943 0.40250745 0.11768417 -0.37526646 0.23824176 -0.41818732 -0.30933064 -0.35749376
-0.31962708 0.36385548 0.3681099 0.3468741 0.31310087 0.06856466 -0.2520891 0.3182974
-0.16044545 -0.33698833 0.35662058 -0.298284 -0.32050532 0.41560176 -0.16580062 0.21011871
0.10839226 0.23968959 0.24117555 -0.048526485 -0.2317244 -0.16452591 0.24626602 -0.23947121
-0.1885031 0.24102196 -0.2479026 0.24188018 0.23765232 -0.19412825 0.22788383 -0.2466055
-0.23105027 -0.24098866 -0.24552289 -0.10620921 0.23893331 -0.23254922 0.16268118 0.24834675
0.14675279 0.22652484 0.23450275 -0.23923132 -0.1291651 0.07688733 0.060973033 0.09132681
0.12852636 -0.16007529 -0.087487474 -0.11247769 0.08126466 -0.10034028 -0.0685101 0.08902263
-0.093072474 0.099791445 0.08490129 0.036008544 0.08139353 -0.107614964 -0.0907503 -0.10355847
-0.11411291 0.30387878 0.09751672 -0.04331967 0.15324675 0.088757284 0.063899085 0.077681385
0.077164344 -0.110371694 -0.12349049 0.11989751 0.11390989 0.122873254 0.12729308 -0.12622833
-0.118422054 -0.1240168 0.11978374 -0.120674886 -0.12434803 0.1197215 -0.120527275 0.1184319
0.11962307 -0.027418835 0.122192636 -0.11996539 -0.12043371 -0.11969994 -0.1260918 0.2134488
0.12111662 -0.12820596 0.12719172 0.12249951 0.12948872 0.11931861 0.118275516 -0.12038612
0.11272226 -0.11195518 -0.08524913 -0.120587066 -0.12092071 0.11348005 0.11825779 0.11281867
-0.11590356 0.12037946 0.11365594 -0.116480395 0.11938146 -0.118941955 -0.11775205 -0.0039367457
