colagnn-master-Run-Epi/src/save/cola_gnn_epi.us_states_covid_mov_14.w-20.h-1.RNN.lam-0.5.epo-500.pt (torch, 61046 bytes, 32 tensors)

V f4 [15]
0.10007356 0.5772877 -0.11008249 -0.018599909 0.055514384 0.3218674 0.04707366 -0.090221174
-0.019813562 0.17247844 0.07398123 -0.49067262 0.29711398 0.1783855 -0.09879896
00000000: 5ef3 cc3d 20c9 133f ee72 e1bd d65e 98bc
00000010: 0d63 633d cecb a43e 4fd0 403d e1c5 b8bd
00000020: 0d50 a2bc 309e 303e 7983 973d 7139 fbbe
00000030: 531f 983e b0aa 363e 1c57 cabd

W1 f4 [15, 30]
-0.0031839577 -0.0031531586 0.0031693531 -0.0032660854 -0.003149692 0.0031869211 0.0031585328 -0.0031981291
0.0031901884 -0.002909111 0.012795533 -0.0030895052 -0.0031451057 -0.0032307818 0.0031094619 0.0031585458
-0.0031057445 0.003175619 -0.003198718 -0.003083706 0.0031865085 -0.0030938757 0.0031463497 0.0030647242
-0.0031457832 0.0031449453 0.003184131 0.0031590874 0.0031991848 -0.0031327587 0.0126976315 0.012685733
-0.013294699 0.012664073 0.013033387 -0.012677051 -0.01265917 0.012690184 -0.012706258 0.012664187
0.03957982 0.012702561 0.01269951 0.012695381 -0.012699522 -0.01269926 0.012697919 -0.012695105
0.012699658 0.012701854 -0.012668593 0.012701491 -0.012712162 -0.012685037 0.012699644 -0.012688554
-0.0127071515 -0.0127043035 -0.01264954 0.012678564 0.0010021005 0.0009504502 -0.001009729 0.0010506578
0.001040886 -0.0009778996 -0.0009963458 0.0010221528 -0.0010248087 0.000900394 0.0017477977 0.0009986007
0.0010108914 0.0010163971 -0.0009954612 -0.0010105587 0.0009994451 -0.001014922 0.0009780987 0.0009515415
-0.0010182455 0.0009983255 -0.00093525084 -0.0009939374 0.0010060121 -0.0010052186 -0.0010141135 -0.0010099702
-0.0010278098 0.0010073613 0.049429163 0.049431514 -0.049475912 0.049420103 0.049446307 -0.04942356
-0.04942447 0.049428884 -0.04942646 0.048837595 0.06623196 0.04942099 0.049427915 0.049422495
-0.049435467 -0.049423855 0.04943162 -0.049423814 0.049421348 0.049415275 -0.049423557 0.049422268
-0.049427398 -0.049417913 0.04943452 -0.049426436 -0.049418 -0.04942233 -0.049423873 0.049422693
-0.0050938893 -0.0050924155 0.005049768 -0.0051334207 -0.005064334 0.0051200762 0.005075545 -0.005107513
0.005098789 -0.0048866523 0.007447963 -0.0050563617 -0.00505612 -0.0051091006 0.0050727553 0.005094895
-0.0050658854 0.005094021 -0.00510458 -0.005048613 0.00511242 -0.0050418465 0.0050376803 0.005044101
-0.005086252 0.005051188 0.005062677 0.005056412 0.0051044403 -0.005065337 -0.060176272 -0.060243282
-0.044420768 -0.060245283 -0.018765876 0.059761792 0.060928322 -0.061792787 0.06190118 -0.0592899
0.014483802 -0.060952272 -0.060315594 -0.06251853 0.061548032 0.061608948 -0.060434338 0.061812617
-0.06000564 -0.060098257 0.061913952 -0.06134156 0.058579147 0.06049706 -0.062224913 0.060410626
0.060982745 0.060794637 0.061516237 -0.06237595 0.01744541 0.017448265 -0.017451474 0.01744509
0.01746018 -0.017446028 -0.017446537 0.017448798 -0.017448187 0.017233815 0.023519037 0.017446673
0.017450696 0.017448723 -0.017449629 -0.017449377 0.017448582 -0.017447926 0.017449344 0.017452806
-0.017448682 0.017449036 -0.017451653 -0.017449062 0.01744942 -0.017449118 -0.01744796 -0.017450117
-0.01744867 0.01744893 -0.0013893646 -0.0013952511 0.0014005459 -0.0013957036 -0.0013988987 0.0013921718
0.001390651 -0.0013924795 0.0013911421 -0.0013989123 0.0006588384 -0.0013904216 -0.001388389 -0.001394682
0.0013963128 0.0013984453 -0.0013879704 0.0013928098 -0.0013923966 -0.001387691 0.0013987637 -0.0013910925
0.0013865904 0.00139479 -0.0013911932 0.0013909431 0.0013955567 0.0013906286 0.0013960225 -0.00139802
0.006819944 0.01567252 -0.0065553067 0.0021924456 0.005866589 -0.0156039465 -0.010842384 0.00034102122
-0.00021502655 0.0154611785 0.009618567 0.00814686 0.0029039728 0.00035252073 -0.009463689 -0.00095813465
00000000: f2a9 50bb 39a5 4ebb ecb4 4f3b d20b 56bb
00000010: 106b 4ebb aadb 503b 63ff 4e3b b497 51bb
00000020: 7b12 513b c9a6 3ebb 5ba4 513c 4c79 4abb
00000030: 1e1e 4ebb 86bb 53bb 1dc8 4b3b 9bff 4e3b
00000040: bf89 4bbb 0c1e 503b 95a1 51bb 0018 4abb
00000050: bed4 503b 9fc2 4abb fd32 4e3b 8ad9 483b
00000060: 7c29 4ebb 6d1b 4e3b dbac 503b b108 4f3b
00000070: 6aa9 513b f84e 4dbb ba09 503c d2d7 4f3c
00000080: 02d2 59bc f97c 4f3c fd89 553c 68b3 4fbc
00000090: 6868 4fbc 7dea 4f3c e92d 50bc 737d 4f3c
000000a0: 731e 223d 671e 503c 9b11 503c 4a00 503c
000000b0: a811 50bc 8f10 50bc ef0a 503c 21ff 4fbc
000000c0: 3a12 503c 701b 503c ee8f 4fbc ea19 503c
000000d0: ac46 50bc e7d4 4fbc 2b12 503c a7e3 4fbc
000000e0: a831 50bc b625 50bc 0440 4fbc c0b9 4f3c
000000f0: ea58 833a a227 793a e258 84ba 3ab6 893a
00000100: 576e 883a de2c 80ba d197 82ba c2f9 853a
00000110: e052 86ba 6b08 6c3a 5c16 e53a 7be3 823a
00000120: e37f 843a a138 853a 237a 82ba b974 84ba
00000130: d0ff 823a 2207 85ba 8c33 803a de70 793a
00000140: a676 85ba 3fda 823a 9f2b 75ba 0147 82ba
00000150: 2adc 833a 8ac1 83ba 01ec 84ba fa60 84ba
00000160: 93b7 86ba 7009 843a 3c76 4a3d b378 4a3d
00000170: 41a7 4abd bc6c 4a3d 3688 4a3d 5c70 4abd
00000180: 5071 4abd f175 4a3d 6673 4abd ee09 483d
00000190: 9fa4 873d aa6d 4a3d ed74 4a3d 3e6f 4a3d
000001a0: d87c 4abd ab70 4abd cf78 4a3d a070 4abd
000001b0: 0a6e 4a3d ac67 4a3d 5b70 4abd 016f 4a3d
000001c0: 6274 4abd 706a 4abd da7b 4a3d 6073 4abd
000001d0: 876a 4abd 126f 4abd b070 4abd 736f 4a3d
000001e0: a4ea a6bb 47de a6bb 8678 a53b 4136 a8bb
000001f0: b6f2 a5bb 50c6 a73b c250 a63b ed5c a7bb
00000200: be13 a73b 3620 a0bb 0b0e f43b d6af a5bb
00000210: cfad a5bb 3e6a a7bb 5b39 a63b 14f3 a63b
00000220: baff a5bb bfeb a63b 5244 a7bb d66e a5bb
00000230: 1686 a73b 1336 a5bb 2013 a53b fc48 a53b
00000240: 93aa a6bb 7084 a53b d0e4 a53b 42b0 a53b
00000250: 2643 a73b 20fb a5bb 657b 76bd a9c1 76bd
00000260: 8df2 35bd c2c3 76bd e5ba 99bc c8c8 743d
00000270: fa8f 793d 6f1a 7dbd 178c 7d3d f7d9 72bd
00000280: 784d 6d3c 17a9 79bd 7c0d 77bd b709 80bd
00000290: ca19 7c3d aa59 7c3d ff89 77bd 3a2f 7d3d
000002a0: 79c8 75bd 9729 76bd 7c99 7d3d 4a41 7bbd
000002b0: b0f0 6f3d c4cb 773d 8ddf 7ebd 2271 773d
000002c0: 0bc9 793d cc03 793d 73f8 7b3d ed7d 7fbd
000002d0: ade9 8e3c aaef 8e3c 65f6 8ebc 01e9 8e3c
000002e0: a708 8f3c f9ea 8ebc 0aec 8ebc c8f0 8e3c
000002f0: 80ef 8ebc ee2d 8d3c ffaa c03c 53ec 8e3c
00000300: c3f4 8e3c a0f0 8e3c 86f2 8ebc fff1 8ebc
00000310: 54f0 8e3c f4ee 8ebc edf1 8e3c 30f9 8e3c
00000320: 8af0 8ebc 48f1 8e3c c5f6 8ebc 56f1 8ebc
00000330: 16f2 8e3c 74f1 8ebc 06ef 8ebc 8cf3 8ebc
00000340: 83f0 8ebc 0ff1 8e3c 571b b6ba dce0 b6ba
00000350: 8692 b73a 0bf0 b6ba 405b b7ba 8979 b63a
00000360: 8146 b63a dc83 b6ba fc56 b63a b55b b7ba
00000370: e6b5 2c3a cf3e b6ba 9bfa b5ba c3cd b6ba
00000380: 7c04 b73a 0a4c b73a 8fec b5ba f18e b63a
00000390: 1481 b6ba 2fe3 b5ba b956 b73a 5255 b6ba
000003a0: 41be b53a 63d1 b63a b358 b6ba 4e50 b63a
000003b0: 1deb b63a c145 b63a befa b63a c43d b7ba
000003c0: d679 df3b a863 803c e6cd d6bb 22af 0f3b
000003d0: 843c c03b b2a7 7fbc 41a4 31bc 18cb b239
000003e0: c078 61b9 e250 7d3c 3297 1d3c 687a 053c
000003f0: 9450 3e3b 88d2 b839 970d 1bbc 542b 7bba

b1 f4 [15]
0.0032070742 -0.012695623 -0.0010461833 -0.04942536 0.005108532 0.060124714 -0.017448222 0.0013946111
-6.717257e-05 -0.038089223 -0.017475137 -0.07808019 0.026548678 0.05648108 -0.003521219
00000000: c72d 523b 4d01 50bc 1620 89ba 3f72 4abd
00000010: 7965 a73b 5545 763d 93ef 8ebc 62cb b63a
00000020: 00df 8cb8 7203 1cbd 0528 8fbc 82e8 9fbd
00000030: 9d7c d93c b458 673d 40c4 66bb

W2 f4 [15, 30]
-0.003436273 -0.0032218194 0.003187193 -0.0031867065 -0.0032241195 0.0033262598 0.0031710463 -0.0032844152
0.00324718 -0.0034043915 0.027328983 -0.0030973689 -0.0032139625 -0.003202402 0.0033742967 0.003280724
-0.0032075832 0.0032813554 -0.0033844798 -0.003275181 0.0032081702 -0.0037201047 0.0034853055 0.0033287224
-0.003235804 0.0031409573 0.0033106986 0.0036739968 0.0032612877 -0.0036148618 0.012691263 0.012701463
-0.013299487 0.012705725 0.013045404 -0.012704233 -0.012693164 0.012633897 -0.012675602 0.0123502
0.012808362 0.012682604 0.012708942 0.012697202 -0.012643879 -0.012692911 0.012709387 -0.012503599
0.012703214 0.012736096 -0.012711153 0.012668635 -0.012714589 -0.012687027 0.012709183 -0.012703907
-0.012597378 -0.012680319 -0.01268816 0.012662632 0.0010160612 0.0010214145 -0.0010320226 0.001046175
0.0010502359 -0.0010789956 -0.0010212641 0.0010347011 -0.0010261132 0.0014708916 -0.012701696 0.0009658893
0.0010105295 0.0010205032 -0.0010938778 -0.001066439 0.000993522 -0.0011476277 0.0012795044 0.0011685096
-0.0010205035 0.0011427759 -0.0015992115 -0.0010724819 0.0009988651 -0.0010388797 -0.0011086353 -0.0011681587
-0.0010332672 0.0010581564 0.04942137 0.049422745 -0.049441934 0.049423013 0.04946004 -0.04942495
-0.04942445 0.049416147 -0.049429417 0.048797116 -0.050159793 0.049420748 0.049421705 0.049434535
-0.049424883 -0.049434796 0.049434777 -0.04944471 0.04941612 0.049421262 -0.049417306 0.04942747
-0.049427535 -0.049414553 0.049435288 -0.04941954 -0.049439967 -0.04943654 -0.049437217 0.04944472
-0.005346883 -0.0053813076 0.0050616246 -0.0051039406 -0.0051175053 0.0052473177 0.005075519 -0.005164317
0.0050987164 -0.005107725 0.024453148 -0.005041902 -0.0051324144 -0.005097606 0.0052400436 0.0051389635
-0.0051240805 0.00556881 -0.005189093 -0.005148005 0.005108465 -0.0056722327 0.0051581943 0.0053694677
-0.0051048677 0.005040453 0.0055606375 0.005864901 0.0051197065 -0.0054196385 -0.06881403 -0.068837225
-0.043477233 -0.06050252 -0.022407705 0.06315485 0.06125363 -0.06232389 0.061684653 -0.060320906
0.08508104 -0.06060067 -0.06201265 -0.061159253 0.06405594 0.06279527 -0.060987353 0.07376963
-0.06225311 -0.06094338 0.061140105 -0.073242396 0.060073692 0.0671716 -0.0626877 0.060168624
0.0708166 0.07666308 0.0605852 -0.070078686 0.017343733 0.017413571 -0.017449057 0.017442815
0.017432721 -0.017413564 -0.017442366 0.017434096 -0.017447343 0.017173627 -0.036098875 0.017447777
0.017430726 0.01744928 -0.017384298 -0.017442992 0.01743247 -0.017415255 0.017425701 0.017439233
-0.017446503 0.017300105 -0.017443886 -0.017397093 0.017427897 -0.017448757 -0.017392522 -0.017285932
-0.017440997 0.017317582 -0.0013963198 -0.0013853455 0.0014035793 -0.0013961295 -0.0013855421 0.0013951493
0.0013904007 -0.0013905918 0.0013941848 -0.0013789777 -0.005692711 -0.001394486 -0.0013953858 -0.0013915371
0.0014016611 0.0013931163 -0.0013977189 0.0013813159 -0.0013948616 -0.001392482 0.0013907958 -0.0014100384
0.0013936538 0.0014073384 -0.0013945514 0.0013892808 0.0013810133 0.0013624885 0.0013958933 -0.0014001862
0.012413817 -0.010267582 -0.0034556855 0.0007561494 0.0053470717 0.00087377126 -0.011436913 0.0004925381
8.843769e-05 -0.010326838 0.016659098 0.013403063 0.0027869313 0.00037032203 0.004433083 0.0021332358
00000000: 1833 61bb 2925 53bb 3ae0 503b 10d8 50bb
00000010: c04b 53bb 61fd 593b 54d1 4f3b 583f 57bb
00000020: a4ce 543b 361c 5fbb 08e1 df3c 3afd 4abb
00000030: 58a1 52bb 64df 51bb 4e23 5d3b 6a01 573b
00000040: 5136 52bb 020c 573b 26ce 5dbb 6ba4 56bb
00000050: 2a40 523b 00cd 73bb b969 643b b226 5a3b
00000060: c80f 54bb 85d8 4d3b 4ef8 583b 70c7 703b
00000070: 54bb 553b 51e7 6cbb 04ef 4f3c cc19 503c
00000080: 17e6 59bc ac2b 503c 64bc 553c 6a25 50bc
00000090: fdf6 4fbc 68fe 4e3c 54ad 4fbc 7e58 4a3c
000000a0: 2ada 513c b2ca 4f3c 2b39 503c ed07 503c
000000b0: 4628 4fbc edf5 4fbc 083b 503c e5db 4cbc
000000c0: 2421 503c 0fab 503c 7142 50bc 1b90 4f3c
000000d0: da50 50bc 40dd 4fbc 2d3a 503c 0c24 50bc
000000e0: 3c65 4ebc 1dc1 4fbc 00e2 4fbc ee76 4f3c
000000f0: 5b2d 853a fce0 853a ef44 87ba cf1f 893a
00000100: 12a8 893a 166d 8dba f0db 85ba cf9e 873a
00000110: a57e 86ba efca c03a c61a 50bc bc33 7d3a
00000120: be73 843a 68c2 853a 7360 8fba c1c7 8bba
00000130: 1139 823a ff6b 96ba 0bb5 a73a ad28 993a
00000140: 6ac2 85ba 32c9 953a a29c d1ba 8592 8cba
00000150: 5aec 823a 052b 88ba a14f 91ba e71c 99ba
00000160: b26e 87ba d6b1 8a3a 106e 4a3d 816f 4a3d
00000170: a083 4abd c96f 4a3d 9c96 4a3d d171 4abd
00000180: 4b71 4abd 9668 4a3d 8076 4abd 7cdf 473d
00000190: 5b74 4dbd 696d 4a3d 6a6e 4a3d de7b 4a3d
000001a0: bf71 4abd 247c 4abd 1f7c 4a3d 8986 4abd
000001b0: 8f68 4a3d f36d 4a3d cd69 4abd 7574 4a3d
000001c0: 8774 4abd ea66 4abd a87c 4a3d 256c 4abd
000001d0: 9081 4abd f87d 4abd ae7e 4abd 8c86 4a3d
000001e0: e834 afbb ae55 b0bb fcdb a53b f53e a7bb
000001f0: bfb0 a7bb b1f1 ab3b 8a50 a63b 6e39 a9bb
00000200: 2213 a73b b45e a7bb f851 c83c 8a36 a5bb
00000210: d02d a8bb d209 a7bb acb4 ab3b c064 a83b
00000220: e7e7 a7bb 907a b63b 4409 aabb 99b0 a8bb
00000230: e964 a73b 23de b9bb 1206 a93b 5cf2 af3b
00000240: bc46 a7bb 622a a53b 0236 b63b 5b2e c03b
00000250: 36c3 a73b 3997 b1bb 5fee 8cbd 88fa 8cbd
00000260: 2f15 32bd 7ed1 77bd 5d90 b7bc 5457 813d
00000270: 16e5 7a3d 5647 7fbd 0ca9 7c3d 0e13 77bd
00000280: f83e ae3d 6838 78bd fa00 7ebd 2082 7abd
00000290: c32f 833d ce9a 803d e0cd 79bd 8814 973d
000002a0: 1efd 7ebd c49f 79bd 0c6e 7a3d 1c00 96bd
000002b0: d50f 763d 4491 893d 6962 80bd 6073 763d
000002c0: 4b08 913d 8801 9d3d 3028 783d 6a85 8fbd
000002d0: 7214 8e3c e8a6 8e3c 53f1 8ebc 3ce4 8e3c
000002e0: 11cf 8e3c e4a6 8ebc 4be3 8ebc f3d1 8e3c
000002f0: bbed 8ebc b5af 8c3c 6adc 13bd a4ee 8e3c
00000300: e2ca 8e3c cbf1 8e3c 8469 8ebc 9be4 8ebc
00000310: 8ace 8e3c 70aa 8ebc 58c0 8e3c b9dc 8e3c
00000320: f8eb 8ebc f3b8 8d3c 7be6 8ebc 5984 8ebc
00000330: f3c4 8e3c b2f0 8ebc c37a 8ebc 3a9b 8dbc
00000340: 6ce0 8ebc 9add 8d3c b804 b7ba 7b94 b5ba
00000350: 4ef8 b73a 55fe b6ba 149b b5ba 71dd b63a
00000360: 1b3e b63a 8544 b6ba 14bd b63a d0be b4ba
00000370: ec89 babb 30c7 b6ba 61e5 b6ba 3d64 b6ba
00000380: f1b7 b73a 3a99 b63a aa33 b7ba 450d b53a
00000390: cad3 b6ba f183 b6ba 5d4b b63a 0ad1 b8ba
000003a0: 43ab b63a 7176 b83a 61c9 b6ba 8718 b63a
000003b0: 1e03 b53a 8795 b23a 68f6 b63a 7486 b7ba
000003c0: 5363 4b3c 5c39 28bc c878 62bb 5438 463a
000003d0: 7d36 af3b cc0d 653a e461 3bbc ac1d 013a
000003e0: a077 b938 e631 29bc a978 883c 8598 5b3c
000003f0: f3a4 363b c827 c239 6543 913b c2cd 0b3b

Wb f4 [55, 55]
-0.005048492 -0.0025996817 -0.033855937 -0.027883312 -0.022364756 -0.03559144 -0.0014442777 -0.004123479
-0.0024467995 -0.018803507 -0.0067693205 -0.0017182408 -0.0016856093 -0.053377815 -0.008822229 -0.0065882723
-0.025071472 0.004072058 -0.05966574 -0.016140096 -0.002530751 -0.029685283 -0.0056416495 -0.05871351
-0.006926599 -0.013398295 -0.06548486 -0.009540952 -0.008391812 -0.029470004 -0.009086033 -0.013332527
-0.021155927 -0.010507863 0.0015511527 -0.010367346 -0.0023434474 -0.009940488 -0.0032184315 -0.03335638
-0.009888222 -0.001820775 -0.00036973634 -0.0035906548 -0.023061428 -0.04732742 -0.013927403 -0.02179827
-0.023853863 -0.002378707 -0.006921456 -0.003922675 -0.013600344 -0.01590585 -0.012968996 -0.0050732405
-0.0018389744 -0.03435246 -0.028046705 -0.022199372 -0.035152707 -0.0012058037 -0.0039522396 -0.0023464637
-0.0192876 -0.006870024 -0.001665259 -0.0017461916 -0.05338985 -0.008807958 -0.0066406885 -0.02467109
0.0037185517 -0.059774563 -0.016038945 -0.0025297313 -0.02937098 -0.0055857897 -0.058745176 -0.007004858
-0.013172392 -0.06539739 -0.009595947 -0.00882338 -0.028091434 -0.0092868395 -0.013296688 -0.021186447
-0.009701683 0.0018338055 -0.010436575 -0.0021693418 -0.009968401 -0.0035507316 -0.033210944 -0.009885959
-0.0018093258 -0.00018146064 -0.0036172941 -0.023404706 -0.047481656 -0.014011345 -0.022340387 -0.024723766
-0.0020276066 -0.006377204 -0.003917569 -0.013580953 -0.015726987 -0.013026689 -0.00509062 -0.0021331268
-0.034403715 -0.027863547 -0.02245409 -0.035627805 -0.0013344982 -0.0036371874 -0.0023086711 -0.017933758
-0.0069321017 -0.0019134943 -0.001755124 -0.053260513 -0.008925824 -0.006660883 -0.024867058 0.003268002
-0.05972811 -0.016155258 -0.002527712 -0.030255422 -0.00564438 -0.05869239 -0.00695596 -0.013401337
-0.06564538 -0.009715553 -0.008236247 -0.029020142 -0.009086477 -0.0132427 -0.021161593 -0.010534736
0.0019581686 -0.010399656 -0.0020683624 -0.009168706 -0.00351239 -0.033019602 -0.009888368 -0.0017927943
-0.0005823445 -0.0036000805 -0.02359188 -0.04777713 -0.013957161 -0.021711212 -0.02401706 -0.002351718
-0.006876607 -0.0039187884 -0.0135384705 -0.015796555 -0.014179201 -0.0051100985 -0.0018490138 -0.033744283
-0.027818339 -0.02232412 -0.035106592 -0.0016426216 -0.0039865915 -0.002261166 -0.018988557 -0.006876145
-0.002149939 -0.0023638192 -0.053347934 -0.009283429 -0.0066396967 -0.02401887 0.003680164 -0.05972331
-0.01638304 -0.0024644919 -0.030065296 -0.0056359125 -0.05872085 -0.0068479707 -0.0133610815 -0.06546331
-0.009588104 -0.008666368 -0.029305365 -0.008992117 -0.013210863 -0.021167058 -0.010563874 0.001699242
-0.010288963 -0.00213782 -0.009869034 -0.003222841 -0.033264868 -0.009893982 -0.0019042275 -0.00043371122
-0.0035644742 -0.023100372 -0.047703944 -0.014025241 -0.021760788 -0.024679743 -0.0019556212 -0.006539483
-0.003922146 -0.013565506 -0.015713789 -0.012994078 -0.0050915843 -0.0026007355 -0.034081314 -0.027818331
-0.022451041 -0.035397004 -0.0014199605 -0.0036377544 -0.002280335 -0.019030597 -0.0069264965 -0.0021906951
-0.0023694276 -0.053270508 -0.008862253 -0.0065821195 -0.024624655 0.0030834477 -0.059682835 -0.01593821
-0.002521017 -0.029774874 -0.005643983 -0.05871834 -0.00686277 -0.0134060355 -0.06566283 -0.009775296
-0.008928905 -0.028066676 -0.009279126 -0.01323185 -0.021157546 -0.010637012 0.00088620855 -0.010334655
00000000: d26d a5bb 6c5f 2abb 86ac 0abd 8b6b e4bc
00000010: 4b36 b7bc 54c8 11bd eb4d bdba 401e 87bb
00000020: 7c5a 20bb d009 9abc 2dd1 ddbb 9836 e1ba
00000030: aaef dcba b2a2 5abd 1c8b 10bc 6fe2 d7bb
00000040: b062 cdbc e66e 853b 1064 74bd 3c38 84bc
00000050: f5da 25bb 8d2e f3bc 96dd b8bb 947d 70bd
00000060: 86f8 e2bb 8684 5bbc ed1c 86bd a751 1cbc
00000070: d07d 09bc 146b f1bc 96dd 14bc ac70 5abc
00000080: 324f adbc 2c29 2cbc 0c50 cb3a cddb 29bc
00000090: 8694 19bb 6edd 22bc 52ec 52bb b3a0 08bd
000000a0: 3602 22bc 12a7 eeba 2cd9 c1b9 3151 6bbb
000000b0: 52eb bcbc 66da 41bd c32f 64bc 4992 b2bc
000000c0: 2d69 c3bc 15e4 1bbb 62cd e2bb c889 80bb
000000d0: fad3 5ebc fc4c 82bc e97b 54bc 6d3d a6bb
000000e0: be09 f1ba 2ab5 0cbd 34c2 e5bc 75db b5bc
000000f0: 49fc 0fbd 0f0c 9eba ca81 81bb 21c7 19bb
00000100: 0701 9ebc f01d e1bb d244 daba 78e0 e4ba
00000110: 51af 5abd 414f 10bc 229a d9bb 071b cabc
00000120: f2b2 733b 2cd6 74bd 1b64 83bc d9c9 25bb
00000130: 699b f0bc 0009 b7bb c89e 70bd 0289 e5bb
00000140: 04d1 57bc 11ef 85bd 5238 1dbc f08f 10bc
00000150: 0220 e6bc d427 18bc 5ada 59bc 338f adbc
00000160: cff3 1ebc 4d5c f03a 2bfe 2abc 842b 0ebb
00000170: 8152 23bc 64b3 68bb 3308 08bd b8f8 21bc
00000180: e626 edba 7846 3eb9 2010 6dbb 3abb bfbc
00000190: 207c 42bd d78f 65bc 3003 b7bc 7f89 cabc
000001a0: 98e1 04bb ddf7 d0bb f35e 80bb a582 5ebc
000001b0: e2d5 80bc e56d 55bc 37cf a6bb eecb 0bbb
000001c0: e9ea 0cbd 1842 e4bc a4f1 b7bc 76ee 11bd
000001d0: 54ea aeba e15d 6ebb 134d 17bb d1e9 92bc
000001e0: af26 e3bb 37ce faba 300c e6ba b227 5abd
000001f0: 9f3d 12bc 8943 dabb 00b6 cbbc fa2b 563b
00000200: 76a5 74bd 0858 84bc f8a7 25bb 38da f7bc
00000210: 7ef4 b8bb 6e67 70bd d2ee e3bb 4891 5bbc
00000220: 1671 86bd fc2d 1fbc 53f1 06bc a6bb edbc
00000230: 72df 14bc e9f7 58bc 145b adbc e399 2cbc
00000240: 9e54 003b 5263 2abc 5d8d 07bb 5738 16bc
00000250: 2030 66bb 903f 07bd d202 22bc 32fc eaba
00000260: 7aa8 18ba 54ef 6bbb c243 c1bc f4b1 43bd
00000270: 94ac 64bc b6db b1bc 6dbf c4bc 481f 1abb
00000280: 2955 e1bb 2e69 80bb 76d0 5dbc c767 81bc
00000290: e14f 68bc 9d72 a7bb 9c5a f2ba 7237 0abd
000002a0: 49e3 e3bc 13e1 b6bc eecb 0fbd 3c4d d7ba
000002b0: f4a1 82bb 1230 14bb e48d 9bbc 4951 e1bb
000002c0: fee5 0cbb 4eea 1abb 5d83 5abd 8619 18bc
000002d0: d091 d9bb 39c3 c4bc e82e 713b 6ea0 74bd
000002e0: ba35 86bc 5083 21bb 7f4b f6bc 76ad b8bb
000002f0: 4685 70bd f164 e0bb 70e8 5abc a111 86bd
00000300: 6c17 1dbc 62fd 0dbc ce11 f0bc ac53 13bc
00000310: 6072 58bc 8a66 adbc 1914 2dbc 1ab9 de3a
00000320: 0a93 28bc ab1a 0cbb bbb1 21bc 4d36 53bb
00000330: be40 08bd 5e1a 22bc 4697 f9ba bc63 e3b9
00000340: f499 69bb fe3c bdbc 3665 43bd 20ca 65bc
00000350: ae43 b2bc 2c2d cabc e129 00bb 2949 d6bb
00000360: 5885 80bb db41 5ebc 34ba 80bc 1de5 54bc
00000370: 4ed7 a6bb 1a71 2abb d998 0bbd 45e3 e3bc
00000380: 3feb b7bc 73fc 10bd f81d baba 6467 6ebb
00000390: ac71 15bb 0ee6 9bbc aaf7 e2bb c491 0fbb
000003a0: 6648 1bbb 2d32 5abd fc32 11bc d2ae d7bb
000003b0: a5b9 c9bc ab13 4a3b fd75 74bd d990 82bc
000003c0: a637 25bb 70ea f3bc 29f1 b8bb a482 70bd
000003d0: 16e1 e0bb fda4 5bbc 3c7a 86bd 9028 20bc
000003e0: 8b4a 12bc 16ec e5bc 7a07 18bc 67ca 58bc
000003f0: 9752 adbc dd46 2ebc 7350 683a af52 29bc

conv.weight f4 [10, 1, 20]
9.679011e-06 1.6793862e-05 2.7140413e-05 3.2757467e-05 3.3741337e-05 5.0786548e-05 5.7550013e-05 6.419814e-05
7.880526e-05 0.00010052077 0.0001038406 0.00014462585 0.00013810396 0.00013842777 0.00013384082 0.00020590115
0.00015734928 0.00019130127 0.00016289088 0.00015799711 -0.044165675 -0.04522122 -0.04593845 -0.046787083
-0.047569524 -0.04863243 -0.04899495 -0.049818758 -0.050973438 -0.051335327 -0.051465273 -0.052371934
-0.052586995 -0.05199885 -0.0515045 -0.05075184 -0.05013024 -0.049856246 -0.04931395 -0.049142286
-0.001438939 -0.0017271368 -0.0019063014 -0.001982476 -0.0015266576 -0.0017157927 -0.0018053448 -0.0018990214
-0.0024547265 -0.0018638307 -0.0027370052 -0.00266364 -0.0024856364 -0.002886049 -0.002922721 -0.002959594
-0.0036481477 -0.0030845066 -0.0035816464 -0.003542685 -0.11781187 -0.036757596 -0.06448484 -0.07286444
-0.118382186 -0.06574228 -0.09144144 -0.046956018 -0.088795155 -0.05422824 -0.05897678 -0.09645748
-0.17908573 -0.097636886 -0.16730008 -0.09981158 -0.12103248 -0.054578777 -0.16503932 -0.17393339
0.004546469 0.03567027 0.057902586 0.08637051 0.117167495 0.14359222 0.17720222 0.2099621
0.24006973 0.26718384 0.29920462 0.3281871 0.36062947 0.38942584 0.4151594 0.4433047
0.47502562 0.5086864 0.5397081 0.5649812 -2.803567e-06 -1.8144603e-06 -9.0984344e-07 1.1689085e-06
2.0490618e-06 4.375048e-06 6.3392135e-06 7.486752e-06 9.126872e-06 1.0315948e-05 1.0470627e-05 1.2148381e-05
1.10306855e-05 1.1125312e-05 1.09467965e-05 9.850274e-06 9.041264e-06 6.7268015e-06 6.3245247e-06 4.7520884e-06
-0.010791294 -0.00991342 -0.009263044 -0.008438719 -0.0076906504 -0.006598071 -0.005649719 -0.0045878477
-0.0035052632 -0.0026418807 -0.0014170267 -0.00026212248 0.0010379367 0.0018682207 0.0028928288 0.004251908
0.005237988 0.00638109 0.007531853 0.008357788 -0.13662067 -0.1505582 -0.12657157 -0.116581514
-0.13403308 -0.057580296 -0.074297145 -0.09221801 -0.14188509 -0.12602614 -0.070117734 -0.11430101
-0.19659595 -0.116091266 -0.082520775 -0.14361338 -0.13882321 -0.13505092 -0.07530457 -0.058622878
-0.028399749 -0.026248705 -0.023465855 -0.021051861 -0.017546792 -0.014395935 -0.011413477 -0.007100425
-0.0030595188 0.0002775662 0.0038633842 0.007928418 0.011469277 0.014711342 0.01743317 0.022055712
0.026308585 0.030005889 0.03407337 0.037552398 -5.009303e-05 -4.492678e-05 -3.4803503e-05 -3.495919e-05
-3.7931528e-05 -3.0492505e-05 -1.7322876e-05 -2.3437085e-05 -2.0068877e-05 -2.2099142e-05 -2.1559796e-05 -2.7995216e-05
-1.3823055e-05 -2.4134351e-05 -3.055527e-05 -2.8311935e-05 -3.9192e-05 -5.288973e-05 -5.6526733e-05 -4.887687e-05
00000000: 0963 2237 8be0 8c37 98ab e337 1065 0938
00000010: 7c85 0d38 a403 5538 db61 7138 1da2 8638
00000020: 4044 a538 adce d238 ffc4 d938 b5a6 1739
00000030: 00d0 1039 ec26 1139 9f57 0c39 2be7 5739
00000040: 20fe 2439 0b98 4839 b0cd 2a39 07ac 2539
00000050: 11e7 34bd e339 39bd f529 3cbd d0a3 3fbd
00000060: 43d8 42bd cd32 47bd eeae 48bd c10e 4cbd
00000070: 86c9 50bd fe44 52bd 40cd 52bd f483 56bd
00000080: 7665 57bd bffc 54bd 62f6 52bd 29e1 4fbd
00000090: 5e55 4dbd 1036 4cbd 6dfd 49bd 6c49 49bd
000000a0: c89a bcba 1861 e2ba dcdc f9ba 6eec 01bb
000000b0: 211a c8ba 73e4 e0ba 52a1 ecba 96e8 f8ba
000000c0: 7adf 20bb c84b f4ba 545f 33bb 7790 2ebb
000000d0: 0fe6 22bb de23 3dbb 1f8b 3fbb bff5 41bb
000000e0: c315 6fbb 6f25 4abb 0eba 6abb 642c 68bb
000000f0: 5a47 f1bd 228f 16bd a110 84bd f439 95bd
00000100: 5c72 f2bd e3a3 86bd a645 bbbd f454 40bd
00000110: 3cda b5bd 6e1e 5ebd a391 71bd 808b c5bd
00000120: 4062 37be d9f5 c7bd b650 2bbe 036a ccbd
00000130: e0df f7bd ff8d 5fbd 1100 29be 981b 32be
00000140: 8cfa 943b fd1a 123d 432b 6d3d 06e3 b03d
00000150: 83f5 ef3d d709 133e 8074 353e 4e00 573e
00000160: d7d4 753e 52cc 883e 5931 993e 2408 a83e
00000170: 6da4 b83e d362 c73e c68f d43e d5f8 e23e
00000180: 8f36 f33e 4639 023f 4f2a 0a3f 9ca2 103f
00000190: ea24 3cb6 6288 f3b5 f73b 74b5 64e3 9c35
000001a0: 9d82 0936 60cd 9236 6eb5 d436 b636 fb36
000001b0: 9e1f 1937 a912 2d37 00ab 2f37 e6d0 4b37
000001c0: 6f10 3937 daa6 3a37 22a8 3737 9b42 2537
000001d0: efaf 1737 c9b6 e136 4137 d436 2174 9f36
000001e0: f8cd 30bc e66b 22bc 06c4 17bc 8e42 0abc
000001f0: da01 fcbb a234 d8bb 4721 b9bb a855 96bb
00000200: 8fb8 65bb 6723 2dbb 87bb b9ba 7c6d 89b9
00000210: 600b 883a 16df f43a 9d95 3d3b 9753 8b3b
00000220: 6ea3 ab3b 7618 d13b c3cd f63b 1bef 083c
00000230: 4ae6 0bbe ee2b 1abe fa9b 01be 4ac2 eebd
00000240: f83f 09be 51d9 6bbd 1a29 98bd ccdc bcbd
00000250: 534a 11be ff0c 01be e399 8fbd a616 eabd
00000260: 7350 49be 42c1 edbd a700 a9bd 630f 13be
00000270: ac27 0ebe ca4a 0abe 4839 9abd 8b1e 70bd
00000280: 97a6 e8bc 8607 d7bc 773b c0bc f474 acbc
00000290: 4abe 8fbc eedc 6bbc 98ff 3abc afaa e8bb
000002a0: 3582 48bb 4e86 9139 d530 7d3b 32e6 013c
000002b0: a2e9 3b3c d707 713c 02d0 8e3c 2eae b43c
000002c0: 1a85 d73c e9ce f53c 8590 0b3d 8bd0 193d
000002d0: fb1a 52b8 c36f 3cb8 faf9 11b8 25a1 12b8
000002e0: ab18 1fb8 28ca ffb7 9850 91b7 c29a c4b7
000002f0: 9659 a8b7 8c61 b9b7 4fdb b4b7 45d7 eab7
00000300: 92e9 67b7 2074 cab7 7928 00b8 6b7f edb7
00000310: 1762 24b8 ead5 5db8 1e17 6db8 2401 4db8

conv.bias f4 [10]
-0.059648897 -0.2074519 -0.12501067 -0.32782033 -0.4513536 -0.04340689 -0.1584362 -0.23021013
-0.29157138 -0.0006003773
00000000: 6752 74bd 456e 54be cc02 00be 11d8 a7be
00000010: d217 e7be 6ccb 31bd 193d 22be 34bc 6bbe
00000020: d848 95be a362 1dba

conv_long.weight f4 [10, 1, 10]
-0.0003054461 -0.0002948448 -0.00030476318 -0.0003139158 -0.00032299195 -0.00031935924 -0.00035071492 -0.0003303744
-0.00031314316 -0.0003079247 4.426113e-06 6.6605444e-06 1.4752298e-05 2.4699071e-05 3.4909954e-05 4.838276e-05
4.4606142e-05 5.1866366e-05 2.9310388e-05 1.6183678e-05 -5.581481e-05 -5.858476e-05 -5.7118985e-05 -5.240421e-05
-5.08487e-05 -6.561496e-05 -6.9768714e-05 -5.997809e-05 -7.197297e-05 -6.5980115e-05 1.9622837e-06 3.1569652e-06
8.249586e-06 5.698216e-06 8.303142e-06 7.845947e-06 3.1753202e-06 -7.2304792e-06 1.8959875e-06 6.4888964e-06
-0.0040989444 -0.004584632 -0.004756963 -0.0052192365 -0.0054811426 -0.005924628 -0.0062595787 -0.0061257053
-0.0063259234 -0.006568468 1.060095e-05 4.6936357e-06 -3.1410018e-06 -1.2459018e-05 -1.4801919e-05 -3.1972593e-06
4.371321e-06 1.48275985e-05 1.5331701e-05 1.18244125e-05 -0.0009837487 -0.00097252976 -0.00085683743 -0.0007859505
-0.0007435461 -0.0007059944 -0.00076802896 -0.0007101395 -0.00078078563 -0.0008562255 -9.7568045e-06 2.4116682e-06
3.233271e-06 3.243496e-06 -2.508015e-06 -6.0068332e-06 5.106054e-06 1.8410606e-06 6.553031e-06 -8.91622e-06
-0.044738818 -0.04542027 -0.045357376 -0.045343943 -0.044994693 -0.044321377 -0.043703213 -0.042845394
-0.041816257 -0.04067547 -0.003928127 -0.0038553656 -0.0038653235 -0.0038532806 -0.0038557719 -0.0039514666
-0.004083595 -0.0042536273 -0.004463887 -0.00465244
00000000: 4824 a0b9 6695 9ab9 9fc8 9fb9 1195 a4b9
00000010: 3f57 a9b9 ac6f a7b9 29e0 b7b9 1a36 adb9
00000020: 5d2d a4b9 f470 a1b9 0584 9436 a47d df36
00000030: a380 7737 da30 cf37 476c 1238 98ee 4a38
00000040: 7b17 3b38 168b 5938 94df f537 2fc2 8737
00000050: b21a 6ab8 e8b8 75b8 0b93 6fb8 98cc 5bb8
00000060: 6046 55b8 c39a 89b8 cb50 92b8 fc90 7bb8
00000070: 32f0 96b8 ce5e 8ab8 c7af 0336 40dc 5336
00000080: b467 0a37 4d33 bf36 b94d 0b37 16a2 0337
00000090: 9617 5536 589d f2b6 a279 fe35 32bb d936
000000a0: 7050 86bb ae3a 96bb 4ce0 9bbb 2106 abbb
000000b0: 289b b3bb 6223 c2bb 271d cdbb 24ba c8bb
000000c0: b149 cfbb 4e3c d7bb bcda 3137 067e 9d36
000000d0: 00ca 52b6 1307 51b7 c255 78b7 7f90 56b6
000000e0: 5dad 9236 0dc4 7837 949c 8037 7761 4637
000000f0: 21f1 80ba 5ef1 7eba 639d 60ba 3f08 4eba
00000100: 89ea 42ba 7b12 39ba 8d55 49ba a828 3aba
00000110: a3ad 4cba 5274 60ba 28b1 23b7 25d8 2136
00000120: 2cfb 5836 d6aa 5936 5f4f 28b6 4e8e c9b6
00000130: ab54 ab36 5c1a f735 1ce2 db36 e096 15b7
00000140: 0d40 37bd 9b0a 3abd a8c8 39bd 92ba 39bd
00000150: 5b4c 38bd 558a 35bd 2402 33bd a77e 2fbd
00000160: 8647 2bbd 529b 26bd 84b7 80bb 4daa 7cbb
00000170: 5e51 7dbb 5287 7cbb 1eb1 7cbb 4e7b 81bb
00000180: adcf 85bb 0362 8bbb cc45 92bb 7f73 98bb

conv_long.bias f4 [10]
-0.00013517245 -0.1382962 -0.13702987 -0.0049062506 -0.07109081 -0.016361885 -0.0009250564 -0.05198582
-0.1183397 -0.014990503
00000000: 14bd 0db9 859d 0dbe 8f51 0cbe 9dc4 a0bb
00000010: 0f98 91bd 5c09 86bc 7c7f 72ba 15ef 54bd
00000020: 165c f2bd ba9a 75bc

conv1.weight f4 [30, 30]
-5.956591e-06 5.7512243e-06 -5.3250915e-06 -0.35576147 -0.030644093 3.904977e-06 -0.013293267 -5.839427e-06
0.06891314 -2.2314547e-05 0.023510251 9.766593e-06 -4.1646817e-06 0.16008459 -9.193613e-06 -4.1628522e-07
2.2632861e-05 4.040208e-05 -0.060682278 0.11457558 -1.8719466e-06 -0.026251782 -7.234314e-08 3.6532592e-06
-1.9126679e-05 0.0054070246 1.3758311e-06 0.20864677 5.0003955e-06 9.561306e-07 -1.6410405e-06 -6.543863e-06
7.7345624e-07 -6.4350447e-06 -5.883119e-07 -5.8113183e-06 8.763083e-06 2.8126776e-06 -2.1429046e-06 1.8769381e-06
-2.0726015e-06 -4.0726127e-06 1.7149504e-06 0.0025139737 2.821302e-06 1.2003045e-06 -2.4948633e-06 -6.868002e-06
8.542029e-07 -7.325786e-06 2.8845327e-06 2.260875e-06 -1.250208e-06 5.113771e-06 3.3833326e-06 8.027175e-07
9.825744e-06 -3.1587206e-06 9.986753e-07 8.438339e-05 4.831308e-06 -9.851728e-06 -7.749228e-07 -1.1874233e-06
-6.2086195e-07 -1.7861794e-07 6.0486764e-06 3.9025633e-07 -4.2725137e-06 1.2565291e-06 -8.305061e-07 4.793767e-06
-1.2683251e-06 0.0025327147 -7.6177287e-07 9.0774773e-07 1.1816161e-06 -5.7081597e-06 -2.2360416e-07 -1.8651599e-06
5.2706764e-07 -6.092145e-06 -1.4496954e-06 -2.1534934e-06 2.6320295e-06 -3.1551754e-06 1.01730075e-05 -1.5209521e-06
4.3394243e-06 -8.633013e-05 1.5342562e-07 -6.921895e-06 -5.531344e-07 4.1390567e-06 6.8869633e-07 4.83842e-06
4.2988363e-06 1.1650977e-06 7.708458e-06 -2.4215717e-06 1.16744786e-07 1.4388764e-06 -1.1265412e-06 0.4633476
-2.0039906e-06 1.9920876e-06 -1.3165077e-06 1.5626692e-06 1.923381e-06 -4.036227e-06 -5.684136e-07 -9.818483e-06
-6.1679225e-07 -3.971737e-06 -6.092614e-08 1.5304175e-06 9.443491e-06 -5.730697e-06 5.00314e-06 -0.0017781832
6.806929e-06 -7.7998425e-07 -2.0345879e-06 -1.2982941e-06 2.1276446e-07 3.4997393e-06 4.243263e-06 3.7798914e-06
-6.7783394e-06 -2.6758657e-06 1.6212625e-06 -1.4527859e-05 1.1909415e-06 -2.2095877e-05 -1.2165584e-06 3.686191e-07
-1.0965277e-05 -3.7584417e-05 4.686145e-06 -4.2483185e-05 6.880683e-06 -4.4137378e-06 2.8065501e-06 -2.4346376e-05
-1.1529872e-05 -4.56234e-06 -1.0718272e-06 0.00012260144 -9.526199e-06 -6.0426814e-06 2.992681e-06 -2.868485e-07
2.9909654e-07 3.5577323e-06 1.8450933e-06 2.09556e-06 2.425616e-06 -1.6439521e-06 -3.2952134e-06 3.374334e-06
4.485155e-06 -2.5519357e-05 2.3375374e-06 -2.128902e-05 -4.5203603e-07 -8.72914e-07 -1.0490819e-05 -4.5066274e-05
2.6560201e-06 -3.3023527e-05 7.19536e-06 9.890982e-07 -2.5819318e-06 -2.1488197e-05 -1.1605807e-05 -6.849526e-07
1.4828092e-06 0.00022420076 -1.0520639e-05 -3.2981993e-06 9.556609e-07 -1.5434971e-06 -0.08995197 -0.038341537
-2.1797691e-06 1.2611316e-06 3.6120844e-07 -0.017849572 -0.06353212 2.1553498e-05 -0.083850615 5.792957e-07
3.1448362e-06 -0.05330586 -0.064840026 2.7377773e-06 4.92467e-07 -0.07056213 3.9877877e-06 -0.109111704
1.960432e-06 -5.8837377e-06 -1.4228817e-08 3.6387303e-07 -2.6594382e-06 -0.10311922 -3.1200466e-06 -0.10280031
6.1380024e-07 7.7214935e-07 4.4007925e-06 2.5846903e-05 2.3168157e-06 1.7206708e-05 1.4457669e-06 8.200709e-06
-1.5195305e-06 -2.2121671e-06 5.49959e-06 -7.5196067e-07 4.891052e-07 5.182072e-06 6.749481e-06 1.0780419e-05
3.5348705e-07 1.4353333e-06 2.8758884e-06 -7.451272e-07 1.2290451e-05 -1.5050639e-05 -8.144871e-06 -3.9003085e-06
-8.214731e-06 -3.8016897e-06 2.6814005e-06 5.669535e-07 -2.3253638e-06 2.4925275e-05 9.765714e-06 -6.1784385e-07
7.5213125e-06 2.3946955e-05 -1.2360484e-06 1.6561848e-05 5.826223e-09 5.914444e-06 -1.7948569e-06 -3.556936e-07
8.740204e-06 2.4329038e-06 -4.559422e-07 1.3554283e-06 7.734539e-06 7.280612e-06 -7.799927e-07 2.5464944e-06
00000000: bade c7b6 a4fa c036 30ae b2b6 5e26 b6be
00000010: 5209 fbbc 7f07 8336 01cc 59bc 4cf0 c3b6
00000020: 5522 8d3d 2030 bbb7 9298 c03c 33db 2337
00000030: 58be 8bb6 37ed 233e 443e 1ab7 ce7d dfb4
00000040: b3db bd37 6775 2938 fb8d 78bd 9aa6 ea3d
00000050: 983f fbb5 fa0d d7bc 105b 9bb3 842a 7536
00000060: 3b72 a0b7 692d b13b 32a9 b835 80a7 553e
00000070: 12c9 a736 6654 8035 b941 dcb5 5b93 dbb6
00000080: 829f 4f35 9dec d7b6 7cec 1db5 d8fe c2b6
00000090: 2805 1337 6fc1 3c36 d2ce 0fb6 1aeb fb35
000000a0: 0617 0bb6 7aa7 88b6 3f2d e635 7bc1 243b
000000b0: 9955 3d36 261a a135 6d6d 27b6 b073 e6b6
000000c0: 604c 6535 06d0 f5b6 e593 4136 89b9 1736
000000d0: d2cc a7b5 f596 ab36 360d 6336 547a 5735
000000e0: 40d9 2437 68fa 53b6 390a 8635 fdf6 b038
000000f0: 9f1c a236 d948 25b7 4a04 50b5 8e5f 9fb5
00000100: 4fa9 26b5 20ca 3fb4 bcf5 ca36 6c84 d134
00000110: 9d5c 8fb6 03a6 a835 f2ef 5eb5 25da a036
00000120: 523b aab5 e7fb 253b a27c 4cb5 f3ab 7335
00000130: 0598 9e35 b888 bfb6 d817 70b4 6856 fab5
00000140: d07b 0d35 216b ccb6 2893 c2b5 bc84 10b6
00000150: eca1 3036 80bd 53b6 bcac 2a37 8423 ccb5
00000160: 5f9b 9136 230c b5b8 50bd 2434 a042 e8b6
00000170: 1b7b 14b5 3ae2 8a36 dade 3835 b659 a236
00000180: b93e 9036 7460 9c35 9353 0137 4982 22b6
00000190: 20b5 fa33 6b1f c135 a933 97b5 e63b ed3e
000001a0: 4c7c 06b6 ceaf 0536 dcb2 b0b5 e8bc d135
000001b0: 6f13 0136 ed6e 87b6 1695 18b5 10ba 24b7
000001c0: a491 25b5 f644 85b6 80d6 82b3 bf68 cd35
000001d0: 7c6f 1e37 504a c0b6 a5e0 a736 ed11 e9ba
000001e0: 1367 e436 1c60 51b5 f489 08b6 0c41 aeb5
000001f0: 4074 6434 10dd 6a36 5a61 8e36 0aaa 7d36
00000200: 7e71 e3b6 0693 33b6 289a d935 aebc 73b7
00000210: 70d8 9f35 895a b9b7 a148 a3b5 a0e6 c534
00000220: 82f7 37b7 f6a3 1db8 ae3d 9d36 f92f 32b8
00000230: 9ee0 e636 b819 94b6 2a58 3c36 723b ccb7
00000240: 6c70 41b7 3416 99b6 b4db 8fb5 938e 0039
00000250: b7d2 1fb7 3dc2 cab6 ded5 4836 2800 9ab4
00000260: 8493 a034 60c1 6e36 eca4 f735 72a1 0c36
00000270: c4c7 2236 c4a5 dcb5 5623 5db6 9e72 6236
00000280: 307f 9636 6712 d6b7 96de 1c36 d395 b2b7
00000290: 5caf f2b4 3152 6ab5 b901 30b7 8b05 3db8
000002a0: 143e 3236 be82 0ab8 ac6f f136 28c1 8435
000002b0: 4045 2db6 8d41 b4b7 90b6 42b7 96dd 37b5
000002c0: f004 c735 6f17 6b39 cd81 30b7 a256 5db6
000002d0: 4244 8035 282a cfb5 bd38 b8bd 040c 1dbd
000002e0: 2648 12b6 2744 a935 1cec c134 4439 92bc
000002f0: 211d 82bd c9cd b437 dfb9 abbd e680 1b35
00000300: e00b 5336 3f57 5abd d9ca 84bd a8ba 3736
00000310: 1332 0435 e182 90bd d6ce 8536 f575 dfbd
00000320: f78f 0336 ec6c c5b6 0073 74b2 545a c334
00000330: cd78 32b6 2b30 d3bd fe61 51b6 f888 d2bd
00000340: 08c4 2435 b345 4f35 85aa 9336 cdd1 d837
00000350: 977a 1b36 2057 9037 2c0c c235 c795 0937
00000360: acf2 cbb5 be74 14b6 1e89 b836 58da 49b5
00000370: 0e4b 0335 a9e1 ad36 9a79 e236 8cdd 3437
00000380: e4c6 bd34 ada5 c035 63ff 4036 c004 48b5
00000390: 1633 4e37 0182 7cb7 f4a5 08b7 65df 82b6
000003a0: 00d2 09b7 8820 7fb6 1cf2 3336 bf30 1835
000003b0: 720d 1cb6 9f16 d137 6cd7 2337 e8d9 25b5
000003c0: 955f fc36 b2e1 c837 4de6 a5b5 4cee 8a37
000003d0: 0030 c831 b074 c636 d0e6 f0b5 28f6 beb4
000003e0: e4a2 1237 f844 2336 38c8 f4b4 29ec b535
000003f0: 98c3 0137 fb4b f436 b160 51b5 71e4 2a36

conv1.bias f4 [30]
-0.014626061 -0.016568474 -0.05466212 -0.17663643 -0.010207923 -0.11291764 -0.08049179 -0.020163137
-0.09889947 -0.0011770333 -0.1351944 -0.08152237 -0.014635521 -0.16660321 -0.068760596 -0.0054628267
-0.0037753917 -0.30888584 -0.0725927 -0.13754669 -0.026075212 -0.06994141 0.0048191827 -0.004718386
-0.0045276033 -0.18460378 0.0040247403 -0.49706686 -0.071879864 0.007726541
00000000: 25a2 6fbc 9cba 87bc 63e5 5fbd 2ee0 34be
00000010: 223f 27bc 5d41 e7bd e1d8 a4bd 2a2d a5bc
00000020: ce8b cabd af46 9aba 6770 0abe 33f5 a6bd
00000030: d3c9 6fbc 089a 2abe 5bd2 8cbd 8301 b3bb
00000040: 906c 77bb 4926 9ebe 7bab 94bd 0ad9 0cbe
00000050: af9b d5bc 713d 8fbd 3cea 9d3b b19c 9abb
00000060: 4a5c 94bb c608 3dbe f8e1 833b 8c7f febe
00000070: c035 93bd ec2e fd3b

conv2.weight f4 [30, 10]
2.1488545e-06 -4.673926e-06 1.0878864e-08 -0.00020240647 -8.8748584e-07 1.3166077e-06 -3.9413817e-06 -0.007502705
3.802802e-07 -3.7782781e-06 2.1536425e-06 9.517959e-05 1.0176944e-06 0.05067362 -1.2939672e-06 -1.1450297e-06
8.108855e-05 -5.281613e-07 -1.2769843e-06 2.88526e-06 -0.0010928375 4.6813705e-07 -0.017775292 1.2158507e-05
-2.9559715e-09 -1.8720467e-06 -8.4051294e-07 8.8344166e-07 -0.12601498 -0.10578677 -7.240008e-06 2.690471e-06
2.559202e-06 -0.08296189 -0.09284927 -0.05902039 -0.105535805 -3.0812234e-06 0.2606774 0.048580457
-1.5851449e-06 1.3650878e-06 -7.5493523e-07 -3.2848072e-07 -6.7047154e-07 4.1010103e-06 6.5779966e-07 -7.57617e-07
-1.566501e-06 -7.578519e-07 -1.0493258e-06 1.2881392e-06 -3.981978e-07 0.0004708852 -1.2666353e-06 -3.0462434e-06
1.4629959e-05 0.18401018 -1.7083072e-06 -1.1144728e-06 2.0546413e-06 1.1211247e-05 1.0874351e-06 0.004873864
-5.69698e-05 -1.8992982e-06 9.319233e-05 -3.2929631e-06 3.3412866e-06 -0.00017008036 1.161416e-05 2.0701684e-06
1.295788e-05 3.4790237e-06 -2.0097632e-06 1.7052075e-06 4.0607856e-06 1.621189e-06 -0.10123292 -0.14980145
-0.17693184 -3.691899e-06 -0.27176222 -0.43826652 -0.038198423 -0.06505467 -0.10646909 -4.66872e-06
-0.25383565 -0.39122635 -1.4336415e-06 3.1588427e-06 -2.1267956e-06 -8.49808e-07 -9.2959755e-07 1.9371157e-07
7.138419e-07 -2.8914467e-06 0.01751809 0.05109647 -0.029006828 9.225005e-07 -0.09832366 -0.0074160164
-8.499778e-07 1.7274744e-05 2.8873868e-05 7.1013305e-06 -0.33293968 -0.31207517 1.8467376e-06 4.1874773e-06
-1.6724407e-06 3.3672677e-07 4.8461504e-07 1.9001659e-06 -1.6588228e-07 -1.1226331e-06 3.0048895e-06 1.8140115e-06
1.6450716e-06 -1.8591722e-05 -2.7085111e-06 -1.248835e-05 -7.6428097e-07 -7.912556e-07 -1.9278411e-06 0.0056435126
-5.298426e-06 9.746234e-06 -0.14248507 -1.7116236e-08 -0.25943398 -0.3008797 -0.00935937 -0.009319328
-0.039153665 0.3720937 -0.3320555 -0.41431576 -0.008507964 3.7516988e-06 -0.03372637 1.0325986e-05
-1.278838e-06 -3.559336e-07 -2.8141847e-07 3.678826e-07 -0.1188354 0.016538722 -5.5768544e-07 -1.1652489e-06
3.8962503e-07 2.358806e-06 -3.2465907e-06 4.2645456e-07 -2.2609684e-06 -0.13457534 1.2738146e-06 -8.292826e-06
5.410253e-07 5.893153e-07 1.3506402e-06 -1.7827653e-05 -5.0414005e-06 -4.0346445e-06 5.115459e-06 -1.8063595e-06
-3.1742295e-06 2.6376506e-06 -0.09740487 -2.0992275e-05 -0.20807458 4.0110635e-06 5.0229994e-07 -3.9174301e-07
-1.9395964e-06 5.2143378e-06 -0.24099863 -0.26383162 -1.2495772e-06 -4.51027e-07 1.0600579e-06 -0.19564775
-0.09720415 -0.037390027 -0.06762102 -9.59512e-07 0.02303584 0.02433186 -0.26857924 1.91268e-06
-0.35048243 -0.29305053 -0.037865516 -0.09074431 -0.09476335 -2.5344198e-06 -0.3534919 -0.47126666
-9.497671e-07 -1.1083143e-06 -3.9302748e-07 -6.926426e-06 -1.3504828e-06 -3.1698248e-06 -7.10895e-06 0.10493314
2.1885472e-07 -1.1242812e-06 1.105766e-06 1.7428112e-06 8.325152e-07 -0.01654104 0.00011751383 -4.8880756e-05
-3.38402e-05 -2.9442651e-06 7.966141e-06 0.0002060776 -2.8109065e-07 1.1151626e-05 -3.175374e-06 5.0353856e-06
-1.4632858e-06 -9.2826247e-07 -5.690123e-06 -0.0081178285 -7.7164157e-07 -1.611678e-06 -2.261578e-07 -5.3646113e-07
9.085111e-07 -4.193651e-06 -2.1912929e-06 1.3189167e-06 1.7578501e-06 2.3566e-06 -2.7655524e-06 2.025006e-06
-2.9556513e-06 -3.8823106e-07 -1.815305e-06 -0.007227572 1.9976556e-05 3.3421922e-05 -7.2302406e-05 -6.220607e-07
2.2770551e-05 -1.32918285e-05 -0.065937944 1.415014e-06 -0.19487007 7.487505e-06 -1.1717585e-06 9.838851e-07
00000000: 0a35 1036 b8d4 9cb6 c0e5 3a32 133d 54b9
00000010: 903b 6eb5 4cb6 b035 3640 84b6 40d9 f5bb
00000020: 5029 cc34 538e 7db6 4c87 1036 279b c738
00000030: b797 8835 248f 4f3d 60ac adb5 ecae 99b5
00000040: 150e aa38 f8c6 0db5 d964 abb5 64a0 4136
00000050: 8b3d 8fba 4454 fb34 7d9d 91bc 64fc 4b37
00000060: 0022 4bb1 0943 fbb5 9c9f 61b5 a625 6d35
00000070: 120a 01be bca6 d8bd 32ef f2b6 f18d 3436
00000080: c1be 2b36 ece7 a9bd c227 bebd 5dbf 71bd
00000090: 2823 d8bd 04c7 4eb6 8277 853e 4dfc 463d
000000a0: 2ac1 d4b5 0f38 b735 c1a6 4ab5 0c5a b0b4
000000b0: 74fa 33b5 699b 8936 a693 3035 0b5f 4bb5
000000c0: 9140 d2b5 306f 4bb5 8fd6 8cb5 20e4 ac35
000000d0: e4c7 d5b4 24e1 f639 4201 aab5 106e 4cb6
000000e0: 3273 7537 2a6d 3c3e fd48 e5b5 fe94 95b5
000000f0: 78e2 0936 f017 3c37 fcf3 9135 efb4 9f3b
00000100: dbf2 6eb8 64eb feb5 4070 c338 adfc 5cb6
00000110: de3a 6036 9957 32b9 70da 4237 39ed 0a36
00000120: ac65 5937 2c79 6936 78df 06b6 7cde e435
00000130: e241 8836 a197 d935 3553 cfbd 8d65 19be
00000140: 9f2d 35be 58c2 77b6 6b24 8bbe 7864 e0be
00000150: f375 1cbd 623b 85bd 770c dabd 00a8 9cb6
00000160: bff6 81be d24e c8be 8c6b c0b5 81fc 5336
00000170: 12ba 0eb6 5c1e 64b5 7589 79b5 08ff 4f34
00000180: d89e 3f35 ad0a 42b6 1982 8f3c 884a 513d
00000190: ba9f edbc c0a1 7735 ea5d c9bd 0e02 f3bb
000001a0: 082a 64b5 3be9 9037 2936 f237 f747 ee36
000001b0: 1277 aabe 51c8 9fbe 6cdd f735 2882 8c36
000001c0: a078 e0b5 60c7 b434 7e16 0235 3409 ff35
000001d0: 601d 32b4 61ad 96b5 9ca7 4936 f678 f335
000001e0: 3bcc dc35 6bf5 9bb7 dec3 35b6 0e85 51b7
000001f0: fd28 4db5 ac66 54b5 0f60 01b6 37ed b83b
00000200: 22c9 b1b6 c283 2337 9be7 11be 0007 93b2
00000210: 88d4 84be e70c 9abe 0b58 19bc 18b0 18bc
00000220: 985f 20bd 1183 be3e 2e03 aabe 3221 d4be
00000230: fd64 0bbc b2c5 7b36 aa24 0abd c63d 2d37
00000240: 8aa4 abb5 2417 bfb4 dc15 97b4 6681 c534
00000250: f95f f3bd 377c 873c dab3 15b5 a665 9cb5
00000260: a82d d134 fa4b 1e36 01e0 59b6 78f3 e434
00000270: 24bb 17b6 1ece 09be f0f7 aa35 6b21 0bb7
00000280: fa3a 1135 7031 1e35 a547 b535 988c 95b7
00000290: 4d29 a9b6 5561 87b6 75a5 ab36 0a72 f2b5
000002a0: d904 55b6 7e02 3136 347c c7bd 9118 b0b7
000002b0: 8111 55be c696 8636 cad5 0635 c050 d2b4
000002c0: 032a 02b6 d2f6 ae36 58c8 76be f014 87be
000002d0: 25b7 a7b5 ae24 f2b4 5047 8e35 e257 48be
000002e0: f812 c7bd 4926 19bd e47c 8abd 95c8 80b5
000002f0: a8b5 bc3c 9c53 c73c 3883 89be 985b 0036
00000300: 6f72 b3be b80a 96be df18 1bbd 27d8 b9bd
00000310: 4a13 c2bd 0015 2ab6 e4fc b4be dd49 f1be
00000320: 80f3 7eb5 64c1 94b5 4901 d3b4 8c69 e8b6
00000330: 3c42 b5b5 2db9 54b6 6a89 eeb6 30e7 d63d
00000340: 54fe 6a34 02e6 96b5 d569 9435 89ea e935
00000350: 027a 5f35 1381 87bc c271 f638 5005 4db8
00000360: a3ef 0db8 1796 45b6 51a6 0537 8916 5839
00000370: cee8 96b4 de17 3b37 8318 55b6 a2f5 a836
00000380: 1e66 c4b5 b62d 79b5 c9ed beb6 a400 05bc
00000390: ce22 4fb5 d650 d8b5 c8d5 72b4 5401 10b5
000003a0: 68e0 7335 30b7 8cb6 200e 13b6 a205 b135
000003b0: 45ef eb35 1426 1e36 d497 39b6 57e5 0736
000003c0: b459 46b6 126e d0b4 68a5 f3b5 45d5 ecbb
000003d0: 5493 a737 842e 0c38 0fa1 97b8 b0fb 26b5
000003e0: 6303 bf37 f8ff 5eb7 790a 87bd 83eb bd35
000003f0: 058c 47be 2e3d fb36 5145 9db5 090e 8435

conv2.bias f4 [10]
-0.14232999 -0.00998285 -0.19572021 -0.03711821 -0.23453355 -0.22703859 -0.08179548 -0.06523068
-0.25475836 -0.1463978
00000000: f4be 11be 1c8f 23bc e16a 48be 4409 18bd
00000010: 9029 70be ce7c 68be 6384 a7bd aa97 85bd
00000020: b06f 82be 4ee9 15be

rnn.weight_ih_l0 f4 [30, 1]
-0.4817328 -0.0212452 0.05823608 -0.26788116 -0.21842326 0.30033752 -0.17840508 0.8834413
0.39662564 -0.3917757 4.5168996 -0.22552535 -0.35834104 -0.26333898 0.6391322 0.41122252
-0.19775996 0.6231194 0.10675336 0.0629685 0.19005728 0.016181134 0.9069599 0.12109759
0.38790363 0.006114364 0.22430372 0.3485753 0.26828304 -0.060576595
00000000: aea5 f6be 6a0a aebc f588 6e3d b827 89be
00000010: 59aa 5fbe d7c5 993e d2af 36be 3629 623f
00000020: 8412 cb3e d396 c8be 718a 9040 1ef0 66be
00000030: 7a78 b7be 5ed4 86be 2b9e 233f c28b d23e
00000040: 9681 4abe c184 1f3f 81a1 da3d a1f5 803d
00000050: 609e 423e 4c8e 843c 862e 683f 0302 f83d
00000060: 4e9b c63e 015b c83b e0af 653e 7678 b23e
00000070: 655c 893e 2a1f 78bd

rnn.weight_hh_l0 f4 [30, 30]
0.960084 0.14910594 0.03250453 0.62092364 -0.47502813 -0.24822149 -0.43724582 0.9064138
-0.20172781 -0.6581021 0.6167288 0.43868804 0.34516126 -0.24605434 -0.06790678 -0.9494453
0.8097941 -1.0621067 0.7330749 0.5359326 -0.8931139 0.21715887 -0.8738549 -1.1445357
-0.16852278 0.3371846 -0.817181 -1.0839821 -1.3312557 0.5933912 0.80915284 -0.42575705
-0.47783983 -0.19742341 0.0864747 -0.23143812 -0.409834 0.34344605 -0.71482885 -0.19506615
0.0609434 0.16172595 0.73652583 0.20168655 0.029972078 -0.2212532 0.8729227 -1.1152438
0.5429372 0.45710582 -0.7585927 0.6260294 -0.7343269 -1.0891029 -0.24095345 0.17664579
-0.058010746 -0.5509246 -0.9803916 0.15429536 -0.6382736 -0.595715 0.68801874 -0.035977527
0.19517602 -0.7937687 -0.8982913 -0.21751972 0.93139595 -0.8409615 0.26896158 0.4241871
0.84510165 -0.7885043 0.52727246 0.940899 0.7183593 0.1728639 0.6565679 0.8661494
0.775702 -0.522214 -0.10179693 0.40031385 -0.617017 -0.16794866 0.4013057 0.5794442
0.35459825 -0.12961291 0.3037437 -0.47162533 0.08362059 0.017327216 0.09126071 -0.7912148
-1.3319173 0.4365615 0.41239107 -1.0491539 0.116731316 0.9705419 0.65218693 -0.2984811
0.43512872 0.7447394 1.0149422 -0.15368557 0.6608547 0.7667168 0.2160561 -0.27491623
-0.34505576 0.06646734 0.20009376 -0.1088256 -0.4816249 -0.055148944 0.23714826 -0.014084341
0.37372816 -0.24524808 0.76024276 0.4985328 0.40500697 -0.54500693 -0.887074 0.059260365
0.19201958 -0.53983086 0.6662433 0.47070083 0.7038454 -0.05528807 0.26301795 0.3848275
1.0811743 -0.0489095 0.45780262 0.016012978 0.30011544 0.65007585 -0.5206028 -0.32774392
-0.26640487 -0.20343119 -0.5839278 -0.4968961 0.031457137 0.07958582 -1.1472895 0.45020688
-0.67541623 -0.2732424 -0.3873145 1.0432417 0.8681025 -0.43072522 -0.48359647 0.69831455
-0.5621658 -0.7997807 -1.3511785 0.299174 -0.49767235 -0.21005955 -0.81258297 -0.08492015
-1.3320812 -0.48310494 -0.41110513 0.60498726 0.5310401 0.27157238 0.25633317 0.97893316
0.009763259 0.895367 -0.07749333 0.6167745 -0.952274 -0.22360873 -0.24693404 -0.29138315
-0.04257345 0.74459624 0.44662404 -0.8655386 -0.55391085 0.39254993 -0.7938909 -1.1626475
-0.82625425 0.5149016 -0.09943812 0.27855298 -0.44059744 0.75051606 -0.8995887 -0.9799252
0.40133762 0.41920242 0.9703189 0.46060202 0.45076862 0.94569033 0.2725983 1.1324389
0.3686731 0.019164043 0.83831173 0.38520437 0.20615034 -0.27219898 -0.66447073 -0.34485054
-0.3060005 0.95804095 -0.044756863 -0.16840333 0.28249618 0.65428525 0.42193434 0.0899628
-0.81651855 -0.5190125 1.1381989 -0.71031785 0.77347386 0.9056221 -1.3377887 -0.010375526
-0.8084766 -1.361003 0.6043553 -0.31437713 -1.0625749 -0.5888687 -0.72217035 0.66593504
-0.88882047 -0.98210967 0.71932054 0.18403275 0.28200835 -0.33282748 0.5981336 -0.62064826
1.385072 -0.34765345 0.33804056 -0.21437828 -0.3642315 -0.82144 1.1311529 1.0546925
00000000: 11c8 753f 3aaf 183e 7823 053d daf4 1e3f
00000010: e336 f3be c62d 7ebe afde dfbe bc0a 683f
00000020: bc91 4ebe 6179 28bf f0e1 1d3f b89b e03e
00000030: fab8 b03e abf5 7bbe b612 8bbd d90e 73bf
00000040: ab4e 4f3f 1df3 87bf ccaa 3b3f e132 093f
00000050: 1da3 64bf e55e 5e3e f4b4 5fbf 2580 92bf
00000060: 3c91 2cbe 76a3 ac3e c632 51bf edbf 8abf
00000070: 9666 aabf 7ce8 173f a424 4f3f d4fc d9be
00000080: 6ca7 f4be 5d29 4abe a619 b13d 1dfe 6cbe
00000090: c3d5 d1be 29d8 af3e 06ff 36bf 6cbf 47be
000000a0: c99f 793d 7d9b 253e f58c 3c3f eb86 4e3e
000000b0: 0188 f53c 3390 62be dd77 5f3f 4fc0 8ebf
000000c0: effd 0a3f c609 ea3e 2233 42bf 7643 203f
000000d0: d9fc 3bbf b967 8bbf 80bc 76be a2e2 343e
000000e0: ad9c 6dbd 6509 0dbf f2fa 7abf 9aff 1d3e
000000f0: e665 23bf c780 18bf ff21 303f 2c5d 13bd
00000100: 39dc 473e 6d34 4bbf 6bf6 65bf 7dbd 5ebe
00000110: f76f 6e3f 4149 57bf 55b5 893e 0d2f d93e
00000120: 9558 583f 6bdb 49bf 54fb 063f c2de 703f
00000130: 65e6 373f 3c03 313e d514 283f f8bb 5d3f
00000140: 6894 463f d1af 05bf e97a d0bd f0f5 cc3e
00000150: d3f4 1dbf bcfa 2bbe f177 cd3e 7556 143f
00000160: e78d b53e 3fb9 04be 4b84 9b3e e078 f1be
00000170: 4641 ab3d cef1 8d3c e5e6 ba3d 0e8d 4abf
00000180: 447c aabf fd84 df3e ec24 d33e ad4a 86bf
00000190: d410 ef3d 6f75 783f b9f5 263f 84d2 98be
000001a0: 31c9 de3e 3ea7 3e3f a0e9 813f c05f 1dbe
000001b0: c62d 293f 8d47 443f cf3d 5d3e d2c1 8cbe
000001c0: 26ab b0be 0720 883d 61e5 4c3e f5df debd
000001d0: 8a97 f6be dce3 61bd fed6 723e 02c2 66bc
000001e0: 4c59 bf3e 5022 7bbe 459f 423f b13f ff3e
000001f0: 135d cf3e 9385 0bbf 4817 63bf ffba 723d
00000200: c8a0 443e 5b32 0abf ec8e 2a3f b3ff f03e
00000210: 362f 343f be75 62bd 4aaa 863e 1c08 c53e
00000220: eb63 8a3f 5455 48bd 1b65 ea3e a62d 833c
00000230: bba8 993e 5f6b 263f 3a46 05bf 0dce a7be
00000240: 3866 88be 4450 50be 4b7c 15bf 2a69 febe
00000250: 33d9 003d e4fd a23d 62da 92bf 8481 e63e
00000260: 14e8 2cbf 6ee6 8bbe 164e c6be f288 853f
00000270: f73b 5e3f 0488 dcbe f599 f7be bec4 323f
00000280: 19ea 0fbf 6ebe 4cbf 6bf3 acbf 562d 993e
00000290: e9ce febe da19 57be 7005 50bf 9eea adbd
000002a0: a381 aabf 8859 f7be 5f7c d2be 72e0 1a3f
000002b0: 3ef2 073f 890b 8b3e 1a3e 833e 5d9b 7a3f
000002c0: 14f6 1f3c c636 653f d3b4 9ebd efe4 1d3f
000002d0: 3bc8 73bf b0f9 64be 47dc 7cbe 2c30 95be
000002e0: 7f61 2ebd dc9d 3e3f e8ab e43e f093 5dbf
000002f0: 1acd 0dbf 4efc c83e 6f3c 4bbf a2d1 94bf
00000300: 6685 53bf 97d0 033f 37a6 cbbd 7f9e 8e3e
00000310: fd95 e1be d221 403f 724b 66bf 61dc 7abf
00000320: 207c cd3e b3a1 d63e d266 783f 07d4 eb3e
00000330: 25cb e63e c318 723f 0192 8b3e c2f3 903f
00000340: b8c2 bc3e e9fd 9c3c 999b 563f 8239 c53e
00000350: 1319 533e aa5d 8bbe c11a 2abf 4090 b0be
00000360: 19ac 9cbe 2c42 753f f952 37bd ec71 2cbe
00000370: 57a3 903e 3d7f 273f c707 d83e 6b3e b83d
00000380: 5c07 51bf 01de 04bf 80b0 913f 64d7 35bf
00000390: 6202 463f dad6 673f a93c abbf 1cfe 29bc
000003a0: 53f8 4ebf 5935 aebf 07b7 1a3f 0af6 a0be
000003b0: 7402 88bf 19c0 16bf 28e0 38bf b87a 2a3f
000003c0: bd89 63bf 8a6b 7bbf 6425 383f 1573 3c3e
000003d0: 6663 903e 5d68 aabe 491f 193f cee2 1ebf
000003e0: 0a4a b13f a2ff b1be a713 ad3e fb85 5bbe
000003f0: 8d7c babe e449 52bf 9ec9 903f 2a00 873f
