colagnn-master-Run-Epi/src/save/cola_gnn_epi.us_regions.w-20.h-8.RNN.lam-1.0.epo-500.pt (torch, 52278 bytes, 32 tensors)

V f4 [15]
0	0x12e4e74c	1.4445842e-27
1	0x9d953a31	-3.950014e-21
2	0x36232b3d	2.431406e-06
3	0xb748e20d	-1.19735605e-05
4	0x3886e2ad	6.4318396e-05
5	0x3100820f	1.8700381e-09
6	0x33d503f9	9.919308e-08
7	0x96726411	-1.958018e-25
8	0x3b27d8d4	0.0025611417
9	0x36861666	3.9961187e-06
10	0x371b591d	9.259468e-06
11	0x3d251798	0.040305704
12	0x35065656	5.0044525e-07
13	0x3623807a	2.4363676e-06
14	0x2cfc4ab4	7.1705645e-12

W1 f4 [15, 30]
0	0x11e9b157	3.6870212e-28
1	0x920ef7eb	-4.511288e-28
2	0x122d1d93	5.462563e-28
3	0x91f000c6	-3.78658e-28
4	0x920619f4	-4.2314934e-28
5	0x908e8cb6	-5.6225924e-29
6	0x903fbd12	-3.7813763e-29
7	0x11cfb2fd	3.2769152e-28
8	0x915f75f5	-1.7627947e-28
9	0x0faef66c	1.7252643e-29
10	0x100989d6	2.712467e-29
11	0x9225304c	-5.212435e-28
12	0x9154e1c4	-1.679342e-28
13	0x12317322	5.5993264e-28
14	0x9216669d	-4.7458135e-28
15	0x916c6583	-1.8648398e-28
16	0x12224571	5.120378e-28
17	0x11c245cf	3.0650826e-28
18	0x90fa624a	-9.875905e-29
19	0x11b0235f	2.7789703e-28
20	0x11fc2447	3.9780947e-28
21	0x11964c04	2.3712675e-28
22	0x9186e171	-2.1280411e-28
23	0x101ff379	3.1544785e-29
24	0x1211d0b1	4.6011165e-28
25	0x90ee4ebe	-9.399577e-29
26	0x922a9009	-5.382008e-28
27	0x92200816	-5.0497065e-28
28	0x9176cd91	-1.9469323e-28
29	0x1225ef43	5.2359733e-28
30	0x9aa42b9a	-6.789925e-23
31	0x195d94f2	1.14555115e-23
32	0x98660fa2	-2.9734696e-24
33	0x9ab1dffa	-7.356734e-23
34	0x996c413a	-1.22140864e-23
35	0x9b0636d3	-1.1101935e-22
36	0x1a9af476	6.4087855e-23
37	0x9aa08d0b	-6.6402316e-23
38	0x9ab3daae	-7.438596e-23
39	0x9ab29a7e	-7.386867e-23
40	0x1a901cfb	5.9603825e-23
41	0x99a8af17	-1.7441511e-23
42	0x1ab2178d	7.365712e-23
43	0x97fd6344	-1.63748e-24
44	0x9a96c22c	-6.235225e-23
45	0x19f97734	2.5794142e-23
46	0x19e5f6a9	2.377767e-23
47	0x9aa61dc3	-6.8704073e-23
48	0x1a5431d4	4.3880823e-23
49	0x198dde93	1.4668955e-23
50	0x98f6ba6e	-6.3777755e-24
51	0x9a205ae2	-3.316064e-23
52	0x9a9c961d	-6.476261e-23
53	0x9a74b2eb	-5.0602546e-23
54	0x1ab42f98	7.452315e-23
55	0x1a47c05b	4.130762e-23
56	0x19aa984e	1.7639103e-23
57	0x19fa7d0e	2.5899903e-23
58	0x19fc1b4a	2.6067211e-23
59	0x99feb47c	-2.6335882e-23
60	0x1ed8bf00	2.2948885e-20
61	0x9f46e7f7	-4.2120008e-20
62	0x9f503b4c	-4.4094762e-20
63	0x1f4363cd	4.137541e-20
64	0x1f241eb3	3.4753745e-20
65	0xa1431c8e	-6.610636e-19
66	0x9dc7e4e8	-5.2911545e-21
67	0x1e0a3cf8	7.318267e-21
68	0x1ea6f238	1.7676113e-20
69	0x1e4fb2f4	1.0995495e-20
70	0x9ece40fa	-2.1837972e-20
71	0x1f325240	3.7761002e-20
72	0x9ea43b6c	-1.7388752e-20
73	0x9f37b30a	-3.8899855e-20
74	0x1efdc2e0	2.6868015e-20
75	0x9f1a239e	-3.264023e-20
76	0x1f52ff02	4.4680167e-20
77	0x1f2a86a6	3.611028e-20
78	0x1fddb1b2	9.389111e-20
79	0x9f3e3488	-4.0277518e-20
80	0x9f3d0bfc	-4.003222e-20
81	0xa004b2d2	-1.1240002e-19
82	0x1f04a4ec	2.8088507e-20
83	0x1f11d323	3.0879593e-20
84	0x9ea8a512	-1.7855963e-20
85	0x1f85d81e	5.668523e-20
86	0x1f62452a	4.7914573e-20
87	0x1f466e6e	4.2019476e-20
88	0x9f230086	-3.4517026e-20
89	0x1f27fb49	3.5571484e-20
90	0xa795d625	-4.1587984e-15
91	0x2795e6f3	4.1606203e-15
92	0x2795232b	4.1393937e-15
93	0xa78e578c	-3.9507836e-15
94	0xa7859ac1	-3.70827e-15
95	0xa305d22b	-7.254449e-18
96	0x27968d64	4.178666e-15
97	0xa7965ae9	-4.173193e-15
98	0xa7964f4a	-4.171933e-15
99	0xa7960b9c	-4.164595e-15
100	0x27960a21	4.1644345e-15
101	0xa796064f	-4.1640203e-15
102	0x2796017c	4.1634973e-15
103	0x2795e07e	4.1599203e-15
104	0xa79658ed	-4.1729777e-15
105	0x2795e8d5	4.1608245e-15
106	0xa7948f76	-4.1233793e-15
107	0xa78e0636	-3.941965e-15
108	0xa78d89e2	-3.9284854e-15
109	0x27961e22	4.1666033e-15
110	0x2795e3c9	4.1602773e-15
111	0x27884160	3.7818463e-15
112	0xa795571a	-4.1450243e-15
113	0xa7ace2ee	-4.7985628e-15
114	0x27954741	4.143306e-15
115	0xa795a7a6	-4.1537572e-15
116	0xa79553b1	-4.1446546e-15
117	0xa792b00f	-4.0714024e-15
118	0x2793b58e	4.099754e-15
119	0xa795aa55	-4.154048e-15
120	0x279c8d67	4.3452007e-15
121	0xa7953f08	-4.1424146e-15
122	0xa793cf6b	-4.102558e-15
123	0x27941eb7	4.1111553e-15
124	0x27856dd8	3.703401e-15
125	0x21d58f49	1.4471369e-18
126	0xa79e8302	-4.399585e-15
127	0x279e1b25	4.388324e-15
128	0x279c3aa0	4.336226e-15
129	0x279bd760	4.3254652e-15
130	0xa799531d	-4.2556142e-15
131	0x27960baf	4.164603e-15
132	0xa79a957f	-4.290567e-15
133	0xa79522c9	-4.139352e-15
134	0x27992d26	4.251498e-15
135	0xa796b793	-4.1832395e-15
136	0x279296ce	4.0686643e-15
137	0x2796f1b4	4.189542e-15
138	0x278a7231	3.84265e-15
139	0xa795bb50	-4.1558892e-15
140	0xa794eeae	-4.133703e-15
141	0xa7866e58	-3.7312106e-15
142	0x27990004	4.2466048e-15
143	0x27b3e9da	4.9936023e-15
144	0xa79a93a9	-4.290368e-15
145	0x2791ea6e	4.0499754e-15
146	0x279368e8	4.0914436e-15
147	0x2790c33e	4.017971e-15
148	0xa79489c5	-4.122762e-15
149	0x2796b361	4.1827846e-15
150	0x1c8612a1	8.872192e-22
151	0x1cce2ba7	1.364322e-21
152	0x1ccca4e0	1.3542207e-21
153	0x9c49924a	-6.6694395e-22
154	0x1c9847df	1.0077094e-21
155	0x1b6e9a05	1.9736665e-22
156	0x9a9c859b	-6.473594e-23
157	0x1c3c60ba	6.2329e-22
158	0x9bba0834	-3.077642e-22
159	0x1af372b8	1.0068778e-22
160	0x9c578f63	-7.1322856e-22
161	0x1c9c4e21	1.034341e-21
162	0x9c465d46	-6.563326e-22
163	0x1ca3c8e8	1.0838368e-21
164	0x9c7f5cd6	-8.449241e-22
165	0x1cc39386	1.2942151e-21
166	0x9c5f691c	-7.392036e-22
167	0x1c644d97	7.5539154e-22
168	0x1bf00ea6	3.9714136e-22
169	0x9ba254a1	-2.6855342e-22
170	0x1cb61086	1.2048021e-21
171	0x9ce2828a	-1.4989169e-21
172	0x9c3e6106	-6.2991126e-22
173	0x1c00166a	4.2380617e-22
174	0x1c996469	1.0150646e-21
175	0x9cca3b45	-1.338256e-21
176	0x9c38d7c8	-6.1159384e-22
177	0x9c22b184	-5.3830737e-22
178	0x1c9a07f0	1.0192917e-21
179	0x9c92415d	-9.678366e-22
180	0x2116664d	5.095737e-19
181	0x208bf576	2.3709948e-19
182	0x211c0710	5.2864203e-19
183	0xa1256cc7	-5.604814e-19
184	0x20cb5998	3.4448826e-19
185	0xa11021ba	-4.8833734e-19
186	0x9f6f3593	-5.0654534e-20
187	0x20e33b7a	3.8494654e-19
188	0x20cae132	3.4369153e-19
189	0xa14a4f3e	-6.854514e-19
190	0xa0ec8342	-4.0066814e-19
191	0x211de1c0	5.3492447e-19
192	0x213f3ccb	6.4793776e-19
193	0x21253a97	5.598172e-19
194	0x213fadef	6.4943516e-19
195	0xa13132bd	-6.0037084e-19
196	0x1fe691a8	9.764976e-20
197	0x20e4b31b	3.8743224e-19
198	0x2137d3b7	6.2283014e-19
199	0xa07fe744	-2.167586e-19
200	0x20fd7230	4.293543e-19
201	0x21377c23	6.2167105e-19
202	0x2101bc36	4.3955995e-19
203	0x214e8ae8	6.9979356e-19
204	0x20ed7ba9	4.0231193e-19
205	0x2137a508	6.222123e-19
206	0x213c5c43	6.3818985e-19
207	0xa0fc080f	-4.2695793e-19
208	0xa12e6ba5	-5.909596e-19
209	0x20eab619	3.9761644e-19
210	0x14d669d3	2.1650218e-26
211	0x94a60aa4	-1.6765914e-26
212	0x943b14f8	-9.445223e-27
213	0x95187f6e	-3.079668e-26
214	0x95036d16	-2.6541293e-26
215	0x942ec364	-8.823289e-27
216	0x1354aecc	2.6844343e-27
217	0x144b3f8c	1.0261413e-26
218	0x149c758b	1.5798337e-26
219	0x9528741e	-3.401893e-26
220	0x1453ddaf	1.0696497e-26
221	0x953289ec	-3.6055615e-26
222	0x15090e9b	2.767845e-26
223	0x946a5ac6	-1.1831883e-26
224	0x14e7c6fa	2.3403522e-26
225	0x147d9dae	1.28043326e-26
226	0x15256d3a	3.340765e-26
227	0x14a895a4	1.7022688e-26
228	0x94b26afa	-1.8015602e-26
229	0x14966e23	1.518957e-26
230	0x131f0a60	2.0073737e-27
231	0x1547bf20	4.03385e-26
232	0x152a3351	3.4371708e-26
233	0x1347f0d0	2.523606e-27
234	0x14d4a436	2.14713e-26
235	0x9454c9c4	-1.0743056e-26
236	0x1503a50b	2.6585435e-26
237	0x94a14649	-1.6284568e-26
238	0x14de9a97	2.2477246e-26
239	0x13f8964e	6.2752213e-27
240	0xb231cd25	-1.03494004e-08
241	0x322e50b1	1.014648e-08
242	0x322d2694	1.0078697e-08
243	0xb227db5c	-9.770556e-09
244	0xb21c8a00	-9.111773e-09
245	0x233b4119	1.0151075e-17
246	0x3232231e	1.0368948e-08
247	0xb23183ba	-1.0332707e-08
248	0xb2314a90	-1.03197095e-08
249	0xb23097d1	-1.0279067e-08
250	0x322fad56	1.0225753e-08
251	0xb22e8abf	-1.015968e-08
252	0x32303f8f	1.0259e-08
253	0x322deb75	1.0123462e-08
254	0xb22fe587	-1.0238529e-08
255	0x322e94ab	1.0161936e-08

b1 f4 [15]
0	0x8f8696d0	-1.3271511e-29
1	0x9a976586	-6.2616156e-23
2	0x1dae9bc0	4.621846e-21
3	0xa7967f03	-4.177107e-15
4	0x279f051b	4.41369e-15
5	0x9b19f8c0	-1.2736239e-22
6	0xa01570ef	-1.2658158e-19
7	0x9428aac6	-8.5155116e-27
8	0xb232309d	-1.0372017e-08
9	0xa32a6b3a	-9.2384246e-18
10	0x21178946	5.134247e-19
11	0xb0e6f201	-1.6803484e-09
12	0xa0c3e04c	-3.3182712e-19
13	0xa393b78b	-1.6015505e-17
14	0x1ed618bb	2.266836e-20

W2 f4 [15, 30]
0	0x11974baf	2.3870243e-28
1	0x120b986c	4.404854e-28
2	0x12110e90	4.577188e-28
3	0x12c91798	1.26907e-27
4	0x92586a2f	-6.8288464e-28
5	0x11a3392e	2.5752105e-28
6	0x90fada80	-9.8944266e-29
7	0x119d0ebe	2.4779318e-28
8	0x9200db0c	-4.0659674e-28
9	0x12058146	4.212674e-28
10	0x9217a5f5	-4.7851757e-28
11	0x11fe02fa	4.0075968e-28
12	0x11c9c793	3.1835205e-28
13	0x92026817	-4.114907e-28
14	0x1117ea1c	1.198394e-28
15	0x8f902a30	-1.4215746e-29
16	0x12233c38	5.1507956e-28
17	0x11c7917e	3.148633e-28
18	0x121494f5	4.688417e-28
19	0x92052b1b	-4.202053e-28
20	0x10cd4b9c	8.097474e-29
21	0x91c7347f	-3.1429017e-28
22	0x1255b80c	6.7437804e-28
23	0x939c6640	-3.9480763e-27
24	0x124999ff	6.361423e-28
25	0x1209cb56	4.348021e-28
26	0x9205481f	-4.2056296e-28
27	0x1244462e	6.19332e-28
28	0x922b274c	-5.4006523e-28
29	0x919360eb	-2.325224e-28
30	0x9a9effa2	-6.5760265e-23
31	0x1a493267	4.160654e-23
32	0x995ab5de	-1.1307064e-23
33	0x9b7d3e40	-2.0947784e-22
34	0x999c3ce4	-1.6154615e-23
35	0x9a6a6af0	-4.847645e-23
36	0x1a9b0d12	6.4127614e-23
37	0x9a8f6a8f	-5.931557e-23
38	0x9ab55332	-7.4994255e-23
39	0x9aa8e0be	-6.984626e-23
40	0x1aa76a57	6.924138e-23
41	0x98cd94f2	-5.3141654e-24
42	0x1a5d7173	4.5793372e-23
43	0x18eb8c7a	6.088792e-24
44	0x9a92ad3e	-6.066407e-23
45	0x1a5a30f8	4.51209e-23
46	0x9a4ff7e6	-4.3006847e-23
47	0x9a900968	-5.95722e-23
48	0x1a1b2fdf	3.209192e-23
49	0x19229320	8.404915e-24
50	0x9a0337a4	-2.713511e-23
51	0x99e2820e	-2.3420381e-23
52	0x9a50100f	-4.3026364e-23
53	0x1c61beca	7.4692844e-22
54	0x1b0a7c84	1.1455326e-22
55	0x1a4147cf	3.996947e-23
56	0x196b3878	1.2160619e-23
57	0x18feb512	6.5840295e-24
58	0x1ac83731	8.280723e-23
59	0x99259e8e	-8.56232e-24
60	0x1eb92480	1.9602733e-20
61	0x9f1dfc87	-3.345493e-20
62	0x9f301f98	-3.7295583e-20
63	0x2064c707	1.9378204e-19
64	0xa0471f32	-1.6866277e-19
65	0xa10c43f6	-4.752379e-19
66	0x9ddfca10	-5.9236536e-21
67	0x1d48dca0	2.658384e-21
68	0x1eadb524	1.8392005e-20
69	0x1e82e476	1.3858775e-20
70	0x9e454fec	-1.0445621e-20
71	0x9f17b72a	-3.2127004e-20
72	0x1d219520	2.1385268e-21
73	0x9f30087b	-3.7276465e-20
74	0x1efa893c	2.6526538e-20
75	0x9ebf0fa6	-2.0229384e-20
76	0xa060b19f	-1.9032308e-19
77	0x1e252b50	8.743984e-21
78	0x1f545e0c	4.497054e-20
79	0x9f4b00f8	-4.2987723e-20
80	0x9f621a1b	-4.7878955e-20
81	0x9febc286	-9.9848183e-20
82	0x1f989847	6.4626426e-20
83	0xa10af7b7	-4.7084067e-19
84	0x9f3cf8ca	-4.0016342e-20
85	0x1f40a523	4.079418e-20
86	0x1ed08b24	2.2080404e-20
87	0xa061914a	-1.9106313e-19
88	0x20001c22	1.085133e-19
89	0x9e250880	-8.736785e-21
90	0xa795fa08	-4.162689e-15
91	0x27974cc8	4.1994166e-15
92	0x27803c15	3.5592278e-15
93	0xa86a731f	-1.3014572e-14
94	0x281b9f8b	8.638824e-15
95	0x20fdae78	4.297532e-19
96	0x2796ad66	4.1821362e-15
97	0xa785a320	-3.7091776e-15
98	0xa796b577	-4.183011e-15
99	0xa792aa57	-4.0707823e-15
100	0x27923ed9	4.059128e-15
101	0xa7973517	-4.196848e-15
102	0x2725d8f2	2.3015956e-15
103	0x2796c70d	4.1849175e-15
104	0xa7975409	-4.200203e-15
105	0x27971764	4.193628e-15
106	0x283b4082	1.0394573e-14
107	0xa780b9d3	-3.5728608e-15
108	0xa75f6c83	-3.1006291e-15
109	0x279702cb	4.1913947e-15
110	0x279701c8	4.191285e-15
111	0x276bdc6d	3.2732294e-15
112	0xa7cb553d	-5.6436234e-15
113	0x2983d29b	5.854103e-14
114	0x27f28a02	6.731812e-15
115	0xa7970838	-4.191983e-15
116	0xa77bdcbf	-3.4952914e-15
117	0xa7b89a51	-5.123757e-15
118	0x2819b642	8.532727e-15
119	0xa68a4a5a	-9.595827e-16
120	0x279d1547	4.3599323e-15
121	0xa7974478	-4.1985153e-15
122	0xa776327d	-3.4166728e-15
123	0x288683f5	1.4934216e-14
124	0xa83a8ab2	-1.0355149e-14
125	0xa27024b8	-3.2545504e-18
126	0xa79e83d4	-4.3996738e-15
127	0x27899947	3.8191322e-15
128	0x279b80ef	4.3160932e-15
129	0x279583a7	4.1498545e-15
130	0xa79564ad	-4.146496e-15
131	0x279a3a45	4.2806762e-15
132	0xa715da75	-2.079633e-15
133	0xa7955518	-4.1448066e-15
134	0x2798cbc0	4.240938e-15
135	0xa798c205	-4.239883e-15
136	0xa86093de	-1.24665615e-14
137	0x27839a57	3.652714e-15
138	0x274ee1f1	2.8710726e-15
139	0xa794ef9e	-4.1338045e-15
140	0xa7934339	-4.087358e-15
141	0xa76577be	-3.1845046e-15
142	0x27d3d723	5.8797516e-15
143	0xa99e0e07	-7.019043e-14
144	0xa80561d3	-7.404195e-15
145	0x27933fc8	4.086985e-15
146	0x2770e553	3.3431008e-15
147	0x27cea6a6	5.7357166e-15
148	0xa82e9c3f	-9.692821e-15
149	0x26019ebf	4.4971007e-16
150	0x1c3f4ea9	6.3298265e-22
151	0x1c968cc9	9.962559e-22
152	0x9cc80ad8	-1.3237693e-21
153	0x1d814dd5	3.4226492e-21
154	0x9d1bd53e	-2.0624323e-21
155	0x1c58c867	7.172742e-22
156	0x9b3438e4	-1.4907633e-22
157	0x1c1123f5	4.802295e-22
158	0x9c9458b7	-9.816751e-22
159	0x1c84e7b2	8.794919e-22
160	0x9c9d9d45	-1.0430042e-21
161	0x1cc939d7	1.3316015e-21
162	0x1c26de16	5.521183e-22
163	0x9bd7d604	-3.570707e-22
164	0x1c7eff64	8.4371635e-22
165	0x1ca6d5a5	1.1040184e-21
166	0x1d394da7	2.4524691e-21
167	0x1c4247ea	6.428216e-22
168	0x1c7bae26	8.3274015e-22
169	0x9bd0eb2d	-3.4562692e-22
170	0x9a327d68	-3.691084e-23
171	0x9c2fddcf	-5.8189324e-22
172	0x9c970f6f	-9.996331e-22
173	0x9e7ef89d	-1.349806e-20
174	0x1cfe77a7	1.6839239e-21
175	0x1c32f237	5.9208315e-22
176	0x1c9c7470	1.0353312e-21
177	0x9cac79ac	-1.1413457e-21
178	0x1d323792	2.3586833e-21
179	0x1ba5f515	2.745534e-22
180	0x2099a181	2.6026083e-19
181	0x213af6d2	6.3345915e-19
182	0xa11f127a	-5.389575e-19
183	0xa1d0648e	-1.4121245e-18
184	0xa0dff9ad	-3.794289e-19
185	0xa11cc4de	-5.311541e-19
186	0x9f263fed	-3.5204745e-20
187	0x209887cc	2.5839664e-19
188	0xa10eac37	-4.8339396e-19
189	0xa02e63d2	-1.4771401e-19
190	0x20afa3ca	2.975454e-19
191	0xa1381593	-6.237018e-19
192	0x2077d5bc	2.0992433e-19
193	0x2110c936	4.90554e-19
194	0x20cbc1ad	3.4517702e-19
195	0x21340d57	6.1004027e-19
196	0xa1e5bf6f	-1.5568316e-18
197	0x20bcbcb1	3.1973304e-19
198	0x20e60046	3.8963697e-19
199	0x211223dd	4.951419e-19
200	0x21324fe1	6.0414465e-19
201	0xa0c19a8b	-3.279774e-19
202	0x211d529f	5.3303017e-19
203	0xa33cb08e	-1.0228887e-17
204	0x2091bad4	2.4687588e-19
205	0x2124e0d2	5.586291e-19
206	0x211aeb6b	5.2488803e-19
207	0xa10910d7	-4.6439693e-19
208	0x21be25df	1.2884925e-18
209	0x2009f345	1.1684843e-19
210	0x148eb1d5	1.4408478e-26
211	0x10a6e800	6.583291e-29
212	0x11324600	1.4063295e-28
213	0x950b998b	-2.819195e-26
214	0x150acac4	2.8028832e-26
215	0x14ecc198	2.390627e-26
216	0x139a5808	3.896187e-27
217	0x142f635c	8.854837e-27
218	0x94e11081	-2.2725704e-26
219	0x13027a74	1.646868e-27
220	0x13e62f01	5.8106512e-27
221	0x153b4edf	3.7826568e-26
222	0x14a6177c	1.677098e-26
223	0x9514ee6d	-3.0076447e-26
224	0x93f4cf0a	-6.1798416e-27
225	0x14c0eace	1.947966e-26
226	0x951b5e37	-3.1376323e-26
227	0x148f0970	1.4443032e-26
228	0x151288be	2.9592336e-26
229	0x9522c53d	-3.2871233e-26
230	0x1505bed8	2.7009685e-26
231	0x9538775d	-3.7252665e-26
232	0x14ac30cb	1.7386807e-26
233	0x96987005	-2.4627619e-25
234	0x14799c4a	1.260211e-26
235	0x15555d7f	4.3088763e-26
236	0x94a5c407	-1.6738061e-26
237	0x92b8b084	-1.1655547e-27
238	0x150e3018	2.871461e-26
239	0x94c1908c	-1.9545033e-26
240	0xb231ee09	-1.0356879e-08
241	0x322f6637	1.0209582e-08
242	0x3212151f	8.503121e-09
243	0xb315154d	-3.471114e-08
244	0x32cbc4b2	2.3721757e-08
245	0xb0258060	-6.020908e-10
246	0x3232239c	1.036906e-08
247	0xb21bc689	-9.067329e-09
248	0xb231031c	-1.0303463e-08
249	0xb22aa3d0	-9.932549e-09
250	0x322a38f2	9.90825e-09
251	0xb22e5c79	-1.0149159e-08
252	0x31b2e9f2	5.2070783e-09
253	0x322e08c2	1.0130124e-08
254	0xb22fe54f	-1.0238479e-08
255	0x322f727c	1.0212371e-08

Wb f4 [29, 29]
0	0x331f2d95	3.706153e-08
1	0xb751e63a	-1.2510975e-05
2	0xab5c8310	-7.8341587e-13
3	0x3f057e1a	0.5214554
4	0xa560b8ae	-1.9491475e-16
5	0x25a4fbae	2.862001e-16
6	0xa6868b30	-9.335845e-16
7	0x34f09fb3	4.481968e-07
8	0xbdc3079a	-0.09522934
9	0xa52bec16	-1.4911875e-16
10	0x29a3593b	7.254133e-14
11	0x2582743c	2.2630169e-16
12	0x24a75e7a	7.2584755e-17
13	0x39ae801e	0.0003328332
14	0x2589805a	2.3852686e-16
15	0x388b79d1	6.6507266e-05
16	0x352253bf	6.047157e-07
17	0x25c1ce35	3.3619894e-16
18	0x249d29ac	6.815849e-17
19	0xbe6eca12	-0.23319271
20	0xbca9ae15	-0.020712892
21	0x38df82d3	0.000106578365
22	0xae7380f9	-5.5366354e-11
23	0xbfd80dec	-1.6879249
24	0x249755b3	6.563099e-17
25	0x34ca4a0b	3.7679305e-07
26	0xa5ebf6cf	-4.0933246e-16
27	0x2dfd9fa7	2.883367e-11
28	0xb9cad0c7	-0.00038683994
29	0x332abc50	3.975248e-08
30	0xb751bcdb	-1.2501342e-05
31	0xab58d82d	-7.703862e-13
32	0x3f05832c	0.5215328
33	0xa559307c	-1.8838177e-16
34	0x253c6966	1.6342111e-16
35	0xa6888bfc	-9.474839e-16
36	0x34f0cb13	4.485124e-07
37	0xbdc30650	-0.095226884
38	0xa52b710a	-1.4870185e-16
39	0x29a7ec60	7.457294e-14
40	0x258261f7	2.261779e-16
41	0x25614e70	1.9542215e-16
42	0x39ae59d9	0.00033254808
43	0x25881e90	2.361295e-16
44	0x388b4700	6.641261e-05
45	0x35226674	6.049879e-07
46	0x25c48658	3.4091615e-16
47	0x249e6114	6.8686034e-17
48	0xbe6ec9dc	-0.2331919
49	0xbca9a976	-0.020710688
50	0x38df926e	0.00010660743
51	0xae73699a	-5.5345596e-11
52	0xbfd80ce6	-1.6878936
53	0x2499a48a	6.663191e-17
54	0x34ca5329	3.768594e-07
55	0xa5f22ba7	-4.2009888e-16
56	0x2e000be2	2.9114385e-11
57	0xb9cad130	-0.000386843
58	0x33236a7d	3.8048245e-08
59	0xb751d967	-1.2507989e-05
60	0xab5fc4f5	-7.949885e-13
61	0x3f0591ce	0.52175605
62	0xa55d5018	-1.9195831e-16
63	0x258b73fa	2.4191245e-16
64	0xa688e27f	-9.498288e-16
65	0x34f0be5f	4.4841997e-07
66	0xbdc306eb	-0.09522804
67	0xa52ab13f	-1.4805203e-16
68	0x29a78a32	7.440263e-14
69	0x25819e4d	2.2485202e-16
70	0x255f8998	1.9388785e-16
71	0x39ae87a1	0.00033288918
72	0x258cb2a9	2.4407193e-16
73	0x388b5176	6.64321e-05
74	0x35223fa8	6.0442335e-07
75	0x25c4eada	3.4159722e-16
76	0x249cb15e	6.795469e-17
77	0xbe6ec9d4	-0.23319179
78	0xbca9a4af	-0.02070841
79	0x38df9746	0.000106616455
80	0xae745a4e	-5.5559383e-11
81	0xbfd80bbf	-1.6878585
82	0x2498337f	6.600673e-17
83	0x34ca5689	3.7688395e-07
84	0xa5ee6deb	-4.1360902e-16
85	0x2dfcead1	2.8753363e-11
86	0xb9cad0f6	-0.0003868413
87	0x33284e94	3.9187015e-08
88	0xb751de10	-1.2509074e-05
89	0xab5c3ba3	-7.8242464e-13
90	0x3f057ea6	0.52146375
91	0xa55ee7a8	-1.9333919e-16
92	0x2590562a	2.5038405e-16
93	0xa685de47	-9.288977e-16
94	0x34f09992	4.481522e-07
95	0xbdc306c2	-0.09522773
96	0xa52c5c12	-1.4949817e-16
97	0x29a4289a	7.290106e-14
98	0x25826500	2.2619845e-16
99	0x256116be	1.9523344e-16
100	0x39ae6d2b	0.00033269203
101	0x2589f358	2.3930608e-16
102	0x388b6bb1	6.6480956e-05
103	0x35224ab9	6.045844e-07
104	0x25c23b60	3.369387e-16
105	0x249cf818	6.80745e-17
106	0xbe6eca0f	-0.23319267
107	0xbca9aef0	-0.0207133
108	0x38df8215	0.00010657698
109	0xae73521d	-5.5324734e-11
110	0xbfd80c40	-1.6878738
111	0x2497fef3	6.591771e-17
112	0x34ca3e6b	3.7670847e-07
113	0xa5ec397a	-4.0978422e-16
114	0x2dfed85d	2.8972541e-11
115	0xb9cad0c4	-0.00038683985
116	0x332fbb36	4.091563e-08
117	0xb751bc28	-1.2501179e-05
118	0xab5a8878	-7.7638547e-13
119	0x3f05815c	0.5215051
120	0xa558d5c3	-1.8807439e-16
121	0x2549495d	1.7458827e-16
122	0xa68d6807	-9.812037e-16
123	0x34f09da4	4.4818182e-07
124	0xbdc3061c	-0.0952265
125	0xa52d4519	-1.5028769e-16
126	0x29a65274	7.386184e-14
127	0x2582550d	2.2609038e-16
128	0x25616691	1.955039e-16
129	0x39ae620c	0.00033260917
130	0x2586da90	2.3393398e-16
131	0x388b3c4a	6.639266e-05
132	0x352274d0	6.051969e-07
133	0x25c51bd3	3.4192907e-16
134	0x249ece45	6.887101e-17
135	0xbe6ec970	-0.2331903
136	0xbca9a4b9	-0.020708429
137	0x38dfa17b	0.00010663547
138	0xae739645	-5.538527e-11
139	0xbfd80bbd	-1.6878582
140	0x2498ae2f	6.621457e-17
141	0x34ca507d	3.7683995e-07
142	0xa5f28ffe	-4.207788e-16
143	0x2e006db0	2.9201253e-11
144	0xb9cad26b	-0.00038685216
145	0x33244173	3.824375e-08
146	0xb751c54b	-1.2503307e-05
147	0xab660de6	-8.17317e-13
148	0x3f058382	0.5215379
149	0xa55be3f6	-1.9072458e-16
150	0x25627977	1.9643529e-16
151	0xa6885a60	-9.461392e-16
152	0x34f0a652	4.4824498e-07
153	0xbdc306ac	-0.09522757
154	0xa52ad08c	-1.4815808e-16
155	0x29a72379	7.422443e-14
156	0x2582633a	2.2618644e-16
157	0x2560ccb6	1.9498262e-16
158	0x39ae6deb	0.00033269761
159	0x258ba1ec	2.422238e-16
160	0x388b518e	6.643227e-05
161	0x35225dd2	6.048623e-07
162	0x25c40533	3.4004103e-16
163	0x249f3f19	6.906215e-17
164	0xbe6ec9ba	-0.2331914
165	0xbca9a818	-0.020710036
166	0x38df9462	0.00010661107
167	0xae7330ad	-5.5295036e-11
168	0xbfd80be2	-1.6878626
169	0x24992f36	6.643315e-17
170	0x34ca4c23	3.768083e-07
171	0xa5e8c32b	-4.0377836e-16
172	0x2dfd0619	2.8765478e-11
173	0xb9cad155	-0.00038684407
174	0x3324e788	3.8394802e-08
175	0xb751bc9e	-1.2501287e-05
176	0xab654913	-8.1458554e-13
177	0x3f0584f3	0.5215599
178	0xa559c8c9	-1.8889778e-16
179	0x253ece7d	1.6549834e-16
180	0xa6870769	-9.369515e-16
181	0x34f0cce9	4.4852575e-07
182	0xbdc30661	-0.09522701
183	0xa52b3ce9	-1.4852523e-16
184	0x29a66e48	7.3910116e-14
185	0x25825c7e	2.261408e-16
186	0x25611846	1.9523863e-16
187	0x39ae5fb2	0.00033259165
188	0x258c0269	2.4287762e-16
189	0x388b474c	6.6413166e-05
190	0x35224f45	6.0465055e-07
191	0x25c3e32b	3.3981043e-16
192	0x249ea35a	6.8798306e-17
193	0xbe6ec9d8	-0.23319185
194	0xbca9ac64	-0.020712085
195	0x38df8e11	0.000106599306
196	0xae732e32	-5.5292833e-11
197	0xbfd80bd0	-1.6878605
198	0x24996965	6.653172e-17
199	0x34ca48eb	3.7678487e-07
200	0xa5e9f29f	-4.0583463e-16
201	0x2dfdc87e	2.8851806e-11
202	0xb9cad178	-0.0003868451
203	0x332822b5	3.9147114e-08
204	0xb751b9a3	-1.2500593e-05
205	0xab58a1f3	-7.6963365e-13
206	0x3f0582bc	0.5215261
207	0xa55a04ca	-1.8910108e-16
208	0x2530f60f	1.5348934e-16
209	0xa686db5f	-9.357578e-16
210	0x34f0dc20	4.4863646e-07
211	0xbdc3061c	-0.0952265
212	0xa52c72ed	-1.495756e-16
213	0x29a4e4b3	7.322736e-14
214	0x25826c0a	2.2624615e-16
215	0x255efb43	1.9340561e-16
216	0x39ae5ea0	0.00033258367
217	0x2587007c	2.3419095e-16
218	0x388b4d60	6.642449e-05
219	0x352251e3	6.0468864e-07
220	0x25c269e1	3.3725382e-16
221	0x249da8f4	6.8374114e-17
222	0xbe6eca03	-0.23319249
223	0xbca9b6a8	-0.02071698
224	0x38df8404	0.000106580585
225	0xae736053	-5.5337356e-11
226	0xbfd80d11	-1.6878988
227	0x24994c24	6.648216e-17
228	0x34ca3dae	3.767031e-07
229	0xa5f293f2	-4.208056e-16
230	0x2dffb0f4	2.9068727e-11
231	0xb9cad188	-0.00038684555
232	0x3325a64c	3.8568302e-08
233	0xb751befd	-1.2501839e-05
234	0xab66ed6f	-8.204192e-13
235	0x3f05870c	0.5215919
236	0xa558dff2	-1.8810889e-16
237	0x255de6de	1.9246915e-16
238	0xa689dd4a	-9.566265e-16
239	0x34f0a8dd	4.4826348e-07
240	0xbdc30678	-0.09522718
241	0xa52b3297	-1.4849026e-16
242	0x29a713e9	7.419744e-14
243	0x25823b88	2.2591745e-16
244	0x25613432	1.9533324e-16
245	0x39ae7060	0.00033271592
246	0x258a950b	2.404018e-16
247	0x388b3802	6.638469e-05
248	0x35224a52	6.0457853e-07
249	0x25c4fe45	3.417288e-16
250	0x249f122d	6.898605e-17
251	0xbe6ec942	-0.23318961
252	0xbca9a223	-0.020707196
253	0x38dfa44d	0.00010664072
254	0xae732f4a	-5.5293804e-11
255	0xbfd80b3a	-1.6878426

conv.weight f4 [10, 1, 20]
0	0x00001b99	9.9e-42
1	0x800019b5	-9.222e-42
2	0x000017eb	8.58e-42
3	0x00001862	8.747e-42
4	0x8000167f	-8.07e-42
5	0x000016db	8.199e-42
6	0x0000175e	8.383e-42
7	0x00002154	1.1956e-41
8	0x0000218b	1.2033e-41
9	0x80001b35	-9.76e-42
10	0x800021b1	-1.2086e-41
11	0x80001aaa	-9.565e-42
12	0x800021dc	-1.2146e-41
13	0x8000208a	-1.1673e-41
14	0x00001ef1	1.11e-41
15	0x00000253	8.34e-43
16	0x00000392	1.281e-42
17	0x80001bf8	-1.0033e-41
18	0x00001d4e	1.0513e-41
19	0x80001ef6	-1.1107e-41
20	0x00000023	4.9e-44
21	0x800012be	-6.723e-42
22	0x80001b32	-9.756e-42
23	0x00000740	2.601e-42
24	0x80001b9f	-9.909e-42
25	0x80001131	-6.167e-42
26	0x000005eb	2.123e-42
27	0x80000683	-2.336e-42
28	0x000019d2	9.263e-42
29	0x00001470	7.332e-42
30	0x80000ef8	-5.37e-42
31	0x0000114b	6.204e-42
32	0x000007e6	2.833e-42
33	0x80000397	-1.288e-42
34	0x000019fe	9.324e-42
35	0x80001658	-8.015e-42
36	0x00000526	1.847e-42
37	0x000020f8	1.1827e-41
38	0x800012b2	-6.707e-42
39	0x800015e6	-7.856e-42
40	0x0000208d	1.1677e-41
41	0x00000ca7	4.539e-42
42	0x000012f3	6.798e-42
43	0x000017a9	8.488e-42
44	0x00001896	8.82e-42
45	0x00001820	8.654e-42
46	0x00000cf0	4.641e-42
47	0x80001620	-7.937e-42
48	0x00001c87	1.0234e-41
49	0x8000192c	-9.03e-42
50	0x00001610	7.915e-42
51	0x80001585	-7.72e-42
52	0x80001d1e	-1.0445e-41
53	0x800020fe	-1.1835e-41
54	0x00001582	7.716e-42
55	0x80001b63	-9.825e-42
56	0x80001dad	-1.0646e-41
57	0x80001252	-6.572e-42
58	0x80001da9	-1.064e-41
59	0x80000732	-2.581e-42
60	0x00081916	7.43683e-40
61	0x80054d02	-4.86803e-40
62	0x8006971a	-6.05218e-40
63	0x00046e2a	4.06861e-40
64	0x0004e1e1	4.48372e-40
65	0x00007ef7	4.5546e-41
66	0x00002693	1.3838e-41
67	0x00045949	3.99371e-40
68	0x0003caad	3.48213e-40
69	0x00051c4b	4.69327e-40
70	0x000077eb	4.3018e-41
71	0x80037598	-3.17691e-40
72	0x00020b7f	1.87795e-40
73	0x000057ad	3.1452e-41
74	0x00026748	2.20721e-40
75	0x00010a76	9.5588e-41
76	0x0000f5bc	8.8153e-41
77	0x000155b0	1.22574e-40
78	0x80002f3a	-1.6942e-41
79	0x0001715c	1.32501e-40
80	0x00001db5	1.0657e-41
81	0x00001357	6.938e-42
82	0x8000121c	-6.496e-42
83	0x0000187c	8.783e-42
84	0x00001637	7.969e-42
85	0x000012e9	6.784e-42
86	0x000014d5	7.473e-42
87	0x8000188b	-8.804e-42
88	0x80000198	-5.72e-43
89	0x80000d9b	-4.881e-42
90	0x000007e4	2.83e-42
91	0x80000a6d	-3.74e-42
92	0x80000080	-1.8e-43
93	0x00000ae8	3.912e-42
94	0x8000145a	-7.301e-42
95	0x00001131	6.167e-42
96	0x00001b2d	9.749e-42
97	0x000010df	6.052e-42
98	0x80000247	-8.17e-43
99	0x000013f3	7.156e-42
100	0x935c7908	-2.7827577e-27
101	0x13e3e138	5.752494e-27
102	0x13b6a4c0	4.6105715e-27
103	0x151fb578	3.2252948e-26
104	0x125c9540	6.9603724e-28
105	0x14858886	1.3483417e-26
106	0x931eb8db	-2.0033544e-27
107	0x12f321ec	1.5343818e-27
108	0x931242c2	-1.8460705e-27
109	0x922ae870	-5.3929043e-28
110	0x9312f543	-1.8548714e-27
111	0x11dec40e	3.5146252e-28
112	0x92a8199c	-1.0608604e-27
113	0x91a5d88f	-2.6165874e-28
114	0x10ed6e10	9.3649595e-29
115	0x1256ead0	6.781592e-28
116	0x1249bd4c	6.3657743e-28
117	0x12294614	5.3413375e-28
118	0x11618bb4	1.779242e-28
119	0x112fa0c2	1.3854603e-28
120	0x0000166a	8.04e-42
121	0x00001d7f	1.0581e-41
122	0x000001ee	6.92e-43
123	0x8000078c	-2.707e-42
124	0x000005e9	2.12e-42
125	0x00001375	6.98e-42
126	0x80001869	-8.757e-42
127	0x0000219c	1.2057e-41
128	0x800018d1	-8.902e-42
129	0x0000010e	3.78e-43
130	0x00000bfe	4.302e-42
131	0x80000998	-3.442e-42
132	0x80001b95	-9.895e-42
133	0x80000601	-2.154e-42
134	0x8000086f	-3.025e-42
135	0x80000579	-1.963e-42
136	0x80000a3d	-3.673e-42
137	0x000010ba	6e-42
138	0x00000ba0	4.17e-42
139	0x00000b29	4.004e-42
140	0x00001242	6.55e-42
141	0x000022fc	1.255e-41
142	0x00000f0d	5.399e-42
143	0x80000c33	-4.376e-42
144	0x0000127a	6.628e-42
145	0x8000107e	-5.916e-42
146	0x8000160c	-7.909e-42
147	0x000013b5	7.07e-42
148	0x000012c9	6.739e-42
149	0x80001436	-7.25e-42
150	0x800006ee	-2.486e-42
151	0x800002c0	-9.87e-43
152	0x00000966	3.372e-42
153	0x8000083e	-2.957e-42
154	0x80000fc1	-5.651e-42
155	0x800004f5	-1.778e-42
156	0x00001c39	1.0124e-41
157	0x800002b5	-9.71e-43
158	0x000021d2	1.2132e-41
159	0x80001090	-5.942e-42
160	0x80001c4b	-1.015e-41
161	0x000021b4	1.209e-41
162	0x000019e7	9.292e-42
163	0x8000179a	-8.467e-42
164	0x00001a4f	9.438e-42
165	0x000020b6	1.1734e-41
166	0x00001fb3	1.1372e-41
167	0x80001e97	-1.0974e-41
168	0x80000b35	-4.02e-42
169	0x800012fd	-6.812e-42
170	0x00000af0	3.924e-42
171	0x0000155a	7.66e-42
172	0x800017d6	-8.551e-42
173	0x00000d78	4.832e-42
174	0x80001880	-8.789e-42
175	0x0000189f	8.832e-42
176	0x80001510	-7.556e-42
177	0x800014cf	-7.465e-42
178	0x00001a4d	9.435e-42
179	0x800014c6	-7.452e-42
180	0x00076ec5	6.82585e-40
181	0x0005430c	4.8323e-40
182	0x800515a3	-4.66939e-40
183	0x80058d02	-5.09762e-40
184	0x0008ea3b	8.1871e-40
185	0x80011deb	-1.02568e-40
186	0x8005504c	-4.87983e-40
187	0x800d6478	-1.229903e-39
188	0x0009523c	8.5602e-40
189	0x80068007	-5.9694e-40
190	0x0005111a	4.65312e-40
191	0x00018ebb	1.43038e-40
192	0x00093704	8.46255e-40
193	0x80154543	-1.953392e-39
194	0x3484ba2e	2.472238e-07
195	0xac302344	-2.503068e-12
196	0xaee510be	-1.0416688e-10
197	0x802398cf	-3.26906e-39
198	0x80073f94	-6.65656e-40
199	0xb18a6526	-4.027828e-09

conv.bias f4 [10]
0	0xb39184e9	-6.776265e-08
1	0x00049827	4.21924e-40
2	0xa0abf1d8	-2.9128566e-19
3	0x00054866	4.85149e-40
4	0xaaa05183	-2.847827e-13
5	0x9520f200	-3.2502647e-26
6	0x1643281b	1.576463e-25
7	0x0cb28081	2.7502583e-31
8	0xa742de14	-2.7043297e-15
9	0x803b65c5	-5.454802e-39

conv_long.weight f4 [10, 1, 10]
0	0x80007ced	-4.4815e-41
1	0x000162a5	1.27222e-40
2	0x0000c909	7.2118e-41
3	0x00011235	9.8367e-41
4	0x00035f7c	3.0976e-40
5	0x80006a72	-3.8185e-41
6	0x8004306b	-3.84711e-40
7	0x8003320c	-2.9346e-40
8	0x0000378e	1.9929e-41
9	0x8000073b	-2.594e-42
10	0x000020bf	1.1747e-41
11	0x00000be5	4.267e-42
12	0x00000f87	5.57e-42
13	0x00002315	1.2585e-41
14	0x80000ec6	-5.3e-42
15	0x00002193	1.2044e-41
16	0x80000adf	-3.9e-42
17	0x800015f9	-7.882e-42
18	0x0000104b	5.845e-42
19	0x8000000e	-2e-44
20	0x000009a0	3.453e-42
21	0x80002159	-1.1963e-41
22	0x80001834	-8.682e-42
23	0x80001bed	-1.0018e-41
24	0x00001d1b	1.0441e-41
25	0x00001ee4	1.1081e-41
26	0x8000102f	-5.806e-42
27	0x00001c16	1.0075e-41
28	0x0000172c	8.313e-42
29	0x00001aed	9.659e-42
30	0x00001a8e	9.526e-42
31	0x80001d0d	-1.0421e-41
32	0x000019da	9.274e-42
33	0x80001dc4	-1.0678e-41
34	0x80001eac	-1.1003e-41
35	0x0000200f	1.15e-41
36	0x0015c6d5	1.999873e-39
37	0x81060e68	-2.462225e-38
38	0x01683f53	4.2657103e-38
39	0x81c9d550	-7.414183e-38
40	0x03fe60a9	1.495097e-36
41	0x03da2d98	1.2823356e-36
42	0x03e3c365	1.3386721e-36
43	0x032c9ff8	5.072989e-37
44	0x8331e88a	-5.2282567e-37
45	0x035e2a00	6.528815e-37
46	0x03c48801	1.155107e-36
47	0x82c985f8	-2.961119e-37
48	0x838bdd77	-8.220532e-37
49	0x00d8a980	1.9897272e-38
50	0x80001ed2	-1.1056e-41
51	0x000016fb	8.244e-42
52	0x0000054a	1.897e-42
53	0x80001d84	-1.0588e-41
54	0x800022d0	-1.2488e-41
55	0x80018c39	-1.42138e-40
56	0x053bcf7e	8.830808e-36
57	0x88ec09bb	-1.4206021e-33
58	0x070099f7	9.674896e-35
59	0x064306d6	3.6680446e-35
60	0x000012f8	6.805e-42
61	0x00000764	2.651e-42
62	0x80001528	-7.59e-42
63	0x00001ca0	1.0269e-41
64	0x80001a32	-9.397e-42
65	0x00000af8	3.935e-42
66	0x800014a7	-7.409e-42
67	0x800094a0	-5.3317e-41
68	0x00003e36	2.2317e-41
69	0x80013fa2	-1.14663e-40
70	0x80001425	-7.226e-42
71	0x8000116f	-6.254e-42
72	0x800003e2	-1.393e-42
73	0x800004d4	-1.732e-42
74	0x00001190	6.3e-42
75	0x0000129c	6.676e-42
76	0x000006ce	2.441e-42
77	0x80007566	-4.2115e-41
78	0x80010271	-9.2711e-41
79	0x00000c1c	4.344e-42
80	0x80001bfe	-1.0042e-41
81	0x00000f58	5.504e-42
82	0x80001abe	-9.593e-42
83	0x000018e1	8.925e-42
84	0x80001ddb	-1.071e-41
85	0x80001b58	-9.809e-42
86	0x80001d7f	-1.0581e-41
87	0x80002058	-1.1603e-41
88	0x80001f43	-1.1215e-41
89	0x80001745	-8.348e-42
90	0x000015a9	7.77e-42
91	0x8000144f	-7.285e-42
92	0x0000206c	1.1631e-41
93	0x000012f4	6.799e-42
94	0x80002290	-1.2399e-41
95	0x800010d2	-6.034e-42
96	0x0000041e	1.477e-42
97	0x800013cf	-7.106e-42
98	0x00001486	7.362e-42
99	0x800017a8	-8.486e-42

conv_long.bias f4 [10]
0	0x80000f13	-5.408e-42
1	0x054097d4	9.055683e-36
2	0xb675af87	-3.6610015e-06
3	0xb86bc2c2	-5.620975e-05
4	0x85a05bc6	-1.508004e-35
5	0xb90a19aa	-0.00013170266
6	0x80001093	-5.946e-42
7	0x000017ce	8.54e-42
8	0x0e018c31	1.5967977e-30
9	0x83a11bad	-9.469084e-37

conv1.weight f4 [30, 30]
0	0x8db6055c	-1.1217906e-30
1	0x00001ede	1.1073e-41
2	0x00003fcd	2.2887e-41
3	0x00001297	6.669e-42
4	0x9037bf23	-3.6237633e-29
5	0x000039c3	2.0721e-41
6	0x80000d7d	-4.839e-42
7	0x80000028	-5.6e-44
8	0x80001f17	-1.1153e-41
9	0x800083e2	-4.731e-41
10	0x800003f7	-1.422e-42
11	0x80001e5c	-1.0891e-41
12	0x0000165c	8.021e-42
13	0x80001a5e	-9.459e-42
14	0x00060a84	5.54785e-40
15	0x00000b2b	4.006e-42
16	0x0018b5a2	2.26921e-39
17	0x80001e4b	-1.0867e-41
18	0x0369d1ce	6.871339e-37
19	0x00001d0c	1.042e-41
20	0x80000114	-3.87e-43
21	0x9f803359	-5.4295056e-20
22	0x800042d7	-2.3978e-41
23	0x00001b03	9.69e-42
24	0x0000214e	1.1947e-41
25	0x80001fae	-1.1365e-41
26	0x992508ff	-8.532117e-24
27	0x000022e3	1.2515e-41
28	0x80001b18	-9.72e-42
29	0x00001db8	1.0661e-41
30	0x800053ec	-3.0105e-41
31	0x8002ac34	-2.45446e-40
32	0x0000929e	5.2596e-41
33	0x8001044d	-9.3378e-41
34	0x8005d73c	-5.36389e-40
35	0x000001fb	7.1e-43
36	0x8001dabe	-1.70305e-40
37	0x0000132d	6.879e-42
38	0x8000ae72	-6.2579e-41
39	0x0000bf51	6.8631e-41
40	0x0001bd0a	1.5965e-40
41	0x8001b7eb	-1.57813e-40
42	0x8001919b	-1.44069e-40
43	0x00011428	9.9066e-41
44	0x000b6174	1.04515e-39
45	0x00003182	1.776e-41
46	0x8000f1c6	-8.6732e-41
47	0x80006f26	-3.9873e-41
48	0x800020eb	-1.1809e-41
49	0x80003d80	-2.2062e-41
50	0x0000f14e	8.6564e-41
51	0x80054ce5	-4.86762e-40
52	0x8000053b	-1.876e-42
53	0x27bed970	5.297134e-15
54	0x8001ffc5	-1.83588e-40
55	0x00044d8c	3.9516e-40
56	0x0000b547	6.503e-41
57	0x8000b97e	-6.6542e-41
58	0x0001097f	9.5242e-41
59	0x0000af0a	6.2792e-41
60	0x8001c25b	-1.61557e-40
61	0x8000bb7c	-6.7257e-41
62	0x0001fb6e	1.82031e-40
63	0x8000f5e3	-8.8208e-41
64	0x8004c74c	-4.38836e-40
65	0x80016e78	-1.31464e-40
66	0x000bf3e8	1.097688e-39
67	0x8000e2b9	-8.1333e-41
68	0x80002307	-1.2565e-41
69	0x00001f42	1.1213e-41
70	0x0000f216	8.6844e-41
71	0x000360ad	3.10187e-40
72	0x0000b784	6.5833e-41
73	0x0000fa96	8.9893e-41
74	0x2e90dc9a	6.5875486e-11
75	0x8003bc3d	-3.43034e-40
76	0x00014d15	1.19487e-40
77	0x80006c34	-3.8816e-41
78	0x0000fc27	9.0455e-41
79	0x80005fbe	-3.4346e-41
80	0x0002f317	2.70875e-40
81	0x00000e8b	5.217e-42
82	0xb4c3e122	-3.6485386e-07
83	0x00162987	2.035278e-39
84	0x000090bc	5.1921e-41
85	0x2a0cf479	1.2519316e-13
86	0x80013dcd	-1.14005e-40
87	0x80005ebc	-3.3984e-41
88	0x80008006	-4.5926e-41
89	0x8000410e	-2.3337e-41
90	0x00002191	1.2041e-41
91	0x80010a2a	-9.5482e-41
92	0x8000058e	-1.993e-42
93	0x80000bbd	-4.211e-42
94	0x00001942	9.061e-42
95	0x80000022	-4.8e-44
96	0x000013ce	7.105e-42
97	0x00000318	1.11e-42
98	0x00001781	8.432e-42
99	0x80000f2d	-5.444e-42
100	0x80001c3b	-1.0127e-41
101	0x8000ad0f	-6.2082e-41
102	0x00000c36	4.38e-42
103	0x80001d16	-1.0434e-41
104	0x80011eca	-1.0288e-40
105	0x0000a3f6	5.8818e-41
106	0x80001bcb	-9.97e-42
107	0x00000d33	4.735e-42
108	0x000004e4	1.754e-42
109	0x8000062c	-2.214e-42
110	0x8000121f	-6.5e-42
111	0x8000204b	-1.1585e-41
112	0x800050d7	-2.9e-41
113	0x00002fda	1.7166e-41
114	0x00001e55	1.0881e-41
115	0x00000204	7.23e-43
116	0x80001fa0	-1.1345e-41
117	0x8000052a	-1.853e-42
118	0x80000fe9	-5.707e-42
119	0x80000ef8	-5.37e-42
120	0x00000bef	4.281e-42
121	0xa53948a8	-1.6070809e-16
122	0x800009d9	-3.533e-42
123	0x800005ef	-2.129e-42
124	0x8000a871	-6.0425e-41
125	0x00001ec5	1.1038e-41
126	0x800010d0	-6.031e-42
127	0x80017b8a	-1.36153e-40
128	0x00002103	1.1842e-41
129	0x80000d10	-4.686e-42
130	0x00001aad	9.57e-42
131	0x338dc963	6.602456e-08
132	0x80001f4a	-1.1224e-41
133	0x800020f2	-1.1819e-41
134	0x0003565d	3.06488e-40
135	0x80008ba4	-5.0094e-41
136	0x800007b3	-2.762e-42
137	0x00001367	6.96e-42
138	0x80000cdc	-4.613e-42
139	0x00001fdb	1.1428e-41
140	0x00003af3	2.1147e-41
141	0x000014f1	7.512e-42
142	0x800214b0	-1.91092e-40
143	0x00017eae	1.3728e-40
144	0x80000731	-2.58e-42
145	0x000020ae	1.1723e-41
146	0x80001337	-6.893e-42
147	0x80001b8a	-9.879e-42
148	0x0000008e	1.99e-43
149	0x00000365	1.218e-42
150	0x00006a71	3.8184e-41
151	0x3ba53bb7	0.005042519
152	0x0000113a	6.18e-42
153	0x0000121e	6.499e-42
154	0x000088b9	4.9047e-41
155	0x80001361	-6.952e-42
156	0x00000944	3.324e-42
157	0x800e29a1	-1.30063e-39
158	0x80001430	-7.242e-42
159	0x80001d37	-1.048e-41
160	0x0000015d	4.89e-43
161	0x1fc3d257	8.293369e-20
162	0x000008a4	3.1e-42
163	0x0000060b	2.168e-42
164	0x00012613	1.05494e-40
165	0x000294d4	2.3706e-40
166	0x80001203	-6.461e-42
167	0x00002261	1.2333e-41
168	0x80000d34	-4.736e-42
169	0x00002022	1.1527e-41
170	0x00000ea5	5.253e-42
171	0x8000a5cb	-5.9475e-41
172	0x800263bb	-2.19448e-40
173	0x80086c75	-7.73591e-40
174	0x800004f4	-1.777e-42
175	0x80000e94	-5.23e-42
176	0x00006336	3.559e-41
177	0x80001984	-9.153e-42
178	0x800011fa	-6.449e-42
179	0x800012ae	-6.701e-42
180	0x860b7ebb	-2.62361e-35
181	0x00000831	2.939e-42
182	0x80001659	-8.017e-42
183	0x00000a0d	3.606e-42
184	0x082e710f	5.249412e-34
185	0x00000e53	5.139e-42
186	0x80003c42	-2.1616e-41
187	0x00001519	7.568e-42
188	0x80000fda	-5.686e-42
189	0x80001cbe	-1.0311e-41
190	0x000021b4	1.209e-41
191	0x00001309	6.829e-42
192	0x00001f01	1.1122e-41
193	0x00002047	1.1579e-41
194	0x0011145e	1.56851e-39
195	0x800046fc	-2.5464e-41
196	0x00001e70	1.0919e-41
197	0x00002099	1.1694e-41
198	0x8000e46e	-8.1945e-41
199	0x00002140	1.1928e-41
200	0x8000011d	-4e-43
201	0x13789451	3.1375126e-27
202	0x80016054	-1.26392e-40
203	0x00001f73	1.1282e-41
204	0x00001026	5.793e-42
205	0x00001a7d	9.502e-42
206	0x8fecf909	-2.3367322e-29
207	0x00001e42	1.0854e-41
208	0x00001c29	1.0102e-41
209	0x80000035	-7.4e-44
210	0x80000d53	-4.78e-42
211	0x8000008e	-1.99e-43
212	0x00001d31	1.0472e-41
213	0x80001d5a	-1.053e-41
214	0x80001fb3	-1.1372e-41
215	0x8000052a	-1.853e-42
216	0x80001c3e	-1.0131e-41
217	0x0000142b	7.235e-42
218	0x80001d97	-1.0615e-41
219	0x00002019	1.1514e-41
220	0x00001daf	1.0648e-41
221	0x80000e64	-5.162e-42
222	0x800002ec	-1.048e-42
223	0x00001447	7.274e-42
224	0xa77d4bcf	-3.51519e-15
225	0x00001d80	1.0583e-41
226	0x000021d8	1.2141e-41
227	0x8049fc44	-6.794487e-39
228	0x80001135	-6.173e-42
229	0x00048e66	4.18425e-40
230	0x80000593	-2e-42
231	0x0000225c	1.2326e-41
232	0x80001ef8	-1.111e-41
233	0x00000f3a	5.462e-42
234	0x000015eb	7.863e-42
235	0x80001564	-7.674e-42
236	0x000013a3	7.044e-42
237	0x80000c92	-4.51e-42
238	0x80001cd7	-1.0346e-41
239	0x80001826	-8.663e-42
240	0x00001c2d	1.0108e-41
241	0x00000ed4	5.32e-42
242	0x800019be	-9.235e-42
243	0x80000127	-4.13e-43
244	0x80001fcc	-1.1407e-41
245	0x0000045c	1.564e-42
246	0x000009f8	3.576e-42
247	0x800009ad	-3.471e-42
248	0x00001704	8.256e-42
249	0x00001845	8.706e-42
250	0x8000081b	-2.908e-42
251	0x800017d7	-8.552e-42
252	0x80001244	-6.552e-42
253	0x800015f3	-7.874e-42
254	0x00004270	2.3833e-41
255	0x000007c3	2.784e-42

conv1.bias f4 [30]
0	0xae8a484d	-6.2883566e-11
1	0xae4158b7	-4.3961914e-11
2	0x98e62342	-5.9489208e-24
3	0x1beaac2d	3.8823319e-22
4	0xaf1e133b	-1.4376848e-10
5	0x8000166e	-8.046e-42
6	0x89924a18	-3.52179e-33
7	0x800d077b	-1.196545e-39
8	0x9ea29693	-1.7214693e-20
9	0xb3d2e12e	-9.819847e-08
10	0x80001d00	-1.0403e-41
11	0x99c0c3cb	-1.9931415e-23
12	0x800030a2	-1.7446e-41
13	0xa5d5d5e2	-3.7094543e-16
14	0x8017e5c0	-2.194635e-39
15	0x800aa000	-9.75752e-40
16	0xa758fa9c	-3.0111877e-15
17	0xaad962fc	-3.8615628e-13
18	0xb327f595	-3.9106073e-08
19	0xa8272c46	-9.2799625e-15
20	0x8000203d	-1.1565e-41
21	0xb457b439	-2.0089e-07
22	0x00001a0e	9.347e-42
23	0xae120c50	-3.3207492e-11
24	0x90ae9c03	-6.887127e-29
25	0xadef592f	-2.721076e-11
26	0xb2c279eb	-2.2640014e-08
27	0xaeaf0e24	-7.9605905e-11
28	0x98cd4044	-5.305615e-24
29	0x81035896	-2.4124457e-38

conv2.weight f4 [30, 10]
0	0x80003faf	-2.2845e-41
1	0x11f10a17	3.8029314e-28
2	0x80001b01	-9.687e-42
3	0x80001e63	-1.0901e-41
4	0x83b0830a	-1.0374435e-36
5	0x00009f49	5.7141e-41
6	0x000017c6	8.528e-42
7	0x9c76ffb1	-8.1725046e-22
8	0x2dc6b58e	2.259062e-11
9	0x80393236	-5.252636e-39
10	0x00000031	6.9e-44
11	0x00001a6a	9.476e-42
12	0x00000ddc	4.972e-42
13	0x000161d5	1.26931e-40
14	0x0004c804	4.39094e-40
15	0x0000721e	4.0938e-41
16	0xa8204268	-8.896184e-15
17	0x921b58ce	-4.9018836e-28
18	0x80001d02	-1.0406e-41
19	0x3991bb10	0.00027795928
20	0x80000e07	-5.032e-42
21	0xa3b05cbb	-1.9121231e-17
22	0x875c3d76	-1.6569022e-34
23	0x80001e61	-1.0898e-41
24	0x0a9c7bcf	1.5068825e-32
25	0x0000686f	3.7464e-41
26	0x00000686	2.34e-42
27	0x2b452c3a	7.0049836e-13
28	0xb4312cf3	-1.6500762e-07
29	0x0000bb3a	6.7164e-41
30	0xb3bb8cda	-8.733487e-08
31	0x99da4c07	-2.2571379e-23
32	0x8b2d3b1e	-3.3363063e-32
33	0x00000936	3.304e-42
34	0x897206de	-2.913292e-33
35	0x800097f9	-5.4518e-41
36	0x00025ad6	2.16257e-40
37	0x2586069c	2.3249773e-16
38	0xb1a6e262	-4.8569726e-09
39	0x0000885c	4.8917e-41
40	0xa66f8226	-8.3096166e-16
41	0x8b22d16e	-3.1357622e-32
42	0x000020f8	1.1827e-41
43	0x8000218f	-1.2039e-41
44	0x07a41978	2.4690947e-34
45	0x000168d8	1.29446e-40
46	0x00001593	7.74e-42
47	0x95cc95aa	-8.263107e-26
48	0xac54dd7a	-3.0249956e-12
49	0x80012480	-1.04929e-40
50	0x80092d9f	-8.42885e-40
51	0x00037679	3.18006e-40
52	0x0002928b	2.36241e-40
53	0x000efb17	1.375771e-39
54	0x0000b4ac	6.4813e-41
55	0xa811d115	-8.094454e-15
56	0x000531e0	4.77069e-40
57	0xa1714814	-8.174937e-19
58	0x00008677	4.8237e-41
59	0x800cb6d0	-1.167607e-39
60	0xbc23cf67	-0.009998179
61	0x0004d2f9	4.43025e-40
62	0x19f64d06	2.5466913e-23
63	0x00000a4f	3.698e-42
64	0x80001f13	-1.1147e-41
65	0x00060b8e	5.55158e-40
66	0x0ce36d83	3.5040798e-31
67	0x80072060	-6.54462e-40
68	0x80001b9c	-9.904e-42
69	0x80023712	-2.03426e-40
70	0x000805ea	7.36806e-40
71	0x80001bf1	-1.0023e-41
72	0x00000391	1.28e-42
73	0x000033d0	1.8587e-41
74	0x00059b08	5.14792e-40
75	0xa71bb3f6	-2.1608128e-15
76	0xa50f1c50	-1.2412866e-16
77	0x00001733	8.322e-42
78	0x00001d8d	1.0601e-41
79	0x80008d1a	-5.0618e-41
80	0x12106c1a	4.5571634e-28
81	0x8001ab90	-1.5338e-40
82	0xafaac250	-3.1060887e-10
83	0x8cb339b8	-2.7614055e-31
84	0x8000229e	-1.2418e-41
85	0xb51a990a	-5.759217e-07
86	0x8000d123	-7.5024e-41
87	0x0003ab89	3.37042e-40
88	0x00001bee	1.0019e-41
89	0x80005b54	-3.2762e-41
90	0x800020d9	-1.1784e-41
91	0x1701713a	4.182506e-25
92	0x80000655	-2.272e-42
93	0x80001531	-7.602e-42
94	0x00001400	7.175e-42
95	0x80000f63	-5.52e-42
96	0x80008fd0	-5.159e-41
97	0xb58e302e	-1.0593847e-06
98	0xb0d43f9c	-1.5443109e-09
99	0x80013b8e	-1.132e-40
100	0x0001c91b	1.63979e-40
101	0xa482b82e	-5.6690525e-17
102	0x000a83cb	9.65633e-40
103	0x8004a942	-4.2806e-40
104	0x00003dab	2.2122e-41
105	0x8002f65f	-2.72052e-40
106	0x8002f3f7	-2.71189e-40
107	0x00004547	2.4852e-41
108	0x8000a1cb	-5.804e-41
109	0x2b6d3de0	8.4285183e-13
110	0x00001ebf	1.103e-41
111	0x800016f5	-8.235e-42
112	0x879bdd25	-2.3451785e-34
113	0x0001055e	9.3761e-41
114	0x8002d68c	-2.60636e-40
115	0x00003c14	2.1552e-41
116	0xa687569c	-9.390982e-16
117	0xa8aea9d2	-1.9391528e-14
118	0x00001ac5	9.603e-42
119	0xa4a3c180	-7.1017783e-17
120	0x80083883	-7.54957e-40
121	0x0002c131	2.52975e-40
122	0x000b9c00	1.066153e-39
123	0x000004eb	1.764e-42
124	0x00000097	2.12e-43
125	0x00004870	2.5986e-41
126	0x800012c9	-6.739e-42
127	0x07176399	1.1389247e-34
128	0x00000ab3	3.838e-42
129	0x28c79c30	2.2161174e-14
130	0xbae565f2	-0.0017501696
131	0x8044cabb	-6.31754e-39
132	0x3a95766e	0.0011403093
133	0x800007fb	-2.863e-42
134	0x0000229a	1.2413e-41
135	0x00064fea	5.79681e-40
136	0x801d11ec	-2.669659e-39
137	0x21c23574	1.31601e-18
138	0x800006de	-2.463e-42
139	0x80022ced	-1.99787e-40
140	0x8033766c	-4.726092e-39
141	0x000f3580	1.396725e-39
142	0x000de522	1.276059e-39
143	0x827fe0b2	-1.8798926e-37
144	0x80375215	-5.080398e-39
145	0x00000f3e	5.468e-42
146	0x00089669	7.88641e-40
147	0x0000151c	7.573e-42
148	0x80001650	-8.004e-42
149	0x80001d6d	-1.0556e-41
150	0x0016b1a8	2.084112e-39
151	0x000160d4	1.26571e-40
152	0x80007207	-4.0905e-41
153	0x80103263	-1.487443e-39
154	0x0004c4bd	4.37918e-40
155	0x00001edd	1.1072e-41
156	0x80001c99	-1.0259e-41
157	0x80001f19	-1.1156e-41
158	0x0000215f	1.1971e-41
159	0xb2bcd2ab	-2.1981881e-08
160	0x000dad26	1.255975e-39
161	0x00000c60	4.44e-42
162	0x800004f1	-1.773e-42
163	0x00000997	3.44e-42
164	0x91209afc	-1.2669533e-28
165	0x0002d02e	2.58352e-40
166	0x80000ce7	-4.628e-42
167	0x80000d9e	-4.885e-42
168	0x199915d4	1.5828646e-23
169	0x0000ab16	6.1374e-41
170	0xadd200a0	-2.3874513e-11
171	0x0003d771	3.52792e-40
172	0xacfae191	-7.1304703e-12
173	0x80001436	-7.25e-42
174	0x00001c35	1.0119e-41
175	0x8001aead	-1.54497e-40
176	0x80001762	-8.388e-42
177	0x342bf5cb	1.6015035e-07
178	0x800007b4	-2.763e-42
179	0x8001d965	-1.69822e-40
180	0x800012ca	-6.74e-42
181	0xaa9279b7	-2.6019266e-13
182	0x8054b77a	-7.78e-39
183	0x00001e58	1.0885e-41
184	0x0558ea89	1.01993485e-35
185	0x00000663	2.291e-42
186	0x00000463	1.574e-42
187	0x30cd6ff9	1.4947538e-09
188	0xb417fd83	-1.4155198e-07
189	0x80022d9d	-2.00034e-40
190	0x00012aa0	1.07126e-40
191	0x80015273	-1.21413e-40
192	0x81a43829	-6.032467e-38
193	0x0000039a	1.292e-42
194	0x80026161	-2.18604e-40
195	0x0001c80b	1.63597e-40
196	0x00000be0	4.26e-42
197	0x0008ae84	7.97288e-40
198	0x80098a94	-8.76232e-40
199	0x8000ef70	-8.5894e-41
200	0x0002d8e6	2.6148e-40
201	0x0002b106	2.47175e-40
202	0x800387eb	-3.24265e-40
203	0x80003ca9	-2.1761e-41
204	0x00001e3f	1.085e-41
205	0x00005f2a	3.4138e-41
206	0x00000383	1.26e-42
207	0x000006ba	2.413e-42
208	0x00003d1a	2.1919e-41
209	0x0004c37a	4.37466e-40
210	0x000625a1	5.64512e-40
211	0x1134d156	1.4264003e-28
212	0x000005e2	2.11e-42
213	0x00001a0f	9.348e-42
214	0x000055aa	3.073e-41
215	0x0000cad1	7.2757e-41
216	0x800054f0	-3.047e-41
217	0x997f69c0	-1.3204547e-23
218	0xacfd7b7b	-7.2044016e-12
219	0x8000ba3c	-6.6808e-41
220	0x0001c735	1.63298e-40
221	0x800be7d3	-1.093353e-39
222	0x00003e83	2.2425e-41
223	0x80000306	-1.085e-42
224	0x80001a86	-9.515e-42
225	0x800131fb	-1.09765e-40
226	0x80008a7c	-4.9679e-41
227	0x0001cd11	1.654e-40
228	0x80001f0e	-1.114e-41
229	0x80008dc0	-5.085e-41
230	0x00000d6c	4.815e-42
231	0x000020af	1.1725e-41
232	0x16e94ce4	3.7691705e-25
233	0x80008ae0	-4.9819e-41
234	0x000018be	8.876e-42
235	0x80003d24	-2.1933e-41
236	0x8000939a	-5.295e-41
237	0x147ce3cc	1.2767674e-26
238	0x00002012	1.1505e-41
239	0x80000bb0	-4.193e-42
240	0x91329996	-1.4089051e-28
241	0xa12a1a6b	-5.7633204e-19
242	0x00fc9939	2.3197511e-38
243	0x80001ac2	-9.599e-42
244	0x800012e3	-6.775e-42
245	0x00063e42	5.73347e-40
246	0x8000c378	-7.0121e-41
247	0x0002406b	2.0678e-40
248	0x00001e09	1.0775e-41
249	0x80000d2e	-4.728e-42
250	0x8000110c	-6.115e-42
251	0x037927c8	7.322019e-37
252	0x00001abb	9.589e-42
253	0x00000be2	4.263e-42
254	0x80000012	-2.5e-44
255	0x800076b1	-4.2578e-41

conv2.bias f4 [10]
0	0xbbbf652f	-0.0058409194
1	0xae9833aa	-6.921337e-11
2	0xadc50b05	-2.24012e-11
3	0xbdb985e4	-0.09058741
4	0xb4985de9	-2.8380535e-07
5	0xa6d0c9d4	-1.4487605e-15
6	0x9f07e559	-2.8777074e-20
7	0xbaec1109	-0.0018010448
8	0xb8ae8c62	-8.323115e-05
9	0xa1ce336e	-1.3972716e-18

rnn.weight_ih_l0 f4 [30, 1]
0	0xb7ed17c4	-2.8263668e-05
1	0xbeda90d3	-0.42688617
2	0xbd850b5f	-0.064963095
3	0xbdd50dcb	-0.104030214
4	0xbd027e90	-0.03185898
5	0xbd7d1bf2	-0.06179423
6	0x3d1b0bdb	0.037853103
7	0x3d6db194	0.05803068
8	0xb8dddf56	-0.00010579701
9	0xbc8fc407	-0.017549528
10	0xbef061e4	-0.46949685
11	0x3e2502a6	0.16114292
12	0xbda4b360	-0.080420256
13	0xbef10056	-0.4707057
14	0xbe272efc	-0.16326517
15	0x3d14b4e1	0.036305312
16	0x3ee6df7d	0.45092383
17	0x3e0abd95	0.13548882
18	0x3dbbf65a	0.09177847
19	0xbe63028c	-0.2216894
20	0xbed0f582	-0.40812308
21	0xbd34adbe	-0.044111006
22	0xbd3d20c5	-0.04617383
23	0x3dee95bd	0.11649654
24	0x3d8f2434	0.06989327
25	0x3c172995	0.0092262225
26	0x3d9c4f7a	0.076323465
27	0x3d4fae00	0.05070305
28	0x3ddbe766	0.10737495
29	0x3ed07be1	0.40719512
