colagnn-master-Run-Epi/src/save/cola_gnn_epi.us_regions.w-20.h-4.RNN.lam-0.5.epo-500.pt (torch, 52278 bytes, 32 tensors)

V f4 [15]
0	0xba04e5c0	-0.0005069636
1	0x3978d5d6	0.00023730783
2	0x3e8c15d3	0.273604
3	0x3f7a294f	0.9771928
4	0x2e8cd1d2	6.4037345e-11
5	0xb84d4775	-4.894236e-05
6	0x3f3e2131	0.74269396
7	0x3e827b74	0.25484812
8	0xac71df56	-3.4372136e-12
9	0xc014f27b	-2.3272998
10	0x3e09ce96	0.13457713
11	0x3ecf0f4d	0.4044136
12	0x3215e67e	8.725349e-09
13	0xb9808b3e	-0.00024517806
14	0x3d05f786	0.03270676

W1 f4 [15, 30]
0	0x3a327bce	0.00068086095
1	0xba324ab6	-0.0006801294
2	0xba3246fa	-0.00068007375
3	0x3a3414fb	0.00068695814
4	0x3a32567d	0.0006803049
5	0xba31a515	-0.00067766133
6	0x3a32461a	0.0006800607
7	0xba31b8b1	-0.00067795353
8	0xba316ee6	-0.00067685393
9	0xba2d5534	-0.00066121225
10	0xba32436e	-0.0006800209
11	0x3a328d56	0.0006811222
12	0xba3201c2	-0.0006790423
13	0x3a31d3ed	0.00067835936
14	0x3a327153	0.0006807048
15	0x3a2e0b5a	0.0006639265
16	0x3a329a1c	0.0006813125
17	0xba3259c3	-0.00068035367
18	0xba325e23	-0.00068041886
19	0xba327bc4	-0.00068086036
20	0x3a328436	0.0006809862
21	0xba305fcd	-0.00067281426
22	0x3a6d2bed	0.0009047378
23	0xba324b67	-0.0006801397
24	0x3a31c7c3	0.0006781781
25	0xba32aeea	-0.00068162254
26	0x3a333c6e	0.0006837313
27	0xba294e38	-0.0006458494
28	0x3a325173	0.0006802298
29	0xbabb592c	-0.0014293543
30	0xb9cdae3c	-0.00039230462
31	0x39cd5959	0.00039167216
32	0x39cd1c09	0.00039121535
33	0xb9d1c159	-0.00040007642
34	0xb9cd42f7	-0.0003915054
35	0x39cc98a0	0.00039023627
36	0xb9cd552d	-0.00039164108
37	0x39cccfaf	0.00039064648
38	0x39d051ad	0.00039733705
39	0x39c88beb	0.0003825122
40	0x39cd72cc	0.00039186177
41	0xb9cd99d6	-0.00039215264
42	0x39cd176d	0.000391181
43	0xb9ccefac	-0.00039088482
44	0xb9cd80b5	-0.0003919654
45	0xb9c97cc9	-0.0003843068
46	0xb9cd7cec	-0.0003919372
47	0x39cd2c1c	0.0003913351
48	0x39cd502d	0.00039160383
49	0x39cd88ed	0.00039202665
50	0xb9cdcaae	-0.00039251655
51	0x39cbb594	0.00038854463
52	0xb9efe3e7	-0.00045755433
53	0x39cd581b	0.0003916629
54	0xb9ccec71	-0.00039086075
55	0x39cddbe3	0.00039264475
56	0xb9ce2825	-0.00039321292
57	0x39c577a0	0.00037663896
58	0xb9cd33fd	-0.0003913938
59	0x3a12eeba	0.0005605031
60	0xbe3477a1	-0.1762376
61	0x3e347355	0.1762212
62	0x3e3429c6	0.1759406
63	0xbe378b42	-0.17924216
64	0xbe345ce4	-0.1761356
65	0x3e33c9f3	0.17557506
66	0xbe347a3f	-0.17624758
67	0x3e3407ba	0.17581072
68	0x3e3cca77	0.18436609
69	0x3e303bea	0.17210355
70	0x3e3d52ea	0.1848866
71	0xbe34bcfa	-0.17650214
72	0x3e3431ba	0.17597094
73	0xbe34029e	-0.17579123
74	0xbe346923	-0.17618231
75	0xbe30a3f1	-0.17250039
76	0xbe348d77	-0.1763209
77	0x3e348d3e	0.17632005
78	0x3e349ae0	0.17637205
79	0x3e3491d2	0.17633751
80	0xbe34be4c	-0.17650717
81	0x3e32c50c	0.1745798
82	0xbe3bcf04	-0.18340689
83	0x3e34e714	0.17666274
84	0xbe33f39d	-0.175734
85	0x3e3482f4	0.1762808
86	0xbe3661d5	-0.17810757
87	0x3e31b267	0.17353211
88	0xbe348eae	-0.17632553
89	0x3e9bf04f	0.30456778
90	0xbe1b88a4	-0.15188843
91	0x3e1b7c7f	0.1518421
92	0x3e1b46ff	0.15163802
93	0xbe1a7f5f	-0.1508765
94	0xbe1b61f3	-0.15174083
95	0x3e1ac17a	0.15112868
96	0xbe1b7c38	-0.15184104
97	0x3e1b02fa	0.15137854
98	0x3e1dfc26	0.15428218
99	0x3e177d4e	0.14793894
100	0x3e1b7b96	0.15183863
101	0xbe1b7c42	-0.1518412
102	0x3e1b4b48	0.15165436
103	0xbe1afafe	-0.15134808
104	0xbe1b7c1c	-0.15184063
105	0xbe17f7f7	-0.14840685
106	0xbe1b7c1d	-0.15184064
107	0x3e1b7bfe	0.15184018
108	0x3e1b7c78	0.151842
109	0x3e1b7bf2	0.15184
110	0xbe1bbf3c	-0.15209669
111	0x3e1a15f5	0.15047438
112	0xbe1ed262	-0.15509942
113	0x3e1b9047	0.15191756
114	0xbe1aefbb	-0.15130512
115	0x3e1b8070	0.15185714
116	0xbe1bb58d	-0.15205975
117	0x3e14681d	0.14492841
118	0xbe1b7c01	-0.15184022
119	0x3effb745	0.4994451
120	0x2c65f355	3.2677934e-12
121	0xac63e333	-3.2384761e-12
122	0xac5f0aee	-3.1696273e-12
123	0x2c876126	3.8477164e-12
124	0x2c5f2e47	3.1715895e-12
125	0xac611835	-3.198786e-12
126	0x2c625a57	3.216668e-12
127	0xac61e4ea	-3.2101496e-12
128	0xab5bed7e	-7.8134016e-13
129	0xac561043	-3.0420256e-12
130	0xac91cea9	-4.1440918e-12
131	0x2c681a50	3.298379e-12
132	0xac5f248f	-3.17105e-12
133	0x2c5f8382	3.1763208e-12
134	0x2c61b27f	3.2073508e-12
135	0x2c60fe16	3.197336e-12
136	0x2c616439	3.2030058e-12
137	0xac64d959	-3.25214e-12
138	0xac6965bf	-3.3167772e-12
139	0xac652557	-3.2563585e-12
140	0x2c567a42	3.0479096e-12
141	0xac62b810	-3.2218707e-12
142	0x2c59c578	3.0947172e-12
143	0xac6ad239	-3.3370097e-12
144	0x2c61efff	3.2107648e-12
145	0xac663335	-3.2713391e-12
146	0x2bd34380	1.5011187e-12
147	0xac8d826b	-4.0219403e-12
148	0x2c64647b	3.2456527e-12
149	0xabe9eb22	-1.6620908e-12
150	0x3801e362	3.0967763e-05
151	0xb801dc11	-3.096095e-05
152	0xb801969a	-3.0896255e-05
153	0x3800e2e6	3.0728894e-05
154	0x3801b7f9	3.0927335e-05
155	0xb8014998	-3.0824536e-05
156	0x3801da42	3.0959265e-05
157	0xb80182a8	-3.087768e-05
158	0xb7e44640	-2.721243e-05
159	0xb7fe0788	-3.0282667e-05
160	0xb801a9df	-3.09142e-05
161	0x3801df3b	3.0963896e-05
162	0xb801b446	-3.092389e-05
163	0x38017eb8	3.0874013e-05
164	0x3801dba8	3.0960568e-05
165	0x37fe9958	3.0350566e-05
166	0x3801ddf3	3.0962703e-05
167	0xb801d975	-3.095852e-05
168	0xb801d90d	-3.095814e-05
169	0xb801d6ad	-3.095593e-05
170	0x3801e0bf	3.0965308e-05
171	0xb800c35a	-3.0699513e-05
172	0x38017167	3.086161e-05
173	0xb801dcc3	-3.0961597e-05
174	0x38016c98	3.0857133e-05
175	0xb801d5b8	-3.0955038e-05
176	0x38165b3a	3.584775e-05
177	0xb7f8f734	-2.9679017e-05
178	0x3801daf3	3.095991e-05
179	0xb831345e	-4.224886e-05
180	0xbd50c894	-0.050972536
181	0x3d50b244	0.050951257
182	0x3d504e63	0.050856005
183	0xbd541243	-0.05177523
184	0xbd504422	-0.050846227
185	0x3d5024a8	0.050816208
186	0xbd50b053	-0.050949406
187	0x3d503183	0.050828468
188	0x3d58211f	0.05276596
189	0x3d4c7b47	0.049922254
190	0x3d50afda	0.050948955
191	0xbd50cd52	-0.05097706
192	0x3d507e92	0.050901957
193	0xbd502baa	-0.05082289
194	0xbd50b784	-0.050956264
195	0xbd4d6910	-0.050149024
196	0xbd50c491	-0.05096871
197	0x3d50afd0	0.050948918
198	0x3d50b141	0.050950292
199	0x3d50b760	0.05095613
200	0xbd517b9d	-0.051143277
201	0x3d4fd3c0	0.05073905
202	0xbd5d0e06	-0.053968452
203	0x3d50ef07	0.051009204
204	0xbd502341	-0.05081487
205	0x3d512320	0.05105889
206	0xbd5237d5	-0.051322777
207	0x3d493850	0.04912597
208	0xbd50b0fe	-0.050950043
209	0x3dd8423d	0.10559509
210	0xbe48e2a5	-0.19617708
211	0x3e48d7b0	0.19613528
212	0x3e484fd3	0.195617
213	0xbe47cb1e	-0.19511077
214	0xbe488e91	-0.19585635
215	0x3e47fcd9	0.19530047
216	0xbe48d4a8	-0.19612372
217	0x3e4849af	0.19559358
218	0x3e4c391d	0.19943662
219	0x3e449209	0.19196333
220	0x3e490230	0.1962974
221	0xbe48daaa	-0.19614664
222	0x3e488d87	0.19585238
223	0xbe483c1b	-0.19554178
224	0xbe48ce75	-0.19610007
225	0xbe4517cb	-0.19247358
226	0xbe48dcce	-0.1961548
227	0x3e48dc7a	0.19615355
228	0x3e48d72b	0.1961333
229	0x3e48d74e	0.19613382
230	0xbe492965	-0.19644697
231	0x3e47374a	0.19454685
232	0xbe51e8f1	-0.20499016
233	0x3e48eab4	0.19620782
234	0xbe482e4e	-0.19548914
235	0x3e48e33d	0.19617935
236	0xbe4f55ee	-0.20247623
237	0x3e413df6	0.18871292
238	0xbe48cee5	-0.19610174
239	0x3e8cc77c	0.27495944
240	0x2ca92cb2	4.808231e-12
241	0xacaa52f0	-4.8408985e-12
242	0xaca7b736	-4.766766e-12
243	0x2ca2f53e	4.6315443e-12
244	0x2ca7f647	4.7737678e-12
245	0xacaaadae	-4.850973e-12
246	0x2ca99a73	4.820416e-12
247	0xaca8fea0	-4.8031162e-12
248	0xacab2f81	-4.8653863e-12
249	0xaca6b035	-4.7375667e-12
250	0xac982d4c	-4.325129e-12
251	0x2ca7d650	4.770219e-12
252	0xaca9676d	-4.8147515e-12
253	0x2ca9cd16	4.826038e-12
254	0x2ca8abdf	4.7939287e-12
255	0x2ca65dbd	4.728411e-12

b1 f4 [15]
0	0xba324fba	-0.00068020413
1	0x39cd596c	0.00039167271
2	0x3e34895a	0.1763052
3	0x3e1b7bee	0.15183994
4	0xac5b3897	-3.1153186e-12
5	0xb801dd37	-3.096202e-05
6	0x3d50b071	0.050949518
7	0x3e48cbad	0.19608946
8	0xaca863a2	-4.7859086e-12
9	0xbdbb4f9a	-0.09146042
10	0x3d0d85db	0.034551483
11	0xbebcf1b9	-0.3690317
12	0x317600e7	3.5798224e-09
13	0xb8be71d7	-9.08111e-05
14	0x3d255e15	0.040372927

W2 f4 [15, 30]
0	0x3a2b0538	0.000652391
1	0xba31d540	-0.0006783791
2	0xba31791d	-0.00067700614
3	0x3a2fc762	0.00067054306
4	0x3a2c59c7	0.0006574657
5	0xba2aaed8	-0.0006511039
6	0x3a31eb18	0.0006787046
7	0xba31e6e2	-0.00067864184
8	0xba2b907e	-0.00065446633
9	0xba2ec4dc	-0.00066669076
10	0xba323400	-0.000679791
11	0x3a313e23	0.0006761273
12	0xba320a60	-0.0006791707
13	0x3a30c477	0.0006743143
14	0x3a25b1de	0.0006320755
15	0x3a319b46	0.00067751517
16	0x3a2ac9f1	0.0006515077
17	0xba30095f	-0.00067152636
18	0xba2fef79	-0.00067114044
19	0xba26818a	-0.00063517
20	0x3a25e2cd	0.00063280464
21	0xba25de5c	-0.00063273846
22	0x3a0a8074	0.0005283423
23	0xba317016	-0.0006768716
24	0x3a2fde00	0.0006708801
25	0xba31a732	-0.0006776928
26	0x3a122e88	0.00055763917
27	0xba2af296	-0.00065211335
28	0x3a305cb0	0.00067276787
29	0xba19c5e4	-0.0005865975
30	0xb9ca8fa5	-0.00038635466
31	0x39ccf2d0	0.00039090822
32	0x39cce6fd	0.00039082012
33	0xb9c9c038	-0.00038480922
34	0xb9cc570a	-0.0003897476
35	0x39cc323f	0.00038947348
36	0xb9cd50a5	-0.00039160732
37	0x39ccb0ae	0.0003904155
38	0x39d00d03	0.00039682546
39	0x39c7f9d6	0.0003814238
40	0x39cc9f4a	0.00039028592
41	0xb9cd93a8	-0.0003921066
42	0x39cd2c8c	0.00039133837
43	0xb9cd1da8	-0.00039122743
44	0xb9c96c45	-0.00038418375
45	0xb9c8b776	-0.00038283662
46	0xb9c98a2d	-0.00038440656
47	0x39ccecfa	0.00039086473
48	0x39cd52c0	0.000391623
49	0x39c9437e	0.00038387993
50	0xb9c9d405	-0.00038495674
51	0x39c82209	0.0003817233
52	0xb9b1bcf7	-0.0003390086
53	0x39cd4ba6	0.0003915701
54	0xb9cccc47	-0.0003906211
55	0x39cddc55	0.00039264807
56	0xb9c7376b	-0.00037997527
57	0x39c5f5c4	0.00037757878
58	0xb9cd2bed	-0.00039133374
59	0x3a79048d	0.00094992743
60	0xbe344edf	-0.17608212
61	0x3e344089	0.17602743
62	0x3e33fbb8	0.17576492
63	0xbe32f4fa	-0.17476264
64	0xbe341282	-0.17585185
65	0x3e32b967	0.17453538
66	0xbe345df9	-0.17613973
67	0x3e340626	0.1758047
68	0x3e3c9aae	0.1841838
69	0x3e30e512	0.17274883
70	0x3e2043b7	0.15650831
71	0xbe3470dc	-0.17621177
72	0x3e34339a	0.1759781
73	0xbe342697	-0.17592846
74	0xbe344ae5	-0.17606695
75	0xbe316d82	-0.1732693
76	0xbe353147	-0.17694579
77	0x3e34a791	0.17642047
78	0x3e350e62	0.17681268
79	0x3e346e0e	0.17620108
80	0xbe346148	-0.17615235
81	0x3e32d29d	0.17463155
82	0xbe296893	-0.16543798
83	0x3e3436aa	0.17598978
84	0xbe331832	-0.17489699
85	0x3e34a534	0.17641145
86	0xbe2d5578	-0.16927135
87	0x3e2943f9	0.16529836
88	0xbe3477bb	-0.17623799
89	0x3e9fabe4	0.3118583
90	0xbe1b7ac9	-0.15183558
91	0x3e1b529c	0.15168232
92	0x3e1ab4b9	0.15108003
93	0xbe1aeef5	-0.15130217
94	0xbe1ad7be	-0.15121362
95	0x3e1b15a0	0.15144968
96	0xbe1b7c2d	-0.15184088
97	0x3e1b4e86	0.15166673
98	0x3e1d36d2	0.15352944
99	0x3e1958c2	0.14975265
100	0x3e1b7b8a	0.15183845
101	0xbe1b7bd0	-0.1518395
102	0x3e1b626f	0.15174268
103	0xbe1b49eb	-0.15164916
104	0xbe1b7a3b	-0.15183346
105	0xbe18ceea	-0.14922681
106	0xbe1b7a3f	-0.15183352
107	0x3e1b7bb5	0.15183909
108	0x3e1b7bcd	0.15183945
109	0x3e1b7a06	0.15183267
110	0xbe2058db	-0.15658896
111	0x3e1b318a	0.15155616
112	0xbe0be08f	-0.13659881
113	0x3e1c0df1	0.15239693
114	0xbe1ad2f5	-0.15119536
115	0x3e1b802f	0.15185617
116	0xbe1ab086	-0.15106401
117	0x3e1832d0	0.14863133
118	0xbe1b7bc2	-0.15183929
119	0x3e038d63	0.12846904
120	0x2c650a35	3.2548523e-12
121	0xac60136f	-3.1843102e-12
122	0xac6cf89f	-3.367563e-12
123	0x2c5df691	3.154286e-12
124	0x2c68807f	3.3040513e-12
125	0xac60834d	-3.1905201e-12
126	0x2c65eb69	3.2673536e-12
127	0xac5e2ac8	-3.1571846e-12
128	0xab554b32	-7.5777156e-13
129	0xac4b387a	-2.8879386e-12
130	0x2b313fa0	6.297133e-13
131	0x2c664588	3.2723563e-12
132	0xac546fa7	-3.0188991e-12
133	0x2c642039	3.2418636e-12
134	0x2c66966a	3.2768462e-12
135	0x2c3c68d8	2.6774607e-12
136	0x2c643cb5	3.2434448e-12
137	0xac67bd5f	-3.2932196e-12
138	0xac674522	-3.286545e-12
139	0xac5ab062	-3.1077575e-12
140	0x2c602418	3.185235e-12
141	0xac5a6127	-3.1033594e-12
142	0x2cb7c551	5.2230793e-12
143	0xac5fb88c	-3.179265e-12
144	0x2c6422b0	3.2420004e-12
145	0xac71350e	-3.4277611e-12
146	0x2b7aab8e	8.905592e-13
147	0xab88c069	-9.716786e-13
148	0x2c619a47	3.2060064e-12
149	0xae293250	-3.8470838e-11
150	0x38021644	3.101515e-05
151	0xb801e875	-3.097249e-05
152	0xb801804f	-3.0875493e-05
153	0x3800f7ac	3.074824e-05
154	0x3801b4cc	3.0924377e-05
155	0xb8017850	-3.0868046e-05
156	0x3801db6d	3.0960353e-05
157	0xb8018c63	-3.0886742e-05
158	0xb7e39d5d	-2.7133787e-05
159	0xb7fe1335	-3.0288104e-05
160	0xb8025d92	-3.108156e-05
161	0x3801e83d	3.0972285e-05
162	0xb801c2c2	-3.093738e-05
163	0x38019f4d	3.0904357e-05
164	0x3802333c	3.104213e-05
165	0x37feaab4	3.035865e-05
166	0x38023791	3.1046166e-05
167	0xb801d9e4	-3.0958923e-05
168	0xb801d614	-3.0955372e-05
169	0xb802373f	-3.1045867e-05
170	0x38023740	3.104587e-05
171	0xb80164b0	-3.084977e-05
172	0x37f7890e	2.9508516e-05
173	0xb801cbee	-3.094592e-05
174	0x38018e47	3.0888503e-05
175	0xb801a81d	-3.0912564e-05
176	0x37af0a17	2.0866324e-05
177	0xb7fc0e05	-3.004727e-05
178	0x3801e00e	3.0964664e-05
179	0xb878ae56	-5.929017e-05
180	0xbd50914d	-0.05091982
181	0x3d505ff4	0.050872758
182	0x3d50250b	0.050816577
183	0xbd4ddc36	-0.050258838
184	0xbd4f6e8b	-0.05064253
185	0x3d4eb732	0.050467677
186	0xbd509454	-0.050922707
187	0x3d507eab	0.05090205
188	0x3d55d828	0.052208096
189	0x3d4d7a68	0.050165564
190	0x3d5097bd	0.05092596
191	0xbd50a455	-0.05093797
192	0x3d5093c3	0.050922167
193	0xbd50da8f	-0.050989684
194	0xbd500a4d	-0.050791074
195	0xbd4cbbcf	-0.049983796
196	0xbd51daea	-0.051234163
197	0x3d50b0ea	0.05094997
198	0x3d50b2be	0.05095171
199	0x3d505c0e	0.05086904
200	0xbd5d0c53	-0.05396683
201	0x3d4feedb	0.0507649
202	0xbd22ec7b	-0.039776307
203	0x3d523083	0.051315796
204	0xbd4ecb96	-0.050487123
205	0x3d515d14	0.051114157
206	0xbd4706ae	-0.048590355
207	0x3d4ae831	0.04953784
208	0xbd50b1cf	-0.05095082
209	0x3e2af28f	0.16694091
210	0xbe485896	-0.19565043
211	0x3e47e7f4	0.19522077
212	0x3e483520	0.19551516
213	0xbe4758c8	-0.19467461
214	0xbe482793	-0.19546346
215	0x3e46968c	0.19393367
216	0xbe48d3d4	-0.19612056
217	0x3e48589b	0.1956505
218	0x3e4b8947	0.19876586
219	0x3e44d144	0.19220454
220	0x3e4835e1	0.19551803
221	0xbe48bd80	-0.19603539
222	0x3e489cd6	0.19591078
223	0xbe4864d5	-0.19569714
224	0xbe47c902	-0.19510272
225	0xbe444bf9	-0.19169606
226	0xbe47d135	-0.195134
227	0x3e48bee1	0.19604065
228	0x3e48b98e	0.19602033
229	0x3e47ca5d	0.19510789
230	0xbe47eccd	-0.19523926
231	0x3e44a516	0.192036
232	0xbe3084a0	-0.17238092
233	0x3e495f6e	0.1966531
234	0xbe470574	-0.19435674
235	0x3e48e2f7	0.1961783
236	0xbe3e4ab5	-0.18583186
237	0x3e41abb8	0.18913162
238	0xbe48b87f	-0.1960163
239	0x3ea5d241	0.32386974
240	0x2cacfdf4	4.9167285e-12
241	0xaca97fa3	-4.8174394e-12
242	0xacaf8336	-4.9883665e-12
243	0x2caa22c6	4.8355512e-12
244	0x2caa8d1c	4.847357e-12
245	0xaca854d5	-4.7842654e-12
246	0x2ca931c3	4.8087936e-12
247	0xacaba38a	-4.878269e-12
248	0xaca40ce6	-4.6625924e-12
249	0xaca44ba0	-4.6695564e-12
250	0xace136b6	-6.4009588e-12
251	0x2cac7f5c	4.9026738e-12
252	0xaca8f960	-4.8025334e-12
253	0x2cabef78	4.8866987e-12
254	0x2ca8240f	4.7788505e-12
255	0x2ca89ba9	4.792129e-12

Wb f4 [29, 29]
0	0x3f2f7226	0.6853355
1	0xbc86298a	-0.01637723
2	0x3f1ce400	0.612854
3	0xbdae50dc	-0.085115165
4	0x3ec149af	0.3775153
5	0x3eca2153	0.3947855
6	0x3cbc0f9a	0.022956658
7	0x3edc7f1f	0.43065736
8	0xbdb30b5f	-0.08742403
9	0xbeb8f6a6	-0.36125678
10	0x3dc5e72e	0.09663235
11	0xbdf243d6	-0.11829345
12	0x3ed6d977	0.41962788
13	0x3c861913	0.016369378
14	0x3c6ac92c	0.01433019
15	0x3e954d88	0.29160714
16	0xbedd17b5	-0.4318215
17	0x3ef0eb07	0.47054312
18	0x3e0b9b5e	0.13633487
19	0xbf148b7f	-0.58025354
20	0xbee5074d	-0.44732133
21	0xbe6ae590	-0.22939134
22	0x3ed7fd80	0.42185593
23	0x3dbd94c2	0.09256889
24	0x3e0c7e69	0.13720097
25	0xbe07e26a	-0.13269964
26	0x3ea0df40	0.31420326
27	0xbea550ab	-0.32288107
28	0xbe7778a6	-0.24167117
29	0x3f2f2e71	0.6843024
30	0xbc90b253	-0.017663157
31	0x3f1cfe35	0.6132539
32	0xbdb22c0a	-0.08699806
33	0x3ec11e2a	0.37718326
34	0x3ec97772	0.39348942
35	0x3cb8e356	0.02256934
36	0x3edbead3	0.42952594
37	0xbdb5a668	-0.0886963
38	0xbeb8fee2	-0.3613196
39	0x3dc57bed	0.096427776
40	0xbdf3c283	-0.119023345
41	0x3ed583e8	0.417022
42	0x3c79e2fe	0.015251873
43	0x3c5bad2a	0.013407985
44	0x3e955aa0	0.29170704
45	0xbedd2954	-0.43195593
46	0x3ef0d2be	0.47035784
47	0x3e09ac69	0.13444676
48	0xbf148327	-0.5801262
49	0xbee4fc41	-0.44723704
50	0xbe6bbc2a	-0.23020998
51	0x3ed6d10f	0.41956374
52	0x3db6c8c5	0.089250125
53	0x3e0a842d	0.13526984
54	0xbe07d43a	-0.13264552
55	0x3ea0a385	0.31374756
56	0xbea5798f	-0.32319304
57	0xbe780fcf	-0.2422478
58	0x3f2f3999	0.6844726
59	0xbc8e2a90	-0.01735428
60	0x3f1cf4f7	0.61311287
61	0xbdb25dc8	-0.087092936
62	0x3ec13c2d	0.37741223
63	0x3ec957ff	0.39324948
64	0x3cb714f4	0.022348858
65	0x3edbb83b	0.42913994
66	0xbdb61a1c	-0.08891699
67	0xbeb91e70	-0.36156034
68	0x3dc46a20	0.09590554
69	0xbdf41747	-0.11918502
70	0x3ed58919	0.4170616
71	0x3c655f55	0.01399978
72	0x3c5b40b8	0.013382129
73	0x3e9593ed	0.2921442
74	0xbedd4db7	-0.43223354
75	0x3ef0e033	0.4704605
76	0x3e097a9b	0.13425677
77	0xbf148e2b	-0.5802943
78	0xbee52a31	-0.44758752
79	0xbe6c3dbb	-0.23070423
80	0x3ed6d924	0.4196254
81	0x3db6c0a7	0.08923464
82	0x3e0a4e24	0.13506371
83	0xbe0846c9	-0.13308252
84	0x3ea0a116	0.313729
85	0xbea58c78	-0.32333732
86	0xbe784514	-0.24245101
87	0x3f2f8816	0.68567026
88	0xbc88d759	-0.016704248
89	0x3f1ce96e	0.61293685
90	0xbdb0f64b	-0.08640727
91	0x3ec12e96	0.37730855
92	0x3ec999af	0.39375064
93	0x3cb6f8f6	0.02233551
94	0x3edc549b	0.430333
95	0xbdb42236	-0.08795588
96	0xbeb8fe15	-0.3613135
97	0x3dc5659e	0.096385226
98	0xbdf30184	-0.118655235
99	0x3ed5f5b4	0.4178902
100	0x3c88c0c1	0.016693475
101	0x3c720c6c	0.014773469
102	0x3e954fe7	0.29162523
103	0xbedd25a3	-0.43192777
104	0x3ef0e6fd	0.4705123
105	0x3e0acb5c	0.13554138
106	0xbf148a49	-0.58023506
107	0xbee509ff	-0.4473419
108	0xbe6b85ad	-0.23000212
109	0x3ed7991f	0.4210901
110	0x3db94c36	0.09047739
111	0x3e0ba6f2	0.13637903
112	0xbe07f292	-0.13276127
113	0x3ea0c792	0.3140226
114	0xbea56364	-0.32302392
115	0xbe77a486	-0.24183854
116	0x3f2f2da1	0.68429
117	0xbc8eb323	-0.017419403
118	0x3f1cf294	0.61307645
119	0xbdb20fb3	-0.08694401
120	0x3ec1166e	0.37712425
121	0x3ec92f4f	0.39293906
122	0x3cb7fdbc	0.022459857
123	0x3edbc891	0.42926458
124	0xbdb58f84	-0.08865264
125	0xbeb8e40f	-0.36111495
126	0x3dc45113	0.09585776
127	0xbdf25177	-0.118319444
128	0x3ed5c3b1	0.41750863
129	0x3c721923	0.014776501
130	0x3c57fe80	0.013183236
131	0x3e959327	0.2921383
132	0xbedd0e6b	-0.43175063
133	0x3ef0a319	0.46999434
134	0x3e09b9d7	0.13449799
135	0xbf148002	-0.58007824
136	0xbee4e0eb	-0.4470285
137	0xbe6b3ba0	-0.22971964
138	0x3ed6f57a	0.4198416
139	0x3db61620	0.08890939
140	0x3e0aa1f6	0.13538346
141	0xbe074669	-0.13210453
142	0x3ea08b54	0.313563
143	0xbea595be	-0.32340807
144	0xbe77d80f	-0.24203514
145	0x3f2f49d2	0.68472016
146	0xbc8fc6ac	-0.017550789
147	0x3f1cdcfb	0.6127469
148	0xbdb2ee3b	-0.08736845
149	0x3ec11013	0.37707576
150	0x3ec96e3c	0.39341915
151	0x3cb487a8	0.022037342
152	0x3edc07ff	0.4297485
153	0xbdb5718f	-0.0885955
154	0xbeb91830	-0.36151266
155	0x3dc521d0	0.0962559
156	0xbdf4677c	-0.119338006
157	0x3ed5b77f	0.4174156
158	0x3c801d9a	0.015639115
159	0x3c5da3d6	0.013527831
160	0x3e953e44	0.29149067
161	0xbedd34ab	-0.43204245
162	0x3ef0d702	0.47039038
163	0x3e09d2f8	0.13459384
164	0xbf148db8	-0.58028746
165	0xbee51cdd	-0.44748583
166	0xbe6bfaf6	-0.23044953
167	0x3ed6d09e	0.41956037
168	0x3db79c25	0.08965329
169	0x3e0ab2a2	0.13544706
170	0xbe087e10	-0.13329339
171	0x3ea0bc25	0.31393543
172	0xbea5776d	-0.32317677
173	0xbe782abb	-0.2423505
174	0x3f2f4261	0.6846066
175	0xbc9082af	-0.01764044
176	0x3f1ce250	0.61282825
177	0xbdb2c34c	-0.08728656
178	0x3ec110f6	0.37708253
179	0x3ec94a42	0.39314467
180	0x3cb4ee65	0.022086332
181	0x3edbeadd	0.42952624
182	0xbdb59417	-0.088661365
183	0xbeb91a3a	-0.36152822
184	0x3dc55fca	0.09637411
185	0xbdf4aee9	-0.11947424
186	0x3ed58c0a	0.41708404
187	0x3c825231	0.015908333
188	0x3c5c8be0	0.013461083
189	0x3e9526ef	0.29131266
190	0xbedd332d	-0.43203107
191	0x3ef0d468	0.47037053
192	0x3e09bfda	0.13452092
193	0xbf148edc	-0.58030486
194	0xbee51c47	-0.44748136
195	0xbe6bfd26	-0.23045787
196	0x3ed6cee0	0.41954708
197	0x3db62512	0.08893789
198	0x3e0a9a23	0.13535361
199	0xbe089961	-0.1333976
200	0x3ea0b8c0	0.31390953
201	0xbea57c39	-0.32321337
202	0xbe7838bb	-0.24240391
203	0x3f2f2d76	0.6842874
204	0xbc907201	-0.017632486
205	0x3f1ce071	0.6127997
206	0xbdb3ea38	-0.08784908
207	0x3ec131ff	0.37733456
208	0x3ec9680b	0.3933719
209	0x3cb7aabc	0.02242028
210	0x3edbdfdf	0.42944238
211	0xbdb5ed64	-0.08883169
212	0xbeb91bcb	-0.36154017
213	0x3dc48045	0.09594778
214	0xbdf4ae66	-0.11947326
215	0x3ed59818	0.417176
216	0x3c6b7a03	0.014372352
217	0x3c5803cc	0.013184499
218	0x3e952cd2	0.29135758
219	0xbedd2e6e	-0.43199486
220	0x3ef0d44b	0.47036967
221	0x3e097bb1	0.13426091
222	0xbf148f82	-0.58031476
223	0xbee5260a	-0.44755584
224	0xbe6bfaac	-0.23044842
225	0x3ed6c873	0.41949806
226	0x3db3a9e3	0.08772638
227	0x3e0a4f1d	0.13506742
228	0xbe088d50	-0.13335156
229	0x3ea0cadc	0.3140477
230	0xbea58ccd	-0.32333985
231	0xbe7864d6	-0.24257216
232	0x3f2f17e7	0.6839585
233	0xbc8f77a7	-0.01751311
234	0x3f1cfdc9	0.61324745
235	0xbdb2f949	-0.087389536
236	0x3ec110d5	0.37708154
237	0x3ec90006	0.3925783
238	0x3cb1cb74	0.02170346
239	0x3edbaed1	0.42906812
240	0xbdb68b52	-0.08913292
241	0xbeb90ec9	-0.36144093
242	0x3dc318ff	0.09526252
243	0xbdf2fc7d	-0.118645646
244	0x3ed5b5c2	0.41740233
245	0x3c6ab0bd	0.014324364
246	0x3c58cce2	0.013232442
247	0x3e959274	0.29213297
248	0xbedd368d	-0.4320568
249	0x3ef09b6e	0.46993583
250	0x3e093140	0.13397694
251	0xbf148829	-0.58020264
252	0xbee4f90a	-0.44721252
253	0xbe6bfadd	-0.23044915
254	0x3ed6950a	0.41910583
255	0x3db645ae	0.08900009

conv.weight f4 [10, 1, 20]
0	0x0b600e32	4.315151e-32
1	0x8b840ee3	-5.086695e-32
2	0x8b963054	-5.7850614e-32
3	0x8ca82c12	-2.5911022e-31
4	0x0b41821c	3.726833e-32
5	0x8a2e6b09	-8.397926e-33
6	0x89b24ef7	-4.29262e-33
7	0x881a6d92	-4.647149e-34
8	0x8858fd78	-6.5298087e-34
9	0x88038e46	-3.958862e-34
10	0x87efbe52	-3.6072583e-34
11	0x0707a1cb	1.0203818e-34
12	0x86ad0320	-6.507996e-35
13	0x88039ddf	-3.9606955e-34
14	0x0810a613	4.3528643e-34
15	0x07d465d1	3.1958057e-34
16	0x081c94ea	4.711959e-34
17	0x0912cc78	1.7670251e-33
18	0x0935b8c8	2.1873966e-33
19	0x0a7b8a2a	1.2111196e-32
20	0x88616410	-6.7826098e-34
21	0x8957f2f7	-2.5993925e-33
22	0x890d9923	-1.7044262e-33
23	0x8971cc65	-2.9105426e-33
24	0x888463ec	-7.9679525e-34
25	0x0858e9aa	6.5274806e-34
26	0x85febc9c	-2.395533e-35
27	0x07f18f88	3.634601e-34
28	0x87319796	-1.3360547e-34
29	0x87eebacc	-3.592005e-34
30	0x0730b550	1.3294051e-34
31	0x077adb1b	1.8872299e-34
32	0x073fe23f	1.4435731e-34
33	0x88324bb1	-5.36539e-34
34	0x8884e987	-7.999363e-34
35	0x889be943	-9.383563e-34
36	0x087c351a	7.589591e-34
37	0x88b956cd	-1.1154689e-33
38	0x0988d00a	3.2936448e-33
39	0x09cfee06	5.0057273e-33
40	0x87a242cc	-2.441431e-34
41	0x884017dc	-5.7805945e-34
42	0x88135ada	-4.4343e-34
43	0x880acf76	-4.1771734e-34
44	0x082f37da	5.27278e-34
45	0x8767c1cb	-1.7435459e-34
46	0x06ea5d22	8.8157863e-35
47	0x8771e9ec	-1.8199568e-34
48	0x86e56d4a	-8.630081e-35
49	0x86cb0d76	-7.637989e-35
50	0x05b2ff89	1.6832908e-35
51	0x069e7627	5.9606604e-35
52	0x86a5a9fc	-6.231587e-35
53	0x872e67c5	-1.31208e-34
54	0x87bf85af	-2.8817058e-34
55	0x077a315d	1.8822416e-34
56	0x879cb4b9	-2.357849e-34
57	0x089df3cb	9.506409e-34
58	0x08073126	4.068286e-34
59	0x07cdfeee	3.0994806e-34
60	0x07391fc6	1.392719e-34
61	0x865823f8	-4.065151e-35
62	0x8752c3e5	-1.5856212e-34
63	0x068849e9	5.1266115e-35
64	0x074cb85f	1.5401436e-34
65	0x8648a249	-3.7735048e-35
66	0x8721c531	-1.2170243e-34
67	0x864aa5de	-3.8113837e-35
68	0x868d51dc	-5.3158587e-35
69	0x85cd85ae	-1.9327214e-35
70	0x0710e51c	1.0900685e-34
71	0x873f179a	-1.4376179e-34
72	0x871f2a49	-1.1974257e-34
73	0x864ab242	-3.812294e-35
74	0x8782bab0	-1.966995e-34
75	0x872dd8ac	-1.3078748e-34
76	0x076c288c	1.7766582e-34
77	0x078eb8a2	2.1474303e-34
78	0x077d175f	1.9040473e-34
79	0x87263906	-1.250521e-34
80	0x88658c28	-6.9076934e-34
81	0x8830b182	-5.3171733e-34
82	0x080ca6aa	4.232563e-34
83	0x0743450a	1.4690458e-34
84	0x87d6290c	-3.2223266e-34
85	0x877451ea	-1.8380592e-34
86	0x86e9cf0c	-8.7949087e-35
87	0x857d33cc	-1.19055164e-35
88	0x071c3676	1.175214e-34
89	0x0753e16a	1.5940119e-34
90	0x075e69b9	1.6732493e-34
91	0x8790ab3a	-2.176735e-34
92	0x07cc9639	3.0782801e-34
93	0x06c0a67c	7.2467e-35
94	0x87db6798	-3.3012345e-34
95	0x871242af	-1.1003416e-34
96	0x87ccf4d1	-3.0838399e-34
97	0x0819fad9	4.6336633e-34
98	0x87728d27	-1.8247537e-34
99	0x064025f8	3.6139081e-35
100	0x059f8732	1.5001951e-35
101	0x85a9c172	-1.5963744e-35
102	0x061d31c4	2.956498e-35
103	0x85b10d30	-1.6649844e-35
104	0x8671280c	-4.5356484e-35
105	0x86731b85	-4.5723439e-35
106	0x055739f4	1.0119896e-35
107	0x85db1546	-2.0602476e-35
108	0x052e5c7a	8.198426e-36
109	0x0508d5ec	6.4339805e-36
110	0x065c569e	4.1441037e-35
111	0x06363a94	3.4273432e-35
112	0x860b28f7	-2.617309e-35
113	0x05e2d1ba	2.1329979e-35
114	0x05ddea44	2.0868796e-35
115	0x86486bdb	-3.769506e-35
116	0x0532cba6	8.406924e-36
117	0x851e4f60	-7.443703e-36
118	0x85da8c75	-2.0552217e-35
119	0x05f9e616	2.3500368e-35
120	0x078527d8	2.0035034e-34
121	0x060a61ba	2.6026713e-35
122	0x07219b9f	1.2158027e-34
123	0x869c457f	-5.8782793e-35
124	0x06b7384a	6.891966e-35
125	0x06a54fde	6.2183456e-35
126	0x858573fa	-1.2549863e-35
127	0x06d8fc6f	8.162109e-35
128	0x071197cc	1.0953197e-34
129	0x86ecfc73	-8.9144274e-35
130	0x0657009b	4.043745e-35
131	0x05c87772	1.8851787e-35
132	0x06ef2756	8.9959607e-35
133	0x85ffde5c	-2.4061767e-35
134	0x07411191	1.4524869e-34
135	0x85836ac6	-1.2358403e-35
136	0x86070f94	-2.5402123e-35
137	0x07525b9e	1.5825568e-34
138	0x07624bb6	1.70246e-34
139	0x872d9f3b	-1.3061867e-34
140	0x86bd11f7	-7.1120295e-35
141	0x870e163f	-1.068943e-34
142	0x869118ea	-5.4579546e-35
143	0x86bec3d4	-7.17578e-35
144	0x86cafd90	-7.635653e-35
145	0x87236f18	-1.2295405e-34
146	0x0731a5ce	1.3364726e-34
147	0x069aa198	5.81658e-35
148	0x05d6ba4d	2.01929e-35
149	0x86920074	-5.491976e-35
150	0x06ab5230	6.4443815e-35
151	0x05c2994a	1.8299982e-35
152	0x868a33e1	-5.198606e-35
153	0x869bfa0f	-5.867195e-35
154	0x072839f7	1.265595e-34
155	0x867a077b	-4.702527e-35
156	0x076364eb	1.7107239e-34
157	0x06c18cf4	7.2805643e-35
158	0x07199e1f	1.1556908e-34
159	0x0733f016	1.3537018e-34
160	0x86d686d0	-8.069594e-35
161	0x07eadf01	3.5339477e-34
162	0x07084a04	1.0253254e-34
163	0x8760b42a	-1.6904832e-34
164	0x0715bd66	1.1265173e-34
165	0x86cfe356	-7.8198786e-35
166	0x8718c85e	-1.1494092e-34
167	0x06967d91	5.660823e-35
168	0x873d0a2f	-1.4221772e-34
169	0x070ae9bc	1.0450654e-34
170	0x059863d1	1.4330678e-35
171	0x068c22c9	5.271326e-35
172	0x856dd118	-1.1182091e-35
173	0x07635194	1.7101556e-34
174	0x86d9d600	-8.194077e-35
175	0x87b90720	-2.7839894e-34
176	0x871f8f8e	-1.2004017e-34
177	0x062c6846	3.2426213e-35
178	0x07957b4d	2.2491498e-34
179	0x87ab6798	-2.5790107e-34
180	0x0718e4fb	1.15025e-34
181	0x07321588	1.3397559e-34
182	0x86b19a42	-6.680666e-35
183	0x067e7526	4.7858157e-35
184	0x871367ba	-1.1089533e-34
185	0x87097d19	-1.0343497e-34
186	0x86c75513	-7.4980486e-35
187	0x055114f8	9.830984e-36
188	0x07195012	1.1533971e-34
189	0x86c2d56f	-7.32883e-35
190	0x0522393c	7.627716e-36
191	0x07136288	1.1088007e-34
192	0x864af849	-3.8174389e-35
193	0x872f2d18	-1.3178789e-34
194	0x86d2ff34	-7.936821e-35
195	0x068021da	4.819799e-35
196	0x0588a4cc	1.2849915e-35
197	0x86c1343a	-7.267527e-35
198	0x867e8722	-4.787137e-35
199	0x86fb4c5a	-9.4527895e-35

conv.bias f4 [10]
0	0xb622b6ac	-2.424621e-06
1	0xb11e4ab9	-2.30345e-09
2	0xad291f12	-9.613437e-12
3	0x099b5e70	3.74037e-33
4	0xb4a8333d	-3.132972e-07
5	0x0653b2aa	3.981595e-35
6	0xab030127	-4.654215e-13
7	0x988eac9b	-3.6880427e-24
8	0xb170c07b	-3.503401e-09
9	0x87a75f34	-2.5183323e-34

conv_long.weight f4 [10, 1, 10]
0	0x06542963	3.9903175e-35
1	0x86f7e374	-9.3245286e-35
2	0x85f5edd2	-2.312705e-35
3	0x05c54a46	1.8553075e-35
4	0x05b01f9b	1.656257e-35
5	0x85ce453a	-1.9397577e-35
6	0x06737f57	4.5796775e-35
7	0x86b37f4c	-6.751936e-35
8	0x06a95a38	6.37033e-35
9	0x0657df1e	4.0600926e-35
10	0x0b42b238	3.7497118e-32
11	0x0b664f2a	4.4355945e-32
12	0x0b931934	5.666026e-32
13	0x099a43e0	3.713798e-33
14	0x0b05f6b8	2.580048e-32
15	0x8aafdb69	-1.693442e-32
16	0x096ba45c	2.8364377e-33
17	0x0ab6211b	1.7538415e-32
18	0x8a68a39a	-1.1201164e-32
19	0x8a2a5f08	-8.203076e-33
20	0x087321f8	7.3165083e-34
21	0x08f6e416	1.4859209e-33
22	0x089dcde8	9.497502e-34
23	0x06bb5542	7.0466857e-35
24	0x0881c17e	7.809395e-34
25	0x881606a0	-4.514677e-34
26	0x889a648a	-9.2921745e-34
27	0x09483f66	2.4103934e-33
28	0x8a1449b7	-7.139805e-33
29	0x0b9ad3cc	5.963732e-32
30	0x10f1d528	9.538616e-29
31	0x12a963fa	1.0690046e-27
32	0x8defde72	-1.4783064e-30
33	0x8cdc3dea	-3.393363e-31
34	0x0c098858	1.0595126e-31
35	0x8a88a9aa	-1.3160144e-32
36	0x0ddcaeea	1.3600656e-30
37	0x117a5e06	1.9750496e-28
38	0x937bb1b2	-3.1768265e-27
39	0x956cd224	-4.7825592e-26
40	0x9024935e	-3.2456825e-29
41	0x110ab490	1.0941921e-28
42	0x9089db09	-5.437445e-29
43	0x9138fbb8	-1.4592607e-28
44	0x90f14ff9	-9.5180956e-29
45	0x9091289e	-5.7254996e-29
46	0x10c58916	7.7914013e-29
47	0x1092253a	5.76442e-29
48	0x0ecf9544	5.1173177e-30
49	0x8fb196b8	-1.7511602e-29
50	0x1425e525	8.375562e-27
51	0x1442fe02	9.844591e-27
52	0x8fd9dd01	-2.148298e-29
53	0x0b94a5c8	5.7256966e-32
54	0x895dbe3d	-2.6691357e-33
55	0x87f1727a	-3.6328933e-34
56	0x0b0ed61e	2.750929e-32
57	0x0d068d8a	4.146231e-31
58	0x8d520837	-6.4721134e-31
59	0x0fc6aba5	1.9590422e-29
60	0x0802873c	3.927942e-34
61	0x879f4d6d	-2.3969168e-34
62	0x091ff7a3	1.9255367e-33
63	0x886a62c9	-7.0532935e-34
64	0x890cd7a0	-1.6953273e-33
65	0x87b4559c	-2.7133707e-34
66	0x08debe35	1.3405856e-33
67	0x07f8c911	3.743307e-34
68	0x886b5914	-7.082245e-34
69	0x06adbc18	6.5351746e-35
70	0x85d19362	-1.9708405e-35
71	0x874b1ee6	-1.5281103e-34
72	0x059d6628	1.4801735e-35
73	0x08a19233	9.724206e-34
74	0x88d64970	-1.2896922e-33
75	0x88263236	-5.001283e-34
76	0x07e05c08	3.3757865e-34
77	0x87744290	-1.8376081e-34
78	0x0726b0b9	1.2540386e-34
79	0x86730d87	-4.571316e-35
80	0x0cfea129	3.9231891e-31
81	0x10085df8	2.6893662e-29
82	0x8df6b271	-1.5203879e-30
83	0x0b20ad12	3.0945083e-32
84	0x09d70758	5.1766273e-33
85	0x889769a0	-9.112814e-34
86	0x0a05caf4	6.441888e-33
87	0x8c552c1f	-1.64222e-31
88	0x8c914e98	-2.238809e-31
89	0x0c2c7926	1.3286855e-31
90	0x87c05081	-2.8936265e-34
91	0x87b20a7c	-2.6788625e-34
92	0x88060546	-4.0330357e-34
93	0x079463a1	2.2327122e-34
94	0x87a205bc	-2.4378421e-34
95	0x88415d4b	-5.818849e-34
96	0x0886334a	8.07689e-34
97	0x89f6627f	-5.931497e-33
98	0x0aced244	1.9916172e-32
99	0x8bbe1e28	-7.323071e-32

conv_long.bias f4 [10]
0	0x077537e8	1.8448181e-34
1	0x1ab2e214	7.3984323e-23
2	0xb963a915	-0.00021711395
3	0xba7e1f7f	-0.00096940243
4	0x91cd5b8f	-3.2399724e-28
5	0xba82732e	-0.0009952539
6	0x89f3c262	-5.868292e-33
7	0x0b0be4cf	2.6942563e-32
8	0xa90a0677	-3.0647763e-14
9	0x9bc7616c	-3.2984746e-22

conv1.weight f4 [30, 30]
0	0x20dae922	3.708491e-19
1	0x0825d538	4.990352e-34
2	0x8e072321	-1.6656949e-30
3	0x8b686552	-4.47578e-32
4	0x1e4bd994	1.0791725e-20
5	0x86c68329	-7.4672045e-35
6	0x07072cec	1.0169473e-34
7	0x0859073a	6.5309557e-34
8	0x88b2daa0	-1.0764384e-33
9	0x0eaee3b5	4.3113586e-30
10	0x86b8e330	-6.954693e-35
11	0x8a55d21c	-1.0295094e-32
12	0x070f5922	1.0784318e-34
13	0x89c6507c	-4.7742453e-33
14	0x877e46ab	-1.9129604e-34
15	0x086055ba	6.750832e-34
16	0x92a09d40	-1.0136185e-27
17	0x904f9f37	-4.0946206e-29
18	0x93cfcb23	-5.2454455e-27
19	0x0f8cbf11	1.3878662e-29
20	0x874ccac8	-1.5406846e-34
21	0xad50bdee	-1.1865604e-11
22	0x05bbe4b6	1.766941e-35
23	0x0eb72253	4.5146036e-30
24	0x082fb4ad	5.287453e-34
25	0x0b6c94ab	4.5563792e-32
26	0xa727db74	-2.3294871e-15
27	0x0a55b004	1.0288682e-32
28	0x0975bfec	2.9581044e-33
29	0x8640abf8	-3.623753e-35
30	0x861a4029	-2.9011318e-35
31	0x0538ea06	8.694622e-36
32	0x03a35380	9.59945e-37
33	0x064f74b4	3.9018113e-35
34	0x85ba1c73	-1.7501807e-35
35	0x05c8589c	1.884046e-35
36	0x86074f3a	-2.5448884e-35
37	0x85d313fd	-1.9849687e-35
38	0x06aa080d	6.395872e-35
39	0x869e8bac	-5.9638224e-35
40	0x868da6b7	-5.328327e-35
41	0x063179c7	3.3379468e-35
42	0x05b33799	1.6853502e-35
43	0x068d0975	5.30522e-35
44	0x85fc1cea	-2.3708587e-35
45	0x052bdb78	8.0806914e-36
46	0x068faae8	5.4041746e-35
47	0x069f79d7	5.998818e-35
48	0x05dd63c0	2.0819382e-35
49	0x06a81d1c	6.323735e-35
50	0x06e7021b	8.6895636e-35
51	0x05f4e91e	2.3031283e-35
52	0x84ea6110	-5.5102273e-36
53	0xb116113d	-2.1837672e-09
54	0x865541b2	-4.0109113e-35
55	0x062ccd3f	3.2500396e-35
56	0x8620b16c	-3.0223004e-35
57	0x03b157c0	1.0423271e-36
58	0x86b4f549	-6.806889e-35
59	0x85749f88	-1.1502126e-35
60	0x2f0e9be6	1.2970211e-10
61	0x8605c23c	-2.515722e-35
62	0x860625be	-2.5230327e-35
63	0x062f9fa5	3.303113e-35
64	0x860cd94e	-2.6490724e-35
65	0x85773640	-1.1623848e-35
66	0x04946f50	3.4896857e-36
67	0x06269dfb	3.1337196e-35
68	0x0617b9bf	2.8536408e-35
69	0x86bc1623	-7.075027e-35
70	0x064309f8	3.6682748e-35
71	0x06298004	3.1879418e-35
72	0x064c0f17	3.8379222e-35
73	0x03d703c0	1.2637425e-36
74	0x061133ac	2.7309431e-35
75	0x05919e7e	1.3693955e-35
76	0x066d5d34	4.464322e-35
77	0x05406918	9.047099e-36
78	0x861cd8a2	-2.9499496e-35
79	0x86bfc748	-7.213903e-35
80	0x84c2c578	-4.5790527e-36
81	0x84d5e138	-5.028289e-36
82	0x85cc4ba4	-1.9211854e-35
83	0x04cedce4	4.8633223e-36
84	0x056732c4	1.0870892e-35
85	0x05798de4	1.1733985e-35
86	0x060f1f42	2.6918275e-35
87	0x065bb75e	4.132404e-35
88	0x84219b40	-1.8996746e-36
89	0x8540d772	-9.067368e-36
90	0x9ed05e71	-2.2061917e-20
91	0x074a094b	1.5199522e-34
92	0x10a3e689	6.464736e-29
93	0x8d78d8c7	-7.6681836e-31
94	0x9c30f7c0	-5.8553724e-22
95	0x86e12456	-8.4688984e-35
96	0x86445f87	-3.6933685e-35
97	0x89001a99	-1.5419946e-33
98	0x876eb426	-1.7958071e-34
99	0x091c2920	1.8797154e-33
100	0x07741d12	1.8365063e-34
101	0x08261f28	4.999043e-34
102	0x873fb0c9	-1.4421195e-34
103	0x87b87f11	-2.7759926e-34
104	0x0866abc8	6.9415035e-34
105	0x05231a88	7.669096e-36
106	0x101402f0	2.9190116e-29
107	0x88c1cba8	-1.1663644e-33
108	0x923ab902	-5.891929e-28
109	0x8794c2ac	-2.2382983e-34
110	0x86c71f3a	-7.4901364e-35
111	0xace6a16c	-6.5549146e-12
112	0x05207778	7.545107e-36
113	0x884d6a8f	-6.1815203e-34
114	0x87879de3	-2.040534e-34
115	0x0bae2e46	6.7091987e-32
116	0xa9800ec3	-5.6869026e-14
117	0x89ea1c9a	-5.6360348e-33
118	0x850e0470	-6.677623e-36
119	0x8745e23b	-1.4887116e-34
120	0x86d10632	-7.8626165e-35
121	0xb7639741	-1.3565471e-05
122	0x071af70a	1.1658271e-34
123	0x076c1132	1.775972e-34
124	0x861c5b4c	-2.9407413e-35
125	0x07095a21	1.0333221e-34
126	0x84d041e0	-4.896106e-36
127	0x861d3b41	-2.957195e-35
128	0x076e511c	1.7928966e-34
129	0x878962eb	-2.0671608e-34
130	0x074447e5	1.4766529e-34
131	0x04bf6b98	4.5002693e-36
132	0x86c0cc48	-7.252254e-35
133	0x87248f1e	-1.2380047e-34
134	0x85fa97c9	-2.3565644e-35
135	0x04948800	3.491953e-36
136	0x8683c938	-4.957239e-35
137	0x87601b72	-1.6859952e-34
138	0x07ab371e	2.5761615e-34
139	0x8826e36d	-5.0221146e-34
140	0x0700358d	9.645387e-35
141	0x870fdde2	-1.082333e-34
142	0x869ba044	-5.854001e-35
143	0x86229ec2	-3.058545e-35
144	0x0790caf5	2.1786e-34
145	0x0567de14	1.0902357e-35
146	0x869bb44c	-5.856944e-35
147	0x04a5d020	3.8982446e-36
148	0x07e43188	3.433474e-34
149	0x05aa6d94	1.6026976e-35
150	0x8507ed5c	-6.3912655e-36
151	0x852f9ed8	-8.2576354e-36
152	0x0689d342	5.184409e-35
153	0x872488e0	-1.2378213e-34
154	0x86861764	-5.043957e-35
155	0x87118d41	-1.0950098e-34
156	0x065e7ebc	4.184667e-35
157	0x05647084	1.0741174e-35
158	0x87458f4b	-1.4862743e-34
159	0x87a2e0fc	-2.4507285e-34
160	0x0739a948	1.39676e-34
161	0x35c510ae	1.4682498e-06
162	0x07121dd1	1.0992581e-34
163	0x07921c32	2.198421e-34
164	0x05ebc875	2.217293e-35
165	0x05d71d66	2.0229302e-35
166	0x07a98b5e	2.5510206e-34
167	0x886fd95c	-7.217695e-34
168	0x07f0ba62	3.6220732e-34
169	0x880d84a7	-4.2586576e-34
170	0x07263053	1.2502653e-34
171	0x046895c0	2.734023e-36
172	0x0621d78b	3.043909e-35
173	0x860a7859	-2.6043333e-35
174	0x07a9b3c2	2.5533946e-34
175	0x86be3b8e	-7.1557564e-35
176	0x05b6c347	1.7186931e-35
177	0x07b7f6a0	2.7679733e-34
178	0x85fad40c	-2.3587781e-35
179	0x06edec48	8.9496676e-35
180	0xa023f5ff	-1.388803e-19
181	0x87d1fb50	-3.1594533e-34
182	0x1019419b	3.022447e-29
183	0x8d9f44da	-9.815707e-31
184	0x9bcb5dcd	-3.364415e-22
185	0x06aaa348	6.4186813e-35
186	0x86837484	-4.944793e-35
187	0x0604ddb8	2.4989334e-35
188	0x07c43456	2.9521563e-34
189	0x8a47d951	-9.622374e-33
190	0x871d3ee8	-1.1829854e-34
191	0x086f9ba6	7.210441e-34
192	0x071d8ae6	1.1852186e-34
193	0x06de5384	8.3629834e-35
194	0x0721d924	1.2176106e-34
195	0x07b44b6e	2.7127723e-34
196	0x918b47e6	-2.1974644e-28
197	0x089d7c43	9.478308e-34
198	0x928f6a99	-9.050847e-28
199	0x88db2693	-1.3189652e-33
200	0x04c1ea30	4.558915e-36
201	0xadb6929e	-2.0756116e-11
202	0x05825a4c	1.2258311e-35
203	0x89ca71b0	-4.8736642e-33
204	0x06ed0134	8.915126e-35
205	0x0c230c55	1.2560774e-31
206	0xa9ad16db	-7.686708e-14
207	0x89dcbe33	-5.3141936e-33
208	0x87a43315	-2.4706e-34
209	0x870a5c31	-1.0409059e-34
210	0x0a72fe6c	1.16997276e-32
211	0x069c17e6	5.8715794e-35
212	0x06f2c196	9.131473e-35
213	0x88e88fa9	-1.3996766e-33
214	0x8b8ba919	-5.379528e-32
215	0x06f06800	9.043078e-35
216	0x071a476b	1.160666e-34
217	0x87074c30	-1.0178661e-34
218	0x89cfae70	-4.9997478e-33
219	0x8fb0623f	-1.7392783e-29
220	0x881859f6	-4.5846585e-34
221	0x03129ca0	4.308534e-37
222	0x0809ef4e	4.150824e-34
223	0x8bda5a2c	-8.410622e-32
224	0x863eee61	-3.591016e-35
225	0x0601580e	2.4326896e-35
226	0x8d60ac4e	-6.9232733e-31
227	0x16e53571	3.7030672e-25
228	0x0c4e5984	1.58966e-31
229	0x938da249	-3.575343e-27
230	0x889b70db	-9.355255e-34
231	0x1062d3e5	4.473388e-29
232	0x0656887c	4.03492e-35
233	0x07aeafc1	2.628391e-34
234	0x8ba729da	-6.438903e-32
235	0x072cb0da	1.2991814e-34
236	0x0f0762ab	6.675017e-30
237	0x891f9b2d	-1.9211892e-33
238	0x8dcb903c	-1.2545564e-30
239	0x881bbf60	-4.6868576e-34
240	0x89885583	-3.2821224e-33
241	0x072b0152	1.2864998e-34
242	0x05b37577	1.6876229e-35
243	0x8865fe7c	-6.9211326e-34
244	0x89e9d2de	-5.629101e-33
245	0x880a0b82	-4.154139e-34
246	0x06ea77e0	8.819716e-35
247	0x8785b7c6	-2.0119628e-34
248	0x8a022cc0	-6.267689e-33
249	0x0ffbb9d0	2.4822083e-29
250	0x883ce902	-5.684809e-34
251	0x066b505e	4.4257632e-35
252	0x878a97d9	-2.085318e-34
253	0x0bd66b09	8.259085e-32
254	0x04db7658	5.1595334e-36
255	0x85fa4ec8	-2.3538827e-35

conv1.bias f4 [30]
0	0xb88d19ad	-6.7281864e-05
1	0x1cc54b7a	1.3055877e-21
2	0xad288ad0	-9.580517e-12
3	0xaa130edd	-1.306138e-13
4	0xb6f407cd	-7.272675e-06
5	0x1492016d	1.4742795e-26
6	0x8b5fc639	-4.3097364e-32
7	0x1b96bc1d	2.4936984e-22
8	0x1ef4190b	2.5844862e-20
9	0xb30b32ac	-3.2409545e-08
10	0x948560d0	-1.3467754e-26
11	0xabb12985	-1.258813e-12
12	0x1952dfd6	1.0901949e-23
13	0xa4145b86	-3.2169908e-17
14	0x09623ec0	2.7233265e-33
15	0xb4ed31cf	-4.418093e-07
16	0xb2e2db87	-2.6409692e-08
17	0xb4f9cb8b	-4.652796e-07
18	0xb53fbe8e	-7.143034e-07
19	0xb3468d47	-4.622896e-08
20	0x180e5772	1.8397218e-24
21	0xb95be063	-0.00020969058
22	0x12818000	8.172599e-28
23	0xb257feb2	-1.2572558e-08
24	0x248f5408	6.215872e-17
25	0xac1deb23	-2.244157e-12
26	0xb867a580	-5.5228826e-05
27	0xadccbb9e	-2.3275434e-11
28	0xab9134fe	-1.0317578e-12
29	0x1968383b	1.20054745e-23

conv2.weight f4 [30, 10]
0	0x090fc9ac	1.7307825e-33
1	0xae0e557d	-3.236299e-11
2	0x0cb004ac	2.7119905e-31
3	0x09959b90	3.6016735e-33
4	0x9bb8ee16	-3.0594106e-22
5	0x89fda6f6	-6.1064544e-33
6	0x06bc4a38	7.0826795e-35
7	0x3340002e	4.4703647e-08
8	0x3791a6f5	1.7363092e-05
9	0x072c2b7d	1.2952622e-34
10	0x05cc679d	1.922213e-35
11	0x85401a14	-9.0325864e-36
12	0x1c8341d6	8.685871e-22
13	0x9c86238e	-8.876567e-22
14	0x84e98a64	-5.490513e-36
15	0x068b6123	5.242872e-35
16	0x210b49bd	4.7192624e-19
17	0x08f98df0	1.5019512e-33
18	0x09d0ed46	5.029731e-33
19	0x19ec8c22	2.4458427e-23
20	0x0608e706	2.5748486e-35
21	0xb2aff636	-2.0484645e-08
22	0x1108e90f	1.0800325e-28
23	0x0a3d488e	9.113665e-33
24	0xa13f0deb	-6.473174e-19
25	0x876539d5	-1.724504e-34
26	0x86e6969e	-8.6737696e-35
27	0x35b1c52c	1.3244912e-06
28	0xb901ac55	-0.00012366597
29	0x066fd6d1	4.5108726e-35
30	0x061127d6	2.7300736e-35
31	0xad8ee30c	-1.624436e-11
32	0x0cc6da78	3.0638216e-31
33	0x09c05d76	4.631021e-33
34	0xa15b382f	-7.4274445e-19
35	0x075c9e06	1.6597399e-34
36	0x0710ea84	1.0902274e-34
37	0x32dd4033	2.575698e-08
38	0xb5148580	-5.5328564e-07
39	0x86578be8	-4.0539793e-35
40	0x84c89ec8	-4.716559e-36
41	0x9be76985	-3.8283935e-22
42	0x092117c3	1.9390843e-33
43	0x8793e78f	-2.22542e-34
44	0x1e22af73	8.612491e-21
45	0x0a1ff9ea	7.702575e-33
46	0x876825b2	-1.7464818e-34
47	0x27347f3e	2.5048996e-15
48	0xb3183f63	-3.5447908e-08
49	0x8693119e	-5.532114e-35
50	0x04c3ecb8	4.606167e-36
51	0x85efab40	-2.253836e-35
52	0x14cbb367	2.0568524e-26
53	0x12374a2d	5.7836047e-28
54	0x86ec5c75	-8.8909187e-35
55	0x277081fa	3.3377151e-15
56	0x860e6060	-2.6778037e-35
57	0x3764c1b5	1.363496e-05
58	0x0709fde0	1.0381342e-34
59	0x90a2a014	-6.414437e-29
60	0x85c908a3	-1.8905122e-35
61	0x85c276f1	-1.8287364e-35
62	0x0a29add8	8.1697504e-33
63	0x0acf0772	1.9936176e-32
64	0x0b2785fb	3.2263826e-32
65	0x0584d137	1.2490074e-35
66	0x06c76bc0	7.5013805e-35
67	0x861fa85a	-3.0028261e-35
68	0x8ab85272	-1.7749568e-32
69	0x85a310fc	-1.5334685e-35
70	0x0634893b	3.3955058e-35
71	0x0b753fbf	4.723324e-32
72	0x97dea9f0	-1.4389312e-24
73	0x1aa38cd3	6.7642734e-23
74	0x06036fba	2.4720445e-35
75	0x389fb236	7.614905e-05
76	0x3b1a1d08	0.002351584
77	0x0d93d1d4	9.110089e-31
78	0x16c9e3ad	3.2616985e-25
79	0x17583040	6.9854264e-25
80	0x85eb80bf	-2.2146588e-35
81	0x06046b7d	2.490541e-35
82	0x1f2727a4	3.5396416e-20
83	0x9d040548	-1.7472785e-21
84	0x0e18534a	1.8775549e-30
85	0x05c75f1a	1.8748805e-35
86	0x8678ce92	-4.679538e-35
87	0x85c0341a	-1.8074732e-35
88	0x102b2b30	3.3757074e-29
89	0x860c0ca4	-2.634036e-35
90	0xa08c3537	-2.3752137e-19
91	0xad462a0f	-1.1264336e-11
92	0x8ca2c8d2	-2.5080916e-31
93	0x88a0b226	-9.671532e-34
94	0x8e0b08ac	-1.7137248e-30
95	0xa9a42103	-7.28879e-14
96	0x86891245	-5.1560517e-35
97	0x37b98bb7	2.2118778e-05
98	0x3a6d893d	0.00090612826
99	0x8807ed37	-4.090393e-34
100	0x066a9ba5	4.4124858e-35
101	0x38922bf0	6.9700065e-05
102	0x1485d80c	1.3514784e-26
103	0x15d68e72	8.665865e-26
104	0x0717573d	1.1385614e-34
105	0x065d6d59	4.1645816e-35
106	0x066dd942	4.4734362e-35
107	0x0526d9bc	7.845274e-36
108	0x07027ee5	9.817404e-35
109	0x390c12ba	0.00013358417
110	0x86405e2d	-3.6180376e-35
111	0x878a491f	-2.080691e-34
112	0x0677699b	4.6533123e-35
113	0x85fe06ac	-2.3888496e-35
114	0x85f5abbd	-2.3102776e-35
115	0x062b5fe8	3.2231986e-35
116	0x05d4157a	1.9944273e-35
117	0x248368a7	5.698948e-17
118	0x29b8f3f6	8.213562e-14
119	0x3a782e80	0.0009467378
120	0x860ded94	-2.6693697e-35
121	0x85565850	-1.0078452e-35
122	0x1a12e84c	3.037974e-23
123	0x19ea30ba	2.4214713e-23
124	0x0f69f2dd	1.1534561e-29
125	0x05a7fb0a	1.5796822e-35
126	0x85fbea78	-2.3690057e-35
127	0x84658d98	-2.6983837e-36
128	0x90104c61	-2.8457833e-29
129	0xb7a4555f	-1.9590077e-05
130	0x85d2ec1f	-1.9835042e-35
131	0x8585e622	-1.2591797e-35
132	0x05467687	9.331685e-36
133	0x879ce0b3	-2.3604338e-34
134	0x0e0cc4f3	1.735116e-30
135	0x05b7ff25	1.7302963e-35
136	0x0690bbcb	5.4442717e-35
137	0xb7853517	-1.5879557e-05
138	0x8e417d4d	-2.3849417e-30
139	0x81d9f100	-8.005903e-38
140	0x858cb47e	-1.3231839e-35
141	0x06119a7a	2.738496e-35
142	0x8a7e7080	-1.2250814e-32
143	0x1a8f9268	5.9379946e-23
144	0x056b6400	1.1068014e-35
145	0x05dbe0f8	2.0677301e-35
146	0x05872884	1.2710222e-35
147	0x857c3788	-1.18591825e-35
148	0x0673aa6d	4.582843e-35
149	0x0a340b98	8.668865e-33
150	0x94c9ee65	-2.0389843e-26
151	0x85b76d79	-1.7249451e-35
152	0x85a99393	-1.5946894e-35
153	0x85be175d	-1.7876096e-35
154	0x056aa8d6	1.10336374e-35
155	0x9c23671f	-5.4065457e-22
156	0x063514ae	3.405751e-35
157	0xace55aea	-6.518665e-12
158	0xb34bedd2	-4.7480917e-08
159	0x07d24630	3.163854e-34
160	0x05dd2681	2.0796884e-35
161	0x074499fb	1.4790652e-34
162	0x0746290c	1.4907927e-34
163	0x888121b2	-7.771827e-34
164	0xa9f45456	-1.0850407e-13
165	0x8624f29a	-3.1023207e-35
166	0x86d2940c	-7.9210756e-35
167	0x8614cd64	-2.7986603e-35
168	0x2c482dc2	2.844711e-12
169	0x05e8bb79	2.1886042e-35
170	0x05a7cbe0	1.5779496e-35
171	0x04f789c0	5.8195924e-36
172	0x86b49a3e	-6.7935113e-35
173	0x881942c0	-4.6120227e-34
174	0x128c371d	8.848829e-28
175	0x867deabc	-4.7756467e-35
176	0x05aa2754	1.600117e-35
177	0x848641f4	-3.1563817e-36
178	0x92079779	-4.2785193e-28
179	0x05133600	6.921825e-36
180	0x89803fb9	-3.0874804e-33
181	0xb3fab3da	-1.1674247e-07
182	0x11cea2fc	3.2601516e-28
183	0x8b0780e9	-2.6097035e-32
184	0x1dbf7112	5.067419e-21
185	0x0cc58027	3.0429785e-31
186	0x06c35aae	7.348409e-35
187	0x37efc7ae	2.8584003e-05
188	0x3a3a1c76	0.0007099578
189	0x07412602	1.4530876e-34
190	0x86644742	-4.2934386e-35
191	0x84b88f48	-4.3389775e-36
192	0x05aa52fe	1.601721e-35
193	0x07f70829	3.7169226e-34
194	0x95e535b4	-9.257709e-26
195	0x05dc05eb	2.0690874e-35
196	0x069e1715	5.946691e-35
197	0x062ee5bf	3.2894553e-35
198	0x14be0463	1.9186827e-26
199	0x859285b3	-1.3778887e-35
200	0x05df3c25	2.0992913e-35
201	0x04fa7a58	5.8887073e-36
202	0x97d1bf5b	-1.3554613e-24
203	0x99d797a3	-2.2291725e-23
204	0x86fbc21c	-9.4700924e-35
205	0x0500e104	6.05986e-36
206	0x06813962	4.8608723e-35
207	0x05ed54b2	2.2318485e-35
208	0x0697d132	5.710727e-35
209	0x95177440	-3.0585912e-26
210	0x8c0724f9	-1.0411148e-31
211	0x23840de0	1.4317345e-17
212	0x09d93e8c	5.229967e-33
213	0x87e9f3de	-3.5201276e-34
214	0x87351200	-1.3622216e-34
215	0x8d69a48d	-7.199674e-31
216	0x063b89eb	3.5272117e-35
217	0x2dda0e5a	2.4790104e-11
218	0xb5d3c0ee	-1.5776875e-06
219	0x87414586	-1.4540137e-34
220	0x04b6c3e8	4.2967906e-36
221	0x85d6dfd4	-2.0206685e-35
222	0x12870a82	8.522288e-28
223	0x1139fed0	1.4672447e-28
224	0x0d3ce759	5.8210447e-31
225	0x856555d8	-1.0783295e-35
226	0x0b353b6a	3.490403e-32
227	0x189895a3	3.9442174e-24
228	0x8d0e220d	-4.3798115e-31
229	0x0e966461	3.7074516e-30
230	0x8638609a	-3.4677525e-35
231	0x86500611	-3.912491e-35
232	0x86053bcd	-2.5058454e-35
233	0x05fc4008	2.3721487e-35
234	0x066d6b1c	4.4653437e-35
235	0x0789712d	2.0679988e-34
236	0x06269607	3.1331353e-35
237	0x1318071d	1.9188604e-27
238	0x17cc2882	1.3193417e-24
239	0x86451e02	-3.7073628e-35
240	0x0619c1fe	2.8918625e-35
241	0x37162b24	8.950741e-06
242	0x86479c44	-3.7542546e-35
243	0x86c81b12	-7.5271415e-35
244	0x07d7c95c	3.2467953e-34
245	0x862ef3ff	-3.2905023e-35
246	0x86739386	-4.5811603e-35
247	0x85f1859c	-2.2712611e-35
248	0x88129b41	-4.4117777e-34
249	0xbc0c00c9	-0.008545109
250	0x8b005637	-2.4716764e-32
251	0x1e857ab1	1.4132667e-20
252	0x89971536	-3.6371874e-33
253	0x07af22b3	2.6351468e-34
254	0x0709aa06	1.03567e-34
255	0x102152fa	3.1815574e-29

conv2.bias f4 [10]
0	0xb94faca6	-0.00019805375
1	0xb6a0b807	-4.789795e-06
2	0xbadf9a0a	-0.0017059457
3	0xbdf74ddc	-0.12075397
4	0xb98ccbc1	-0.0002685469
5	0xb865d109	-5.4792534e-05
6	0xbb27841a	-0.0025560916
7	0xbbda960d	-0.0066707195
8	0xb9533de1	-0.0002014558
9	0xbcce460a	-0.025179882

rnn.weight_ih_l0 f4 [30, 1]
0	0x3f6b4f57	0.9191794
1	0xbe2e95c4	-0.17049319
2	0xbe8a8669	-0.27055672
3	0xbe4debd9	-0.201095
4	0x3e08f14e	0.133733
5	0x3dc16962	0.09443928
6	0xbeda706b	-0.42663893
7	0x3e356810	0.17715478
8	0x3cedeb62	0.029042903
9	0x3eb139b3	0.34614334
10	0xb978a2cc	-0.0002371177
11	0xbeb360c4	-0.35034764
12	0x3d439f6c	0.04775946
13	0xbc4a8f76	-0.012363305
14	0xbaa9a57b	-0.0012942994
15	0xbf2aa4a1	-0.66657454
16	0xbdc482cd	-0.09595261
17	0x3d29d1cc	0.041459844
18	0xbed16de0	-0.4090414
19	0xbb869b19	-0.0041078446
20	0xbed6962d	-0.4191145
21	0x3e475eaa	0.19469705
22	0x3f1d9374	0.6155312
23	0x3f7f3d00	0.99702454
24	0xbc99357a	-0.018702257
25	0xbd085d36	-0.033292018
26	0xbdaf6229	-0.085636444
27	0x3ead3439	0.33828905
28	0xbc69839c	-0.0142525695
29	0xbf9d8b3a	-1.2308114
