colagnn-master-Run-Epi/src/save/cola_gnn_epi.us_hhs.w-20.h-4.RNN.lam-1.0.epo-500.pt (torch, 49334 bytes, 32 tensors)

V f4 [15]
000000 8f 97 8d bd 55 a6 f4 3d f3 1c 04 bf c6 8d da bf
       -0.06913673 0.11945788 -0.51606673 -1.7074516
000010 ff 79 27 3e 24 14 f5 3e 26 a6 b8 be af f7 1a 3b
       0.16355132 0.4786693 -0.3606426 0.0023646166
000020 f9 6a e9 be 28 57 91 bf 28 e8 08 3e 81 ae 47 be
       -0.45589426 -1.1354723 0.1336981 -0.19500162
000030 d8 f3 61 3f bb 20 6f bf e8 26 3d bb
       0.882627 -0.9340932 -0.0028862301

W1 f4 [15, 30]
000000 76 e8 e6 bc 5b 28 e7 bc 3e 35 52 3c 02 84 c9 bc
       -0.028187018 -0.028217485 0.012830077 -0.024599079
000010 aa 49 03 3d e1 b9 88 3c ac 46 55 3c aa cc 5b 3c
       0.032052673 0.016690196 0.013017338 0.013415495
000020 d8 61 bc 3b 40 54 b4 3a 60 3d e5 bc 29 e1 06 bd
       0.0057489686 0.0013758019 -0.027983367 -0.032929573
000030 7e 33 04 bd 5c 78 24 3c ab 40 e5 3c 99 7f ef bc
       -0.03227567 0.010038462 0.027984938 -0.029235648
000040 05 df ee bc 17 2c e8 bc 32 a3 e9 3c 8a 79 70 bc
       -0.029159078 -0.028341336 0.0285202 -0.014677415
000050 5b df c0 3c f1 4a 01 3d 69 92 9b bc 44 16 f5 bc
       0.023544004 0.03156561 -0.018990712 -0.029917844
000060 c5 cc ef 3c ce da 05 bd 61 ce fb 3c 03 14 f5 bc
       0.029272446 -0.03267937 0.030738058 -0.029916769
000070 d7 cd 05 3d 2d 4b fe 3c f3 77 46 be 92 df 4a be
       0.032667007 0.031041706 -0.19381694 -0.19811848
000080 07 a3 45 3e 39 ea 4d be 10 b6 41 3e b6 34 48 3e
       0.19300471 -0.2010888 0.18917108 0.19551358
000090 e2 27 45 3e f4 40 45 3e e4 94 42 3e 20 29 3c 3e
       0.19253495 0.19263059 0.1900211 0.18375063
0000a0 6d 09 46 be 42 3e 4d be 9b 70 4e be a6 98 45 3e
       -0.19339533 -0.2004328 -0.20160143 0.19296512
0000b0 1b f5 4d 3e 8d 10 46 be 7e ab 5d be 6d ff 51 be
       0.20113032 -0.19342251 -0.2164745 -0.20507593
0000c0 6d da 4e 3e af d4 39 be 04 68 33 3e 42 df 49 3e
       0.2020051 -0.18147539 0.17520148 0.19714072
0000d0 e6 bf 4b be db bb 47 be d1 bd 47 3e a4 df 4a be
       -0.19897422 -0.19505255 0.19506003 -0.19811875
0000e0 ea c8 48 3e a1 96 46 be 16 91 44 3e 9f d5 3f 3e
       0.19607893 -0.19393398 0.19195971 0.18733834
0000f0 61 c1 7d be 32 c4 80 be 41 50 3d 3e ab f0 7a be
       -0.247808 -0.25149685 0.18487646 -0.2450587
000100 3f 42 28 3e 10 e9 1b 3e 9a 66 13 3e 60 13 26 be
       0.16431521 0.15225625 0.14394608 -0.16218328
000110 7e d7 19 3e d2 cf eb 3d db 37 7c be 69 f2 90 be
       0.1502361 0.11514248 -0.24630682 -0.28309944
000120 d7 00 96 be d5 0e 38 3e 6e 2c 80 3e 6d e8 22 be
       -0.29297516 0.17974408 0.25033897 -0.15908976
000130 a8 7b 6d 3e 02 35 8f be f4 93 85 3e 83 62 1b be
       0.23191702 -0.2797013 0.26089442 -0.15174298
000140 2b 40 16 3e e5 77 28 3e f4 51 5f be 39 75 b4 3c
       0.14672916 0.16451986 -0.21808606 0.022028552
000150 b0 21 2e 3e 26 63 89 be f3 be 7d 3e 30 d3 1f be
       0.17005038 -0.26833457 0.24779873 -0.15607905
000160 8b 96 2e 3e 19 5b 31 3e b7 33 a1 3e 80 68 ae 3e
       0.17049615 0.17319907 0.31484768 0.34064102
000170 a2 11 a8 be 1f 79 cf 3e fa 47 8c be 36 2f bb be
       -0.32825953 0.40522096 -0.27398664 -0.36559457
000180 2a 7a 8e be 50 84 18 bd e9 55 d2 be 72 9a ca be
       -0.2782758 -0.037235558 -0.4108117 -0.39570957
000190 9d 08 9a 3e d3 60 a4 3e f9 95 a2 3e 40 79 d2 be
       0.30084696 0.3210512 0.31755045 -0.4110813
0001a0 7e 58 d5 be ee 9a 9a 3e a6 34 f2 3d 5e c8 b8 3e
       -0.41669077 0.30196327 0.11826448 0.36090368
0001b0 6a 8b d7 be 71 d0 9b 3e 0b 64 8f be d9 c3 b7 be
       -0.42098552 0.30432466 -0.28006014 -0.35891607
0001c0 00 77 d0 3e ec 31 27 3e 7f 9a ba be 1a 72 ab 3e
       0.4071579 0.16327637 -0.36445996 0.3348549
0001d0 bc d5 ae be 66 58 b1 3e 08 b9 b7 be e8 1a 8a be
       -0.3414744 0.34637755 -0.35883355 -0.26973653
0001e0 5c e3 3a bd cb 47 23 bd da 2c 04 3d 61 58 9d bd
       -0.045626983 -0.03986339 0.032269336 -0.076828726
0001f0 49 c4 00 bc 67 9a 4c 3d a8 8f c2 ba d9 ef 2f bb
       -0.007859298 0.049951937 -0.0014843838 -0.0026845841
000200 54 86 ab 3d 73 1d 8e 3d cc d5 2c bd 75 ee 44 bd
       0.083752304 0.06939211 -0.04219608 -0.048078973
000210 02 02 d5 bc 82 78 a1 3d e7 47 b0 3d 7a 6f f7 bc
       -0.026001934 0.07884313 0.08607464 -0.030204523
000220 a4 ee 63 bd 59 f8 aa bd ca ac a7 3d cd a3 21 bd
       -0.055647507 -0.0834815 0.08187254 -0.039462853
000230 1b 3a fc 3c 27 c7 4a 3d 8b bd ae bd f6 6a 01 bd
       0.030789426 0.049506333 -0.08532246 -0.031596147
000240 7f 8e 41 3d b9 6d 01 bd 85 8f 1d 3d 3b 5e 5b bd
       0.047255035 -0.03159878 0.03846695 -0.053556662
000250 e1 03 4f 3d 5d 61 28 3b b3 36 4f be 0f 9d 53 be
       0.05054081 0.0025692799 -0.2023571 -0.20665382
000260 6e fe 48 3e a3 0a 52 be 03 8e c9 3d 3a 99 23 3e
       0.19628307 -0.2051187 0.0984154 0.1597642
000270 db 25 35 3e eb db 10 3e b6 00 3e 3e 31 dd 01 3d
       0.17690222 0.14146392 0.18554959 0.031705085
000280 13 14 44 be ae d9 63 be 66 8e 6c be a2 18 48 3e
       -0.19148283 -0.22251007 -0.23101196 0.19540647
000290 73 bb 5c 3e 29 97 d7 bd 58 57 05 be e3 f3 5c be
       0.21555881 -0.105268784 -0.130216 -0.2157741
0002a0 be e2 57 3e 15 40 30 be f1 00 aa 3d b9 5d a0 3d
       0.21082589 -0.17211945 0.08300961 0.07830376
0002b0 81 af 4d be d1 30 37 be 28 86 cc 3d 3a c4 43 be
       -0.2008648 -0.17889716 0.09986526 -0.19117823
0002c0 d2 c1 37 3e c8 8f df bd 98 6c b2 3d 11 db 8b 3d
       0.1794503 -0.10916096 0.08712119 0.06828893
0002d0 d4 34 fa bd 87 f9 fb bd 4b ae d5 3d 23 48 f4 bd
       -0.122171074 -0.12303453 0.10433634 -0.119278215
0002e0 f7 c3 03 3e 28 32 e1 3d 12 72 d8 3d c8 fc b3 3d
       0.12867723 0.10995895 0.10568632 0.087884486
0002f0 b5 9e c3 3d 10 77 b3 3d 56 9b f9 bd 13 59 03 be
       0.09551755 0.08762944 -0.12187831 -0.12826948
000300 c0 1b 03 be ca ff cf 3d 1d 47 f8 3d 21 61 ff bd
       -0.12803555 0.1015621 0.12122939 -0.12469698
000310 45 4c 03 be fe 28 f4 bd ba 9e fd 3d b1 40 da bd
       -0.12822063 -0.11921881 0.1238379 -0.1065687
000320 3f 42 e1 3d 73 63 03 3e b8 99 e6 bd d7 eb fc bd
       0.109989636 0.12830906 -0.11259788 -0.123496704
000330 f4 18 00 3e 8f 6a 03 be c3 13 01 3e 14 4f 00 be
       0.12509519 -0.12833618 0.12605195 -0.12530166
000340 5d 54 04 3e 05 8c 02 3e 87 56 48 3b 76 51 46 3b
       0.12922807 0.12748726 0.0030569152 0.0030260957
000350 0a ff 11 bb 1f 0a 44 3b 8b 14 62 bb 86 6f 28 bb
       -0.002227726 0.002991326 -0.0034497108 -0.0025701239
000360 20 44 15 bb f1 7a 10 bb 46 22 cb ba f4 e7 74 ba
       -0.0022776201 -0.0022045935 -0.0015497885 -0.0009342425
000370 85 f8 4a 3b 06 05 3a 3b b6 21 33 3b ba d9 02 bb
       0.0030970883 0.0028384342 0.0027333326 -0.00199662
000380 6c 11 42 bb f3 57 5a 3b ba 79 81 3b b3 f4 62 3b
       -0.0029612435 0.0033316582 0.0039512785 0.0034630715
000390 4f af 47 bb ca 6c 1d 3b 63 98 40 bb 28 0c 65 bb
       -0.0030469482 0.0024021142 -0.0029387705 -0.0034949873
0003a0 da 3e 32 3b b0 d6 72 3b fa 9f 57 bb 7c 29 3a 3b
       0.0027198107 0.0037054233 -0.003290175 0.0028406074
0003b0 1a c5 45 bb 78 1a 5a 3b 9f 90 64 bb 85 6b 59 bb
       -0.0030177296 0.0033279937 -0.003487624 -0.003317566
0003c0 2e 80 3c 3c fb 9f 10 3c b6 91 1f bc b7 24 36 3c
       0.01150517 0.008827205 -0.00973933 0.011117152
0003d0 ba ef 49 bc 05 21 28 bc 4b b7 23 bc b3 ec 3f bb
       -0.012325222 -0.010261779 -0.009992431 -0.002928537
0003e0 27 69 19 bc fd e0 15 bc b3 41 34 3c 59 c6 4a 3c
       -0.009363449 -0.00914788 0.011001992 0.012376391
0003f0 af 17 4a 3c 34 c5 1f bc df 5e 41 bc 5c 36 40 3c
       0.012334748 -0.009751607 -0.011802404 0.01173171

b1 f4 [15]
000000 a6 ff 06 bd 68 4b 49 be 26 76 33 be 71 6c b4 3e
       -0.03295865 -0.19657671 -0.17525539 0.35238984
000010 3f 86 45 bd 02 6b e3 bd 46 20 05 be e3 f8 59 3b
       -0.04822373 -0.111043945 -0.13000593 0.003325992
000020 56 fb 4c 3c 4e e8 8f 3e f1 3f e5 bc 8f 30 41 3d
       0.012511095 0.28106922 -0.027984591 0.04716545
000030 72 eb e3 bd 2a 72 6c 3e 55 e1 ea bd
       -0.11128892 0.23090425 -0.1146876

W2 f4 [15, 30]
000000 05 d7 cd bc eb bf bd bc 95 5d 81 3c ce d4 c9 bc
       -0.025126943 -0.023162803 0.015791694 -0.024637606
000010 8c f1 02 3d d7 68 8a 3c 70 da 43 3c ea 2e 2f 3c
       0.03196864 0.016895695 0.011953935 0.0106923375
000020 8e 7d 01 3b 93 30 2a 3b b9 ac fc bc e8 dd 06 bd
       0.0019758674 0.0025968894 -0.03084408 -0.03292647
000030 fc e4 04 bd 4e 83 27 3c 5f f4 d6 3c a9 f8 f5 bc
       -0.03244494 0.010224177 0.026239572 -0.030025797
000040 84 32 be 3b 0c d9 f0 bc c7 d6 d9 3c 7d 46 7b bc
       0.005804362 -0.029400371 0.026591672 -0.01533663
000050 08 71 f8 3c 64 0a 00 3d 15 3d 72 bc 0a 0f eb bc
       0.030327335 0.03125991 -0.014785071 -0.028693695
000060 a9 b1 0f 3d 63 e5 04 bd 26 a7 f3 3c 1c 7d e0 bc
       0.03508154 -0.032445323 0.029742789 -0.027403407
000070 07 e5 04 3d 4a d5 ff 3c 60 d0 40 be f4 55 4b be
       0.03244498 0.031229634 -0.18829489 -0.19857007
000080 45 38 48 3e 18 d5 4c be 22 5b 3e 3e bd 22 45 3e
       0.19552715 -0.20003164 0.18589452 0.19251533
000090 2a 53 44 3e 78 66 47 3e aa 65 3d 3e 22 59 36 3e
       0.1917235 0.19472682 0.18495813 0.17807439
0000a0 58 ec 47 be 22 51 4d be 44 38 4d be 83 7c 40 3e
       -0.19523752 -0.20050481 -0.20040995 0.18797497
0000b0 76 fb 34 3e 6c 15 45 be 48 13 20 3e d1 43 56 be
       0.1767405 -0.19246453 0.15632355 -0.20924307
0000c0 24 4e 50 3e 9e a3 3b be d2 7c 82 3e 74 47 49 3e
       0.20342308 -0.18324134 0.25485855 0.19656163
0000d0 e3 a1 48 be 97 ed 48 be ea 77 3e 3e bc 58 4b be
       -0.19593005 -0.19621883 0.18600431 -0.19858068
0000e0 61 36 4b 3e 17 b3 3c be 67 90 45 3e a1 14 46 3e
       0.19844963 -0.18427692 0.19293366 0.19343807
0000f0 3f 78 63 be ae 0b 83 be b2 e9 52 3e a8 69 8b be
       -0.22213839 -0.25594848 0.2059696 -0.27229047
000100 d3 30 0d 3e df fb 21 3e 96 47 18 3e 26 d7 06 3d
       0.13788156 0.15818737 0.14871058 0.032920025
000110 86 82 eb 3d 90 30 fd 3d b3 17 88 be 61 4c 8f be
       0.11499505 0.12362778 -0.2658058 -0.2798796
000120 13 9b 8f be c0 f7 39 3e 6d 42 8e 3e f8 cd 28 be
       -0.28048 0.18160915 0.27785054 -0.16484821
000130 a3 bb 66 3e c0 29 b1 be 72 42 82 3e d0 3b 0e be
       0.22532515 -0.34602165 0.2544132 -0.13890004
000140 48 57 09 3e fa e7 43 3e 27 59 4d be 94 1e ee 3a
       0.13412201 0.19131461 -0.2005354 0.0018167072
000150 a4 e2 24 3e 07 1f 84 be dd 3f 85 3e 8f 86 2e be
       0.16102082 -0.25804922 0.26025286 -0.17043518
000160 04 6d 3a 3e 47 64 46 3e 1a 7d 98 3e cb 3b 08 3f
       0.18205649 0.1937419 0.29782945 0.53216237
000170 0e 31 aa be d9 15 cf 3e 3d f8 8c be 37 08 b1 be
       -0.3324055 0.40446356 -0.2753314 -0.3457658
000180 a0 de 7d be 31 19 b6 be fe 7b c0 be ef e5 b7 be
       -0.24791956 -0.35566095 -0.375946 -0.35917613
000190 e3 fd 92 3e 90 02 a2 3e 47 f1 9d 3e 8c 13 c3 be
       0.28709325 0.3164258 0.30848143 -0.3810085
0001a0 fe df 72 be cc 3a 94 3e 38 76 22 bf 11 67 02 3f
       -0.23718259 0.28951108 -0.6346164 0.50938517
0001b0 f1 f2 d2 be 9d cf 98 3e f6 53 05 bf b1 11 b5 be
       -0.41200975 0.29845896 -0.5208124 -0.3536506
0001c0 d4 42 d4 3e 8e 69 2c 3e d8 34 74 3e 58 18 a2 3e
       0.41457236 0.16837141 0.23848283 0.31659198
0001d0 13 22 a7 be d5 1a ab 3e 03 6e b7 be 3a 1f 75 be
       -0.32643184 0.3341891 -0.3582612 -0.23937693
0001e0 34 44 36 bd df 3a 1d bd 93 84 0f 3d a4 fa 9c bd
       -0.044498637 -0.038386222 0.035038542 -0.076649934
0001f0 b7 1e 6c 3a 6a 66 4b 3d 1f 17 8c 3c 6f 06 33 3c
       0.00090072624 0.049658217 0.017100869 0.010926827
000200 d0 f9 9f 3d cf c5 97 3d 25 59 2d bd 24 09 43 bd
       0.0781132 0.07410776 -0.042321343 -0.04761614
000210 a3 e8 1e bd 67 54 b2 3d 07 19 ac 3d 63 ef fc bc
       -0.03879608 0.08707505 0.08403211 -0.030875867
000220 40 54 39 3d d5 7f ca bd a5 08 b0 3d 19 35 0f bd
       0.045246363 -0.09887663 0.08595399 -0.034962747
000230 f4 d9 55 3d d8 cf 5e 3d 01 ee ad bd 39 06 03 bd
       0.05220981 0.054397434 -0.08492661 -0.031988356
000240 ed 5f 24 3d 12 1c 11 bd 73 f2 27 3d b9 30 2a bd
       0.040130544 -0.03542716 0.041002702 -0.04155037
000250 62 51 4f 3d 1e 7a 28 3c 48 d0 49 be aa 00 72 be
       0.050614722 0.010283021 -0.19708359 -0.23633066
000260 70 e5 4e 3e 57 91 7d be 34 00 38 3d ba 1e 35 3e
       0.20204711 -0.24762474 0.04492207 0.17687503
000270 40 bc 36 3e 91 ec 30 3e 44 e7 c5 3d a3 b0 c4 3d
       0.17845249 0.17277743 0.09663251 0.09604003
000280 59 79 38 be b5 28 59 be 57 e6 79 be d5 47 4a 3e
       -0.1801504 -0.21206935 -0.24404274 0.19753964
000290 87 fe 7d 3e e2 11 a5 bd 61 8d b2 3c ef 6a 89 be
       0.24804126 -0.080600515 0.02179593 -0.26839396
0002a0 9c d0 49 3e 8f 8d 28 be 5c 60 05 3e 8f 76 ec 3d
       0.19708484 -0.1646025 0.1302504 0.11546051
0002b0 32 ec 45 be dc 00 44 be 96 6f 98 3d ea a7 7f be
       -0.19328383 -0.19140953 0.07443158 -0.24966398
0002c0 72 8a 70 3e 25 1c b1 bd 79 df e9 3d ed 5b a8 3d
       0.23490313 -0.08647946 0.11419577 0.082206585
0002d0 de ac f1 bd 33 59 fa bd 8f 21 de 3d 0d 5b f4 bd
       -0.1180055 -0.12224045 0.108462445 -0.11931429
0002e0 c9 91 03 3e 61 38 df 3d fa a2 d5 3d a1 07 9d 3d
       0.12848581 0.10899425 0.10431476 0.07667471
0002f0 55 36 b6 3d dc 03 b2 3d 95 0d 00 be 82 af 03 be
       0.08897082 0.08692142 -0.12505181 -0.1285992
000300 4d 96 03 be d7 7e cc 3d 80 2a e4 3d e5 e8 00 be
       -0.12850304 0.0998513 0.11140919 -0.12588842
000310 27 00 42 3d 36 cd fa bd 61 3c f9 3d 66 30 dc bd
       0.047363427 -0.12246172 0.121697195 -0.10751419
000320 6c 85 16 3e 7c eb 02 3e e6 54 dc bd 25 3b fb bd
       0.14699334 0.12785143 -0.107583806 -0.1226714
000330 dd 5d f7 3d ba 21 03 be 84 15 00 3e 47 44 f4 bd
       0.1207845 -0.12805834 0.12508208 -0.11927085
000340 d0 0c 03 3e 0e bc 02 3e 69 de 43 3b e2 66 16 3b
       0.12797856 0.1276705 0.0029887205 0.0022949507
000350 bf 19 22 bb 8f 8e 44 3b 66 ee 69 bb 58 9a 27 bb
       -0.0024734584 0.0029992198 -0.0035695075 -0.0025574174
000360 9b c9 0e bb 23 70 f9 ba bc c4 87 ba 1d 12 94 ba
       -0.0021787647 -0.0019030612 -0.0010358314 -0.0011296902
000370 e8 a3 4b 3b 9e 97 35 3b 9a 14 30 3b 87 38 03 bb
       0.0031073038 0.002770878 0.0026867748 -0.0020022707
000380 58 3a 2e bb e4 ec 5c 3b 92 f9 d4 ba 31 52 5f 3b
       -0.0026585069 0.0033710534 -0.0016248694 0.003407609
000390 4b 7e 47 bb 6c 1e 21 3b 49 bb 80 bb d8 73 61 bb
       -0.0030440267 0.0024584783 -0.003928576 -0.0034401324
0003a0 eb eb 1d 3b b2 2c 66 3b 4c 9a 98 bb 45 69 34 3b
       0.0024096917 0.0035121855 -0.0046570655 0.0027528566
0003b0 c6 86 44 bb 8d 15 54 3b fb 84 50 bb ed 9f 5f bb
       -0.0029987558 0.0032361478 -0.0031817544 -0.0034122423
0003c0 a2 cf d8 3b 95 f3 64 3e 9c 5a 6b bc 8a 4a 36 3c
       0.0066165486 0.22358544 -0.014364865 0.01112617
0003d0 e9 a0 49 bc 3e e6 17 bc 6f 1d 22 bc 1c fa 3f bb
       -0.01230643 -0.009271203 -0.009894713 -0.0029293364
0003e0 0d 55 f5 bb 8b eb 75 3c b6 6c 95 3b fd c2 4a 3c
       -0.0074869455 0.015009771 0.0045600785 0.01237559
0003f0 04 b1 4a 3c f8 31 f5 39 ff be d0 3c 38 35 54 3c
       0.012371305 0.0004676727 0.025481699 0.012952141

Wb f4 [10, 10]
000000 d5 87 b7 bf ba 9a c7 bf dc 80 45 3d 3a e2 55 3f
       -1.4338328 -1.5594094 0.048218593 0.8354832
000010 34 3e 13 3f 34 37 3a 3f 51 77 7b 3e 94 91 69 3f
       0.5751679 0.72740483 0.24557234 0.9123776
000020 0d 14 1f bf f9 a6 f8 be 67 8f b7 bf ec a4 c7 bf
       -0.6213997 -0.4856489 -1.4340638 -1.5597205
000030 15 45 56 3d fe 0a 56 3f 71 f7 12 3f 09 ea 38 3f
       0.052311976 0.8361052 0.57408816 0.7223211
000040 fa fe 7b 3e 52 82 63 3f f9 1b 1d bf fc ab f6 be
       0.24608985 0.8887073 -0.6137081 -0.4817809
000050 f8 82 b7 bf ed 9e c7 bf dc 05 4c 3d 14 10 56 3f
       -1.4336843 -1.5595375 0.049810275 0.83618283
000060 6c 08 13 3f 93 c5 39 3f 6b 81 7a 3e b0 07 6b 3f
       0.57434726 0.725671 0.24463432 0.91808605
000070 5f 32 1a bf 5e 5d f7 be f4 85 b7 bf c8 98 c7 bf
       -0.6023311 -0.4831342 -1.4337754 -1.55935
000080 b0 07 47 3d bb ff 55 3f 16 e2 12 3f 61 7f 39 3f
       0.048591316 0.8359334 0.5737623 0.7245999
000090 4e e8 77 3e a5 4a 66 3f d9 8c 19 bf e6 9e f2 be
       0.24209711 0.8995765 -0.5998054 -0.47386855
0000a0 4f 83 b7 bf 04 9f c7 bf 0c c6 44 3d 28 04 56 3f
       -1.4336947 -1.5595403 0.048040435 0.8360009
0000b0 f7 d2 12 3f cf 71 3a 3f dd 85 7c 3e c0 b7 6c 3f
       0.57353157 0.7282991 0.2466044 0.9246788
0000c0 77 d2 1e bf 54 5c f9 be 6d 85 b7 bf 40 97 c7 bf
       -0.62039894 -0.48703253 -1.4337593 -1.5593033
0000d0 30 14 42 3d 6c 1b 56 3f 9a be 12 3f a2 f3 38 3f
       0.047382534 0.8363559 0.57322085 0.72246754
0000e0 ac 44 7a 3e 8e e7 6a 3f 2a d8 1c bf 33 35 f9 be
       0.24440259 0.91759574 -0.6126734 -0.486734
0000f0 2b 8d b7 bf f6 a6 c7 bf cf 9a 44 3d be 35 56 3f
       -1.4339956 -1.5597827 0.0479992 0.83675754
000100 da dd 12 3f cf 35 39 3f b6 88 7a 3e 6c 18 69 3f
       0.5736977 0.7234773 0.24466214 0.9105289
000110 92 9c 1b bf 27 cd fa be f8 88 b7 bf 9a 9f c7 bf
       -0.6078578 -0.48984644 -1.4338675 -1.5595582
000120 0e 72 48 3d b0 e9 55 3f b1 e2 12 3f 4e 2a 3a 3f
       0.048936896 0.83559704 0.57377154 0.727208
000130 dc 43 79 3e 70 e5 66 3f 2f 14 1a bf 82 59 fb be
       0.24342293 0.90193844 -0.6018705 -0.49091727
000140 bc 95 b7 bf 16 96 c7 bf e4 87 4d 3d a7 d5 55 3f
       -1.434257 -1.5592678 0.050178424 0.8352913
000150 26 30 13 3f c4 87 39 3f 14 38 79 3e 85 cc 65 3f
       0.57495344 0.72472787 0.24337798 0.897652
000160 74 83 1f bf 0e c3 f7 be 30 8a b7 bf 2a 9c c7 bf
       -0.62309957 -0.48391002 -1.4339046 -1.5594532
000170 8b 34 46 3d 8c 2f 56 3f f2 0e 13 3f 2c 1e 39 3f
       0.048389953 0.836663 0.5744468 0.72311664
000180 22 8e 78 3e d7 aa 69 3f 0b 05 21 bf c4 fb f7 be
       0.2427297 0.91276306 -0.6289832 -0.4843427

conv.weight f4 [10, 1, 20]
000000 9c 06 a0 b3 6b 86 8f b3 c5 ff c5 b3 9c 0a 88 b4
       -7.451783e-08 -6.683407e-08 -9.2200516e-08 -2.5339693e-07
000010 bd a4 84 b4 f2 9f d4 b4 34 8d 10 b4 63 90 67 b3
       -2.470678e-07 -3.9604453e-07 -1.3462414e-07 -5.3915198e-08
000020 12 f8 ad b3 dd a7 16 b3 2e fd c9 b2 9f f3 14 b2
       -8.101064e-08 -3.5077267e-08 -2.3514612e-08 -8.670127e-09
000030 de af 6f b2 3c 5a 15 b2 1f 7e c3 b1 c9 d5 7c b1
       -1.39516185e-08 -8.693458e-09 -5.6895852e-09 -3.679235e-09
000040 6a fb 68 b1 7a 7b 92 b0 6c 65 93 b0 7e 8b 3c b1
       -3.3903356e-09 -1.0657992e-09 -1.0724484e-09 -2.7436893e-09
000050 cc d8 88 12 b1 8c 07 94 14 4f cb 13 f4 d8 0e 94
       8.636251e-28 -6.843505e-27 5.132238e-27 -7.211954e-27
000060 3d 35 7c 94 74 fa 3b 94 4c 64 3e 94 6a ab 8a 94
       -1.2733248e-26 -9.4904805e-27 -9.612329e-27 -1.400205e-26
000070 96 b9 8c 94 b7 43 75 94 a6 2e 93 94 b0 f9 7c 93
       -1.4209588e-26 -1.23826934e-26 -1.4861606e-26 -3.1929977e-27
000080 c6 1a 7e 93 58 23 db 92 54 fb 49 14 83 90 36 14
       -3.2072508e-27 -1.3829556e-27 1.01974724e-26 9.217152e-27
000090 6e 98 4c 94 64 cf 66 94 94 fa 9c 14 0f 3d e9 93
       -1.03294294e-26 -1.1652933e-26 1.585081e-26 -5.8877678e-27
0000a0 39 e8 38 a5 7e 89 7f a5 72 e8 16 a5 0e 3c 19 27
       -1.6038136e-16 -2.2164308e-16 -1.3089182e-16 2.126557e-15
0000b0 ee 2d 84 26 51 88 2f 27 91 12 7f 25 23 59 4d a5
       9.171789e-16 2.4360026e-15 2.2124015e-16 -1.7811116e-16
0000c0 3e 99 fb a4 53 bf 23 a3 54 84 28 23 6e 21 73 22
       -1.091135e-16 -8.876762e-18 9.13532e-18 3.2950339e-18
0000d0 46 34 4a 22 b2 90 72 22 af d3 ec 20 80 d3 24 a1
       2.7403778e-18 3.2873717e-18 4.0120036e-19 -5.584528e-19
0000e0 2c 18 42 a1 48 50 2f 1f 72 4f 9b 1e f7 a9 0a a0
       -6.576175e-19 3.71241e-20 1.6444121e-20 -1.1745291e-19
0000f0 69 2b d1 93 ee dc 3e 13 20 81 0d 94 3c 88 f0 13
       -5.2801823e-27 2.4090298e-27 -7.144146e-27 6.0718855e-27
000100 d6 a4 36 14 da 1a 2e 14 7c 30 a7 13 13 a9 7c 14
       9.22116e-27 8.7900506e-27 4.2204536e-27 1.2756093e-26
000110 2a a2 45 94 0c d9 e0 13 43 aa 25 94 6a 36 63 14
       -9.9779395e-27 5.6759574e-27 -8.363949e-27 1.14713025e-26
000120 05 d3 9b 94 56 59 01 94 50 a9 4c 92 4c ec 5d 14
       -1.5734233e-26 -6.530454e-27 -6.4579744e-28 1.120425e-26
000130 e0 ef 73 12 1c 67 91 94 1f ca 56 94 9f 1f 76 14
       7.697295e-28 -1.4681928e-26 -1.08441e-26 1.2426062e-26
000140 ed ed 76 94 7e 66 56 94 82 4b 60 14 bc 57 61 14
       -1.2466749e-26 -1.0824452e-26 1.1324001e-26 1.13768996e-26
000150 22 e3 60 14 71 e3 d1 94 2a 07 11 94 d2 7d b8 95
       1.1353904e-26 -2.1193317e-26 -7.322042e-27 -7.451552e-26
000160 9e 41 6f 14 5e 79 25 17 42 33 bb 97 9d 64 7a 98
       1.2079357e-26 5.346756e-25 -1.2097531e-24 -3.236254e-24
000170 62 a7 a9 19 4a c8 34 1b 0c a5 19 9c 60 d3 f2 1c
       1.7541796e-23 1.4953968e-22 -5.083677e-22 1.6068856e-21
000180 50 8a bc 9d 20 25 16 1d f9 9b 74 9e aa b8 0f 9d
       -4.9906197e-21 1.9871528e-21 -1.2949507e-20 -1.9021361e-21
000190 5f c3 ce 92 c3 62 5b 13 25 9b 7d 93 97 75 4b 93
       -1.304859e-27 2.769038e-27 -3.2009582e-27 -2.5680178e-27
0001a0 58 37 c8 12 85 33 a1 13 c9 e9 94 13 32 26 0c 13
       1.2635418e-27 4.0692916e-27 3.7590982e-27 1.7689316e-27
0001b0 e7 78 be 93 0f 93 a2 13 a8 b3 68 93 08 a3 d4 11
       -4.8081962e-27 4.103956e-27 -2.9371094e-27 3.3548178e-28
0001c0 be 14 22 13 8e 40 77 13 1e f5 8b 13 b0 02 ce 12
       2.0457501e-27 3.120761e-27 3.5330237e-27 1.300109e-27
0001d0 66 17 46 93 82 13 e8 92 79 93 67 13 5c 95 2e 13
       -2.500265e-27 -1.4646067e-27 2.9229009e-27 2.2035527e-27
0001e0 91 69 31 93 07 15 0a 13 42 fb 25 93 d2 d4 80 12
       -2.239259e-27 1.7428416e-27 -2.0949808e-27 8.1304e-28
0001f0 7a 52 0b 12 32 fe 10 13 e9 e9 13 93 e0 e0 a9 92
       4.3962327e-28 1.8300683e-27 -1.8669335e-27 -1.0720835e-27
000200 58 42 9b 92 e0 68 30 10 cf 29 06 93 e6 8f 3b 13
       -9.79823e-28 3.4790673e-29 -1.6933791e-27 2.3673666e-27
000210 38 b7 6c 91 dd b3 09 13 2d 07 3b 13 c6 c1 19 93
       -1.8673576e-28 1.738051e-27 2.3606256e-27 -1.9406853e-27
000220 9f f6 01 93 04 9d c7 12 18 19 29 13 a4 60 3b 93
       -1.6403683e-27 1.2597373e-27 2.1343171e-27 -2.3650366e-27
000230 29 1d 20 b1 19 41 2b b1 b3 a9 83 b1 50 64 f8 b1
       -2.329964e-09 -2.4920779e-09 -3.8318944e-09 -7.229154e-09
000240 2e d6 41 b2 e1 e4 05 b2 55 79 1d b2 1e f0 49 b1
       -1.1282777e-08 -7.79366e-09 -9.1661905e-09 -2.938584e-09
000250 25 15 a9 b0 00 4e 98 b0 f8 00 a7 af d2 99 ba af
       -1.2302378e-09 -1.1081625e-09 -3.037781e-10 -3.39425e-10
000260 5b 2d 18 af c9 34 31 af f8 64 02 af 1b 12 45 ae
       -1.3840433e-10 -1.6116809e-10 -1.1859302e-10 -4.4808695e-11
000270 c0 04 c0 ae 04 43 33 ad c7 76 27 ad 22 8e 87 ad
       -8.731993e-11 -1.01898524e-11 -9.519225e-12 -1.5410843e-11
000280 8a 72 6f b1 6d 96 23 b1 d3 1f 80 b1 99 60 2f b2
       -3.4844185e-09 -2.380513e-09 -3.7289083e-09 -1.0208304e-08
000290 e2 9a d7 b1 72 08 91 b2 a7 98 28 b2 1d bc 00 b1
       -6.2749317e-09 -1.6884062e-08 -9.813596e-09 -1.8733382e-09
0002a0 c7 dc d9 b0 94 a9 86 b0 ae ae 23 b0 20 c0 0f b0
       -1.5851577e-09 -9.79798e-10 -5.954729e-10 -5.2296123e-10
0002b0 c4 bc 03 b0 3a 5e 8d af 56 7b c5 af ae 22 f4 ae
       -4.7925774e-10 -2.5714703e-10 -3.5921727e-10 -1.1101996e-10
0002c0 d6 80 b4 ae 50 b4 7c ad 28 6a 0e ae 23 17 73 ae
       -8.208338e-11 -1.4364579e-11 -3.2381348e-11 -5.5272353e-11
0002d0 4a 75 02 b0 e8 56 bd af 58 1a 31 b0 5f 9a 09 b1
       -4.74604e-10 -3.444065e-10 -6.442966e-10 -2.0023874e-09
0002e0 cc 37 c1 b0 7e e0 b6 b0 09 9d 48 b0 6d 17 2c af
       -1.4058457e-09 -1.3306047e-09 -7.2982737e-10 -1.5651631e-10
0002f0 c3 8a f8 ae 64 e5 e9 ae 36 b1 1c ae 0a 67 b6 ad
       -1.1302383e-10 -1.0636361e-10 -3.562769e-11 -2.0736763e-11
000300 23 a8 35 ad a0 73 60 ad 41 b5 c1 ac 8d ca 35 ac
       -1.0325993e-11 -1.27586e-11 -5.505513e-12 -2.5834085e-12
000310 e2 82 09 ac ab b5 e4 a9 89 87 f2 a9 7e 3f df aa
       -1.9541526e-12 -1.01567484e-13 -1.07704705e-13 -3.9656814e-13

conv.bias f4 [10]
000000 d7 ed 83 bc 64 ff b9 15 ac 52 0a b9 c1 66 81 94
       -0.016104622 7.512384e-26 -0.00013191503 -1.30662e-26
000010 1a 0f 52 b7 74 0f 9d 95 78 1e 4b 9a 47 f9 7b bb
       -1.25204915e-05 -6.3436176e-26 -4.200403e-23 -0.0038448141
000020 97 b9 9d bb bc c6 10 bb
       -0.004813384 -0.0022091111

conv_long.weight f4 [10, 1, 10]
000000 b9 44 b7 14 b9 e9 c9 94 79 df e5 94 aa 58 af 14
       1.8505384e-26 -2.0388e-26 -2.3211235e-26 1.7705456e-26
000010 4a e0 17 14 ee da 9e 14 23 19 8e 94 3c 3b 3d 95
       7.667785e-27 1.6040275e-26 -1.434825e-26 -3.8214974e-26
000020 a2 39 42 15 9c e6 01 97 c7 ea d0 95 40 ad f7 95
       3.9223452e-26 -4.197322e-25 -8.4380944e-26 -1.00035846e-25
000030 4a de 4d 96 94 13 83 16 8c 9a 3a 16 44 c6 17 96
       -1.662991e-25 2.1176547e-25 1.5073727e-25 -1.2260244e-25
000040 27 41 72 96 66 5b 59 95 af 4d 1d 96 c0 54 6a 95
       -1.9569163e-25 -4.3894902e-26 -1.2706872e-25 -4.732278e-26
000050 74 de 2e b9 9d b4 16 ba 52 a1 d0 b9 d5 52 e7 b9
       -0.00016676803 -0.00057489594 -0.00039793045 -0.00044121468
000060 8e 36 cc b9 0b 71 1f b9 d7 57 f2 b8 15 59 05 b9
       -0.00038950559 -0.00015205533 -0.00011555821 -0.00012717054
000070 de 75 90 b8 57 3f 3e b8 81 5d 0d 13 05 e5 e3 92
       -6.8884096e-05 -4.535852e-05 1.7842803e-27 -1.4382172e-27
000080 f0 93 55 92 53 9a 00 13 d7 98 41 13 e0 b7 2f 92
       -6.7393296e-28 1.623196e-27 2.443538e-27 -5.5446907e-28
000090 cd 69 24 93 ad a1 16 13 b6 2d d9 92 6e 9b f0 91
       -2.0751874e-27 1.9012374e-27 -1.3705894e-27 -3.7961114e-28
0000a0 80 0c 2d a5 f7 b3 38 a5 03 e3 27 a5 d1 2b 39 22
       -1.5009593e-16 -1.602043e-16 -1.4561856e-16 2.5095371e-18
0000b0 f3 42 4a 9e 81 10 16 9a 74 fc 1a 98 e0 e5 d7 95
       -1.0707636e-20 -3.1032605e-23 -2.003149e-24 -8.720049e-26
0000c0 1c cc a3 15 45 a4 3b 14 4a d1 33 b4 f1 6c d0 b4
       6.6157204e-26 9.473484e-27 -1.6746813e-07 -3.8822284e-07
0000d0 09 46 e9 b5 1a 9b 69 b5 c1 3d 3a b4 b7 d5 ef b2
       -1.7380236e-06 -8.7024966e-07 -1.7345066e-07 -2.7920448e-08
0000e0 f8 df e6 b3 a0 3a 27 b3 e4 d0 ac b2 68 d6 e9 b1
       -1.0750949e-07 -3.8936037e-08 -2.0118428e-08 -6.8055677e-09
0000f0 40 90 99 10 81 36 8a 93 03 65 45 13 b2 a1 83 13
       6.057011e-29 -3.4889843e-27 2.4914698e-27 3.3228493e-27
000100 de 61 d6 92 90 8b 00 13 7b 4f ba 92 76 da 85 92
       -1.3529425e-27 1.6224681e-27 -1.1757844e-27 -8.447335e-28
000110 43 fd 7d 13 f0 92 69 13 9c c8 40 14 7c df 1f 94
       3.2057957e-27 2.948118e-27 9.733086e-27 -8.071523e-27
000120 7b ff 99 14 7d 16 b4 94 8b 63 ea 13 b2 62 08 94
       1.5549821e-26 -1.8184225e-26 5.916806e-27 -6.8857095e-27
000130 12 21 ab 94 bb c8 bf 14 bc e9 03 15 59 08 ff 14
       -1.7279631e-26 1.9365246e-26 2.6639623e-26 2.5751713e-26
000140 f2 82 df ba 83 80 86 ba f7 70 2f bb 61 92 78 ba
       -0.0017052575 -0.0010261688 -0.0026770213 -0.00094822614
000150 92 45 04 bb c7 79 b5 ba 8b 93 3b ba 4a de 6b ba
       -0.0020183069 -0.0013845497 -0.00071554695 -0.0008997662
000160 44 8b 03 ba 50 46 79 b9 13 64 5c b8 21 20 15 b8
       -0.00050180056 -0.00023772684 -5.254529e-05 -3.555429e-05
000170 c0 23 15 b9 03 5e d6 b8 2a 76 64 b8 9f 27 0d b8
       -0.00014223065 -0.00010221826 -5.4469485e-05 -3.365392e-05
000180 23 83 0f b8 53 5d a9 b7 c8 e3 b9 b6 6a df 69 b7
       -3.4215987e-05 -2.0189827e-05 -5.539947e-06 -1.39399e-05

conv_long.bias f4 [10]
000000 ee 15 98 b9 de 4a 33 b4 50 bd fd bc 56 8d d9 9c
       -0.00029008038 -1.669791e-07 -0.03097406 -1.439639e-21
000010 da 5d c8 b8 93 25 f4 bb 91 1a f2 9b 8c 01 a7 18
       -9.5542244e-05 -0.0074507683 -4.005271e-22 4.317005e-24
000020 6a 4a e4 bc 6f 5f 93 bc
       -0.027867515 -0.017989842

conv1.weight f4 [30, 30]
000000 a5 0a 4c 93 95 da 84 11 76 1e c4 91 47 6c 12 93
       -2.5753668e-27 2.096064e-28 -3.094212e-28 -1.8481176e-27
000010 80 f4 ef 90 f9 9a 81 b7 1e 4a 4a 93 61 7a 92 ab
       -9.464559e-29 -1.5450163e-05 -2.5532527e-27 -1.0407891e-12
000020 22 a8 0a 13 4d 38 58 b7 54 78 8a 92 00 f6 d9 12
       1.7500945e-27 -1.2887712e-05 -8.738688e-28 1.3755269e-27
000030 fa 06 8d b5 73 ed 5f a1 88 7b 5c 22 4f 63 c2 b8
       -1.0507349e-06 -7.58696e-19 2.9880957e-18 -9.2691385e-05
000040 a7 23 36 99 9f f7 82 ba 04 e8 b5 92 09 78 60 12
       -9.4163794e-24 -0.000999201 -1.1479902e-27 7.082989e-28
000050 04 e2 03 1c 07 9e ad 12 4b 8c cd 12 53 ef 52 b9
       4.363638e-22 1.0956792e-27 1.2971904e-27 -0.00020116316
000060 f8 c7 b3 ae 68 57 be 11 b9 5e 52 ba 7a 08 ac 12
       -8.175499e-11 3.0030583e-28 -0.0008024979 1.0856816e-27
000070 04 61 21 b7 93 6d 10 b8 52 3a 37 11 73 00 61 92
       -9.618936e-06 -3.4434324e-05 1.4454126e-28 -7.0998035e-28
000080 20 09 40 10 0c 2e 95 12 c0 0a 20 92 c6 f3 af 92
       3.7872353e-29 9.414573e-28 -5.050035e-28 -1.1104147e-27
000090 0e 84 b5 11 1c 9d 89 92 a2 73 cc 14 dc 34 01 15
       2.863815e-28 -8.684646e-28 2.0644345e-26 2.609304e-26
0000a0 af 23 4b 13 50 0e bc 13 1d 9f 68 93 65 44 54 92
       2.5639796e-27 4.7471985e-27 -2.9360966e-27 -6.6979708e-28
0000b0 20 9b d4 91 a4 b7 82 91 32 c7 d9 11 86 e7 17 13
       -3.3543306e-28 -2.062356e-28 3.4359327e-28 1.917303e-27
0000c0 ab 46 d1 91 e2 16 b3 11 40 a4 c2 90 a9 8e e2 12
       -3.3017938e-28 2.8255323e-28 -7.6772575e-29 1.4297774e-27
0000d0 69 cc 07 91 bc 51 53 94 4d 4e 2f 15 fe cb 65 91
       -1.0712611e-28 -1.0668897e-26 3.5402737e-26 -1.8127775e-28
0000e0 34 93 a0 14 ad 7b 89 96 8f 35 9f 93 d0 79 36 11
       1.6213933e-26 -2.2211594e-25 -4.0190056e-27 1.4394805e-28
0000f0 78 81 5b 91 dc dc 91 12 50 bd d1 8f 14 61 11 12
       -1.731595e-28 9.205233e-28 -2.0681912e-29 4.587359e-28
000100 ec cc 33 12 40 64 f6 0e aa 42 10 92 fd 32 b0 11
       5.6735027e-28 6.074022e-30 -4.552056e-28 2.7799328e-28
000110 7a a5 17 15 96 0f 6e 14 ad 74 82 93 01 f7 77 15
       3.0624745e-26 1.2019003e-26 -3.2931665e-27 5.0076104e-26
000120 81 92 da 13 e0 da 80 92 8c ee 84 91 aa 07 66 92
       5.51754e-27 -8.131893e-28 -2.0972944e-28 -7.258465e-28
000130 97 a0 dd 91 a4 c7 28 93 55 d7 85 92 c7 72 06 12
       -3.4966623e-28 -2.1303012e-27 -8.446563e-28 4.242442e-28
000140 74 c2 b5 11 f0 d9 28 12 e0 73 3b 11 7d 98 60 94
       2.8676606e-28 5.328008e-28 1.4787406e-28 -1.1339183e-26
000150 9e f1 92 95 98 d6 86 11 7c 1e 3d 94 5c 95 bc 96
       -5.9350135e-26 2.1273726e-28 -9.5480735e-27 -3.0467297e-25
000160 1f d0 f7 14 79 75 ef 11 96 d7 57 11 a8 2b 2b 98
       2.5022716e-26 3.777995e-28 1.7026942e-28 -2.2123273e-24
000170 bf 34 fb 92 b6 6c 96 11 4e 71 18 94 e6 eb 65 11
       -1.585333e-27 2.3732825e-28 -7.696384e-27 1.8137607e-28
000180 a8 48 76 11 4d 58 73 91 98 39 c2 90 76 f6 04 91
       1.9428367e-28 -1.919653e-28 -7.6608245e-29 -1.048891e-28
000190 2b c7 ef 11 07 d1 cd 91 34 8c 14 13 9f 06 87 90
       3.7830298e-28 -3.247212e-28 1.8749352e-27 -5.325831e-29
0001a0 fd 4c ff 11 10 29 34 90 48 68 79 91 8a bd f8 91
       4.0279354e-28 -3.5530374e-29 -1.9674771e-28 -3.9244313e-28
0001b0 ab 15 82 14 95 63 87 11 7c 11 70 11 0a 42 85 91
       1.3135192e-26 2.1360617e-28 1.893805e-28 -2.10244e-28
0001c0 a0 98 a2 11 86 cb 4b 12 88 49 20 93 5b 97 41 93
       2.5653156e-28 6.4306368e-28 -2.0231093e-27 -2.4434649e-27
0001d0 db ea a6 13 d7 53 a1 11 77 60 e3 12 47 d4 18 12
       4.2135877e-27 2.5452991e-28 1.4349494e-27 4.8224395e-28
0001e0 f8 e0 87 10 34 4b b2 10 74 19 f7 11 50 73 fe 92
       5.359473e-29 7.032449e-29 3.8985415e-28 -1.605808e-27
0001f0 67 eb 00 92 c5 68 04 13 0f 62 6c 11 33 a5 22 91
       -4.0679834e-28 1.6712398e-27 1.8647334e-28 -1.2830453e-28
000200 02 e6 42 14 a5 7c 32 94 1a a8 3c 92 99 fa af 13
       9.839858e-27 -9.011285e-27 -5.952954e-28 4.442332e-27
000210 3d fd a9 13 70 ec 60 90 f3 e8 90 11 b0 bc 8a 12
       4.291131e-27 -4.4358356e-29 2.286276e-28 8.755539e-28
000220 8a 0e 4a 92 90 7c 8c 93 f6 f1 48 92 68 45 00 10
       -6.375788e-28 -3.5463797e-27 -6.340711e-28 2.5297018e-29
000230 ec e5 aa 90 74 73 cd 91 79 54 d8 11 80 f0 d5 13
       -6.740743e-29 -3.241445e-28 3.4130851e-28 5.400591e-27
000240 a0 8e b8 94 6b 0b 57 11 80 64 85 90 19 a7 e2 95
       -1.8635508e-26 1.6964028e-28 -5.2614095e-29 -9.1544307e-26
000250 54 27 74 14 a7 a4 10 12 b3 3c 3a 11 10 ae 39 11
       1.2326608e-26 4.564134e-28 1.4691517e-28 1.4647564e-28
000260 02 5d 8f 11 6f 0a 7c 13 bc 6e 26 92 ef 33 eb 12
       2.2618742e-28 3.1812016e-27 -5.2516855e-28 1.4843388e-27
000270 24 6a 3a 11 b0 ca 77 10 5e 30 39 14 3e 97 12 94
       1.470552e-28 4.8868306e-29 9.349652e-27 -7.4009436e-27
000280 28 13 2f 93 35 ae 9a 14 a0 37 04 12 21 10 9d 91
       -2.209755e-27 1.5618739e-26 4.172042e-28 -2.4780173e-28
000290 86 dd 70 91 d6 20 06 92 3c 90 b4 10 7e 4e 78 93
       -1.9000924e-28 -4.232342e-28 7.121971e-29 -3.13407e-27
0002a0 97 74 0c 92 77 15 06 11 de 3e fe 11 43 e1 c5 92
       -4.431992e-28 1.057735e-28 4.011288e-28 -1.2487979e-27
0002b0 fd 18 cc 91 d1 b4 e9 13 ba 97 e9 94 b8 f3 eb 10
       -3.2200925e-28 5.8995768e-27 -2.3586833e-26 9.3066665e-29
0002c0 5c a0 7b 92 1c e9 49 95 fa 8a fd 13 d4 ac 88 11
       -7.9399293e-28 -4.0775518e-26 6.400322e-27 2.156353e-28
0002d0 da 2d 9c 13 0f af ed 11 88 d2 fe 91 93 6f 61 13
       3.942515e-27 3.7499895e-28 -4.0203884e-28 2.8454003e-27
0002e0 09 60 c3 11 22 14 8f b8 fc ae 13 94 79 c7 62 af
       3.0824762e-28 -6.8225214e-05 -7.456113e-27 -2.0625447e-10
0002f0 d1 57 ac 94 d2 65 1a b8 dd 4b f7 12 f4 f1 0b 95
       -1.7402199e-26 -3.681129e-05 1.5606593e-27 -2.8261694e-26
000300 d9 9d 60 b7 d0 48 3f a5 cd b4 8f a5 f1 62 7d b9
       -1.3388192e-05 -1.6591279e-16 -2.492906e-16 -0.00024164819
000310 4c 80 32 9c a5 a3 c7 ba d3 cb 7c 92 2e 31 81 11
       -5.906108e-22 -0.0015231265 -7.976841e-28 2.038292e-28
000320 96 88 0f 1e 87 2e bd 92 20 7f 31 93 33 2a c8 b9
       7.598602e-21 -1.1939047e-27 -2.2403218e-27 -0.00038178414
000330 d8 c2 38 b0 8e b5 31 91 99 7b 24 bb 6a 4a 54 95
       -6.72157e-10 -1.4018784e-28 -0.0025098084 -4.287176e-26
000340 fa b9 a0 b8 17 20 25 b9 2b 0e 13 13 35 a6 f2 11
       -7.6640354e-05 -0.0001574758 1.8560994e-27 3.82833e-28
000350 76 e2 33 12 04 5f 42 92 dc 5d 6a 92 8b 4a b8 b5
       5.6761575e-28 -6.133272e-28 -7.395307e-28 -1.3730763e-06
000360 38 dc 63 94 1a a1 08 25 c2 87 b6 95 55 f3 8b b5
       -1.1504002e-26 1.1850703e-16 -7.37234e-26 -1.0427126e-06
000370 f8 1b 9c 13 7d cf 6a 16 79 50 e5 b0 a4 a8 bc 1d
       3.9407516e-27 1.8967841e-25 -1.6684815e-09 4.9937556e-21
000380 8c 6d 10 1c 1e 47 02 b6 74 62 0b 99 fa 31 35 ba
       4.778719e-22 -1.9412905e-06 -7.206014e-24 -0.0006912049
000390 ac 72 c1 92 f0 1f c0 92 53 89 84 9a 3a 0f 06 13
       -1.2208281e-27 -1.2124777e-27 -5.481578e-23 1.6920685e-27
0003a0 4e 7a 8e 92 c3 31 e0 b8 b5 cf 3e ab d4 36 f0 90
       -8.99161e-28 -0.00010690421 -6.778981e-13 -9.4747785e-29
0003b0 e4 b0 b2 b8 87 be 7f 17 05 46 d1 b4 8a ab c0 b5
       -8.52065e-05 8.2635423e-25 -3.898023e-07 -1.4355039e-06
0003c0 38 15 fe 12 0f fe 9f 12 16 01 1c 13 86 da 41 13
       1.6034884e-27 1.0096941e-27 1.9690504e-27 2.4467765e-27
0003d0 54 93 ab 11 05 5e d0 b5 c4 27 7b 94 50 69 68 24
       2.706984e-28 -1.5524571e-06 -1.2680104e-26 5.0396184e-17
0003e0 a8 b1 01 95 54 de dd b4 2d 55 3f 93 3a ca 9d 16
       -2.619149e-26 -4.1326223e-07 -2.4149584e-27 2.549234e-25
0003f0 1c b5 f9 b1 b6 23 35 1e e5 bd e6 9d 87 f4 d2 b7
       -7.2674435e-09 9.589445e-21 -6.107684e-21 -2.5147818e-05

conv1.bias f4 [30]
000000 41 9b 83 19 a7 c0 fb b0 f1 8f 33 b6 85 8e 16 1d
       1.3607789e-23 -1.8317409e-09 -2.6756863e-06 1.9926016e-21
000010 72 55 19 96 87 c6 b2 ba 34 52 c5 1f df c8 1d b5
       -1.2386203e-25 -0.0013639488 8.356874e-20 -5.8779364e-07
000020 c0 bd 9b b1 ba a3 3e ba 77 b6 39 18 de e9 58 b3
       -4.532666e-09 -0.0007272322 2.400281e-24 -5.050412e-08
000030 b5 a7 03 ba b0 c4 37 b1 25 e0 b6 b0 39 4e 1b bb
       -0.0005022244 -2.6741809e-09 -1.3305949e-09 -0.0023697747
000040 53 51 d0 25 88 c8 ba bc 48 d8 72 17 2b ca 19 94
       3.6137356e-16 -0.022800699 7.8467403e-25 -7.7643966e-27
000050 cb 2d 61 28 7b f8 e0 96 97 84 94 a0 09 ad 71 bb
       1.2499939e-14 -3.6345965e-25 -2.5159916e-19 -0.0036876819
000060 b9 61 14 b8 e9 09 43 97 a7 62 fa bb eb b1 1d b5
       -3.537696e-05 -6.3020407e-25 -0.007641155 -5.874596e-07
000070 4b 27 bb ba b7 14 da ba
       -0.0014278678 -0.0016638254

conv2.weight f4 [30, 10]
000000 00 53 28 10 6f 1b f9 1b c2 a2 9e 95 d6 60 19 11
       3.31961e-29 4.1211323e-22 -6.407248e-26 1.2099412e-28
000010 74 91 4b 15 c8 7b 82 96 cb 75 3a 11 30 d1 cb 11
       4.1110266e-26 -2.108075e-25 1.470911e-28 3.2156675e-28
000020 92 0c 7e 92 66 1d ec 91 ce 2c 96 b8 a0 02 34 15
       -8.016376e-28 -3.7252353e-28 -7.160903e-05 3.635278e-26
000030 cb bc 3b 97 33 85 2e 92 6f 53 be 91 58 88 1f 13
       -6.066125e-25 -5.50689e-28 -3.0028134e-28 2.0135844e-27
000040 fa e7 41 31 78 08 e7 91 10 40 60 90 2d b5 7f 12
       2.821706e-09 -3.6450593e-28 -4.4225563e-29 8.068713e-28
000050 a0 88 bd 0f 9c 31 08 2d 16 60 9b 15 d7 ff 9b 91
       1.8689465e-29 7.7417205e-12 6.27556e-26 -2.4612362e-28
000060 48 e8 67 93 a6 86 32 99 d9 91 0f 11 4d 39 00 92
       -2.9270823e-27 -9.229576e-24 1.1325654e-28 -4.0460307e-28
000070 31 4c e6 11 cc 0a aa 90 a8 2b 17 90 04 b6 5b 2d
       3.6334558e-28 -6.706981e-29 -2.981313e-29 1.2489124e-11
000080 5f c8 5b 9b 97 9e f4 1e db 7a df 17 30 ed d7 9f
       -1.8179999e-22 2.5900096e-20 1.444205e-24 -9.1448436e-20
000090 71 28 d8 91 22 65 8f 16 44 93 52 13 8c 9a 8c a4
       -3.4103715e-28 2.316672e-25 2.6578334e-27 -6.0977134e-17
0000a0 00 9a 2d 0e dc b8 3e 9c 57 93 40 95 60 d8 4c 97
       2.1398045e-30 -6.310465e-22 -3.8890322e-26 -6.618906e-25
0000b0 db a3 c3 93 fc 57 ac 97 87 a5 d2 15 7a 45 74 14
       -4.9386494e-27 -1.113745e-24 8.507948e-26 1.2332554e-26
0000c0 28 15 71 12 a7 dd fa 19 da 48 a6 12 ef 0e 07 b9
       7.607227e-28 2.5938919e-23 1.0494032e-27 -0.00012880166
0000d0 fa cf d6 b4 58 f1 18 92 b6 1a b7 b2 33 86 1b b6
       -4.001193e-07 -4.826022e-28 -2.131615e-08 -2.3174914e-06
0000e0 20 40 a7 91 ce 99 3a 11 63 6e de a5 9e 12 9c 91
       -2.6387474e-28 1.4720208e-28 -3.8585662e-16 -2.4623934e-28
0000f0 31 0a 10 12 df 1b 83 25 29 1e c3 99 e2 08 70 11
       4.545095e-28 2.2743764e-16 -2.0174709e-23 1.8935399e-28
000100 c9 69 64 97 fa 07 12 9d 20 bc 23 11 3c 47 88 91
       -7.3804293e-25 -1.9327063e-21 1.2916403e-28 -2.1500918e-28
000110 64 48 5a 92 09 4b 19 92 64 f4 57 92 d9 36 c3 ba
       -6.88779e-28 -4.8370775e-28 -6.8143273e-28 -0.0014893665
000120 e3 bf 22 b8 f0 6c 0c 92 e1 bf 33 b7 d0 a7 48 b9
       -3.880252e-05 -4.4310487e-28 -1.0713907e-05 -0.00019136001
000130 fe d7 11 11 d1 04 a7 91 58 b0 c7 af 48 df 8d 12
       1.1505041e-28 -2.6350923e-28 -3.632319e-10 8.953394e-28
000140 6e a5 86 11 a4 33 00 36 1e c8 bc a6 53 4f 9d ad
       2.1243426e-28 1.9103545e-06 -1.3099362e-15 -1.788406e-11
000150 81 f4 8c a2 c6 de 57 2f 55 f8 a6 91 ac ec 1f 1e
       -3.8205955e-18 1.9633281e-10 -2.6343228e-28 8.4663325e-21
000160 eb 7b 0a 93 9d f1 8e b3 50 75 0c 13 44 1c c3 bc
       -1.7479145e-27 -6.6563395e-08 1.7728324e-27 -0.023817189
000170 64 8d 8f bc ae 52 91 9c 68 dc 1c 3a a5 d7 b9 bc
       -0.017523475 -9.616667e-22 0.0005983771 -0.022685835
000180 42 0e 0d 12 00 23 8c 96 3a 00 17 b8 b0 c7 1c a1
       4.450933e-28 -2.2640308e-25 -3.6001416e-05 -5.311914e-19
000190 d4 41 ea 91 c4 fc 6a 34 da 56 80 22 c6 f6 9d aa
       -3.695926e-28 2.1884904e-07 3.4786427e-18 -2.8060036e-13
0001a0 4a db cc 9f da 2a 1a 2c 2b 73 d2 91 23 0a 12 1d
       -8.6760144e-20 2.1908504e-12 -3.3203136e-28 1.932818e-21
0001b0 5f 71 84 13 3d 97 55 b2 b2 52 55 11 e5 60 a3 13
       3.3433277e-27 -1.2432619e-08 1.682822e-28 4.124253e-27
0001c0 a6 16 9a 13 d2 cc 71 91 95 d7 05 13 9f ef cc 13
       3.88974e-27 -1.9074663e-28 1.689325e-27 5.1733125e-27
0001d0 e4 56 9c 11 02 b3 4e 93 0c 78 53 11 00 3d 86 13
       2.466601e-28 -2.6089113e-27 1.6681957e-28 3.3886506e-27
0001e0 cc 48 6e 91 71 95 53 bc 5f f9 46 39 4a 3b 7c 99
       -1.8797322e-28 -0.012914048 0.0001897565 -1.3040068e-23
0001f0 d2 91 34 ba 9a 93 06 bc 26 56 85 11 90 46 cc 92
       -0.0006888184 -0.008213902 2.1036793e-28 -1.2891605e-27
000200 aa 0c 9c b7 33 35 17 1d a8 40 26 91 dc 25 b1 12
       -1.8602546e-05 2.0012187e-21 -1.3115015e-28 1.1179603e-27
000210 c3 40 ab 12 90 fa c7 10 6b 77 f8 12 18 a0 53 13
       1.0807582e-27 7.887771e-29 1.5680439e-27 2.6710876e-27
000220 22 60 44 12 94 0e 25 92 be 8a 0e 13 8a 49 46 18
       6.196519e-28 -5.208279e-28 1.7991325e-27 2.5628028e-24
000230 a0 4e 98 0f f0 51 8a 19 60 c6 65 95 ba b9 91 11
       1.5018642e-29 1.430196e-23 -4.6402672e-26 2.299143e-28
000240 18 a9 25 95 74 84 ff 96 69 39 0e 11 f0 76 3d 12
       -3.3454876e-26 -4.1281062e-25 1.1219516e-28 5.9784486e-28
000250 d4 28 cd 92 40 16 c9 90 89 ff 83 12 4d ff 45 bb
       -1.2947384e-27 -7.93148e-29 8.330257e-28 -0.0030211986
000260 8b 04 d5 b8 c6 48 7f 92 6f db ef b8 92 83 f1 ba
       -0.00010157478 -8.0553513e-28 -0.00011437281 -0.0018426052
000270 a8 60 d7 10 64 a1 4d 12 79 43 5b b4 8a 48 ee 12
       8.495147e-29 6.4885524e-28 -2.0420511e-07 1.5037794e-27
000280 c8 8b e5 10 16 9b 81 ba 3b b6 c4 b5 b6 3e d1 11
       9.053994e-29 -0.0009888138 -1.4656174e-06 3.3013034e-28
000290 d8 82 04 b5 b7 62 ab b8 be 34 bc 11 e8 da 97 90
       -4.9364235e-07 -8.1723025e-05 2.9693675e-28 -5.9896277e-29
0002a0 86 e7 e1 a9 9c f4 23 90 fb eb 3c 92 c2 5f 43 bc
       -1.003217e-13 -3.2334522e-29 -5.961321e-28 -0.011924686
0002b0 28 ea f4 37 79 ad 09 13 d4 e9 9c b9 2e 4d e9 b9
       2.9196104e-05 1.737736e-27 -0.00029928854 -0.00044498726
0002c0 f4 16 c1 90 2b a4 00 13 0f 78 02 b7 e6 50 95 92
       -7.616044e-29 1.6236812e-27 -7.776557e-06 -9.423165e-28
0002d0 c8 67 22 90 48 21 eb 1d b8 11 aa 93 fa 12 f2 16
       -3.2028817e-29 6.2238394e-21 -4.2931505e-27 3.9109185e-25
0002e0 32 3b 4e 15 44 ad ae 17 c8 b9 09 15 6f db 78 13
       4.1648066e-26 1.1288225e-24 2.7813485e-26 3.141019e-27
0002f0 50 cc bf 92 c2 33 2c 9a e0 f8 28 92 32 c2 77 14
       -1.2104162e-27 -3.5610576e-23 -5.3318215e-28 1.25086115e-26
000300 32 42 ac 91 20 40 14 91 f4 05 ed 90 8f 6e eb 12
       -2.717761e-28 -1.1694901e-28 -9.348919e-29 1.485784e-27
000310 90 f5 4a 93 f8 30 9d 10 0c a4 62 91 98 95 71 91
       -2.5617056e-27 6.200103e-29 -1.7878807e-28 -1.9057645e-28
000320 81 82 a7 92 a2 55 9d ba 15 b2 37 b7 5c 30 b8 10
       -1.0571353e-27 -0.001200367 -1.0949113e-05 7.264971e-29
000330 3c 18 12 b6 41 c5 9a b8 4c 28 b1 10 ba cc 73 11
       -2.1769802e-06 -7.380034e-05 6.987628e-29 1.9232406e-28
000340 1c 1d 7b ad 6c aa bb 11 56 96 5e 91 de 21 37 9b
       -1.4274162e-11 2.9608428e-28 -1.7559038e-28 -1.5148348e-22
000350 59 8f 96 14 c8 cd 4a 15 4c f5 cb 94 5f 5e c6 96
       1.520267e-26 4.0955908e-26 -2.0594514e-26 -3.2048182e-25
000360 ec 97 c8 11 11 37 9c 13 16 9f a5 12 55 9d 88 98
       3.1648065e-28 3.9434236e-27 1.0452182e-27 -3.531404e-24
000370 40 aa 17 0f a4 ba 8d 14 b5 fe 8b 13 dc 7c e9 91
       7.477664e-30 1.4310978e-26 3.5339694e-27 -3.6837869e-28
000380 22 48 84 12 46 20 8c 12 bc 18 63 11 b8 73 b3 91
       8.348153e-28 8.843198e-28 1.7914764e-28 -2.8312538e-28
000390 52 d4 25 90 a2 51 1b 90 6e 36 0b 13 45 67 46 3b
       -3.2704078e-29 -3.0631248e-29 1.7571102e-27 0.0030273956
0003a0 eb 71 16 bb 5d 2a 16 23 86 d5 19 bb 62 8c 2f bc
       -0.0022956084 8.140487e-18 -0.0023473217 -0.010714622
0003b0 22 13 77 11 72 c1 7b 19 c5 b8 07 b8 9c 4b 42 ab
       1.949076e-28 1.3015462e-23 -3.235859e-05 -6.9027574e-13
0003c0 ab 86 09 93 23 67 f9 bc 4c ed 95 bc 5e 9c bb 22
       -1.7358227e-27 -0.030444687 -0.018301629 5.085201e-18
0003d0 69 1d ac b9 fa 40 76 bd e2 4d 96 11 99 e2 68 98
       -0.0003282831 -0.06012056 2.3713826e-28 -3.00997e-24
0003e0 8f 2d 17 bb 68 1b 8a ab 2a ae 52 91 af e9 0f 17
       -0.0023067927 -9.813097e-13 -1.6619747e-28 4.650074e-25
0003f0 8b 5a 3e 94 f2 ef 42 11 43 20 c9 13 10 08 12 15
       -9.610405e-27 1.537784e-28 5.0771346e-27 2.9490825e-26

conv2.bias f4 [10]
000000 86 f2 14 bd e2 9a a7 b8 4f 25 e0 b7 39 87 85 b8
       -0.0363641 -7.99203e-05 -2.6720254e-05 -6.3671214e-05
000010 54 1e 2d bb c9 93 de b9 b7 38 42 bb e6 1b a5 b3
       -0.0026415782 -0.00042453248 -0.0029635855 -7.688486e-08
000020 ff ad ef b4 c6 be 40 ba
       -4.4643818e-07 -0.0007352646

rnn.weight_ih_l0 f4 [30, 1]
000000 4a 05 24 3f 60 8e a7 bf 5a ff 24 3f 27 db 2a 3e
       0.6407057 -1.3090324 0.64452136 0.16685162
000010 47 44 39 be 5a 08 09 bf 80 76 cb bd 35 6a 0e 40
       -0.18092452 -0.5352837 -0.099347115 2.2252324
000020 64 fe d4 be d5 82 8b be 25 4e ca 3e 01 d3 0b 3e
       -0.41600335 -0.27248254 0.39512745 0.1365471
000030 bb 2b ec 3d 8c e6 d2 bd 34 56 de be 82 c3 af 3e
       0.115317784 -0.102978796 -0.43425143 0.34328848
000040 3d 25 a8 3f c2 75 9a be 1c ab da 3d 9c 50 fa bb
       1.3136364 -0.30167967 0.10677168 -0.007639004
000050 fe 09 4d 3f 73 94 e6 be 26 93 0e 3f 8c a3 09 be
       0.8009337 -0.45035133 0.5569328 -0.13441294
000060 e9 5b 29 c0 06 fd d0 3c d7 ba 86 be a6 16 35 3f
       -2.6462348 0.025511276 -0.26314422 0.70737684
000070 b8 79 2a bf 01 8a 32 3d
       -0.6659198 0.043588642
