colagnn-master-Run-Epi/src/save/cola_gnn_epi.us_hhs.w-20.h-4.RNN.lam-0.5.epo-500.pt (torch, 49334 bytes, 32 tensors)

V f4 [15]
000000 e8 76 55 3c 94 45 79 b8 4f 80 20 3b c9 d9 48 3b
       0.013028838 -5.9431026e-05 0.002449054 0.0030647388
000010 89 72 ae b8 a4 3f 81 ba dc 78 43 3a 91 7b 14 3b
       -8.3183004e-05 -0.0009860885 0.0007456669 0.002265666
000020 de a5 c0 3b 72 61 a8 ba 85 6a cc 3a 6c 9e 99 3a
       0.005879148 -0.0012846424 0.001559571 0.0011720187
000030 d7 bc 4d ba fe cf 8d 3b e6 6a 30 3a
       -0.0007848269 0.004327773 0.00067297963

W1 f4 [15, 30]
000000 10 c1 48 38 f0 03 7d ba a8 cf 79 38 64 33 18 3a
       4.786352e-05 -0.0009651771 5.955962e-05 0.00058059976
000010 ae 0a 59 ba ac f5 88 3a fb 02 06 3a 2f 9b 04 3a
       -0.00082794845 0.0010449192 0.00051121385 0.00050585245
000020 ad a7 4b 3a f1 58 66 ba d0 62 63 39 0a 91 03 39
       0.0007768821 -0.0008787057 0.00021685218 0.00012547165
000030 76 ed a1 b9 16 1a 1f 3a 81 f3 2c 3a 6f 99 76 b9
       -0.00030885235 0.0006069256 0.0006597564 -0.00023517547
000040 bc 28 b2 b8 b1 aa ec b9 38 92 63 3a 46 3b d6 b9
       -8.495289e-05 -0.00045140603 0.0008681151 -0.00040861423
000050 72 af d6 b9 f8 cd ed 39 3e db 7d ba 08 7f a3 b8
       -0.00040947978 0.0004535762 -0.0009683854 -7.796107e-05
000060 40 9c ed 37 ca 37 2b 3a 9c c3 6c ba b2 c6 91 ba
       2.8325361e-05 0.00065314455 -0.00090318336 -0.0011121838
000070 7d 13 48 3a ba 30 22 ba 76 aa 7d 38 eb 17 00 bb
       0.00076322985 -0.00061870704 6.0478655e-05 -0.0019545506
000080 23 3a 6b ba 47 fe 65 3a 98 3f 82 3a b3 f0 be 39
       -0.00089732016 0.0008773547 0.0009937165 0.0003641896
000090 43 c1 4a b9 a6 c0 2b 3a 64 21 7e b9 b0 50 70 b9
       -0.00019336217 0.0006551839 -0.00024235767 -0.00022918242
0000a0 4e ab 46 3a 40 07 8e 3a 72 77 c8 b9 7a df 16 b9
       0.0007578627 0.0010835901 -0.00038235966 -0.00014388366
0000b0 22 c1 a8 ba d3 2c 46 38 c0 d1 5e b9 02 75 ee b7
       -0.0012874941 4.7248624e-05 -0.00021249708 -2.8426297e-05
0000c0 24 55 5f b9 14 7e e7 b9 a4 f9 a2 b8 39 38 31 b9
       -0.00021298655 -0.0004415369 -7.771261e-05 -0.0001690098
0000d0 64 f8 bf 3a 20 da 0a b9 23 a0 2a 3a 10 13 3e ba
       0.001464617 -0.00013241963 0.00065088476 -0.00072507653
0000e0 c0 4d 85 b8 2f b3 5f 3a 13 bf 47 b9 bd 4e 10 39
       -6.356416e-05 0.00085334753 -0.000190493 0.00013762242
0000f0 02 c3 a0 ba 1b 2c e3 39 33 d2 43 ba 54 30 10 ba
       -0.0012265148 0.00043329675 -0.0007469982 -0.00055003655
000100 77 5b e4 39 f8 4a 70 ba 18 9c 46 ba 95 d4 eb b9
       0.00043555695 -0.00091664447 -0.00075763604 -0.0004498108
000110 44 ae e8 b9 18 92 da b8 73 7e e4 b9 f0 79 9e ba
       -0.00044380326 -0.00010422262 -0.0004358176 -0.0012090784
000120 7f b0 b0 39 7a 86 97 b8 ff 8a f5 b9 dc ee bd 39
       0.00033700836 -7.225289e-05 -0.00046833602 0.00036226853
000130 b6 c4 48 3a 17 f1 b1 39 d3 0e 97 ba 8a 23 84 39
       0.0007658707 0.00033939697 -0.0011524804 0.0002520348
000140 98 94 cc 39 3c 5a cc b9 84 00 55 3a cd 8d 92 b9
       0.00039020623 -0.00038977142 0.0008125382 -0.0002795294
000150 7d cc 95 ba 30 e0 63 ba 38 bd 8d 3a ab 9c 60 3a
       -0.001142874 -0.00086927693 0.0010813838 0.0008568267
000160 d0 d4 54 ba 00 f7 85 3a 9e 92 04 ba f2 05 8a 3a
       -0.000811887 0.0010220706 -0.0005057248 0.0010530336
000170 88 46 83 ba 12 ee 8a 3a f8 d6 ea 39 c5 04 81 ba
       -0.0010015527 0.0010599515 0.00044792122 -0.000984334
000180 23 43 3c ba d8 0a ea b9 c5 bf 24 ba 92 cc 6c ba
       -0.0007181635 -0.00044640037 -0.00062846794 -0.0009033169
000190 e0 c1 04 ba 6c b0 69 ba 7b ed a6 39 f3 8b 36 ba
       -0.000506429 -0.00089145335 0.00031838924 -0.0006963603
0001a0 73 69 91 ba 78 72 4f 3a ce c5 87 3a e6 29 92 3a
       -0.0011094048 0.00079134805 0.0010358633 0.0011151403
0001b0 34 ec 83 ba 22 0d 91 3a 02 a7 8d 3a e1 2f 3a ba
       -0.0010064901 0.0011066536 0.0010807218 -0.00071024714
0001c0 3a 3b 1e 3a f8 d6 1d ba d3 69 49 ba 66 93 4d ba
       0.0006036047 -0.00060211075 -0.00076833105 -0.00078420935
0001d0 c7 c9 73 3a b2 c2 41 3a 46 64 07 ba 8a ed 49 3a
       0.00092997815 0.00073913776 -0.0005164783 0.00077029376
0001e0 e9 25 91 b9 ff 7f 96 b8 07 ee 8f b9 2c 52 23 38
       -0.000276848 -7.1763985e-05 -0.0002745243 3.8938757e-05
0001f0 80 00 ef 37 d7 2e 71 b9 52 09 d7 b8 fb 02 2d 39
       2.8491253e-05 -0.00023001 -0.00010253735 0.00016499676
000200 cc 90 20 38 41 68 80 39 b2 0c 7e 39 c6 f5 9a b8
       3.8281825e-05 0.00024491738 0.00024228057 -7.389071e-05
000210 00 d3 f3 38 57 f3 1a 36 e0 c0 7b b6 57 7a e5 38
       0.00011626445 2.308943e-06 -3.7514183e-06 0.000109423585
000220 e7 e7 19 b9 94 2a 90 b9 e8 ca 4a 39 00 ce 19 b5
       -0.00014677607 -0.00027497543 0.0001933981 -5.729671e-07
000230 68 34 80 b9 a8 ac cb 38 23 a7 b7 b9 6f e7 93 b9
       -0.00024453108 9.711954e-05 -0.00035029007 -0.00028210456
000240 40 22 94 38 14 37 46 b9 ae f3 fb 38 59 ab e7 38
       7.0635695e-05 -0.0001890327 0.000120140015 0.00011046854
000250 11 73 38 b9 84 c4 aa 39 3c 9a b3 b9 c9 92 41 3a
       -0.00017590473 0.00032571342 -0.00034256454 0.00073842384
000260 ce d0 a9 b9 94 77 d2 39 00 cf 25 38 02 52 ea b9
       -0.00032389764 0.00040143414 3.953185e-05 -0.0004469306
000270 26 51 d3 b9 fa 8e 90 b9 ba bd ef b9 54 16 eb b9
       -0.00040305516 -0.00027572346 -0.0004572699 -0.0004483933
000280 78 e1 16 ba 7a f2 0c ba 4d f5 f8 39 3e cd bf b9
       -0.00057556434 -0.0005376708 0.0004748501 -0.00036583276
000290 ed b7 1f ba bc 70 28 39 cf c2 a0 39 d6 6c bb 39
       -0.0006092776 0.00016063725 0.00030662722 0.00035748509
0002a0 04 55 2d ba 04 90 0c 3a aa c1 7a 39 d9 0c a3 b9
       -0.00066120946 0.0005362036 0.00023914003 -0.00031099355
0002b0 c6 7f 3c 3a 18 99 49 b9 1e 43 3a ba a2 2a 17 ba
       0.00071906706 -0.00019225886 -0.0007105338 -0.00057665457
0002c0 81 c4 a4 39 be bf 39 39 e4 8c ab b9 e7 29 e7 39
       0.00031426924 0.00017714404 -0.00032720633 0.00044090973
0002d0 d9 0c 72 3a 72 78 31 ba 4e 20 d6 3a f0 2d 98 ba
       0.0009233482 -0.0006769962 0.0016336532 -0.001161037
0002e0 6a 36 22 ba 2e 0e 21 3a 0e 95 6d 39 c1 e5 ab 3a
       -0.0006187918 0.00061437755 0.00022657608 0.0013114737
0002f0 c8 34 b5 3a 08 ff a6 3a 84 d4 62 3a 10 8b 8f 3a
       0.0013824934 0.00127408 0.0008652883 0.0010951478
000300 8a d2 f5 ba eb a8 b5 3a 26 20 a1 3a b8 76 0d ba
       -0.0018754762 0.0013859546 0.0012292906 -0.00053964136
000310 c9 79 b0 ba 9a 06 ac ba 88 72 37 39 6a 31 bf ba
       -0.0013464029 -0.0013124526 0.00017494906 -0.001458687
000320 53 c0 c9 ba 53 86 a8 3a ca 4c 8d ba 74 88 d4 3a
       -0.00153924 0.0012857415 -0.0010780331 0.0016214983
000330 b3 1c 46 3a 66 a2 0a 3a 4f 65 d2 ba 51 d9 a5 ba
       0.0007557377 0.00052884815 -0.0016051921 -0.0012653266
000340 d8 6b 96 3a 55 9e 84 ba a4 0b 57 ba 52 86 47 b9
       0.0011476232 -0.0010117987 -0.0008203334 -0.00019028157
000350 00 d1 1b 39 f0 d1 77 39 3e 94 68 3a 0c c7 ff b9
       0.0001485981 0.00023633963 0.00088721875 -0.00048785692
000360 19 a9 88 39 08 d1 30 3a f4 e0 69 b8 70 09 a2 39
       0.0002606593 0.0006745015 -5.5761033e-05 0.0003090608
000370 dc e9 0f b9 f8 4e a6 ba 34 c3 e6 b8 1f 92 9e 39
       -0.00013724662 -0.001268833 -0.00011003614 0.00030244977
000380 f5 e0 a5 ba 87 1b a1 3a 5b a5 49 b9 3e 20 ae b9
       -0.0012655543 0.0012291529 -0.00019230453 -0.00033211889
000390 a6 0a c1 3a 81 9b f1 b9 51 31 22 3a 54 2a 0d 3a
       0.0014727905 -0.00046082961 0.0006187158 0.00053850305
0003a0 9c 9a b6 ba 9a 88 a5 b9 7c 47 ae 38 00 ee 8a 36
       -0.0013931575 -0.00031573029 8.3102816e-05 4.1404273e-06
0003b0 22 d0 82 3a 9a 8b 01 3a e0 ce 89 b8 29 30 ab b9
       0.0009980241 0.0004941762 -6.5712025e-05 -0.00032651544
0003c0 5f fe be 39 bf da ce 39 ad 6f 94 39 b4 0d 90 39
       0.00036429145 0.0003945436 0.00028311965 0.0002747603
0003d0 43 0c d1 39 9e d6 3b b9 20 4c 2e 39 a4 a4 a1 b8
       0.00039872722 -0.00017913661 0.00016622292 -7.707745e-05
0003e0 f6 0b cc b9 03 d5 a1 b9 54 a6 41 39 a8 9d 18 39
       -0.00038918824 -0.0003086702 0.00018467876 0.00014554581
0003f0 b0 ec d3 b8 94 1b 81 39 31 e2 24 b8 64 1e 8c 38
       -0.000101053505 0.00024625345 -3.9311304e-05 6.681381e-05

b1 f4 [15]
000000 79 ad cd b9 62 ba 29 ba 43 d5 87 39 91 3e 0d 3a
       -0.00039229894 -0.00064746116 0.000259081 0.0005388046
000010 de e1 5a 38 c7 3a a3 39 07 5b 01 ba 58 c7 ad b9
       5.2185605e-05 0.00031133575 -0.00049345236 -0.00033145654
000020 a0 e9 8b b8 8e aa 17 3a 34 a3 35 bb c7 e8 24 3a
       -6.6715525e-05 0.00057856075 -0.0027715685 0.000629079
000030 e0 dc 02 3a 34 ae 34 ba a1 98 3a 39
       0.00049920194 -0.00068924134 0.00017795201

W2 f4 [15, 30]
000000 58 1b 69 38 f3 57 6a ba f8 92 52 b8 e4 15 69 3a
       5.5576995e-05 -0.0008939497 -5.0204777e-05 0.00088915066
000010 80 5b 1a b7 97 a6 5f ba 14 73 8e 38 a1 ad 54 3a
       -9.200419e-06 -0.0008531599 6.7925226e-05 0.0008113031
000020 a0 cd 98 36 cb c1 68 3a a3 60 0d b9 9d e6 a3 39
       4.553891e-06 0.0008878975 -0.00013482808 0.00031261603
000030 24 0e d0 ba a0 3f 6e 39 28 29 80 3a a3 ae 2d ba
       -0.0015873355 0.00022721151 0.000977789 -0.0006625449
000040 e2 43 39 ba f9 1f 98 b9 64 ec 1b 3a af 78 7d b9
       -0.0007067305 -0.0002901552 0.0005948006 -0.00024172918
000050 02 92 69 b9 7a 14 a2 39 24 c9 ca 3a c2 bb 74 39
       -0.00022275004 0.00030914304 0.0015471322 0.00023339599
000060 8d 84 84 3a d4 ee a7 39 93 40 e1 b9 0a de 33 3a
       0.0010110304 0.00032030663 -0.00042963456 0.00068613945
000070 7f 74 e2 b9 1d ac 5a ba 20 92 2e 3a fa 5a cc b9
       -0.00043192875 -0.0008341687 0.00066593476 -0.00038977695
000080 ed cd b7 b9 94 5a 06 38 6a 92 99 b9 e0 3b d4 39
       -0.00035057907 3.2032447e-05 -0.0002929152 0.000404804
000090 bf 19 29 3a 10 37 b1 b6 13 b5 41 ba a2 60 20 3a
       0.0006450675 -5.281421e-06 -0.0007389348 0.0006117915
0000a0 27 7f 7e b9 0c 01 81 3a 7c 0b 9f 38 65 fd e1 39
       -0.00024270696 0.0009842231 7.58385e-05 0.00043104138
0000b0 35 a0 1a 3a 1c e9 56 3a 1a 79 f5 b9 16 86 16 39
       0.00058985065 0.0008198188 -0.0004682027 0.00014355066
0000c0 b6 53 c1 b9 0f fe 84 39 77 e1 c4 38 7b 2b 31 3a
       -0.00036874198 0.0002536629 9.3880044e-05 0.0006758493
0000d0 1c 3e c0 b9 e1 77 99 38 86 56 80 b9 80 8b b7 b6
       -0.0003666737 7.317938e-05 -0.00024478527 -5.470065e-06
0000e0 d2 ea 4a b9 4e 8f a6 b9 70 a2 4f 38 ae 01 e9 b9
       -0.00019351699 -0.00031768758 4.9503928e-05 -0.00044442475
0000f0 55 d8 a7 ba 82 99 e8 39 9a f0 ac ba cd 4e 90 ba
       -0.0012805561 0.0004436486 -0.0013194263 -0.0011009813
000100 b4 8a 07 b9 36 d2 5e 39 ca f9 7c ba 3a 64 37 ba
       -0.00012926274 0.0002124988 -0.00096502586 -0.0006995831
000110 26 ff a9 b8 08 2e 84 b7 da f2 34 b9 8d 56 48 ba
       -8.106073e-05 -1.5757061e-05 -0.00017256607 -0.00076422916
000120 47 53 05 3a 7b 56 26 b9 14 fe 97 ba 73 a8 6c 39
       0.00050859567 -0.0001586321 -0.0011596107 0.00022569466
000130 5f 51 91 3a d0 83 97 38 d8 29 e8 39 8f 5a 42 39
       0.0011086873 7.224793e-05 0.00044281664 0.00018535017
000140 77 07 5f b9 7c f0 5e b9 9a 4e 46 39 01 78 96 ba
       -0.00021269718 -0.00021261157 0.00018912033 -0.0011479856
000150 ff 3b 94 ba 9d c7 7a ba 97 44 a2 3a 78 c0 88 39
       -0.0011309384 -0.0009566488 0.001238006 0.00026083342
000160 e0 17 16 b7 c2 a9 9a 3a 86 5f 79 ba e4 50 77 3a
       -8.946256e-06 0.0011799859 -0.00095128303 0.0009434356
000170 a6 14 83 ba 24 15 1d 39 76 f7 8d ba 6f 1b 3d ba
       -0.001000066 0.00014980562 -0.0010831195 -0.0007213866
000180 53 48 5d ba 24 a5 31 ba f8 44 46 ba 51 e3 1f ba
       -0.0008441258 -0.0006776622 -0.0007563378 -0.00060992414
000190 9c 12 38 ba 18 56 7e ba 1c 23 e1 ba 3e cd 5f ba
       -0.0007021816 -0.000970216 -0.0017176601 -0.00085373584
0001a0 b2 b4 dc b9 24 ef 0c 3a 1c aa 78 3a 15 ad 13 3a
       -0.00042096298 0.0005376211 0.00094857975 0.0005633396
0001b0 ff 35 91 39 f4 1e 49 3a d5 5b 02 3a 03 a3 93 ba
       0.00027696785 0.0007672154 0.00049727905 -0.0011263791
0001c0 2a 0d de 39 a4 8f 46 ba 54 89 49 ba 36 ae 67 ba
       0.00042352948 -0.00075745047 -0.0007688005 -0.000883791
0001d0 cd 05 66 3a d4 44 4a 3a 06 bf 87 ba d7 b5 f8 39
       0.0008774668 0.00077159447 -0.0010356612 0.00047437727
0001e0 2e 3a a3 b8 8c f7 84 b9 92 8a e9 b8 94 fd aa 38
       -7.7832825e-05 -0.0002536144 -0.000111361165 8.153464e-05
0001f0 2e fb cf b8 fa dd 3d 39 5a 03 ae 38 98 ea 7c b8
       -9.917315e-05 0.00018107137 8.297591e-05 -6.0299964e-05
000200 f4 56 e4 38 5f 5e be b9 d8 8e f4 b7 8d 21 c9 38
       0.000108880835 -0.00036309936 -2.9153583e-05 9.590676e-05
000210 5e ee fd 38 ad 28 ed 39 44 79 ba 39 7e 37 2a b9
       0.000121083795 0.00045234468 0.00035567035 -0.00016233136
000220 d8 6f 6d 39 ec 63 8f 39 7a 3e 23 b8 18 6b 29 b9
       0.00022643746 0.00027349533 -3.8920414e-05 -0.00016156991
000230 cb b6 d2 b9 d4 4c 1e 39 c3 65 7b 38 21 7e 02 b9
       -0.00040190513 0.00015096675 5.9937836e-05 -0.00012444753
000240 48 ea 60 38 a0 ac 12 37 c5 60 53 b9 2e 9d 20 39
       5.3623953e-05 8.7424705e-06 -0.00020158578 0.00015317343
000250 aa bb 44 b9 88 5c 82 b9 f7 80 c5 b9 cd e3 5e 3a
       -0.00018761927 -0.00024864473 -0.00037670854 0.0008502573
000260 16 da 23 ba a6 02 05 b8 03 0e 52 3a 1f 06 af b9
       -0.0006250454 -3.1712138e-05 0.0008012952 -0.00033383162
000270 22 6a 9e b9 73 6e 01 ba a4 42 25 ba 45 d1 ba b9
       -0.00030215184 -0.00049374177 -0.0006304181 -0.00035632603
000280 18 aa 71 b9 46 c5 13 b8 91 72 0e 3a 42 64 83 38
       -0.00023046916 -3.5231256e-05 0.0005433942 6.265241e-05
000290 d8 58 f4 b9 10 0c ad 39 a6 5b a7 39 ea 80 8b 38
       -0.000466055 0.0003300612 0.00031921006 6.6520486e-05
0002a0 bb 8a 34 39 2a 62 e0 39 0d a5 c2 39 99 1d 6d b9
       0.00017217819 0.00042797747 0.00037125536 -0.00022613107
0002b0 4c 81 8a ba f6 c3 01 ba a6 c2 1e 39 7c fa 33 ba
       -0.0010567098 -0.000495016 0.00015140566 -0.0006865633
0002c0 be 38 59 3a 28 9c 32 3a 0f c8 a6 b9 c2 dd 0f 38
       0.00082863483 0.000681343 -0.00031811043 3.4300385e-05
0002d0 af d2 3a 3a 5f 04 9a ba fe 40 90 3a ea 18 7f 39
       0.0007126731 -0.001175057 0.0011005697 0.00024327976
0002e0 43 b3 81 39 42 fc 3d b9 80 cf 8b 37 85 f1 c9 b9
       0.00024738358 -0.00018118418 1.6666716e-05 -0.00038517654
0002f0 ab 71 9a 3a 81 1a 77 3a d8 24 4b 3a e2 2b 1b 3a
       0.0011783143 0.00094262516 0.00077493256 0.000591932
000300 27 e0 2e bb 0f 0e 9f b9 96 5a c2 3a b6 5a a8 ba
       -0.0026683898 -0.00030337318 0.0014828022 -0.0012844417
000310 e3 24 e3 b9 9e 65 db b8 20 2e 45 ba 00 52 69 b8
       -0.00043324297 -0.000104616614 -0.0007521827 -5.5627897e-05
000320 af f8 aa ba bc 95 a6 b9 e5 0a 9a 3b 20 3e ce 38
       -0.0013044084 -0.00031773548 0.0047010058 9.834417e-05
000330 60 87 a6 b7 1f cc 1b 3a 34 c4 9e ba 80 50 55 38
       -1.9851781e-05 0.0005943197 -0.0012112916 5.085813e-05
000340 40 1d ad b7 19 a4 08 ba fe 96 a1 ba 69 ce 2b ba
       -2.0636828e-05 -0.0005212441 -0.0012328324 -0.000655389
000350 c1 79 20 ba d0 e9 ab b7 18 49 69 b8 1e 49 3c ba
       -0.00061216584 -2.0493666e-05 -5.5619603e-05 -0.0007182526
000360 9a 71 cb 39 5c 50 a8 38 e8 c7 10 b8 4e cd 5f ba
       0.00038803817 8.025832e-05 -3.4518453e-05 -0.00085373677
000370 29 3a 21 39 dd 35 82 ba 36 86 b7 ba db cb a9 39
       0.00015375823 -0.0009934265 -0.001400179 0.00032386076
000380 53 bd 29 3a 60 54 cc b9 34 60 15 ba 8e 7a 75 b9
       0.000647505 -0.00038972776 -0.00056982343 -0.00023410676
000390 75 6b 28 3a 9b da 21 ba fe ed 76 3a 20 cc 06 38
       0.0006424704 -0.00061742374 0.0009419619 3.2138196e-05
0003a0 48 65 9a bb fe e9 2c 39 6e fc a6 b8 74 ee fa 39
       -0.0047117807 0.00016490367 -7.9625155e-05 0.00047861377
0003b0 c5 6e c8 3a d0 5c 08 ba 2d 05 e6 39 97 5f 03 b9
       0.0015291801 -0.00052018184 0.00043872875 -0.00012528744
0003c0 52 62 78 39 35 54 a0 39 67 2e c5 39 ae 55 2f 39
       0.0002368775 0.00030580317 0.0003760934 0.00016721219
0003d0 3f b4 46 ba c8 7e 72 37 7f fb 9b 39 4e 21 32 b9
       -0.00075799593 1.4453843e-05 0.00029751283 -0.0001698781
0003e0 47 44 76 3a 00 f4 fa b3 83 ec d1 39 14 3a 3a 39
       0.00093943294 -1.16859155e-07 0.000400398 0.00017759978
0003f0 dd 25 9e 3a d4 7c 2d 39 71 c6 46 b9 9b ac 6f b9
       0.0012065727 0.00016545068 -0.00018956677 -0.00022857117

Wb f4 [10, 10]
000000 90 e6 af be 3f fb 58 bf e5 53 99 bc ac 22 10 bf
       -0.34355593 -0.8475837 -0.018716762 -0.56302905
000010 df 93 a2 3e ed db a9 be 60 2f a7 3d 2e a7 12 bf
       0.31753442 -0.33175603 0.08163333 -0.57286346
000020 d1 c0 9a bf 14 d9 c6 bd 22 cd 53 be 57 90 11 bf
       -1.2090093 -0.09709373 -0.2068372 -0.5686087
000030 3c 4a 72 3e b9 da a0 be 07 a1 76 be c7 03 1e bf
       0.2366113 -0.31416872 -0.24084865 -0.61724514
000040 97 82 f7 3e 47 67 57 bf 19 08 66 bf a7 46 2f bd
       0.4834182 -0.84141964 -0.89856106 -0.04279199
000050 73 a1 24 be 5d 01 16 bf e1 c6 92 3d 0f 2f 27 bf
       -0.16077213 -0.5859583 0.071668394 -0.6530618
000060 d2 4e e2 3b ce 1f 29 bf 7a 2d d9 3d 0f 6c aa be
       0.006906369 -0.66064155 0.10604377 -0.33285567
000070 dc 06 52 bf 0e 6d a7 bd d6 17 af be 05 84 5b bf
       -0.82041717 -0.081750974 -0.34197873 -0.8574832
000080 b4 0c 41 bd f5 5f 96 be 4e 32 87 be 36 48 bc be
       -0.047131255 -0.29370084 -0.26405567 -0.36773843
000090 22 6a bc bc 93 ea 3d bf 91 33 43 bf 5e 01 d6 3d
       -0.022999827 -0.74186057 -0.7625056 0.104494795
0000a0 69 36 3f be d6 9d 03 bf 5f c9 0e bc 45 8e 0a bf
       -0.186731 -0.51412714 -0.008715003 -0.54123336
0000b0 2c 38 a2 be 59 b6 ea bd 82 e0 b2 3e 46 83 af bd
       -0.3168348 -0.11460561 0.3493691 -0.0856996
0000c0 0d 23 98 bf 21 2d 10 be 4e 2f 1f be ad c4 58 bf
       -1.1885697 -0.14079715 -0.15545389 -0.84675103
0000d0 09 fa 8e 3a 8f 60 4f be a8 f7 b8 be 0e 52 fd be
       0.0010908257 -0.20251678 -0.36126447 -0.49476665
0000e0 f6 69 95 3e 26 04 a8 bd 77 eb 80 bf 46 7d 5f be
       0.29182404 -0.08203916 -1.0071858 -0.21825132
0000f0 af 24 4f be 8d bf 01 bf eb be 43 bc e8 1a b7 be
       -0.20228837 -0.5068291 -0.011947374 -0.35762715
000100 66 b6 9c be 45 e3 15 bf 09 91 85 3e 8a f9 72 be
       -0.3060791 -0.5854991 0.26087216 -0.23728004
000110 52 f9 57 bf e0 39 6c be a5 53 96 be 1a d0 1d bf
       -0.8436481 -0.23068953 -0.2936069 -0.6164566
000120 a6 78 ca 3d bf 25 ea be f6 e8 6b be d1 78 92 bb
       0.09886293 -0.45731923 -0.23038086 -0.004469969
000130 e4 e1 0c be 00 69 4a bf 17 dd 3e bf 0a 59 20 be
       -0.13758045 -0.7906647 -0.74556106 -0.15658966
000140 43 b9 4a be 6b 1c 4d bf dc 9d bb 3d 04 c3 05 bf
       -0.19797234 -0.8012149 0.09160969 -0.52250695
000150 6a cf 85 3e c6 95 d9 bd 94 bf 23 3e 07 b7 dd be
       0.26134807 -0.1062427 0.1599105 -0.433037
000160 0c 60 8b bf b4 22 10 be f2 27 9e be 13 a1 22 bf
       -1.0888686 -0.14075738 -0.3088985 -0.6352703
000170 72 fd ab 3d 8a 5e af bd 26 a2 3b 3c 38 6b c1 be
       0.0839795 -0.08562954 0.011452233 -0.37777114
000180 2a 1f 99 bd c1 e6 87 be a3 09 a1 bf 7f e7 f8 3c
       -0.07476647 -0.2654324 -1.2581066 0.030383823

conv.weight f4 [10, 1, 20]
000000 de 52 a8 be ec 69 89 be 59 ff a0 be f6 49 bf be
       -0.32875723 -0.26838624 -0.31444815 -0.37361115
000010 e6 80 d5 be d6 4d e3 be f4 e2 91 be af cd 8e be
       -0.41699904 -0.44395322 -0.28493464 -0.278913
000020 94 2a d4 be df 9c 9a be 96 89 bb be 71 9a 7b be
       -0.41438735 -0.30197808 -0.36628407 -0.24570633
000030 29 f4 b8 be 03 aa 79 be d4 43 7f be e9 e9 84 be
       -0.3612378 -0.2438126 -0.24928218 -0.2595971
000040 b2 c8 7b be 12 33 8c be 08 89 88 be 42 10 c2 be
       -0.24588278 -0.27382714 -0.26667047 -0.3790303
000050 92 18 36 bf ee c4 31 bf af 3f 28 bf 00 84 2f bf
       -0.7113124 -0.69441116 -0.65722173 -0.6856079
000060 2f 60 2c bf bf 65 23 bf f0 9b 21 bf 45 92 19 bf
       -0.67334265 -0.6382713 -0.63128567 -0.59988815
000070 44 80 1c bf 3e 50 f5 be 6c 6f cd be d0 dd ac be
       -0.6113322 -0.47912782 -0.4012407 -0.3376298
000080 9e 43 2f be 24 e6 bc bc 28 47 16 3e dd ce a1 3e
       -0.17115638 -0.023058958 0.14675581 0.31603137
000090 fa 56 dd 3e f2 21 13 3f 2a 72 46 3f a4 9e 87 3f
       0.4323042 0.5747367 0.7751795 1.0595288
0000a0 aa 83 72 be fc 26 92 be d6 21 58 be 77 16 6d be
       -0.23683038 -0.28545368 -0.21106657 -0.23153101
0000b0 1e 32 84 be 5b 56 3c be 9f 04 37 be c2 94 92 be
       -0.25819486 -0.18392317 -0.17872857 -0.28629118
0000c0 a3 a9 8d be b8 d6 2f be 87 05 7f be 78 c9 44 be
       -0.27668485 -0.17171752 -0.24904452 -0.19217479
0000d0 a0 4d 61 be 72 04 44 be 05 29 6e be 59 1f 42 be
       -0.22002268 -0.19142321 -0.23257835 -0.1895727
0000e0 aa f0 58 be 52 ad 50 be e0 f5 4f be bd c8 21 be
       -0.21185556 -0.20378616 -0.20308638 -0.15799232
0000f0 fc 3f b9 bb 32 70 4d bb 70 70 78 ba dc e3 ae ba
       -0.0056533795 -0.0031347391 -0.0009477204 -0.0013343054
000100 15 52 8e 3b 32 1e 0f 3c da c9 f7 3b b4 b0 55 3c
       0.004343281 0.0087352265 0.0075619044 0.013042618
000110 ae 92 4d 3c a6 aa 90 3c e4 58 c1 3c b6 09 a1 3c
       0.012547178 0.017659497 0.023601957 0.01965795
000120 66 8c 44 3c b4 21 a1 ba ca 09 f5 bb 4b 56 48 bc
       0.011996364 -0.001229337 -0.0074779736 -0.012227605
000130 fe e4 61 bc 24 11 61 bc 8e 11 5e bc 73 8c 22 bc
       -0.013787506 -0.013736997 -0.01355399 -0.009921181
000140 b7 a7 0d bb fd 63 fb ba 87 48 a2 bb 41 36 8b bb
       -0.0021614858 -0.0019179579 -0.0049524936 -0.004248411
000150 39 b6 85 bc df 2b f9 bc db c0 14 bd 21 a8 38 bd
       -0.016322242 -0.030416427 -0.036316734 -0.045082215
000160 d4 74 6f bd 2b 61 d0 bd cd 0c cf bd 40 37 da bd
       -0.058461025 -0.10174783 -0.101098634 -0.10655069
000170 a1 0e de bd c0 93 f9 bd af 08 0a be 59 10 13 be
       -0.10842634 -0.12186384 -0.13479875 -0.14361705
000180 a5 b5 fa bd 3b 5e f3 bd 99 cc 3d be 81 83 dd bd
       -0.12241677 -0.118832074 -0.18535079 -0.10816098
000190 22 08 bd ba 76 46 cb ba 0c 9d f3 39 1a b7 10 3a
       -0.001442198 -0.001550867 0.0004646558 0.00055204483
0001a0 bd 32 28 3b f4 a8 16 3b 66 f3 ed 3a 4a 97 00 3b
       0.0025665008 0.0022988888 0.0018154203 0.0019621425
0001b0 d3 04 dd 3a 90 15 9a 3a 5b 4e 78 39 fa 4a 84 ba
       0.00168624 0.0011755694 0.00023680313 -0.0010093146
0001c0 0c b5 5d ba 0e 7f 6f ba a5 42 8b ba 7c ee 39 ba
       -0.0008457459 -0.0009136059 -0.001062472 -0.0007092727
0001d0 cd f5 d3 ba 58 81 e5 ba d3 05 f9 ba 3d 03 b7 ba
       -0.0016171277 -0.0017509861 -0.0018998928 -0.0013962757
0001e0 62 a7 bf 3b 24 8f e0 3b 68 72 f4 3b e3 e4 f4 3b
       0.005848811 0.006853001 0.0074599274 0.0074735745
0001f0 93 31 0b 3c cb 9d 15 3c 80 78 13 3c 61 51 13 3c
       0.008495706 0.009131859 0.009000897 0.00899157
000200 61 94 15 3c 32 fe 21 3c 11 0a 25 3c 37 75 0b 3c
       0.009129615 0.009887265 0.010073201 0.008511833
000210 66 79 fc 3b a7 d8 ff 3b 3e 2f fd 3b 16 31 ea 3b
       0.0077049015 0.0078078094 0.007726579 0.007146965
000220 1a 8d f6 3b 2c d1 f7 3b 11 80 fd 3b 7a 66 d7 3b
       0.007524145 0.007562777 0.007736214 0.0065734955
000230 5d ce 75 be 52 50 58 be ae 3b 8d be 66 7b 5f be
       -0.24004503 -0.2112439 -0.27584594 -0.21824417
000240 71 53 bf be 72 f5 40 be 1c 7e b0 be 7b 41 ae be
       -0.37368348 -0.1884363 -0.34471214 -0.34034333
000250 91 1b 4e be e8 b1 92 be b7 db 51 be d9 9e a9 be
       -0.20127703 -0.28651357 -0.20493971 -0.33129004
000260 20 55 47 be b2 78 39 be 6b 73 72 be a0 7c 41 be
       -0.19466066 -0.18112448 -0.23676841 -0.18895197
000270 2d e6 a6 be 6b 2b 8a be 65 6d 61 be e7 30 46 be
       -0.32597485 -0.2698625 -0.22014387 -0.19354592
000280 65 01 b4 be 19 4e 6f be 91 7c a7 be 1c a0 b4 be
       -0.35157314 -0.23369636 -0.32712224 -0.35278404
000290 a0 7d 8c be 69 c1 c1 be ac d7 c4 be 18 f8 80 be
       -0.27439594 -0.37842873 -0.38445795 -0.2518928
0002a0 3d 3a 7f be f1 89 76 be 83 b1 93 be 12 60 b1 be
       -0.2492456 -0.24076058 -0.28846368 -0.34643608
0002b0 e0 67 b2 be 6b b6 3a be dd 8e b1 be 7b 89 6d be
       -0.34844875 -0.1823365 -0.3467931 -0.23196976
0002c0 f7 7d 3c be bb f3 37 be 80 5b 99 be 17 39 8b be
       -0.18407427 -0.1796407 -0.2995262 -0.27191994
0002d0 f5 40 be be 94 1f 6f be ec fe c1 be d8 6d c4 be
       -0.37158933 -0.2335189 -0.37889802 -0.38365054
0002e0 79 18 b5 be 78 4d 59 be f2 4a 67 be 16 f5 5f be
       -0.35370234 -0.21220958 -0.22587183 -0.21870837
0002f0 6e fe 54 be bd c2 a3 be eb 4a a6 be 07 9e a9 be
       -0.20800182 -0.3198451 -0.32479033 -0.33128378
000300 05 74 79 be e3 44 75 be f0 57 80 be 08 c2 a8 be
       -0.24360664 -0.2395206 -0.2506709 -0.32960534
000310 08 eb 82 be 45 83 98 be b0 24 89 be d9 c8 87 be
       -0.2556994 -0.2978765 -0.26785803 -0.26520422

conv.bias f4 [10]
000000 fc a6 e7 be e6 f8 44 3e ed 3e 1f be 18 21 67 be
       -0.45244586 0.19235572 -0.15551348 -0.22571218
000010 42 5c d6 be f2 6c 36 bd 99 1d 1c be eb 2a 5d be
       -0.41867262 -0.044537492 -0.15245666 -0.21598403
000020 26 ce 7c be c3 d0 6e be
       -0.24688014 -0.23321824

conv_long.weight f4 [10, 1, 10]
000000 0d 32 f5 bc 13 ca 90 bc 67 4f 43 bc 34 f4 d4 bb
       -0.029931093 -0.017674481 -0.011920786 -0.006498838
000010 6a 71 97 bb 4e 85 d3 bb 11 e7 48 bc 88 c0 da bc
       -0.0046216743 -0.0064551 -0.012262122 -0.026703134
000020 14 e0 24 bd ac aa b7 bd da 54 3e bd e9 91 5f bd
       -0.04025276 -0.089681 -0.04646764 -0.05458251
000030 76 6c 86 bd f2 2b c6 bd 59 b4 8e bd 28 a6 83 bd
       -0.06563656 -0.09676351 -0.06967992 -0.06428176
000040 a8 fe 93 bd 45 31 57 bd 2c 84 2f bd 2d 9b 84 bd
       -0.07226306 -0.05253722 -0.04285066 -0.0647491
000050 19 8b 98 be 84 47 0b bf 9d d6 ba be ee 21 d9 be
       -0.29793623 -0.54406 -0.36491862 -0.424087
000060 22 3f 03 bf 27 90 b7 be 2e b4 aa be 6e be c7 be
       -0.5126821 -0.35852167 -0.3334059 -0.39012474
000070 8f 6b 97 be 74 a1 8a be 72 0e 89 ba 4d 1d d2 ba
       -0.29574248 -0.27076304 -0.0010456576 -0.0016030461
000080 5e 1f ce ba 1d 85 bd ba 54 72 66 ba d1 4d 9c 3a
       -0.0015725901 -0.0014459227 -0.000879084 0.0011925047
000090 ae 90 8e 3a c5 3e 77 39 3e c9 09 3a e2 9b 57 3a
       0.0010876858 0.00023579139 0.00052561227 0.00082248275
0000a0 68 08 0a be 5b 8b 8f be 73 e1 61 be 5f d6 3d be
       -0.13479769 -0.28036007 -0.22058658 -0.18538807
0000b0 06 cd 23 be a6 95 0b be 5c dc 06 be 90 08 3a bd
       -0.15996179 -0.13631305 -0.13169998 -0.045418322
0000c0 ab 3f 3c bd 6b e8 a2 bc 86 91 f3 bd af 6a 02 be
       -0.045959156 -0.019886216 -0.11892991 -0.12736009
0000d0 5b 2f 9c be a1 a8 b6 be b5 61 28 be 9f 89 d5 bd
       -0.3050488 -0.3567553 -0.16443522 -0.1042664
0000e0 7b bf 9b be 5e 69 6e be cb 18 94 be 3a 8d 04 be
       -0.30419526 -0.23282382 -0.28925166 -0.12944499
0000f0 01 c9 8b bd 3e 06 ef bd 7c 77 2f be 19 35 80 be
       -0.06825448 -0.116711125 -0.17135423 -0.2504051
000100 e1 24 8f be 85 ce 9d be 2d fc a7 be dd fa d2 be
       -0.27957824 -0.30821624 -0.32809582 -0.41207018
000110 31 e0 f6 be ec 25 08 bf df dd f4 bd 84 74 0a be
       -0.4821792 -0.53182864 -0.11956381 -0.1352101
000120 b9 04 04 be 06 d7 f1 bd 64 63 e0 bd 40 a4 f6 bd
       -0.12892427 -0.118085906 -0.10956457 -0.12043047
000130 1b 87 d2 bd dc eb d2 bd ad dd e3 bd 02 0d ee bd
       -0.102796756 -0.10298893 -0.11126266 -0.11623575
000140 f4 ce 01 bf cb dd a7 be 43 93 11 bf d4 93 a0 be
       -0.5070641 -0.32786402 -0.5686533 -0.31362784
000150 ec 7f 23 bf 3f 61 19 bf 4e 35 cc be e9 b4 04 bf
       -0.6386707 -0.5991401 -0.39884418 -0.51838547
000160 10 ff cb be 2e 97 84 be ed 80 96 be 15 a7 44 be
       -0.39843035 -0.2589659 -0.29395238 -0.19204362
000170 6b 83 e3 be c5 a6 e5 be 7c 69 c2 be 73 a4 c7 be
       -0.444362 -0.44853798 -0.37971103 -0.38992652
000180 c3 20 dc be 07 08 b3 be 1d 42 33 be d6 f8 cf be
       -0.42993745 -0.34967062 -0.17505689 -0.40619534

conv_long.bias f4 [10]
000000 22 f5 ef be 82 c1 ce be 0d 71 91 be 7c dd 32 be
       -0.4686671 -0.4038201 -0.28406563 -0.17467302
000010 0d 8c e4 be 06 e1 4b be b1 40 90 bd c6 b9 2f bf
       -0.446381 -0.19910058 -0.07043589 -0.6864284
000020 46 83 73 be 4d bf 40 be
       -0.23780546 -0.18822975

conv1.weight f4 [30, 30]
000000 8b 3a 81 ba 22 eb b4 39 76 8c b4 b7 0a 1c 49 3a
       -0.0009859366 0.00034507463 -2.152308e-05 0.00076717196
000010 78 fd f3 b8 43 98 b1 be a0 ed d9 3a c5 65 1c be
       -0.00011634355 -0.3468648 0.0016626604 -0.15273197
000020 87 83 4f 3b f9 13 cf be 90 5a 7b 3a 4c de c9 3a
       0.003166409 -0.40444925 0.0009588385 0.0015401333
000030 fa f8 77 be 4b 2c 58 be 2e ef 4b be 85 ee c4 be
       -0.24216071 -0.21110646 -0.19915459 -0.38463226
000040 ff 9f 12 be 94 6b b6 be aa 35 1f 3a 18 15 ab b8
       -0.14318846 -0.3562895 0.0006073365 -8.1578444e-05
000050 c7 e7 25 be ee 8c 16 3a 67 46 63 b9 5a 5d ab be
       -0.16201697 0.0005743046 -0.00021674634 -0.3346966
000060 0c b1 2b be a0 0f 9a 39 a6 47 c5 be 5b bb e7 3a
       -0.16766757 0.0002938481 -0.38531226 0.0017679738
000070 91 e2 7a be 78 fe ea be cd 1d 77 38 c4 aa 0b 3a
       -0.2450049 -0.4589727 5.8917143e-05 0.0005327875
000080 bc 93 c3 b8 f4 99 88 3a 62 60 27 b9 73 c3 08 ba
       -9.325842e-05 0.0010421858 -0.00015962266 -0.00052171125
000090 60 0c b9 b7 80 0e 5c b7 79 e3 f8 bc dd 21 f8 3c
       -2.2059481e-05 -1.3116398e-05 -0.030381905 0.030289585
0000a0 8f 31 bd ba 1e 35 88 bd 46 5d 24 ba 2f 55 dd b9
       -0.0014434325 -0.06650756 -0.00062700023 -0.00042215872
0000b0 66 a5 5e 39 a1 a8 94 b9 44 af 08 37 b2 85 b7 ba
       0.00021233186 -0.00028354398 8.147039e-06 -0.0014001636
0000c0 d8 9b ef b9 d1 f9 d6 b8 9c d6 d7 b8 1c ff a2 39
       -0.00045701745 -0.00010250847 -0.00010291973 0.0003108912
0000d0 57 37 24 38 0c f4 8d 3b 2d d7 40 3d 41 ef 0f 39
       3.9152186e-05 0.004332071 0.047080208 0.00013726672
0000e0 0d b6 84 3c 72 d0 22 bd 80 f4 f2 3c b7 87 a8 b8
       0.01620009 -0.03974957 0.029657602 -8.036143e-05
0000f0 80 79 9b b4 b0 56 15 3a 7c 2b 60 38 f1 ad 87 3a
       -2.8959403e-07 0.00056968164 5.344626e-05 0.0010351521
000100 54 bd 84 b9 d4 27 14 38 db f5 7a 39 a4 61 4a 39
       -0.00025318062 3.5323043e-05 0.00023933446 0.00019300595
000110 4c 1d d0 bc 73 76 85 3c 6d a0 e8 ba 9b e8 0e bd
       -0.025404595 0.016291833 -0.0017748006 -0.0348898
000120 7a 95 91 ba 4b c8 da b9 cc a4 49 39 4e 18 2e ba
       -0.001110717 -0.0004172943 0.00019230245 -0.0006641195
000130 ee 03 d7 38 aa ce 26 bb 42 16 bc b9 53 dc 56 39
       0.00010252731 -0.0025452771 -0.00035874738 0.00020490708
000140 77 ee 75 39 92 af 8a 39 ca 9a 04 b9 90 d0 82 3b
       0.00023453856 0.0002645222 -0.00012646164 0.0039921477
000150 98 65 54 3d 0d 3a e5 b8 e1 9a bc 3c d7 fd bb bd
       0.0518547 -0.00010930384 0.02302307 -0.091792755
000160 51 99 e8 3c d5 57 01 3a 8f c6 c8 be 5e a4 c2 b8
       0.02839342 0.00049340475 -0.39213988 -9.281257e-05
000170 94 12 84 bd 18 c3 de b8 c8 e2 a6 3f f4 6f 3e 39
       -0.06448856 -0.00010622124 1.3037958 0.00018161518
000180 a3 88 1e bf d6 df 06 b8 79 d6 3c b9 c4 38 1b 39
       -0.6192724 -3.2156553e-05 -0.00018008974 0.00014803099
000190 e1 04 ea b8 51 c6 cd 38 50 b4 30 39 7d 62 91 b8
       -0.00011158898 9.812101e-05 0.0001685184 -6.932484e-05
0001a0 88 5e 13 39 66 4b 29 39 13 9f 1e be fc e7 89 b7
       0.00014054228 0.00016145184 -0.1549037 -1.6439699e-05
0001b0 81 40 63 be 05 b9 72 bb 34 15 31 37 4c 31 ef 37
       -0.22192575 -0.003703655 1.0554959e-05 2.8513976e-05
0001c0 f8 3b 21 b8 72 80 27 b8 20 61 d9 38 9a a4 96 bd
       -3.844124e-05 -3.9935527e-05 0.00010365457 -0.07355614
0001d0 e8 02 4d 39 a8 61 a6 b8 e4 c4 15 39 55 38 2c b9
       0.00019551406 -7.933687e-05 0.00014283095 -0.00016424184
0001e0 90 b0 8a b6 f8 75 9d b9 84 1e 76 39 5f c3 7b ba
       -4.133275e-06 -0.00030033267 0.00023471756 -0.00096040027
0001f0 06 7a 6e 38 4d 87 92 ba 41 50 b0 38 4c 5c 69 b7
       5.6857265e-05 -0.0011179239 8.4072824e-05 -1.3909372e-05
000200 bb 09 f1 bb 80 c5 54 3b 04 8b 84 ba 40 50 c5 bc
       -0.0073558963 0.0032466352 -0.0010112231 -0.024086118
000210 da fb 33 bb f4 af 67 b9 f0 cf 29 b9 2d ef 8f 38
       -0.0027463348 -0.00022095424 -0.00016194559 6.863321e-05
000220 78 db 8c 39 da 1e 0f bb 6e 78 c5 b9 52 c2 7d 38
       0.00026866398 -0.0021838457 -0.00037664495 6.0500875e-05
000230 9f d1 0f 39 92 1b be b9 5d 61 e6 38 a9 96 2b bb
       0.00013715633 -0.00036260166 0.0001098539 -0.002618233
000240 82 d9 72 3c a0 f3 cd 38 1f c3 ae 3b 71 a5 65 bd
       0.014822366 9.8205404e-05 0.005333319 -0.05606598
000250 ad 9b 38 3c c1 e0 62 b9 d2 16 a8 37 f4 8d 6a 39
       0.011267585 -0.00021636767 2.0037787e-05 0.0002236886
000260 e4 9c 8f 37 79 e4 fd ba 80 79 1d 35 de 11 b2 ba
       1.7119986e-05 -0.0019370458 5.8663863e-07 -0.0013585647
000270 d1 7a ce b8 eb 53 ad 37 f9 a8 f9 bb ff 4d 32 3b
       -9.845722e-05 2.0662284e-05 -0.00761902 0.0027207134
000280 e1 27 8c ba d0 e8 03 bd 89 35 0c bb cb a7 f1 b8
       -0.0010693037 -0.03220445 -0.0021394214 -0.000115230294
000290 e8 77 00 b9 16 1c 76 b9 04 12 21 b8 e0 27 d6 ba
       -0.000122517 -0.00023470851 -3.840217e-05 -0.0016338788
0002a0 34 18 7f b9 aa 06 83 38 a3 d4 5d b9 5a 34 de 39
       -0.00024327711 6.247808e-05 -0.00021155416 0.00042382145
0002b0 f6 2e 6f b8 0c ff 59 bb e4 e2 c9 3c d0 4c 84 b8
       -5.7025776e-05 -0.0033263592 0.024644323 -6.308558e-05
0002c0 c6 f3 a7 3b 49 f6 c0 bc 72 a6 09 3c 6e ab 2c 39
       0.0051254956 -0.023554938 0.0084015 0.00016467061
0002d0 ee c3 01 3b e5 9f 81 b9 18 cf bc b7 68 ac bd ba
       0.001980062 -0.00024723928 -2.2507782e-05 -0.0014470937
0002e0 98 f2 04 b7 59 78 e5 be 6c d0 f7 ba 56 11 b4 be
       -7.924296e-06 -0.4481838 -0.0018906719 -0.35169476
0002f0 7a 6a 11 bc 7b c1 a8 be 56 d3 9d 39 8a e2 a3 bc
       -0.008875484 -0.32960114 0.0003010283 -0.020005483
000300 f0 10 f2 be c3 1d 9d be a5 31 65 be 55 bf c9 be
       -0.47278547 -0.3068677 -0.22382219 -0.39403787
000310 fc d4 30 be 01 6d a2 be 62 49 04 ba 8a b2 2a 38
       -0.17268747 -0.31723788 -0.0005046335 4.0697436e-05
000320 e1 12 15 be aa 02 99 b9 12 15 c3 b8 6c 94 9b be
       -0.14557983 -0.0002918442 -9.302249e-05 -0.30386674
000330 d9 ee f2 bd 99 bd 44 ba 68 69 04 bf f5 be e2 bc
       -0.11861963 -0.0007505059 -0.5172334 -0.027678946
000340 99 04 dc be e1 e8 15 bf 0b de 8e bb a8 1f 80 b9
       -0.42972258 -0.5855847 -0.0043599657 -0.00024437648
000350 9c aa 99 b9 d9 0e 10 3b b5 eb 92 b9 6c d0 81 be
       -0.00029309548 0.0021981506 -0.00028022905 -0.25354326
000360 40 17 4a 3b fe 82 c7 bd 69 26 33 bd 22 c4 6a be
       0.0030836612 -0.09741782 -0.043737803 -0.22926381
000370 ee fb 03 bb 63 69 51 bd ac dd 09 be 27 26 39 be
       -0.0020139175 -0.051125895 -0.13463467 -0.1808096
000380 28 d6 57 be 33 dc 4f be c5 d5 e0 bd cd df ea be
       -0.21077788 -0.20298843 -0.10978273 -0.4587387
000390 dc 58 1d ba 94 d6 df b9 66 21 1f be da 95 97 b9
       -0.0006002316 -0.00042693748 -0.15540084 -0.00028912612
0003a0 19 32 5d 3a 21 2d dd be 8b 96 e8 bd 30 58 1d ba
       0.0008437946 -0.43198493 -0.11356839 -0.00060022157
0003b0 c6 45 7a be 4e 41 a9 bd c0 8c 32 be b4 b5 4d be
       -0.24440679 -0.08264409 -0.17436504 -0.20088845
0003c0 cb 1e 7c bb 89 4e 01 ba 19 01 90 b9 d4 05 be 3a
       -0.0038470502 -0.0004932662 -0.00027466638 0.0014497587
0003d0 de cb c5 b9 e2 75 9e be 31 6e f6 3a 37 5c bd bd
       -0.0003772666 -0.30949312 0.001880115 -0.09246104
0003e0 b6 ce d8 bc 03 ea 1b be 84 b2 84 ba c8 ce 92 bd
       -0.026465755 -0.15225987 -0.0010124003 -0.07168347
0003f0 1c 79 0f be f6 07 61 be 63 06 6c be 19 90 e9 be
       -0.14011043 -0.21975693 -0.23049311 -0.4561775

conv1.bias f4 [30]
000000 e7 16 a4 3e 2e 88 3f be 36 41 06 bf 11 2b 50 be
       0.32048723 -0.18704292 -0.52443254 -0.20328929
000010 f9 6a 89 be 6f 86 fe be c9 98 07 3f 1d 0b b6 be
       -0.26839426 -0.4971194 0.52967507 -0.35555354
000020 1c ea a0 be 4f a1 7a be 61 ea b6 bd ce 2f ae be
       -0.3142861 -0.24475597 -0.08931423 -0.34020847
000030 61 e0 8e be 13 fc 9d be ea 0f 9f be 77 b3 fc be
       -0.27905563 -0.3085638 -0.3106683 -0.4935567
000040 9b ff 07 bf ec 93 06 bf d1 71 e2 bd fb f2 8f bd
       -0.531244 -0.5256946 -0.11056865 -0.07028767
000050 ab 05 52 be cb 3e 44 bc 54 ce 85 bd 31 14 cf be
       -0.20509975 -0.011977862 -0.065334946 -0.40445092
000060 7c 73 1a be c8 2f 8b be 39 b3 f2 be eb 27 b9 be
       -0.15083116 -0.27184892 -0.4740236 -0.36163267
000070 f9 c0 a4 be f0 34 d3 be
       -0.32178476 -0.41251326

conv2.weight f4 [30, 10]
000000 37 c3 31 3e 40 47 dd be b1 f1 6d be 6c a3 9c 38
       0.17359625 -0.43218422 -0.23236729 7.4690994e-05
000010 e5 2e 9f bd 04 94 87 be c1 c9 1b be 42 e7 02 b9
       -0.07772616 -0.26480114 -0.15213682 -0.00012483916
000020 14 2b e6 39 5c de 87 b8 ef 7a b7 bb b3 46 c4 b9
       0.00043901114 -6.478719e-05 -0.0055993716 -0.00037436708
000030 54 c7 6c 39 d1 c1 8e b9 d0 98 98 39 0e 04 cb 39
       0.0002258097 -0.00027228755 0.00029105553 0.00038722198
000040 e4 f3 2d 39 14 ec 94 39 c2 bf db 38 a2 b4 dc 39
       0.00016589422 0.00028404652 0.000104784514 0.00042096252
000050 1a e8 21 bf a3 1e 86 3a 64 7b 81 3a 25 e8 22 b9
       -0.63244784 0.0010232519 0.0009878692 -0.00015536005
000060 f4 59 fe 39 01 f4 66 ba 44 2b 93 bd 2a b3 2c 39
       0.00048513676 -0.0008810163 -0.07185987 0.00016469942
000070 68 99 48 b7 bc 89 14 b7 20 8e ae b6 eb b6 e3 3e
       -1.1956647e-05 -8.853556e-06 -5.2021496e-06 0.44475493
000080 23 28 26 3e 67 3a e4 bd e0 79 c9 3d 72 a3 84 3e
       0.16226248 -0.11143952 0.09837699 0.2590595
000090 b6 03 2a 39 e9 cc 9e bd 8d d0 b5 ba 56 b5 65 be
       0.00016213846 -0.07753927 -0.0013871357 -0.22432455
0000a0 28 df 55 bf e4 e8 01 bf 54 08 ad 3c bd 3e db bd
       -0.83543634 -0.5074599 0.021122135 -0.10705326
0000b0 0b b0 27 3c de d8 2d 3c c6 02 d9 38 60 b6 ab bb
       0.010234843 0.010610787 0.00010347883 -0.0052402467
0000c0 58 51 63 38 2e db 24 be f7 15 07 39 b5 f1 9c be
       5.4196775e-05 -0.16099235 0.00012882786 -0.30653158
0000d0 fa 81 b7 be 35 62 89 39 ab e8 dd bd 66 16 f0 bd
       -0.35841352 0.00026203846 -0.108353935 -0.11723022
0000e0 86 c8 01 39 b1 58 85 b8 8f 8f b8 be 8e 5a 30 b9
       0.000123771 -6.358454e-05 -0.36047027 -0.00016818402
0000f0 4d ed 8c 3e cf 77 f6 be 76 f7 5e be 67 38 9e 38
       0.27524796 -0.48138282 -0.21774086 7.544533e-05
000100 75 7c b1 bd f8 ee bf be a7 bb 75 be 5d 14 fa b8
       -0.086663164 -0.37487006 -0.23997365 -0.00011924722
000110 c0 92 cd 37 1c e2 a5 38 da 9b 12 ba 94 a7 b6 be
       2.450624e-05 7.909929e-05 -0.00055926817 -0.35674727
000120 6f 28 dc be f2 c5 18 39 d1 9c b5 be 20 59 b1 be
       -0.42999598 0.0001456959 -0.35471204 -0.3463831
000130 b8 fb 58 b8 cf f4 a3 b8 22 24 93 be ac dc 9d b9
       -5.1732844e-05 -7.818045e-05 -0.28738505 -0.00030109787
000140 b4 04 4f 39 c0 e2 b5 3e 87 9f ac 3e 91 0d 15 be
       0.0001974281 0.3552456 0.3371546 -0.14555956
000150 b8 a7 ae 3e cc 0f 8a 3e d5 53 7d bc 87 70 44 be
       0.34112334 0.26965177 -0.015461882 -0.19183551
000160 be 03 bc 3a 82 b6 bf be be 93 91 ba 01 2d bd be
       0.0014344377 -0.3744393 -0.0011106653 -0.36948398
000170 df f3 29 bf a9 00 88 be c3 8f 0c be 1e 45 05 bf
       -0.6638774 -0.26563004 -0.13726716 -0.5205859
000180 a1 1b 6e bb 55 5b a4 bd fd 5c a2 bd 33 a3 16 be
       -0.0036332386 -0.08025233 -0.07927892 -0.14710693
000190 7d 77 28 39 9b da 3d 3e 15 61 d3 3e c9 d8 6d be
       0.00016066241 0.18540423 0.41285005 -0.23227228
0001a0 c0 44 56 3e 5d ab 20 3e a9 07 11 b9 8b 02 89 be
       0.20924664 0.1569037 -0.00013831131 -0.26759753
0001b0 74 11 f2 3a 4a 0a 19 bf 36 8f fe b8 f0 e4 2c ba
       0.0018468336 -0.59781325 -0.00012138339 -0.00065953936
0001c0 bf fe 06 3b 10 aa cd b6 cf d0 24 3a 2e f6 b6 b9
       0.0020598618 -6.129274e-06 0.00062872184 -0.00034897163
0001d0 2b 1c 1d 39 38 ce ce 39 66 e7 81 39 03 6e 16 3b
       0.0001498318 0.00039445027 0.00024777203 0.0022953756
0001e0 93 fc ad b8 fc 00 cc be bb e0 e8 bd c9 c2 41 be
       -8.2963285e-05 -0.398445 -0.11370989 -0.18921961
0001f0 f3 4e 8b be 99 83 0d bf 17 80 ce 3a b8 0f 96 bc
       -0.2720867 -0.5527893 0.0015754726 -0.018318042
000200 ad 18 0c bf 86 bd fc bd 71 f0 c6 b8 92 9e da 3a
       -0.5472515 -0.12340836 -9.4861614e-05 0.0016679338
000210 26 44 83 ba a2 8a c1 b8 63 0c 00 ba b0 d7 cb ba
       -0.0010014817 -9.2287795e-05 -0.0004884658 -0.0015551951
000220 b6 26 81 39 4a 50 88 b9 ad 16 50 ba 90 12 2b b6
       0.0002463364 -0.0002599976 -0.0007937949 -2.549179e-06
000230 4d b3 a4 39 e4 6f fb bd bc 01 de bc 48 e6 5b b8
       0.00031414107 -0.12277201 -0.027100436 -5.2428135e-05
000240 81 5e ce bc 10 3b 92 bd c0 0f 55 b8 72 b6 8f b9
       -0.025191547 -0.071401715 -5.0797826e-05 -0.00027411018
000250 0f 9c 25 3b b6 f7 0f 39 40 0b 84 3a a3 8a 80 be
       0.002527002 0.00013729822 0.0010074154 -0.2510577
000260 2f 88 23 be 65 3a b4 39 aa 37 85 be d1 fe f3 be
       -0.15969919 0.00034375783 -0.2601903 -0.47655347
000270 0d 66 e8 38 32 c9 e5 b8 6c 6c 72 be 01 66 20 ba
       0.000110816305 -0.000109570465 -0.23674172 -0.00061187154
000280 34 d8 ce be 2f 8a 28 bf 67 51 fe bd 52 37 f2 b9
       -0.40399325 -0.6583585 -0.1241787 -0.00046199054
000290 27 e4 16 be 1b 47 26 bf 8f b0 4d be e9 12 a5 b9
       -0.1473547 -0.6495225 -0.20086883 -0.00031485342
0002a0 dc 58 6a bd ef 10 44 b9 fe c8 58 b9 0c 2a b6 be
       -0.05721365 -0.00018698325 -0.0002067424 -0.35578954
0002b0 38 fc de bd 51 46 03 ba ed f2 39 be 05 11 15 be
       -0.10887951 -0.00050077314 -0.18159075 -0.14557274
0002c0 fd c9 ef 38 80 1b 60 ba 93 b8 82 be 35 0a e3 39
       0.00011434031 -0.00085490197 -0.25531444 0.0004330442
0002d0 52 f4 96 be cc 31 da 3d f6 b4 e7 3c 30 b3 ef bd
       -0.29483277 0.10654029 0.028284531 -0.11704099
0002e0 41 aa ee 3c 62 d0 b8 3d b0 1b e1 b7 98 c2 84 bb
       0.029133918 0.09024121 -2.6834983e-05 -0.0040515177
0002f0 a7 44 1e 3a 25 91 6e be 37 8d 2d bc 4c 46 0f b7
       0.00060374517 -0.23297556 -0.01059275 -8.5398315e-06
000300 73 5b 93 b8 b4 8b da 38 84 8f 5c b9 c1 fa 29 b9
       -7.02654e-05 0.00010421072 -0.00021034299 -0.00016210509
000310 10 ec b2 ba 38 f0 36 38 1d a2 97 39 f6 e4 23 b8
       -0.0013650674 4.3615903e-05 0.00028921748 -3.9075465e-05
000320 44 db 41 ba fb 0c 01 bf ba b4 bc be 3f 5c 66 b9
       -0.0007395039 -0.5041043 -0.36856633 -0.00021968874
000330 51 a9 81 be dc e4 9d be ed 96 8a b9 06 b5 8a 38
       -0.2532449 -0.30838668 -0.0002643386 6.614071e-05
000340 e1 53 cd be 21 45 ea b9 c6 5d 8a b8 90 54 38 3e
       -0.40103057 -0.00044683463 -6.5978194e-05 0.18001008
000350 25 da 9e 3c 71 7e bc bd 6e 26 5c 3c c1 0b a9 3d
       0.019391129 -0.09203804 0.013436897 0.08254195
000360 d2 c0 8c b8 7c ec d1 bb e4 15 c6 39 77 ee 87 bd
       -6.711636e-05 -0.006406365 0.00037781813 -0.066372804
000370 c2 39 38 b8 b5 05 12 3a 40 67 a4 39 e6 03 3a b9
       -4.392281e-05 0.00055703084 0.00031357445 -0.00017739795
000380 ca 5b df b9 20 01 84 38 2e a8 1c 39 c4 4d a7 b7
       -0.00042602263 6.29446e-05 0.00014939971 -1.9944164e-05
000390 50 d1 30 37 92 43 93 b7 36 02 a6 ba 54 f5 07 be
       1.0539152e-05 -1.755523e-05 -0.0012665454 -0.13277179
0003a0 1c 0f 85 be 8c 25 65 be ba f2 a4 be d6 ab d1 be
       -0.2598809 -0.22377604 -0.32216436 -0.40951413
0003b0 a0 e3 96 39 a4 ee 06 be 3a 88 1e be 39 0b 45 be
       0.00028779823 -0.13176972 -0.15481654 -0.19242562
0003c0 3a 8c 2a 3a 08 26 b4 be ff 89 e6 be 22 1a 4d be
       0.0006505881 -0.35185266 -0.45027158 -0.200295
0003d0 0a 56 33 be 3d 58 39 bf f2 63 0a bb fc 99 08 be
       -0.1751329 -0.72400266 -0.00211167 -0.1333999
0003e0 ff 03 35 bf f3 8a fe be 86 97 9b 3e 5b 1c 95 be
       -0.7070922 -0.49715385 0.3038904 -0.29123196
0003f0 96 37 0d be 48 31 e4 38 d0 08 79 bd b4 8c 6e be
       -0.13790736 0.000108810666 -0.06079942 -0.23295861

conv2.bias f4 [10]
000000 a3 a7 9e 3e 91 4c 85 be 5f d2 84 be 5a ba 83 be
       0.30987272 -0.26034978 -0.2594175 -0.25728112
000010 4b 2b 91 be f7 25 79 be cc 69 38 be 8d 14 bb be
       -0.28353342 -0.24330889 -0.18009108 -0.36539117
000020 f7 0f 7e be 5f 6b a9 be
       -0.24810778 -0.3308973

rnn.weight_ih_l0 f4 [30, 1]
000000 72 2e 0c 3e 85 e0 ee bd 3f 0d 19 bb 02 ee 32 be
       0.13689592 -0.116639175 -0.0023353843 -0.17473605
000010 d4 c7 bf 3c 23 5d 81 3e f8 28 05 bf 42 de c9 be
       0.023410715 0.2526637 -0.5201564 -0.39427382
000020 f2 6f 4d 3c 54 d5 ac 3e 1c 61 62 3f bc 28 11 bd
       0.012538897 0.33756506 0.8842943 -0.035439238
000030 69 73 82 3f 82 07 99 be 19 d0 73 be 7e 57 09 bd
       1.019147 -0.2988854 -0.23809852 -0.033530705
000040 b8 8e bb bd 26 42 a7 3e 35 1c 0a 3f 79 75 1f 3b
       -0.09158081 0.32667655 0.5394929 0.0024331494
000050 ec 03 7f be cc b4 be be d8 8a b3 be 6e d4 d9 3d
       -0.2490384 -0.37247312 -0.35066867 0.10636221
000060 95 01 97 3d 58 ca 1a 3e 6a 9e fd 3d cf 1c ac 3e
       0.073733486 0.1511625 0.12383731 0.3361573
000070 09 1a f0 bd e4 91 86 3e
       -0.11723716 0.2628318
