colagnn-master-Run-Epi/src/save/cola_gnn_epi.us_regions.w-20.h-4.RNN.lam-0.1.epo-500.pt (torch, 52278 bytes, 32 tensors)

V f4 [15]
5.716503e-10 -0.027202237 -0.09612263 3.4086804e-06 -3.7093875e-09 -6.4455073e-12 3.7910527e-06 -1.2113114e-08
-1.6914962e-06 -1.20506165e-08 -0.08881913 0.2183934 1.7476521e-05 3.7185175e-06 -1.5289171e-11
00000000: 5022 1d30 3ad7 debc f1db c4bd afc0 6436
00000010: 3ce8 7eb1 f8c7 e2ac ca69 7e36 0a1a 50b2
00000020: 5e07 e3b5 2c07 4fb2 cee6 b5bd 85a2 5f3e
00000030: 8b9a 9237 a58b 7936 277c 86ad

W1 f4 [15, 30]
1.1410952e-12 1.6561434e-12 -2.2651256e-12 5.494669e-12 -3.6362345e-12 -2.0120548e-12 -1.8183429e-12 8.002672e-13
1.0438032e-12 -1.2605241e-12 2.1550695e-12 -1.0139745e-11 -3.7287773e-13 3.4302322e-12 -2.167873e-12 7.448678e-13
-1.9410578e-12 2.1666818e-12 1.5891357e-12 2.1811654e-12 1.5712025e-12 -2.2108088e-12 4.979645e-13 -1.5224431e-12
-1.873098e-12 5.0196774e-12 -1.8306968e-12 -2.2640958e-12 5.007661e-13 1.4920933e-12 0.00033036724 0.00032747016
-0.0003255028 0.00043135774 -0.00054216094 -0.00032498428 0.0006640445 0.0003293535 -0.0003272762 0.00017057212
9.0443464e-05 -0.0007079777 -0.0003600513 -0.00044330503 -0.00032514287 0.00033731232 -0.00032903868 0.0003222246
0.00032382915 0.00032538356 0.00032881173 -0.00030843422 -0.00030363785 -0.0003269482 -0.00032604008 0.00022918617
0.0001582381 -0.0003333804 0.00031913412 0.00034166026 0.0010591357 0.0010503262 -0.0010478643 0.0013451233
-0.0015183099 -0.0010464267 0.00206095 0.001057044 -0.0010552934 0.000571513 0.0002932429 -0.0021720184
-0.0011137655 -0.0017382897 -0.0010473679 0.0010203007 -0.0010540269 0.001037556 0.0010448652 0.001046772
0.001052266 -0.0010017621 -0.00094046665 -0.0010511611 -0.0010490203 0.0009546445 0.0007204881 -0.0010614784
0.001032439 0.0010839611 -2.147795e-07 -2.1490067e-07 2.1596594e-07 -1.8817201e-07 1.1096559e-07 2.1613862e-07
-2.1486284e-07 -2.1504637e-07 2.153851e-07 3.6032308e-08 -1.2476899e-08 2.1264589e-07 1.9102353e-07 1.2146124e-08
2.1554656e-07 -2.2255304e-07 2.1448082e-07 -2.1139464e-07 -2.1637796e-07 -2.1571071e-07 -2.1413055e-07 2.0889874e-07
2.2061207e-07 2.1550704e-07 2.161031e-07 -4.901395e-08 -2.5648355e-08 2.1256871e-07 -2.127463e-07 -2.1534532e-07
3.7862318e-09 3.8311003e-09 -3.971615e-09 -6.7145567e-10 -4.205884e-10 -3.9207166e-09 -1.406921e-09 3.738629e-09
-3.5838839e-09 -3.2872094e-09 1.684067e-09 1.550866e-09 -4.2377115e-09 2.8393023e-09 -3.920711e-09 3.6775591e-09
-3.8064063e-09 3.9232377e-09 3.890456e-09 3.937608e-09 3.79187e-09 -2.075851e-09 -3.4658207e-09 -3.8811656e-09
-3.9055656e-09 3.1725422e-09 2.243143e-09 -3.598742e-09 3.614888e-09 3.8334824e-09 -1.2367303e-11 -1.2576434e-11
1.2860192e-11 -1.7301417e-11 6.0084732e-12 1.2763365e-11 4.4077294e-12 -1.2258635e-11 1.1230011e-11 1.0359317e-11
-2.9394382e-12 8.98151e-12 1.1196219e-11 -1.0474971e-11 1.2818724e-11 -1.114336e-11 1.2747361e-11 -1.2691622e-11
-1.2621155e-11 -1.2795419e-11 -1.2501029e-11 1.2592404e-11 1.000464e-11 1.2575344e-11 1.27303385e-11 -1.2940691e-11
-8.065978e-12 1.2608739e-11 -1.2105684e-11 -1.2593067e-11 -2.7152458e-07 -2.7069007e-07 2.694559e-07 -2.5650894e-07
2.1653936e-07 2.7049717e-07 -2.7413674e-07 -2.7135425e-07 2.7417406e-07 4.932824e-08 -1.3949366e-08 2.7512363e-07
2.9217162e-07 4.37604e-08 2.701871e-07 -2.7329966e-07 2.6951258e-07 -2.6319628e-07 -2.7185544e-07 -2.706309e-07
-2.6952722e-07 2.623183e-07 2.7644316e-07 2.708134e-07 2.7092824e-07 -8.7674366e-08 -4.6049845e-08 2.703045e-07
-2.7035193e-07 -2.7078093e-07 2.786582e-09 2.76431e-09 -2.7378924e-09 2.9739928e-09 -2.9838307e-09 -2.7616462e-09
2.8859208e-09 2.7920553e-09 -2.8718976e-09 -6.5872774e-10 7.718956e-11 -2.9838998e-09 -3.1636076e-09 -7.8516554e-10
-2.7444014e-09 2.8858453e-09 -2.7435019e-09 2.6681635e-09 2.7765643e-09 2.7576246e-09 2.7586882e-09 -2.6985498e-09
-2.959934e-09 -2.7693097e-09 -2.7621792e-09 7.969158e-10 3.9946738e-10 -2.759074e-09 2.7969298e-09 2.7636378e-09
2.2455247e-08 2.2355174e-08 -2.2360705e-08 2.1187102e-08 -2.5414876e-08 -2.241492e-08 2.3457673e-08 2.249239e-08
-2.2736193e-08 -8.822563e-10 4.537094e-09 -2.2693566e-08 -2.2679584e-08 -4.6405346e-09 -2.2353356e-08 2.2383572e-08
00000000: 4a98 a02b db14 e92b e064 1fac 9453 c12c
00000010: 94e0 7fac f595 0dac b5e8 ffab 5441 612b
00000020: f9e6 922b 2b67 b1ab 48a6 172c 5a61 32ad
00000030: 58e9 d1aa 9261 712c ee8c 18ac 62a9 512b
00000040: fd96 08ac 7877 182c a6a6 df2b 627c 192c
00000050: 8920 dd2b 6492 1bac 202a 0c2b cb43 d6ab
00000060: bcce 03ac 3c9d b02c e7d2 00ac 5352 1fac
00000070: 00f4 0c2b 54fe d12b 2435 ad39 4db0 ab39
00000080: 3fa8 aab9 db27 e239 ce1f 0eba a762 aab9
00000090: 4613 2e3a 14ad ac39 4596 abb9 9bdb 3239
000000a0: 77ac bd38 9497 39ba 44c5 bcb9 656b e8b9
000000b0: f077 aab9 4bd9 b039 d382 acb9 41f0 a839
000000c0: 9dc7 a939 3e98 aa39 5d64 ac39 57b5 a1b9
000000d0: 9531 9fb9 3f6a abb9 5cf0 aab9 b251 7039
000000e0: b7ec 2539 8fc9 aeb9 7551 a739 dd20 b339
000000f0: b2d2 8a3a 19ab 893a 7e58 89ba d94e b03a
00000100: 0702 c7ba 4128 89ba 0111 073b 838c 8a3a
00000110: c551 8aba 97d1 153a 65be 9939 6c58 0ebb
00000120: c5fb 91ba 53d7 e3ba d647 89ba 9cbb 853a
00000130: 4627 8aba 9afe 873a dcf3 883a d733 893a
00000140: 30ec 893a 8f4d 83ba a689 76ba 1dc7 89ba
00000150: 487f 89ba 1c41 7a3a 23df 3c3a 4e21 8bba
00000160: e752 873a b313 8e3a 249e 66b4 72bf 66b4
00000170: 44e4 6734 540c 4ab4 fa4b ee33 bb13 6834
00000180: 0cb5 66b4 7fe7 66b4 9b44 6734 f1c1 1a33
00000190: fb59 56b2 a853 6434 261c 4d34 38ab 5032
000001a0: fd70 6734 eaf6 6eb4 0a4c 6634 b7fb 62b4
000001b0: 8555 68b4 1c9e 67b4 c2eb 65b4 a64d 6034
000001c0: 62e1 6c34 2066 6734 f809 6834 6883 52b3
000001d0: 5451 dcb2 713e 6434 426f 64b4 ac39 67b4
000001e0: 0c18 8231 b7a2 8331 b276 88b1 7e91 38b0
000001f0: 8e38 e7af fdb6 86b1 a25d c1b0 5475 8031
00000200: 5a48 76b1 33e5 61b1 d774 e730 3f26 d530
00000210: 4e9b 91b1 891d 4331 f0b6 86b1 4eb8 7c31
00000220: 81c9 82b1 2acd 8631 d0ac 8531 914b 8731
00000230: a449 8231 c2a6 0eb1 5d2b 6eb1 185b 85b1
00000240: b831 86b1 f403 5a31 ca25 1a31 bd4d 77b1
00000250: c869 7831 abb7 8331 6291 59ad 393f 5dad
00000260: 283d 622d 542f 98ad 8467 d32c 1689 602d
00000270: 4c15 9b2c fca7 57ad 798f 452d 373e 362d
00000280: 36d8 4eac 2001 1e2d 4af7 442d 1347 38ad
00000290: 6782 612d 3b09 44ad 0341 602d fc45 5fad
000002a0: a108 5ead 7219 61ad a1eb 5bad 2587 5d2d
000002b0: e500 302d 513a 5d2d 59f4 5f2d b1a7 63ad
000002c0: efe5 0dad b6d0 5d2d 27f7 54ad 228a 5dad
000002d0: 0ec6 91b4 5c53 91b4 bda9 9034 52b6 89b4
000002e0: e381 6834 d938 9134 112d 93b4 a5ae 91b4
000002f0: 3232 9334 f9dc 5333 f6a5 6fb2 b4b4 9334
00000300: c3db 9c34 12f3 3b33 3b0e 9134 05ba 92b4
00000310: 87b1 9034 6c4d 8db4 87f3 91b4 3a4b 91b4
00000320: 8ab3 90b4 c1d4 8c34 0f6a 9434 4f64 9134
00000330: 1874 9134 7e47 bcb3 57c8 45b3 5e1e 9134
00000340: e324 91b4 d95f 91b4 127e 3f31 41f6 3d31
00000350: 8325 3cb1 095f 4c31 1b0c 4db1 65c7 3db1
00000360: a851 4631 5bde 3f31 f55a 45b1 d811 35b0
00000370: dcbd a92e 520d 4db1 c666 59b1 1dd3 57b0
00000380: 0598 3cb1 5450 4631 3288 3cb1 d45a 3731
00000390: d6cd 3e31 a580 3d31 5b93 3d31 6471 39b1
000003a0: b667 4bb1 364e 3eb1 c5d0 3db1 f70d 5b30
000003b0: 099c db2f 259a 3db1 1c34 4031 6eea 3d31
000003c0: 9ce3 c032 8c07 c032 b613 c0b2 eefe b532
000003d0: e74f dab2 ee8a c0b2 f87f c932 4a35 c132
000003e0: 6b4d c3b2 4583 72b0 b3e4 9b31 aeef c2b2
000003f0: efd0 c2b2 9372 9fb1 8d03 c0b2 ff45 c032

b1 f4 [15]
2.267663e-12 0.0003225511 0.0010412948 -2.1671795e-07 3.9898027e-09 -1.2902615e-11 -2.7051593e-07 2.7523135e-09
2.2420476e-08 3.7220613e-10 -0.16102427 -0.009287985 -1.2436442e-06 -6.238381e-08 1.5016125e-11
00000000: 9692 1f2c 131c a939 0e7c 883a fab2 68b4
00000010: ad16 8931 36fc 62ad 6d3b 91b4 3623 3d31
00000020: 2697 c032 5b9f cc2f 8ce3 24be a22c 18bc
00000030: 4aeb a6b5 ddf7 85b3 4f15 842d

W2 f4 [15, 30]
2.0038554e-12 1.1698625e-12 -2.3954504e-12 -2.1897649e-10 4.078111e-12 -2.181726e-12 9.5505374e-12 1.3391538e-12
1.4402112e-12 -9.7627385e-11 -1.9591927e-11 -1.24188776e-11 1.1373684e-10 2.7895098e-11 -2.7236616e-12 -1.5002346e-12
-2.5686016e-12 -1.0905048e-11 -1.0329923e-11 2.3932488e-12 7.3655296e-13 5.168089e-12 2.5733088e-12 -1.96567e-12
-2.0010838e-12 1.373523e-10 -4.0506588e-11 -3.358891e-12 5.7804954e-13 1.147007e-11 0.0002608318 0.00040547107
-0.00032164497 0.0036404005 -0.0048994473 -0.000313812 0.00062544417 0.00027719646 -0.00032717464 0.011736716
-0.004188996 -0.0006174327 -0.0006886903 -0.00036154635 -0.00030879985 0.00035278994 -0.00024053484 0.0013151988
0.0003412624 0.00029918182 0.0004869466 -0.00093574007 -0.00030794827 -0.00028434265 -0.00032251092 -0.014613233
-0.008449236 -0.00012989521 0.00044399133 0.00034473278 0.00082473573 0.001309179 -0.001035173 0.012011369
-0.016426628 -0.0010084345 0.0019475842 0.0008812441 -0.0010551274 0.040175024 -0.014458 -0.0018951844
-0.002219713 -0.0014204722 -0.0009926268 0.0010587419 -0.0007547656 0.0043128435 0.0010890078 0.00095808186
0.0015809609 -0.0030736323 -0.00095392775 -0.0009078165 -0.0010373164 -0.04937686 -0.028601887 -0.00037327476
0.0014469872 0.0010900929 -1.9224754e-07 -2.5645417e-07 2.0945632e-07 -4.3942355e-06 3.78981e-06 2.1264226e-07
-2.0309892e-07 -1.97119e-07 2.1696545e-07 -4.624114e-06 5.8473603e-07 1.7587993e-07 1.6292867e-07 3.8039275e-07
2.1166305e-07 -2.1650777e-07 1.879041e-07 -1.0748408e-06 -1.7940255e-07 -2.0875585e-07 -2.959813e-07 7.1355214e-07
1.9199595e-07 2.0228734e-07 2.1384464e-07 7.870222e-06 3.490337e-06 1.4320705e-07 -2.6973737e-07 -2.2993574e-07
3.6463168e-09 3.9999515e-09 -3.929755e-09 5.2437326e-09 -2.2086633e-08 -3.911677e-09 -2.04317e-09 3.6500267e-09
-3.838724e-09 1.0434545e-08 9.70288e-10 2.5331293e-09 -3.916803e-09 -4.0098594e-10 -3.9419694e-09 3.6543162e-09
-3.6910104e-09 5.7016734e-09 4.9290803e-09 3.9024286e-09 4.047676e-09 -5.1519256e-10 -3.6075516e-09 -3.822018e-09
-3.9168673e-09 -3.2513327e-08 -2.344665e-09 -3.5201941e-09 3.507039e-09 3.5175363e-09 -1.118367e-11 -1.3317589e-11
1.2556669e-11 -1.3054688e-10 -1.4542095e-10 1.2724245e-11 9.357388e-12 -1.1123629e-11 1.2608116e-11 -1.3118936e-11
-6.7930585e-11 -1.1715603e-11 -5.117023e-11 7.1391742e-12 1.2084253e-11 -1.2726464e-11 1.2302529e-11 -3.5149026e-11
-3.390633e-12 -1.2553877e-11 -1.37033865e-11 2.428044e-11 1.4239009e-11 1.2099684e-11 1.2639031e-11 4.538688e-11
3.1567422e-11 1.1130059e-11 -1.3994111e-11 -3.713522e-11 -2.2917733e-07 -3.284095e-07 2.6091732e-07 -4.628161e-06
1.3983679e-06 2.6404894e-07 -3.11362e-07 -2.393814e-07 2.7033073e-07 -7.1553645e-06 1.6525532e-06 2.5074107e-07
4.4346385e-07 7.695026e-07 2.6155953e-07 -2.667509e-07 2.2019891e-07 -1.4984873e-06 -2.4993457e-07 -2.5759195e-07
-3.8708086e-07 9.755057e-07 2.6814564e-07 2.483167e-07 2.670636e-07 1.2438428e-05 7.5489374e-06 1.4365492e-07
-3.645304e-07 -2.678065e-07 2.2590303e-09 3.374652e-09 -2.5456455e-09 4.7269793e-08 -1.01344435e-08 -2.6665834e-09
3.6788095e-10 2.3840514e-09 -2.8417404e-09 8.7990756e-08 -2.14497e-08 -1.6080637e-09 5.909852e-09 -1.3501186e-08
-2.4589863e-09 2.7598774e-09 -2.0822113e-09 1.4769675e-08 5.592328e-09 2.5622364e-09 3.9946313e-09 -9.533198e-09
-2.2553666e-09 -2.471547e-09 -2.7060578e-09 -1.558766e-07 -9.499441e-08 -1.0899958e-09 3.6887222e-09 2.9272125e-09
1.6922867e-08 2.994036e-08 -2.2228177e-08 7.4437514e-07 -3.9033063e-07 -2.1597215e-08 2.2473559e-08 1.8480915e-08
-2.2724226e-08 8.650986e-07 -3.466762e-07 -1.7606094e-08 -5.517494e-09 1.2508475e-08 -2.0995046e-08 2.2501451e-08
00000000: 4002 0d2c bda4 a42b 9990 28ac 67c4 70af
00000010: 5c7c 8f2c 7b86 19ac cc03 282d 1a78 bc2b
00000020: 14b1 ca2b 55af d6ae 1955 acad a779 5aad
00000030: 261c fa2e 2d5e f52d 20a9 3fac a623 d3ab
00000040: d0bf 34ac f8d7 3fad d6b9 35ad f068 282c
00000050: 3c52 4f2b 02d6 b52c 9c14 352c 5d52 0aac
00000060: 52d0 0cac 3c05 172f 5d26 32ae 675c 6cac
00000070: dcb4 222b 9ac8 492d 40c0 8839 6895 d439
00000080: 75a2 a8b9 c993 6e3b 8b8b a0bb 2287 a4b9
00000090: d9f4 233a ae54 9139 a388 abb9 5b4b 403c
000000a0: d843 89bb 35db 21ba 3989 34ba ee8d bdb9
000000b0: 6ae6 a1b9 aaf6 b839 1438 7cb9 c062 ac3a
000000c0: 77eb b239 81db 9c39 de4c ff39 744c 75ba
000000d0: 1e74 a1b9 d313 95b9 af16 a9b9 576c 6fbc
000000e0: aa6e 0abc 7b34 08b9 82c7 e839 40bd b439
000000f0: 1433 583a c298 ab3a a4ae 87ba 55cb 443c
00000100: 2391 86bc 722d 84ba 1546 ff3a 4a03 673a
00000110: 334c 8aba 918e 243d 3fe1 6cbc d667 f8ba
00000120: 9b78 11bb 232f baba 071b 82ba 7cc5 8a3a
00000130: 76db 45ba c152 8d3b 0abd 8e3a c927 7b3a
00000140: 3f38 cf3a fe6e 49bb 0211 7aba 89fa 6dba
00000150: 90f6 87ba 643f 4abd 814e eabc 17b4 c3b9
00000160: d5a8 bd3a 73e1 8e3a 9a6c 4eb4 cbae 89b4
00000170: eae6 6034 3272 93b6 7154 7e36 a952 6434
00000180: 6813 5ab4 a8a7 53b4 02f7 6834 d628 9bb6
00000190: c1f6 1c35 82d9 3c34 7ef1 2e34 c838 cc34
000001a0: 7f45 6334 3479 68b4 b0c2 4934 4043 90b5
000001b0: cca1 40b4 5f26 60b4 5ce7 9eb4 ee8a 3f35
000001c0: 7227 4e34 5234 5934 2b9d 6534 590a 0437
000001d0: 883b 6a36 74c4 1934 6cd0 90b4 41e4 76b4
000001e0: af92 7a31 f26f 8931 7e06 87b1 5c2c b431
000001f0: 05b9 bdb2 7a67 86b1 d467 0cb1 f3d3 7a31
00000200: c6e5 83b1 9d43 3332 f95a 8530 4813 2e31
00000210: 9094 86b1 c171 dcaf ee71 87b1 691f 7b31
00000220: f1a4 7db1 73e8 c331 a65c a931 2016 8631
00000230: bc13 8b31 749d 0db0 b8e8 77b1 d352 83b1
00000240: 2195 86b1 c8a4 0bb3 c81f 21b1 e9e7 71b1
00000250: 7c00 7131 27b9 7131 c6be 44ad 1749 6aad
00000260: 36e6 5c2d ae89 0faf 5ce4 1faf e8d8 5f2d
00000270: ee9d 242d 5fb0 43ad e8cd 5d2d 6fca 66ad
00000280: 8561 95ae 631a 4ead 8f0c 61ae f72f fb2c
00000290: a396 542d e6e2 5fad aa6d 582d 4996 1aae
000002a0: 3798 6eac a3d9 5cad 9112 71ad b192 d52d
000002b0: cc7e 7a2d 22dc 542d 2359 5e2d 159d 472e
000002c0: c2d5 0a2e 54cd 432d e02f 76ad 8a52 23ae
000002d0: c913 76b4 4250 b0b4 3414 8c34 9a4b 9bb6
000002e0: 8eaf bb35 9cc2 8d34 4429 a7b4 5484 80b4
000002f0: f921 9134 1d18 f0b6 4ccd dd35 979d 8634
00000300: 3515 ee34 d18f 4e35 786c 8c34 f735 8fb4
00000310: d16f 6c34 a21f c9b5 bf2e 86b4 2b4b 8ab4
00000320: fdcf cfb4 1fee 8235 a8f5 8f34 6350 8534
00000330: f160 8f34 a4ae 5037 e14c fd36 903f 1a34
00000340: adb4 c3b4 0cc7 8fb4 483d 1b31 81e7 6731
00000350: 78ef 2eb1 b005 4b33 c11b 2eb2 083f 37b1
00000360: a43e ca2f add4 2331 6d48 43b1 6ef5 bc33
00000370: 6440 b8b2 b602 ddb0 9c0f cb31 d8f2 67b2
00000380: f2fa 28b1 47a8 3d31 a616 0fb1 b8bd 7d32
00000390: a326 c031 5713 3031 2641 8931 73c7 23b2
000003a0: d4fc 1ab1 ead7 29b1 79f5 39b1 095f 27b4
000003b0: bbff cbb3 d1ce 95b0 b07c 7d31 1128 4931
000003c0: c75d 9132 c697 0033 47f0 beb2 12d1 4735
000003d0: a28e d1b4 c784 b9b2 e10b c132 f6bf 9e32
000003e0: 1a33 c3b2 2039 6835 d01e bab4 363c 97b2
000003f0: 6494 bdb1 dbe4 5632 9858 b4b2 3749 c132

Wb f4 [29, 29]
-0.411014 0.027746197 0.19934471 0.0670273 0.077816874 0.15570901 0.05827022 0.13739231
-0.015272421 -0.1283081 0.04936678 0.0098890485 0.08756681 0.10532896 0.022712395 0.0089298375
-0.09647106 0.106126465 0.028195307 -0.34719935 -0.24084526 0.011371497 0.12866065 0.080927
0.028244847 0.061716262 0.16530876 -0.024813129 0.04008789 -0.41101316 0.027746268 0.1993443
0.067030095 0.077817895 0.1557108 0.05826959 0.13739458 -0.015311547 -0.12830482 0.04936681
0.009889412 0.087589845 0.1053328 0.022716247 0.008928757 -0.09647081 0.10612675 0.027853914
-0.3472012 -0.2408461 0.011380145 0.12866224 0.0809381 0.028521102 0.061717 0.16531548
-0.02481353 0.04008801 -0.41101277 0.02774738 0.19934407 0.06702861 0.077818744 0.1557108
0.058271993 0.13739403 -0.015375456 -0.12830508 0.049366616 0.009888435 0.087655656 0.10533727
0.02271973 0.0089347325 -0.09647051 0.10612718 0.027687535 -0.3471998 -0.24084611 0.011555474
0.12866248 0.08093787 0.028199956 0.06171656 0.16532041 -0.024812572 0.04008802 -0.4110121
0.027752943 0.19934456 0.06702776 0.07781727 0.15570943 0.0582719 0.13739243 -0.015308711
-0.12830898 0.04936562 0.009887962 0.08762441 0.10532636 0.022716595 0.008944476 -0.09647085
0.10612649 0.027850654 -0.34720054 -0.24084528 0.011373783 0.1286609 0.08093198 0.028217707
0.061715636 0.16531739 -0.024814032 0.04008784 -0.4110131 0.027796675 0.1993452 0.06703277
0.07781912 0.15571395 0.05827072 0.13739502 -0.015392544 -0.12830408 0.049367346 0.009888006
0.08756944 0.10533576 0.02272957 0.008935012 -0.096471295 0.1061272 0.028043978 -0.34720016
-0.24084675 0.01144247 0.1286621 0.080940455 0.02776955 0.06171765 0.16533105 -0.024811927
0.040088024 -0.41101336 0.0277958 0.19934514 0.067030385 0.077818245 0.15571132 0.058272127
0.13739336 -0.015391361 -0.12830731 0.049358863 0.0098875705 0.08763475 0.10533025 0.022715379
0.008941814 -0.09647012 0.10612646 0.028083319 -0.34719923 -0.24084623 0.011430611 0.12866186
0.08093727 0.0285099 0.06171614 0.16533424 -0.024813253 0.040088017 -0.41101375 0.027749792
0.19934516 0.06703042 0.07781838 0.15571108 0.05827227 0.13739395 -0.015305787 -0.1283083
0.04936537 0.009887413 0.087616876 0.10533033 0.022719473 0.008945433 -0.09647099 0.10612642
0.027870368 -0.347199 -0.24084632 0.011407291 0.1286621 0.08093768 0.028473325 0.061716236
0.16531558 -0.024813315 0.040087998 -0.4110134 0.027774278 0.19934514 0.06703041 0.077817395
0.15571085 0.05827171 0.13739423 -0.01539356 -0.12830831 0.04934621 0.009888196 0.087662324
0.10533585 0.022719217 0.0089353025 -0.096471444 0.10612647 0.027383845 -0.34719872 -0.24084575
0.011539951 0.12866265 0.08094114 0.02816471 0.061716195 0.16533184 -0.024812987 0.04008796
-0.41101268 0.027796611 0.19934493 0.067032695 0.0778189 0.15571441 0.058273174 0.13739586
-0.01527696 -0.1283019 0.049370356 0.009887915 0.08759033 0.105336785 0.022724323 0.008930929
-0.096470654 0.106127374 0.028043728 -0.34719804 -0.24084684 0.011371471 0.12866263 0.080945686
00000000: 6d70 d2be fe4b e33c 0521 4c3e 9c45 893d
00000010: 745e 9f3d 2f72 1f3e c1ac 6e3d 92b0 0c3e
00000020: 2d39 7abc 3363 03be d234 4a3d ad05 223c
00000030: 3a56 b33d b6b6 d73d 580f ba3c 744e 123c
00000040: 9e92 c5bd d558 d93d d8f9 e63c 1dc4 b1be
00000050: 24a0 76be 844f 3a3c 9ebf 033e 0ebd a53d
00000060: bd61 e73c 31ca 7c3d b346 293e e744 cbbc
00000070: 3333 243d 5170 d2be 244c e33c ea20 4c3e
00000080: 1347 893d fd5e 9f3d a772 1f3e 18ac 6e3d
00000090: 2ab1 0c3e 48dd 7abc 5762 03be da34 4a3d
000000a0: 3307 223c 4e62 b33d b9b8 d73d 6c17 ba3c
000000b0: ec49 123c 7d92 c5bd fb58 d93d e42d e43c
000000c0: 5bc4 b1be 5ca0 76be ca73 3a3c 09c0 033e
000000d0: e0c2 a53d 16a5 e93c f7ca 7c3d 7648 293e
000000e0: be45 cbbc 5333 243d 4470 d2be 794e e33c
000000f0: da20 4c3e 4c46 893d 6f5f 9f3d a772 1f3e
00000100: 9dae 6e3d 05b1 0c3e 56e9 7bbc 6862 03be
00000110: a634 4a3d 1a03 223c cf84 b33d 11bb d73d
00000120: ba1e ba3c fc62 123c 5592 c5bd 3559 d93d
00000130: f8d0 e23c 2cc4 b1be 5da0 76be 2c53 3d3c
00000140: 19c0 033e c1c2 a53d 9803 e73c 81ca 7c3d
00000150: c149 293e bc43 cbbc 5633 243d 2e70 d2be
00000160: 245a e33c fb20 4c3e da45 893d a95e 9f3d
00000170: 4b72 1f3e 84ae 6e3d 9ab0 0c3e 63d1 7abc
00000180: 6e63 03be 9b33 4a3d 1e01 223c 6d74 b33d
00000190: 59b5 d73d 2718 ba3c da8b 123c 8292 c5bd
000001a0: d858 d93d 0e27 e43c 45c4 b1be 25a0 76be
000001b0: 1b59 3a3c afbf 033e aabf a53d d228 e73c
000001c0: 89c9 7c3d f648 293e cc46 cbbc 2633 243d
000001d0: 4f70 d2be dab5 e33c 2621 4c3e 7a48 893d
000001e0: a15f 9f3d 7a73 1f3e 47ad 6e3d 48b1 0c3e
000001f0: 0231 7cbc 2562 03be 6a35 4a3d 4e01 223c
00000200: 9b57 b33d 46ba d73d 5d33 ba3c 2864 123c
00000210: be92 c5bd 3859 d93d 7cbc e53c 38c4 b1be
00000220: 88a0 76be 3379 3b3c ffbf 033e 1cc4 a53d
00000230: f87c e33c a6cb 7c3d 8b4c 293e 6242 cbbc
00000240: 5733 243d 5870 d2be 04b4 e33c 2221 4c3e
00000250: 3a47 893d 2c5f 9f3d ca72 1f3e c1ae 6e3d
00000260: d8b0 0c3e 0c2c 7cbc fe62 03be 852c 4a3d
00000270: 7aff 213c d979 b33d 63b7 d73d 9a15 ba3c
00000280: b080 123c 2092 c5bd d458 d93d fd0e e63c
00000290: 19c4 b1be 65a0 76be 7547 3b3c efbf 033e
000002a0: 70c2 a53d 988d e93c 10ca 7c3d 614d 293e
000002b0: 2a45 cbbc 5533 243d 6570 d2be 8853 e33c
000002c0: 2321 4c3e 3f47 893d 3e5f 9f3d ba72 1f3e
000002d0: e7ae 6e3d 00b1 0c3e 20c5 7abc 4063 03be
000002e0: 5833 4a3d d1fe 213c 7a70 b33d 6eb7 d73d
000002f0: 301e ba3c de8f 123c 9592 c5bd cf58 d93d
00000300: 6650 e43c 11c4 b1be 6ba0 76be a5e5 3a3c
00000310: ffbf 033e a8c2 a53d e440 e93c 2aca 7c3d
00000320: 7d48 293e 4b45 cbbc 5033 243d 5970 d2be
00000330: e286 e33c 2221 4c3e 3d47 893d ba5e 9f3d
00000340: aa72 1f3e 51ae 6e3d 13b1 0c3e 4535 7cbc
00000350: 4163 03be 401f 4a3d 1a02 223c 4e88 b33d
00000360: 52ba d73d a71d ba3c 6065 123c d292 c5bd
00000370: d658 d93d 1654 e03c 08c4 b1be 45a0 76be
00000380: 1012 3d3c 24c0 033e 78c4 a53d aeb9 e63c
00000390: 1fca 7c3d c04c 293e 9b44 cbbc 4633 243d
000003a0: 4170 d2be b8b5 e33c 1421 4c3e 7048 893d
000003b0: 845f 9f3d 9973 1f3e daaf 6e3d 80b1 0c3e
000003c0: 374c 7abc 9361 03be 9238 4a3d ec00 223c
000003d0: 8f62 b33d d0ba d73d 5c28 ba3c 0853 123c
000003e0: 6892 c5bd 4f59 d93d f6bb e53c f1c3 b1be
000003f0: 8ea0 76be 684f 3a3c 23c0 033e dac6 a53d

conv.weight f4 [10, 1, 20]
-1.5603486e-29 1.2441098e-29 2.6736184e-29 1.0380602e-28 -1.5901412e-29 -1.5533851e-30 -1.4359387e-30 -3.0944132e-31
1.6254423e-31 -1.5974827e-31 6.5176236e-32 9.619969e-32 -1.9376977e-32 -1.6687211e-31 -2.2292806e-31 -1.271446e-31
1.8227626e-31 9.6739245e-31 5.1241045e-31 -3.2599197e-30 1.4710425e-31 -1.10992885e-30 -8.262122e-31 4.8860147e-31
-3.897078e-31 2.1895355e-31 1.5137092e-31 -1.3609586e-31 4.194061e-33 1.3720845e-31 4.173851e-32 -3.0181552e-33
3.6232118e-32 -1.3374985e-31 -2.3974214e-31 -2.5769225e-31 4.143921e-31 1.0576358e-30 2.9315555e-31 -3.0348509e-31
2.3358627e-31 -1.7500682e-31 1.4516961e-32 -6.522557e-32 1.9060356e-31 -3.7907345e-32 -1.0605208e-31 2.475262e-32
-2.4082569e-32 -6.1926056e-33 -1.2546281e-33 3.0621258e-32 -1.471972e-32 9.2720555e-32 1.337514e-31 2.381848e-32
3.1460064e-32 6.657161e-32 -1.5633903e-31 9.238439e-32 -2.989892e-32 -1.4378384e-32 -5.7998644e-32 6.0548415e-32
-5.165608e-32 1.4798844e-32 4.3835574e-32 3.9163593e-32 3.727579e-32 -4.3935145e-32 -6.1819806e-33 1.00017804e-32
5.0813053e-32 7.7483333e-32 2.4836903e-32 3.25936e-32 3.202411e-33 6.301108e-32 5.428411e-32 -6.4620316e-32
2.6002288e-31 2.175018e-31 -1.7208524e-31 -1.222303e-31 -1.3866289e-32 -7.968793e-32 -5.4737077e-32 -4.238096e-32
5.90662e-32 4.259027e-32 2.5134003e-32 -7.9349395e-32 1.1015922e-32 3.369318e-33 8.7806445e-33 -9.8425935e-32
-8.496772e-32 -1.0660679e-31 1.847886e-33 -3.4557453e-31 2.254278e-32 5.582444e-32 3.947122e-32 -2.4953277e-33
-4.562616e-32 2.3077885e-32 4.9314745e-32 -5.100623e-32 1.0464847e-32 3.3469375e-32 -3.857383e-32 -3.4508047e-32
-2.4045957e-32 1.9438595e-32 2.3218398e-32 2.8426548e-32 3.5635476e-32 3.5895495e-32 2.4964685e-32 -2.2960075e-32
-2.3320446e-32 -3.6800737e-32 -4.7366433e-32 -4.5727483e-32 -3.4519652e-32 3.4178518e-32 -3.7325795e-33 2.0829609e-32
-2.4194113e-33 -3.645636e-32 4.0566883e-33 3.2362996e-32 2.7849774e-32 -8.8712e-33 -1.7756437e-32 2.6206812e-32
-5.148736e-32 -9.037289e-34 1.5520424e-32 7.858573e-32 1.1576443e-32 6.0865464e-32 5.1849816e-32 -6.8617143e-32
3.4484646e-32 -2.4240432e-32 -2.899974e-32 7.551425e-33 3.4519785e-32 2.4298506e-32 1.0287697e-32 1.5277765e-32
1.2582882e-32 2.185661e-32 3.8410727e-32 4.6821095e-32 6.6164686e-32 -3.36772e-32 2.1691036e-32 3.4164744e-32
-5.9114494e-32 4.389257e-32 -2.6488293e-32 -3.2877766e-32 -3.411097e-32 5.5357885e-32 8.144284e-32 6.093328e-32
-5.3413e-32 1.3352089e-32 1.7951544e-32 -1.354854e-32 -2.6737518e-32 4.186275e-32 -2.6926585e-32 9.5877735e-33
-2.8820524e-32 2.815896e-32 2.8643876e-32 1.8638693e-32 -5.895108e-32 7.1160825e-32 -1.5408392e-32 7.697032e-32
7.5104426e-32 -1.12154386e-32 6.666569e-32 6.4163936e-32 -1.0905201e-32 3.6169332e-32 2.0673735e-32 -2.038315e-32
-7.230339e-32 -7.5523067e-32 -5.9868874e-32 -2.5799768e-32 6.5278164e-32 6.168189e-32 -5.153481e-32 -3.891576e-32
00000000: f73c 9e8f e055 7c0f 8d91 0710 fb96 0311
00000010: 6d42 a18f 180d fc8d 8ffe e88d c2d6 c88c
00000020: 96fe 520c 785d 4f8c 0a35 a90b a9bf f90b
00000030: d738 c98a c59c 588c 47b0 908c 0a0b 258c
00000040: ad9b 6c0c e9f7 9c0d 6549 260d f13c 848e
00000050: c6f3 3e0c a418 b48d 830f 868d 6c8f 1e0d
00000060: 51ef fc8c e61b 8e0c 9e7d 440c 9ba9 308c
00000070: e836 ae09 541b 320c ffb7 580b 10bd 7a89
00000080: bf20 3c0b 039e 2d8c ff99 9b8c 7840 a78c
00000090: 597a 060d 799c ab0d d244 be0c 1cf9 c48c
000000a0: 2d9b 970c fe2b 638c b4c0 960a d455 a98b
000000b0: e66a 770c 81d3 448b d9a9 098c e085 000b
000000c0: 7316 fa8a 8a9d 008a fa75 d088 a2fe 1e0b
000000d0: badb 988a 61b7 f00b 879e 2d0c 6258 f70a
000000e0: 9959 230b 6dd4 ac0b 8ef0 4a8c f5d7 ef0b
000000f0: 7b3e 1b8b 4d50 958a b692 968b 5331 9d0b
00000100: 5b1b 868b 13ae 990a 799b 630b 5859 4b0b
00000110: 068c 410b d31f 648b 0c65 008a 96ba 4f0a
00000120: 11eb 830b 8228 c90b e8f5 000b 533c 290b
00000130: e005 8509 0c96 a30b fbed 8c0b 91c3 a78b
00000140: b6c3 a80c af2a 8d0c 2161 5f8c fca9 1e8c
00000150: ebfe 8f8a b7e1 ce8b 071b 8e8b f50d 5c8b
00000160: 3958 990b 2e24 5d0b d280 020b b800 ce8b
00000170: b0ca 640a bcf4 8b09 ea5d 360a 4187 ff8b
00000180: bc96 dc8b 2f62 0a8c 3084 1909 6b4a e08c
00000190: fd18 ea0a b4ed 900b 40f2 4c0b c04d 4f89
000001a0: 92e7 6c8b 8ba7 ef0a 4507 800b 746b 848b
000001b0: ac58 590a 6ec8 2d0b 6a49 488b 102d 338b
000001c0: 1eb5 f98a a6dc c90a 171d f10a 5d99 130b
000001d0: ac07 390b 4c61 3a0b c29f 010b 596e ee8a
000001e0: 612c f28a 9214 3f8b caf0 758b 406e 6d8b
000001f0: 7d3c 338b 0b77 310b 980b 9b89 994e d80a
00000200: 30ff 4889 d04a 3d8b 1c82 a809 cd09 280b
00000210: b39a 100b 643f 388a b564 b88a d412 080b
00000220: 38ab 858b 6028 9688 5d2c a10a 2d05 cc0b
00000230: ee6e 700a 0a04 9e0b 1d9c 860b ea23 b28b
00000240: f50d 330b 1fba fb8a 4493 168b 43d6 1c0a
00000250: aa3c 330b 8254 fc0a c8aa 550a 44a7 9e0a
00000260: 0aab 820a d6f8 e20a 9d70 470b e91b 730b
00000270: fac5 ab0b addc 2e8b aa40 e10a bc64 310b
00000280: 5278 998b 3ce7 630b fb88 098b 0cb6 2a8b
00000290: 421d 318b a0b7 8f0b 0d70 d30b 1c31 9e0b
000002a0: 07ab 8a8b f1a7 8a0a 646b ba0a 33b2 8c8a
000002b0: 42d4 0a8b 245d 590b 92cf 0b8b 5921 470a
000002c0: 0ca5 158b ae35 120b 3eba 140b 258e c10a
000002d0: b70b 998b 7bbe b80b 8802 a08a 8dd3 c70b
000002e0: 74fb c20b 80ef 688a f312 ad0b 4094 a60b
000002f0: fe7d 628a 4acd 3b0b 37b0 d60a b5ab d38a
00000300: d8b5 bb8b b011 c48b b16d 9b8b c6f5 058b
00000310: c878 a90b a622 a00b c2ca 858b eb0f 4a8b

conv.bias f4 [10]
-1.0992536e-05 -3.359992e-08 -3.6147052e-10 4.401768e-31 -2.2236015e-06 1.1250585e-31 -3.566356e-11 -4.0029887e-21
2.2774532e-08 1.1337265e-31
00000000: 956c 38b7 814f 10b3 74b8 c6af 75d8 0e0d
00000010: 2f39 15b6 7b0a 120c 99d9 1cae 883a 979d
00000020: baa1 c332 862a 130c

conv_long.weight f4 [10, 1, 10]
-3.108743e-32 3.197542e-32 -4.7019598e-33 -1.8004984e-32 -1.844057e-32 9.096063e-33 -2.3447828e-33 -1.9079174e-32
2.1402013e-32 3.2409746e-33 -3.2340095e-32 -5.003918e-32 -5.332099e-32 -3.221214e-32 2.7535764e-33 3.5348396e-32
8.855153e-32 -9.4814687e-32 1.2624313e-32 -3.096473e-32 -1.8068507e-31 2.8504558e-31 -1.6348204e-31 9.904869e-32
-2.5763176e-31 1.382788e-31 -4.8341166e-31 8.255854e-31 -1.21849995e-30 -2.3214938e-29 3.5636603e-26 4.111893e-25
-7.8935194e-27 8.663817e-29 -1.880534e-29 6.78543e-30 4.0837914e-28 6.926817e-26 -8.230893e-25 -4.670352e-24
4.1387355e-32 -5.5721297e-33 3.511383e-32 4.085526e-33 -1.3029585e-32 -3.756642e-32 6.510684e-33 1.7793402e-32
-2.7298952e-32 1.1890565e-32 5.101406e-25 5.6142663e-24 -1.0222838e-26 -2.1191731e-29 -2.0555766e-31 -8.769947e-32
-7.362926e-30 -2.2484507e-28 -3.1653802e-28 3.3454316e-27 4.3773273e-32 4.0550838e-32 7.050534e-32 5.552024e-32
-3.4138824e-33 -2.0415382e-32 5.5241035e-32 4.2151746e-32 -2.3844143e-32 1.5874175e-32 4.4451986e-32 1.7276697e-32
-1.5842457e-31 3.8556292e-31 -5.2003804e-31 -5.3055526e-32 8.197633e-32 -7.0371134e-32 -7.208565e-33 3.9262572e-32
4.7060695e-28 1.0147288e-26 2.2694755e-29 -1.1350324e-29 8.720787e-32 -2.49462e-31 -2.7530292e-30 8.18193e-30
2.2638948e-29 -6.245407e-29 -6.9948826e-32 -1.0422356e-31 1.480816e-31 -2.7154137e-32 1.3147746e-31 -7.3289134e-35
-8.481297e-31 -1.4589636e-30 -9.710392e-30 3.5118968e-29
00000000: 486a 218b a006 260b d04f c389 75f9 ba8a
00000010: 727f bf8a f7ea 3c0a 04cc 4289 2521 c68a
00000020: 4f40 de0a f49f 8609 5ceb 278b bde8 818b
00000030: e06d 8a8b 4741 278b 18c2 6409 148a 370b
00000040: 96e4 e50b 2b27 f68b 2e19 830a 30c7 208b
00000050: ea8a 6a8c 5201 b90c 3a36 548c 9392 000c
00000060: 6b36 a78c 037f 330c 45e0 1c8d 7af5 850d
00000070: 82b6 c58d 6d6d eb8f c376 3015 8c83 fe16
00000080: e658 1c94 63a7 db10 74b5 be8f f89f 090f
00000090: a76b 0112 eb7f ab15 dabb 7e97 edac b498
000000a0: 3be5 560b 0c75 e789 4952 360b c4b4 a909
000000b0: 944e 878a 560e 438b bc38 070a fac6 b80a
000000c0: 88be 0d8b 16f5 760a 81e1 1d17 0031 d918
000000d0: f27b 4a94 e1e8 d68f 206a 858c 4cae e38b
000000e0: 7f56 158f 3383 8e91 3ba1 c891 b586 8413
000000f0: a948 630b 4f8d 520b d60a b70b 8723 900b
00000100: a0ce 8d89 6501 d48a f769 8f0b 48dd 5a0b
00000110: 9b9c f78a ccd8 a40a d3ce 660b 5769 b30a
00000120: 98a5 4d8c a13e fa0c 12c3 288d 72bd 898b
00000130: 9ed2 d40b a4b1 b68b 4eb7 158a e9dc 4b0b
00000140: 2c24 1512 ddfc 4814 f426 e60f 4036 668f
00000150: 9267 e20b fce8 a18c 2e5a 5f8e 02f3 250f
00000160: 1296 e50f 0257 9e90 f898 b58b 384a 078c
00000170: 8d38 400c 0afe 0c8b e1aa 2a0c 00d6 c286
00000180: ee9d 898d faba ec8d 3df3 448f 0713 3210

conv_long.bias f4 [10]
5.8780536e-32 1.98486e-21 -0.00061526697 -0.0021590039 1.8455229e-32 -0.0021927727 -1.5753723e-31 -6.967958e-30
-4.6861217e-12 -3.1431788e-19
00000000: 5e9a 980b c7f8 151d de49 21ba 137e 0dbb
00000010: 6aa6 bf0a 9fb4 0fbb b97e 4c8c b553 0d8f
00000020: d5e0 a4ac 608a b9a0

conv1.weight f4 [30, 30]
1.05261406e-16 -1.8216205e-31 2.3654387e-27 1.0567951e-28 -3.8039824e-18 2.6035008e-32 1.0133559e-32 6.1781073e-31
-2.7297673e-31 4.4510614e-27 -3.207777e-32 7.265879e-31 7.8623475e-32 -1.8569805e-30 7.920987e-32 -4.3554987e-32
-2.3239016e-24 -7.9777935e-27 -1.4945165e-24 2.4054892e-27 5.770343e-32 -4.431759e-10 -1.8925312e-33 8.954219e-28
1.6345883e-30 -4.611313e-30 -2.9989588e-13 4.115049e-30 5.3470075e-30 5.940415e-32 3.1660133e-33 3.167165e-33
-1.364244e-32 4.7802227e-33 -6.200348e-33 1.3627531e-32 -1.555718e-32 1.1479956e-32 -3.0209197e-32 -2.2749827e-32
-2.3876017e-33 6.733547e-33 -1.00123466e-32 -1.1824893e-32 -6.569991e-33 -6.2645804e-33 -2.4952154e-32 -1.1260149e-32
-3.8224027e-33 -3.5391204e-33 -3.109202e-32 1.5269642e-32 1.07077514e-32 -7.47354e-31 -6.827853e-33 7.531729e-33
2.1784923e-34 5.5231983e-33 6.2745097e-34 -6.186086e-33 -5.84594e-08 9.32323e-33 -1.434347e-32 4.467589e-33
-1.4054372e-33 -1.11190665e-32 8.52167e-33 -2.1659725e-33 -1.187866e-32 -2.5018428e-32 1.8383096e-32 -1.8671655e-33
1.4534034e-32 8.628936e-33 6.333512e-33 5.540415e-33 -2.2344403e-32 -1.8418818e-32 1.0634856e-32 2.7059827e-32
-1.997777e-32 -2.7314984e-33 -1.1624749e-32 6.1842537e-34 -1.6757392e-32 6.423887e-33 -4.279825e-33 -9.7116845e-33
-4.0621646e-33 1.1807406e-32 3.5602072e-17 2.6799825e-32 1.6043121e-26 -7.716013e-30 1.4343977e-19 1.9215016e-32
1.1936782e-32 -7.3412584e-31 9.4199357e-32 -1.5289913e-30 -4.961682e-32 1.7570987e-31 1.6119661e-32 -6.574588e-32
2.2950215e-31 -8.882107e-33 3.00592e-26 -2.6289628e-31 -8.663156e-26 -1.4219337e-31 4.8146947e-32 -2.598393e-10
4.5656414e-33 1.0103798e-30 6.326568e-32 -2.1783863e-29 -7.2299102e-12 2.2994127e-32 1.14757e-31 -1.7973473e-32
-2.498049e-32 0.004602417 4.1920718e-32 -2.5028205e-32 -1.3714102e-32 3.6856682e-32 -3.2928506e-33 -6.596868e-33
3.269041e-32 -6.4064724e-32 5.307854e-32 -1.4401128e-34 2.5864458e-32 -6.1046313e-32 7.872587e-33 -1.8017074e-33
4.1918752e-32 -2.2187498e-31 2.5426554e-32 -9.4419603e-32 -4.937763e-32 3.6708743e-32 -1.8941142e-32 -1.0835863e-32
1.0295393e-31 2.561977e-32 -2.0893401e-32 -7.4384624e-32 -5.5902444e-32 5.6603174e-32 -1.2022433e-32 6.587285e-33
-1.338041e-32 7.412278e-32 9.436163e-33 -6.554329e-33 1.6965509e-32 -9.075764e-34 -2.861253e-32 1.2039348e-31
5.9774346e-32 -0.0021108093 -4.953275e-32 8.0650056e-32 1.0494748e-32 5.0758022e-33 1.2906256e-31 -1.608044e-31
9.6241143e-32 9.4901597e-32 5.593667e-32 -1.7059994e-33 -1.00308886e-32 -9.500245e-33 7.120938e-32 3.5567917e-32
6.293661e-33 -3.5042877e-32 -1.1747804e-31 4.5749244e-32 -1.6713627e-18 4.350365e-33 5.1357653e-27 4.0130535e-28
1.3894122e-19 -2.4219897e-32 -2.0271794e-32 -6.2840654e-31 1.1468873e-31 3.950284e-30 3.0387528e-32 -6.71549e-31
3.4416476e-33 5.4759676e-32 -1.7259165e-31 3.806481e-32 -5.518784e-26 8.426447e-31 -4.0830213e-25 -1.1742521e-31
-6.7945554e-32 -6.904056e-10 8.977869e-33 4.3904383e-30 9.681529e-32 -6.24202e-29 -8.300413e-12 4.2420266e-30
-2.283915e-32 -3.7115576e-32 9.290492e-31 -4.8568176e-32 2.8829275e-32 -6.8294664e-32 4.7196926e-30 8.690061e-33
2.8223813e-32 -1.0128005e-31 -1.1507276e-31 -1.8666606e-27 2.9000653e-32 2.9876223e-32 3.5378413e-32 4.4316846e-29
1.3820948e-32 -6.083093e-32 -1.909942e-27 1.16132e-23 1.0464838e-27 -9.601569e-25 -2.2465922e-32 1.5835683e-26
1.1883519e-32 -1.0513385e-31 2.6895747e-29 -2.3057768e-32 -9.277401e-28 4.1047825e-31 -5.9279185e-29 -2.7043447e-31
-1.07250826e-29 -4.08812e-32 5.7578127e-33 2.5277936e-31 1.6008367e-30 -1.2190667e-32 -4.1792553e-32 -4.2096621e-32
-4.2388176e-31 1.4368374e-26 -2.9492457e-31 -2.662222e-32 -2.0339015e-31 -3.977651e-29 1.1801859e-32 -3.3804872e-32
00000000: 5eb7 f224 b975 6c8c cc68 3b13 f6f6 0511
00000010: 9957 8ca2 762e 070b 3e77 520a b57d 480d
00000020: 0a2c b18c 2053 b013 ac8e 268b 90ca 6b0d
00000030: 431e cc0b faa7 168e fda3 cd0b 8226 628b
00000040: 9dcd 3398 3804 1e94 e643 e797 1e95 3e13
00000050: 82ce 950b 77a3 f3af b039 1d89 a1e2 8d12
00000060: 129d 040e 9d0e bb8e 8dd3 a8aa 1ded a60e
00000070: 80e6 d80e d438 9a0b d482 8309 138f 8309
00000080: d4ab 8d8a 0c90 c609 b4c6 008a 3184 8d0a
00000090: 148e a18a ea6d 6e0a e9da 1c8b 6a3f ec8a
000000a0: ac5a 4689 add9 0b0a c4f2 4f8a ea97 758a
000000b0: 1074 088a 391c 028a 1a8f 018b 39dd 698a
000000c0: c2c6 9e89 6202 9389 6270 218b ac91 9e0a
000000d0: 2c64 5e0a be87 728d 18cf 0d8a 8a6d 1c0a
000000e0: 20c9 9007 b86c e509 a081 5008 e07a 008a
000000f0: ca14 7bb3 cba2 410a 7cf3 948a 8e93 b909
00000100: b084 e988 19ef 668a f8fc 300a 24f1 3389
00000110: cab5 768a 32e7 018b a7e6 be0a 381e 1b89
00000120: 17ee 960a 4b37 330a ba8a 030a cc23 e609
00000130: 9d09 e88a 9e45 bf8a 98e0 5c0a ae80 0c0b
00000140: 0676 cf8a 8cec 6289 c46f 718a d081 4d08
00000150: ca04 ae8a 3e6b 050a e8c6 b189 2cb4 498a
00000160: 58bc a889 f03a 750a 822f 2424 1427 0b0b
00000170: 25e2 9e14 d47f 1c8f 0358 2920 468a c70a
00000180: d2ea 770a ca3c 6e8d 368e f40b d017 f88d
00000190: 08d0 808b 9f15 640c 6965 a70a a2af aa8b
000001a0: 96f4 940c 6279 388a 90d8 1415 23a1 aa8c
000001b0: 467d d695 da93 388c 45fe 790b 21d9 8eaf
000001c0: 3aa6 bd09 89f1 a30d 423f a40b 24ea dc8f
000001d0: 3e61 feac e0c8 ee0a 8ef6 140c b0a5 ba8a
000001e0: c4b4 018b dfcf 963b 31aa 590b 31f4 018b
000001f0: 566a 8e8a ef5e 3f0b 98c7 8889 f702 098a
00000200: 02bd 290b 5052 a68b becc 890b 806c 3f87
00000210: c34b 060b 3c7c 9e8b da81 230a 14ae 1589
00000220: 94a7 590b 4e01 908c b005 040b 9720 f58b
00000230: 1031 808b 4a9a 3e0b 31b2 c48a 540d 618a
00000240: 50a4 050c 8406 050b 30f8 d88a 101d c18b
00000250: 8c21 918b 43f3 920b 38b2 798a 04d0 080a
00000260: 3bf3 8a8a 0a6f c00b 40fb 430a ca20 088a
00000270: 0f2e b00a 08cc 9688 9390 148b 9947 1c0c
00000280: de2e 9b0b 8155 0abb 2998 808b 2861 d10b
00000290: a7f7 590a 30d7 d209 6488 270c 6dbc 508c
000002a0: 36db f90b ee60 f60b 4b38 910b 98ba 0d89
000002b0: 5a55 508a f74f 458a c0de b80b dfad 380b
000002c0: d7b6 020a f9f3 358b c67e 188c 2d8b 6d0b
000002d0: 4ca6 f6a1 04b5 b409 d972 cb13 845b fe11
000002e0: 6808 2420 8883 fb8a ac83 d28a f9ed 4b8d
000002f0: dedf 140c 183e a00e f4c7 1d0b 1cee 598d
00000300: e0f5 8e09 0c2a 8e0b 6a09 608c d0a4 450b
00000310: 73a3 8895 17ba 880d 0eba fc96 386d 188c
00000320: 9165 b08b fac6 3db0 8a76 3a0a eb18 b20e
00000330: cc58 fb0b 0741 9e90 bd05 12ad b913 ac0e
00000340: e02c ed8a 10b7 408b 32bf 960d 2e2e 7c8b
00000350: aeb0 150b 974d b18b 1774 bf0e 4a7c 340a
00000360: e28b 120b 1278 038c 7c5f 158c 60e4 1393
00000370: 7b94 160b 5020 1b0b fab1 370b 8eb6 6010
00000380: 6286 8f0a 16ed 9d8b 3a52 1793 c8a1 6019
00000390: 6dd2 a512 bc93 9497 aa4c e98a 3ad4 9c14
000003a0: a0cf 760a b778 088c ad60 0810 1072 ef8a
000003b0: 9c01 9392 3335 050d 644a 9690 a285 af8c
000003c0: d087 598f 6f44 548b 912b ef09 2d10 a40c
000003d0: 14e0 010e b430 7d8a d5ff 588b 0294 5a8b
000003e0: b88e 098d 284c 8e14 c06a bf8c 003b 0a8b
000003f0: fc01 848c ddb0 4990 721d 750a 6286 2f8b

conv1.bias f4 [30]
-0.00014139886 6.515844e-25 -3.3390576e-10 -1.16405375e-11 -1.8441055e-05 -1.9020848e-29 -5.825318e-28 -2.0232663e-24
-1.9471453e-18 -2.9539344e-06 -3.2062238e-26 -7.37972e-11 -3.964138e-25 -1.4996094e-13 8.8511744e-29 -1.295727e-07
-2.9126596e-07 -3.2199735e-06 -5.290383e-06 -4.320785e-07 -8.592099e-25 -0.0004243881 1.3793242e-23 -1.4852526e-07
-6.8630756e-14 -5.701131e-07 -0.00017211573 -2.1142723e-09 -6.319663e-11 -1.3932464e-24
00000000: 7844 14b9 d6a7 4917 0f91 b7af 52c8 4cad
00000010: ddb1 9ab7 f2e4 c08f 989c 3892 eb8a 1c98
00000020: 89ac 0fa2 353c 46b6 b7c3 1e95 2148 a2ae
00000030: 465e f596 4cd7 28aa 6867 e010 ac20 0bb4
00000040: 4a5f 9cb4 b916 58b6 0b84 b1b6 6bf8 e7b4
00000050: d0f4 8497 6880 deb9 6a66 8519 507a 1fb4
00000060: f08a 9aa9 e009 19b5 f779 34b9 ac4a 11b1
00000070: 8af8 8aae 2d98 d797

conv2.weight f4 [30, 10]
-6.8809236e-31 -1.0297376e-09 1.0698339e-28 8.560003e-31 8.794866e-20 2.5748005e-31 -2.1663833e-32 3.1675975e-07
6.239993e-05 -1.3895962e-32 -6.5926734e-33 -1.6540052e-32 5.5363696e-31 1.0174677e-32 -1.1387561e-33 -1.3678076e-32
1.1490635e-32 -2.5003736e-31 -2.1225382e-30 -1.1307653e-33 5.576036e-33 -2.1070062e-07 3.9380503e-26 -7.267159e-30
2.9488078e-16 2.4446442e-32 4.7718494e-32 6.9866896e-06 -0.00031170304 1.6775312e-32 8.683072e-33 -5.655886e-10
1.8291753e-30 1.7729152e-30 3.923892e-16 7.9725336e-32 8.1687453e-32 2.5110424e-07 -1.8728101e-06 1.4292054e-32
-6.254587e-32 8.17628e-20 6.4212663e-31 -7.4721356e-32 -3.3601512e-18 -1.52739e-31 7.4929495e-32 1.2831744e-13
-1.052399e-07 8.4511696e-33 6.939167e-33 9.3812656e-33 -3.8019234e-33 1.8844599e-29 3.2520298e-32 5.5098932e-33
-1.0810985e-32 -0.004632479 -9.982271e-33 -1.7279458e-33 -5.794671e-33 1.0249715e-32 -8.4069446e-33 1.4741032e-29
-1.354491e-29 2.2922213e-33 8.81218e-30 1.1113163e-32 8.8828395e-30 5.286844e-33 -1.12420724e-32 -1.7015213e-29
4.96199e-32 4.0479923e-32 3.9190247e-33 1.0000709e-27 -1.3776616e-24 1.537095e-29 -7.0223647e-23 1.3257653e-32
2.9861538e-33 -1.6136995e-33 1.5935594e-26 -5.4496794e-19 9.1900454e-27 -5.5746806e-33 4.5605175e-32 1.3409655e-32
1.2879724e-26 -1.3287697e-32 -4.070929e-08 -4.4548917e-10 1.3247885e-29 -5.091493e-31 -6.2169873e-29 -1.6976885e-14
-2.01726e-33 0.0001322445 0.0017073292 -2.0249406e-28 -1.4903395e-32 8.9468485e-14 5.9328504e-33 1.4142104e-27
-1.2642471e-32 7.344229e-33 1.4724075e-32 5.211414e-33 -4.0282766e-32 -1.9125215e-10 -1.3284824e-32 7.4489596e-32
2.406615e-32 -1.9942041e-33 1.00191615e-32 2.229302e-31 4.683653e-33 -4.3546875e-14 8.983139e-12 1.2802067e-23
4.2008502e-33 1.5573278e-32 2.1295182e-34 -4.5166305e-26 4.9291057e-27 1.3846338e-32 7.894236e-33 -6.424491e-33
-1.8683377e-26 -1.1301125e-33 5.6787985e-33 4.953118e-33 5.182713e-33 7.202641e-32 1.4205724e-28 4.8273586e-34
-1.884659e-33 0.008931164 2.4602407e-28 -3.480539e-33 4.7077175e-33 1.1580449e-32 4.406178e-33 2.3167218e-28
-6.6471024e-33 -7.8641836e-33 -8.0080736e-33 -5.85814e-33 -1.5170025e-32 5.427108e-33 1.2543045e-21 -6.2588734e-33
-1.0206215e-32 -5.7290656e-35 -3.5207885e-33 9.84355e-25 3.8839737e-33 -1.23931984e-11 7.967984e-11 -3.6365558e-32
7.467032e-33 3.130952e-31 -5.212904e-32 -1.7981928e-30 -9.475655e-12 -7.749586e-34 -7.1027553e-32 1.1322882e-31
1.4182194e-10 -2.9460342e-33 -6.271504e-33 8.715327e-33 -1.5234823e-33 -5.936211e-32 3.4964315e-25 -1.0428035e-32
1.1016511e-32 6.103946e-33 -1.4928718e-25 5.961734e-33 1.0546487e-29 -9.999594e-07 1.2376772e-25 3.239878e-30
-2.1632779e-18 7.5835965e-29 1.6197752e-32 0.00010194409 0.0015723539 -3.928257e-33 -8.61348e-33 2.9764127e-33
4.472561e-33 -1.1886584e-31 -2.892698e-23 5.055461e-33 1.275906e-32 -1.340744e-32 -4.628005e-24 1.1650545e-34
6.576101e-33 -6.2797766e-33 1.2772516e-32 1.646254e-25 2.2821948e-32 -1.6145233e-32 -1.524426e-32 1.5013933e-32
-2.7058487e-32 -8.9203123e-35 -2.1565633e-31 -3.9827976e-15 3.41338e-30 -8.9521277e-32 1.4360033e-32 8.093747e-31
5.0261692e-33 4.720749e-10 -8.325013e-07 1.3581502e-32 -1.0982369e-32 -4.6892086e-34 -1.2353801e-31 -3.6917073e-24
-1.9696075e-28 -5.3026378e-33 -4.1216673e-32 -5.938951e-33 1.0184432e-28 -7.555825e-33 -1.3756039e-32 8.850791e-33
-1.36315e-32 1.4152276e-32 -1.5996205e-32 -1.20073824e-32 5.1678993e-33 8.5350885e-24 -6.219305e-22 -3.4062175e-33
2.863967e-33 -0.003590297 2.0592046e-33 7.6707045e-33 -1.531022e-32 -8.565479e-33 -2.935005e-32 -6.772608e-33
1.1201253e-31 1.2769118e-21 -7.0286833e-28 -3.3917784e-18 1.3709353e-31 6.0240876e-32 1.5286171e-32 -8.412904e-29
00000000: 7a4c 5f8d ac86 8db0 189e 0711 dde4 8a0d
00000010: b4a9 cf1f 361d a70c 59f8 e08a 210f aa34
00000020: b5dc 8238 ce4d 908a aaec 088a 00c3 ab8a
00000030: 5caa 330d dd51 530a 5435 bd88 900a 8e8a
00000040: b2a6 6e0a 9548 a28c 6533 2c8e 70e1 bb88
00000050: 969e e709 f23c 62b4 b800 4315 3f65 138f
00000060: b9fc a925 cadd fd0a c2c4 770b 356f ea36
00000070: 136c a3b9 6e34 ae0a 2157 340a c277 1bb0
00000080: 7c66 140e 02d6 0f0e 6d32 e225 93fa ce0b
00000090: a012 d40b 81cf 8634 445d fbb5 cc6a 940a
000000a0: dc60 a28b 940e c11f cb61 500d dcfc c18b
000000b0: 76ef 77a2 3d44 468c 3187 c20b fc78 102a
000000c0: 3f00 e2b3 2086 2f0a f11e 100a 5dd7 420a
000000d0: fcec 9d89 601b bf0f e4da 280b 3cdf e409
000000e0: 0e89 608a 0dcc 97bb db52 4f8a 588d 0f89
000000f0: 83b3 f089 d5e0 540a fc9a 2e8a e87d 950f
00000100: 995c 898f 286e 3e09 74bb 320f b6cf 660a
00000110: 572a 340f 5e9b db09 1c7d 698a 058e ac8f
00000120: 15d2 800b 0c2f 520b 38ca a209 b277 9e12
00000130: cc2e d597 45e1 9b0f 55ca a99a e3ac 890a
00000140: 7814 7809 980f 0689 88d1 9d14 9dd8 20a1
00000150: 1107 3614 2c90 e789 adcb 6c0b fa40 8b0a
00000160: f61b 7f14 c2fc 898a 56d8 2eb3 07e9 f4af
00000170: 7a59 860f 783a 258d 8e9e 9d90 08ea 98a8
00000180: 6096 2789 1dab 0a39 76c8 df3a 8a58 8091
00000190: 05c4 9a8a 1277 c929 e370 f609 3017 e012
000001a0: 7449 838a 9f88 180a 4ee7 980a 4279 d809
000001b0: fb28 518b b248 52af 1ff5 898a d462 c10b
000001c0: cdea f90a 08ac 2589 0017 500a a2b0 900c
000001d0: 248d c209 211e 44a9 7608 1e2d c4a0 7719
000001e0: 1a7f ae09 e0b8 a10a e087 8d07 18a7 5f95
000001f0: 1243 c313 e1c9 8f0a f5f4 230a 746e 058a
00000200: fd07 b994 abc5 bb88 58e3 eb09 96be cd09
00000210: 0f48 d709 c3fd ba0b 3614 3411 a06a 2008
00000220: 4492 1c89 0454 123c b0ef 9b11 7093 9089
00000230: 0a8d c309 3a84 700a 8506 b709 f6d6 9211
00000240: 0f0e 0a8a 2c55 238a 3952 268a 6e56 f389
00000250: d888 9d8a e96e e109 8e8b bd1c e1fd 018a
00000260: 8cf9 538a 004e 9886 723f 9289 5252 9817
00000270: 7e55 a109 0106 5aad c337 af2e 1ed2 3c8b
00000280: 8d15 1b0a dd35 cb0c b155 878b 01e3 118e
00000290: 8eb2 26ad 18c3 8088 e865 b88b bbfa 120c
000002a0: 54ef 1b2f 38bf 7489 0941 028a a002 350a
000002b0: c521 fd88 e41c 9a8b 2b6b d816 f294 588a
000002c0: d2cd 640a 4a8c fd09 ffce 3896 08a4 f709
000002d0: 7ee8 550f 5836 86b5 8e37 1916 d16c 830e
000002e0: 2a9f 1fa2 5b44 c010 0335 a80a d1ca d538
000002f0: 7117 ce3a 652c a389 1de5 328a 4c45 7709
00000300: 6dc8 b909 f34b 1a8c dee1 0b9a e2fe d109
00000310: 667f 840a 173b 8b8a 8b09 b398 c0dc 1a07
00000320: 8d94 080a 056d 028a 2ca3 840a dfcb 4b16
00000330: 25ff ec0a 64a9 a78a 324e 9e8a e1e9 9b0a
00000340: e67e 0c8b 8024 ed86 0ef8 8b8c d37e 8fa7
00000350: 9176 8a0e 1869 e88b 841f 950a 1c54 830d
00000360: 66c7 d009 51c3 0130 0e79 5fb5 d309 8d0a
00000370: 4a18 648a 60d3 1b88 8c5c 208c e6d0 8e98
00000380: 6bad 7991 5143 dc89 5b02 568b c2b1 f689
00000390: 5f1a 0111 a8ed 1c8a d3d9 8e8a e0d2 370a
000003a0: be8e 8d8a 34f7 920a 351d a68a 3262 798a
000003b0: 88aa d609 b617 2519 8bf7 3b9c 1e7d 8d89
000003c0: d8ed 6d09 304b 6bbb 7012 2b09 7650 1f0a
000003d0: 8cfd 9e8a e6e5 318a e864 188b 5ca9 0c8a
000003e0: 8c66 110c 22f6 c01c 74bf 5e92 e244 7aa2
000003f0: 24f5 310c ee64 9c0b 9dbd 9e0a de4a d590

conv2.bias f4 [10]
-0.0030155785 -2.362878e-05 -8.064404e-13 -0.004679192 -0.0007351756 -2.0557763e-05 -0.018145246 -0.0061291726
-0.0006575021 -8.1032103e-10
00000000: 03a1 45bb 6b36 c6b7 28fe 62ab e853 99bb
00000010: cdb8 40ba 7673 acb7 57a5 94bc 3ad7 c8bb
00000020: 385c 2cba 46bd 5eb0

rnn.weight_ih_l0 f4 [30, 1]
0.27384993 -0.31293008 -0.1448455 -1.8201528 2.1520746 -0.13220017 0.0040094657 0.24383067
0.0043744687 -0.38021824 0.08400003 0.0012422454 0.15246129 0.055513952 -0.15648946 -1.226391e-05
-0.23334068 -1.3860377 -0.0860778 0.17419487 -0.37760845 0.78845674 -0.08945666 -0.24456683
-0.08350298 1.0731907 0.46042973 -0.3198076 -0.27536103 -0.034830656
00000000: 0f36 8c3e 5f38 a0be 6152 14be c4fa e8bf
00000010: 97bb 0940 7b5f 07be d661 833b bfae 793e
00000020: b457 8f3b f7ab c2be 3508 ac3d d7d2 a23a
00000030: d01e 1c3e 9962 633d c63e 20be 18c1 4db7
00000040: dcf0 6ebe af69 b1bf 8f49 b0bd 2460 323e
00000050: e555 c1be 4dd8 493f 0e35 b7bd ba6f 7abe
00000060: 9c03 abbd 505e 893f 72bd eb3e d2bd a3be
00000070: 1ffc 8cbe 97aa 0ebd
