colagnn-master-Run-Epi/src/save/cola_gnn_epi.us_regions.w-20.h-2.RNN.lam-0.5.epo-500.pt (torch, 52278 bytes, 32 tensors)

V f4 [15]
000000 4f 33 4d b8 81 e9 13 3d 49 d2 1f bd a8 5d fa bd
       -4.8923594e-05 0.03611136 -0.039018903 -0.12224895
000010 90 f8 e5 bd 75 ad 9b 39 0c 35 95 3c 70 c7 d2 3c
       -0.1122905 0.0002969314 0.018213771 0.025729865
000020 b7 be 39 ba 66 9b 8c 3c 40 9d 77 3e 88 8f 2d 3d
       -0.00070856087 0.017163943 0.2418108 0.04237321
000030 39 d2 86 3b a7 7f eb 3d 32 17 c5 3d
       0.004114416 0.11498957 0.09623565

W1 f4 [15, 30]
000000 77 25 35 36 b4 d8 10 b6 49 69 16 b7 4e 20 b8 b3
       2.699291e-06 -2.158381e-06 -8.96521e-06 -8.574044e-08
000010 12 5a dd b5 53 77 09 b6 20 e0 33 b6 de 20 34 36
       -1.6491997e-06 -2.0484047e-06 -2.6803536e-06 2.6841221e-06
000020 6e cb 12 b6 27 c3 15 b6 b8 7a 28 36 ba e5 06 b6
       -2.1874107e-06 -2.2316324e-06 2.5105383e-06 -2.0101274e-06
000030 34 57 2a b6 3b 7a 41 35 98 96 88 35 c8 17 98 b4
       -2.5382733e-06 7.207597e-07 1.0176618e-06 -2.832951e-07
000040 53 f4 30 36 b1 94 32 b6 d2 c2 38 36 5a 28 d2 35
       2.636826e-06 -2.6610617e-06 2.7531537e-06 1.5657963e-06
000050 f4 45 18 36 17 bc eb b4 8c 38 7e 34 c3 44 33 b6
       2.2690483e-06 -4.3909014e-07 2.3676165e-07 -2.6713103e-06
000060 43 1c 2c b6 72 57 a9 b6 1b 5c 2a 36 38 a6 c5 b4
       -2.5646448e-06 -5.0467725e-06 2.5385586e-06 -3.681505e-07
000070 db 9f 04 36 ca ac 07 b5 d6 2c c3 3b c4 ee 96 b8
       1.976258e-06 -5.054286e-07 0.0059562726 -7.197031e-05
000080 4b b5 03 3a 53 12 2f bb 98 80 25 3a 35 64 d0 3a
       0.0005024268 -0.0026713803 0.00063134125 0.0015899005
000090 5e d2 cf bb b7 55 a1 3b 7e 37 3c 3b d9 38 3b ba
       -0.0063422164 0.004923548 0.00287196 -0.0007141955
0000a0 cb 07 2a 3b c4 24 15 bb d1 0d 7b bb 47 2c 36 3b
       0.0025944586 -0.002275751 -0.0038307796 0.0027797387
0000b0 53 a1 09 bb 9d 8f 7d 3b 9f 71 fe 3a c4 80 e0 bb
       -0.0021000698 0.0038690337 0.0019412524 -0.0068512876
0000c0 14 ad 08 3b d9 a7 61 3b 96 e9 36 3b b7 bb 1f 3b
       0.0020855116 0.003443232 0.0027910224 0.0024373361
0000d0 ba 03 81 ba f9 0d e2 bb fb 0b 88 bb 48 6b 72 3a
       -0.000984303 -0.0068986383 -0.004151819 0.00092475535
0000e0 3b 25 13 3b da f5 a4 3a 26 95 de ba 71 cc 33 bb
       0.002245261 0.0012585477 -0.0016981706 -0.002743509
0000f0 84 51 0a bd 36 dd de 3c 1e 9f 4c bc 52 df 3b bb
       -0.033769146 0.027205091 -0.012489108 -0.0028667045
000100 28 25 7c 3c 90 f6 d4 3c 6c 78 08 3d 9a 01 0a bd
       0.015389718 0.025996476 0.03331797 -0.033692934
000110 93 23 e2 3c 07 25 e8 3c 77 f8 03 bd a1 e8 8d 3c
       0.027604854 0.028337969 -0.032219376 0.01732284
000120 3b 20 04 3d 27 67 ed bc fe 90 6a bc b4 50 f9 3b
       0.0322573 -0.028979851 -0.014316795 0.0076084975
000130 c9 6e ef bc a5 3d 09 3d ad d2 ce bc da dc 40 bc
       -0.029227631 0.033506054 -0.025246942 -0.011771405
000140 db ed ae bc 79 82 fe 3b 18 e9 a3 3a 29 b6 09 3d
       -0.021353653 0.0077670184 0.001250538 0.033620987
000150 f1 36 06 3d b2 d8 08 bd c2 a7 ef bc 34 d0 03 3c
       0.03276724 -0.03340978 -0.029254798 0.008045245
000160 4d 16 ca bc 80 75 2c 39 c0 db 14 bd c0 75 5b 3c
       -0.024668837 0.0001644697 -0.036342382 0.013394773
000170 42 c5 20 bd 34 b6 ee 3c a3 89 55 3d 20 e3 1f 3c
       -0.03925062 0.029139616 0.052133214 0.009758741
000180 64 bb 13 3d f5 f6 11 bd b6 6e 5b 3c 12 d1 7d 3c
       0.03606738 -0.035635907 0.013393095 0.015491741
000190 71 9c ea bc 9e ff fd 3c da 04 f8 3c 37 e5 f7 bc
       -0.02863905 0.031005677 0.03027575 -0.030260665
0001a0 25 87 62 3c 0a 6f ae 3a d9 48 42 bc 1d a8 0e 3d
       0.013826166 0.0013308239 -0.011858189 0.034828294
0001b0 90 63 da 3c f0 66 1d bd 84 e7 1d bd 75 a2 b2 bc
       0.026658803 -0.038428247 -0.03855087 -0.021805981
0001c0 d2 3c 31 bd 1f d9 0f 3d 12 52 fc 3c 90 13 53 bd
       -0.043270893 0.035119172 0.030800853 -0.051532328
0001d0 30 ea 31 bd ba 4e 7a bc 4a df e1 bb 46 c6 02 3d
       -0.04343623 -0.015277559 -0.006893073 0.03192737
0001e0 d0 ab 1c bd 08 83 83 3c 2a 4c 4e bd bd d4 e9 3c
       -0.03824979 0.016053692 -0.050365604 0.028543824
0001f0 26 2e 49 3d 50 2a 40 3c d7 4a 1b 3d 6f 74 19 bd
       0.049116276 0.011728838 0.03791317 -0.037464555
000200 12 dd 81 3c fc 49 92 3c ce 6c fb bc ac 4f 0a 3d
       0.015852485 0.017857544 -0.03069153 0.033767387
000210 6a 9d 04 3d 1a 8f 10 bd ca 51 5a 3c 68 b0 2c 3b
       0.032376684 -0.035292722 0.013325164 0.0026350264
000220 bc fb 98 bc 11 1d 16 3d 29 a0 2a 3d 73 a0 25 bd
       -0.018674724 0.036648814 0.041656647 -0.04043622
000230 6a 86 2b bd dd 46 a8 bc d8 38 24 bd 17 bc 17 3d
       -0.041876234 -0.020541603 -0.040093273 0.03704461
000240 f4 0a 06 3d c9 e4 74 bd 64 c8 3b bd 0d aa 54 bc
       0.03272529 -0.0597885 -0.045845404 -0.012979996
000250 e0 0f 16 bc 79 ae 02 3d 32 73 e0 3b 3f 3e 49 bb
       -0.009159058 0.03190467 0.00684967 -0.0030707268
000260 7a 78 fb bb 89 13 c5 3b 89 bc 8c bb f9 dc ca ba
       -0.007674274 0.0060142917 -0.004294936 -0.0015477232
000270 cd 9d 89 bb 5a 97 9a 3b c1 4c d3 bb 67 86 86 bb
       -0.0041997195 0.0047177495 -0.0064483588 -0.0041053775
000280 39 45 91 3b 32 3b cb 3b eb 4d ab bb 50 9b 06 bc
       0.004433301 0.006202125 -0.0052277944 -0.00821574
000290 ec 18 9e 3b b4 7e 74 bb c6 67 05 bc 7e 49 f3 bb
       0.0048247483 -0.0037306966 -0.008142417 -0.0074245324
0002a0 e5 bb 20 bc 24 e1 00 bc 31 2b 05 bc 34 18 b1 bb
       -0.009810423 -0.007866178 -0.008127973 -0.0054044966
0002b0 9c 8e c1 3b a2 bd ba bb d8 7c bb bb 22 ce da bb
       0.005906893 -0.0056988755 -0.0057216696 -0.006677405
0002c0 10 82 05 bc a2 3c 92 bb 47 62 0a 3c 88 fc ce 3b
       -0.008148685 -0.0044627944 0.008446283 0.006316725
0002d0 d1 e3 86 3c 56 25 8c bb 36 e7 b8 bc 52 72 91 bc
       0.016466053 -0.0042769117 -0.022571187 -0.017754707
0002e0 d3 18 e9 bc be 78 2b bb 76 b8 85 bc c5 19 84 3c
       -0.02845422 -0.0026164497 -0.01632331 0.01612557
0002f0 ee 5b 99 bb 89 55 bf bb 35 8a 49 3c b1 03 98 bc
       -0.0046801483 -0.005839054 0.0123010175 -0.018556448
000300 10 46 5b bc c2 6b 84 3c 7d 31 2d bc 94 93 6c bb
       -0.013383403 0.016164664 -0.010570881 -0.0036098706
000310 fe 0b a0 3b 7d 5e 80 bc cb d2 fe 3c 99 dc bc 3c
       0.004884242 -0.015670056 0.031106373 0.023054408
000320 0f 82 ba 3c 9c 54 6b 3c 58 4d ce 3c 36 cf 81 bc
       0.022767095 0.014363434 0.025183365 -0.015845876
000330 b9 23 5d bc aa c1 c4 bb 49 70 85 3c b6 2a 03 3c
       -0.0134972865 -0.006004532 0.016288893 0.008005789
000340 b0 1d 11 3a c8 c8 a0 bc 2e cc d9 ba 4c 30 60 3b
       0.0005535735 -0.01962699 -0.0016616636 0.0034208475
000350 2b 0b 6b bb a3 56 8e bb 09 54 1a bb e1 ec 6c 3b
       -0.003586481 -0.004343824 -0.0023548624 0.0036151933
000360 23 67 cb 3a 2f f2 fd ba 56 68 7f 3b 36 a1 5c 3b
       0.0015518408 -0.0019374544 0.0038972101 0.0033665425
000370 29 a9 2b bb da 7d 4a bb f8 6b 10 3b d0 5a 6e 3b
       -0.0026193357 -0.0030897767 0.002203701 0.0036370046
000380 83 a0 89 bb b3 05 90 3a 4a e8 29 3b 0d a9 e0 3a
       -0.0042000427 0.0010988027 0.0025925809 0.0017140225
000390 d4 a7 06 ba 49 48 89 3b fc c5 83 3b 5f fe 8a 3b
       -0.00051367027 0.0041895253 0.0040214043 0.004241749
0003a0 f2 e2 8b 3a 06 d5 03 3b 3b 1d 19 3b 18 39 89 3b
       0.0010672493 0.0020115986 0.002336337 0.0041877143
0003b0 a6 5f 95 3b c0 02 82 3b 94 cf 81 bb ca 8c 8e bb
       0.0045585213 0.003967613 -0.003961513 -0.0043502795
0003c0 40 0f e2 bc 69 d8 c1 3c 44 3d e9 bb f7 ac bc bb
       -0.027595162 0.023662763 -0.007117899 -0.0057579237
0003d0 a4 3b 74 3b d4 f1 b9 3c 02 d4 de 3c 9e d0 e1 bc
       0.0037266994 0.02269832 0.027200703 -0.027565297
0003e0 6c 34 c4 3c 1e 00 c8 3c 4a 73 db bc bc 89 48 3c
       0.023950778 0.024414118 -0.026788373 0.01223987
0003f0 af b8 da 3c 3a ca bd bc 6d 51 65 bc b8 15 ea 3b
       0.026699392 -0.023167718 -0.013996464 0.0071437024

b1 f4 [15]
000000 f3 7c 36 36 a8 a8 b3 3b de fd 0a bd b8 b8 17 bd
       2.7192843e-06 0.005482752 -0.033933513 -0.037041396
000010 cc fb 1e bd 04 c6 7c 3b 31 4f 8a 3c 95 bd dd ba
       -0.03881435 0.0038570175 0.016883465 -0.0016917462
000020 ce c3 e2 bc b4 da 7a 3c b0 f9 e7 3c b2 5e 99 3a
       -0.027681258 0.015310932 0.028317302 0.0011701195
000030 17 81 db 3b 6b ad 01 bd 7f b5 aa 3c
       0.0066987383 -0.031659525 0.020838497

W2 f4 [15, 30]
000000 18 14 39 36 21 b8 eb b5 0b 32 12 b6 8e ae ea 35
       2.7578844e-06 -1.7562453e-06 -2.1784824e-06 1.7485161e-06
000010 30 ae 29 36 a7 c1 48 b5 63 b4 6e b6 b6 d3 36 36
       2.5284353e-06 -7.478761e-07 -3.5569763e-06 2.7243345e-06
000020 31 aa 1f b6 53 a9 1c b6 74 6b 26 36 02 68 1d 35
       -2.379191e-06 -2.334437e-06 2.4798474e-06 5.863841e-07
000030 f9 f4 56 b6 26 19 ae b4 f7 96 e4 35 c0 62 5d b8
       -3.2031078e-06 -3.2428323e-07 1.703126e-06 -5.2782474e-05
000040 3a 20 36 36 30 f4 2a b6 ac b2 7f b5 76 27 bf 34
       2.7138872e-06 -2.547411e-06 -9.5254904e-07 3.5605234e-07
000050 54 86 f3 35 51 b3 34 b4 e4 c0 d1 b5 8f c2 34 b6
       1.8144005e-06 -1.6829041e-07 -1.5627852e-06 -2.6935338e-06
000060 cc cd 2d b6 c4 a2 d4 36 b6 d1 e4 35 84 ab 65 37
       -2.5898798e-06 6.3370408e-06 1.7048358e-06 1.3689398e-05
000070 b3 13 08 36 66 ea c0 b3 22 00 84 3b 7b fd 44 3a
       2.0277046e-06 -8.9833335e-08 0.004028336 0.0007514578
000080 bc 9e c5 ba f6 4b 9e ba bf 93 2b 3b 2b 65 02 3a
       -0.0015077214 -0.0012077081 0.0026180593 0.00049741816
000090 9a d9 bd bb 7a 81 a5 3b 83 bb 36 3b 73 19 a8 ba
       -0.0057937624 0.005050835 0.0027882762 -0.0012824967
0000a0 f8 d9 35 3b d8 8c 85 bb fa 34 59 bb 8f 01 53 3b
       0.0027748328 -0.004075628 -0.0033143149 0.0032196974
0000b0 93 e5 c8 ba f5 9c 1f 3d 5f 6f 12 3b a4 c1 fa bb
       -0.0015327208 0.038968045 0.0022344214 -0.0076524783
0000c0 f6 f4 50 ba fe e2 2b 3b 1f da 45 3b 4d 87 09 3b
       -0.00079710723 0.0026227827 0.0030189825 0.0020985187
0000d0 01 15 81 bb 7c 46 c0 bb af 97 81 bb 98 c6 df ba
       -0.0039392714 -0.0058677774 -0.0039548497 -0.0017072735
0000e0 fd cf 47 3b e0 3e 23 bc 8f 81 bc ba 1e af 37 bb
       0.003048896 -0.009963721 -0.0014381873 -0.0028027962
0000f0 55 a1 0b bd dd 80 ac 3c 4a 9d a4 3c be de a8 bc
       -0.034089405 0.02105754 0.020094533 -0.020614024
000100 e7 d5 de bc d3 4a bd 3c 37 5a 16 3d eb 4f 0a bd
       -0.027201606 0.023106968 0.03670713 -0.033767622
000110 86 73 f8 3c 9a 2d f4 3c dc 43 03 bd 68 23 f6 3b
       0.030328523 0.0298069 -0.032047138 0.007511545
000120 b4 bf 12 3d b8 7f 49 bc 6c ce a5 bc 36 ca 48 3d
       0.035827354 -0.012298517 -0.020240031 0.04902097
000130 53 8f ef bc cc 55 07 3d bb 05 23 bc be a1 1e bc
       -0.029243147 0.033040807 -0.009950097 -0.009682117
000140 e8 29 75 bc de 39 d3 3b e3 4a 7b 3c c9 de 09 3d
       -0.0149636045 0.0064461073 0.015337679 0.03365973
000150 2b 9d 06 3d 8f 78 27 bc 5f 1c a3 bc 9d 17 a2 3a
       0.03286473 -0.0102216145 -0.01991099 0.0012366656
000160 d1 67 d1 bc 06 dd 36 bb 48 06 16 bd 49 b2 b7 3b
       -0.025562199 -0.0027902736 -0.036627084 0.00560597
000170 7a 77 61 bb 88 6a 92 b9 26 b6 13 bd 98 29 ed 3b
       -0.003440349 -0.00027926662 -0.036062382 0.0072376244
000180 7a d3 1e 3d db 56 13 bd ad c1 b4 3c 97 3f a8 3c
       0.0387759 -0.035971504 0.022065008 0.020538135
000190 b7 5d e1 bc be a7 2d 3d 72 3c 03 3d ab 33 1f bd
       -0.027510507 0.0423963 0.032040067 -0.038867634
0001a0 8d 55 1b 3b 9c 3c 4d bb ca 4b f1 bc a8 06 0f 3d
       0.0023702115 -0.0031316644 -0.029455084 0.034918457
0001b0 f1 92 ea 3c 5c d4 21 bd 6d 22 22 bd 02 fe 95 bc
       0.02863452 -0.039509162 -0.039583612 -0.018309597
0001c0 6a ec 1f 3d 16 6c 10 3d d6 ff ff 3c 1b 88 1a bd
       0.03904382 0.03525933 0.031249922 -0.037727457
0001d0 09 4a 42 bd 35 ef 83 bb b2 86 13 bc 9b 1e e7 3c
       -0.047433887 -0.0040263184 -0.009004282 0.028212836
0001e0 e8 55 1d bd d6 c4 90 3b a1 4e b2 3c a6 b8 e0 bb
       -0.038412005 0.004417996 0.021766009 -0.0068579493
0001f0 32 c6 2c bd 79 d4 12 3c ba c2 27 3d 86 14 1b bd
       -0.0421812 0.00896179 0.04095719 -0.03786137
000200 d9 8f d2 3c 95 4f bf 3c 52 4b eb bc 0c d7 23 3d
       0.025703358 0.023353377 -0.028722439 0.040000007
000210 0c 0d 0b 3d 50 a3 1c bd 94 23 40 bb d2 1f 5b 3b
       0.03394799 -0.038241684 -0.0029318081 0.0033435714
000220 44 9f 10 bd 16 70 16 3d 3a c5 28 3d a0 e6 1c bd
       -0.035308138 0.036727987 0.041203715 -0.03830588
000230 b6 a0 27 bd 45 e6 a0 bc e6 fb 0f 3d c2 04 18 3d
       -0.04092475 -0.019641051 0.03515234 0.037113912
000240 f4 6d 08 3d 68 07 1f bd fc 52 41 bd fc ea ab bb
       0.033307984 -0.038825423 -0.04719828 -0.005246518
000250 6d d1 26 bc f9 c2 d5 3c 2c 36 da 3b 91 0f 2d bb
       -0.010181767 0.026093947 0.00665929 -0.0026406983
000260 eb 44 fa 3b d5 7b 70 3b bb d0 04 bc 3c c6 cb ba
       0.00763761 0.0036694903 -0.008106406 -0.0015546749
000270 7e 90 0a bc 8e b1 f2 3b ea 38 a4 bb 0f 32 a0 bb
       -0.008457301 0.00740642 -0.0050116675 -0.00488878
000280 d0 b5 83 3b ab 43 0b 3c 6b 30 91 bb 38 52 ef bb
       0.0040194765 0.00850002 -0.0044308207 -0.0073035024
000290 b8 a9 87 3b 7a 4f b8 bb 7a 0c 07 bc 0c 95 f5 bb
       0.004140105 -0.0056247087 -0.008242721 -0.0074945744
0002a0 0e ad 36 ba fa be 0b bc e6 fa 02 bc d7 7e 7f bb
       -0.0006968536 -0.008529419 -0.007994389 -0.0038985515
0002b0 4e 4a 07 3c 9d 0a b2 bb af 5d d1 bb 20 61 6b 3b
       0.008257462 -0.005433394 -0.006389342 0.0035916045
0002c0 fd 63 f4 bb 01 c2 01 bc 59 63 17 3c 23 4d c0 3b
       -0.0074582086 -0.007919789 0.009239995 0.0058685704
0002d0 94 2c 87 3c c0 5c 53 3a ff 57 ee 3b 52 76 4b bb
       0.016500749 0.0008062832 0.0072736735 -0.0031045866
0002e0 2b 30 a6 3c d2 70 ac bb 5c 08 81 bc 82 d9 84 3c
       0.02028664 -0.0052624727 -0.015751056 0.016216997
0002f0 70 4b 13 bc 4b c6 04 bc 10 dd 3e 3c 8e 81 db bc
       -0.008990154 -0.008103917 0.011649385 -0.026795175
000300 ad 4d 4b bc ed 79 c8 3c 4f c1 6b bb 1f 19 49 3e
       -0.012408656 0.024472201 -0.0035973375 0.19638489
000310 90 6f 84 3c 3c 46 84 bc e8 b7 4e 3d f9 e7 ca 3c
       0.016166478 -0.016146772 0.050468355 0.024768816
000320 71 9f c0 3c 37 65 63 3c 86 f2 bc bc 5c a5 81 bc
       0.023513528 0.013879112 -0.023064863 -0.01582592
000330 b9 55 61 bc 54 0d d9 3c d8 03 a7 3c ba 16 0a bd
       -0.013753348 0.026495613 0.020387575 -0.03371308
000340 39 c6 c8 3a 01 49 91 bc 42 5a dc ba c1 4d 42 3b
       0.0015317864 -0.017735006 -0.0016811567 0.0029648396
000350 5c 44 ec ba 47 20 7e bb 1e ef 7d 3b f1 f4 37 3b
       -0.0018025744 -0.0038776563 0.0038747261 0.002806958
000360 2e e1 16 3b b3 23 d0 ba 03 e7 77 3b 25 4d 4f 3b
       0.00230224 -0.001587978 0.0037826903 0.0031631675
000370 dc 7e 31 bb 73 22 c5 bb c0 0d 49 3b 5a 2a 95 3b
       -0.002708367 -0.0060160696 0.0030678362 0.004552168
000380 c0 17 81 bb a9 f3 e5 3c ee 65 55 3b 30 83 bc 3a
       -0.003939599 0.028070288 0.0032561976 0.0014382359
000390 53 86 02 3c d4 87 a0 3b b8 49 8a 3b be 47 4b 3b
       0.007966596 0.0048990045 0.0042202137 0.0031018103
0003a0 dd 08 8d bb 9f e6 f4 3a 76 c5 11 3b e1 27 d4 3a
       -0.004304035 0.0018684453 0.002224294 0.0016186201
0003b0 4f 16 a6 3b 70 d9 f1 ba 41 f4 80 bb d3 6f 8e bb
       0.0050685774 -0.0018451642 -0.0039353673 -0.0043468266
0003c0 48 5d e4 bc c9 18 94 3c bc b6 c2 3c af c3 a1 bc
       -0.027876511 0.018078225 0.023768775 -0.01974663
0003d0 de 7f 97 bc fd 38 a5 3c ef 62 f7 3c 9a 38 e2 bc
       -0.018493589 0.020168776 0.030198542 -0.02761488
0003e0 7d 36 d3 3c 75 23 d0 3c 49 ca d9 bc e4 88 98 39
       0.025782818 0.025407532 -0.026585715 0.0002909369
0003f0 97 d6 f4 3c ba 43 c2 bb 88 50 9f bc 88 03 47 3d
       0.02988748 -0.005928484 -0.01944758 0.048587352

Wb f4 [29, 29]
000000 81 0d 50 bf 32 d4 91 3d 8e 25 f9 bc 65 ec 04 bf
       -0.81270605 0.07120551 -0.030413415 -0.5192321
000010 f8 45 5f 3d 76 25 13 bf 14 47 af be d8 8e 8c 3e
       0.054510087 -0.57479036 -0.34233916 0.2745273
000020 57 8c 72 3e 8e 8f d9 be d7 7c b5 3e 34 81 3e bd
       0.23686348 -0.42492336 0.35446808 -0.046509936
000030 21 0e 62 3e 71 2b 94 3e 87 c0 c3 3e da 59 2e 3e
       0.22075702 0.28939393 0.38232824 0.17026463
000040 be 30 ee 3d bb 7e 74 3e 59 2e 52 3d ae b9 2b bf
       0.116303906 0.23876469 0.05131373 -0.670802
000050 4e 1d fc be ee 4c 56 3e d3 c0 90 3e aa 95 91 bb
       -0.49241108 0.20927784 0.28272113 -0.00444289
000060 3e 2c 50 3d d0 9c b2 3d 60 98 cc 3e c4 52 73 3d
       0.050823443 0.08721316 0.39960003 0.059405103
000070 e9 da 9e be ee d4 4e bf 79 b7 91 3d c3 03 f8 bc
       -0.3102639 -0.80793655 0.07115073 -0.030275231
000080 4b 3f 05 bf e4 3c 5f 3d e0 1e 13 bf f8 3c af be
       -0.520497 0.05450143 -0.57468987 -0.34226203
000090 87 7e 8c 3e 16 6c 72 3e 62 b5 d9 be 84 84 b5 3e
       0.27440283 0.23674044 -0.42521197 0.35452664
0000a0 94 af 3d bd 3e 51 61 3e d4 5f 95 3e 3b bd c3 3e
       -0.046310022 0.22003648 0.29174674 0.3823031
0000b0 db 6a 2d 3e 99 24 ee 3d 53 8e 74 3e 58 2e 52 3d
       0.16935293 0.11628074 0.23882417 0.051313728
0000c0 14 99 2b bf 36 03 fc be 9e 51 56 3e 04 d4 90 3e
       -0.67030454 -0.492212 0.20929572 0.28286755
0000d0 08 98 67 bb bc 1d 52 3d e4 ac b2 3d b9 8d cc 3e
       -0.003533842 0.05129789 0.087243825 0.39951876
0000e0 ff c4 71 3d a4 de 9e be 5e c2 4e bf 22 c6 91 3d
       0.05902576 -0.31029236 -0.8076533 0.07117869
0000f0 e2 7f f7 bc 65 09 05 bf 2f 46 5f 3d 3f 20 13 bf
       -0.030212346 -0.5196746 0.05451029 -0.5747108
000100 95 3c af be 64 90 8c 3e 76 89 72 3e a2 a6 d9 be
       -0.34225908 0.2745391 0.2368525 -0.42509943
000110 4d 81 b5 3e 5f f4 3d bd ac 9e 61 3e ac 76 95 3e
       0.3545021 -0.04637563 0.22033185 0.29192102
000120 64 bd c3 3e b9 a8 2d 3e ef 1f ee 3d 77 c6 74 3e
       0.3823043 0.16958894 0.116271846 0.23903833
000130 f8 ce 4f 3d 0f 98 2b bf 70 28 fc be 27 4c 56 3e
       0.05073449 -0.670289 -0.492496 0.20927487
000140 11 14 91 3e ec 4a 68 bb 62 47 51 3d 8b a3 b2 3d
       0.28335622 -0.0035445048 0.051093467 0.087225996
000150 23 97 cc 3e dc b4 71 3d 66 d9 9e be cd cf 4f bf
       0.39959058 0.05901037 -0.31025237 -0.81176454
000160 b7 b8 91 3d cf 2b f8 bc 8e 78 04 bf 3b 42 5f 3d
       0.0711531 -0.030294327 -0.5174645 0.05450652
000170 28 22 13 bf cf 3a af be 87 80 8c 3e bf 81 72 3e
       -0.57473993 -0.34224555 0.2744181 0.23682307
000180 cf b0 d9 be 67 9b b5 3e 72 d9 3d bd 01 2d 62 3e
       -0.42517707 0.35470125 -0.04634995 0.2208748
000190 c6 63 94 3e 4f bf c3 3e 74 3c 2e 3e 90 1f ee 3d
       0.2898237 0.38231894 0.17015249 0.11627114
0001a0 dd 3f 74 3e 46 f8 4f 3d 29 9f 2b bf 73 12 fc be
       0.23852487 0.05077388 -0.67039734 -0.49232826
0001b0 d0 4f 56 3e 23 9f 90 3e b7 35 91 bb a0 46 4f 3d
       0.20928884 0.28246412 -0.004431452 0.050604463
0001c0 45 b5 b2 3d 63 81 cc 3e 5e 93 71 3d b1 dd 9e be
       0.08725981 0.39942464 0.05897843 -0.31028512
0001d0 41 b7 4e bf 78 a2 91 3d 50 82 f7 bc 78 2c 05 bf
       -0.80748373 0.071110666 -0.030213505 -0.5202098
0001e0 f8 49 5f 3d 25 1f 13 bf 71 3a af be 48 8a 8c 3e
       0.0545139 -0.574694 -0.34224275 0.2744925
0001f0 d2 7e 72 3e 32 ba d9 be b3 83 b5 3e d4 8f 3d bd
       0.2368119 -0.42524868 0.3545204 -0.046279743
000200 c4 64 61 3e 3f 2e 95 3e ba be c3 3e cb 51 2d 3e
       0.22011095 0.29136845 0.3823145 0.16925733
000210 c3 29 ee 3d 4d 70 74 3e 7c b5 51 3d 3e 99 2b bf
       0.11629059 0.23870964 0.051198468 -0.67030704
000220 2b 1d fc be 1c 4b 56 3e 07 1f 91 3e e8 bd 65 bb
       -0.49241003 0.2092709 0.28343984 -0.003505582
000230 8a f5 4f 3d b5 b5 b2 3d 78 81 cc 3e cd ce 71 3d
       0.050771274 0.08726064 0.39942527 0.05903511
000240 97 da 9e be ac e2 4e bf 51 a3 91 3d 7e 64 f7 bc
       -0.31026146 -0.80814624 0.07111228 -0.030199286
000250 25 3c 05 bf dc 44 5f 3d bb 25 13 bf 13 3c af be
       -0.520449 0.05450903 -0.5747945 -0.3422552
000260 de 8a 8c 3e d0 83 72 3e 35 b1 d9 be ce 94 b5 3e
       0.27449697 0.23683095 -0.4251801 0.3546509
000270 33 a6 3d bd eb be 61 3e 7b 12 95 3e 75 bd c3 3e
       -0.046301078 0.22045486 0.29115662 0.38230482
000280 1c 71 2d 3e 24 26 ee 3d 55 82 74 3e 70 9c 51 3d
       0.16937679 0.116283685 0.23877843 0.05117458
000290 b3 91 2b bf 95 1f fc be ec 4b 56 3e a0 e0 90 3e
       -0.67019194 -0.49242845 0.209274 0.28296375
0002a0 ea c3 6b bb 3c f8 51 3d 1a b0 b2 3d 08 7e cc 3e
       -0.0035974928 0.051262125 0.08724995 0.39939904
0002b0 0a ab 71 3d 3d e1 9e be f0 f6 4e bf c4 a9 91 3d
       0.059001006 -0.31031218 -0.80845547 0.07112458
0002c0 7e ea f7 bc af 46 05 bf 57 40 5f 3d 4d 27 13 bf
       -0.030263182 -0.5206098 0.05450472 -0.57481843
0002d0 c1 35 af be 75 60 8c 3e 83 91 72 3e c1 b0 d9 be
       -0.34220698 0.2741734 0.23688321 -0.42517665
0002e0 47 88 b5 3e ce 9f 3d bd 9e be 61 3e c0 06 95 3e
       0.35455534 -0.04629498 0.22045371 0.29106712
0002f0 6e be c3 3e 19 5c 2d 3e 4d 25 ee 3d 66 69 74 3e
       0.38231224 0.16929664 0.11628208 0.23868331
000300 2c 5b 52 3d ce 99 2b bf e5 0a fc be 05 4c 56 3e
       0.05135648 -0.6703156 -0.49227062 0.20927437
000310 b3 dc 90 3e c6 06 68 bb 7e 46 52 3d 4e b1 b2 3d
       0.2829338 -0.0035404428 0.051336758 0.087252244
000320 18 95 cc 3e e9 ab 71 3d c0 da 9e be c8 94 4e bf
       0.399575 0.059001837 -0.31026268 -0.8069577
000330 34 f1 91 3d c9 84 f7 bc fd 29 05 bf 31 3b 5f 3d
       0.07126084 -0.030214684 -0.52017194 0.05449981
000340 4c 27 13 bf 6e 3d af be c6 4a 8c 3e b9 84 72 3e
       -0.5748184 -0.34226555 0.27400798 0.23683442
000350 26 89 d9 be 44 83 b5 3e 82 bc 3d bd 99 b8 61 3e
       -0.42487448 0.3545171 -0.046322353 0.22043075
000360 a5 be 96 3e ed bb c3 3e ee e0 2e 3e df ec ed 3d
       0.29442325 0.38229313 0.17077991 0.11617445
000370 60 3f 75 3e af 14 4e 3d ab 98 2b bf 98 a9 fc be
       0.23949957 0.050312694 -0.6702983 -0.4934814
000380 f3 4b 56 3e 34 f5 90 3e a4 53 6c bb f2 78 51 3d
       0.2092741 0.28312075 -0.0036060596 0.051140733
000390 fc a3 b2 3d d6 84 cc 3e 15 36 71 3d 96 df 9e be
       0.08722684 0.39945096 0.058889467 -0.31029958
0003a0 2f fb 4e bf 44 96 91 3d 50 f0 f7 bc b0 42 05 bf
       -0.80852026 0.07108739 -0.030265957 -0.5205488
0003b0 dd 48 5f 3d 6e 23 13 bf 43 37 af be 68 3a 8c 3e
       0.054512847 -0.57475936 -0.3422185 0.2738831
0003c0 34 7d 72 3e 84 c5 d9 be b5 7f b5 3e 8c 6d 3d bd
       0.23680574 -0.42533505 0.35448995 -0.04624705
0003d0 18 57 61 3e 09 07 95 3e 76 bf c3 3e 1b 21 2d 3e
       0.2200588 0.2910693 0.3823201 0.1690716
0003e0 b1 2c ee 3d 31 33 74 3e 4c 36 52 3d 01 92 2b bf
       0.11629618 0.23847653 0.051321313 -0.6701966
0003f0 46 f6 fb be 56 50 56 3e eb 29 91 3e 2a 58 63 bb
       -0.4921133 0.20929083 0.28352293 -0.003469

conv.weight f4 [10, 1, 20]
000000 a1 01 9f 9d fe f3 bd 9d 43 35 9a 1d e8 dc 4d 9d
       -4.2088634e-21 -5.0280165e-21 4.081853e-21 -2.724573e-21
000010 d9 35 b0 9c 07 67 74 1d bd cf 3b 1d 51 76 a9 1b
       -1.1660622e-21 3.2346395e-21 2.4856642e-21 2.8035165e-22
000020 1a 30 0b 9b e8 a1 22 9c ee b5 98 9c 0a ee b3 9c
       -1.1513353e-22 -5.3810563e-22 -1.0105544e-21 -1.1906758e-21
000030 a0 c5 2d 1c a2 41 7e 1c 3e 4f e1 9c 2e 68 81 9c
       5.7496323e-22 8.412638e-22 -1.4909735e-21 -8.563434e-22
000040 23 74 d9 9c 6b 91 0a 9d a4 27 48 1d b4 7a 02 1c
       -1.4389876e-21 -1.8339327e-21 2.6490273e-21 4.317198e-22
000050 66 cc 57 1c ad 92 d2 1c 70 0c 70 9c 39 2e 7d 9c
       7.140171e-22 1.3934549e-21 -7.9425414e-22 -8.377042e-22
000060 40 cb 8d 9c c0 48 87 9b d8 4d fb 9b 2d 1d 6c 9c
       -9.383136e-22 -2.238089e-22 -4.1574772e-22 -7.812356e-22
000070 4d 85 f6 9b f7 73 59 1c 02 5a 09 9c 07 93 67 1c
       -4.078343e-22 7.194916e-22 -4.544583e-22 7.6621517e-22
000080 22 aa 0e 9c 9e 73 88 9b 7e 45 b7 1b 80 bf ba 1c
       -4.720375e-22 -2.2574029e-22 3.0319719e-22 1.2357949e-21
000090 d3 9d a8 1c 4b 62 89 1c a3 cf d4 1c 5b 7f b4 9c
       1.1158104e-21 9.091308e-22 1.4082656e-21 -1.1944321e-21
0000a0 a1 86 9d 1c 58 32 c9 1c a6 4d c8 9c a5 8d 80 9c
       1.0424189e-21 1.3314078e-21 -1.3254961e-21 -8.506944e-22
0000b0 4c 46 a1 9c 2c e0 99 1c e8 51 59 9c 97 9b 94 9c
       -1.0672258e-21 1.0182638e-21 -7.190514e-22 -9.834037e-22
0000c0 ce c6 a0 9c 4c a4 9f 9c b4 41 82 1c 82 44 81 1c
       -1.0639302e-21 -1.0564207e-21 8.619662e-22 8.554213e-22
0000d0 b4 9a e6 1b 5f d4 de 9c 12 a0 c5 9c c2 cb da 1c
       3.8150283e-22 -1.4745624e-21 -1.3077744e-21 1.44787e-21
0000e0 0c b6 8e 9a 54 9d 8b 9b 9b e7 19 9d 64 19 fb 9c
       -5.9023936e-23 -2.3097292e-22 -2.0369119e-21 -1.661635e-21
0000f0 f4 57 c7 1b 1b 7f 43 9b 82 88 30 9c a7 3e 00 1c
       3.2978627e-22 -1.6171092e-22 -5.8409947e-22 4.2432624e-22
000100 b5 69 22 9c 04 fe 09 9c f5 66 19 9c 94 c5 14 1c
       -5.3737927e-22 -4.5657805e-22 -5.075652e-22 4.9224456e-22
000110 56 e2 f6 9b 48 7f 57 9b 58 f4 0b 1c 4a 21 0a 1c
       -4.0843552e-22 -1.782551e-22 4.630705e-22 4.5703395e-22
000120 ba c0 85 1c 31 74 85 1c d5 5c ae 9b d4 b2 90 9b
       8.85102e-22 8.831236e-22 -2.8845877e-22 -2.3938367e-22
000130 ba c9 a4 1c 70 42 a6 9a 22 ff 66 1c 56 1f 4f 1c
       1.0904755e-21 -6.8763326e-23 7.643037e-22 6.8531055e-22
000140 d3 2c ca 1d 81 64 3c 9d 8d d8 67 1c 96 4b 75 1c
       5.35153e-21 -2.4933552e-21 7.6711374e-22 8.1161393e-22
000150 55 ae 9d 9b 97 aa ff 9c 28 69 5b 9c 4c 4e 26 1b
       -2.608613e-22 -1.6918581e-21 -7.2596933e-22 1.3756497e-22
000160 f0 47 6b 9c ac 98 ac 1b d4 42 36 1b 56 70 8a 9c
       -7.7847955e-22 2.8553675e-22 1.507628e-22 -9.161112e-22
000170 3d 51 d9 1b fc ce 04 1c 80 c5 ff 9c fe 63 04 9d
       3.5952138e-22 4.3942657e-22 -1.6925537e-21 -1.752175e-21
000180 9c a5 e9 1c e8 d7 66 1c 64 bc 1e 9c 28 ec ac 1c
       1.5461456e-21 7.637967e-22 -5.2521304e-22 1.144305e-21
000190 80 b1 ff 98 03 4e 95 9b 64 72 83 1a a8 7e 78 9a
       -6.6095184e-24 -2.4700396e-22 5.436514e-23 -5.138751e-23
0001a0 1a 30 84 9b 18 dd c4 9b 04 38 2c 9b 04 f0 03 1b
       -2.1868653e-22 -3.2568358e-22 -1.4245606e-22 1.0913619e-22
0001b0 71 ea 32 1c a4 87 25 9c a7 8e 11 9c 18 a6 31 1c
       5.919827e-22 -5.476923e-22 -4.816085e-22 5.877906e-22
0001c0 70 93 a8 1b 42 fa 41 1b 22 2f 04 1b 6e 85 d4 9b
       2.7888548e-22 1.6045448e-22 1.0934014e-22 -3.5158685e-22
0001d0 4c 58 77 1b 28 8f 89 9a 1c 16 7e 1b ec 71 05 1c
       2.0459891e-22 -5.6893153e-23 2.1017531e-22 4.415325e-22
0001e0 2e d4 25 9c f2 34 ae 1c 7b 1d 96 9c f3 79 22 9c
       -5.4868156e-22 1.152804e-21 -9.933788e-22 -5.375892e-22
0001f0 4a 07 f3 1b 01 bb 3f 1c 4a bf 32 1c ce 27 b1 9b
       4.0205688e-22 6.3438296e-22 5.9142495e-22 -2.9307917e-22
000200 e8 79 31 9c 50 d9 9d 1b 13 d1 1e 1c 00 00 5a 93
       -5.872195e-22 2.6113906e-22 5.2548037e-22 -2.7515468e-27
000210 4c 9c 87 1a 1a 63 67 9c d4 5b 3b 1b ad ea 5a 9c
       5.60872e-23 -7.6559574e-22 1.5497949e-22 -7.243346e-22
000220 66 17 7f 9b c9 16 b0 9c 9f 67 84 9c 00 94 f9 9b
       -2.1100666e-22 -1.1652593e-21 -8.761813e-22 -4.1289237e-22
000230 99 88 fe 9b 87 9c 08 9c a0 80 06 9c 5f 27 91 1c
       -4.210905e-22 -4.520093e-22 -4.4503125e-22 9.605472e-22
000240 14 ef 6a 9c 60 a2 52 1c ca de 12 9c f2 0e cb 9a
       -7.7733107e-22 6.9693036e-22 -4.8595296e-22 -8.398298e-23
000250 f4 b1 b6 9b c9 56 e1 1b 97 9e 8b 1b 06 2a 26 9c
       -3.0224374e-22 3.727921e-22 2.3098107e-22 -5.4979107e-22
000260 41 0a 2d 1c 3f 09 29 1c c4 33 55 9a 3a 3d 11 9b
       5.725415e-22 5.592936e-22 -4.4089184e-23 -1.2013902e-22
000270 0c 9e 78 9b 6c 24 01 9c a0 e5 fe 9a 26 98 09 1c
       -2.0565147e-22 -4.2729594e-22 -1.0542292e-22 4.5526145e-22
000280 90 ae 40 1c 38 75 07 9d f3 8c 57 1d cf e2 1b 9d
       6.375309e-22 -1.7927702e-21 2.8527882e-21 -2.0631336e-21
000290 34 d3 3a 1c a3 c6 e6 1c 8c 85 bd 9c 9b 2c cc 9c
       6.181521e-22 1.527147e-21 -1.2541492e-21 -1.3511118e-21
0002a0 9f d0 0b 1c 35 1d b0 1c f4 1b 29 9b 46 3b c2 1c
       4.626088e-22 1.1654253e-21 -1.3988384e-22 1.2853165e-21
0002b0 c6 b1 f5 1c 4f 12 47 1d 47 8f b4 9c e0 74 c0 1c
       1.6258693e-21 2.6346896e-21 -1.1948437e-21 1.2735706e-21
0002c0 55 ce 30 9d 0c f8 14 1d 15 35 78 9d 76 ca 55 1c
       -2.3400077e-21 1.9715874e-21 -3.284997e-21 7.0737463e-22
0002d0 ff 29 28 1b 6c f4 96 1a 72 9a 79 9a 1c c1 c7 1b
       1.3910204e-22 6.243343e-23 -5.1616753e-23 3.3046582e-22
0002e0 f7 ba be 9b e6 52 c9 9b 61 2f 2f 9b f1 af ec 1a
       -3.1553686e-22 -3.3306232e-22 -1.449097e-22 9.789156e-23
0002f0 40 99 c1 19 8e 73 26 9b 20 79 bf 98 61 eb 51 9b
       2.001763e-23 -1.3768536e-22 -4.9494648e-24 -1.736413e-22
000300 58 6d a3 99 83 d5 98 1a 50 65 a0 19 89 92 09 9b
       -1.6897969e-23 6.3210673e-23 1.6584532e-23 -1.1379722e-22
000310 94 07 f9 99 80 14 68 99 e8 c5 03 9b a6 72 75 9a
       -2.5749057e-23 -1.1998259e-23 -1.0900013e-22 -5.0757425e-23

conv.bias f4 [10]
000000 15 8c 2b bb 97 3d 45 2b 09 77 7f b7 58 0f a9 1a
       -0.0026176025 7.007393e-13 -1.5226899e-05 6.992155e-23
000010 a2 4c 40 bb 7d 7e 40 9c 7f 33 18 b9 66 78 10 2c
       -0.0029342552 -6.3690953e-22 -0.00014515033 2.0530465e-12
000020 e3 8c 0f b9 f0 67 0f 9a
       -0.00013690027 -2.9655667e-23

conv_long.weight f4 [10, 1, 10]
000000 f1 16 19 9c 0e 82 65 9b 28 92 66 9c 08 09 09 9a
       -5.0653105e-22 -1.8984459e-22 -7.628952e-22 -2.833823e-23
000010 93 c0 11 1b 73 5c 0f 9c 41 35 dc 1c 04 9a b4 1c
       1.2056343e-22 -4.743422e-22 1.4572145e-21 1.1951213e-21
000020 4e 20 ab 9c ed 6b f4 1c 30 6a 16 1d 86 d2 5f 9c
       -1.1324181e-21 1.6174464e-21 1.9907232e-21 -7.4056606e-22
000030 5f 1b 84 1c 29 39 30 1c 92 49 0a 1c 92 10 a7 1c
       8.742103e-22 5.8307393e-22 4.5755457e-22 1.1055416e-21
000040 63 a2 e6 1c e9 4b c6 1c e5 5f c8 1c 50 33 dd 19
       1.5262099e-21 1.3122163e-21 1.3259678e-21 2.287159e-23
000050 6a 3f b9 1d 65 eb c6 9c b2 48 9b 9d 3d 94 01 9d
       4.903466e-21 -1.3163389e-21 -4.1103324e-21 -1.7149645e-21
000060 02 61 41 9d dd 26 02 1d 76 a9 63 9c 7d 5d 11 9d
       -2.559349e-21 1.7225449e-21 -7.5327023e-22 -1.9238923e-21
000070 48 88 d3 1d b8 cd 52 1f 8f 5c 7a 21 64 28 90 20
       5.5992146e-21 4.4639396e-20 8.4825795e-19 2.4421277e-19
000080 cf a1 41 a2 b9 82 00 a0 84 82 3b 1f e0 ff 8a 1e
       -2.6242038e-18 -1.0885274e-19 3.970675e-20 1.4717146e-20
000090 e2 74 34 20 a3 39 9d a0 6e 22 bf a0 dc 7c aa 22
       1.5285266e-19 -2.6634975e-19 -3.2379442e-19 4.6210792e-18
0000a0 df 17 a3 9c f3 8d cd 9b a2 17 d9 9b d1 91 36 9c
       -1.0792606e-21 -3.4006138e-22 -3.591491e-22 -6.040721e-22
0000b0 78 bd e3 9b d0 7a c9 9b bc ff f0 9b 60 8a 0a 9b
       -3.767644e-22 -3.3332026e-22 -3.9869934e-22 -1.1459804e-22
0000c0 2b 5d 03 9b ae bc 72 1b ba ec 9d 20 0c 8f c2 20
       -1.086617e-22 2.0078737e-22 2.6753487e-19 3.295954e-19
0000d0 c7 96 44 9f 3a b1 c0 1d 35 16 0b 9d f6 3a de 9b
       -4.1629335e-20 5.1005225e-21 -1.8407978e-21 -3.6764922e-22
0000e0 db fe 27 1e cf cf a3 9d 9f 70 b6 1d 18 e7 d8 1e
       8.893609e-21 -4.336061e-21 4.8291446e-21 2.2965468e-20
0000f0 16 e7 26 9c f2 4d 23 1c 2e 4a 87 1c b3 cb 78 9c
       -5.5223464e-22 5.403292e-22 8.952726e-22 -8.231959e-22
000100 78 c2 30 1c d1 59 0f 1c 9a 8a 90 1a 49 d3 1c 1c
       5.848486e-22 4.7430816e-22 5.978093e-23 5.188915e-22
000110 14 a6 d9 1b 8f 96 7e 1b 70 04 24 9b 55 37 82 9c
       3.6006964e-22 2.1059036e-22 -1.3567196e-22 -8.616981e-22
000120 6c fc eb 9c 5b db 4b 9c 36 80 77 9c c8 6e be 1a
       -1.5616245e-21 -6.7450576e-22 -8.1891153e-22 7.8761135e-23
000130 10 c8 84 1c 30 15 f3 1a e8 92 59 9a 53 99 e1 1b
       8.786742e-22 1.00536675e-22 -4.4993218e-23 3.732221e-22
000140 e9 35 38 9d 49 5b c8 1a 78 d3 0d 9b 7d 3f d0 1b
       -2.4380068e-21 8.286554e-23 -1.1731576e-22 3.4451742e-22
000150 bc 62 c1 1c d3 83 16 9c 0d ee 01 1c 50 51 c7 1c
       1.2797191e-21 -4.9801216e-22 4.2990193e-22 1.3189734e-21
000160 7a 0b 54 1c 25 d4 87 1c ef 17 09 1d 35 4a 84 9c
       7.015975e-22 8.988389e-22 1.8144172e-21 -8.754209e-22
000170 61 70 9b 1d 08 f8 33 1c 02 e3 ce 9c 46 af 9b 9c
       4.1144355e-21 5.9546705e-22 -1.3690617e-21 -1.0302347e-21
000180 14 ce 47 9b 59 40 be 9d 1f 88 7e 1e 60 c7 f4 1a
       -1.6527482e-22 -5.0359115e-21 1.3474797e-20 1.0123814e-22

conv_long.bias f4 [10]
000000 b5 62 65 1f f9 e9 da b1 a3 63 e8 bc 9b ec 0e bd
       4.8574285e-20 -6.3712347e-09 -0.028367823 -0.034893613
000010 35 b7 3f 1d cc b4 fd bc b8 3d f2 9b 31 89 1f 1d
       2.5373355e-21 -0.03097 -4.0075426e-22 2.1114401e-21
000020 61 75 6b 2b 6c 75 78 b0
       8.365167e-13 -9.038874e-10

conv1.weight f4 [30, 30]
000000 0c d6 45 b3 91 d7 3e 20 a5 be 64 22 f7 f9 d4 1f
       -4.606231e-08 1.6164951e-19 3.1000688e-18 9.0199025e-20
000010 c3 4b e7 b3 ae 51 b7 9a 9a 2c 32 1c 8a 5c cc 1d
       -1.0770557e-07 -7.5818987e-23 5.8952906e-22 5.4094034e-21
000020 38 fd 33 1e 18 5b 21 a4 e5 e5 19 1c b0 f6 f0 1d
       9.5285455e-21 -3.498847e-17 5.0920585e-22 6.378254e-21
000030 5c f8 c9 9c 06 1b c0 9f ed d4 bb 9c 70 77 09 9b
       -1.3365264e-21 -8.135987e-20 -1.2429662e-21 -1.1370967e-22
000040 2a 06 a0 a9 a1 c7 11 26 9a 49 b4 a8 2d 56 ec a5
       -7.1064967e-14 5.057753e-16 -2.0015934e-14 -4.099787e-16
000050 70 54 09 99 1d d4 3d b7 d5 1d e1 1b 76 ad 1f a0
       -7.099786e-24 -1.1314664e-05 3.7242406e-22 -1.3525217e-19
000060 32 7c fc 9e a8 51 d5 20 d0 2b 51 b5 e0 56 01 20
       -2.6732904e-20 3.613764e-19 -7.792232e-07 1.095547e-19
000070 b2 2f f8 a0 28 9c 87 9c 91 c6 cf 1b d3 76 59 1b
       -4.2044396e-19 -8.973916e-22 3.4373598e-22 1.7988213e-22
000080 6b de a8 9a a8 de 02 9b b0 f7 9e 9a e6 f8 0e 1b
       -6.984251e-23 -1.0825292e-22 -6.574743e-23 1.1826388e-22
000090 80 94 9b 99 8a 04 a4 9b 5e 4e 9f 9b 14 13 e4 9b
       -1.6086603e-23 -2.7134457e-22 -2.6354987e-22 -3.7731765e-22
0000a0 06 78 4b 1b 3d 43 61 9c 7b a1 59 9b 84 fa c3 9a
       1.6830548e-22 -7.453316e-22 -1.8001996e-22 -8.105484e-23
0000b0 64 a0 20 9a 71 f6 49 9c 96 fd 04 9c 20 6e d9 9b
       -3.3216787e-23 -6.682384e-22 -4.400289e-22 -3.5970805e-22
0000c0 d5 9b c2 9b d9 4a db 1b 47 af b7 9b 96 23 f2 9b
       -3.2195312e-22 3.627888e-22 -3.038808e-22 -4.0058539e-22
0000d0 28 dd 0e 1b 84 9b 26 1c 2f d7 03 1b 71 91 46 1b
       1.1817424e-22 5.512579e-22 1.0905596e-22 1.6425171e-22
0000e0 8f de b4 9b 8d cf 1d 1c 1d db b6 1b 19 d8 07 9c
       -2.9922327e-22 5.2215196e-22 3.0250973e-22 -4.4947053e-22
0000f0 ca ae 19 9b 8c 6d 47 1b 4d 50 9c 9b fe ab 9d 1b
       -1.2712341e-22 1.6496291e-22 -2.5859928e-22 2.6084619e-22
000100 13 06 df 1b c6 f9 15 1b 06 c1 9a 9b f2 a5 65 9b
       3.689618e-22 1.2405697e-22 -2.5601901e-22 -1.8996056e-22
000110 5a db 25 1b 4a 79 0c 9b a0 3e 68 1b 53 66 81 9c
       1.3719356e-22 -1.1619719e-22 1.9210825e-22 -8.562954e-22
000120 28 32 82 9b dc f6 8e 1b 3a 02 e7 1a 31 e5 c7 9b
       -2.1539109e-22 2.3651459e-22 9.554296e-23 -3.30699e-22
000130 86 37 ee 1b 26 cd 04 1c 20 f1 13 9a 75 96 08 9c
       3.9409678e-22 4.3940284e-22 -3.0593667e-23 -4.5193086e-22
000140 74 05 4f 1a 7e 38 e0 9b 2f a1 87 1a ea 9d 93 1c
       4.2811002e-23 -3.7094199e-22 5.60951e-23 9.768464e-22
000150 ec 05 8f 9a f4 1e d0 1b 84 f9 0e 1c 2d f9 80 9b
       -5.915298e-23 3.4430716e-22 4.730635e-22 -2.133685e-22
000160 dc 07 d4 1b 8c 6e 01 9a 90 8c e3 9b 64 22 29 9a
       3.5077537e-22 -2.6765874e-23 -3.7644836e-22 -3.497616e-23
000170 eb 4e 19 9c 28 49 34 9b 46 f8 20 9d e5 4e 8e 1b
       -5.0725453e-22 -1.4912889e-22 -2.1304178e-21 2.3542914e-22
000180 28 c4 42 99 f6 35 2d 1c 4e 89 42 1c 46 ce 95 1b
       -1.0069178e-23 5.731064e-22 6.436668e-22 2.4783283e-22
000190 7c ca e3 9a b2 0f b3 9a 81 7f 57 1c 50 5c 9b 99
       -9.421213e-23 -7.405802e-23 7.130233e-22 -1.6063909e-23
0001a0 c0 d9 55 18 04 33 a8 1b 96 0e 1d 9d dc 03 4b 9d
       2.763954e-24 2.7826237e-22 -2.0786318e-21 -2.6868822e-21
0001b0 b2 44 11 9c bb 6a 4a 9d f7 57 11 9c b1 e8 8c 1d
       -4.806526e-22 -2.6789656e-21 -4.8090167e-22 3.729829e-21
0001c0 93 c4 95 9b a8 88 3c 9a e1 8f 45 1c 1e 69 50 1b
       -2.4777015e-22 -3.898788e-23 6.536779e-22 1.7239322e-22
0001d0 b0 4c 11 1b be 6a 00 1c 21 3f f3 9c e2 b9 1b 1c
       1.2018898e-22 4.248961e-22 -1.609671e-21 5.1525446e-22
0001e0 c2 23 91 9b c6 38 9f 19 99 83 3f 9c 7a 13 ab 1c
       -2.4011346e-22 1.6463145e-23 -6.3366685e-22 1.1320865e-21
0001f0 b1 71 ce 1b f6 68 4d 1b 9b 8d 2a 9c e8 e8 84 9b
       3.4153313e-22 1.6991117e-22 -5.64313e-22 -2.198808e-22
000200 ea e2 cf 9c ce 75 f5 1c 74 c7 78 1a 9f af c9 9a
       -1.3756767e-21 1.6243192e-21 5.1446315e-23 -8.341538e-23
000210 31 d3 1c 9c f8 fe 14 1d d8 48 ff 9a a4 69 34 9a
       -5.188903e-22 1.9719453e-21 -1.05583214e-22 -3.7308463e-23
000220 3c 89 ee 1c 90 12 7a 9d a4 52 21 1d a6 0d 1c 9d
       1.5784993e-21 -3.3096821e-21 2.1350897e-21 -2.0653484e-21
000230 9e df 20 9c 70 dd 1a 9c e4 e2 70 1b a2 6a c8 1a
       -5.322858e-22 -5.1240527e-22 1.9925647e-22 8.2890336e-23
000240 74 63 ad 1c e5 98 ac 1b c4 68 bb 9b ae df 59 1b
       1.1473888e-21 2.855382e-22 -3.1004258e-22 1.8022094e-22
000250 00 e3 fe 19 74 3c 25 9a c0 22 d1 1b 98 a2 4a 1b
       2.6354669e-23 -3.4170034e-23 3.4598606e-22 1.6761585e-22
000260 ca b1 3f 1c ac 9c 2f 9c 0e c2 4d 9b 2c 30 9f 9b
       6.3426386e-22 -5.8105137e-22 -1.7019905e-22 -2.6335474e-22
000270 d2 e3 84 9b 94 8f 9c 9a b6 7e 58 9c a8 c7 ec 1c
       -2.1984794e-22 -6.475205e-23 -7.1632175e-22 1.566878e-21
000280 d5 76 f2 9b 54 28 71 98 68 cc 39 9c 63 3f 4d 1c
       -4.0112335e-22 -3.116888e-24 -6.1475554e-22 6.7910736e-22
000290 76 38 30 9b e0 13 b9 1a 96 d7 ff 1c cb 52 65 1d
       -1.4576622e-22 7.6546316e-23 1.6930212e-21 3.03507e-21
0002a0 bf 1a 03 9d 8e db 31 1d 08 de 29 1c cc 90 bc 9a
       -1.7351533e-21 2.3539262e-21 5.620438e-22 -7.798891e-23
0002b0 b8 94 23 1b 1b 6d d7 1a 7d 87 cb 9c 6c 7e 55 1c
       1.3531098e-22 8.9098185e-23 -1.3468436e-21 7.0639185e-22
0002c0 5e f5 ac 9b 74 dd d3 9c d7 80 f0 1c 8c 40 c1 9b
       -2.8613578e-22 -1.4020053e-21 1.5915172e-21 -3.1970884e-22
0002d0 56 e8 b9 2f 33 97 97 20 96 3a be 21 26 e1 01 9e
       3.3816389e-10 2.568045e-19 1.2890408e-18 -6.875763e-21
0002e0 5a c5 35 b0 08 8c 11 9c e7 35 2a 9c 66 fe 46 1c
       -6.612787e-10 -4.815746e-22 -5.631795e-22 6.5841507e-22
0002f0 9b 4f e2 1b 96 85 b1 9e fd 43 4d 9c 7f 6c 08 20
       3.7440008e-22 -1.8795854e-20 -6.7916683e-22 1.1555546e-19
000300 6a 4d 95 1c aa 28 ae 1c de b2 9c 1b ec 85 f9 1c
       9.880004e-22 1.1524866e-21 2.5923625e-22 1.6512056e-21
000310 ff 2c bc 23 99 bb 4e 9e 0b 98 f5 a2 cc f2 37 9e
       2.0402057e-17 -1.09443435e-20 -6.6568365e-18 -9.7381486e-21
000320 ba ca 95 1c 2e 05 bb b5 63 3a ae 1b f4 f5 9e a5
       9.912396e-22 -1.3934093e-06 2.8823617e-22 -2.7575295e-16
000330 c6 76 92 1c 17 55 1d 9f bb 7d 44 b4 c5 cf fd 1e
       9.692172e-22 -3.3316428e-20 -1.8299663e-07 2.6873348e-20
000340 69 08 be 9c 80 b3 4d 9c e0 db 8d a1 be e7 4c 9c
       -1.2575319e-21 -6.806081e-22 -9.612732e-19 -6.779746e-22
000350 fd b2 c0 9b 35 84 15 1e 8c 45 ef a2 be 9a 3f 1c
       -3.1879404e-22 7.915334e-21 -6.4854715e-18 6.33966e-22
000360 4c 4a 2f 9c 70 8c 68 9c c0 49 d8 1f 55 ea d5 a4
       -5.799867e-22 -7.694387e-22 9.160157e-20 -9.2771e-17
000370 06 37 cf 1c 2e b2 23 9b 0c af 5a 9d d6 27 de a1
       1.3712334e-21 -1.3540617e-22 -2.8942557e-21 -1.505385e-18
000380 da 84 fe 99 0d 98 0d 1c 8e 5b b6 23 8f bb 9f 2b
       -2.6316643e-23 4.684951e-22 1.9771254e-17 1.1349687e-12
000390 9f 50 94 a2 96 8f a0 a9 45 f3 dd 9c 96 d5 59 a9
       -4.020084e-18 -7.1303355e-14 -1.4687437e-21 -4.8368936e-14
0003a0 6a da 94 1b 4c 72 23 9c 40 50 e5 1e 0e d1 aa 1b
       2.4625693e-22 -5.40799e-22 2.4279509e-20 2.825924e-22
0003b0 41 ff 00 27 32 71 27 9e 3e 88 34 a2 0d e4 bf 1d
       1.7901942e-15 -8.864315e-21 -2.4466675e-18 5.079308e-21
0003c0 71 0c ba a2 ae 22 85 9c 4b 81 a6 9c 8b 33 00 1e
       -5.0428574e-18 -8.810166e-22 -1.101838e-21 6.7869224e-21
0003d0 36 ff 58 a2 63 45 a4 9c 8c 96 e3 1a 40 60 0b 9d
       -2.9408566e-18 -1.0870546e-21 9.412822e-23 -1.8446257e-21
0003e0 68 7f 80 9e 40 c8 4c a4 b3 5f 4c 9c f6 44 f6 9a
       -1.3605221e-20 -4.4405067e-17 -6.7621626e-22 -1.0185463e-22
0003f0 3e ea d2 9c ad f3 99 a0 3a 9b 05 9b ac 49 7b 1c
       -1.3957184e-21 -2.608046e-19 -1.1051659e-22 8.314415e-22

conv1.bias f4 [30]
000000 95 05 ce bb 80 b4 0c b8 13 c1 22 b7 25 a4 6e b6
       -0.0062872865 -3.3546705e-05 -9.700906e-06 -3.5560308e-06
000010 e7 e0 7a bb a1 07 24 1e b6 20 36 1d 8f 6a c3 27
       -0.0038281025 8.683665e-21 2.410441e-21 5.4238904e-15
000020 64 82 67 b3 0a 65 1f ba 54 bb 11 1f 50 f1 8a b7
       -5.390247e-08 -0.00060804246 3.08599e-20 -1.6563252e-05
000030 1b 2d cf 26 61 d1 4d b6 b1 af c1 b9 0d ed f9 b8
       1.4375736e-15 -3.0669255e-06 -0.0003694273 -0.000119173994
000040 7e 70 1d ba 30 7a c3 ba d4 83 b9 ba f7 8e 3d ba
       -0.00060058373 -0.0014913734 -0.0014153668 -0.0007231081
000050 ff c8 2f 1f f1 49 ed bb 20 fd 09 a0 2c 83 9d ba
       3.722395e-20 -0.0072414805 -1.1688103e-19 -0.0012017242
000060 86 0f 50 b4 06 1a 5e b9 71 75 08 bc d7 8d 56 b7
       -1.9377157e-07 -0.00021181264 -0.008328781 -1.2788419e-05
000070 8a 87 77 b7 8f d5 8e a9
       -1.4753905e-05 -6.343113e-14

conv2.weight f4 [30, 10]
000000 c9 a2 f3 9d ae 0b 6d b5 e8 c6 5c a0 8e d2 58 1c
       -6.448988e-21 -8.8306376e-07 -1.8700537e-19 7.174054e-22
000010 da 0e 82 ae 85 58 a8 9e 4c 8c aa 1b b4 7b 0e 38
       -5.914354e-11 -1.7824303e-20 2.8214806e-22 3.3970646e-05
000020 f3 34 5b 3a 34 35 58 1a 18 92 e0 1a f2 c5 09 1c
       0.0008362077 4.471073e-23 9.2880256e-23 4.5585336e-22
000030 22 92 e5 9a 15 84 86 9b 5c 7a cb 1a 57 0c 5d 9c
       -9.494827e-23 -2.2253796e-22 8.4156514e-23 -7.3138715e-22
000040 52 8c 2a 9a 31 da 00 a7 6a df 1e ab df dd a8 1a
       -3.5268526e-23 -1.788185e-15 -5.6442925e-13 6.9841624e-23
000050 4a eb 88 1b ef 63 75 b8 4b 01 14 22 f8 6c ac 9f
       2.2651365e-22 -5.8505622e-05 2.0058425e-18 -7.302511e-20
000060 c6 db 3d b4 fd 16 b9 1c 6e 32 b3 1c 7f e7 dc 39
       -1.768195e-07 1.2248215e-21 1.1858262e-21 0.00042134148
000070 da 5b 39 bb 40 37 21 9a 84 17 63 1b f8 a4 80 b6
       -0.0028283508 -3.333865e-23 1.8784598e-22 -3.833902e-06
000080 f8 b8 6d 1f cf c4 eb 9e 88 db 88 b3 cb 95 4b 1c
       5.0339705e-20 -2.4962991e-20 -6.372926e-08 6.736067e-22
000090 ba b1 29 9c ab 13 d1 38 33 fc 88 39 2f be a2 1b
       -5.6147116e-22 9.96956e-05 0.00026127844 2.6923555e-22
0000a0 02 2e 4c 1c ca 4b d2 b4 e8 c5 7d 9f 71 cf 63 1e
       6.75574e-22 -3.9170692e-07 -5.3738538e-20 1.2060178e-20
0000b0 2d cd 91 b2 06 9b 4c 9d cd 1e be 9b 02 5f 18 37
       -1.6973525e-08 -2.707932e-21 -3.1452768e-22 9.082027e-06
0000c0 1c 73 2c ba 6d 15 62 9b cd 8a e0 1a 44 23 33 1b
       -0.0006578432 -1.8701205e-22 9.2868473e-23 1.4817928e-22
0000d0 f5 70 36 1b 4d 0f 10 9b 32 e1 ca 9b 78 f6 83 99
       1.5091186e-22 -1.1916345e-22 -3.3563626e-22 -1.364463e-23
0000e0 44 05 03 20 da 5e a0 1a 8c 4e e3 1b f2 3e 4c 1a
       1.1097874e-19 6.632769e-23 3.760476e-22 4.2237058e-23
0000f0 28 fe 39 9a 40 7f c9 98 82 31 5e 1b 90 ed 8b 1c
       -3.846241e-23 -5.208577e-24 1.8379406e-22 9.259657e-22
000100 e8 61 99 9e c0 62 d0 18 8b 10 85 20 e0 57 a4 9c
       -1.6239998e-20 5.386645e-24 2.2542024e-19 -1.0875325e-21
000110 91 4e d3 1e 60 81 96 19 78 4a 79 9b 83 ec bc 9c
       2.2372988e-20 1.556189e-23 -2.062086e-22 -1.2501933e-21
000120 a9 81 38 1c 32 c5 d9 9b e0 41 86 19 7f 9b 89 9a
       6.1048075e-22 -3.6027073e-22 1.3881882e-23 -5.691309e-23
000130 4c 54 91 9a dc d1 0a 1d 6b 5e 87 1d 85 30 67 1b
       -6.0106783e-23 1.8372643e-21 3.583183e-21 1.912355e-22
000140 38 17 68 1a 9d e9 47 1b 86 78 15 9a 2c a2 b9 1c
       4.799523e-23 1.6536379e-22 -3.0909836e-23 1.2284194e-21
000150 d5 91 ac 26 59 61 ab 1a aa a6 49 1c 46 a0 88 9b
       1.1974425e-15 7.0881216e-23 6.672073e-22 -2.2602887e-22
000160 03 42 4f a7 55 21 3b 9b f0 01 d3 b6 dc 59 e9 b6
       -2.8762806e-15 -1.5479048e-22 -6.2885156e-06 -6.954402e-06
000170 da ec 01 20 87 0e 08 1e ad 43 ec 22 96 cc 33 b5
       1.1005093e-19 7.202784e-21 6.4039583e-18 -6.698041e-07
000180 43 3a 2c 1c 99 cb e9 3a 0c a7 87 3c ca f5 83 1b
       5.698533e-22 0.0017837166 0.016559146 2.183097e-22
000190 a1 ab 82 1b e5 d6 8f 1a e8 fc d5 9a 3e ea 88 9b
       2.1617609e-22 5.9490595e-23 -8.850333e-23 -2.2650688e-22
0001a0 5c f6 e8 9b 6b 8c 8f 9b 66 e9 d1 9a 77 6f 98 1b
       -3.8540386e-22 -2.3748109e-22 -8.681745e-23 2.5218323e-22
0001b0 da 5e 73 9b f6 fb e1 9a e0 a1 22 9a 39 75 8b 9c
       -2.0131137e-22 -9.3464884e-23 -3.3631576e-23 -9.22855e-22
0001c0 52 36 ee 9a aa b5 b8 9b 8b b8 3e 9b b0 dc cf 9d
       -9.852225e-23 -3.0557644e-22 -1.5776061e-22 -5.502063e-21
0001d0 b8 0c fa 19 33 53 c3 b5 50 cf 0b 37 11 64 92 9a
       2.5854531e-23 -1.4552846e-06 8.333314e-06 -6.054585e-23
0001e0 00 2c 0d 9a 44 82 1a 9b ce 78 f0 9a 08 df a3 1c
       -2.919366e-23 -1.2780673e-22 -9.9456844e-23 1.0844087e-21
0001f0 4e 8b e2 a3 01 8d 7a 1b 51 a9 d8 9b fc 75 8f 9a
       -2.4561967e-17 2.0725076e-22 -3.584362e-22 -5.933403e-23
000200 60 ed a3 a4 a1 90 14 9a 10 e5 e5 9a b8 01 e3 9a
       -7.109211e-17 -3.0722513e-23 -9.508225e-23 -9.3887776e-23
000210 0b af 8c 1a c4 ac e1 9c ee 5b 2a 24 91 9f 87 9a
       5.818544e-23 -1.493391e-21 3.694074e-17 -5.6092485e-23
000220 84 21 0e 9c a0 7e 92 9a b5 66 90 23 54 49 13 9a
       -4.7027177e-22 -6.058876e-23 1.565601e-17 -3.045812e-23
000230 47 f6 c1 b4 28 28 bb 9a 9a a8 31 9a 23 01 c5 1a
       -3.6128242e-07 -7.7406263e-23 -3.6738937e-23 8.1479127e-23
000240 50 fc c6 9a e1 cb 83 9f 70 1f 31 9b b3 d2 ba ac
       -8.2298513e-23 -5.581795e-20 -1.4651255e-22 -5.3098303e-12
000250 44 d2 50 b4 76 64 90 1a d2 11 67 aa a8 3c c8 1a
       -1.9448004e-07 5.971931e-23 -2.0523104e-13 8.2816057e-23
000260 28 35 d6 99 7c d9 5c 9a 40 86 16 18 26 b9 77 2a
       -2.2148551e-23 -4.5670616e-23 1.9454825e-24 2.2002243e-13
000270 51 bb 5c 9b 45 f4 75 b4 44 c5 85 36 5e e5 20 9b
       -1.8258499e-22 -2.2906268e-07 3.9866736e-06 -1.3309002e-22
000280 2c 8b 56 1b a6 8f 9e 9c f8 64 8b 19 ba d6 61 9e
       1.7746634e-22 -1.0492695e-21 1.4413044e-23 -1.1955805e-20
000290 8b 1f 32 b6 43 ce 3b 9b 98 aa e5 9c 8d 51 38 9e
       -2.6542427e-06 -1.5534924e-22 -1.5198046e-21 -9.757743e-21
0002a0 1d 24 2b 37 42 bc 03 9c ae 21 5d 9a 9a da 01 1b
       1.02008025e-05 -4.358758e-22 -4.5728935e-23 1.0741264e-22
0002b0 40 08 b3 1a ff 6c 2d 9d 79 94 af a5 60 aa 2e 1b
       7.4045993e-23 -2.295271e-21 -3.045827e-16 1.4447994e-22
0002c0 de b6 75 9c fd f1 8a 9a c2 c9 86 25 56 eb cd 1a
       -8.130005e-22 -5.7466415e-23 2.338201e-16 8.516622e-23
0002d0 8b 08 ed 1e eb 7b c1 b9 2c 4e 33 a3 2c 86 df 9f
       2.5096884e-20 -0.00036904155 -9.720163e-18 -9.466614e-20
0002e0 bc 16 a5 b0 4a 41 04 21 40 a7 22 1c c8 76 70 3b
       -1.2011792e-09 4.480975e-19 5.381747e-22 0.0036691893
0002f0 e6 ba 8c 3c 3d 6f 0d 1b b8 0e 21 9a 76 46 6f 9b
       0.017178964 1.169919e-22 -3.330591e-23 -1.9792384e-22
000300 82 ef ba 9a 30 6d 32 9d 0b 61 98 ab a8 75 d1 99
       -7.731474e-23 -2.3614552e-21 -1.0827184e-12 -2.1657614e-23
000310 b5 e0 9f 9b 3e 14 6c 1b fa 85 93 2c 60 9e 8b 1b
       -2.6449557e-22 1.9528003e-22 4.1928657e-12 2.3097968e-22
000320 78 96 df 9a 90 1c 4f 9b 98 44 d1 1a 2c 1d a6 9a
       -9.2473734e-23 -1.7131868e-22 8.6551193e-23 -6.870312e-23
000330 c8 7b 68 9b 87 8b 97 1b ff df 45 9b c6 15 9d 9b
       -1.9230586e-22 2.5071022e-22 -1.6367835e-22 -2.5987542e-22
000340 3a 77 2a 9b df 02 16 1b 0d 7c 1f 1f da c0 cf b2
       -1.4100595e-22 1.2408637e-22 3.3772172e-20 -2.418567e-08
000350 e5 2d 9a 1e bc 8d 98 9c fa 7e 4f 9c 1d 7f e3 9f
       1.6324366e-20 -1.0095154e-21 -6.865467e-22 -9.634853e-20
000360 ba ed 1e 1b a6 0c 3e 36 dd b2 25 b9 40 5a 40 98
       1.3146267e-22 2.8319569e-06 -0.00015802258 -2.4860983e-24
000370 5c 04 26 9a aa 27 07 9b b9 8b 53 1b d2 69 74 1b
       -3.4331517e-23 -1.1179754e-22 1.7498658e-22 2.0217399e-22
000380 dc f4 88 23 3b 23 8b 9a cc 8d 2b 9c 40 d1 7b 98
       1.4848852e-17 -5.754597e-23 -5.676242e-22 -3.2546634e-24
000390 59 50 a0 a2 8e 47 aa 1a a4 8a 3b 9b bc 06 52 9b
       -4.345316e-18 7.0425955e-23 -1.5513075e-22 -1.7372969e-22
0003a0 ad 64 41 9c 15 4b 2c 9c 5e fe 96 9b 60 2b 02 1d
       -6.3988464e-22 -5.7007067e-22 -2.49798e-22 1.7227781e-21
0003b0 5f f4 1a 1b 13 81 c4 ac 41 4c 41 31 27 8f 6e 9b
       1.2817542e-22 -5.584985e-12 2.8128542e-09 -1.9733154e-22
0003c0 a0 1c 80 9b 1c 0a ac 1a aa ba 5a 9b 3c ac 18 1b
       -2.1194322e-22 7.1153865e-23 -1.8092852e-22 1.2628797e-22
0003d0 4e 4e fd 1b d9 af 7d 9b 61 72 0a 9c 06 b1 76 9a
       4.1905942e-22 -2.0984489e-22 -4.58082e-22 -5.1014606e-23
0003e0 6a aa be 1b 60 ad f5 98 59 c5 58 29 16 8e 4d 2c
       3.154299e-22 -6.350608e-24 4.8132806e-14 2.9211126e-12
0003f0 78 fa 11 1e 89 ef 83 1c 89 5e a9 9c 0c 03 9e a8
       7.728032e-21 8.730771e-22 -1.1207919e-21 -1.7542845e-14

conv2.bias f4 [10]
000000 46 d6 8e bb 8d 5a 81 bb d4 b6 6c ae 19 5e 9e b1
       -0.0043590395 -0.003947562 -5.382257e-11 -4.609103e-09
000010 07 79 9e bc e7 ee 1c bb b0 22 03 bc 1a 95 bb bb
       -0.01934482 -0.0023946108 -0.008003876 -0.0057245614
000020 d4 39 b5 ba e5 53 d4 bc
       -0.0013826438 -0.02591891

rnn.weight_ih_l0 f4 [30, 1]
000000 60 f1 18 3d 49 36 a0 3f c5 2b c3 bd ea 4a 7f 3d
       0.03733957 1.2516567 -0.09529833 0.062327303
000010 3e e2 8d 38 22 fa a0 3e 4e b9 1d be 0b 72 98 3d
       6.765545e-05 0.31440836 -0.1540272 0.07443627
000020 a3 e4 0e bc 36 a0 1a 3b 2e 85 9d b9 fa 0d 8a 3d
       -0.008721503 0.0023594028 -0.000300446 0.06740947
000030 2a 76 e5 bd 14 f4 90 3d 9b 93 fc 3b 8f 78 48 bf
       -0.11204179 0.07077804 0.0077080256 -0.7830896
000040 61 a7 a8 bb 48 c6 0d 3d 65 6e 11 3f bd 5e 7f be
       -0.0051469062 0.034612924 0.56809074 -0.24938484
000050 41 91 71 b8 a5 ad 3e 3f 3c bb 88 bd a8 62 df bd
       -5.7594156e-05 0.7448371 -0.06676337 -0.10907489
000060 a9 ae 60 bd f5 37 07 3e 94 a2 a6 bd 24 6f 12 3e
       -0.05485407 0.1320494 -0.08136478 0.1430021
000070 4d f8 4c bb 20 5f bf 39
       -0.0031275928 0.00036501233
