colagnn-master-Run-Epi/src/save/cola_gnn_epi.us_hhs.w-20.h-8.RNN.lam-0.1.epo-500.pt (torch, 49334 bytes, 32 tensors)

V f4 [15]
0	0xbfc21b48	-1.5164576
1	0x3b29c818	0.0025906619
2	0xbdfd9bad	-0.123832084
3	0xbd0a97ba	-0.033836104
4	0xbd7b927f	-0.061419006
5	0x3bd0ec46	0.0063758222
6	0x3c432f98	0.011913203
7	0x3e5680e0	0.209476
8	0xc0232c57	-2.5495813
9	0xbec9c0df	-0.3940496
10	0xbd417d3d	-0.047238577
11	0xbdc40699	-0.09571571
12	0xbf82bb5c	-1.0213428
13	0x3fb0a74c	1.3801055
14	0x3bc84154	0.0061113033

W1 f4 [15, 30]
0	0xbf3a029e	-0.72660244
1	0x3f42829a	0.7598053
2	0xbf3e96e4	-0.7444899
3	0xbbdd31c4	-0.0067503173
4	0x3f39ab62	0.72527134
5	0xbf3962e6	-0.7241653
6	0xbf3d4f8f	-0.7394952
7	0xb9b5d5c3	-0.00034682275
8	0x3defa3ee	0.11701189
9	0xbf37f085	-0.7185138
10	0x3f3ce54e	0.7378739
11	0xbe75f8b5	-0.24020655
12	0xbf32bbfc	-0.6981809
13	0xbf336f1f	-0.7009143
14	0xbf37b030	-0.71753216
15	0xbf284ba8	-0.6574044
16	0xbf33c803	-0.7022707
17	0xbc7eb6f4	-0.015546549
18	0x3f3ad105	0.7297519
19	0x3f1725ff	0.5904235
20	0xbe6d835b	-0.2319464
21	0x3bf3de31	0.0074422588
22	0x3e9b55ca	0.3033889
23	0xbf3804ce	-0.7188233
24	0x3d78f7d5	0.060783226
25	0x3e3d2c1d	0.18473859
26	0x3f2968f0	0.66175747
27	0x3f362192	0.71144974
28	0x3f95ab23	1.1692852
29	0x3dac33c1	0.08408309
30	0xbf593f2c	-0.8486202
31	0x3f8148ea	1.0100377
32	0xbf68932e	-0.9084958
33	0xbcd749fb	-0.026280394
34	0x3f55a6d1	0.83457667
35	0xbf554520	-0.833086
36	0xbf6a761a	-0.9158646
37	0xbc06ef1c	-0.008235719
38	0x3e20498d	0.15653057
39	0xbf532617	-0.82479995
40	0x3f58de66	0.84714353
41	0xbe83e0f5	-0.25757566
42	0xbf510b43	-0.8165781
43	0xbf4dd137	-0.8039736
44	0xbf542f67	-0.8288483
45	0xbf4271c8	-0.75954866
46	0xbf4e4d0f	-0.8058633
47	0xbd1cc651	-0.038275067
48	0x3f552f88	0.8327565
49	0x3f3c52bf	0.7356376
50	0xbe8931d4	-0.26795828
51	0x3c40b518	0.011761926
52	0x3eac687e	0.3367347
53	0xbf76acc8	-0.96357393
54	0x3d87e191	0.0663482
55	0x3e7f4e54	0.24932224
56	0x3f6612e7	0.8987259
57	0x3f596ffd	0.84936506
58	0x3f9376fe	1.1520689
59	0x3da837bb	0.08213755
60	0x3e1a3179	0.15057935
61	0xbe19302e	-0.14959785
62	0x3e1a8f31	0.15093686
63	0x3c1c3c7d	0.009535906
64	0xbe1af6bc	-0.15133184
65	0x3e1aa5f1	0.15102364
66	0x3e18e468	0.1493088
67	0xbb956d54	-0.004560152
68	0xbce92680	-0.028460741
69	0x3e192958	0.14957178
70	0xbe1f8f10	-0.15581918
71	0x3d32767d	0.04357003
72	0x3e16e610	0.147362
73	0x3e14e602	0.14540866
74	0x3e18a671	0.14907242
75	0x3e0c0390	0.13673234
76	0x3e159461	0.14607383
77	0x3c28f9dd	0.010313478
78	0xbe1c0844	-0.15237528
79	0xbde986c1	-0.114026554
80	0x3d221840	0.039573908
81	0xbb409ba4	-0.0029389644
82	0xbd77e1cb	-0.060518067
83	0x3e19e9db	0.15030615
84	0xbc3107ff	-0.010805129
85	0xbd44d1a8	-0.048051506
86	0xbe0c5699	-0.1370491
87	0xbe14f6d9	-0.1454729
88	0xbe5da562	-0.2164512
89	0xbc3733d8	-0.011181794
90	0x3db8546d	0.09000478
91	0x3da4d509	0.08048446
92	0x3dd8d693	0.10587802
93	0x3c1e8067	0.009674168
94	0xbdb00522	-0.08594729
95	0x3daf921b	0.08572789
96	0x3de1d9a5	0.110278405
97	0xbb870778	-0.0041207634
98	0xbc85535e	-0.016275104
99	0x3dad5218	0.08462924
100	0xbdacc7fc	-0.084365815
101	0x3ce06661	0.027392568
102	0x3daabf25	0.08337239
103	0x3da84215	0.08215729
104	0x3db0013a	0.08593984
105	0x3d9761f3	0.07391729
106	0x3da8a64a	0.08234842
107	0x3c0aa300	0.008461714
108	0xbdacfdb2	-0.08446826
109	0xbdab29bb	-0.08357569
110	0x3cd71d70	0.026259154
111	0xbb378dc2	-0.0028008078
112	0xbd186bbe	-0.037212126
113	0x3dfcd5f7	0.12345498
114	0xbc0620a2	-0.008186491
115	0xbcf2f683	-0.029658562
116	0xbdc6ec8e	-0.09713088
117	0xbdbf9bc0	-0.09355879
118	0xbde72c35	-0.11287729
119	0xbc08b50a	-0.008343944
120	0x3d6610c1	0.05616832
121	0xbd64fa1a	-0.055902578
122	0x3d665177	0.056230035
123	0x3b305263	0.0026904575
124	0xbd66e5c8	-0.05637148
125	0x3d666386	0.056247257
126	0x3d643241	0.05571199
127	0xbac2af96	-0.0014853354
128	0xbc226ffe	-0.009914396
129	0x3d642ef6	0.055708848
130	0xbd6b99bc	-0.05751966
131	0x3c717369	0.014736989
132	0x3d60adc2	0.05485321
133	0x3d5de366	0.054171942
134	0x3d63960f	0.05556303
135	0x3d4fd95e	0.050744407
136	0x3d5f1c0a	0.0544701
137	0x3b58804e	0.003303546
138	0xbd67ead4	-0.056620434
139	0xbd2ee715	-0.042700846
140	0x3c799788	0.015233882
141	0xba564eba	-0.00081751833
142	0xbcac2d22	-0.021017615
143	0x3d642848	0.055702478
144	0xbb61914b	-0.0034418877
145	0xbc8cddfb	-0.017195692
146	0xbd50a404	-0.050937667
147	0xbd5e447b	-0.054264527
148	0xbd8fa511	-0.07013906
149	0xbb5bbdf1	-0.0033529962
150	0x3a60dbea	0.00085776916
151	0xba6260f1	-0.0008635661
152	0x3a627912	0.00086392567
153	0x38757de8	5.852981e-05
154	0xba61fd17	-0.0008620782
155	0x3a61c845	0.00086129113
156	0x3a60ce87	0.0008575697
157	0x37f5623e	2.9252024e-05
158	0xb8d20cd0	-0.00010015967
159	0x3a5fb29c	0.000853339
160	0xba655e25	-0.00087496854
161	0x39e92214	0.00044466613
162	0x3a5c164e	0.00083956576
163	0x3a5a34ff	0.0008323937
164	0x3a5f1bc3	0.0008510912
165	0x3a4a0811	0.00077068905
166	0x3a5a58a3	0.0008329248
167	0x38500462	4.9595146e-05
168	0xba61cc0d	-0.0008613475
169	0xba35e2b9	-0.00069383864
170	0x398b4b6b	0.00026568337
171	0xb7e83d3a	-2.7685066e-05
172	0xb9f822ce	-0.00047328178
173	0x3a510bc6	0.00079744717
174	0xb90a68e8	-0.00013199786
175	0xb921c7b9	-0.00015428559
176	0xba3e66b0	-0.00072632264
177	0xba5abe03	-0.0008344354
178	0xbab8bc90	-0.0014094282
179	0xb8f25876	-0.00011555936
180	0xbc148979	-0.009065979
181	0x3c1ec03e	0.009689389
182	0xbc19b367	-0.009381152
183	0xb9c15fd6	-0.00036883232
184	0x3c1363b3	0.008995938
185	0xbc132069	-0.008979895
186	0xbc19bafd	-0.00938296
187	0x395d7d5a	0.000211229
188	0x3ac143ba	0.0014744916
189	0xbc11a72b	-0.008889954
190	0x3c12f376	0.008969178
191	0xbb1170f1	-0.0022192562
192	0xbc0f4213	-0.008743781
193	0xbc0d86c6	-0.0086380895
194	0xbc11d235	-0.008900215
195	0xbc026fdb	-0.007961239
196	0xbc0e0db5	-0.00867026
197	0xb9fa825e	-0.00047780847
198	0x3c1279fd	0.008940217
199	0x3bec2079	0.0072060195
200	0xbb2b2b4d	-0.0026118339
201	0x38e758d1	0.00011031482
202	0x3b5164e4	0.0031951005
203	0xbc1b46d2	-0.009477334
204	0x3a0965c1	0.0005241298
205	0x3b2d0ecf	0.0026406532
206	0x3c0fa7af	0.008768006
207	0x3c11fd6b	0.008910517
208	0x3c262903	0.010141614
209	0x39fae6b3	0.000478556
210	0xbdbffb28	-0.09374076
211	0x3dd15108	0.102205336
212	0xbdc7b739	-0.09751744
213	0x39bf92ac	0.00036539638
214	0x3dbecf0f	0.09316837
215	0xbdbe7540	-0.092997074
216	0xbdc737fd	-0.09727476
217	0xbab5b79f	-0.0013863927
218	0x3c981172	0.018563006
219	0xbdbc8c28	-0.0920642
220	0x3dc21b33	0.09477844
221	0xbccd63d2	-0.025072012
222	0xbdb86b15	-0.09004799
223	0xbdb733af	-0.08945405
224	0xbdbc9859	-0.092087455
225	0xbdac324a	-0.084080294
226	0xbdb7bc80	-0.089715004
227	0xbade8649	-0.0016977276
228	0x3dbf45ad	0.093394615
229	0x3d99ee78	0.075161874
230	0xbce15c4f	-0.027509836
231	0x39eb30a6	0.0004485894
232	0x3d070755	0.032965977
233	0xbdc5db6b	-0.09660991
234	0x3bb4a6be	0.0055130413
235	0x3cd5f0ab	0.026115736
236	0x3db5b1a7	0.08871775
237	0x3dbcb08a	0.0921336
238	0x3dfeaaa4	0.12434891
239	0x3bcb461e	0.006203427
240	0xbfba3c0b	-1.4549574
241	0x3fc05500	1.502594
242	0xbfbda911	-1.481722
243	0xbc3b99ef	-0.011450275
244	0x3fba0357	1.4532269
245	0xbfb9d627	-1.4518479
246	0xbfbc9f07	-1.4736031
247	0xb9a8333f	-0.00032081638
248	0x3e827621	0.2548075
249	0xbfb8db60	-1.4441948
250	0x3fbbd421	1.4674112
251	0xbf0974b2	-0.5369369
252	0xbfb4106f	-1.4067515
253	0xbfb56b84	-1.4173436
254	0xbfb89726	-1.4421127
255	0xbfab9226	-1.3403976

b1 f4 [15]
0	0x3f39983c	0.72497916
1	0x3f54bbe2	0.83099186
2	0xbe1ac9b5	-0.15116008
3	0xbdae624b	-0.08514842
4	0xbd669505	-0.05629446
5	0xba61e7eb	-0.00086176273
6	0x3c1302a8	0.008972801
7	0x3dbe563d	0.092937924
8	0x3fba1862	1.4538691
9	0x3dd9b62f	0.10630452
10	0xbd487170	-0.048936307
11	0xbd62080a	-0.055183448
12	0x3f57c63f	0.84286875
13	0xbe5fbf18	-0.2185024
14	0x3a57c0e9	0.0008230345

W2 f4 [15, 30]
0	0xbf3a7e8f	-0.72849363
1	0x3f42a4d0	0.76032734
2	0xbf3ddbc9	-0.7416349
3	0x3ccb3306	0.024804603
4	0x3f39b198	0.7253661
5	0xbf395282	-0.7239152
6	0xbf3ceb2d	-0.7379635
7	0xbb8282b9	-0.0039828685
8	0x3da84cf4	0.08217803
9	0xbf37fa6f	-0.71866506
10	0x3f3a68ad	0.7281597
11	0xbd89d8b1	-0.06730784
12	0xbf32bf0c	-0.69822764
13	0xbf32f243	-0.6990091
14	0xbf37b246	-0.717564
15	0xbf28772f	-0.6580686
16	0xbf342a62	-0.7037717
17	0xbac18e12	-0.0014767072
18	0x3f3a838c	0.72856975
19	0x3f1a1674	0.6019051
20	0xbe8681f4	-0.2627102
21	0x3c1cae0c	0.00956298
22	0x3e223456	0.15840277
23	0xbf3aed11	-0.73017985
24	0x3c2cbf67	0.010543681
25	0x3df87746	0.121321246
26	0x3f279da0	0.6547489
27	0x3f358448	0.7090497
28	0x3f1b2f21	0.6061879
29	0x3c5ccfce	0.013477279
30	0xbf5ab808	-0.8543706
31	0x3f811abd	1.0086285
32	0xbf65af72	-0.89720833
33	0x3c922b0d	0.017842794
34	0x3f55ace0	0.8346691
35	0xbf55311d	-0.83278066
36	0xbf68d429	-0.9094873
37	0xbc86333c	-0.016381852
38	0x3de3e35f	0.11127352
39	0xbf531fc8	-0.8247037
40	0x3f560c66	0.8361267
41	0xbd0457ab	-0.03231017
42	0xbf50e251	-0.8159533
43	0xbf4d30c7	-0.80152553
44	0xbf54269a	-0.828714
45	0xbf430a2d	-0.761874
46	0xbf4ec335	-0.8076661
47	0xbca13e16	-0.019682925
48	0x3f54e74d	0.83165437
49	0x3f401ad9	0.75040966
50	0xbe9da111	-0.30786946
51	0x3c3f5045	0.011676853
52	0x3e196f73	0.14983921
53	0xbf78f235	-0.9724458
54	0x3bc702be	0.006073325
55	0x3e2d6100	0.16931534
56	0x3f626098	0.8842864
57	0x3f572fd8	0.8405738
58	0x3eeae444	0.45877278
59	0x3a02fc10	0.00049966667
60	0x3e1a3ae6	0.1506153
61	0xbe1944de	-0.14967677
62	0x3e1a8963	0.15091471
63	0x3bc2e31f	0.005947485
64	0xbe1aef7f	-0.15130423
65	0x3e1a9af3	0.15098171
66	0x3e18e4ec	0.14931077
67	0xbb681385	-0.0035412025
68	0xbcbe0397	-0.023195071
69	0x3e193403	0.14961247
70	0xbe1d9ecd	-0.15392609
71	0x3cb48ef1	0.022040816
72	0x3e170908	0.14749539
73	0x3e14c687	0.14528857
74	0x3e18b73a	0.14913645
75	0x3e0bd255	0.13654454
76	0x3e15ed46	0.14641294
77	0x3c145011	0.009052292
78	0xbe1bde22	-0.15221456
79	0xbded7ff5	-0.115966715
80	0x3d374a28	0.044748455
81	0xbb335122	-0.0027361591
82	0xbd28019e	-0.041017167
83	0x3e1a32a8	0.15058386
84	0xbb933fe0	-0.0044936985
85	0xbd181253	-0.03712685
86	0xbe0c16f8	-0.13680637
87	0xbe150bee	-0.14555332
88	0xbe220f2d	-0.15826102
89	0xbb986545	-0.004650744
90	0x3dbaf7bc	0.09129283
91	0x3b3f2ea8	0.0029172096
92	0x3dd1e9db	0.102496825
93	0x3bd4f18c	0.006498521
94	0xbdafff1f	-0.08593582
95	0x3daf91fd	0.08572767
96	0x3ddd9b18	0.108205974
97	0xbb35e690	-0.0027755834
98	0xbc541cd3	-0.012946325
99	0x3dad460d	0.08460627
100	0xbdab4b1e	-0.08363937
101	0x3c5dce92	0.01353802
102	0x3daa5d6e	0.083186015
103	0x3da82863	0.08210828
104	0x3db008cb	0.08595427
105	0x3d98d294	0.074620396
106	0x3da9319d	0.08261416
107	0x3bf1f9b1	0.007384502
108	0xbdacd9f7	-0.08440011
109	0xbdacd755	-0.08439509
110	0x3cf4823a	0.029847253
111	0xbb1e8a16	-0.0024191192
112	0xbcc907ee	-0.024539914
113	0x3dfcd4f8	0.12345308
114	0xbb8619e5	-0.0040924423
115	0xbcb945c9	-0.022616284
116	0xbdd95581	-0.10612012
117	0xbdbb0855	-0.091324486
118	0xbd948eb3	-0.0725378
119	0xbb5e8c80	-0.0033958256
120	0x3d661d3d	0.056180228
121	0xbd650eca	-0.055922307
122	0x3d66404d	0.056213666
123	0x3adb1c12	0.001671674
124	0xbd66d27c	-0.056353077
125	0x3d6652e1	0.056231383
126	0x3d642bef	0.05570596
127	0xbaac7cbc	-0.0013159732
128	0xbc069ce0	-0.008216113
129	0x3d643cd5	0.055722076
130	0xbd69603c	-0.056976542
131	0x3c03d614	0.008046646
132	0x3d60e155	0.054902393
133	0x3d5dac64	0.054119483
134	0x3d63b1c5	0.055589456
135	0x3d4fb172	0.050706334
136	0x3d5f93e1	0.054584388
137	0x3b42707a	0.0029669092
138	0xbd67b6fc	-0.056570992
139	0xbd318211	-0.04333693
140	0x3c8b99fc	0.017041199
141	0xba5fda33	-0.0008539289
142	0xbc754d08	-0.014971979
143	0x3d6472e6	0.05577364
144	0xbab6ace4	-0.0013937023
145	0xbc5bd815	-0.013418217
146	0xbd505d22	-0.05087007
147	0xbd5e57e7	-0.05428305
148	0xbd5fab03	-0.05460645
149	0xbac7e0d0	-0.0015249494
150	0x3a6143f2	0.00085931935
151	0xba62d2ec	-0.00086526456
152	0x3a623437	0.00086289964
153	0xb827dedf	-4.0023468e-05
154	0xba620f3e	-0.0008623487
155	0x3a6190cb	0.00086046447
156	0x3a60bc27	0.0008572959
157	0x384c8ca8	4.8768386e-05
158	0xb7bd2d5d	-2.255168e-05
159	0x3a5fbc3d	0.00085348246
160	0xba5fc184	-0.0008535611
161	0x36c4616c	5.8525966e-06
162	0x3a5c56d5	0.0008405273
163	0x3a5916f3	0.0008281313
164	0x3a5f1ea8	0.0008511343
165	0x3a4d0f1c	0.0007822381
166	0x3a5b0e55	0.00083563227
167	0x378399af	1.5687981e-05
168	0xba614a08	-0.00085941004
169	0xba3d0698	-0.00072107604
170	0x39aa6e94	0.00032507314
171	0xb807e60a	-3.240075e-05
172	0xb8df4999	-0.00010647177
173	0x3a585c86	0.0008253533
174	0xb5e83e57	-1.730349e-06
175	0xb7c0953d	-2.2957678e-05
176	0xba3bcd1b	-0.0007164047
177	0xba5a6e2d	-0.00083324575
178	0xb9e1f67d	-0.00043098992
179	0x371d11ba	9.3620565e-06
180	0xbc1512b5	-0.009098698
181	0x3c1ec16d	0.009689671
182	0xbc18c83d	-0.009325084
183	0xb95f28f9	-0.00021282201
184	0x3c136354	0.00899585
185	0xbc131d97	-0.008979223
186	0xbc194381	-0.009354473
187	0x393f8b9f	0.00018267192
188	0x3aa36520	0.0012466051
189	0xbc11a656	-0.008889755
190	0x3c123d69	0.008925774
191	0xbab359a2	-0.0013683329
192	0xbc0f3411	-0.008740441
193	0xbc0d6080	-0.008628964
194	0xbc11d647	-0.008901185
195	0xbc02c661	-0.0079818675
196	0xbc0e4cc8	-0.008685298
197	0xb9e1f6a4	-0.00043099106
198	0x3c1260d9	0.008934223
199	0x3beee4ba	0.00729045
200	0xbb3e4952	-0.0029035402
201	0x38f7e007	0.00011819606
202	0x3b2057e6	0.0024466454
203	0xbc1b2042	-0.00946814
204	0x398785fd	0.00025849036
205	0x3b06e963	0.0020585887
206	0x3c0efc43	0.008727136
207	0x3c113943	0.00886375
208	0x3c042442	0.008065285
209	0x3993c7c3	0.0002818686
210	0xbdc0b37a	-0.094092324
211	0x3dd13ad9	0.102163024
212	0xbdc65b2e	-0.0968536
213	0x3b04b69d	0.0020250448
214	0x3dbecd8e	0.0931655
215	0xbdbe6bc7	-0.09297901
216	0xbdc67b4a	-0.09691484
217	0xbaafb793	-0.001340615
218	0x3c7e2c61	0.01551351
219	0xbdbc8875	-0.092057146
220	0x3dc05018	0.09390277
221	0xbc48dffe	-0.012260435
222	0xbdb85802	-0.09001161
223	0xbdb6dd56	-0.08928935
224	0xbdbc9960	-0.092089415
225	0xbdab9422	-0.083778635
226	0xbdb80a41	-0.08986331
227	0xba83e25d	-0.0010061968
228	0x3dbf1762	0.09330632
229	0x3d9bea3f	0.07613038
230	0xbcfafc00	-0.030637741
231	0x3a162b08	0.0005728458
232	0x3cb67ef8	0.02227734
233	0xbdc6f9a2	-0.097155824
234	0x3b0554a2	0.0020344635
235	0x3ca3d7df	0.020000396
236	0x3db4095a	0.08790846
237	0x3dbba37b	0.09162041
238	0x3db8cc8e	0.09023391
239	0x3b0c78f9	0.002143441
240	0xbfbaa2bf	-1.4580916
241	0x3fc083b2	1.504019
242	0xbfbd2424	-1.4776654
243	0x3d67605b	0.056488376
244	0x3fba0815	1.4533716
245	0xbfb9c7ff	-1.4514159
246	0xbfbc5b88	-1.4715433
247	0xbc001303	-0.007817033
248	0x3e3826f2	0.17983606
249	0xbfb8de3b	-1.4442819
250	0x3fb9a73c	1.4504161
251	0xbe2e9c23	-0.17051749
252	0xbfb41713	-1.4069542
253	0xbfb4f805	-1.413819
254	0xbfb894ab	-1.442037
255	0xbfac3268	-1.3452883

Wb f4 [10, 10]
0	0xbeee5957	-0.46552536
1	0xbf586f8b	-0.845452
2	0x3c817a4c	0.015805386
3	0x3ef24ed7	0.47325775
4	0x3ebb7a96	0.36616963
5	0x3eab33f9	0.3343809
6	0x3eb11cb1	0.34592202
7	0x3ef02014	0.46899474
8	0xbf40e7ac	-0.75353503
9	0xbed5a661	-0.417285
10	0xbeeb4795	-0.4595305
11	0xbf56ef63	-0.83959025
12	0x3d127887	0.035759475
13	0x3f0628e8	0.5240617
14	0x3ed281d2	0.4111467
15	0x3ed39f3d	0.41332427
16	0x3ec19e00	0.37815857
17	0x3f089e62	0.53366673
18	0xbf416e11	-0.75558573
19	0xbef3bcd4	-0.47605002
20	0xbeee2475	-0.4651219
21	0xbf580ec1	-0.8439751
22	0x3cbc1b26	0.022962164
23	0x3ef6f70b	0.48235354
24	0x3ebf61db	0.37379345
25	0x3eaa6bea	0.33285457
26	0x3eb31c9f	0.34982774
27	0x3ee4f796	0.44720143
28	0xbf41d6f7	-0.75718635
29	0xbedaf8e4	-0.42768013
30	0xbeec0963	-0.46100911
31	0xbf53cf11	-0.82737833
32	0x3cf53096	0.029930394
33	0x3f0a7b0b	0.54094
34	0x3ed114c7	0.40836164
35	0x3ecd6b8d	0.40121117
36	0x3eba5524	0.36393082
37	0x3ee4aaf6	0.44661683
38	0xbf523ca5	-0.82123786
39	0xbef4e8d8	-0.47833896
40	0xbeee1337	-0.46499035
41	0xbf56a57f	-0.83846277
42	0x3c8405af	0.016115991
43	0x3efd2b93	0.49447307
44	0x3ec2c907	0.38043997
45	0x3eb7003b	0.35742363
46	0x3eb4d4f3	0.35318717
47	0x3eea2407	0.45730612
48	0xbf43aff1	-0.7644034
49	0xbedf6047	-0.4362814
50	0xbeec9209	-0.46205166
51	0xbf546fed	-0.82983285
52	0x3ca8bcba	0.020597804
53	0x3f06d006	0.5266117
54	0x3ece3059	0.4027126
55	0x3ecc8101	0.39942172
56	0x3ebae6d9	0.36504248
57	0x3eeeb825	0.46624866
58	0xbf4e2e2d	-0.8053921
59	0xbeefa64f	-0.4680657
60	0xbeedb4b7	-0.46426937
61	0xbf586f9f	-0.8454532
62	0x3c6c5db8	0.014426641
63	0x3efbf039	0.49206713
64	0x3ec16fe2	0.37780672
65	0x3eb42d02	0.35190588
66	0x3eb8adac	0.3607
67	0x3ef86ad1	0.48518994
68	0xbf3f636c	-0.7476108
69	0xbee48adf	-0.446372
70	0xbeee0f8f	-0.46496245
71	0xbf57adb9	-0.84249455
72	0x3cf6d19b	0.030129245
73	0x3f00bbd3	0.50286597
74	0x3ec32ecd	0.38121644
75	0x3ebc2367	0.3674576
76	0x3eb68285	0.35646453
77	0x3efc594f	0.49286887
78	0xbf468b9d	-0.7755678
79	0xbed9e839	-0.42559984
80	0xbeeb492b	-0.4595426
81	0xbf59a7c9	-0.85021645
82	0x3d14cc54	0.036327675
83	0x3f043ada	0.516523
84	0x3ed1845c	0.40921295
85	0x3ecfe7ae	0.40606445
86	0x3ec9eba0	0.3943758
87	0x3f0fb848	0.56140566
88	0xbf3fd44d	-0.7493332
89	0xbefbcb5d	-0.4917859
90	0xbeecf067	-0.46277162
91	0xbf5ab06a	-0.85425436
92	0x3cacd26c	0.02109643
93	0x3eff11f4	0.49818385
94	0x3ec7374b	0.38909373
95	0x3ec130f6	0.37732667
96	0x3ebe9dde	0.37229818
97	0x3f0cbd34	0.549762
98	0xbf3c2ae4	-0.73502946
99	0xbee6ea2c	-0.45100534

conv.weight f4 [10, 1, 20]
0	0x962c72ed	-1.3930314e-25
1	0x95a0c5a3	-6.49353e-26
2	0x9695bde6	-2.419209e-25
3	0x1489a0f3	1.3896948e-26
4	0x1380282a	3.2351348e-27
5	0x148d5d96	1.4274275e-26
6	0x13ae091f	4.393277e-27
7	0x12aaa1ff	1.0768443e-27
8	0x131ef37c	2.006245e-27
9	0x12bf290f	1.2063916e-27
10	0x92983500	-9.605614e-28
11	0x0f6b0d4e	1.1588957e-29
12	0x91992560	-2.4162178e-28
13	0x9210835c	-4.56003e-28
14	0x1451164a	1.0556199e-26
15	0x169c2e55	2.52324e-25
16	0x182e76eb	2.2549011e-24
17	0x9be95f59	-3.8608234e-22
18	0x9bf00bde	-3.9712338e-22
19	0x1d40e93c	2.5531568e-21
20	0x106ed2c5	4.7099595e-29
21	0x0f78d32e	1.2268016e-29
22	0x903573c9	-3.5785154e-29
23	0x903bcad6	-3.7035506e-29
24	0x90560c54	-4.2213556e-29
25	0x0f8dd26b	1.3984724e-29
26	0x10d15754	8.2570515e-29
27	0x10cc2296	8.05171e-29
28	0x10ff9c92	1.00821e-28
29	0x112f998c	1.3852381e-28
30	0x1162ea89	1.7900528e-28
31	0x110df23c	1.1197583e-28
32	0x118a9dc4	2.1869792e-28
33	0x118a7ac9	2.1848233e-28
34	0x119eeae4	2.5072767e-28
35	0x1171ab2f	1.9064298e-28
36	0x113c34b7	1.4846829e-28
37	0x8f134800	-7.261526e-30
38	0x90495024	-3.9702e-29
39	0x916491be	-1.8030939e-28
40	0x056dd701	1.11831764e-35
41	0x85cdf8e3	-1.9369534e-35
42	0x0663737b	4.2778796e-35
43	0x04acb065	4.0599e-36
44	0x030e5296	4.1824853e-37
45	0x04d32d22	4.964731e-36
46	0x048e4da3	3.3455338e-36
47	0x8344cf92	-5.78375e-37
48	0x03b0e31e	1.0396494e-36
49	0x822abd03	-1.2543871e-37
50	0x84167817	-1.7687558e-36
51	0x02961a0b	2.2055467e-37
52	0x0317b807	4.4586165e-37
53	0x0352d783	6.196085e-37
54	0x0467fd02	2.7270095e-36
55	0x05866d0a	1.2641354e-35
56	0x06c659cc	7.4611267e-35
57	0x080143d8	3.8899275e-34
58	0x88d732a2	-1.29517455e-33
59	0x89bdb2e4	-4.5668323e-33
60	0xa09f5aae	-2.6995655e-19
61	0xa1538c82	-7.167554e-19
62	0x20445ff1	1.663359e-19
63	0xa136e1ea	-6.1962993e-19
64	0xa12bd39b	-5.821711e-19
65	0xa0b93e55	-3.1381467e-19
66	0x213ee414	6.4676363e-19
67	0x212cba08	5.8522077e-19
68	0x2127bd79	5.6832566e-19
69	0x2141b06f	6.562445e-19
70	0x21282fa7	5.698368e-19
71	0xa0318099	-1.5035033e-19
72	0x213c19ee	6.3731195e-19
73	0x213560c0	6.1453233e-19
74	0x210328f8	4.443875e-19
75	0x2124d70c	5.5849974e-19
76	0xa071c46b	-2.0478483e-19
77	0xa0d5e3de	-3.6234393e-19
78	0xa06d83ee	-2.0118333e-19
79	0x211ff340	5.4193234e-19
80	0x00010514	9.3657e-41
81	0x0000d7a0	7.7352e-41
82	0x80000aa5	-3.819e-42
83	0x80033b55	-2.96791e-40
84	0x80001507	-7.543e-42
85	0x00015d05	1.25205e-40
86	0x00079a5b	6.98221e-40
87	0x00176d10	2.15134e-39
88	0x817b11c4	-4.6114165e-38
89	0x02277c7c	1.2304948e-37
90	0x83f92d77	-1.4645343e-36
91	0x8394d374	-8.7472055e-37
92	0x04fc1ba3	5.9270296e-36
93	0x848d2df6	-3.319115e-36
94	0x0891d094	8.775907e-34
95	0x8b17a4ba	-2.920547e-32
96	0x8bc7746d	-7.682719e-32
97	0x0ff1ccc5	2.3843309e-29
98	0x10ab9f30	6.7692875e-29
99	0x91982f2d	-2.4010446e-28
100	0x80001375	-6.98e-42
101	0x000018c2	8.881e-42
102	0x00001ba9	9.923e-42
103	0x80001608	-7.903e-42
104	0x8000181e	-8.652e-42
105	0x00000c16	4.336e-42
106	0x8000186b	-8.76e-42
107	0x8000016d	-5.11e-43
108	0x000000ce	2.89e-43
109	0x000008e5	3.191e-42
110	0x80001391	-7.019e-42
111	0x000011b9	6.358e-42
112	0x80001158	-6.222e-42
113	0x00000b31	4.015e-42
114	0x800014b5	-7.428e-42
115	0x00000fbb	5.643e-42
116	0x0000214c	1.1945e-41
117	0x8000231b	-1.2593e-41
118	0x0000201d	1.152e-41
119	0x80000a2e	-3.652e-42
120	0x8000138f	-7.016e-42
121	0x00001642	7.985e-42
122	0x00000ff4	5.723e-42
123	0x00002195	1.2047e-41
124	0x00001597	7.745e-42
125	0x80000594	-2.001e-42
126	0x800022ed	-1.2529e-41
127	0x8000079c	-2.73e-42
128	0x800011b9	-6.358e-42
129	0x000008cb	3.154e-42
130	0x0000003e	8.7e-44
131	0x0000135e	6.948e-42
132	0x80001661	-8.028e-42
133	0x00000aee	3.921e-42
134	0x800006e9	-2.479e-42
135	0x80000ebc	-5.286e-42
136	0x80000a24	-3.638e-42
137	0x80000c89	-4.497e-42
138	0x80001d26	-1.0456e-41
139	0x80001229	-6.515e-42
140	0x911fceb4	-1.2606584e-28
141	0x9266694b	-7.2704987e-28
142	0x12e2fd5c	1.4325063e-27
143	0x8fca13da	-1.9926384e-29
144	0x10a9bad8	6.6946625e-29
145	0x10891ac2	5.40782e-29
146	0x10b44dae	7.1117166e-29
147	0x102d0b14	3.4126768e-29
148	0x1012d356	2.895623e-29
149	0x0fee8876	2.3521175e-29
150	0x8eecb63f	-5.835399e-30
151	0x0ccb7bf5	3.1351706e-31
152	0x8e389ddc	-2.2755758e-30
153	0x8eabde13	-4.2368604e-30
154	0x10c9d876	7.961403e-29
155	0x12be7ccc	1.2021451e-27
156	0x14602123	1.1315645e-26
157	0x1614d91a	1.202385e-25
158	0x17b7d284	1.1879239e-24
159	0x18cc3037	5.278145e-24
160	0x14889110	1.3789708e-26
161	0x14144604	7.485899e-27
162	0x138b22eb	3.5122965e-27
163	0x922d91b9	-5.476879e-28
164	0x9215293e	-4.7066945e-28
165	0x929c9805	-9.88246e-28
166	0x928169f9	-8.167169e-28
167	0x91b92ccf	-2.921547e-28
168	0x91ce0411	-3.2503575e-28
169	0x91ac6f8f	-2.7205568e-28
170	0x0fb0dbe2	1.7439636e-29
171	0x0f6a62c2	1.1556111e-29
172	0x1096d8a0	5.949833e-29
173	0x1081ef37	5.12501e-29
174	0x11356663	1.4309933e-28
175	0x962b44a9	-1.3834935e-25
176	0x9671ad5d	-1.9522529e-25
177	0x99bb73b2	-1.9382076e-23
178	0x9b04744e	-1.0956364e-22
179	0x9bed496e	-3.9255814e-22
180	0x8f2dd5f6	-8.570766e-30
181	0x8ed25208	-5.184799e-30
182	0x0f13213b	7.2540595e-30
183	0x0da14c46	9.940753e-31
184	0x0d487227	6.1767164e-31
185	0x0d34eb0d	5.5749714e-31
186	0x0d7bbe62	7.757451e-31
187	0x0cdec28d	3.4321607e-31
188	0x0ce6e900	3.5577343e-31
189	0x0cb3e83a	2.7719083e-31
190	0x8c664ac0	-1.774105e-31
191	0x0b18868a	2.937535e-32
192	0x8af41f69	-2.350816e-32
193	0x8bd6d912	-8.275641e-32
194	0x0d7647de	7.589111e-31
195	0x10b4d373	7.132327e-29
196	0x10c0fabb	7.611696e-29
197	0x13d52586	5.380576e-27
198	0x147bb042	1.2707022e-26
199	0x938e5600	-3.5930642e-27

conv.bias f4 [10]
0	0xb995d78c	-0.0002858009
1	0x11cf69c4	3.2724025e-28
2	0xb4a36e52	-3.0441385e-07
3	0x21a83c4e	1.1400085e-18
4	0xb507f774	-5.065151e-07
5	0x00001d06	1.0412e-41
6	0x00d0de91	1.9181625e-38
7	0xb8aa2a3e	-8.1141e-05
8	0xb90b5f54	-0.00013291585
9	0xb7eeeaee	-2.8481209e-05

conv_long.weight f4 [10, 1, 10]
0	0x0000195e	9.1e-42
1	0x00001cd8	1.0347e-41
2	0x80001d8a	-1.0597e-41
3	0x8000017f	-5.37e-43
4	0x000012fa	6.808e-42
5	0x000019c0	9.237e-42
6	0x8000107c	-5.913e-42
7	0x80001f91	-1.1324e-41
8	0x80001fea	-1.1449e-41
9	0x00005c2c	3.3065e-41
10	0x800020f2	-1.1819e-41
11	0x0000114d	6.206e-42
12	0x80001ee1	-1.1077e-41
13	0x00001be4	1.0005e-41
14	0x800022f6	-1.2542e-41
15	0x00001811	8.633e-42
16	0x80001c9e	-1.0266e-41
17	0x80001f02	-1.1124e-41
18	0x80001ab6	-9.582e-42
19	0x80001dd8	-1.0706e-41
20	0xaf910939	-2.63819e-10
21	0xb03e4bab	-6.922913e-10
22	0xaeb69eb6	-8.3045945e-11
23	0xaeeb777c	-1.07077874e-10
24	0xaedf19f8	-1.0145479e-10
25	0xae0c0df4	-3.1844707e-11
26	0xada39834	-1.8598546e-11
27	0xaf86d4b4	-2.4525593e-10
28	0xb0f0d75f	-1.752351e-09
29	0xb23b8e6b	-1.0917215e-08
30	0x03cbeadc	1.1985189e-36
31	0x860ccf55	-2.6483397e-35
32	0x05f791b0	2.3281286e-35
33	0x85fab8d9	-2.357779e-35
34	0x04a185f5	3.7973938e-36
35	0x04ee40d9	5.6013084e-36
36	0x05b07cf0	1.6596855e-35
37	0x051c4cbc	7.3491786e-36
38	0x0594f11b	1.4006421e-35
39	0x84c644e4	-4.6612842e-36
40	0x91d78a65	-3.400631e-28
41	0x91018a66	-1.0218953e-28
42	0x0ff9ecc9	2.4644502e-29
43	0x8d4fc181	-6.401972e-31
44	0x8e6a2c19	-2.886396e-30
45	0x0d66bd17	7.110183e-31
46	0x0db46ef1	1.1120065e-30
47	0x8f5e9a94	-1.0975216e-29
48	0x1463cad2	1.15005705e-26
49	0x96812daf	-2.0869904e-25
50	0x1f72e0fe	5.1431602e-20
51	0x1effa954	2.7069208e-20
52	0x1e03f1bc	6.985072e-21
53	0x1d0e6fae	1.885128e-21
54	0x1c5394c3	7.0006314e-22
55	0x9ad2b53a	-8.714675e-23
56	0x9b6017a9	-1.8536491e-22
57	0x1fd02339	8.81497e-20
58	0xa525ee43	-1.4392195e-16
59	0xa6dcf445	-1.5331776e-15
60	0x9133acbc	-1.4173838e-28
61	0x919745de	-2.3866658e-28
62	0x918cfe50	-2.2244838e-28
63	0x917a5625	-1.9748068e-28
64	0x914f4003	-1.6349146e-28
65	0x909f3490	-6.279543e-29
66	0x9020105e	-3.1567045e-29
67	0x8fae6a05	-1.7198562e-29
68	0x0f8173d6	1.2765e-29
69	0x10dffa8c	8.834402e-29
70	0x1aec9909	9.7854554e-23
71	0x9b1b23a0	-1.283281e-22
72	0x9ae9618d	-9.652414e-23
73	0x1a337be6	3.7116417e-23
74	0x1a83d7a3	5.452871e-23
75	0x1a87face	5.623989e-23
76	0x9a4e3ef5	-4.2650658e-23
77	0x1a0d0819	2.9164658e-23
78	0x18d3295c	5.4583984e-24
79	0x19864b4a	1.3885684e-23
80	0xb2843da8	-1.539486e-08
81	0xb21d1d1d	-9.145222e-09
82	0xb1cab304	-5.8993255e-09
83	0xb140ca4c	-2.805467e-09
84	0xb1adc809	-5.057704e-09
85	0xb1064c03	-1.9542774e-09
86	0xb0b2b22e	-1.3001846e-09
87	0xb28b2f90	-1.6203359e-08
88	0xb3a7dcdf	-7.81672e-08
89	0xb44da84f	-1.9153343e-07
90	0xacb2b72e	-5.0794013e-12
91	0xac30f4d1	-2.5147005e-12
92	0xaba9badc	-1.2060036e-12
93	0xab79a1f9	-8.8687353e-13
94	0xab1f0f7c	-5.6509636e-13
95	0xa9ec6f15	-1.0499775e-13
96	0xa9dfde7a	-9.941783e-14
97	0xac9fa362	-4.537191e-12
98	0xae728c2e	-5.5148934e-11
99	0xb0023a98	-4.737699e-10

conv_long.bias f4 [10]
0	0xb46365b0	-2.1178016e-07
1	0xa41336fc	-3.1922117e-17
2	0xbc294f90	-0.010333911
3	0x04b91cdb	4.351979e-36
4	0xb8c7381e	-9.499512e-05
5	0xba83bf29	-0.0010051477
6	0x951a22eb	-3.1127598e-26
7	0x19a0540e	1.6577562e-23
8	0xbc60f5f6	-0.013730517
9	0xbb8ee9b5	-0.004361356

conv1.weight f4 [30, 30]
0	0x0000143a	7.256e-42
1	0x00009653	5.3926e-41
2	0x27a61474	4.609643e-15
3	0x000017e2	8.568e-42
4	0x8000ef66	-8.588e-41
5	0xa8b62df1	-2.0225983e-14
6	0x80000a87	-3.776e-42
7	0x0000452a	2.4811e-41
8	0x8000082e	-2.934e-42
9	0xa8fa2e93	-2.7775774e-14
10	0x80001356	-6.936e-42
11	0x00001840	8.699e-42
12	0xa598f190	-2.6531486e-16
13	0x03651eb8	6.7332315e-37
14	0x839ae25a	-9.103274e-37
15	0xb0071512	-4.9142657e-10
16	0x800853ba	-7.6472e-40
17	0xb4527bb3	-1.9602776e-07
18	0x00000f0f	5.402e-42
19	0xbbe10f5a	-0.006868285
20	0x81040554	-2.4248394e-38
21	0x80004d1e	-2.7664e-41
22	0x00028ac4	2.33451e-40
23	0xb0de2732	-1.6163766e-09
24	0x140f8665	7.24616e-27
25	0x80018f2d	-1.43197e-40
26	0xb340f30b	-4.492453e-08
27	0x80000374	-1.239e-42
28	0xa963c1d5	-5.0572248e-14
29	0xb24b48d8	-1.1832718e-08
30	0x2e8c0b6d	6.3684925e-11
31	0x8000d849	-7.7588e-41
32	0x8002401b	-2.06668e-40
33	0x800004c0	-1.704e-42
34	0x800104aa	-9.3509e-41
35	0x800006af	-2.398e-42
36	0x0002f8bc	2.729e-40
37	0x8000c54a	-7.0774e-41
38	0x00001a1b	9.365e-42
39	0x8000003d	-8.5e-44
40	0x800009df	-3.541e-42
41	0x0000183e	8.696e-42
42	0x80001bd4	-9.983e-42
43	0x800016c5	-8.168e-42
44	0x8000532a	-2.9834e-41
45	0x8000117b	-6.271e-42
46	0x00010e55	9.6977e-41
47	0x000013bf	7.084e-42
48	0x8000a01f	-5.744e-41
49	0x8001fa6a	-1.81667e-40
50	0x000020ad	1.1722e-41
51	0x000008c8	3.15e-42
52	0x369fc372	4.761322e-06
53	0x80001436	-7.25e-42
54	0x00001fa5	1.1352e-41
55	0x000a58f8	9.50271e-40
56	0x8000090d	-3.247e-42
57	0x00002241	1.2288e-41
58	0x0000223b	1.228e-41
59	0x80000598	-2.007e-42
60	0xaac61c42	-3.5191473e-13
61	0x8000bba3	-6.7311e-41
62	0x0002a1ac	2.41668e-40
63	0x800022a4	-1.2427e-41
64	0x000184f5	1.39531e-40
65	0x0000027b	8.9e-43
66	0x80059811	-5.13729e-40
67	0x8000a765	-6.005e-41
68	0x80001fa8	-1.1356e-41
69	0x00001c3e	1.0131e-41
70	0x80000736	-2.587e-42
71	0x80001fcb	-1.1405e-41
72	0x00001e4d	1.087e-41
73	0x00000f88	5.572e-42
74	0x00000308	1.087e-42
75	0x80000018	-3.4e-44
76	0xb357cfc0	-5.0247536e-08
77	0x80000eb8	-5.28e-42
78	0x80001efe	-1.1118e-41
79	0x0002f138	2.70204e-40
80	0x80001c3f	-1.0133e-41
81	0x0000092a	3.287e-42
82	0x80035348	-3.05382e-40
83	0x0000177e	8.427e-42
84	0x8000187d	-8.785e-42
85	0x80059196	-5.11404e-40
86	0x000016d2	8.186e-42
87	0x80003847	-2.0189e-41
88	0x8000177a	-8.422e-42
89	0x800008b7	-3.126e-42
90	0x80017d43	-1.36771e-40
91	0x80033bee	-2.97005e-40
92	0x3698cc2e	4.5537226e-06
93	0x3a1c41ab	0.0005960713
94	0x000037d0	2.0022e-41
95	0x00003dff	2.224e-41
96	0xbc2e9499	-0.010655546
97	0x3b279094	0.0025568353
98	0x0000b915	6.6395e-41
99	0x001ed1d5	2.830338e-39
100	0x0004d32c	4.43096e-40
101	0x8000888d	-4.8985e-41
102	0x37a01438	1.9082901e-05
103	0xb9474ca0	-0.00019006664
104	0x0807a8b4	4.0823394e-34
105	0x8002298b	-1.98574e-40
106	0x80018944	-1.41077e-40
107	0x39e4ef8e	0.0004366603
108	0x8001491d	-1.18064e-40
109	0x8000bc3f	-6.753e-41
110	0x2a7e8d09	2.2608663e-13
111	0x828b2df4	-2.045059e-37
112	0x0001231f	1.04435e-40
113	0x35e0ae81	1.6740088e-06
114	0x0000ab56	6.1464e-41
115	0x3740f8ac	1.150199e-05
116	0x00044fa7	3.95916e-40
117	0x00085cbb	7.6795e-40
118	0x8006f404	-6.38549e-40
119	0x000694f5	6.04449e-40
120	0x2d3c9330	1.0719245e-11
121	0x80010e55	-9.6977e-41
122	0x80001d9f	-1.0626e-41
123	0x00002115	1.1868e-41
124	0x80030f34	-2.8096e-40
125	0x0000176c	8.402e-42
126	0x91be596c	-3.0031825e-28
127	0x800072fa	-4.1246e-41
128	0x800022d1	-1.249e-41
129	0x80000f92	-5.586e-42
130	0x00000a3c	3.671e-42
131	0x80001e66	-1.0905e-41
132	0x00000e6f	5.178e-42
133	0x00003e80	2.2421e-41
134	0x800084be	-4.7619e-41
135	0x800002b0	-9.64e-43
136	0x8000d3fa	-7.6043e-41
137	0x00001ddc	1.0712e-41
138	0x00003fcb	2.2885e-41
139	0x001029bc	1.48434e-39
140	0x800037f4	-2.0072e-41
141	0x800011e7	-6.422e-42
142	0x0002c641	2.54791e-40
143	0x80001860	-8.744e-42
144	0x80000922	-3.276e-42
145	0x80089818	-7.89245e-40
146	0x000018e3	8.928e-42
147	0x000017c8	8.531e-42
148	0x80001527	-7.588e-42
149	0x000002f7	1.064e-42
150	0x8007c0e8	-7.1205e-40
151	0x80007f83	-4.5743e-41
152	0x8009843b	-8.73955e-40
153	0x0000032d	1.139e-42
154	0x8000b5c1	-6.5201e-41
155	0x00001651	8.006e-42
156	0x80014877	-1.17831e-40
157	0x000597e3	5.13664e-40
158	0x800007d6	-2.811e-42
159	0x00000fd3	5.677e-42
160	0x0000174b	8.356e-42
161	0x80001cf3	-1.0385e-41
162	0x00001f94	1.1328e-41
163	0x00001b02	9.689e-42
164	0x0001ebbf	1.76405e-40
165	0x00000644	2.248e-42
166	0x800b3f93	-1.032997e-39
167	0x0000158c	7.73e-42
168	0x000098bb	5.479e-41
169	0x004c038f	6.980774e-39
170	0x0000827c	4.6809e-41
171	0x00005300	2.9775e-41
172	0x8004a7bb	-4.27512e-40
173	0x80001af4	-9.669e-42
174	0x000014b1	7.423e-42
175	0xba964680	-0.0011465102
176	0x800020e8	-1.1805e-41
177	0x8000111a	-6.135e-42
178	0x000012a7	6.691e-42
179	0x80008460	-4.7487e-41
180	0x80000f45	-5.478e-42
181	0x8002939e	-2.36626e-40
182	0x000019b7	9.225e-42
183	0x80001a33	-9.399e-42
184	0x3246a554	1.1562708e-08
185	0xab28e889	-6.0008297e-13
186	0x800019c3	-9.242e-42
187	0x8000345d	-1.8784e-41
188	0x800007cb	-2.796e-42
189	0xaaef8d9c	-4.255319e-13
190	0x80001cc2	-1.0316e-41
191	0x800021e5	-1.2159e-41
192	0xa8d54c86	-2.3680937e-14
193	0x06e975fa	8.781821e-35
194	0x033c7e14	5.5392965e-37
195	0xb168b3db	-3.386268e-09
196	0x000244a4	2.08295e-40
197	0xb53e734b	-7.094829e-07
198	0x00008406	4.7361e-41
199	0x00030815	2.78406e-40
200	0x828a6e05	-2.0340426e-37
201	0x80000157	-4.8e-43
202	0x80002a27	-1.5121e-41
203	0xb22d184e	-1.0075452e-08
204	0x17368430	5.8974216e-25
205	0x80005289	-2.9608e-41
206	0xb48e5131	-2.6508636e-07
207	0x80001e91	-1.0965e-41
208	0xac2d13b6	-2.459572e-12
209	0xb3bbb824	-8.741361e-08
210	0x00001560	7.668e-42
211	0x0000a662	5.9687e-41
212	0x800045a6	-2.4985e-41
213	0x0000093d	3.314e-42
214	0x800043a7	-2.4269e-41
215	0xa445c902	-4.2887826e-17
216	0x8000206c	-1.1631e-41
217	0x80002bed	-1.5758e-41
218	0x8000196d	-9.121e-42
219	0xa4fe84d5	-1.1037997e-16
220	0x8000137a	-6.987e-42
221	0x000019ad	9.211e-42
222	0xa0a1ed86	-2.743164e-19
223	0x82247c49	-1.2084485e-37
224	0x0226621f	1.2223913e-37
225	0xadf0d88c	-2.7381007e-11
226	0x0002a214	2.41814e-40
227	0xb3911488	-6.755823e-08
228	0x000018a7	8.844e-42
229	0x800409bb	-3.70833e-40
230	0x801ccdaa	-2.645172e-39
231	0x80001311	-6.84e-42
232	0x80000835	-2.944e-42
233	0xafcd12ab	-3.7302547e-10
234	0x918e8f58	-2.2491992e-28
235	0x00001976	9.134e-42
236	0xb20b537b	-8.109846e-09
237	0x80001e68	-1.0908e-41
238	0xa7394fc4	-2.5717148e-15
239	0xb0adc3c9	-1.2643052e-09
240	0x00001633	7.964e-42
241	0x8000bb0e	-6.7103e-41
242	0x8000a73a	-5.999e-41
243	0x00002209	1.221e-41
244	0x00010be4	9.6101e-41
245	0xa4f414ff	-1.058537e-16
246	0x80001f15	-1.115e-41
247	0x00002310	1.2578e-41
248	0x000022bb	1.2459e-41
249	0xa53552e3	-1.572733e-16
250	0x0000051b	1.831e-42
251	0x00001e2e	1.0826e-41
252	0xa1901cf7	-9.765486e-19
253	0x037ea544	7.4833607e-37
254	0x00daabd6	2.0081781e-38
255	0xaea65cb2	-7.565272e-11

conv1.bias f4 [30]
0	0x183d744a	2.4486388e-24
1	0x8f433fca	-9.6265276e-30
2	0x8f9582bf	-1.4742896e-29
3	0x0d702bcb	7.4008424e-31
4	0xb10beabe	-2.0360598e-09
5	0xb410ec88	-1.3497095e-07
6	0xa671d7ce	-8.390614e-16
7	0x88815554	-7.783966e-34
8	0x19078a1c	7.007227e-24
9	0xb492d428	-2.7348983e-07
10	0x1ce6a833	1.5263602e-21
11	0xa01298f5	-1.241729e-19
12	0xb42d629e	-1.6147757e-07
13	0x190cf665	7.287589e-24
14	0x2fb3a5aa	3.2677622e-10
15	0xb7fd33eb	-3.0184126e-05
16	0x80005914	-3.1955e-41
17	0xba1aa29d	-0.0005898865
18	0x813b444e	-3.4395482e-38
19	0x12bbc57c	1.1850043e-27
20	0x922147e5	-5.089126e-28
21	0x951d246a	-3.1734623e-26
22	0x8c08687d	-1.0508502e-31
23	0xb8731f60	-5.7964935e-05
24	0xafa80357	-3.0561395e-10
25	0x181a5b00	1.9949977e-24
26	0xb9df3bf6	-0.0004257855
27	0xa6224629	-5.6300125e-16
28	0xb62841b2	-2.507219e-06
29	0xb9171a9d	-0.00014410396

conv2.weight f4 [30, 10]
0	0x8d04b57a	-4.0894085e-31
1	0x144d39df	1.0361268e-26
2	0x002620cb	3.501513e-39
3	0xb9975ba6	-0.00028869248
4	0x00005320	2.982e-41
5	0x05a436a2	1.5442555e-35
6	0x9448e16e	-1.0141878e-26
7	0x00514079	7.461804e-39
8	0x80001753	-8.367e-42
9	0x800112d5	-9.8591e-41
10	0x800035dc	-1.9321e-41
11	0x00001dd9	1.0707e-41
12	0x00003887	2.0278e-41
13	0x800040a3	-2.3187e-41
14	0x0001a841	1.52194e-40
15	0x00003be2	2.1482e-41
16	0x00010874	9.4868e-41
17	0x2b590acb	7.7108865e-13
18	0xbbd49f5e	-0.0064887246
19	0x80005806	-3.1577e-41
20	0x0385bf4c	7.860957e-37
21	0x000008d1	3.163e-42
22	0x8000042e	-1.5e-42
23	0x000152e7	1.21575e-40
24	0x0000206c	1.1631e-41
25	0x000007c7	2.79e-42
26	0x8f247bc1	-8.1096584e-30
27	0x80012b59	-1.07386e-40
28	0x00059cd1	5.15433e-40
29	0x3784879e	1.5798778e-05
30	0x801a80b4	-2.433893e-39
31	0x8fadc786	-1.713597e-29
32	0x000d9499	1.247168e-39
33	0x02a438e4	2.4130288e-37
34	0x80001e2b	-1.0822e-41
35	0x8509d189	-6.4801946e-36
36	0x0db0adb0	1.0888651e-30
37	0x00001e40	1.0852e-41
38	0x8000039d	-1.296e-42
39	0x89ae3096	-4.1934666e-33
40	0xb248245e	-1.1649801e-08
41	0x01469b74	3.647839e-38
42	0x00001a0b	9.342e-42
43	0x00003413	1.8681e-41
44	0x80001740	-8.34e-42
45	0x00009fd5	5.7337e-41
46	0x800d65b5	-1.230347e-39
47	0x80001e6c	-1.0913e-41
48	0x00000739	2.591e-42
49	0x800aa874	-9.78785e-40
50	0x00003f2b	2.266e-41
51	0xaf495131	-1.8309688e-10
52	0x1f966036	6.368664e-20
53	0x800106b4	-9.424e-41
54	0x9a9ca66e	-6.478897e-23
55	0xa7802ecc	-3.5577874e-15
56	0x0001d5d3	1.68541e-40
57	0x80002d53	-1.6259e-41
58	0x08a0bfb5	9.67472e-34
59	0x800010be	-6.006e-42
60	0x8003dda9	-3.55023e-40
61	0x99d8d4fa	-2.2419897e-23
62	0x8185ba12	-4.912348e-38
63	0x0002cb46	2.56592e-40
64	0x0002247c	1.96759e-40
65	0x09a059bf	3.8602996e-33
66	0x80001cf6	-1.0389e-41
67	0x00116e39	1.600744e-39
68	0x80002c92	-1.5989e-41
69	0x00021229	1.90186e-40
70	0x80002f9a	-1.7076e-41
71	0x00002170	1.1995e-41
72	0x8000051c	-1.833e-42
73	0x80027d75	-2.28676e-40
74	0x00002078	1.1648e-41
75	0x8000006c	-1.51e-43
76	0x099fc41e	3.8462285e-33
77	0x00079b62	6.9859e-40
78	0x8000017e	-5.35e-43
79	0x80015687	-1.22876e-40
80	0x00014cfc	1.19452e-40
81	0x2756cd03	2.9809603e-15
82	0x0ac218be	1.8690827e-32
83	0x91d76b8a	-3.3987295e-28
84	0x069b9e9b	5.853757e-35
85	0x15b99ead	7.497125e-26
86	0x97c71288	-1.2864752e-24
87	0x037b3ae1	7.382986e-37
88	0x80001919	-9.003e-42
89	0x1e389518	9.771711e-21
90	0x00001774	8.413e-42
91	0xbb07fdfa	-0.0020750747
92	0xb8cf8331	-9.8949655e-05
93	0x0146c938	3.6511224e-38
94	0xb702e4e7	-7.801899e-06
95	0xb9e03bbf	-0.00042769124
96	0x80000484	-1.62e-42
97	0x800019b0	-9.215e-42
98	0xaff8da73	-4.5266155e-10
99	0x86b27c62	-6.713892e-35
100	0x0008affa	7.97812e-40
101	0x22215f93	2.1870165e-18
102	0x88f06c4f	-1.4469938e-33
103	0x8ef538ae	-6.0451744e-30
104	0x84864c88	-3.157353e-36
105	0x11445b60	1.5489831e-28
106	0x9bc4b38c	-3.254151e-22
107	0x004dc715	7.14275e-39
108	0x800003ed	-1.408e-42
109	0x198ab341	1.4341266e-23
110	0x800133d7	-1.10432e-40
111	0x00001e4c	1.0868e-41
112	0x80000935	-3.303e-42
113	0x00000d03	4.668e-42
114	0x000014bf	7.442e-42
115	0x800021e1	-1.2153e-41
116	0x9f4fdba4	-4.4015637e-20
117	0x80000d3b	-4.746e-42
118	0x80006716	-3.698e-41
119	0x000012d8	6.76e-42
120	0x00000966	3.372e-42
121	0xba10fbb9	-0.00055306737
122	0xb5d30f3f	-1.5725162e-06
123	0x80022376	-1.96392e-40
124	0xb582f28b	-9.756344e-07
125	0xb8883e7a	-6.4966225e-05
126	0x80000fba	-5.642e-42
127	0x80001f88	-1.1311e-41
128	0xad33abac	-1.0213091e-11
129	0x82050f2d	-9.775652e-38
130	0x8017c93b	-2.184404e-39
131	0x800001a0	-5.83e-43
132	0x00000c99	4.519e-42
133	0x0007a9b5	7.03728e-40
134	0x800001d6	-6.59e-43
135	0x00000412	1.46e-42
136	0x1654933e	1.7171685e-25
137	0x0002a351	2.42258e-40
138	0x00001fe3	1.1439e-41
139	0x000879ae	7.78334e-40
140	0x80028c55	-2.34013e-40
141	0x00016190	1.26834e-40
142	0x00002312	1.2581e-41
143	0x0000efb9	8.5996e-41
144	0x80001c99	-1.0259e-41
145	0x00000463	1.574e-42
146	0xae5fc07c	-5.087529e-11
147	0x1026ac6a	3.287055e-29
148	0x00001f6b	1.127e-41
149	0x0000aeb7	6.2676e-41
150	0x80000937	-3.306e-42
151	0xb7071f2b	-8.053884e-06
152	0xb11de93a	-2.297908e-09
153	0x000000c2	2.72e-43
154	0xafcd8831	-3.7386053e-10
155	0xb4889ceb	-2.5446147e-07
156	0x80014741	-1.17397e-40
157	0x800016ff	-8.25e-42
158	0x1d986df2	4.0347746e-21
159	0x00001b68	9.832e-42
160	0x80000062	-1.37e-43
161	0x00001f32	1.1191e-41
162	0x8000683c	-3.7392e-41
163	0x80009b5e	-5.5735e-41
164	0x8000588e	-3.1767e-41
165	0x000001b7	6.15e-43
166	0x0008451c	7.59476e-40
167	0x0001d5db	1.68552e-40
168	0x800036ac	-1.9613e-41
169	0x80002919	-1.4743e-41
170	0x0000037e	1.253e-42
171	0xb99c113b	-0.00029767476
172	0xb52f78ac	-6.536818e-07
173	0x00000b58	4.07e-42
174	0xb47c4577	-2.34946e-07
175	0xb71a901c	-9.212668e-06
176	0x00025b20	2.1636e-40
177	0x000009dd	3.538e-42
178	0xab25f3f8	-5.895835e-13
179	0x00001606	7.9e-42
180	0x0007e489	7.24831e-40
181	0x0242a9fc	1.4301652e-37
182	0x00001d6f	1.0559e-41
183	0x00006650	3.6703e-41
184	0x00000b87	4.135e-42
185	0x0000df26	8.005e-41
186	0x01fa6668	9.198244e-38
187	0x000012da	6.763e-42
188	0x800015df	-7.846e-42
189	0x802a2650	-3.870835e-39
190	0x800056f2	-3.119e-41
191	0x80001503	-7.538e-42
192	0x000013af	7.061e-42
193	0x0013b325	1.80914e-39
194	0x80009d70	-5.6478e-41
195	0x800018c4	-8.884e-42
196	0x1102b1fa	1.0310035e-28
197	0xad9be2d3	-1.772219e-11
198	0x00000f9a	5.597e-42
199	0x27c510ea	5.4696822e-15
200	0x0000140b	7.19e-42
201	0xb50ee4db	-5.323215e-07
202	0xad059ccf	-7.594993e-12
203	0x000290ff	2.35686e-40
204	0xaa525d60	-1.8684143e-13
205	0xb0afa6b6	-1.2780308e-09
206	0x91a81460	-2.6518283e-28
207	0xbb0d4bfc	-0.0021560183
208	0x148f12b8	1.4446693e-26
209	0x80000157	-4.8e-43
210	0x9341a87d	-2.4443096e-27
211	0x142148ef	8.142806e-27
212	0x00000e59	5.147e-42
213	0x80002170	-1.1995e-41
214	0x800015f0	-7.87e-42
215	0x86da9597	-8.222229e-35
216	0x166129b0	1.818851e-25
217	0x00001673	8.053e-42
218	0x80003e4a	-2.2345e-41
219	0x000084b8	4.761e-41
220	0x000084ee	4.7686e-41
221	0x80001ecd	-1.1049e-41
222	0x800010eb	-6.069e-42
223	0x0002152e	1.91269e-40
224	0x80000012	-2.5e-44
225	0x80001c65	-1.0186e-41
226	0x0c7b6693	1.9367204e-31
227	0x00002ad9	1.5371e-41
228	0xad2e45ae	-9.906227e-12
229	0x30d55002	1.5520529e-09
230	0x0000157a	7.704e-42
231	0xba09d6e3	-0.0005258156
232	0xb784a6fd	-1.5813386e-05
233	0x06a7a6c7	6.3063475e-35
234	0xb6ce35b4	-6.1455303e-06
235	0xb929ef95	-0.00016206347
236	0x800021e6	-1.216e-41
237	0x80002658	-1.3755e-41
238	0xaee0cb65	-1.0222471e-10
239	0x8e949460	-3.6627697e-30
240	0x8000036c	-1.228e-42
241	0xbc010a4e	-0.007875992
242	0xba3c40a0	-0.0007181261
243	0x05d3feac	1.9935896e-35
244	0xb9171433	-0.00014408007
245	0xbb801c28	-0.0039096065
246	0x80000e5c	-5.151e-42
247	0x00001f99	1.1335e-41
248	0xb56076d8	-8.3619443e-07
249	0x8ec1ffe6	-4.7824595e-30
250	0xa8d26cdf	-2.3361899e-14
251	0x8cc7b36e	-3.0768795e-31
252	0x80001290	-6.659e-42
253	0x80150b00	-1.932491e-39
254	0x800019e0	-9.282e-42
255	0x00822c10	1.1954421e-38

conv2.bias f4 [10]
0	0xbb89b157	-0.0042020488
1	0xb61b8097	-2.317165e-06
2	0xbb54630a	-0.0032407665
3	0xaf557b78	-1.9416102e-10
4	0xb5fe2a77	-1.8936834e-06
5	0xbbfc9057	-0.0077076363
6	0xbe3798c7	-0.17929374
7	0x9d868954	-3.56115e-21
8	0xa5276bab	-1.452142e-16
9	0xb3b44525	-8.3944805e-08

rnn.weight_ih_l0 f4 [30, 1]
0	0x3dd0ef2a	0.10201867
1	0xbdd2eb52	-0.1029879
2	0x3e124e29	0.14287628
3	0x3dc4a0e7	0.09601002
4	0x3dbf006f	0.093262546
5	0xbd5fc95b	-0.054635387
6	0x3e08af3a	0.13348094
7	0xbe2eba21	-0.1706319
8	0xbd5613f8	-0.052265137
9	0xbe0e80c4	-0.13916308
10	0x3e6d76f0	0.23189902
11	0xbee5a6a1	-0.4485369
12	0xbdce4665	-0.100720204
13	0xbe70cc64	-0.23515469
14	0xbdf03e9d	-0.117306925
15	0x3e9a19b9	0.3009775
16	0xbe417ad8	-0.18894517
17	0x3ece1f8a	0.40258437
18	0x3dd0a4a7	0.10187655
19	0xbcbb8237	-0.02288924
20	0x3e1555da	0.14583531
21	0xbe6fe51f	-0.23427247
22	0x3e78a25d	0.24280687
23	0x3bf20e8c	0.007386988
24	0x3ecbd7dc	0.39813125
25	0xbd64e6b0	-0.055884063
26	0xbe1f2e7f	-0.1554508
27	0x3e3f688e	0.18692228
28	0x404d4007	3.207033
29	0x3e998725	0.2998592

rnn.weight_hh_l0 f4 [30, 30]
0	0x3c492378	0.012276523
1	0xbe12315c	-0.14276642
2	0x3e1af250	0.15131497
3	0xbdd47aa5	-0.10374955
4	0xbe37503d	-0.17901702
5	0x3e0f024c	0.1396572
6	0x3df95d07	0.12175947
7	0xbc68ef48	-0.014217205
8	0x3dd07bfb	0.101798974
9	0x3e58d326	0.21174297
10	0xbe4946f3	-0.19655971
11	0xbe69f1af	-0.22846101
12	0x3d86d3b8	0.06583351
13	0x3e808e57	0.25108597
14	0x3e53ead9	0.20695056
15	0x3e2c25cd	0.16811295
16	0x3e1c0b4a	0.15238681
17	0xbe4558b8	-0.19272125
18	0xbe6cab41	-0.23112203
19	0xbe13aeca	-0.14422145
20	0x3d2bb77c	0.04192303
21	0x3dbf77c8	0.09349018
22	0xbc648292	-0.013947146
23	0x3dace4b6	0.08442061
24	0x3ca002c4	0.019532569
25	0xbdc0a4c8	-0.094064295
26	0xbddae237	-0.10687678
27	0xbe2d2f78	-0.16912639
28	0xbe095e45	-0.13414867
29	0x3c27cf43	0.010242286
30	0xbe055bef	-0.13023351
31	0x3e1323d2	0.14369133
32	0xbe0bd8a1	-0.13656856
33	0x3d918fc6	0.07107501
34	0x3e164c9c	0.14677662
35	0xbe1048ad	-0.14090224
36	0xbe05e411	-0.13075282
37	0xbbffc18d	-0.0078050555
38	0xbd018f99	-0.031631086
39	0xbdfde1df	-0.12396597
40	0x3e1034e6	0.14082679
41	0x3c8ff623	0.017573422
42	0xbd80036e	-0.06250654
43	0xbe16ae44	-0.14714915
44	0xbe16de81	-0.14733316
45	0xbdfc2c79	-0.1231317
46	0xbe26db5b	-0.16294615
47	0x3d9d8176	0.07690708
48	0x3e1302cd	0.14356537
49	0x3e0c9edf	0.1373248
50	0xbdb07fc7	-0.086181216
51	0xbb182c2b	-0.0023219686
52	0x3d199065	0.03749122
53	0xbd7b5e7b	-0.0613694
54	0xbd5a4f1d	-0.053298105
55	0xbdbd04b4	-0.09229413
56	0x3dbbe8ce	0.09175263
57	0x3e110725	0.14162882
58	0x3db726bd	0.089429356
59	0xbc8f0896	-0.017460149
60	0x3de3233d	0.110907055
61	0xbe092019	-0.1339115
62	0x3da49915	0.080370106
63	0xbdb91277	-0.09036725
64	0xbe0daa13	-0.1383441
65	0x3e34fae4	0.17673832
66	0x3e21e832	0.15811232
67	0xbbea9d0a	-0.007159834
68	0x3e22b9fe	0.15891263
69	0x3e4cffaf	0.2001941
70	0xbe4f9b64	-0.2027412
71	0xbd879c36	-0.06621592
72	0x3db82c0e	0.08992778
73	0x3e6c7396	0.23090968
74	0x3e4af364	0.19819409
75	0x3e53b61d	0.2067494
76	0x3dca0b93	0.09865489
77	0xbe2d0a56	-0.16898474
78	0xbe408451	-0.18800475
79	0xbd9f8726	-0.077894494
80	0x3de84c61	0.11342693
81	0x3db3ce86	0.087796256
82	0xbd784585	-0.060613174
83	0x3c430034	0.011901904
84	0xbd22e907	-0.039773013
85	0xbd93a883	-0.072098754
86	0xbd81b573	-0.06333437
87	0xbe315a2f	-0.17319559
88	0xbe3c140c	-0.18367022
89	0xbb2bf92c	-0.0026241047
90	0x3cdf6ef4	0.027274586
91	0x3e11cb5d	0.14237733
92	0xbd72fb41	-0.059321646
93	0xbd3e8879	-0.04651687
94	0x3df38d7c	0.118922204
95	0xbda44b46	-0.0802217
96	0x3b093961	0.0020938742
97	0x3d879416	0.06620042
98	0xbdc6fc91	-0.09716142
99	0xbe0834a7	-0.13301335
100	0x3e04e0b0	0.12976336
101	0x3cac9923	0.021069115
102	0x3d97e4df	0.074167006
103	0xbe045245	-0.12922008
104	0xbdc88e1d	-0.09792731
105	0xbddb46ea	-0.10706885
106	0xbe377a0e	-0.17917654
107	0x3d890551	0.06690467
108	0x3d26e900	0.04074955
109	0xbc5daf85	-0.013530617
110	0x3dd1f03e	0.10250901
111	0xbe0d68c1	-0.13809492
112	0x3d05bf7e	0.032653324
113	0xbe16b978	-0.14719188
114	0xbb2beffa	-0.0026235566
115	0x3e4a3ea8	0.19750464
116	0x3c7977fa	0.015226359
117	0x3e2561c9	0.16150583
118	0x3e5c07bc	0.21487325
119	0xbc3f63d1	-0.011681513
120	0xbd1d0390	-0.038333476
121	0x3cbea731	0.023273082
122	0x3d99a5ae	0.07502304
123	0xbdc80d3d	-0.0976815
124	0x3f0f27c7	0.5592007
125	0xbec5c92b	-0.3863004
126	0x3e5f3391	0.21797015
127	0xbdb11b56	-0.08647792
128	0xbf410e53	-0.7541248
129	0xbf841868	-1.0319948
130	0xbd819ee6	-0.063291356
131	0x3e1c210b	0.1524698
132	0xbebecf57	-0.37267563
133	0xbf1cd6a9	-0.61265045
134	0xbf288593	-0.6582882
135	0x3e43a213	0.19104795
136	0xbef4b7fb	-0.47796616
137	0xbe434998	-0.19071043
138	0x3e637ec7	0.2221633
139	0x3f63c33b	0.88969773
140	0x3e290294	0.1650489
141	0xbcca49db	-0.02469342
142	0xbe825625	-0.25456348
143	0xbf512e40	-0.81711197
144	0xbe0fedc2	-0.14055541
145	0xbd5f3975	-0.054498155
146	0x3f20d635	0.62826854
147	0x3e8d3f2c	0.2758726
148	0x3de0ea99	0.10982246
149	0x3eb4aad3	0.3528658
150	0x3d84d47f	0.06485843
151	0xbda51cfb	-0.08062168
152	0x3db145ec	0.08655915
153	0xbe3f0ec4	-0.18657976
154	0xbe859aa4	-0.26094544
155	0x3e722523	0.23646979
156	0x3d8776af	0.06614434
157	0xbda9c9a5	-0.08290414
158	0x3e58ce24	0.21172386
159	0x3e906730	0.28203726
160	0x3bf8842f	0.007584117
161	0xbdf1347d	-0.117775895
162	0xbda5fb6a	-0.08104594
163	0x3e7024a0	0.23451471
164	0x3e203283	0.15644269
165	0x3df140b9	0.11779923
166	0x3e53d98a	0.20688453
167	0xbd3bb7f7	-0.04582974
168	0xbe7cc775	-0.24685462
169	0xbe5a60cb	-0.21325986
170	0x3db19038	0.08670086
171	0x3dae06b0	0.08497369
172	0x3daea88e	0.08528243
173	0x3e7a3125	0.2443281
174	0xbd8d49df	-0.068988554
175	0xbdf886b9	-0.12135071
176	0xbe2b0e9f	-0.16704796
177	0xbe22cf0b	-0.15899293
178	0xbe59b74a	-0.21261325
179	0x3d5d6c5b	0.054058414
180	0x3e00c7c0	0.12576199
181	0xbd2cdc2e	-0.042202167
182	0x3dcec6ad	0.10096488
183	0xbca4a6b0	-0.020099014
184	0xbe60d233	-0.21955185
185	0x3e4541a2	0.19263318
186	0x3d89a25c	0.06720421
187	0xbd7fb089	-0.062424216
188	0x3df45ef8	0.11932176
189	0x3e0f25e9	0.13979305
190	0xbda7baf1	-0.08189953
191	0xbde2869e	-0.110608324
192	0x3c59e076	0.013298145
193	0x3da1350b	0.07871445
194	0x3dd3e201	0.10345841
195	0x3dd7fdf5	0.10546485
196	0x3e82d7b8	0.25555205
197	0xbd5769ea	-0.052591242
198	0xbe953cdd	-0.29147997
199	0xbe07db19	-0.13267173
200	0x3cef5d2b	0.02921923
201	0x3d9ed65b	0.07755729
202	0xbd2f36d0	-0.042776883
203	0x3e54420d	0.20728321
204	0x3beb3fe9	0.0071792495
205	0xbd796119	-0.060883615
206	0xbe1c86f3	-0.15285854
207	0xbe398192	-0.18115833
208	0xbe21a071	-0.1578386
209	0x3c9fe8c3	0.01952017
210	0xbc946c5a	-0.018118072
211	0x3d47671f	0.04868233
212	0xbc9051eb	-0.017617187
213	0x3d8cf232	0.068821326
214	0xbcfdf299	-0.030999469
215	0x3cbe5c19	0.023237275
216	0xbc8b8103	-0.017029291
217	0xbe86119e	-0.26185316
218	0x3df08d46	0.11745696
219	0xbb4a6079	-0.0030880256
220	0xbd0d9ea6	-0.034575127
221	0xbdd28910	-0.10280049
222	0x3d9fadf4	0.07796851
223	0xbd176b1f	-0.036967393
224	0xbc93294c	-0.017964028
225	0x3d08c499	0.033390615
226	0xbbed4f37	-0.007242109
227	0x3c9fee74	0.019522883
228	0xbc673ea1	-0.014114053
229	0xbe3a2ed2	-0.18181923
230	0xbd8b6b66	-0.06807594
231	0xbd52c85e	-0.051460616
232	0x3da845a7	0.0821641
233	0x3da6442b	0.08118471
234	0x3ccb87fd	0.024845118
235	0xbdb5adce	-0.08871041
236	0xbe63c86e	-0.22244427
237	0x3bad7fe2	0.005294786
238	0xbded1d82	-0.11577894
239	0x3ca1250c	0.019670986
240	0xbdd6e9de	-0.104938254
241	0x3b6f49e9	0.003651256
242	0xbe0aad3b	-0.13542645
243	0x3b4befb0	0.0031118207
244	0xbe0d7f56	-0.13818106
245	0x3e597f2d	0.2123992
246	0xbe378ec1	-0.1792555
247	0xbdb29a74	-0.08720866
248	0xbe890ccc	-0.26767576
249	0x3db17d41	0.086664684
250	0x3d11d4e6	0.035603426
251	0x3df33bbe	0.11876629
252	0xbd8ba1cc	-0.0681797
253	0x3d799b19	0.06093893
254	0x3e0a8557	0.13527428
255	0xbd8945eb	-0.06702789

rnn.bias_ih_l0 f4 [30]
0	0xbe1acdea	-0.15117612
1	0x3e30b362	0.17255929
2	0xbded347a	-0.11582275
3	0x3e69e92b	0.22842853
4	0xbea4cb68	-0.32186437
5	0xbe5277fa	-0.2055358
6	0xbdb39f54	-0.08770624
7	0x3d80ec4a	0.062950686
8	0xbdd2e9c0	-0.102984905
9	0xbe6d710d	-0.23187657
10	0xbe2fd4fa	-0.17171088
11	0x3d44353c	0.04790233
12	0xbdf99b07	-0.12187772
13	0xbe668795	-0.22512658
14	0xbe21f2c2	-0.15815261
15	0x3c324d9b	0.01088276
16	0xbe3fad32	-0.18718413
17	0x3e383d46	0.17992124
18	0x3deb4b51	0.11488975
19	0x3e2c968d	0.16854306
20	0xb91096c0	-0.00013789069
21	0xbdd11210	-0.10208523
22	0xbd3fc778	-0.046821088
23	0xbe1d1f00	-0.15343857
24	0xbc82eb24	-0.015981264
25	0xbeaad7ca	-0.3336776
26	0x3d90af42	0.07064678
27	0x3dd300dd	0.10302899
28	0xbe7c83bf	-0.24659632
29	0x3bd86615	0.006603966

rnn.bias_hh_l0 f4 [30]
0	0xbe1b2809	-0.15151991
1	0x3e2abe86	0.16674241
2	0xbddc8225	-0.107670106
3	0x3e6cee67	0.23137818
4	0xbea9a71a	-0.331353
5	0xbe67f5f4	-0.22652417
6	0xbdb299a1	-0.08720709
7	0x3d9ec652	0.0775267
8	0xbd9e0726	-0.07716207
9	0xbe747289	-0.23871817
10	0xbdb18287	-0.08667474
11	0x3d288a1e	0.041147344
12	0xbdf8d6dd	-0.12150357
13	0xbe679c80	-0.22618294
14	0xbe20af4e	-0.15691873
15	0x3d05826a	0.032595076
16	0xbe42bf3d	-0.19018264
17	0x3e3a2760	0.18179083
18	0x3df3895a	0.11891432
19	0x3e145c2b	0.14488284
20	0x3bfdd4d6	0.0077463193
21	0xbda5e20e	-0.08099757
22	0xbd307f99	-0.043090437
23	0xbe1ae1f4	-0.15125257
24	0xbc9c9b2f	-0.019116966
25	0xbea9ce4c	-0.33165205
26	0x3d9b3a76	0.0757951
27	0x3dc6fab3	0.09715786
28	0xbe3422d4	-0.17591411
29	0x3bdff56e	0.0068346774
