colagnn-master-Run-Epi/src/save/cola_gnn_epi.us_hhs.w-20.h-2.RNN.lam-1.0.epo-500.pt (torch, 49334 bytes, 32 tensors)

V f4 [15]
00000000: e3cb 733e 9f45 e93e 9896 bebe f13f af3e
00000010: d7aa 99be e6d7 e2bd a5ef d13e 04f5 2cbf
00000020: 44d0 83bf 47ce a2bf 9f20 03bf 23c6 96be
00000030: f440 41bf eec6 0a3d 8ee5 8f3f
0.23808245 0.4556093 -0.3722427 0.3422847 -0.30013153 -0.110763356 0.41003147 -0.67561364
-1.0297933 -1.2719201 -0.5122165 -0.2944804 -0.75489736 0.03388112 1.124193

W1 f4 [15, 30]
00000000: 8ef5 643f d94d dbbe f8dc 9c3f 1936 8bbf
00000010: ccac b13e d8f0 9bbe b95e 833f 51cf 403f
00000020: 3930 1bbe 2ea5 49bf 3dc0 b53e 0e86 58bf
00000030: 4859 083f c06f 8abd 5410 20bf c0bb c0be
00000040: f601 9abe c8ff fdbe 8803 d93e 3c83 3d3f
00000050: b985 06be 4a3b 7a3f 29c4 063f ffa4 eabe
00000060: acff 0e3f 8c2d c53e 17b0 043f e53d 66bf
00000070: cde1 013f 660b 083f a506 7e3f e96a d5be
00000080: 2003 a33f 3024 aebf 4f8c 943e 3580 fabd
00000090: 7cda b63f 3ea5 413f 100f 4bbe 1cc0 5dbf
000000a0: 679c e33e f237 4ebf cd9e 063f 74c4 503d
000000b0: 1ed7 bbbe 47b3 b8be 826f 97be 7719 35bf
000000c0: 7e46 903e f21a 1f3f 776e 7ebe 24d1 963f
000000d0: 2078 e23e 55bb c1be 9913 9d3e 5185 bc3e
000000e0: d5a0 943e 82e8 7abf a9b0 d23e b447 d13e
000000f0: 4c14 5b3f 68f3 e1be 2343 813f a217 82bf
00000100: 5311 353e 6f0b b9be ba83 733f a64f 213f
00000110: 40be dabc 954a 19bf e380 873e 8681 25bf
00000120: 237c fb3e 2d65 f33c 7355 17bf 6880 86be
00000130: 0a63 81be 0d33 d6be 8a18 c43e 2aa4 263f
00000140: 5fa7 07bd 8abc 473f 1a63 bf3e 1398 ccbe
00000150: bbe4 c73e 7cae a43e 093b ba3e 6699 3ebf
00000160: 771e bf3e bfa5 e83e e25a 98bd 5d50 f13e
00000170: 9fb7 3fbd 6109 13bb 90f3 553f 4904 023f
00000180: 2992 e13b 4ea8 28be e610 53bf 61eb 643e
00000190: db24 fbbe 9e38 0d3e a4ec efbe 6dca 38bf
000001a0: a0f0 863e 6051 073f 2500 46bf a73e e03e
000001b0: 5d87 06bf 5a40 44be b0bc 463f 5d68 25bd
000001c0: 6ac0 eabe 39d2 a83e 81da cabe 1ae1 c8be
000001d0: dd15 08bf 57dd b83d fd61 c4be 8b7f a7be
000001e0: d405 4b3f 83b5 c5be 9981 8d3f fb54 92bf
000001f0: 6c85 3c3e de08 82be 8d45 833f 4999 4d3f
00000200: 545e 86bd ba48 32bf f619 b63e 3cb4 3bbf
00000210: 02ce 243f 4964 e938 7a35 20bf 5ad0 60be
00000220: 2d9b 2fbe 6713 cebe eae0 803e 3148 273f
00000230: 96c0 913c 5c8a 693f b408 183f 63d3 abbe
00000240: 2a82 a83e e69e cc3e fc9b a93e 77d9 61bf
00000250: 0a4e db3e a58c 013f d803 f23e 33e7 a1be
00000260: e7e6 403f 6850 35bf 52df 103e e4bc a6be
00000270: e96f 3b3f 4ec2 ab3e 9912 bcbd 81e6 04bf
00000280: be69 883e 7252 c3be 79e4 c53e 8089 ebbd
00000290: 3ea0 cbbe 0056 a6be 06d1 f8bd 34bb 9bbe
000002a0: a858 ac3e 2258 f43e 3cd7 e43b d316 073f
000002b0: 90de 733e 15ab bebe 600b a63e a5cf 983e
000002c0: b601 c93e d858 23bf 4f34 8e3e aee2 963e
000002d0: 5403 bcbb 6adf dd3a be1f cebb e689 d53b
000002e0: 1983 463a 49a1 653b 40d3 00bc 55f5 a8bb
000002f0: dc84 62bb 906a 013c b624 03bb 8d0b c73b
00000300: 8f70 9cbb 3f3b d23a 043c 173c 327c d23a
00000310: 2d1a f5b9 e1f0 143b 5d57 0abb f579 00bc
00000320: 138f 623a c703 c2bb 6afb 93bb bd41 833b
00000330: eeb3 baba 4db8 9abb 8c69 76bb c042 ec3b
00000340: 6da9 00bb 4e39 d6ba 32c6 adbd 9909 f53e
00000350: 1c25 193e d8bc 1fbe 3e5c 7c3f d4be 2b3f
00000360: bd8e 363e 5c5c bbbe 3fec 85bf 5976 8c3e
00000370: fdb1 f3be 03d0 ad3e 5780 17bf 4209 41bf
00000380: 4b65 f53e ce00 123f e6ae 78bf c12a 9f3e
00000390: 6d60 46bf 9666 abbe c13a 293f 5ad6 30be
000003a0: 9aa4 0ebf df24 3e3f 592f 10bf 26d8 d6be
000003b0: c7b3 12bf f0f4 063e 07bd e7be 67f1 43be
000003c0: bd88 dbbd f1cd 163f c177 783d 3371 49be
000003d0: 8890 9f3f 3443 563f 3997 913d 19e0 69be
000003e0: 2490 92bf e436 933e 15f2 4abf 7f64 733e
000003f0: 5e1b 08bf bbe6 7cbf 5fc4 af3e 5832 5d3f
0.89437187 -0.4283283 1.2254934 -1.0875884 0.34702146 -0.30457187 1.0263282 0.7531634
-0.15155114 -0.7876767 0.3549823 -0.8457955 0.5326123 -0.06759596 -0.62524915 -0.37643242
-0.3007962 -0.49609208 0.42385507 0.7402837 -0.13136949 0.9774672 0.52643067 -0.45829007
0.55858874 0.38511312 0.5183119 -0.89938194 0.5073517 0.5314239 0.9922889 -0.41683128
1.2735329 -1.3604794 0.29013297 -0.12231485 1.4285426 0.75642765 -0.19829965 -0.8662126
0.44455263 -0.80554116 0.5258606 0.050968602 -0.3668756 -0.36074278 -0.2957726 -0.7074198
0.2817878 0.6215049 -0.24846826 1.1782575 0.44232273 -0.37838235 0.30679014 0.36820462
0.29028955 -0.9801103 0.41150406 0.40875018 0.85577846 -0.44131017 1.0098614 -1.0163462
0.1768239 -0.36141536 0.95122874 0.6301216 -0.026702046 -0.5987943 0.2646552 -0.6465076
0.49118146 0.02971133 -0.5911476 -0.2626984 -0.25270873 -0.41835824 0.38299972 0.65094244
-0.033118602 0.7802206 0.37380296 -0.39959773 0.39041695 0.3216437 0.36373165 -0.7445282
0.3732793 0.45438954 -0.074392095 0.47131625 -0.046805974 -0.002243601 0.8357477 0.5078779
0.0068838787 -0.16470453 -0.8244766 0.22355415 -0.49051556 0.13791129 -0.4686023 -0.7218388
0.26355457 0.52858543 -0.7734397 0.437978 -0.525503 -0.19165173 0.77631664 -0.04038273
-0.45849925 0.32972887 -0.3961983 -0.3923424 -0.5315836 0.09026592 -0.3835601 -0.32714495
0.7930577 -0.38615045 1.1055175 -1.1432184 0.18410271 -0.2539739 1.02556 0.8031202
-0.065609604 -0.6964222 0.35566682 -0.7332189 0.6437684 0.00011128985 -0.625816 -0.2195448
-0.17149039 -0.40249178 0.25171596 0.6534453 0.017792027 0.91226745 0.5938828 -0.33559713
0.32911807 0.3996498 0.3312682 -0.8822245 0.42832977 0.5060523 0.47268558 -0.31621704
0.7535233 -0.70825815 0.1414769 -0.32565987 0.73217636 0.3354668 -0.09183235 -0.5191422
0.26643175 -0.38148838 0.38650873 -0.115008354 -0.39770693 -0.32487488 -0.12149243 -0.30416262
0.3366139 0.4772349 0.0069836657 0.527692 0.2381537 -0.372399 0.32430553 0.2984592
0.39259118 -0.6380744 0.27774283 0.29469818 -0.0057377014 0.0016927544 -0.006290405 0.006516683
0.00075726357 0.003503876 -0.007862866 -0.005156199 -0.0034564054 0.007898942 -0.0020010895 0.006074375
-0.00477416 0.0016039385 0.009230617 0.0016058742 -0.00046749544 0.0022726583 -0.0021109201 -0.007841577
0.00086425355 -0.0059208605 -0.004516055 0.0040056393 -0.0014244297 -0.0047216774 -0.0037599532 0.0072101057
-0.0019632236 -0.0016343982 -0.084850684 0.47858885 0.14955562 -0.15599382 0.9857825 0.67088056
0.17827888 -0.36593902 -1.0462722 0.27434042 -0.47596732 0.33947763 -0.59180206 -0.7540475
0.47928843 0.5703248 -0.97141874 0.31087306 -0.77490884 -0.33476704 0.66105276 -0.17269269
-0.5571991 0.7427501 -0.56322247 -0.41961783 -0.5730557 0.13179374 -0.45261404 -0.19135056
-0.1071944 0.5890799 0.06066108 -0.19672088 1.2465982 0.83696294 0.071089216 -0.22839393
-1.1450238 0.28752816 -0.7927564 0.23768805 -0.5316676 -0.98789567 0.34329507 0.86404943

b1 f4 [15]
00000000: ce8b f0be b609 2dbf 3d0c dfbe 7274 a43e
00000010: 3e72 b4be 4bc6 e9be 7b33 063b b738 c43e
00000020: 2382 243f 9d11 7a3f ef8e c0bb 47a5 8c3d
00000030: e995 4f3f ccae 0a3f dcbb 11bf
-0.46981663 -0.6759294 -0.43564025 0.3212009 -0.3524341 -0.45659098 0.0020477462 0.3832452
0.6426107 0.97683126 -0.005876414 0.06867462 0.8108812 0.5417297 -0.56927276

W2 f4 [15, 30]
00000000: 7f72 783f 02f8 0ebf da77 933f 9007 a3bf
00000010: ebae 8d3d 69f3 9fbe 6e34 8d3f 5ffe 483f
00000020: a01a 5c3c 1ebb 47bf 9b98 b93e 8ca8 42bf
00000030: 0651 123f f78f d63d b8f4 fcbe da66 92be
00000040: 2a71 cdbd 6962 12bf a41b cc3e 1558 223f
00000050: 8c63 f7bd bebb 853f a18d 353f b99c 35be
00000060: 4815 b43e c14b e43e a0b4 d13e 4205 81bf
00000070: 89b7 403f 5f8f 033f c9cd 1e3f 48c2 3cbf
00000080: 429e 953f 27ee 90bf 21ed 51bd f646 09bd
00000090: 2ce4 9a3f 3165 483f a88e ee3d b3a9 43bf
000000a0: 2521 9c3e 0fa8 59bf f45e 6f3e bec1 0d3e
000000b0: 86f8 27bf 127c 61be d089 d8bd 05ab 7abf
000000c0: 9a17 ad3e 6f3d fd3e cc89 14bc 8955 953f
000000d0: 546f 503f 3a07 d7bd 910c af3e 3985 b33e
000000e0: f605 943e a681 3ebf d083 353f da19 763f
000000f0: 09df 653f de10 d9be 2b62 6d3f e048 8bbf
00000100: 022f 4c3e 11a6 84be 9214 883f 9a43 553f
00000110: a689 06bb 11b2 44bf f616 383e b814 2bbf
00000120: 7f12 003f 71a4 bb3d abb6 d7be ec96 bcbe
00000130: 1ed8 91bd c832 0dbf decc b93e dfd6 183f
00000140: b9f5 58be 37a8 843f 7e33 1a3f fb9f d5bd
00000150: 15c9 883e 25fe bf3e 3534 df3e b2d5 5cbf
00000160: 26a8 083f f5bf 283f 0ba4 68be 0a70 fe3e
00000170: cbec 9cbc b6ad 3b3c cb4b 1f3f 0e09 133f
00000180: 7686 033e 8b14 13be 831c 0bbf 8af0 a33e
00000190: 3a94 d3be 8d3f ff3d f0ca f9be 3ffb 30bf
000001a0: 3776 ba3e d1d2 063f 0bf2 3dbf 8c7d 833e
000001b0: d118 edbe 06cd fdbe 76d3 2e3f 883b 5dbc
000001c0: 2695 1ebe 2a71 0a3f 4a60 dabe 01d2 efbe
000001d0: a220 07bf 72cb 703c 8028 ccbe 880e 27be
000001e0: a391 533f 3c32 a0be d5ae 893f 9ec9 89bf
000001f0: 2672 023e 63d3 89be ff54 823f 485d 693f
00000200: 5aad 80bc 246a 31bf b9ac 8c3e 3aed 29bf
00000210: 8861 eb3e f1fe 0a3e e909 e2be ea5f 2bbe
00000220: 9ab0 dfbd 74a2 28bf 9b78 b73e 4e10 523f
00000230: 10f9 13be e150 813f 5c74 453f 6bbb 37bd
00000240: d92c ea3e d96f d33e 49b3 cb3e 9f7a 68bf
00000250: 4426 003f 59ac 283f c314 f63e 94e1 f8be
00000260: d40f 3b3f 8140 3bbf b44f 2c3d 8d1d a9bd
00000270: 0004 383f 79af 0b3f ba78 463c f6db 08bf
00000280: 6038 c13e d82e a4be 5ac5 4d3e 72a7 f1bd
00000290: 22a1 8ebe 43db 8cbe 9150 3bbe ad52 0cbf
000002a0: 7127 8b3e e582 773e 52b9 8a3d d40f 373f
000002b0: 1569 bd3e f348 48be d4b1 233e 4487 953e
000002c0: bd9f c23e c507 05bf 4186 0a3f f040 bc3e
000002d0: e245 dbbb 4e5e 683a bdc4 d6bb 9b13 c13b
000002e0: 6b21 e739 1b6f 673b eb0a e5bb 1032 98bb
000002f0: fb1e 3ebb 7023 e03b e65c 0dba 7e4c bf3b
00000300: e4b7 fabb 612b 2e3a 9cea 3a3c 79ba ba3a
00000310: 00cc b939 d506 1a3b f8b9 03bb 6f28 fbbb
00000320: c9c1 bc3d 28f6 bdbb 727d ccbb 4e1a 673b
00000330: e607 fcba e1f1 96bb cd65 88bb 1748 073c
00000340: 9f2b 04bb 227a a9ba c590 dcbd 6464 103f
00000350: fd3d e3bd 7fb4 a2bd d774 7e3f ce11 683f
00000360: 16d9 ab3e 5987 83bc 165e 43bf 2991 3d3e
00000370: 57f8 f2be b01f 6a3e ab25 19bf d832 3ebf
00000380: c1eb f43e 374f 1a3f 57e1 7bbf 4b94 893d
00000390: b0fc 17bf d80d 32bf fca8 5d3f 950d 97bd
000003a0: 7026 f3be f333 363f e2c0 28bf 242b 02bf
000003b0: 0868 38bf 98e1 183e 6b15 84bd adac d6be
000003c0: dcca 2abc 7c53 413f 07d7 cfbb 4ac1 1abe
000003d0: ccfb 7f3f 94a6 533f af74 53be 5a66 8cbe
000003e0: aa72 77bf df03 963e 4b94 6bbf 0004 953e
000003f0: 2793 e0be 511e 84bf baef e33e faec 403f
0.9704971 -0.5584718 1.1520951 -1.2736683 0.069181286 -0.31240395 1.1031625 0.7851314
0.013434082 -0.78019893 0.3624924 -0.7603843 0.5715488 0.10476678 -0.49405456 -0.28594095
-0.1003135 -0.5718141 0.39864838 0.6341565 -0.12079534 1.0447919 0.70919234 -0.17735566
0.35172486 0.44589046 0.40958118 -1.007973 0.7528005 0.5139064 0.62032753 -0.7373395
1.1688921 -1.1322678 -0.051251534 -0.03351494 1.2100883 0.78279406 0.11648303 -0.76430815
0.30494037 -0.8502206 0.23376065 0.13843438 -0.6561359 -0.22019985 -0.10573161 -0.97917205
0.3380707 0.49460933 -0.009066056 1.1666728 0.81419873 -0.10499425 0.34189275 0.35062578
0.28910798 -0.7441658 0.70904255 0.96133196 0.8979345 -0.4239568 0.9272792 -1.0881615
0.19939807 -0.2590795 1.0631278 0.83306277 -0.0020528822 -0.7683421 0.17977509 -0.6682849
0.5002822 0.09162224 -0.42131552 -0.36833894 -0.07121299 -0.5515561 0.36289114 0.5970287
-0.21187486 1.0363835 0.6023482 -0.104309045 0.26715913 0.37498584 0.43594518 -0.86263573
0.53381574 0.65917903 -0.22718827 0.49694854 -0.01915588 0.01145499 0.62225026 0.5743569
0.12844262 -0.14363305 -0.5434038 0.32019454 -0.41324025 0.12463293 -0.48787642 -0.6913337
0.36418316 0.5266543 -0.74197453 0.25681722 -0.46307996 -0.49570483 0.68291414 -0.013502963
-0.15486583 0.54078925 -0.42651588 -0.46839908 -0.5278417 0.014696943 -0.3987465 -0.16314137
0.826441 -0.31288326 1.075648 -1.0764654 0.12738857 -0.26919088 1.0182189 0.9115796
-0.01570766 -0.6930258 0.27475527 -0.66377604 0.45972848 0.13573815 -0.44148186 -0.16735807
-0.10922356 -0.65872884 0.35834202 0.8205613 -0.14450479 1.0102807 0.77130675 -0.04485647
0.4573734 0.4129627 0.3978522 -0.90812105 0.5005839 0.6588798 0.48062715 -0.48609602
0.73071027 -0.731453 0.0420682 -0.082575895 0.71881104 0.54564625 0.012113744 -0.53460634
0.37738323 -0.3206699 0.20094815 -0.11799516 -0.2785731 -0.27511033 -0.18292452 -0.54813653
0.2717853 0.24171026 0.06773628 0.71508527 0.36994234 -0.19559078 0.15985805 0.29204762
0.38012496 -0.5196498 0.54111105 0.36768293 -0.0066916803 0.000886415 -0.0065542147 0.0058922297
0.00044084652 0.0035314027 -0.006989827 -0.00464464 -0.0029010165 0.006840162 -0.0005392566 0.005837976
-0.007651316 0.0006644037 0.011408474 0.0014246247 0.00035437942 0.0023502607 -0.002009986 -0.007664732
0.09216649 -0.0057971664 -0.00624054 0.0035263482 -0.0019228428 -0.004606471 -0.004162526 0.008256934
-0.0020167602 -0.0012930075 -0.107698 0.56403184 -0.11095808 -0.07944583 0.99397033 0.9065217
0.3356406 -0.01605575 -0.7631544 0.18512405 -0.47455093 0.2286365 -0.598231 -0.7429633
0.47836116 0.6027712 -0.98390716 0.06717738 -0.59369946 -0.69552374 0.86585975 -0.073756374
-0.47490263 0.7117302 -0.65919316 -0.5084708 -0.7203374 0.14929807 -0.06449398 -0.41928616
-0.010424342 0.7551801 -0.006342772 -0.15112796 0.99993587 0.82676053 -0.2064998 -0.27421838
-0.9665934 0.29299828 -0.9202315 0.29104614 -0.43862268 -1.0321752 0.44518834 0.753616

Wb f4 [10, 10]
00000000: 34de 91bf c0dc bdbf 5e5d 163e 8136 263f
00000010: c0e7 493f 0af1 523f 1060 093f 341f 863f
00000020: f2cd 0cbf 7d62 f7be 39a0 91bf d03d bdbf
00000030: 1331 3b3e f57b 303f 7ae3 283f f71a 283f
00000040: 7c2c 1b3f ac76 6a3f 8d6a d1be 6141 cdbe
00000050: 1d77 91bf be33 bdbf c6fa 313e 77f3 1e3f
00000060: 5dda 383f e569 393f da4b 0a3f 0cc2 913f
00000070: 8c09 adbe 4a99 f6be 5af3 91bf b3ee bdbf
00000080: 80b7 ce3d 44d0 323f 6be0 283f 49d7 443f
00000090: 0a6d ef3e edf5 7b3f 81ac a2be d0dc adbe
000000a0: 2096 91bf 0cf9 bcbf e908 133e d231 263f
000000b0: c91b 283f a246 623f e066 1c3f 8336 9d3f
000000c0: 18a2 0abf 3b30 02bf e1ae 91bf b2ee bdbf
000000d0: c364 f73d 1b1f 383f 90bd 223f 1b30 393f
000000e0: ddba 133f 7b0b 9a3f 4335 e5be fd9d ffbe
000000f0: 16b6 91bf f441 bdbf 418b 103e 5fcd 323f
00000100: 890c 273f 4bf1 343f d9cb 0f3f c117 923f
00000110: 84ef c6be 49da 0bbf 96d3 91bf a287 bdbf
00000120: 373a 373e 7b7d 2d3f 73b9 2b3f f4b8 653f
00000130: a786 e73e 169f 733f 5093 a3be 983b 03bf
00000140: a76c 91bf 68e2 bdbf 25fb 023e 0ee8 1f3f
00000150: 5e80 3d3f 76ee 3e3f 4d73 ee3e 8ab7 803f
00000160: cdb5 0fbf 7645 e7be 77e8 91bf 1189 bdbf
00000170: 78fc 243e af25 3f3f ec3a 363f 04a6 423f
00000180: 8566 e93e dbf0 8f3f 3f91 1cbf 0d5b d1be
-1.1395936 -1.4832993 0.14684054 0.64926916 0.7886925 0.82399046 0.53662205 1.0478272
-0.5500175 -0.48317328 -1.1377021 -1.4784489 0.18280439 0.68939143 0.659721 0.65666145
0.6061475 0.9158733 -0.40901604 -0.40088943 -1.1364475 -1.4781415 0.17380819 0.6209025
0.72208196 0.7242721 0.5402199 1.1387343 -0.33796346 -0.48163825 -1.140239 -1.483847
0.100935936 0.6984904 0.65967435 0.76891 0.46762878 0.9842213 -0.31772235 -0.3395753
-1.137394 -1.4763503 0.14358868 0.6491977 0.65667397 0.8838903 0.61094475 1.2282261
-0.54153585 -0.50854844 -1.1381494 -1.4838469 0.12079766 0.71922463 0.635705 0.7233903
0.57707006 1.2034754 -0.44767198 -0.49925223 -1.1383693 -1.4785752 0.14115621 0.6984462
0.652535 0.70680684 0.5617042 1.1413499 -0.3885461 -0.5462995 -1.1392696 -1.4807017
0.17893301 0.67769593 0.6707985 0.8973534 0.4521992 0.9516462 -0.31948328 -0.5126281
-1.1361283 -1.4834719 0.12791117 0.6246346 0.74024 0.7458261 0.46572343 1.0056012
-0.5613678 -0.45170182 -1.1399068 -1.4807454 0.16111934 0.74666876 0.7118366 0.7603457
0.4558603 1.1245378 -0.6115913 -0.4088978

conv.weight f4 [10, 1, 20]
00000000: 88a4 52bd 8bb2 25bd 72a7 35bd 7037 59bd
00000010: 0618 5abd 387d 4ebd e2a9 05bd 3aac f7bc
00000020: a221 32bd 2481 f6bc aa95 14bd 7f5c d6bc
00000030: 48de 49bd d7cf 24bd ab94 28bd 3eca 3abd
00000040: 2b53 4dbd 1a0a 82bd 5bcc 65bd 76e5 9abd
00000050: 922c 7d31 c082 7eaf 0b77 cf31 4ee6 8db1
00000060: 567d ccaf 2060 6fb0 26c9 38b1 f13a 86b1
00000070: bad2 dfb0 1e9d ceb1 dc47 f530 5887 8daf
00000080: 489f b6b1 2afc 0632 32cd 28b2 5eb6 f1b1
00000090: 8012 3e32 e9d1 06b2 4543 4e32 2228 1db2
000000a0: 99d2 2dbb cd1d 2bbb 5b66 dbba ced0 efba
000000b0: f35d bfba fcdb 42ba c326 1dba 923b 4bba
000000c0: 6358 46ba b2e2 beb9 9384 0cba 2680 02ba
000000d0: 5db2 abba 0166 08bb b19b 23bb 571f 1ebb
000000e0: a804 88bb cac0 cabb 8681 99bb 0ed4 5ebb
000000f0: f28a fa31 cc68 bbb1 3474 36b2 3659 fdb1
00000100: fcdc fdb0 9a1b ab30 ccf4 44b2 98bf abb1
00000110: f64f d031 8f94 5f31 b0c7 1cb2 8b9f 28b2
00000120: 7f69 0ab2 0d57 48b2 7a46 89b2 5f64 9bb2
00000130: 8a11 a9b2 d282 5bb1 6c2f a332 a413 8732
00000140: 28de 39b0 b7df ebb2 031a f7b2 ba9b e632
00000150: bf08 d332 e2f8 15b2 6e69 97b3 51fd d631
00000160: f428 0234 54bc 69b3 912b f5b4 8e14 a135
00000170: 1375 e0b7 84ee d1b9 fd47 19ba a6bf 9eba
00000180: 3eae 30bb abe4 aebb e060 a5bb 1368 30bb
00000190: 9a3c 0832 28d0 1e32 02f1 2fb2 deaf c1b0
000001a0: f50f 7eb1 f472 7432 940c d5b0 18ae 07b2
000001b0: a49a 92b2 3a86 b632 cd48 c3b0 8748 b7b0
000001c0: 530d db31 1cfe fab1 06cd 81b2 f015 8731
000001d0: bc6d 6131 8120 36b2 9a04 fa30 85fd 0f32
000001e0: debe 5cb2 c8c4 2ab1 2552 1d32 eaf1 d631
000001f0: 6304 f0b0 e21c d9b1 96d2 0bb2 a2dd 27b1
00000200: 4597 2132 5056 0732 d822 1232 fee6 0730
00000210: f76c ae31 6f74 0932 6713 abb0 8f2b d430
00000220: f850 dbb0 3ec7 fc31 b9e8 4732 074f ff30
00000230: 9b7e f0bc bc4e cdbc e3aa edbc 30df c9bc
00000240: ccf8 08bd 024f 90bc 8c68 d3bc 165e c5bc
00000250: f32d 87bc 46fa 9bbc 6849 7ebc 6fa6 bcbc
00000260: 931e b1bc e383 cebc 03e5 00bd bf76 ebbc
00000270: 647a 55bd c1f2 5abd d57a 25bd 7724 10bd
00000280: 7d62 1cbd 0c35 c5bc 7a43 febc bed1 08bd
00000290: ea37 c1bc 4d4f e0bc bda5 d6bc 99d9 89bc
000002a0: eeae 89bc ca9c 6bbc 02e5 8fbc ce8e b4bc
000002b0: 08ee 02bd 8fa3 aebc 42ef 21bd aa83 f0bc
000002c0: 20f7 e9bc 6740 09bd a690 42bd 6789 29bd
000002d0: 70eb 16bd 5f5f b5bc e339 04bd 1db3 06bd
000002e0: 3c39 dbbc ab34 6dbc 097b 6cbc 74c9 59bc
000002f0: dab2 54bc bcba 87bc a10f 8fbc 0cea 9bbc
00000300: 37a5 aebc e8a4 d7bc f3b2 dfbc 620f 1bbd
00000310: 2a98 12bd 3574 4cbd 99c5 1fbd c5da 15bd
-0.05142644 -0.040453475 -0.04434914 -0.053031385 -0.053245567 -0.050412387 -0.032632716 -0.030233491
-0.043489106 -0.030090876 -0.036275543 -0.026167152 -0.04928425 -0.040237274 -0.041157406 -0.04560303
-0.050128143 -0.06349583 -0.05610309 -0.075632975 3.684168e-09 -2.3147617e-10 6.0380265e-09 -4.1298227e-09
-3.719644e-10 -8.7084295e-10 -2.6889864e-09 -3.906614e-09 -1.6285278e-09 -6.0132512e-09 1.784652e-09 -2.5743918e-10
-5.3150053e-09 7.857162e-09 -9.825543e-09 -7.034756e-09 1.1063662e-08 -7.847555e-09 1.20060735e-08 -9.147728e-09
-0.002652323 -0.0026110292 -0.0016738878 -0.0018296482 -0.0014600143 -0.0007433293 -0.00059948507 -0.0007752712
-0.0007566271 -0.00036408525 -0.0005360331 -0.0004978202 -0.0013099421 -0.0020812752 -0.0024964625 -0.0024127567
-0.0041509457 -0.006187533 -0.00468463 -0.0034000906 7.291754e-09 -5.4543303e-09 -1.0620216e-08 -7.373411e-09
-1.847098e-09 1.2449732e-09 -1.1464362e-08 -4.9985367e-09 6.0626872e-09 3.2535217e-09 -9.125799e-09 -9.815163e-09
-8.056644e-09 -1.1661325e-08 -1.5980948e-08 -1.8090018e-08 -1.9682165e-08 -3.1943057e-09 1.8997262e-08 1.5725e-08
-6.761831e-10 -2.7459334e-08 -2.8766413e-08 2.684634e-08 2.456761e-08 -8.729531e-09 -7.050663e-08 6.2570185e-09
1.2122092e-07 -5.4420823e-08 -4.5666505e-07 1.2001417e-06 -2.6757398e-05 -0.00040041294 -0.0005847214 -0.0012111559
-0.0026959325 -0.005337318 -0.005046949 -0.0026917502 7.930021e-09 9.24414e-09 -1.02411395e-08 -1.4092583e-09
-3.6970935e-09 1.4228807e-08 -1.5501365e-09 -7.897619e-09 -1.706696e-08 2.1248628e-08 -1.4208809e-09 -1.3335616e-09
6.3752537e-09 -7.3048465e-09 -1.511081e-08 3.931511e-09 3.2804186e-09 -1.0601185e-08 1.8191202e-09 8.381339e-09
-1.2849084e-08 -2.4850113e-09 9.15728e-09 6.255722e-09 -1.7463545e-09 -6.318815e-09 -8.138747e-09 -2.4427682e-09
9.405828e-09 7.877659e-09 8.506241e-09 4.9440974e-10 5.0764544e-09 8.0009235e-09 -1.2447402e-09 1.543741e-09
-1.595736e-09 7.3568165e-09 1.16362395e-08 1.8576153e-09 -0.029357245 -0.025061958 -0.02901215 -0.024642557
-0.033440396 -0.017615799 -0.025806688 -0.024092715 -0.016501402 -0.019040238 -0.015520431 -0.02302858
-0.021621024 -0.025209373 -0.031468403 -0.028743146 -0.052118674 -0.053454164 -0.040400345 -0.035191026
-0.038179863 -0.024073146 -0.031038035 -0.03340315 -0.023586232 -0.027381564 -0.026202077 -0.016827391
-0.016807046 -0.014380643 -0.017565254 -0.02204075 -0.031965286 -0.021318225 -0.039534815 -0.029359657
-0.028560221 -0.033508684 -0.04750123 -0.041390803 -0.036845624 -0.022140203 -0.032281768 -0.03288566
-0.02676069 -0.014477889 -0.014433631 -0.013292659 -0.012982095 -0.016568534 -0.017463507 -0.0190325
-0.021319015 -0.02632375 -0.02730701 -0.037856467 -0.035789646 -0.04991551 -0.039006803 -0.036585588

conv.bias f4 [10]
00000000: 9f10 b2be 1844 6630 6f24 cabd 8e21 2433
00000010: f9ae d2bd e1a3 3735 7ae2 89b9 6213 57be
00000020: ce36 3fbe 3a81 31be
-0.34778306 8.377028e-10 -0.098702304 3.8214743e-08 -0.1028728 6.841129e-07 -0.00026299414 -0.21003488
-0.1867325 -0.17334452

conv_long.weight f4 [10, 1, 10]
00000000: 4c91 a4b7 ed3a 9f35 486a 0ab5 34e2 4a34
00000010: 7ef9 2534 90ed 1734 a853 3f34 794c 5234
00000020: 37a2 dcb4 ce15 4436 6d5b 4a36 5780 3d36
00000030: 3af3 1536 85e7 6636 edb2 46b7 929f 20b7
00000040: e5f2 94b7 c399 90b6 c6d7 2936 7a97 5635
00000050: c191 07be ca1c 70be 6eee 1dbe b34e 2dbe
00000060: b6fd 48be 5e8d 09be 3ac6 14be 4e76 38be
00000070: 536a 1fbe 87cd 16be ab01 7432 d6e9 c3b1
00000080: 15ef 04b2 aaf2 a030 7bee f1b1 dd5d 9f31
00000090: c6ba c531 304f e831 1038 ad31 4224 20b1
000000a0: cf61 56bc f9c8 c4bc cb1d 7bbc 448f 34bc
000000b0: bab2 c6bb 26cd 06bc 0ba6 d7bc b0a9 49bc
000000c0: deb6 43bd cf3d e0bc 6c56 17bd ac0d 17bd
000000d0: 29d2 60bd 46ac 65bd 879d 01bd bf18 d6bc
000000e0: 7c52 95bd d478 8abd a99e d1bd d1f7 79bd
000000f0: 6f9a 9c32 7d60 3e33 6c6e d632 2197 3633
00000100: bcf5 0b33 9d79 0e33 9c78 b432 26fb e6b3
00000110: c927 23b4 9ae6 0bb4 6afd ce33 1200 c2b4
00000120: 0a38 cb35 da3c 2636 5324 06b7 1249 9db8
00000130: f761 97ba 519e 04bb 0025 d7bb cbfd c9bb
00000140: 1fe5 65be 5bc0 13be 9fc5 72be c770 05be
00000150: ebd3 7bbe b2d0 66be ae28 32be 0fa3 6fbe
00000160: f6dd 4abe ec5e 04be d17c cebd cb40 8bbd
00000170: 2f0c 07be ffae fdbd 3d56 d2bd 494b d9bd
00000180: 1a42 16be 9723 08be 4796 b1bd 2125 32be
-1.9617983e-05 1.1863573e-06 -5.1563666e-07 1.8895008e-07 1.5457587e-07 1.4149396e-07 1.7818695e-07 1.9585595e-07
-4.109622e-07 2.9218968e-06 3.0153562e-06 2.8237898e-06 2.2344307e-06 3.4407433e-06 -1.1843379e-05 -9.573896e-06
-1.7756081e-05 -4.3094346e-06 2.530856e-06 7.994164e-07 -0.13239194 -0.23448482 -0.15422985 -0.16924553
-0.19628033 -0.13432834 -0.14528742 -0.1801388 -0.15567903 -0.1472684 1.42030485e-08 -5.701831e-09
-7.737772e-09 1.1710501e-09 -7.0411352e-09 4.63818e-09 5.7546883e-09 6.7610912e-09 5.0413362e-09 -2.3303675e-09
-0.013084843 -0.024021612 -0.015326927 -0.011020485 -0.0060637863 -0.008227622 -0.026324293 -0.012308523
-0.047781818 -0.027373223 -0.036947653 -0.036878273 -0.054887924 -0.056072496 -0.03164437 -0.026134847
-0.07291123 -0.067613274 -0.1023534 -0.06102735 1.8231018e-08 4.4325578e-08 2.4963093e-08 4.2512628e-08
3.2586954e-08 3.3172558e-08 2.1009605e-08 -1.0755893e-07 -1.5195032e-07 -1.3029276e-07 9.638718e-08 -3.6135367e-07
1.5140988e-06 2.4771348e-06 -7.99548e-06 -7.499954e-05 -0.0011549582 -0.0020235965 -0.00656569 -0.0061642877
-0.22450684 -0.14428847 -0.23708199 -0.13031302 -0.24592559 -0.22540548 -0.1739833 -0.23402046
-0.19811234 -0.12926835 -0.100824006 -0.06799468 -0.13188241 -0.123868935 -0.10270355 -0.10610063
-0.14673653 -0.13294826 -0.08671241 -0.17396976

conv_long.bias f4 [10]
00000000: d81c 80be 992a c3bd a44f 8bbe c5d8 92bb
00000010: 70e9 abbe 452f 84be c13a b1bc 5cb7 0cbe
00000020: 10a8 57be d96f 44be
-0.25022006 -0.09529609 -0.27209198 -0.0044814073 -0.33576536 -0.25817314 -0.021634461 -0.13741821
-0.21060205 -0.19183291

conv1.weight f4 [30, 30]
00000000: d901 58b2 34c7 1e31 c25c 71af 9e8a 06b2
00000010: 2880 b130 95a5 8dbd 52af 80b2 dbe5 44bd
00000020: ce7e a8b1 2a82 ecbd da7c 8a30 1b82 dd31
00000030: 8501 69bd 8cbc 2db9 7125 68bb c893 22be
00000040: cead c7b8 789a 38be d97a a8b1 81ab 4c30
00000050: 3bed 00b0 cfd3 9831 91fb 0731 0f5e 13be
00000060: 44dd 84bc bad5 5631 d42c 44be 4d5c 2532
00000070: 415d a3bd 6b1c 6cbe 1d96 d2af 9011 b3b0
00000080: 20d7 bb30 c059 abb1 b6b4 44b1 80e6 05b1
00000090: 28a7 002f 45ee d9b0 b2af 80b4 7ad5 adb2
000000a0: 5a3c 8ab1 3675 97b4 60c8 1731 7423 02b1
000000b0: 64d0 0931 36fa 78b0 f60a 1cb0 7d41 a7b0
000000c0: ad35 8db1 2845 ebb0 fe57 e82f 4354 de31
000000d0: 222b 2430 8380 4f33 a3a8 c434 5b60 26b0
000000e0: 1f06 32b3 87ca 9335 7d5f 57b3 0f89 d3b0
000000f0: 4be4 1930 8ce5 c431 b578 56b0 4f2b dab0
00000100: e23f 66b1 a60e 9d2f c579 8530 6083 7831
00000110: 9a57 7bb4 a67e e032 1472 06b1 46c9 53b4
00000120: 6189 1a32 c120 8c31 35b9 8e31 c0e5 402d
00000130: 63c6 c0af 0f5f da31 f024 91b1 5f98 0cb1
00000140: 7228 3330 f8c9 2532 42e9 dab0 5c55 4133
00000150: 90a0 e334 cf5f 75b0 fd8f 7fb3 acb1 3936
00000160: 4002 33b3 1092 68b1 b64a f6b1 b3bc 6aaf
00000170: bd2b f1af 35b3 6b30 b82d d432 cca4 dd30
00000180: 1b59 19b2 8047 472d d2c4 e630 e4b0 9fb0
00000190: 4485 9c30 ac57 e7af a438 0631 3058 2730
000001a0: 2ac7 f630 2676 c830 3831 9dae 382c 872f
000001b0: 628a e2b0 e084 dab0 7075 d42e 80bf 94ad
000001c0: e7b7 a7b0 0025 ef30 b41a 77b0 9dc1 3e30
000001d0: 5b54 fd30 3210 98b0 42a1 0531 ca53 1ab0
000001e0: 50dd 19b0 fc4f 0c31 e4fb e530 8c40 bf31
000001f0: 9457 0930 d080 9cb1 7783 2530 38e6 de30
00000200: 753c c1b2 7e3b 2833 cece deb1 d21b 6e33
00000210: e990 ad32 d0c3 2830 f223 b3b0 d8c4 8431
00000220: 4097 4231 1138 e332 7d8b e7b1 a7f3 4d30
00000230: 6cd6 24af d8f4 9ab1 3690 bcb0 0c75 a0b1
00000240: 0de2 06b3 264f b6b0 58a4 2333 6328 03b4
00000250: 4253 6a33 f65e acb0 9980 fdaf 8bbd 9530
00000260: 3816 a32f fdf1 acb1 40e5 602f 704d 65b1
00000270: 0833 efb0 5224 39af 7b72 18b3 1220 e932
00000280: e2d7 13b2 96e5 5933 8bc7 8732 c43e b8b0
00000290: 004c a12e 3479 fcaf b8b2 5eb0 6eda 6a32
000002a0: d8e9 de30 8ea8 4530 5eb3 5bb0 e253 b531
000002b0: 5ac3 8f30 ca12 0432 00c5 e4af 1521 3d30
000002c0: 8c7f e432 9659 bcb2 02bd 1833 27c1 d330
000002d0: 2d7a 5731 a9df 46b1 e06c 10b1 54f5 4832
000002e0: 1c22 292f 6ce6 e5bd 4203 28b2 7620 00be
000002f0: 9b53 12b3 d095 e7bd e0a0 9630 3a8e 1b33
00000300: 5d03 05be 41b6 3dbb 4b19 edbb c2a1 41be
00000310: 1719 edb9 5a62 3cbe 5fc0 96b1 3abd c930
00000320: c65f 0bb1 883f e3b1 40a2 98b1 9d90 11be
00000330: 774b 8bbc 3c04 9bb1 2f30 8abe c8d2 2cb4
00000340: deda 1bbe 8540 a6be 3c60 f4af aa00 80b1
00000350: 2ae8 a931 aa69 5931 801a 3d30 a146 34bd
00000360: b8f2 cdb0 30ed f6bc 68b8 edb4 0ead 70bd
00000370: 6199 a8b2 09dd 7fb4 27d1 c8bc ec1a 88b9
00000380: 4328 0bbb 5270 aabd ecac a1b7 2b9f 61be
00000390: a63c cb31 0649 21b1 5bbe 1d31 cf4e fe30
000003a0: 7ae0 df31 5c95 20be 07c0 22bc 0801 0232
000003b0: 5b1f babd c1a8 3e36 2c89 2fbd b7a5 d5bd
000003c0: 1971 7d31 acf3 0e30 70a9 8731 55ab ff30
000003d0: 7c8b 6b31 3ae1 5cbd faf7 aab0 fae1 eebc
000003e0: 377e 80b4 6e37 26bd f030 4cb2 252b e5b4
000003f0: b5b8 d3bc 85ef a7b9 4b58 1dbb d44a 35be
-1.2573275e-08 2.310526e-09 -2.1951777e-10 -7.8313445e-09 1.2914869e-09 -0.06916348 -1.4980888e-08 -0.04807077
-4.9038595e-09 -0.11548264 1.0076306e-09 6.446738e-09 -0.056886215 -0.00016568805 -0.0035422707 -0.15876687
-9.521433e-05 -0.18027675 -4.9034097e-09 7.445849e-10 -4.6903254e-10 4.447862e-09 1.9788085e-09 -0.1439135
-0.016218789 3.1262588e-09 -0.19157726 9.625251e-09 -0.07976771 -0.23057716 -3.830544e-10 -1.3028956e-09
1.3667183e-09 -4.9869584e-09 -2.8624476e-09 -1.9485071e-09 1.1700918e-10 -1.5856548e-09 -2.3969693e-07 -2.0236929e-08
-4.02319e-09 -2.8211224e-07 2.2087292e-09 -1.8937643e-09 2.005458e-09 -9.0577446e-10 -5.6768046e-10 -1.2169462e-09
-4.1097423e-09 -1.7118156e-09 4.2263076e-10 6.47063e-09 5.972415e-10 4.8312824e-08 3.6630544e-07 -6.052738e-10
-4.144942e-08 1.1011297e-06 -5.0145434e-08 -1.5391225e-09 5.59855e-10 5.7304472e-09 -7.802428e-10 -1.5873897e-09
-3.3505718e-09 2.8568542e-10 9.711633e-10 3.6163428e-09 -2.3408066e-07 2.6134625e-08 -1.9564412e-09 -1.9724129e-07
8.995216e-09 4.07826e-09 4.1537995e-09 1.0964951e-11 -3.506556e-10 6.355442e-09 -4.2242547e-09 -2.0459294e-09
6.5177297e-10 9.650186e-09 -1.5927883e-09 4.5013948e-08 4.239887e-07 -8.9266633e-10 -5.950277e-08 2.7670567e-06
-4.167873e-08 -3.384347e-09 -7.168036e-09 -2.1349215e-10 -4.3868723e-10 8.574717e-10 2.4700839e-08 1.6126704e-09
-8.926032e-09 1.13277165e-11 1.6790642e-09 -1.1619048e-09 1.138837e-09 -4.208095e-10 1.9531763e-09 6.087957e-10
1.7955462e-09 1.4585495e-09 -7.1482764e-11 2.4587776e-10 -1.6482995e-09 -1.5899353e-09 9.661505e-11 -1.6910695e-11
-1.2203117e-09 1.7400055e-09 -8.9896024e-10 6.939674e-10 1.8432148e-09 -1.1064059e-09 1.9445712e-09 -5.6143945e-10
-5.597558e-10 2.0418147e-09 1.6733535e-09 5.5661697e-09 4.9964766e-10 -4.554842e-09 6.0213473e-10 1.6218058e-09
-2.249565e-08 3.9169656e-08 -6.4845613e-09 5.5438996e-08 2.0205748e-08 6.139631e-10 -1.303418e-09 3.864084e-09
2.8316691e-09 2.6451774e-08 -6.738843e-09 7.4924816e-10 -1.4991891e-10 -4.5098254e-09 -1.3719788e-09 -4.6699196e-09
-3.14049e-08 -1.3264738e-09 3.8100865e-08 -1.2215018e-07 5.4558093e-08 -1.2541637e-09 -4.6111806e-10 1.0895048e-09
2.9665315e-10 -5.0333697e-09 2.0454127e-10 -3.3367904e-09 -1.7404043e-09 -1.6838556e-10 -3.5494377e-08 2.7139354e-08
-8.605612e-09 5.0733057e-08 1.580681e-08 -1.3405601e-09 7.334933e-11 -4.5924653e-10 -8.1017104e-10 1.3670258e-08
1.6219088e-09 7.1907713e-10 -7.992663e-10 5.2773297e-09 1.0460142e-09 7.687683e-09 -4.1612935e-10 6.880481e-10
2.6600695e-08 -2.192682e-08 3.556216e-08 1.5407168e-09 3.1356067e-09 -2.8939928e-09 -2.1016646e-09 1.1697313e-08
1.5382579e-10 -0.1122559 -9.779628e-09 -0.12512383 -3.4069313e-08 -0.11307871 1.095966e-09 3.6218104e-08
-0.12989564 -0.0028947743 -0.007235681 -0.18909362 -0.00045222856 -0.18396893 -4.3874446e-09 1.4678456e-09
-2.0281603e-09 -6.613792e-09 -4.442228e-09 -0.14215322 -0.017003758 -4.511575e-09 -0.26989886 -1.609543e-07
-0.1522021 -0.324711 -4.445172e-10 -3.725366e-09 4.9449413e-09 3.163772e-09 6.879546e-10 -0.04401267
-1.4984698e-09 -0.030142397 -4.4278863e-07 -0.058758788 -1.9627523e-08 -2.3829138e-07 -0.024513794 -0.0002596
-0.0021233715 -0.08322205 -1.9273219e-05 -0.22033374 5.9149725e-09 -2.3470093e-09 2.2954711e-09 1.8503331e-09
6.5156742e-09 -0.15681976 -0.009933478 7.56723e-09 -0.09088012 2.8410434e-06 -0.042855427 -0.10431998
3.6880634e-09 5.200558e-10 3.94828e-09 1.8602387e-09 3.4276288e-09 -0.05392573 -1.2439607e-09 -0.029160488
-2.393369e-07 -0.040580206 -1.188549e-08 -4.2685966e-07 -0.025844911 -0.00032031178 -0.0024008926 -0.17704326

conv1.bias f4 [30]
00000000: 77cc 64bb 9172 f2b0 39e3 0bb2 d78a e9b9
00000010: d74a 1cb3 ae4f 62be 1449 9bb9 122d 5bbe
00000020: dd7a 3dbd d9a4 bebd 7441 bab8 27c3 5ebd
00000030: 0b6a dfbd ff9d 02bd dff0 29bd c532 aabe
00000040: 6a34 45bd b8e1 c7be de4b f4b1 68f2 a038
00000050: 23af 2132 829a 3031 8251 2dbc f955 51be
00000060: 6de5 5abd c898 c9b8 4766 70be f4d8 acbd
00000070: 7531 05be 32e2 a3be
-0.003491191 -1.7640379e-09 -8.142529e-09 -0.00044544667 -3.6389647e-08 -0.22100708 -0.0002961835 -0.21403912
-0.04625975 -0.09308786 -8.881363e-05 -0.05438533 -0.10908898 -0.031888958 -0.04148948 -0.3324186
-0.04814569 -0.39039397 -7.1099597e-09 7.674546e-05 9.411255e-09 2.5699198e-09 -0.010578515 -0.20442952
-0.053441454 -9.6128846e-05 -0.23476516 -0.08439818 -0.13007148 -0.3200851

conv2.weight f4 [30, 10]
00000000: d918 5530 3545 343c ed7f 90b9 b05b 0eb0
00000010: 73ed af37 0afa 2839 8a75 c133 f01d 3530
00000020: 2fe7 b9b1 9267 78b0 d0bf bdb0 bc16 8531
00000030: 767c 3a31 697d a3b1 08c9 8bb1 7e0e beb1
00000040: feb6 b2af 052b 4eb0 ca7c 0431 02bc 9b31
00000050: 3890 c2af fb69 9431 2a7b 5631 6a57 cfaf
00000060: 7c3a 8ab1 002c 34ad d8a9 c8b0 0c09 8faf
00000070: b05f ef2f 20ca a6af 86cd 2130 e7ea fc3c
00000080: eeb4 5c39 5e7c 70ba cb3a 2237 3e85 383b
00000090: d688 a930 14d6 1e35 e691 3e32 5f3b fabb
000000a0: 05b2 fc2f 2ebe 363a b68d f333 b0bb 1d36
000000b0: 2df4 69b3 bc19 8bb6 246a 17b0 7f2b 1b33
000000c0: f8d2 9bb1 33b5 dab8 80d5 52ae 16dd e8bd
000000d0: 9c5c 88bd d572 b8b0 0865 15bd 45d7 f8bc
000000e0: 2010 a02f 3cee 0f30 5b5d 2fbc 2a06 28b1
000000f0: aeda 38b0 6c2a 78b8 e0f0 28ba 9504 9cb0
00000100: 3f88 ce38 73c9 89bb 3ab9 8233 064c 3f30
00000110: b251 b2b1 e520 6230 3a24 9a31 8fab d3bd
00000120: ee9e 1dbe 147b c2af f08e e8bd 708c 1abe
00000130: 1ec2 ac30 0e88 4f30 bd90 14bd c8ec 5032
00000140: 7e9e c1b0 d9d2 c03d 5632 973c 28cd 7abc
00000150: 1a9b 243c 6adf 023d 5c20 6a30 0b63 82ba
00000160: 8fea 8232 fa90 92bd c333 3631 c4df 86be
00000170: 527f d9be 3235 e5ba 5ef8 9fbd e213 b7be
00000180: c7f2 5332 e07e d1b4 4711 1fbd b987 69bb
00000190: c04d 4dae 8951 1d3d 529e 493c a8a6 7fbc
000001a0: 54c1 3b3b 4bff 473c c316 e5b0 f114 ccb9
000001b0: 8ce2 00b2 ee1e aabd 6fac 2231 9aa9 9ab2
000001c0: f86e 90af 9960 13b2 eeb0 9531 3fa6 6a31
000001d0: 2e1c dc30 458a fdb1 9b41 5c31 d6a6 4db2
000001e0: 988c a830 5767 91be 5028 8bbd 455c 9eb8
000001f0: 9b5e 18be 1f71 b5be 1e99 fa31 352c 17b3
00000200: c95a 35be 8710 52ba 6411 bfaf 6460 a8b1
00000210: 0519 a5b1 788b bc30 6029 55b1 025d d9b1
00000220: 5abe 30b1 aea4 c4b0 ee42 9431 42ad 50b0
00000230: 8cfd 1131 2678 beb6 bb8e b333 d210 beb0
00000240: 98c9 af32 1e25 d1b4 6425 1eb0 4592 e530
00000250: c7d0 a530 daa4 6330 6115 eb31 6498 23be
00000260: c517 97bd 4320 9f31 5b40 dabd f322 7cbe
00000270: c0be 66b0 7257 82b1 6bbc a1bc e215 5f32
00000280: 5919 cd31 05af 91be 4c63 17bd e6d2 2f32
00000290: 78d6 18bd 60fd 66be 46ff 02b1 3a01 1b31
000002a0: 8475 88bb faa9 b3b0 711f 0632 ad68 87be
000002b0: 95d9 92bd 4bfb 1db2 b6a2 d2bd fa13 d4bd
000002c0: feaa 15b1 ae79 e5b1 e3c5 99bd 5284 a0b2
000002d0: 2f3a 7730 b7b5 923a 133a 4434 ff0c 3536
000002e0: aec1 54b3 2fe5 0035 b391 2eb0 985f 1ab2
000002f0: ea12 df30 a5cf 05ba d02f b4b2 71c1 a9b9
00000300: b448 1c33 7e5b 902f 6474 ce30 cad0 0032
00000310: 0dfb 6130 d425 20b0 52b8 2f31 e485 ddaf
00000320: 301a 8930 6545 8432 bbf6 df30 f956 0831
00000330: 1451 ba30 7818 0832 02c5 70b1 a6fc 0d30
00000340: fa6d ab30 33b5 ecb0 bc09 47af 274f 7a3a
00000350: 4671 0534 1e0c 1c36 1004 e3b3 3803 67b6
00000360: b867 dcb0 c787 22b3 e843 9231 3528 4bb8
00000370: 7065 0d2f b4ac 0f35 f0b5 9b2e c9f3 07b0
00000380: 85df 10b2 c20f d232 3f92 88b0 3426 9aaf
00000390: bf0c c7af 5604 e52f 5fce 9231 7ffd dcbd
000003a0: 6c0d 2dbe a3c6 06bc 968a 4abe a8a8 93be
000003b0: a2ec 7a31 a270 20b7 a7b5 80bd 2e4e 6abc
000003c0: 9389 8e31 c9ab 8abe 8142 a1be b10e b3bb
000003d0: 6f2c f3bd 14fe 0abf f127 cf32 d2f3 3534
000003e0: 99e6 b7be 1001 14bd 4012 fe2d 7e74 3b3c
000003f0: 89d8 d637 42d5 8330 26d4 92b5 39e8 0939
7.752426e-10 0.011002828 -0.00027561132 -5.1789595e-10 2.0972197e-05 0.00016114875 9.008643e-08 6.588996e-10
-5.410491e-09 -9.0369057e-10 -1.3806076e-09 3.873394e-09 2.713731e-09 -4.758182e-09 -4.068287e-09 -5.5313754e-09
-3.2508035e-10 -7.50035e-10 1.9279462e-09 4.5324677e-09 -3.5390868e-10 4.3194155e-09 3.121111e-09 -3.7715192e-10
-4.0229775e-09 -1.0241585e-11 -1.4600188e-09 -2.6017977e-10 4.3541837e-10 -3.0338843e-10 5.8863525e-10 0.030873729
0.00021048237 -0.00091738056 9.669641e-06 0.002815559 1.233526e-09 5.917111e-07 1.1092629e-08 -0.007636472
4.5965023e-10 0.0006971088 1.1341346e-07 2.3504072e-06 -5.4471617e-08 -4.1455187e-06 -5.5084315e-10 3.612831e-08
-4.535078e-09 -0.00010428801 -4.7938098e-11 -0.11370294 -0.06658289 -1.3420399e-09 -0.036473304 -0.030376086
2.9115288e-10 5.236165e-10 -0.01070341 -2.4450721e-09 -6.724957e-10 -5.9167316e-05 -0.00064445846 -1.1351796e-09
9.848223e-05 -0.004204923 6.087289e-08 6.959343e-10 -5.1897695e-09 8.2265067e-10 4.4861084e-09 -0.103354566
-0.15392658 -3.5375847e-10 -0.11355388 -0.15092635 1.2569819e-09 7.5499507e-10 -0.036270846 1.2161031e-08
-1.4087644e-09 0.09415216 0.01845662 -0.015307702 0.010046745 0.031951346 8.517469e-10 -0.000994773
1.5240657e-08 -0.07156558 2.6513909e-09 -0.26342595 -0.4247995 -0.0017487167 -0.07811044 -0.35757357
1.2337018e-08 -3.9021597e-07 -0.038834836 -0.0035633876 -4.668066e-11 0.038407836 0.012305813 -0.015603699
0.0028649168 0.012206863 -1.6668412e-09 -0.00038925515 -7.502091e-09 -0.083066806 2.367212e-09 -1.8005085e-08
-2.6272295e-10 -8.57849e-09 4.3565853e-09 3.4145982e-09 1.6015116e-09 -7.3789885e-09 3.2051506e-09 -1.1970505e-08
1.2263568e-09 -0.28399155 -0.067947984 -7.551214e-05 -0.14879839 -0.35437867 7.293365e-09 -3.5197633e-08
-0.17710413 -0.0008013327 -3.4755054e-10 -4.900402e-09 -4.8049764e-09 1.371844e-09 -3.1019098e-09 -6.326105e-09
-2.5719573e-09 -1.4307682e-09 4.314976e-09 -7.5916173e-10 2.1244402e-09 -5.6764284e-06 8.3612996e-08 -1.38291e-09
2.0464356e-08 -3.895629e-07 -5.75332e-10 1.6703515e-09 1.2064668e-09 8.2816387e-10 6.8418307e-09 -0.15976101
-0.073775806 4.6311768e-09 -0.10656806 -0.24622707 -8.3944585e-10 -3.7934393e-09 -0.019743165 1.2985284e-08
5.969167e-09 -0.28453842 -0.03695993 1.0234293e-08 -0.03731391 -0.22557592 -1.9062596e-09 2.2556166e-09
-0.0041643996 -1.3072274e-09 7.8069755e-09 -0.2644705 -0.07170407 -9.19574e-09 -0.10284941 -0.10355373
-2.1779551e-09 -6.6786106e-09 -0.07508447 -1.8686624e-08 8.994076e-10 0.0011193071 1.827505e-07 2.6978666e-06
-4.9536247e-08 4.801722e-07 -6.350788e-10 -8.985715e-09 1.6230761e-09 -0.0005104489 -2.09765e-08 -0.00032378317
3.6387704e-08 2.6258457e-10 1.5021553e-09 7.498054e-09 8.221129e-10 -5.826142e-10 2.5570626e-09 -4.02948e-10
9.975505e-10 1.539838e-08 1.629551e-09 1.9840043e-09 1.3556325e-09 7.921805e-09 -3.5036583e-09 5.1654536e-10
1.2473145e-09 -1.722276e-09 -1.8102403e-10 0.0009548538 1.2427799e-07 2.3252865e-06 -1.057125e-07 -3.4423556e-06
-1.6036585e-09 -3.7842053e-08 4.2568793e-09 -4.8436417e-05 1.2859913e-10 5.352297e-07 7.0809025e-11 -4.9459153e-10
-8.432726e-09 2.4454383e-08 -9.936868e-10 -2.8039582e-10 -3.6206946e-10 4.1657938e-10 4.272621e-09 -0.10790538
-0.16899651 -0.00822607 -0.19779429 -0.28839612 3.6514298e-09 -9.5629675e-06 -0.062846474 -0.014300866
4.1483843e-09 -0.27084187 -0.3149605 -0.005464398 -0.118737094 -0.5429394 2.4116135e-08 1.694564e-07
-0.3591812 -0.036133826 2.8884561e-11 0.011441348 2.561162e-05 9.592116e-10 -1.0939591e-06 0.00013151848

conv2.bias f4 [10]
00000000: c6ae 18bf 7eb6 fcbd b80a febd b09c cfbd
00000010: 8b7c f5bd 7fec 9bbd d8d6 17bc d497 54bd
00000020: 0210 86bd 39db 1fbe
-0.59641683 -0.12339495 -0.12404388 -0.10137308 -0.11986645 -0.076134674 -0.009267531 -0.051902607
-0.06546022 -0.1561097

rnn.weight_ih_l0 f4 [30, 1]
00000000: a306 2cbf 4812 3a3e 115e 97be 8999 8a3e
00000010: c20b 2a3f a926 af3e 6ff4 04bf a615 70be
00000020: 5143 1f3e 7a03 b03e 9e99 8dbe 697f 423e
00000030: e5cd 15bf a06f 28be e11d aa3f 5238 d03e
00000040: 2082 acbe 91f6 e53e 5467 c4be 8123 99be
00000050: a1ef c93f c5db fbbe 0aac a5bf 5e25 4d3e
00000060: 94bd 3abf e75b 27be 3b74 f9be e017 283f
00000070: 7425 b7be f0cb a8bb
-0.67197627 0.18171036 -0.29563954 0.27070263 0.6642419 0.34209183 -0.51935476 -0.23445758
0.15553023 0.34377652 -0.27656263 0.18993916 -0.58517295 -0.16448832 1.3290368 0.4066797
-0.33693027 0.44914678 -0.38360083 -0.299099 1.5776254 -0.49191108 -1.2943127 0.20033786
-0.72945523 -0.16343652 -0.4872149 0.6566143 -0.35770762 -0.0051512644

rnn.weight_hh_l0 f4 [30, 30]
00000000: ec8d 1cbf 5c6d 95be 0b36 f63d 8d2f 9a3d
00000010: a004 6fbf 6a84 c03b 8baf 0abf 6212 313e
00000020: c921 0e3f c679 1c3f 0807 77be 0f59 7cbd
00000030: 3255 bc3e 34b6 5b3f fb80 f5bd 90fb 173e
00000040: 56d1 353f 864b 39bf dc82 a5bc ec28 9dbd
00000050: 291f 00bf 4294 0dbe 74b0 073f 9675 80be
00000060: 920a 213e 9e05 29bf 1e09 3d3f c485 113f
00000070: 26c4 873d 9d5b e9be c290 cfbe 442d 2dbf
00000080: ba0d 82be 8a94 923f 0789 b4bc 2840 f8be
00000090: d682 6bbf e76b fbbe 19ab c03e d833 2c3f
000000a0: c054 f23e 37bb fd3e e88a ec3e 5a3e 8fbe
000000b0: 105b 34bf 50dd 19bf 307e 23be 332a de3e
000000c0: ec22 6e3e ad9e c9be b87b 49be 17b4 68bf
000000d0: eed6 1c3e aaa7 473e e0f6 2a3e 9800 393e
000000e0: e3c2 b93e 2130 813f 85a3 1abf badf b8be
000000f0: a5db 8e3d 4e31 c8be 32b5 313d 124b 34bf
00000100: a059 55bf 8718 c93e 4e90 2e3e f9bc 723e
00000110: 26ee 623e d64b 523e ed04 033e 4caa 45be
00000120: 37b2 7b3d 33f5 183f f18a 263f 1b3d 84be
00000130: 8c48 3b3f 9c2f 6ebf 1369 2d3e c91c ea3e
00000140: 4db3 08bd bff6 973c add2 753e 40fd 32be
00000150: 9532 a33e 8ef9 1ebf ef0b 743f 2c12 633e
00000160: 07aa cd3e 38c7 c7be 8fb6 65bc d5fa e23e
00000170: 0d57 383d d7e6 f73d eca2 c63f b07d 57be
00000180: aa5d 193f bd9d 483c be07 88bf 2961 7dbe
00000190: b60a 00bc eb66 263f a6d8 96bf d4c9 90bf
000001a0: f0f7 8f3e 62bc 1a3e 43f0 78bf 473b 8d3e
000001b0: e229 24bf 62c0 a7be 0f69 8d3f d158 a1be
000001c0: 18f3 7abf a026 83bd 7614 04bf d6ef be3e
000001d0: 0010 3dbf cc02 84bd ad69 c2be df78 923e
000001e0: 28ae 54be 7781 453e 222d 80be 9fd2 fbbd
000001f0: 0524 65be 8574 173f 05e0 1bbe 3e9f 01bf
00000200: c3f8 613d 13f5 36be 3a32 ffbe 19b2 33be
00000210: f5a7 113f 23de b13e dee1 36be cc51 103f
00000220: db5b ea3e cae7 293f dcf3 85bf f72c d2be
00000230: 1d7f b2bd 96eb a0bb cb94 0b3f 8809 773e
00000240: 898e 85bf 23eb 69bf 4d8f 8fbd 69fa 603e
00000250: 4d3b 36be 126b c2be 0710 b0be dcc8 2b3e
00000260: 2ea4 c1bc de9c 8d3e c77d debe 096d 55bb
00000270: 04e1 8fbe 3166 3fbe a452 bc3e 703c f73e
00000280: 7d23 073f 9e3d ff3e d2fc a3bc 1d2c 9fbd
00000290: 5198 8c3b 22da abbe f51b 923d 8dfe 273f
000002a0: 4b2a 003f 8ce7 adbe a04b 8abe 8c05 33bf
000002b0: d3f7 09be 7545 143f ec07 c33e 9dbb 64bd
000002c0: 1f89 bcbc fdb6 dd3e 1fa8 6b3e c7d0 d8bc
000002d0: 5e02 e8bd c757 b5bd 1807 c83d 4e93 f4be
000002e0: 8a0e 7dbf bcc5 363f 4ac9 bcbe 6104 123e
000002f0: 3b94 e83e 07ad b23e ce89 f8bd 81da 94be
00000300: 9bb3 e23e 7665 dd3e 4bba 41bd ae10 66bd
00000310: 38e9 883f 9015 07bf 7089 c8be 7f46 f03d
00000320: 82f6 abbe 3e2f b33e 5c23 103f 74c1 11be
00000330: e8cc 93be 29d5 34bf 765d 3a3f 2bbb 7b3e
00000340: 4998 853d 882a 06bf be69 6a3e b298 b4be
00000350: d450 d83d ac5a c3be f461 82bf 2122 1f3f
00000360: 4083 f9bd f045 b53e a9ca 1f3f a8d3 e93b
00000370: 5c6a c8bd e160 1cbe fee4 1f3f e1c8 473f
00000380: 9f04 84be 3dd9 eb3d c161 813e 7280 2fbe
00000390: 5c97 f4be 4403 193f ca04 f7be ad20 383e
000003a0: 0cd7 363f 202a 6cbe b1b9 afbe 5274 4fbe
000003b0: eb4c bd3e 7e5b 6abe 4ba5 a8be 3357 ebbe
000003c0: 2c08 e6be 5476 693e 1159 8fbe a8b2 783f
000003d0: 1b32 6f3f 370d 6f3e 1065 e3be 122f 35bf
000003e0: fd8e 53bf b4a1 563e df2c 393c fd88 4b3f
000003f0: 2c5e a5bf 47b9 61bf 7d10 983d 26f5 6b3e
-0.61154056 -0.29184997 0.12022027 0.07528601 -0.9336643 0.00587516 -0.5417411 0.17292169
0.555203 0.6112331 -0.24123776 -0.06160837 0.3678375 0.85824895 -0.11987492 0.14842057
0.71022546 -0.72380865 -0.020204 -0.07673821 -0.50047547 -0.13826087 0.5300362 -0.2508971
0.15726689 -0.66024196 0.73842037 0.56844735 0.06629209 -0.45577708 -0.4054013 -0.67647195
-0.25401098 1.145158 -0.022037996 -0.48486447 -0.91996515 -0.4910576 0.37630537 0.6726661
0.47330284 0.49556896 0.46199727 -0.27977258 -0.7045145 -0.6010332 -0.15966105 0.4339157
0.23255509 -0.39378873 -0.19676101 -0.90899795 0.15316364 0.19497553 0.16695738 0.18066633
0.362815 1.0092813 -0.6040576 -0.3610819 0.069754876 -0.39100116 0.043385692 -0.7042705
-0.8333988 0.39276525 0.17047235 0.237049 0.22161159 0.20536742 0.12794848 -0.19303244
0.061449256 0.59749144 0.6505576 -0.2582787 0.7315757 -0.93041396 0.16934614 0.45725086
-0.03337412 0.018550275 0.24006148 -0.1747942 0.3187453 -0.6209954 0.9533071 0.22174901
0.40168783 -0.3901918 -0.014020576 0.44331995 0.045004893 0.12104576 1.551847 -0.2104404
0.59908545 0.012244639 -1.0627363 -0.24744095 -0.007815054 0.6500079 -1.1784866 -1.1311593
0.2811885 0.15110925 -0.9724161 0.27584288 -0.6412641 -0.32763964 1.1047686 -0.31513074
-0.9802718 -0.064038515 -0.5159372 0.37292355 -0.7385254 -0.06445846 -0.3797125 0.28607842
-0.2076956 0.19287668 -0.25034434 -0.12296032 -0.22377022 0.5916217 -0.15222175 -0.5063361
0.05516888 -0.17866926 -0.49843007 -0.17548408 0.5689691 0.3473979 -0.17859599 0.5637481
0.45773205 0.6636931 -1.0465045 -0.4104993 -0.08715651 -0.0049108965 0.54523915 0.2412473
-1.0434123 -0.91374415 -0.07009754 0.21970524 -0.17796059 -0.37972313 -0.34387228 0.1677584
-0.023637857 0.27658743 -0.43455335 -0.003256621 -0.2810136 -0.18691327 0.367818 0.48288298
0.52788526 0.49851698 -0.020018015 -0.07772086 0.0042906185 -0.3356486 0.07134239 0.6562279
0.50064534 -0.3396572 -0.27010822 -0.6993034 -0.13473444 0.57918483 0.3809198 -0.055842984
-0.023014603 0.4330367 0.23013352 -0.02646674 -0.113285765 -0.08854633 0.09766978 -0.47768635
-0.9885031 0.7139547 -0.3687232 0.14259483 0.4542559 0.34897634 -0.12135659 -0.29072955
0.44277653 0.4324147 -0.047296803 -0.05616825 1.0696173 -0.52767277 -0.39167356 0.11732196
-0.33586508 0.3499698 0.56303954 -0.14233953 -0.2886727 -0.70637757 0.7279886 0.24583118
0.06523187 -0.5240865 0.228919 -0.35272747 0.10562292 -0.38155115 -1.0186143 0.6216145
-0.12183237 0.3540492 0.6241861 0.007135827 -0.097859114 -0.15271331 0.6245879 0.7804089
-0.25784776 0.11516044 0.25269893 -0.17138842 -0.47771728 0.5977061 -0.4824584 0.17981215
0.71421885 -0.23062944 -0.3432136 -0.20259216 0.36972746 -0.22886464 -0.3293861 -0.45964965
-0.4492811 0.22799045 -0.2799764 0.9714761 0.9343583 0.23344885 -0.44413042 -0.7077495
-0.8264006 0.20960122 0.011302202 0.795059 -1.2919364 -0.88173336 0.0742502 0.23042735

rnn.bias_ih_l0 f4 [30]
00000000: 274d 06bf 03dc f23e 28e0 84be 6340 2b3f
00000010: 2bd8 253f be58 053f 1928 43bf 1149 9cbe
00000020: 53f7 403e 20f1 cc3e d55a 1fbf 3847 213f
00000030: ecc8 2abe 1d85 5ebf ead5 cabe bbb3 f73e
00000040: 4e1f aebe 64ea 813f c90c 7cbf b91a 2dbf
00000050: 7619 403e b2ff 4cbf 4e95 34be 7f28 c03d
00000060: 15b2 7ebf e341 94be bd47 2bbf 0b54 273f
00000070: 4c50 44bf 32f4 14bf
-0.52461475 0.4743348 -0.25952268 0.6689512 0.6478297 0.52088535 -0.7623306 -0.30524495
0.18844347 0.40027714 -0.62247974 0.62999296 -0.16678208 -0.86921865 -0.39616328 0.4837931
-0.3400826 1.0149655 -0.9845701 -0.676189 0.18759713 -0.8007766 -0.1763508 0.09382724
-0.9949048 -0.28956518 -0.6690634 0.65362614 -0.76685023 -0.5818511

rnn.bias_hh_l0 f4 [30]
00000000: 371e 08bf 947d 8c3e 8b1a b1bd c759 2f3f
00000010: 355c 213f 3e0b b83e 3435 41bf 3f12 06be
00000020: 19cd a53e 19ef a93e 063e b3be ffd0 0e3f
00000030: 705d 5a3d 9fab 5fbf a353 b0be af98 413f
00000040: 23a0 bfbe 6fc2 853f 3c48 71bf 53fa 6dbf
00000050: ad82 b13e 4322 0bbf fe0b 07be 0965 1d3e
00000060: e970 89bf 9edf 1abe e6ac 16bf dc0a ca3e
00000070: 6994 01bf 6396 fbbe
-0.53171104 0.27439559 -0.08647641 0.68496364 0.6303132 0.35946077 -0.75471807 -0.13092898
0.3238304 0.3319023 -0.35008258 0.5578765 0.053311765 -0.8737125 -0.3443881 0.756236
-0.37426862 1.0449961 -0.94250846 -0.9296009 0.3467001 -0.54349154 -0.13188168 0.15370573
-1.0737582 -0.15124366 -0.5885757 0.3946141 -0.5061708 -0.49138173

out.weight f4 [1, 40]
00000000: 61a6 75be fde4 26be c6fa a0be 2ea3 7b3e
00000010: 4192 abbe b86c 97be 6ff4 463d 4bf0 2333
00000020: 4617 afbe 8f90 eb3d a259 2cbf d628 8fbf
00000030: aef1 fcbe 90d1 cd3e 53d8 203d ac51 cfbe
00000040: 6961 61be 0672 d2be 96b5 bc3e 6ec5 9a3e
00000050: 5e80 d43e f656 cc3c 0d40 bcbe dda5 09be
00000060: e04c 1d3f 5e83 0fbf 9760 423e 511b a9be
00000070: de03 be3e 5c6d 4fbf 864c 7b3e 66a7 21bf
00000080: 2fd3 c3be d502 ad3e ae4e 0b3f 7c80 fd3d
00000090: 8670 5dbe aefb ce3e 0330 063f 3259 043f
-0.2398925 -0.1629829 -0.31441325 0.24573967 -0.3351002 -0.29575133 0.048572954 3.816994e-08
-0.34197444 0.11502182 -0.6732427 -1.1184337 -0.49403137 0.40198946 0.039268803 -0.40491998
-0.22009815 -0.41102618 0.3685729 0.30228752 0.41504186 0.02494381 -0.36767617 -0.13442178
0.61445427 -0.56059825 0.18982159 -0.33028653 0.37112325 -0.81026244 0.2454091 -0.63146055
-0.38247058 0.33791223 0.5441693 0.12378022 -0.21624956 0.4042639 0.5241701 0.516986

GRU2.weight_ih_l0 f4 [90, 1]
00000000: 0cfc aab5 4fec 0ebe 9276 91bd b84b eebd
00000010: e386 433a e8ee a6bd 96d7 81bd 283f b535
00000020: a637 673c f9d1 03bd 32ae af3c aa27 15bd
00000030: 073c 35bc b24e ed3b eb95 41bb 8c83 81bd
00000040: f8a3 9abe 3494 f438 254b f8bd a844 f33c
00000050: 61c3 83bd de83 31bd af86 c7bd de13 593c
00000060: d415 e53a 1dae f53b 3271 6cbd 17df 5fbd
00000070: 06f2 18ba 7d3a 483d 9d76 78bb 517a 433a
00000080: b02b 7eb5 c4d1 2e3a 1682 413a 586b 9b3a
00000090: 32c3 703b 5229 823b 0543 053a 4622 0e3b
000000a0: f04d 213c 97e6 a23b caa3 403d ebaa 873a
000000b0: 4b58 a539 767a 973c e72f 153c 0e4a b838
000000c0: 2642 b13a 9191 353a 66b2 ef3b 9cb2 183b
000000d0: f965 783a 5795 f43a 307e 803a 70ee aa32
000000e0: 317f 213d 7b73 d53a a05c c039 4123 9338
000000f0: 06f7 053f cabb 8bbe 23ea b8be dca9 9bbe
00000100: c057 ef3e 319d 9d3e bd3e 453e 1167 07bc
00000110: 784e 223f 2b50 47be 8500 0b3f 8606 93be
00000120: b430 96be 3d49 10bf c0ed 293f 74bd b63e
00000130: 9215 e1be f7d5 1d3f 0af6 bbbe a4b4 bd3e
00000140: 53bc afbe 1409 e9bd e596 adbe 9c03 fbbe
00000150: 977c 1cbf 9b87 003f 2eb8 ebbe 2b4a 6fbe
00000160: f544 04bf 095b cb3e
-1.2739342e-06 -0.13957332 -0.071026936 -0.11635536 0.00074587594 -0.081510365 -0.06339948 1.3503932e-06
0.014112389 -0.032182667 0.021445367 -0.03641478 -0.011061675 0.007242047 -0.002953882 -0.06323919
-0.30203223 0.00011662432 -0.12123708 0.029695824 -0.0643375 -0.04333865 -0.09742486 0.013249366
0.0017477819 0.0074975626 -0.05772514 -0.054656114 -0.0005834404 0.048883904 -0.0037912496 0.0007456886
-9.468595e-07 0.0006668831 0.000738175 0.0011857552 0.003673744 0.003972211 0.0005083534 0.002168791
0.009845242 0.004971336 0.0470312 0.001035062 0.00031537036 0.018491011 0.009105659 8.7875975e-05
0.0013523742 0.0006926293 0.007314968 0.002329982 0.00094756443 0.0018660229 0.0009803232 1.9899034e-08
0.03942794 0.0016285026 0.00036690105 7.016073e-05 0.5233005 -0.2729171 -0.36116132 -0.3040303
0.46746635 0.3078399 0.19262214 -0.008264319 0.63400984 -0.19464175 0.5429767 -0.28715914
-0.29334033 -0.5636175 0.663784 0.35691416 -0.4396177 0.6165461 -0.3671115 0.3705188
-0.34323367 -0.11378685 -0.33904186 -0.4902619 -0.6112761 0.5020692 -0.46038955 -0.23368137
-0.5166772 0.39717892
