colagnn-master-Run-Epi/src/save/cola_gnn_epi.us_states_covid_mov_14.w-20.h-8.RNN.lam-1.0.epo-500.pt (torch, 61046 bytes, 32 tensors)

V f4 [15]
-4.6056155e-25 -2.2647877 7.3042736e-31 0.001174126 -6.4537415e-22 -1.3601811e-30 -2.4891274e-31 -1.8705422e-31
-2.888668e-37 -3.4825435 0.0015426346 -1.978384 -1.9056618e-22 -1.9676791 9.4003244e-36
00000000: 7289 0e97 48f2 10c0 8809 6d0d 22e5 993a
00000010: 680d 439c b6b3 dc8d b98d a18c 6dcf 728c
00000020: b297 c482 fee1 5ec0 3a32 ca3a b03b fdbf
00000030: 6061 669b e9dc fbbf 3cec 4705

W1 f4 [15, 30]
7.494261e-26 -1.6175393e-26 1.1168467e-25 -7.6276816e-26 7.490858e-26 -4.163743e-26 -1.7730256e-26 7.2728674e-26
-5.8583227e-26 -7.577293e-26 7.0319443e-26 1.036052e-25 7.608618e-26 -7.629856e-26 7.4855184e-26 8.164783e-26
7.193676e-26 8.890783e-26 7.1524816e-26 5.322477e-26 -7.640204e-26 2.2357839e-26 -9.3410376e-26 -7.442252e-26
-8.589962e-26 6.888563e-26 -9.0418953e-26 7.5894194e-26 7.577838e-26 -5.983873e-26 0.010489278 -0.039796844
-0.057776578 0.057742305 -0.030457811 0.04173917 -0.0340207 -0.046385806 0.040436953 0.05756542
-0.056852244 -0.0573728 -0.057522334 0.057334714 -0.057642028 0.009419189 -0.05715582 -0.057733797
-0.05776835 0.051479757 -0.0078122346 -0.057300247 0.04087006 0.10219581 0.048084516 -0.05754995
0.025639819 0.0067761904 0.009403775 0.056219812 1.01207115e-29 5.983649e-30 -5.0520016e-30 -1.0644843e-29
1.0369662e-29 -1.0194686e-29 1.8941429e-30 -9.879364e-31 -8.5983865e-30 -1.0489084e-29 1.0015628e-29 -2.0075578e-29
1.0409335e-29 -1.0266903e-29 1.0223966e-29 1.0803447e-29 1.015688e-29 7.62008e-30 1.0190004e-29 -6.251558e-30
-1.0059129e-29 9.926282e-30 -1.3201895e-29 -1.3936362e-29 -9.751725e-30 1.0285736e-29 -1.1678753e-30 1.0193203e-29
9.9220954e-30 -9.9914816e-30 0.0018431925 0.0013311224 0.0018587791 -0.0018471569 0.0018595622 -0.0014190167
0.0006772591 0.00027689827 -0.0016318157 -0.0018351595 0.0018425725 0.0018367085 0.0018400594 -0.0018519684
0.0018380084 0.0018390587 0.0018275334 0.0018511178 0.0018478326 -0.0015946967 -0.0018471046 0.0018327833
-0.002042625 -0.0016743648 -0.0018175431 0.0018504671 0.00023187327 0.001846507 0.0018339796 -0.0017840202
2.3296267e-22 -1.05036716e-22 -3.7797969e-22 -2.4892012e-22 2.4734884e-22 -1.0484287e-22 8.954194e-23 2.3053626e-22
-2.0349357e-22 -2.5552164e-22 2.2432342e-22 -1.3355562e-22 2.5856265e-22 -2.5250723e-22 2.5093575e-22 2.5834687e-22
2.323435e-22 3.4373194e-22 2.337685e-22 5.1506928e-23 -2.462009e-22 1.1779306e-22 -3.0990437e-22 -2.4514662e-22
-3.3444885e-22 2.248528e-22 -2.0895186e-22 2.471015e-22 2.4621672e-22 -2.0519399e-22 1.2262084e-31 5.633152e-32
2.4383764e-31 -1.249557e-31 1.2204742e-31 -1.2589701e-31 -2.7226018e-32 5.738623e-32 -1.1179062e-31 -1.2284015e-31
1.2117099e-31 5.001968e-32 1.2203877e-31 -1.2329866e-31 1.2081377e-31 1.1946821e-31 1.2080879e-31 9.883184e-32
1.2288685e-31 -3.8367072e-32 -1.2439193e-31 7.608981e-32 -9.867167e-32 -1.0919298e-31 -9.6848815e-32 1.2263007e-31
-1.5101503e-31 1.2276066e-31 1.2375113e-31 -1.1320343e-31 2.1681716e-32 2.7479737e-33 9.089236e-32 -2.167263e-32
2.1792613e-32 -2.319744e-32 -1.186479e-32 2.1096653e-32 -1.912666e-32 -2.1526337e-32 2.1590366e-32 7.6035536e-32
2.1600933e-32 -2.1726838e-32 2.1073507e-32 2.1367287e-32 2.109106e-32 2.3922247e-32 2.1568261e-32 8.637287e-33
-2.1659772e-32 6.262283e-33 -2.3298114e-32 -2.3199227e-32 -2.4172709e-32 2.1670277e-32 -3.792691e-32 2.1772885e-32
2.149532e-32 -1.9006066e-32 1.7952906e-32 4.131543e-33 7.35369e-32 -1.795773e-32 1.7929233e-32 -2.025067e-32
-7.11442e-33 1.4991702e-32 -1.6074844e-32 -1.7760914e-32 1.7811741e-32 4.613083e-32 1.7849935e-32 -1.7937297e-32
1.753606e-32 1.7647672e-32 1.750271e-32 2.2531786e-32 1.7894671e-32 3.0585812e-33 -1.7962363e-32 7.0846846e-33
-1.9570847e-32 -2.0006385e-32 -2.1280995e-32 1.7951563e-32 -2.924571e-32 1.8067025e-32 1.7826173e-32 -1.5898466e-32
2.6056338e-38 9.009842e-39 2.4514848e-38 -2.4472052e-38 2.4484283e-38 -3.1269583e-38 -1.382686e-39 1.4362858e-38
-2.398528e-38 -2.598168e-38 2.6940776e-38 2.6337427e-38 2.6489468e-38 -2.448689e-38 2.6210172e-38 2.534579e-38
00000000: 868c b915 7e31 a094 4942 0a16 2dda bc95
00000010: f476 b915 b72d 4e95 8a97 af94 4611 b415
00000020: 880b 9195 cd9a bb95 3e1a ae15 cc41 0016
00000030: 5961 bc15 f5e7 bc95 1c55 b915 7626 ca15
00000040: 571b b215 0820 dc15 3d16 b115 35c7 8315
00000050: 8c29 bd95 db6b dd14 dc45 e795 e042 b895
00000060: 5aad d495 758d aa15 d2dd df95 a9e7 bb15
00000070: 419e bb15 4d27 9495 38db 2b3c 0402 23bd
00000080: 22a7 6cbd 3283 6c3d a982 f9bc b1f6 2a3d
00000090: 4a59 0bbd 0bff 3dbd 38a1 253d b8c9 6b3d
000000a0: e6dd 68bd beff 6abd 8a9c 6bbd ced7 6a3d
000000b0: 0c1a 6cbd f152 1a3c 391c 6abd 467a 6cbd
000000c0: 819e 6cbd 70dc 523d c6fd ffbb aab3 6abd
000000d0: 5d67 273d 094c d13d 45f4 443d 7fb9 6bbd
000000e0: 990a d23c ce0a de3b 4b12 1a3c bf46 663d
000000f0: bd45 4d0f c4b9 f20e fcee cc8e 2fe7 578f
00000100: 5d52 520f d6c5 4e8f cfab 190e 464d a08d
00000110: 6065 2e8f 70be 548f 1d24 4b0f 2e97 cb8f
00000120: 5b20 530f cf3c 508f de5d 4f0f b41e 5b0f
00000130: 8901 4e0f b88d 1a0f 87ad 4e0f e497 fd8e
00000140: fc05 4c8f 3454 490f 14e2 858f dd54 8d8f
00000150: dac9 458f 989e 500f a47f bd8d 23be 4e0f
00000160: 773e 490f bda6 4a8f 4797 f13a 0e79 ae3a
00000170: 47a2 f33a 4d1c f2ba 8ebc f33a 4dfe b9ba
00000180: 178a 313a a82c 9139 a6e2 d5ba bc89 f0ba
00000190: 7982 f13a b6bd f03a 262e f13a bfbd f2ba
000001a0: 54e9 f03a 920c f13a d889 ef3a 35a1 f23a
000001b0: f932 f23a 2405 d1ba 8c1a f2ba 013a f03a
000001c0: 90dd 05bb 5c76 dbba a03a eeba 5f8b f23a
000001d0: 0223 7339 7e06 f23a 2562 f03a c9d5 e9ba
000001e0: 3ad1 8c1b 94f6 fd9a 8679 e49b 8676 969b
000001f0: 6183 951b 987e fd9a c77f d81a c259 8b1b
00000200: 3602 769b 0f74 9a9b 5e98 871b 7675 219b
00000210: a24a 9c1b 9aa1 989b 6dae 971b 3e29 9c1b
00000220: 6a71 8c1b f1c5 cf1b ec4d 8d1b 7d12 791a
00000230: bed1 949b 3067 0e1b 6153 bb9b 9a2e 949b
00000240: 7429 ca9b 49ea 871b 789b 7c9b 1b5d 951b
00000250: 31d4 941b 7710 789b c32b 1f0c b73e 920b
00000260: 7a42 9e0c a733 228c 366d 1e0c 756c 238c
00000270: 965d 0d8b b1fb 940b ce1c 118c a474 1f8c
00000280: f849 1d0c c8db 810b 566a 1e0c 020d 208c
00000290: 43d3 1c0c 1f14 1b0c 9bd1 1c0c 834a 000c
000002a0: 2984 1f0c 9636 478b 4f78 218c 5a8a c50b
000002b0: 4915 008c 97bd 0d8c 146f fb8b d52e 1f0c
000002c0: 5a07 448c 3a5a 1f0c 5ea3 200c 4bf2 128c
000002d0: e327 e10a f04a 6409 56f8 eb0b bc0f e18a
000002e0: b44e e20a 60e5 f08a 0b6c 768a 8614 db0a
000002f0: 629f c68a d28a df8a 0a35 e00a 4866 c50b
00000300: 2151 e00a d89f e18a fed6 da0a fee3 dd0a
00000310: a805 db0a 3e6c f80a 46fa df0a b263 330a
00000320: 8ded e08a 0210 020a 03f1 f18a 20ea f08a
00000330: 1506 fb8a 7a09 e10a 83ed 448b 421a e20a
00000340: 5d38 df0a ca5e c58a 036f ba0a 1a9e ab09
00000350: a7e9 be0b d67b ba8a 1430 ba0a 844b d28a
00000360: bfc2 138a c8ae 9b0a 44ee a68a 9c70 b88a
00000370: bbf7 b80a 6486 6f0b 445d b90a 8445 ba8a
00000380: d81a b60a 8f43 b70a 2fc2 b50a c3fb e90a
00000390: 32d4 b90a d418 7e09 2788 ba8a a524 130a
000003a0: 3c3c cb8a 18c2 cf8a 97fe dc8a 716b ba0a
000003b0: 37da 178b 649e bb0a 191e b90a 5f19 a58a
000003c0: 3cdd 0d01 c61b 6200 b678 0501 103d 0581
000003d0: 1c4e 0501 703f 2a81 5e0e 0f80 ce65 9c00
000003e0: 9a96 0281 2d75 0d81 f6ad 1201 0465 0f01
000003f0: ee38 1001 be51 0581 a6b3 0e01 e0fe 0901

b1 f4 [15]
-7.6477994e-26 0.0564106 -1.0673946e-29 -0.0018472999 -2.3831397e-22 -1.2423745e-31 -2.159901e-32 -1.7963167e-32
-2.4459906e-38 0.06643839 -0.0024162252 0.13257816 -3.272508e-23 0.1146605 2.7898601e-37
00000000: b059 bd95 cd0e 673d 4c7e 588f 1921 f2ba
00000010: 4d0d 909b f944 218c 044c e08a 4a8a ba8a
00000020: 222c 0581 da10 883d 8859 1ebb 92c2 073e
00000030: b03f 1e9a 20d3 ea3d 38de bd02

W2 f4 [15, 30]
8.714783e-26 8.0475473e-25 6.505811e-26 -7.652885e-26 8.694196e-26 -2.3892063e-25 -4.24907e-26 9.807719e-26
-1.1636447e-25 -7.464542e-26 8.3106965e-26 7.655874e-26 7.576633e-26 -7.6609697e-26 7.0818496e-26 7.732497e-26
8.4401344e-26 1.1847159e-25 8.504475e-26 -6.8535284e-25 -7.631374e-26 2.4491659e-25 -8.131693e-26 -6.2421257e-26
-7.3757854e-26 7.5980346e-26 -2.1660614e-25 8.099124e-26 7.2918204e-26 -4.8738354e-26 0.0031948907 0.21388596
-0.057656147 0.057065967 -0.012107221 -0.09030934 -0.08015722 -0.08922643 -0.005355221 0.05978419
-0.06380623 -0.05636175 -0.05760841 0.05388499 -0.05789257 0.0077643553 -0.057151586 -0.059945002
-0.057306156 -0.200012 0.008835612 -0.04132474 0.043243885 0.29640692 -0.22409822 -0.054317586
-0.5709658 -0.016397059 0.0066734357 0.058649622 1.0844272e-29 2.1979477e-29 5.174833e-30 -1.05184205e-29
1.0828394e-29 -5.7814905e-30 4.235682e-30 1.7960453e-31 -7.9602995e-30 -1.0553954e-29 1.006323e-29 1.292341e-29
1.0394311e-29 -1.0159054e-29 1.0074369e-29 1.0433914e-29 1.0049987e-29 2.1558484e-30 1.03294966e-29 -7.6331164e-30
-1.03347334e-29 1.1941706e-29 -1.0146205e-29 -1.5415703e-29 -1.474676e-29 1.0505908e-29 8.204625e-31 9.248724e-30
9.91213e-30 -9.627433e-30 0.0018191547 0.0024640106 0.0018126231 -0.0018310071 0.0018317084 -0.0012962549
0.00070979603 0.00021220863 -0.001458633 -0.0018184533 0.0018647588 0.0018109736 0.0018139797 -0.0018342666
0.0018204559 0.0018233818 0.0018039573 0.0018401177 0.0018239904 -0.0010411663 -0.0018293582 0.0016994056
-0.0019519732 -0.0012387654 -0.0017886562 0.0018239499 -0.0010604849 0.001755296 0.0018104132 -0.0017850944
2.472636e-22 1.1964147e-21 1.3818791e-22 -2.4565242e-22 2.0528301e-22 -5.372839e-22 3.8988346e-23 2.6402718e-22
-3.8945725e-22 -2.286861e-22 2.5513832e-22 2.565604e-22 2.1749584e-22 -2.6145274e-22 2.0912657e-22 2.5172562e-22
2.5585112e-22 -6.2972916e-22 2.4467807e-22 -1.665342e-21 -2.4751244e-22 5.8932655e-22 -2.1115603e-22 -2.302763e-22
-3.0004038e-22 2.3438098e-22 -6.960134e-22 2.5347822e-22 2.3978787e-22 -1.8558795e-22 1.240089e-31 9.096765e-31
1.1351388e-31 -1.2315256e-31 1.2216773e-31 -2.7760975e-31 -1.016005e-31 8.3730574e-32 -1.5650957e-31 -1.2383568e-31
1.199757e-31 9.57809e-32 1.2331543e-31 -1.2047372e-31 1.2379249e-31 1.2409547e-31 1.2391922e-31 6.825442e-31
1.2677372e-31 -6.7659734e-31 -1.2371359e-31 2.8504793e-31 -1.3168892e-31 -1.0533687e-31 -8.007717e-32 1.2514375e-31
-2.6098683e-31 1.2929061e-31 1.219228e-31 -8.990493e-32 2.1529724e-32 2.676058e-31 1.9982552e-32 -2.1575818e-32
2.1644125e-32 -7.2390245e-32 -2.0127834e-32 2.8664947e-32 -3.420766e-32 -2.1120803e-32 2.1389589e-32 2.2517332e-32
2.1044088e-32 -2.1772896e-32 2.0015457e-32 2.1764037e-32 2.1904044e-32 -1.1361376e-32 2.194994e-32 -1.9209018e-31
-2.1648517e-32 8.0704164e-32 -2.1546009e-32 -2.5042164e-32 -2.0369814e-32 2.156201e-32 -7.199044e-32 2.1489703e-32
2.068845e-32 -1.1545046e-32 1.7929354e-32 2.048345e-31 1.7688519e-32 -1.7973886e-32 1.792887e-32 -5.831823e-32
-1.4496741e-32 2.1098581e-32 -2.6315677e-32 -1.7680198e-32 1.7626851e-32 2.1867276e-32 1.7619445e-32 -1.791982e-32
1.6914968e-32 1.8024215e-32 1.8078884e-32 5.8599216e-32 1.8271773e-32 -1.3932627e-31 -1.799498e-32 5.9770826e-32
-1.8089384e-32 -2.4111421e-32 -1.9432247e-32 1.7938034e-32 -4.8675343e-32 1.836656e-32 1.7313733e-32 -1.03844986e-32
2.2265678e-38 1.8199901e-37 2.4500684e-38 -2.4470174e-38 2.1314869e-38 -6.761133e-38 -7.03124e-39 1.8552323e-38
-3.191113e-38 -2.578607e-38 2.6064726e-38 2.6599148e-38 2.6079095e-38 -2.4489577e-38 2.5460012e-38 2.617975e-38
00000000: 80c4 d715 3d0f 7917 7a13 a115 ec79 bd95
00000010: 0442 d715 7ce2 9396 5d67 5295 ced3 f215
00000020: 5f0d 1096 28d0 b895 4cc3 cd15 de8c bd15
00000030: 9e96 bb15 2aad bd95 8e56 af15 8672 bf15
00000040: b5f7 d015 25a9 1216 848f d215 3f1b 5497
00000050: 94f1 bc95 9598 9716 ba54 c995 2c8c 9a95
00000060: 989d b695 441e bc15 9d12 8696 4c86 c815
00000070: 6789 b415 3457 7195 5f61 513b ec04 5b3e
00000080: da28 6cbd 01be 693d 5e5d 46bc 1af4 b8bd
00000090: 7829 a4bd 59bc b6bd da7a afbb 44e0 743d
000000a0: d7ac 82bd 94db 66bd ccf6 6bbd 82b6 5c3d
000000b0: c220 6dbd 226c fe3b c817 6abd e488 75bd
000000c0: dcb9 6abd f2cf 4cbe 3ec3 103c 2144 29bd
000000d0: 8020 313d a6c2 973e 017a 65be 1e7c 5ebd
000000e0: d12a 12bf 2053 86bc d6ac da3b 963a 703d
000000f0: aef2 5b0f fce5 de0f 8aea d10e c356 558f
00000100: 3ca0 5b0f 6e86 ea8e d6d1 ab0e d823 690c
00000110: 3d74 218f 430f 568f 471b 4c0f 170f 830f
00000120: 59d2 520f d30c 4e8f 1d55 4c0f fb9f 530f
00000130: 84d6 4b0f 38e7 2e0e d081 510f 68d1 1a8f
00000140: 019d 518f e234 720f 1cca 4d8f 7455 9c8f
00000150: c78c 958f cb15 550f ae20 850d 1f96 3b0f
00000160: b90a 490f 7d44 438f b470 ee3a 3d7b 213b
00000170: 8a95 ed3a 67fe efba ef15 f03a 19e7 a9ba
00000180: 9b11 3a3a 5284 5e39 9a2f bfba 2b59 eeba
00000190: ec6a f43a 315e ed3a 0fc3 ed3a c66b f0ba
000001a0: 5d9c ee3a 8afe ee3a c372 ec3a 1b30 f13a
000001b0: f612 ef3a be77 88ba 13c7 efba 97be de3a
000001c0: 5ad9 ffba 125e a2ba 5871 eaba 9a11 ef3a
000001d0: f8ff 8aba f611 e63a 634b ed3a d4f9 e9ba
000001e0: 3076 951b 0dcc b41c 160f 271b df7c 949b
000001f0: 042c 781b 5462 229c 3c89 3c1a 3a98 9f1b
00000200: 9769 eb9b 763b 8a9b be38 9a1b cd14 9b1b
00000210: da77 831b da09 9e9b 8ad1 7c1b a728 981b
00000220: 0ba7 9a1b ef52 3e9c 19e6 931b cca8 fb9c
00000230: b29c 959b ef1c 321c a045 7f9b 8831 8b9b
00000240: 005d b59b b3ac 8d1b 6e5b 529c db37 991b
00000250: 60f1 901b b05c 609b 07f9 200c 7c9a 930d
00000260: 7559 130c 75dc 1f8c 3195 1e0c d52d b48c
00000270: 8fe2 038c 8360 d90b 3a29 4b8c 77bf 208c
00000280: c4bc 1b0c 54a9 f80b 9512 200c 4362 1c8c
00000290: 1cb1 200c cb15 210c 39db 200c 8e7f 5d0d
000002a0: cb8f 240c 8291 5b8d e496 208c b601 b90c
000002b0: 26f1 2a8c 2ebc 088c 68e4 cf8b 2572 220c
000002c0: e063 a98c 2dd4 270c cd43 1e0c 1368 e98b
000002d0: d393 df0a a4af ad0c bc82 cf0a 5d0e e08a
000002e0: f4c3 e00a 92ef bb8b f604 d18a 40d6 140b
000002f0: c89d 318b ba54 db8a 481f de0a 56d5 e90a
00000300: c888 da0a 491a e28a 36da cf0a bc02 e20a
00000310: f076 e30a 70f7 6b8a f3f0 e30a e958 798c
00000320: a1cf e08a 1e85 d10b 1ebf df8a bf06 028b
00000330: 4188 d38a a8e9 df0a dbe5 ba8b 6e29 df0a
00000340: 55d7 d60a fec7 6f8a 6630 ba0a f8f1 840c
00000350: 26b0 b70a c9a6 ba8a 1d2f ba0a 1d67 978b
00000360: f38a 968a a619 db0a 89a3 088b 079a b78a
00000370: 350c b70a 3115 e30a 85f8 b60a 0e17 ba8a
00000380: b3a7 af0a 952c bb0a ebbd bb0a dc21 980b
00000390: b4be bd0a 18db 348c ddde ba8a 872c 9b0b
000003a0: d5d9 bb8a 2763 fa8a c6cb c98a 7947 ba0a
000003b0: a1bc 7c8b b1ba be0a cccb b30a 77ad 578a
000003c0: a773 f200 66b9 7702 f864 0501 723a 0581
000003d0: 2f19 e800 380e b881 3d90 4c80 5404 ca00
000003e0: a0bd 2d81 8964 0c81 ede8 0d01 cdd1 1001
000003f0: f4fc 0d01 7d55 0581 149e 0a01 3f89 0e01

Wb f4 [55, 55]
-0.1418465 0.0657423 0.13506301 0.21227849 0.13658299 0.15764242 -0.43476233 -0.11308682
-0.34616077 -0.11041621 -0.028158974 0.064597495 0.06464073 0.26259384 0.048080783 0.08942789
0.059552316 -0.24717875 0.12743336 0.1539419 -0.3943886 0.13203 0.119930476 0.17856903
-0.19576363 -0.10428447 0.110628374 -0.64353967 -0.27565256 0.108625114 -0.38784042 0.18756169
-0.05519019 0.09154498 -0.16398072 0.10428432 0.067302406 0.12967588 -0.32734996 0.12713209
0.111216575 0.06479471 -0.24692649 -0.4023366 0.15703467 0.21044955 -0.6045915 0.2645917
0.15170321 0.065531634 0.16122912 -0.35076 0.12184568 0.11229469 0.0015391205 -0.13626741
0.06415393 0.13764623 0.21254498 0.13613375 0.15564047 -0.43515536 -0.113144085 -0.34573865
-0.11086005 -0.028709836 0.06384763 0.063875064 0.25923765 0.04583967 0.08754764 0.059165034
-0.25070328 0.13288555 0.1535898 -0.3944331 0.13146488 0.12138047 0.17799908 -0.19852401
-0.10430879 0.10895947 -0.6476648 -0.27650288 0.107713565 -0.4048373 0.18653794 -0.05971306
0.093976885 -0.1594118 0.10384433 0.066596776 0.12572762 -0.3264023 0.12812638 0.10997583
0.06485594 -0.24421355 -0.40057927 0.15685688 0.20739561 -0.6049164 0.26123464 0.1509971
0.06510379 0.16123416 -0.3550539 0.12274207 0.11096104 0.0018777903 -0.13384777 0.06618209
0.13542382 0.21359949 0.13614886 0.15596026 -0.43151715 -0.1147414 -0.35117653 -0.11356102
-0.029602244 0.06564141 0.06584269 0.26509246 0.045759186 0.08621914 0.058163166 -0.25305617
0.132939 0.15445049 -0.39465538 0.1310161 0.119469605 0.17987856 -0.19471677 -0.10408461
0.10912316 -0.6396306 -0.27349913 0.10863195 -0.38891438 0.18642539 -0.054632086 0.09135084
-0.1613277 0.10409266 0.06700124 0.12587982 -0.32739455 0.12958837 0.111215055 0.06617986
-0.24897076 -0.403684 0.15670574 0.20953032 -0.6064988 0.2636721 0.15176511 0.06650631
0.15453391 -0.34893477 0.12491965 0.111520074 0.0038280413 -0.14173803 0.06495284 0.1353011
0.21154061 0.13651206 0.15743263 -0.4349077 -0.11359693 -0.3481149 -0.11192969 -0.030944932
0.06460483 0.06622235 0.26212907 0.047277227 0.088444404 0.05899238 -0.24771507 0.12695298
0.15341936 -0.39475262 0.1316796 0.11958917 0.1796039 -0.19773832 -0.10655986 0.108930364
-0.6422489 -0.27624893 0.10637768 -0.38860506 0.18595676 -0.055996552 0.091419265 -0.16299453
0.10419344 0.066600814 0.12940438 -0.32667217 0.12805186 0.111376405 0.066484876 -0.24863516
-0.40361637 0.15753922 0.21026969 -0.60330516 0.26203352 0.1521635 0.064612545 0.1601524
-0.3497469 0.12434598 0.112495705 0.0015743803 -0.13402735 0.06675932 0.13382217 0.21257639
0.13609135 0.15590347 -0.43240824 -0.11549918 -0.3509062 -0.1133986 -0.030157031 0.06527264
0.0670808 0.2648971 0.046023395 0.08624259 0.057815384 -0.25228196 0.13272026 0.15431333
-0.39448202 0.1311677 0.11844182 0.18016511 -0.19433229 -0.10361996 0.10799736 -0.6394544
-0.27257136 0.10827124 -0.38873968 0.18627325 -0.056027025 0.09011448 -0.16125704 0.10401809
00000000: 3540 11be e6a3 863d f54d 0a3e 885f 593e
00000010: 69dc 0b3e 046d 213e 2b99 debe 109a e7bd
00000020: fc3b b1be e521 e2bd a6ad e6bc b14b 843d
00000030: 5c62 843d b372 863e 5bf0 443d f825 b73d
00000040: 21ed 733d 6d1c 7dbe e47d 023e f2a2 1d3e
00000050: 4ded c9be df32 073e 1c9e f53d cdda 363e
00000060: 4376 48be 1993 d5bd 2191 e23d 04bf 24bf
00000070: 5522 8dbe d876 de3d 0593 c6be 2c10 403e
00000080: 1c0f 62bd ef7b bb3d 90ea 27be 0493 d53d
00000090: d8d5 893d c1c9 043e 6a9a a7be ea2e 023e
000000a0: 84c5 e33d 17b3 843d 4cda 7cbe 10ff cdbe
000000b0: b2cd 203e 1680 573e 82c6 1abf 9078 873e
000000c0: 1658 1b3e 7335 863d 3f19 253e d196 b3be
000000d0: 3a8a f93d c2fa e53d 50bc c93a af89 0bbe
000000e0: 2363 833d 22f3 0c3e 64a5 593e a566 0b3e
000000f0: 3760 1f3e afcc debe 16b8 e7bd a804 b1be
00000100: 980a e3bd e430 ebbc 8cc2 823d eed0 823d
00000110: ccba 843e 61c2 3b3d 2d4c b33d 0957 723d
00000120: 2e5c 80be 2613 083e a546 1d3e 23f3 c9be
00000130: bb9e 063e 5396 f83d 6445 363e e149 4bbe
00000140: d99f d5bd 2526 df3d 5ccd 25bf c991 8dbe
00000150: ee98 dc3d d646 cfbe cd03 3f3e ae95 74bd
00000160: f476 c03d d93c 23be 56ac d43d e463 883d
00000170: bebe 003e 341e a7be 9033 033e 023b e13d
00000180: 31d3 843d 1e13 7abe ba18 cdbe 179f 203e
00000190: 845f 543e cddb 1abf 8cc0 853e fc9e 1a3e
000001a0: 2355 853d 911a 253e a0c9 b5be 3260 fb3d
000001b0: 8b3f e33d 3020 f63a 640f 09be 7a8a 873d
000001c0: 8bac 0a3e d3b9 5a3e 9b6a 0b3e 0cb4 1f3e
000001d0: d1ef dcbe 8afd eabd 69cd b3be ae92 e8bd
000001e0: 6880 f2bc 016f 863d 88d8 863d 33ba 873e
000001f0: fc6d 3b3d a993 b03d 803c 6e3d 9490 81be
00000200: 2921 083e 4528 1e3e 4510 cabe 1629 063e
00000210: 7bac f43d 1632 383e d563 47be 502a d5bd
00000220: f77b df3d d5be 23bf 1408 8cbe 6e7a de3d
00000230: c91f c7be 4ce6 3e3e e5c5 5fbd 2616 bb3d
00000240: 1733 25be 882e d53d f237 893d a4e6 003e
00000250: 42a0 a7be d0b2 043e b8c4 e33d 4e89 873d
00000260: 31f2 7ebe abaf cebe 7877 203e 1e8f 563e
00000270: 8143 1bbf 0800 873e 5068 1b3e 7634 883d
00000280: 233e 1e3e 94a7 b2be e0d5 ff3d a364 e43d
00000290: e0df 7a3b c623 11be ff05 853d 5f8c 0a3e
000002a0: 1a9e 583e d1c9 0b3e 0536 213e 39ac debe
000002b0: 82a5 e8bd 1e3c b2be 653b e5bd 3a80 fdbc
000002c0: 8a4f 843d 959f 873d c835 863e c4a5 413d
000002d0: 5722 b53d fea1 713d 05a9 7dbe f6ff 013e
000002e0: f719 1d3e 041d cabe 04d7 063e 2beb f43d
000002f0: 16ea 373e ea7b 4abe 0e3c dabd e216 df3d
00000300: 6d6a 24bf 8070 8dbe 8bdc d93d 3ef7 c6be
00000310: 736b 3e3e a45c 65bd 063a bb3d 0ae8 26be
00000320: 5f63 d53d 0266 883d 9582 043e 9341 a7be
00000330: 0720 033e 5019 e43d 3929 883d 379a 7ebe
00000340: cea6 cebe f651 213e f050 573e 3572 1abf
00000350: 4229 863e c0d0 1b3e 9553 843d fefe 233e
00000360: 0712 b3be 1ba9 fe3d 2664 e63d 705b ce3a
00000370: 773e 09be 1cb9 883d ae08 093e a0ad 593e
00000380: 885b 0b3e 29a5 1f3e 9d64 ddbe d68a ecbd
00000390: faa9 b3be 863d e8bd e10b f7bc a9ad 853d
000003a0: a961 893d 98a0 873e 0783 3c3d f49f b03d
000003b0: d3cf 6c3d 1a2b 81be d2e7 073e 5004 1e3e
000003c0: 8cf9 c9be d350 063e a091 f23d 347d 383e
000003d0: 0bff 46be b436 d4bd b82d dd3d 49b3 23bf
000003e0: 798e 8bbe 50bd dd3d e308 c7be 6abe 3e3e
000003f0: 987c 65bd f18d b83d 9120 25be 7007 d53d

conv.weight f4 [10, 1, 20]
-2.559e-42 -8.91e-43 1.21e-42 1.08e-41 1.0028e-41 -1.1978e-41 -6.88e-42 -9.997e-42
-3.6e-42 7.688e-42 -1.2274e-41 4.743e-42 -6.836e-42 -6.851e-42 -8.881e-42 -5.5e-44
-9.24e-42 -4.146e-42 -5.717e-42 2.856e-42 5.0952706e-12 5.033942e-12 4.9594144e-12 4.8774214e-12
4.806618e-12 4.729869e-12 4.6346755e-12 4.5449478e-12 4.461806e-12 4.367679e-12 4.294542e-12 4.1812955e-12
4.0931585e-12 3.9804098e-12 3.9050035e-12 3.7975786e-12 3.74049e-12 3.679883e-12 3.5796526e-12 3.5198925e-12
1.2306678e-18 1.2573755e-18 1.4585342e-18 1.6848339e-18 2.0640201e-18 2.4451943e-18 2.9614729e-18 3.2522928e-18
3.4940543e-18 3.7435506e-18 3.9179062e-18 3.9669924e-18 3.9515493e-18 3.891099e-18 3.7724453e-18 3.5421458e-18
3.5549605e-18 3.4559422e-18 3.3021143e-18 3.216088e-18 1.094e-42 -1.1241e-41 -1.1753e-41 -1.1775e-41
-9.934e-42 7.438e-42 1.0803e-41 1.1463e-41 4.075e-42 6e-43 -3.17e-42 -7.714e-42
-1.1306e-41 -1.2529e-41 -1.2331e-41 -1.0466e-41 -1.0703e-41 -1.211e-41 -9.721e-42 -1.1227e-41
2.5340727e-26 -3.7451467e-26 -5.0283177e-26 6.789231e-26 8.7040046e-26 2.2034811e-26 -6.437501e-26 -9.014604e-26
-9.476946e-26 3.5032635e-27 -5.753338e-26 3.1288658e-26 2.0058496e-26 3.7388845e-26 6.80677e-26 -5.898598e-26
-3.920873e-26 -8.968706e-26 5.4083934e-27 9.3060565e-26 -1.2430241e-14 -1.275477e-14 -1.1994203e-14 -1.0637221e-14
-8.913508e-15 -7.021405e-15 -5.6654985e-15 -1.9443256e-15 -2.7132625e-16 3.7568177e-15 5.8612927e-15 8.829866e-15
1.1548384e-14 1.2280555e-14 1.2495802e-14 1.1950569e-14 1.0744871e-14 9.697646e-15 8.38416e-15 6.5134182e-15
-3.1834493e-14 9.953002e-14 1.8321476e-13 2.7541354e-13 3.3872333e-13 3.6431004e-13 3.539886e-13 3.0032186e-13
2.474623e-13 1.7418033e-13 1.11217405e-13 4.433014e-14 -5.5346014e-14 -1.0240666e-13 -1.5098616e-13 -2.3533226e-13
-2.9976585e-13 -3.287755e-13 -3.5992344e-13 -4.0008995e-13 1.229e-41 8.918e-42 1.1055e-41 1.151e-41
1.1084e-41 4.546e-42 7.438e-42 1.2487e-41 1.163e-41 1.2065e-41 3.886e-42 1.024e-41
1.1433e-41 6.938e-42 2.077e-42 7.503e-42 7.24e-42 3.307e-42 3.18e-42 -1.1814e-41
-8.31178e-18 -8.414645e-18 -8.456883e-18 -8.344949e-18 -8.295084e-18 -8.2372325e-18 -8.2814444e-18 -8.3537475e-18
-8.567076e-18 -8.726893e-18 -9.380079e-18 -9.695776e-18 -1.00740424e-17 -1.0614914e-17 -1.1161622e-17 -1.1539848e-17
-1.1439572e-17 -1.1232987e-17 -1.1496368e-17 -1.18766245e-17 -2.614347e-16 -2.6822508e-16 -2.7284326e-16 -2.7677956e-16
-2.7864123e-16 -2.7825273e-16 -2.779313e-16 -2.7714725e-16 -2.7684245e-16 -2.7519997e-16 -2.767164e-16 -2.754821e-16
-2.7624405e-16 -2.76486e-16 -2.7810633e-16 -2.7793202e-16 -2.805568e-16 -2.833175e-16 -2.87468e-16 -2.899633e-16
00000000: 2207 0080 7c02 0080 5f03 0000 1b1e 0000
00000010: f41b 0000 6421 0080 2e13 0080 de1b 0080
00000020: 090a 0080 6e15 0000 3722 0080 390d 0000
00000030: 0e13 0080 1913 0080 c218 0080 2700 0080
00000040: c219 0080 8f0b 0080 f00f 0080 f607 0000
00000050: 1e46 b32c b81d b12c 6f7e ae2c e89b ab2c
00000060: 2b1e a92c df6a a62c 7211 a32c 40e9 9f2c
00000070: 60fc 9c2c 8eac 992c cc19 972c c31d 932c
00000080: e503 902c 580c 8c2c 2565 892c 8c9d 852c
00000090: 579b 832c 7079 812c 4ae5 7b2c bfb0 772c
000000a0: 519d b521 4e8e b921 dd3d d721 3aa3 f821
000000b0: 3d4c 1822 6a6c 3422 a484 5a22 13fa 6f22
000000c0: 69e8 8022 d61c 8a22 948b 9022 2f5b 9222
000000d0: 54c9 9122 648e 8f22 bd2d 8b22 9fae 8222
000000e0: a727 8322 e700 7f22 2da7 7322 2f4e 6d22
000000f0: 0d03 0000 561f 0080 c320 0080 d320 0080
00000100: b11b 0080 bc14 0000 1d1e 0000 f41f 0000
00000110: 5c0b 0000 ac01 0000 d608 0080 8115 0080
00000120: 841f 0080 ed22 0080 6022 0080 2d1d 0080
00000130: d61d 0080 c221 0080 191b 0080 4c1f 0080
00000140: 60f6 fa14 6073 3995 80fd 7895 dd17 a815
00000150: 2f80 d715 e238 da14 8362 9f95 d730 df95
00000160: 48a3 ea95 50c7 8a13 1d72 8e95 16ef 1a15
00000170: 54a6 c614 fe23 3915 0887 a815 ce0a 9295
00000180: f826 4295 ed0d de95 a03f d613 2468 e615
00000190: 5eec 5fa8 ffc4 65a8 8011 58a8 869f 3fa8
000001a0: 4d92 20a8 08f9 fca7 001f cca7 7a1a 0ca7
000001b0: b068 9ca5 875a 8727 e22c d327 9210 1f28
000001c0: 8509 5028 103a 5d28 b71a 6128 4648 5728
000001d0: f98f 4128 80b2 2e28 1d09 1728 aeab ea27
000001e0: ac5e 0fa9 261f e029 0f48 4e2a 460b 9b2a
000001f0: 2daf be2a 9c16 cd2a 2247 c72a f110 a92a
00000200: 134f 8b2a 101c 442a 7870 fa29 2ca5 4729
00000210: 9c41 79a9 6c99 e6a9 ccfe 29aa f47a 84aa
00000220: d0c0 a8aa 8b15 b9aa 6f9e caaa 0a3b e1aa
00000230: 4222 0000 dc18 0000 d11e 0000 1620 0000
00000240: e61e 0000 ac0c 0000 bc14 0000 cf22 0000
00000250: 6b20 0000 a221 0000 d50a 0000 8c1c 0000
00000260: df1f 0000 5713 0000 ca05 0000 ea14 0000
00000270: 2f14 0000 3809 0000 dd08 0000 ef20 0080
00000280: 4553 19a3 0a39 1ba3 8000 1ca3 e8ef 19a3
00000290: 6d04 19a3 3bf3 17a3 04c4 18a3 7519 1aa3
000002a0: df08 1ea3 96fb 20a3 2c08 2da3 02db 32a3
000002b0: 52d5 39a3 84cf 43a3 45e5 4da3 64df 54a3
000002c0: da05 53a3 4836 4fa3 1012 54a3 c615 5ba3
000002d0: f4b4 96a5 099f 9aa5 8f48 9da5 748d 9fa5
000002e0: 30a0 a0a5 db66 a0a5 6c37 a0a5 b7c3 9fa5
000002f0: bc96 9fa5 59a4 9ea5 2284 9fa5 fbcd 9ea5
00000300: 6d3e 9fa5 2262 9fa5 4051 a0a5 8737 a0a5
00000310: e0ba a1a5 4952 a3a5 cab6 a5a5 0827 a7a5

conv.bias f4 [10]
1.028e-41 4.881272e-12 3.1214893e-19 1.398e-42 -1.2202932e-25 4.791402e-15 8.8830766e-13 -6.148566e-19
-2.3637343e-17 2.8213823e-16
00000000: a81c 0000 97be ab2c 9d42 b820 e603 0000
00000010: a310 1796 e2a0 ac27 5009 7a2b 4079 35a1
00000020: 1904 daa3 41a4 a225

conv_long.weight f4 [10, 1, 10]
-6.598133e-16 -5.686671e-16 -4.8314394e-16 -4.1333016e-16 -3.4192057e-16 -3.0483866e-16 -2.8071257e-16 -2.7932778e-16
-2.8200432e-16 -2.6370973e-16 3.299e-42 1.2055e-41 1.0679e-41 1.0751e-41 7.595e-42 1.1519e-41
1.1083e-41 -2.382e-42 8.182e-42 1.1799e-41 1.0909239e-13 1.0832274e-13 7.899344e-14 5.728265e-14
3.3798078e-14 -1.00397155e-14 -9.939068e-15 3.9212513e-14 4.598789e-14 9.9628666e-14 -4.1477892e-14 -4.2446905e-14
-4.4089867e-14 -4.5919882e-14 -4.7227935e-14 -4.9211384e-14 -5.0968283e-14 -5.2806016e-14 -5.4002087e-14 -5.6056654e-14
1.122e-42 -1.1835e-41 3.823e-42 5.242e-42 2.344e-42 -1.0595e-41 -5.04e-43 -7.861e-42
-2.02e-43 2.454e-42 6.311933e-15 5.780336e-15 6.255905e-15 2.6970622e-15 -2.1338767e-15 -1.1197876e-14
-1.7264056e-14 -2.241943e-14 -2.1730124e-14 -3.6244682e-14 -2.1721607e-16 -2.240747e-16 -2.3452336e-16 -2.4434375e-16
-2.5115962e-16 -2.633897e-16 -2.7203437e-16 -2.819882e-16 -2.8863574e-16 -2.955442e-16 -2.1272678e-13 -1.2540153e-16
2.2318863e-13 2.0657381e-13 -3.9203592e-14 2.5464556e-13 -6.7009413e-14 3.4152948e-13 -5.477514e-13 3.83081e-13
-3.6043763e-12 -3.5505101e-12 -3.435063e-12 -3.2844465e-12 -3.1771977e-12 -3.0260547e-12 -2.9283475e-12 -2.8368915e-12
-2.9226335e-12 -2.9242216e-12 2.589612e-16 4.038662e-16 5.721264e-16 7.148221e-16 9.861514e-16 1.1725517e-15
1.4008515e-15 1.7273894e-15 2.1056597e-15 2.6274577e-15
00000000: a12d 3ea6 3ae8 23a6 bb41 0ba6 c444 eea5
00000010: 921a c5a5 3fba afa5 ddd1 a1a5 8105 a1a5
00000020: 7e90 a2a5 b004 98a5 3209 0000 9b21 0000
00000030: c51d 0000 f81d 0000 2c15 0000 1c20 0000
00000040: e51e 0000 a406 0080 cf16 0000 e420 0000
00000050: 7ba7 f529 cfeb f329 9ee0 b129 33fd 8029
00000060: 8836 1829 04dc 34a8 dc0b 33a8 f398 3029
00000070: 6d1c 4f29 0458 e029 c1cc 3aa9 f329 3fa9
00000080: 2890 46a9 05ce 4ea9 1ab2 54a9 dda0 5da9
00000090: 6e8a 65a9 31d1 6da9 2b34 73a9 ec74 7ca9
000000a0: 2103 0000 fe20 0080 a80a 0000 9d0e 0000
000000b0: 8906 0000 891d 0080 6801 0080 ea15 0080
000000c0: 9000 0080 d706 0000 4e69 e327 3042 d027
000000d0: 8a64 e127 0458 4227 14c3 19a7 17b9 49a8
000000e0: 3480 9ba8 b0ef c9a8 41ba c3a8 463b 23a9
000000f0: de6e 7aa5 972b 81a5 8a31 87a5 c6da 8ca5
00000100: 9ec8 90a5 76d5 97a5 30d1 9ca5 1d8e a2a5
00000110: 1e63 a6a5 a05e aaa5 5282 6faa 0094 10a5
00000120: be49 7b2a d994 682a aa8e 30a9 4b5a 8f2a
00000130: 4ce4 96a9 9643 c02a a62d 1aab caa7 d72a
00000140: aca2 7dac 4ed8 79ac 98b8 71ac 541f 67ac
00000150: 4e93 5fac 8ef0 54ac 6b10 4eac e5a0 47ac
00000160: 7ca9 4dac 18c6 4dac ee47 9525 22d0 e825
00000170: 7ae7 2426 9008 4e26 911e 8e26 86fb a826
00000180: 4ce2 c926 6cf1 f826 91ba 1727 0a54 3d27

conv_long.bias f4 [10]
2.8177974e-15 8.62e-43 -2.5458306e-13 -2.2017324e-13 -1.0026e-41 -2.9250268e-13 -8.186994e-16 2.1387842e-13
-7.1538864e-12 -2.7562032e-06
00000000: 300b 4b27 6702 0000 4951 8faa 9ee4 77aa
00000010: f31b 0080 14aa a4aa 5af9 6ba6 42ce 702a
00000020: 7bb4 fbac 36f7 38b6

conv1.weight f4 [30, 30]
-2.5904e-40 6.076e-42 -4.312e-42 2.0128e-41 -1.1625e-41 5.1209e-40 -1.1138e-41 -1.0737e-41
-1.0059e-41 1.0273e-41 1.1344e-41 4.165e-42 -1.15174e-40 4.211e-42 2.168e-42 -1.113156e-39
1.2111e-41 1.0112e-41 4.6e-43 -4.079e-42 -5.204e-40 -2.583e-42 -4.91838e-40 -7.429e-41
-1.2378e-41 -1.111e-41 1.18613e-40 -8.5e-42 6.5406e-41 -1.503261e-39 -6.456939e-19 -1.7025654e-38
3.0267024e-09 7.09e-43 3.6977765e-15 1.1412601e-23 6.4093e-41 -1.1412568e-25 -6.988e-42 1.3827223e-24
1.1401872e-36 2.3874328e-31 1.7101462e-06 -3.663e-42 2.0068279e-27 8.262368e-22 2.9941412e-28 -5.7949084e-30
-1.1611022e-26 6.24156e-38 2.32889e-39 2.31179e-40 1.8797169e-26 1.689421e-35 1.3089373e-22 -4.4614534e-11
-1.287858e-22 -6.6869e-41 1.0706075e-25 -1.6437787e-21 -1.2669497e-18 -1.1928469e-38 -1.0436299e-07 -5.608e-42
-4.6923562e-11 9.503414e-24 5.5242e-41 3.6714995e-26 -8.263e-42 1.2162921e-24 -0.00029254338 -3.9857402e-30
-1.8773598e-12 -8.621e-42 -0.00036994088 1.461827e-17 -3.494469e-30 9.045e-30 2.3617875e-26 -1.6200341e-38
0.0034325155 7.014708e-39 -9.3599986e-26 1.7276768e-35 -1.00617656e-22 -3.2397625e-25 -1.2851761e-22 8.3156e-41
-2.7994764e-24 1.9498778e-21 -4.759915e-16 -1.3252479e-36 -0.00012693764 -2.67051e-40 1.5850479e-07 -1.8712643e-20
-1.062e-40 7.4111537e-28 1.1038e-41 1.0878937e-20 -3.5114786e-21 1.6114996e-09 1.7870857e-22 1.0932e-41
-6.0496565e-18 -7.876997e-21 -1.3597627e-23 -1.00216595e-28 1.4430782e-24 -2.922784e-34 -1.1395e-41 8.7585e-41
1.7268297e-28 -1.0004469e-31 4.7760807e-07 1.717344e-10 1.0771103e-19 2.308819e-39 4.687463e-24 -4.0143777e-06
-5.5494e-41 9.466e-42 7.599e-42 1.1016e-41 -2.417e-40 3.772e-42 1.213e-41 5.57e-42
-2.002e-42 -1.1261e-41 8.385e-42 1.372e-42 1.1279e-41 1.1505e-41 -2.333e-42 8.2279e-41
-8.182e-42 8.07e-42 -6.83e-42 1.1334e-41 3.9329e-41 -1.084e-41 1.37424e-40 -1.694e-42
-1.023e-42 8.343e-42 -5.8059e-41 1.1655e-41 -7.588e-42 1.24619e-40 -4.5616e-41 9.383e-42
2.954e-42 -3.715e-42 5.9415e-41 -9.593e-42 -1.126e-41 1.265e-42 1.2039e-41 6.715e-42
5.44e-42 5.993e-42 -1.663e-42 1.0145e-41 -3.985e-42 8.2012e-41 -1.95e-43 4.22e-42
3.876e-42 -1.0525e-41 6.913e-42 1.0042e-41 -1.2453e-40 -7.025e-42 2.696e-42 -4.979e-42
-4.7431e-41 -4.718e-42 7.15e-42 -6.3973e-40 1.9401237e-20 -3.5757568e-13 6.353818e-25 8.28e-43
3.266193e-27 -1.639552e-11 -2.39132e-40 -5.6981707e-30 1.06e-42 -7.069769e-27 2.1626e-41 6.7195636e-30
1.1729709e-15 -4.55e-43 -1.9272752e-31 5.403039e-25 -4.8364146e-11 2.264158e-31 1.0380456e-31 5.22886e-40
8.3703977e-10 4.11445e-40 -6.482111e-09 3.5242026e-37 -6.176969e-25 -1.5365823e-25 1.2382004e-24 -3.604e-42
8.056943e-14 1.0152369e-24 -1.6209357e-18 2.3257978e-34 -8.3553037e-22 1.029e-41 -1.082255e-20 2.0727476e-20
4.8457e-41 -1.9774732e-06 -1.1167e-41 -3.4920347e-09 -4.5012544e-34 -2.8037867e-26 5.2319235e-24 1.113e-41
8.719534e-05 8.35811e-12 -6.651362e-26 3.4313603e-24 -6.983e-42 -1.110385e-38 -8.2698e-41 4.0876708e-36
1.0333219e-23 -4.0120937e-33 -0.00016264434 1.755966e-10 -2.194258e-19 -9.48325e-40 6.9832164e-23 4.551286e-10
-1.7797465e-18 2.2684052e-34 8.989096e-15 4.253e-42 -1.1470713e-21 -2.731917e-20 -2.392e-42 -7.3853456e-22
1.0595e-41 2.091245e-25 4.0211156e-33 -2.911067e-26 -7.787193e-24 6.803e-42 4.74965e-13 -1.489194e-20
00000000: 19d2 0280 f010 0000 050c 0080 1c38 0000
00000010: 6820 0080 8093 0500 0c1f 0080 ee1d 0080
00000020: 0a1c 0080 a31c 0000 9f1f 0000 9c0b 0000
00000030: 0f41 0180 bd0b 0000 0b06 0000 071f 0c80
00000040: c321 0000 301c 0000 4801 0000 5f0b 0080
00000050: aaaa 0580 3307 0080 0b5b 0580 17cf 0080
00000060: 8122 0080 f81e 0080 a54a 0100 b217 0080
00000070: 53b6 0000 7b5e 1080 4093 3ea1 9964 b980
00000080: 50fe 4f31 fa01 0000 f839 8527 77c0 5c19
00000090: aab2 0000 df47 0d96 7b13 0080 46f7 d517
000000a0: 28fe c103 08f4 9a0c 2d88 e535 360a 0080
000000b0: 4eff 1e13 fab6 791c b8c6 bd11 c511 eb8e
000000c0: e0fa 6594 53e9 a901 ff5b 1900 6f84 0200
000000d0: 7c28 ba14 6aa6 b305 a63d 1e1b 8037 44ae
000000e0: 46b1 1b9b 67ba 0080 e888 0416 9c66 f89c
000000f0: 02f8 baa1 b8e3 8180 291e e0b3 a20f 0080
00000100: 3c5f 4eae a0d2 3719 fe99 0000 c9cd 3515
00000110: 0917 0080 4b36 bc17 8260 99b9 4bae a18e
00000120: 821b 04ac 0818 0080 a0f4 c1b9 6ad4 8623
00000130: a4c0 8d8e 5374 370f 6de6 e914 f667 b080
00000140: 0ef4 603b 2762 4c00 0abe e795 d6b7 b705
00000150: 5047 f39a 1688 c896 465e 1b9b cee7 0000
00000160: 5899 5898 1f54 131d f931 09a6 b07a e183
00000170: 901a 05b9 6ee8 0280 7731 2a34 65bc b09e
00000180: 0b28 0180 6cde 6a12 c51e 0000 507f 4d1e
00000190: f0a8 849d 9a7b dd30 a00b 581b 791e 0000
000001a0: 6431 dfa2 d2ca 149e 1882 8399 4a14 fe90
000001b0: 384e df17 9840 c287 c41f 0080 27f4 0000
000001c0: d4e6 5a11 8ddd 018c fa34 0035 f0d2 3c2f
000001d0: 5353 fe1f 0c24 1900 6356 b518 3eb3 86b6
000001e0: b29a 0080 631a 0000 2f15 0000 b51e 0000
000001f0: c3a1 0280 840a 0000 d021 0000 870f 0000
00000200: 9505 0080 641f 0080 6017 0000 d303 0000
00000210: 711f 0000 1220 0000 8106 0080 5ce5 0000
00000220: cf16 0080 7f16 0000 0a13 0080 981f 0000
00000230: a26d 0000 381e 0080 157f 0100 b904 0080
00000240: da02 0080 4217 0000 d8a1 0080 7d20 0000
00000250: 2715 0080 635b 0100 297f 0080 281a 0000
00000260: 3c08 0000 5b0a 0080 a0a5 0000 be1a 0080
00000270: 631f 0080 8703 0000 8f21 0000 b812 0000
00000280: 2a0f 0000 b510 0000 a304 0080 481c 0000
00000290: 1c0b 0080 9ee4 0000 8b00 0080 c30b 0000
000002a0: ce0a 0000 571d 0080 4513 0000 fe1b 0000
000002b0: 245b 0180 9513 0080 8407 0000 e10d 0080
000002c0: 3884 0080 270d 0080 ee13 0000 4ff7 0680
000002d0: 503d b71e 164c c9aa 22a4 4417 4f02 0000
000002e0: 2263 8113 6e37 90ad 9a9a 0280 3025 e78e
000002f0: f402 0000 fd07 0c94 493c 0000 f849 080f
00000300: fd0a a926 4501 0080 b42c 7a8c 4937 2717
00000310: 30b5 54ae c7f3 920c fbbe 060c 98b1 0500
00000320: 7015 6630 f17a 0400 40b9 deb1 45d8 ef02
00000330: fe2a 3f97 3d38 3e96 2c9a bf17 0c0a 0080
00000340: 1d6d b529 ad19 9d17 3835 efa1 6693 9a07
00000350: 0886 7c9c af1c 0000 a46e 4c9e f6c3 c31e
00000360: 1487 0000 bbb4 04b6 211f 0080 86f8 6fb1
00000370: 7094 1588 38d6 0a95 7666 ca18 071f 0000
00000380: a4dc b638 9509 132d 04ae a495 8cbe 8418
00000390: 7713 0080 04e9 7880 87e6 0080 cbde ad04
000003a0: 9fdf 4719 e6a7 a689 828b 2ab9 0d12 412f
000003b0: b086 81a0 8b53 0a80 04d8 a81a a835 fa2f
000003c0: 7652 03a2 eac2 9607 e3ee 2128 db0b 0000
000003d0: 2c57 ad9c da02 019f ab06 0080 5835 5f9c
000003e0: 891d 0000 1a71 8116 d607 a709 2926 1095
000003f0: 50a0 1699 f712 0000 d6b0 052b 80a6 8c9e

conv1.bias f4 [30]
-5.433622e-05 -4.4131034e-25 9.599408e-08 -4.049022e-20 7.489684e-11 -2.1391897e-10 -1.1713e-41 -2.4808608e-13
-2.2041345e-07 -1.1064362e-10 2.9895815e-24 3.896679e-17 -3.594914e-12 -2.3576658e-05 -1.84585e-15 -4.2128483e-09
-9.162253e-18 9.7717427e-17 2.9621685e-13 3.1437465e-25 -2.4435076e-09 -1.0251559e-25 -3.1389726e-13 -6.4082955e-22
2.06246e-11 -2.734171e-13 6.1858403e-09 2.0087382e-30 5.2007015e-13 5.699185e-09
00000000: 12e7 63b8 3594 0897 4e25 ce33 ac35 3f9f
00000010: 2cb3 a42e d634 6baf a720 0080 f9a8 8baa
00000020: caaa 6cb4 d24e f3ae c34e 6718 deb3 3324
00000030: 37f8 7cac 7dc6 c5b7 ec01 05a7 9bc0 90b1
00000040: 8403 29a3 3052 e124 59c1 a62a a796 c216
00000050: a4ea 27b1 f9d0 fd95 5db5 b0aa c9ad 419c
00000060: 786a b52d 8feb 99aa 3a8b d431 dcf7 220e
00000070: 0163 122b 90d2 c331

conv2.weight f4 [30, 10]
9.562887e-07 1.4502967e-22 -1.0597e-41 3.12e-42 -7.6106227e-23 0.027619625 3.864221e-27 -1.8590088e-30
-6.121e-42 -1.52913195e-30 1.2779527e-25 2.8041584e-20 1.0378e-41 1.235e-41 5.4055116e-26 -1.6937157e-18
5.766719e-29 -1.7617141e-30 -1.8540035e-14 -6.1942703e-27 -2.8504167e-17 1.9898065e-10 5.59e-42 -1.23e-41
0.000494869 4.703128e-08 -0.00012329419 -1.5020261e-07 -1.2756873e-22 -2.2947446e-19 1.0214e-41 -2.02378e-40
-1.1827e-41 1.8826535e-32 -1.15e-41 1.2022e-41 -5.209e-42 7.022e-42 1.167e-41 -1.23e-43
2.0320673e-22 -1.9095007e-11 -1.1761e-41 -1.4639e-40 2.3436162e-06 -2.7999476e-11 2.1023048e-23 6.4546235e-09
2.7713207e-28 -3.29658e-40 -7.309632e-12 -4.93e-43 1.0934e-41 -5.5788384e-11 -4.1915882e-08 -5.583648e-11
1.6134061e-20 -9.758585e-18 -3.90256e-40 9.701717e-21 7.5278e-41 2.668e-42 1.9957456e-19 4.071e-42
1.239e-41 -1.0783e-41 8.433e-42 6.365e-42 -1.2467e-41 9.972e-42 1.1086989e-20 1.918744e-09
-1.452e-42 -8.325e-42 1.3602039e-17 -5.489198e-13 -1.9490471e-21 -9.032285e-16 1.3923359e-23 2.797e-42
1.2057e-41 -5.7338e-41 8.57742e-05 5.117761e-36 -9.965e-42 1.1187e-41 5.392e-42 -1.15577095e-14
-4.7217763e-24 -3.880667e-15 1.0803e-41 3.70453e-40 8.683655e-11 -2.8249681e-12 2.15555e-13 1.577847e-15
0.00039252476 -6.036426e-21 -3.419e-42 7.934404e-26 -3.243434e-29 -4.0012566e-27 -3.6664e-41 1.1073e-41
2.1122849e-22 -2.2232681e-19 7.8950974e-24 -1.2538276e-31 -1.5039622e-26 -1.1346e-41 -7.5074644e-38 -6.1749446e-20
-1.7451241e-17 6.536e-42 6.06154e-21 1.569145e-16 2.1953368e-22 4.4231502e-13 -2.0519122e-19 2.2337869e-26
-4.8226523e-22 1.3751353e-15 2.34e-43 -1.798e-42 -7.642206e-06 -0.0001971627 1.4277177e-18 -6.7651903e-22
-2.4681015e-17 -0.0015516173 1.1223e-41 1.35957e-40 1.2622647e-06 -3.8e-44 2.364e-42 1.2142e-41
8.625e-42 3.5382983e-36 6.0846376e-36 -4.8332223e-23 6.4221283e-26 2.897287e-19 1.8403557e-13 2.201e-42
4.3052848e-19 1.1847809e-19 -0.007568604 -6.72686e-26 1.5233767e-24 -1.8408087e-30 1.5109754e-05 0.00015249185
-1.1011e-41 -6.8372e-41 -1.072398e-28 7.27229e-06 9.90581e-05 -0.0009792441 6.5232e-28 -6.51656e-22
-1.1534408e-21 9.022088e-19 -7.574e-42 -3.116e-42 -1.5678796e-22 2.4367911e-14 1.52462595e-24 2.6301617e-13
-2.2555333e-25 1.821585e-28 2.4507795e-17 4.1800627e-21 5.151e-42 -3.73121e-40 -1.9371553e-17 5.5721618e-15
3.806303e-23 5.0164328e-21 -1.0055853e-21 1.0769718e-27 2.082655e-35 -7.932927e-09 3.259758e-07 1.1765e-41
-7.5839624e-18 -8.330673e-15 -2.5305916e-22 -6.193462e-19 1.0012e-39 5.63e-43 -7.367909e-30 -7.1302693e-29
-4.212915e-09 -7e-44 -2.5758657e-29 -3.32492e-26 -5.997789e-35 -9.779382e-20 -3.0142635e-22 -2.3580696e-14
-1.741055e-17 -1.0502245e-15 -2.506728e-09 -3.618e-42 7.45643e-39 -1.010595e-39 -5.959e-41 2.31339e-40
-1.775008e-11 1.371758e-39 1.5189215e-21 1.1525905e-27 -1.24737e-40 1.221e-41 -3.9035877e-30 1.2196438e-23
1.5671939e-33 -1.0256386e-30 -1.68218e-32 1.2437e-41 -1.2986278e-06 1.9876289e-15 -3.2e-42 -5.655395e-21
-3.2805464e-16 1.0391727e-13 -7.59662e-19 8.2880374e-16 1.6725586e-10 -1.7065534e-21 0.0013526687 1.3132663e-25
2.875e-42 -4.223576e-17 -2.2681702e-26 2.0215981e-19 3.7401433e-32 -2.8049495e-34 1.6548245e-28 3.4425315e-07
6.90849e-29 -6.700766e-09 3.729844e-13 -1.33e-43 -2.7415786e-30 -5.5572947e-15 8.5827256e-29 -8.30998e-05
9.160269e-27 -4.52e-42 -1.731705e-15 -1.809085e-20 -5.098e-42 8.165e-42 -5.8909105e-10 -7.549919e-12
00000000: d459 8035 8254 2f1b 8a1d 0080 b308 0000
00000010: 7903 b89a 8d42 e23c db13 9913 1ad2 168e
00000020: 1011 0080 a81d f88d f033 1e16 326c 041f
00000030: ee1c 0000 6d22 0000 80d5 8515 c5f2 f9a1
00000040: 2534 9210 5fed 0e8e 69fe a6a8 5d61 f593
00000050: c873 03a4 13c8 5a2f 950f 0000 4a22 0080
00000060: 19ba 013a 70ff 4933 8848 01b9 6147 21b4
00000070: 9c38 1a9b 3375 87a0 791c 0000 2634 0280
00000080: f820 0080 8481 c30a 0f20 0080 8321 0000
00000090: 850e 0080 9313 0000 8820 0000 5800 0080
000000a0: 70a9 751b 22f6 a7ad c920 0080 1398 0180
000000b0: 0547 1d36 3749 f6ad 8c52 cb19 78c7 dd31
000000c0: 40a7 af11 f496 0380 a897 00ad 6001 0080
000000d0: 7b1e 0000 235c 75ae 0007 34b3 4a92 75ae
000000e0: c461 981e 9d03 34a3 e03f 0480 a042 371e
000000f0: d8d1 0000 7007 0000 b69d 6b20 590b 0000
00000100: 8a22 0000 0f1e 0080 8217 0000 be11 0000
00000110: c122 0080 cc1b 0000 646d 511e e7da 0331
00000120: 0c04 0080 3517 0080 d0e9 7a23 d781 1aab
00000130: 0e44 139d 402b 82a6 91a8 8619 cc07 0000
00000140: 9c21 0000 d69f 0080 ace1 b338 7caf d904
00000150: c71b 0080 2f1f 0000 080f 0000 8734 50a8
00000160: 35aa b698 d6d0 8ba7 1d1e 0000 ac08 0400
00000170: a2f4 be2e 1aca 46ac 80b1 722a 4864 e326
00000180: c8cb cd39 bb0c e49d 8809 0080 4372 c415
00000190: 2e76 2490 9081 9e93 3466 0080 de1e 0000
000001a0: 0d5c 7f1b 143d 83a0 a1b6 1819 92c1 228c
000001b0: f9f1 9494 a11f 0080 645f cc81 40cd 919f
000001c0: 94f5 a0a3 3812 0000 9eff e41d fce8 3425
000001d0: 31b3 841b 5000 f92a 3e3f 72a0 3a39 dd14
000001e0: 77c1 119c 8a2d c626 a700 0000 0305 0080
000001f0: 0637 00b7 76bd 4eb9 a6b1 d221 2077 4c9c
00000200: 66a4 e3a3 a35f cbba 491f 0000 fe7a 0100
00000210: 166b a935 1b00 0080 9706 0000 d921 0000
00000220: 0b18 0000 a880 9604 eb67 0105 65b8 699a
00000230: 1301 9f15 9006 ab20 a434 4f2a 2306 0000
00000240: a023 fe20 cedf 0b20 0d02 f8bb 8a8c a695
00000250: 2bbb eb17 1a58 158e e67f 7d37 38e6 1f39
00000260: b21e 0080 98be 0080 4ef1 0791 7f04 f436
00000270: 6abd cf38 fb59 80ba 7cba 4e12 71f3 449c
00000280: 944d ae9c 7c24 8521 1d15 0080 b008 0080
00000290: 868b 3d9b 947c db28 a8ec eb17 a010 942a
000002a0: 5a9c 8b96 d0e9 6611 650b e223 16eb 9d1d
000002b0: 5c0e 0000 1c10 0480 c9ab b2a3 1fc2 c827
000002c0: c00f 381a f683 bd1d b2f5 979c 2ba7 aa12
000002d0: 4377 dd05 6249 08b2 c601 af34 cc20 0000
000002e0: 40e6 0ba3 7312 16a8 02f7 989b 7acc 36a1
000002f0: f0e6 0a00 9201 0000 5f70 158f 18c6 b490
00000300: 31c1 90b1 3200 0080 a69c 0290 5ea4 2495
00000310: d672 9f86 bde8 e69f 7833 b69b 6265 d4a8
00000320: 8095 a0a3 725a 97a6 d342 2cb1 160a 0080
00000330: 7e31 5100 2101 0b80 1da6 0080 e184 0200
00000340: a021 9cad e7ef 0e00 6e88 e51c a0a2 b612
00000350: b75b 0180 0922 0000 2c59 9e8e d6e9 6b19
00000360: 8732 0209 5c6b a68d 04b0 ae8a ab22 0000
00000370: 834c aeb5 4839 0f27 ec08 0080 a0a7 d59d
00000380: 521c bda5 3a00 ea29 7036 60a1 ece2 6e26
00000390: 57e6 372f 8bf1 009d 084c b13a 1293 2216
000003a0: 0408 0000 2fc7 42a4 f2a0 e094 0eab 6e20
000003b0: 0833 420b be6b ba87 20c6 5111 cbd1 b834
000003c0: aa26 af10 903c e6b1 b8f8 d12a 5f00 0080
000003d0: 5c6c 5e8e ff38 c8a7 1399 d910 de45 aeb8
000003e0: 1570 3514 9a0c 0080 a390 f9a6 fedc aa9e
000003f0: 360e 0080 c316 0000 99ed 21b0 d0d1 04ad

conv2.bias f4 [10]
-0.0007645529 -1.3654366e-05 -0.0004968279 -9.93597e-12 -2.095378e-05 -0.0060403734 -1.9182643e-08 -1.6972307e-07
-6.1187265e-08 -4.122909e-12
00000000: 476c 48ba 0e15 65b7 8e3d 02ba a1cb 2ead
00000010: e6c5 afb7 53ee c5bb 14c7 a4b2 1f3d 36b4
00000020: 0e66 83b3 dd0f 91ac

rnn.weight_ih_l0 f4 [30, 1]
-0.024452703 3.1177177 -0.15364717 -0.01745775 -0.30953726 -1.369994 -0.070377454 -0.7382606
-0.63409144 0.37898397 -0.33819824 0.07772047 -0.18527663 -0.14332362 -0.4413119 -0.11683011
0.01827321 -0.28811374 0.012596079 -2.202466 0.56742483 0.80662614 0.096912004 2.1447887
-4.243413 0.059183653 -3.5357537 -0.9167416 -0.0019516547 0.3168131
00000000: 0951 c8bc b088 4740 af55 1dbe 8e03 8fbc
00000010: ab7b 9ebe f75b afbf 0e22 90bd a6fe 3cbf
00000020: d153 22bf 300a c23e 5228 adbe e92b 9f3d
00000030: 28b9 3dbe 6dc3 12be a2f3 e1be a044 efbd
00000040: b3b1 953c a583 93be c95f 4e3c 34f5 0cc0
00000050: c142 113f 0d7f 4e3f cd79 c63d 3844 0940
00000060: 0aca 87c0 8f6a 723d ca49 62c0 94af 6abf
00000070: aace ffba 5435 a23e

rnn.weight_hh_l0 f4 [30, 30]
0.26914212 -0.07072998 -0.04211139 0.13931629 0.148469 0.06705458 -0.13607271 0.012387609
0.23882176 0.066039294 -0.15569323 -0.087056056 -0.121161185 0.11112208 -0.07521248 -0.17267205
-0.12072539 -0.13423158 -0.16044188 0.19394828 0.052563857 -0.14654212 0.11441481 -0.054270204
0.23299205 -0.115200296 0.045949224 -0.105645694 -0.10931908 0.10657751 -0.027617352 0.93586594
0.05025673 -0.06220796 -0.11724193 -0.04790987 -0.29619765 -0.07818005 -0.038918704 -0.050511617
0.051686876 0.09623627 0.041251052 -0.08049161 0.33984968 -0.017743459 0.04439245 0.07239878
0.061456226 0.17955482 -0.14299756 -0.05195249 -0.042298473 0.6059528 -0.11691379 0.0500391
-0.5419369 -0.4850816 0.1499524 -0.1740694 -0.15187426 -0.14065063 -0.23479028 0.20164023
-0.18479423 0.26560944 0.041372996 -0.11588746 -0.095274955 0.3008279 0.023522088 -0.33877462
-0.21337914 0.28271016 -0.22622603 0.05407891 -0.2319463 -0.35056108 -0.24269632 -0.047059417
0.07653988 -0.19451715 -0.09192924 -0.032752816 0.24687676 -0.20612262 0.15659857 0.028903915
0.05714983 0.0073131784 -0.41593835 -0.3137648 0.40512788 -0.38521627 -0.20426121 -0.4228805
0.31990412 0.32894468 -0.2416889 -0.37890086 0.39997914 0.4195435 0.42757487 -0.41174588
0.43085378 -0.42625353 0.42595562 0.41100252 0.4114365 -0.32084122 0.3832087 0.39887813
-0.3604804 -0.41340166 -0.36875722 0.4197908 -0.42130595 -0.40394846 -0.42318618 -0.33181965
0.10315005 -0.028349891 -0.07380637 0.21686243 1.2243013 0.10321734 -0.25376666 -0.10238251
0.8219167 0.17054719 -0.31829652 -0.17576414 -0.24532817 0.15363963 -0.066003025 -0.15743235
-0.20509225 -0.24402072 -0.30673826 0.28711393 0.021464847 -0.3164051 0.08201717 0.21047318
0.31313744 -0.17757234 0.037508212 -0.10471212 -0.043681405 0.1512458 0.16033402 -0.36768985
0.043330725 -0.12802602 0.282985 0.038193095 0.084038466 0.013151495 -0.029016534 -0.09776053
0.09013013 0.083031364 0.05369604 -0.08336246 0.013675541 -0.08425258 0.050825622 0.11066967
-0.016321972 -0.036223423 0.078333944 0.07382113 -0.054907456 -0.31755635 0.09615195 0.029404901
0.30725613 0.3311018 -0.07430008 -0.01384532 0.24411714 0.010799617 -0.06617063 0.09564715
0.12899181 0.08824444 0.10876338 0.47942877 0.19283524 0.088930614 -0.12452702 -0.08694893
-0.088338226 0.087977335 -0.023206683 0.04954314 -0.0824499 -0.08997002 -0.07291263 0.103778005
-0.20472854 -0.08786321 0.08965097 -0.016212828 0.18134782 -0.087045364 0.018980008 -0.14373145
0.37794906 0.14019798 -0.40644503 0.047352437 -0.2824253 0.16497801 -0.47925314 0.14134078
-0.1640663 0.45337945 -0.42655066 0.16428018 -0.15058447 -0.23124437 -0.131028 0.1107814
-0.2991914 -0.20642549 -0.17000456 -0.17240301 -0.15734325 0.14277427 0.11350176 -0.17320548
0.14693059 0.18018718 0.25966245 -0.10406271 -0.11589413 -0.20608039 -0.20184337 0.054737076
0.07286796 0.1290197 0.1387449 -0.11933866 0.033441264 -0.09827898 0.13059518 0.19517829
-0.020767521 -0.08522325 0.13032465 0.13193439 0.09652204 -0.09605963 0.08428065 0.21282642
00000000: ffcc 893e e1da 90bd fe7c 2cbd eea8 0e3e
00000010: 4208 183e e953 893d a556 0bbe 66f5 4a3c
00000020: b18d 743e 9c3f 873d 0c6e 1fbe 724a b2bd
00000030: 5b23 f8bd f993 e33d 0009 9abd f1d0 30be
00000040: e03e f7bd 0174 09be e04a 24be 619a 463e
00000050: 334d 573d 230f 16be 5052 ea3d 6f4a 5ebd
00000060: 7895 6e3e 22ee ebbd 4135 3c3d c55c d8bd
00000070: afe2 dfbd 4f45 da3d c93d e2bc e994 6f3f
00000080: 00da 4d3d c6cd 7ebd 891c f0bd 243d 44bd
00000090: 38a7 97be dd1c a0bd 3869 1fbd 45e5 4ebd
000000a0: 9eb5 533d 8617 c53d ddf6 283d c9d8 a4bd
000000b0: c700 ae3e bb5a 91bc dcd4 353d d045 943d
000000c0: 86b9 7b3d 38dd 373e f46d 12be 22cc 54bd
000000d0: 2a41 2dbd b91f 1b3f 7f70 efbd cdf5 4c3d
000000e0: 60bc 0abf 9e5c f8be 1f8d 193e 403f 32be
000000f0: ed84 1bbe b806 10be dd6c 70be c77a 4e3e
00000100: b33a 3dbe f6fd 873e bb76 293d 6856 edbd
00000110: 841f c3bd 1d06 9a3e 65b1 c03c de73 adbe
00000120: 1080 5abe 63bf 903e cca7 67be d981 5d3d
00000130: 5583 6dbe be7c b3be 6285 78be 60c1 40bd
00000140: f1c0 9c3d 812f 47be 6645 bcbd d127 06bd
00000150: 43cd 7c3e cf11 53be 605b 203e e7c7 ec3c
00000160: f115 6a3d 63a3 ef3b dff5 d4be c8a5 a0be
00000170: ec6c cf3e 113b c5be da29 51be cb83 d8be
00000180: 79ca a33e 706b a83e 4c7d 77be 4bff c1be
00000190: 11ca cc3e 68ce d63e 18eb da3e 5bd0 d2be
000001a0: de98 dc3e e73d dabe db16 da3e ec6e d23e
000001b0: cea7 d23e 4d45 a4be ee33 c43e c139 cc3e
000001c0: e390 b8be 62a9 d3be bfcd bcbe d2ee d63e
000001d0: 6ab5 d7be 55d2 cebe dcab d8be 44e4 a9be
000001e0: 5540 d33d 083e e8bc cb27 97bd 2f11 5e3e
000001f0: e8b5 9c3f 9d63 d33d b4ed 81be ecad d1bd
00000200: 2269 523f eca3 2e3e c3f7 a2be 84fb 33be
00000210: 4f37 7bbe b553 1d3e 982c 87bd f235 21be
00000220: b403 52be 91e0 79be cc0c 9dbe 9900 933e
00000230: 0cd7 af3c d9ff a1be 9ef8 a73d 4886 573e
00000240: 8d53 a03e 86d5 35be 36a2 193d 4f73 d6bd
00000250: 46eb 32bd 2ee0 1a3e 9a2e 243e d841 bcbe
00000260: 8f7b 313d 4119 03be 69e3 903e 5d70 1c3d
00000270: 5c1c ac3d 5e79 573c 15b4 edbc ac36 c8bd
00000280: 2596 b83d 590c aa3d 61f0 5b3d f0b9 aabd
00000290: 600f 603c 9e8c acbd 872e 503d c8a6 e23d
000002a0: a8b5 85bc 035f 14bd 8c6d a03d 882f 973d
000002b0: a4e6 60bd bf96 a2be 50eb c43d 8ce2 f03c
000002c0: ad50 9d3e 2d86 a93e a42a 98bd 7bd7 62bc
000002d0: d8f9 793e e0f0 303c 7884 87bd a7e2 c33d
000002e0: 6e16 043e 80b9 b43d 56bf de3d b077 f53e
000002f0: 9a76 453e 4121 b63d 0608 ffbd 4812 b2bd
00000300: acea b4bd 762d b43d f11b bebc bfed 4a3d
00000310: 7edb a8bd 3442 b8bd 3853 95bd 9089 d43d
00000320: 5ca4 51be a0f1 b3bd ee9a b73d c4d0 84bc
00000330: 3eb3 393e d744 b2bd f67b 9b3c 562e 13be
00000340: 8a82 c13e 0f90 0f3e 9019 d0be a1f4 413d
00000350: 0d9a 90be ffef 283e ab60 f5be a3bb 103e
00000360: ff00 28be 5a21 e83e d964 dabe 1039 283e
00000370: d132 1abe 53cb 6cbe 342c 06be 5ce1 e23d
00000380: 9d2f 99be 3461 53be ad15 2ebe 6a8a 30be
00000390: 971e 21be 6b33 123e 9c73 e83d c75c 31be
000003a0: f974 163e fd82 383e 7af2 843e d51e d5bd
000003b0: e759 edbd bd06 53be 07b0 4ebe fc33 603d
000003c0: cc3b 953d be1d 043e 2513 0e3e d467 f4bd
000003d0: b5f9 083d 7d46 c9bd beba 053e d1dc 473e
000003e0: a620 aabc 8789 aebd d373 053e cf19 073e
000003f0: 59ad c53d e9ba c4bd 559b ac3d 2bef 593e
