colagnn-master-Run-Epi/src/save/cola_gnn_epi.us_hhs.w-20.h-2.RNN.lam-0.1.epo-500.pt (torch, 49334 bytes, 32 tensors)

V f4 [15]
000000 ad 35 96 be e8 c9 0a a5 d1 85 ec 22 db 1b 9c 1f
       -0.29337826 -1.2038e-16 6.410961e-18 6.611465e-20
000010 8f de 29 00 12 85 0f 25 22 e1 76 92 94 76 a1 29
       3.845094e-39 1.2448359e-16 -7.790141e-28 7.170406e-14
000020 02 b7 80 8f 74 68 8e 9a 1a d4 de a8 d5 ae 3a 26
       -1.2692267e-29 -5.8898577e-23 -2.4738936e-14 6.4768655e-16
000030 00 56 2c 19 fd c9 8a 97 bc 06 6c b8
       8.909559e-24 -8.96903e-25 -5.6273057e-05

W1 f4 [15, 30]
000000 f4 3f 3e bb d2 ca 63 3d 97 87 14 3d 76 39 43 3d
       -0.0029029818 0.055613346 0.03626212 0.04766222
000010 6f b9 5e 3d 1b ff 60 bd ed d3 36 3c fb e6 3d bd
       0.054376062 -0.054930788 0.0111589255 -0.04636286
000020 19 af 62 bd 7c f5 59 bd b4 99 5b 3d 52 29 ad 3c
       -0.055342767 -0.053212628 0.05361338 0.021137867
000030 d5 b0 5c bd 40 a9 e3 39 e0 ac 4d bd bb 92 5e 3d
       -0.053879578 0.00043422915 -0.050213695 0.05433915
000040 cd 48 6f bc da a0 ef bc c0 a7 2e 3c 82 e7 60 3d
       -0.014604759 -0.029251505 0.010660112 0.054908283
000050 49 c8 b6 3b 06 df 47 bd e4 59 4e 3d eb 4c 1d bc
       0.005578075 -0.048796676 0.050378695 -0.009600858
000060 ba 6d b0 bd 31 58 56 bd 1a b4 9c bc 90 dc 6c bd
       -0.08614679 -0.0523302 -0.019128848 -0.057827532
000070 0f 28 52 bd 98 d1 60 bd 6e be 8c 21 5d 24 73 22
       -0.051307734 -0.054887384 9.537175e-19 3.2951892e-18
000080 b1 6f 3a a0 9c 48 d9 22 5f 3b 16 22 e0 e4 06 a2
       -1.5791768e-19 5.8894846e-18 2.0360222e-18 -1.8281552e-18
000090 90 f8 c3 20 b7 d4 42 a2 99 3f 08 a2 ce 26 6d a2
       3.319877e-19 -2.6404513e-18 -1.8465105e-18 -3.2140032e-18
0000a0 7c 05 0d 22 6a 66 81 20 1e 11 95 a2 8f d6 06 a1
       1.9111967e-18 2.1921222e-19 -4.0404654e-18 -4.568493e-19
0000b0 f6 b3 03 a3 94 20 11 22 f9 a9 a4 a0 f7 8e 4a a0
       -7.1396324e-18 1.9668411e-18 -2.789516e-19 -1.7157369e-19
0000c0 26 3b 9c 9f dd 55 0b 22 73 65 44 a0 90 b4 d2 a0
       -6.616642e-20 1.8883468e-18 -1.6635412e-19 -3.569487e-19
0000d0 ee a3 05 22 bc cf 22 22 2e c7 6a a2 5c 3d f9 a1
       1.8111645e-18 2.2065068e-18 -3.1818358e-18 -1.6889138e-18
0000e0 b6 f3 cf a0 3e 05 93 a1 1a 42 7a a2 bb 6a b1 a0
       -3.5228438e-19 -9.962495e-19 -3.3916312e-18 -3.0055595e-19
0000f0 e4 73 4f 1e ce 4f 24 20 dd eb 14 1f e4 fd 9a 9f
       1.0982454e-20 1.3917745e-19 3.153532e-20 -6.5641564e-20
000100 45 44 9d 20 37 e1 a3 a0 66 45 c6 9e be 38 8f a0
       2.6642012e-19 -2.776231e-19 -2.0992768e-20 -2.426269e-19
000110 a1 6a a0 a0 00 6a 19 a0 3c a9 9e 20 10 7b 94 9c
       -2.7175615e-19 -1.2994677e-19 2.687823e-19 -9.825629e-22
000120 18 14 86 9f 92 5f 99 9d 7a 88 15 20 8e 1d 9a 20
       -5.678445e-20 -4.059758e-21 1.2665947e-19 2.6108172e-19
000130 93 ca 13 9e c0 fe 71 9d 2a a4 08 1f ba 1b a2 20
       -7.8240066e-21 -3.2027787e-21 2.8934914e-20 2.7462215e-19
000140 ba 09 1a 1e 94 64 06 9f 0d 04 9d 20 ed 0d 14 9f
       8.1547035e-21 -2.84588e-20 2.6599515e-19 -3.1351738e-20
000150 26 3e a7 1f 8c f1 9e a0 14 83 80 9f 50 83 7c 9e
       7.083007e-20 -2.6926083e-19 -5.442696e-20 -1.3367924e-20
000160 8a 71 1c a0 a0 a3 db 9b 9e f1 1b 9e 98 c4 9a 9f
       -1.3251281e-19 -3.633625e-22 -8.255597e-21 -6.5546774e-20
000170 ee 5a b1 9d ba 8a 97 9f a0 ca 10 9e e5 eb 9e 1f
       -4.694553e-21 -6.418049e-20 -7.665198e-21 6.730586e-20
000180 aa ab f2 1c 08 f2 4d a0 bc af 9e 1f e2 d2 91 1f
       1.6058591e-21 -1.7444257e-19 6.720633e-20 6.1758765e-20
000190 4c 1d 9c 9f a0 25 a5 1b fe dc 96 1f 1e 24 c1 1d
       -6.611704e-20 2.7321275e-22 6.389307e-20 5.112402e-21
0001a0 56 45 98 1f ea 07 9e 9f dd fa 17 1d b2 17 33 1d
       6.448921e-20 -6.6928696e-20 2.0114377e-21 2.3702703e-21
0001b0 52 a6 cd 9d 24 ae 9e 9f 5a 4d 40 9c 44 b1 2c 1e
       -5.443502e-21 -6.7203694e-20 -6.3627446e-22 9.142262e-21
0001c0 a0 96 98 9f b9 f1 35 9e 41 9f 25 1e c9 4a 97 1f
       -6.462369e-20 -9.632047e-21 8.76796e-21 6.407471e-20
0001d0 6e ad 46 9e 94 37 66 1e 78 f0 9a 1f 52 f0 5d 1d
       -1.0517897e-20 1.2187592e-20 6.561936e-20 2.937335e-21
0001e0 db 30 02 80 33 35 04 80 33 07 02 80 22 64 04 80
       -2.01197e-40 -3.86426e-40 -1.86254e-40 -4.03263e-40
0001f0 eb 1f 04 80 68 53 04 00 11 73 01 80 46 36 04 00
       -3.78792e-40 3.97263e-40 -1.33114e-40 3.86812e-40
000200 cb 53 04 00 3f 1f 04 00 36 50 04 80 90 08 00 80
       3.97401e-40 3.78551e-40 -3.96116e-40 -3.072e-42
000210 a5 37 04 00 2a 1d 01 00 0d 3c 04 00 8a 62 04 80
       3.87303e-40 1.02298e-40 3.88884e-40 -4.02691e-40
000220 79 46 01 00 c9 92 01 80 7e 03 03 00 5a 5d 04 80
       1.17116e-40 -1.44492e-40 2.76759e-40 -4.0083e-40
000230 11 e4 00 00 c1 b9 00 00 36 38 04 80 5e 21 04 80
       8.1815e-41 6.6636e-41 -3.87507e-40 -3.79312e-40
000240 fd 72 13 00 54 07 04 00 4d 9f 01 00 88 c8 00 80
       1.786124e-39 3.69971e-40 1.48982e-40 -7.1937e-41
000250 4b 2f 04 00 b3 53 02 00 e9 79 22 22 fa e1 91 23
       3.84308e-40 2.13697e-40 2.2019633e-18 1.5816636e-17
000260 1e 06 d8 21 0e 68 45 23 af 7e 98 23 2d 93 9c a3
       1.4638349e-18 1.0701426e-17 1.6533526e-17 -1.6975885e-17
000270 76 c2 c7 a0 0a 1b 8c a3 6b 4e 9c a3 b5 37 88 a3
       -3.3840595e-19 -1.5190282e-17 -1.6946765e-17 -1.4768742e-17
000280 22 88 9b 23 a6 d6 af 20 74 11 81 a3 d9 d8 a9 a1
       1.6862788e-17 2.9788196e-19 -1.39936e-17 -1.1509285e-18
000290 3a 22 2d a3 c6 cc 9b 23 6e b9 8b a1 9b 7e 11 a1
       -9.3855965e-18 1.6891859e-17 -9.468089e-19 -4.929547e-19
0002a0 62 3f d3 21 c2 76 9c 23 25 6a 22 1f 76 7b 28 a2
       1.4314693e-18 1.696385e-17 3.4392635e-20 -2.2833605e-18
0002b0 b7 7a 98 23 3f f1 10 22 06 df fd a1 f2 72 97 a3
       1.6531845e-17 1.9643354e-18 -1.7202981e-18 -1.6420134e-17
0002c0 fc f7 7e a2 45 33 28 a2 ac c9 8f a3 4c 99 4e a1
       -3.45547e-18 -2.2795387e-18 -1.5589502e-17 -6.99984e-19
0002d0 ec 8c 2b 0f 84 f0 35 10 dc aa 2e 8d d6 09 75 10
       8.4580915e-30 3.5881242e-29 -5.3823554e-31 4.8325308e-29
0002e0 46 df 2e 10 da ee 14 90 2e 7c 47 0d a9 aa 55 90
       3.4487453e-29 -2.9371858e-29 6.1471085e-31 -4.2138315e-29
0002f0 f8 2f 18 90 b7 1b 30 90 4b cb 17 10 61 25 0e 0e
       -3.0013668e-29 -3.473123e-29 2.993611e-29 1.7520849e-30
000300 1a 69 46 90 00 68 2c 8e 99 d5 7c 90 08 82 19 10
       -3.9129582e-29 -2.1250711e-30 -4.9862787e-29 3.0274102e-29
000310 50 60 2c 8e 78 f2 eb 8d 55 3d b1 0d 4e 6e 19 10
       -2.124701e-30 -1.4541365e-30 1.0923232e-30 3.0258905e-29
000320 f3 f5 12 8e 3c 43 b4 8e d4 66 12 10 2a 9e 96 0f
       -1.811431e-30 -4.443817e-30 2.887264e-29 1.4852065e-29
000330 7a cb bc 8f 74 a8 0d 90 9c 10 0e 8f 3e 45 38 8f
       -1.8616608e-29 -2.7937118e-29 -7.0043394e-30 -9.085236e-30
000340 8e f2 33 90 20 b6 db 8d 10 4c 12 27 7c aa b4 28
       -3.5488383e-29 -1.3540762e-30 2.0302804e-15 2.005795e-14
000350 10 10 49 a6 32 60 a9 a9 c3 48 1c 29 1f 2f 12 a9
       -6.975765e-16 -7.521795e-14 3.470207e-14 -3.2459383e-14
000360 e8 bd d3 a7 79 21 17 a9 6b 98 1b a9 60 6d 91 28
       -5.877016e-15 -3.3557768e-14 -3.4549115e-14 1.6145668e-14
000370 5c f8 1d 29 f6 5c e0 a6 b4 68 8d 28 54 b6 53 27
       3.507642e-14 -1.5568319e-15 1.5699552e-14 2.9380973e-15
000380 c6 d9 ac 29 d8 51 19 29 f0 3c ad a5 1a 70 3b a7
       7.676112e-14 3.4043813e-14 -3.005201e-16 -2.6012234e-15
000390 38 dc d0 26 3c a3 1e 29 27 64 a4 a6 0c db a5 a6
       1.449259e-15 3.522463e-14 -1.1406932e-15 -1.1508548e-15
0003a0 4b cc 18 29 a8 0b f1 26 5c 05 75 a7 b6 42 15 a9
       3.3927976e-14 1.6725894e-15 -3.4003485e-15 -3.314251e-14
0003b0 a8 8c cb a6 7f 59 10 a8 4c e3 0e 28 7c 21 60 27
       -1.412408e-15 -8.013012e-15 7.931871e-15 3.1104397e-15
0003c0 1f 25 98 0c df 45 4d 0f 1e 09 89 0c ef 9d 48 0f
       2.344165e-31 1.0120737e-29 2.111368e-31 9.891178e-30
0003d0 5f 2d 4b 0f b8 61 4b 8f b1 c7 1c 8e 5b c5 47 8f
       1.0017411e-29 -1.0027493e-29 -1.9324632e-30 -9.849467e-30
0003e0 58 84 4b 8f 02 71 46 8f a1 1c 4b 0f d8 1a 8b 8c
       -1.0034161e-29 -9.783918e-30 1.00141865e-29 -2.1432497e-31
0003f0 21 28 4a 8f 3b 0a db 0d 4b f7 49 8f 66 60 4b 0f
       -9.9670975e-30 1.349938e-30 -9.957692e-30 1.00272384e-29

b1 f4 [15]
000000 ed 3d 67 3d 6c 4b 0a 22 76 61 a1 20 58 c4 9d 9f
       0.05645554 1.8742415e-18 2.7338955e-19 -6.681691e-20
000010 0e 42 04 80 b1 03 9d 23 e2 c1 1a 10 da 83 1f 29
       -3.91038e-40 1.7023537e-17 3.0520507e-29 3.5419455e-14
000020 73 97 4c 0f e1 7a 7a 18 cc 71 09 27 e8 be 83 a4
       1.00871446e-29 3.237378e-24 1.9074259e-15 -5.71356e-17
000030 fc 39 90 9b 44 14 c1 14 74 29 f6 36
       -2.3860273e-22 1.9496013e-26 7.336197e-06

W2 f4 [15, 30]
000000 b3 c3 b6 bd e5 40 5b 3d cf 83 aa bc d4 da 48 3d
       -0.089240454 0.053528685 -0.020814804 0.049036816
000010 71 c7 62 3d 64 37 62 bd d2 c4 b3 bd 26 a8 46 bd
       0.055365983 -0.055228606 -0.08777775 -0.048500203
000020 b1 2a 62 bd ed 4b 86 bd 2f 6c 5e 3d 35 27 dc bd
       -0.055216495 -0.065574504 0.05430239 -0.10749666
000030 76 e3 69 bd af 81 49 3e cf d1 50 bd 0a cd 5f 3d
       -0.05710169 0.19678377 -0.05098134 0.0546389
000040 a0 c5 1c 3b f1 e6 8c bc 72 0f 14 bd 2c 04 62 3d
       0.0023921505 -0.017199965 -0.036147542 0.05517976
000050 dc 6c 74 bd 6c 59 c6 3c e9 56 5f 3d 13 a0 62 be
       -0.05967413 0.024212562 0.054526243 -0.22131376
000060 0e 78 78 3e 13 5c 6e bd 50 76 4f bb ce 7b be 3d
       0.24264547 -0.058193278 -0.0031656213 0.093009576
000070 b4 51 55 bd 06 c2 e3 3d e2 f8 ce 23 94 b3 1a 23
       -0.05207987 0.111209914 2.243997e-17 8.386384e-18
000080 3e 0a 2a 23 c5 72 b9 22 7c 50 05 22 d0 dc 20 a2
       9.217887e-18 5.0265867e-18 1.806747e-18 -2.180094e-18
000090 57 a5 82 23 aa 42 46 a2 d2 fe ed a1 c4 c1 b8 22
       1.4164652e-17 -2.6869295e-18 -1.6127195e-18 5.0078457e-18
0000a0 79 cc 15 22 c7 1b 44 a2 e8 73 dc a1 9f 9c d0 a3
       2.0301512e-18 -2.6577658e-18 -1.493846e-18 -2.2617737e-17
0000b0 fd 34 31 a3 7e 81 58 22 ad 2c 4b a3 76 3b 27 a3
       -9.60641e-18 2.9342011e-18 -1.10141125e-17 -9.0656795e-18
0000c0 79 9e 1c a3 95 d3 11 22 b1 18 b9 a3 dc c0 00 a3
       -8.490335e-18 1.9763175e-18 -2.0068197e-17 -6.9797335e-18
0000d0 56 b0 1f 21 60 15 be 24 9d a7 21 a5 e0 57 c2 21
       5.4104674e-19 8.2435576e-17 -1.4021314e-16 1.3169212e-18
0000e0 54 b3 70 22 d7 4d fb a3 9b 13 f1 a2 38 5b 9a a3
       3.2621e-18 -2.7246441e-17 -6.534394e-18 -1.6735346e-17
0000f0 f6 30 97 a1 d6 91 4b a0 ac e1 d3 a0 18 8b 32 1f
       -1.0245118e-18 -1.7243022e-19 -3.5894127e-19 3.7808022e-20
000100 12 8e b6 20 e0 1f 92 a0 dd b4 45 a1 cc 5c 7a a0
       3.0926014e-19 -2.4754455e-19 -6.6985567e-19 -2.1206528e-19
000110 f2 98 aa a0 cb d5 0e a1 99 5f 9b 20 98 23 2a 9f
       -2.890033e-19 -4.8394424e-19 2.6321283e-19 -3.6028343e-20
000120 e2 c0 66 a0 f3 a1 94 21 a2 5e 6c 20 74 21 58 20
       -1.9545577e-19 1.0071738e-18 2.0021289e-19 1.830698e-19
000130 f9 21 1a 21 98 d5 8d 20 28 b7 f8 20 60 62 9f 20
       5.222219e-19 2.4027674e-19 4.2134037e-19 2.7000747e-19
000140 da b1 2c 21 26 ca aa 1f 1b 00 bd 20 97 ce 42 a2
       5.851125e-19 7.233223e-20 3.2017915e-19 -2.640127e-18
000150 7e 00 d6 22 a7 a1 ea a0 a8 e9 7b a0 5e 3b 7e 21
       5.8005337e-18 -3.9748114e-19 -2.1337837e-19 8.613712e-19
000160 ca 9f 09 20 38 63 5d 21 82 29 da 9f e4 c8 96 9f
       1.1657221e-19 7.500903e-19 -9.239526e-20 -6.3859817e-20
000170 f5 41 a5 9e c0 26 9e 9f d0 eb 3d 9e f9 4b a0 1f
       -1.7497334e-20 -6.697971e-20 -1.00543416e-20 6.788832e-20
000180 52 c1 0b 1f 85 60 84 1f 35 7c 9f 1f ce 27 88 1f
       2.9594306e-20 5.606385e-20 6.75446e-20 5.766409e-20
000190 70 6f 9e 9f 48 66 03 9e 28 66 94 1f c8 b2 66 9f
       -6.709996e-20 -6.9562335e-21 6.284944e-20 -4.885228e-20
0001a0 2b a2 9b 1f f5 c3 9d 9f 00 a4 96 1e cc ba 50 1e
       6.591334e-20 -6.681627e-20 1.5949697e-20 1.1050057e-20
0001b0 ec ed cd 9e b9 9f a0 9f 69 5c 4a 1f 84 59 a7 1d
       -2.1803621e-20 -6.8026875e-20 4.2851604e-20 4.429709e-21
0001c0 92 cd 97 9f 48 27 90 9f 70 f8 80 9f 5c b8 94 1f
       -6.4291075e-20 -6.105136e-20 -5.4621114e-20 6.2985435e-20
0001d0 74 ad 34 1f 4c d9 ed 1e 34 d9 9c 1f ea d8 09 9f
       3.825996e-20 2.5183223e-20 6.64279e-20 -2.9190306e-20
0001e0 88 5d 08 00 cd 4b 02 00 01 5d 0a 00 ca cb 03 80
       7.68237e-40 2.10863e-40 9.51718e-40 -3.48612e-40
0001f0 cb 94 03 80 78 69 04 00 7f ac 03 80 d2 f9 03 00
       -3.28883e-40 4.05177e-40 -3.37386e-40 3.65125e-40
000200 13 94 04 00 ca 62 02 00 34 49 04 80 72 fc 1f 80
       4.20461e-40 2.1911e-40 -3.93602e-40 -2.93746e-39
000210 f7 d6 02 00 ca 0a 1e 00 8d 34 04 00 04 4c 04 80
       2.60786e-40 2.758935e-39 3.86194e-40 -3.94611e-40
000220 14 bb 09 00 fa 81 29 80 47 24 02 80 39 64 04 80
       8.9363e-40 -3.811882e-39 -1.96685e-40 -4.03295e-40
000230 1f 26 22 80 76 6f 1c 00 3f cf 01 80 59 21 21 00
       -3.136082e-39 2.611379e-39 -1.66181e-40 3.042534e-39
000240 74 78 4a 80 a0 da 01 00 42 32 16 00 19 c7 0c 80
       -6.839037e-39 1.70263e-40 2.03841e-39 -1.173449e-39
000250 65 1b 04 00 09 cd 0a 00 0b 8b 88 a3 f9 4b 13 23
       3.77169e-40 9.91908e-40 -1.4804037e-17 7.984974e-18
000260 f1 e8 51 22 5c f9 82 23 bc 12 99 23 c0 8a 9b a3
       2.84481e-18 1.4200236e-17 1.6596228e-17 -1.6863897e-17
000270 1d ef f7 a2 e6 24 99 a3 fe 51 9d a3 41 18 ab a3
       -6.7202655e-18 -1.660392e-17 -1.7056699e-17 -1.8550129e-17
000280 fa 1f 9c 23 ca a9 5f a3 89 be 7e a3 84 64 9d 23
       1.6927096e-17 -1.21248085e-17 -1.3809715e-17 1.7064544e-17
000290 a2 e9 01 a3 d4 fa 95 23 b6 a9 1a 23 da c2 a4 a1
       -7.042578e-18 1.6260842e-17 8.3842944e-18 -1.1164649e-18
0002a0 26 89 35 23 9f a2 9c 23 20 54 4e a3 5f 15 21 a2
       9.841072e-18 1.6982427e-17 -1.11850965e-17 -2.1830882e-18
0002b0 34 e1 9d 23 7c 93 cd a2 a2 9e 8f 24 2a c2 a6 a3
       1.7117351e-17 -5.5721516e-18 6.22851e-17 -1.8079988e-17
0002c0 49 d5 b9 a2 50 f8 99 22 66 9d 45 a3 0c b4 52 23
       -5.0370175e-18 4.1733644e-18 -1.0712722e-17 1.1422249e-17
0002d0 72 3c 55 11 9a 17 82 10 44 97 de 10 12 54 73 10
       1.6821363e-28 5.131232e-29 8.779662e-29 4.7988065e-29
0002e0 3a b5 ba 0f 75 b1 1e 90 50 c8 fa 10 36 85 1e 90
       1.8410822e-29 -3.1296714e-29 9.8916243e-29 -3.1262628e-29
0002f0 a0 25 04 90 a8 6e f8 0f a6 ae 1c 10 b4 b9 4b 90
       -2.6061395e-29 2.4497311e-29 3.090012e-29 -4.017775e-29
000300 45 27 d1 8f 6e d0 49 91 cc e4 94 90 74 9f 2e 10
       -2.0624117e-29 -1.5920332e-28 -5.8728224e-29 3.4438288e-29
000310 84 16 ce 90 a4 6c 91 90 ed 74 8f 90 0f 44 1b 10
       -8.1287364e-29 -5.7359803e-29 -5.658371e-29 3.062079e-29
000320 0e 8f 55 91 54 3b 2a 90 88 71 bc 0f 2c a4 2c 12
       -1.684682e-28 -3.3572293e-29 1.8581962e-29 5.447599e-28
000330 77 72 ab 92 4a 22 c8 8e 72 bd dc 0f 44 bc 68 91
       -1.0819835e-27 -4.9336826e-30 2.1766647e-29 -1.8359587e-28
000340 92 cd 75 90 ba 24 19 91 78 92 99 29 8c c8 a9 a9
       -4.8476096e-29 -1.2080889e-28 6.819973e-14 -7.539897e-14
000350 66 e0 13 29 3c 1c c0 a8 c4 23 5e 29 fe 9c 1d a9
       3.283519e-14 -2.1328527e-14 4.9324924e-14 -3.4997172e-14
000360 6b 5e 7e 29 ea 63 2a a9 a0 f9 11 a9 ea 97 4c 29
       5.6481224e-14 -3.7834244e-14 -3.2412983e-14 4.5428864e-14
000370 e9 78 1e 29 6e 18 38 a8 36 fd da 28 15 69 f9 a9
       3.518792e-14 -1.0219349e-14 2.4312675e-14 -1.107605e-13
000380 74 08 c4 29 be 63 ab 28 aa 0c 30 a9 1d c6 8e a9
       8.705615e-14 1.902807e-14 -3.9090835e-14 -6.340434e-14
000390 47 e6 1c a9 52 ca 1d 29 29 e2 ba a9 52 d7 52 a9
       -3.4838692e-14 3.5036488e-14 -8.299292e-14 -4.6816128e-14
0003a0 43 dc 00 29 a4 ab 21 2b 87 cf 20 ab 7c 67 bd a8
       2.8612756e-14 5.743689e-13 -5.713142e-13 -2.1028094e-14
0003b0 06 ee 18 28 dd 90 72 aa b4 44 a8 29 d6 92 99 a9
       8.489308e-15 -2.1544177e-13 7.472617e-14 -6.820037e-14
0003c0 88 56 85 8e 91 c0 4d 0f 83 cb 52 0e 9c 60 4d 0f
       -3.2870358e-30 1.0144367e-29 2.5982486e-30 1.0125887e-29
0003d0 d7 f6 4b 0f cf d4 4b 8f 1e 39 cd 8e 3b f3 49 8f
       1.0056212e-29 -1.0049658e-29 -5.0591404e-30 -9.9569096e-30
0003e0 3c 1d 4c 8f 41 0a 5e 8f 8f 1d 4c 0f 42 91 03 8f
       -1.0063607e-29 -1.094742e-29 1.0063669e-29 -6.486774e-30
0003f0 db 08 52 8f 06 c4 1a 0f 62 80 4b 8f 6c 77 4c 0f
       -1.0355505e-29 7.630539e-30 -1.0033398e-29 1.0080976e-29

Wb f4 [10, 10]
000000 79 0e 17 be f1 42 f8 3d ff 47 08 bd 77 78 79 3e
       -0.14751615 0.12122143 -0.033271786 0.2436236
000010 12 3d b1 bd 8b bb 1e 3e cd 55 9d be 65 b2 40 3e
       -0.08654226 0.1550123 -0.30729523 0.18818052
000020 5a 18 f6 3d 3a e2 43 bf 75 0c 17 be 8a 8a f7 3d
       0.120163634 -0.7651707 -0.14750846 0.12086971
000030 6e c5 08 bd b6 86 79 3e 03 31 b1 bd df c7 1e 3e
       -0.03339141 0.24367794 -0.08651926 0.15505932
000040 1b 3a 9d be 01 af 41 3e 1e 7f f6 3d fa e6 43 bf
       -0.30708393 0.18914415 0.120359644 -0.7652432
000050 f0 d9 16 be 09 d6 f7 3d 3a 6f 08 bd 00 96 79 3e
       -0.14731574 0.12101371 -0.0333092 0.24373627
000060 94 3c b1 bd 4a f2 1e 3e 01 56 9d be 16 45 41 3e
       -0.086541325 0.15522113 -0.30729678 0.1887401
000070 d7 4f f6 3d 0f e2 43 bf 24 1d 17 be 12 22 f8 3d
       0.12026947 -0.76516813 -0.1475721 0.121158734
000080 20 5b 08 bd 25 7b 79 3e 39 35 b1 bd 0a c4 1e 3e
       -0.03329003 0.24363382 -0.086527295 0.1550447
000090 70 4d 9d be 57 bf 40 3e 88 2c f6 3d b3 df 43 bf
       -0.30723143 0.1882299 0.120202124 -0.7651321
0000a0 2a e4 16 be f9 bd f7 3d a1 45 08 bd 54 6b 79 3e
       -0.14735475 0.12096781 -0.03326953 0.24357349
0000b0 22 38 b1 bd 4b 9e 1e 3e e8 5a 9d be 1c 6a 40 3e
       -0.086532846 0.15490071 -0.30733418 0.18790478
0000c0 fb fc f5 3d 43 e1 43 bf 97 db 16 be 17 47 f8 3d
       0.12011143 -0.765156 -0.14732204 0.12122934
0000d0 f8 52 08 bd 9b 70 79 3e 4a 37 b1 bd 89 b2 1e 3e
       -0.03328225 0.24359362 -0.08653124 0.15497793
0000e0 19 59 9d be 21 6f 40 3e 67 03 f6 3d b5 df 43 bf
       -0.3073204 0.18792392 0.12012368 -0.76513225
0000f0 4f eb 16 be 25 a8 f7 3d aa 46 08 bd 98 8c 79 3e
       -0.147382 0.12092618 -0.033270516 0.24370039
000100 a1 36 b1 bd 30 d6 1e 3e 60 57 9d be 4e 3d 41 3e
       -0.08652998 0.15511394 -0.30730724 0.18871042
000110 cf 44 f6 3d d0 e1 43 bf f2 01 17 be 6c 01 f8 3d
       0.12024843 -0.7651644 -0.14746836 0.12109646
000120 c5 83 08 bd 08 65 79 3e 58 37 b1 bd c4 89 1e 3e
       -0.03332879 0.24354947 -0.08653134 0.15482241
000130 93 54 9d be 8d 2b 40 3e e4 f7 f5 3d 2b e3 43 bf
       -0.30728588 0.18766613 0.12010172 -0.76518506
000140 8b fd 16 be e7 c0 f7 3d a6 99 08 bd 29 de 79 3e
       -0.14745156 0.1209734 -0.033349656 0.24401154
000150 93 43 b1 bd b8 0c 1f 3e fc 42 9d be ce 9e 43 3e
       -0.08655467 0.15532196 -0.30715168 0.19103548
000160 c2 03 f7 3d 78 e5 43 bf fe 0b 17 be 27 34 f7 3d
       0.120612636 -0.76522017 -0.14750668 0.12070494
000170 a3 8b 08 bd 32 5a 7a 3e 7c 4a b1 bd 49 85 1f 3e
       -0.033336293 0.2444847 -0.08656785 0.15578188
000180 10 47 9d be 04 05 46 3e b5 69 f7 3d 1a e1 43 bf
       -0.3071828 0.19337851 0.12080709 -0.7651535

conv.weight f4 [10, 1, 20]
000000 ad 21 00 00 ee 22 00 00 42 03 00 00 2e 03 00 80
       1.208e-41 1.253e-41 1.169e-42 -1.14e-42
000010 9a 21 00 80 ca 04 00 00 01 21 00 80 55 05 00 80
       -1.2054e-41 1.718e-42 -1.184e-41 -1.913e-42
000020 77 14 00 00 f7 21 00 00 eb 22 00 00 8d 21 00 80
       7.341e-42 1.2184e-41 1.2526e-41 -1.2036e-41
000030 59 13 00 80 32 0a 00 00 4a 13 00 00 55 0a 00 00
       -6.94e-42 3.657e-42 6.92e-42 3.706e-42
000040 76 20 00 80 22 0a 00 80 f8 20 00 80 20 02 00 00
       -1.1645e-41 -3.635e-42 -1.1827e-41 7.62e-43
000050 22 a0 e9 a4 75 50 a9 a4 c0 e5 87 a4 6e 38 64 a4
       -1.0131892e-16 -7.3428366e-17 -5.893613e-17 -4.9487417e-17
000060 e2 ea 9d a4 87 f2 91 a4 c0 8f 64 a4 86 74 2c a4
       -6.8485803e-17 -6.329458e-17 -4.956138e-17 -3.7395254e-17
000070 c0 79 2b a1 24 a7 00 24 cf 19 72 25 a4 b1 b3 24
       -5.809819e-19 2.789715e-17 2.0998898e-16 7.792981e-17
000080 96 95 0f a4 70 a7 62 23 98 f2 0d a5 35 7c 96 a5
       -3.1134886e-17 1.2286941e-17 -1.2311994e-16 -2.6105018e-16
000090 fc ce ab a5 ca 5a dd a5 76 59 04 a6 a7 7a 05 a6
       -2.980403e-16 -3.839891e-16 -4.591794e-16 -4.630987e-16
0000a0 be 18 00 00 c6 1c 00 80 fb 22 00 80 24 20 00 80
       8.876e-42 -1.0322e-41 -1.2549e-41 -1.153e-41
0000b0 7a 21 00 00 77 20 00 80 fa 1d 00 80 a8 1e 00 00
       1.2009e-41 -1.1646e-41 -1.0754e-41 1.0997e-41
0000c0 cb 1e 00 00 c5 20 00 00 aa 10 00 80 93 21 00 00
       1.1046e-41 1.1755e-41 -5.978e-42 1.2044e-41
0000d0 a9 22 00 00 43 1a 00 80 49 21 00 80 9c 16 00 00
       1.2434e-41 -9.421e-42 -1.194e-41 8.111e-42
0000e0 44 21 00 80 1a 23 00 00 8c 22 00 80 82 22 00 80
       -1.1933e-41 1.2592e-41 -1.2393e-41 -1.2379e-41
0000f0 b1 19 23 bf ed 1c 0d bf e1 5f 11 bf 0c 0f 10 bf
       -0.63711077 -0.5512226 -0.56786925 -0.5627296
000100 52 a0 cc be fc ce 9e be 90 2f 93 be 1d 1f 38 be
       -0.39966065 -0.31017292 -0.28747225 -0.17980619
000110 24 5a e3 bd fc cd d2 3c dc 2d 2c 3e 9d 56 ca 3c
       -0.11101177 0.025732987 0.16814369 0.024699504
000120 9f d8 08 be 36 7d ee bd dc e4 b2 be 76 2e 8a be
       -0.13363884 -0.11644976 -0.3494023 -0.26988572
000130 76 c0 91 3b 2b 8f 0c 3f 6d 76 96 3f e6 9d 12 40
       0.004447992 0.54905957 1.1754891 2.2908874
000140 57 bb 0f 1d 0b 82 2a 1d 59 4b 3a 1d 78 2e 49 1d
       1.9022745e-21 2.2566543e-21 2.4655849e-21 2.6626152e-21
000150 20 cc 32 1d 96 18 45 1d b0 00 41 1d 50 fc 48 1d
       2.3663634e-21 2.6085444e-21 2.5543693e-21 2.6600222e-21
000160 03 54 1b 1d 85 35 8e 1c 64 09 83 1c c2 a0 d0 1b
       2.0557512e-21 9.410606e-22 8.67128e-22 3.45146e-22
000170 d1 4f c2 9c 5a 05 61 9d e1 d6 90 9d 4f 0c a7 9d
       -1.2858475e-21 -2.9781269e-21 -3.8338662e-21 -4.421726e-21
000180 c3 fd b6 9d 9c 10 be 9d a5 eb c2 9d ff be c2 9d
       -4.8437382e-21 -5.0309755e-21 -5.1595023e-21 -5.1548858e-21
000190 3e 4e bb 24 2d 19 c2 24 84 af f1 24 d2 96 cf 24
       8.123087e-17 8.417674e-17 1.04814424e-16 9.002744e-17
0001a0 56 53 dd 24 d2 17 ec 24 39 6b 34 24 b3 5e 24 25
       9.598465e-17 1.0238904e-16 3.91221e-17 1.4256818e-16
0001b0 72 ef e4 24 bd cc 29 25 06 f0 8e 25 6d 6f b0 25
       9.9284874e-17 1.4727781e-16 2.479572e-16 3.0606638e-16
0001c0 07 4a 07 26 75 6f a3 25 78 e3 3a 25 3f 5c 4e 25
       4.693786e-16 2.835152e-16 1.6209998e-16 1.7898906e-16
0001d0 7c 40 49 25 55 0a ef 24 e0 92 bf 24 77 2a b9 24
       1.7455819e-16 1.0366723e-16 8.308186e-17 8.03029e-17
0001e0 69 57 c2 bc bb 86 d0 bc b4 be d1 bc b6 be cf bc
       -0.023723321 -0.02545487 -0.02560363 -0.025359493
0001f0 fd ed c3 bc a2 9d a3 bc eb 6b 83 bc 2d 9f 8a bc
       -0.023917193 -0.019972626 -0.01604267 -0.016921604
000200 4a d8 9e bc ff e2 b1 bc 10 4a f4 bc 22 9a 2c bd
       -0.019390244 -0.021714685 -0.029820472 -0.04213918
000210 de b7 4e bd ce 43 70 bd 1e 6a 84 bd ca 0d 82 bd
       -0.05046832 -0.058658414 -0.06465553 -0.06350286
000220 2c 31 66 bd 86 d3 41 bd db 01 18 bd a9 43 e8 bc
       -0.056199238 -0.047320865 -0.037111145 -0.028352575
000230 2d 0b 00 00 2b 22 00 00 dc 06 00 00 e2 1f 00 00
       4.009e-42 1.2257e-41 2.46e-42 1.1437e-41
000240 a8 21 00 80 df 1f 00 80 0f 0d 00 00 e8 21 00 00
       -1.2074e-41 -1.1433e-41 4.685e-42 1.2163e-41
000250 63 0b 00 00 c8 21 00 00 ea 1e 00 00 91 20 00 00
       4.085e-42 1.2118e-41 1.109e-41 1.1683e-41
000260 50 07 00 80 1d 0b 00 00 10 22 00 00 ee 05 00 00
       -2.623e-42 3.987e-42 1.222e-41 2.127e-42
000270 fe 22 00 80 42 05 00 80 c5 18 00 80 43 21 00 80
       -1.2553e-41 -1.886e-42 -8.886e-42 -1.1932e-41
000280 a7 08 00 00 e4 08 00 00 45 21 00 00 37 21 00 00
       3.104e-42 3.19e-42 1.1935e-41 1.1915e-41
000290 97 09 00 80 4a 1f 00 80 18 08 00 00 df 04 00 80
       -3.44e-42 -1.1224e-41 2.903e-42 -1.747e-42
0002a0 94 1b 00 80 b8 09 00 00 06 17 00 00 0b 12 00 00
       -9.893e-42 3.486e-42 8.259e-42 6.473e-42
0002b0 eb 07 00 80 2a 22 00 80 3e 0d 00 00 b3 21 00 80
       -2.84e-42 -1.2256e-41 4.75e-42 -1.2089e-41
0002c0 54 0f 00 00 e8 1f 00 00 74 0d 00 80 2b 1a 00 80
       5.499e-42 1.1446e-41 -4.826e-42 -9.387e-42
0002d0 6c 07 00 80 87 06 00 80 da 20 00 80 23 1f 00 80
       -2.662e-42 -2.342e-42 -1.1785e-41 -1.117e-41
0002e0 79 0b 00 00 81 0d 00 00 ae 1e 00 00 21 20 00 00
       4.116e-42 4.844e-42 1.1006e-41 1.1526e-41
0002f0 b3 1f 00 00 9e 20 00 80 a6 21 00 80 e6 09 00 80
       1.1372e-41 -1.1701e-41 -1.2071e-41 -3.551e-42
000300 3e 21 00 80 e0 1f 00 00 17 18 00 00 db 1e 00 00
       -1.1925e-41 1.1435e-41 8.642e-42 1.1069e-41
000310 17 05 00 00 0b 21 00 80 55 04 00 00 81 07 00 00
       1.826e-42 -1.1854e-41 1.554e-42 2.692e-42

conv.bias f4 [10]
000000 04 5b b8 b2 bd 72 4d a6 0a 8a f1 a1 95 a5 c3 bb
       -2.1461808e-08 -7.127916e-16 -1.6367334e-18 -0.0059706667
000010 73 fd 8b 9e 5c 9b 2a a7 7f c7 bc be e9 80 4c af
       -1.4822022e-20 -2.367646e-15 -0.36870953 -1.859949e-10
000020 80 0f 9d af 94 c7 bc ae
       -2.8569147e-10 -8.5847024e-11

conv_long.weight f4 [10, 1, 10]
000000 85 20 00 00 5a 21 00 80 53 22 00 00 81 1a 00 00
       1.1666e-41 -1.1964e-41 1.2313e-41 9.508e-42
000010 a7 22 00 00 5b 15 00 80 68 1b 00 00 85 19 00 00
       1.2431e-41 -7.661e-42 9.832e-42 9.155e-42
000020 fe 21 00 00 fb 13 00 00 cb e6 9b a6 24 ff 9f a6
       1.2194e-41 7.168e-42 -1.0817842e-15 -1.1101997e-15
000030 70 56 b8 a6 93 bb ee a6 07 38 30 a7 14 64 9d a7
       -1.2790994e-15 -1.656541e-15 -2.445528e-15 -4.368476e-15
000040 0e 1c 83 a7 74 46 6f a7 6b 46 14 a7 1c 4e b5 a6
       -3.639022e-15 -3.3206106e-15 -2.05773e-15 -1.258057e-15
000050 48 e2 cf 9b 5a 44 2f 9b 28 8c dd 96 d3 c0 74 15
       -3.4391508e-22 -1.4497746e-22 -3.5792927e-25 4.942752e-26
000060 91 55 7e 14 e0 21 d5 11 8f a4 3e 9a d2 18 78 9d
       1.2840598e-26 3.3626352e-28 -3.942401e-23 -3.2835359e-21
000070 34 49 b4 a0 e0 53 77 a0 ce 4d ba 03 b5 de 2a 85
       -3.0541628e-19 -2.0949466e-19 1.09499605e-36 -8.0342664e-36
000080 0f 24 40 05 73 e3 02 85 d2 9b 69 84 a3 66 2e 85
       9.0344195e-36 -6.1543464e-36 -2.7460568e-36 -8.200292e-36
000090 8d c8 ff 84 22 3d ce 84 aa 39 f7 84 66 9b 55 04
       -6.013439e-36 -4.848651e-36 -5.8122377e-36 2.5109385e-36
0000a0 95 1f 00 80 f1 1e 00 00 e6 14 00 80 3d 0e 00 00
       -1.133e-41 1.11e-41 -7.497e-42 5.108e-42
0000b0 64 0d 00 00 4d 18 00 00 2c 12 00 00 8e 0b 00 80
       4.804e-42 8.717e-42 6.519e-42 -4.145e-42
0000c0 b0 15 00 00 f0 21 00 00 c5 21 00 80 69 1f 00 80
       7.78e-42 1.2174e-41 -1.2114e-41 -1.1268e-41
0000d0 15 07 00 00 66 1f 00 80 23 20 00 80 a0 19 00 80
       2.54e-42 -1.1264e-41 -1.1528e-41 -9.193e-42
0000e0 32 02 00 00 60 15 00 80 fd 82 06 80 44 0d 00 00
       7.88e-43 -7.668e-42 -5.98003e-40 4.759e-42
0000f0 c4 3d 5a 0c b3 ae 42 09 46 70 5e 88 cb ce c2 06
       1.6812696e-31 2.3434044e-33 -6.693767e-34 7.3278544e-35
000100 e5 48 8b 86 ec e1 7e 04 a5 4a 07 83 21 da e3 83
       -5.23931e-35 2.9961295e-36 -3.975862e-37 -1.3391941e-36
000110 8d 07 c5 02 dd 39 3b 82 a0 8b fa a2 da cc 46 26
       2.8950882e-37 -1.3755196e-37 -6.791047e-18 6.8972675e-16
000120 51 6f 4b 26 87 0e 7f 26 44 77 82 26 6d ec 84 26
       7.0580635e-16 8.8490585e-16 9.052889e-16 9.223423e-16
000130 9a bc 50 26 97 25 00 26 42 ed 82 a4 20 14 d0 23
       7.24201e-16 4.4459865e-16 -5.6780443e-17 2.2559928e-17
000140 91 fb 76 22 0e 71 36 9f ba 7b 47 9f be c0 a8 9c
       3.3472395e-18 -3.8633516e-20 -4.2242233e-20 -1.116713e-21
000150 53 22 5b 1b 63 dd ab 1b e8 70 46 a2 31 85 14 a4
       1.8126346e-22 2.8432645e-22 -2.6893776e-18 -3.2205202e-17
000160 d8 b9 59 a7 eb 12 26 a7 5b 30 59 8b 32 b4 cf 88
       -3.0215546e-15 -2.3047383e-15 -4.1829058e-32 -1.2500723e-33
000170 bf 58 4d 85 c8 9f 1d 04 5d 80 ba 03 58 41 e5 03
       -9.655354e-36 1.852863e-36 1.0961568e-36 1.34744125e-36
000180 2b db 8e 8b 21 f4 da 0c df 07 3c 91 d5 eb 30 91
       -5.502618e-32 3.3735148e-31 -1.483301e-28 -1.3956623e-28

conv_long.bias f4 [10]
000000 e7 27 4f a6 27 4d af a7 d2 f0 fd b7 23 e8 b3 ae
       -7.187163e-16 -4.8655906e-15 -3.0272091e-05 -8.181213e-11
000010 44 a3 43 af ad 66 ac b3 6a 03 42 b4 dd ff 22 a7
       -1.779315e-10 -8.028051e-08 -1.80689e-07 -2.262072e-15
000020 69 19 92 b7 16 6d 3c b4
       -1.7416389e-05 -1.754855e-07

conv1.weight f4 [30, 30]
000000 58 04 00 80 30 15 00 80 45 32 01 80 28 1e 00 80
       -1.558e-42 -7.6e-42 -1.09869e-40 -1.0818e-41
000010 30 ff 00 00 da 92 00 00 4d 1a 00 80 31 12 00 80
       9.1544e-41 5.268e-41 -9.435e-42 -6.526e-42
000020 5d 11 00 00 0f 3b cc 84 6c 05 00 80 52 18 00 80
       6.229e-42 -4.8014406e-36 -1.945e-42 -8.724e-42
000030 71 34 02 80 e1 12 00 00 30 1d 00 80 7d 8e a2 15
       -2.02483e-40 6.772e-42 -1.047e-41 6.5656086e-26
000040 2e 1d 00 00 99 e5 a2 a1 9b 60 00 80 9a 4a 00 80
       1.0468e-41 -1.1038321e-18 -3.4656e-41 -2.6762e-41
000050 59 8e 01 00 84 19 00 80 e0 0b 00 80 d7 f3 d4 15
       1.429e-40 -9.153e-42 -4.26e-42 8.601083e-26
000060 be 1e 00 00 51 05 00 80 e2 ef 1a a0 fa 1b 00 00
       1.1028e-41 -1.907e-42 -1.3123678e-19 1.0036e-41
000070 97 4a 0d 07 5a 05 a6 9d 74 a6 27 af 54 1e 00 80
       1.0629581e-34 -4.3945368e-21 -1.5247698e-10 -1.088e-41
000080 e1 a9 19 80 65 15 00 00 d5 0b 00 80 c7 82 00 80
       -2.356828e-39 7.675e-42 -4.245e-42 -4.6914e-41
000090 28 85 52 00 d5 06 00 00 57 20 00 00 ab 21 00 80
       7.578278e-39 2.451e-42 1.1601e-41 -1.2078e-41
0000a0 9a 0f 00 00 36 18 00 80 69 17 00 00 c4 fa 00 00
       5.597e-42 -8.685e-42 8.398e-42 8.9958e-41
0000b0 ae 1c 00 80 dc 01 00 80 af 0d 00 80 19 1e 00 00
       -1.0288e-41 -6.67e-43 -4.909e-42 1.0797e-41
0000c0 0c 91 00 80 42 61 03 80 a0 b5 e0 a6 05 00 00 80
       -5.2033e-41 -3.10396e-40 -1.5592352e-15 -7e-45
0000d0 f9 8b 59 bb 85 22 00 00 02 20 00 00 18 15 c9 a6
       -0.0033195002 1.2383e-41 1.1482e-41 -1.3952894e-15
0000e0 5a 1f 00 80 49 1a 00 00 fc 1a 00 80 41 09 00 80
       -1.1247e-41 9.43e-42 -9.68e-42 -3.32e-42
0000f0 e0 8c ca aa 3f 03 00 00 cc 61 e8 20 89 00 00 00
       -3.598016e-13 1.164e-42 3.9367045e-19 1.92e-43
000100 94 9f 00 00 85 19 00 80 cf a1 04 00 c2 52 00 00
       5.7246e-41 -9.155e-42 4.25388e-40 2.9688e-41
000110 a8 14 00 00 c2 1d 00 00 85 10 00 00 8f 1c 00 00
       7.41e-42 1.0675e-41 5.926e-42 1.0245e-41
000120 47 12 00 00 82 12 00 80 a5 e7 00 00 34 10 00 00
       6.557e-42 -6.64e-42 8.3098e-41 5.813e-42
000130 4c 84 00 00 7a 19 00 00 da 67 00 00 16 3a 02 80
       4.7459e-41 9.139e-42 3.7255e-41 -2.04508e-40
000140 2a bf fe 9c 3d 0d 00 00 cd aa 05 80 f7 12 00 00
       -1.6857725e-21 4.749e-42 -5.20449e-40 6.803e-42
000150 92 02 00 00 9a a6 18 2f 26 07 00 00 10 23 00 00
       9.22e-43 1.3883508e-10 2.564e-42 1.2578e-41
000160 eb 18 00 80 9d 02 00 00 d0 34 fa 01 ba 0e 84 ad
       -8.939e-42 9.37e-43 9.191128e-38 -1.5013202e-11
000170 80 ba 9f ba e8 28 a6 80 28 2c e3 a0 fc 5b 07 80
       -0.0012186319 -1.5259367e-38 -3.8484516e-19 -6.75846e-40
000180 8b 9e 02 3c 64 56 8e 19 5f b8 07 80 9e 0e 00 00
       0.00797237 1.4717349e-23 -7.08988e-40 5.244e-42
000190 7c de 1f 21 e2 04 03 00 4c e9 fb 23 14 70 cc ae
       5.416575e-19 2.77258e-40 2.731228e-17 -9.296755e-11
0001a0 b4 c5 f6 91 cd 84 18 80 d4 ad 82 3a 67 8f f0 8b
       -3.89338e-28 -2.251692e-39 0.0009970018 -9.2660405e-32
0001b0 a0 52 fa 98 23 4c 09 00 94 8e 9b a9 2c 13 33 1f
       -6.4706915e-24 8.53832e-40 -6.908116e-14 3.7920583e-20
0001c0 83 66 09 1b 2e 1a 0f a6 49 08 00 00 76 9c e0 3c
       1.1365498e-22 -4.964857e-16 2.972e-42 0.027418356
0001d0 5d 0a 00 00 3c eb 08 87 45 12 00 80 79 08 00 80
       3.718e-42 -1.0300632e-34 -6.554e-42 -3.04e-42
0001e0 6e 1a 48 2e 1e 4e 00 80 c1 31 fc 9e eb 19 00 00
       4.549821e-11 -2.8023e-41 -2.6702116e-20 9.298e-42
0001f0 7c 40 21 15 d1 db 00 00 98 1f 20 1d 63 2e 01 80
       3.256456e-26 7.8855e-41 2.1192157e-21 -1.08476e-40
000200 fc 94 b4 17 33 00 00 00 80 09 32 0f e0 1b 00 00
       1.1669836e-24 7.1e-44 8.777907e-30 1e-41
000210 0e e3 f9 27 c3 16 03 80 98 97 8f 15 fa 7c 96 89
       6.9357556e-15 -2.83672e-40 5.799641e-26 -3.6228714e-33
000220 74 42 1e 83 fe 03 00 00 e0 81 53 9b 06 ad 1d 26
       -4.650831e-37 1.432e-42 -1.7495476e-22 5.470481e-16
000230 90 17 fb af 48 65 a4 01 d0 1a 02 80 94 4e 10 a6
       -4.5673376e-10 6.0389417e-38 -1.9329e-40 -5.006653e-16
000240 bc 14 00 80 9c 0a 12 90 c3 11 00 00 42 1c 00 00
       -7.438e-42 -2.8801596e-29 6.372e-42 1.0137e-41
000250 fe 22 00 80 1a 84 00 00 e0 73 2e 25 e2 c2 00 00
       -1.2553e-41 4.7389e-41 1.5131354e-16 6.9911e-41
000260 7e 80 f2 a1 6d 0c 00 00 7c 59 b9 14 f9 93 00 00
       -1.6432569e-18 4.458e-42 1.8715522e-26 5.3083e-41
000270 6b 3d 00 00 c2 e1 00 80 d3 80 1e 18 8d 15 00 00
       2.2033e-41 -8.0987e-41 2.048606e-24 7.731e-42
000280 16 5b 2f 8f f9 09 00 80 f8 af 08 28 b0 5d 04 00
       -8.645709e-30 -3.578e-42 7.587674e-15 4.00951e-40
000290 04 34 7c 95 f4 51 ae 09 9b e4 3b 03 86 01 00 00
       -5.0932028e-26 4.1966045e-33 5.5216787e-37 5.47e-43
0002a0 ef f5 68 9f e4 96 39 20 92 f2 a8 24 79 a0 0f 03
       -4.9331342e-20 1.5720035e-19 7.3269316e-17 4.2208137e-37
0002b0 07 0d 24 00 70 27 10 a6 75 20 00 80 98 e1 06 19
       3.310751e-39 -5.0013484e-16 -1.1643e-41 6.973196e-24
0002c0 6b 11 00 80 e4 1b 00 80 2f 20 00 80 67 18 01 00
       -6.248e-42 -1.0005e-41 -1.1545e-41 1.0059e-40
0002d0 b5 09 00 80 6a 74 02 00 2b f2 00 00 f1 00 00 00
       -3.482e-42 2.25432e-40 8.6873e-41 3.38e-43
0002e0 ab b8 11 ab f1 36 aa 02 36 1c 00 80 9f b9 b1 03
       -5.1770627e-13 2.501079e-37 -1.012e-41 1.04457415e-36
0002f0 47 07 00 80 96 0e b4 8b 62 17 00 00 a5 13 00 80
       -2.61e-42 -6.9355424e-32 8.388e-42 -7.047e-42
000300 55 0a 90 04 62 20 00 80 47 21 00 80 5c ac a6 9d
       3.3863726e-36 -1.1617e-41 -1.1938e-41 -4.411805e-21
000310 1b 1d 00 80 d3 13 2d a6 31 87 00 00 9f 00 00 80
       -1.0441e-41 -6.00483e-16 4.8498e-41 -2.23e-43
000320 4c 8a 00 80 be 0b 00 80 d5 1f 00 80 d4 7c dd 9e
       -4.9612e-41 -4.212e-42 -1.1419e-41 -2.3450913e-20
000330 9d 22 00 80 d7 8d 00 00 5f ec 06 a6 9f 22 00 00
       -1.2417e-41 5.0883e-41 -4.681093e-16 1.242e-41
000340 da 0d aa 0e f0 29 83 a3 60 0c 00 80 4f 19 00 00
       4.1921574e-30 -1.422081e-17 -4.44e-42 9.079e-42
000350 f2 06 00 00 9b 12 00 80 1b cb 01 00 0f 04 00 00
       2.492e-42 -6.674e-42 1.64696e-40 1.456e-42
000360 82 1b 00 80 54 09 00 80 2c 17 00 80 6b 0d 1b 80
       -9.868e-42 -3.346e-42 -8.313e-42 -2.484372e-39
000370 a7 0c 00 00 c3 19 00 80 49 02 00 00 d2 0c 00 00
       4.539e-42 -9.242e-42 8.2e-43 4.599e-42
000380 98 11 00 80 47 4b 2d 8e 57 22 00 00 96 8d 05 a0
       -6.311e-42 -2.1360141e-30 1.2319e-41 -1.1312385e-19
000390 51 6e 00 80 41 0c 00 00 a2 16 00 00 ab 50 00 00
       -3.9574e-41 4.396e-42 8.119e-42 2.8938e-41
0003a0 8a 15 00 80 31 94 5d 14 80 08 00 00 3f 1f 02 00
       -7.727e-42 1.1186874e-26 3.049e-42 1.9488e-40
0003b0 2c c3 4f 1f 2c 1e 00 80 4c de 04 04 f4 fe b7 17
       4.3995397e-20 -1.0824e-41 1.56186e-36 1.1890457e-24
0003c0 35 00 00 80 26 4f 00 00 ba 52 00 80 c5 0b 00 80
       -7.4e-44 2.8393e-41 -2.9677e-41 -4.222e-42
0003d0 16 a5 00 00 00 04 00 00 c7 17 00 80 f7 02 00 80
       5.9222e-41 1.435e-42 -8.53e-42 -1.064e-42
0003e0 3b 1d 00 80 1a 71 00 00 ad 0b 00 00 79 1f 00 00
       -1.0486e-41 4.0573e-41 4.188e-42 1.129e-41
0003f0 c4 01 00 00 b6 22 00 00 4c 1e 00 80 7b e9 df 90
       6.33e-43 1.2452e-41 -1.0868e-41 -8.8317725e-29

conv1.bias f4 [30]
000000 b0 d0 39 99 60 64 3e af 61 42 ff b5 5d 14 b2 b9
       -9.60642e-24 -1.731606e-10 -1.9018299e-06 -0.00033965977
000010 6d 24 2a b9 29 57 1e 9d 9b 8f 32 a2 1c a3 46 9e
       -0.00016226033 -2.0956187e-21 -2.4199522e-18 -1.0515763e-20
000020 63 37 ea b2 7e ca 9a b0 20 b9 e4 b7 44 02 f1 b5
       -2.7266372e-08 -1.1262526e-09 -2.7265924e-05 -1.7956559e-06
000030 e5 9a ff 3e 34 83 d8 b9 73 28 63 ae f6 cb ec b9
       0.49922863 -0.00041296484 -5.164975e-11 -0.0004516539
000040 8c 18 6b ac 37 2b 2f b3 34 ae 96 ba 3f d5 60 a6
       -3.3409135e-12 -4.0784666e-08 -0.0011496008 -7.8004614e-16
000050 70 ec e8 ac 2a 86 22 bb f0 5a f0 aa ba a6 d7 bb
       -6.6200864e-12 -0.0024799206 -4.2695665e-13 -0.0065811547
000060 73 00 9d b2 b6 db 18 a8 1e 02 ed b3 52 47 c2 bb
       -1.827741e-08 -8.485337e-15 -1.10365576e-07 -0.005928912
000070 71 5f 73 ac 40 96 08 b2
       -3.4585358e-12 -7.950405e-09

conv2.weight f4 [30, 10]
000000 44 fe 47 1d 6d 13 88 1a 0f 1f 00 80 60 24 c7 ac
       2.6468883e-21 5.6279666e-23 -1.1142e-41 -5.6599586e-12
000010 2f 08 00 00 e3 20 00 80 06 9c 06 80 da 20 00 80
       2.936e-42 -1.1798e-41 -6.06984e-40 -1.1785e-41
000020 0c 1d 00 80 9c f7 2b 33 05 20 00 80 17 20 63 af
       -1.042e-41 4.003924e-08 -1.1486e-41 -2.065693e-10
000030 d1 0a 02 80 99 0e 00 00 a0 13 00 00 02 56 00 00
       -1.87551e-40 5.237e-42 7.04e-42 3.0854e-41
000040 97 03 00 80 96 3f 09 80 f0 78 02 80 56 1b 00 00
       -1.288e-42 -8.4933e-40 -2.27055e-40 9.806e-42
000050 23 ce 28 9f ee 66 8c b1 6e 1e 00 80 36 f9 47 a8
       -3.5745896e-20 -4.086238e-09 -1.0916e-41 -1.1100758e-14
000060 78 22 00 80 3e 22 00 00 4b 22 00 80 50 af aa 20
       -1.2365e-41 1.2284e-41 -1.2302e-41 2.8915132e-19
000070 7b 50 01 00 7d 3d b7 3c 32 92 63 2c 55 89 d9 b7
       1.20706e-40 0.022368187 3.2339795e-12 -2.5932366e-05
000080 e4 18 00 80 68 0c 00 00 fa 1a 00 80 9d 1f 00 00
       -8.929e-42 4.45e-42 -9.677e-42 1.1341e-41
000090 96 2b 07 80 a0 4b 07 80 61 10 00 80 5d 22 00 80
       -6.58484e-40 -6.69978e-40 -5.876e-42 -1.2327e-41
0000a0 7e 5f 05 35 51 4d f5 39 49 22 00 80 61 1a 00 80
       4.968532e-07 0.00046787647 -1.2299e-41 -9.463e-42
0000b0 77 1d 00 00 6e 1e 00 00 32 1f 00 80 46 16 00 00
       1.057e-41 1.0916e-41 -1.1191e-41 7.99e-42
0000c0 7d 9d 26 97 9e 1d 00 00 23 55 00 00 a6 d7 5d 92
       -5.383627e-25 1.0625e-41 3.0541e-41 -7.000111e-28
0000d0 a7 14 00 80 7e 3f 02 80 ee 21 00 00 a2 08 d4 81
       -7.409e-42 -2.06448e-40 1.2172e-41 -7.788889e-38
0000e0 f3 1f 03 00 0c 2a 9a 31 7e 14 00 00 7d 1d 00 80
       2.86968e-40 4.48677e-09 7.351e-42 -1.0578e-41
0000f0 42 7d 00 00 0f 93 22 a2 34 1c 00 00 29 81 98 0e
       4.4934e-41 -2.2032946e-18 1.0117e-41 3.759527e-30
000100 cb 1e 00 80 9c 22 00 00 0d 17 00 80 89 a6 9a b9
       -1.1046e-41 1.2416e-41 -8.269e-42 -0.00029497247
000110 61 11 d2 94 b7 25 05 00 07 0b 00 80 d1 77 7e a6
       -2.1211436e-26 4.72707e-40 -3.956e-42 -8.8286334e-16
000120 3a b5 2c 0f d2 5d 00 80 9d 8f 60 09 44 20 90 9a
       8.515158e-30 -3.3656e-41 2.7030546e-33 -5.960913e-23
000130 60 66 ef a9 a8 96 1b a8 84 06 00 00 a5 05 00 80
       -1.06314913e-13 -8.636897e-15 2.337e-42 -2.025e-42
000140 26 37 02 00 4d 61 1f 33 80 08 00 00 dc 83 33 21
       2.03455e-40 3.7108567e-08 3.049e-42 6.0822073e-19
000150 92 1e 00 80 9c 14 00 80 27 f1 90 05 81 20 00 00
       -1.0967e-41 -7.393e-42 1.363028e-35 1.166e-41
000160 60 1d 00 00 c2 04 00 00 9e 0b 00 80 c5 9c 3f b5
       1.0538e-41 1.707e-42 -4.167e-42 -7.1381174e-07
000170 d4 d2 7d b0 bc 22 00 80 e0 0a 28 2d 56 e3 06 b3
       -9.234047e-10 -1.246e-41 9.552109e-12 -3.1406067e-08
000180 c7 8a f1 9a 36 19 00 00 50 17 14 99 30 19 00 80
       -9.989947e-23 9.044e-42 -7.6561286e-24 -9.036e-42
000190 ee 6b 02 80 93 e0 64 37 6c 1e 00 80 46 20 00 00
       -2.22389e-40 1.3642147e-05 -1.0913e-41 1.1578e-41
0001a0 85 22 00 80 63 08 00 00 13 8b 04 80 31 d8 88 ac
       -1.2383e-41 3.009e-42 -4.17232e-40 -3.8893546e-12
0001b0 56 22 00 00 40 5b 5a 81 a9 0b 02 80 aa 73 be bb
       1.2317e-41 -4.0105745e-38 -1.87854e-40 -0.005812128
0001c0 18 02 00 80 bb 09 00 00 eb 1b 00 80 d2 10 00 00
       -7.51e-43 3.49e-42 -1.0015e-41 6.034e-42
0001d0 84 19 04 00 46 e2 1b 81 7e 15 00 80 3e 06 00 00
       3.76495e-40 -2.8631347e-38 -7.71e-42 2.239e-42
0001e0 de 0f 34 b6 f0 af 11 bf 02 dc 85 29 a4 8e 80 34
       -2.6831326e-06 -0.56909084 5.944552e-14 2.3945643e-07
0001f0 ec 96 09 a6 d9 1a c5 ae b2 8d 00 00 e8 0d 63 b3
       -4.773596e-16 -8.963292e-11 5.083e-41 -5.2865204e-08
000200 b8 08 cc ba 80 f8 1d 8c 26 87 1a bb f5 0e 27 bb
       -0.0015566563 -1.216962e-31 -0.002357909 -0.0025491093
000210 32 12 00 00 ec 5e 3f 80 7e 10 00 80 a8 0e 00 00
       6.527e-42 -5.819688e-39 -5.916e-42 5.258e-42
000220 23 00 06 80 34 6d 09 00 db 8b 00 80 c1 3b 14 00
       -5.51062e-40 8.65694e-40 -5.017e-41 1.858146e-39
000230 49 98 70 1f 2a 7f c0 ab 37 0a 00 00 71 99 01 00
       5.0947944e-20 -1.3677716e-12 3.664e-42 1.4688e-40
000240 a7 21 00 80 37 22 00 00 63 62 a6 31 7e 17 03 80
       -1.2072e-41 1.2274e-41 4.842421e-09 -2.83934e-40
000250 c6 08 00 80 8f 0b 31 08 fc 19 00 00 47 9f 97 b8
       -3.147e-42 5.3277587e-34 9.321e-42 -7.229909e-05
000260 10 0f ad 9a 2b 11 00 80 0f 78 6e 15 9f e4 96 a4
       -7.157546e-23 -6.159e-42 4.8158427e-26 -6.543943e-17
000270 75 a0 2e 80 61 63 b9 92 37 22 00 80 3b 18 00 00
       -4.281994e-39 -1.169964e-27 -1.2274e-41 8.692e-42
000280 16 10 00 80 06 9a 8b b9 a5 37 ca 03 b0 09 00 80
       -5.77e-42 -0.00026626902 1.1885268e-36 -3.475e-42
000290 48 e0 0d 00 d2 87 80 0f 3b 09 54 80 6a 91 3c 04
       1.274318e-39 1.267409e-29 -7.717493e-39 2.2166065e-36
0002a0 d7 1d 00 80 85 19 00 00 55 1c 00 80 4d e3 2b b1
       -1.0705e-41 9.155e-42 -1.0164e-41 -2.501298e-09
0002b0 8b e6 0a 26 e4 10 00 00 23 4e 86 a2 53 81 8d 2a
       4.819081e-16 6.059e-42 -3.6403503e-18 2.5136368e-13
0002c0 f1 ce 01 00 0b 05 00 80 72 0c 14 86 6c 0b 00 80
       1.66072e-40 -1.809e-42 -2.784485e-35 -4.097e-42
0002d0 ae 02 1c 36 bc 01 28 3a 8d 20 00 00 7b 20 00 00
       2.3247371e-06 0.000640895 1.1677e-41 1.1652e-41
0002e0 cc 1e 00 00 7b 11 00 00 52 12 00 80 6e 8c bd 83
       1.1048e-41 6.271e-42 -6.572e-42 -1.1140663e-36
0002f0 e4 44 1f 25 cc 1b 00 00 be e8 04 00 85 67 65 ad
       1.3814393e-16 9.972e-42 4.50834e-40 -1.3040129e-11
000300 34 16 00 80 40 3f 29 2f 90 0d 00 00 05 1a 00 80
       -7.965e-42 1.5392931e-10 4.865e-42 -9.334e-42
000310 f6 e1 61 21 87 eb 10 ae 9a 0f 00 00 fa f8 c1 a6
       7.653202e-19 -3.2951e-11 5.597e-42 -1.345955e-15
000320 11 eb e4 b1 a9 31 9d 2d 95 09 00 00 d9 de 07 80
       -6.6623973e-09 1.7870887e-11 3.437e-42 -7.22791e-40
000330 8c 15 00 00 a0 02 00 80 25 cf 15 b9 10 57 63 b4
       7.73e-42 -9.42e-43 -0.00014286915 -2.1172696e-07
000340 1d 25 06 00 f3 c2 05 00 76 c7 01 b5 66 32 5c bb
       5.64327e-40 5.29112e-40 -4.83465e-07 -0.0033599376
000350 47 1a 00 80 c6 22 00 80 fd 04 00 00 f7 03 00 80
       -9.427e-42 -1.2474e-41 1.79e-42 -1.422e-42
000360 11 45 03 80 81 bb 00 80 5d 98 cb 38 a1 01 00 00
       -3.00283e-40 -6.7264e-41 9.708174e-05 5.84e-43
000370 6c 57 09 80 5b 97 0b b8 51 13 00 00 95 8d 03 00
       -8.5788e-40 -3.3281143e-05 6.93e-42 3.26297e-40
000380 9e 1e 00 00 12 12 00 00 78 cf 41 a0 20 41 9a ba
       1.0983e-41 6.482e-42 -1.6416382e-19 -0.0011768676
000390 b2 ae 05 0e 7d 95 94 90 27 d9 f3 b4 3b f1 09 3f
       1.6477628e-30 -5.860603e-29 -4.5420276e-07 0.53883713
0003a0 7f a3 13 ae 26 f9 24 b4 d3 e5 b4 ab 6c b7 68 b1
       -3.3569144e-11 -1.536433e-07 -1.2853558e-12 -3.3864707e-09
0003b0 0d 45 3b ac e6 8f 39 b7 82 e3 1a 37 50 71 18 8f
       -2.661263e-12 -1.1060363e-05 9.232086e-06 -7.516002e-30
0003c0 7b 21 00 80 4f e5 21 b6 da 86 fd b2 fc 22 00 00
       -1.201e-41 -2.4124345e-06 -2.95144e-08 1.255e-41
0003d0 fd 6a dd 2f ba c5 a8 b5 02 76 35 a5 e9 09 00 80
       4.0275686e-10 -1.2574521e-06 -1.573923e-16 -3.555e-42
0003e0 67 4d 32 a4 87 10 00 00 5c 3b 18 27 c2 de b5 a8
       -3.866316e-17 5.929e-42 2.1126416e-15 -2.0191643e-14
0003f0 a1 01 00 00 68 ce 73 2e 38 1c 00 80 fd 1a 00 80
       5.84e-43 5.543513e-11 -1.0123e-41 -9.682e-42

conv2.bias f4 [10]
000000 42 ea 67 b8 fe 04 8a 3e 81 f1 e2 b6 9c bb 60 b5
       -5.529286e-05 0.26956934 -6.7634396e-06 -8.371951e-07
000010 35 19 9e b3 bb 05 a6 b7 b9 c8 e8 b8 5a f5 a4 b3
       -7.3620335e-08 -1.979141e-05 -0.000111000096 -7.681474e-08
000020 c6 ca df bc a1 42 a8 a9
       -0.02731837 -7.472257e-14

rnn.weight_ih_l0 f4 [30, 1]
000000 f6 c2 31 3d 39 50 de be 27 66 38 3e 79 1a f9 3e
       0.04339882 -0.4342058 0.18007718 0.4865301
000010 53 89 46 be f4 77 69 be 25 a2 14 3d 21 b9 d9 be
       -0.19388323 -0.22799665 0.036287446 -0.42524055
000020 7f ca 87 3e 79 60 01 3f d9 de 9b 3e 51 92 a5 be
       0.2652168 0.5053783 0.30443457 -0.32338193
000030 4e 1d c0 3e fc 5a c1 3b de e7 ad be 2e fe 94 3e
       0.37522358 0.0059007388 -0.33965963 0.29100174
000040 2e b3 00 bd 92 3b fe bd c3 f7 1a bc 7d fd 92 3e
       -0.03142088 -0.12413706 -0.009458485 0.2870902
000050 d1 9f 15 bf 52 f6 da bc 0b 13 81 be 0b 2a 83 3f
       -0.58446985 -0.026728783 -0.2520984 1.0247205
000060 ea 2d 58 c0 57 be 6c 3e 01 d7 b6 3d 8f 4f 3f be
       -3.3778024 0.23119484 0.089277275 -0.18682693
000070 3e 6e b5 be a1 19 98 bd
       -0.3543567 -0.07426763
