colagnn-master-Run-Epi/src/save/cola_gnn_epi.us_states_covid_mov_14.w-20.h-1.RNN.lam-1.0.epo-500.pt (torch, 61046 bytes, 32 tensors)

V f4 [15]
000000 85 a8 fe ba 8f ef 75 3c ec 41 aa bc ff 5f b8 3c
       -0.0019428885 0.0150107285 -0.020783387 0.022506712
000010 0f 44 43 bd f0 70 e6 bd 86 ee e5 3d 8e f0 0b 3c
       -0.047672328 -0.1125201 0.11227135 0.008541239
000020 65 b1 c7 3e b7 e5 2e 3f 37 08 80 3f 7a cd c1 3c
       0.3900253 0.6831927 1.0002507 0.02365755
000030 38 81 4b bc 27 1a 2e 3f 2e 12 0a be
       -0.012420945 0.68008655 -0.13483498

W1 f4 [15, 30]
000000 fe ba 3f 39 20 78 98 b8 b9 52 96 38 06 d4 94 38
       0.0001828484 -7.2703e-05 7.167966e-05 7.0966824e-05
000010 82 19 95 38 3b 78 2e b9 78 eb 71 39 87 ed 93 b8
       7.109625e-05 -0.00016638722 0.0002307127 -7.053749e-05
000020 e8 97 95 38 73 83 94 b8 23 76 68 b8 16 e2 ee 38
       7.1331684e-05 -7.081674e-05 -5.5423134e-05 0.00011390836
000030 78 33 3e 39 99 00 95 b8 8d ad 98 38 34 7d 93 38
       0.00018138986 -7.104985e-05 7.280251e-05 7.032827e-05
000040 cf ec bb 38 9a bf 92 b8 e8 5a c4 b8 95 81 2d 39
       8.960964e-05 -6.997511e-05 -9.362941e-05 0.00016546839
000050 db 9b c3 38 20 f1 99 b8 1d 6a ee b8 99 02 09 39
       9.327355e-05 -7.3405216e-05 -0.000113684895 0.00013066306
000060 d7 66 99 b8 74 0e ab 38 ea a3 66 38 35 71 99 38
       -7.314764e-05 8.1566075e-05 5.498893e-05 7.316695e-05
000070 5f 3b 97 b8 33 c7 95 b8 10 57 87 bc 0c d8 f5 3b
       -7.2113e-05 -7.1419774e-05 -0.016521007 0.0075025614
000080 9e 04 f5 bb 14 9f f6 bb 53 0c f6 bb 6c c7 a2 3b
       -0.007477357 -0.007526288 -0.0075087934 0.0049676206
000090 99 b6 01 bc 0b 70 f3 3b f8 97 f6 bb ec d2 f5 3b
       -0.00791707 0.007429128 -0.0075254403 0.0075019505
0000a0 36 46 bf 3b f0 34 32 3b e1 2a 06 bb 66 60 f6 3b
       0.005837227 0.0027192198 -0.0020472335 0.007518816
0000b0 60 9c f4 bb 43 46 f6 bb 5c 16 ec bb aa 54 f6 3b
       -0.0074649304 -0.0075157 -0.007204814 0.007517417
0000c0 ed 98 e8 3b 0c bd bf 3a d6 d0 e7 bb 6c b4 f5 3b
       0.0070983083 0.0014628484 -0.0070744557 0.0074983146
0000d0 65 5f d9 3b d4 2d c3 bb e0 c1 f4 3b 70 76 f0 bb
       0.0066336864 -0.005956391 0.0074694008 -0.0073383376
0000e0 2e 5e 9c bb 90 10 f6 bb c2 17 f6 3b 55 cd f5 3b
       -0.0047719693 -0.0075092986 0.0075101564 0.007501284
0000f0 6a 9d 2f 39 e4 0e 2d 38 00 ef aa b6 a5 d1 8b b8
       0.00016747942 4.1260282e-05 -5.094218e-06 -6.667086e-05
000100 73 65 93 b8 a9 1f 44 ba 06 a6 e9 b9 34 6b 84 38
       -7.0284026e-05 -0.00074815244 -0.0004456492 6.3142186e-05
000110 36 45 86 b8 fa a0 56 38 3e bf 54 38 00 41 ba 3a
       -6.4025095e-05 5.1171497e-05 5.0722847e-05 0.0014210045
000120 2a c2 a2 3a 37 af a1 38 88 9a b1 37 ee 10 79 b8
       0.0012417485 7.7097146e-05 2.1172003e-05 -5.9381993e-05
000130 fc 13 94 38 b2 c7 9a 38 7b 53 f4 b8 ef 8b b8 3a
       7.060912e-05 7.3804884e-05 -0.00011650376 0.0014079789
000140 bc 85 20 39 3e 1b 0e 38 3d cf be b9 bc 71 e4 39
       0.00015308609 3.388081e-05 -0.0003639403 0.00043572288
000150 2c d0 00 38 50 88 cf 36 44 04 c4 37 1a db 5e b8
       3.0711453e-05 6.1849496e-06 2.3367007e-05 -5.313298e-05
000160 2c bf 64 38 46 d2 6b 38 56 35 bd 3b e0 b7 0f bb
       5.453748e-05 5.62242e-05 0.0057741804 -0.0021929666
000170 ad a6 0d 3b 01 4f 0d 3b 04 47 0d 3b 9d 20 00 bc
       0.002161424 0.0021561983 0.0021557221 -0.007820276
000180 02 d7 36 bc 98 f0 0d bb 47 79 0b 3b c8 3c 0b bb
       -0.01115966 -0.0021658298 0.0021282004 -0.0021245945
000190 9f fe 74 bb a9 20 5b 3c 8f 27 33 3c 47 05 08 bb
       -0.0037383211 0.013374486 0.0109347245 -0.0020755099
0001a0 96 94 12 3b b0 1f 0a 3b 48 51 51 3b d4 27 12 bb
       0.0022366396 0.0021076016 0.0031939317 -0.0022301571
0001b0 63 55 62 bb 43 bd 5c 3c d9 33 66 3b 70 0c 0e bb
       -0.0034535758 0.013472858 0.0035126118 -0.0021674894
0001c0 21 e3 95 bb 7f cf 0b 3c fc d0 11 bb 38 a2 2e 3b
       -0.004574195 0.008533358 -0.0022249809 0.0026646983
0001d0 11 24 a1 3b f8 ce 0d 3b f5 79 0d bb 5b 2c 0b bb
       0.0049176295 0.0021638256 -0.0021587585 -0.0021236155
0001e0 20 26 87 3c 1e 9a 00 bc 0a 9c 01 3c 89 1d fe 3b
       0.016497672 -0.007849244 0.007910738 0.0077549857
0001f0 99 30 fd 3b 6c b5 14 bc b7 34 41 3c 96 45 fb bb
       0.0077267406 -0.0090764575 0.011792353 -0.0076682074
000200 17 3e fc 3b 85 dc fd bb a2 58 d0 bb e4 db c1 39
       0.0076978314 -0.0077472352 -0.006358222 0.0003697566
000210 d0 6c f1 3b 82 9f fc bb 4e 6a 03 3c 98 0a fe 3b
       0.007367708 -0.0077094445 0.0080209505 0.0077527277
000220 d9 67 08 3c af f0 fa bb 01 cb 09 bc c7 d1 66 3b
       0.00832554 -0.0076580863 -0.008410216 0.0035220252
000230 0f 39 0b 3c 3c 4d 01 bc 52 d6 13 bc 5b e5 16 3c
       0.008497491 -0.007891949 -0.009023266 0.009209956
000240 3a 6d 01 bc 67 41 04 3c 98 92 ae 3b 15 94 00 3c
       -0.007899577 0.008072234 0.005327534 0.0078478055
000250 4e f5 ff bb 70 af fe bb e8 44 81 3b 0a 68 e5 bb
       -0.007811225 -0.0077723786 0.003944982 -0.007000928
000260 59 20 df 3b 69 36 e6 3b e0 ac e7 3b 9a 62 95 ba
       0.006809276 0.007025529 0.007070169 -0.0011397183
000270 98 16 32 3a 83 3b e5 bb e5 72 e7 3b 70 d0 e3 bb
       0.0006793528 -0.0069956197 0.007063257 -0.006952338
000280 d1 62 da bb f5 ec be ba dc bc 51 ba f8 0a e7 bb
       -0.006664612 -0.0014566468 -0.00080008595 -0.007050868
000290 f9 3d da 3b 6d 24 e7 3b 86 fb bc 3b 22 08 e9 bb
       0.0066602197 0.007053903 0.0057672886 -0.007111565
0002a0 18 ad b2 bb 71 85 b8 ba 1d a6 ad 3b b8 13 e3 bb
       -0.0054527633 -0.0014077855 0.0052993433 -0.006929841
0002b0 a9 2d 81 bb 41 e4 26 3b 46 f0 dd bb 15 cc d1 3b
       -0.0039422107 0.002546564 -0.0067730276 0.0064025023
0002c0 da 12 d9 3a 66 4d e5 3b f7 42 e4 bb 5c 57 e6 bb
       0.0016561404 0.006997752 -0.0069659906 -0.007029457
0002d0 1f 7e 55 bd 44 f7 8d 3c bd fa 8d bc 25 f5 8d bc
       -0.05212223 0.01732982 -0.017331475 -0.017328808
0002e0 73 f2 8d bc 36 9c 89 3c c3 a5 3c 3a 10 5b 8c 3c
       -0.017327523 0.01679812 0.0007196331 0.017133266
0002f0 f1 f8 8d bc 52 f7 8d 3c 2c f8 58 3c 6b c1 62 bc
       -0.017330619 0.017329846 0.013242763 -0.01384006
000300 df 02 80 bc 09 f5 8d 3c df 07 8e bc 97 f8 8d bc
       -0.015626369 0.017328756 -0.017337738 -0.017330451
000310 89 33 8e bc 85 f0 8d 3c 29 29 8e 3c e6 eb 43 bc
       -0.017358558 0.017326603 0.017353611 -0.011958098
000320 30 e1 8d bc 9d fa 8d 3c 43 ce 8d 3c 3e de 88 bc
       -0.017319292 0.017331416 0.017310267 -0.016707536
000330 b3 09 8e 3c 61 27 8e bc 7a de 46 bc ba fe 8d bc
       0.01733861 -0.017352762 -0.0121380035 -0.017333377
000340 b3 fe 8d 3c a7 f7 8d 3c e2 9e 23 b6 25 79 03 37
       0.017333364 0.017330004 -2.4381375e-06 7.836415e-06
000350 70 b1 17 b7 bd 6f de b6 72 ed 01 b7 cb 82 42 38
       -9.041614e-06 -6.6291236e-06 -7.744284e-06 4.6375015e-05
000360 0a 01 a7 36 d0 39 08 37 7a 96 cd b6 bd 0f f9 36
       4.977109e-06 8.119692e-06 -6.126994e-06 7.4226105e-06
000370 c3 da fa b6 77 10 48 38 2a 1c 96 b7 12 01 00 37
       -7.476048e-06 4.769905e-05 -1.7894508e-05 7.629644e-06
000380 c1 05 08 b7 75 18 01 b7 5e 04 9f b7 c5 f9 08 37
       -8.107571e-06 -7.6946935e-06 -1.895631e-05 8.164386e-06
000390 c9 e2 a5 37 ff 2b f4 37 82 7d af b7 58 37 0c 37
       1.9775138e-05 2.9107554e-05 -2.092007e-05 8.357536e-06
0003a0 ec 6c 06 38 05 de 2b b8 25 76 0e 37 86 4a 54 b7
       3.204953e-05 -4.097635e-05 8.491367e-06 -1.2653536e-05
0003b0 8d 25 46 b7 7b 9d f7 b6 41 c8 e4 36 5d 90 ea 36
       -1.1810463e-05 -7.3795068e-06 6.818242e-06 6.9905495e-06
0003c0 5e ee 2a 3d 58 c8 25 3d 52 7d 23 bd 23 1d 23 bd
       0.04173123 0.040474266 -0.039914437 -0.03982271
0003d0 a0 25 27 bd 8b 26 23 3d 40 5e 34 3d a4 39 23 3d
       -0.040807366 0.03983168 0.044035196 0.039849892
0003e0 c6 6a 23 bd 78 b8 23 3d 00 fd 5e 3c d7 54 27 bd
       -0.03989675 0.039970845 0.013610125 -0.040852394
0003f0 2f 6f 25 bd 5d d1 22 3d 4b 26 26 bd 1b 0e 24 bd
       -0.040389236 0.039750446 -0.040563863 -0.040052515

b1 f4 [15]
000000 f4 ef 96 b8 57 38 f6 3b 44 da 6e 38 3e d3 0f bb
       -7.197252e-05 0.0075140405 5.6946898e-05 -0.0021945979
000010 d8 9d ff bb 07 3d e6 bb 83 fc 8d 3c 9b 1b b2 36
       -0.007800799 -0.007026318 0.017332321 5.308027e-06
000020 a6 b1 22 3d 6f 2d fd 3c c0 28 d2 3d 01 9f 0a 3c
       0.0397202 0.030905453 0.10261679 0.008460761
000030 1a ef 6d bb 77 0b 9a bd 72 42 6e 3c
       -0.0036305846 -0.07521718 0.014542209

W2 f4 [15, 30]
000000 a5 be 06 b8 8e 44 94 b8 84 17 94 38 2e 6e 93 38
       -3.212564e-05 -7.069959e-05 7.06157e-05 7.030029e-05
000010 39 2b 94 38 18 87 3e b9 37 af 7e b7 f3 da 93 b8
       7.065241e-05 -0.00018170138 -1.5180375e-05 -7.050289e-05
000020 26 f9 95 38 6b 37 9a b8 63 27 ad b8 d2 81 b8 38
       7.151281e-05 -7.353615e-05 -8.256619e-05 8.7979846e-05
000030 35 08 f6 38 66 ad 94 b8 22 d5 a3 38 ed de 94 38
       0.00011731723 -7.089488e-05 7.812145e-05 7.098713e-05
000040 67 4c 1d 39 c7 22 91 b8 d5 d3 8d b7 3b 58 00 39
       0.00015001149 -6.9206166e-05 -1.6907152e-05 0.000122399
000050 36 4e 46 38 e0 ff 89 b8 ec 9a 93 b8 48 3a 24 36
       4.727972e-05 -6.5803295e-05 -7.038363e-05 2.4471829e-06
000060 ff 54 9d b8 ca 5a a3 38 5a 94 d1 36 e3 cc 96 38
       -7.502175e-05 7.7893565e-05 6.245956e-06 7.1907205e-05
000070 9f 70 97 b8 74 56 8c b8 de 92 46 b9 b0 a0 f5 3b
       -7.2212184e-05 -6.6918234e-05 -0.00018937464 0.007495962
000080 19 41 f5 bb bd c2 f5 bb ac 71 f6 bb b2 8e 31 3b
       -0.007484567 -0.0075000213 -0.007520875 0.002709311
000090 d7 00 38 bb e2 1d f5 3b 27 be f5 bb 67 5a f5 3b
       -0.0028076672 0.007480369 -0.0074994746 0.0074875834
0000a0 28 a1 e4 3b cd 4d e4 bb 13 d2 ce bb 28 52 f6 3b
       0.006977219 -0.0069672824 -0.006311664 0.007517118
0000b0 7b f2 f3 bb 90 94 f5 bb b8 2c b7 bb d2 50 f6 3b
       -0.0074446774 -0.0074945167 -0.0055900477 0.0075169588
0000c0 1c d4 05 3c 33 3f d9 bb b6 02 00 bc b6 3e f6 3b
       0.008168247 -0.0066298484 -0.007813146 0.0075148
0000d0 17 84 f6 3b 6b d5 06 bc 3f 2c f4 3b 51 17 f2 bb
       0.0075230706 -0.008229594 0.0074515636 -0.0073880334
0000e0 51 6f de ba fa 4c f6 bb 47 f5 f6 3b c6 cc f5 3b
       -0.0016970431 -0.0075165005 0.0075365636 0.0075012175
0000f0 a4 da 76 b9 e8 b7 60 38 e0 59 d4 b7 d0 dd 66 b7
       -0.00023541838 5.3577038e-05 -2.531422e-05 -1.3760713e-05
000100 04 c0 9f b8 1e 62 9b ba 9c fd 6e b9 e6 bc 98 38
       -7.6174765e-05 -0.0011854803 -0.00022791926 7.28311e-05
000110 00 55 de 34 8c 5c 5a 38 de 10 3f b8 f8 fb 8e 39
       4.1412568e-07 5.206144e-05 -4.5553657e-05 0.00027272082
000120 6c e1 d2 39 f0 c5 94 38 c7 66 a8 b8 a4 66 4d b8
       0.00040222274 7.094059e-05 -8.030008e-05 -4.89714e-05
000130 eb 72 0a 3a 01 d2 bd 38 25 ce c5 39 2f d7 07 3a
       0.00052814063 9.0513386e-05 0.00037728358 0.0005181906
000140 dd 99 26 b9 06 71 96 38 b6 92 19 b8 84 91 d9 b9
       -0.00015888312 7.1736096e-05 -3.6614678e-05 -0.00041497883
000150 20 58 35 b6 18 b8 84 b8 d7 99 a9 b8 89 72 8a b8
       -2.7022397e-06 -6.3285406e-05 -8.087203e-05 -6.6016866e-05
000160 4e cf 74 38 f3 d9 bf 38 d0 38 f1 b9 9f 4b 0c bb
       5.83672e-05 9.148186e-05 -0.0004600943 -0.0021407378
000170 5f 1f 15 3b c0 b9 09 3b d7 5e 07 3b c2 08 2a bc
       0.0022754294 0.0021015257 0.0020655894 -0.010378065
000180 7c a7 b4 bb 18 4c fc ba e1 f3 0d 3b 4e 7b 10 bb
       -0.0055131298 -0.0019248752 0.0021660256 -0.0022046152
000190 a8 a7 14 bb 8a c5 79 3b c3 00 a8 3b 06 fc 0d bb
       -0.0022682939 0.0038112127 0.005127044 -0.002166511
0001a0 97 c0 16 3b 25 51 0b 3b 7d c1 db 3b 3b c8 04 bb
       0.0023002976 0.0021258083 0.006706415 -0.0020260948
0001b0 d8 16 53 3a 40 89 2f 3b aa 72 44 3a 8b 2b 0b bb
       0.0008052415 0.0026784688 0.0007493893 -0.002123567
0001c0 77 64 05 bb 76 8b 2d 3a ee f0 15 bb 39 bf 27 3b
       -0.0020354071 0.00066202076 -0.00228792 0.0025596155
0001d0 d2 c6 2e 3a b8 61 08 3b f0 72 05 bb b6 bc 10 bb
       0.00066672 0.0020810198 -0.0020362698 -0.0022085137
0001e0 6a eb 76 b9 98 e2 fe bb f1 8d 00 3c 05 a5 00 3c
       -0.00023548087 -0.007778477 0.0078463415 0.007851844
0001f0 8c 46 fd 3b 47 d7 de bb ba 57 0b 3b 98 92 fa bb
       0.007729357 -0.0068005654 0.0021262006 -0.00764687
000200 61 c1 00 3c fb 2c 00 bc 3f a3 fc bb e4 3e 0a 3c
       0.007858605 -0.007823224 -0.00770989 0.008437846
000210 3a 40 12 3c 6d e8 fb bb 21 16 03 3c 4f d7 ff 3b
       0.008926446 -0.0076876194 0.008000881 0.007807649
000220 96 0e 18 3c c5 88 fa bb 71 7a c0 bb 05 fa 15 3c
       0.009280821 -0.0076456987 -0.005873971 0.009153848
000230 a8 19 ea 3b bc 76 fa bb 0c 12 04 bc 62 46 ba 3b
       0.0071441717 -0.007643549 -0.008060943 0.00568466
000240 6b 7f 01 bc 7b 60 01 3c 14 2e d2 3a 8f 32 fe 3b
       -0.007903914 0.007896538 0.0016035461 0.007757492
000250 d2 07 ff bb a9 ba f7 bb 48 c3 15 bc 75 8b e5 bb
       -0.0077829147 -0.0075600934 -0.009140797 -0.00700515
000260 44 72 e1 3b 2a 5c e1 3b d9 94 e9 3b 9f bf 0b 3a
       0.0068800766 0.006877442 0.0071283397 0.0005330983
000270 6c 25 f8 39 83 61 e8 bb 62 71 df 3b 42 30 e1 bb
       0.00047330128 -0.0070917024 0.006818936 -0.006872208
000280 d3 f8 ca bb 0a 2c a9 3b ea 99 5d 3b 1f 2b e7 bb
       -0.006194213 0.0051627206 0.0033813664 -0.007054701
000290 e5 2d d9 3b 4d 93 e3 3b 52 ce 05 3b 18 cc e8 bb
       0.0066277855 0.00694505 0.0020417166 -0.007104408
0002a0 4b be 39 bc af 48 8b 3b 98 65 0e 3c a8 ba e8 bb
       -0.011336873 0.004250608 0.008691214 -0.0071023293
0002b0 34 a0 e4 bb eb 3f 48 3c ba 24 d9 bb f9 66 d6 3b
       -0.0069771055 0.0122222705 -0.0066266926 0.006543037
0002c0 1a 05 ff b6 88 77 e7 3b 6c e1 e5 bb f2 b7 e8 bb
       -7.600186e-06 0.00706381 -0.007015398 -0.007102006
0002d0 a9 f7 eb 3a 0a ef 8d 3c 90 f3 8d bc a6 fd 8d bc
       0.0018002886 0.017325897 -0.017328054 -0.017332863
0002e0 56 f2 8d bc f7 a8 82 3c a8 a6 0b 3b 72 e6 8c 3c
       -0.017327469 0.01594971 0.0021309052 0.017199729
0002f0 67 fb 8d bc fa 07 8e 3c b7 db 85 3c bd 1f 8e bc
       -0.017331792 0.017337788 0.01634012 -0.017349118
000300 6a 1b 8c bc 97 f9 8d 3c 06 16 8e bc 94 f8 8d bc
       -0.017102916 0.017330928 -0.017344486 -0.017330445
000310 8d 80 8b bc ae f7 8d 3c f3 39 8a 3c 18 f6 8a bc
       -0.017029071 0.017330017 0.016873335 -0.01696305
000320 91 58 8c bc 49 d8 8d 3c da f2 8d 3c f4 eb 8b bc
       -0.017132076 0.017315047 0.017327715 -0.017080285
000330 dd 10 8e 3c 62 19 8e bc 5b 86 65 bb ec f2 8d bc
       0.017342025 -0.017346088 -0.003502271 -0.017327748
000340 0e f7 8d 3c 6a e3 8d 3c 14 9e 05 39 2b 3f 00 37
       0.017329719 0.017320354 0.00012742757 7.644102e-06
000350 c0 f0 1b b7 f4 b9 c8 b6 36 59 68 b6 5b 99 e0 37
       -9.294774e-06 -5.9821123e-06 -3.4622622e-06 2.6774293e-05
000360 dc 7d 67 b8 d0 e6 c3 b4 e3 9c dc b6 2a 73 05 37
       -5.5191907e-05 -3.648952e-07 -6.574775e-06 7.9542315e-06
000370 7b 06 95 38 0e fb c4 b7 ed 53 f3 b7 f8 a8 e2 36
       7.106081e-05 -2.3481927e-05 -2.9006938e-05 6.7549954e-06
000380 c6 39 ca b6 a2 86 f0 b6 f0 0f 3d b8 28 7a de 35
       -6.026795e-06 -7.1682307e-06 -4.5075954e-05 1.6575841e-06
000390 91 75 c7 b7 e7 33 09 b8 e5 dc e1 36 8a 30 89 36
       -2.3777395e-05 -3.2711683e-05 6.731238e-06 4.088569e-06
0003a0 e8 2d e4 36 f9 90 d5 37 79 10 e7 36 f4 b9 61 b6
       6.8002737e-06 2.5459087e-05 6.886254e-06 -3.3635852e-06
0003b0 dd b2 47 38 b8 16 24 b5 fc 83 13 b6 8a 2f a4 36
       4.7611877e-05 -6.112782e-07 -2.1981532e-06 4.893115e-06
0003c0 0e c7 d1 3b 88 bb 1a 3d f7 6c 23 bd cb e4 22 bd
       0.006401903 0.0377765 -0.03989884 -0.039768975
0003d0 f9 21 1e bd d8 85 22 3d e6 47 78 3c 3f 0d 1d 3d
       -0.038606618 0.039678425 0.015153861 0.03834271
0003e0 a6 b3 23 bd 3d f2 25 3d 20 bb 38 3d 23 8e 0a bd
       -0.039966248 0.04051422 0.04510033 -0.03382696
0003f0 95 6f 1f bd 6d 4c 22 3d 20 9c 06 bd 30 5f 24 bd
       -0.038924772 0.039623667 -0.032863736 -0.04012984

Wb f4 [55, 55]
000000 c0 7e 0b bb e6 bc d0 ba 24 2e fb bc 24 09 72 bc
       -0.0021285266 -0.0015925437 -0.03066165 -0.014772687
000010 70 2f 56 bc b8 2e 22 bd 6f 0a 92 ba 03 f9 82 bb
       -0.013072833 -0.039595336 -0.0011142025 -0.0039969697
000020 62 34 4c ba 04 c9 ea bb 46 37 3b bb ac 96 d0 ba
       -0.0007789788 -0.007165076 -0.002856688 -0.0015914044
000030 68 1e c0 ba d6 a8 b8 bc 77 21 1c bc 88 72 ce bb
       -0.0014657499 -0.022541445 -0.009529463 -0.0063002743
000040 44 92 63 bc cb 07 b4 3b e0 7b ef bc b3 13 53 bc
       -0.013889853 0.005494093 -0.029233873 -0.012883115
000050 8f 2f 34 bb 53 0a 50 bc fc a4 fd bb 37 c9 b8 bc
       -0.0027494167 -0.012697774 -0.007740615 -0.022556884
000060 9a ca 51 bc 84 ca 36 bc ea 1b ff bc 8d ca a6 bb
       -0.012804652 -0.011156682 -0.03114124 -0.005090064
000070 7b 0c 12 3a 79 f8 64 bc a4 96 82 b8 d1 03 4c bc
       0.0005571318 -0.013975256 -6.226942e-05 -0.012452082
000080 69 1d a3 bc e8 b2 64 bc f4 b1 8a bb b1 b8 23 bc
       -0.019911485 -0.01395867 -0.0042326394 -0.009992764
000090 7d aa d1 ba 3c 24 e5 ba b6 08 2f bc b3 fc c2 bc
       -0.0015996244 -0.0017482112 -0.010683229 -0.023802137
0000a0 2e b0 1e bc 36 82 b8 ba 80 89 3d 3a 0d fa 14 bb
       -0.009685559 -0.0014076892 0.0007230267 -0.002273205
0000b0 47 3e 7a bc 8f 80 5d bc 82 22 64 bc 4e f9 90 bc
       -0.015273637 -0.01351942 -0.013924243 -0.017697003
0000c0 8b 1f e0 bc 6f 64 d1 ba 62 46 3b bc 88 48 4c 3a
       -0.02735879 -0.0015975366 -0.011430355 0.00077927904
0000d0 64 85 6f bc 48 20 71 bc 3c 09 88 bc 8c a0 0b bb
       -0.014619205 -0.014717169 -0.016605966 -0.002130541
0000e0 24 05 d3 ba 5d 78 fc bc a7 f7 73 bc 93 02 5b bc
       -0.0016099554 -0.030819112 -0.014890588 -0.013367313
0000f0 c5 8a 22 bd a6 a2 9b ba e2 3c 7f bb ec 4e 63 ba
       -0.039683122 -0.0011874035 -0.00389462 -0.0008671123
000100 7b 35 eb bb 94 db 3c bb 5a 20 d3 ba d7 ac d2 ba
       -0.007178006 -0.0028817402 -0.0016107664 -0.0016073239
000110 c7 26 b8 bc 5a 29 1b bc 91 e8 ce bb 8a f8 63 bc
       -0.022479428 -0.009470308 -0.006314345 -0.013914237
000120 3d d3 b1 3b 5f d9 ef bc 84 87 51 bc 4f 4e 34 bb
       0.005426793 -0.029278455 -0.012788657 -0.0027512496
000130 40 e0 4f bc 7d 24 fe bb 00 af b8 bc 73 76 4f bc
       -0.012687743 -0.0077558146 -0.022544384 -0.012662518
000140 6c dc 34 bc e1 7d fe bc 13 c9 a8 bb 50 cb 3b 3a
       -0.011038881 -0.031065883 -0.005150923 0.000716378
000150 92 2a 65 bc c0 aa df b7 9f 02 4c bc 1c ff a2 bc
       -0.0139872 -2.6663183e-05 -0.012451797 -0.019897036
000160 b6 7b 63 bc 19 60 8c bb 25 a1 24 bc 27 95 d2 ba
       -0.013884475 -0.0042839167 -0.0100481855 -0.0016066179
000170 a6 b8 e5 ba b8 75 2f bc e8 03 c4 bc ff fd 1e bc
       -0.0017526343 -0.010709219 -0.023927644 -0.009704112
000180 bb 90 d1 ba c0 40 45 3a a5 44 15 bb 74 bc 79 bc
       -0.0015988568 0.0007524602 -0.002277651 -0.015242685
000190 c0 f6 5a bc bb 63 63 bc 78 e4 90 bc 26 79 e0 bc
       -0.013364494 -0.013878758 -0.017687067 -0.027401518
0001a0 6b 19 d3 ba 3c 13 37 bc 88 bd 4d 3a 95 09 70 bc
       -0.0016105598 -0.011174019 0.0007848372 -0.014650722
0001b0 9a f7 70 bc 78 9c 87 bc 5a a2 0a bb 0a c6 d2 ba
       -0.01470747 -0.016554102 -0.0021153898 -0.0016080749
0001c0 bd 4a fc bc 8f 61 72 bc fe f3 56 bc a6 05 22 bd
       -0.030797357 -0.014793768 -0.013119696 -0.039556168
0001d0 89 af 98 ba de 18 82 bb 54 34 6a ba e8 9f e9 bb
       -0.0011648993 -0.0039702496 -0.0008934189 -0.007129658
0001e0 7e d0 3f bb 7c 21 d3 ba 7f 58 d3 ba c0 d7 b7 bc
       -0.0029268558 -0.0016108002 -0.0016124396 -0.022441745
0001f0 e5 48 1c bc 30 21 cf bb c9 b6 63 bc 94 93 ab 3b
       -0.009538864 -0.006321095 -0.01389856 0.0052360985
000200 82 76 f0 bc 2f af 52 bc 56 c3 33 bb ab b4 4f bc
       -0.029353384 -0.01285915 -0.0027429662 -0.012677352
000210 6d 80 fd bb 2a c2 b8 bc 73 6b 51 bc 25 ce 36 bc
       -0.007736257 -0.022553522 -0.012781966 -0.011157547
000220 65 ad ff bc b6 e8 a7 bb c0 ba 0d 3a c2 b6 64 bc
       -0.03121061 -0.005124177 0.0005406551 -0.0139595885
000230 98 d4 2b b8 f6 10 4c bc cd e1 a2 bc 6d 6a 66 bc
       -4.096757e-05 -0.012455216 -0.01988306 -0.01406346
000240 ee 84 85 bb 73 27 24 bc 2c cc d0 ba 9c c8 e1 ba
       -0.0040746843 -0.010019171 -0.0015929989 -0.0017225924
000250 63 35 30 bc 11 cb c2 bc a2 aa 1e bc ce 93 d1 ba
       -0.010754916 -0.02377847 -0.009684237 -0.0015989484
000260 c9 0e 1e 3a 30 40 15 bb da 13 7b bc 91 67 5b bc
       0.0006029425 -0.0022773854 -0.015324557 -0.013391391
000270 9e f3 63 bc 6e c5 8f bc 78 1b e0 bc 8c b6 d1 ba
       -0.013913063 -0.017550196 -0.027356848 -0.0015999838
000280 7c a4 39 bc 94 1f 49 3a dc 05 68 bc d8 96 70 bc
       -0.01133072 0.0007672247 -0.014161553 -0.014684401
000290 65 63 89 bc 00 fe 09 bb 41 02 d3 ba 8e ff fa bc
       -0.016771028 -0.0021055937 -0.0016098694 -0.030639436
0002a0 7e 5b 73 bc cc 71 57 bc 65 4d 22 bd d8 b0 91 ba
       -0.014853356 -0.01314969 -0.03962459 -0.0011115326
0002b0 31 7a 82 bb 66 05 74 ba 50 69 ea bb 8c 6b 3e bb
       -0.0039818515 -0.0009308666 -0.0071536675 -0.0029055802
0002c0 fa e8 d2 ba 8f 4b d0 ba 06 f2 b8 bc 50 44 1d bc
       -0.0016091161 -0.0015891659 -0.022576343 -0.0095988065
0002d0 e7 5c cf bb 2d e6 63 bc 8c 9d b0 3b b4 cf ee bc
       -0.0063282135 -0.013909859 0.005389875 -0.029151775
0002e0 23 77 53 bc 55 43 31 bb 59 d2 4f bc af 9f fd bb
       -0.012906822 -0.002704819 -0.012684428 -0.007739983
0002f0 ee c1 b8 bc 58 56 53 bc a0 b1 36 bc 73 54 ff bc
       -0.02255341 -0.012899004 -0.011150748 -0.031168198
000300 a8 cb a5 bb e5 57 2f 3a 5f cf 64 bc 00 71 ca b8
       -0.005059678 0.00066888175 -0.013965457 -9.6531585e-05
000310 2f 0e 4c bc ea b5 a2 bc 7d 2e 65 bc 75 2f 8a bb
       -0.0124545535 -0.019862134 -0.013988134 -0.004217083
000320 00 5a 22 bc 25 71 d1 ba 0e e0 e4 ba 5e 20 2f bc
       -0.009909153 -0.0015979154 -0.0017461793 -0.010688869
000330 2a ed c2 bc bc cd 1e bc 4b 89 d0 ba 42 9f 22 3a
       -0.02379473 -0.009692606 -0.0015910057 0.0006203541
000340 47 cd 14 bb 36 16 7a bc 36 5d 5b bc 3d 5b 63 bc
       -0.0022705363 -0.015264085 -0.013388922 -0.013876733
000350 52 b9 8f bc 4a 16 e0 bc cc 05 d3 ba 2c 66 37 bc
       -0.017544422 -0.027354378 -0.001609975 -0.011193793
000360 69 a8 4d 3a 53 a7 6e bc 6d fb 70 bc 51 ff 87 bc
       0.00078452245 -0.01456626 -0.014708382 -0.016601237
000370 a4 a1 0a bb c8 26 d0 ba d4 07 fc bc 97 1b 73 bc
       -0.0021153474 -0.0015880698 -0.030765451 -0.014838121
000380 fa c5 59 bc b1 21 22 bd 4b a3 95 ba 8e f0 81 bb
       -0.01329183 -0.039582912 -0.0011416463 -0.003965444
000390 9e 9d 70 ba cb be ea bb 95 a8 3f bb 6d b4 d2 ba
       -0.000917876 -0.0071638576 -0.002924477 -0.00160755
0003a0 99 d4 d0 ba dc b0 b7 bc 3a 39 1c bc ba f5 cd bb
       -0.00159325 -0.0224232 -0.009535128 -0.0062853964
0003b0 c1 ce 63 bc c2 17 aa 3b fa fc ef bc e5 b9 52 bc
       -0.013904274 0.0051908204 -0.029295433 -0.0128617035
0003c0 cc 4d 33 bb 2d be 4f bc c1 7f fd bb 2d c5 b8 bc
       -0.0027359603 -0.012679619 -0.0077361767 -0.022554958
0003d0 e4 81 53 bc 40 f6 36 bc 5c bc ff bc 2d 64 a9 bb
       -0.012909386 -0.011167109 -0.031217746 -0.0051694126
0003e0 0a 39 45 3a 2b a3 64 bc c0 f2 cd b7 0a 12 4c bc
       0.0007523453 -0.013954918 -2.4550944e-05 -0.012455473
0003f0 b8 de a2 bc 86 0f 67 bc fe 3d 7f bb 80 0c 23 bc
       -0.019881591 -0.014102822 -0.0038946862 -0.009951711

conv.weight f4 [10, 1, 20]
000000 95 ea 7d 21 0f 3f f0 21 bd c2 39 22 79 50 3d 22
       8.60302e-19 1.6279724e-18 2.5175269e-18 2.5656878e-18
000010 f4 b8 38 22 05 c4 84 22 a3 79 7a 22 1f 2e 16 22
       2.5034563e-18 3.5986215e-18 3.3945712e-18 2.0353207e-18
000020 cc b2 d3 21 35 87 ea 20 5a 18 2c a2 1a d0 99 a2
       1.4345243e-18 3.9730614e-19 -2.3323238e-18 -4.169107e-18
000030 7a 02 96 a2 48 81 77 a2 f6 68 c3 a1 93 32 70 a1
       -4.0660204e-18 -3.3543183e-18 -1.3241497e-18 -8.1382097e-19
000040 14 76 3a 22 a2 4b bd 22 b6 c7 a7 22 90 1e 82 22
       2.527021e-18 5.130863e-18 4.5476893e-18 3.526893e-18
000050 5c 0b d0 1e f6 7b 92 20 dd 60 d3 20 4e e5 5b a0
       2.2027555e-20 2.4815393e-19 3.580889e-19 -1.8625892e-19
000060 3e 53 54 a0 e4 59 c7 a0 ed 08 0b a0 a8 8b 56 20
       -1.7984641e-19 -3.3771396e-19 -1.1776711e-19 1.8172713e-19
000070 c0 37 86 20 af f9 b9 20 6e 34 0d 20 65 a0 98 20
       2.2737375e-19 3.1505446e-19 1.1960512e-19 2.5855942e-19
000080 5f c1 02 21 ba 53 d3 20 8b 19 d5 20 fe b3 be 20
       4.430164e-19 3.5800196e-19 3.6100506e-19 3.230636e-19
000090 ac 04 82 20 70 87 4c 1e 60 41 97 9d 74 f7 8b 9e
       2.2025948e-19 1.0827678e-20 -4.0036963e-21 -1.4819542e-20
0000a0 a4 a2 1a 23 b7 d4 29 23 5c c8 11 23 6b a8 db 22
       8.382797e-18 9.2065525e-18 7.9028935e-18 5.953839e-18
0000b0 26 76 ef 21 7f 4d 63 a2 31 3e 0f a3 12 d0 2b a3
       1.6226544e-18 -3.0805263e-18 -7.765215e-18 -9.313989e-18
0000c0 c3 66 82 a3 30 72 63 a3 9a 28 84 a3 1a 19 36 a3
       -1.413815e-17 -1.2329875e-17 -1.4328664e-17 -9.871555e-18
0000d0 a9 b5 9e a2 9f 5e a7 22 2c 19 c4 22 86 03 48 23
       -4.3018326e-18 4.5365625e-18 5.315256e-18 1.0842768e-17
0000e0 07 00 ba 23 21 b3 dc 23 4d 2b f8 23 e2 57 02 24
       2.0166172e-17 2.3928312e-17 2.6906552e-17 2.8263696e-17
0000f0 cf 80 a0 b3 54 18 b8 b2 a1 4b 5d b3 69 f8 8a b3
       -7.474011e-08 -2.1431482e-08 -5.1524356e-08 -6.471311e-08
000100 5b 57 0a b4 60 26 a1 b3 01 06 0b b4 2c 23 6c b3
       -1.2884031e-07 -7.504127e-08 -1.2947568e-07 -5.498002e-08
000110 10 d9 26 b4 b5 21 b1 b3 94 aa f3 b3 b7 25 8a b4
       -1.5538922e-07 -8.248336e-08 -1.1346597e-07 -2.5731944e-07
000120 5b d9 21 b5 af ab b3 b4 90 30 34 b5 f0 cb d1 b4
       -6.029347e-07 -3.3466264e-07 -6.7125893e-07 -3.9077668e-07
000130 ef 7e 1a b5 60 3a 58 b4 70 3a 8a b5 10 94 ab b5
       -5.7554183e-07 -2.0137804e-07 -1.0298809e-06 -1.2783585e-06
000140 86 6c fb 23 4d 85 06 24 0a 84 0a 24 f2 15 0a 24
       2.7259436e-17 2.916953e-17 3.003582e-17 2.994257e-17
000150 ca 41 05 24 bc 53 08 24 09 8a 09 24 01 1a 0a 24
       2.8895503e-17 2.9561225e-17 2.982406e-17 2.9946006e-17
000160 a3 d9 0b 24 fd 45 0e 24 d2 b1 0d 24 4f fe 0d 24
       3.0325166e-17 3.0850624e-17 3.072512e-17 3.078991e-17
000170 43 cc 0e 24 72 80 0c 24 69 b7 0e 24 80 96 05 24
       3.0964358e-17 3.0466458e-17 3.0946696e-17 2.8967256e-17
000180 61 46 e6 23 be 29 d6 23 02 3f 83 23 1c 28 89 23
       2.4966457e-17 2.3219605e-17 1.4229733e-17 1.4870557e-17
000190 d0 25 58 9e 5a f6 fd 20 8e f1 0e 20 10 02 9a a0
       -1.1442764e-20 4.302289e-19 1.2107792e-19 -2.608998e-19
0001a0 f6 7e e4 a0 cc bb f6 20 43 12 e0 20 92 11 2d a0
       -3.8708718e-19 4.1798295e-19 3.795916e-19 -1.4659484e-19
0001b0 d1 86 01 a0 36 dd e0 a0 c0 97 da a0 75 20 2b a0
       -1.0971332e-19 -3.809346e-19 -3.7031056e-19 -1.4495003e-19
0001c0 50 25 96 a0 b7 44 aa a0 af d0 00 a1 1c e4 94 a0
       -2.543568e-19 -2.8844592e-19 -4.3644277e-19 -2.5223125e-19
0001d0 0d ab bb a0 a2 3e cf 20 0c ff 94 20 20 1a 6b 9f
       -3.1792224e-19 3.510861e-19 2.524095e-19 -4.9784796e-20
0001e0 60 f2 62 21 40 a5 ca 9e 10 e5 fa 9e 75 c7 ed a0
       7.689256e-19 -2.1455928e-20 -2.6564518e-20 -4.028135e-19
0001f0 fe 65 57 a1 a7 7f 44 21 60 40 33 21 00 a5 74 21
       -7.297982e-19 6.657633e-19 6.073276e-19 8.288879e-19
000200 ed 1d 53 21 b0 31 ff 1f 3c 79 5e a1 67 ab f3 20
       7.1529187e-19 1.080789e-19 -7.537698e-19 4.1279226e-19
000210 44 c2 73 20 02 eb da 20 88 6a 63 1f b9 aa 2b 21
       2.0647178e-19 3.7086152e-19 4.815724e-20 5.8163003e-19
000220 10 2f b0 1f 3b a5 c8 a0 96 38 98 a0 32 ba 8a a0
       7.461676e-20 -3.3990658e-19 -2.5787247e-19 -2.3501323e-19
000230 97 93 f0 b5 6a 2b 11 b6 4a ae 07 b6 a4 40 05 b6
       -1.7924348e-06 -2.1631954e-06 -2.0218017e-06 -1.985617e-06
000240 b0 82 26 b6 0b 53 99 b5 2c 7a d8 b5 f7 6c 11 b6
       -2.4811998e-06 -1.1423557e-06 -1.6128811e-06 -2.167011e-06
000250 13 ec 7d b6 5e 5c 6d b6 f7 97 0b b6 65 27 85 b6
       -3.783735e-06 -3.5369517e-06 -2.080107e-06 -3.968295e-06
000260 90 93 01 b7 e3 bd a0 b6 c3 f9 58 b6 77 a4 e0 b6
       -7.723356e-06 -4.7904773e-06 -3.2331889e-06 -6.6948664e-06
000270 bb ec ee b6 c5 45 01 b7 d0 c3 84 b6 d4 49 59 b6
       -7.120512e-06 -7.705244e-06 -3.956702e-06 -3.2378493e-06
000280 25 3c 44 a0 80 71 08 1c dd 52 a6 a0 23 b5 c6 a0
       -1.6621746e-19 4.514532e-22 -2.8176328e-19 -3.366237e-19
000290 52 9b 0b a1 a0 0c b2 a0 02 61 c1 a0 62 89 ee a0
       -4.7300597e-19 -3.0162727e-19 -3.2759666e-19 -4.040968e-19
0002a0 59 95 e4 a0 13 4f e3 a0 15 5c cf a0 93 44 05 a1
       -3.8723532e-19 -3.8507623e-19 -3.51281e-19 -4.515291e-19
0002b0 68 e3 2b a0 58 09 60 a0 66 e8 80 20 29 13 8f 20
       -1.4559506e-19 -1.897663e-19 2.1837832e-19 2.4237821e-19
0002c0 44 6f 97 20 4d 8e fd 20 e2 a4 bc 20 52 54 69 20
       2.5654024e-19 4.2954034e-19 3.195755e-19 1.9763767e-19
0002d0 46 7e 96 21 5a 85 02 23 ba d4 8b 23 6f 3b 9a 23
       1.019782e-18 7.075552e-18 1.5160503e-17 1.6721885e-17
0002e0 23 1e 9b 23 e9 92 90 23 4a fe be 22 d4 d4 f8 22
       1.6817897e-17 1.567473e-17 5.1768842e-18 6.7445875e-18
0002f0 d6 27 8e 21 80 c7 ad 1e c7 94 45 a2 00 54 25 a1
       9.632839e-19 1.8399599e-20 -2.677724e-18 -5.601535e-19
000300 e5 40 57 a3 dc 6c f8 a2 78 87 ac a2 a7 0b 8f a2
       -1.1668915e-17 -6.7335794e-18 -4.6764127e-18 -3.8772565e-18
000310 54 83 3b 22 7e 1a 30 23 17 8d 5b 23 82 f7 cb 22
       2.541275e-18 9.546589e-18 1.1901891e-17 5.528532e-18

conv.bias f4 [10]
000000 5e cd f9 b3 04 67 02 21 d3 8c 4b b7 51 2e c8 bc
       -1.1632322e-07 4.4182053e-19 -1.2132531e-05 -0.024436148
000010 8c 0b 96 30 86 2a 9e 2d b0 c8 90 a2 a3 25 07 bd
       1.0917218e-09 1.7981405e-11 -3.9243764e-18 -0.032994878
000020 09 50 4b a6 77 41 03 23
       -7.053824e-16 7.115387e-18

conv_long.weight f4 [10, 1, 10]
000000 59 cd 7a a1 dc c5 71 a2 ce 84 03 a2 6b 19 0f a2
       -8.497507e-19 -3.2766336e-18 -1.7824117e-18 -1.939357e-18
000010 32 b7 19 a2 2a 8f 74 a2 28 95 c9 9f 3f 1f 80 a2
       -2.083235e-18 -3.3143957e-18 -8.537357e-20 -3.4727553e-18
000020 60 ca 94 a2 29 42 fb a1 e4 d8 8b a1 3c 20 b8 a1
       -4.0329753e-18 -1.7025934e-18 -9.476417e-19 -1.2476857e-18
000030 73 aa b4 a1 f9 89 8f 20 72 f8 c7 21 8e 1b 34 21
       -1.2242392e-18 2.4316445e-19 1.3550527e-18 6.102284e-19
000040 e8 46 bf a1 55 cd 54 a1 ff 46 b2 21 34 b9 a6 a1
       -1.2961432e-18 -7.210015e-19 1.2080542e-18 -1.129762e-18
000050 71 37 04 22 3a 91 06 22 e9 05 f8 21 4d 39 e7 21
       1.7918686e-18 1.8237269e-18 1.6806698e-18 1.5668336e-18
000060 ad 1c d9 21 d4 64 d7 21 eb fe a5 21 5a 71 4c 21
       1.4712082e-18 1.4595656e-18 1.1248311e-18 6.926791e-19
000070 8e d2 66 a0 78 50 d1 20 f6 25 2a a1 ba 79 24 a1
       -1.9551424e-19 3.5459227e-19 -5.764848e-19 -5.5726465e-19
000080 22 0f 95 a1 45 ee 7a a1 e2 4c 83 a1 36 f3 6f a1
       -1.0100638e-18 -8.501864e-19 -8.897256e-19 -8.1298237e-19
000090 ac 95 40 a1 c0 13 16 1f dc 14 3a 21 34 72 60 a1
       -6.525022e-19 3.1780072e-20 6.304686e-19 -7.60453e-19
0000a0 9f 8d 3f 23 51 30 58 a3 38 f2 57 a3 8a b9 c2 a2
       1.038412e-17 -1.1719615e-17 -1.1706465e-17 -5.2780252e-18
0000b0 62 b2 df 22 06 33 54 23 c3 3e 35 a3 b9 25 85 a3
       6.063314e-18 1.1503348e-17 -9.82532e-18 -1.4435865e-17
0000c0 00 4e 5c a2 98 9a 87 23 a0 65 6e 9e 63 4f 8c a0
       -2.9856853e-18 1.4702202e-17 -1.2620631e-20 -2.3769456e-19
0000d0 95 67 c4 20 c7 40 a5 9f 6c c4 d1 a0 26 18 2a 20
       3.3272236e-19 -6.9987383e-20 -3.5535958e-19 1.440755e-19
0000e0 90 9f b7 a0 ac 64 88 9f d5 be 18 21 3b 8d 11 a1
       -3.1106995e-19 -5.776479e-20 5.1752167e-19 -4.931483e-19
0000f0 2f 79 a9 1f 1f 13 13 20 51 08 8b 20 60 ac a3 a0
       7.1774765e-20 1.2457711e-19 2.355302e-19 -2.7727342e-19
000100 15 93 c3 20 68 f2 dd 20 cc e4 63 20 d0 6d 42 1e
       3.3131616e-19 3.7599267e-19 1.930335e-19 1.0292983e-20
000110 c0 5d 85 20 73 c0 10 20 14 4b ad 20 1c bb 27 a0
       2.2593115e-19 1.226095e-19 2.9357023e-19 -1.420736e-19
000120 d6 06 39 a0 86 8f 4b 9f 87 a1 a8 20 66 fc c7 1f
       -1.5672371e-19 -4.3105642e-20 2.8567197e-19 8.4697336e-20
000130 54 d0 53 a0 24 bc 38 1f 3c 79 83 a0 21 70 91 a0
       -1.7941325e-19 3.9119142e-20 -2.227249e-19 -2.4638156e-19
000140 13 2b 4a 21 65 ed 6c 21 a9 3c d1 20 c0 bf a3 1f
       6.849727e-19 8.02741e-19 3.544612e-19 6.935041e-20
000150 42 76 01 a0 9f 6e 84 a0 b4 35 b1 a0 70 14 36 1e
       -1.0965853e-19 -2.2434873e-19 -3.0020504e-19 9.639226e-21
000160 6e 4a a5 9f 20 b6 06 20 86 6b 11 22 e5 13 aa 22
       -7.000335e-20 1.1410502e-19 1.9708087e-18 4.6099656e-18
000170 ec d5 ad 22 48 8f 95 22 18 3f 01 22 e0 01 a1 a1
       4.7118243e-18 4.0538236e-18 1.7516162e-18 -1.0910281e-18
000180 78 d9 6e a2 74 67 3e a2 52 ae 32 a2 c2 43 3a a2
       -3.2370142e-18 -2.580457e-18 -2.4215783e-18 -2.5243571e-18

conv_long.bias f4 [10]
000000 2a 60 60 22 12 45 c8 b7 ce 9c 30 b4 bb 2b 1c a5
       3.040857e-18 -2.3874021e-05 -1.6448323e-07 -1.354566e-16
000010 d7 ad a8 22 5a 68 4f 27 8f b7 36 a3 09 08 a0 2c
       4.572055e-18 2.878359e-15 -9.90511e-18 4.5483656e-12
000020 21 59 ab 21 4a 23 04 a4
       1.1611003e-18 -2.865283e-17

conv1.weight f4 [30, 30]
000000 55 f2 63 20 cb 8b c3 a0 68 f5 4a a0 f7 6d 36 bb
       1.9307829e-19 -3.3126792e-19 -1.7191264e-19 -0.002783654
000010 23 c7 cd 26 83 fe 0b a0 de e1 08 a8 c5 87 ac a0
       1.4278709e-15 -1.1857969e-19 -7.598494e-15 -2.9227778e-19
000020 85 69 1c ac ca bb fe 20 e4 7f 90 a7 24 ff 05 a1
       -2.2227508e-12 4.3153542e-19 -4.010669e-15 -4.539983e-19
000030 fe cf 20 20 6e af e1 36 45 b7 31 20 38 42 40 9f
       1.3621346e-19 6.7259452e-06 1.5053122e-19 -4.0712356e-20
000040 0f 95 d4 20 fd de 90 a2 fa 9b ca b6 b7 2e 93 36
       3.6012836e-19 -3.9267376e-18 -6.038227e-06 4.3863797e-06
000050 c3 a0 68 20 7d 4b 79 29 f9 13 f9 9f 2a 97 76 9f
       1.9704356e-19 5.5354582e-14 -1.05488644e-19 -5.2217566e-20
000060 3a d3 fc a1 ce 6e c6 25 e1 e6 3c a0 0c 4b 61 38
       -1.7132095e-18 3.442261e-16 -1.6000611e-19 5.3714073e-05
000070 f5 76 4d 20 8c a3 8d a0 6b 50 96 20 20 d8 a1 9f
       1.7403535e-19 -2.3994555e-19 2.5464205e-19 -6.85437e-20
000080 67 f8 dd 9e 19 3e 4c a0 f2 99 27 9f ac 86 92 a0
       -2.3502022e-20 -1.7300019e-19 -3.5490966e-20 -2.482248e-19
000090 0e af 51 20 7a e0 a0 9f 22 48 58 9f b4 a2 ac 1f
       1.7760909e-19 -6.8134e-20 -4.5799446e-20 7.3114e-20
0000a0 08 bb e0 9f 70 69 eb 1e a8 b1 d5 9e f1 fc df 23
       -9.517711e-20 2.49252e-20 -2.2625729e-20 2.4284833e-17
0000b0 9a 47 b3 9f 0c 1b 9d 9e c0 1c 01 9f 77 b5 7f a0
       -7.5927904e-20 -1.6634208e-20 -2.7340594e-20 -2.1659382e-19
0000c0 02 a0 08 9f 85 6f 1c 20 75 b4 70 20 5f 94 b0 1f
       -2.8931476e-20 1.3250613e-19 2.0388499e-19 7.478436e-20
0000d0 10 88 ae 9d 5c 6e cd 1f 4f 26 92 1f 9d 52 14 9f
       -4.61981e-21 8.700345e-20 6.189678e-20 -3.1408555e-20
0000e0 96 b4 07 a2 2c c0 a0 20 10 e5 ce 9e 51 cc c9 a1
       -1.8391513e-18 2.7232223e-19 -2.1905836e-20 -1.3674372e-18
0000f0 68 9c 82 a1 e6 38 5c a0 00 d1 6b 9c 0c d2 66 1f
       -8.850543e-19 -1.8653551e-19 -7.8025104e-22 4.887814e-20
000100 be 61 3d 1f 66 ce 15 9f bb c9 9e 9f a2 7b e6 1f
       4.0103157e-20 -3.1722706e-20 -6.724934e-20 9.761332e-20
000110 64 e2 5d 20 a8 6a 1a 9f 82 ec 1b 9f 6d 0c ff 1f
       1.8794335e-19 -3.2698992e-20 -3.301816e-20 1.0801726e-19
000120 76 8c 32 9f 49 7a df 23 86 24 cd 9e 60 60 12 1e
       -3.7809153e-20 2.4229498e-17 -2.1720325e-20 7.7491055e-21
000130 cc 6d dd 9f f0 54 18 1f 19 e1 ad 9f 73 cd 6f a0
       -9.3778784e-20 3.225751e-20 -7.364074e-20 -2.0312065e-19
000140 35 24 d2 20 b2 26 43 a0 f8 6a 81 9e 37 d6 aa 1f
       3.5599344e-19 -1.6529946e-19 -1.3702648e-20 7.235219e-20
000150 c0 f0 85 9c 64 1f 91 9f 40 30 4a 1e 7e ad 91 20
       -8.863434e-22 -6.146182e-20 1.0703769e-20 2.4678763e-19
000160 e9 3c 92 1f 28 37 58 20 c0 b9 29 1f 2e 46 2a 20
       6.193417e-20 1.8314161e-19 3.594079e-20 1.442278e-19
000170 b6 12 98 1e 18 df 9e 1e 54 c7 15 9f 8c c6 bf 9e
       1.6101365e-20 1.682117e-20 -3.1716858e-20 -2.0305029e-20
000180 53 3e 3b a0 a0 6a 07 9e dd 5c 8b a0 28 63 6d 1f
       -1.5860137e-19 -7.16889e-21 -2.3608968e-19 5.0268722e-20
000190 04 27 05 9e 83 ca c1 1f 71 82 14 1f 8c 1c 2e 20
       -7.04903e-21 8.207371e-20 3.1448118e-20 1.4747819e-19
0001a0 f3 49 b3 1f 18 f6 2c 1f fd f8 17 1f aa b8 48 1f
       7.593179e-20 3.662598e-20 3.2181452e-20 4.2504398e-20
0001b0 c6 61 fe 9f 8a 1a 0a a0 14 7e cd bb 4a b2 b7 20
       -1.0773494e-19 -1.1697836e-19 -0.006271133 3.1119388e-19
0001c0 90 0e 04 1e ae d4 e0 1f dc a1 fa 9e ce 3a 90 1f
       6.991033e-21 9.521954e-20 -2.6536723e-20 6.1083656e-20
0001d0 77 e6 8b a0 cf ee 5d 20 e8 85 3e 20 91 af 6c 1f
       -2.3700025e-19 1.8798443e-19 1.6137932e-19 5.012017e-20
0001e0 b4 59 47 20 52 5c 6a 9f b3 92 22 9f 95 e2 33 21
       1.6885636e-19 -4.9627793e-20 -3.442618e-20 6.094744e-19
0001f0 14 0b fd 9f c3 c1 bd 9f 70 d7 0b a0 e4 ad 27 a0
       -1.07167995e-19 -8.0365165e-20 -1.184504e-19 -1.4202986e-19
000200 24 51 2f 20 00 a5 93 9f 55 23 ae a0 f5 77 e3 a1
       1.4849924e-19 -6.252989e-20 -2.9500127e-19 -1.5413871e-18
000210 c5 85 0e 20 ca 8a 49 a1 20 9b 86 1d 56 7c b1 1f
       1.2072128e-19 -6.8285135e-19 3.56299e-21 7.516811e-20
000220 e6 b3 a5 20 d4 82 80 21 03 a0 a9 20 c4 14 a0 21
       2.8071134e-19 8.708247e-19 2.87356e-19 1.0847518e-18
000230 d6 4a 7b 20 30 89 80 1f a9 df 17 a0 f1 dc 4d 21
       2.1285288e-19 5.4437066e-20 -1.28642e-19 6.9749115e-19
000240 b0 d7 d4 20 5b bb 67 a0 d3 54 df 9f cf 77 78 22
       3.6056927e-19 -1.9628452e-19 -9.4584504e-20 3.3673693e-18
000250 72 ae b8 a0 02 6b 64 20 20 6d 26 1d 1a 1e 28 a0
       -3.128625e-19 1.9347757e-19 2.2026333e-21 -1.4240113e-19
000260 aa 6d eb 9e b5 2a 2e a2 d6 b3 97 9f d6 78 77 20
       -2.4926949e-20 -2.3604006e-18 -6.42485e-20 2.0961695e-19
000270 fe 14 dc 9e df bc 8e 9f 69 8e c9 20 ec d7 9c 1f
       -2.3302088e-20 -6.04518e-20 3.4144964e-19 6.642578e-20
000280 9e e4 ca a0 89 8a 35 a2 90 88 6d 20 0b 3f 52 a1
       -3.4371417e-19 -2.4603414e-18 2.0119866e-19 -7.1234204e-19
000290 03 32 fa 9e 69 b8 3e 1f 82 33 85 20 17 62 79 21
       -2.6490464e-20 4.0386606e-20 2.2565161e-19 8.44943e-19
0002a0 9f 71 a9 1f ea fc 4f 21 43 54 cb 9f 10 fa 43 9f
       7.1762254e-20 7.0469057e-19 -8.6113243e-20 -4.1499703e-20
0002b0 84 a3 1a 20 8b 4f 09 21 2e df 98 20 c5 38 0c 9f
       1.309841e-19 4.652268e-19 2.589749e-19 -2.9693112e-20
0002c0 d4 52 55 1f 48 db e1 22 e2 56 b8 a0 4e 7c 70 a0
       4.5173018e-20 6.1218545e-18 -3.1228307e-19 -2.036992e-19
0002d0 54 88 ec 1e ba 34 81 1f 4d ff 7e b5 b2 16 a5 a7
       2.5043856e-20 5.4720854e-20 -9.4993885e-07 -4.5821306e-15
0002e0 99 4e d7 20 ed c4 53 9f 00 ae e5 9c 33 3d d7 a6
       3.6474428e-19 -4.484388e-20 -1.5198927e-21 -1.493521e-15
0002f0 8f ff d2 aa 32 02 67 21 cc 8e 1d ba 62 d9 97 9f
       -3.7480823e-13 7.826875e-19 -0.0006010353 -6.431062e-20
000300 9e dd 84 1f ef 7f 28 2c 37 7d 53 b4 66 aa c1 9f
       5.627081e-20 2.3945253e-12 -1.9696459e-07 -8.202058e-20
000310 7e 37 0d 9f eb a7 21 b8 84 0f cd 1f 7a 7b 8e b4
       -2.9903813e-20 -3.8541777e-05 8.6846546e-20 -2.6539402e-07
000320 92 1f 25 1f fc 9d 25 1f 4b 4f 3c 9f 13 f6 82 9e
       3.4966223e-20 3.507079e-20 -3.9876138e-20 -1.386606e-20
000330 5c 19 b2 9f bd ac c3 ba c8 13 ac 9f 9e e2 75 bb
       -7.5427886e-20 -0.0014928799 -7.287756e-20 -0.0037519108
000340 b2 1f bd 1e 20 93 dd 9c 42 e9 bd 9f 04 af f7 1e
       2.0024262e-20 -1.4662584e-21 -8.0430506e-20 2.6224527e-20
000350 44 1a 80 9e 3f 37 97 a1 84 29 ae 1f f9 cb 8c 20
       -1.356339e-20 -1.0246782e-18 7.376055e-20 2.38519e-19
000360 67 c1 82 1f b0 87 b2 1f ec c6 94 1f 18 0f dd 9e
       5.53771e-20 7.561041e-20 6.3009527e-20 -2.3405528e-20
000370 c0 66 95 9c d6 de a3 a1 15 a7 6c a0 c8 04 f9 a0
       -9.886553e-22 -1.1104294e-18 -2.004526e-19 -4.2185405e-19
000380 00 fa 41 9c f0 47 98 9d 56 d1 ad 9f 78 d6 11 a1
       -6.418146e-22 -4.0308447e-21 -7.361467e-20 -4.941176e-19
000390 93 17 de a0 fb 48 fc 20 46 83 ff 1f fe 31 21 20
       -3.7623863e-19 4.2738755e-19 1.08213874e-19 1.3653771e-19
0003a0 c6 87 1d a0 36 8a 00 21 90 0a ae 1e fe 4d 44 1f
       -1.3343341e-19 4.355101e-19 1.8427335e-20 4.1569128e-20
0003b0 42 f6 d2 20 15 f6 5a a1 5c 02 93 20 84 6c 3f 9f
       3.5738344e-19 -7.418696e-19 2.490433e-19 -4.0535585e-20
0003c0 f0 eb ec 1d 10 6a 80 1e 23 6f 86 1f bf 91 8a a1
       6.2712634e-21 1.3596394e-20 5.693507e-20 -9.389822e-19
0003d0 60 dd ae 1e ce 5e 21 20 a4 d8 ca 1f d4 c5 d3 1f
       1.8514525e-20 1.3668599e-19 8.590873e-20 8.9689255e-20
0003e0 7c f3 7b a0 b2 0d d8 1f 6e 1b fd 9e 1e 34 66 a1
       -2.1341089e-19 9.1502215e-20 -2.6798762e-20 -7.799601e-19
0003f0 0c ba 89 20 78 f3 07 a1 33 86 31 9f 60 66 af 1f
       2.3331818e-19 -4.6062007e-19 -3.7592215e-20 7.428475e-20

conv1.bias f4 [30]
000000 b7 cd af a7 25 6c 92 29 24 78 c4 b6 27 f6 28 bc
       -4.8795294e-15 6.5024625e-14 -5.8552414e-06 -0.010312594
000010 8e 07 5d a5 7b 99 53 a4 fe fb 5d b5 7d 10 44 a8
       -1.9171254e-16 -4.5883335e-17 -8.269561e-07 -1.0883761e-14
000020 dd 70 7e b9 14 9f 9e a8 83 52 14 bb df 0e a8 2d
       -0.00024265372 -1.7610513e-14 -0.0022632189 1.9105993e-11
000030 09 38 85 a3 b7 62 a8 bb f2 f9 ef b5 c1 4c 9d a1
       -1.444362e-17 -0.005138721 -1.7879631e-06 -1.065905e-18
000040 0e 81 ae ab 7e d0 dd ba b1 94 0c b8 66 d2 fa ba
       -1.2399263e-12 -0.0016923097 -3.351708e-05 -0.001913619
000050 6e bb 5c a9 9e 81 3b b5 e3 42 1a a8 bd 19 25 ac
       -4.9012382e-14 -6.9851546e-07 -8.563221e-15 -2.3462198e-12
000060 e2 1a c8 31 9a 14 06 bc ff d0 15 22 ca 13 bb bc
       5.8238223e-09 -0.008183623 2.0303907e-18 -0.022836585
000070 35 38 2b 28 10 23 2d a2
       9.504595e-15 -2.3464434e-18

conv2.weight f4 [30, 10]
000000 b6 61 04 1f 32 16 f5 a6 f0 f1 14 1f 93 4d cb a2
       2.8032912e-20 -1.7006306e-15 3.1540345e-20 -5.5105395e-18
000010 fe 1d 11 1f 10 1f 34 1f 0c 5a b2 20 50 ce f5 1e
       3.0729753e-20 3.8142177e-20 3.021396e-19 2.6025713e-20
000020 4e 86 26 a1 44 b9 93 1e b4 c3 80 9f 22 cc a2 2a
       -5.642074e-19 1.5640854e-20 -5.453387e-20 2.8918626e-13
000030 00 c1 3c 1d 96 b4 41 30 53 3e 4c 9f 40 36 bc 1d
       2.4981371e-21 7.046962e-10 -4.3250234e-20 4.981928e-21
000040 6d 84 0f a2 ac 69 f7 9e 1e 6f 7a 1f ba c3 bb 1f
       -1.945022e-18 -2.6195847e-20 5.3031473e-20 7.952138e-20
000050 e9 eb 9b 22 a3 b3 2f 1f e4 72 21 22 b3 7c 3e 20
       4.2262614e-18 3.7206283e-20 2.1880391e-18 1.6134886e-19
000060 6a 90 a5 1e 24 70 03 a0 0a 27 4f 9f 68 a9 f0 1f
       1.7529783e-20 -1.1133236e-19 -4.3866247e-20 1.0192421e-19
000070 2d 9d 05 bb 98 ea f4 bb 00 9c 69 21 96 ac 93 9f
       -0.0020387874 -0.007474255 7.9149935e-19 -6.254244e-20
000080 75 98 8b 21 16 3f 0a bb c4 68 44 b3 d9 53 8a b3
       9.459361e-19 -0.002109473 -4.573009e-08 -6.4413776e-08
000090 32 43 46 b6 5a bf 0a 20 40 ee 9d 3a ce 68 ca 38
       -2.9543412e-06 1.1752368e-19 0.0012049153 9.651632e-05
0000a0 d1 4c bd 1f d8 e1 f7 22 08 56 58 9e d0 2b 53 1f
       8.0171696e-20 6.7188606e-18 -1.1452736e-20 4.471723e-20
0000b0 bf 00 46 1f dc a5 bd 9f 9e 9b 2d 9f 4c 7e 15 9f
       4.1928748e-20 -8.0319005e-20 -3.67629e-20 -3.1656448e-20
0000c0 aa bf 2f a0 bc 1b a6 1e cd 21 35 9f 01 e5 c6 a4
       -1.4886493e-19 1.7587404e-20 -3.83562e-20 -8.625676e-17
0000d0 03 a3 02 9f 0d c6 1d 23 fc 19 56 9f e6 13 ab 9f
       -2.766341e-20 8.552926e-18 -4.5337756e-20 -7.2454236e-20
0000e0 e5 df 81 a0 e0 f2 5f 1f 96 4f d9 1f bd 4d 6b 9f
       -2.200161e-19 4.7422988e-20 9.203474e-20 -4.982749e-20
0000f0 0a 0e 91 1f 62 2d 84 9f de aa 97 1f 89 1f 6f a8
       6.1433114e-20 -5.5979254e-20 6.4233664e-20 -1.3274003e-14
000100 08 fa ef 21 10 36 5d a1 a7 1f a8 a1 f9 09 fb 9f
       1.6261453e-18 -7.4949264e-19 -1.1392501e-18 -1.06319133e-19
000110 7c 0f 67 9f ca 39 28 22 32 d8 ee 20 60 88 b7 a4
       -4.892896e-20 2.2798839e-18 4.0461834e-19 -7.959463e-17
000120 ee 1b e8 20 5c 41 e6 1f be 5d a3 1f 9c ee 2b 1f
       3.932081e-19 9.751692e-20 6.918827e-20 3.640803e-20
000130 02 a5 be 9f 4a 0b 7f 9e 36 3d 81 b4 3f 3b 96 b7
       -8.074111e-20 -1.3501922e-20 -2.407266e-07 -1.7908982e-05
000140 e6 7f 0e bb 54 6a ca 9f a3 82 24 bb d7 69 63 bb
       -0.0021743714 -8.572623e-20 -0.002510228 -0.0034700537
000150 53 85 58 2c f5 42 1e 2e 40 85 4e b2 7c 0d 32 ab
       3.0769456e-12 3.598451e-11 -1.2021076e-08 -6.3257017e-13
000160 32 bb 7b bc 7a e4 e1 bd 7e de 34 1f c8 05 2f a9
       -0.015364455 -0.110299066 3.8300524e-20 -3.886282e-14
000170 0a 8a a6 9f 78 c0 84 20 00 18 4b 9a 02 af ea 1f
       -7.05321e-20 2.2489035e-19 -4.1998803e-23 9.939238e-20
000180 4c 27 90 9f 3e aa 6a 9f 52 0d 3e a7 5d dd fc ac
       -6.1051383e-20 -4.969225e-20 -2.6375018e-15 -7.186847e-12
000190 34 0a 31 a7 74 46 ca 9f 96 ce 06 2a f1 33 ca 23
       -2.4569216e-15 -8.566688e-20 1.1973265e-13 2.1922882e-17
0001a0 42 58 30 9f e8 6c e6 20 ae 34 aa 21 5b 2c a0 21
       -3.7342455e-20 3.9035584e-19 1.1533592e-18 1.0853763e-18
0001b0 7a cb d9 bb 90 ec 83 bc 00 8b 7d 9f 59 39 b9 9f
       -0.0066465707 -0.016104013 -5.3689812e-20 -7.844542e-20
0001c0 e2 6c 71 1f f8 81 f2 9e 08 a1 60 9e 80 5d 60 9f
       5.11238e-20 -2.56765e-20 -1.1891762e-20 -4.7511186e-20
0001d0 b5 1a 2d a0 0c a5 55 9f 48 bf ae 1f 34 95 24 1f
       -1.4662507e-19 -4.5241028e-20 7.4008315e-20 3.485177e-20
0001e0 f0 e1 ec 9f cc 52 8f 9e b7 e6 0a a0 5e 0a a5 a1
       -1.0032367e-19 -1.5174958e-20 -1.1765392e-19 -1.1183579e-18
0001f0 e0 f1 c8 1e 8b 5f 12 1f 80 d5 44 9d 82 4f cc 1f
       2.1275861e-20 3.0995734e-20 -2.605076e-21 8.6528895e-20
000200 a6 af 84 1f 88 b8 a4 9d 7f 99 b7 bb aa 22 62 20
       5.619476e-20 -4.360124e-21 -0.005603015 1.9154414e-19
000210 23 1b d7 bb d4 76 5f b8 54 fc 18 a6 6b 1a 1e a6
       -0.0065645142 -5.327801e-05 -5.307756e-16 -5.4853065e-16
000220 46 f3 5d a8 ab 1a 77 b5 73 00 44 bd 8f 7b cd bd
       -1.2320716e-14 -9.205348e-07 -0.04785199 -0.100333326
000230 07 80 2a 23 90 f8 df 9f 54 3a 6b a5 30 f0 66 1e
       9.242829e-18 -9.4855386e-20 -2.0402763e-16 1.2225768e-20
000240 0a 2e 97 9e 40 42 94 1d e2 0a 04 9e ff eb ae 20
       -1.6006788e-20 3.9243775e-21 -6.990272e-21 2.9632916e-19
000250 55 ea cc bb 4c 00 42 bc c4 06 b9 9e 60 97 8b 24
       -0.0062535205 -0.011840891 -1.9590435e-20 6.053808e-17
000260 91 32 77 1f 0e b0 cb 1f d0 1f ce 9d 6c 7e 43 1f
       5.2346112e-20 8.62651e-20 -5.456064e-21 4.139743e-20
000270 88 27 50 1f b4 a5 5c 1f 31 d1 32 a0 7a 4c 9c a0
       4.4078413e-20 4.672388e-20 -1.5146402e-19 -2.6478036e-19
000280 1e 2e ae 1f f9 55 8a 2c 5b b9 93 9f a5 bd 1e a1
       7.376816e-20 3.931741e-12 -6.2563567e-20 -5.3783475e-19
000290 80 b3 d5 20 d6 63 ac 20 ab 35 e0 a0 40 ea 8a 9f
       3.6202387e-19 2.9204e-19 -3.798259e-19 -5.883281e-20
0002a0 5d 95 f1 9f 64 3a 68 20 a1 f8 2f 36 ce 83 0b a1
       -1.0231457e-19 1.9670484e-19 2.6221753e-06 -4.7269474e-19
0002b0 53 49 a1 37 d0 0a d7 1f 88 00 40 1e 67 54 2d 9f
       1.922684e-05 9.107393e-20 1.0164505e-20 -3.670399e-20
0002c0 bc 47 b9 20 b0 f1 c6 26 b8 c5 f8 bc 56 47 8a bd
       3.138769e-19 1.3804519e-15 -0.030367717 -0.067518875
0002d0 1d e3 a1 9f 6b 54 05 1f 7e d1 5f 1f 6f d7 dd ba
       -6.856188e-20 2.8233674e-20 4.7395375e-20 -0.0016925166
0002e0 e2 b2 6b 2e 26 98 f6 2c ef f6 49 b3 c0 ff 05 9d
       5.3591694e-11 7.0086324e-12 -4.7023544e-08 -1.7734623e-21
0002f0 a8 80 59 27 95 53 7c a7 73 92 95 bc a0 d5 fc a0
       3.0184544e-15 -3.5017335e-15 -0.018258309 -4.2831826e-19
000300 5a af 75 bc 57 c8 0e bb 80 c2 ee 29 67 4e dc 2d
       -0.01499542 -0.0021786892 1.06030636e-13 2.5045922e-11
000310 3c 79 a9 ae c4 c8 a2 b6 eb 9f ca bc bb 16 32 be
       -7.706766e-11 -4.8513484e-06 -0.024734458 -0.17391483
000320 86 3a 9e 1e cf 42 46 ac 6b 0a 99 9e ef 73 99 a1
       1.6753105e-20 -2.8174579e-12 -1.6203814e-20 -1.0398371e-18
000330 85 bc 69 1f 14 f2 ed 9f 4d 2b 15 20 3f 22 af 9f
       4.949561e-20 -1.0077389e-19 1.2635118e-19 -7.417204e-20
000340 49 38 2c 9f 80 f5 2c 1d d6 16 bd 1f 6a 52 ce 1f
       -3.6468975e-20 2.289093e-21 8.008239e-20 8.7380736e-20
000350 de bc 1f 1f 96 64 00 29 c8 72 80 a2 38 32 02 21
       3.3825787e-20 2.8508954e-14 -3.4816e-18 4.4112177e-19
000360 e2 76 e4 22 42 27 bd 9f ea d5 68 9f c4 12 9d a3
       6.1925396e-18 -8.010956e-20 -4.9304857e-20 -1.7029922e-17
000370 f8 a2 31 9f 38 15 55 28 10 56 f2 9f c5 f8 34 22
       -3.7616013e-20 1.1828476e-14 -1.02633365e-19 2.4526246e-18
000380 38 5c 72 9f 54 5c 04 9f 8c 48 11 a0 2c bb 07 9f
       -5.1321775e-20 -2.802846e-20 -1.2305981e-19 -2.8742187e-20
000390 dc 7b f0 1e 50 55 72 9e b0 2c b1 1f 18 7d f8 2c
       2.5462215e-20 -1.28290155e-20 7.5036345e-20 7.062472e-12
0003a0 2d f7 06 9f bf 13 83 20 d6 5b b5 9f fd 29 1f 1f
       -2.8580063e-20 2.220533e-19 -7.680841e-20 3.370429e-20
0003b0 d4 c3 02 a0 30 52 8a 1f 71 07 ab 1f 80 a0 70 9c
       -1.1076222e-19 5.858124e-20 7.243363e-20 -7.961678e-22
0003c0 6c 77 b9 1e 98 a7 da b2 96 2b 8f 9f 07 8b 13 a6
       1.9637029e-20 -2.5454753e-08 -6.063496e-20 -5.118929e-16
0003d0 59 e3 46 20 a6 e1 b9 21 34 70 88 21 54 57 0b 1f
       1.6846475e-19 1.2595816e-18 9.245418e-19 2.950663e-20
0003e0 25 55 64 21 38 89 de a0 e7 b3 2c 34 2c c3 24 9f
       7.7362093e-19 -3.7699067e-19 1.6084196e-07 -3.4889793e-20
0003f0 32 e8 fe 35 80 6d cf a1 f9 c0 3d 1f d8 f4 0d 1f
       1.8992052e-06 -1.405585e-18 4.018193e-20 3.006044e-20

conv2.bias f4 [10]
000000 e5 92 07 bd cf 12 9f bf e6 20 47 bc f6 c6 1f bd
       -0.033099074 -1.2427615 -0.01215384 -0.039008103
000010 b4 5f 12 ba 62 df db b9 e2 c8 61 ba b0 da 52 bb
       -0.0005583719 -0.00041937368 -0.0008613003 -0.0032173805
000020 64 90 2f bd e5 fe 06 bd
       -0.04286231 -0.03295793

rnn.weight_ih_l0 f4 [30, 1]
000000 47 23 6a c0 67 14 9a 3e 0c 89 6f bd c5 55 c0 bd
       -3.6584032 0.3009369 -0.058480307 -0.09391359
000010 d1 ef 12 be 1f c1 af 3f 15 5e 02 3f 7a c7 80 3e
       -0.14349295 1.3730811 0.5092481 0.2515219
000020 55 71 34 bd 8f 77 06 3d 84 9b f8 bf 6c ad 82 bd
       -0.044053394 0.032828864 -1.942246 -0.06380734
000030 76 cc ab ba 07 ef 2d 3d d6 3d 98 bd a3 1a c8 bd
       -0.0013107199 0.042464282 -0.07433669 -0.097707056
000040 b4 50 e2 bc e8 41 2a 3f 34 c6 67 3e 8b 8a 1d 3f
       -0.027626373 0.66506815 0.22634202 0.61539525
000050 d2 1d 50 bd 29 32 55 3d 44 26 90 3d c6 4e 5f bd
       -0.05080969 0.05204979 0.070385486 -0.054518484
000060 eb ad 84 3c a7 5c 0a 3e 38 a3 87 bf ce 75 ac 3d
       0.016196212 0.13511907 -1.0596685 0.08420907
000070 46 aa 93 3e ff 76 c4 3d
       0.28840846 0.09593009
