colagnn-master-Run-Epi/src/save/cola_gnn_epi.us_hhs.w-20.h-2.RNN.lam-0.5.epo-500.pt (torch, 49334 bytes, 32 tensors)

V f4 [15]
000000 0d 08 ac 3e 2c 83 91 b5 ca 7f 25 3b dc b5 f3 a3
       0.33599892 -1.0841518e-06 0.002525317 -2.6423133e-17
000010 c9 bf 88 34 2d 1e 2d 3b 7f eb 61 a1 5e d5 87 3a
       2.5471516e-07 0.0026415691 -7.654464e-19 0.0010363271
000020 1d 61 65 3c 41 44 07 3c 3b 95 a1 39 b9 6e 2f 3d
       0.014000204 0.008256019 0.00030819498 0.042830203
000030 f9 d2 c4 b4 0c 5e b6 b9 34 df d9 b9
       -3.6661348e-07 -0.00034783815 -0.00041555765

W1 f4 [15, 30]
000000 a9 8f c0 be ff 09 bc be 7f c2 bd be 02 ff bd 3e
       -0.37609604 -0.36726376 -0.3706245 0.37108618
000010 86 61 39 3e e6 0a be be e0 14 be be ed 0a be be
       0.18103608 -0.3711769 -0.371253 -0.3711771
000020 a0 e6 bd 3e 4b 86 bc 3e f2 0a be 3e ed 0a be 3e
       0.37090015 0.36821207 0.37117726 0.3711771
000030 18 f4 bd be 4c 7b bd 3e b8 c8 bc be eb 0a be be
       -0.3710029 0.3700813 -0.36871886 -0.37117705
000040 2d bc 16 3e 8c b1 b7 be c4 0a be 3e 4c b0 be 3e
       0.14720221 -0.35877645 0.3711759 0.3724388
000050 65 aa bf be 62 8c c0 be f3 54 bb 3e 00 0b be 3e
       -0.37434688 -0.37607104 0.3658825 0.37117767
000060 ed 0a be 3e e8 0a be 3e 22 40 e6 bb db c7 bd 3e
       0.3711771 0.37117696 -0.007026688 0.3706654
000070 ea 0a be 3e 20 ec bc 3e 34 d2 3d 32 b4 56 32 b3
       0.37117702 0.368989 1.1049043e-08 -4.152271e-08
000080 17 85 38 b3 7c 95 39 33 ce da 47 32 22 95 39 b3
       -4.2961883e-08 4.3209624e-08 1.1633075e-08 -4.3209305e-08
000090 f1 70 2f b3 8e 97 39 b3 be 26 38 33 0c fb 37 33
       -4.0848082e-08 -4.3211507e-08 4.2876074e-08 4.2836334e-08
0000a0 3a 95 39 33 27 92 39 33 40 dd 38 b3 a6 a1 33 33
       4.320939e-08 4.3206594e-08 -4.3042064e-08 4.1823704e-08
0000b0 fa 02 38 b3 c7 94 39 b3 f3 7d 79 b3 0c c1 7a 32
       -4.2843546e-08 -4.320898e-08 -5.808938e-08 1.4595809e-08
0000c0 17 89 39 33 90 2c 2a 33 91 11 1c b1 1b 82 2f 32
       4.319835e-08 3.962174e-08 -2.2710973e-09 1.0215923e-08
0000d0 fe 36 39 33 92 92 39 33 e7 93 39 33 5d 94 39 33
       4.3123684e-08 4.3206974e-08 4.3208185e-08 4.3208605e-08
0000e0 ef 5f 1b 33 f6 bd 36 33 e9 94 39 33 b6 2f 38 33
       3.6176e-08 4.2547946e-08 4.3209102e-08 4.288423e-08
0000f0 a2 69 63 b7 86 f9 ad 38 47 78 b4 38 f3 0e b5 b8
       -1.3554849e-05 8.29576e-05 8.605472e-05 -8.633537e-05
000100 27 e1 08 38 dd 11 b5 38 f1 73 ac 38 d8 12 b5 38
       3.2634616e-05 8.63408e-05 8.223195e-05 8.6342625e-05
000110 21 c5 b3 b8 3f 1c b4 b8 96 11 b5 b8 46 0f b5 b8
       -8.572103e-05 -8.58833e-05 -8.634028e-05 -8.6335975e-05
000120 b9 8d b4 38 a7 59 ad b8 59 18 b5 38 bb 11 b5 38
       8.609467e-05 -8.265982e-05 8.635288e-05 8.634055e-05
000130 ad ce f6 38 68 e1 38 b7 f7 05 b5 b8 90 d8 a7 b8
       0.000117686905 -1.1019736e-05 -8.6318636e-05 -8.0035185e-05
000140 a0 2d a7 34 f2 f1 4e 36 23 ed b4 b8 3e 0e b5 b8
       3.113937e-07 3.0837223e-06 -8.627239e-05 -8.6334054e-05
000150 48 11 b5 b8 26 11 b5 b8 af 8e a9 b8 ca 8d b2 b8
       -8.6339714e-05 -8.633947e-05 -8.085125e-05 -8.514112e-05
000160 d0 11 b5 b8 cf c1 b1 b8 46 34 ac 1e f6 b5 94 a1
       -8.6340704e-05 -8.4761174e-05 1.8232828e-20 -1.0077035e-18
000170 58 27 3b a1 07 db a2 21 bb e7 29 21 47 e9 a2 a1
       -6.3410135e-19 1.1035523e-18 5.756612e-19 -1.1039295e-18
000180 09 e9 9b a1 5d e7 a2 a1 6a e9 a1 21 ee 22 9e 21
       -1.0564892e-18 -1.1038788e-18 1.0971569e-18 1.0715742e-18
000190 e4 d1 a2 21 01 d4 a2 21 f9 e3 84 a1 e1 a2 9f 21
       1.1033105e-18 1.1033664e-18 -9.005012e-19 1.0817373e-18
0001a0 8b 70 02 a1 00 c7 a2 a1 e6 36 ec a1 e8 1a 1e 1f
       -4.4194663e-19 -1.1030222e-18 -1.6006514e-18 3.3480058e-20
0001b0 97 be a2 21 1f ec 8f 21 26 57 c8 a0 28 ba cc 1f
       1.1027996e-18 9.752558e-19 -3.3938988e-19 8.670533e-20
0001c0 77 57 a1 21 3f d1 a2 21 9d c7 a2 21 e2 d8 a2 21
       1.0932936e-18 1.1032934e-18 1.1030384e-18 1.1034955e-18
0001d0 eb 0e 59 21 41 ec a0 21 f9 d5 a2 21 2c 9b a2 21
       7.3542204e-19 1.0904558e-18 1.1034185e-18 1.1018621e-18
0001e0 85 33 12 b1 7a 24 27 32 94 17 2e 32 14 30 2e b2
       -2.1275082e-09 9.728973e-09 1.0133494e-08 -1.0139065e-08
0001f0 9f 13 20 31 a0 2f 2e 32 b4 18 25 32 bf 30 2e 32
       2.3294218e-09 1.0138962e-08 9.609881e-09 1.0139217e-08
000200 ed e3 2c b2 e3 f6 2c b2 3c 2f 2e b2 11 2d 2e b2
       -1.0063542e-08 -1.0067853e-08 -1.0138873e-08 -1.013838e-08
000210 94 da 2d 32 03 c8 26 b2 74 b4 31 32 72 2f 2e 32
       1.0119624e-08 -9.707949e-09 1.0343786e-08 1.0138921e-08
000220 f7 76 63 32 17 31 23 b1 a9 24 2e b2 9e 87 22 b2
       1.32401885e-08 -2.3747526e-09 -1.01364686e-08 -9.460477e-09
000230 ee 1c aa 2f 82 3e 03 b0 4b 0b 2e b2 6e 2c 2e b2
       3.0943376e-10 -4.774635e-10 -1.0130701e-08 -1.0138235e-08
000240 f6 2e 2e b2 c5 2e 2e b2 a8 c1 0c b2 6a 93 2b b2
       -1.0138811e-08 -1.0138767e-08 -8.193105e-09 -9.987028e-09
000250 81 2f 2e b2 8d 82 2d b2 ea a7 5b b7 5e 6b b2 38
       -1.0138934e-08 -1.0099609e-08 -1.3092513e-05 8.5077e-05
000260 e1 f2 b8 38 0a 82 b9 b8 d8 30 19 38 6d 88 b9 38
       8.8190434e-05 -8.845709e-05 3.6523532e-05 8.846899e-05
000270 f0 f0 b0 38 5f 89 b9 38 12 32 b8 b8 d3 92 b8 b8
       8.437212e-05 8.847075e-05 -8.78313e-05 -8.801152e-05
000280 50 88 b9 b8 c4 85 b9 b8 8d 00 b9 38 26 a0 b1 b8
       -8.8468776e-05 -8.846403e-05 8.82159e-05 -8.469848e-05
000290 17 87 b9 38 49 88 b9 38 3e 5d f9 38 97 28 33 b7
       8.84665e-05 8.8468725e-05 0.00011890613 -1.0678682e-05
0002a0 4b 7c b9 b8 e2 66 a7 b8 05 b9 c8 b4 16 7d 70 36
       -8.844639e-05 -7.982344e-05 -3.7387522e-07 3.5835596e-06
0002b0 43 4c b9 b8 71 84 b9 b8 c4 87 b9 b8 b1 87 b9 b8
       -8.835692e-05 -8.8461566e-05 -8.846776e-05 -8.846762e-05
0002c0 3a d0 af b8 34 fb b6 b8 61 88 b9 b8 84 1c b5 b8
       -8.3834355e-05 -8.7252265e-05 -8.84689e-05 -8.636064e-05
0002d0 97 55 4e a0 d6 ba 51 a0 32 64 57 a0 0f c4 56 20
       -1.7477198e-19 -1.7764807e-19 -1.824436e-19 1.8191375e-19
0002e0 14 c8 53 20 24 99 59 a0 60 9f 51 a0 40 d5 5d a0
       1.7938595e-19 -1.8431285e-19 -1.7755721e-19 -1.8789987e-19
0002f0 e6 d7 4e 20 f4 13 5d 20 e0 1d 5c 20 26 d9 5c 20
       1.7520314e-19 1.872603e-19 1.864461e-19 1.8706573e-19
000300 a4 d9 86 20 8c 31 3a 20 cc c8 1a a0 cd 2d 66 a0
       2.2844505e-19 1.5771207e-19 -1.3110746e-19 -1.9496912e-19
000310 e2 aa ef 1f 12 8d 3c a0 34 39 5e 20 b6 e0 60 20
       1.0150314e-19 -1.5970896e-19 1.8823058e-19 1.9047889e-19
000320 90 78 48 a0 5a ac 40 a0 d0 13 36 20 0f 02 69 20
       -1.698055e-19 -1.6320059e-19 1.5422555e-19 1.9736549e-19
000330 73 32 65 20 87 f5 61 20 03 4e 45 1f a1 5f 62 20
       1.9413747e-19 1.913948e-19 4.1780902e-20 1.9174586e-19
000340 2f ca 69 20 a3 01 79 a0 68 cd b6 b6 52 d9 12 38
       1.9802765e-19 -2.1091662e-19 -5.447935e-06 3.5011508e-05
000350 84 44 18 38 23 bc 18 b8 cc 60 7b 37 0c c1 18 38
       3.6303434e-05 -3.641484e-05 1.4983303e-05 3.6419413e-05
000360 a8 a6 11 38 df c1 18 38 0a a7 17 b8 24 f1 17 b8
       3.4725905e-05 3.642018e-05 -3.6156773e-05 -3.6225785e-05
000370 df c0 18 b8 e8 be 18 b8 54 51 18 38 66 3f 12 b8
       -3.641925e-05 -3.641742e-05 3.6315367e-05 -3.4868157e-05
000380 98 c5 18 38 e6 c0 18 38 b1 1f 32 38 42 44 92 b6
       3.6423648e-05 3.6419275e-05 4.2468022e-05 -4.3590853e-06
000390 f4 b6 18 b8 e9 8a 0a b8 0a a2 ef b3 82 88 c4 35
       -3.6410012e-05 -3.3031134e-05 -1.11587795e-07 1.4642867e-06
0003a0 ae 89 18 b8 d9 bd 18 b8 7e c0 18 b8 61 c0 18 b8
       -3.636785e-05 -3.6416433e-05 -3.6418896e-05 -3.641879e-05
0003b0 9e f3 0b b8 df a5 16 b8 02 c1 18 b8 3b 43 15 b8
       -3.336707e-05 -3.5917266e-05 -3.6419377e-05 -3.558698e-05
0003c0 19 f8 51 b8 8b e3 aa 39 a9 c3 b0 39 90 3d b1 b9
       -5.0060542e-05 0.0003259446 0.00033715114 -0.00033805938
0003d0 d1 2f 1f 39 53 45 b1 39 18 32 a9 39 6c 46 b1 39
       0.00015181235 0.0003381172 0.00032271515 0.0003381254
0003e0 48 fe af b9 2f 88 b0 b9 3a 45 b1 b9 d7 42 b1 b9
       -0.00033568055 -0.000336708 -0.0003381165 -0.0003380987
0003f0 b2 c6 b0 39 75 9c a9 b9 94 3b b1 39 2f 45 b1 39
       0.00033717375 -0.00032350761 0.0003380446 0.00033811617

b1 f4 [15]
000000 d4 0a be 3e 8d 92 39 33 e1 13 b5 b8 ab b7 a1 21
       0.37117636 4.3206956e-08 -8.634455e-05 1.0958401e-18
000010 fc 2e 2e b2 7d 8a b9 b8 9f 44 6d 20 d2 c0 18 b8
       -1.0138816e-08 -8.847283e-05 2.0097386e-19 -3.6419202e-05
000020 3f 49 b1 b9 44 f8 7c b9 ad 3f 48 b7 52 a1 13 ba
       -0.00033814643 -0.00024125079 -1.1935755e-05 -0.00056316436
000030 8d 15 73 32 5f 8d 6c 37 64 b6 88 37
       1.4149362e-08 1.4099612e-05 1.6297396e-05

W2 f4 [15, 30]
000000 24 42 c2 be a0 e3 b7 be e8 d7 bd be b1 07 be 3e
       -0.37941086 -0.35915852 -0.37078786 0.37115243
000010 bb 08 10 3e 3e 0b be be 6e ee bd be 06 0b be be
       0.1406583 -0.37117952 -0.3709597 -0.37117785
000020 c8 f1 bd 3e 97 30 bb 3e 26 0b be 3e 60 0b be 3e
       0.37098527 0.3656051 0.3711788 0.37118053
000030 23 fe bd be cd 14 be 3e aa ec ba be 49 0b be be
       -0.37107953 0.37125245 -0.36508685 -0.37117985
000040 da 22 15 3f e4 9e c4 be 51 09 be 3e 75 4e c1 3e
       0.58256304 -0.38402474 0.37116483 0.3775517
000050 d5 83 be be 8f 74 c9 be f7 3d bb 3e 99 0a be 3e
       -0.37209955 -0.3934674 0.36570713 0.3711746
000060 18 0b be 3e 29 0b be 3e 63 c6 99 3d c3 aa bd 3e
       0.3711784 0.3711789 0.075085424 0.37044343
000070 19 0b be 3e fa 5b b8 3e 79 2e c3 33 3c eb 8b b3
       0.37117842 0.36007673 9.0888484e-08 -6.515481e-08
000080 35 54 3e b3 20 9f 39 33 52 8f ba b3 cc 9f 39 b3
       -4.4314408e-08 4.3218392e-08 -8.68737e-08 -4.3219003e-08
000090 02 30 46 b3 7e ad 39 b3 3a a3 36 33 94 0c 4d 33
       -4.614413e-08 -4.323146e-08 4.252363e-08 4.774172e-08
0000a0 9b 9c 39 33 8e 91 39 33 9e 0b 38 b3 d0 13 11 33
       4.32161e-08 4.320605e-08 -4.2851404e-08 3.3778463e-08
0000b0 b1 51 37 b3 a3 9d 39 b3 b4 f9 84 b5 44 f0 58 34
       -4.2682306e-08 -4.321704e-08 -9.90744e-07 2.0203976e-07
0000c0 a8 da 39 33 fe 3a df 32 db a8 38 b3 8d cb 2f 34
       4.3272536e-08 2.5987443e-08 -4.299441e-08 1.6372196e-07
0000d0 e9 04 3b 33 58 c0 39 33 6e ab 39 33 2b 98 39 33
       4.3543796e-08 4.3248605e-08 4.3229583e-08 4.3212065e-08
0000e0 9e f4 16 b4 46 cb 3e 33 cf 9e 39 33 b5 a3 36 33
       -1.405883e-07 4.44227e-08 4.3218105e-08 4.2524068e-08
0000f0 36 36 41 b9 ea c7 05 39 97 98 b8 38 e6 ef b4 b8
       -0.0001842611 0.00012758342 8.802226e-05 -8.6277534e-05
000100 3a 24 38 39 03 02 b5 38 92 15 bc 38 bf 0c b5 38
       0.00017561103 8.631127e-05 8.968556e-05 8.633127e-05
000110 c4 0b b2 b8 ed aa c3 b8 30 00 b5 b8 8c f2 b4 b8
       -8.489893e-05 -9.330162e-05 -8.6307875e-05 -8.628247e-05
000120 85 a0 b3 38 76 74 79 b8 09 01 b5 38 4d 00 b5 38
       8.565284e-05 -5.947469e-05 8.6309454e-05 8.6308086e-05
000130 14 29 15 3b e2 60 ed b9 d0 46 b5 b8 0c 8e 64 b8
       0.002276008 -0.00045276346 -8.6439424e-05 -5.4491727e-05
000140 56 de 2c 39 82 4b a7 b9 8f 82 b6 b8 d2 28 b5 b8
       0.00016486025 -0.0003190898 -8.702755e-05 -8.638356e-05
000150 f8 0c b5 b8 3b fb b4 b8 e5 d4 be 39 91 ec b9 b8
       -8.633168e-05 -8.629864e-05 0.00036398243 -8.865551e-05
000160 8c 01 b5 b8 0b a9 ac b8 89 c6 c0 21 e8 ef e3 a1
       -8.631041e-05 -8.233086e-05 1.3062978e-18 -1.5445621e-18
000170 27 69 53 a1 cb 83 a7 21 68 83 01 a2 52 71 a7 a1
       -7.162875e-19 1.1351245e-18 -1.7552326e-18 -1.1346356e-18
000180 c2 ea b2 a1 20 6c a7 a1 9c 6e a5 21 4e 47 b5 21
       -1.2123889e-18 -1.1344981e-18 1.1210113e-18 1.2283911e-18
000190 c2 4e a7 21 af 94 a7 21 04 47 9b a1 2b 01 92 21
       1.1337207e-18 1.1355716e-18 -1.0522006e-18 9.893654e-19
0001a0 fa 26 56 a1 16 6c a7 a1 89 d7 b1 a3 bc 36 61 22
       -7.2557605e-19 -1.134497e-18 -1.9281661e-17 3.0522162e-18
0001b0 57 92 a7 21 62 9c 3d 21 9d d3 7b a1 03 d1 74 22
       1.1355096e-18 6.424266e-19 -8.5322176e-19 3.3178816e-18
0001c0 9c 73 a8 21 65 ca a7 21 1b ce a7 21 4b 5b a7 21
       1.1414724e-18 1.1369934e-18 1.1370916e-18 1.1340525e-18
0001d0 00 f8 69 a2 10 5c ab 21 93 88 a7 21 4a 5f a7 21
       -3.1708678e-18 1.1611779e-18 1.1352511e-18 1.1341583e-18
0001e0 c1 84 ca b2 fb 5e 7f 32 a6 e1 32 32 e7 31 2e b2
       -2.3576264e-08 1.486455e-08 1.041227e-08 -1.01394795e-08
0001f0 d6 b6 a5 32 93 30 2e 32 7a 4d 35 32 1c 3d 2e 32
       1.9291672e-08 1.01391775e-08 1.0553203e-08 1.0142028e-08
000200 36 7b 2b b2 92 7c 3d b2 86 2f 2e b2 d2 24 2e b2
       -9.981525e-09 -1.1029572e-08 -1.0138939e-08 -1.0136505e-08
000210 db 17 2d 32 c3 17 f8 b1 ab 31 33 32 6b 2f 2e 32
       1.0075349e-08 -7.2204513e-09 1.04304645e-08 1.0138915e-08
000220 4a 33 7e 34 7b 18 67 b3 fd 6d 2e b2 01 99 e6 b1
       2.3674252e-07 -5.3806144e-08 -1.0153141e-08 -6.7112755e-09
000230 0e 3e 92 32 36 67 1a b3 07 11 2f b2 42 4f 2e b2
       1.7024856e-08 -3.594979e-08 -1.0190212e-08 -1.0146154e-08
000240 81 3a 2e b2 8f 2b 2e b2 8a ee 31 33 c3 b5 31 b2
       -1.0141435e-08 -1.0138037e-08 4.1427974e-08 -1.0344084e-08
000250 ea 30 2e b2 3b dc 2f b2 17 59 3d b9 70 c2 08 39
       -1.0139255e-08 -1.0236415e-08 -0.00018057633 0.00013042404
000260 0c f1 bc 38 97 5e b9 b8 ce 36 36 39 6b 83 b9 38
       9.009437e-05 -8.839106e-05 0.00017377289 8.845966e-05
000270 bf 9a c0 38 58 8d b9 38 9e 6a b6 b8 9b 8c c8 b8
       9.184097e-05 8.847815e-05 -8.698295e-05 -9.562933e-05
000280 97 81 b9 b8 2a 73 b9 b8 05 0a b8 38 8a 2f 80 b8
       -8.8456254e-05 -8.8429384e-05 8.77567e-05 -6.1123705e-05
000290 3c 7e b9 38 01 82 b9 38 46 40 1b 3b ee 71 f0 b9
       8.8450004e-05 8.8457025e-05 0.0023689433 -0.0004586125
0002a0 d0 c9 b9 b8 01 ba 4c b8 d9 ca 28 39 8c 1e aa b9
       -8.859078e-05 -4.881062e-05 0.00016097295 -0.00032447686
0002b0 89 29 bb b8 e3 ac b9 b8 0f 8f b9 b8 38 7c b9 b8
       -8.9245914e-05 -8.85369e-05 -8.848134e-05 -8.844625e-05
0002c0 f6 a9 c6 39 e8 f6 be b8 ef 82 b9 b8 e3 a6 ad b8
       0.00037892134 -9.105896e-05 -8.845876e-05 -8.280368e-05
0002d0 30 ee 1c a0 61 e9 5d a0 bf 59 51 a0 ff a1 4e 20
       -1.3292524e-19 -1.8796647e-19 -1.7732683e-19 1.7502479e-19
0002e0 d4 0e 9f 1f 97 f0 50 a0 73 71 55 a0 e8 24 51 a0
       6.736365e-20 -1.769789e-19 -1.8079339e-19 -1.77152e-19
0002f0 6c c9 50 20 db 04 52 20 a6 78 50 20 22 9d 4e 20
       1.768493e-19 1.7789298e-19 1.7658205e-19 1.750087e-19
000300 94 88 1b a0 2b 25 4d 20 59 9c 3a a0 96 9d 55 a0
       -1.31742e-19 1.7376473e-19 -1.5806544e-19 -1.8093943e-19
000310 08 05 1b a1 46 51 b7 9f 1e a4 55 20 05 d7 4a 20
       -5.25227e-19 -7.763797e-20 1.8096104e-19 1.718121e-19
000320 71 1e 33 a0 21 3e dd 9f ee 3c 46 20 3e 5d 51 20
       -1.5171962e-19 -9.3699924e-20 1.6791412e-19 1.773384e-19
000330 1d 65 51 20 02 d4 50 20 2c 09 0e a0 ad 99 51 20
       1.7736444e-19 1.7688433e-19 -1.2030903e-19 1.7753836e-19
000340 79 48 53 20 0e 2a 4a a0 de 93 96 b8 d2 e2 5d 38
       1.7896374e-19 -1.712398e-19 -7.1801e-05 5.290175e-05
000350 9b 73 1b 38 b0 a3 18 b8 d1 7c 8d 38 82 be 18 38
       3.7062546e-05 -3.639207e-05 6.746653e-05 3.641705e-05
000360 c7 22 1e 38 6d c6 18 38 25 43 16 b8 4a 88 24 b8
       3.7702524e-05 3.6424422e-05 -3.582532e-05 -3.9227576e-05
000370 04 bd 18 b8 a7 b1 18 b8 ce 90 17 38 45 8a d6 b7
       -3.641566e-05 -3.6405076e-05 3.6136065e-05 -2.5575175e-05
000380 6a ac 18 38 5b bd 18 38 ea f7 74 3a af 73 3d b9
       3.6400197e-05 3.6415975e-05 0.00093448034 -0.0001806754
000390 8b f5 18 b8 4c b6 b1 b7 89 05 86 38 f3 fd 05 b9
       -3.6468304e-05 -2.1184933e-05 6.390649e-05 -0.00012778472
0003a0 82 fb 19 b8 ac de 18 b8 82 c7 18 b8 bc b8 18 b8
       -3.6712278e-05 -3.6447003e-05 -3.642543e-05 -3.641167e-05
0003b0 df 46 2c 39 99 e8 1c b8 f3 bd 18 b8 58 a2 0f b8
       0.000164296 -3.740992e-05 -3.6416528e-05 -3.424505e-05
0003c0 fb 85 68 ba 4e e3 10 3a b0 b4 b5 39 bd 04 b1 b9
       -0.00088700623 0.0005527035 0.00034657633 -0.000337636
0003d0 19 f7 59 3a b7 3a b1 39 5a 08 bc 39 23 47 b1 39
       0.00083147135 0.00033803817 0.00035864377 0.00033813072
0003e0 60 b8 ad b9 ce 91 c4 b9 9a 38 b1 b9 cb 26 b1 b9
       -0.000331345 -0.00037492666 -0.00033802242 -0.00033788974
0003f0 9a 8d af 39 86 41 57 b9 fe e8 b0 39 0a 39 b1 39
       0.00033484102 -0.00020528407 0.0003374293 0.00033802568

Wb f4 [10, 10]
000000 ab a4 01 be b4 9d 91 be 43 e1 bf bd ea 8d ad be
       -0.12660472 -0.2844063 -0.09369137 -0.33897334
000010 28 7d 7d be 1d de 6c be 64 46 00 be db 12 0e bf
       -0.24754775 -0.23131604 -0.12526852 -0.5549752
000020 18 c9 33 be 79 ac bc 3f cc 89 01 be 26 af 91 be
       -0.1755718 1.4740134 -0.12650222 -0.2845394
000030 47 e4 bf bd c5 7f ad be ed 7f 7d be b6 ba 6c be
       -0.09369712 -0.33886543 -0.24755831 -0.231181
000040 40 63 00 be 09 0f 0e bf 6e c1 33 be 05 a4 bc 3f
       -0.12537861 -0.5549169 -0.17554256 1.4737555
000050 1b 82 01 be 27 a4 91 be 92 03 c0 bd c4 95 ad be
       -0.12647288 -0.2844555 -0.09375681 -0.33903325
000060 ba a2 7d be ef ae 6c be e1 50 00 be 07 12 0e bf
       -0.24769107 -0.23113607 -0.12530853 -0.5549626
000070 dc c2 33 be 19 ae bc 3f 06 b6 01 be af b1 91 be
       -0.17554802 1.474063 -0.12667093 -0.28455874
000080 a9 3f c0 bd fa 7c ad be 6a 89 7d be 6d 2f 6d be
       -0.09387142 -0.33884412 -0.2475945 -0.23162623
000090 52 69 00 be db 10 0e bf 7b b7 33 be c4 a4 bc 3f
       -0.12540177 -0.5549447 -0.17550461 1.4737782
0000a0 3f 85 01 be a8 a4 91 be b9 df bf bd 7e 8a ad be
       -0.12648486 -0.28445935 -0.093688436 -0.33894724
0000b0 20 7d 7d be 45 e7 6c be 38 45 00 be 08 0f 0e bf
       -0.24754763 -0.23135097 -0.12526405 -0.55491686
0000c0 10 d9 33 be 89 a8 bc 3f ff 89 01 be 86 aa 91 be
       -0.17563272 1.4738933 -0.12650298 -0.28450412
0000d0 ba 12 c0 bd 40 86 ad be 51 88 7d be 9d ea 6c be
       -0.09378572 -0.33891487 -0.24759032 -0.23136373
0000e0 74 60 00 be af 0e 0e bf ef d4 33 be 25 a1 bc 3f
       -0.12536794 -0.55491155 -0.17561696 1.4736677
0000f0 f1 87 01 be 72 a7 91 be 69 ec bf bd 99 87 ad be
       -0.12649514 -0.28448063 -0.093712635 -0.33892515
000100 63 74 7d be 1f be 6c be 69 49 00 be b9 0d 0e bf
       -0.2475143 -0.231194 -0.12528004 -0.5548969
000110 38 be 33 be c1 a5 bc 3f 28 96 01 be b2 a1 91 be
       -0.17553031 1.4738084 -0.12654936 -0.28443676
000120 3a ca bf bd b5 8a ad be f2 76 7d be 86 bc 6c be
       -0.093647435 -0.33894888 -0.24752405 -0.23118791
000130 dd 49 00 be af 0d 0e bf 74 b9 33 be a9 a3 bc 3f
       -0.12528177 -0.5548963 -0.17551214 1.4737445
000140 52 88 01 be 99 af 91 be 0b d8 bf bd f8 80 ad be
       -0.12649658 -0.28454283 -0.09367379 -0.33887458
000150 f0 71 7d be f3 0f 6d be 81 56 00 be 0a 0d 0e bf
       -0.24750495 -0.23150615 -0.12532999 -0.55488646
000160 89 cb 33 be 88 9f bc 3f 70 91 01 be 89 a5 91 be
       -0.17558111 1.4736185 -0.12653136 -0.28446606
000170 a1 1e c0 bd 66 82 ad be fb 75 7d be cd 7f 6c be
       -0.09380842 -0.3388855 -0.24752037 -0.23095627
000180 53 4e 00 be 51 09 0e bf 12 b3 33 be 7a a1 bc 3f
       -0.12529878 -0.55482966 -0.17548779 1.4736779

conv.weight f4 [10, 1, 20]
000000 e4 d6 09 80 b2 a2 00 00 bd 93 00 00 8d 49 01 00
       -9.03608e-40 5.8364e-41 5.2999e-41 1.1822e-40
000010 71 22 00 80 97 13 00 00 4b 1f 00 00 43 1f 00 00
       -1.2355e-41 7.028e-42 1.1226e-41 1.1215e-41
000020 bb 1f 00 00 8e 06 00 80 ad 08 00 80 64 21 00 00
       1.1383e-41 -2.351e-42 -3.112e-42 1.1978e-41
000030 b9 1f 00 80 12 4f 05 80 20 76 02 80 4b 46 09 80
       -1.138e-41 -4.87543e-40 -2.26046e-40 -8.51736e-40
000040 76 93 51 81 ca 35 6a 03 80 a5 b5 81 36 99 f5 80
       -3.8493035e-38 6.8828166e-37 -6.672638e-38 -2.2554658e-38
000050 b9 1f 00 80 52 81 00 80 bb 6e 00 80 ca e0 00 80
       -1.138e-41 -4.6391e-41 -3.9723e-41 -8.0639e-41
000060 2a 66 00 00 84 37 00 80 16 52 00 80 53 ac 00 00
       3.665e-41 -1.9915e-41 -2.9447e-41 6.1818e-41
000070 1e c7 00 00 7d 0a 00 80 34 94 00 00 57 0b 00 00
       7.143e-41 -3.762e-42 5.3165e-41 4.068e-42
000080 45 1c 01 80 4f 14 00 00 0e 70 00 80 16 55 01 80
       -1.01977e-40 7.285e-42 -4.0198e-41 -1.22359e-40
000090 98 64 00 80 10 e8 00 80 b0 50 00 80 01 71 01 80
       -3.6086e-41 -8.3248e-41 -2.8945e-41 -1.32374e-40
0000a0 00 16 00 80 16 20 00 80 71 11 00 80 b1 20 00 80
       -7.892e-42 -1.151e-41 -6.257e-42 -1.1727e-41
0000b0 b9 1d 00 00 8a 1c 00 80 b9 02 00 80 5c 1c 00 00
       1.0662e-41 -1.0238e-41 -9.77e-43 1.0173e-41
0000c0 dc 1c 00 00 4e 22 00 80 82 21 00 80 b8 1c 00 00
       1.0353e-41 -1.2306e-41 -1.202e-41 1.0302e-41
0000d0 c1 1b 00 00 a3 15 00 80 fe 21 00 80 7f 17 00 80
       9.956e-42 -7.762e-42 -1.2194e-41 -8.429e-42
0000e0 b4 1e 00 80 1a 1e 00 00 13 22 00 80 55 20 00 80
       -1.1014e-41 1.0798e-41 -1.2224e-41 -1.1599e-41
0000f0 b1 b4 00 80 9c 06 00 80 2c a5 00 00 a5 34 03 00
       -6.482e-41 -2.371e-42 5.9253e-41 2.94392e-40
000100 41 62 00 00 dc 9b 00 80 c0 79 00 00 a9 c1 00 80
       3.5247e-41 -5.5912e-41 4.3676e-41 -6.9472e-41
000110 d1 36 02 00 f0 46 01 00 82 35 04 00 03 53 01 80
       2.03335e-40 1.17283e-40 3.86537e-40 -1.21614e-40
000120 22 91 03 80 d7 73 03 80 cc 4d 01 00 38 c5 03 80
       -3.2757e-40 -3.17062e-40 1.19744e-40 -3.46255e-40
000130 48 c9 00 00 78 98 07 00 52 bc 00 00 27 5c 07 00
       7.2206e-41 6.97544e-40 6.7557e-41 6.75907e-40
000140 ec 0e 00 80 32 0a 00 00 9a 11 00 80 f7 0c 00 00
       -5.353e-42 3.657e-42 -6.314e-42 4.651e-42
000150 99 0f 00 80 06 22 00 00 0a 0f 00 80 58 0c 00 00
       -5.595e-42 1.2205e-41 -5.395e-42 4.428e-42
000160 1f 17 00 80 40 11 00 00 b3 11 00 00 4a 14 00 00
       -8.294e-42 6.188e-42 6.349e-42 7.278e-42
000170 8e 1a 00 00 59 1c 00 80 1f 1a 00 00 6a 25 00 00
       9.526e-42 -1.0169e-41 9.37e-42 1.3422e-41
000180 9f 1b 00 80 22 1d 00 00 f2 1e 00 00 fb 13 00 00
       -9.909e-42 1.0451e-41 1.1101e-41 7.168e-42
000190 da 0c 00 80 d9 05 00 00 63 1d 00 80 8d 0f 00 00
       -4.61e-42 2.098e-42 -1.0542e-41 5.579e-42
0001a0 39 02 00 00 b6 09 00 00 5a 1a 00 80 62 18 00 80
       7.97e-43 3.484e-42 -9.453e-42 -8.747e-42
0001b0 4c 15 00 80 4d 0f 00 80 60 09 00 00 25 0c 00 80
       -7.64e-42 -5.489e-42 3.363e-42 -4.357e-42
0001c0 90 1a 00 80 56 05 00 00 69 0f 00 80 34 0f 00 80
       -9.529e-42 1.914e-42 -5.528e-42 -5.454e-42
0001d0 a9 04 00 00 a5 05 00 00 42 06 00 80 31 03 00 00
       1.672e-42 2.025e-42 -2.245e-42 1.145e-42
0001e0 35 57 24 0a 31 f8 1c 0b 20 6e 08 8b f5 10 96 0a
       7.9127146e-33 3.0231226e-32 -2.6275496e-32 1.4450853e-32
0001f0 b3 52 11 8b c6 c5 91 0a 7c b2 59 89 30 5e 1f 0a
       -2.79882e-32 1.4037386e-32 -2.6204348e-33 7.673286e-33
000200 f5 05 04 8b f4 8e 8a 0a 5c 7e 9e 89 20 86 f0 87
       -2.5426757e-32 1.334269e-32 -3.8155944e-33 -3.6190018e-34
000210 0a 8f ff 09 a1 ab 16 8a 5c 84 09 0a 58 d4 e4 8a
       6.152353e-33 -7.254517e-33 6.621204e-33 -2.2035476e-32
000220 bc 36 d2 8a f9 01 bc 0a e4 a7 80 0a d4 7b 63 0a
       -2.0242853e-32 1.8104484e-32 1.2389105e-32 1.0952942e-32
000230 46 22 00 00 a0 07 00 80 03 21 00 80 fd 0d 00 80
       1.2295e-41 -2.735e-42 -1.1842e-41 -5.018e-42
000240 32 08 00 00 da 11 00 00 61 22 00 00 f3 0b 00 80
       2.94e-42 6.404e-42 1.2333e-41 -4.287e-42
000250 9f 16 00 00 21 22 00 80 d4 17 00 80 30 12 00 80
       8.115e-42 -1.2243e-41 -8.548e-42 -6.524e-42
000260 b9 1e 00 80 1a 13 00 00 1b 02 00 00 3a 1f 00 00
       -1.1021e-41 6.852e-42 7.55e-43 1.1202e-41
000270 98 04 00 00 65 f5 00 00 b7 18 00 80 5f 08 00 00
       1.648e-42 8.8031e-41 -8.866e-42 3.003e-42
000280 23 23 00 00 92 1f 00 00 b6 09 00 80 5e 08 00 80
       1.2605e-41 1.1325e-41 -3.484e-42 -3.002e-42
000290 f1 1f 00 80 01 10 00 00 a8 1e 00 00 d3 20 00 00
       -1.1458e-41 5.741e-42 1.0997e-41 1.1775e-41
0002a0 3e 22 00 00 a1 01 00 00 4e 08 00 00 3d 20 00 00
       1.2284e-41 5.84e-43 2.979e-42 1.1565e-41
0002b0 c8 22 00 80 c9 21 00 00 e0 1e 00 00 ac 16 00 00
       -1.2477e-41 1.212e-41 1.1076e-41 8.133e-42
0002c0 6a 1f 00 80 c0 47 01 80 d5 29 00 80 01 20 00 80
       -1.1269e-41 -1.17575e-40 -1.5007e-41 -1.1481e-41
0002d0 c1 0c 00 80 e7 18 00 80 1c 1f 00 80 85 22 00 80
       -4.575e-42 -8.933e-42 -1.116e-41 -1.2383e-41
0002e0 79 0f 00 00 72 1e 00 00 a9 04 00 00 7d 0a 00 80
       5.55e-42 1.0922e-41 1.672e-42 -3.762e-42
0002f0 05 0e 00 80 63 1f 00 80 fb 1e 00 80 c0 20 00 80
       -5.029e-42 -1.126e-41 -1.1114e-41 -1.1748e-41
000300 00 01 00 00 19 09 00 80 43 09 00 80 a9 07 00 80
       3.59e-43 -3.264e-42 -3.322e-42 -2.748e-42
000310 34 0a 00 00 41 38 00 80 40 05 00 00 8d 20 00 00
       3.66e-42 -2.018e-41 1.883e-42 1.1677e-41

conv.bias f4 [10]
000000 65 87 60 b5 7d 13 00 80 27 fa 37 a8 69 6b 00 80
       -8.364353e-07 -6.991e-42 -1.0212784e-14 -3.8532e-41
000010 ed 19 60 0b 12 04 00 80 48 ad 75 8b 78 14 09 b3
       4.3160335e-32 -1.46e-42 -4.7315646e-32 -3.1916414e-08
000020 87 30 54 b3 70 19 89 b2
       -4.9404232e-08 -1.5960467e-08

conv_long.weight f4 [10, 1, 10]
000000 4f 1a 00 00 74 1d 00 80 eb 1a 00 00 19 17 00 00
       9.438e-42 -1.0566e-41 9.656e-42 8.286e-42
000010 fd 1d 00 00 bb 10 00 80 b4 20 00 00 58 20 00 00
       1.0758e-41 -6.002e-42 1.1732e-41 1.1603e-41
000020 7e 1d 00 00 c9 1f 00 00 58 6d ee 16 b3 9b 02 17
       1.058e-41 1.1402e-41 3.851998e-25 4.2201786e-25
000030 3e 83 72 17 81 1e a8 17 77 e3 8a 17 b1 79 00 18
       7.836007e-25 1.0864446e-24 8.975461e-25 1.660505e-24
000040 63 92 9d 17 9a f3 51 18 9c c4 60 96 f2 0c 8c 98
       1.018284e-24 2.7135604e-24 -1.8156615e-25 -3.6202223e-24
000050 ac f1 35 a4 34 64 5a a3 d6 01 5e a1 e7 aa 10 9f
       -3.9452823e-17 -1.18390225e-17 -7.5218956e-19 -3.0634553e-20
000060 9b 88 08 9e c5 98 c0 9c a0 9e aa a2 3f 13 92 a4
       -7.228029e-21 -1.2744984e-21 -4.6246543e-18 -6.335001e-17
000070 0a dc 1f a7 7b af bf a6 a6 f0 2a 0e a4 5e 74 8e
       -2.2184966e-15 -1.3300851e-15 2.1069986e-30 -3.012089e-30
000080 6c 4c 21 0e 99 cb 89 8e da b3 38 0e 76 ca 74 8e
       1.9881578e-30 -3.3969165e-30 2.2766346e-30 -3.0172803e-30
000090 3c 2e 55 8e 11 ca 5a 8e ee cf 6d 8e cc 74 88 8e
       -2.6276538e-30 -2.6967866e-30 -2.931262e-30 -3.363906e-30
0000a0 98 19 00 80 9c 1e 00 00 91 15 00 80 a6 0e 00 00
       -9.181e-42 1.098e-41 -7.737e-42 5.255e-42
0000b0 6e 0f 00 00 46 1a 00 00 38 0d 00 00 57 0e 00 80
       5.535e-42 9.425e-42 4.742e-42 -5.144e-42
0000c0 c3 16 00 00 5b 21 00 00 3d 7d c4 02 74 8e 7f 81
       8.165e-42 1.1966e-41 2.8871495e-37 -4.6938308e-38
0000d0 18 8c 09 80 dd 29 00 00 a6 1f 00 80 ca 20 00 80
       -8.76776e-40 1.5018e-41 -1.1353e-41 -1.1762e-41
0000e0 07 13 f4 81 f3 cd f1 02 a8 17 3b 86 7a 70 69 83
       -8.9658747e-38 3.5529976e-37 -3.518817e-35 -6.8601663e-37
0000f0 c6 c1 97 0e 74 af f3 0d 76 33 31 8e 94 3b 92 8e
       3.741097e-30 1.501827e-30 -2.1841712e-30 -3.604915e-30
000100 37 b2 81 8e 38 d1 14 0d 36 39 1c 0e a4 5a 17 0f
       -3.197257e-30 4.585786e-31 1.925603e-30 7.4623315e-30
000110 e8 a0 18 0f a4 c0 18 0f ea 03 00 00 0d 14 00 00
       7.525168e-30 7.53128e-30 1.404e-42 7.193e-42
000120 87 16 00 00 9e 20 00 00 90 1a 00 00 80 20 00 00
       8.081e-42 1.1701e-41 9.529e-42 1.1659e-41
000130 71 1f 00 80 47 1c 00 80 55 13 00 80 ba 15 00 80
       -1.1279e-41 -1.0144e-41 -6.935e-42 -7.794e-42
000140 78 a4 9d a5 67 4b 2d a4 7d ed 9a a2 ca bf 17 a0
       -2.7346607e-16 -3.7577263e-17 -4.1993234e-18 -1.2853655e-19
000150 01 79 38 9f d3 ad 85 9e 96 fb bc a3 32 d9 74 a5
       -3.9063608e-20 -1.4153815e-20 -2.0489552e-17 -2.1237215e-16
000160 ef fd 4a a8 f9 79 8a a7 06 90 b3 94 88 c1 2e 93
       -1.1268316e-14 -3.8434937e-15 -1.8131188e-26 -2.2057306e-27
000170 fc c9 78 10 b9 e0 f1 8d 65 4d b1 0b 73 64 cb 0b
       4.906498e-29 -1.4906872e-30 6.829437e-32 7.8343895e-32
000180 55 10 51 94 26 46 85 14 cc bc f9 9a e7 e2 50 19
       -1.05550244e-26 1.3457237e-26 -1.03289004e-22 1.07991705e-23

conv_long.bias f4 [10]
000000 f1 21 1f ab ac 49 3a 19 e4 89 6c ba 76 91 08 8f
       -5.653525e-13 9.6308525e-24 -0.0009023233 -6.7333325e-30
000010 26 d1 3b b2 2a 76 1e b6 ea 59 16 0f 49 f0 e9 10
       -1.0932387e-08 -2.3612615e-06 7.412888e-30 9.2272513e-29
000020 ff 18 63 ba 9e 82 a3 b8
       -0.00086630875 -7.796775e-05

conv1.weight f4 [30, 30]
000000 d8 04 00 80 30 15 00 80 d6 22 5f b6 28 1e 00 80
       -1.738e-42 -7.6e-42 -3.3249867e-06 -1.0818e-41
000010 e6 de 00 00 90 55 3c 05 21 0d 00 00 d9 e6 00 07
       7.9961e-41 8.855433e-36 4.71e-42 9.69749e-35
000020 5d 11 00 00 26 f4 e0 8d 6c 05 00 80 52 18 00 80
       6.229e-42 -1.3863842e-30 -1.945e-42 -8.724e-42
000030 69 8d 20 07 7f 06 00 80 ec 21 00 80 1e 5d 63 9f
       1.2078619e-34 -2.33e-42 -1.2169e-41 -4.8146144e-20
000040 f7 0a 00 80 48 50 f5 a7 0c 56 00 80 2e 79 1b a1
       -3.933e-42 -6.80882e-15 -3.0868e-41 -5.2676423e-19
000050 7b 96 30 bc 84 19 00 80 6e c9 03 00 22 64 2e a1
       -0.010778065 -9.153e-42 3.47766e-40 -5.908602e-19
000060 49 08 00 80 09 b0 01 00 86 37 c2 a6 fa 1b 00 00
       -2.972e-42 1.54985e-40 -1.3476504e-15 1.0036e-41
000070 bc 3f 32 11 c9 91 0c a5 ab b9 56 b9 54 1e 00 80
       1.4061364e-28 -1.2192458e-16 -0.00020477797 -1.088e-41
000080 6f bc 0f 00 65 15 00 00 d5 0b 00 80 36 04 00 00
       1.44513e-39 7.675e-42 -4.245e-42 1.51e-42
000090 dd 1a 0e 00 3b 12 00 00 57 20 00 00 49 22 00 80
       1.295334e-39 6.54e-42 1.1601e-41 -1.2299e-41
0000a0 9a 0f 00 00 36 18 00 80 b0 21 00 00 0f e8 00 00
       5.597e-42 -8.685e-42 1.2085e-41 8.3247e-41
0000b0 27 19 01 00 48 13 00 80 51 42 01 80 83 11 00 00
       1.00858e-40 -6.917e-42 -1.15625e-40 6.282e-42
0000c0 2a 7c 00 80 79 7a 04 00 58 7f 44 b0 05 00 00 80
       -4.4542e-41 4.11277e-40 -7.148535e-10 -7e-45
0000d0 4a cf 27 1c 6c 20 00 00 16 20 00 00 8c c5 32 80
       5.552358e-22 1.1631e-41 1.151e-41 -4.662641e-39
0000e0 a6 1e 00 80 49 1a 00 00 6a 14 00 80 3a 06 00 80
       -1.0995e-41 9.43e-42 -7.323e-42 -2.234e-42
0000f0 b7 a7 20 34 3f 03 00 00 80 25 fc a8 89 00 00 00
       1.4962175e-07 1.164e-42 -2.7993883e-14 1.92e-43
000100 22 4f 01 80 69 1c 00 00 fe 24 02 80 8b 19 00 00
       -1.20223e-40 1.0192e-41 -1.96941e-40 9.163e-42
000110 a8 14 00 00 c8 18 00 00 85 10 00 00 8f 1c 00 00
       7.41e-42 8.89e-42 5.926e-42 1.0245e-41
000120 ad 1f 00 00 88 d1 00 80 4d 21 01 80 2f 09 00 00
       1.1363e-41 -7.5166e-41 -1.03782e-40 3.294e-42
000130 00 56 00 00 21 1f 00 00 76 85 00 80 ff f1 01 80
       3.0851e-41 1.1167e-41 -4.7877e-41 -1.78647e-40
000140 2e 0b 73 a6 3d 0d 00 00 ea f3 04 80 35 1b 00 00
       -8.432271e-16 4.749e-42 -4.54842e-40 9.76e-42
000150 21 12 00 80 da 6f 95 38 c9 06 00 00 10 23 00 00
       -6.503e-42 7.1257076e-05 2.434e-42 1.2578e-41
000160 57 1f 00 80 1d 21 00 80 78 38 02 80 5c 50 cf 2e
       -1.1243e-41 -1.1879e-41 -2.03928e-40 9.427545e-11
000170 f4 9d 39 9c d2 b0 95 35 7f 63 00 00 00 5d 00 00
       -6.1415515e-22 1.1152827e-06 3.5692e-41 3.3362e-41
000180 99 9e a8 21 8e 21 3b 21 a2 a9 0c 80 02 a0 05 80
       1.1426103e-18 6.3402474e-19 -1.162879e-39 -5.16577e-40
000190 07 c2 09 80 56 c2 02 80 24 0c 02 00 18 ea 74 9e
       -8.96123e-40 -2.53386e-40 1.88026e-40 -1.2965662e-20
0001a0 d1 50 03 80 83 c9 04 80 b0 8b b6 b1 84 bc 06 80
       -3.04498e-40 -4.39631e-40 -5.3127778e-09 -6.1864e-40
0001b0 3f e1 05 80 b3 4e 0c 00 7c 8a fe b2 1c 0d 15 80
       -5.3998e-40 1.130258e-39 -2.9632467e-08 -1.933248e-39
0001c0 75 0d 00 00 be 79 04 00 5f e9 03 00 c4 a0 de 1c
       4.827e-42 4.11015e-40 3.59224e-40 1.4732285e-21
0001d0 1a e6 06 80 dc 07 00 80 f9 a8 00 00 24 24 70 24
       -6.33558e-40 -2.82e-42 6.0616e-41 5.2072317e-17
0001e0 c0 19 9a 35 44 44 00 80 9f 1d 00 80 eb 19 00 00
       1.1481388e-06 -2.4489e-41 -1.0626e-41 9.298e-42
0001f0 c8 48 00 00 ea d1 00 00 3f 67 5e 26 b8 a4 01 00
       2.6109e-41 7.5303e-41 7.7161647e-16 1.50925e-40
000200 9b 14 00 00 ff 05 00 00 3d 0f 00 80 e0 1b 00 00
       7.392e-42 2.151e-42 -5.466e-42 1e-41
000210 14 07 00 80 35 34 02 00 03 ea 03 00 84 11 00 00
       -2.539e-42 2.024e-40 3.59454e-40 6.283e-42
000220 82 af 00 80 1f 02 00 00 12 82 0b 88 38 44 b6 ae
       -6.296e-41 7.61e-43 -4.198169e-34 -8.28852e-11
000230 56 09 28 3a d2 0b 00 00 c6 aa 00 00 cf 1d 00 00
       0.00064100826 4.24e-42 6.1262e-41 1.0693e-41
000240 b6 10 00 80 59 45 03 80 c2 09 00 80 e0 1f 00 00
       -5.995e-42 -3.00384e-40 -3.5e-42 1.1435e-41
000250 85 18 00 80 91 22 00 00 65 52 be 30 da 7b 00 80
       -8.796e-42 1.24e-41 1.3847737e-09 -4.443e-41
000260 36 28 8d 2a 6d 0c 00 00 bc cb 01 80 f4 12 00 00
       2.5074533e-13 4.458e-42 -1.64922e-40 6.799e-42
000270 71 e9 01 80 60 cb 01 80 95 1b 00 80 3b 1c 00 00
       -1.75578e-40 -1.64793e-40 -9.895e-42 1.0127e-41
000280 c3 03 00 00 f9 09 00 80 f7 15 00 00 8b 10 01 80
       1.35e-42 -3.578e-42 7.88e-42 -9.777e-41
000290 3e 47 01 00 4b 13 00 80 d7 9e 00 80 70 0d 00 80
       1.17392e-40 -6.921e-42 -5.6981e-41 -4.82e-42
0002a0 91 ba 1a 08 e0 01 7c 29 6a 22 89 2e 3e 5f 00 80
       4.6561997e-34 5.5956867e-14 6.236152e-11 -3.4166e-41
0002b0 8b d5 0d 00 7f 0d 00 80 90 14 00 80 5f d5 7c 21
       1.270466e-39 -4.841e-42 -7.376e-42 8.5663315e-19
0002c0 2c 15 00 80 b3 12 00 00 05 15 00 80 83 c4 00 00
       -7.595e-42 6.708e-42 -7.54e-42 7.0495e-41
0002d0 04 0f 00 00 92 13 03 80 91 27 01 00 f1 00 00 00
       5.387e-42 -2.82527e-40 1.06029e-40 3.38e-43
0002e0 a2 d5 11 1f 15 42 c5 8c 14 15 00 80 02 31 3c 8d
       3.0881657e-20 -3.0392428e-31 -7.561e-42 -5.7990964e-31
0002f0 47 07 00 80 8d 67 5d 14 62 17 00 00 a5 13 00 80
       -2.61e-42 1.11780704e-26 8.388e-42 -7.047e-42
000300 84 ee 38 8e 0b 1d 00 80 bd 1f 00 80 6c a0 fc a4
       -2.2794592e-30 -1.0419e-41 -1.1386e-41 -1.09559344e-16
000310 8d 20 00 80 3d 3a 93 ab 03 14 02 00 a7 57 01 80
       -1.1677e-41 -1.0461143e-12 1.9085e-40 -1.23279e-40
000320 ed a1 00 00 be 0b 00 80 ed 03 00 00 8c 2f 02 a6
       5.8088e-41 -4.212e-42 1.408e-42 -4.516725e-16
000330 88 22 00 80 91 16 00 00 68 18 08 ab 9f 22 00 00
       -1.2387e-41 8.095e-42 -4.8350777e-13 1.242e-41
000340 9d 97 f6 18 a2 a5 1b a9 53 15 00 00 4f 19 00 00
       6.37426e-24 -3.4560577e-14 7.65e-42 9.079e-42
000350 7d 10 00 80 9b 12 00 80 27 6e 00 80 3e a7 95 81
       -5.915e-42 -6.674e-42 -3.9515e-41 -5.4973936e-38
000360 26 23 00 00 f9 09 1d 00 2c 17 00 80 c2 03 99 09
       1.2609e-41 2.666807e-39 -8.313e-42 3.6836944e-33
000370 a7 0c 00 00 c3 19 00 80 3e ea e4 02 35 22 00 00
       4.539e-42 -9.242e-42 3.3636037e-37 1.2271e-41
000380 35 14 00 80 ea be b1 18 02 1f 00 00 a7 84 c3 a5
       -7.249e-42 4.59462e-24 1.1124e-41 -3.3916997e-16
000390 96 61 00 80 1a 44 01 00 32 10 00 80 79 46 00 00
       -3.5007e-41 1.16266e-40 -5.81e-42 2.5281e-41
0003a0 ba 09 00 80 74 e1 fc 9c f0 21 00 80 fa 0e 00 80
       -3.489e-42 -1.6734239e-21 -1.2174e-41 -5.373e-42
0003b0 55 a1 5d a4 2c 1e 00 80 8a d8 1f 8d 81 e9 d7 a0
       -4.805839e-17 -1.0824e-41 -4.9256307e-31 -3.6576937e-19
0003c0 16 13 00 00 b4 45 00 00 f9 1d 00 00 c5 0b 00 80
       6.847e-42 2.5005e-41 1.0752e-41 -4.222e-42
0003d0 37 98 01 80 6b 06 b5 81 1e 1f 00 00 85 7b b8 01
       -1.4644e-40 -6.649811e-38 1.1163e-41 6.7768167e-38
0003e0 3b 1d 00 80 fa 35 03 0a ad 0b 00 00 79 1f 00 00
       -1.0486e-41 6.3175724e-33 4.188e-42 1.129e-41
0003f0 4e 02 df 02 d2 1c 00 00 e7 21 00 80 3c 50 0c 19
       3.2768228e-37 1.0339e-41 -1.2162e-41 7.2540336e-24

conv1.bias f4 [30]
000000 ef c2 00 00 80 0e 00 00 87 01 00 00 6a 1b 00 00
       6.9929e-41 5.202e-42 5.48e-43 9.834e-42
000010 c0 15 00 00 44 e0 9a a4 95 7b f5 88 44 fa 23 a5
       7.802e-42 -6.7166775e-17 -1.4774455e-33 -1.422279e-16
000020 fd 2f 09 80 bf 97 47 ab aa 21 00 00 d3 7f 0e 00
       -8.43734e-40 -7.090959e-13 1.2076e-41 1.331552e-39
000030 46 ae 97 a8 71 1f 00 00 9b 5d cb 0d 26 a8 e3 b0
       -1.6839947e-14 1.1279e-41 1.2533376e-30 -1.6564214e-09
000040 15 12 d5 18 22 5e b1 b4 c6 60 9e 25 09 50 c6 1d
       5.5077468e-24 -3.303731e-07 2.7474207e-16 5.249292e-21
000050 a6 b5 52 0e 60 0f 00 80 b1 46 77 15 fd c5 fe b1
       2.5971959e-30 -5.516e-42 4.9937018e-26 -7.4148816e-09
000060 66 4d 19 9c c0 cc 80 83 9f 3b f5 b4 c2 26 85 17
       -5.072349e-22 -7.570172e-37 -4.5678186e-07 8.604707e-25
000070 df b0 98 ad 53 53 ce b2
       -1.7358946e-11 -2.4019448e-08

conv2.weight f4 [30, 10]
000000 d0 2e 09 26 ef 1a 00 00 f8 20 00 00 4a dc d8 9e
       4.7594866e-16 9.662e-42 1.1827e-41 -2.2960999e-20
000010 71 14 00 00 f0 1d 00 00 48 eb 8e 01 43 72 07 00
       7.333e-42 1.074e-41 5.2500174e-38 6.83838e-40
000020 b9 96 04 00 fc fd bb bc a1 4b 00 80 bc 4f 00 00
       4.21411e-40 -0.022948258 -2.713e-41 2.8603e-41
000030 c3 02 01 80 99 0e 00 00 1b f3 00 80 e8 63 00 80
       -9.2826e-41 5.237e-42 -8.721e-41 -3.584e-41
000040 c5 09 00 80 56 4f 11 80 df 42 04 00 56 1b 00 00
       -3.505e-42 -1.589664e-39 3.91331e-40 9.806e-42
000050 f6 1e ab 28 c6 19 00 00 04 13 00 80 15 71 10 80
       1.8998241e-14 9.246e-42 -6.822e-42 -1.509934e-39
000060 35 13 00 80 d2 0a 00 80 3e c9 1c 05 11 f6 05 00
       -6.89e-42 -3.882e-42 7.372047e-36 5.4745e-40
000070 a6 77 01 80 85 1d 24 9d 5c d6 bb b5 80 22 00 80
       -1.34757e-40 -2.172048e-21 -1.3994973e-06 -1.2376e-41
000080 e4 18 00 80 68 0c 00 00 fa 1a 00 80 9d 1f 00 00
       -8.929e-42 4.45e-42 -9.677e-42 1.1341e-41
000090 9d ac 06 00 da 04 00 00 63 0e 00 80 5d 22 00 80
       6.12935e-40 1.74e-42 -5.161e-42 -1.2327e-41
0000a0 5e 2f b3 af ac 1e 00 00 f9 20 00 80 61 1a 00 80
       -3.2593567e-10 1.1003e-41 -1.1828e-41 -9.463e-42
0000b0 63 1d 00 00 e4 08 00 00 7a fe 29 80 46 16 00 00
       1.0542e-41 3.19e-42 -3.856544e-39 7.99e-42
0000c0 b7 9f 00 80 9e 1d 00 00 25 1e 00 00 28 37 15 9c
       -5.7295e-41 1.0625e-41 1.0814e-41 -4.937125e-22
0000d0 cf 18 0d 03 aa a4 02 00 81 d9 06 80 34 d5 ec 0a
       4.1464655e-37 2.42741e-40 -6.29039e-40 2.2806171e-32
0000e0 3c bc 02 00 de a8 51 3c a1 0f 00 00 cb 0b 00 00
       2.51197e-40 0.012796609 5.607e-42 4.23e-42
0000f0 ec 6c 00 00 ef b0 01 80 b2 1d 00 00 21 8f 0f 80
       3.9074e-41 -1.55307e-40 1.0653e-41 -1.428877e-39
000100 b2 21 00 80 87 22 00 00 fd 50 01 00 ba c5 14 05
       -1.2088e-41 1.2386e-41 1.20889e-40 6.995243e-36
000110 e4 5a 19 0a 30 0a 14 80 55 08 00 80 4c 22 4a ab
       7.383777e-33 -1.840365e-39 -2.989e-42 -7.1812413e-13
000120 3e 87 ec 18 c6 53 00 80 e7 ed 83 93 1e 70 0c a3
       6.114113e-24 -3.0052e-41 -3.330364e-27 -7.613157e-18
000130 9c 89 94 00 8e 57 0b 00 e6 05 00 00 f1 1a 00 00
       1.3641018e-38 1.041599e-39 2.116e-42 9.665e-42
000140 9a ef 01 00 57 c1 d0 8b 80 08 00 00 95 1f 00 00
       1.77788e-40 -8.040959e-32 3.049e-42 1.133e-41
000150 92 1e 00 80 9c 14 00 80 4b 19 11 00 b9 1c 00 80
       -1.0967e-41 -7.393e-42 1.570277e-39 -1.0304e-41
000160 60 1d 00 00 80 de 8c 02 11 0b 00 80 30 49 a7 b7
       1.0538e-41 2.069886e-37 -3.97e-42 -1.9942032e-05
000170 c7 48 07 b3 bc 22 00 80 1c 29 6b b0 e7 24 3b b5
       -3.1498328e-08 -1.246e-41 -8.555092e-10 -6.971663e-07
000180 0c 10 00 80 36 19 00 00 c5 00 27 a2 91 1d 00 80
       -5.757e-42 9.044e-42 -2.2633128e-18 -1.0606e-41
000190 e6 1c 02 80 7f a8 eb 04 6c 1e 00 80 46 20 00 00
       -1.94038e-40 5.5402974e-36 -1.0913e-41 1.1578e-41
0001a0 85 22 00 80 63 08 00 00 f9 34 08 80 8d 1f 00 00
       -1.2383e-41 3.009e-42 -7.53687e-40 1.1318e-41
0001b0 35 10 00 80 07 7c 00 00 77 ca 01 80 d4 0e 00 80
       -5.814e-42 4.4493e-41 -1.64466e-40 -5.32e-42
0001c0 18 02 00 80 bb 09 00 00 eb 1b 00 80 d2 10 00 00
       -7.51e-43 3.49e-42 -1.0015e-41 6.034e-42
0001d0 e4 af 08 00 84 15 00 80 7e 15 00 80 3e 06 00 00
       7.97782e-40 -7.718e-42 -7.71e-42 2.239e-42
0001e0 1d 1f 00 00 63 13 0b b5 35 41 ca ac d0 1a 00 80
       1.1161e-41 -5.1809747e-07 -5.7484247e-12 -9.619e-42
0001f0 5e 88 40 ab 48 d3 75 b1 b8 03 00 80 0c 17 00 80
       -6.840135e-13 -3.5772292e-09 -1.334e-42 -8.268e-42
000200 66 31 0b 94 ac 00 00 00 18 7a c0 9b d6 1f 00 00
       -7.027449e-27 2.41e-43 -3.1842637e-22 1.142e-41
000210 35 1c 00 00 0a b0 07 80 6c 13 00 00 19 06 00 00
       1.0119e-41 -7.06e-40 6.967e-42 2.187e-42
000220 08 cf 03 80 e6 7a 04 80 3e 60 00 80 1c ee 04 80
       -3.49775e-40 -4.1143e-40 -3.4525e-41 -4.5276e-40
000230 f0 70 00 80 cd 1e 00 00 c2 10 00 00 e0 65 01 00
       -4.0514e-41 1.1049e-41 6.012e-42 1.28381e-40
000240 55 16 00 80 43 1a 00 00 79 24 44 bb 68 f4 02 80
       -8.011e-42 9.421e-42 -0.0029928966 -2.71347e-40
000250 ae 2d 3c 0c 1b 02 00 80 d2 00 00 80 76 76 b7 af
       1.449674e-31 -7.55e-43 -2.94e-43 -3.3371678e-10
000260 5d c4 1d a3 2b 11 00 80 24 01 3a 9f ea 90 03 aa
       -8.552569e-18 -6.159e-42 -3.9387976e-20 -1.1685414e-13
000270 9f e2 05 80 97 81 00 80 2c 3c 13 02 0b 0e 00 00
       -5.40474e-40 -4.6488e-41 1.0817123e-37 5.038e-42
000280 e3 0f 00 80 d2 53 df a6 7f d3 8b 8d b0 09 00 80
       -5.699e-42 -1.5496453e-15 -8.617452e-31 -3.475e-42
000290 85 87 e2 88 64 30 31 19 f6 ae 00 00 ce 0c 00 00
       -1.3633741e-33 9.160458e-24 6.2764e-41 4.593e-42
0002a0 31 20 00 80 53 1a 00 00 4c 00 00 00 2f d1 09 b4
       -1.1548e-41 9.443e-42 1.06e-43 -1.283522e-07
0002b0 0a 1a 1b ab e4 10 00 00 1c 32 02 a9 b0 a5 34 af
       -5.51032e-13 6.059e-42 -2.890926e-14 -1.6429769e-10
0002c0 bf 63 00 80 0b 05 00 80 fd 60 90 0f de 11 00 80
       -3.5782e-41 -1.809e-42 1.4236855e-29 -6.41e-42
0002d0 2e 0a b4 22 73 1e 00 00 be 1d 00 00 7b 20 00 00
       4.8799876e-18 1.0923e-41 1.067e-41 1.1652e-41
0002e0 6b 1b 00 80 a2 1c 00 00 0e 81 f5 ac 00 c8 44 08
       -9.836e-42 1.0272e-41 -6.9776468e-12 5.9216703e-34
0002f0 54 3a a2 25 cc 1b 00 00 1c 4c 04 00 6a 17 00 80
       2.8142045e-16 9.972e-42 3.94645e-40 -8.4e-42
000300 9a 0d 00 00 f0 4d d1 b8 bc 5a 00 80 73 22 00 00
       4.88e-42 -9.9804136e-05 -3.255e-41 1.2358e-41
000310 3c ce 7e a9 18 89 98 37 9a 0f 00 00 34 67 51 30
       -5.657821e-14 1.8183651e-05 5.597e-42 7.618042e-10
000320 3d 44 52 bb 49 10 00 00 a9 1c 00 00 86 e1 06 80
       -0.003208413 5.842e-42 1.0281e-41 -6.31916e-40
000330 b6 06 00 80 5c 20 00 80 5d 60 35 80 b3 7e 99 34
       -2.407e-42 -1.1608e-41 -4.90185e-39 2.8590657e-07
000340 a2 06 ab 8d 1f 54 01 80 70 0a 57 2e d8 1c 00 80
       -1.0540285e-30 -1.22012e-40 4.889461e-11 -1.0347e-41
000350 59 1f 00 80 c6 22 00 80 f7 22 00 80 f7 03 00 80
       -1.1245e-41 -1.2474e-41 -1.2543e-41 -1.422e-42
000360 24 5e 05 00 4c 1a 00 00 41 11 00 00 a1 01 00 00
       4.92949e-40 9.434e-42 6.19e-42 5.84e-43
000370 b4 03 00 00 71 1f 00 80 f6 0c 00 00 df 1b 03 00
       1.328e-42 -1.1279e-41 4.65e-42 2.85505e-40
000380 dc 02 00 00 6a 21 00 80 2f a2 aa 0a df 57 08 80
       1.026e-42 -1.1987e-41 1.6431411e-32 -7.66206e-40
000390 08 41 60 36 e0 14 95 3c 29 16 00 80 ed 92 07 b6
       3.3416454e-06 0.01819843 -7.95e-42 -2.020209e-06
0003a0 02 99 86 b0 8f 1e 00 80 e2 5c f7 ae 9c d6 a2 b3
       -9.793271e-10 -1.0962e-41 -1.1248759e-10 -7.58275e-08
0003b0 3d 01 00 00 83 1c 00 00 1c 92 d3 9c 77 07 00 80
       4.44e-43 1.0228e-41 -1.4000577e-21 -2.678e-42
0003c0 02 0e 00 80 15 4a 03 b9 78 b4 1c b5 fc 22 00 00
       -5.025e-42 -0.00012520731 -5.8377145e-07 1.255e-41
0003d0 8e b6 4e b3 6c de 5e b7 aa 14 00 00 e9 09 00 80
       -4.8129145e-08 -1.3284018e-05 7.413e-42 -3.555e-42
0003e0 92 5f bb a9 37 0e 00 00 78 a7 03 b1 76 0d 00 80
       -8.321047e-14 5.1e-42 -1.9158204e-09 -4.829e-42
0003f0 c4 1b 00 00 60 96 7c b7 c8 20 00 80 b4 03 00 80
       9.96e-42 -1.5055382e-05 -1.176e-41 -1.328e-42

conv2.bias f4 [10]
000000 23 6f 3c b5 73 d5 c9 b2 45 5a 50 b1 8c 5b 47 9e
       -7.019718e-07 -2.3496545e-08 -3.0319296e-09 -1.0553904e-20
000010 df d2 20 ad 9a 83 6a b4 a9 50 8a af 35 2f db a1
       -9.14177e-12 -2.1840825e-07 -2.5159366e-10 -1.4852513e-18
000020 82 19 18 b8 f5 0f c7 a8
       -3.626338e-05 -2.2100358e-14

rnn.weight_ih_l0 f4 [30, 1]
000000 a6 f2 f9 bd 49 7d 89 3e c4 10 ee bb 4f 4d 56 3e
       -0.12204485 0.26853397 -0.007265182 0.20927928
000010 6a 63 1b be 50 cc 40 3d 70 cb 5e 3e 99 e4 86 3c
       -0.15174642 0.047069848 0.21757293 0.016466426
000020 fc 06 02 3e 9f 27 33 be b8 f8 29 3d eb a2 1f 3b
       0.12697977 -0.17495583 0.041496962 0.0024358581
000030 fb 4e d8 bd 2a 25 12 3f a3 70 32 bf bf ba ad 3e
       -0.10561939 0.5708796 -0.6970312 0.33931538
000040 5e 07 66 40 48 78 7a be 55 bc 96 be b0 ab 90 3c
       3.5941997 -0.24459946 -0.2944056 0.017659992
000050 6a 66 34 bd b5 64 d3 3b 0f ac 86 bd 4a aa 29 bf
       -0.044042982 0.006451214 -0.06575786 -0.66275465
000060 55 95 15 bf 00 9f 87 be bb e3 77 be a8 e8 1e be
       -0.5843099 -0.26488495 -0.24207966 -0.15518439
000070 a1 ec 21 bb d2 dd 98 be
       -0.0024707692 -0.29856735
