colagnn-master-Run-Epi/src/save/cola_gnn_epi.us_states_covid_mov_14.w-20.h-2.RNN.lam-0.5.epo-500.pt (torch, 61046 bytes, 32 tensors)

V f4 [15]
0.00067048304 -3.5551344e-05 -1.0074982e-09 -0.021380119 3.407711e-05 0.02420236 -1.5873524e-05 -0.0064017
1.8131625e-14 0.06624126 0.0011157929 4.4675654e-09 -0.00964857 -0.03370145 -0.013164479
00000000: 5bc3 2f3a f71c 15b8 3178 8ab0 5c25 afbc
00000010: 05ee 0e38 0744 c63c 2228 85b7 5ac5 d1bb
00000020: ae50 a328 7fa9 873d cc3f 923a 1f81 9931
00000030: 0915 1ebc 880a 0abd d4af 57bc

W1 f4 [15, 30]
-3.9160643e-08 2.6054993e-08 -1.5978563e-07 -3.2300054e-08 -3.8238305e-08 -1.5262435e-08 -2.988293e-08 -3.923975e-08
-3.4154223e-08 -3.8880458e-08 -9.473362e-08 4.6608818e-08 3.824627e-08 -3.8303323e-08 9.522693e-07 3.849072e-08
-3.8145384e-08 1.9537158e-08 -9.696157e-08 2.9266475e-08 3.7596614e-08 -4.371047e-08 3.9427544e-08 3.9641574e-08
-3.7163076e-08 3.456307e-08 7.680622e-08 -2.7858286e-08 5.8933214e-10 -3.9042163e-08 1.8455294e-09 6.2341377e-10
7.1619333e-09 1.5949703e-09 1.7969753e-09 -4.1639985e-09 1.0679976e-09 1.8762818e-09 1.573269e-09 1.8757458e-09
3.5451777e-09 -1.1791571e-09 -1.8088002e-09 1.8052354e-09 -4.0688416e-08 -1.8695563e-09 1.8023244e-09 -1.3172981e-10
5.6412626e-09 -1.3657355e-09 -1.7783914e-09 1.9646007e-09 -1.9024142e-09 -1.8609606e-09 1.7325847e-09 -1.6663333e-09
7.0630457e-09 1.7043161e-09 -2.1488034e-09 1.8085937e-09 -1.1467654e-12 7.0748244e-14 3.62101e-13 -9.663401e-13
1.5656683e-13 -2.2079728e-13 1.4045148e-13 -2.7115111e-12 4.983182e-14 1.5748222e-13 7.8883926e-13 -2.2363556e-13
2.0063068e-12 2.1563918e-12 -3.9919097e-12 -1.72061e-13 -2.1885185e-12 -5.6398347e-14 -2.229127e-12 -1.2497772e-13
-6.808068e-14 -1.9571828e-13 -1.7164249e-13 -1.6624492e-13 1.0472596e-13 -8.6110855e-13 5.1908044e-13 -2.134924e-12
-4.4093652e-12 -3.1288286e-13 1.2115263e-06 -4.077343e-06 1.2710183e-05 5.91588e-07 1.140028e-06 3.3660488e-06
6.089823e-07 1.2236407e-06 8.7925105e-07 1.2500956e-06 1.1575457e-05 -7.710087e-07 -1.1344084e-06 1.1395167e-06
-8.830737e-05 -1.2302752e-06 1.1338525e-06 9.5230426e-08 5.6498843e-06 -3.995586e-07 -1.140127e-06 1.6420164e-06
-1.2468129e-06 -1.3071192e-06 1.086745e-06 -8.0033175e-07 -1.0269157e-05 1.2953583e-07 -1.6191907e-06 1.2294811e-06
-1.976627e-09 -7.9411877e-10 -6.3328587e-09 -1.6972391e-09 -1.8887463e-09 2.6978766e-09 -1.2763303e-09 -2.0173259e-09
-1.4947379e-09 -1.8434134e-09 -3.7702437e-09 1.6489743e-09 1.9558637e-09 -1.9624031e-09 3.7957793e-08 1.8409425e-09
-1.9523074e-09 2.3293178e-10 -5.501525e-09 1.3343668e-09 1.7135822e-09 -2.1351454e-09 1.9516322e-09 1.9235322e-09
-1.6926592e-09 1.7731264e-09 -4.158493e-09 -1.5738976e-09 1.3730318e-09 -1.9308566e-09 -7.619363e-08 1.1686789e-06
-2.242601e-06 6.501155e-08 -9.3434025e-08 4.2279214e-07 2.2438742e-08 -1.3912796e-07 -5.300874e-07 -1.3393256e-07
-3.158434e-06 2.0091983e-07 6.5527715e-08 -7.272255e-07 1.7003893e-05 1.3738885e-07 -6.614231e-08 -1.0100052e-07
-9.619934e-07 -3.9137873e-08 1.9645377e-07 -8.173314e-07 1.1955788e-07 1.1263121e-07 -1.2888034e-07 6.214779e-09
-6.073571e-07 1.7132825e-07 3.9582832e-05 -5.2544145e-08 9.647356e-10 1.0794877e-09 3.2292016e-09 8.1491003e-10
9.134139e-10 -2.704807e-10 6.6438355e-10 9.722392e-10 7.75077e-10 8.620626e-10 2.73388e-09 -7.4639045e-10
-9.516588e-10 9.49923e-10 -1.8110176e-08 -8.746634e-10 9.48809e-10 -9.1850715e-11 2.4746856e-09 -6.407856e-10
-7.849708e-10 1.0514292e-09 -9.2948216e-10 -9.305648e-10 7.7645074e-10 -8.5904117e-10 -5.1071797e-10 7.2198203e-10
-5.1012244e-10 9.529758e-10 4.146701e-07 -5.722111e-07 2.0301238e-06 3.2658562e-07 4.06008e-07 -1.8810988e-07
2.7930713e-07 4.213629e-07 3.5638448e-07 4.1797153e-07 1.011432e-06 -5.6261905e-07 -4.050283e-07 4.06024e-07
-1.3230332e-05 -4.0937462e-07 4.04398e-07 -1.3599579e-07 1.2698035e-06 -2.6477827e-07 -4.04207e-07 4.792979e-07
-4.2510695e-07 -4.248491e-07 3.9508964e-07 -3.5522925e-07 2.603391e-08 2.7480507e-07 -2.4213273e-07 4.083864e-07
3.2304268e-17 -3.2968977e-17 -5.3370282e-17 2.4558185e-17 3.3470183e-17 2.5008785e-16 3.1209667e-17 2.9025493e-17
-9.549738e-17 -2.0081133e-17 8.660031e-17 -1.5399083e-16 -3.7219974e-17 1.7320826e-17 -4.3588607e-16 -5.70271e-18
00000000: 9531 28b3 89cf df32 8a91 2bb4 49ba 0ab3
00000010: 763b 24b3 731a 83b2 a158 00b3 9088 28b3
00000020: f7b0 12b3 84fd 26b3 5c70 cbb3 f02e 4833
00000030: 3844 2433 f382 24b3 739f 7f35 ff50 2533
00000040: 4bd5 23b3 aad2 a732 3039 d0b3 a965 fb32
00000050: ea79 2133 2cbc 3bb3 0b57 2933 5f42 2a33
00000060: 3c9d 1fb3 7f72 1433 aaf0 a433 054d efb2
00000070: 90fe 2130 50af 27b3 cba5 fd30 d85c 2b30
00000080: 0815 f631 0736 db30 73f9 f630 eb12 8fb1
00000090: d3c8 9230 e6ef 0031 7b3a d830 78e6 0031
000000a0: 6d9f 7331 e70f a2b0 8099 f8b0 131c f830
000000b0: 63c1 2eb3 9579 00b1 a7b5 f730 a5d6 10af
000000c0: 12d5 c131 8cb4 bbb0 966b f4b0 9f01 0731
000000d0: a0bb 02b1 bbc4 ffb0 e81f ee30 e404 e5b0
000000e0: 35af f231 4b3d ea30 26aa 13b1 3c92 f830
000000f0: 9464 a1ab 964f 9f29 41d8 cb2a 1200 88ab
00000100: 5147 302a 7c98 78aa 6222 1e2a 3ece 3eac
00000110: 2d6c 6029 294f 312a dc09 5e2b 90ca 7baa
00000120: 692e 0d2c 1abe 172c ed73 8cac 35b9 41aa
00000130: d800 1aac defe 7da9 62dc 1cac 60b6 0caa
00000140: d74d 99a9 f45b 5caa 9440 41aa d62c 3baa
00000150: 68d2 eb29 6961 72ab b01b 122b 5f3b 16ac
00000160: 0824 9bac 2c23 b0aa ba9b a235 1cd0 88b6
00000170: d23d 5537 9ecd 1e35 1003 9935 47e4 6136
00000180: f278 2335 f93b a435 ac05 6c35 f5c8 a735
00000190: 3634 4237 50f7 4eb5 fa41 98b5 7ff1 9835
000001a0: a931 b9b8 ef1f a5b5 e02e 9835 7b81 cc33
000001b0: 2394 bd36 ea82 d6b4 7706 99b5 4163 dc35
000001c0: 2a58 a7b5 4670 afb5 46dc 9135 61d6 56b5
000001d0: b249 2cb7 8a16 0b34 f852 d9b5 a604 a535
000001e0: 31d5 07b1 2449 5ab0 6a98 d9b1 4b44 e9b0
000001f0: 2dcb 01b1 8c65 3931 e16a afb0 2ca1 0ab1
00000200: 6a6f cdb0 585b fdb0 6a8b 81b1 20a2 e230
00000210: eb67 0631 f6da 06b1 0907 2333 6804 fd30
00000220: 5b29 06b1 3c0e 802f ed07 bdb1 dc64 b730
00000230: 5083 eb30 e0b9 12b1 7a1d 0631 232f 0431
00000240: 27a3 e8b0 57b2 f330 7ee2 8eb1 9950 d8b0
00000250: 43b5 bc30 fdaf 04b1 e49f a3b3 80db 9c35
00000260: 987f 16b6 7a9c 8b33 e6a5 c8b3 1cfc e234
00000270: 51bf c032 3463 15b4 544b 0eb5 1acf 0fb4
00000280: 7cf5 53b6 6cbc 5734 3eb8 8c33 8e36 43b5
00000290: 95a3 8e37 2985 1334 1f0a 8eb3 a0e5 d8b3
000002a0: d71d 81b5 8c18 28b3 cdf0 5234 9666 5bb5
000002b0: d25f 0034 aadf f133 5c62 0ab4 c689 d531
000002c0: 4309 23b5 5af6 3734 be05 2638 e6ac 61b3
000002d0: 9e97 8430 195d 9430 b7e8 5d31 3200 6030
000002e0: ca13 7b30 c6b2 94af d69f 3630 a09f 8530
000002f0: 320d 5530 43f6 6c30 edde 3b31 8f2a 4db0
00000300: 84cb 82b0 728e 8230 b390 9bb2 f76c 70b0
00000310: 4067 8230 5bfb c9ae 210f 2a31 4723 30b0
00000320: 69c5 57b0 e081 9030 7e7e 7fb0 adca 7fb0
00000330: dd6d 5530 a621 6cb0 9562 0cb0 f874 4630
00000340: ad38 0cb0 dbf9 8230 d39f de34 0c9a 19b5
00000350: 433d 0836 9655 af34 51f9 d934 40fb 49b4
00000360: aef3 9534 ad37 e234 1c55 bf34 9265 e034
00000370: 8ac0 8735 e306 17b5 aa72 d9b4 83fb d934
00000380: d8f7 5db7 05c8 dbb4 0a1c d934 3d06 12b4
00000390: 1e6e aa35 d926 8eb4 c901 d9b4 1aa9 0035
000003a0: 413a e4b4 d116 e4b4 b51c d434 56b6 beb4
000003b0: 2ca1 df32 ec88 9334 78fe 81b4 3340 db34
000003c0: 26fa 1424 e60a 18a4 8220 76a4 6082 e223
000003d0: 9e5a 1a24 742a 9025 dfed 0f24 41db 0524
000003e0: b433 dca4 3c37 b9a3 cdaf c724 128a 31a5
000003f0: 97a5 2ba4 a5c1 9f23 6e45 fba5 9364 d2a2

b1 f4 [15]
-3.84023e-08 1.8123252e-09 -3.223504e-12 1.1418554e-06 -1.969175e-09 -6.897718e-08 9.547563e-10 4.0501487e-07
2.9954652e-17 -0.00021638803 -5.8480286e-08 -3.2058248e-13 -0.0001822224 1.2373011e-06 -0.00015819419
00000000: c6ef 24b3 8615 f930 7cd5 62ac da41 9935
00000010: 1852 07b1 9b20 94b3 8038 8330 d270 d934
00000020: 3624 0a24 38e6 62b9 c12b 7bb3 ce78 b4aa
00000030: f412 3fb9 5811 a635 eee0 25b9

W2 f4 [15, 30]
2.9016698e-09 -2.1582673e-06 7.997243e-06 -3.5226367e-07 -3.8676387e-08 -4.659607e-07 -4.5027363e-07 3.079536e-08
-2.2128327e-07 6.111831e-09 5.216038e-06 -5.7150226e-07 4.0559794e-08 -3.9338744e-08 -5.1153384e-05 3.0973244e-08
-3.8131084e-08 8.717388e-07 3.9364936e-06 4.599675e-07 3.7552027e-08 3.1417912e-07 -5.220477e-08 -5.9470825e-08
-7.612796e-08 2.3691234e-07 -5.6697434e-07 -6.529165e-07 -2.514424e-06 -1.2863288e-09 -3.1148573e-10 1.035678e-07
-3.7294697e-07 1.4306691e-08 1.8007691e-09 2.1955026e-07 3.6210377e-08 -2.605791e-09 1.1644117e-08 -5.0216347e-09
-3.0690063e-07 -3.7345657e-08 -1.84937e-09 2.1807685e-09 2.5207135e-06 4.2119535e-09 1.8030994e-09 -7.4874585e-08
-2.5533498e-07 -2.0741243e-08 -1.8051737e-09 -9.43574e-09 5.1801186e-09 4.410146e-09 3.9162744e-09 -9.5989225e-09
-2.7855953e-07 7.464675e-09 2.4489714e-07 6.38043e-10 -2.199473e-12 2.5847924e-12 -1.9497433e-11 2.7894599e-12
1.6265293e-13 -4.306823e-11 8.2508967e-13 -3.134509e-12 4.9916397e-13 -4.5015827e-14 -4.3608332e-11 6.7231923e-12
1.3032003e-12 5.9674916e-13 1.8047898e-10 3.6542877e-13 -2.3637435e-12 -1.892637e-12 -1.4293508e-11 -1.5999209e-12
-7.006324e-14 -2.6263397e-12 1.6806853e-13 8.631912e-13 2.4522393e-13 -2.777317e-12 1.2472223e-10 2.2245714e-12
2.8120466e-11 -2.263543e-12 -4.7561423e-07 4.91739e-05 -0.00022978912 1.0931518e-05 1.1572462e-06 -4.5850255e-05
1.06165535e-05 -6.4024664e-07 5.8243536e-06 -1.3191346e-06 -0.00016559091 -1.1339999e-05 -1.2213305e-06 1.1279712e-06
0.0015352233 1.0402792e-06 1.133001e-06 -2.0985979e-05 -9.905823e-05 -1.2233384e-05 -1.1237139e-06 -9.391781e-06
1.3184257e-06 2.5802997e-06 2.1077972e-06 -7.2301673e-06 0.00016457505 1.9928562e-05 5.3636533e-05 -1.8025696e-06
-5.7637767e-10 -9.326073e-08 3.2734948e-07 -1.7669773e-08 -1.90428e-09 -1.9503995e-07 -3.0585138e-08 2.0494488e-09
-1.11373035e-08 2.3183941e-09 2.5943083e-07 7.370939e-09 2.196209e-09 -1.7450518e-09 -2.4579329e-06 3.009603e-10
-1.9501212e-09 6.915587e-08 2.3594637e-07 2.3801144e-08 1.7439363e-09 1.3643506e-08 -3.989262e-09 -1.8687025e-09
-3.8569663e-09 1.1752395e-08 3.3303164e-07 -2.531134e-08 -1.5724518e-07 -4.312631e-09 2.4939313e-06 -3.737425e-05
0.00020591001 -1.3761971e-05 -1.1481347e-07 0.00012719618 -6.70183e-06 1.5618529e-06 -4.5682555e-06 4.816197e-06
0.00021729767 4.6970854e-05 8.569914e-07 9.551665e-07 -0.0016461374 -6.459831e-06 -2.5981471e-08 1.6700938e-05
8.286511e-05 1.0569099e-05 1.5627543e-07 1.0958358e-05 -2.5886638e-06 -4.948513e-06 -1.099915e-06 8.012765e-06
-0.00037918607 -2.0675325e-05 -7.360649e-05 5.640883e-06 1.3497406e-10 6.276606e-10 -1.6903087e-07 8.363365e-09
9.1938557e-10 4.2983803e-08 1.2623002e-08 -7.953286e-10 6.3590613e-09 -5.9729754e-10 -1.3764077e-07 -3.985697e-09
-9.941413e-10 1.0465551e-09 1.126825e-06 -7.957647e-10 9.47711e-10 -3.2170348e-08 -1.0058159e-07 -1.0844917e-08
-7.995974e-10 -6.9845307e-09 1.5039848e-09 9.301767e-10 1.7502803e-09 -5.5981446e-09 -5.7064337e-08 1.4509212e-08
6.750646e-08 9.715772e-10 8.9649234e-08 1.93919e-05 -6.983476e-05 3.1060774e-06 4.0923587e-07 1.7553628e-05
4.6188948e-06 -2.511671e-07 2.0821844e-06 -1.0051604e-08 -4.7114445e-05 5.447777e-06 -4.2790262e-07 4.1795863e-07
0.00045025663 -3.428742e-07 4.040769e-07 -8.547779e-06 -3.7978225e-05 -4.1449875e-06 -4.0525197e-07 -2.49244e-06
4.6953213e-07 3.953049e-07 7.610379e-07 -2.1120675e-06 -2.2377279e-05 4.9743285e-06 2.612677e-05 3.5453314e-07
-8.753915e-17 4.7441316e-15 4.272577e-15 -3.2154157e-16 3.4307812e-17 -1.4597618e-14 -1.4333003e-16 -4.7471374e-16
-1.1862449e-16 3.9871895e-16 -3.6175147e-15 7.281271e-15 8.792324e-16 1.5688248e-15 -1.9079043e-14 -4.3372957e-16
00000000: b766 4731 c0d6 10b6 e62b 0637 c01e bdb4
00000010: 231d 26b3 2729 fab4 23bd f1b4 db43 0433
00000020: e299 6db4 3c00 d231 6d05 af36 5669 19b5
00000030: f733 2e33 68f5 28b3 878d 56b8 7107 0533
00000040: 92c5 23b3 6f01 6a35 3916 8436 74f1 f634
00000050: e448 2133 73ac a834 c037 60b3 dd6c 7fb3
00000060: ca7b a3b3 f861 7e34 2e32 18b5 1544 2fb5
00000070: 7abd 28b6 acca b0b0 b83d abaf 0069 de33
00000080: 7139 c8b4 7ec9 7532 ee7e f730 84bd 6b34
00000090: bb85 1b33 8f11 33b1 5e0b 4832 c48a acb1
000000a0: 1ac4 a4b4 fc65 20b3 ec2c feb0 7cdc 1531
000000b0: 8729 2936 bcb8 9031 ecd0 f730 bdca a0b3
000000c0: f914 89b4 7a2a b2b2 e719 f8b0 d31a 22b2
000000d0: cefc b131 0e88 9731 ea8f 8631 82e8 24b2
000000e0: ee8c 95b4 fd3d 0032 687a 8334 4962 2f30
000000f0: 2fc6 1aac 7be3 352c 5180 abad 714a 442c
00000100: 8421 372a 846a 3dae fa3d 682b 4b92 5cac
00000110: 8e80 0c2b b7bb 4aa9 9eca 3fae 228d ec2c
00000120: bd68 b72b 4ff8 272b 5170 462f d6b7 cd2a
00000130: 6b55 26ac b82e 05ac 3d74 7bad 3a2b e1ab
00000140: b5c4 9da9 eecf 38ac 753a 3d2a 7bf7 722b
00000150: 7e0c 8a2a b26f 43ac 3022 092f 518a 1c2c
00000160: a959 f72d 5e48 1fac ec57 ffb4 1340 4e38
00000170: 8cf3 70b9 8366 3737 ad52 9b35 564f 40b8
00000180: c01d 3237 6add 2bb5 d16e c336 1f0d b1b5
00000190: 79a2 2db9 ed40 3eb7 99ec a3b5 cc64 9735
000001a0: 8c39 c93a b99f 8b35 9e11 9835 0c0b b0b7
000001b0: 7bbd cfb8 fc3d 4db7 84d2 96b5 6491 1db7
000001c0: c3f4 b035 3629 2d36 ae73 0d36 aa9a f2b6
000001d0: c791 2c39 432c a737 caf7 6038 d2ef f1b5
000001e0: f96e 1eb0 a146 c8b3 92be af34 3ec8 97b2
000001f0: 73dc 02b1 2c6c 51b4 b75c 03b3 49d6 0c31
00000200: 6156 3fb2 9f51 1f31 e747 8b34 7743 fd31
00000210: 1eec 1631 8dd6 efb0 f7f2 24b6 6674 a52f
00000220: e502 06b1 d782 9433 7258 7d34 4573 cc32
00000230: 4eaf ef30 c664 6a32 eb11 89b1 906a 00b1
00000240: 3c86 84b1 94e7 4932 85cb b234 3a6c d9b2
00000250: 3ad7 28b4 4e2e 94b1 6a5d 2736 4cc2 1cb8
00000260: 8ce9 5739 37e3 66b7 5f8f f6b3 f75f 0539
00000270: 48e0 e0b6 dba0 d135 0449 99b6 d19a a136
00000280: 66da 6339 9202 4538 000c 6635 4533 8035
00000290: 35c3 d7ba 87c1 d8b6 dc2d dfb2 fe18 8c37
000002a0: dec7 ad38 ef51 3137 aacc 2734 cad9 3737
000002b0: e8b8 2db6 670b a6b6 cba0 93b5 906e 0637
000002c0: 7ecd c6b9 ec6f adb7 2f5d 9ab8 d146 bd36
000002d0: d267 142f b087 2c30 da7e 35b4 78ae 0f32
000002e0: 02b8 7c30 319d 3833 8ddc 5832 469e 5ab0
000002f0: e57e da31 142f 24b0 68ca 13b4 90f2 88b1
00000300: 3da2 88b0 62d6 8f30 6a3d 9735 f6bc 5ab0
00000310: 9e40 8230 ac2b 0ab3 50ff d7b3 7350 3ab2
00000320: aaca 5bb0 95fc efb1 c3b4 ce30 5eaf 7f30
00000330: 838e f030 cd59 c0b1 e716 75b3 3044 7932
00000340: 12f8 9033 5588 8530 3085 c033 caab a237
00000350: 4074 92b8 0172 5036 f3b4 db34 2140 9337
00000360: 01fc 9a36 25d8 86b4 a8bb 0b36 6caf 2cb2
00000370: c09c 45b8 0ccc b636 7dba e5b4 cc63 e034
00000380: 6c10 ec39 4514 b8b4 e8ef d834 6e68 0fb7
00000390: cf4a 1fb8 2c15 8bb6 6891 d9b4 cb43 27b6
000003a0: 0114 fc34 4b3a d434 204a 4c35 0bbd 0db6
000003b0: d7b6 bbb7 28e9 a636 d02a db37 aa56 be34
000003c0: fed9 c9a4 e4ec aa27 91ef 9927 295b b9a5
000003d0: 8437 1e24 d17b 83a8 8f3f 25a5 b1d3 08a6
000003e0: c5c3 08a5 88d8 e525 af55 82a7 f02a 0328
000003f0: e66b 7d26 6b17 e226 47d9 aba8 3007 faa5

Wb f4 [55, 55]
0.011400825 -0.0006369727 -0.018068377 -0.006912724 -0.008941096 -0.05453335 -0.0037190733 0.005384732
-0.0041774074 -0.016343938 -0.001602808 -0.0011616948 0.00069115066 -0.018215902 -0.013683203 -0.01421462
-0.002965372 0.00042215677 -0.0312882 -0.024181308 -0.0070596496 -0.031000745 -0.00028714864 -0.02849825
-0.009510729 0.0019642797 -0.022127982 -0.0110563375 -0.005130866 -0.016790202 -0.00078176684 -0.01348865
-0.038596127 -0.0013323426 0.011328104 -0.0077419807 0.0006324696 0.0024207167 0.021873683 -0.027504036
-0.016064325 -0.0009289121 0.010754652 0.0008406721 -0.01245717 -0.039800446 0.025400648 -0.00014175894
-0.017804218 -0.0010546539 0.026574798 0.0051902384 -0.03280941 -0.0076589556 -0.019403424 0.011587668
-0.0006356077 -0.017490905 -0.006626833 -0.010673749 -0.05470758 -0.0017368225 0.0054053064 -0.003511947
-0.016542492 -0.001667417 -0.0020182945 5.2636344e-05 -0.018162 -0.013146339 -0.014148653 -0.0031375783
0.00020902487 -0.03138996 -0.023758577 -0.007063277 -0.03196092 -0.00017186953 -0.028388118 -0.010836605
0.0062376396 -0.020567026 -0.011046176 -0.0060467944 -0.017738804 -0.0013382216 -0.01348808 -0.03858393
-0.0013095791 0.010334413 -0.007882083 2.4775407e-05 0.002279562 0.021717358 -0.027492404 -0.016762925
0.0018923543 0.0077963844 0.00084139465 -0.011521997 -0.039935753 0.025593136 -9.966784e-05 -0.017779106
-0.0016814092 0.02675585 0.0056582275 -0.033174977 -0.007654593 -0.020210255 0.01151648 -0.0018749172
-0.018188965 -0.0066373176 -0.009033967 -0.05452568 -0.00237759 0.0053794403 -0.003440228 -0.01559481
-0.001827869 -0.0021329257 -0.0014793561 -0.018151443 -0.013580134 -0.014190617 -0.0031619929 0.00035586406
-0.03135299 -0.02404007 -0.0070311124 -0.03252705 -0.00032416312 -0.028460609 -0.010052859 0.004855906
-0.023539921 -0.011036155 -0.0053997375 -0.016738152 -0.0014442853 -0.01348892 -0.038583644 -0.0013303785
0.010232908 -0.007910952 -5.1066512e-05 0.0012935346 0.021531943 -0.02754995 -0.016299335 0.0018444426
0.008821589 0.0008599516 -0.012182467 -0.040051013 0.025544308 0.0001565981 -0.017886922 -0.0013269758
0.026548788 0.0027480868 -0.032965362 -0.007728651 -0.02136369 0.011238489 0.00041791378 -0.017989852
-0.0071024355 -0.009571753 -0.054613844 -0.003522599 0.0053129545 -0.0036827724 -0.016894577 -0.001787897
-0.00324056 0.0015774984 -0.018286187 -0.012324737 -0.0144368075 -0.0039847037 0.00033857825 -0.031314343
-0.02467551 -0.007759309 -0.032119334 -0.00019483292 -0.02841448 -0.0096508805 0.0019264588 -0.022616085
-0.011031304 -0.0059104683 -0.016884226 -0.0006127134 -0.013488977 -0.038667314 -0.0013655662 0.011111225
-0.0076804194 -0.00029772136 0.002436341 0.02186854 -0.02747166 -0.01572158 0.0020101336 0.005004891
0.00084501633 -0.012567444 -0.04003603 0.02534794 0.00017331289 -0.01853979 0.0011080354 0.026645022
0.0030285302 -0.032547243 -0.007737996 -0.01960877 0.011462514 -0.00021440513 -0.017979218 -0.006770106
-0.0100990245 -0.054550402 -0.0034202626 0.005401712 -0.0034915442 -0.016728485 -0.001822827 -0.0033094992
0.0009827784 -0.018181201 -0.01397021 -0.013971277 -0.0034488684 0.00037794758 -0.031386606 -0.022665786
-0.00716589 -0.031920217 -0.00027640862 -0.028437082 -0.009965843 0.004249164 -0.023677818 -0.0110116685
-0.00576079 -0.017153349 -0.0007698708 -0.013489413 -0.0385856 -0.0013772573 0.010462074 -0.0077017257
00000000: 87ca 3a3c 84fa 26ba 2204 94bc 2284 e2bb
00000010: ad7d 12bc 5d5e 5fbd b2bb 73bb 6872 b03b
00000020: a2e2 88bb b9e3 85bc 5015 d2ba 0244 98ba
00000030: 562e 353a 8439 95bc 832f 60bc 70e4 68bc
00000040: b056 42bb ec54 dd39 0e28 00bd e117 c6bc
00000050: a254 e7bb 46f5 fdbc 708c 96b9 2975 e9bc
00000060: e4d2 1bbc 25bb 003b be45 b5bc a425 35bc
00000070: d320 a8bb 9b8b 89bc 7cef 4cba 80ff 5cbc
00000080: f916 1ebd 00a2 aeba 8399 393c 71b0 fdbb
00000090: 51cc 253a e3a4 1e3b 7030 b33c 2550 e1bc
000000a0: 5599 83bc 3c82 73ba 4834 303c 8d60 5c3a
000000b0: 2819 4cbc cb05 23bd 0515 d03c 20a5 14b9
000000c0: 27da 91bc 503c 8aba 64b3 d93c e012 aa3b
000000d0: 2963 06bd faf7 fabb eef3 9ebc 34da 3d3c
000000e0: e99e 26ba 1649 8fbc e825 d9bb f3e0 2ebc
000000f0: 0e15 60bd 18a6 e3ba ff1e b13b b228 66bb
00000100: 1f84 87bc 3b8d daba 5d45 04bb d8c5 5c38
00000110: 7ac8 94bc be63 57bc c0cf 67bc d49f 4dbb
00000120: b02d 5b39 c292 00bd 59a1 c2bc 1073 e7bb
00000130: 74e9 02bd e037 34b9 338e e8bc 048c 31bc
00000140: 1d65 cc3b 2e7c a8bc 05fb 34bc 3024 c6bb
00000150: f850 91bc 4467 afba 1cfd 5cbc 2f0a 1ebd
00000160: 2fa6 abba ab51 293c da23 01bc c8d4 cf37
00000170: b464 153b 9ae8 b13c c037 e1bc 6752 89bc
00000180: e008 f83a d078 ff3b 0a91 5c3a c2c6 3cbc
00000190: ac93 23bd b2a8 d13c c404 d1b8 7da5 91bc
000001a0: bb62 dcba 162f db3c a768 b93b 7ce2 07bd
000001b0: 61d3 fabb fa8f a5bc 9eaf 3c3c c8bf f5ba
000001c0: 0601 95bc db7d d9bb 3403 14bc 5256 5fbd
000001d0: 57d1 1bbb 0446 b03b 7375 61bb 6081 7fbc
000001e0: 1b95 efba 8ec8 0bbb f4e6 c1ba 56b2 94bc
000001f0: 367f 5ebc c37f 68bc 7039 4fbb 4493 ba39
00000200: fe6b 00bd aeef c4bc 3f65 e6bb 153b 05bd
00000210: 70f4 a9b9 3926 e9bc bfb4 24bc 4b1e 9f3b
00000220: cbd6 c0bc fdd0 34bc 48f0 b0bb 731e 89bc
00000230: 2c4e bdba a200 5dbc e209 1ebd 1860 aeba
00000240: eda7 273c f09c 01bc 4030 56b8 d28b a93a
00000250: c263 b03c 6fb0 e1bc 2f86 85bc 39c1 f13a
00000260: 6d88 103c 606e 613a f898 47bc 880c 24bd
00000270: 4c42 d13c 7b34 2439 9887 92bc ebed adba
00000280: d87c d93c 3f19 343b b006 07bd a040 fdbb
00000290: e802 afbc a421 383c 701b db39 745f 93bc
000002a0: 8cbb e8bb d8d2 1cbc c4b2 5fbd 68db 66bb
000002b0: 4b18 ae3b ab5a 71bb 7f66 8abc de57 eaba
000002c0: 935f 54bb 10c4 ce3a eacc 95bc b2ed 49bc
000002d0: 5c88 6cbc 1e92 82bb 3483 b139 7843 00bd
000002e0: 4c24 cabc cd41 febb 908f 03bd 104c 4cb9
000002f0: 7cc5 e8bc ba1e 1ebc 3b81 fc3a 5e45 b9bc
00000300: a4bc 34bc 9aac c1bb ca50 8abc 809e 20ba
00000310: df00 5dbc 9e61 1ebd ccfc b2ba db0b 363c
00000320: 07ac fbbb 7c17 9cb9 05ab 1f3b a725 b33c
00000330: 3f0c e1bc 8bca 80bc 72bc 033b 1200 a43b
00000340: 1684 5d3a aee7 4dbc d2fc 23bd 7ca6 cf3c
00000350: 53bb 3539 c2e0 97bc 803b 913a a946 da3c
00000360: 4e7a 463b 4250 05bd 048f fdbb 92a2 a0bc
00000370: 45cd 3b3c f0d1 60b9 2749 93bc c4d7 ddbb
00000380: 6176 25bc 3e70 5fbd 7c26 60bb d800 b13b
00000390: 64d2 64bb 2d0a 89bc edeb eeba 2fe4 58bb
000003a0: 92d0 803a bef0 94bc 4fe3 64bc c8e7 64bc
000003b0: 6906 62bb 4427 c639 3e8f 00bd 99ad b9bc
000003c0: d8cf eabb c6be 02bd f0ea 90b9 e2f4 e8bc
000003d0: c647 23bc 923c 8b3b fcf7 c1bc 496a 34bc
000003e0: 02c5 bcbb 2e85 8cbc 28d1 49ba b302 5dbc
000003f0: ef0b 1ebd 1685 b4ba 1e69 2b3c c25e fcbb

conv.weight f4 [10, 1, 20]
-2.977395e-15 -2.8806523e-15 -2.7864178e-15 -2.682544e-15 -2.6176732e-15 -2.4661178e-15 -2.3603109e-15 -2.2897471e-15
-2.185017e-15 -2.0974442e-15 -2.0374063e-15 -1.9817757e-15 -1.9057153e-15 -1.8753494e-15 -1.8347805e-15 -1.7688852e-15
-1.7469416e-15 -1.6753288e-15 -1.6385757e-15 -1.6282519e-15 -5.120448e-08 -5.2905094e-08 -5.4574553e-08 -5.581388e-08
-5.7106718e-08 -5.7335164e-08 -5.7587286e-08 -5.778307e-08 -5.8201667e-08 -5.7963447e-08 -5.7330556e-08 -5.625553e-08
-5.536713e-08 -5.380977e-08 -5.2588312e-08 -5.1953535e-08 -5.045674e-08 -4.895592e-08 -4.6573078e-08 -4.5020904e-08
-0.00335234 -0.003372546 -0.0034081948 -0.003468237 -0.0034722744 -0.0035732777 -0.003624305 -0.0037125526
-0.003739694 -0.0037970114 -0.003944686 -0.0040299795 -0.004066133 -0.0041150334 -0.004212789 -0.004239683
-0.004257663 -0.0043509617 -0.0044362666 -0.0044180257 -2.832771e-10 -1.13080934e-10 -1.8399753e-10 -1.9941604e-10
-3.1648673e-10 -1.8207648e-10 -2.4505065e-10 -1.2686396e-10 -2.3783425e-10 -1.2532402e-10 -1.2688142e-10 -2.2643352e-10
-4.712528e-10 -2.023884e-10 -3.8972775e-10 -1.9569633e-10 -2.517718e-10 -5.06203e-11 -3.6905273e-10 -3.995724e-10
7.5748984e-30 -2.9033593e-30 -1.5787096e-29 -1.473721e-29 -3.3564966e-29 -3.3644498e-29 -3.1849817e-29 -1.7646669e-29
-2.0339259e-29 -9.329378e-30 2.1960943e-30 9.128947e-30 1.8545551e-29 1.8547817e-29 9.70019e-30 -1.2546851e-30
-1.1882431e-29 -6.389317e-30 -1.898913e-29 -1.5688606e-29 3.923193e-15 3.878408e-15 4.0159187e-15 4.1956896e-15
4.354998e-15 4.427828e-15 4.465424e-15 4.5320667e-15 4.5276147e-15 4.543852e-15 4.5434547e-15 4.569973e-15
4.582558e-15 4.5528974e-15 4.4772624e-15 4.3969645e-15 4.317286e-15 4.13669e-15 4.130474e-15 3.726129e-15
-5.1031957e-19 -5.014846e-19 -4.9477224e-19 -4.874673e-19 -4.7955393e-19 -4.759611e-19 -4.73332e-19 -4.843041e-19
-4.9523515e-19 -5.028344e-19 -4.8859636e-19 -4.8611435e-19 -4.895951e-19 -4.8784166e-19 -4.9219195e-19 -4.9107924e-19
-4.967581e-19 -4.9703835e-19 -4.9852366e-19 -4.9487745e-19 -7.088283e-10 -8.211433e-10 -7.514399e-10 -6.9868084e-10
-8.166422e-10 -3.8866474e-10 -4.8080234e-10 -6.2035327e-10 -9.356315e-10 -8.0720153e-10 -4.0500756e-10 -6.943272e-10
-1.3079402e-09 -6.502366e-10 -4.013929e-10 -8.2895335e-10 -7.8970963e-10 -7.653449e-10 -2.8251976e-10 -1.3120308e-10
-0.025412304 -0.022374632 -0.020034645 -0.01722953 -0.0145329945 -0.012168614 -0.0097785825 -0.007876291
-0.005120677 -0.0018956388 0.0012169791 0.0051720855 0.009793952 0.012864358 0.01684609 0.020378487
0.025244711 0.030019956 0.03516378 0.039954964 -2.6260175e-11 -2.6948423e-11 -2.7160255e-11 -2.7599529e-11
-2.803574e-11 -2.846861e-11 -2.8242114e-11 -2.844654e-11 -2.858145e-11 -2.8992003e-11 -2.9167377e-11 -2.9334833e-11
-2.969955e-11 -2.9715893e-11 -3.032048e-11 -3.014009e-11 -3.0352772e-11 -3.033238e-11 -3.058309e-11 -3.0619226e-11
00000000: 3e8b 56a7 a892 4fa7 56c8 48a7 344c 41a7
00000010: 8c9f 3ca7 d8b3 31a7 0d14 2aa7 61fe 24a7
00000020: 7372 1da7 0423 17a7 83cf 12a7 4fcd 0ea7
00000030: 3e52 09a7 1722 07a7 ba35 04a7 58ec fea6
00000040: c5c2 fba6 b970 f1a6 c624 eca6 e4a7 eaa6
00000050: eceb 5bb3 c439 63b3 5b65 6ab3 03b8 6fb3
00000060: 8045 75b3 ae40 76b3 e455 77b3 282d 78b3
00000070: 69f9 79b3 7cf3 78b3 9d3b 76b3 9c9d 71b3
00000080: cecc 6db3 781c 67b3 76dd 61b3 8423 5fb3
00000090: c6b5 58b3 9a43 52b3 a407 48b3 025d 41b3
000000a0: efb2 5bbb ef05 5dbb 055c 5fbb 5c4b 63bb
000000b0: 198f 63bb a72d 6abb bf85 6dbb 4c4e 73bb
000000c0: a715 75bb 48d7 78bb 6d42 81bb eb0d 84bb
000000d0: 323d 85bb 67d7 86bb 6f0b 8abb 0aed 8abb
000000e0: de83 8bbb 8392 8ebb 1a5e 91bb 16c5 90bb
000000f0: b5bb 9baf e8aa f8ae b34e 4aaf a042 5baf
00000100: 8cfd adaf f931 48af d0b7 86af 087d 0baf
00000110: 32c0 82af 93cb 09af f281 0baf 5ff7 78af
00000120: 7889 01b0 4587 5eaf 4e41 d6af 9f2b 57af
00000130: bb69 8aaf 64a1 5eae 8ee3 caaf d1aa dbaf
00000140: 1fa3 190f 6a8c 6b8e a519 a08f fc73 958f
00000150: d131 2a90 0e99 2a90 6d7f 2190 5ff5 b28f
00000160: bc43 ce8f e638 3d8f 182b 320e 3428 390f
00000170: 0113 bc0f e318 bc0f 44be 440f 9495 cb8d
00000180: 1c01 718f 3b97 018f 9a92 c08f f319 9f8f
00000190: 1259 8d27 00bc 8b27 50b0 9027 682a 9727
000001a0: c4e7 9c27 8187 9f27 44e2 a027 f048 a327
000001b0: e01f a327 a3b5 a327 f9b1 a327 90a6 a427
000001c0: a31a a527 1109 a427 754f a127 d76a 9e27
000001d0: ef8b 9b27 3b0a 9527 e6d0 9427 793f 8627
000001e0: a89e 16a1 1b03 14a1 ef07 12a1 fddf 0fa1
000001f0: 128a 0da1 9b7a 0ca1 f4b3 0ba1 fcf0 0ea1
00000200: e92a 12a1 1869 14a1 4c35 10a1 c379 0fa1
00000210: c380 10a1 46fc 0fa1 f944 11a1 e6f0 10a1
00000220: fb9d 12a1 28b3 12a1 6223 13a1 e20f 12a1
00000230: 5bd7 42b0 d3b6 61b0 e28d 4eb0 4b0d 40b0
00000240: 167a 60b0 b3ab d5af 7529 04b0 7b85 2ab0
00000250: 9b97 80b0 c2e1 5db0 bfa7 deaf efda 3eb0
00000260: 0ec3 b3b0 55bc 32b0 07ab dcaf 68dc 63b0
00000270: e012 59b0 5c60 52b0 1f51 9baf 6242 10af
00000280: 772d d0bc 014b b7bc b21f a4bc f124 8dbc
00000290: cc1b 6ebc de5e 47bc 5936 20bc 8f0b 01bc
000002a0: 5acb a7bb 1577 f8ba 0b83 9f3a 997a a93b
000002b0: d076 203c 07c5 523c d000 8a3c c9f0 a63c
000002c0: ffcd ce3c 69ec f53c e507 103d d1a7 233d
000002d0: a8fc e6ad 740a edad 75e7 eead 9dc4 f2ad
000002e0: e09a f6ad 9c69 faad 966b f8ad ea37 faad
000002f0: b467 fbad 3004 ffad 8c47 00ae 1604 01ae
00000300: b89e 02ae 1fb1 02ae d359 05ae b98e 04ae
00000310: 2f7e 05ae 3967 05ae 8081 06ae 2faa 06ae

conv.bias f4 [10]
-2.2998096e-14 -5.410338e-07 -0.20378757 -0.0035490256 -6.5951345e-15 -5.867348e-08 -1.3745641e-18 -0.0034372748
-0.23455453 -7.5174665e-11
00000000: 0026 cfa8 8f3b 11b5 b0ad 50be c596 68bb
00000010: 619d eda7 2c00 7cb3 90d9 caa1 e743 61bb
00000020: 102f 70be 934f a5ae

conv_long.weight f4 [10, 1, 10]
-0.30050108 -0.16106166 -0.03408134 0.08030934 0.23117372 0.39651984 0.5838135 0.7719267
0.99285257 1.2415657 -4.960457e-36 -2.6570972e-36 1.7107796e-36 -7.5855266e-36 4.273346e-36 1.0702198e-36
3.6916144e-36 3.952023e-36 -2.0388503e-36 7.293503e-36 0.029631972 0.025244923 0.02253767 0.019795068
0.018016756 0.01654217 0.0152809825 0.014583505 0.013083231 0.012601336 1.4166419e-21 2.6152775e-21
2.831383e-21 -3.566888e-22 -2.7826477e-21 -7.768884e-21 -1.0514907e-20 -6.30431e-21 -1.844926e-21 1.4405024e-21
-0.33692858 -0.33067527 -0.3265885 -0.31920174 -0.32190183 -0.32499075 -0.32884136 -0.3368123
-0.34457135 -0.35296667 -1.9903192e-11 -2.0109516e-11 -2.033229e-11 -2.0353106e-11 -1.993217e-11 -2.0846892e-11
-2.139518e-11 -2.2026679e-11 -2.1861547e-11 -2.2127078e-11 -7.9576486e-05 -5.0514805e-05 -2.143393e-05 -3.3812707e-05
1.9424697e-05 5.133522e-05 8.9380694e-05 0.00014582841 0.00022546208 0.0003296 -2.2417176e-30 -1.5435323e-30
-3.8541523e-31 2.029115e-31 1.1352923e-30 7.3071146e-31 4.1182307e-31 -3.4057516e-32 -3.220212e-31 -2.1832384e-31
-2.1865545e-10 -2.1709357e-10 -2.164185e-10 -2.1596072e-10 -2.1524965e-10 -2.1607077e-10 -2.1632199e-10 -2.1659396e-10
-2.1690484e-10 -2.167404e-10 -9.0627275e-09 -8.904063e-09 -8.704393e-09 -8.510366e-09 -8.353979e-09 -8.214069e-09
-8.123783e-09 -7.908894e-09 -7.746523e-09 -7.612649e-09
00000000: 47db 99be 59ed 24be e098 0bbd 3979 a43d
00000010: ceb8 6c3e a604 cb3e cd74 153f fd9c 453f
00000020: 962b 7e3f a0eb 9e3f 98fe d284 740a 6284
00000030: 7b89 1104 8953 2185 9ec4 b504 a616 b603
00000040: 1f06 9d04 b819 a804 3a72 2d84 9c1d 1b05
00000050: c0be f23c 71ce ce3c eba0 b83c 4429 a23c
00000060: e097 933c 7283 873c 165d 7a3c a7ef 6e3c
00000070: 0c5b 563c d675 4e3c ae13 d61c d39a 451d
00000080: eaee 551d eb9a d79b 3c40 529d 05c0 129e
00000090: f89e 469e 8c2b ee9d 0f66 0b9d bdae d91c
000000a0: e781 acbe 454e a9be 9c36 a7be 696e a3be
000000b0: 51d0 a4be 3065 a6be e55d a8be a972 acbe
000000c0: a86b b0be 0cb8 b4be 0112 afad 9be2 b0ad
000000d0: 3fd8 b2ad 1f07 b3ad 4253 afad 075f b7ad
000000e0: aa31 bcad acbf c1ad d44b c0ad c0a1 c2ad
000000f0: 4de2 a6b8 dcdf 53b8 04cd b3b7 1ed2 0db8
00000100: 38f2 a237 c650 5738 e571 bb38 84e9 1839
00000110: 046a 6c39 2ace ac39 a7de 358e d373 fa8d
00000120: 1726 fa8c 75b2 830c 3236 b80d 2221 6d0d
00000130: eca4 050d 34d6 308b f300 d18c 45b3 8d8c
00000140: 0a6a 70af 68b2 6eaf 64f4 6daf 8a73 6daf
00000150: 64ab 6caf 8492 6daf 3ad9 6daf c825 6eaf
00000160: 497d 6eaf 004f 6eaf 4cb2 1bb2 7cf8 18b2
00000170: 538a 15b2 fc34 12b2 3085 0fb2 dc1d 0db2
00000180: c790 0bb2 afdf 07b2 9215 05b2 c9c8 02b2

conv_long.bias f4 [10]
-0.70818436 -2.345323e-16 -1.8730402 -7.2474458e-09 -1.0180186 -5.1995065e-11 -0.23186873 -4.6799417e-14
-1.5454435e-10 -2.4026763e-08
00000000: 924b 35bf dc32 87a5 c8bf efbf 3505 f9b1
00000010: 6f4e 82bf 3dad 64ae ff6e 6dbe 0ec4 52a9
00000020: 5eec 29af 6963 ceb2

conv1.weight f4 [30, 30]
3.3808326e-26 1.4140188e-36 2.6003526e-36 -1.7882935e-07 -2.5319384e-18 5.7892025e-37 1.6598708e-32 -2.77573e-38
4.1578415e-34 -1.6247291e-37 -2.8256236e-32 -1.165076e-31 -6.7134097e-37 -2.7614654e-27 2.0943713e-36 9.41228e-14
5.2160004e-36 -5.1748755e-37 -7.0385674e-29 -8.362043e-28 -1.1079772e-22 3.924448e-25 -9.058958e-24 -7.013615e-37
-2.3593197e-30 -2.6829562e-18 -3.992478e-20 1.0745886e-13 -4.748985e-37 3.6361608e-37 -3.4360791e-12 5.8433115e-38
1.0628191e-05 -1.1884731e-36 0.0012313435 4.511172e-37 9.755679e-07 -3.4235203e-08 9.51459e-37 -0.0002280179
2.7951525e-22 1.1099755e-36 -1.0247795e-11 -6.111278e-33 1.757921e-17 0.59696347 0.000658996 -6.312606e-07
9.522878e-09 -6.983242e-37 -8.6691285e-09 -3.054668e-11 -0.007022263 -3.5395927e-18 -9.686639e-14 -1.7870612e-05
0.06098195 1.732148e-36 -0.01844986 0.00023741777 -3.410443e-12 1.1910791e-36 1.2276749e-05 -2.6861047e-36
0.0012542801 1.097616e-36 3.3716094e-06 -3.5272897e-08 1.3999562e-36 -0.00022967157 1.5487174e-22 8.6765325e-37
-1.02799045e-11 -5.928679e-33 2.4232938e-17 0.8555721 0.0006381205 -4.044643e-06 9.81032e-09 -1.1434249e-36
-8.704014e-09 -2.5115823e-11 -0.0070476 -5.4864036e-18 -9.380763e-14 -1.9378145e-05 0.06050189 -1.6598697e-36
-0.018504528 0.00025566836 6.940552e-36 8.953678e-37 4.5924497e-38 3.998427e-37 4.8433574e-21 4.3780115e-37
1.0652571e-36 2.8156212e-37 -1.5266198e-36 1.7730653e-35 1.4817629e-35 -1.7164615e-37 1.743625e-27 1.0583935e-35
4.921696e-37 -9.903505e-08 7.257718e-37 2.8669867e-37 4.9346553e-37 5.9282104e-37 -5.4038864e-35 3.5941761e-35
1.0760604e-36 1.784283e-37 1.0443104e-38 1.6451786e-29 -2.1429258e-19 3.1133036e-37 -3.881428e-37 2.749834e-37
-1.15215495e-36 1.396855e-36 -2.9386144e-37 -6.1650043e-37 4.581553e-37 -8.574493e-37 -1.0149251e-36 -3.5778228e-37
-2.3552987e-36 -6.133043e-37 2.1725053e-36 8.10902e-36 -1.6180916e-36 2.3803721e-36 5.211668e-37 -4.2855066e-37
6.2014955e-37 -8.34543e-37 2.2141296e-36 -7.027175e-36 1.0859106e-36 -1.0822844e-36 1.02274125e-36 -1.6680565e-36
1.1942865e-37 -5.344713e-37 -2.639336e-37 -1.2520593e-35 -1.655903e-36 -2.2615738e-37 1.1233273e-36 2.0553006e-36
-4.3047609e-38 4.2170275e-36 -1.2673222e-37 -8.285578e-37 -7.037718e-37 1.7882605e-37 1.7494467e-36 -1.0054862e-36
-2.4047781e-36 1.0630337e-35 -1.0045212e-36 9.952681e-38 -3.050279e-39 -5.2766196e-37 -1.5784e-41 -3.612472e-36
3.7445538e-37 -4.7448994e-36 9.4644855e-37 2.977856e-37 -8.893819e-37 -3.293167e-36 -2.334381e-36 -6.366946e-37
4.7915143e-37 -2.1198326e-35 -1.1661766e-36 3.0701333e-37 3.737409e-12 1.2670294e-38 -1.5451365e-37 -2.9624784e-36
1.0420682e-10 2.5046912e-37 9.022432e-16 -9.195715e-11 -7.8903525e-37 -6.4215755e-36 -4.095415e-34 1.2822075e-36
-2.5973567e-15 1.4719845e-36 -1.8462746e-38 -0.33100313 -0.0003469123 7.524698e-10 3.9620356e-15 2.3701365e-37
2.9951786e-24 -7.37096e-36 -6.57117e-11 -2.4894142e-31 2.087742e-25 -1.8083111e-18 4.9024354e-08 -2.5831648e-36
0.00024083251 -6.080455e-06 -2.0181724e-14 8.887543e-37 7.90738e-09 -2.0194374e-37 -1.1201695e-10 -1.179547e-36
-5.6636926e-15 -6.384731e-09 -2.3248106e-36 0.0012719366 3.399858e-37 2.1561109e-36 6.68266e-16 -1.31440155e-36
-3.0955885e-37 -0.14054143 3.4490705e-11 2.1550366e-12 -1.8709556e-36 -1.8469883e-36 -1.5355275e-36 8.2383256e-38
-7.783836e-17 2.2022832e-36 1.6080449e-37 1.2390528e-24 8.717861e-06 -5.7874236e-37 -6.5616344e-33 -1.4652125e-37
-6.8956834e-15 2.2638497e-36 1.11878595e-08 2.565205e-36 2.6694463e-10 -4.8607174e-37 3.532211e-14 1.3022152e-09
5.2936944e-37 0.0007159691 -9.485941e-38 2.8153036e-36 3.0959397e-15 1.3460761e-38 -4.928802e-37 -0.12769291
00000000: 2569 2715 3495 f003 aa36 5d04 3d04 40b4
00000010: f7d2 3aa2 11ff 4403 ef5e ac0a 0820 1781
00000020: 012b 0a08 8c25 5d82 fbb6 128b 4a3c 178c
00000030: 0c72 6483 2cc9 5a93 5e2b 3204 1af2 d329
00000040: 37dd dd04 8617 3083 ea72 b290 7a80 8492
00000050: 3cf2 059b 5ce9 f216 ca39 2f99 34a9 6e83
00000060: 2769 3f8e 9cf7 45a2 198a 3c9f d1f9 f129
00000070: 7e99 2183 db76 f702 e6ca 71ac f011 9f01
00000080: bc4f 3237 4e35 ca83 0865 a13a da81 1903
00000090: 42f0 8235 010a 13b3 e2e1 a103 1718 6fb9
000000a0: e4f4 a81b 40da bc03 f747 34ad 41da fd89
000000b0: bc23 a223 99d2 183f 79c0 2c3a e673 29b5
000000c0: 0f9a 2332 9ea0 6d83 3bef 14b2 8158 06ae
000000d0: 031b e6bb 8296 82a2 ac1f daa9 d9e8 95b7
000000e0: 36c8 793d d85a 1304 2924 97bc 59f3 7839
000000f0: 14fd 6fac d0a6 ca03 3cf8 4d37 2e82 6484
00000100: a866 a43a ebbf ba03 cf43 6236 f67e 17b3
00000110: b130 ee03 fed3 70b9 7b3a 3b1b a19f 9303
00000120: 93d8 34ad 8744 f689 6882 df23 c606 5b3f
00000130: 8b47 273a 38b7 87b6 3e8a 2832 2e8b c283
00000140: a988 15b2 ceeb dcad 8eef e6bb 9e69 caa2
00000150: 6b3c d3a9 408e a2b7 d4d0 773d c334 0d84
00000160: cf96 97bc 3a0b 8639 f69b 1305 c556 9803
00000170: 6809 7a01 360f 0803 14fa b61d dcf9 1403
00000180: 7e3e b503 0a9f bf02 d6de 0184 6e8b bc05
00000190: 6c91 9d05 f4a1 6982 eb24 0a13 6c18 6105
000001a0: 057a 2703 18ad d4b3 a4f7 7603 f41d c302
000001b0: e9ea 2703 ffb9 4903 f2a8 8f86 6419 3f06
000001c0: 0a15 b703 30dd 7202 20b7 7100 47d7 a60f
000001d0: f5fd 7ca0 66e1 d302 0214 0483 dd24 bb02
000001e0: 6d07 c483 9ea9 ed03 e2fd c782 c3c8 5183
000001f0: f5e6 1b03 2fe3 9183 39ae ac83 777e f382
00000200: dd5d 4884 57b2 5083 fad0 3804 b475 2c05
00000210: eaa6 0984 ea7f 4a04 0858 3103 07d4 1183
00000220: a506 5303 79fd 8d83 795b 3c04 9473 1585
00000230: 14c2 b803 2224 b883 aa02 ae03 0ee7 0d84
00000240: d08e 2202 04df 3583 b89f b382 4c24 8585
00000250: 60de 0c84 2cea 9982 ce1f bf03 7cd8 2e04
00000260: 9c5f 6a81 5d5f b304 bc7f 2c82 c8f8 8c83
00000270: 2c7b 6f83 c967 7302 93d3 1404 1a13 ab83
00000280: 6e93 4c84 0f15 6205 12e9 aa83 0878 0702
00000290: f036 2180 d78d 3383 002c 0080 56a8 9984
000002a0: 54d7 fe02 61d3 c984 a607 a103 92a9 ca02
000002b0: 0c52 9783 6a13 8c84 5196 4684 eca7 5883
000002c0: fa0b 2303 556b e185 286a c683 44f1 d002
000002d0: 967f 832c a0f7 8900 2650 5282 1105 7c84
000002e0: 3927 e52e e075 aa02 e606 8226 4637 caae
000002f0: 553f 8683 6292 0885 f017 0888 0328 da03
00000300: c628 3ba7 f871 fa03 a00a c980 3e79 a9be
00000310: c8e1 b5b9 5bd6 4e30 54bf 8e27 9a4d a102
00000320: a0bd 6718 53c3 1c85 6680 90ae 7d92 a18c
00000330: 9839 8116 086e 05a2 d98e 5233 59c0 5b84
00000340: fc87 7c39 b606 ccb6 e3c7 b5a8 b636 9703
00000350: 06d9 0732 906f 8982 f053 f6ae 85b0 c883
00000360: 580e cca7 b060 dbb1 e4c5 4584 1cb7 a63a
00000370: e161 e702 f06b 3704 549d 4026 43a2 df83
00000380: c2ac d282 18ea 0fbe 15b1 172e b0a5 172c
00000390: ce29 1f84 d81f 1d84 d4a0 0284 c044 e001
000003a0: a87b b3a4 7b59 3b04 30e0 5a02 f0bb bf17
000003b0: ee42 1237 92ef 4483 a247 088a 346f 4782
000003c0: 7471 f8a7 4896 4004 ba34 4032 3839 5a04
000003d0: 1ec1 922f d266 2583 9f13 1f29 a0f9 b230
000003e0: 9522 3403 dfaf 3b3a ae1d 0182 e27f 6f04
000003f0: 0216 5f27 2093 9200 ecb7 2783 eec1 02be

conv1.bias f4 [30]
-1.2790282e-11 -3.5824814e-05 -0.07306533 -1.1348066e-05 -0.013059125 -4.258355e-09 -0.016322685 -9.2287046e-08
-9.667024e-10 -0.0007950943 -2.2829431e-12 -4.5744275e-07 -4.422825e-12 -6.9783948e-09 -2.498835e-07 -0.1260382
-0.017021067 -0.00012766093 -0.00891595 -1.6047747e-07 -7.1362125e-09 -2.794765e-10 -0.0037073032 -2.7298365e-13
-3.6418096e-05 -0.025250796 -0.2373509 -0.0018804441 -0.12315611 -0.100966096
00000000: 4f02 61ad 9a42 16b8 47a3 95bd 9363 3eb7
00000010: f1f5 55bc e350 92b1 27b7 85bc 572f c6b3
00000020: d1dc 84b0 e06d 50ba d9a5 20ac 7496 f5b4
00000030: 449d 9bac 9cc6 efb1 ba27 86b4 2810 01be
00000040: c46f 8bbc b8dc 05b9 3414 12bc b64f 2cb4
00000050: ca32 f5b1 d2a4 99af 3af6 72bb 17ad 99aa
00000060: a2bf 18b8 c2da cebc 1d0c 73be 3c79 f6ba
00000070: 4539 fcbd 50c7 cebd

conv2.weight f4 [30, 10]
4.3939473e-37 3.7732703e-37 8.2575846e-13 4.115963e-36 6.6524997e-37 -2.1547863e-37 -1.15485845e-36 6.1311474e-17
1.6582991e-35 -6.979656e-12 -6.1873713e-37 -4.648305e-36 9.672856e-38 -4.6888083e-29 -2.103966e-37 4.3869646e-37
-1.7957453e-35 4.5782375e-33 -8.46025e-05 -0.0019042101 -3.7438196e-36 -3.4652093e-37 -2.5130174e-37 7.0701655e-37
1.5445692e-37 -2.9681143e-37 1.808071e-37 1.12085424e-13 -1.4005442e-34 0.25648302 -5.076026e-37 5.3590514e-37
-6.6723335e-37 -4.0838023e-16 7.1497336e-34 4.4998276e-33 -2.6904816e-31 -2.1139837e-07 -3.011264e-35 -2.6591482e-21
4.7720056e-37 -2.8241922e-37 2.2376907e-37 6.362174e-37 0.0020673622 -5.881844e-38 -3.4589527e-07 0.0012520897
-8.6446704e-36 0.007394596 3.67194e-37 3.563833e-37 -9.225215e-37 6.186062e-36 3.0330785e-37 6.7183387e-37
3.4176063e-36 2.808379e-37 -2.3760857e-12 -7.2127693e-07 1.8883755e-37 -4.6255916e-37 3.0278984e-37 1.0924143e-30
1.7844544e-35 -6.692312e-36 -5.9123015e-35 6.1092358e-37 1.1667278e-37 -0.28738052 -5.7586627e-37 -3.339246e-37
-5.742262e-37 -7.367407e-37 1.0899279e-08 4.147777e-37 -7.846535e-37 1.3618357e-20 8.178082e-37 3.1064155e-07
-9.1871635e-27 3.6587737e-37 9.8617085e-30 -2.0141702e-09 4.6895213e-34 -3.118133e-29 -3.0005037e-30 -3.1927066e-05
-0.0005921929 -0.0038679242 1.1468755e-36 -6.1484533e-37 -4.418215e-36 -3.3020506e-37 1.104108e-37 -3.8792354e-37
-1.3906212e-37 -1.8623541e-06 0.00010155345 -0.0015929121 -3.3738975e-35 -2.3002312e-37 -2.8323988e-36 -4.182699e-34
-1.8968335e-36 2.4513789e-36 3.421119e-18 9.7565644e-05 -6.6047936e-14 -5.4305662e-08 1.6075859e-31 6.343516e-37
9.429159e-36 5.1601226e-37 3.4826877e-37 -9.703339e-37 -8.224673e-37 -1.1467428e-08 -3.106179e-05 -0.0017749112
6.672436e-37 2.4297104e-36 -5.295079e-37 -1.3029105e-36 -0.0037491992 3.0413818e-37 -2.9398455e-37 -2.7276215e-12
-3.3646627e-32 -6.184291e-12 -2.7498394e-28 -5.9757196e-38 1.0779937e-31 -2.4065882e-12 -2.513947e-34 9.7195504e-32
2.4394392e-31 -1.2617013e-10 -0.00067938265 0.0015338941 1.2344325e-36 5.152573e-37 3.2272469e-37 4.4123925e-37
-2.755359e-37 -4.0457007e-37 0.0009712421 1.4254325e-22 1.1491867e-36 -2.5177984e-37 -0.00034202426 -0.002831622
-0.016950328 1.0265162e-26 -0.26660365 2.4339904e-37 -0.7237794 0.04640106 -3.7026814e-05 -0.3422113
-3.264555e-39 -1.3089468e-37 6.9933224e-38 1.09093305e-36 -6.113628e-37 1.1069002e-36 -7.387251e-37 0.00054195756
-2.0573643e-36 0.0009430377 2.663905e-33 -2.9147792e-36 1.5565792e-35 2.9305014e-36 -2.508644e-05 -3.6487698e-37
1.741706e-36 -2.863186e-22 -1.2626988e-07 0.061373733 2.5863059e-36 3.3588862e-37 -5.2477906e-37 -3.9722227e-08
1.8199521e-31 -2.6530138e-27 -1.0727277e-26 1.6862467e-37 -2.4255929e-34 -0.05765657 1.8331583e-17 -1.1176997e-36
-1.4575546e-25 -4.7580024e-09 -4.3536586e-35 1.328811e-29 4.192724e-33 -0.0024046716 0.002192809 0.003793341
-1.9546167e-37 2.6948149e-37 -7.096645e-07 -1.84422e-36 1.8678314e-13 -6.0446375e-37 -6.355396e-37 2.2718557e-19
1.9518722e-36 9.759337e-10 -1.9648576e-36 -4.399408e-37 -5.962516e-38 1.6969913e-21 -1.4698604e-34 2.9777864e-34
-5.0484406e-35 -6.9818316e-06 -0.0019239871 0.0009921629 -3.4961282e-37 1.120505e-36 -5.393933e-37 -1.7174237e-36
-2.1484105e-37 1.4285155e-27 -1.0531082e-13 5.316765e-32 2.5097335e-36 -0.015039533 -3.5107053e-37 5.9106186e-38
-3.0598285e-37 4.4319618e-37 5.681024e-37 -3.2621672e-37 -6.5854306e-37 0.00015380404 -1.880288e-33 8.1401824e-29
3.3553607e-24 -9.504006e-07 1.5749025e-38 1.1103185e-35 -2.4817131e-36 -3.04616e-36 -3.7977637e-36 -2.6916083e-37
6.2189254e-37 -0.0013437528 -2.9105776e-15 2.8355312e-31 -7.5955175e-20 -5.135484e-36 -7.882851e-37 -2.6956664e-37
00000000: ae84 1503 d265 0003 2b6e 682b de12 af04
00000010: 725f 6203 aca5 9282 2e7d c483 e85f 8d24
00000020: 3257 b005 2793 f5ac 9b8b 5283 8fb7 c584
00000030: fca8 0302 36c0 6d90 4230 8f82 da47 1503
00000040: d6f4 be85 2c2c be09 9f6c b1b8 b096 f9ba
00000050: 963e 9f84 76d4 eb82 f006 ab82 d495 7003
00000060: 623c 5202 d8ff c982 141a 7602 d964 fc29
00000070: 0d2a 3a87 be51 833e 6cba 2c83 ec5b 3603
00000080: 390c 6383 496a eba5 3597 6d08 60ea ba09
00000090: 4b9f ae8c befc 62b4 341b 2086 68eb 489d
000000a0: 0862 2203 5e34 c082 124a 9802 5a7e 5803
000000b0: 957c 073b 781e a081 7cb3 b9b4 291d a43a
000000c0: 10da 3785 5e4e f23b 38e6 f902 ba8a f202
000000d0: 7af5 9c83 2090 0305 ae6b ce02 fc9c 6403
000000e0: 705e 9104 dd20 bf02 c133 27ac c69d 41b5
000000f0: 2484 8002 9666 1d83 6e11 ce02 1d41 b10d
00000100: 78c1 bd05 6a54 0e85 0a2d 9d86 f3e2 4f03
00000110: 88ce 1e02 8a23 93be 07f5 4383 df41 e382
00000120: 2866 4383 2bb3 7a83 893f 3b32 3c24 0d03
00000130: 7b80 8583 2b9f 801e 9224 8b03 40c6 a634
00000140: 74f8 3594 d400 f902 eb04 480f a869 0ab1
00000150: 09d6 1b08 ae1b 1e90 066e 738e 6de9 05b8
00000160: 653d 1bba 007d 7dbb 7921 c303 9538 5183
00000170: 1aee bb84 d6b9 e082 8c48 1602 e800 0483
00000180: 1448 3d82 00f6 f9b5 18f9 d438 43c9 d0ba
00000190: 1d63 3386 ae8b 9c82 2ff4 7084 78fe 0a88
000001a0: 605d 2184 4e8a 5004 1c6f 7c22 289c cc38
000001b0: 0bba 94a9 b53d 69b3 34ad 500c d1db 5703
000001c0: 3a89 4805 0297 2f03 fa04 ed02 0118 a583
000001d0: 81ef 8b83 4802 45b2 5848 02b8 23a4 e8ba
000001e0: 1e0d 6303 68b2 4e04 a52e 3483 c2ad dd83
000001f0: 20b5 75bb 58fc ce02 5513 c882 76f0 3fac
00000200: 0ab4 2e8b 2497 d9ac b24a ae91 b0ac a281
00000210: 7cee 0b0c 3d59 29ac 9714 a787 7e55 fc0b
00000220: 2354 9e0c bcb9 0aaf 9918 32ba f20c c93a
00000230: 1e07 d203 3e55 2f03 92a2 db02 5c25 1603
00000240: 2085 bb82 06ab 0983 f49a 7e3a 0053 2c1b
00000250: 2486 c303 3c5a ab82 b851 b3b9 bc92 39bb
00000260: 6adb 8abc 8e52 4b14 4680 88be 18a6 a502
00000270: 9b49 39bf 0a0f 3e3d 3d4d 1bb8 5236 afbe
00000280: 408c 2380 242a 3282 5860 be01 d69c b903
00000290: 3609 5083 4e54 bc03 0860 7b83 2812 0e3a
000002a0: 6d05 2f84 3036 773a fe4e 5d09 45f6 7784
000002b0: 1e86 a505 ab4c 7904 b870 d2b7 8952 f882
000002c0: ff2a 1404 a811 ad9b cd94 07b4 0663 7b3d
000002d0: c104 5c04 0d98 e402 b492 3283 0d9b 2ab3
000002e0: 483e 6c0c 8331 5293 c279 5494 1f85 6502
000002f0: 5335 a187 4c29 6cbd 3a14 a923 b02a be83
00000300: c06f 3496 d57b a3b1 ee7a 6786 e8c1 860f
00000310: b028 ae09 b297 1dbb 3bb5 0f3b b499 783b
00000320: 3a06 8582 4c66 b702 c67f 3eb5 8ee3 1c84
00000330: 934c 522a 38b0 4d83 4f43 5883 501b 8620
00000340: 030c 2604 9d21 8630 cf26 2784 40b4 1583
00000350: ac50 a281 9638 001d c260 4387 69e8 c507
00000360: e835 8686 7a45 eab6 4b2e fcba 760b 823a
00000370: 25ef ed82 e0a4 be03 c98b 3783 2d1a 1284
00000380: 9736 9282 795b e212 8e23 eda9 f707 8a0b
00000390: 2881 5504 6068 76bc 1ded ee82 00e7 a001
000003a0: bb3d d082 d5cf 1603 b350 4103 f802 de82
000003b0: 3117 6083 7546 2139 4e35 1c89 ce60 ce10
000003c0: e2cd 8118 081f 7fb5 e07d ab00 7d23 6c05
000003d0: ed1e 5384 bf91 8184 fc89 a184 6e2e b782
000003e0: 7b9e 5303 dd20 b0ba aeba 51a7 5809 b80c
000003f0: 1658 b39f 7870 da84 a91e 8683 2275 b782

conv2.bias f4 [10]
-0.003170864 -0.00015047047 -0.00028264924 -9.431948e-05 -0.03497664 -1.4034947e-11 -0.48160568 -0.24349828
-0.001226276 0.89164126
00000000: 45ce 4fbb 9cc7 1db9 8a30 94b9 63cd c5b8
00000010: aa43 0fbd c8e7 76ad 0595 f6be 9d57 79be
00000020: ffba a0ba 9a42 643f

rnn.weight_ih_l0 f4 [30, 1]
0.7981546 -0.3273346 1.6063845 -0.43334553 0.038210634 -0.32444367 -0.6106527 0.33962625
0.17853527 0.3424257 0.40693352 1.1836461 0.36938554 0.55204463 -2.799755 -0.36007357
0.88418955 0.6775823 0.67667985 0.7085989 -0.012448152 0.3827389 -0.32737514 -0.14822426
-0.19407174 0.5189382 -1.074585 -0.64759415 -2.057122 1.0942427
00000000: dc53 4c3f 6798 a7be 029e cd3f 77df ddbe
00000010: c182 1c3d 7b1d a6be bc53 1cbf 7ee3 ad3e
00000020: f3d1 363e 6c52 af3e 9759 d03e b781 973f
00000030: 1a20 bd3e cc52 0d3f 302f 33c0 905b b8be
00000040: 3f5a 623f 0976 2d3f e43a 2d3f bd66 353f
00000050: 55f3 4bbc 5af6 c33e b79d a7be 1ac8 17be
00000060: beba 46be 22d9 043f 008c 89bf bbc8 25bf
00000070: e3a7 03c0 2510 8c3f
