colagnn-master-Run-Epi/src/save/cola_gnn_epi.us_hhs.w-20.h-1.RNN.lam-0.1.epo-500.pt (torch, 49334 bytes, 32 tensors)

V f4 [15]
000000 b9 ce 09 3d b7 0e 38 3d ea db 97 3c b4 8d c8 bd
       0.03364441 0.04493591 0.01853748 -0.09792653
000010 75 83 bb bd 00 f2 61 b8 49 1f 8a 3b 40 57 28 3b
       -0.09155933 -5.386956e-05 0.0042151553 0.002568677
000020 88 4e 80 3e 04 f8 83 bb 26 82 67 bc fb d1 0a bc
       0.25059915 -0.0040273685 -0.014130151 -0.008472915
000030 4d ed 78 3d 81 e4 02 3a 70 38 24 3c
       0.060773183 0.0004993156 0.010023221

W1 f4 [15, 30]
000000 6f fb b8 3c bc 20 b7 bc 55 b6 1e 3c 2e 88 2a bc
       0.02258083 -0.022354476 0.009687026 -0.010408444
000010 14 b6 ae bc 8f 10 19 bc 3a 84 b9 bc 20 14 9b 3c
       -0.021327056 -0.009342327 -0.022646058 0.018930495
000020 bd ea b7 bc e6 53 c2 ba 8d 2f a1 3c c8 3d b5 bb
       -0.0224508 -0.0014826029 0.019675994 -0.0055310465
000030 66 29 96 bc 92 60 af 3b 0a b8 ae 3c 8b c3 b5 bc
       -0.018330287 0.0053520883 0.021327991 -0.022187969
000040 e0 2b b7 bc 86 24 a8 bc a8 8c b0 bc 9f bd d1 3b
       -0.022359788 -0.020525228 -0.021551445 0.0064007784
000050 d6 e7 93 bc 4a f5 ad bc 6f de 73 3c 56 6d 5b bc
       -0.018054884 -0.021235127 0.014884575 -0.013392767
000060 c6 aa a8 3c d2 d8 b6 3c 25 2b b6 3c b6 11 98 bc
       0.020589244 0.022320185 0.02223737 -0.018563133
000070 09 94 9e bc 7a 51 b8 3c d6 ed 7b 3b 29 54 89 bb
       -0.019357698 0.022499789 0.0038441322 -0.004190941
000080 a4 90 8b 3b 44 d3 2a bb aa fa 7f bb 08 50 82 bb
       0.004259186 -0.0026065866 -0.003905932 -0.0039768256
000090 34 a8 8a bb a2 66 83 3b 4e 16 79 bb 6c 77 03 bb
       -0.004231477 0.0040100375 -0.003800768 -0.0020060195
0000a0 41 7a 79 3b 19 ca 82 bb 2c 0f 7d bb 2d ff 7e 3b
       0.0038067254 -0.003991377 -0.003861378 0.003890942
0000b0 d6 e7 81 3b a3 95 88 bb d6 2d 86 bb 86 a1 8d bb
       0.0039644046 -0.0041682287 -0.0040948195 -0.0043222336
0000c0 e0 c8 8b bb 85 44 7a 3b 4c 2b 8b bb 24 1c 7e bb
       -0.0042658895 0.0038187813 -0.0042471047 -0.0038774097
0000d0 9e 28 7f 3b aa e3 8b bb 1c 98 81 3b 9e 6c 7e 3b
       0.0038934122 -0.004269083 0.0039549004 0.0038822065
0000e0 a1 00 88 3b 06 54 3b bb 3b 8a 8a bb 1e 9c 80 3b
       0.0041504656 -0.0028584017 -0.004227904 0.0039248606
0000f0 32 66 e4 3c be e1 e6 bc 94 25 ed 3c d6 00 0f bd
       0.027880762 -0.028183814 0.028948583 -0.034912907
000100 00 29 b3 bc 24 28 cf bc 3a 40 ca bc 9f de ed 3c
       -0.021870136 -0.025287695 -0.024688829 0.029036818
000110 35 20 f1 bc 4b 30 5d bd ae 53 cb 3c f6 43 ee bc
       -0.029434303 -0.054001134 0.024820175 -0.02908514
000120 96 a2 bf bc 72 48 aa 3c fc 95 e4 3c ee 5f ed bc
       -0.023392957 0.020786498 0.02790355 -0.028976407
000130 78 d9 02 bd bc d1 03 bd ff 5f ab bc 38 82 ad 3c
       -0.031945676 -0.03218244 -0.020919798 0.021180257
000140 17 fe 04 bd 26 69 ef bc a1 36 08 3d 5c 78 b1 bc
       -0.03246888 -0.029224943 0.033255223 -0.021663837
000150 8c 44 aa 3c e2 83 02 3d 24 af ed 3c e8 90 f6 bc
       0.020784639 0.031864055 0.029014178 -0.030098394
000160 de a7 f4 bc ac 76 ea 3c c4 81 c5 bc 76 0f c9 3c
       -0.029865202 0.02862104 -0.024109729 0.024543505
000170 50 d0 c5 bc f4 17 b9 3c bf 53 ca 3c 8e 8a c5 3c
       -0.024147183 0.02259443 0.024698136 0.02411392
000180 32 66 c8 3c 74 2d c6 bc ca 36 c9 3c 1f 32 00 3c
       0.024462793 -0.024191596 0.024562258 0.00782445
000190 34 44 c3 bc 12 d8 cb 3c d7 40 b9 3c 6b 59 ca bc
       -0.023836233 0.024883304 0.022613926 -0.024700841
0001a0 02 19 c0 bc 18 c5 ca 3c 63 34 b7 3c a0 ec c5 3c
       -0.023449425 0.024752185 0.022363847 0.024160683
0001b0 ea c1 c4 3c 20 06 c3 bc 9e 4a c2 3c 5f cb c2 3c
       0.024018247 -0.023806632 0.02371722 0.023778616
0001c0 bd cb c8 bc 6e 1f c5 3c 50 f1 b8 bc 31 81 b8 bc
       -0.024511212 0.024062838 -0.022576004 -0.02252254
0001d0 aa 6e c3 bc 73 40 ac 3c a2 1f c8 3c b2 3f ca bc
       -0.02385648 0.021026826 0.024429146 -0.024688575
0001e0 29 bf bb bc e1 15 e9 3c a7 da 02 bd 50 ad 88 3c
       -0.0229183 0.028452815 -0.031946804 0.016684204
0001f0 11 32 e3 3c 80 f8 03 3d df 4c 06 3d 91 d9 05 bd
       0.027733834 0.03221941 0.032788154 -0.03267819
000200 fe fb e2 3c d4 e0 74 3c a0 1c 04 bd 8f ab b8 3c
       0.02770805 0.014946181 -0.03225386 0.022542743
000210 4d 45 fe 3c c6 99 f9 bc a6 d3 a9 bc 74 66 03 3d
       0.031038905 -0.030468833 -0.020730805 0.03208013
000220 f6 99 90 3c dd d6 fe 3c f0 96 f9 3c bb f4 9d bc
       0.01765154 0.031108314 0.03046748 -0.019281736
000230 b7 52 06 3d b6 89 81 3c ad 20 c9 bc 8e 28 bb 3c
       0.032793727 0.015812736 -0.024551714 0.022846486
000240 63 8e 06 bd 3a fd f5 bc ba d1 f2 bc 32 0e e6 3c
       -0.032850634 -0.030027974 -0.029641021 0.02808294
000250 14 2b 3d 3d 8f 3b 00 bd 46 d0 11 3c e6 ea 00 bc
       0.04618366 -0.0313068 0.008899754 -0.007868504
000260 78 44 10 3c 9d 58 3d bc a6 62 0a bc b0 22 03 bc
       0.008805387 -0.011556772 -0.008446371 -0.008003876
000270 ce 0d 05 bc f7 7a 01 3c fc ff ff bb 84 45 cb bb
       -0.008120967 0.007902852 -0.007812498 -0.0062033553
000280 06 f9 0d 3c f4 54 ed bb d0 50 f5 bb ec 21 10 3c
       0.008665329 -0.007242793 -0.0074864402 0.00879715
000290 bf a3 03 3c 02 be e7 bb aa 79 1b bc 94 e2 ee bb
       0.008034646 -0.0070722112 -0.009489456 -0.007290194
0002a0 5c 52 17 bc ba 40 19 3c a4 70 fc bb d8 40 f3 bb
       -0.009235945 0.009353811 -0.0077038575 -0.0074235015
0002b0 bc 47 0e 3c 12 b1 fe bb 27 66 1e 3c e6 15 04 3c
       0.008684095 -0.0077725733 0.00966791 0.008061862
0002c0 34 5b 02 3c dc 90 dd bb e0 85 18 bc 98 64 ff 3b
       0.007956315 -0.0067616533 -0.009309262 0.007793974
0002d0 bd 19 a7 3b e8 2b ba bb 98 3e 08 3c 13 b1 db bb
       0.005099504 -0.0056815036 0.008315705 -0.0067044585
0002e0 2a 2c cc bb b9 be 0b bc cc bf df bb 5a 72 b4 3b
       -0.0062308507 -0.008529359 -0.006828284 0.005506796
0002f0 21 64 e6 bb 92 d1 08 bc e2 89 ef 3b 3a 2d ee bb
       -0.0070309793 -0.008350747 0.007310138 -0.007268575
000300 12 5a d4 bb 3a 4c d8 3b aa 7c d3 3b d0 65 cb bb
       -0.006480464 0.006600884 0.00645407 -0.0062072054
000310 b6 66 eb bb bc b6 b3 bb 00 a7 ed bb 69 3a 30 3c
       -0.007183875 -0.00548443 -0.007252574 0.010756114
000320 b4 c1 a7 bb e6 98 d6 bb b8 fa eb 3b 08 2a d3 bb
       -0.0051195268 -0.0065489886 0.007201519 -0.0064442195
000330 e8 f7 ca 3b a5 bd fe 3b 18 c0 ca 3b 6a fb 9e bb
       0.0061941035 0.0077740722 0.00618745 -0.0048517482
000340 64 01 08 bc c0 68 c9 3b 78 5a c1 3b b0 99 b6 bb
       -0.008301113 0.0061465204 0.0059006773 -0.00557252
000350 61 11 b5 3b da 81 04 bc 74 68 b9 bb 42 b8 ba bb
       0.0055257534 -0.0080876 -0.0056582037 -0.005698235
000360 dc 18 b8 bb c4 49 bd 3b 99 40 c4 bb f4 7a 85 bb
       -0.005618198 0.005776616 -0.005989146 -0.004073495
000370 76 f4 c2 3b 83 71 bd bb c8 0e a9 bb 17 04 b7 3b
       0.005949552 -0.005781354 -0.0051592328 0.0055852043
000380 e6 e3 be 3b 30 3d a6 bb c4 ca c2 bb c2 4c b2 bb
       0.0058255075 -0.005073212 -0.0059445817 -0.005441279
000390 35 e8 c3 bb c3 4f bf 3b 5b 9f a4 bb b9 6c b0 bb
       -0.005978609 0.0058383658 -0.0050238795 -0.0053840545
0003a0 e6 41 c0 3b 51 f2 bb bb 02 c0 c4 3b 6f c5 b3 3b
       0.0058672307 -0.0057356735 0.0060043344 0.0054861824
0003b0 b1 b7 b8 3b 62 c3 ac bb d0 dc ba bb 75 4b a2 3b
       0.005637132 -0.005272315 -0.0057025924 0.004952843
0003c0 ea 81 4a 3e 67 40 4a be b7 d6 47 3e 88 8b 3a be
       0.19776121 -0.1975113 0.19515501 -0.1821729
0003d0 2b 51 4b be b2 db 49 be bc 16 4b be c2 70 4a 3e
       -0.19855182 -0.19712713 -0.19832891 0.19769576
0003e0 40 6a 4a be 7d 71 4e be 1c cc 3f 3e 14 48 47 be
       -0.19767094 -0.2016048 0.18730205 -0.1946109
0003f0 ff 31 49 be eb 29 4a 3e 72 d5 3e 3e 62 e6 38 be
       -0.19647978 0.19742553 0.1863611 -0.18056634

b1 f4 [15]
000000 7d e2 64 3c c1 d3 82 3b c6 df 03 3d 07 79 c9 bc
       0.013970015 0.003992528 0.03219583 -0.024593843
000010 13 01 03 bd 28 8d 04 3c 44 b7 c6 3b 27 f8 b6 3b
       -0.031983446 0.008090295 0.0060643274 0.0055837813
000020 ac 59 4b 3e ce 93 b7 3c aa fc bd bc d8 c4 22 bc
       0.19858426 0.022409346 -0.023191769 -0.0099346265
000030 fe 78 52 3d 12 85 1a 36 e3 07 50 bb
       0.05138492 2.3025245e-06 -0.0031742982

W2 f4 [15, 30]
000000 1a 75 24 3c 89 7f b6 bc 28 ea 10 3c 0c cd 63 bb
       0.010037685 -0.02227761 0.00884489 -0.0034759669
000010 d4 84 16 bc eb a6 9f bc ce 0b af bc e9 99 cb 3b
       -0.009186942 -0.019488772 -0.021367934 0.006213416
000020 39 0b 93 bc a1 99 18 bc 70 c9 be 39 7b d8 b2 bc
       -0.017949687 -0.009313972 0.00036389707 -0.021831742
000030 9c 82 b5 bc 79 6e 6f 3c 2e b4 b9 3c ea 30 8b bc
       -0.022157006 0.014613741 0.022668924 -0.016991097
000040 cf d3 6e bc 69 9e b3 bc 15 89 a0 bc fb 60 6a 3c
       -0.014576866 -0.021926122 -0.019596616 0.0143053485
000050 6c ca 82 bc 70 7e a7 bb d5 89 8c 3c 02 51 b8 bc
       -0.015965663 -0.005111508 0.017155567 -0.022499565
000060 a4 7e a0 3c 54 98 b0 3c 40 56 df 3a 90 0f 35 bc
       0.019591637 0.02155701 0.0017039254 -0.011051074
000070 ce 46 41 bc dc e4 6f 3c 67 d5 8e 3b 74 af 76 bb
       -0.011796666 0.014641967 0.0043589356 -0.00376412
000080 9a 31 80 3b 90 52 7d bb 04 07 88 bb 18 54 8a bb
       0.003912163 -0.0038653947 -0.004151227 -0.0042214505
000090 f9 b9 83 bb ac 1e 86 3b f6 63 84 bb e8 54 a5 3a
       -0.0040199724 0.004093012 -0.0040402366 0.0012613805
0000a0 1c 9f 48 3b 58 ca 88 bb 58 d5 8e bb a3 0d 84 3b
       0.0030612415 -0.004174512 -0.0043589287 0.004029946
0000b0 3a a2 88 3b 64 b9 82 bb 91 3b 8d bb 43 92 82 bb
       0.0041697295 -0.0039893854 -0.0043100794 -0.003984721
0000c0 6e 4d 81 bb 22 b5 7e 3b c1 d6 80 bb a4 b5 39 bb
       -0.003945998 0.0038865288 -0.0039318507 -0.0028337026
0000d0 0e 5a 88 3b e5 60 84 bb fe a7 7f 3b aa d1 81 3b
       0.004161126 -0.004039871 0.0039010043 0.0039617615
0000e0 7a 4f 85 3b 61 85 16 bb 5f bb 81 bb 8c cc 8e 3b
       0.0040683122 -0.0022967684 -0.003959104 0.00435788
0000f0 de 09 d5 3c 38 05 ae bc 08 ca 06 3d 43 a1 aa bc
       0.026005682 -0.021242723 0.032907516 -0.020828849
000100 ee d1 00 bd 06 a6 db bc 46 2d fb bc 90 f9 aa 3c
       -0.031450205 -0.026812565 -0.030661236 0.020870954
000110 f2 f4 e8 bc 5a 0e 2a bd 98 52 ae 3c a6 2d b0 bc
       -0.028437112 -0.041517593 0.021279618 -0.021506142
000120 0b 07 0d bd 7c ce f4 3c 99 5b ad 3c 2c 1e ab bc
       -0.034430545 0.029883616 0.021161841 -0.02088841
000130 19 46 f2 bc f2 1c ab bc 7c e2 00 bd 4e 70 e9 3c
       -0.02957444 -0.020887826 -0.031465992 0.028495934
000140 2c bb aa bc a7 cc 6c bc d4 f5 e5 3c be 43 aa bc
       -0.020841204 -0.01445309 0.028071322 -0.020784255
000150 e5 a2 fd 3c 76 78 eb 3c 6a c0 ae 3c 28 ff 14 bc
       0.030961463 0.028743964 0.021331985 -0.009094037
000160 f8 9d ed bc b4 bb dd 3c 06 f0 b8 bc d0 d6 c8 3c
       -0.02900599 0.027067043 -0.02257539 0.024516493
000170 e8 e3 c4 bc d0 67 50 3c 1d e5 b9 3c 61 d0 c8 3c
       -0.024034455 0.012720063 0.022692258 0.024513425
000180 38 18 c5 3c 7c 2c 32 bc 78 d8 b2 3c 38 d8 f2 3b
       0.0240594 -0.010874864 0.021831736 0.007411029
000190 be f3 5a bc 12 57 79 3c 33 f2 ab 3c d3 ac c8 bc
       -0.013363777 0.015218513 0.020989513 -0.024496472
0001a0 55 5e cb bc 82 62 b8 3c 9d c6 b1 3c 2f 4e 7d 3c
       -0.024825254 0.02250791 0.021701152 0.015460535
0001b0 44 74 c7 3c 08 52 c4 bc e0 85 c1 3c 7e 32 0d 3c
       0.024347432 -0.023964897 0.023623407 0.008617995
0001c0 c2 c3 b1 bc 37 ac c3 3c 77 0e cb bc 5e ab c6 bc
       -0.02169979 0.02388583 -0.02478717 -0.024251636
0001d0 72 1f bb bc b7 11 97 3c 04 03 af 3c 28 54 9c bc
       -0.022842143 0.018441064 0.021363743 -0.019083098
0001e0 0f 7b 01 bd 4f 73 f3 3c 26 73 e8 bc ad ef e5 3c
       -0.0316115 0.02971807 -0.02837522 0.028068388
0001f0 a4 ad f1 3c 72 be 05 3d fa 12 c6 3c 1a 10 bb bc
       0.029501744 0.032652326 0.02417897 -0.022834826
000200 f4 2f cb 3c ca 33 47 3d 78 30 95 bc a5 d2 8e 3c
       0.02480314 0.048633374 -0.018211588 0.017434428
000210 d5 51 86 3c e7 17 f1 bc 4c 89 06 bd 5b 65 bf 3c
       0.016396442 -0.029430343 -0.03284578 0.02336376
000220 30 8c e7 3c 01 71 06 3d 18 d8 fe 3c b7 2d 04 bd
       0.028265089 0.032822613 0.0311089 -0.03227016
000230 9e 64 c3 3c a8 80 eb 3c 7c c6 02 bd 41 fc aa 3c
       0.023851689 0.028747872 -0.03192757 0.020872237
000240 2c 7f e3 bc cb c7 02 bd f6 ea a1 bc 39 7e 03 3d
       -0.027770601 -0.03192882 -0.019765358 0.032102797
000250 a9 40 f5 3c db cf fc bc f1 50 0a 3c ce b4 e9 bb
       0.029938059 -0.030860832 0.0084421495 -0.0071321493
000260 ac 8f 0b 3c 41 ae 09 bb 7b 86 e8 bb c2 f9 11 bc
       0.008518141 -0.0021008404 -0.0070961094 -0.008909645
000270 e2 31 ed bb 11 7a 0f 3b 3e 10 09 bc 7a 6e 95 bc
       -0.0072386125 0.0021892826 -0.008365689 -0.018241156
000280 7b 1b ef 3b 90 d5 ee bb 7d e6 e7 bb fe 58 e8 3b
       0.007296977 -0.007288642 -0.007077037 0.007090687
000290 65 db 01 3c 4c 34 11 bc 3a 12 e8 bb 78 a4 c5 bb
       0.007925843 -0.008862566 -0.007082251 -0.006031569
0002a0 86 11 16 bc 2c ba 0a 3c 49 98 eb bb 02 f9 e5 ba
       -0.009159451 0.008467238 -0.0071897847 -0.0017545524
0002b0 0e 39 e6 3b 10 62 03 bc 94 92 15 3c c6 eb 05 3c
       0.0070258444 -0.008018985 0.009129185 0.008173889
0002c0 00 64 e9 3b 72 95 d0 bb 16 ea 04 bc bc 1a f4 3b
       0.0071225166 -0.0063654715 -0.008112451 0.007449476
0002d0 0a 3e b5 3b d0 72 e5 bb 04 44 cc 3b 92 9c 15 bc
       0.0055310773 -0.007002212 0.006233694 -0.009131568
0002e0 d0 ac cd bb 44 cd c9 bb 74 a3 a7 bb 52 c5 a9 3b
       -0.0062767044 -0.006158503 -0.0051159207 0.005180993
0002f0 a7 5c a0 bb 0d c7 b4 bb 3f 04 8b 3b 5f 55 c9 bb
       -0.0048938575 -0.0055168928 0.0042424495 -0.00614421
000300 2c 86 d5 bb 0c d9 08 3c 70 0c bf 3b 84 46 bf bb
       -0.0065162387 0.008352529 0.00583034 -0.0058372635
000310 52 76 ef bb 38 c5 b3 bb de c0 be bb af 55 d4 3b
       -0.007307806 -0.005486157 -0.0058213314 0.006479941
000320 34 eb a4 bb 0c 29 a7 bb f6 62 a7 3b 04 73 d7 bb
       -0.005032921 -0.0051013287 0.0051082326 -0.00657499
000330 1e db d5 3b 29 78 ce 3b 34 f6 a5 3b f0 d0 2f bb
       0.006526365 0.0063009453 0.00506475 -0.0026827417
000340 d4 63 a0 bb f6 c2 af 3b 5a 72 b7 3b c8 b3 ba bb
       -0.004894713 0.0053638173 0.0055983486 -0.005697701
000350 50 28 b9 3b ec 2f 35 bb f8 d1 b9 bb 64 32 bd bb
       0.0056505576 -0.0027646972 -0.005670782 -0.0057738293
000360 e1 b7 b8 bb dc d7 05 3b 26 37 c1 bb f4 fe d9 ba
       -0.0056371544 0.0020422852 -0.005896467 -0.0016631768
000370 97 fb 46 3b a2 84 88 bb d4 ad 9d bb a4 aa ae 3b
       0.0030362362 -0.0041662017 -0.0048119817 0.0053304005
000380 50 27 c1 3b 11 dc be bb 75 87 a3 bb 98 09 63 bb
       0.005894579 -0.005824574 -0.004990513 -0.003464317
000390 0a 5f c0 bb f6 07 bf 3b fd 19 9c bb 2d 78 b5 ba
       -0.0058707045 0.0058298064 -0.00476384 -0.0013845019
0003a0 cc a5 b4 3b f6 e1 b7 bb 6a a8 c1 3b b4 7b c2 3b
       0.0055129286 -0.0056116534 0.005909969 0.0059351567
0003b0 0f 8d ac 3b de 11 67 bb 56 3c bd bb b6 b9 a1 3b
       0.005265839 -0.0035258452 -0.005775015 0.0049354685
0003c0 06 51 4a 3e 88 d1 4a be b4 fe 40 3e 5e 5f 11 be
       0.1975747 -0.19806492 0.18847162 -0.14196536
0003d0 06 3a 4b be 18 e5 4b be db 97 4b be 40 ff 15 3e
       -0.19846353 -0.19911611 -0.19882147 0.14648151
0003e0 c2 35 3d be e6 1c 48 be 32 ce 35 3e f8 58 37 be
       -0.18477538 -0.19542274 0.17754439 -0.17905033
0003f0 36 2b 43 be 14 bb 4a 3e 7c cd 49 3e 8e e4 3d be
       -0.19059452 0.19797927 0.19707292 -0.18544218

Wb f4 [10, 10]
000000 36 09 0e bd 1b 73 55 bd 4a 74 15 bd 75 d4 25 bd
       -0.034676753 -0.052111726 -0.036487855 -0.040485818
000010 78 a8 33 ba 06 1f 2b bd de 96 9e bc 39 e4 90 3c
       -0.0006853412 -0.041777633 -0.019359048 0.01768695
000020 24 e4 aa 3c 72 af 64 bd d2 30 0f bd 82 3d 53 bd
       0.020860739 -0.05583138 -0.034958668 -0.05157233
000030 fe 79 15 bd f7 93 25 bd f8 24 4a ba ce 24 2b bd
       -0.036493294 -0.040424313 -0.0007711197 -0.041783147
000040 e9 34 9e bc bf 55 78 3c 73 45 a9 3c 7e c1 64 bd
       -0.019312339 0.015157162 0.020662999 -0.05584859
000050 54 76 10 bd a7 7e 53 bd 1a c6 15 bd f4 26 26 bd
       -0.035269096 -0.051634457 -0.036565877 -0.040564492
000060 04 5c 3b ba 86 2a 2b bd 8f 8f 9e bc 5a 9f a3 3c
       -0.0007147195 -0.0417886 -0.019355563 0.019973446
000070 02 0c a9 3c 75 b3 64 bd c1 02 0e bd 88 70 55 bd
       0.020635609 -0.055835206 -0.034670595 -0.05210927
000080 23 34 15 bd d2 b5 25 bd a4 1b 4c ba b5 1c 2b bd
       -0.036426675 -0.0404566 -0.0007786101 -0.041775424
000090 64 b9 9e bc 0c 73 83 3c 40 c6 a8 3c f5 f0 64 bd
       -0.01937551 0.01604607 0.020602345 -0.055893857
0000a0 6e c7 0f bd 1d 9f 52 bd 4a 7c 15 bd 81 4d 26 bd
       -0.0351023 -0.051421273 -0.036495484 -0.040601257
0000b0 e4 7f 51 ba c2 12 2b bd 56 5b 9e bc 07 d1 b6 3c
       -0.00079917745 -0.041765936 -0.019330662 0.022316469
0000c0 af c4 aa 3c c6 a0 64 bd d4 99 10 bd 2e 69 55 bd
       0.02084574 -0.055817388 -0.035302952 -0.05210226
0000d0 13 8b 15 bd 17 78 25 bd e0 13 49 ba d6 2c 2b bd
       -0.036509585 -0.04039773 -0.0007670503 -0.041790806
0000e0 02 64 9e bc 1c 2d b7 3c c0 29 aa 3c fa a2 64 bd
       -0.019334797 0.022360377 0.020771861 -0.05581949
0000f0 1b 70 0f bd f6 85 52 bd fd 7f 15 bd 14 c0 25 bd
       -0.03501902 -0.051397286 -0.036499012 -0.040466383
000100 ec c8 50 ba d3 2c 2b bd 2b 6b 9e bc c3 25 ab 3c
       -0.000796451 -0.041790795 -0.019338211 0.02089203
000110 f1 2d a9 3c 26 a2 64 bd 5f 2d 0e bd 1c d6 53 bd
       0.02065179 -0.0558187 -0.034711238 -0.051717862
000120 ca db 15 bd dc e7 25 bd fc af 49 ba 97 16 2b bd
       -0.03658656 -0.04050432 -0.0007693765 -0.04176959
000130 81 f0 9e bc 03 23 7f 3c 1d bd a8 3c da 9d 64 bd
       -0.01940179 0.015572312 0.020597989 -0.0558146
000140 26 65 0f bd 7a 3e 55 bd a4 dc 15 bd c5 42 26 bd
       -0.035008572 -0.052061535 -0.036587372 -0.04059102
000150 78 63 34 ba af 14 2b bd 29 80 9e bc 0b 8a 9c 3c
       -0.0006881277 -0.041767772 -0.01934822 0.019108793
000160 70 ce aa 3c 52 a5 64 bd b8 0f 0e bd 65 09 54 bd
       0.02085039 -0.055821724 -0.03468296 -0.05176677
000170 81 d0 15 bd 5c 61 25 bd c0 59 3c ba 4a 23 2b bd
       -0.036575798 -0.040376052 -0.00071850047 -0.0417817
000180 e9 db 9e bc d8 53 a9 3c ba 58 ab 3c 1b e0 64 bd
       -0.01939197 0.020669863 0.020916332 -0.055877786

conv.weight f4 [10, 1, 20]
000000 33 d4 bd bd 04 32 85 bd 4c 67 9b bd b4 8a b7 bd
       -0.092689894 -0.0650368 -0.07588062 -0.089620024
000010 7d 43 d8 bd 80 10 c5 bd 57 18 26 bd cd 73 13 bd
       -0.10559747 -0.09622288 -0.040550556 -0.035999108
000020 01 c1 8f bd 4f 66 12 bd 8b 50 4c bd a0 80 97 bc
       -0.070192344 -0.0357421 -0.0498815 -0.01849395
000030 2d a5 36 bd 91 95 6b bc c5 5b 59 bc 72 93 6c bc
       -0.044591118 -0.014378921 -0.0132665085 -0.014439451
000040 68 19 22 bc 61 97 6f bc 97 5b 8a bc 71 a4 42 bd
       -0.009893753 -0.014623494 -0.016889377 -0.047520105
000050 a1 a2 87 bf 71 5b 7b bf 3e af 81 bf ba 76 67 bf
       -1.0596505 -0.98186404 -1.0131605 -0.9041554
000060 44 8d 4f bf b8 88 ca be 76 3b e3 be 5b 3c c1 be
       -0.8107493 -0.39557433 -0.44381303 -0.3774136
000070 c4 eb bf bd ad 8a 48 3d 08 90 a9 3d 47 d4 76 3e
       -0.093711406 0.048960377 0.08279425 0.24104415
000080 b3 aa bd 3e cd 13 fa 3e 0c f3 17 3f fb 35 40 3f
       0.37044296 0.48843232 0.59355235 0.7508237
000090 e2 14 76 3f de cf 94 3f a6 86 b9 3f 0b 53 e9 3f
       0.96125615 1.1625936 1.4494216 1.8228468
0000a0 16 66 1f bd f4 49 3d bd aa 02 d7 bc 25 0b c3 bc
       -0.038915716 -0.046213105 -0.026246388 -0.023809025
0000b0 86 3a dc bc 1d 0e 56 bc 63 b5 2c bc 5f d4 85 bc
       -0.026883375 -0.013064888 -0.010541293 -0.016336618
0000c0 27 23 69 bc a7 9f ef bb 26 64 31 bc 52 2f 20 bc
       -0.014229572 -0.007312733 -0.0108271 -0.009776907
0000d0 77 50 11 bc 64 76 eb bb 6d ea f4 bb 71 68 af bb
       -0.008869282 -0.007185744 -0.007474235 -0.0053530266
0000e0 03 18 c1 bb 53 10 c5 bb d0 d2 fa bb 84 f5 c7 bb
       -0.005892755 -0.006013909 -0.0076545253 -0.006102266
0000f0 e4 fa ff bb e8 a4 03 bc 6c 97 f4 bb 0e 1d d3 bb
       -0.007811891 -0.008034922 -0.00746434 -0.0064426726
000100 a2 cc bb bb 7c 7b 9f bb ce 9b a5 bb 3f 78 99 bb
       -0.0057311812 -0.0048670154 -0.0050539738 -0.004683524
000110 46 24 84 bb 77 e5 6f bb aa f3 74 bb a8 b8 4b bb
       -0.0040326444 -0.0036605278 -0.003737668 -0.0031085405
000120 e8 00 5c bb d8 fd 53 bb 86 e1 4f bb 65 41 53 bb
       -0.0033569876 -0.0032347348 -0.0031720116 -0.0032235023
000130 24 ee 47 bb d4 2d 29 bb 7e 97 2a bb f3 48 39 bb
       -0.0030506933 -0.002581467 -0.0026030238 -0.002827224
000140 5e ca f3 bd 28 14 b4 bd 5b 8c d3 bd 8d a0 68 bd
       -0.11903833 -0.08792907 -0.10329505 -0.05679374
000150 15 c1 b2 bd a5 66 8a bd 9a 11 6f bd b4 56 29 bd
       -0.08728234 -0.06757859 -0.058366396 -0.041342452
000160 05 2e e7 bc 57 94 31 bd bd 81 fd bc 3a 5d b0 bc
       -0.028220186 -0.04335436 -0.030945653 -0.021528829
000170 ce 57 01 bd b1 a5 ec bc 35 07 c8 bc 9e 7b c0 bc
       -0.031577878 -0.028887602 -0.0244175 -0.023496445
000180 d4 15 6e bc 7d 0b 63 bc e0 75 05 bd a0 b9 18 bc
       -0.014531571 -0.0138577195 -0.032583117 -0.0093216
000190 36 54 6b b6 82 c3 ee b5 ce 83 3b b5 e8 6a e5 b5
       -3.5066746e-06 -1.7789282e-06 -6.985473e-07 -1.7092943e-06
0001a0 d8 e7 8c 35 0a 63 3e b5 86 32 a5 b5 c3 6e 82 b5
       1.0498288e-06 -7.0924636e-07 -1.2308162e-06 -9.717991e-07
0001b0 58 e1 f9 35 a2 8f 32 36 11 16 99 35 fa 81 9d b5
       1.8617529e-06 2.6607672e-06 1.140581e-06 -1.173524e-06
0001c0 ce 02 8c b5 b1 b7 09 b6 29 20 3d b6 c1 de 17 b6
       -1.0431629e-06 -2.0521513e-06 -2.8181914e-06 -2.2630413e-06
0001d0 76 34 de b5 40 1d 24 b3 4c b5 b6 35 9c 9c da 35
       -1.6555557e-06 -3.821083e-08 1.3612821e-06 1.6287845e-06
0001e0 c3 88 85 34 5d 96 6e 34 5b c2 7a 34 32 71 c1 33
       2.4872688e-07 2.2220179e-07 2.335377e-07 9.007853e-08
0001f0 36 b9 47 b3 15 78 57 b4 07 aa 43 b4 20 85 c1 33
       -4.6501746e-08 -2.0067121e-07 -1.8222646e-07 9.011478e-08
000200 29 ab 39 34 7f 5a 42 34 5a 04 33 34 56 70 43 33
       1.7291735e-07 1.810058e-07 1.6672257e-07 4.5504144e-08
000210 0f fb 15 34 ea d4 5c 34 3f f4 54 34 80 1c 12 33
       1.3968041e-07 2.0566554e-07 1.9832895e-07 3.4019195e-08
000220 3a 3b 58 b3 da 14 4d b4 f6 ae 81 b4 c8 78 d6 b3
       -5.0345285e-08 -1.9099699e-07 -2.4155423e-07 -9.9871215e-08
000230 e8 6c 7f bd 24 6f 50 bd c0 45 86 bd 96 af 26 bd
       -0.06235972 -0.050887242 -0.065562725 -0.040694796
000240 73 92 b8 bd de 19 d9 bc 49 11 75 bd 97 5e 67 bd
       -0.09012308 -0.026501592 -0.059830938 -0.056486692
000250 87 b8 cb bc 04 c1 20 bd e2 99 bb bc 28 96 4d bd
       -0.024868263 -0.039246574 -0.022900525 -0.05019203
000260 19 2d a2 bc 02 f2 89 bc 16 03 2a bd 69 4c 02 bd
       -0.019796895 -0.016839031 -0.04150685 -0.03181115
000270 63 84 53 bd 1b 39 35 bd fd 58 2c bd 10 4d 1d bd
       -0.051639926 -0.044243913 -0.042077053 -0.03840357
000280 c2 b1 c5 bd 75 d9 4c bd 98 11 98 bd 5e 3f 95 bd
       -0.09653045 -0.05001207 -0.07425231 -0.07287477
000290 57 0d 51 bd 28 b8 85 bd ac 5b 73 bd 4d a6 dc bc
       -0.051038112 -0.06529266 -0.059413597 -0.026934767
0002a0 78 c0 bb bc 37 40 9a bc 9f 59 da bc c3 a8 24 bd
       -0.022918925 -0.018829448 -0.026654063 -0.040200006
0002b0 2e 78 0f bd 76 e7 84 bb dc bd f5 bc 61 4b 22 bc
       -0.03502672 -0.0040559126 -0.029997759 -0.009905667
0002c0 68 51 8b ba 6e b7 8b 37 92 6c be bc 30 78 94 bc
       -0.0010629119 1.6655507e-05 -0.02324513 -0.018123716
0002d0 0b 6c e8 bd f2 0d 72 bd 06 16 cb bd ad dd b4 bd
       -0.113487326 -0.05909533 -0.0991631 -0.08831344
0002e0 d7 8e a3 bd ac cf fb bc 68 eb f2 bc 52 d3 d7 bc
       -0.07986229 -0.030738674 -0.029653266 -0.026345883
0002f0 2c 16 b3 bc 9b 01 22 bd b0 73 21 bd 15 66 33 bd
       -0.021861158 -0.039552312 -0.03941697 -0.043798525
000300 cf d5 c0 bc 6b bb ba bc 4f a5 b4 bc ae a2 03 bd
       -0.023539452 -0.022794446 -0.022051482 -0.032137565
000310 50 ce a8 bc 65 53 dd bc ab 01 d5 bc 7f 0b d3 bc
       -0.02060619 -0.027017305 -0.026001772 -0.025762318

conv.bias f4 [10]
000000 88 9c 25 be ca 2a fb be 1f 8c 82 bd 9b 7c 36 bd
       -0.16172993 -0.49056083 -0.06374382 -0.044552427
000010 75 00 19 be 2a 08 f0 b7 52 e2 d2 bb 60 57 0b bd
       -0.1494158 -2.8614031e-05 -0.006435671 -0.034018874
000020 65 64 a9 bc 28 29 44 bd
       -0.020677755 -0.047890812

conv_long.weight f4 [10, 1, 10]
000000 61 27 72 b7 0f ef fd b4 3e 45 d8 33 c4 4e 99 35
       -1.4433493e-05 -4.729886e-07 1.0070879e-07 1.1422312e-06
000010 cb 02 47 35 2a 74 91 35 45 18 3e 35 fd c3 e1 35
       7.413734e-07 1.083715e-06 7.081583e-07 1.6820846e-06
000020 f0 14 70 b5 5c 8d 80 b5 1d d3 83 37 fe a5 64 37
       -8.9437435e-07 -9.577884e-07 1.5714724e-05 1.3628507e-05
000030 e0 0c b6 36 09 6d d8 36 c9 70 dc 36 c2 8e 93 36
       5.4255215e-06 6.449995e-06 6.569641e-06 4.3975606e-06
000040 e1 06 04 37 b7 1a 20 37 98 59 f1 36 a1 3b 27 37
       7.869415e-06 9.542963e-06 7.19279e-06 9.967859e-06
000050 80 45 c9 bd 92 2c 82 be b8 26 ff bd a3 79 03 be
       -0.09827709 -0.2542463 -0.12458557 -0.1283937
000060 d2 2b 27 be eb b0 74 bd 03 1f 0d bd 1d d1 6a bd
       -0.1632531 -0.059739035 -0.034453403 -0.057328332
000070 78 79 3b 3a 82 d0 3b 3c 4a bf dd b4 52 37 84 b4
       0.0007151584 0.011463286 -4.130364e-07 -2.4627167e-07
000080 88 c7 d2 34 7a d0 8a b4 b1 3b 5e 34 34 51 03 b4
       3.9260726e-07 -2.585619e-07 2.0697077e-07 -1.2229867e-07
000090 1e 29 49 b4 23 63 87 b4 df 93 33 b4 af 39 02 33
       -1.8734542e-07 -2.521784e-07 -1.6724469e-07 3.0320447e-08
0000a0 d3 cf 7f bd 71 f9 db bd a2 bd 98 bd 2e 24 55 bd
       -0.062454056 -0.107409365 -0.074580446 -0.052036457
0000b0 f4 be cd bc 2a f9 0b bd df 53 64 bd 72 d5 92 bc
       -0.025115468 -0.03417317 -0.05574405 -0.017924044
0000c0 0b c0 42 bd bb 49 0d bd ca 96 77 bd e0 54 5a bd
       -0.047546428 -0.034494143 -0.060446538 -0.0533036
0000d0 da 41 e3 bd 6d 3c ef bd f5 a7 50 bd 32 77 13 bd
       -0.110965446 -0.11681447 -0.050941426 -0.036002345
0000e0 a5 6c bd bd c4 2f 89 bd 11 fc a3 bd e4 9a 45 bd
       -0.09249238 -0.06698564 -0.08007062 -0.04824342
0000f0 21 61 87 34 80 f8 64 34 db 4b 7e 33 80 f5 6b 34
       2.521638e-07 2.1324558e-07 5.9207974e-08 2.1975393e-07
000100 35 59 73 34 b8 e8 25 34 5f 7a 43 34 ee 53 11 34
       2.2663592e-07 1.5451485e-07 1.8205309e-07 1.3534711e-07
000110 b7 12 9c b4 a8 f3 b3 b2 c0 e7 bc 35 db 6a 29 37
       -2.907088e-07 -2.0949145e-08 1.407454e-06 1.0098064e-05
000120 a3 37 d2 b9 34 02 2b ba 4a a8 da ba bc 6b 44 bb
       -0.00040095774 -0.00065234606 -0.0016682234 -0.0029971441
000130 5c 2f 3a bb 95 8b 1f bb 15 06 73 bb b1 c0 de bb
       -0.0028409576 -0.0024344672 -0.0037082483 -0.006797873
000140 d3 bd 4b be 83 4d 5c bd a6 af 51 be 18 3e c2 bc
       -0.19896631 -0.05378486 -0.20477161 -0.02371125
000150 8e 86 56 be 08 04 2d be 04 1c 25 bd 3e db d1 bd
       -0.20949766 -0.16896069 -0.04030992 -0.10246895
000160 05 ee f5 bc ab 6d b3 3c ee ae e4 bd a1 f1 0a bd
       -0.030020723 0.02190288 -0.11166178 -0.03392184
000170 7c e7 29 be a4 17 11 be d1 13 c2 bd 1f 5a be bd
       -0.1659221 -0.14169174 -0.09476436 -0.09294533
000180 bc 50 ca bd cb 88 60 bd c3 aa f4 3c 20 48 a0 bd
       -0.0987868 -0.054817956 0.029866582 -0.07826257

conv_long.bias f4 [10]
000000 87 8d 86 be f1 bd 04 be e0 66 b6 bc 04 ba d2 bc
       -0.26279852 -0.12963082 -0.022265851 -0.025723465
000010 7b e1 c2 be be ec 2b be 82 7e d0 bb 42 19 50 be
       -0.38062653 -0.16789529 -0.006362737 -0.20322135
000020 b5 23 e9 3d 39 df c8 3c
       0.11383764 0.024520503

conv1.weight f4 [30, 30]
000000 4f 05 08 34 07 9a 51 33 4d 95 5f 33 5c 88 4f 33
       1.2667918e-07 4.880169e-08 5.2057022e-08 4.831996e-08
000010 8e 49 cf 32 8c 1e 10 be 29 78 46 b4 47 0a 39 bd
       2.413142e-08 -0.14074153 -1.8483901e-07 -0.045175817
000020 f7 ba be 34 20 95 10 be fc f4 5f 34 18 5a 71 b4
       3.5526293e-07 -0.14119387 2.0857618e-07 -2.247765e-07
000030 35 ef 2f bd 44 ce 8a b7 4a 42 8c bc 77 3b 12 be
       -0.042952735 -1.6546932e-05 -0.017121453 -0.14280497
000040 d5 85 98 ba a3 6c ee bd 0c 6d 20 b3 63 e5 5c 33
       -0.0011636565 -0.116418146 -3.735208e-08 5.1431368e-08
000050 2d a9 82 bb 88 ab bc 31 ec da ce b3 f3 c0 ca bd
       -0.0039874525 5.491021e-09 -9.632444e-08 -0.099000834
000060 1e e7 84 bc 14 3b 6e 32 f6 3a e5 bd 71 5b 09 b5
       -0.016223487 1.3866856e-08 -0.111928865 -5.116954e-07
000070 fa 14 18 bd 1c 40 49 be ad d2 e6 b1 bd c8 98 33
       -0.03712938 -0.19653362 -6.717832e-09 7.114566e-08
000080 0e 75 dc 32 85 4d 77 b4 f6 59 aa 32 de 8e de b2
       2.5664601e-08 -2.3031869e-07 1.9831514e-08 -2.590917e-08
000090 84 18 93 31 29 b7 84 33 c6 af 7e 35 e8 30 40 36
       4.28105e-09 6.1800456e-08 9.487816e-07 2.8638697e-06
0000a0 21 e0 33 b4 8b 07 8c 37 d4 b4 8d b5 42 2e 4f b3
       -1.6752212e-07 1.6692813e-05 -1.0557947e-06 -4.8238014e-08
0000b0 10 8d 62 33 d5 7e 13 b2 f4 39 0c 32 cd dd 79 b4
       5.274802e-08 -8.585364e-09 8.1622495e-09 -2.3270623e-07
0000c0 83 2f 6a 33 72 39 02 b3 2c 42 6c 32 03 af bb b3
       5.4525582e-08 -3.032023e-08 1.3752054e-08 -8.7397005e-08
0000d0 00 6f 31 31 ab b0 81 b5 fd 07 24 b7 2d da 12 32
       2.5819986e-09 -9.662666e-07 -9.777022e-06 8.547926e-09
0000e0 74 9a d6 35 de e2 ce b7 3e 75 f6 35 de 54 27 b1
       1.5989194e-06 -2.4662757e-05 1.836255e-06 -2.434994e-09
0000f0 01 0c dc 31 a9 e0 3e 33 98 0a 4f 32 3a e6 6d b4
       6.4042074e-09 4.444215e-08 1.20513945e-08 -2.2156101e-07
000100 6a ab 80 b3 05 90 c1 33 47 7f e6 b2 65 0b c9 b2
       -5.9916445e-08 9.01346e-08 -2.6833403e-08 -2.3404661e-08
000110 47 ce bf 35 8e 1d bd 35 6b 24 81 b4 27 ce 13 37
       1.4290644e-06 1.4090199e-06 -2.405462e-07 8.809881e-06
000120 2f f1 8d b5 8c ca 17 b3 dd fb f3 b2 88 2b 69 33
       -1.0575512e-06 -3.5341643e-08 -2.8403457e-08 5.428913e-08
000130 2c cf 5b b0 d7 fa d0 b4 82 26 93 33 56 96 05 33
       -7.9966145e-10 -3.892553e-07 6.8522255e-08 3.1103205e-08
000140 07 36 a4 32 d7 ca 11 b4 40 e4 9f af b5 00 7e b5
       1.9116682e-08 -1.357797e-07 -2.9084113e-10 -9.46234e-07
000150 b7 56 36 b7 16 cd 82 32 e1 71 1d 36 c0 aa 7f b8
       -1.0868235e-05 1.5227254e-08 2.346111e-06 -6.095576e-05
000160 c6 64 00 36 31 80 42 33 34 37 f6 b2 78 0c 62 b2
       1.9132144e-06 4.5285734e-08 -2.8663273e-08 -1.3157766e-08
000170 2e ce 17 bd 00 b8 65 30 98 96 4a b2 48 d2 ac b1
       -0.037061863 8.3571194e-10 -1.1792189e-08 -5.029765e-09
000180 c0 43 e4 30 ea c6 e7 b1 a2 95 87 b2 34 c1 61 3f
       1.6608439e-09 -6.7455987e-09 -1.5784114e-08 0.8818543
000190 cf 66 eb 32 ec e3 ea 32 05 95 f0 bc 3b da 3a b2
       2.7404353e-08 2.7344832e-08 -0.029367933 -1.0876245e-08
0001a0 29 16 b6 32 db 6a b4 32 e0 aa 7c b1 ea b9 6e b2
       2.1197666e-08 2.100335e-08 -3.6767958e-09 -1.3895695e-08
0001b0 61 c6 23 bd 58 57 49 b2 18 17 29 32 92 eb 92 be
       -0.03998411 -1.17195995e-08 9.842346e-09 -0.2869535
0001c0 40 cd 03 b2 7a 4e 71 3f c5 41 e2 bc e8 f6 ca 30
       -7.671872e-09 0.9426037 -0.027619252 1.4767609e-09
0001d0 7b 85 db bc 4c e9 8f b2 b0 f2 aa 3f 09 8b fb bd
       -0.026797047 -1.6753482e-08 1.3355312 -0.12282378
0001e0 43 b4 c2 b1 b9 31 d6 b2 35 b9 16 b3 04 e2 4a 34
       -5.6666365e-09 -2.493549e-08 -3.509304e-08 1.889494e-07
0001f0 8c 53 ac b1 08 0c 39 b4 97 85 6e 32 08 37 02 b2
       -5.015357e-09 -1.7233845e-07 1.3883798e-08 -7.579509e-09
000200 1b 3a 25 b5 22 7a 33 b5 06 33 8a 32 16 87 5f 36
       -6.1551845e-07 -6.6860423e-07 1.6088517e-08 3.330822e-06
000210 f2 3e f0 34 b2 b8 0c b3 8f 2c 13 33 f2 4a 80 31
       4.4749282e-07 -3.276427e-08 3.426663e-08 3.7338106e-09
000220 9d 65 0c b3 bf 86 a5 34 94 ec 1b 34 fc 6d ae 31
       -3.2688707e-08 3.0831686e-07 1.4521567e-07 5.0765703e-09
000230 ae 7d 51 b3 22 b8 92 32 42 75 57 32 65 ca 03 35
       -4.877591e-08 1.7080371e-08 1.2541308e-08 4.9095826e-07
000240 8c 00 05 36 2b 1d dd b2 29 16 3d b4 a8 ff 58 37
       1.9818863e-06 -2.574105e-08 -1.7610058e-07 1.2934128e-05
000250 16 28 eb b4 98 53 10 32 c6 a7 63 b2 30 da e9 b1
       -4.3801327e-07 8.40091e-09 -1.3251286e-08 -6.8059975e-09
000260 74 3a ad b1 5a f5 88 34 24 13 50 33 bd b4 97 33
       -5.041608e-09 2.551049e-07 4.8446182e-08 7.0643615e-08
000270 f0 5d fd b2 1a bf c9 b2 fd 05 17 b5 f2 ab 17 b5
       -2.9495794e-08 -2.3486383e-08 -5.62606e-07 -5.6502097e-07
000280 a9 8f fb 33 20 9b 06 36 ba 57 cb 34 82 9a 78 32
       1.171423e-07 2.005785e-06 3.7875526e-07 1.4470631e-08
000290 42 37 be 32 5a 34 d2 b2 10 93 22 b2 a3 97 6f 34
       2.214404e-08 -2.4471024e-08 -9.463079e-09 2.2313775e-07
0002a0 f7 77 89 33 85 76 5e b2 92 b6 07 b2 e8 a7 ec 32
       6.401381e-08 -1.2949049e-08 -7.899546e-09 2.755037e-08
0002b0 10 af 9c 32 a9 a8 28 35 43 4b 58 36 c4 d1 0d b2
       1.82404e-08 6.283031e-07 3.2230316e-06 -8.254975e-09
0002c0 2e be 02 b5 eb 03 b8 36 e0 47 ec b4 e7 13 82 32
       -4.870552e-07 5.4840834e-06 -4.4010721e-07 1.5143042e-08
0002d0 f1 6d 8f 34 8e 87 f3 b2 88 fc 6b 32 d7 ff 72 34
       2.6715819e-07 -2.8350566e-08 1.3736219e-08 2.263108e-07
0002e0 cb db e7 32 01 a1 54 be 50 9e 1f 34 f8 1b 14 be
       2.699189e-08 -0.20764543 1.4865623e-07 -0.14463794
0002f0 a2 11 6e b5 94 24 d9 bd 23 8d 93 33 a4 2e 5d b6
       -8.868757e-07 -0.1060268 6.8708935e-08 -3.2958715e-06
000300 78 da 0a be 86 7d b0 ba 0d 58 da bc 11 e9 14 be
       -0.13559902 -0.0013465143 -0.026653314 -0.14542033
000310 62 6c 5e bb af 3d 8f bd fe 2a b1 33 ae a9 7f 32
       -0.0033939113 -0.06994187 8.250025e-08 1.4881534e-08
000320 11 de d0 bb 7d dc c6 33 59 86 b9 33 ff 5e 7c bd
       -0.0063741286 9.2602e-08 8.6391715e-08 -0.061614033
000330 c2 d9 15 3b 5a cb 9b 31 85 03 2e be 96 36 09 37
       0.002286539 4.534212e-09 -0.1699353 8.178546e-06
000340 84 77 da bd c5 8e 8c be c7 e5 4e 34 00 61 26 af
       -0.10667327 -0.27452675 1.9268838e-07 -1.5132073e-10
000350 6f b2 f7 b3 31 47 c6 b4 53 2c 8b 33 e3 0d ab bd
       -1.1534291e-07 -3.6932173e-07 6.4807544e-08 -0.08352258
000360 8b 66 0a 34 37 e3 fd bb 2d b2 97 36 f2 3f ec bc
       1.2889556e-07 -0.0077480334 4.520893e-06 -0.028839085
000370 50 19 db b3 5c b3 00 b7 72 96 26 3d b8 c6 27 b8
       -1.02025865e-07 -7.671155e-06 0.04067082 -4.0000974e-05
000380 ae 2e 40 bc 1d 59 d2 bb c1 e7 98 b9 4e 56 b2 bd
       -0.011729879 -0.0064193145 -0.0002916437 -0.087078676
000390 37 90 c7 32 ee 9d 25 33 6c 8d ed ba 38 cb b6 b3
       2.323223e-08 3.8560692e-08 -0.0018123812 -8.512001e-08
0003a0 1a 03 fa b4 ee 11 8d bd a3 be 0a 3c 2d 17 ae 32
       -4.6568385e-07 -0.068881854 0.008468303 2.0266805e-08
0003b0 eb e7 be 3d 70 3e ba b8 e7 f0 59 3d bb 3e 07 3d
       0.093215786 -8.880801e-05 0.053208258 0.03301881
0003c0 21 77 2a 34 85 d6 f7 32 e1 a4 09 b4 ea 5b 1a b4
       1.5875823e-07 2.8852137e-08 -1.2819102e-07 -1.4375806e-07
0003d0 22 d6 9b b2 44 77 d5 bd ee 67 84 b4 bc 10 a9 bb
       -1.8141751e-08 -0.10423139 -2.4662535e-07 -0.0051594656
0003e0 24 48 74 36 aa 5c 16 3b fa ba bb 33 6e 90 a5 b7
       3.6400825e-06 0.0022943416 8.741877e-08 -1.9736788e-05
0003f0 9a f5 1e 3d e1 fd 8d b8 82 05 4e bc 54 da 0b be
       0.038808443 -6.7706926e-05 -0.012574555 -0.13657504

conv1.bias f4 [30]
000000 32 f6 61 ba 2f 5e 24 ba 97 90 89 be f9 23 25 bb
       -0.0008619755 -0.0006270138 -0.26868126 -0.0025198443
000010 be a1 f6 bd 24 08 8b be 31 69 61 bc 65 dd ee bd
       -0.120425686 -0.27154648 -0.01375799 -0.116633214
000020 3d e1 9b bd c3 fc 33 bf fb 5f 29 bb da 62 eb bd
       -0.0761132 -0.7030756 -0.0025844562 -0.11493464
000030 5c c8 39 be c5 84 cc bc e3 3d a5 bd 8f cc ca bd
       -0.18142837 -0.024965653 -0.080684446 -0.09902298
000040 fa 01 7d bc 37 91 59 bd b2 35 4a bf 6c 6d eb bd
       -0.015442366 -0.053117003 -0.7898818 -0.1149548
000050 a2 fe fd bc d6 38 37 bf a3 4b 8c bd 45 32 9e be
       -0.031005207 -0.715711 -0.06850364 -0.30897728
000060 9b ac 6a be 12 38 7c ba 1e 77 12 bd dd d6 0c be
       -0.22917406 -0.0009621392 -0.03575813 -0.13753839
000070 65 ae ae 3d 3e 86 85 be
       0.08529357 -0.2607898

conv2.weight f4 [30, 10]
000000 50 b0 54 32 a4 c8 39 3a b8 1c eb 35 04 ab 14 31
       1.2380113e-08 0.0007087088 1.7517223e-06 2.1634046e-09
000010 93 06 63 b5 fc e9 51 b7 dc c8 fc 31 e6 81 af 32
       -8.4573657e-07 -1.25118495e-05 7.3570003e-09 2.0431752e-08
000020 86 59 52 33 ce 80 e2 31 dc 7e 2d 33 91 9b 97 b5
       4.8975856e-08 6.592109e-09 4.039508e-08 -1.1295652e-06
000030 3d 34 9b 36 59 57 77 33 0b 0b ac 36 b5 d0 70 b6
       4.6254413e-06 5.758861e-08 5.127285e-06 -3.588427e-06
000040 dd a5 b8 32 c3 71 e5 31 ef 4a 06 b2 80 2c 98 2f
       2.1495845e-08 6.6777104e-09 -7.8168645e-09 2.7680258e-10
000050 fb 0d d4 bc cc 32 df 38 9c d5 95 b9 f6 b8 de b2
       -0.025885573 0.0001064293 -0.00028578646 -2.5928312e-08
000060 68 9a 92 b9 88 bc 19 b9 52 88 c0 b1 84 f3 be 32
       -0.00027962332 -0.0001466145 -5.6034333e-09 2.222965e-08
000070 98 8d 05 b3 8c 44 2b 32 dc 36 2d 32 d5 e9 a0 3d
       -3.1095254e-08 9.969096e-09 1.0082399e-08 0.078571
000080 a3 6c 2f 3b fe 08 ac bb b5 2c 08 3a b0 1e 6f 3c
       0.0026767633 -0.0052500954 0.000519465 0.014594719
000090 a8 cb d1 32 0a 7d 9c 36 32 ed 6e 34 f2 ea ce bc
       2.4423414e-08 4.6637188e-06 2.2251768e-07 -0.025258515
0000a0 e4 3e 76 31 01 8b 67 3b 68 17 f1 33 8c 81 4d 37
       3.583346e-09 0.0035330656 1.12266946e-07 1.2249115e-05
0000b0 a3 66 1f 35 40 0b ed 37 27 b6 a2 32 cb 17 f2 b4
       5.938147e-07 2.825784e-05 1.8942115e-08 -4.5093324e-07
0000c0 20 0d 38 33 92 e0 8b ba ee cb a4 b3 2a 83 46 be
       4.2852776e-08 -0.0010671786 -7.67394e-08 -0.19385973
0000d0 e5 fd 2f be 55 30 4c b3 00 0b 3b bd 3a d3 78 bd
       -0.17186697 -4.754141e-08 -0.045664787 -0.060748316
0000e0 24 66 d5 b2 94 9a 2d b2 7c 46 af bd de 12 e4 b3
       -2.4842912e-08 -1.0105072e-08 -0.08558366 -1.0620509e-07
0000f0 8f 34 c6 32 03 40 84 3c 4b eb b9 39 62 0b d6 b2
       2.3074135e-08 0.016143804 0.00035461257 -2.4918055e-08
000100 39 04 02 38 7e e3 0e 3b f2 63 14 32 94 f6 ae 32
       3.0998348e-05 0.0021803076 8.637459e-09 2.0368397e-08
000110 df 36 0b b3 00 07 cb ae 6c bf b0 b3 47 e4 c7 bd
       -3.2413364e-08 -9.232615e-11 -8.230458e-08 -0.09760337
000120 ee 22 46 be 65 bc 3a 33 82 a2 15 be 9b ee 31 be
       -0.19349262 4.3477844e-08 -0.14612773 -0.17376177
000130 02 d6 b7 31 f2 b3 3c b2 61 f3 88 bd 9f a1 0c b3
       5.350331e-09 -1.0983955e-08 -0.06687046 -3.2743284e-08
000140 f2 51 3f b3 ef 96 15 3e 88 91 49 3d 84 09 05 bd
       -4.454518e-08 0.14608358 0.049211055 -0.032479778
000150 3b fb 08 3d aa 5f 83 3d e8 2d 6a 32 2d 34 23 bb
       0.033442717 0.06414731 1.36310305e-08 -0.0024902925
000160 37 73 d8 b3 d9 e9 fd bd be 18 1c bf 9e 02 88 be
       -1.0079241e-07 -0.123981185 -0.60975254 -0.26564497
000170 32 50 1f bf 26 73 1b bc a5 54 dd be ed 10 8c be
       -0.62231743 -0.009487903 -0.4322864 -0.27356663
000180 f0 e2 34 bd 17 be 23 b6 05 d8 f2 bc f4 aa 84 bc
       -0.044161737 -2.439954e-06 -0.029644022 -0.016194798
000190 64 37 d2 32 87 28 8f 3d eb a7 48 3d af dd 35 bd
       2.4472406e-08 0.06990152 0.048988264 -0.044400867
0001a0 53 e4 81 3c 40 e0 06 3d bc 6b e6 31 24 bf 08 bb
       0.015855944 0.032928705 6.706129e-09 -0.0020865882
0001b0 dc 95 33 b4 4b 6c 35 be 32 14 de 32 ef 08 95 34
       -1.6725193e-07 -0.17717092 2.5853385e-08 2.7759913e-07
0001c0 da 48 94 34 a6 78 d0 b2 00 0a 2e ae 28 c0 95 34
       2.7620155e-07 -2.4269251e-08 -3.95719e-11 2.7893225e-07
0001d0 b8 3d 6c b2 a5 71 17 b3 b1 c3 8f b3 17 55 8a 34
       -1.3751041e-08 -3.5260786e-08 -6.6945525e-08 2.5766414e-07
0001e0 85 17 05 bf 35 6e 02 be 0d 72 b7 3d f3 44 36 ba
       -0.5198901 -0.12737353 0.089573 -0.0006953023
0001f0 75 d9 a7 bc 7d a1 78 be 02 f1 f4 bc ba 8b d2 33
       -0.020489434 -0.24280353 -0.029900078 9.804303e-08
000200 e3 be 87 be d1 bb 6d bb 28 4e 89 b1 c0 f5 8e b3
       -0.26512823 -0.0036275277 -3.99611e-09 -6.657092e-08
000210 30 f0 60 b2 4b 0d dc 32 d0 66 a8 b3 5d df e8 b3
       -1.3093128e-08 2.5617416e-08 -7.841811e-08 -1.08439714e-07
000220 9d 1a 80 b2 14 f5 8c b2 cd 90 17 b3 65 5c 34 b2
       -1.4913264e-08 -1.6409594e-08 -3.5289123e-08 -1.0498387e-08
000230 45 73 84 33 11 77 e3 bc f7 ae e9 ba 90 8e 75 b2
       6.1676964e-08 -0.027766736 -0.0017828633 -1.4293292e-08
000240 62 00 9a ba 64 16 10 bc e2 9b 2e 32 0c 5e 1c b2
       -0.0011749382 -0.008794401 1.0163577e-08 -9.101779e-09
000250 63 0c 43 b5 14 48 0d b3 e4 4f 43 b3 15 9b d7 bd
       -7.2661186e-07 -3.2894675e-08 -4.5474636e-08 -0.105276264
000260 a9 ad 2d bd 33 a8 ad 33 e5 b1 d1 bd da 99 82 be
       -0.042401943 8.0865355e-08 -0.10239009 -0.25508004
000270 fe 90 ce b2 eb 65 01 b3 94 07 12 bd 72 60 75 b3
       -2.4047491e-08 -3.0127847e-08 -0.03565176 -5.7131224e-08
000280 94 ae 91 33 d5 ff 0f be 96 b7 0c bc b6 8c e3 b3
       6.783844e-08 -0.14062436 -0.008588692 -1.05961064e-07
000290 e1 a2 04 bc e4 54 a0 bd 9e db c4 32 d8 2b 76 32
       -0.008095474 -0.078286916 2.2917273e-08 1.43290535e-08
0002a0 dc f1 33 b9 bb cd ff b3 05 1e 29 b4 51 02 27 be
       -0.0001716087 -1.1911785e-07 -1.5750273e-07 -0.16309477
0002b0 34 2a 63 3c fa 69 11 34 34 cb 16 bd 70 46 90 bb
       0.0138650425 1.3542731e-07 -0.036814883 -0.004402928
0002c0 bf 36 fc b7 a0 5b e4 b3 83 0e e5 bd 55 df fb 33
       -3.0066234e-05 -1.0633744e-07 -0.111844085 1.1728722e-07
0002d0 36 6f a7 32 48 cb cf 3e 82 9b 47 3f ac 5d 47 b9
       1.9491932e-08 0.4058478 0.7797166 -0.00019013014
0002e0 2e 5a 12 3f 3b ab ba 3e a0 c7 60 b0 fd a8 1b b5
       0.57168853 0.36458763 -8.177441e-10 -5.798791e-07
0002f0 6e 09 f4 b3 d6 77 8a bb b4 07 37 32 4e 23 23 bd
       -1.1363851e-07 -0.0042257113 1.0653753e-08 -0.03982859
000300 4a 83 d4 ba f6 29 b3 b1 0f 57 93 39 41 5e 47 bb
       -0.0016213444 -5.214356e-09 0.0002810289 -0.003042117
000310 98 cb 5d b2 d8 ed 6a b1 38 4e 2f 33 46 d5 f0 31
       -1.2910185e-08 -3.418668e-09 4.0816502e-08 7.0091657e-09
000320 d8 8c 16 34 41 2f aa be c9 f1 43 be 83 91 93 32
       1.4021077e-07 -0.33239177 -0.19135202 1.7179223e-08
000330 6d b4 f7 bd 71 14 32 be ba 4a a2 b2 d0 de 40 b0
       -0.1209496 -0.1739061 -1.8893264e-08 -7.016583e-10
000340 76 88 00 be ce 3b 10 32 dc 21 40 32 fd 0f 9f 3e
       -0.12552056 8.395501e-09 1.118357e-08 0.31066886
000350 72 64 e9 3e b5 59 de 36 aa 2c e0 3e f4 5d 9d 3e
       0.45584446 6.626559e-06 0.43784076 0.30735743
000360 18 c5 03 b3 ca ac 17 b4 9e 77 39 33 1d f2 19 ba
       -3.068007e-08 -1.4125831e-07 4.318246e-08 -0.00058725645
000370 a0 a4 e4 32 90 48 6f bd f3 fe 19 bb 70 9a 1e 31
       2.6617556e-08 -0.05841881 -0.002349791 2.3079814e-09
000380 59 43 da b8 92 6e 31 bc ee e7 fa 31 2e 26 a1 b2
       -0.000104075945 -0.010829585 7.302325e-09 -1.8760229e-08
000390 a8 5f 89 30 e6 ba d5 b1 02 65 5e bf 38 00 ce bd
       9.995249e-10 -6.220364e-09 -0.86872876 -0.100586355
0003a0 9c d9 3e be 48 6a a4 bc 62 44 d9 be 1c 08 32 be
       -0.18637699 -0.02007021 -0.42434984 -0.17385906
0003b0 d9 6c 5a bc 68 2d c8 34 20 51 90 bd 44 b4 15 bd
       -0.013331615 3.728594e-07 -0.07046723 -0.036548868
0003c0 27 41 f0 be 71 2f 22 bd 13 9b a3 bd ac 58 9d bc
       -0.46924707 -0.039596025 -0.079885624 -0.019207321
0003d0 f7 55 08 3e 9a b6 ae be 02 c6 a7 bd 16 ba 34 b7
       0.13314043 -0.3412369 -0.08192064 -1.0772163e-05
0003e0 62 26 dd be dd fd bf bd 3f 8e ad b1 91 48 f7 37
       -0.43193346 -0.093745925 -5.051134e-09 2.9478486e-05
0003f0 b7 91 5f b5 63 59 98 b2 6d f4 20 35 fc 89 16 36
       -8.3286017e-07 -1.7735777e-08 5.996033e-07 2.243206e-06

conv2.bias f4 [10]
000000 07 ff 1a bf 0d 80 b9 3e 55 19 1e 3f 75 4a 09 be
       -0.6054539 0.36230507 0.61757404 -0.1340731
000010 89 33 d8 3e 2d ff 6a 3e 1f 90 99 bd be ce 93 bd
       0.42226818 0.22948904 -0.07498192 -0.07217167
000020 fb 4a 97 bd 2c 74 53 be
       -0.07387348 -0.20649785

rnn.weight_ih_l0 f4 [30, 1]
000000 f4 c3 5e 3e f7 fd 82 bd b2 26 81 3d 2b 0e 9a 3e
       0.21754438 -0.06396096 0.06306209 0.30088934
000010 73 a0 0d be 78 2e 4d be 51 17 93 bd 17 58 08 bd
       -0.13830738 -0.20037258 -0.071821816 -0.033287134
000020 35 dc 0e be 2f e5 8e 3f 75 8a d3 3d 26 6c 60 bc
       -0.1395119 1.1163691 0.10329143 -0.01369766
000030 4f 51 06 bd 75 75 a7 3d 8b 44 4e bd a9 55 48 be
       -0.032792386 0.081767 -0.050358336 -0.19563927
000040 25 54 b0 bb c4 bf 25 3d c2 07 59 be 7d 10 4c 3d
       -0.0053811246 0.040466085 -0.21194366 0.049820412
000050 5a 3e 8d bd 46 8c d6 be c3 d3 2c be 34 8c 5c bd
       -0.06896658 -0.41903895 -0.16877656 -0.053844646
000060 1f c9 0b 3d 4a 82 52 3e 33 ec 2d 3e df 4f 71 3f
       0.03412735 0.20557514 0.16984634 0.942625
000070 bc eb ae be 07 7d 32 3d
       -0.34164226 0.043576267
