colagnn-master-Run-Epi/src/save/cola_gnn_epi.us_states_covid_mov_14.w-20.h-2.RNN.lam-0.1.epo-500.pt (torch, 61046 bytes, 32 tensors)

V f4 [15]
0.01387223 -4.0952415e-12 -5.5742905e-13 -4.2549426e-14 1.5027223e-10 1.39544065e-08 7.6093734e-06 -0.004209182
-5.4380465e-09 7.710259e-11 3.2664982e-08 0.00059202214 3.160349e-11 -8.018093e-12 -3.620571e-13
00000000: 5a48 633c a816 90ac ffe6 1cab 26a0 3fa9
00000010: df39 252f 21bc 6f32 0554 ff36 2eed 89bb
00000020: 90d9 bab1 e68c a92e 874b 0c33 ef31 1b3a
00000030: 5efe 0a2e 480e 0dad edd1 cbaa

W1 f4 [15, 30]
0.0006181962 0.00062358205 -0.0005538501 0.00042326463 -0.0006162901 0.00061140495 0.0006164004 -0.00061649387
-0.000579631 0.0005690376 3.4503137e-05 -0.00061640586 0.0006201245 8.7947636e-05 -0.0006546729 -0.0006130342
-0.000617958 -0.00060378964 0.00061882345 -0.0006136924 -0.00061641703 0.0005408068 0.00061791175 0.00059502234
0.00060457544 -0.0014176619 -0.00062946265 -0.0055015124 0.0006871075 0.0006184586 7.0339025e-14 1.1737273e-13
-8.889238e-14 6.343972e-14 2.4966037e-13 8.831874e-14 9.204593e-14 -1.0508287e-13 -4.4923795e-14 7.12975e-14
-6.054466e-15 -6.574785e-14 3.0579096e-14 2.8856e-14 2.1260978e-14 3.2492861e-13 -1.082634e-13 -9.09868e-14
1.2099311e-13 -1.0548718e-13 5.1600393e-14 1.9904637e-13 1.04085536e-13 8.5045374e-14 -2.9673546e-13 -5.1817345e-13
-1.163351e-13 4.2876843e-13 2.1129072e-13 -1.13251544e-13 -3.528398e-14 -2.5247226e-14 3.0043337e-14 -2.7860242e-14
7.2063784e-15 -3.2410455e-14 -3.323761e-14 2.7755552e-14 3.8431796e-14 -3.4394413e-14 -5.780577e-15 3.7406988e-14
-4.209527e-14 -9.078971e-16 4.5412835e-14 -4.8146586e-14 3.0362706e-14 3.030879e-14 -2.6965741e-14 2.763116e-14
4.85402e-14 -1.9158798e-14 -3.1157097e-14 -3.2360043e-14 2.0427541e-14 -1.6064471e-14 2.8167879e-14 -3.6258157e-14
-1.6716542e-14 -4.8169263e-14 4.7970678e-15 4.6181236e-15 -4.4699487e-15 4.569702e-15 -5.368246e-15 4.6929594e-15
4.7265285e-15 -4.690639e-15 -4.6684822e-15 4.658276e-15 4.4219464e-16 -4.816232e-15 4.8838823e-15 -1.6944029e-16
-4.7876576e-15 -5.45432e-15 -4.472971e-15 -4.6500525e-15 4.606545e-15 -4.6590086e-15 -5.0409497e-15 -1.2935524e-15
4.5925864e-15 4.6681676e-15 5.3733775e-15 1.727543e-15 -4.5652247e-15 -1.7517993e-14 1.4740266e-15 5.143382e-15
-1.1724503e-11 -1.1670486e-11 1.0505707e-11 -1.2100417e-11 9.0040276e-12 -2.4418106e-12 -1.16828726e-11 1.2119812e-11
1.1736358e-11 -1.231952e-11 1.1246536e-12 1.1761203e-11 -1.1080124e-11 -1.943876e-12 1.1123791e-11 8.133046e-12
1.2177253e-11 1.3795617e-11 -1.2054078e-11 1.2058306e-11 1.2295351e-11 -1.7464474e-11 -1.1938373e-11 -1.1099697e-11
-7.33573e-12 3.5187245e-11 1.2115582e-11 5.644988e-12 -1.674329e-11 -1.0142118e-11 7.3127515e-10 8.201839e-10
-7.430815e-10 6.893476e-10 5.9721406e-10 7.939057e-10 8.008491e-10 -8.1116047e-10 -6.9080064e-10 7.3041356e-10
2.5413005e-11 -7.340044e-10 6.645333e-10 3.534029e-11 -4.1740444e-10 9.905443e-10 -7.9515156e-10 -7.981314e-10
8.323295e-10 -8.109373e-10 -4.4389337e-10 3.834586e-10 7.930328e-10 7.5414464e-10 -9.0875535e-10 -1.0204737e-09
-8.0382845e-10 -4.707857e-09 5.7632155e-10 8.2228474e-11 -1.2094485e-07 -1.4894412e-07 1.2857711e-07 -1.3709996e-07
-1.3195545e-07 -1.3237116e-07 -1.365611e-07 1.427452e-07 1.12365186e-07 -1.262262e-07 1.3308208e-09 1.2036459e-07
-9.917204e-08 -4.8144573e-09 6.144513e-08 -2.1425113e-07 1.4093918e-07 1.4103496e-07 -1.5015704e-07 1.4278322e-07
5.988013e-08 -9.893756e-08 -1.38903e-07 -1.2998501e-07 1.8925056e-07 2.269223e-07 1.4209488e-07 1.7078906e-07
-1.151857e-07 1.4988395e-08 -1.5981603e-05 -1.6260565e-05 1.1717462e-05 -4.15461e-06 1.2764616e-05 -1.3864445e-05
-1.558829e-05 1.5915864e-05 1.1968717e-05 -1.1619557e-05 5.1807756e-06 1.5310388e-05 -1.5574444e-05 -8.448016e-06
1.9178118e-05 1.22549645e-05 1.7288969e-05 1.4514531e-05 -1.6549218e-05 1.528517e-05 1.4266749e-05 -9.345559e-05
-1.4887422e-05 3.599198e-07 -1.1792579e-05 0.00013432637 1.8261593e-05 0.00039519393 -4.7630107e-05 -1.470325e-05
1.4448569e-10 8.186694e-11 -6.7895474e-11 5.8523644e-11 4.2367887e-11 9.4745586e-11 7.193549e-11 -9.4781044e-11
-9.9274464e-11 7.537349e-11 3.1525503e-12 -1.1968684e-10 1.3109973e-10 -1.7399433e-11 -1.5996224e-10 6.057451e-11
00000000: 720e 223a e277 233a 4030 11ba 9ee9 dd39
00000010: 878e 21ba b146 203a ee95 213a 349c 21ba
00000020: 61f2 17ba 782b 153a 76b7 1038 4c96 21ba
00000030: da8f 223a 8770 b838 5b9e 2bba 07b4 20ba
00000040: 76fe 21ba a347 1eba 8a38 223a 33e0 20ba
00000050: 0c97 21ba eec4 0d3a 5bfb 213a 46fb 1b3a
00000060: 5f7c 1e3a d7d0 b9ba 8602 25ba 0846 b4bb
00000070: 011f 343a 0e20 223a b063 9e29 6326 042a
00000080: f82a c8a9 82da 8e29 da8b 8c2a 4ae0 c629
00000090: de44 cf29 26a0 eca9 9c51 4aa9 368c a029
000000a0: 9822 daa7 0e0d 94a9 4cb7 0929 b4f4 0129
000000b0: 7a80 bf28 26eb b62a 9ac9 f3a9 52e2 cca9
000000c0: e439 082a 3889 eda9 3463 6829 361b 602a
000000d0: 3a61 ea29 5281 bf29 160c a7aa 55da 11ab
000000e0: 4ffb 02aa 0b60 f12a 67e4 6d2a 1205 ffa9
000000f0: a9e7 1ea9 2468 e3a8 9c4d 0729 58f1 faa8
00000100: 8ed1 0128 b6f6 11a9 5bb0 15a9 f2ff f928
00000110: d814 2d29 0fe6 1aa9 6a44 d0a7 5277 2829
00000120: 8b94 3da9 7ed7 82a6 6f85 4c29 3cd5 58a9
00000130: d1bd 0829 a87f 0829 c4e2 f2a8 1ee1 f828
00000140: 0a9b 5a29 2e91 aca8 b051 0ca9 97bc 11a9
00000150: b4fe b728 26b2 90a8 b5b6 fd28 cf4a 23a9
00000160: b991 96a8 61ef 58a9 24d5 ac27 ac62 a627
00000170: 000c a1a7 10a4 a427 5469 c1a7 e914 a927
00000180: 884a aa27 82ff a8a7 2633 a8a7 03d5 a727
00000190: 69e8 fe25 e685 ada7 ddf5 af27 f259 43a5
000001a0: 597e aca7 3983 c4a7 e027 a1a7 2a89 a7a7
000001b0: e1f7 a527 c5db a7a7 8e9e b5a7 a96b baa6
000001c0: 2277 a527 3f30 a827 a998 c127 16f7 f826
000001d0: c47a a4a7 bec9 9da8 fc6d d426 534f b927
000001e0: 7842 4ead 324f 4dad 80d1 382d 6fdf 54ad
000001f0: 8966 1e2d c0d3 2bac fb86 4dad c836 552d
00000200: dc77 4e2d 30ba 58ad eb47 9e2b c0e7 4e2d
00000210: 71ec 42ad c2c9 08ac 1ab1 432d fc13 0f2d
00000220: 7939 562d f0b1 722d be0e 54ad c821 542d
00000230: 574d 582d 809e 99ad a705 52ad 9744 43ad
00000240: 310d 01ad 51c1 1a2e bb23 552d 889d c62c
00000250: 8a46 93ad 0a6c 32ad ea02 4930 5073 6130
00000260: b641 4cb0 867c 3d30 3429 2430 263a 5a30
00000270: bf22 5c30 58f8 5eb0 c6e2 3db0 49c6 4830
00000280: 0089 df2d f8c2 49b0 60aa 3630 a16d 1b2e
00000290: 7478 e5af ae23 8830 d191 5ab0 8163 5bb0
000002a0: fbc9 6430 a4e8 5eb0 7008 f4af 00cf d22f
000002b0: b9fc 5930 364c 4f30 f9cb 79b0 ba40 8cb0
000002c0: 66f4 5cb0 c0c2 a1b1 066b 1e30 84d2 b42e
000002d0: 11dd 01b4 73ed 1fb4 020f 0a34 c035 13b4
000002e0: a3af 0db4 e821 0eb4 a1a1 12b4 8045 1934
000002f0: 6a4d f133 cb88 07b4 18e8 b630 913d 0134
00000300: 68f8 d4b3 6a6c a5b1 d1f3 8333 e70c 66b4
00000310: 1155 1734 656f 1734 da3a 21b4 f44f 1934
00000320: 7397 8033 8077 d4b3 5e25 15b4 0292 0bb4
00000330: cc34 4b34 eda7 7334 be92 1834 2462 3734
00000340: 025c f7b3 d4bf 8032 3b10 86b7 4c67 88b7
00000350: 1e96 4437 d467 8bb6 9c27 5637 569b 68b7
00000360: 99c3 82b7 0f83 8537 40cd 4837 9ef1 42b7
00000370: 86d6 ad36 cf6e 8037 dda5 82b7 f4bb 0db7
00000380: b2e0 a037 ac9a 4d37 c707 9137 7083 7337
00000390: 2dd3 8ab7 a738 8037 385b 6f37 96fd c3b8
000003a0: fec4 79b7 003b c134 bed8 45b7 f6d9 0c39
000003b0: 7930 9937 0832 cf39 70c6 47b8 faad 76b7
000003c0: 1bdd 1e2f fd06 b42e c14d 95ae e2b1 802e
000003d0: 0056 3a2e 0659 d02e 1530 9e2e fc6c d0ae
000003e0: 8e4e daae 81bf a52e 4cd7 5d2c da98 03af
000003f0: 4b25 102f 0a0c 99ad 5ee1 2faf 6b34 852e

b1 f4 [15]
0.0006163896 9.6480224e-14 -3.2338654e-14 4.7435484e-15 -1.2882028e-11 7.956536e-10 -1.408745e-07 -1.5050169e-05
6.1784675e-11 -2.1798709e-12 -4.3241782e-10 3.9512206e-06 1.8830465e-12 4.84421e-13 -7.006914e-14
00000000: 3595 213a 1041 d929 eea3 11a9 83e7 aa27
00000010: 7f9f 62ad 25b5 5a30 4a43 17b4 fc7f 7cb7
00000020: aedd 872e 1065 19ac 66b9 edaf ba94 8436
00000030: f381 042c 365a 082b 1cc8 9da9

W2 f4 [15, 30]
0.000627787 0.00068168173 -0.0005288987 0.00025156187 -0.0006193031 0.0006096848 0.0006164181 -0.00061677524
-0.00060498284 0.0005343595 2.7043257e-05 -0.0006165594 0.0006521982 0.00023926365 -0.0007558698 -0.000612444
-0.00065223436 -0.00059854495 0.00062861876 -0.0006130156 -0.0006182324 0.00041349506 0.00063774444 0.00058678596
0.00059992104 -0.0033220283 -0.00069044146 -0.004323098 0.0010499329 0.00062886643 2.0069211e-13 1.9045873e-13
-1.019923e-13 2.8602262e-13 2.6173448e-13 8.074162e-14 8.686217e-14 -2.2456828e-13 -2.6571549e-14 1.0344567e-13
6.311959e-14 -1.4517245e-13 -9.549246e-15 -1.3918475e-13 -4.0830566e-14 3.2239372e-13 -1.3052152e-13 -1.2809071e-13
2.258292e-13 -2.1227964e-13 4.086531e-14 -3.7750326e-13 1.2313207e-13 1.7616944e-13 -2.4139e-13 2.1973404e-12
-1.8924706e-13 -2.0612982e-12 -2.7142237e-13 -2.2260114e-14 1.8645076e-15 1.125585e-14 3.0111317e-14 -1.0050461e-14
1.0600617e-17 -3.2032513e-14 -3.1849628e-14 -6.1997636e-15 3.8651604e-14 -3.3670413e-14 -4.4580936e-15 1.4064626e-14
-4.554542e-14 -1.32284574e-14 2.5134137e-14 -4.828011e-14 2.8979355e-14 2.24204e-14 1.7195218e-15 -1.6513873e-15
4.86072e-14 3.4226967e-15 -2.5869704e-14 -1.0948551e-14 -2.7866576e-14 1.2131181e-13 -5.5480065e-15 1.7924683e-12
-2.138726e-14 -4.1995853e-14 4.179467e-15 3.734134e-15 -4.594019e-15 5.2879123e-15 -5.366019e-15 4.7500252e-15
4.7764438e-15 -4.1871655e-15 -4.334296e-15 4.6745987e-15 3.4481848e-16 -4.5824538e-15 4.703196e-15 3.3214326e-17
-4.3836797e-15 -5.460179e-15 -4.730059e-15 -4.5567687e-15 4.1139166e-15 -4.2751794e-15 -5.0355596e-15 3.1802885e-15
4.702484e-15 4.470974e-15 5.3279694e-15 4.4031047e-15 -3.8334407e-15 1.177329e-13 3.9059645e-15 4.9609724e-15
-1.3429277e-11 1.4755357e-11 -1.2584898e-11 -8.218324e-12 9.754485e-12 1.3927606e-11 1.587745e-11 -1.2069777e-11
1.0600465e-11 -1.3181175e-11 5.505158e-12 -1.4462197e-11 -1.106774e-11 -3.672691e-12 8.552658e-12 8.80629e-12
-1.6262252e-11 1.4105829e-11 -1.4025724e-11 -1.2232828e-11 1.2564535e-11 5.2133e-11 1.6719914e-11 1.3429889e-11
1.8846763e-11 -8.106751e-12 1.477041e-11 -7.5474343e-10 4.0865873e-11 -1.0549751e-11 8.934479e-10 9.329548e-10
-6.946507e-10 3.283456e-10 6.1217603e-10 7.964054e-10 8.0436013e-10 -8.7134183e-10 -7.000508e-10 6.6219824e-10
6.4828365e-11 -8.3937624e-10 6.961747e-10 3.9503456e-10 -8.101565e-10 9.921194e-10 -8.9046603e-10 -8.2629e-10
8.8083874e-10 -8.6897917e-10 -4.6462378e-10 -3.9578912e-10 8.746624e-10 8.2771606e-10 -6.736539e-10 -4.5323167e-09
-9.569965e-10 -2.1564237e-08 1.9210917e-09 3.7546297e-10 -1.5861983e-07 -1.1647107e-07 1.586882e-07 -3.375917e-07
-1.4756027e-07 -1.4246176e-07 -1.408316e-07 1.7060079e-07 9.278989e-08 -1.6005521e-07 -3.931018e-08 1.6218043e-07
-6.2304764e-08 1.361209e-07 6.472747e-08 -2.1228861e-07 1.5014854e-07 1.5668525e-07 -1.6354497e-07 1.7179315e-07
5.8000406e-08 4.2790575e-07 -1.5248649e-07 -1.7320082e-07 1.1449465e-07 -2.1437372e-06 1.1908925e-07 -7.137899e-06
2.651338e-07 -6.3786636e-08 -2.12681e-05 -3.6964564e-05 5.9022987e-06 5.247319e-05 1.2840812e-05 -1.3683524e-05
-1.50496835e-05 1.6737882e-05 2.9479914e-05 -4.964828e-06 -6.702822e-06 1.5474738e-05 -2.7858798e-05 -3.765392e-05
4.5050598e-05 1.189855e-05 1.7458568e-05 1.4038049e-05 -2.0355337e-05 1.6147646e-05 1.4792518e-05 0.00015834124
-1.5343105e-05 1.2445144e-06 -1.117713e-05 0.0006680756 3.7330952e-05 0.000768513 -6.4425236e-05 -1.7776934e-05
2.741971e-11 -6.5158386e-11 -4.8787974e-11 4.3570986e-10 5.80494e-11 6.487089e-11 6.60747e-11 -9.931186e-12
-6.112174e-11 1.0597537e-10 1.636635e-10 -7.225475e-11 6.633779e-11 -3.2358835e-10 -2.855354e-10 1.14464264e-10
00000000: 1392 243a e3b2 323a caa5 0aba 10e4 8339
00000010: ba58 22ba 41d3 1f3a 1e97 213a 16af 21ba
00000020: b697 1eba 4214 0c3a f4da e237 9aa0 21ba
00000030: 48f8 2a3a d9e2 7a39 9025 46ba 6c8c 20ba
00000040: b5fa 2aba ace7 1cba e4c9 243a c8b2 20ba
00000050: e010 22ba 5eca d839 4e2e 273a 8ad2 193a
00000060: 0544 1d3a 63b6 59bb befe 34ba c6a8 8dbb
00000070: e79d 893a 83da 243a 90f5 612a fe6f 562a
00000080: 8faa e5a9 3404 a12a ea57 932a 60d0 b529
00000090: a298 c329 66d7 7caa d255 efa8 5ef0 e829
000000a0: f721 8e29 1c73 23aa 2006 2ca8 46b5 1caa
000000b0: 70e2 37a9 d57d b52a 44f4 12aa a237 10aa
000000c0: d642 7e2a 7101 6faa 7f0a 3829 f483 d4aa
000000d0: 67a2 0a2a 6259 462a f7e3 87aa c49f 1a2c
000000e0: c012 55aa 0c0d 11ac 16cc 98aa 5480 c8a8
000000f0: 185a 0627 72c4 4a28 fc9b 0729 920d 35a8
00000100: 008c 4323 f942 10a9 1f70 0fa9 ba5e dfa7
00000110: 4412 2e29 58a3 17a9 a89e a0a7 a45d 7d28
00000120: 4b1e 4da9 7e4d 6ea8 6063 e228 2d6f 59a9
00000130: ec82 0229 ecf1 c928 28cf f726 70fd eda6
00000140: 49e8 5a29 9ca1 7627 7a03 e9a8 483b 45a8
00000150: f3ff faa8 c095 082a 54e3 c7a7 7a44 fc2b
00000160: aaa3 c0a8 ec21 3da9 c794 9627 4f89 8627
00000170: 5984 a5a7 6284 be27 ca54 c1a7 4023 ab27
00000180: eb16 ac27 c9db 96a7 d328 9ca7 906b a827
00000190: 3ac6 c625 ad19 a5a7 5473 a927 8e2c 1924
000001a0: 4ff0 9da7 43b9 c4a7 186b aaa7 c62c a4a7
000001b0: 2f38 9427 9207 9aa7 d76c b5a7 f829 6527
000001c0: c26c a927 7515 a127 d8f5 bf27 79a3 9e27
000001d0: 401d 8aa7 338e 042a 2aba 8c27 e5bc b227
000001e0: 1640 6cad 1cca 812d 5865 5dad 0a94 10ad
000001f0: 4c9a 2b2d 5c04 752d d7a8 8b2d 7155 54ad
00000200: 407c 3a2d bce2 67ad 0eb2 c12c f26b 7ead
00000210: abb4 42ad a938 81ac bf75 162d 01ec 1a2d
00000220: 560b 8fad 0227 782d 3fbe 76ad c233 57ad
00000230: a309 5d2d 8a48 652e e611 932d d842 6c2d
00000240: 23c7 a52d 909d 0ead 02ec 812d 5976 4fb0
00000250: e2ba 332e db97 39ad cf96 7530 6e39 8030
00000260: b3f1 3eb0 8982 b42f 0f46 2830 0cea 5a30
00000270: d019 5d30 3b83 6fb0 b26d 40b0 0f06 3630
00000280: 208f 8e2e dab9 66b0 f05c 3f30 2c2c d92f
00000290: b2b1 5eb0 195b 8830 fac4 74b0 fd20 63b0
000002a0: 841f 7230 f9dc 6eb0 fc6d ffaf 5e96 d9af
000002b0: e56c 7030 5785 6330 2e2c 39b0 aeba 9bb1
000002c0: 5287 83b0 423c b9b2 3404 0431 b769 ce2f
000002d0: 1651 2ab4 a61e fab3 e163 2a34 403e b5b4
000002e0: 0f71 1eb4 97f7 18b4 7f37 17b4 632e 3734
000002f0: c843 c733 a4db 2bb4 00d6 28b3 d123 2e34
00000300: 68cc 85b3 a128 1234 4e00 8b33 73f1 63b4
00000310: 8438 2134 503d 2834 e69a 2fb4 2476 3834
00000320: 1f1c 7933 ebba e534 2bbb 23b4 14f9 39b4
00000330: 19e0 f533 20dd 0fb6 02be ff33 1682 efb6
00000340: b657 8e34 13fb 88b3 e668 b2b7 660a 1bb8
00000350: 5c0c c636 a916 5c38 de6e 5737 4a92 65b7
00000360: e67d 7cb7 5468 8c37 a24b f737 8c97 a6b6
00000370: cde8 e0b6 bfcf 8137 50b2 e9b7 97ee 1db8
00000380: b6f4 3c38 e29f 4737 fd73 9237 f684 6b37
00000390: c1c0 aab7 ce74 8737 622d 7837 6708 2639
000003a0: 11b5 80b7 3009 a735 6885 3bb7 cb21 2f3a
000003b0: ce93 1c38 0976 493a 091c 87b8 ad1f 95b7
000003c0: b32f f12d e948 8fae 6092 56ae b688 ef2f
000003d0: d04d 7f2e 11a7 8e2e c04c 912e 16b6 2ead
000003e0: 7b68 86ae d40a e92e 2ef3 332f cfe3 9eae
000003f0: dbe0 912e 03e5 b1af 89f9 9caf a7b5 fb2e

Wb f4 [55, 55]
-0.006940345 -7.942389e-05 0.022931956 0.0026848055 0.010531131 0.026742091 0.0040942132 -0.0018482439
-0.015427492 0.025583288 -0.002603205 0.0010517597 0.000645314 0.024683874 0.00713683 -0.007856745
-0.008277758 -0.006196822 0.025305117 0.0044899825 -0.00872425 0.0037648934 -0.020983556 0.0099425465
-0.008311989 0.0052324105 0.014705978 0.017377947 -0.010805139 0.022212707 -0.0018026526 0.0059378166
-0.0033920032 0.006860465 0.0030902848 0.0014163218 -9.74728e-05 0.009388672 0.02037601 -0.0071243756
-0.003718445 0.0006089979 -0.00905337 -0.0006972011 -0.009087449 0.028531473 0.0073606437 0.022238346
0.00839977 0.0012187248 0.038827274 -0.011683892 0.0025319755 -0.003970542 0.0014141491 -0.011257067
0.0018921739 0.024689121 0.0028880062 0.0071045915 0.026617292 -0.0039301845 -0.0017612095 -0.015608535
0.02854521 -0.009111166 -2.2584456e-05 0.002014591 0.024546089 0.0071743587 -0.011180036 -0.006195309
-0.0070527443 0.02693065 0.003574379 -0.008650042 -0.00043245684 -0.023398876 0.009069865 -0.009388336
0.002068637 0.0149328625 0.016009679 -0.011066405 0.023022782 -0.00047925208 0.0060920427 -0.0036021133
0.007765346 0.0028871382 0.003486128 0.0005105522 0.01085344 0.020384679 -0.0039605554 -0.003969947
0.0013977512 -0.0017240681 0.001229661 -0.0054218154 0.02835556 0.008397422 0.02277992 0.00851989
0.0003581515 0.020484695 -0.011830387 0.0063170344 -0.0027494896 -0.00038676802 -0.00968593 0.00012722623
0.024529988 0.002715844 0.010092774 0.02730911 0.002934816 -0.0015069784 -0.014968786 0.016428905
-0.006183289 0.0001248176 0.00058510446 0.024695728 0.007196019 -0.0111121945 -0.006317781 -0.007055094
0.02614567 0.005492814 -0.0069052805 0.0019452344 -0.023996353 0.00845332 -0.0021430627 0.006375636
0.013625296 0.015505622 -0.011234737 0.022641867 -0.0036013243 0.0066044778 -0.0035349978 0.006917173
3.955001e-05 0.0055374615 -0.0007744848 0.014221079 0.020555798 -0.0005107913 -0.0038910275 0.0009832251
-0.0030421785 -0.0005070806 -0.005357116 0.027547408 0.009038937 0.01870573 0.008485305 0.0006317891
0.031817425 -0.010356166 0.0033540186 -0.005834438 -0.0010930263 -0.0073903557 -0.0002066557 0.022997122
0.0026566852 0.010704934 0.02626261 -0.0023489888 0.000825015 -0.009728037 0.028340017 -0.008982525
0.0010295679 -0.0007727436 0.02494337 0.0072795413 -0.009811563 -0.01045303 -0.007060088 0.027154159
0.0069664335 -0.0054393406 0.00036776438 -0.021899447 0.009368649 -0.00077742804 0.0054242797 0.0132056475
0.019031042 -0.011326711 0.022487361 -0.003730759 0.0062716147 -0.003285232 0.007722688 0.0026224535
-0.0017660549 -0.0005865798 0.011353109 0.020286024 -0.0051725702 -0.003895523 -0.0007993311 0.0035347887
0.0007628389 -0.008793026 0.028028773 0.010844068 0.015929991 0.008520879 -0.0002694934 0.028929163
-0.010187447 0.0023978744 -0.0026125629 0.0007419996 -0.009153606 -0.00075459585 0.024446424 0.0034995172
0.008858143 0.026774477 -0.0021176622 -0.0010802648 -0.011711948 0.02859285 -0.007975563 0.0009636594
0.0003397254 0.0247144 0.0071429387 -0.007362556 -0.006823755 -0.0069357054 0.026912654 0.0018037923
-0.006226306 0.004262164 -0.024115743 0.009392996 0.00035719667 0.0060439864 0.013526198 0.01750715
-0.010779234 0.021605054 0.0005631929 0.0052035386 -0.0035647876 0.008029276 0.0025080629 0.0022015464
00000000: d56b e3bb 6090 a6b8 ccdb bb3c 90f3 2f3b
00000010: c48a 2c3c 3b12 db3c c028 863b c640 f2ba
00000020: 97c3 7cbc 0b94 d13c 889a 2abb 33db 893a
00000030: 4a2a 293a d635 ca3c 12dc e93b 94b9 00bc
00000040: 6f9f 07bc b60e cbbb ad4c cf3c b420 933b
00000050: 28f0 0ebc 6ebc 763b b5e5 abbc 10e6 223c
00000060: 022f 08bc a474 ab3b 58f1 703c 325c 8e3c
00000070: 0a08 31bc 6cf7 b53c fc46 ecba 0492 c23b
00000080: 5f4c 5ebb c0cd e03b 6086 4a3b e0a3 b93a
00000090: 506a ccb8 f2d2 193c 97eb a63c 9873 e9bb
000000a0: 28b1 73bb 28a5 1f3a 9654 14bc 60c4 36ba
000000b0: 86e3 14bc d6ba e93c 8e31 f13b 312d b63c
000000c0: 309f 093c 9ebd 9f3a 5909 1f3d cc6d 3fbc
000000d0: 80ef 253b 521b 82bb f85a b93a 906f 38bc
000000e0: d202 f83a d740 ca3c b444 3d3b a2cd e83b
000000f0: 820c da3c c7c8 80bb 62d8 e6ba f1ba 7fbc
00000100: a5d7 e93c 0047 15bc c073 bdb7 3a07 043b
00000110: e114 c93c e216 eb3b 782c 37bc 0502 cbbb
00000120: b51a e7bb ab9d dc3c 2140 6a3b e8b8 0dbc
00000130: 60bb e2b9 00af bfbc c599 143c 89d1 19bc
00000140: f891 073b f7a8 743c bb26 833c de4f 35bc
00000150: 469a bc3c 2044 fbb9 c29f c73b 6f11 6cbb
00000160: 7274 fe3b 2436 3d3b 8677 643b 94d6 053a
00000170: a0d2 313c c5fd a63c 8cc7 81bb 5416 82bb
00000180: bf34 b73a 20fa e1ba 942c a13a 7ca9 b1bb
00000190: eb49 e83c 5795 093c f49c ba3c 0297 0b3c
000001a0: 48c6 bb39 85cf a73c 3dd4 41bc 20ff ce3b
000001b0: c830 34bb 20c7 cab9 bcb1 1ebc 0868 0539
000001c0: 1df3 c83c 4dfc 313b 2a5c 253c 5bb7 df3c
000001d0: 0b56 403b ce85 c5ba a43f 75bc e995 863c
000001e0: 309d cabb 78e1 0239 b261 193a b24e ca3c
000001f0: 95cc eb3b ec0f 36bc 6305 cfbb 6b2e e7bb
00000200: 722f d63c 10fd b33b b145 e2bb 3cf7 fe3a
00000210: 0094 c4bc cb7f 0a3c a072 0cbb b6ea d03b
00000220: a23c 5f3c 4b0b 7e3c e711 38bc 707b b93c
00000230: 3204 6cbb 606a d83b 6cab 67bb 74a9 e23b
00000240: 80e2 2538 9873 b53b cc06 4bba 87ff 683c
00000250: a264 a83c a0e6 05ba 9c00 7fbb 8fdf 803a
00000260: 495f 47bb 9aed 04ba bf8a afbb 1aab e13c
00000270: 0d18 143c c23c 993c f305 0b3c a69e 253a
00000280: fd52 023d e9ac 29bc 18cf 5b3b d02e bfbb
00000290: e043 8fba cc2a f2bb b8b1 58b9 7664 bc3c
000002a0: c81b 2e3b bf63 2f3c af24 d73c 7ef1 19bb
000002b0: d245 583a 5862 1fbc 5329 e83c 712b 13bc
000002c0: 91f2 863a f291 4aba 0a56 cc3c 3889 ee3b
000002d0: aec0 20bc 2f43 2bbc 5058 e7bb 6672 de3c
000002e0: ae46 e43b 7f3c b2bb 80d0 c039 7866 b3bc
000002f0: f67e 193c 50cc 4bba 28be b13b 805c 583c
00000300: fde6 9b3c ab93 39bc 6a37 b83c c07f 74bb
00000310: 1e82 cd3b 0c4d 57bb 9a0e fd3b 78dd 2b3b
00000320: f87a e7ba b4c4 19ba 6402 3a3c e02e a63c
00000330: aa7e a9bb 084c 7fbb 348a 51ba eaa7 673b
00000340: 41f9 473a a010 10bc 999c e53c 51ab 313c
00000350: 9d7f 823c 289b 0b3c cb4a 8db9 dafc ec3c
00000360: 40e9 26bc a825 1d3b 8837 2bbb c082 423a
00000370: 02f9 15bc 12d0 45ba de43 c83c 2858 653b
00000380: bf21 113c 2656 db3c 7ac8 0abb ac97 8dba
00000390: 78e3 3fbc 8d3b ea3c f0ab 02bc 169e 7c3a
000003a0: 2c1d b239 da75 ca3c 500f ea3b 9941 f1bb
000003b0: ce99 dfbb ea44 e3bb ed77 dc3c 3a6d ec3a
000003c0: 0a06 ccbb 9fa9 8b3b 618e c5bc 15e5 193c
000003d0: 2046 bb39 a20c c63b fd9c 5d3c 286b 8f3c
000003e0: 629b 30bc 15fd b03c 3ca3 133a 7282 aa3b
000003f0: 369f 69bb 398d 033c 505e 243b d247 103b

conv.weight f4 [10, 1, 20]
-1.1075509e-27 -2.8531764e-27 -3.0494986e-27 -2.1616314e-27 -1.6649204e-27 -1.9302992e-28 7.186231e-28 1.0696725e-27
1.6713578e-27 1.8537074e-27 1.2190998e-27 1.3384995e-27 6.21162e-28 4.8187793e-28 1.8200154e-28 -3.8629951e-28
-1.9350338e-28 -7.582465e-28 -7.0308273e-28 -6.70323e-28 2.4105475e-27 2.3128633e-27 2.1816214e-27 2.0105174e-27
1.8537653e-27 1.7034109e-27 1.5213797e-27 1.1843272e-27 1.027699e-27 7.146024e-28 3.6555282e-28 2.5020654e-28
-1.4706028e-29 -1.9227256e-28 -1.7756753e-28 -3.8516919e-28 -5.3166924e-28 -5.739384e-28 -5.9313e-28 -5.4814393e-28
1.1628969e-24 7.7543676e-25 7.2482453e-25 2.8133662e-25 -1.2671907e-25 -2.8808969e-25 -7.385661e-25 -9.136425e-25
-9.214465e-25 -1.1991386e-24 -1.1781235e-24 -1.5851486e-24 -1.697985e-24 -1.7439484e-24 -1.7847033e-24 -1.7668335e-24
-1.879354e-24 -1.9387426e-24 -1.9502568e-24 -1.7917396e-24 -3.9373506e-07 -1.8035779e-07 -2.5537915e-07 -2.851686e-07
-4.2604276e-07 -2.8214205e-07 -3.766625e-07 -2.441224e-07 -3.7084453e-07 -2.7045382e-07 -2.9185279e-07 -4.0205217e-07
-6.968359e-07 -4.3465613e-07 -7.108568e-07 -4.9356083e-07 -5.8750067e-07 -3.3902307e-07 -8.286383e-07 -9.2480246e-07
9.906196e-12 1.0567236e-11 1.0925043e-11 1.139659e-11 1.1938494e-11 1.1581846e-11 1.1721654e-11 1.2108927e-11
1.21400745e-11 1.28219215e-11 1.2814394e-11 1.3190287e-11 1.31894625e-11 1.3367666e-11 1.3530583e-11 1.35330904e-11
1.4230932e-11 1.4779495e-11 1.5061563e-11 1.6152368e-11 2.8569545e-27 2.0374592e-27 1.3814799e-27 1.0214726e-27
4.5431e-28 1.7190189e-29 -1.2538827e-29 -1.3722153e-28 -4.3268236e-28 -5.56281e-28 -6.2259085e-28 -4.61351e-28
-6.306907e-28 -5.643243e-28 -4.6185644e-28 -6.7104373e-28 -4.440936e-28 -4.4579967e-28 -6.305374e-28 -5.9286643e-28
2.2169652e-28 2.09416e-28 1.520627e-28 1.3440969e-28 9.9085665e-29 6.317192e-29 5.4177264e-29 2.4507705e-29
1.2664878e-30 -1.0578383e-29 -1.6334128e-29 -3.5298938e-29 -3.4434183e-29 -3.9471317e-29 -4.5653288e-29 -3.0618422e-29
-1.3561153e-29 -2.9691454e-29 -2.3674029e-29 -1.4308842e-29 -7.5503726e-07 -7.958739e-07 -7.3803074e-07 -7.3709873e-07
-8.236743e-07 -5.870735e-07 -6.872092e-07 -7.6254463e-07 -9.3490456e-07 -9.111202e-07 -7.192649e-07 -8.643068e-07
-1.2282736e-06 -9.3929265e-07 -8.427912e-07 -1.1692738e-06 -1.1703386e-06 -1.2005262e-06 -9.58024e-07 -9.31752e-07
-4.1361274e-29 -8.009697e-29 -1.0303622e-28 -1.0052553e-28 -1.002248e-28 -6.678683e-29 -7.7313545e-29 -6.8416013e-29
-4.9852916e-29 -2.86273e-29 -1.2809727e-29 -1.01347595e-29 1.597708e-29 3.2124575e-29 2.979051e-29 3.3409657e-29
3.646141e-29 3.6193532e-29 3.3416362e-29 2.8742386e-29 6.30947e-23 1.2677564e-22 2.2038613e-22 2.2159497e-22
2.068481e-22 1.8142498e-22 -9.2045086e-23 -2.1169739e-22 -1.4946934e-22 3.219442e-23 1.7396779e-22 1.9030627e-22
-9.1080044e-23 -1.2322241e-22 -1.1204419e-22 -1.5968656e-22 -1.3881853e-22 -4.3198342e-23 7.5726065e-23 1.8829138e-23
00000000: 9a7f af92 4b0d 6293 2e9b 7193 1843 2b93
00000010: 99e8 0393 cab1 7491 a2bd 6312 127f a912
00000020: 2a6b 0413 a7dd 1213 902c c112 fd17 d412
00000030: a6da 4412 95b6 1812 e0b6 6611 aed8 f491
00000040: 704b 7591 444c 7092 d9d0 5e92 106f 5492
00000050: b6fb 3e13 713e 3713 8ad8 2c13 234a 1f13
00000060: d4de 1213 47f5 0613 7e12 f112 05aa bb12
00000070: 6dd8 a212 6f77 6212 56b2 e711 5596 9e11
00000080: 0823 958f 03bc 7391 f517 6191 4621 f491
00000090: 227e 2892 6ae3 3592 6cf8 3b92 b8b6 2d92
000000a0: 18f3 b317 6efc 6f17 8452 6017 9123 ae16
000000b0: e0de 1c96 a251 b296 3c93 6497 1c61 8d97
000000c0: 4296 8e97 c68e b997 484e b697 354a f597
000000d0: 0f60 0398 75ee 0698 b115 0a98 beb3 0898
000000e0: 7168 1198 c100 1698 d1e4 1698 0fa1 0a98
000000f0: 8962 d3b4 5fa8 41b4 0b1b 89b4 4619 99b4
00000100: dfba e4b4 4f79 97b4 1a38 cab4 ed0f 83b4
00000110: 7c18 c7b4 e432 91b4 f1af 9cb4 a1d9 d7b4
00000120: 330e 3bb5 af5a e9b4 b5d1 3eb5 3e7d 04b5
00000130: bdb4 1db5 fa02 b6b4 976f 5eb5 f13f 78b5
00000140: 8a45 2e2d 9ae6 392d 0532 402d ae7d 482d
00000150: 3206 522d ffbf 4b2d a335 4e2d c205 552d
00000160: 0992 552d cd90 612d e66e 612d c60b 682d
00000170: 0f08 682d 9e2a 6b2d 5408 6e2d 9f13 6e2d
00000180: 6c5a 7a2d 7700 822d a07b 842d e613 8e2d
00000190: ec59 6213 956c 2113 7be7 da12 dadb a112
000001a0: 02fa 0f12 4854 ae0f 5051 7e8f eff2 2d91
000001b0: 5d1f 0992 e04a 3092 924e 4592 3d35 1292
000001c0: b5df 4792 6dd7 3292 3f5e 1292 89a9 5492
000001d0: 27bd 0c92 9147 0d92 45d3 4792 0ae3 3b92
000001e0: 5184 8c11 b0bb 8411 2bc3 4011 7062 2a11
000001f0: 4636 fb10 ec28 a010 0e5b 8910 a489 f80f
00000200: d87f cd0d 1b8e 568f d2a5 a58f a4fc 3290
00000210: 209a 2e90 b324 4890 5b7d 6790 fc40 1b90
00000220: c486 898f b68d 1690 4b15 f08f e11b 918f
00000230: c4ad 4ab5 0aa4 55b5 161d 46b5 0add 45b5
00000240: 781a 5db5 6297 1db5 a878 38b5 abb1 4cb5
00000250: 27f6 7ab5 b493 74b5 8213 41b5 b602 68b5
00000260: 29db a4b5 b323 7cb5 2c3c 62b5 f1ef 9cb5
00000270: 8714 9db5 c421 a1b5 7495 80b5 831d 7ab5
00000280: 01ba 5190 e811 cb90 2a9d 0291 cddc fe90
00000290: 9d19 fe90 2253 a990 5c03 c490 8874 ad90
000002a0: c9c8 7c90 5c28 1190 f4e7 818f ae8e 4d8f
000002b0: df06 a20f 15e4 2210 4b0e 1710 3768 2910
000002c0: 9ee1 3810 e485 3710 eb70 2910 c0bd 1110
000002d0: ba8d 981a 2943 191b 1a37 851b 29f2 851b
000002e0: 6310 7a1b 5054 5b1b 268d de9a 2bed 7f9b
000002f0: 85b2 349b c3ae 1b1a 6c50 521b f010 661b
00000300: d137 dc9a 7df7 149b ff73 079b 990c 419b
00000310: 41d2 279b f5e4 509a 2a18 b71a b01a b619

conv.bias f4 [10]
-1.3781482e-12 -4.4561374e-23 9.503844e-24 -0.021900013 -0.0005145986 -4.9764033e-14 -1.3834544e-19 -0.02415547
1.2798912e-23 -6.625549e-22
00000000: 06f5 c1ab 4f7c 579a c2d4 3719 a867 b3bc
00000010: 21e6 06ba 061e 60a9 5854 23a0 b1e1 c5bc
00000020: 2491 7719 b43e 489c

conv_long.weight f4 [10, 1, 10]
2.9626506e-26 3.918758e-26 4.349312e-26 3.7215552e-26 1.3504228e-27 -8.618115e-27 -3.0254042e-26 -5.433597e-26
-5.377261e-26 -5.8428024e-26 2.0731465e-29 1.3652902e-29 2.256874e-31 3.0311892e-29 5.4775953e-30 -3.6416154e-29
3.0770706e-29 -2.032739e-30 -1.4111522e-29 1.525682e-29 6.4975083e-31 1.3358077e-30 -3.7529182e-30 2.0866277e-29
1.5463511e-29 1.3082255e-29 -9.285411e-30 -1.851835e-29 -1.4063156e-29 -2.5219144e-29 -2.7262604e-25 -3.333436e-26
4.3197173e-26 -5.669846e-26 -2.3818294e-25 -2.6003375e-25 1.4499353e-25 2.1761561e-25 -2.6273412e-25 -1.4419305e-25
-3.126051e-29 -1.4981713e-29 3.5252192e-29 2.7935545e-29 1.9621478e-29 2.9310957e-29 2.3772543e-29 5.287338e-30
-3.1963245e-29 7.423339e-30 -3.7124403e-27 1.1690963e-26 6.94543e-27 7.818031e-27 -1.5737923e-26 1.4109605e-27
1.11647145e-26 2.3953438e-27 -1.5895962e-26 5.55865e-28 1.746389e-26 1.054015e-26 -3.5298536e-27 -1.1543334e-26
-1.7842775e-26 -2.2207373e-26 -8.666276e-27 1.2071187e-26 2.413155e-26 2.0753485e-26 -4.606552e-07 -3.6976712e-07
-2.2741906e-07 -4.5665323e-07 -6.6378084e-07 -4.760001e-07 -5.0333665e-07 -3.1488864e-07 -6.740325e-07 -1.0031458e-06
4.1027565e-29 7.7250495e-30 -3.9195383e-31 -7.753298e-29 -7.0509926e-29 -5.26147e-29 -5.254715e-29 1.9549501e-29
1.3625288e-28 2.0480678e-28 1.1476302e-23 7.401107e-24 1.755352e-23 1.6372788e-23 1.9207073e-23 1.8643686e-23
1.7397163e-23 2.4369424e-24 -9.811423e-24 -1.7932478e-23
00000000: 0fb4 1215 290c 4215 145e 5715 5148 3815
00000010: a8fb d512 09b3 2a94 8ecf 1595 8387 8695
00000020: 7122 8595 29a9 9095 f63d d20f f674 8a0f
00000030: c07a 920c 16b3 1910 9a32 de0e dfa6 3890
00000040: a906 1c10 56ea 248e 9b1b 8f8f f8b8 9a0f
00000050: 30db 520d 48bf d80d 883c 988e f49b d30f
00000060: 92d1 9c0f 7aab 840f 9c54 3c8f 63cc bb8f
00000070: 0a9e 8e8f a4c0 ff8f 52bf a896 5210 2595
00000080: ece6 5515 eb60 8c95 986d 9396 fef3 a096
00000090: 497e 3316 92b2 8616 e29f a296 9a80 3296
000000a0: 7682 1e90 c0ee 978f f6bf 3210 69a6 0d10
000000b0: 45fc c60f cc9f 1410 0d15 f10f db7a d60e
000000c0: aa12 2290 2e90 160f 9e10 9393 3a90 6714
000000d0: 8491 0914 20da 1a14 60dc 9b94 5c93 df12
000000e0: d423 5d14 58c7 3d13 0d6d 9d94 2029 3012
000000f0: 39f4 ac14 e9c4 5014 f8d4 8b93 a8a3 6494
00000100: cfb4 b094 61ee db94 3da7 2b94 3118 6f14
00000110: bffc ee14 5688 cd14 f84f f7b4 6884 c6b4
00000120: 7a30 74b4 f129 f5b4 ac2e 32b5 f58c ffb4
00000130: 081d 07b5 f70d a9b4 29ef 34b5 d4a3 86b5
00000140: d308 5010 c0ae 1c0f 8064 fe8c c891 c490
00000150: 8fc3 b290 e564 8590 0d39 8590 6841 c60f
00000160: 96b8 2c11 cdcf 8111 e5fb 5d19 8228 0f19
00000170: 69c4 a919 0f59 9e19 69c2 b919 884f b419
00000180: 4a41 a819 9e8c 3c18 d0c7 3d99 aa6e ad99

conv_long.bias f4 [10]
8.667945e-25 -3.110898e-10 9.977698e-20 -4.0972395e-25 1.5193964e-15 3.1534746e-26 -4.00603e-27 -0.026055837
1.5330029e-24 -1.0429875e-22
00000000: 4521 8617 ff05 abaf 7c97 eb1f 5a9b fd96
00000010: d5f7 da26 0a27 1c15 f8b1 9e93 0d73 d5bc
00000020: 8038 ed17 cd2d fc9a

conv1.weight f4 [30, 30]
-7.0095386e-32 -5.6913265e-30 -4.3883002e-30 -2.2078177e-05 4.8340346e-22 2.6572736e-31 -1.9177532e-26 -8.996289e-31
9.843411e-28 9.846982e-30 4.992623e-25 2.1606187e-23 -3.1170973e-30 1.3473135e-20 -2.256333e-30 2.2040122e-31
1.1853742e-29 3.7961265e-29 9.812954e-23 2.9843566e-21 -4.50846e-30 -4.3933696e-18 1.5280349e-30 -1.0056048e-30
-3.1494601e-24 1.0471177e-10 1.8249854e-30 6.201065e-09 1.0976877e-30 8.014264e-31 4.890099e-29 2.5536703e-31
-7.736967e-20 1.6795532e-28 4.3517615e-29 -1.1072548e-25 3.7776495e-31 -1.0029299e-31 -5.5442377e-30 1.8393395e-30
2.6076903e-31 1.4950108e-30 -1.8143904e-28 -5.9476708e-30 4.166723e-31 4.2082438e-26 -1.4384909e-29 -5.6662326e-30
-9.672947e-31 -4.7534772e-30 3.4099045e-30 1.25327145e-30 -1.3706755e-30 1.2313453e-27 2.8496334e-31 2.4014666e-20
-5.0219684e-30 6.2696844e-30 -3.9484583e-28 -7.9552886e-28 4.3820765e-29 -4.2447624e-30 1.9548377e-32 3.8580763e-28
5.0679853e-29 2.4205795e-25 4.015748e-30 1.90963e-30 3.0032374e-30 -1.48172605e-30 4.8393504e-31 -2.765591e-30
2.527898e-29 5.4048207e-30 -2.8392364e-31 2.3569914e-25 -2.755434e-32 6.0952636e-30 7.172573e-31 7.697515e-31
3.3579713e-30 -5.1577803e-30 1.7414757e-30 1.5508962e-27 1.786167e-30 -8.627525e-31 -1.9339397e-30 -3.41081e-30
-4.0317605e-28 -2.1747478e-27 -3.7819625e-29 -1.4151497e-30 -1.0310097e-30 -2.0930258e-30 5.0470797e-29 7.142706e-10
-5.8928284e-31 -4.7629066e-31 3.7239883e-30 -1.8889955e-30 -1.0050074e-30 -5.257266e-31 3.0180184e-28 2.2666593e-30
1.8182426e-30 -2.6325349e-23 1.3680413e-31 2.7059709e-30 1.7737935e-30 7.1128185e-31 1.7586792e-29 -4.6508647e-30
-4.8655983e-30 -5.8413418e-31 -7.903381e-31 1.0111904e-28 6.2316352e-30 -3.8198368e-30 -8.955901e-31 -1.321938e-30
2.525686e-30 -9.083143e-30 1.28843265e-30 -8.899151e-30 -1.9282247e-30 -1.3534918e-30 1.5454803e-31 2.0571335e-30
-7.30296e-30 -2.0813538e-30 6.850528e-30 3.0973958e-29 6.614099e-30 -1.632047e-29 1.6413717e-30 4.5452727e-31
2.6471337e-30 2.3344827e-29 8.155289e-30 -2.1988005e-29 -5.7118877e-30 -5.052074e-30 4.901249e-30 5.9126666e-30
-8.057956e-30 -3.9229696e-30 5.4489106e-30 -3.0047745e-29 -4.7843402e-30 -1.54071405e-30 -3.219617e-31 -1.05611084e-29
-7.2858438e-31 2.5408342e-29 1.2238442e-30 -1.4990795e-30 6.3674738e-31 -8.52453e-31 1.0092193e-31 -3.31174e-31
-8.276979e-31 4.2885925e-29 5.9564146e-30 -1.393001e-29 9.062144e-31 -8.648077e-31 4.1817687e-30 2.3096673e-29
2.6285938e-30 -1.2875922e-29 4.7579565e-30 1.24244675e-30 3.6254766e-31 -2.580565e-30 -4.5156474e-30 1.3668098e-29
-3.0469436e-30 -5.7760234e-29 -6.657025e-30 5.4295896e-32 -2.7569318e-25 -4.4055605e-29 -1.127001e-30 1.011251e-29
4.698106e-30 -1.7733779e-24 7.208827e-32 8.936099e-31 6.4462963e-31 1.7637477e-29 -3.9809393e-30 6.447936e-30
6.888851e-27 5.2020094e-30 7.245873e-31 7.398293e-26 1.2157585e-27 2.1282133e-30 -1.826184e-30 2.9506067e-30
7.647784e-28 -2.2464882e-30 1.4777522e-30 5.1041464e-26 2.0910478e-30 5.74521e-30 -6.095449e-30 8.371492e-30
8.172626e-24 -1.0802889e-12 6.2607092e-31 1.1195407e-29 8.665528e-31 1.0984534e-29 -4.0235874e-31 -1.5984203e-30
-2.2737046e-30 -1.4377989e-31 -2.8611051e-30 -8.81818e-19 -4.5386364e-31 -9.686134e-30 -2.873374e-30 5.2943043e-30
2.792005e-31 -8.555593e-31 1.1825055e-30 -3.990007e-30 7.2104154e-30 6.4497e-30 -5.873257e-30 6.191069e-31
5.7091334e-31 5.516163e-30 -9.390535e-31 -2.200298e-30 1.2181439e-30 -1.2179448e-29 2.9499159e-30 -1.3847253e-30
-4.431987e-30 8.347875e-30 9.431907e-31 5.6616973e-30 2.1370692e-30 2.288016e-31 4.2618926e-30 1.19548e-30
-2.3541108e-30 1.1773965e-30 -1.3136177e-30 -2.195476e-30 -3.274876e-30 -8.8274766e-30 -6.2462554e-31 -4.9950855e-31
00000000: 60fa b58b 1dde e68e b702 b28e 8634 b9b7
00000010: 8819 121c 8877 ac0c d2ec bd94 1ff9 918d
00000020: 9ef9 9b12 74b8 470f a283 1a17 54f6 d019
00000030: 94e3 7c8e 1580 7e1e 340e 378e 6f0c 8f0c
00000040: 266c 700f 8a7c 4010 3e43 ed1a da7d 611d
00000050: 86e2 b68e 3416 a2a2 16f0 f70d 302b a38d
00000060: 7cad 7398 7c43 e62e 770f 140e 2511 d531
00000070: 2a1c b20d f309 820d 1df5 7710 20be a50c
00000080: 19af b69f 9ee8 5411 18a9 5c10 4e12 0996
00000090: f82e f50c 1030 028c a8e6 e08e 9639 150e
000000a0: b03f a90c 5294 f20d 5600 6691 2544 f18e
000000b0: c837 070d d461 5015 5ce1 918f 86d9 e58e
000000c0: daf3 9c8d eed2 c08e 7952 8a0e dc5a cb0d
000000d0: a267 de8d 4d1d c312 a8f3 b80c e6cf e21e
000000e0: 1ab7 cb8e 2054 fe0e 6643 fa91 f81c 7c92
000000f0: 9b32 5e10 2230 ac8e 8000 cb0a de88 f411
00000100: 1b7d 8010 9dd3 9516 e9e5 a20e 77ed 1a0e
00000110: cda6 730e 7e6c f08d c00b 1d0d 145f 608e
00000120: fe2d 0010 de3e db0e e846 b88c 05e4 9116
00000130: 0012 0f8b d640 f70e 68c3 680d 74cc 790d
00000140: 2b37 880e 7439 d18e 0949 0d0e d3bf f512
00000150: 3de9 100e 56fd 8b8d 5be6 1c8e e05b 8a8e
00000160: 0e8b ff91 204d 2c93 aec4 3f90 059f e58d
00000170: 784a a78d 72ce 298e d7ea 7f10 5356 4430
00000180: b43b 3f8d ae90 1a8d 1b10 970e e740 198e
00000190: 6012 a38d a89b 2a8d 264a bf11 ace4 370e
000001a0: 6c83 130e 689a fe99 f894 310c d188 5b0e
000001b0: 40e8 0f0e fcd2 660d ec59 b20f 57a9 bc8e
000001c0: 435f c58e f88f 3d8d 5c3d 808d 012f 0011
000001d0: 00c9 fc0e 74f3 9a8e 5b51 918d 287f d68d
000001e0: 72e8 4c0e 603a 388f 660f d10d 097f 348f
000001f0: a96f 1c8e da9d db8d 649d 480c fee4 260e
00000200: 231f 148f 07dc 288e faf1 0a0f 7f0e 1d10
00000210: 5e26 060f 5d82 a58f f529 050e a680 130d
00000220: d1c2 560e a3be ec0f ae68 250f 20fc de8f
00000230: a2b3 e78e bcef cc8e 7bd1 c60e a4d8 ef0e
00000240: 4d6f 238f 7222 9f8e b908 dd0e 345c 1890
00000250: 6e13 c28e c2fe f98d 10f7 d08c 6934 568f
00000260: 6c70 6c8d ead5 0010 8094 c60d 543d f38d
00000270: e7a2 4e0d 8351 8a8d 1001 030c b8f1 d68c
00000280: 3a4d 868d 1d75 5910 f29e f10e 6044 8d8f
00000290: ac0a 930d b552 8c8d f8a1 a90e 643a ea0f
000002a0: c241 550e ce93 828f 7201 c10e 3899 c90d
000002b0: 904e eb0c 3d5c 518e 2a2d b78e 699c 8a0f
000002c0: 8b32 778e 8970 9290 4005 078f d0f5 8c0b
000002d0: 54a5 aa96 7263 5f90 cadd b68d 271b 4d0f
000002e0: ec93 be0e 5e35 0998 e026 bb0b 1aff 900d
000002f0: bc31 510d 82dd b20f 707c a18e 99c7 020f
00000300: a072 0814 c104 d30e 5c24 6b0d 412c b715
00000310: 06a5 c012 43a9 2c0e 5c28 148e b461 6f0e
00000320: 325e 7212 bc41 368e 6dc7 ef0d bebe 7c15
00000330: 5da5 290e ac0d e90e c342 f78e 46cb 290f
00000340: e214 1e19 8209 98ab f02b 4b0d e011 630f
00000350: 329b 8c0d f6ca 5e0f a892 028d e4ad 018e
00000360: ff76 388e 10a3 3a8c d41e 688e 2422 82a1
00000370: 8449 138d 4875 448f a51d 698e 33c3 d60e
00000380: 2436 b50c 8bd2 8a8d 5bdf bf0d 9ada a18e
00000390: 9e3e 120f c2d0 020f 633f ee8e 64e9 480d
000003a0: a045 390d 1dc3 df0e c25e 988d 6782 328e
000003b0: b8a7 c50d 4f07 778f 5b53 6f0e 3daf e08d
000003c0: 62c8 b38e a550 290f 9c0a 990d 6daa e50e
000003d0: 3161 2d0e 3080 940c 06e2 ac0e 4cfa c10d
000003e0: f8fc 3e8e 230b bf0d 8b25 d58d 411e 328e
000003f0: 42d8 848e e10a 338f dcb3 4a8d 8c19 228d

conv1.bias f4 [30]
4.5101325e-19 2.5037903e-25 -9.124806e-10 -0.00080735923 -6.891776e-10 0.0015988952 1.4999319e-16 -0.00013187698
-2.4045378e-06 6.028552e-26 -0.0003572357 -0.0005540811 -4.0504568e-23 -0.00021261231 -1.0555193e-10 0.0026904554
-9.826801e-24 -2.1190803e-05 -1.0926196e-09 -0.000105170766 6.880301e-26 -9.981935e-11 -1.0890587e-26 -9.0894226e-24
5.8269866e-22 -0.0045185117 5.670765e-26 -0.016957287 -1.8216115e-19 4.2210882e-19
00000000: 991d 0521 24fa 9a16 1dd2 7ab0 f6a4 53ba
00000010: 9070 3db0 0592 d13a 2dee 2c25 7548 0ab9
00000020: a55d 21b6 7d42 9515 5d4b bbb9 c13f 11ba
00000030: 3ade 439a aff0 5eb9 741c e8ae 5a52 303b
00000040: f613 3e99 e7c2 b1b7 222b 96b0 208f dcb8
00000050: 1759 aa15 4c81 dbae d6b5 5794 a4d0 2f99
00000060: 201c 301c 0610 94bb be66 8c15 02ea 8abc
00000070: d40e 57a0 482b f920

conv2.weight f4 [30, 10]
-1.5527739e-30 6.0546686e-30 -2.5816765e-10 -2.2774116e-29 -2.7746615e-30 -7.114449e-32 -4.4967356e-27 -8.399369e-31
-7.8356436e-07 -9.551386e-08 -2.2347682e-30 -1.2781554e-31 -1.6773674e-25 5.012038e-24 9.760393e-31 -1.57653945e-30
-2.5327213e-29 -1.1395946e-30 5.37097e-31 -5.9496036e-27 -9.747068e-09 -5.6576703e-31 3.313649e-23 -8.848122e-30
8.740882e-31 1.6428525e-30 -1.0250199e-30 7.7734356e-28 -1.4055205e-05 -0.00031119812 -1.4018698e-29 -7.790014e-31
-6.666897e-27 -9.157197e-11 3.82778e-27 -1.1242974e-26 -8.859413e-25 -3.0571998e-30 -4.463218e-21 2.872053e-15
-1.5056216e-30 -1.7807934e-30 -1.8153683e-05 1.7436176e-27 1.3262041e-29 -5.496743e-32 1.8595723e-21 1.4488375e-27
-2.0062294e-05 -0.0001933959 -8.92526e-31 -5.039974e-08 -3.236613e-09 -0.0019297706 -4.3555225e-31 5.0544564e-32
-6.810995e-05 -8.522701e-32 8.134797e-30 -3.8061893e-07 5.336122e-31 5.84888e-30 9.104866e-31 -3.3592727e-24
5.258192e-30 -4.7869553e-31 2.1481006e-28 2.0550673e-30 -9.355167e-32 -4.5359918e-27 2.8340022e-30 -1.5447948e-30
-6.1145916e-10 -5.398122e-28 4.438097e-31 -6.5049347e-31 1.1891145e-30 -5.429249e-31 -1.1845961e-30 -8.098979e-11
-0.00033415752 -4.7785576e-31 2.1795022e-06 -1.4296588e-06 3.246531e-27 1.1041016e-22 -9.240821e-24 2.7016092e-09
-0.003972789 -0.018462561 -1.5348207e-29 1.4501244e-30 -1.7743084e-26 7.3095714e-30 -6.5112645e-31 2.188512e-30
-1.5781717e-32 1.0843428e-30 -5.274841e-29 1.6534006e-27 -1.3059105e-06 2.058377e-30 -9.320012e-16 2.791261e-28
5.2163813e-30 -1.4133587e-30 -8.584475e-30 1.3035773e-21 -0.0002748411 -0.0023592804 -0.0011754157 -3.1649898e-30
1.2993171e-05 7.6126824e-31 -1.18804995e-30 3.7777763e-30 -3.3933343e-30 1.5620378e-07 -0.007995883 -0.03678684
-2.2296333e-30 7.9004746e-30 8.8378795e-23 2.2151698e-27 1.3834052e-31 1.9645557e-31 2.4412545e-29 3.866799e-31
-6.788918e-31 5.2837075e-24 -0.001306961 -1.1133271e-30 9.874155e-05 -2.8021146e-08 -1.9186124e-28 3.894872e-25
9.840048e-25 2.745428e-06 -0.017150007 -0.05121677 -4.8361354e-12 -2.5723918e-30 6.26045e-26 2.6372583e-30
-2.7246802e-31 6.902892e-31 -6.0450173e-31 6.1152567e-29 -4.0140918e-07 -2.3499893e-05 2.6737687e-30 -3.767089e-09
4.1905433e-18 0.009671555 -2.3297104e-30 8.030916e-31 -5.8380805e-29 -1.768077e-31 -5.631346e-31 -3.8302359e-10
2.3967905e-30 2.2829524e-30 6.598089e-24 -5.847857e-26 -5.613529e-30 2.2501082e-30 -4.8773916e-30 5.713843e-34
1.2215269e-30 4.6340633e-25 -0.00035796274 -4.4461635e-30 8.4765924e-07 -3.9337397e-30 9.722512e-31 -1.131726e-30
-6.444201e-30 1.868102e-09 -0.005883425 -0.022941692 4.5024292e-30 -9.012683e-31 -1.0810932e-29 -6.7923274e-06
7.896482e-25 -1.228736e-20 -4.7966123e-20 -4.4661273e-30 -3.7959055e-27 3.3844902e-08 -0.016983807 8.919926e-30
0.0026717787 -1.9954653e-06 3.215372e-29 2.2332695e-22 1.6469266e-25 0.00021427641 -0.04579031 -0.10081427
3.4002293e-31 -7.999319e-31 -2.1972197e-25 6.779877e-29 1.69608e-30 1.5021588e-30 -3.1969414e-30 1.14135555e-30
-1.3998346e-31 -2.4239857e-25 -7.6562155e-30 -2.2322457e-30 4.0779103e-31 -3.306822e-15 3.5574796e-28 1.2092883e-27
3.8639505e-27 -1.906748e-30 5.2006688e-30 -3.7839555e-21 -7.376368e-32 4.07704e-30 -8.5614396e-26 5.821802e-27
1.1719017e-30 -8.701765e-31 -2.0397818e-26 8.817161e-31 3.706344e-31 1.0682159e-27 1.5504222e-30 1.6622534e-30
-4.67983e-22 -4.6026367e-30 -1.7676004e-30 4.770349e-31 -2.5751545e-31 -2.1273563e-30 -6.423516e-31 -3.9913916e-23
-1.6495184e-30 2.1985327e-25 -6.853379e-31 -4.2822402e-29 -1.1526742e-29 5.3552995e-30 7.790072e-30 -7.963387e-31
-5.8662284e-31 -5.750335e-30 -0.00038483294 6.8472236e-31 4.437134e-06 6.7808826e-30 2.794626e-30 -2.170853e-30
00000000: b4f3 fb8d 469b f50e deed 8daf fcf4 e68f
00000010: 771b 618e a0b3 b88b 5122 b293 9d49 888d
00000020: 2256 52b5 4d1d cdb3 524e 358e 00ea 258c
00000030: e5a5 4f96 d2e4 c118 165f 9e0d e3ce ff8d
00000040: 9a6c 0090 e8e8 b88d 464c 2e0d 26b0 eb93
00000050: 0f74 27b2 169a 378d fd3c 201a 1376 338f
00000060: 34d4 8d0d b648 050e a951 a68d 9a59 7612
00000070: a5ce 6bb7 4e28 a3b9 9f2a 8e8f e8cc 7c8d
00000080: 2f0d 0494 705e c9ae 4da2 9713 a7b0 5e94
00000090: c017 8997 8e07 788e 999d a89d 07f4 4e27
000000a0: 134d f48d a279 108e bd48 98b7 c424 0a13
000000b0: 3a7e 860f 20b4 8e8b 5c81 0c1d d593 e512
000000c0: 734b a8b7 51ca 4ab9 14d2 908d 1a77 58b3
000000d0: 196b 5eb1 5bf0 fcba 4458 0d8d a038 830b
000000e0: 40d6 8eb8 1043 dd8b 48fe 240f de57 ccb4
000000f0: c42a 2d0d 3e42 ed0e 22bc 930d a0f4 8198
00000100: 304c d50e 7858 1b8d ed26 8811 14ba 260e
00000110: c0df f28b 6cb0 b393 eceb 650e 44a8 fa8d
00000120: 9d13 28b0 c512 2b92 4406 100d e218 538d
00000130: e2f1 c00d 7030 308d 3236 c08d 3319 b2ae
00000140: dd31 afb9 b412 1b8d 9043 1236 b4e2 bfb5
00000150: bc9b 8013 4a7a 051b 54be 3299 36a7 3931
00000160: 2b2e 82bb cc3e 97bc 39a6 9b8f d04b eb0d
00000170: 10b8 af94 7741 140f 784d 538d 9e8d 310e
00000180: 00e3 a38a d6f1 af0d adbb 8590 f3fe 0213
00000190: be46 afb5 d1fe 260e c650 86a6 cdea b011
000001a0: 009a d30e a054 e58d 241d 2e8f b4fd c41c
000001b0: 8c18 90b9 289e 1abb 6810 9aba 2263 808e
000001c0: 3ffd 5937 b10b 770d aac5 c08d ac3e 990e
000001d0: 66a6 898e f8b8 2734 2a01 03bc ccad 16bd
000001e0: ace3 348e 9c3d 200f d3af d51a fb80 2f13
000001f0: 8693 330c 9003 7f0c 9792 f70f 38f8 fa0c
00000200: 2050 5c8d 4e67 cc18 564e abba cca5 b48d
00000210: 7713 cf38 27b3 f0b2 8836 7391 b614 f116
00000220: 7244 9817 183e 3836 2c7e 8cbc adc8 51bd
00000230: 0928 aaac 7db2 508e 5100 9b15 b6f5 550e
00000240: 84d7 b08c fc02 600d 0a2c 448d 490a 9b10
00000250: 4281 d7b4 a321 c5b7 01ec 580e aa6f 81b1
00000260: 909a 9a22 7175 1e3c 3102 3d8e 1f4f 820d
00000270: 4f03 9490 7082 658c 64bf 368d c791 d2af
00000280: 6473 420e 1137 390e 4f40 ff18 32c9 9095
00000290: 38b6 e38e eb8c 360e bbd9 c58e 00e0 3d08
000002a0: 3e34 c60d d56a 0f17 f2ac bbb9 9a5b b48e
000002b0: b38a 6335 4a92 9f8e bcc1 9d0d 0fa2 b78d
000002c0: 34b4 028f ff5f 0031 bfc9 c0bb 37f0 bbbc
000002d0: e6a3 b60e 383d 928d 9145 5b8f a6e9 e3b6
000002e0: 6062 7417 071a 689e 7c83 629f eb2a b58e
000002f0: 0e5f 9693 dd5c 1133 a021 8bbc e7ea 340f
00000300: 0219 2f3b d5e9 05b6 ea09 2310 2cfe 861b
00000310: 30e1 4b16 63af 6039 9f8e 3bbd b677 cebd
00000320: 00b0 dc0c dfcb 818d 5600 8896 ebe3 ab10
00000330: 349a 090e 3cbd f30d f0ae 818e 0e32 b90d
00000340: 7cb5 358c 9609 9696 5849 1b8f ee19 358e
00000350: f455 040d 1948 6ea7 687b e111 909e bf12
00000360: 1d11 9913 9bb1 1a8e d5f6 d20e 2cf4 8e9d
00000370: 6080 bf8b 6762 a50e 92f8 d395 16a0 e613
00000380: e426 be0d b831 8d8d 9d02 ca94 0e11 8f0d
00000390: 348e f00c fc43 a912 0592 fb0d a7db 060e
000003a0: 6e70 0d9c 83b4 ba8e a067 0f8e 82ce 1a0d
000003b0: 1823 a78c 7697 2c8e 7c74 508d 0903 419a
000003c0: 28d3 058e 2415 8816 a567 5e8d a822 5990
000003d0: 44ca 698f 9c3c d90e 5e00 1e0f 9e36 818d
000003e0: b85e 3e8d e542 e98e 67c3 c9b9 8234 5e0d
000003f0: b1e2 9436 5b88 090f 1cba 620e da1e 308e

conv2.bias f4 [10]
-0.0006471331 -0.00045241896 -0.016515955 -0.026339058 -1.538545e-10 -4.6713694e-08 -0.00040036583 -0.0019365762
-0.009034678 -0.0072823856
00000000: 5ea4 29ba a532 edb9 784c 87bc 02c5 d7bc
00000010: 312a 29af 40a2 48b3 31e8 d1b9 b7d4 fdba
00000020: 3006 14bc 14a1 eebb

rnn.weight_ih_l0 f4 [30, 1]
-0.16862449 -0.35015267 -0.31448236 -0.10361266 0.015262751 0.18362081 -0.30936453 0.18676944
0.050560657 0.37454677 -0.021346144 0.4021519 -0.22397068 -0.022986082 0.33498216 -0.10848002
0.2777676 -0.26281795 -0.15940753 -0.19643447 -0.036389563 -0.2333862 -0.27558985 0.19410875
0.21763761 0.6421033 0.38779768 4.7597604 -0.3021323 -0.24935326
00000000: e6ab 2cbe 3647 b3be d503 a1be e032 d4bd
00000010: 9e10 7a3c 1807 3c3e 0765 9ebe 7d40 3f3e
00000020: b118 4f3d 98c4 bf3e 1cde aebc dbe6 cd3e
00000030: 9258 65be 4f4d bcbc c882 ab3e c62a debd
00000040: 8e37 8e3e 1390 86be ba3b 23be 1e26 49be
00000050: 390d 15bd cbfc 6ebe 1d1a 8dbe 72c4 463e
00000060: 65dc 5e3e e260 243f 6b8d c63e f54f 9840
00000070: 16b1 9abe 7656 7fbe
