colagnn-master-Run-Epi/src/save/cola_gnn_epi.us_regions.w-20.h-8.RNN.lam-0.1.epo-500.pt (torch, 52278 bytes, 32 tensors)

V f4 [15]
000000 c9 75 5e bc 8d 66 54 bb 9e c4 1e 3b 63 bb 24 bc
       -0.013577887 -0.0032409758 0.002422608 -0.010054442
000010 60 f5 1a 3b e2 f5 07 bb 4f e9 df 3b 19 82 69 bd
       0.002364479 -0.0020745923 0.0068332325 -0.057008836
000020 f5 73 8b 3a 8e 6b a2 b7 b3 61 7d ba f2 4d f8 3d
       0.0010639416 -1.9361989e-05 -0.00096657424 0.12124242
000030 27 33 df 39 72 e9 53 bb c5 1a 77 bb
       0.00042571986 -0.003233519 -0.0037705165

W1 f4 [15, 30]
000000 dd 3a d2 b9 9e 30 65 38 ba a6 9b 39 bc d9 a7 b8
       -0.00040098178 5.4643133e-05 0.00029688125 -8.003737e-05
000010 24 69 6b 39 d9 68 17 ba 90 40 d9 39 86 b8 e8 b9
       0.00022450514 -0.00057758164 0.00041437568 -0.0004438797
000020 a3 70 40 ba 03 ee de b9 65 f0 34 3a 00 3d 43 39
       -0.0007341003 -0.00042520472 0.00069022767 0.00018619373
000030 a3 bc 2f 3a 2f 9d aa 39 c2 c7 48 ba 6b 41 01 3a
       0.0006703829 0.00032542038 -0.0007659161 0.00049307075
000040 be 20 8c 3a 8b 54 0a 3a aa 48 20 37 1c 0b 57 3a
       0.001069091 0.000527688 9.553662e-06 0.00082032545
000050 18 cf 99 ba 02 0d 10 3a 58 ba 8f ba 0b 06 16 3a
       -0.0011734692 0.00054951024 -0.0010965569 0.00057229464
000060 7b ad 44 3a 3f 20 9a 3a 81 02 13 ba 1a 88 b9 39
       0.0007502657 0.0011758878 -0.0005607978 0.00035387353
000070 1e c4 b6 39 09 35 bc b9 a5 2d 1f b8 f3 11 c2 37
       0.00034859864 -0.0003589767 -3.7951064e-05 2.313496e-05
000080 75 ca 71 38 f3 e8 c3 b7 f1 3e 81 38 ce 56 c8 b7
       5.764743e-05 -2.3354287e-05 6.162923e-05 -2.388228e-05
000090 6b 30 20 38 d2 50 1b b8 86 f0 d1 b7 8f 84 c0 b7
       3.8192065e-05 -3.703015e-05 -2.5026744e-05 -2.2949911e-05
0000a0 d1 67 cb 37 d0 50 81 b8 d3 df 09 38 29 25 42 38
       2.4247829e-05 -6.166252e-05 3.2871798e-05 4.6287812e-05
0000b0 0c c3 ef b7 98 d0 04 b8 a0 08 53 38 a4 82 13 38
       -2.8581846e-05 -3.166552e-05 5.0314353e-05 3.51692e-05
0000c0 fe 8f 95 b5 5a d6 3d 38 e9 12 7e b8 47 b7 47 38
       -1.1143272e-06 4.5260742e-05 -6.057593e-05 4.7615988e-05
0000d0 b5 c0 5b b8 88 2c 12 38 9e cb f6 37 60 72 7d 38
       -5.239314e-05 3.4850586e-05 2.9420302e-05 6.042642e-05
0000e0 b4 ff 7e 38 6f 79 34 38 6d 9c 0b b8 ef dd e7 37
       6.079646e-05 4.3028438e-05 -3.3285865e-05 2.7640692e-05
0000f0 56 7c 13 38 c6 23 10 b8 7b 8d 0c b8 dd 1c 10 38
       3.5163328e-05 -3.4365592e-05 -3.3510365e-05 3.4359156e-05
000100 a1 fb 0b b8 54 bd 11 38 80 93 13 b8 1e 05 14 38
       -3.337453e-05 3.474702e-05 -3.51849e-05 3.5290715e-05
000110 45 3c 11 38 a6 4c 10 38 ad 8b 11 b8 0e f6 0b 38
       3.4626824e-05 3.440366e-05 -3.4700777e-05 3.336934e-05
000120 78 b7 12 b8 9a a6 4b b8 ea b4 12 38 62 74 0e 38
       -3.497998e-05 -4.855413e-05 3.4977602e-05 3.3963828e-05
000130 a4 b1 0a b8 e8 79 0e b8 09 0b d4 34 f4 02 0d b8
       -3.3067205e-05 -3.3968972e-05 3.9496106e-07 -3.361977e-05
000140 eb 11 0c 38 65 cb 0a b8 1c 05 0d 38 8c 81 13 b8
       3.339529e-05 -3.309119e-05 3.3621778e-05 -3.516818e-05
000150 a5 e9 12 b8 4f 4b 08 b8 ae 18 0c b8 9d c5 0e b8
       -3.502671e-05 -3.2495063e-05 -3.3401586e-05 -3.403948e-05
000160 28 7e 0f 38 3a f1 fe b7 c6 2e 8d b8 d8 9d 8b 38
       3.421135e-05 -3.039149e-05 -6.732116e-05 6.657437e-05
000170 16 69 8a 38 b2 b1 8c b8 21 c0 8a 38 65 ce 8b b8
       6.5999266e-05 -6.7088185e-05 6.6161396e-05 -6.6664805e-05
000180 54 78 8d 38 22 22 8d b8 bc f8 8b b8 28 b0 8d b8
       6.745817e-05 -6.729762e-05 -6.674367e-05 -6.7562156e-05
000190 d9 91 8c 38 6f 1b 86 b8 b2 3b 8d 38 5a 7c ab 38
       6.7028865e-05 -6.394728e-05 6.734523e-05 8.177078e-05
0001a0 a0 79 8d b8 b4 2c 8a b8 62 15 86 38 6d 61 86 38
       -6.746058e-05 -6.5886794e-05 6.393601e-05 6.407765e-05
0001b0 dc cf 98 36 c4 29 8a 38 c8 4d 8a b8 48 93 68 38
       4.554151e-06 6.588132e-05 -6.594841e-05 5.5450277e-05
0001c0 cd 71 8a b8 1d e3 8d 38 66 44 8c 38 08 b0 85 38
       -6.60155e-05 6.765707e-05 6.6884604e-05 6.3747226e-05
0001d0 89 73 8a 38 52 3c 85 38 1a 97 6d b8 1b 22 68 38
       6.601873e-05 6.35317e-05 -5.6645928e-05 5.5344874e-05
0001e0 3d 1f 16 38 81 b4 11 b8 0b 5f 0d b8 1e 5b 11 38
       3.579188e-05 -3.47388e-05 -3.3705535e-05 3.4655553e-05
0001f0 f8 6a 0c b8 4d d6 12 38 00 ae 15 b8 b4 2f 15 38
       -3.3478223e-05 3.5008696e-05 -3.568642e-05 3.5568795e-05
000200 ed 7a 13 38 14 9d 12 38 2c 2d 12 b8 0e 72 0c 38
       3.5162015e-05 3.4955403e-05 -3.4851182e-05 3.3484823e-05
000210 69 9a 14 b8 7d 0c 44 b8 c4 0a 14 38 7e 84 0f 38
       -3.5429755e-05 -4.6741672e-05 3.5295976e-05 3.421725e-05
000220 ae bc 0b b8 38 5e 11 b8 bf 5d db 34 a8 06 0e b8
       -3.3315904e-05 -3.4658442e-05 4.0860138e-07 -3.3861637e-05
000230 6b 48 0c 38 8b 33 0b b8 03 f3 0d 38 a5 3f 15 b8
       3.3446046e-05 -3.3188186e-05 3.3843342e-05 -3.5583642e-05
000240 4f 0c 14 b8 6b e5 08 b8 59 ea 0c b8 87 12 0f b8
       -3.5297413e-05 -3.263859e-05 -3.3596854e-05 -3.411111e-05
000250 ef aa 10 38 56 34 03 b8 d6 82 03 b8 bb a1 86 37
       3.449147e-05 -3.1281576e-05 -3.1354684e-05 1.6049356e-05
000260 d4 f8 e1 37 de 2a 86 b7 47 3c ea 36 f4 6e 9e b7
       2.693796e-05 -1.5994006e-05 6.9807606e-06 -1.8886734e-05
000270 a4 a6 03 38 5f ef 01 b8 84 ff af b7 2a 15 8e b7
       3.138803e-05 -3.097893e-05 -2.098061e-05 -1.6937574e-05
000280 23 25 aa 37 76 ea e9 b6 b6 1c f1 37 a7 be 08 38
       2.0282872e-05 -6.971236e-06 2.8742808e-05 3.2602486e-05
000290 10 5e d3 b7 7f 09 cd b7 36 16 1d 38 74 ca fb 37
       -2.5196961e-05 -2.4442326e-05 3.7452402e-05 3.0015806e-05
0002a0 c1 55 43 34 12 77 1f 38 ca cd 6a b7 21 d7 1a 38
       1.8191987e-07 3.8019447e-05 -1.3995401e-05 3.6916816e-05
0002b0 a2 d2 1b b8 ea a1 f9 37 fe 16 db 37 f9 e5 30 37
       -3.7151047e-05 2.975851e-05 2.6117541e-05 1.0543962e-05
0002c0 4e b8 5e 37 ec 38 17 38 51 49 b6 b7 e0 35 96 37
       1.3275143e-05 3.6054218e-05 -2.1730231e-05 1.7906481e-05
0002d0 c8 44 c0 36 98 f7 f6 37 e1 75 1a 38 83 10 fb b7
       5.730053e-06 2.944078e-05 3.6826244e-05 -2.992922e-05
0002e0 64 c1 5c 37 cb 80 81 b7 9c d4 be b6 c4 59 bd 36
       1.3158049e-05 -1.5437972e-05 -5.6871922e-06 5.643089e-06
0002f0 b8 ee 23 b7 69 59 f5 b7 3c 8c 6b 37 60 37 da b5
       -9.771138e-06 -2.924791e-05 1.4039742e-05 -1.6258382e-06
000300 20 2b 76 b6 6f 14 51 b9 00 fa 74 b3 46 5c 52 b8
       -3.6681959e-06 -0.00019939405 -5.703805e-08 -5.0153838e-05
000310 35 a7 48 38 18 74 a0 b6 89 0f 9c 35 f8 02 5c 38
       4.783944e-05 -4.7818867e-06 1.1627427e-06 5.2454852e-05
000320 30 ea 6e b6 46 ba 0f b9 46 b9 41 b8 68 82 a8 b6
       -3.5601079e-06 -0.00013706935 -4.6187335e-05 -5.0219714e-06
000330 80 b7 39 b4 38 e3 d4 36 0a 28 d4 37 b6 b0 45 38
       -1.7296225e-07 6.344544e-06 2.5291014e-05 4.7133035e-05
000340 c8 9d ba b6 ec c0 45 38 ee 0b 55 ba 4e 5e 4d 3a
       -5.5616e-06 4.7148133e-05 -0.0008127083 0.0007834182
000350 f8 58 46 3a 03 6a 4d ba d8 b1 45 3a d8 3e 4f ba
       0.0007566358 -0.00078359264 0.00075414544 -0.0007905788
000360 9a 2c 55 3a 72 8f 54 ba 11 09 50 ba 02 c4 4e ba
       0.00081319513 -0.0008108533 -0.00079359213 -0.0007887484
000370 78 00 50 3a 34 d8 43 ba 1e 85 53 3a e0 9b 84 39
       0.000793464 -0.00074708764 0.0008068847 0.00025293138
000380 f7 e1 51 ba 57 fa 48 ba d8 de 44 3a f9 0d 4e 3a
       -0.00080063887 -0.0007666698 0.0007510013 0.00078603585
000390 6d ee 12 b7 72 6d 47 3a f6 e8 44 ba 6a ac 3a 3a
       -8.757791e-06 0.0007607556 -0.00075115205 0.00071210286
0003a0 66 33 47 ba 06 a2 53 3a e6 e1 51 3a cd e3 3f 3a
       -0.00075989065 0.00080731546 0.0008006379 0.0007320017
0003b0 1d a4 45 3a f0 e7 46 3a 23 14 43 ba ad 17 30 3a
       0.00075394084 0.0007587662 -0.000744166 0.0006717395
0003c0 c5 b0 44 37 93 e5 46 b7 c4 39 48 b7 ef 81 46 37
       1.1723668e-05 -1.1855172e-05 -1.1934379e-05 1.1831972e-05
0003d0 14 f1 47 b7 6c 62 46 37 52 d0 44 b7 39 c4 44 37
       -1.1917455e-05 1.1824635e-05 -1.1731014e-05 1.1728197e-05
0003e0 1d f2 45 37 2a 44 45 37 de 27 45 b7 0c 96 4a 37
       1.1798486e-05 1.1757986e-05 -1.1751397e-05 1.2075074e-05
0003f0 b4 13 45 b7 ec a2 eb b6 1c 4b 45 37 2e 3e 46 37
       -1.17467025e-05 -7.0225124e-06 1.1759603e-05 1.1816197e-05

b1 f4 [15]
000000 70 e3 be 39 ae 9f 1f 38 0d a5 13 b8 80 23 8f 38
       0.00036409078 3.8057267e-05 -3.5201247e-05 6.825384e-05
000010 e7 68 15 b8 37 34 04 38 d8 f7 bc b6 59 0e 56 3a
       -3.5622066e-05 3.151988e-05 -5.6316894e-06 0.000816559
000020 88 f4 43 b7 29 b4 dd 34 0f cd 97 37 7c 30 55 b9
       -1.167984e-05 4.1295542e-07 1.809609e-05 -0.00020331325
000030 89 4e 8a b6 6d df 56 38 20 d0 66 38
       -4.121863e-06 5.1229657e-05 5.5030105e-05

W2 f4 [15, 30]
000000 c6 6a d5 b9 10 c5 90 38 b1 2e d2 39 1d 0a 09 ba
       -0.00040706078 6.903161e-05 0.0004008911 -0.0005227642
000010 e0 23 e3 b9 d2 92 fb b9 c0 8d ca 39 70 f4 db b9
       -0.00043323543 -0.0004798384 0.00038634054 -0.00041953055
000020 47 1d 46 ba e8 12 bb b9 c6 e4 3f 3a f8 73 14 b9
       -0.0007557463 -0.00035681506 0.00073201617 -0.00014157582
000030 dc 2b 36 3a 21 ba 47 bc e0 f4 3b ba 9c 7b 9c 38
       0.00069492846 -0.012190373 -0.0007169973 7.461684e-05
000040 13 12 bd 3a 33 69 f6 b9 1c fe 6f ba 0b a5 73 3a
       0.0014424942 -0.00046999156 -0.0009154992 0.00092943077
000050 be c4 9c ba 16 af 24 b9 0b 11 85 39 1e e2 13 3a
       -0.0011960489 -0.00015705483 0.00025380435 0.0005641299
000060 32 e5 40 3a 96 07 e4 3a 51 8b 27 3a 48 37 be b9
       0.00073583715 0.001739728 0.0006391304 -0.00036280812
000070 32 c8 0f b9 fc 11 08 3b 36 25 1f b8 38 99 c7 37
       -0.00013712121 0.0020762673 -3.794321e-05 2.3793997e-05
000080 ba 6e 6e 38 0b fe c3 b7 4a cd 75 38 de 9c c4 b7
       5.6846744e-05 -2.336411e-05 5.8603742e-05 -2.3438068e-05
000090 60 ab 20 38 f9 03 1d b8 f2 82 d8 b7 fc f7 e0 b7
       3.8306578e-05 -3.7435417e-05 -2.5810183e-05 -2.6818358e-05
0000a0 94 93 23 37 f3 80 7d b8 5a b8 04 38 c0 10 db bb
       9.749918e-06 -6.0439994e-05 3.1642943e-05 -0.0066853464
0000b0 fa 89 c1 b7 92 64 eb b8 b1 f8 53 b9 2f 2f 02 ba
       -2.3071643e-05 -0.00011224406 -0.00020215173 -0.00049661373
0000c0 0e 37 f4 b9 24 52 6b 38 01 3c 80 b8 2a fc de b7
       -0.00046580326 5.6104866e-05 -6.114692e-05 -2.6581885e-05
0000d0 df 99 76 b8 e2 9a 0b 38 22 da fe 37 88 38 7f b8
       -5.8794274e-05 3.328443e-05 3.0380736e-05 -6.0849387e-05
0000e0 96 90 68 38 97 a0 16 38 68 0c d5 b7 4e 93 09 3b
       5.5447766e-05 3.5912348e-05 -2.5397356e-05 0.0020992341
0000f0 3f 7e 13 38 56 43 11 b8 a2 d9 0c b8 13 e4 10 38
       3.5165107e-05 -3.4633405e-05 -3.3581287e-05 3.4544686e-05
000100 ae 88 0b b8 39 0b 11 38 e0 cb 13 b8 e2 bd 13 38
       -3.3267475e-05 3.4581146e-05 -3.5237405e-05 3.5224373e-05
000110 65 87 11 38 18 0d 17 38 a2 21 c9 b7 50 28 0d 38
       3.469679e-05 3.60134e-05 -2.3976729e-05 3.3654564e-05
000120 4a c2 12 b8 68 dd c3 3b ad 3e 11 38 c0 d8 ca 38
       -3.499006e-05 0.0059773214 3.4629065e-05 9.6724834e-05
000130 bf 2e 1c 39 65 56 b1 39 54 c3 a6 39 49 ad ff b7
       0.00014894734 0.0003382444 0.00031807518 -3.0479061e-05
000140 f7 6f 0c 38 5c 19 03 38 1c b2 0c 38 19 a3 17 b8
       3.3482876e-05 3.125645e-05 3.354448e-05 -3.6153102e-05
000150 7e 38 12 b8 f2 e4 77 38 ae 9f 0c b8 37 a7 0c b8
       -3.4861725e-05 5.910261e-05 -3.3527314e-05 -3.3534332e-05
000160 43 0e 0f 38 f4 e3 cd ba 75 4a 8d b8 9d 60 8f 38
       3.410714e-05 -0.0015708194 -6.7372726e-05 6.836767e-05
000170 10 72 8a 38 b6 21 70 b8 c0 f1 70 38 8b dc 8b b8
       6.6015986e-05 -5.7251855e-05 5.7445606e-05 -6.669116e-05
000180 69 df 8c 38 f4 81 8c b8 ef d1 8b b8 9e de 8b b8
       6.7173336e-05 -6.699926e-05 -6.66714e-05 -6.669502e-05
000190 d2 09 51 37 07 04 6f b8 16 bd 8a 38 ac fe 76 bc
       1.2459657e-05 -5.698579e-05 6.615573e-05 -0.015075367
0001a0 9d 04 6f b8 8a 7c c2 b9 f8 55 62 ba 32 3c f2 ba
       -5.6986337e-05 -0.00037095352 -0.0008634026 -0.0018481074
0001b0 6e d2 10 bb 55 fd 57 38 02 61 8b b8 18 f4 96 b9
       -0.0022098082 5.149593e-05 -6.6461056e-05 -0.00028792094
0001c0 c3 f2 89 b8 21 eb 87 38 7c 30 8c 38 21 5b d8 b9
       -6.577887e-05 6.481098e-05 6.684751e-05 -0.00041266627
0001d0 1e 03 88 38 38 fd 7f 38 dd 68 6b b8 0e 0a e7 3b
       6.485566e-05 6.1032566e-05 -5.6126028e-05 0.007050759
0001e0 0c c2 15 38 f8 c9 12 b8 60 a2 0d b8 82 47 12 38
       3.570509e-05 -3.499721e-05 -3.3768243e-05 3.487571e-05
0001f0 3e 7d 0c b8 bb bb 12 38 56 fc 15 b8 6a 88 15 38
       -3.3495242e-05 3.498395e-05 -3.5759374e-05 3.5651414e-05
000200 9a 57 13 38 76 f0 18 38 fa a6 ca b7 8a 9c 0d 38
       3.5129116e-05 3.646357e-05 -2.4158031e-05 3.3762808e-05
000210 bc 12 14 b8 7b 1c be 3b 08 d8 12 38 19 bf c8 38
       -3.5303397e-05 0.005801735 3.5010307e-05 9.572338e-05
000220 98 4c 19 39 7b c0 ae 39 10 e3 a4 39 70 e3 01 b8
       0.0001461975 0.00033331275 0.00031449692 -3.0967814e-05
000230 0c 89 0c 38 d6 48 fe 37 85 ba 0d 38 4e 5a 19 b8
       3.3506236e-05 3.0313076e-05 3.379073e-05 -3.6562145e-05
000240 15 45 14 b8 2d ab 6f 38 82 c7 0c b8 2e 5f 0d b8
       -3.5350287e-05 5.714146e-05 -3.3564407e-05 -3.3705663e-05
000250 3f 4a 10 38 b6 13 ca ba a5 9b 03 b8 53 e5 88 37
       3.4401422e-05 -0.0015417251 -3.137779e-05 1.631925e-05
000260 aa 9e f7 37 46 ad 87 b7 58 cb 11 37 5a 95 98 b7
       2.9518578e-05 -1.617394e-05 8.690018e-06 -1.818936e-05
000270 83 1b 04 38 82 f0 02 b8 44 a1 ba b7 be 86 93 b7
       3.1496875e-05 -3.1218406e-05 -2.2248023e-05 -1.758651e-05
000280 5a 0d 4e 37 3a 7d ef b6 de 3f e9 37 78 b3 8c bb
       1.22816655e-05 -7.1373333e-06 2.7805505e-05 -0.0042938553
000290 34 bb 9c b7 17 08 95 b8 28 ac e5 b8 7e c9 9a b9
       -1.8683822e-05 -7.1063805e-05 -0.000109516375 -0.00029523292
0002a0 f8 4d 1f b9 6b 63 f9 37 e0 87 43 b7 10 77 c8 b7
       -0.00015192467 2.9729408e-05 -1.1654542e-05 -2.38973e-05
0002b0 aa 65 c5 b7 6d 83 f9 37 5c b4 e2 37 c2 c5 12 b8
       -2.3531571e-05 2.9744313e-05 2.7025286e-05 -3.499329e-05
0002c0 1c 92 06 38 7c 5c f2 37 ca 6f 88 b7 85 39 ac 3a
       3.2084165e-05 2.8891714e-05 -1.626452e-05 0.0013139701
0002d0 94 1d c0 36 dc a8 01 38 3f fe 22 38 24 e4 55 b8
       5.7254892e-06 3.091326e-05 3.8860595e-05 -5.099563e-05
0002e0 a4 e4 59 b8 42 12 9c b7 60 1f c0 b6 a8 b7 bd 36
       -5.194977e-05 -1.8605151e-05 -5.7256984e-06 5.6540193e-06
0002f0 f8 62 f2 b6 84 01 2c b8 16 40 08 38 a8 74 2a 38
       -7.2236835e-06 -4.1009407e-05 3.248461e-05 4.0639803e-05
000300 e0 36 c1 b5 6b 5d 4b 3c 5b fe 61 b8 1a 19 ce 38
       -1.4395591e-06 0.012412409 -5.3881067e-05 9.827521e-05
000310 1b d6 8b 39 48 33 66 3a b0 ac 53 38 7a 4e 18 38
       0.00026671667 0.0008781445 5.0467148e-05 3.631271e-05
000320 20 ec a8 b6 40 e3 34 b9 bc eb 08 b8 16 90 90 37
       -5.0342787e-06 -0.00017250795 -3.264447e-05 1.7233233e-05
000330 d0 07 cb b5 16 39 d3 38 fb 66 2c 38 2a 15 61 38
       -1.5126952e-06 0.00010071897 4.1103904e-05 5.366389e-05
000340 cf f2 36 b8 e0 cb 52 bb 52 30 55 ba 70 2a 4f 3a
       -4.3618315e-05 -0.0032164976 -0.00081325055 0.0007902747
000350 18 7e 46 3a 9e c7 46 ba 14 b5 3e 3a 44 f9 4e ba
       0.000757189 -0.0007582846 0.00072749075 -0.000789542
000360 cf 1c 55 3a 15 f5 54 ba 65 06 50 ba 78 58 50 ba
       0.0008129598 -0.0008123678 -0.0007935523 -0.0007947753
000370 1b 32 1a 3a 8e 6c 3d ba dd 8f 52 3a 3d da 2c bd
       0.00058821 -0.0007225954 0.00080323016 -0.042200316
000380 2f e5 47 ba af 61 01 bb d8 27 32 bb 8b 75 dc bb
       -0.00076253986 -0.0019742062 -0.0027184393 -0.0067278794
000390 34 2f 06 bc fa ea 38 3a 94 2a 45 ba 03 c2 1a ba
       -0.008189965 0.0007054057 -0.0007521298 -0.0005903544
0003a0 9c f0 45 ba d3 5d 52 3a ac 69 52 3a 5a d1 b1 ba
       -0.0007550807 0.0008024845 0.00080266106 -0.001356642
0003b0 9c 41 45 3a 54 33 45 3a f7 90 44 ba b9 17 dc 3c
       0.000752473 0.0007522602 -0.0007498408 0.02686678
0003c0 43 89 44 37 e8 3c 4a b7 a5 35 48 b7 15 fd 51 37
       1.1714469e-05 -1.2054319e-05 -1.1933419e-05 1.2516296e-05
0003d0 53 ad 56 b7 a3 76 46 37 54 db 44 b7 71 17 45 37
       -1.2795749e-05 1.1829342e-05 -1.1733577e-05 1.1747573e-05
0003e0 3e 4a 45 37 a5 75 61 37 f6 31 e2 b6 94 ff 55 37
       1.1759401e-05 1.3438436e-05 -6.741141e-06 1.2755296e-05
0003f0 24 2e 46 b7 28 75 9c 3a 7e 1a 52 37 ef c3 28 38
       -1.1812463e-05 0.0011936771 1.2523144e-05 4.02368e-05

Wb f4 [29, 29]
000000 ae 7d d2 3e 00 7a c3 3a 99 7e 88 3e fd eb 59 3e
       0.4111151 0.0014913678 0.26659086 0.21281429
000010 62 d4 51 be b6 07 2b 3e ce e4 e7 bd a8 7f 12 be
       -0.20491174 0.1670216 -0.11322938 -0.1430651
000020 ec 0d 92 3b 88 ec 46 bc 12 a5 86 be 74 95 81 bd
       0.004457226 -0.012141354 -0.26297814 -0.06327334
000030 55 33 ae bd 0c 0d 9a be 81 61 13 be 86 1e 1b be
       -0.085058846 -0.3008808 -0.14392664 -0.15148363
000040 ce a6 05 3d 84 aa 5a bc 65 1d 07 3d 36 01 00 be
       0.03262978 -0.013346318 0.032987017 -0.12500462
000050 c9 86 cc 3e 57 a7 ee bc 19 9e 0e be b9 2d 9c 3e
       0.39946583 -0.029132528 -0.13927497 0.30503634
000060 f6 24 07 3d cb 60 53 3d 2c 86 40 be 5f 9f aa 3e
       0.032994233 0.05160598 -0.18801183 0.33324715
000070 de b9 60 3b 0e 0e d2 3e 80 5d c8 3a 65 7f 88 3e
       0.0034290473 0.41026348 0.0015286654 0.26659694
000080 13 03 5a 3e 3d d7 51 be a4 cd 2a 3e 0a 29 e8 bd
       0.21290235 -0.20492263 0.16680008 -0.113359526
000090 f7 65 12 be 38 76 8b 3b 04 cd 58 bc 1a b5 86 be
       -0.14296709 0.004256036 -0.013232473 -0.26310045
0000a0 41 8b 81 bd b2 59 ad bd 96 f9 99 be b5 67 13 be
       -0.06325389 -0.08464374 -0.3007323 -0.1439503
0000b0 82 49 1b be 58 20 ff 3c e0 db 58 bc 7a b3 06 3d
       -0.1516476 0.031143352 -0.013236016 0.032886006
0000c0 5f dc ff bd 07 86 cc 3e 6b fd ea bc 96 93 0e be
       -0.12493204 0.39946005 -0.028685292 -0.13923487
0000d0 dc 2f 9c 3e 76 30 07 3d 26 05 52 3d 78 7f 46 be
       0.30505264 0.0330052 0.05127444 -0.19384563
0000e0 e9 9b aa 3e 9c d4 62 3b f4 91 d2 3e 80 94 bc 3a
       0.33322075 0.0034611588 0.41126978 0.0014387518
0000f0 e7 7d 88 3e d8 39 5a 3e 2e cc 51 be 98 d1 2a 3e
       0.26658556 0.21311128 -0.20488045 0.16681516
000100 fe 15 e8 bd 7c 94 12 be c8 d1 92 3b 9c 69 68 bc
       -0.1133232 -0.14314455 0.0044805743 -0.0141853355
000110 33 ac 86 be 38 92 81 bd 6e 43 ad bd ec 09 9a be
       -0.26303253 -0.06326717 -0.08460127 -0.30085695
000120 67 5f 13 be 8b 1b 1b be 84 4f ff 3c d0 3c 5e bc
       -0.14391862 -0.15147226 0.031165846 -0.0135643035
000130 d9 96 05 3d 5f cf fe bd 48 82 cc 3e c5 7f e9 bc
       0.032614563 -0.12441897 0.39943147 -0.028503308
000140 3c aa 0e be 4c 2e 9c 3e da 31 07 3d a2 08 53 3d
       -0.13932127 0.30504072 0.033006527 0.051521905
000150 4e cb 40 be 3a 90 aa 3e 86 e8 6b 3b 3d 71 d2 3e
       -0.18827555 0.3331316 0.003599675 0.4110202
000160 c0 eb b6 3a ba 7c 88 3e ee e0 59 3e 83 cc 51 be
       0.0013955757 0.2665766 0.2127721 -0.20488171
000170 41 fb 2a 3e 4f 25 e8 bd 4a 82 12 be 48 d0 96 3b
       0.16697408 -0.11335241 -0.14307514 0.004602466
000180 2c f1 48 bc c4 a4 86 be 22 7d 81 bd 60 76 ad bd
       -0.012264531 -0.2629758 -0.06322695 -0.08469844
000190 36 07 9a be 3c 5f 13 be a0 1a 1b be f5 6d 05 3d
       -0.30083627 -0.14391798 -0.15146875 0.032575566
0001a0 b4 69 55 bc 61 e7 05 3d 72 b5 ff bd 55 87 cc 3e
       -0.01302569 0.032691363 -0.1248578 0.39947
0001b0 9d 14 ef bc f3 9f 0e be 74 2e 9c 3e 30 21 07 3d
       -0.029184634 -0.13928203 0.3050419 0.032990634
0001c0 3e e2 52 3d 0e 1c 41 be b6 a1 aa 3e 64 47 61 3b
       0.051485293 -0.18858358 0.333265 0.0034374828
0001d0 f1 0f d2 3e 00 80 d0 3a 87 81 88 3e 71 f1 59 3e
       0.41027787 0.0015907288 0.26661322 0.21283509
0001e0 a6 d0 51 be 36 be 2a 3e 15 32 e8 bd 9e 4d 12 be
       -0.2048975 0.16674122 -0.113376774 -0.14287421
0001f0 5a 3a 8f 3b d4 fb 56 bc bb b6 86 be f8 3f 81 bd
       0.0043709697 -0.013121564 -0.26311287 -0.06311029
000200 05 5c ad bd 4a 03 9a be c9 87 13 be 6a 4e 1b be
       -0.08464817 -0.30080634 -0.14407267 -0.15166631
000210 6c 81 fd 3c f4 62 58 bc 4b 0f 07 3d c0 da ff bd
       0.030945502 -0.013207186 0.03297357 -0.12492895
000220 3e 83 cc 3e c0 fd ee bc 99 9a 0e be 5b 2e 9c 3e
       0.3994388 -0.029173732 -0.13926162 0.30504116
000230 34 b3 05 3d f0 3a 52 3d ca 03 46 be 6b 98 aa 3e
       0.032641605 0.05132574 -0.19337383 0.3331941
000240 2a 44 7f 3b 08 81 d2 3e 80 7c da 3a d7 7d 88 3e
       0.003895054 0.41114068 0.0016669184 0.26658508
000250 0b 21 5a 3e 5d cf 51 be 36 12 2b 3e 27 99 e7 bd
       0.21301667 -0.20489259 0.16706166 -0.11308508
000260 d0 91 12 be 04 a3 96 3b 98 1b 4e bc 4b a7 86 be
       -0.14313436 0.0045970697 -0.012579821 -0.2629951
000270 fc 6f 81 bd 53 6a ad bd 3c 07 9a be 45 5f 13 be
       -0.063201874 -0.08467545 -0.30083644 -0.14391811
000280 79 2e 1b be da e6 04 3d d4 3f 53 bc 3a 17 07 3d
       -0.15154447 0.03244672 -0.012893636 0.032981135
000290 22 b9 ff bd 36 85 cc 3e 4b f0 ea bc 52 a7 0e be
       -0.12486483 0.39945382 -0.028679034 -0.13931015
0002a0 32 2e 9c 3e 1b 2d 07 3d 02 12 53 3d e0 a3 40 be
       0.30503994 0.033002 0.051530845 -0.18812513
0002b0 46 9f aa 3e e8 50 63 3b b5 70 d2 3e a0 21 c8 3a
       0.3332464 0.0034685675 0.41101614 0.001526881
0002c0 19 7d 88 3e b3 03 5a 3e 7c cc 51 be da 1f 2b 3e
       0.26657942 0.21290474 -0.20488161 0.16711369
0002d0 40 9d e7 bd fc 73 12 be e6 08 95 3b 0c a2 4e bc
       -0.1130929 -0.14302057 0.00454818 -0.012611877
0002e0 48 a9 86 be 16 44 81 bd c9 72 ad bd b9 09 9a be
       -0.26301026 -0.063118145 -0.08469159 -0.30085543
0002f0 aa 5d 13 be cf 34 1b be a7 f5 04 3d 3c 5e 54 bc
       -0.14391199 -0.15156864 0.032460835 -0.01296192
000300 38 a3 06 3d 32 af ff bd ee 86 cc 3e 4f 27 e8 bc
       0.0328705 -0.12484588 0.39946693 -0.028339056
000310 c3 98 0e be 2d 2e 9c 3e a2 28 07 3d ec 5f 53 3d
       -0.13925461 0.3050398 0.032997735 0.05160515
000320 0e 93 41 be ae 9c aa 3e 86 b0 71 3b 08 42 d2 3e
       -0.18903753 0.33322662 0.0036878898 0.41066003
000330 60 a4 d2 3a 76 7c 88 3e c2 09 5a 3e 92 d5 51 be
       0.0016070716 0.26657456 0.21292785 -0.20491627
000340 de 07 2b 3e 7f d7 e7 bd ab 96 12 be 5e 83 8f 3b
       0.1670222 -0.113203995 -0.14315288 0.004379674
000350 98 45 49 bc ba a6 86 be 95 47 81 bd ac 41 ad bd
       -0.012284659 -0.26299077 -0.06312481 -0.084597915
000360 0a 02 9a be 9f 60 13 be 6c 29 1b be 51 7c 03 3d
       -0.3007968 -0.14392327 -0.1515252 0.03210098
000370 38 b2 56 bc 67 e4 03 3d 51 0e 00 be df 86 cc 3e
       -0.013104014 0.032200243 -0.12505461 0.39946648
000380 07 56 ee bc 96 66 0e be 07 30 9c 3e cb fe 06 3d
       -0.029093755 -0.13906321 0.30505392 0.032957833
000390 18 55 52 3d a8 fe 42 be 43 a7 aa 3e 30 19 7f 3b
       0.051350683 -0.19042456 0.33330736 0.0038924925
0003a0 16 20 d2 3e c0 5e da 3a 25 7e 88 3e d4 fd 59 3e
       0.41040105 0.0016660318 0.2665874 0.21288234
0003b0 68 d1 51 be 0e de 2a 3e 56 01 e8 bd bf 61 12 be
       -0.20490038 0.1668627 -0.1132838 -0.142951
0003c0 46 b1 8a 3b a8 46 5e bc 87 b6 86 be b6 76 81 bd
       0.0042325584 -0.01356665 -0.26311132 -0.063214704
0003d0 cb 25 ad bd 10 fd 99 be f3 87 13 be 86 2f 1b be
       -0.08454474 -0.30075884 -0.1440733 -0.15154848
0003e0 61 4e 04 3d 2c 30 58 bc 19 fe 06 3d 2b cd ff bd
       0.03230131 -0.013195079 0.03295717 -0.124903046
0003f0 10 83 cc 3e 20 73 ed bc 57 91 0e be 63 2e 9c 3e
       0.39943743 -0.02898556 -0.1392263 0.3050414

conv.weight f4 [10, 1, 20]
000000 1a 3e 41 2c 6b 50 04 aa 13 81 d1 2b 8b 2d 81 2b
       2.7461423e-12 -1.1751856e-13 1.4886168e-12 9.178642e-13
000010 ca e7 85 aa 90 5b df ab 92 70 9e ab cc 52 b7 2b
       -2.3786382e-13 -1.5870517e-12 -1.125782e-12 1.3025913e-12
000020 6a ac 7b ac df a8 6c 2d cf 54 c3 ac b5 57 3d 2f
       -3.5764954e-12 1.3452544e-11 -5.551649e-12 1.722061e-10
000030 1d 29 a3 2d 5d ff ed 31 11 46 3a 32 74 e7 fb 32
       1.8549213e-11 6.9266393e-09 1.0842556e-08 2.9325498e-08
000040 09 af 49 32 41 f5 a0 31 6f 6d c9 b0 d8 f9 80 32
       1.1739538e-08 4.684495e-09 -1.4655778e-09 1.5014777e-08
000050 dc ed 77 ab e9 81 3e 2b 79 6b 3e ab aa 20 24 aa
       -8.8082124e-13 6.7681846e-13 -6.765071e-13 -1.4577459e-13
000060 97 09 02 aa 15 09 f0 aa 70 77 10 ab 23 44 12 2b
       -1.1549647e-13 -4.2638866e-13 -5.132483e-13 5.196418e-13
000070 3a 7d 1b 2b 43 d9 13 ab 62 3c eb 2a 1f 87 c8 2b
       5.524085e-13 -5.25264e-13 4.1786285e-13 1.4248358e-12
000080 8b d6 08 ac f4 b3 b9 aa 03 ff de 2b fa 34 02 aa
       -1.9445858e-12 -3.298747e-13 1.5844829e-12 -1.15647e-13
000090 77 d0 a7 2b e0 ae 0c ab dc 80 7e 2a 94 81 bc aa
       1.1923924e-12 -4.998068e-13 2.2604439e-13 -3.3485421e-13
0000a0 6d df 76 aa 70 ff 88 2a 0a b5 6d 2b 1e 36 3a 2a
       -2.1926706e-13 2.4335698e-13 8.4450556e-13 1.6538894e-13
0000b0 28 3d 44 aa 92 c2 c5 2a a0 12 db aa 6c 57 6c ab
       -1.7429515e-13 3.512924e-13 -3.8915138e-13 -8.3965365e-13
0000c0 91 7d 53 2b d1 64 8c a9 df 95 f8 2a 04 e5 8e ab
       7.5136517e-13 -6.234738e-14 4.4157644e-13 -1.0153271e-12
0000d0 5d 64 a3 ab b0 da df ab 2d 0d 43 ac 03 bb 14 ac
       -1.1609703e-12 -1.5905801e-12 -2.771848e-12 -2.1135877e-12
0000e0 91 06 3f ac 88 c4 1a ac 92 c9 2c 2c 8b 47 32 2c
       -2.7146378e-12 -2.1993813e-12 2.4554564e-12 2.5335036e-12
0000f0 18 87 ab 2b 1b 85 f8 ab 38 7d b2 29 52 ef 58 2a
       1.2187777e-12 -1.7658404e-12 7.92651e-14 1.9267685e-13
000100 1c c4 8c 2b 6c f2 56 ab 5c a5 30 aa ae db 50 2b
       1.000203e-12 -7.63645e-13 -1.5689311e-13 7.420131e-13
000110 be 01 34 a9 af e3 27 2a da 05 35 a9 30 8f f3 29
       -3.996954e-14 1.4911573e-13 -4.019515e-14 1.0816207e-13
000120 83 72 95 aa 80 f3 82 26 a7 fa 97 2b 5d 5b 48 ab
       -2.6547175e-13 9.086563e-16 1.0798765e-12 -7.1181066e-13
000130 11 48 66 2b 73 d0 40 2b 24 92 a0 aa d2 16 7b ab
       8.1812427e-13 6.8501384e-13 -2.8523115e-13 -8.9204783e-13
000140 a4 5e a5 29 e0 23 a2 a8 cc 72 10 2b c7 45 8b ab
       7.3438895e-14 -1.8001171e-14 5.131839e-13 -9.895911e-13
000150 82 a1 f3 2b 3c aa a0 2b da 4d 81 2b 28 b2 0f aa
       1.7311016e-12 1.1415933e-12 9.187609e-13 -1.2762762e-13
000160 82 2f 35 2a 71 85 10 aa d4 50 70 aa c2 8c 1b 2b
       1.6092512e-13 -1.2836066e-13 -2.1344325e-13 5.5262403e-13
000170 cd 76 a0 aa 12 63 bf 2a c8 12 43 2a 72 47 88 aa
       -2.8504144e-13 3.399716e-13 1.7325995e-13 -2.4208028e-13
000180 e2 86 3c ab 26 6d 28 aa 04 f6 b1 ab c9 da b4 ab
       -6.6978205e-13 -1.4959266e-13 -1.264489e-12 -1.2850494e-12
000190 cc cf 39 2a 0f 30 c3 aa ad 95 34 aa 2b 12 06 2b
       1.6503395e-13 -3.4672306e-13 -1.6039141e-13 4.7631576e-13
0001a0 b6 a5 b0 aa 4d 03 c0 2a c0 c6 94 a9 a4 a5 a6 2a
       -3.1378865e-13 3.4108342e-13 -6.606998e-14 2.960246e-13
0001b0 83 a6 87 2a 5e 81 c2 28 aa 9f ba aa be 67 8e aa
       2.4096358e-13 2.159443e-14 -3.3151026e-13 -2.5296253e-13
0001c0 f5 33 14 aa b4 b8 9d aa 99 63 a5 aa 7e 92 22 2b
       -1.3163067e-13 -2.8016966e-13 -2.9378998e-13 5.775726e-13
0001d0 0f 2a 1b aa 62 09 f9 2a 49 1f 0e 2b ae 74 08 2b
       -1.3781358e-13 4.4237796e-13 5.049195e-13 4.847883e-13
0001e0 f5 bc 32 aa f3 94 1a 2b e4 80 ce aa 83 69 34 ab
       -1.5875134e-13 5.49185e-13 -3.6682387e-13 -6.4095273e-13
0001f0 33 6e 4e 2b 7c 22 ce 2a a2 e5 95 aa 85 17 3e 2a
       7.3338834e-13 3.661688e-13 -2.6627057e-13 1.688355e-13
000200 2e ee d7 aa 28 69 aa aa 0a b3 ab a9 52 57 1c 2a
       -3.8356942e-13 -3.0271033e-13 -7.624984e-14 1.3885879e-13
000210 6f c1 8d 2a a3 43 ad 2a 1a b9 b9 2a 32 0a ae 2a
       2.5180853e-13 3.0777906e-13 3.2991042e-13 3.0915683e-13
000220 18 71 a3 28 b4 e4 32 aa a2 ac 2b 2b 1c 96 34 ab
       1.8145682e-14 -1.5888923e-13 6.099098e-13 -6.4157165e-13
000230 a0 79 07 2b 2b a8 cc 29 7e a8 46 aa 4c 3f 1e 2b
       4.8130423e-13 9.0885924e-14 -1.764439e-13 5.622072e-13
000240 13 82 cc 2a 53 92 52 aa 8e 96 93 a9 36 68 98 29
       3.6327937e-13 -1.8702513e-13 -6.5542285e-14 6.768234e-14
000250 5c 25 99 a9 f9 98 b6 aa 9f cb 6f aa ac fa 16 2b
       -6.801046e-14 -3.243584e-13 -2.129811e-13 5.363858e-13
000260 64 bc 10 ab a0 73 0e ab ae ef e1 aa f4 15 13 aa
       -5.142052e-13 -5.0608996e-13 -4.013434e-13 -1.3063839e-13
000270 75 3d f2 a9 e7 7c 75 2a 20 91 35 a7 ce 69 ed 2a
       -1.075762e-13 2.1803705e-13 -2.5197468e-15 4.2173074e-13
000280 f0 0a c6 2a 34 0c 1e 2a 81 9c fe a9 34 b2 ed aa
       3.5179455e-13 1.4037453e-13 -1.1307015e-13 -4.222331e-13
000290 7d a2 bc ab 63 f2 1f ab 1c 4d 52 2b ba f3 42 2b
       -1.3403303e-12 -5.6824527e-13 7.4714e-13 6.9260884e-13
0002a0 e6 ae 01 2b 14 cd b9 2a 9c 6a cb 29 d6 83 41 2b
       4.6072727e-13 3.3004903e-13 9.033505e-14 6.8750333e-13
0002b0 56 4c 6f 2b c3 79 2c ac 6e c7 c6 ab ff a0 cb ab
       8.5015794e-13 -2.4510261e-12 -1.4124099e-12 -1.4468703e-12
0002c0 20 81 05 ac 32 d5 c4 ab 78 0f 41 ac 6d c7 a6 2c
       -1.8972116e-12 -1.3985811e-12 -2.7435536e-12 4.7401445e-12
0002d0 c9 a3 4f 2a 86 78 0e aa af 92 97 29 16 48 f0 29
       1.8442118e-13 -1.2653949e-13 6.7311926e-14 1.0670646e-13
0002e0 0a 21 12 ab 87 3c 66 ab e0 31 b7 29 b0 d9 51 aa
       -5.191547e-13 -8.1796413e-13 8.1354845e-14 -1.8638454e-13
0002f0 f3 af 5c 2b 80 89 9a aa b0 41 14 2a d7 b7 52 aa
       7.840388e-13 -2.7451305e-13 1.316783e-13 -1.8715529e-13
000300 ae 0e e9 aa 14 17 b3 2b 64 e3 8a ab d8 fb 8c ac
       -4.13993e-13 1.272512e-12 -9.868603e-13 -4.0069996e-12
000310 54 1a b5 ac a1 f7 84 2c af eb 78 ac d8 f7 c7 2a
       -5.1472524e-12 3.779158e-12 -3.537375e-12 3.5521477e-13

conv.bias f4 [10]
000000 f0 3e 31 bd 58 6b 99 b7 b5 93 08 bc ca 73 36 2c
       -0.043272913 -1.8289007e-05 -0.008335997 2.5928031e-12
000010 ff 60 39 bd d4 63 8d 2a e8 fe 1f bc 9b 8e 1b ba
       -0.04525852 2.51159e-13 -0.009765364 -0.00059340306
000020 8b 76 e8 bb 8a 3e 17 ab
       -0.0070942095 -5.3732767e-13

conv_long.weight f4 [10, 1, 10]
000000 61 a5 2f 2b d1 e9 87 ab 64 38 91 2a cb 4b 11 2b
       6.2402e-13 -9.657224e-13 2.5796303e-13 5.161953e-13
000010 a6 f6 df 2b da e9 f4 2b 18 48 fc a9 5e d4 3f 2a
       1.5913562e-12 1.740215e-12 -1.12035544e-13 1.7037887e-13
000020 48 11 be 2a f1 e3 c4 aa 2b 25 05 aa 51 54 60 2b
       3.376277e-13 -3.497476e-13 -1.1825668e-13 7.96978e-13
000030 20 74 00 aa 2c 2b 2b 2b 9e 6e 7f 2b f9 fd 59 ab
       -1.1408973e-13 6.0811317e-13 9.074771e-13 -7.7446345e-13
000040 69 c6 ed 2a 80 02 47 ab e0 ed 10 ab 64 85 a0 2a
       4.2237332e-13 -7.070247e-13 -5.1489195e-13 2.8514268e-13
000050 b9 88 0b 2d e6 92 76 2c d8 83 e4 ab f1 6e 9b ab
       7.931594e-12 3.5040248e-12 -1.6236968e-12 -1.1044205e-12
000060 a2 b5 47 2c f6 86 ae ab 7c ee db 2b 6b 36 13 2c
       2.8380427e-12 -1.2400903e-12 1.5627079e-12 2.0920164e-12
000070 4e 30 56 ad 6e 9d ca b0 8f cb 99 2f e1 1c 41 ae
       -1.2175217e-11 -1.4742179e-09 2.7975175e-10 -4.390877e-11
000080 d3 b6 a8 ae 7f bb 85 ae 6c 7c 9b b0 1b 81 93 b3
       -7.6722316e-11 -6.081446e-11 -1.1313097e-09 -6.868705e-08
000090 18 d7 30 b8 ec 4c 67 b9 4e c9 d8 b8 08 f2 44 b8
       -4.216199e-05 -0.00022058532 -0.000103371785 -4.695545e-05
0000a0 f5 be 12 ab 7a 63 cb aa 82 eb de 2a 86 5a 92 aa
       -5.2134626e-13 -3.612907e-13 3.9598538e-13 -2.5997623e-13
0000b0 6d 50 89 2a 65 ce e1 2a 03 e2 1d ab f2 1f 40 2b
       2.4391895e-13 4.0111244e-13 -5.609126e-13 6.8256436e-13
0000c0 e3 74 a3 aa 1a ef 90 ab 86 12 83 b0 52 d9 91 2e
       -2.9035723e-13 -1.0298179e-12 -9.536769e-10 6.6324404e-11
0000d0 45 86 6d 2f 76 e6 e7 2e bc 45 3b 32 c8 d6 1f b7
       2.1602727e-10 1.0545602e-10 1.0900688e-08 -9.527146e-06
0000e0 b8 29 91 b9 1a c6 00 ba 8c 27 31 ba 7c f1 2e ba
       -0.00027687638 -0.0004912332 -0.0006757907 -0.0006673557
0000f0 f0 a1 3c ab 42 d8 80 2b 74 83 2d 2b a4 43 11 2a
       -6.701575e-13 9.154971e-13 6.1644375e-13 1.2902055e-13
000100 8f 50 71 2a 2b 62 0f 2b a6 b5 1a ab a9 0f 0c aa
       2.1433049e-13 5.094004e-13 -5.496388e-13 -1.2439931e-13
000110 f8 9f 18 aa e4 a7 e7 a9 e0 7f 5c 2b 66 fb 85 2b
       -1.3555812e-13 -1.0287585e-13 7.8337163e-13 9.519995e-13
000120 4c 47 06 2b 87 5c e6 aa 2a 83 9e 2b c4 8e 3a 2b
       4.770531e-13 -4.092041e-13 1.1262981e-12 6.62786e-13
000130 61 7c cb aa fa f7 a9 aa 44 83 01 2a c5 55 85 2a
       -3.614635e-13 -3.01925e-13 1.1503044e-13 2.368506e-13
000140 4e 55 e2 2b 34 5f 99 2b 60 c3 4e ab f6 3e 3f ac
       1.6081943e-12 1.0897728e-12 -7.345704e-13 -2.7177683e-12
000150 6e d1 a4 2d d8 67 3c 2e 27 87 a2 b3 eb 66 99 32
       1.8737647e-11 4.2838483e-11 -7.568297e-08 1.7858346e-08
000160 4c 37 e3 2d 84 aa 96 2d a2 45 8b 2b b9 16 6c 2b
       2.5831469e-11 1.712875e-11 9.895871e-13 8.3875577e-13
000170 d4 80 ac 2b f7 16 f2 2b be cb 5f ab 4e d7 10 ab
       1.2257092e-12 1.7201508e-12 -7.9508264e-13 -5.145787e-13
000180 f0 2c d8 a9 da e0 1a 2a 3e 10 db ab 4c 27 0a ad
       -9.6001223e-14 1.3755959e-13 -1.5565394e-12 -7.8531175e-12

conv_long.bias f4 [10]
000000 53 f8 77 ac a8 0d 24 ba af 29 11 be 40 85 1f be
       -3.5238659e-12 -0.00062581385 -0.14176057 -0.15578175
000010 ee 10 80 ae ff 82 ee bd df 77 48 2b 8f c9 98 2d
       -5.8237734e-11 -0.11646079 7.122063e-13 1.736991e-11
000020 74 f1 2e bb 53 f2 9e b9
       -0.002669421 -0.00030316654

conv1.weight f4 [30, 30]
000000 90 c8 e2 ba 1f 08 55 31 93 34 dd b5 fe 2f 9a b3
       -0.0017302204 3.1000196e-09 -1.6481084e-06 -7.1799136e-08
000010 aa 0d 8d bb 0a 8b 0a aa 01 2e fb 2a 88 fb 19 2c
       -0.0043046074 -1.2305101e-13 4.4618478e-13 2.1882236e-12
000020 1c 24 ba ac 4e a8 1f 35 5a 4e f9 29 a7 55 41 2f
       -5.290447e-12 5.947703e-07 1.1071413e-13 1.7583678e-10
000030 fc 72 5b 2b 07 61 41 ae 2a 04 0d 2b 73 70 53 2b
       7.7964e-13 -4.3969297e-11 5.009904e-13 7.5118313e-13
000040 1d 03 c0 b8 4e 84 dd b4 a9 51 64 37 39 c9 fe b3
       -9.155853e-05 -4.1260722e-07 1.3608872e-05 -1.1864399e-07
000050 b1 8a 99 2a 8b 1d 0a bc eb 95 ba a9 a0 5c b3 b5
       2.7274496e-13 -0.008429895 -8.286066e-14 -1.3363497e-06
000060 f6 08 94 2d 33 cf 07 31 34 16 56 39 d6 ba bf ae
       1.6829631e-11 1.9762865e-09 0.00020416902 -8.718863e-11
000070 68 d4 4c ae d3 0d ae ab f8 1c 73 a8 58 c7 2d a8
       -4.6572884e-11 -1.2367281e-12 -1.3495491e-14 -9.646655e-15
000080 34 fe fc 29 c4 46 cf 28 d8 c0 90 a9 d8 b8 04 a9
       1.1235145e-13 2.3012306e-14 -6.428338e-14 -2.9470214e-14
000090 09 2d d3 2a 80 9c 14 a8 f8 c3 6e aa 1a 98 6e a9
       3.751238e-13 -8.249586e-15 -2.1206637e-13 -5.2978543e-14
0000a0 73 76 05 2a 98 b8 be 29 c9 e8 e7 29 fe 36 29 2a
       1.1853868e-13 8.469717e-14 1.02988425e-13 1.5029295e-13
0000b0 28 f1 0c 28 78 10 8c 29 cb fc c1 a9 27 f6 f9 29
       7.823854e-15 6.220106e-14 -8.6147743e-14 1.1100522e-13
0000c0 78 ef 01 a8 2f f5 32 2a 9c 93 fc 29 04 d7 9c 2b
       -7.212865e-15 1.5894641e-13 1.1216654e-13 1.1144146e-12
0000d0 00 3c e5 26 5e 6e 0c a9 36 40 f8 29 2a 0b f7 29
       1.590633e-15 -3.1181973e-14 1.1024551e-13 1.097094e-13
0000e0 bd c8 0e 2a 88 19 19 a9 00 e7 2b 27 4d 8b bd 29
       1.2681779e-13 -3.399497e-14 2.3856243e-15 8.417451e-14
0000f0 c5 46 e0 a9 c4 a4 af 29 2a 39 c8 29 28 77 b2 a9
       -9.959875e-14 7.8001435e-14 8.8917006e-14 -7.925458e-14
000100 04 9b a9 29 58 1a e7 28 c8 75 90 ab ae eb 74 a9
       7.5319986e-14 2.5657577e-14 -1.0264506e-12 -5.4383303e-14
000110 10 a2 a7 a9 a5 db 1a aa e4 72 03 aa c4 43 dc 29
       -7.444403e-14 -1.3754152e-13 -1.1674998e-13 9.781718e-14
000120 48 f5 15 2a b8 5a cf a8 06 af 1a a9 cb 46 0e a9
       1.3318957e-13 -2.302096e-14 -3.4346678e-14 -3.1591737e-14
000130 68 9c 69 aa bc b4 8f 2a 24 ce 56 a9 84 c5 9f aa
       -2.0748821e-13 2.5527312e-13 -4.7696344e-14 -2.8381128e-13
000140 16 29 81 a9 0c 17 f1 2b 56 bb c5 28 08 fc f0 28
       -5.735878e-14 1.7130477e-12 2.1952638e-14 2.6754654e-14
000150 2b f6 2f 2a 3e b4 67 28 72 4b 54 2a 7a c4 0b 2a
       1.5628529e-13 1.286216e-14 1.8855558e-13 1.2413847e-13
000160 ac 7a 96 aa 72 14 2d aa 92 56 85 2b d4 73 0d a8
       -2.6730473e-13 -1.537258e-13 9.474246e-13 -7.8521885e-15
000170 b7 83 44 ab 90 2f d3 2a 0f df 1d ac f8 5c 16 2a
       -6.981598e-13 3.7514132e-13 -2.2434864e-12 1.3354931e-13
000180 93 92 54 2a b0 7f 97 2a bd 12 11 ab ae f6 85 2a
       1.8880236e-13 2.691159e-13 -5.1540353e-13 2.3796714e-13
000190 58 92 94 aa 5c e3 61 28 2c 48 78 aa 40 4f 01 2a
       -2.6391628e-13 1.253931e-14 -2.2051864e-13 1.1484997e-13
0001a0 6c d7 49 29 88 74 e9 a8 3d 60 04 ac 88 57 c9 ab
       4.4817814e-14 -2.5918734e-14 -1.8811751e-12 -1.4306204e-12
0001b0 e6 5f de 2a 62 47 c9 aa 94 f5 0b 2a fb 13 a2 2e
       3.9501665e-13 -3.5754304e-13 1.2430882e-13 7.370456e-11
0001c0 f8 58 29 2a 79 3d 7e aa 22 1c a8 2a 99 de 89 aa
       1.5041083e-13 -2.258106e-13 2.9862316e-13 -2.4490547e-13
0001d0 cf 29 87 ad 2f d4 31 2a 61 13 de 2a 66 8d d3 aa
       -1.536629e-11 1.5794374e-13 3.944857e-13 -3.7579244e-13
0001e0 7c a6 af aa 6a a4 06 a9 a8 fb ca aa 82 4f df 2a
       -3.1201766e-13 -2.9896584e-14 -3.605703e-13 3.9667927e-13
0001f0 8c cb c2 28 96 50 99 29 ea fc ae 29 a6 7f 4d a9
       2.1626601e-14 6.8085443e-14 7.771026e-14 -4.562986e-14
000200 45 51 eb aa be f6 3e 2b dc c1 11 a9 06 f8 cb a8
       -4.1800778e-13 6.7843983e-13 -3.2364614e-14 -2.264509e-14
000210 ea 64 72 a9 ac b3 30 ab c0 6e 3b 27 99 4a fb a9
       -5.3822323e-14 -6.2777106e-13 2.60115e-15 -1.115958e-13
000220 f9 1c 58 ab 8c 11 f5 ab 4e 0f 2e aa b0 80 fc ab
       -7.6778823e-13 -1.7413167e-12 -1.5459614e-13 -1.7941395e-12
000230 5d 50 d7 aa 24 d0 fc a9 14 11 6f 2a 08 b6 c6 a9
       -3.8247435e-13 -1.1227155e-13 2.123339e-13 -8.824544e-14
000240 82 68 2b 2b 96 aa b3 aa c3 81 a5 2a fb b3 10 ab
       6.089644e-13 -3.1915155e-13 2.9399928e-13 -5.140885e-13
000250 ea 9a 96 2b 5c 98 0c ab 27 b1 73 aa 1b fb 83 a9
       1.0701138e-12 -4.994943e-13 -2.1644198e-13 -5.8611285e-14
000260 f7 35 e2 aa e2 7e d2 2a 3a d3 b6 28 9d 84 9d a9
       -4.018311e-13 3.7391536e-13 2.0297664e-14 -6.995205e-14
000270 bc fd 61 2a 44 e9 0e a9 fb 83 02 ab b9 77 77 2b
       2.0072046e-13 -3.173266e-14 -4.636844e-13 8.7918176e-13
000280 4f 66 96 aa 96 ba 92 a8 ca a1 16 ab 59 63 37 aa
       -2.6716343e-13 -1.6290175e-14 -5.351523e-13 -1.6288133e-13
000290 74 da ca a9 76 dc 86 a8 8e cc 49 ab 49 8c df ab
       -9.0084976e-14 -1.4972598e-14 -7.169342e-13 -1.588404e-12
0002a0 b0 fb d4 29 08 f1 98 2b 53 b8 53 2a 16 5f 6c a9
       9.458352e-14 1.0867149e-12 1.8804515e-13 -5.2485e-14
0002b0 e0 a3 2f a9 a0 a9 3a a9 fd a0 5d 2b 6e 78 61 aa
       -3.8999945e-14 -4.1447423e-14 7.873839e-13 -2.0025797e-13
0002c0 30 d0 25 2a 7b 81 33 ab 5e ea 6f 2b c7 0a be aa
       1.4727173e-13 -6.3773265e-13 8.5235107e-13 -3.3758258e-13
0002d0 c0 1c 6a 38 f5 e1 43 ad 1b 7e a3 31 cc 06 4a b0
       5.5816723e-05 -1.1134639e-11 4.758261e-09 -7.349683e-10
0002e0 17 5e 83 ba c8 f8 99 aa 95 01 dc a9 6c c7 42 2c
       -0.0010022548 -2.7350886e-13 -9.770237e-14 2.767976e-12
0002f0 d1 5a 3d ab 28 2e 9a ae 2e d7 cf 2a 33 d1 26 ad
       -6.727232e-13 -7.011308e-11 3.6919897e-13 -9.482459e-12
000300 ff d5 17 2b 4e 14 8a ab 9c 3e 11 2a 43 84 34 ab
       5.3942956e-13 -9.811125e-13 1.2900309e-13 -6.4132396e-13
000310 bb bc a1 b5 c2 77 7c 2d 85 64 dd b4 73 5d ae ac
       -1.2050363e-06 1.4351133e-11 -4.1237595e-07 -4.9557524e-12
000320 4a cd 8b 2a bd b3 d2 bb 0a 63 3a 2a 1e 41 7d 30
       2.4833808e-13 -0.006430118 1.655448e-13 9.21334e-10
000330 e3 3f 49 2b 0b 68 b9 2e ae 9e 2f bb e6 17 42 ad
       7.1498206e-13 8.431308e-11 -0.0026797461 -1.103293e-11
000340 78 bf 0e 2c 28 86 3f 2b 42 60 df 2d 0f 9e 6d 2a
       2.02857e-12 6.804301e-13 2.5394912e-11 2.1104666e-13
000350 7c 50 7e a9 b6 96 5a 2b aa 79 c5 af 2d 85 a9 aa
       -5.646914e-14 7.765831e-13 -3.592054e-10 -3.011284e-13
000360 aa b8 0f aa 73 5a 3d ab ee 01 60 ae 05 d3 24 b2
       -1.276502e-13 -6.727181e-13 -5.0933417e-11 -9.594037e-09
000370 7e 1b fb a9 9b 21 bb aa 8c 20 b3 ab 34 cc d0 b0
       -1.1151408e-13 -3.3241191e-13 -1.2727749e-12 -1.519203e-09
000380 0e fa 0a 29 6d 1e 0f ab d3 f0 b7 32 eb 02 33 b8
       3.0859043e-14 -5.084603e-13 2.1413518e-08 -4.2679643e-05
000390 f0 d8 55 b2 d0 df 9b b7 db dc 49 ab 4e 14 29 b6
       -1.2447558e-08 -1.858166e-05 -7.1716043e-13 -2.5194781e-06
0003a0 ca 82 93 2a 25 5c c3 aa 5c d9 26 2f 72 86 c0 a9
       2.62032e-13 -3.4702896e-13 1.5174834e-10 -8.5498354e-14
0003b0 37 99 d4 b2 e6 34 92 2b c5 26 8f 31 98 d3 30 2b
       -2.4749722e-08 1.0388606e-12 4.1662553e-09 6.2821406e-13
0003c0 83 bb 9f af 58 cb a0 2a 64 f4 86 a9 4d f6 14 2c
       -2.9055167e-10 2.8562808e-13 -5.9931904e-14 2.116879e-12
0003d0 d3 f5 0c ae 18 87 30 2a 8c 1b b1 a8 b0 db 53 ab
       -3.205065e-11 1.567881e-13 -1.9662894e-14 -7.5267136e-13
0003e0 42 9f b6 ae a6 44 cf b2 2a 01 4f ab 62 41 9d aa
       -8.304692e-11 -2.412919e-08 -7.354279e-13 -2.793417e-13
0003f0 53 bb 4b ab 08 48 14 b0 40 78 e4 28 05 f6 03 ab
       -7.238005e-13 -5.394445e-10 2.5365235e-14 -4.688197e-13

conv1.bias f4 [30]
000000 51 3d a3 bc 7c 25 ef bb 97 f5 97 bb 33 8e 8b bb
       -0.019926699 -0.0072981697 -0.004637431 -0.004258895
000010 fe 7a f9 bc d3 d1 e7 2a 54 e7 85 ae 97 64 82 b6
       -0.030454155 4.1179438e-13 -6.089232e-11 -3.886012e-06
000020 80 1b 97 ba 23 d4 49 bd e1 de 1a ae 4d 8f da bb
       -0.0011528581 -0.049274575 -3.5213502e-11 -0.006669915
000030 dc 0a 69 b6 65 79 a4 bb e1 23 1b bd 79 c0 03 bd
       -3.4726027e-06 -0.005019354 -0.037876014 -0.032165978
000040 ad 4a 2a bd 7c 68 56 bd bd ba 8a bc 60 eb f6 bc
       -0.041575123 -0.052345738 -0.016934747 -0.030141532
000050 a1 db 18 ad 87 60 07 3d 4e e1 93 2e 6f 27 09 bd
       -8.688967e-12 0.03305104 6.724808e-11 -0.033484872
000060 16 f1 41 bb 32 36 63 bc 9d 99 2c bd 2f 23 ee bb
       -0.0029593161 -0.013867902 -0.042138685 -0.007267378
000070 2d 21 d7 bb 7f 10 3e b7
       -0.006565234 -1.1328723e-05

conv2.weight f4 [30, 10]
000000 07 cf cc a9 2b ea 9e bb 82 88 07 b1 31 8d c1 ac
       -9.0953334e-14 -0.0048496923 -1.9722681e-09 -5.5010653e-12
000010 72 98 2b b9 e5 e4 c7 2c 46 49 4f a9 50 b7 68 3c
       -0.00016364621 5.6813326e-12 -4.6026788e-14 0.014203861
000020 f7 42 f3 3c 78 60 aa a8 d0 63 29 a9 d4 39 21 ab
       0.029695017 -1.8915628e-14 -3.7612112e-14 -5.7278943e-13
000030 d5 58 88 2a be 30 18 2a f0 ef 1d 29 80 b4 54 a9
       2.4220093e-13 1.3517223e-13 3.5069116e-14 -4.7230015e-14
000040 2d ef a9 28 1d a1 59 b7 9d 45 e4 38 e4 cd cd a8
       1.8866495e-14 -1.297172e-05 0.00010884854 -2.2848863e-14
000050 f7 29 06 aa 88 f1 8b bc d4 0c 8d b6 7f 1c 90 ae
       -1.191615e-13 -0.017082945 -4.203621e-06 -6.553424e-11
000060 01 6c ea ba 0a 8a b4 2a 15 8e 52 ab a4 ed e3 3c
       -0.0017884971 3.2070207e-13 -7.4804166e-13 0.027823277
000070 bc d8 05 bd a2 16 ad a9 3f 44 b5 29 a9 69 1b bc
       -0.032677397 -7.6866695e-14 8.0498535e-14 -0.009485641
000080 ac b6 36 32 e4 f4 b3 2d aa 8c bf ba 7f 0f 80 2b
       1.0635329e-08 2.0458697e-11 -0.0014614065 9.099248e-13
000090 f5 4a 57 aa 9a 48 b8 3c 85 65 9f bb 0b 08 e4 29
       -1.9121842e-13 0.022495557 -0.004864397 1.0126629e-13
0000a0 28 09 ff a8 f9 81 a1 ba fd f1 58 2f 5e 47 04 ad
       -2.8314658e-14 -0.001232206 1.9731057e-10 -7.519178e-12
0000b0 ba 8a 67 ba 6a 68 f8 2a 49 f4 45 2b a0 94 36 3b
       -0.00088326226 4.4126101e-13 7.0327473e-13 0.0027859583
0000c0 26 21 0e bc 07 c2 72 2a 4d 3a 74 29 1e a4 a4 29
       -0.008674895 2.1561235e-13 5.422945e-14 7.311533e-14
0000d0 78 a8 89 29 2e 0d f3 29 74 28 00 2a fa 3a 21 a9
       6.113247e-14 1.0793654e-13 1.1382719e-13 -3.5800335e-14
0000e0 50 7b 8f ae d3 ba d3 28 f3 5a 81 ab c6 53 21 a9
       -6.524792e-11 2.3506728e-14 -9.191245e-13 -3.5821843e-14
0000f0 3a b0 56 29 30 37 19 a8 04 19 e4 a8 57 43 e8 29
       4.7670398e-14 -8.505173e-15 -2.5323934e-14 1.0314551e-13
000100 58 55 c8 ac ed 53 5f a9 68 73 8d aa 64 3e c3 29
       -5.693817e-12 -4.958874e-14 -2.512671e-13 8.6705626e-14
000110 d4 39 d1 ad c4 7c 3c 29 c6 f3 06 a9 03 bd 64 2c
       -2.378623e-11 4.1852603e-14 -2.9965417e-14 3.2505671e-12
000120 9e fe 1c a9 8f 55 9b aa a0 34 db a7 16 ce ad a8
       -3.4859804e-14 -2.75929e-13 -6.0841767e-15 -1.9296234e-14
000130 8e 85 81 28 67 c8 9b ad fe 49 81 32 d0 43 08 aa
       1.4379797e-14 -1.7710456e-11 1.5051224e-08 -1.2102754e-13
000140 a0 85 39 a8 c0 a7 ad 29 64 d3 bb 28 02 a9 2b 2b
       -1.0298538e-14 7.711843e-14 2.0852847e-14 6.098595e-13
000150 61 99 35 b4 3c 2e b3 a8 44 5b 09 2b 95 fd 06 2a
       -1.6912738e-07 -1.9893043e-14 4.8798834e-13 1.198957e-13
000160 72 78 58 35 74 ab b8 a9 f6 79 98 bb 3e ed 19 bc
       8.064154e-07 -8.200984e-14 -0.0046532108 -0.009394942
000170 fd 62 8e 32 23 3b 59 ac 88 1c 9d 31 3e 85 a9 bb
       1.657599e-08 -3.0870382e-12 4.572545e-09 -0.0051733544
000180 f7 1d 97 aa 83 f3 4b bc 4e eb 4a 3d bc 2b fe 2a
       -2.684378e-13 -0.012448194 0.04954081 4.514981e-13
000190 a8 af 2c 29 ae a3 75 28 7c 59 ae a9 0b 15 1b aa
       3.834403e-14 1.36357244e-14 -7.742675e-14 -1.3774066e-13
0001a0 1c 40 6b 2a fb 65 16 2a 84 d4 3b 29 e8 c9 c6 a8
       2.0894435e-13 1.3358058e-13 4.170667e-14 -2.2069979e-14
0001b0 07 cf e2 2b 74 f8 15 29 38 05 38 28 b2 cc 97 2a
       1.6115727e-12 3.3300145e-14 1.02151835e-14 2.6965024e-13
0001c0 13 cb 59 2a e0 b4 bc a7 98 dc 87 a8 3d f7 2f ac
       1.9343927e-13 -5.2376587e-15 -1.5083678e-14 -2.500624e-12
0001d0 68 76 51 a9 7f c3 11 bb 02 fa 89 3b d2 f5 d9 a8
       -4.6510023e-14 -0.002224177 0.0042107115 -2.4198447e-14
0001e0 94 a1 b2 a9 c6 25 06 2a 63 c5 84 a9 83 5e c9 aa
       -7.932817e-14 1.1914696e-13 -5.896219e-14 -3.5770353e-13
0001f0 6e 3c 60 b2 29 38 07 2a f5 19 93 2a 47 af 57 29
       -1.3052256e-08 1.2009893e-13 2.6130457e-13 4.789162e-14
000200 06 ad 0d 35 c0 c1 26 a6 eb ea 37 29 c0 20 42 26
       5.2778375e-07 -5.78554e-16 4.083792e-14 6.7351655e-16
000210 c4 f2 70 28 98 8e af 2a 8e 54 4d 32 53 fd 32 29
       1.3375318e-14 3.118519e-13 1.1951796e-08 3.9743663e-14
000220 f7 64 8e aa a8 10 be a7 33 a6 94 b2 d8 08 e9 28
       -2.5294326e-13 -5.2753652e-15 -1.7305046e-08 2.5872032e-14
000230 c2 bb 2d b7 e2 bc 89 28 51 cb 81 a9 4a 48 9d a8
       -1.0355319e-05 1.529197e-14 -5.7640206e-14 -1.7461852e-14
000240 f6 46 1f a9 32 18 0b ae f8 1e b1 a9 ca ba 30 b8
       -3.536664e-14 -3.162643e-11 -7.865751e-14 -4.213563e-05
000250 0c 90 23 3a a8 de 9f 27 33 3a 28 b7 fb ac e3 a9
       0.0006239421 4.437277e-15 -1.0027131e-05 -1.01108324e-13
000260 66 bf 8d 29 08 63 c3 28 7b cc 7b 29 87 89 ae b9
       6.29486e-14 2.1692297e-14 5.5910554e-14 -0.00033290332
000270 5f 32 8d a9 7e 93 83 bb 16 0c d2 bc 2d 06 1c 2b
       -6.270396e-14 -0.004015385 -0.025640529 5.5430904e-13
000280 99 4b c6 29 a4 5f b7 2d 81 1c 54 2b 7d e5 b1 2d
       8.8060805e-14 2.0847164e-11 7.5357087e-13 2.0224484e-11
000290 fb 77 4d bb 0d c5 ae 29 a0 bc 6c 2b f0 28 ef ae
       -0.0031352032 7.761335e-14 8.410581e-13 -1.08757336e-10
0002a0 07 8e 13 3c 67 d9 75 2a c9 85 17 29 44 f7 a4 29
       0.00900603 2.1835798e-13 3.3644775e-14 7.325957e-14
0002b0 d4 e7 01 a9 3d bf 05 ab 4b d4 5d b3 66 85 1d aa
       -2.8844833e-14 -4.751649e-13 -5.164865e-08 -1.3990683e-13
0002c0 ac 01 1e 2a 64 3d 07 a8 3e 02 53 34 38 60 d7 a9
       1.4033799e-13 -7.507317e-15 1.9651722e-07 -9.564609e-14
0002d0 24 92 f4 ac 5d e8 56 bd 32 36 4b b8 a6 c2 b6 2e
       -6.951122e-12 -0.052467693 -4.8449445e-05 8.310978e-11
0002e0 86 b2 d2 b9 13 44 4c b1 90 0a 38 aa d4 df a0 3d
       -0.00040187332 -2.9724603e-09 -1.6346148e-13 0.07855192
0002f0 2f 26 c7 3d fa b3 46 2a 87 3b bf 29 e8 3c 90 29
       0.0972408 1.7648375e-13 8.49243e-14 6.40545e-14
000300 64 aa ac 28 6f ae 9e 2b 68 c4 8f b7 e0 34 7a 29
       1.9169731e-14 1.127499e-12 -1.7138387e-05 5.5557013e-14
000310 e6 73 5b 2a 0c 9e 00 2a d6 f7 b4 37 50 d6 28 aa
       1.9491318e-13 1.1423517e-13 2.157308e-05 -1.4995752e-13
000320 af b2 9e 29 f4 c2 b2 a9 d0 1b 5e 28 00 cc 9c 26
       7.047606e-14 -7.938607e-14 1.23295064e-14 1.0879969e-15
000330 04 7f e5 a9 18 fc 79 a8 fe 28 05 2a 53 39 26 aa
       -1.01916766e-13 -1.3876941e-14 1.1826995e-13 -1.476365e-13
000340 fd b3 e4 aa 5a e1 97 29 ec 47 2c ae b0 ba 35 bb
       -4.0625828e-13 6.744839e-14 -3.917215e-11 -0.0027729683
000350 70 80 c1 b0 73 ae 18 ac e2 f0 f7 29 4b 10 39 2f
       -1.4079102e-09 -2.1697338e-12 1.101079e-13 1.683144e-10
000360 7f 19 be b2 10 ac 21 3b 2c d5 b2 bc 87 2e c3 ad
       -2.2130505e-08 0.0024669208 -0.021830164 -2.2189596e-11
000370 33 89 53 29 2d 7c 84 29 cf a1 15 29 48 8f 9a 2b
       4.6970413e-14 5.8835186e-14 3.3224993e-14 1.0982127e-12
000380 ba 03 2a 32 2c 55 c7 a8 42 ce 99 29 c6 66 d3 a8
       9.89615e-09 -2.2130376e-14 6.830345e-14 -2.3470277e-14
000390 a2 f1 62 b2 a0 ee 04 a8 40 9e 07 a7 d7 0e c3 ab
       -1.3209872e-08 -7.3792155e-15 -1.88208e-15 -1.3859702e-12
0003a0 a7 a1 f8 aa d0 95 7c 2a 6f 97 1e aa f6 9d 9c ab
       -4.4165818e-13 2.2434073e-13 -1.4085758e-13 -1.112831e-12
0003b0 bc d7 b2 a8 73 2a 86 b9 15 37 66 3a 22 f6 f6 29
       -1.985553e-14 -0.000255901 0.00087820116 1.0967292e-13
0003c0 f0 22 7e 29 70 7a 19 a7 04 c3 84 28 9b 00 e4 29
       5.6429633e-14 -2.1299389e-15 1.4739518e-14 1.0125339e-13
0003d0 d6 52 fd 2b b9 49 eb 29 f4 98 6f aa c0 f8 56 27
       1.7999723e-12 1.0448885e-13 -2.128053e-13 2.9833314e-15
0003e0 3f 76 e9 ab 08 61 7f 29 b2 41 19 2d 23 ec 9a b9
       -1.6588466e-12 5.6705535e-14 8.71163e-12 -0.00029549105
0003f0 d3 87 ed 2c 42 b4 b6 aa 28 bf 1b 2b 92 ff 0b b4
       6.7510247e-12 -3.2454773e-13 5.5332345e-13 -1.303836e-07

conv2.bias f4 [10]
000000 ed 79 fa bd 2d a6 a0 bd 3b 74 02 ba 8c de 04 ba
       -0.12230287 -0.078441955 -0.0004976426 -0.00050685625
000010 5f c6 09 be 50 aa a0 bd 43 d4 4c be e7 d9 1d be
       -0.13454579 -0.078449845 -0.20002846 -0.15415154
000020 bc 1e 43 3a b5 c7 cd bc
       0.00074432394 -0.025119642

rnn.weight_ih_l0 f4 [30, 1]
000000 21 44 1f 3c 5c 14 32 3c ad ab 59 bd 2e 6e 82 3b
       0.009720833 0.010869112 -0.05314224 0.0039804196
000010 5b 1f 5c bc 1b 72 57 3a 2b 0b e8 bc 3c 8d f4 3b
       -0.01343521 0.0008218602 -0.028325638 0.0074631255
000020 3e 60 75 3c 3b b4 2d bc 65 31 97 bd 6e 1a 6e bb
       0.014976559 -0.010602052 -0.07382468 -0.0036331671
000030 e5 5a 95 bb 98 3f be bc 09 40 8a bb 61 26 c3 bd
       -0.0045579546 -0.023223683 -0.0042190594 -0.095288046
000040 5c 29 1a be a9 f4 87 be ba 37 ec 3a e0 e5 b4 bc
       -0.1505484 -0.26553848 0.0018021979 -0.02208227
000050 de f3 b7 3a b4 5a e8 bd 83 d9 5f 3b 15 7a df 3b
       0.001403447 -0.11345425 0.0034156747 0.0068199732
000060 dc 80 fc bb e9 0c 3e be 55 6a 54 bb 28 74 2e bc
       -0.007705791 -0.18559612 -0.0032412012 -0.010647811
000070 4f e9 34 3d a8 29 d4 3e
       0.044167813 0.4143803
