colagnn-master-Run-Epi/src/save/cola_gnn_epi.us_regions.w-20.h-2.RNN.lam-0.1.epo-500.pt (torch, 52278 bytes, 32 tensors)

V f4 [15]
000000 72 7a 00 3f d6 b3 50 3d 5a c2 94 3f 5e c4 94 3f
       0.50186837 0.050952755 1.1621811 1.1622427
000010 16 4f 86 3f 65 e7 88 bf b8 b3 53 3f d8 e9 67 3e
       1.0492885 -1.0695616 0.82696104 0.22647798
000020 80 e1 67 bf 52 95 85 bf 52 c3 73 bf 80 b6 a3 3f
       -0.9057846 -1.0436194 -0.9521991 1.279007
000030 b4 75 c7 3f 0b 55 e7 3d 85 c3 a0 bf
       1.5582795 0.112955175 -1.2559668

W1 f4 [15, 30]
000000 ac e1 89 be ce 8e 87 3e e2 94 87 3e b0 27 89 be
       -0.26929986 0.2647614 0.26480776 -0.26788092
000010 38 7a 86 be 28 0e 88 be 0e e7 89 3e e1 e9 89 be
       -0.2626512 -0.265733 0.26934093 -0.26936248
000020 2a 99 89 be 3f 11 8c 3e 59 dd 85 3e 89 bc 87 be
       -0.26874667 0.27356908 0.26145437 -0.26511028
000030 c6 f0 88 3e 7f 05 87 3e db 58 89 be 41 a8 87 be
       0.26746196 0.2637138 -0.26825604 -0.26495555
000040 a2 9d 87 be 14 dc 8c 3e c6 e5 80 3e 4c c7 87 3e
       -0.26487452 0.27511656 0.25175303 0.2651924
000050 21 a2 87 3e c8 9e 87 be 14 4e 89 be 9a 8a 89 3e
       0.26490882 -0.26488328 -0.2681738 0.26863557
000060 d6 52 89 3e a9 a2 84 3e 60 15 85 3e 65 01 85 3e
       0.2682101 0.2590535 0.2599287 0.25977626
000070 cd 98 91 3d 32 77 06 be a8 c3 7f 3f cc 99 79 bf
       0.071092226 -0.13131407 0.9990792 -0.975003
000080 83 ee 78 bf 60 44 7f 3f 4c f0 7b 3f a1 bd 7d 3f
       -0.9723894 0.99713707 0.9841354 0.99117476
000090 c4 d9 7f bf 0e c3 7f 3f b9 9c 7f 3f 34 64 7c bf
       -0.9994166 0.99907005 0.99848515 -0.985904
0000a0 e6 ce 7b bf 4c fa 79 3f 7c fc 7e bf 77 ba 79 bf
       -0.98362577 0.9764755 -0.9960401 -0.9755015
0000b0 43 62 7f 3f 96 ed 78 3f ae a9 7b 3f d3 15 7c bf
       0.9975931 0.9723753 0.98305786 -0.984708
0000c0 b5 19 79 bf c9 3b 7a bf e4 19 79 bf 50 7e 7c 3f
       -0.9730485 -0.97747475 -0.9730513 0.9863024
0000d0 89 3b 7f 3f f7 97 7f bf 62 61 7f bf de 4b 7a bf
       0.9970022 -0.99841255 -0.9975797 -0.97772014
0000e0 a4 1f 7b bf a1 ae 7a bf e9 ee 4f 3f a4 75 15 bf
       -0.98095155 -0.9792271 0.8122392 -0.5838263
0000f0 92 c6 44 3d 1a 30 2b bc 46 5e 3f bc f8 58 1a 3d
       0.048040934 -0.01044848 -0.011680191 0.037682503
000100 85 60 a7 3c 58 ea d5 3c 48 31 4a bd 4e b0 3e 3d
       0.020431766 0.02611272 -0.049363405 0.046554856
000110 f6 78 30 3d 83 9b 2a bd 2c 61 9c bc 8a 03 7a 3c
       0.043084107 -0.041652214 -0.019089304 0.015259633
000120 78 aa 17 bd d2 70 15 bc cd 53 19 3d 66 a2 4f 3c
       -0.037027806 -0.009121137 0.037433434 0.012672996
000130 58 ed 01 3c 38 2c 52 bd 00 37 d7 b8 04 65 87 bc
       0.007930122 -0.0513117 -0.000102622434 -0.01652766
000140 74 a0 60 bc 90 10 09 3c c2 2e 0f 3d 4d d0 2a bd
       -0.01371013 0.008365765 0.0349567 -0.041702557
000150 1e e7 20 bd be ec 04 bc 92 72 2d bc f2 c5 08 bc
       -0.03928291 -0.008113084 -0.010586398 -0.008347975
000160 6b ca 04 be 40 16 a2 3d 9f c8 d7 bc 56 5f 4c 3c
       -0.12967841 0.079144 -0.02634078 0.012473902
000170 8a 7d 78 3c 52 40 d7 bc ed 92 05 3c 30 d4 c1 bc
       0.01516665 -0.026275788 0.008152706 -0.02366075
000180 d5 bf d6 3c e3 bc d7 bc 44 43 d8 bc 16 44 ee 3b
       0.02621452 -0.026335185 -0.026399262 0.0072713
000190 e1 4e b4 3c 7d 03 91 bc 8a c6 d4 3c 93 11 33 3c
       0.022010269 -0.017701859 0.025973577 0.010929483
0001a0 92 33 d6 bc ba d6 77 bc 9e 50 0d bc 40 51 3a 3c
       -0.026147638 -0.015126878 -0.008625178 0.011371911
0001b0 df 5d af bc 98 37 98 3c 58 c2 91 3c c8 a3 14 bc
       -0.021407066 0.018581197 0.017792866 -0.009072252
0001c0 80 65 d5 bc 18 2a d8 3c 88 e4 d6 3c be 80 af bc
       -0.026049376 0.02638726 0.026232019 -0.021423694
0001d0 4a 0b a0 bc 4a 12 b1 bc eb e8 b6 3a 14 8c 08 3c
       -0.019536633 -0.021615166 0.0013954913 0.0083341785
0001e0 d6 82 a9 39 b4 02 c0 ba 59 e2 25 bc 80 47 3f 3b
       0.00032331672 -0.0014649243 -0.010124766 0.0029186904
0001f0 3e 0b a4 3b 88 21 20 3c 8e 0b f4 39 e0 b8 e3 b8
       0.005006223 0.0097736195 0.00046547916 -0.00010858639
000200 80 11 c9 3a 09 6d 4b bb c2 2b 3d bc c6 34 58 3c
       0.0015340298 -0.0031040332 -0.011546077 0.013196176
000210 72 c4 aa bb b8 6b 3c bb c9 e7 40 3b 52 28 1c 3c
       -0.0052114064 -0.0028750729 0.002943503 0.0095310975
000220 ac a5 fb bb 54 bd 65 ba 82 f7 57 3c 64 db 57 bc
       -0.0076796617 -0.0008763869 0.013181569 -0.013174865
000230 98 2e 4a bc 76 73 dd bb b6 ce 0b 3b 9c 75 13 bb
       -0.01234021 -0.006758149 0.0021332926 -0.002250052
000240 87 35 4b bb 4d 27 7f 3c ec c9 54 3c ea f3 83 3c
       -0.0031007247 0.015573335 0.012987595 0.016107518
000250 64 12 dc bb c4 61 57 3b 84 80 12 be 38 32 d0 3d
       -0.0067160595 0.003286467 -0.14306837 0.101658285
000260 56 76 d7 3d 5d 93 0b be f6 5d da bd 86 c7 fa bd
       0.10520618 -0.13630433 -0.10662453 -0.12245087
000270 39 ec 13 3e 18 4b 12 be 19 c2 0e be e5 de 01 3e
       0.1444558 -0.14286458 -0.1394123 0.12682684
000280 56 38 eb 3d 71 98 e0 bd b7 82 07 3e a2 f5 cd 3d
       0.114853546 -0.10966576 0.13233458 0.10056616
000290 c4 34 0b be ac b2 d7 bd d5 26 cd bd e7 10 09 3e
       -0.13594347 -0.10532126 -0.10017172 0.13385354
0002a0 99 33 a7 3d 62 a9 e5 3d 23 8a dc 3d 90 38 cd bd
       0.08164138 0.11213948 0.10768535 -0.10020554
0002b0 57 5c 09 be cc d9 0d 3e b4 34 0c 3e ad 9e c2 3d
       -0.13414131 0.13852614 0.1369198 0.09502921
0002c0 17 ad c6 3d dc ba c2 3d 9e 16 e2 3d 8b 0b c5 bd
       0.09700983 0.09508297 0.1103947 -0.09621342
0002d0 36 8a 34 3f a0 05 31 bf a7 68 31 bf fc ed 33 3f
       0.70523393 -0.6914921 -0.6930031 0.7028501
0002e0 b4 17 30 3f 6a fd 32 3f 15 a8 34 bf f2 6e 34 3f
       0.6878617 0.6991793 -0.7056897 0.7048179
0002f0 be 48 34 3f 76 f8 30 bf 38 06 32 bf 46 40 32 3f
       0.70423496 -0.6912912 -0.6954074 0.69629323
000300 7c c9 33 bf 8c cf 30 bf 4a 3c 34 3f 31 b1 31 3f
       -0.70229316 -0.6906669 0.70404494 0.69411
000310 58 ca 30 3f d7 03 31 bf 8e 8f 2f bf 4b 32 32 bf
       0.6905875 -0.69146484 -0.6857842 -0.6960799
000320 b8 74 31 bf 2c 9d 30 3f f7 ee 33 3f 9b 21 34 bf
       -0.69318724 0.68989825 0.70286506 -0.7036378
000330 7a 2e 34 bf 49 e0 30 bf 69 3d 30 bf 33 bb 30 bf
       -0.7038342 -0.6909223 -0.68843704 -0.69035643
000340 21 0b bc 3e 6a 0c 45 bd b0 14 bc be 27 10 b7 3e
       0.3672724 -0.048107542 -0.36734533 0.3575451
000350 95 8f b7 3e ea 6c bb be da 9f b8 be 5f 95 b9 be
       0.35851732 -0.36606532 -0.36059457 -0.36246774
000360 cc 3c bc 3e 7f 18 bc be b3 c3 bb be a0 18 bc 3e
       0.36765134 -0.3673744 -0.36672744 0.36737537
000370 96 e1 b6 3e 58 67 b8 be f2 1b bb 3e 5a 9d b6 3e
       0.35718983 -0.36016345 0.36544758 0.35666925
000380 4a 51 bb be 2b 79 b7 be d9 99 b6 be 93 83 bc 3e
       -0.36585456 -0.3583463 -0.3566425 0.36819133
000390 24 fc b3 3e 33 2d b8 3e bf e3 b7 3e 06 4a b7 be
       0.35153306 0.35971984 0.35915944 -0.35798663
0003a0 d7 61 bb be 73 82 bb 3e a0 57 bb 3e 97 22 b8 3e
       -0.36598083 0.36622962 0.3659029 0.3596389
0003b0 aa 19 b8 3e 03 33 b8 3e 40 ce 24 bb e3 48 16 be
       0.3595708 0.3597642 -0.0025147349 -0.14676242
0003c0 3f c5 31 3f d7 68 31 bf d2 18 31 bf 8b 9a 31 3f
       0.694416 -0.693006 -0.691785 0.6937644
0003d0 ea ce 30 3f 6d ec 30 3f db e8 31 bf e7 cb 31 3f
       0.69065726 0.6911076 -0.69495934 0.69451755
0003e0 e2 a5 31 3f 2c 7d 31 bf 68 1d 30 bf 8d f3 30 3f
       0.6939374 -0.6933162 -0.6879487 0.6912163
0003f0 60 4b 31 bf b6 30 31 bf 48 9b 31 3f 18 3c 31 3f
       -0.6925564 -0.6921495 0.69377565 0.6923232

b1 f4 [15]
000000 2e 08 8a 3e cb 07 80 bf 78 9e 4a bd 3c 76 d4 3c
       0.26959366 -1.0002378 -0.049467534 0.025935285
000010 cc 30 b7 3a 9c 90 14 3e 16 84 34 bf 3c 92 bc 3e
       0.0013976335 0.14508289 -0.7051405 0.36830318
000020 19 fa 31 bf 97 dd 37 3f 92 d5 82 3d b3 6e 89 be
       -0.69522244 0.71822494 0.063883916 -0.2684227
000030 5d 1b f1 be 44 c7 66 bd 32 dc 3f 3f
       -0.4709119 -0.05634238 0.74945366

W2 f4 [15, 30]
000000 5f ba 89 be 4a 80 87 3e f9 4b 88 3e 4e 1d 8b be
       -0.26900002 0.26465064 0.26620463 -0.27170795
000010 4b 55 88 be 1b e5 87 be 65 09 8a 3e f2 eb 89 be
       -0.26627573 -0.2654198 0.26960292 -0.26937824
000020 9e 3d 8a be 27 31 8a 3e d0 eb 84 3e 90 e5 88 be
       -0.27000135 0.26990625 0.2596116 -0.26737642
000030 da 9b 88 3e d0 f0 86 3e 5a ef 8b be 14 a2 87 be
       0.26681405 0.263556 -0.27331048 -0.26490843
000040 2d 97 87 be 44 92 8a 3e 0b 43 80 3e c6 42 89 3e
       -0.26482525 0.27064717 0.2505115 0.26808757
000050 da a2 87 3e 7a 90 87 be cf 42 8e be 9e 4e 89 3e
       0.26491433 -0.26477414 -0.27785346 0.26817793
000060 ad 26 89 3e 92 45 85 3e cd 8d 83 3e 7e cf 82 3e
       0.2678732 0.2602964 0.25694123 0.2554893
000070 06 69 21 bd ab bb 8f bd 67 ae 7f 3f 33 e4 7f bf
       -0.0394068 -0.07018217 0.9987549 -0.9995758
000080 d0 82 7d bf 1a 1e 80 3f 63 a2 6f 3f 1e 65 7d 3f
       -0.9902773 1.0009186 0.9360716 0.9898242
000090 7a dc 7f bf f8 c3 7f 3f a8 fb 7f 3f a1 b0 6f bf
       -0.99945796 0.999084 0.9999337 -0.9362889
0000a0 cc dc 78 bf 1e f8 7e 3f 2e 47 7e bf 06 7e 79 bf
       -0.9721191 0.99597347 -0.9932736 -0.9745792
0000b0 09 1e 80 3f ab e5 79 3f 9d e1 7f 3f 24 8a 6f bf
       1.0009166 0.9761607 0.99953634 -0.9357016
0000c0 fc e2 51 bf 5e 85 7f bf 98 36 79 bf a0 b3 7f 3f
       -0.81986976 -0.9981288 -0.9734893 0.9988346
0000d0 93 e4 7f 3f b7 61 7f bf 09 4b 7f bf ab 95 6d bf
       0.9995815 -0.99758476 -0.9972387 -0.928065
0000e0 44 69 66 bf da 9e 4b bf 1a 88 52 3f 1a 9f 0e bf
       -0.9000437 -0.79539263 0.82238925 -0.5571152
0000f0 3c eb 41 3d 08 41 ad bb 45 02 c1 bc f2 db 66 3d
       0.047343478 -0.0052872933 -0.023560653 0.0563621
000100 0d b0 6b 3d 6b a2 c6 3c 70 cb 47 bd 34 ae 40 3d
       0.057540942 0.024247369 -0.048777997 0.047041133
000110 34 6f 49 3d 7a ab 84 bd 58 82 61 bc c8 1a f6 3c
       0.049178317 -0.06478019 -0.0137639865 0.030042067
000120 79 48 01 bd cc 97 5e bc ed ec 85 3d 2c 6a 54 3c
       -0.031563256 -0.013585996 0.06539331 0.0129647665
000130 60 83 b5 3b 46 30 8c bd 97 bb f5 bc 68 49 08 bd
       0.0055393428 -0.06845145 -0.029996676 -0.03327313
000140 dc c5 5e bc cc 72 b1 3b d6 b7 ab 3d 48 d5 25 bd
       -0.013596978 0.005415296 0.08384673 -0.040486604
000150 d2 17 21 bd 68 19 26 bd 0e ca 21 bd b4 08 0d bd
       -0.039329357 -0.040551573 -0.039499335 -0.034432128
000160 61 6f e4 bd 64 42 a4 3d fa 3c d8 bc e9 82 90 3b
       -0.11154056 0.080204755 -0.026396263 0.004410137
000170 58 33 b7 3c 3b 14 d0 bc da 05 62 bd 41 81 bd bc
       0.02236335 -0.025400272 -0.05518136 -0.023132922
000180 1b 58 d7 3c 7c cd d7 bc 0f 3b d6 bc 01 40 7b 3d
       0.02628713 -0.0263431 -0.026151208 0.061340336
000190 3a d8 a7 3c 29 a4 c7 bc b0 79 cf 3c 19 fd 87 3c
       0.020488847 -0.02437027 0.02532658 0.016600179
0001a0 52 73 c7 bc 20 93 73 bc c3 6b b5 bb 82 13 84 3d
       -0.024346981 -0.01486662 -0.005536528 0.06449033
0001b0 a2 8c e7 3c 49 de d0 3c 93 b0 8f 3c 41 7c c9 bb
       0.028265301 0.025496619 0.017540252 -0.0061488454
0001c0 a6 f4 9b bc fc f1 d7 3c 3e 15 d7 3c 85 56 0f 3d
       -0.019037556 0.026360504 0.026255246 0.03499462
0001d0 db f1 11 3d 8a d3 ea 3c 91 0a a2 3c 58 cb 8c 3b
       0.035631042 0.028665323 0.01978043 0.0042967014
0001e0 8c 5f 08 3a 32 26 b5 3c 76 76 4d bc d8 92 fc ba
       0.0005202226 0.02211294 -0.01254045 -0.0019269837
0001f0 9e e4 33 bd 64 7e 31 3c ed 1b bd 39 80 7e 5d 38
       -0.0439192 0.0108333565 0.00036069695 5.280832e-05
000200 44 62 95 b8 ec 6c 3f 3d 0d 66 4d bc ae 83 13 3c
       -7.123177e-05 0.046734735 -0.012536538 0.009003563
000210 f0 67 bc bb 92 27 49 bc 2d cd 71 bb 73 31 48 3c
       -0.005749695 -0.012277501 -0.0036895976 0.012218821
000220 55 6d a9 bc f3 fa 49 3d 1e 01 59 3d 24 74 0a bc
       -0.020682016 0.04931159 0.05297958 -0.008450542
000230 96 e0 3c bc 3b e3 8d bc d6 e1 ce bb 35 d5 1c bb
       -0.011528155 -0.017320266 -0.006313543 -0.0023930792
000240 32 3e 59 bb 86 e5 57 3d df c9 4d 3d 66 9e 5b 3d
       -0.0033148644 0.052709125 0.050241347 0.053617857
000250 30 7b e6 3c 1e 07 ea 3c 2a 37 11 be 97 7c da 3d
       0.028134912 0.028567847 -0.141812 0.10668295
000260 1d 0d fc 3d 09 9b 20 be 38 36 7d bd b6 08 fa bd
       0.12307189 -0.15684141 -0.061819285 -0.12208693
000270 49 1f 15 3e 2e 49 13 be 1c 2e 18 be 00 42 87 3d
       0.14562716 -0.14383385 -0.1486134 0.066043854
000280 31 e5 d2 3d f5 da 07 be 88 35 01 3e e8 3a df 3d
       0.10297621 -0.13267119 0.12618077 0.10899907
000290 3e 27 2e be f6 38 ce bd 86 dd d6 bd 3f 04 8b 3d
       -0.17007157 -0.10069458 -0.10491471 0.06787919
0002a0 0b 05 27 3d 90 fd 0d 3e 9b 2d dc 3d de b0 da bd
       0.040776294 0.13866258 0.10750886 -0.10678266
0002b0 11 4a 45 be 0e 53 0b 3e 3c 5d 0b 3e 73 e8 51 3d
       -0.19266535 0.13605902 0.13609785 0.05124707
0002c0 49 48 4b 3d 21 8b 2b 3d 0e 01 d4 3d d6 53 dc bd
       0.049629483 0.04188073 0.10351764 -0.10758178
0002d0 14 5a 34 3f b5 4b 30 bf 2e 53 33 bf 3d 0d 35 3f
       0.7044995 -0.6886552 -0.700488 0.70723325
0002e0 28 13 2b 3f 3d ce 32 3f 45 86 34 bf e4 68 34 3f
       0.66826105 0.69845945 -0.7051738 0.7047255
0002f0 86 a2 34 3f 06 84 2b bf af c1 30 bf 0e b6 33 3f
       0.7056049 -0.66998327 -0.6904554 0.7019967
000300 27 82 33 bf 97 49 31 bf 2d 53 35 3f a2 e1 30 3f
       -0.7012047 -0.69252914 0.7083004 0.6909429
000310 67 55 30 3f 7c 75 2b bf 24 cb 30 bf 83 26 34 bf
       0.68880314 -0.6697614 -0.6905997 -0.70371264
000320 10 6c 31 bf 5b 51 30 3f 44 9f 35 3f 56 2f 34 bf
       -0.69305515 0.6887414 0.70946145 -0.7038473
000330 4e 2a 34 bf 1e 94 2d bf e2 6e 2f bf 85 2a 33 bf
       -0.7037705 -0.67804134 -0.6852857 -0.69986755
000340 35 b9 dd 3e e2 e0 46 bd f9 f6 bb be 8a 4c b6 3e
       0.43305364 -0.04855431 -0.36711863 0.3560527
000350 09 89 b9 3e e3 71 bd be 5c b0 91 be b5 a9 b9 be
       0.36237362 -0.3700095 -0.28454864 -0.3626229
000360 67 3d bc 3e 2d 37 bc be 7b 84 bc be 52 cf 92 3e
       0.36765596 -0.36760846 -0.36819825 0.28673798
000370 c9 c6 b5 3e 75 9e ba be 2f 2d ba 3e ab 3d b7 3e
       0.35503224 -0.36449018 0.36362597 0.35789236
000380 1e 47 be be fc 0c b8 be 0c 55 b6 be 1d 39 93 3e
       -0.37163633 -0.35947406 -0.3561176 0.2875451
000390 0e 82 8c 3e ce 7b bb 3e a9 77 b8 3e 4c b7 b6 be
       0.27442974 0.36617893 0.36028793 -0.3568672
0003a0 21 52 c0 be 5c 68 bb 3e 9b 88 bb 3e 2b 40 8f 3e
       -0.3756266 0.36603057 0.3662766 0.27978644
0003b0 9e 8b 8e 3e c6 5c 8d 3e a6 69 6f bd 0a c3 60 bd
       0.27840894 0.27609843 -0.058450364 -0.054873504
0003c0 12 b7 31 3f 84 a0 31 bf a1 e8 30 bf f3 49 32 3f
       0.6941997 -0.6938555 -0.69104964 0.6964409
0003d0 de 83 27 3f c0 d3 30 3f 26 f1 31 bf 3c dc 31 3f
       0.6543559 0.69073105 -0.6950859 0.69476676
0003e0 cc f2 31 3f 66 37 28 bf 4f e7 2f bf 0c 1e 31 3f
       0.69511104 -0.6570953 -0.68712324 0.6918647
0003f0 21 1c 31 bf 50 de 30 bf 0e cf 32 3f c1 4d 31 3f
       -0.69183546 -0.6908922 0.6984719 0.6925927

Wb f4 [29, 29]
000000 05 dc ad 3e b2 b2 67 3e 10 cc 54 3d 6b 8a 79 3e
       0.33956924 0.2262676 0.05195242 0.24369209
000010 3b 72 da 3d cc 01 50 3e 32 45 e1 3d 1d 5a 13 be
       0.10666319 0.20313185 0.10999526 -0.14389844
000020 b8 ae 5b be 6b fc 24 3e 6b eb 90 be 50 28 55 3d
       -0.21453369 0.16111915 -0.2830461 0.052040398
000030 08 b9 86 be f1 57 bb bd 8f 76 97 be 38 5f 71 bd
       -0.26313043 -0.09147633 -0.2958264 -0.0589287
000040 cc 58 2b 3d 82 2e 8f be b4 d9 79 3b 1e 75 bc 3e
       0.04183273 -0.2796517 0.0038124146 0.36808103
000050 92 c7 a8 3e 89 31 3b be 64 fd c6 bc 6c 33 73 3e
       0.3296476 -0.18280615 -0.024290748 0.23750085
000060 00 b7 19 3a 98 ad d0 bd 2c f2 ac be e0 20 c0 bd
       0.0005863756 -0.101893604 -0.33778512 -0.093812704
000070 7f a4 17 3e e0 40 b3 3e 7c 09 69 3e 24 25 51 3d
       0.14808844 0.35010433 0.22757524 0.05106081
000080 be 2d 7f 3e f0 81 d1 3d 70 e7 57 3e 29 f7 dc 3d
       0.24919793 0.10229862 0.2108438 0.107893296
000090 1f 66 13 be 9d e4 5b be 02 6d 20 3e d8 2c 91 be
       -0.14394425 -0.21473928 0.15666583 -0.28354526
0000a0 03 10 57 3d ba 5f 86 be af 55 bf bd 49 96 98 be
       0.052505504 -0.2624491 -0.09342515 -0.29802158
0000b0 35 ba 6c bd 95 91 2f 3d 59 fc 8d be 32 05 1e 3b
       -0.05779477 0.042863447 -0.27731588 0.0024111983
0000c0 0e 05 bd 3e cb 83 a8 3e f6 20 37 be f8 6e 06 bd
       0.3691792 0.3291305 -0.17883667 -0.03282067
0000d0 18 19 61 3e e0 e4 5c 3b 7d 8c d4 bd 14 c0 ac be
       0.21982229 0.0033705756 -0.103783585 -0.33740294
0000e0 e7 d4 c2 bd 5d 18 18 3e fc a1 b2 3e c1 b2 69 3e
       -0.09513264 0.14853044 0.3488921 0.22822095
0000f0 35 35 54 3d 3f b7 7d 3e ef 7c d2 3d b2 7f 56 3e
       0.051808555 0.24776934 0.102777354 0.2094715
000100 5e 82 da 3d ca 9c 13 be 1c b3 59 be 8a ca 20 3e
       0.10669397 -0.14415279 -0.21259731 0.15702263
000110 ed f5 90 be 6b a4 54 3d e8 85 87 be 8c 93 be bd
       -0.28312626 0.051914614 -0.2646935 -0.09305486
000120 ae b4 98 be fa 66 71 bd 0e ad 30 3d 74 ae 8e be
       -0.29825348 -0.058936097 0.043133788 -0.27867472
000130 f8 0d 39 3b 0f 09 bd 3e 8f 0a a9 3e dd 09 3e be
       0.0028237086 0.36920974 0.33015868 -0.1855845
000140 5f f9 f7 bc 9a 67 6e 3e dc cf 84 3b dc 84 d4 bd
       -0.030270277 0.23281708 0.004053099 -0.103769034
000150 b1 fd ac be 16 53 c1 bd 4f d2 17 3e e1 ee ae 3e
       -0.337873 -0.094396755 0.1482632 0.34166625
000160 e2 5f 69 3e 00 c1 53 3d 78 99 79 3e 58 55 d4 3d
       0.22790483 0.05169773 0.2437495 0.103678405
000170 5c 39 50 3e 49 44 e0 3d ee 39 13 be 1f 3f 5a be
       0.20334381 0.10950524 -0.14377567 -0.21313141
000180 ec ce 26 3e d2 f3 90 be e9 3b 55 3d 9f 73 85 be
       0.16289872 -0.2831102 0.052059088 -0.26064774
000190 ee 0c bc bd 61 a5 97 be 12 e1 76 bd ca 6d 2e 3d
       -0.09182154 -0.29618362 -0.060273238 0.04258517
0001a0 27 4e 8c be 78 62 69 3b 5f 14 bc 3e 17 0b a8 3e
       -0.27403376 0.003561167 0.36734292 0.3282096
0001b0 22 42 3c be 0a 7b bb bc 38 a2 76 3e c0 a6 2d 3a
       -0.18384603 -0.022885818 0.24085319 0.0006624274
0001c0 03 84 d5 bd 84 e5 ac be d4 5f c1 bd ed c7 17 3e
       -0.1042557 -0.33768857 -0.09442106 0.1482236
0001d0 5c 46 b4 3e 53 21 6b 3e 9a fa 41 3d 1c c5 7e 3e
       0.3520993 0.22961931 0.047358133 0.24879879
0001e0 27 5e ce 3d 6d 75 57 3e 04 50 cd 3d 42 a5 14 be
       0.10076552 0.21040888 0.100250274 -0.14516166
0001f0 48 4c 5c be d3 7c 23 3e e4 47 90 be 8b 90 55 3d
       -0.21513474 0.15965585 -0.28179848 0.0521398
000200 58 b7 84 be 48 01 c8 bd 9a c4 99 be 8d da 6b bd
       -0.2592113 -0.097658694 -0.30032808 -0.057581473
000210 93 22 2a 3d 9d 8f 8d be d4 7c 3e 3b d2 29 be 3e
       0.04153688 -0.2764863 0.0029066103 0.3714128
000220 26 27 aa 3e af 8c 3a be 39 a5 0d bd 8d c1 61 3e
       0.33232993 -0.18217729 -0.034581397 0.2204649
000230 58 ef 5b 3b 95 8e d1 bd 61 3a ac be 54 1f c6 bd
       0.0033559408 -0.102322735 -0.3363829 -0.09673944
000240 77 7f 19 3e ef 5c b3 3e 83 dd 6a 3e e6 65 56 3d
       0.1499003 0.3503184 0.22936063 0.05234327
000250 6b 71 7e 3e 00 b7 cc 3d f3 75 57 3e 7f 1b db 3d
       0.24847953 0.09995842 0.21041088 0.10698604
000260 d0 5f 13 be a0 c8 59 be bc 2b 23 3e 30 58 90 be
       -0.14392018 -0.21267939 0.15934652 -0.28192282
000270 d1 5f 54 3d 2f e0 86 be bc 8e be bd 59 89 98 be
       0.05184919 -0.26342914 -0.09304568 -0.29792288
000280 96 54 6d bd f0 86 2e 3d 47 b8 8e be 78 b4 46 3b
       -0.057941996 0.042609155 -0.27874967 0.003031997
000290 c1 43 bd 3e cc e7 a8 3e 93 d2 3b be 0a 16 05 bd
       0.36965755 0.32989347 -0.18342046 -0.03249172
0002a0 f8 05 61 3e 14 c8 12 3b fe b5 d4 bd 86 88 ac be
       0.21974933 0.0022397088 -0.10386275 -0.3369791
0002b0 6a 4c c0 bd 1b de 17 3e 7c c7 b1 3e a0 60 69 3e
       -0.09389575 0.1483082 0.34722507 0.22790766
0002c0 a2 c1 44 3d 11 97 7a 3e 22 4e d1 3d fd fb 57 3e
       0.048036225 0.2447169 0.10219981 0.2109222
0002d0 93 36 da 3d 83 5f 13 be c7 0a 5a be 29 13 27 3e
       0.106549405 -0.14391904 -0.21293174 0.16315903
0002e0 12 35 91 be 97 a6 53 3d 33 04 84 be a5 81 be bd
       -0.28360802 0.051672544 -0.25784454 -0.093020715
0002f0 4d bc 98 be 21 6f 71 bd eb 46 30 3d ac 9d 8b be
       -0.29831162 -0.05894387 0.043036383 -0.27268732
000300 32 db 1b 3b e5 d8 bc 3e ea c5 a7 3e da 01 40 be
       0.0023781774 0.36884227 0.32768184 -0.18750706
000310 34 1c 08 bd 7e 79 60 3e 76 1d 82 3b c3 7f d4 bd
       -0.03323002 0.21921346 0.003970797 -0.10375931
000320 ac 58 ad be a4 9b c1 bd be ca 17 3e d1 0e b2 3e
       -0.33856714 -0.09453514 0.14823434 0.3477693
000330 20 19 6b 3e 6f 6c 54 3d 2a 61 7e 3e 1d 97 ce 3d
       0.22958803 0.051861223 0.24841753 0.10087416
000340 f6 c8 53 3e 9b 96 e0 3d 27 fb 12 be 42 d5 59 be
       0.2068213 0.10966226 -0.1435362 -0.21272758
000350 0e 78 26 3e 85 bf 90 be 8d b7 55 3d ba 4f 87 be
       0.16256735 -0.28271118 0.052177 -0.26428014
000360 a5 8e bd bd 9f 37 98 be a3 bb 6e bd 14 e3 30 3d
       -0.09255723 -0.29729936 -0.058284413 0.04318531
000370 af 99 8d be 4e a2 14 3b 1e b6 bc 3e 85 9d a8 3e
       -0.27656314 0.002267975 0.36857694 0.32932678
000380 13 e2 3e be d6 b8 f6 bc f8 2f 6c 3e 98 d4 5f 3b
       -0.18640928 -0.030117434 0.23065174 0.0034153815
000390 6a 7c d4 bd ff 8c ac be 39 f8 c0 bd 9b 1d 18 3e
       -0.103752926 -0.3370132 -0.09422345 0.14855044
0003a0 52 70 b5 3e b1 7e 6a 3e 05 53 44 3d 59 96 7e 3e
       0.35437256 0.22899891 0.047930736 0.2486204
0003b0 e6 70 d6 3d 1c 68 58 3e e2 70 cd 3d 09 2d 14 be
       0.104707524 0.21133465 0.10031296 -0.14470305
0003c0 22 1a 5b be 55 92 23 3e 82 a5 90 be e6 eb 52 3d
       -0.21396688 0.1597379 -0.28251272 0.0514945
0003d0 78 e3 84 be 78 57 c8 bd 42 92 99 be 88 0e 6b bd
       -0.25954795 -0.09782308 -0.29994398 -0.057386905
0003e0 4b c9 2b 3d 56 94 8a be 70 07 5f 3b ce 40 be 3e
       0.041940015 -0.27066296 0.0034031533 0.37158817
0003f0 77 b0 a8 3e 06 29 3b be 96 93 13 bd 85 e5 60 3e
       0.32947132 -0.18277368 -0.03602942 0.21962555

conv.weight f4 [10, 1, 20]
000000 9c 7f 36 3a 4f 4a 3e 3a be ca 32 3a 6b df 1f 3a
       0.00069617643 0.00072589976 0.0006820372 0.00060986605
000010 c2 bc 25 3a 3e cf 34 b8 67 67 9d b9 36 98 85 b9
       0.00063223776 -4.3108354e-05 -0.00030022414 -0.00025481143
000020 ad 0c d1 38 b7 d5 48 39 77 ef 49 39 cf a4 55 39
       9.968258e-05 0.00019153101 0.00019258061 0.00020374659
000030 4a 5f 1e b9 91 c7 33 b9 6e 2a 12 b9 7d 48 27 b9
       -0.00015103552 -0.00017145115 -0.00013939451 -0.00015953365
000040 0b 63 52 38 4a 4c 88 38 f3 09 c5 b9 d2 37 0f b9
       5.0160143e-05 6.499195e-05 -0.0003758218 -0.00013658337
000050 aa a7 15 b9 32 ec 25 b9 5a b6 05 39 b4 a2 ff 38
       -0.00014272207 -0.00015823616 0.000127518 0.00012189653
000060 4b 12 05 38 6d b1 aa 38 7e 55 d1 38 89 6d fa 37
       3.1726708e-05 8.13928e-05 9.981821e-05 2.9853329e-05
000070 e8 32 dc b7 ef b4 be b8 cd 34 8a b8 63 6e 4b 37
       -2.6249749e-05 -9.0936075e-05 -6.590188e-05 1.2125444e-05
000080 6e 3c 9a b8 ca e2 09 38 86 ff 55 39 b4 14 42 39
       -7.354548e-05 3.287456e-05 0.00020408453 0.00018508994
000090 35 12 40 39 da 98 27 39 4d c0 76 b9 2a a2 29 b9
       0.0001831733 0.00015983303 -0.00023532026 -0.00016177507
0000a0 f3 a7 d0 38 d9 2e b0 38 a0 6e ce 37 e7 ad ec 38
       9.949496e-05 8.40106e-05 2.4608627e-05 0.00011285749
0000b0 d5 02 21 39 c5 9f 06 39 61 37 29 b8 0a 09 12 b9
       0.00015355212 0.00012838755 -4.0344315e-05 -0.00013927012
0000c0 5b 84 1b b9 4f 3e 1f b9 01 23 03 b9 55 1a 0a b9
       -0.00014831258 -0.00015186633 -0.00012506174 -0.00013170515
0000d0 74 1d d7 b8 f0 cb 59 39 b5 29 65 39 d4 27 0e 39
       -0.00010257485 0.00020770705 0.00021854679 0.00013557012
0000e0 4a 44 f8 38 83 8f 82 39 b3 88 61 38 00 95 42 b9
       0.00011838281 0.00024902457 5.377149e-05 -0.00018556789
0000f0 e8 2c 7d 38 27 0c 77 b8 5e a3 43 37 ac 08 91 37
       6.0361723e-05 -5.8900707e-05 1.1660943e-05 1.7289385e-05
000100 0e a9 a5 b8 19 0d 97 b8 60 fb 5a b5 78 97 89 38
       -7.899302e-05 -7.202681e-05 -8.157713e-07 6.560882e-05
000110 07 8f c8 38 ed 8a 86 38 12 bf 04 37 a6 e0 93 b8
       9.563384e-05 6.415495e-05 7.9123e-06 -7.05135e-05
000120 8c e1 8c b8 ec ae 1e 38 d7 57 e1 b8 ae 08 b6 b8
       -6.7177316e-05 3.7833044e-05 -0.000107451975 -8.680053e-05
000130 8d e0 4e b8 80 2d c6 b8 68 de 0c b9 d6 5d f9 b8
       -4.9323357e-05 -9.449851e-05 -0.00013434293 -0.000118907235
000140 7c d1 59 3a 5e 17 0a 39 ef 25 8c b9 75 65 91 b9
       0.00083091087 0.0001316941 -0.00026731144 -0.00027732147
000150 f8 10 c3 37 df bd 59 39 48 84 c2 b8 39 c8 08 b9
       2.3253713e-05 0.00020765465 -9.27528e-05 -0.0001304456
000160 35 1a bd b8 6c d4 ce 38 50 23 19 b8 c1 d8 31 b9
       -9.017104e-05 9.862412e-05 -3.651093e-05 -0.00016960783
000170 cc 5e da b8 64 99 17 39 de 83 54 39 83 7b 2f b9
       -0.00010412707 0.00014457625 0.0002026702 -0.00016735312
000180 ec 0e 1b 39 10 0b ae b9 de ee f7 38 c0 c5 b2 b9
       0.00014787511 -0.00033196108 0.0001182237 -0.0003409814
000190 e4 e3 85 bd 45 3f f8 bd f1 04 de bd 7f cd 02 be
       -0.06537607 -0.12121443 -0.10840786 -0.12773703
0001a0 be 9a 11 be 82 14 e8 bd 1b b8 06 be 39 0a 98 bd
       -0.14219186 -0.113320366 -0.13156168 -0.07423825
0001b0 c2 41 c7 bd d2 fc ca bd 38 7f aa bd 82 d1 dc bd
       -0.09729339 -0.09911503 -0.08325046 -0.10782148
0001c0 68 e0 d0 bd d0 44 e7 bd 20 21 09 be 65 2a 36 be
       -0.10199052 -0.11292422 -0.13391542 -0.1778961
0001d0 5e 45 08 be 4a 56 0e be 5c d9 4b be 47 d6 52 be
       -0.13307711 -0.13900104 -0.19907135 -0.20589553
0001e0 a4 ef 48 b9 7b 38 47 38 76 71 08 39 46 66 03 b9
       -0.0001916276 4.74979e-05 0.00013012238 -0.00012531233
0001f0 69 9c 57 38 d5 3b af b8 f7 ea 99 38 f4 d6 a2 38
       5.1405663e-05 -8.355795e-05 7.339374e-05 7.7648e-05
000200 af 03 89 b8 4a 9e a9 38 b4 39 05 38 4a 16 a6 b8
       -6.533355e-05 8.0880316e-05 3.176341e-05 -7.9196485e-05
000210 fd f9 81 38 18 29 59 b8 de c0 d1 38 c0 2e 8f 38
       6.197763e-05 -5.1775103e-05 0.00010001821 6.827479e-05
000220 2f 39 10 38 0d 08 1f b9 d8 62 9d b8 93 50 be b8
       3.438553e-05 -0.00015166421 -7.5047545e-05 -9.074914e-05
000230 b7 32 93 bd 50 e9 03 be 1c ca e0 bd 11 a4 37 be
       -0.071874075 -0.1288197 -0.10976049 -0.1793368
000240 3e 9a 1d be 24 b8 18 be 72 0b ea bd f7 3e c3 bd
       -0.1539087 -0.14913994 -0.11427964 -0.09533494
000250 b7 81 a3 bd 6d 07 03 be 5c 99 f8 bd 6f 2b 17 be
       -0.079837255 -0.12795801 -0.12138626 -0.14762662
000260 f0 5c 11 be 77 4d 23 be 36 da ef bd e9 06 1a be
       -0.14195609 -0.15947519 -0.11711542 -0.15041699
000270 56 12 c6 bd 31 e7 d7 bd b3 fb be bd 73 8d a9 bd
       -0.09671466 -0.10542143 -0.093253516 -0.082789324
000280 8f 75 24 3a 9e 97 69 3a db 32 61 3a 2b 43 1f 3a
       0.0006273621 0.00089108374 0.0008590647 0.00060753775
000290 ea 3d 4a 3a 0e 46 b2 39 d9 ba 1b b9 1a 9c a8 b9
       0.00077149144 0.00034003 -0.00014851558 -0.00032159762
0002a0 b3 68 da b9 b8 bd ca b9 96 cb 62 b9 1c b5 0f b7
       -0.00041658207 -0.00038669794 -0.00021628881 -8.565632e-06
0002b0 58 a7 13 39 22 1d 03 39 b6 94 0e 39 5c fa d1 38
       0.00014081353 0.00012503986 0.00013597574 0.0001001253
0002c0 7b a8 9b 39 71 6f 38 3a a8 e8 6f 3a 59 96 77 3a
       0.00029689432 0.0007035649 0.0009151795 0.0009444706
0002d0 10 27 3f 38 e0 f3 8b b5 ee 66 ac b6 2d 6f d5 38
       4.557433e-05 -1.0427284e-06 -5.137982e-06 0.000101773396
0002e0 1e 01 19 38 a8 ec 74 b7 ba 60 0b b8 28 a9 9f b8
       3.6479083e-05 -1.4598634e-05 -3.3230266e-05 -7.6132186e-05
0002f0 5b 34 36 38 f5 d7 63 b8 45 71 4e b8 64 1a ef b7
       4.344094e-05 -5.4322143e-05 -4.9219718e-05 -2.850331e-05
000300 4e 81 d2 37 18 4a be b7 50 5c dc 37 fb 9b 44 38
       2.5094163e-05 -2.2684268e-05 2.626903e-05 4.687531e-05
000310 d0 47 b7 37 69 22 71 38 ad cf 85 b8 30 cf df 36
       2.184874e-05 5.7490925e-05 -6.380617e-05 6.6700377e-06

conv.bias f4 [10]
000000 8d 3e a6 be e5 ef 0d be 98 55 73 be a6 0f 59 3a
       -0.32469597 -0.13861044 -0.2376312 0.0008280225
000010 e5 ee d0 be 1f 9e f4 be 67 8f b2 be 3f 84 04 bf
       -0.40807262 -0.47776887 -0.34875032 -0.5176429
000020 6e 92 5c be a5 22 92 39
       -0.21540233 0.00027873102

conv_long.weight f4 [10, 1, 10]
000000 de 15 01 b8 a5 06 95 b8 90 c2 fc 36 f3 cb be b8
       -3.0776362e-05 -7.106111e-05 7.5328353e-06 -9.0978945e-05
000010 60 2b 70 b8 e2 ae 85 38 f7 84 22 39 1a b4 3c b9
       -5.7260855e-05 6.374509e-05 0.00015499057 -0.0001799617
000020 a9 09 a5 38 b0 1d 4a b8 82 bc 8b b8 e2 fe 51 b7
       7.8696125e-05 -4.81882e-05 -6.663149e-05 -1.2516715e-05
000030 52 6a c2 37 45 9f bd 37 97 4d 97 37 bc 80 ff b8
       2.3176111e-05 2.2604721e-05 1.8036733e-05 -0.00012183326
000040 55 b3 4f 39 33 8f f6 38 7e 8c 21 b9 1b 51 1b b9
       0.00019807865 0.00011756867 -0.00015406494 -0.00014812166
000050 c8 6f 25 3a 5e bc 06 39 bc d6 9b 39 6f 7e 0a 39
       0.0006310907 0.00012849408 0.00029723893 0.00013207806
000060 48 c7 bd b9 a0 ec d4 b9 ea 03 25 b9 67 6e 75 b9
       -0.00036197365 -0.0004061209 -0.00015737084 -0.00023406149
000070 9f 1b 26 3a c7 7b 04 bc d1 d2 0d bd 6b c4 38 bd
       0.00063365133 -0.008086151 -0.03462488 -0.045109194
000080 d7 68 20 bd 72 c5 80 bc b7 f2 99 bb 7a 4c dd bb
       -0.039162483 -0.01571915 -0.0046981233 -0.0067535015
000090 4e d3 84 bc 17 7e e7 bc b3 fe ca bc 4a 5d 2e bd
       -0.01621404 -0.028258367 -0.024779653 -0.042569436
0000a0 f5 21 90 38 cb 08 06 b9 23 48 85 b8 d0 08 7d b6
       6.87278e-05 -0.00012782511 -6.355371e-05 -3.7705067e-06
0000b0 36 82 3c b8 85 7e 1a b8 9c 08 42 b8 73 df 2c 38
       -4.494396e-05 -3.683429e-05 -4.6261222e-05 4.12161e-05
0000c0 6e 10 e3 37 ab 6a e0 b7 65 af 9f bc f9 18 59 bc
       2.706816e-05 -2.6752552e-05 -0.019492814 -0.013250583
0000d0 10 db 43 bc e5 aa c0 b8 76 a0 0f 39 f4 a3 b8 39
       -0.011954084 -9.187105e-05 0.00013697319 0.0003521737
0000e0 65 bd 80 39 4a f9 76 ba fa 69 14 3a 5a 40 01 bc
       0.00024555172 -0.0009421302 0.00056615437 -0.007888878
0000f0 a7 29 c4 38 9d 1c 88 b8 ba 8b b3 38 f0 39 85 b8
       9.353767e-05 -6.490315e-05 8.561411e-05 -6.352726e-05
000100 4a ca 51 b8 50 18 ea b7 62 02 4b b8 be e5 7e 38
       -5.001788e-05 -2.7906295e-05 -4.840119e-05 6.0772283e-05
000110 8c 7b f6 b7 9a 86 0e b7 94 c1 ef b6 4d 3b 28 39
       -2.9383016e-05 -8.495199e-06 -7.1452905e-06 0.0001604382
000120 14 df 5c 39 65 94 16 39 26 c4 15 38 73 59 fd b8
       0.00021063938 0.00014360396 3.5707046e-05 -0.00012080641
000130 e5 df 44 b8 4a 80 fe 38 85 9e 9e b8 23 38 a5 b8
       -4.693856e-05 0.000121355595 -7.563554e-05 -7.8782694e-05
000140 3e 72 e8 39 2e 78 61 b8 93 29 59 38 a4 2d 64 39
       0.00044335605 -5.3756106e-05 5.177555e-05 0.00021760777
000150 9f c2 34 b8 9c ea 0a 37 3a 3a 09 38 02 74 ed b7
       -4.30966e-05 8.280065e-06 3.2717573e-05 -2.8306622e-05
000160 26 3d 3f b8 7b 20 80 38 80 e9 a7 39 fe 87 b7 b9
       -4.5594898e-05 6.1095656e-05 0.00032026693 -0.00035005802
000170 66 e3 1f 3a 29 af 1f 3a f5 ae b7 38 15 57 1a 38
       0.00060992537 0.00060914695 8.758708e-05 3.6797563e-05
000180 1f fa 5b b9 33 4f fc 39 58 4b ee ba aa 63 04 b9
       -0.00020978645 0.00048124194 -0.0018180413 -0.00012625629

conv_long.bias f4 [10]
000000 83 f3 06 bc 4e e7 61 be 7b 24 e5 be 6a 11 d0 be
       -0.008236769 -0.22060892 -0.44754395 -0.40638286
000010 e1 fd d0 b8 d8 71 3c be 50 13 a0 b9 30 7d 4b 37
       -9.9655015e-05 -0.18402803 -0.00030531967 1.212889e-05
000020 2f 70 02 be e2 a6 45 be
       -0.12738107 -0.19301942

conv1.weight f4 [30, 30]
000000 8b e7 bc bc 47 75 e1 bb a0 c6 8b bc 36 22 00 bc
       -0.023059627 -0.0068804356 -0.017062485 -0.0078206565
000010 9f 2a 3f be 3e 44 39 38 bf e5 d8 38 5c 15 c6 37
       -0.18668602 4.4170993e-05 0.00010342476 2.3613386e-05
000020 f9 17 af ba d7 18 e8 3c 10 f7 96 b8 72 12 4e bb
       -0.0013358585 0.028332157 -7.198576e-05 -0.00314441
000030 68 f6 c8 b8 64 8e 72 bc 3f ec 2a b8 4c a3 98 3b
       -9.58264e-05 -0.014804456 -4.075118e-05 0.0046581384
000040 5f 40 09 be 82 b3 c2 bd 92 8f 81 3d b2 0a ab bd
       -0.13403462 -0.09506895 0.06326212 -0.08351649
000050 be 65 da b8 52 8d e0 bc 99 59 32 b8 9b 9e d2 b9
       -0.00010414001 -0.027411137 -4.252195e-05 -0.00040172492
000060 7d ff b1 bb 87 0f 3d bc 29 8f 13 bd a7 6d 02 bc
       -0.005432068 -0.011539347 -0.0360252 -0.0079607135
000070 19 49 07 bd ad 31 74 39 41 2b c5 b7 a3 4a 16 38
       -0.033028696 0.00023288159 -2.3504372e-05 3.5832298e-05
000080 08 6c b9 b6 c0 e1 a0 b7 6a 54 34 b7 41 27 b2 b7
       -5.526006e-06 -1.917861e-05 -1.074849e-05 -2.1237533e-05
000090 e7 c7 82 38 37 9b a7 b7 7a b1 58 37 90 42 52 b8
       6.236118e-05 -1.9980229e-05 1.2915925e-05 -5.0129893e-05
0000a0 bb bd 04 b8 ff d9 86 b8 a6 3e a9 b7 80 18 ec b4
       -3.1647953e-05 -6.430223e-05 -2.0175543e-05 -4.3976252e-07
0000b0 7e 3d 84 b7 f9 77 0b 38 83 93 97 b8 b6 78 dc 37
       -1.576426e-05 3.3251916e-05 -7.227717e-05 2.6282254e-05
0000c0 a1 6b 80 38 73 86 48 38 e8 fe 8d b7 de 97 ec 38
       6.123563e-05 4.780893e-05 -1.692721e-05 0.000112816444
0000d0 d2 af 93 37 42 69 d9 38 d3 7f 56 37 ce 54 78 b7
       1.7605638e-05 0.00010366972 1.2785155e-05 -1.4801697e-05
0000e0 84 99 46 38 69 6f 7e b8 e8 90 3f 38 9c 44 93 37
       4.734985e-05 -6.0662078e-05 4.5672903e-05 1.7555714e-05
0000f0 21 30 47 38 7c cf 09 37 68 f0 6e 36 94 c6 b2 b7
       4.749012e-05 8.214145e-06 3.5604698e-06 -2.1311724e-05
000100 4a c0 13 38 9f b0 c6 b7 00 b7 4e 37 86 52 f8 37
       3.5226614e-05 -2.3685685e-05 1.2321165e-05 2.9602332e-05
000110 69 08 ca 37 b8 7c c2 38 98 40 f8 b7 94 ab 92 38
       2.4084193e-05 9.2738715e-05 -2.9593983e-05 6.9937814e-05
000120 76 b6 d9 37 6b e5 17 b8 cd 1f b9 37 da 62 8c 38
       2.595338e-05 -3.6214868e-05 2.2068527e-05 6.694133e-05
000130 a4 d6 6f 38 76 6c 35 38 3f b0 bd 38 52 3b 65 38
       5.718194e-05 4.3254775e-05 9.045051e-05 5.46531e-05
000140 84 63 b4 37 a2 b4 1f 39 3e 68 ba 36 47 5d fd b8
       2.1504013e-05 0.00015230713 5.5553674e-06 -0.00012081354
000150 4c f2 80 b7 0a a2 6b b8 20 0a 63 b7 80 2e 87 36
       -1.5371617e-05 -5.6179277e-05 -1.3532612e-05 4.028727e-06
000160 8b a8 6c b8 1a c9 5b 37 f1 c9 ae b8 60 9d 46 36
       -5.6423753e-05 1.310024e-05 -8.334581e-05 2.9595903e-06
000170 d5 48 1f 38 8e c6 9b 37 65 fd 4d b9 4d 71 5a 37
       3.7976384e-05 1.85699e-05 -0.0001964472 1.30201925e-05
000180 aa 98 f8 b7 86 e4 97 b8 bd 37 a8 38 94 38 92 39
       -2.9634994e-05 -7.242807e-05 8.021246e-05 0.00027889444
000190 41 85 21 38 8e 0a 5f b7 4a 54 d7 38 83 5f d3 38
       3.8509494e-05 -1.3294293e-05 0.00010267699 0.000100790545
0001a0 20 a9 80 b7 d8 a9 12 38 53 74 c8 b9 e0 de 47 3a
       -1.5337544e-05 3.4967292e-05 -0.0003823364 0.00076244585
0001b0 1d b7 8b 38 57 85 c6 39 ff a7 9c 38 3c 89 14 3a
       6.662144e-05 0.0003786485 7.4699514e-05 0.00056662015
0001c0 22 57 15 37 ef 51 9b 37 b0 b5 18 39 50 8a 60 37
       8.901379e-06 1.8515593e-05 0.00014563533 1.3383644e-05
0001d0 d7 be 0b 3a 51 55 a8 b8 3a 09 0b b9 a4 f2 8f 37
       0.00053308666 -8.026756e-05 -0.0001325951 1.7159917e-05
0001e0 e4 cd 82 b8 fc 24 f2 36 9b 33 af b8 ea c9 f3 b8
       -6.237233e-05 7.2164676e-06 -8.3542625e-05 -0.000116247524
0001f0 b0 f8 f8 b5 3b 72 0a b8 c8 ea 8b b8 38 1c 9d 35
       -1.8549817e-06 -3.300815e-05 -6.671768e-05 1.1705624e-06
000200 ce 8a 28 39 9d 9b 95 39 de f6 4f 38 a0 93 21 b4
       0.00016073437 0.00028535436 4.958256e-05 -1.5047999e-07
000210 78 98 9a b7 78 d8 20 b8 56 b4 00 37 c0 bd 23 34
       -1.842923e-05 -3.8348575e-05 7.671382e-06 1.5249589e-07
000220 22 ab 8d b8 b2 8b fb 39 06 5d 23 39 3a c0 01 3a
       -6.75528e-05 0.00047978532 0.00015579545 0.00049496035
000230 24 94 c0 b8 30 13 0b b8 ae c1 49 b8 37 01 98 37
       -9.182867e-05 -3.3158052e-05 -4.8102513e-05 1.8120378e-05
000240 7e ce 44 39 79 28 ac b8 b7 55 34 b8 4b 94 19 b9
       0.00018768941 -8.209138e-05 -4.2995172e-05 -0.0001464646
000250 6d da 98 b9 14 56 d3 b7 ad ed d1 b7 25 4d 96 b7
       -0.0002915444 -2.5193243e-05 -2.5025418e-05 -1.7917317e-05
000260 79 60 bf b8 c1 91 0d b9 04 91 60 37 26 57 e7 37
       -9.125559e-05 -0.00013501105 1.33852045e-05 2.7577928e-05
000270 cd 4b 36 b8 a4 60 16 36 3c 5b e3 38 33 be 64 39
       -4.3462776e-05 2.2407994e-06 0.00010841197 0.00021814629
000280 b2 d5 94 38 d0 48 d3 34 37 1d a9 38 b9 f8 c6 b7
       7.096994e-05 3.935479e-07 8.06399e-05 -2.371926e-05
000290 04 ae 7b b7 06 cf 2c b7 4b 6b eb b7 4c 6f 01 3a
       -1.5001282e-05 -1.03002e-05 -2.8064145e-05 0.0004937544
0002a0 45 16 6d 38 3d 9e 0a 3a 9c cc b3 b7 2a eb 78 38
       5.6525943e-05 0.00052878616 -2.1433741e-05 5.934682e-05
0002b0 cc c1 8f 37 ee e0 93 37 d5 d2 28 39 4d 8e 9a b8
       1.7137172e-05 1.7628507e-05 0.0001610027 -7.369798e-05
0002c0 8c ed 1d b8 4a e8 db b8 81 f9 68 b9 a7 3a e0 b7
       -3.765295e-05 -0.00010486001 -0.00022218192 -2.6730193e-05
0002d0 e7 b8 fc 3c c9 6e 18 bc 93 26 45 bc ec 78 be bc
       0.030849887 -0.009303757 -0.012033123 -0.02325102
0002e0 3d 36 3b be 97 6d 7f 38 0d f7 bb 38 01 71 0a 3a
       -0.18282409 6.08988e-05 8.962872e-05 0.0005281121
0002f0 7c 3e f9 b6 04 6f 39 3b dd d7 b6 38 bf 25 1d bc
       -7.4280524e-06 0.002829493 8.718644e-05 -0.009591519
000300 70 fa e5 b8 1c 09 38 b9 48 28 cf b6 4c 79 b2 38
       -0.000109662185 -0.00017551001 -6.17377e-06 8.510295e-05
000310 a2 5b 95 bd 23 99 85 bb a7 fa f8 37 1c fc f4 b9
       -0.07292868 -0.004077093 2.9680623e-05 -0.00046727143
000320 c9 de a5 b8 b0 89 19 be 9f e5 0d 38 70 6d 09 bd
       -7.90931e-05 -0.1499393 3.383087e-05 -0.033551633
000330 ff af 5c b9 96 93 f1 bb 4a 98 1b be 63 21 9a bb
       -0.00021046399 -0.00737233 -0.15194812 -0.004703687
000340 76 7b b7 38 f7 76 c5 b8 17 94 1a bc 70 61 ba b5
       8.7491164e-05 -9.415851e-05 -0.009434721 -1.3886438e-06
000350 05 1d 8c b9 1f 76 b5 3a d4 9b aa bc 17 c7 61 b8
       -0.00026724502 0.0013844407 -0.020826258 -5.3829597e-05
000360 6b b9 ba 38 72 d0 c5 38 9b e9 85 bc fc b3 ad 3d
       8.903708e-05 9.432518e-05 -0.016346743 0.08481595
000370 24 62 48 b8 ca 59 25 37 7e 78 e1 39 45 20 37 bd
       -4.7775116e-05 9.855672e-06 0.00043005118 -0.04470851
000380 98 25 e8 b6 28 aa e9 b8 bf 02 b0 bd 38 7d b1 bd
       -6.9185153e-06 -0.00011142 -0.08594274 -0.08666462
000390 c0 21 20 3d 65 90 00 be 18 49 53 38 65 ce d8 bd
       0.039094687 -0.12555082 5.0374394e-05 -0.10586242
0003a0 56 0e 6d b8 8e 8f bf 38 d6 15 4d bc 48 67 54 36
       -5.6518555e-05 9.134329e-05 -0.012517413 3.165058e-06
0003b0 df bc 8a bd e2 74 8d 3a fe 68 82 bd 9a cf 37 39
       -0.067743056 0.001079228 -0.06367682 0.00017529578
0003c0 3b c9 c4 bc 00 17 9a 35 5b 3e b1 b9 f2 32 9f 3a
       -0.024021735 1.1480588e-06 -0.0003380653 0.001214592
0003d0 12 67 0d bc 10 c8 f9 36 b6 ad b9 b7 13 79 85 38
       -0.008630531 7.4440686e-06 -2.2134609e-05 6.364486e-05
0003e0 e8 fd 91 bc 57 0e c7 3d dd 4c 74 39 ca 0b 10 38
       -0.017821267 0.09719532 0.00023298287 3.4343255e-05
0003f0 1a 22 eb 39 22 77 9a bc fc d8 f8 36 68 5d a7 b8
       0.000448481 -0.018855635 7.4162363e-06 -7.980579e-05

conv1.bias f4 [30]
000000 95 31 51 be 85 16 44 be 51 d6 1a be 76 73 29 be
       -0.2042907 -0.19149216 -0.15120818 -0.16547951
000010 f3 cc 73 be 4d 25 39 b9 0a aa 9f ba 44 f6 e9 bd
       -0.2380865 -0.0001765687 -0.0012181413 -0.114239246
000020 aa cf 4b be 24 bc 1e bf 1d ef 15 bc ca 84 72 be
       -0.19903436 -0.6200583 -0.009151247 -0.23683468
000030 0e df f6 bd 16 3f 83 be 90 1a 78 bd e3 9f b4 bc
       -0.12054263 -0.25634068 -0.060572207 -0.022048896
000040 40 19 e0 be 10 b3 d5 be e0 29 62 be ff 5a 98 be
       -0.43769264 -0.41738176 -0.22086287 -0.29756925
000050 20 4d 93 bc fc 75 35 bd 62 b7 ba be 66 bd 98 be
       -0.017981112 -0.04430197 -0.36468035 -0.29832
000060 5b 9b 76 be 5f 5c 50 be 36 e4 88 be 91 16 ee be
       -0.24082701 -0.20347737 -0.2673661 -0.46501592
000070 1d 9c 74 be 1a 04 06 be
       -0.23887677 -0.13087502

conv2.weight f4 [30, 10]
000000 12 df 35 38 ce 7a 67 be a1 a6 da bc 78 9a 03 b9
       4.3361513e-05 -0.2260544 -0.026690783 -0.00012550678
000010 b3 4f ba bd 5c 39 69 be 31 2c 01 39 ec 44 c0 3d
       -0.09097233 -0.22775787 0.00012318861 0.09388146
000020 dd 2a d8 bd f8 09 d9 b7 66 b3 2d 37 0a 20 0e 39
       -0.105550505 -2.5873058e-05 1.0353373e-05 0.00013554111
000030 c0 00 e9 b7 13 15 d4 b7 e0 89 64 b6 bc 74 82 38
       -2.7776114e-05 -2.5282183e-05 -3.4054901e-06 6.2206265e-05
000040 d8 94 f1 b6 f0 24 65 bd 21 5f 05 3e 59 2d b2 b6
       -7.1996874e-06 -0.05594343 0.1302457 -5.3100925e-06
000050 c1 4b a0 37 f7 86 59 be d7 45 8d bd 18 51 3e bc
       1.9108762e-05 -0.21242891 -0.068980865 -0.011616014
000060 e2 ef 88 be ad d5 3e 38 db f3 1d b9 c8 08 46 3e
       -0.26745516 4.549853e-05 -0.0001506353 0.19339287
000070 5a 29 be bd 30 00 8c b6 aa 10 e1 b6 01 36 54 be
       -0.09285231 -4.172347e-06 -6.7074625e-06 -0.20723726
000080 ff b3 bf bc d3 e9 85 bb 09 91 89 be 1e 47 78 b9
       -0.023401259 -0.004086712 -0.26868466 -0.00023677616
000090 3e 0c b8 b8 70 5b 45 3e 33 bd 96 3c 73 3a 09 b8
       -8.776084e-05 0.19273162 0.018400764 -3.271778e-05
0000a0 a0 2a b5 35 97 9c 01 be d8 fa 84 bc 58 16 d3 ba
       1.3497956e-06 -0.1265739 -0.016232893 -0.0016104681
0000b0 1f cc 63 be 2f ee 97 be f8 76 ed b6 d2 7f 6d 3b
       -0.22245835 -0.29673907 -7.077e-06 0.0036239517
0000c0 5a c4 94 be fa 56 26 38 5c 36 10 b6 70 b5 56 35
       -0.29056054 3.9658487e-05 -2.1489313e-06 7.998524e-07
0000d0 85 2d a8 37 43 48 e8 37 1a 7c 7a b7 c2 cd 9e 36
       2.0048357e-05 2.7690205e-05 -1.4930056e-05 4.7327203e-06
0000e0 0c dc 5e b6 70 8f 24 b6 0c bf c2 39 d4 93 66 b6
       -3.3208662e-06 -2.4521396e-06 0.00037144904 -3.4358718e-06
0000f0 84 e9 0e 37 78 e6 9c b7 52 64 bc b7 42 17 02 39
       8.518229e-06 -1.870397e-05 -2.2458062e-05 0.0001240643
000100 8d 26 80 ba d8 a8 af b6 2d ed 2e b8 ac 4e c6 38
       -0.0009777114 -5.2350624e-06 -4.170572e-05 9.4560295e-05
000110 03 f3 68 3b 04 d9 b2 37 28 de c4 b7 8a 89 88 37
       0.0035545237 2.132031e-05 -2.346847e-05 1.627651e-05
000120 7c 07 22 b8 9f b9 3b b8 c9 8d 7a 37 ec 84 d2 36
       -3.863078e-05 -4.4757147e-05 1.4934173e-05 6.273962e-06
000130 10 93 df b6 65 5e 82 39 65 7b c4 39 0c bf a5 b7
       -6.663038e-06 0.00024865862 0.0003747597 -1.9758496e-05
000140 2c 85 80 b7 b0 2c 57 b7 e0 02 c2 b5 56 c1 29 b9
       -1.5320802e-05 -1.2825403e-05 -1.4454963e-06 -0.00016189119
000150 2b b0 86 bd 72 60 0d b7 70 13 c6 b8 70 5d 9f b7
       -0.0657657 -8.42671e-06 -9.444996e-05 -1.8997787e-05
000160 9d 98 e1 3d a6 90 cc b7 7d 5b 2f bc b3 3c 8f be
       0.11015437 -2.4386052e-05 -0.010702965 -0.27975997
000170 a7 f2 37 bd 60 b9 8a 3a 84 1c a6 bd 69 a8 bb 3c
       -0.044909146 0.001058381 -0.08110908 0.022907453
000180 e5 a5 82 38 3f a7 70 be 57 ee ae 3e 94 87 98 b7
       6.229783e-05 -0.235013 0.34166214 -1.8182945e-05
000190 3e a9 f4 b6 d4 e9 df b6 9d b4 8f b7 c7 24 21 b7
       -7.291469e-06 -6.673139e-06 -1.7131033e-05 -9.604911e-06
0001a0 93 27 a9 b7 98 8c 90 37 70 03 81 b7 ae 38 88 b6
       -2.0164798e-05 1.7231607e-05 -1.5379599e-05 -4.0597142e-06
0001b0 d5 35 54 38 d4 b9 d7 b5 be df 03 b8 dd 2d 85 38
       5.0594874e-05 -1.6072831e-06 -3.144121e-05 6.350477e-05
0001c0 8c 4d 2a b7 ed 0e 3e 38 28 76 30 36 f6 3e 71 ba
       -1.0150845e-05 4.531343e-05 2.629482e-06 -0.00092028023
0001d0 70 5b 0d b7 76 33 71 be e8 47 74 3e 8c 31 27 36
       -8.425544e-06 -0.23554787 0.23855555 2.491378e-06
0001e0 e0 bd 5d b6 c8 0e c1 37 09 f4 1e 37 02 dd a3 38
       -3.3042088e-06 2.3014276e-05 9.474353e-06 7.8136116e-05
0001f0 16 77 93 bd e0 ef c6 b4 e6 04 b0 37 df 49 fb 36
       -0.07200448 -3.7054906e-07 2.0983116e-05 7.4889826e-06
000200 a2 44 70 3d 14 cf 7e 36 ec 86 39 b6 ee 53 24 b7
       0.058659203 3.7969485e-06 -2.7645683e-06 -9.794703e-06
000210 44 d3 d7 35 53 49 b9 38 0b f5 45 bd 46 5a 83 b7
       1.6080235e-06 8.835145e-05 -0.048329394 -1.5658454e-05
000220 96 4b d0 b7 6e 35 8f 36 ba 70 60 3d 51 6b 2a 37
       -2.483073e-05 4.267952e-06 0.054795004 1.0157776e-05
000230 a5 e0 0c b8 49 a3 41 37 43 87 04 b7 22 dc 28 37
       -3.3587818e-05 1.1541714e-05 -7.899306e-06 1.0064834e-05
000240 a3 ed 0a 37 5d 47 00 b8 0e e1 d3 37 76 2f c2 b8
       8.28077e-06 -3.058404e-05 2.525796e-05 -9.259481e-05
000250 11 29 31 b9 ea 5e ed 36 96 25 89 39 c7 a8 b7 37
       -0.00016895334 7.0742e-06 0.0002615868 2.1893893e-05
000260 4e 64 9e b7 8a 35 0f 37 f2 3a 2a 37 1d 45 9b be
       -1.8881776e-05 8.53593e-06 1.0146514e-05 -0.30326167
000270 f5 dc 0a b7 a6 60 0d bf 48 92 86 bd 02 f8 2d b9
       -8.276887e-06 -0.552256 -0.0657087 -0.00016590956
000280 9a fa 4b b7 bf 79 39 3a 78 2c fc b8 5d c1 9c bb
       -1.2158091e-05 0.00070753315 -0.00012024579 -0.004783793
000290 da 76 ef bd 3f 98 ab 37 22 f5 43 37 f2 d3 99 3a
       -0.11692591 2.0455684e-05 1.167998e-05 0.0011736138
0002a0 8f 1c 6c 3e 22 ee ae 37 c0 04 13 b4 7f 0d 46 37
       0.23057769 2.0853306e-05 -1.369217e-07 1.1804862e-05
0002b0 1a ca f4 b6 2a 65 45 b9 77 2a 74 bd 76 29 e5 37
       -7.2952944e-06 -0.0001882507 -0.05961081 2.7318234e-05
0002c0 4a a9 59 b8 88 68 53 36 b5 db 15 3d d0 98 8d b7
       -5.1894494e-05 3.1502295e-06 0.036586482 -1.6879669e-05
0002d0 c2 ca 21 b9 4c 96 ca be cc ac 84 bd 21 c8 8a bc
       -0.0001542969 -0.39567792 -0.06478271 -0.016941132
0002e0 b3 da 28 be b4 19 49 be ed 4e ed 37 9c 91 eb 3d
       -0.16489677 -0.19638711 2.8289354e-05 0.11502382
0002f0 6c dd a4 3d 6c 54 74 b7 24 e7 8e 37 e8 ed c4 37
       0.08050045 -1.4563189e-05 1.7035352e-05 2.3475804e-05
000300 e5 47 29 b7 54 0c fb 38 a3 65 e4 bd 98 1d 6e 37
       -1.0089924e-05 0.00011970909 -0.11152198 1.4192796e-05
000310 d0 79 7c 38 d7 0b d7 b7 16 85 b0 3d 09 b5 9d 37
       6.019493e-05 -2.563551e-05 0.08619134 1.880016e-05
000320 f6 5e 73 37 b8 6c b9 b7 d7 04 c3 37 48 b0 60 36
       1.45060385e-05 -2.2104345e-05 2.3248065e-05 3.348121e-06
000330 4d 85 af b7 7a d2 aa b7 e5 77 42 37 b5 85 04 b8
       -2.0923699e-05 -2.036359e-05 1.1591216e-05 -3.1595777e-05
000340 ab 40 06 37 a4 45 5d b7 51 c7 0d 39 63 9b ff bd
       8.002079e-06 -1.3188841e-05 0.00013521059 -0.124808095
000350 43 2d 1d bc 3c a1 b1 b9 50 df 80 37 16 5e 67 be
       -0.009593311 -0.000338802 1.5362777e-05 -0.22594485
000360 20 ed e0 b5 46 db 06 be 4d d5 7e be 72 17 52 37
       -1.6758313e-06 -0.13169584 -0.24886055 1.2522434e-05
000370 be 02 ad 37 72 61 56 37 50 51 91 37 d8 bd 24 39
       2.0624484e-05 1.2778082e-05 1.7323211e-05 0.00015710981
000380 34 78 85 bd 68 76 4a 36 aa ec b5 38 8b 0a d8 b6
       -0.065170676 3.0169267e-06 8.674835e-05 -6.438529e-06
000390 f7 d1 29 be 9e d9 bd 37 e2 e0 86 37 7d 12 59 b9
       -0.16584001 2.2631892e-05 1.6078764e-05 -0.0002070162
0003a0 93 f4 8f 38 9f d2 8d 38 84 77 c1 36 69 16 79 b9
       6.864327e-05 6.762635e-05 5.7657617e-06 -0.00023754839
0003b0 46 46 01 b7 2d 77 99 bd ec 69 d1 3d a4 aa a2 37
       -7.705361e-06 -0.07493434 0.10225281 1.9391366e-05
0003c0 ad 44 ce b7 f6 e8 95 b6 e1 47 e2 37 f4 9c d9 b7
       -2.4589093e-05 -4.4676663e-06 2.697477e-05 -2.5941503e-05
0003d0 9a 03 3c 38 a3 d7 a6 37 c1 b4 9b 37 f2 b8 6e 37
       4.4826047e-05 1.9889156e-05 1.856161e-05 1.4228966e-05
0003e0 77 fe 5f 39 30 05 f4 36 c6 58 27 3a f9 f6 46 be
       0.00021361733 7.2723706e-06 0.00063837727 -0.1943015
0003f0 61 7b 72 39 99 39 cf 38 55 35 2a 38 df 68 51 be
       0.0002312488 9.8812576e-05 4.0580828e-05 -0.20450161

conv2.bias f4 [10]
000000 b4 f5 2e be a3 8a e5 be ad 0e 47 be 5c 17 38 be
       -0.17085916 -0.44832334 -0.19439192 -0.17977661
000010 d7 3c d8 be b4 3b 7e be 51 e9 1a ba ee 3a 0c bf
       -0.42233917 -0.24827462 -0.00059094006 -0.5477742
000020 9f f0 8c 3a 7a 7e a4 be
       0.0010752863 -0.32127744

rnn.weight_ih_l0 f4 [30, 1]
000000 1b 51 22 3f ca 19 34 3e b3 13 50 3d 30 fc 0b bf
       0.6340501 0.17587963 0.050800037 -0.5468168
000010 6f 50 29 3e 21 df ff be 85 de 7f be 2b bc 23 3e
       0.16534589 -0.4997492 -0.24987228 0.15989749
000020 8f 52 d2 be 23 eb f1 bd 1e 91 11 3f aa ab 10 bf
       -0.41078612 -0.11812427 0.56862056 -0.5651194
000030 82 e6 5d 3e cd 82 52 3f 4a 4a d9 be 90 68 86 bd
       0.21669963 0.82230836 -0.4243949 -0.065629125
000040 43 e2 93 3e ff 1f 65 be 02 bc 86 be f7 88 01 3f
       0.28883561 -0.22375487 -0.26315314 0.50599617
000050 d3 42 a2 be 79 2d c2 3c 56 58 3f bf 3d 3e f7 be
       -0.31691608 0.023703324 -0.74744165 -0.48289672
000060 29 48 36 be 31 db a6 be 19 0c 5c be 6f 99 2d bf
       -0.17800964 -0.32589105 -0.2148899 -0.67812246
000070 59 23 28 40 76 c0 68 3d
       2.6271574 0.05682417
