colagnn-master-Run-Epi/src/save/cola_gnn_epi.us_regions.w-20.h-2.RNN.lam-1.0.epo-500.pt (torch, 52278 bytes, 32 tensors)

V f4 [15]
0	0xbca25b1a	-0.019818831
1	0xbedcaf4a	-0.43102485
2	0xbf83eb18	-1.030612
3	0xbfe4c000	-1.7871094
4	0xbfdab381	-1.708603
5	0x3d0fce8d	0.03510909
6	0x3f8cb798	1.0993528
7	0xbfe1659d	-1.7609135
8	0x3e556638	0.20839775
9	0xbfdc01bb	-1.7188028
10	0x40138750	2.3051338
11	0xbf4a7bd0	-0.7909517
12	0x3fd115e1	1.6334802
13	0x3fcc0ee9	1.594205
14	0xbfd0b8dd	-1.6306416

W1 f4 [15, 30]
0	0x3a034d94	0.00050088135
1	0x3a244ada	0.0006267257
2	0xba425365	-0.00074129394
3	0xb831dedd	-4.2407646e-05
4	0x39e48971	0.0004358995
5	0x39ec3d32	0.00045059022
6	0xba0ed58e	-0.0005448692
7	0x39fb5958	0.00047941017
8	0x398dac66	0.00027022063
9	0x38bb7008	8.937722e-05
10	0xb9e78879	-0.00044161433
11	0x37ca66a0	2.4128065e-05
12	0xb946ccc0	-0.00018959027
13	0x3a8a48df	0.0010550282
14	0x38c4827e	9.3703144e-05
15	0xba0d8c5e	-0.00053996395
16	0xba80a923	-0.0009816032
17	0xb9ff2da5	-0.00048671398
18	0x3a26e7e7	0.00063669536
19	0xb9a5b47f	-0.00031605733
20	0x3a54ab40	0.00081126764
21	0x3a62b211	0.000864775
22	0xba1097d5	-0.0005515789
23	0xb9e9f932	-0.00044626888
24	0xb94ee024	-0.0001972919
25	0xba0dccec	-0.0005409259
26	0xba549862	-0.0008109865
27	0xba634903	-0.00086702424
28	0x38c79da2	9.518421e-05
29	0xb9b2c830	-0.00034099957
30	0xbbf1ee3e	-0.007383137
31	0x3b85a8fd	0.004078983
32	0xbb8b14f8	-0.004244443
33	0xbb48b139	-0.003062321
34	0x399a6ae9	0.00029452823
35	0xba16b380	-0.00057487935
36	0x3bff74af	0.007795892
37	0xbbec9840	-0.007220298
38	0xbbabc23b	-0.00524166
39	0x3b59205c	0.003313086
40	0x3b6054c2	0.0034230207
41	0x3b7ef7f6	0.003890512
42	0x3b8331a2	0.0040037194
43	0x3b8d4221	0.0043108617
44	0x3b30f999	0.002700424
45	0xbb7bd3f2	-0.003842589
46	0xbb8ac029	-0.004234333
47	0x3beb2e12	0.007177123
48	0xbb1975d5	-0.002341618
49	0xbb7ec3c6	-0.0038874014
50	0x3b8d9da1	0.0043217693
51	0x3b853888	0.004065577
52	0x3aaae3e3	0.0013037886
53	0x3bc476c9	0.0059956056
54	0x3ba3b7a4	0.004996257
55	0xbb5b2291	-0.0033437351
56	0xbb8751ed	-0.0041296394
57	0xbb8845c5	-0.004158708
58	0x3b83eeca	0.0040262686
59	0x373f9af0	1.1420561e-05
60	0x3c0d7f42	0.008636298
61	0xbb06bd32	-0.0020559547
62	0x395db557	0.00021143757
63	0x3c0be168	0.008537628
64	0x3be38d38	0.006944325
65	0xbbacafba	-0.0052699717
66	0xbc0c4608	-0.008561619
67	0x3c0dc2a7	0.008652366
68	0x3c0f0e79	0.008731478
69	0xbc0888d8	-0.008333407
70	0x395994ab	0.00020750116
71	0x3ab2dd46	0.0013646267
72	0xbc0aa887	-0.008463032
73	0xbb0f7b6d	-0.0021893636
74	0xbc08d89b	-0.008352424
75	0x3a35df0c	0.00069378386
76	0x3b58fe2a	0.0033110478
77	0xbc0ddf59	-0.008659207
78	0x3b69ca56	0.003567358
79	0xba5dcf83	-0.00084614026
80	0xbb29514f	-0.0025835817
81	0xbb8ddd9c	-0.0043293964
82	0x3bdb0980	0.006684482
83	0xbc0ef715	-0.008725901
84	0xbc0df27c	-0.00866377
85	0x3b89bd49	0.0042034728
86	0x3b69a90b	0.0035653736
87	0x3b7dbcf0	0.0038717352
88	0xb996385f	-0.0002865223
89	0xbb8679a8	-0.004103858
90	0x3bb17c19	0.005416405
91	0x3bdbd9b2	0.006709301
92	0xbbcac700	-0.0061882734
93	0x3bb5bd8a	0.0055462765
94	0x3c6e1de0	0.01453349
95	0xbbbcda70	-0.0057633445
96	0xbbb0789c	-0.0053854715
97	0x3bb145d9	0.005409938
98	0x3bb4ecb8	0.005521383
99	0xbbb971b4	-0.0056593064
100	0x3bc003dc	0.005859835
101	0x3bc5f9cf	0.0060417424
102	0xbbb820bc	-0.0056191366
103	0x3bcde64c	0.006283557
104	0xbbb9c3d2	-0.0056690956
105	0xbbcfd124	-0.00634207
106	0xbbe2a64a	-0.006916796
107	0xbbb24864	-0.0054407585
108	0xbbfb0a49	-0.007661138
109	0xbbc95caa	-0.0061450796
110	0x3bdc780c	0.006728178
111	0x3bee3c62	0.007270382
112	0x3bbb0410	0.0057072714
113	0xbbb26f51	-0.005445399
114	0xbbb6f2e1	-0.0055831526
115	0xbbf6ba01	-0.0075294976
116	0xbbdb505e	-0.00669293
117	0xbbe5d3ac	-0.0070137586
118	0x3bc7f774	0.0061024968
119	0xbbd900a2	-0.00662239
120	0x3b4e5442	0.0031483327
121	0x3bfc757f	0.0077044363
122	0xbbbff353	-0.005857864
123	0x3b70d016	0.0036745123
124	0x3c01f030	0.0079308
125	0xbbac1b35	-0.005252267
126	0xbb45e048	-0.0030193496
127	0x3b4b0a18	0.0030981358
128	0x3b60cb84	0.0034300992
129	0xbb83c785	-0.0040215873
130	0x3baca597	0.0052687633
131	0x3bbbcd36	0.00573125
132	0xbb877fcc	-0.0041351076
133	0x3bc9e8ec	0.0061617997
134	0xbb84cd06	-0.004052761
135	0xbbc800f7	-0.0061036306
136	0xbc21819f	-0.009857564
137	0xbb4c0521	-0.0031130987
138	0xbc4ad590	-0.012380019
139	0xbbbcc252	-0.0057604695
140	0x3c06e034	0.008232165
141	0x3c2073a4	0.009793196
142	0x3b88175d	0.0041531757
143	0xbb609e70	-0.0034274124
144	0xbb724dfc	-0.0036972752
145	0xbc4acbf2	-0.012377726
146	0xbc00feb3	-0.007873225
147	0xbc25cf30	-0.010120198
148	0x3bbbf4cc	0.005735969
149	0xbbb8c559	-0.00563876
150	0x3e05356a	0.13008657
151	0x3d2c3376	0.042041264
152	0xbd27dc47	-0.040981557
153	0x3dd8e9fe	0.105915055
154	0x3d393ee2	0.045225985
155	0xbdae46ff	-0.08509635
156	0xbe08854b	-0.13332097
157	0x3e05661f	0.13027237
158	0x3df3798b	0.11888417
159	0xbdda26ba	-0.10651918
160	0x3d9d010a	0.07666214
161	0x3d4a3a9c	0.0493723
162	0xbde2780d	-0.11058054
163	0x3d062d49	0.03275803
164	0xbdd5139a	-0.10404129
165	0xbd222238	-0.039583415
166	0xbcf36ad6	-0.02971403
167	0xbe0529f3	-0.13004284
168	0xbc67c0c2	-0.014145078
169	0xbd47594c	-0.048669145
170	0x3d0c3694	0.034231737
171	0x3ce78fd3	0.028266823
172	0x3dab7f65	0.08373908
173	0xbdfb8494	-0.12281147
174	0xbded5c54	-0.11589876
175	0xbc93ac09	-0.018026369
176	0xbcd7bc8a	-0.02633502
177	0xbccd4425	-0.025056908
178	0x3d572cb7	0.052532878
179	0xbc2fbaaa	-0.0107256565
180	0xbb27c274	-0.002559808
181	0xbbb58f48	-0.005540762
182	0x3bb4a61d	0.0055129663
183	0xbb6355d4	-0.0034688609
184	0xbb654880	-0.003498584
185	0x3ba7345c	0.0051026773
186	0x3b2dca67	0.0026518346
187	0xbb3c7428	-0.0028755758
188	0xbb45d378	-0.003018586
189	0x3b63b287	0.0034743862
190	0xbc1a2d40	-0.0094102025
191	0xbba2298c	-0.0049488004
192	0x3b4df99d	0.0031429299
193	0xbbc05cd9	-0.0058704433
194	0x3b5ee13c	0.0034008762
195	0x3bd2307f	0.0064144726
196	0x3bbabbc4	0.005698653
197	0x3b3c28e6	0.00287109
198	0x3becdca1	0.0072284495
199	0x3baeb625	0.005331772
200	0xbbb832ac	-0.005621275
201	0xbbd9bf51	-0.006645121
202	0xbbb828d5	-0.005620102
203	0x3b25bb5e	0.0025288681
204	0x3b4e7edc	0.003150872
205	0x3bc63929	0.0060492945
206	0x3bcada83	0.0061905994
207	0x3bc997f2	0.0061521465
208	0xbbec76fc	-0.0072163325
209	0x39115458	0.00013859698
210	0x3c16b023	0.009197268
211	0x3c48dd2d	0.012259764
212	0xbc87d3fc	-0.016580574
213	0x3bc2932b	0.005937954
214	0x3d01dfb5	0.031707484
215	0xbb99e1b0	-0.0046960935
216	0xbc1afe58	-0.009460054
217	0x3c158ada	0.009127343
218	0x3bf6c04c	0.007530248
219	0xbbcd0d16	-0.0062576635
220	0x3ba16e01	0.0049264436
221	0x3c41242e	0.011788411
222	0xbbe673c3	-0.007032843
223	0x3caaa985	0.020832786
224	0xbbbf71d0	-0.005842425
225	0xbc580218	-0.013184093
226	0xbca22899	-0.01979475
227	0xbc141e5c	-0.009040441
228	0xbccd0d73	-0.025030827
229	0xbc4eb28e	-0.012615813
230	0x3c8d04c3	0.017214185
231	0x3ca4df4e	0.020126011
232	0x3ba57f27	0.005050558
233	0xbc0a4e4b	-0.008441518
234	0xbbf34772	-0.0074242884
235	0xbcce68bd	-0.025196427
236	0xbcc0e74f	-0.023547797
237	0xbcbb83ed	-0.022890056
238	0x3c2506fd	0.010072467
239	0xbc6c1f95	-0.014411827
240	0xbaf3e0e2	-0.0018606449
241	0x3980acf1	0.00024542914
242	0xb9ba1695	-0.0003549351
243	0xbb301328	-0.0026866887
244	0xb8e424d0	-0.00010878744
245	0x3b28c8d5	0.002575447
246	0x3ae6955c	0.001759212
247	0xbaf890fa	-0.0018964105
248	0xbb18f367	-0.0023338438
249	0x3b2f94ad	0.0026791499
250	0xbb100002	-0.002197266
251	0xba43a360	-0.00074630044
252	0x3b2342cf	0.0024911647
253	0x3a298dd5	0.0006467973
254	0x3b31c148	0.0027123261
255	0x38b3faef	8.582125e-05

b1 f4 [15]
0	0x3a2d2403	0.00066047924
1	0xbc079088	-0.008274205
2	0x3c0820ca	0.008308599
3	0x3bacf7e8	0.005278576
4	0x3b411a02	0.0029464965
5	0x3e0c32b0	0.13691211
6	0xbae83662	-0.0017716403
7	0x3c250b94	0.010073561
8	0xbaa7e659	-0.0012809738
9	0x3b256c96	0.0025241724
10	0x3e9e9dcb	0.3097976
11	0xbec1b99a	-0.37836915
12	0x3e00c66e	0.12575695
13	0xbf97b8c4	-1.1853261
14	0xba446c22	-0.00074929197

W2 f4 [15, 30]
0	0x3a2b6002	0.00065374386
1	0x3a0a6078	0.0005278657
2	0xba01fe81	-0.00049588835
3	0xb9af871b	-0.00033479262
4	0xbaeb5b77	-0.0017956336
5	0xba194d6f	-0.00058480253
6	0xba0648c9	-0.000512254
7	0x39968884	0.00028711942
8	0x3a72bd85	0.0009259808
9	0xba78f1b9	-0.00094964687
10	0xb98d9cfc	-0.00027010578
11	0xb9d28b1e	-0.00040157972
12	0xb9e6879e	-0.0004397006
13	0xb9e399ff	-0.0004341155
14	0x38a93fce	8.0704325e-05
15	0xb9032bae	-0.00012509405
16	0xba295e8e	-0.0006460928
17	0xb9c9710d	-0.00038421937
18	0x3a0f4c2f	0.00054663693
19	0x39dc6d61	0.00042043164
20	0x39e77e46	0.00044153834
21	0xb9cd6476	-0.00039175496
22	0xbaf6ca54	-0.0018828609
23	0xba3e3f60	-0.00072573684
24	0xb8eb0168	-0.00011205935
25	0xba00cb59	-0.00049131137
26	0x39bd2d51	0.00036082653
27	0x39ddee8f	0.00042330145
28	0xb8fe715d	-0.000121327794
29	0xb95baae8	-0.00020949135
30	0xbc110341	-0.008850873
31	0xbd17f231	-0.037096206
32	0x3d1bbc6e	0.038021497
33	0xbcae1bfd	-0.02125358
34	0xbd0c0e22	-0.034193166
35	0x3bc1dda9	0.0059163165
36	0x3bf8dfbe	0.0075950315
37	0xbbbf621c	-0.005840553
38	0x3b4bf0f8	0.003111897
39	0xbb8cbc07	-0.0042948755
40	0xbca2817d	-0.019837135
41	0xbc816ac1	-0.015797975
42	0x3c713101	0.014721156
43	0xbc922a40	-0.017842412
44	0x3cd456c4	0.02592028
45	0x3c807420	0.015680373
46	0x3c194991	0.0093559185
47	0x3be872dc	0.0070937704
48	0xbb5f4f2e	-0.0034074294
49	0x3cb2405d	0.021759206
50	0x3b82ac18	0.0039878003
51	0xbcc04a27	-0.023472859
52	0xbd56e6a5	-0.052466054
53	0x3c1fc4a2	0.009751471
54	0x3b92c574	0.0044791047
55	0x3c208d6c	0.009799343
56	0xbb517d92	-0.0031965715
57	0x3cd0501b	0.025428822
58	0x39937fa6	0.0002813313
59	0xba7b1e84	-0.00095794373
60	0x3c0ae568	0.008477546
61	0xbc19b6a2	-0.009381922
62	0xbbccad2b	-0.006246229
63	0xbb38f824	-0.0028224075
64	0xbd9e201a	-0.07720967
65	0xbc0372b5	-0.008022954
66	0xbc0cae52	-0.008586483
67	0x3c0ef03e	0.00872427
68	0xbb11cab5	-0.0022246067
69	0xbb91bd71	-0.004447632
70	0x3c09ab23	0.008402619
71	0xbb196dc3	-0.002341137
72	0xbc03a21f	-0.008034258
73	0x3aea5867	0.0017879129
74	0xba6209dd	-0.00086226856
75	0xbc140615	-0.009034653
76	0xbbcc282c	-0.006230375
77	0xbc0afea3	-0.008483562
78	0x3b6a8eb8	0.0035790633
79	0x3a847c38	0.0010107821
80	0x39e69f25	0.0004398759
81	0x3c1fd521	0.009755404
82	0xbcc2f77e	-0.023799654
83	0xbc09b6d5	-0.008405407
84	0xbc0d725c	-0.008633222
85	0xbb2f38af	-0.0026736667
86	0x3b4d0956	0.0031286082
87	0xbc0056d3	-0.0078332005
88	0x3c077b23	0.008269104
89	0xbb5df990	-0.0033870675
90	0x3bb586d4	0.0055397544
91	0x3ad1c854	0.0016005137
92	0xb9e6cad0	-0.00044020126
93	0x3a9a7462	0.0011783952
94	0xbdbaf7ed	-0.09129319
95	0xbbd8afee	-0.0066127693
96	0xbbb03e71	-0.0053785373
97	0x3baa5854	0.005198518
98	0x3ad57b2e	0.0016287321
99	0xbb4ba07f	-0.0031071005
100	0x3bfd2bbf	0.007726162
101	0x3ad0fc0c	0.0015944256
102	0xbbd86d86	-0.006604853
103	0x3ab8a12c	0.0014086119
104	0xba97b33a	-0.00115738
105	0xbc1ee424	-0.009697948
106	0xbbbf9b18	-0.005847346
107	0xbbabed5c	-0.0052468013
108	0xbbc224e0	-0.005924806
109	0xbad11b46	-0.0015953563
110	0x3be93094	0.0071163867
111	0x3c0ae314	0.008476991
112	0xbb465473	-0.0030262738
113	0xbbba4cc2	-0.00568542
114	0xbbb3276a	-0.005467345
115	0xbbb7f156	-0.0056134863
116	0xbb37eb8e	-0.0028063986
117	0xbb920422	-0.004456059
118	0x3c171ce8	0.0092232
119	0xbb190cdd	-0.0023353614
120	0x3b543f2d	0.0032386289
121	0x3bba9ed1	0.005695202
122	0xbad9e5ea	-0.0016624306
123	0x3ae4882e	0.0017435604
124	0xbdd3102d	-0.1030582
125	0xbbb4d053	-0.0055179982
126	0xbb450207	-0.0030061023
127	0x3b3f0c68	0.0029151682
128	0x3b01baef	0.001979526
129	0xbb1cbbaf	-0.002391558
130	0x3bde216f	0.006778888
131	0x3aff4da2	0.0019478092
132	0xbbae166e	-0.0053127324
133	0x3ae32a8a	0.0017331403
134	0xbadbab98	-0.0016759513
135	0xbc35510f	-0.011066689
136	0xbc4b43af	-0.012406274
137	0xbb4225fb	-0.002962469
138	0xbc1e3049	-0.009655067
139	0xbaffcaa1	-0.0019515344
140	0x3c20d590	0.009816542
141	0x3c696d53	0.014247256
142	0xba7ee57c	-0.0009723527
143	0xbb709760	-0.003671132
144	0xbb66d2a8	-0.0035220776
145	0xbbf86ac4	-0.007581087
146	0xbb883af8	-0.0041574202
147	0xbc2e8780	-0.010652423
148	0x3c0ea8ad	0.008707208
149	0xbb4a3b54	-0.0030858116
150	0x3e0eec7f	0.13957404
151	0x3e8bbe31	0.27293542
152	0xbe8be48f	-0.27322814
153	0x3e612e9a	0.21990433
154	0x3e87b1e6	0.26502913
155	0xbdfa714d	-0.12228642
156	0xbe0773e3	-0.13227801
157	0x3dfb35a6	0.12266092
158	0x3c87eafc	0.016591541
159	0xbccdfe4b	-0.02514567
160	0x3e5b2018	0.21398962
161	0x3e432c14	0.19059783
162	0xbe33f322	-0.17573217
163	0x3e48f227	0.19623624
164	0xbe781da4	-0.24230057
165	0xbe3b4371	-0.18287446
166	0xbe11b29c	-0.1422829
167	0xbdfcdd68	-0.123469174
168	0xbd6d2fb5	-0.057906825
169	0xbe630439	-0.2216958
170	0x3d150413	0.03638084
171	0x3e6c8a89	0.23099722
172	0x3e6e58fc	0.23276132
173	0xbe15ded8	-0.1463579
174	0xbde7f718	-0.11326426
175	0xbe1ac5c4	-0.15114504
176	0xbd5d0201	-0.05395699
177	0xbe6fa33a	-0.2340211
178	0x3d9b273a	0.07575841
179	0x3a986dd8	0.0011629416
180	0xbb1260c7	-0.0022335516
181	0x3c24b831	0.01005368
182	0xbc2490d6	-0.010044297
183	0x3b6c32c6	0.0036041006
184	0x3dbaa370	0.091132045
185	0x3aecdd1c	0.0018071267
186	0x3b3684d7	0.0027850175
187	0xbb547e4e	-0.0032423916
188	0xbbd2671e	-0.006420984
189	0x3b6a1b40	0.0035721809
190	0xbb27e05f	-0.0025615913
191	0x3a41d914	0.0007394713
192	0x39604f94	0.0002139195
193	0x3b48aa66	0.0030619144
194	0xbbca759f	-0.0061785723
195	0x3a8769ee	0.0010331252
196	0xb99c1b80	-0.00029775128
197	0x3a61239f	0.0008588377
198	0x3b88b7b2	0.004172289
199	0xbb930082	-0.0044861445
200	0xbb4091f0	-0.002938386
201	0x3b075ecc	0.0020655869
202	0xbc3b0f60	-0.01141724
203	0x3ad074e9	0.0015903983
204	0x3b568830	0.0032734983
205	0xba2a8f31	-0.00065063225
206	0x3b41700e	0.0029516253
207	0xbbbb1d39	-0.0057102707
208	0xbb60255a	-0.003420195
209	0x3ab3ba8e	0.0013712214
210	0x3c2e8102	0.010650875
211	0xbd547018	-0.051864713
212	0x3d6e7de9	0.058225546
213	0xbcf79031	-0.030220123
214	0xbdaa770f	-0.0832349
215	0xbc293fc9	-0.010330149
216	0xbc1884a6	-0.00930897
217	0x3bfade95	0.0076559284
218	0x3ba134c8	0.004919622
219	0xbcce377e	-0.025172945
220	0xbb71451f	-0.003681488
221	0xbc81f411	-0.01586345
222	0xbc2d649b	-0.010583068
223	0xbc7fe796	-0.015619179
224	0x3d24dd3c	0.040250048
225	0xbb91167a	-0.0044277282
226	0xbc344aab	-0.01100413
227	0xbbf7ba61	-0.00756006
228	0xbbe259a2	-0.0069076577
229	0x3ce39597	0.027781291
230	0x3c911dbc	0.017714374
231	0xbc928cba	-0.01788937
232	0xbd95e81f	-0.07319664
233	0xbc4077f6	-0.011747351
234	0xbbe3af87	-0.0069484147
235	0xbb995008	-0.00467873
236	0xbc1354f1	-0.00899242
237	0x3cac948e	0.02106693
238	0x3bd2ee5d	0.0064371065
239	0xbc4c7880	-0.012479901
240	0xbabeed20	-0.0014566518
241	0xbae9fd72	-0.0017852022
242	0x3aea1b9b	0.001786101
243	0x3a6b0cee	0.0008966465
244	0x3ca57e53	0.020201838
245	0x3b137e9c	0.0022505885
246	0x3aec58ec	0.0018031872
247	0xbb0e76ac	-0.0021738214
248	0xba8536d6	-0.0010163437
249	0xba248aff	-0.00062768155
250	0x3a709fb3	0.00091790705
251	0x39454aa0	0.00018815184
252	0xb92060d6	-0.00015294863
253	0x39b30d77	0.00034151573
254	0xba1d32cd	-0.00059966446
255	0xb9577638	-0.00020548038

Wb f4 [29, 29]
0	0xbf09628b	-0.5366599
1	0xbe4f75ac	-0.20259732
2	0xbdf1f576	-0.11814396
3	0xbf15749d	-0.5838106
4	0xbea6fd2e	-0.32615036
5	0xbf1afc1e	-0.6054095
6	0xbdec5f68	-0.11541635
7	0x3ed511e6	0.41615218
8	0x3f084ce8	0.5324235
9	0xbee0cf1e	-0.43908018
10	0x3f16a552	0.5884601
11	0xbe4a78aa	-0.19772592
12	0x3f0364aa	0.51325476
13	0x3f1bb813	0.6082775
14	0x3f250495	0.64460117
15	0x3eb3b0a3	0.350957
16	0xbe1de05a	-0.15417615
17	0x3f03c564	0.5147307
18	0x3d17b1d2	0.037034817
19	0xbeec0bfc	-0.46102893
20	0xbf0a5fd4	-0.5405247
21	0x3edc504c	0.43030012
22	0x3d3570cb	0.04429702
23	0xbf24f777	-0.644401
24	0x3d185277	0.03718802
25	0x3ed4627c	0.41481388
26	0x3f20c16f	0.62795156
27	0x3e309412	0.17243984
28	0xbea67d1c	-0.32517326
29	0xbf08e560	-0.53475
30	0xbe4f63a3	-0.20252852
31	0xbdf1cbfc	-0.11806485
32	0xbf15f84b	-0.5858199
33	0xbea71885	-0.32635894
34	0xbf1b111a	-0.6057297
35	0xbdecad67	-0.11556511
36	0x3ed521bd	0.41627303
37	0x3f0846f3	0.5323326
38	0xbee0d864	-0.43915093
39	0x3f16a304	0.5884249
40	0xbe4a93a7	-0.19782887
41	0x3f02dd43	0.5111887
42	0x3f1bcb50	0.60857105
43	0x3f250251	0.6445666
44	0x3eb3b0f8	0.35095954
45	0xbe1dac5c	-0.15397781
46	0x3f03c574	0.51473165
47	0x3d13d638	0.036092967
48	0xbeec0cca	-0.46103507
49	0xbf0a6862	-0.54065526
50	0x3edc3763	0.43011007
51	0x3d32f11c	0.04368697
52	0xbf25c65a	-0.64755785
53	0x3d14963d	0.03627609
54	0x3ed4746f	0.41495082
55	0x3f20b7cc	0.6278045
56	0x3e303005	0.17205818
57	0xbea69081	-0.32532123
58	0xbf08f05b	-0.53491753
59	0xbe4f4b04	-0.2024346
60	0xbdf21204	-0.118198425
61	0xbf15e636	-0.585544
62	0xbea6f2ec	-0.3260721
63	0xbf1b0fa7	-0.6057076
64	0xbdec9a63	-0.115528844
65	0x3ed52441	0.41629222
66	0x3f0848a6	0.5323585
67	0xbee0d27d	-0.4391059
68	0x3f16a4ef	0.5884542
69	0xbe4a8291	-0.1977637
70	0x3f02f1c9	0.51150185
71	0x3f1bd642	0.60873806
72	0x3f2503af	0.64458746
73	0x3eb3b4e5	0.3509895
74	0xbe1de885	-0.1542073
75	0x3f03c7da	0.51476824
76	0x3d157200	0.036485672
77	0xbeebfcdd	-0.46091357
78	0xbf0a6243	-0.54056185
79	0x3edc3c2a	0.43014652
80	0x3d32625b	0.04355083
81	0xbf25ce5a	-0.6476799
82	0x3d149991	0.036279265
83	0x3ed46a65	0.41487423
84	0x3f20bc9c	0.62787795
85	0x3e3091f2	0.17243174
86	0xbea68b94	-0.32528365
87	0xbf097a08	-0.5370183
88	0xbe4f6fc1	-0.20257474
89	0xbdf1cc1a	-0.118065074
90	0xbf157eed	-0.583968
91	0xbea70170	-0.32618284
92	0xbf1af813	-0.6053478
93	0xbdeceabd	-0.1156821
94	0x3ed50f9b	0.4161347
95	0x3f084c2e	0.5324124
96	0xbee0d39a	-0.4391144
97	0x3f16a2e4	0.588423
98	0xbe4a7f53	-0.19775133
99	0x3f03589a	0.5130707
100	0x3f1bb987	0.6082997
101	0x3f24f99a	0.6444336
102	0x3eb3ae88	0.35094094
103	0xbe1dfd52	-0.15428665
104	0x3f03b9ca	0.51455367
105	0x3d187ab6	0.0372264
106	0xbeec0967	-0.46100923
107	0xbf0a6568	-0.54060984
108	0x3edc4b54	0.4302622
109	0x3d371159	0.04469428
110	0xbf24f138	-0.6443057
111	0x3d180b7f	0.03712034
112	0x3ed467db	0.41485485
113	0x3f20bd56	0.62788904
114	0x3e306840	0.17227268
115	0xbea68407	-0.32522604
116	0xbf09258e	-0.5357293
117	0xbe4f622c	-0.20252293
118	0xbdf27ac9	-0.11839826
119	0xbf15eece	-0.5856751
120	0xbea72a39	-0.326494
121	0xbf1b0a43	-0.60562533
122	0xbdee32fc	-0.11630818
123	0x3ed51c08	0.4162295
124	0x3f084329	0.5322748
125	0xbee0b8c7	-0.43890974
126	0x3f169a1c	0.588289
127	0xbe4a9dcb	-0.19786756
128	0x3f02e9a6	0.5113777
129	0x3f1bc171	0.60842043
130	0x3f24ffc2	0.64452755
131	0x3eb3b21e	0.3509683
132	0xbe1ce06c	-0.15319985
133	0x3f03c098	0.5146575
134	0x3d158354	0.036502197
135	0xbeebe81b	-0.4607552
136	0xbf0a5c33	-0.54046935
137	0x3edc39ab	0.43012747
138	0x3d32f9f6	0.043695413
139	0xbf25a96e	-0.64711654
140	0x3d169248	0.0367606
141	0x3ed47ccc	0.41501462
142	0x3f20ba1f	0.62784
143	0x3e2fea0a	0.17179123
144	0xbea68bb8	-0.32528472
145	0xbf0927d2	-0.53576386
146	0xbe4f6981	-0.2025509
147	0xbdf19424	-0.11795834
148	0xbf15e591	-0.58553416
149	0xbea70760	-0.32622814
150	0xbf1b0ace	-0.6056336
151	0xbdec5caa	-0.11541112
152	0x3ed521ad	0.41627255
153	0x3f084af5	0.53239375
154	0xbee0d116	-0.4390952
155	0x3f16a2c0	0.58842087
156	0xbe4a8b5b	-0.19779722
157	0x3f02f712	0.5115825
158	0x3f1bd3c3	0.6087
159	0x3f25086d	0.6446598
160	0x3eb3b5ce	0.35099643
161	0xbe1df027	-0.15423642
162	0x3f03c522	0.51472676
163	0x3d164928	0.03669086
164	0xbeec03f9	-0.4609678
165	0xbf0a6279	-0.5405651
166	0x3edc4a7f	0.43025586
167	0x3d322c86	0.043499492
168	0xbf25e456	-0.6480154
169	0x3d163b9b	0.036677938
170	0x3ed46bd1	0.41488507
171	0x3f20be6c	0.6279056
172	0x3e30aeea	0.17254224
173	0xbea6857b	-0.32523713
174	0xbf08e22c	-0.5347011
175	0xbe4f5f8f	-0.20251296
176	0xbdf1d0ce	-0.118074045
177	0xbf15ff05	-0.58592254
178	0xbea70be5	-0.32626262
179	0xbf1b017b	-0.60549134
180	0xbdec1cf8	-0.11528963
181	0x3ed526d1	0.41631177
182	0x3f084b46	0.5323986
183	0xbee0d278	-0.43910575
184	0x3f16a332	0.58842766
185	0xbe4a880b	-0.19778459
186	0x3f02dd7f	0.51119226
187	0x3f1bcc07	0.60858196
188	0x3f2501b2	0.6445571
189	0x3eb3b7e4	0.35101235
190	0xbe1df34f	-0.15424846
191	0x3f03c394	0.51470304
192	0x3d1471e8	0.036241442
193	0xbeec0473	-0.46097144
194	0xbf0a6147	-0.54054683
195	0x3edc4abe	0.43025774
196	0x3d32b705	0.043631572
197	0xbf25c1d5	-0.6474889
198	0x3d150cbe	0.036389105
199	0x3ed46ade	0.41487783
200	0x3f20be70	0.62790585
201	0x3e3070ff	0.17230605
202	0xbea6864c	-0.32524335
203	0xbf092b5e	-0.535818
204	0xbe4f5fda	-0.20251408
205	0xbdf1785b	-0.11790534
206	0xbf15e678	-0.5855479
207	0xbea71534	-0.32633364
208	0xbf1ae839	-0.60510594
209	0xbdecb214	-0.11557403
210	0x3ed50b22	0.41610056
211	0x3f084b99	0.5324035
212	0xbee0cb98	-0.4390533
213	0x3f16a244	0.5884135
214	0xbe4a82fe	-0.19776532
215	0x3f02f429	0.5115381
216	0x3f1baa11	0.60806376
217	0x3f250032	0.64453423
218	0x3eb3b681	0.35100177
219	0xbe1de494	-0.15419227
220	0x3f03cd0c	0.5148475
221	0x3d16b6e6	0.03679552
222	0xbeebfe84	-0.46092618
223	0xbf0a650c	-0.54060435
224	0x3edc46d5	0.4302279
225	0x3d3435aa	0.04399649
226	0xbf24c3ea	-0.6436144
227	0x3d153b78	0.036433667
228	0x3ed46086	0.41479892
229	0x3f20bb2a	0.6278559
230	0x3e30b042	0.17254737
231	0xbea68aaf	-0.32527682
232	0xbf08c8a1	-0.53431135
233	0xbe4f2f0b	-0.20232789
234	0xbdf3cef2	-0.11904706
235	0xbf163281	-0.5867081
236	0xbea71799	-0.3263519
237	0xbf1af8d0	-0.6053591
238	0xbdee3ca6	-0.116326615
239	0x3ed54381	0.41653064
240	0x3f08428f	0.5322656
241	0xbee0b99b	-0.43891606
242	0x3f169bc0	0.58831406
243	0xbe4aa1c4	-0.19788271
244	0x3f02c2d5	0.5107854
245	0x3f1bc46e	0.608466
246	0x3f2503b7	0.64458793
247	0x3eb3c00f	0.35107467
248	0xbe1ce2a9	-0.15320839
249	0x3f039b08	0.51408434
250	0x3d132292	0.03592164
251	0xbeebe23c	-0.4607104
252	0xbf0a5eaa	-0.54050696
253	0x3edc23ae	0.4299597
254	0x3d332836	0.04373952
255	0xbf25879a	-0.64660037

conv.weight f4 [10, 1, 20]
0	0x1db77e97	4.8570588e-21
1	0x1e94b07a	1.5743099e-20
2	0x1e5d1d00	1.170564e-20
3	0x9d09d5be	-1.8242301e-21
4	0x9cabae9f	-1.1360969e-21
5	0x9d8d37b2	-3.7379977e-21
6	0x9cafb5ae	-1.1627492e-21
7	0x1d83a7d2	3.4848933e-21
8	0x9ccc4182	-1.3516521e-21
9	0x9c6b8e21	-7.7938675e-22
10	0x1ca37cc0	1.0818682e-21
11	0x1d239e74	2.1654789e-21
12	0x9ce37eaf	-1.5054347e-21
13	0x9d443092	-2.5965494e-21
14	0x9d01f884	-1.7201487e-21
15	0x9d358889	-2.4025738e-21
16	0x1c1a934f	5.114472e-22
17	0x1d16613e	1.9902608e-21
18	0x9db8f358	-4.8956006e-21
19	0x9dd51e4d	-5.641196e-21
20	0x9cd30507	-1.3964108e-21
21	0x9c18df8c	-5.058151e-22
22	0x1cac205b	1.1390369e-21
23	0x9cbe3299	-1.2586224e-21
24	0x9cc0d479	-1.2760417e-21
25	0x9cc8bb07	-1.3283235e-21
26	0x1c493fba	6.6587686e-22
27	0x9baf22c5	-2.897379e-22
28	0x9c16441e	-4.9718876e-22
29	0x9cda6cce	-1.4454155e-21
30	0x9b9c1755	-2.5823113e-22
31	0x9cdbe3f0	-1.4551125e-21
32	0x1c903bf5	9.544619e-22
33	0x9cd24966	-1.3915607e-21
34	0x9d35ca30	-2.405968e-21
35	0x1b085db4	1.1279933e-22
36	0x9d18f3e9	-2.0243131e-21
37	0x1c2f5380	5.8010564e-22
38	0x9d1e92e0	-2.0987058e-21
39	0x9d437f53	-2.587386e-21
40	0x9e2047f3	-8.485208e-21
41	0x1e276edb	8.863831e-21
42	0x9e0d58e4	-7.48286e-21
43	0x1dbe57fb	5.038355e-21
44	0x1dcb2cdc	5.3780036e-21
45	0x9d232ac8	-2.1594988e-21
46	0x9c85310a	-8.813878e-22
47	0x1caf97e4	1.1619791e-21
48	0x1d4ab444	2.6827673e-21
49	0x9bc52382	-3.2613863e-22
50	0x9d6c1132	-3.124323e-21
51	0x9d63ee38	-3.0166356e-21
52	0x9aa5bcc0	-6.854734e-23
53	0x9c23f7dd	-5.425253e-22
54	0x9c7f22c5	-8.441736e-22
55	0x9c7865da	-8.2187957e-22
56	0x1d1060f5	1.9108367e-21
57	0x9d032367	-1.7356008e-21
58	0x1c663426	7.6168017e-22
59	0x9d701cd7	-3.1778645e-21
60	0x9c18f595	-5.060999e-22
61	0x9c0359d6	-4.3460374e-22
62	0x9c651b52	-7.5805055e-22
63	0x9c294dc2	-5.601791e-22
64	0x9c6724cc	-7.6479047e-22
65	0x9b8b36a2	-2.3030927e-22
66	0x1bf039c7	3.9742007e-22
67	0x1ae227b8	9.353558e-23
68	0x1c263223	5.4989593e-22
69	0x9c309747	-5.8429037e-22
70	0x1baa941c	2.8219854e-22
71	0x1b94fac8	2.464661e-22
72	0x1c9362c9	9.753179e-22
73	0x9c9cf086	-1.0385388e-21
74	0x1ca290ee	1.0757724e-21
75	0x1b90857a	2.390906e-22
76	0x1c9e3564	1.0469364e-21
77	0x9c3d76a2	-6.2688184e-22
78	0x9c8f16df	-9.468858e-22
79	0x1c58c2c7	7.172015e-22
80	0x1d1d72fa	2.0838218e-21
81	0x9de1d8ed	-5.97813e-21
82	0x9d403f26	-2.5443635e-21
83	0x9d145138	-1.9629626e-21
84	0x1d43810d	2.5874753e-21
85	0x9cad3ca9	-1.146386e-21
86	0x1cf43a6c	1.6161667e-21
87	0x1cfca238	1.6717894e-21
88	0x1cad6282	1.1473643e-21
89	0x1ccd26e7	1.3575818e-21
90	0x9cb461ab	-1.1936647e-21
91	0x1ccb279e	1.3443654e-21
92	0x9cd47bef	-1.4061019e-21
93	0x9d086bbd	-1.805515e-21
94	0x9cc123a1	-1.2780879e-21
95	0x9bfc2ffa	-4.1720907e-22
96	0x9c1ca274	-5.1826036e-22
97	0x1d8db7a8	3.7512285e-21
98	0x9d64661a	-3.0228334e-21
99	0x9d559679	-2.8268108e-21
100	0x9ccaddf8	-1.3424616e-21
101	0x9d0abfd8	-1.8363329e-21
102	0x1cc45b4e	1.2993794e-21
103	0x1c278fd5	5.5441563e-22
104	0x9cc32da8	-1.2915819e-21
105	0x9befde25	-3.968279e-22
106	0x9c72fc87	-8.0397467e-22
107	0x1aef44d8	9.8959306e-23
108	0x9c81a6b6	-8.579598e-22
109	0x1a7de240	5.2501937e-23
110	0x9d2be372	-2.2749248e-21
111	0x9d110bfd	-1.9196788e-21
112	0x9b74d9b0	-2.0253546e-22
113	0x1d6d2e2f	3.1390565e-21
114	0x9d739d8e	-3.2242236e-21
115	0x9c173f35	-5.00434e-22
116	0x9d80ba76	-3.4074114e-21
117	0x9d65b200	-3.0399921e-21
118	0x1d80643a	3.398495e-21
119	0x9d354f63	-2.3996193e-21
120	0x9d1fbf24	-2.1142292e-21
121	0x9c581690	-7.1497566e-22
122	0x1c87083b	8.935678e-22
123	0x1ce45af9	1.511129e-21
124	0x9cbff7a8	-1.2703337e-21
125	0x9c815fbc	-8.561251e-22
126	0x9a930f00	-6.082201e-23
127	0x9c3b92e6	-6.206297e-22
128	0x1c62ccf9	7.504205e-22
129	0x9c9fc2b3	-1.0572066e-21
130	0x9c5c64e7	-7.2922307e-22
131	0x1caed816	1.1570211e-21
132	0x9ad224a0	-8.6913135e-23
133	0x99e19260	-2.3323575e-23
134	0x1cd2866a	1.393138e-21
135	0x1c967be0	9.958188e-22
136	0x9d027abc	-1.7268809e-21
137	0x9c1b8552	-5.145751e-22
138	0x1d023524	1.723283e-21
139	0x1d2b9fcc	2.2714275e-21
140	0x1d266684	2.2022916e-21
141	0x1c993322	1.0137908e-21
142	0x9d0a27d1	-1.8284733e-21
143	0x9c7bda40	-8.3331015e-22
144	0x9d05e3e5	-1.7720222e-21
145	0x1cea0d9d	1.548834e-21
146	0x1cd9da85	1.4416341e-21
147	0x9c30bd04	-5.847781e-22
148	0x9c83aa59	-8.712887e-22
149	0x9cda0dcf	-1.4429599e-21
150	0x1c9d6416	1.041526e-21
151	0x1d04038a	1.7471884e-21
152	0x1ab4a9d4	7.472063e-23
153	0x1badd803	2.8760043e-22
154	0x1c858e79	8.83803e-22
155	0x9d2849bc	-2.2272735e-21
156	0x1d33e559	2.3809023e-21
157	0x1d1e7acd	2.0974612e-21
158	0x1ca39a9f	1.0826404e-21
159	0x9b5f7832	-1.8484965e-22
160	0x1e57f4d7	1.1432637e-20
161	0x9e7cffc4	-1.339366e-20
162	0x9eb4d814	-1.9147609e-20
163	0x1e48030e	1.05885435e-20
164	0x9e7ed7c5	-1.3491268e-20
165	0x1ce833c9	1.5365858e-21
166	0x9e21d6c4	-8.5676815e-21
167	0x9e8c14fa	-1.4831752e-20
168	0x9d8506f5	-3.5212e-21
169	0x1e95a99a	1.5846134e-20
170	0x1f077384	2.8682914e-20
171	0x1f0da247	2.9992144e-20
172	0x1f1240b2	3.0970217e-20
173	0x1e2c7b3e	9.13109e-21
174	0x1f910dea	6.143291e-20
175	0x1f24b34e	3.4876668e-20
176	0x200b0deb	1.1778363e-19
177	0x1f9a3b74	6.5319894e-20
178	0x20655c4c	1.9427593e-19
179	0x1fbc0e4a	7.9644736e-20
180	0x1cb5f082	1.2039745e-21
181	0x1ceaf70a	1.5548679e-21
182	0x9cb21d74	-1.1786665e-21
183	0x9a374f80	-3.7907733e-23
184	0x9d2631b0	-2.1995605e-21
185	0x1cb15f69	1.173754e-21
186	0x9cdcf882	-1.4622617e-21
187	0x1cbf80c5	1.2672606e-21
188	0x9b7ab890	-2.0739151e-22
189	0x1c9f79ac	1.0553189e-21
190	0x9bb4e108	-2.9923925e-22
191	0x9c36da5c	-6.050097e-22
192	0x9d19d6d5	-2.0360447e-21
193	0x1d03b4a6	1.7431099e-21
194	0x9cec7358	-1.5646986e-21
195	0x1d381f1f	2.4368286e-21
196	0x9cde6057	-1.4715631e-21
197	0x1d0e4455	1.882887e-21
198	0x9c9e2331	-1.046466e-21
199	0x1d3580b1	2.4021682e-21

conv.bias f4 [10]
0	0xbc3eb123	-0.011638912
1	0x2bc2ea55	1.3849569e-12
2	0xb9b4cf1b	-0.0003448658
3	0x1d542ad6	2.8080112e-21
4	0xbb6c990a	-0.003610196
5	0x1f15c270	3.1712812e-20
6	0xb90f2334	-0.00013650657
7	0x34c8e967	3.7422726e-07
8	0xbab2dd27	-0.0013646231
9	0x1db830d4	4.875488e-21

conv_long.weight f4 [10, 1, 10]
0	0x9ccb6ea7	-1.3462016e-21
1	0x1a0674f0	2.7805012e-23
2	0x9c2b237a	-5.6625006e-22
3	0x9cc10cfa	-1.2775023e-21
4	0x1ccb28f0	1.3443995e-21
5	0x1d7f6fbb	3.3806732e-21
6	0x9d44a2a9	-2.6024477e-21
7	0x9dfa7d4d	-6.6304007e-21
8	0x9dfc71c0	-6.682146e-21
9	0x1e087571	7.224066e-21
10	0x1cc38cb7	1.2940391e-21
11	0x1ccf81ee	1.3731697e-21
12	0x9b47a288	-1.6513411e-22
13	0x1c3cdded	6.2490814e-22
14	0x1c8748d8	8.95238e-22
15	0x9becba33	-3.9163253e-22
16	0x1c688853	7.6938556e-22
17	0x1b20983e	1.3284082e-22
18	0x1bd12f15	3.4606576e-22
19	0x9d05e42d	-1.7720368e-21
20	0x1ea1fb96	1.7150592e-20
21	0x9e0e8b67	-7.546245e-21
22	0x9c3229c1	-5.8949225e-22
23	0x9dd3f1d9	-5.61013e-21
24	0x1c582ab5	7.15236e-22
25	0x1dad1097	4.5809872e-21
26	0x9d953257	-3.949202e-21
27	0x1d882066	3.60324e-21
28	0x1d95b546	3.9627404e-21
29	0x1f68b8f1	4.928089e-20
30	0xa0c01830	-3.254207e-19
31	0xa09b3343	-2.6291944e-19
32	0x9fea39b5	-9.919832e-20
33	0x1e11291a	7.684736e-21
34	0x9e7a76b3	-1.3259436e-20
35	0x9e2d19c1	-9.1638695e-21
36	0x9f088f8c	-2.891786e-20
37	0x9f96ef56	-6.392342e-20
38	0xa11b795a	-5.267665e-19
39	0xa66cb1f2	-8.212011e-16
40	0x1aae2eb6	7.204018e-23
41	0x9c8a3260	-9.145096e-22
42	0x1c9fd8d2	1.0577784e-21
43	0x1c8658d5	8.890339e-22
44	0x1bce8763	3.4167333e-22
45	0x9ba26922	-2.6868592e-22
46	0x1be19f63	3.732613e-22
47	0x9c07ff73	-4.4997913e-22
48	0x9b53f3be	-1.7532268e-22
49	0x1bbfa57a	3.1705236e-22
50	0xa21bab2a	-2.109703e-18
51	0xa210cd88	-1.9624446e-18
52	0x205c73e2	1.8673067e-19
53	0x9e86aae3	-1.4258479e-20
54	0x9e03bd88	-6.974276e-21
55	0x1df6926a	6.5267046e-21
56	0x1e441b81	1.0381841e-20
57	0x1ddcf2e9	5.848468e-21
58	0x1d8eab14	3.7763978e-21
59	0x1fa48063	6.96691e-20
60	0x9b163012	-1.2423242e-22
61	0x9c8f49d4	-9.48203e-22
62	0x1c73c198	8.065217e-22
63	0x9c76c927	-8.1654556e-22
64	0x9cb67f4e	-1.2076657e-21
65	0x9a80192c	-5.2980227e-23
66	0x1bbb8fe6	3.1029547e-22
67	0x9c326c32	-5.90351e-22
68	0x9c4748a7	-6.593748e-22
69	0x9b826604	-2.1572622e-22
70	0x1c0a9a86	4.5860087e-22
71	0x9d0ad402	-1.8373753e-21
72	0x9d03ccd0	-1.7443591e-21
73	0x1c9fe17c	1.0580024e-21
74	0x9ce5e683	-1.5213535e-21
75	0x1cf32521	1.6089989e-21
76	0x1c3e4d46	6.29656e-22
77	0x1cd4934a	1.4067057e-21
78	0x1cb6a55f	1.2086497e-21
79	0x1c0ef6f2	4.730303e-22
80	0x9da1c183	-4.281643e-21
81	0x9e0fe9ca	-7.6187034e-21
82	0x1dcf45a9	5.486447e-21
83	0x1d907e8b	3.8247325e-21
84	0x1d818a5d	3.428908e-21
85	0x9d1cf8b3	-2.0775003e-21
86	0x1b18cda0	1.2639586e-22
87	0x1d6af9ef	3.1098855e-21
88	0x1c910632	9.596897e-22
89	0x1af3f0f4	1.00891725e-22
90	0x1dc27f17	5.148278e-21
91	0x1d3a950a	2.4693946e-21
92	0x1d1e4a98	2.094969e-21
93	0x1dc737f5	5.273272e-21
94	0x9d311832	-2.3438264e-21
95	0x1ccf88ba	1.3733454e-21
96	0x1d4bbb92	2.6963798e-21
97	0x9de4265d	-6.0390764e-21
98	0x1e5d60d2	1.17196646e-20
99	0x9e2bd590	-9.096828e-21

conv_long.bias f4 [10]
0	0x2688fc7f	9.505335e-16
1	0xb21691a5	-8.764265e-09
2	0xbd46055f	-0.048344966
3	0xbda0a68a	-0.07844265
4	0x1d7bb449	3.3312779e-21
5	0xbd9cbcd8	-0.076532066
6	0x9d7aef37	-3.3210896e-21
7	0x9ca8a496	-1.1159852e-21
8	0x2b81794e	9.19967e-13
9	0xb0b54f33	-1.3191993e-09

conv1.weight f4 [30, 30]
0	0xb3a16196	-7.5148975e-08
1	0x220ce7c7	1.909624e-18
2	0xa442a13a	-4.220361e-17
3	0x221f7c81	2.161443e-18
4	0xb4300492	-1.639294e-07
5	0x1b8b2f85	2.302633e-22
6	0x9c8491da	-8.772729e-22
7	0x9c1c924c	-5.1805155e-22
8	0x1eb151db	1.8774459e-20
9	0xa77eadf0	-3.5343873e-15
10	0x9c83dda1	-8.726143e-22
11	0x1f206699	3.3966185e-20
12	0x1a591e30	4.4898933e-23
13	0x9f8637af	-5.684333e-20
14	0x999e5290	-1.6370164e-23
15	0x1a2d6098	3.585359e-23
16	0xa9da3df3	-9.691891e-14
17	0x26d22914	1.4582811e-15
18	0x2b6b4807	8.358873e-13
19	0xa57c1547	-2.1864725e-16
20	0x9cbb7e4f	-1.2407272e-21
21	0xb7c3ecfd	-2.3356168e-05
22	0x9c2bc1a4	-5.682943e-22
23	0x26321b4e	6.179316e-16
24	0x9e9b87cd	-1.646743e-20
25	0xa37427ee	-1.3235722e-17
26	0xb68378ec	-3.9181814e-06
27	0xa2945304	-4.0203377e-18
28	0xa11d3567	-5.3264347e-19
29	0x1d356d04	2.401151e-21
30	0x9c44a570	-6.5064783e-22
31	0x9d8b21fe	-3.682814e-21
32	0x9bef0d9f	-3.9548036e-22
33	0x9cc9dc2f	-1.335798e-21
34	0x9c83c032	-8.718534e-22
35	0x1bb71014	3.02852e-22
36	0x1d02f439	1.7331617e-21
37	0x9b7a20e6	-2.0690145e-22
38	0x1c450775	6.519147e-22
39	0x9e1d2990	-8.320106e-21
40	0x9b8c1409	-2.3174005e-22
41	0x1d2ccab0	2.2868797e-21
42	0x9b521cb0	-1.7380062e-22
43	0x1bd21730	3.475657e-22
44	0x1b7fdeb2	2.1165062e-22
45	0x1a6affc8	4.8596684e-23
46	0x1c79b133	8.2616214e-22
47	0x1c28cc91	5.5850933e-22
48	0x9dfc5bfc	-6.6798954e-21
49	0x9c2f8967	-5.808023e-22
50	0x9c1eac7e	-5.2500756e-22
51	0x1b668a1a	1.9069777e-22
52	0x9b8531f8	-2.2035296e-22
53	0x9ddb816b	-5.8102632e-21
54	0x1bd4f272	3.5229135e-22
55	0x1d87a30a	3.590278e-21
56	0x9ca175fa	-1.0684583e-21
57	0x9dd5466e	-5.6453453e-21
58	0x9bb4a47d	-2.98848e-22
59	0x1c1fbfe4	5.28567e-22
60	0x1b7a0a90	2.0682928e-22
61	0x9bc7c764	-3.3050642e-22
62	0x9b901f4e	-2.3843032e-22
63	0x1c5e7999	7.36108e-22
64	0x9c8c406a	-9.281074e-22
65	0x1bad2554	2.8644572e-22
66	0x1ca4a6d1	1.0895731e-21
67	0x19949b80	1.5365647e-23
68	0x9c1b2210	-5.1329223e-22
69	0x9bfe2f6c	-4.205142e-22
70	0x9bf9d9ae	-4.1334267e-22
71	0x9ce82a26	-1.5363367e-21
72	0x9b688df0	-1.9236453e-22
73	0x9aae72d0	-7.21502e-23
74	0x9af2b76c	-1.0038519e-22
75	0x9b6295aa	-1.8742641e-22
76	0x9a904980	-5.967575e-23
77	0x9c5b1908	-7.2493374e-22
78	0x9c08bace	-4.5240065e-22
79	0x1c513644	6.9222436e-22
80	0x1b0e0774	1.1748373e-22
81	0x9c5317d4	-6.984484e-22
82	0x1b3457fc	1.491768e-22
83	0x1a24aa70	3.4052083e-23
84	0x1bb41cb0	2.979704e-22
85	0x1c4a276f	6.688716e-22
86	0x9cce3f96	-1.3648373e-21
87	0x9db6f5a6	-4.8428993e-21
88	0x1b5e289e	1.8376534e-22
89	0x1bebf64b	3.9036652e-22
90	0x9d064e80	-1.7775336e-21
91	0x9c447e9b	-6.5014594e-22
92	0x1c2aadb8	5.647281e-22
93	0x9aacc678	-7.1458176e-23
94	0x9d258b25	-2.1909504e-21
95	0x1b279b7e	1.3864158e-22
96	0x1b9dbcb3	2.6095415e-22
97	0x9c85493a	-8.82013e-22
98	0x1cdf9a89	1.4796849e-21
99	0x1d64893a	3.0246493e-21
100	0x9b73b812	-2.0159965e-22
101	0x9b6ebb8c	-1.9747498e-22
102	0x1c19a52f	5.083695e-22
103	0x9d2a0984	-2.2504232e-21
104	0x1b940f96	2.4494618e-22
105	0x1b9eb81d	2.6257888e-22
106	0x9d916a52	-3.8491113e-21
107	0x1d2b3750	2.2660257e-21
108	0x9c0fec76	-4.762035e-22
109	0x9d61780d	-2.9840567e-21
110	0x1c874b72	8.953053e-22
111	0x1daf6a87	4.643226e-21
112	0x9beead96	-3.9485974e-22
113	0x1c4f8fb5	6.867629e-22
114	0x9d18258c	-2.0136444e-21
115	0x1b16d80f	1.2477521e-22
116	0x9de6b8d2	-6.1071593e-21
117	0x1cd17a0e	1.386201e-21
118	0x9d4b15c9	-2.6878089e-21
119	0x9c966c14	-9.954105e-22
120	0x1a898d70	5.6890377e-23
121	0x9affcd30	-1.05797026e-22
122	0x1c8a2c66	9.143551e-22
123	0x9bbdccd3	-3.1399792e-22
124	0x9c166b34	-4.9769394e-22
125	0x1b90438e	2.3866458e-22
126	0x1c807d98	8.502795e-22
127	0x9bac2720	-2.8480297e-22
128	0x9cc102b5	-1.2772368e-21
129	0x9c0cbe1a	-4.6567815e-22
130	0x9c414bd8	-6.395637e-22
131	0x9b1a393f	-1.2757079e-22
132	0x9c34aa56	-5.977716e-22
133	0x1cc85507	1.3256869e-21
134	0x1b3282cb	1.4766076e-22
135	0x9bb377a3	-2.969038e-22
136	0x9c7e861e	-8.4214893e-22
137	0x9e01eea5	-6.878554e-21
138	0x1d641e76	3.0191297e-21
139	0x9df2ce36	-6.4270084e-21
140	0x9c242c25	-5.4320104e-22
141	0x1c7f21d5	8.441615e-22
142	0x9c0cfb59	-4.6646974e-22
143	0x9b8c7589	-2.3237012e-22
144	0x1d0b0331	1.8398147e-21
145	0x1c6a65cd	7.755568e-22
146	0x1c54ff52	7.047491e-22
147	0x1d2c6215	2.2814718e-21
148	0x9d5c37f5	-2.9145687e-21
149	0x1ce3cda2	1.5074755e-21
150	0x9c409214	-6.3716273e-22
151	0x9b32ceaf	-1.4790598e-22
152	0x9cad0729	-1.1450031e-21
153	0x1cef0a75	1.5818396e-21
154	0x1b93cb22	2.4450382e-22
155	0x1c39d588	6.148735e-22
156	0x1bacb3ae	2.8571128e-22
157	0x9b03fb56	-1.0917277e-22
158	0x9ca1ed1f	-1.0715381e-21
159	0x1d0807ec	1.8003546e-21
160	0x1c82810a	8.636034e-22
161	0x98945bf8	-3.834997e-24
162	0x1cb80923	1.217846e-21
163	0x1d0a5eea	1.8313217e-21
164	0x1aab14e4	7.075769e-23
165	0x9b066fb0	-1.1120308e-22
166	0x1d1871a7	2.017579e-21
167	0x1c6584d6	7.594143e-22
168	0x1b084920	1.1273284e-22
169	0x9cb4b462	-1.1958029e-21
170	0x9c63018f	-7.5110014e-22
171	0x9c982a74	-1.006949e-21
172	0x9b60eaea	-1.860475e-22
173	0x9af57740	-1.01522284e-22
174	0x9b3323b0	-1.4818064e-22
175	0x9ca2125a	-1.0725005e-21
176	0x1c0d2f14	4.6713834e-22
177	0x9c47af86	-6.6070435e-22
178	0x1b3d8322	1.5676085e-22
179	0x1cbb9a4a	1.2414505e-21
180	0xafa2fc50	-2.9646907e-10
181	0x9f4a69b5	-4.2862603e-20
182	0x2285d698	3.6276932e-18
183	0xa1d89880	-1.4677096e-18
184	0xb0a9f8ec	-1.2367116e-09
185	0x1c3df210	6.2847713e-22
186	0x1bc2138e	3.2107245e-22
187	0x1dc4218c	5.1915455e-21
188	0x1d22e107	2.1556858e-21
189	0xa200eb18	-1.7471692e-18
190	0x1cacec9a	1.1443165e-21
191	0x1c96898a	9.96172e-22
192	0x1c0a2cd3	4.5718304e-22
193	0x9c1a09ab	-5.096682e-22
194	0x1b3282f8	1.4766133e-22
195	0x9c8d072d	-9.332452e-22
196	0x24906e36	6.263675e-17
197	0x9f2952ee	-3.585574e-20
198	0x27cc1ec2	5.665472e-15
199	0x9ed2af7a	-2.230719e-20
200	0x9c21b92a	-5.350975e-22
201	0xb611d253	-2.1729109e-06
202	0x9b8cc36d	-2.3287348e-22
203	0xa25109d1	-2.8329979e-18
204	0x9c94b051	-9.839395e-22
205	0x2080f5b0	2.1846626e-19
206	0xb4bc977b	-3.5127945e-07
207	0xa0845339	-2.2416742e-19
208	0x9db88867	-4.884543e-21
209	0x9cdb6022	-1.4517054e-21
210	0xa300a45a	-6.973697e-18
211	0x1daabdee	4.519501e-21
212	0x9dc29986	-5.151011e-21
213	0x1e5cb592	1.1684251e-20
214	0xa39f2380	-1.725385e-17
215	0x1d0255df	1.7249751e-21
216	0x9c05ea14	-4.4308547e-22
217	0x9d472091	-2.6354267e-21
218	0x205f816d	1.8931658e-19
219	0xa53d08b5	-1.6396087e-16
220	0x1c55d4c3	7.0750776e-22
221	0x1d48fd99	2.6600887e-21
222	0x9d18ad62	-2.020667e-21
223	0xa2444eec	-2.6604734e-18
224	0x1ae33e78	9.3985923e-23
225	0x9c03592a	-4.3459506e-22
226	0x24870edb	5.8572083e-17
227	0x2be4019b	1.620082e-12
228	0xa390b77c	-1.569022e-17
229	0xa9d3298c	-9.3774896e-14
230	0x1c34ff53	5.9887003e-22
231	0xa9d015e8	-9.240856e-14
232	0x9bc6bd8f	-3.2878852e-22
233	0x1d3517ee	2.3967522e-21
234	0x9f9361d1	-6.2418745e-20
235	0x9d7c88e8	-3.3422701e-21
236	0x278f07b8	3.969884e-15
237	0x9f2224b8	-3.4335207e-20
238	0xa346e80e	-1.0782741e-17
239	0x1e0ecc8f	7.559719e-21
240	0xa3942bf6	-1.606481e-17
241	0x1daeea9c	4.6299997e-21
242	0x9e041e07	-6.994231e-21
243	0x1e4af935	1.0745326e-20
244	0xa338c9b0	-1.0017369e-17
245	0x1c6484bb	7.561042e-22
246	0x9c512d6c	-6.9211006e-22
247	0x9c6e8056	-7.8913465e-22
248	0x1fcb5729	8.611804e-20
249	0xa50b67e1	-1.2091524e-16
250	0x9d4feb78	-2.7517956e-21
251	0x1d2e2ef6	2.3052986e-21
252	0x9db7d2b7	-4.865757e-21
253	0xa15f40de	-7.564119e-19
254	0x9bc2680d	-3.216185e-22
255	0x9b8a5e04	-2.289094e-22

conv1.bias f4 [30]
0	0xbb883bad	-0.0041575045
1	0xbb3df1ef	-0.0028983315
2	0xb7b5839f	-2.1638172e-05
3	0xb941763d	-0.00018449961
4	0xbb6d193f	-0.0036178378
5	0x1e344ca5	9.54497e-21
6	0x3503ff89	4.9173156e-07
7	0x27bd2d8a	5.250741e-15
8	0xb3971ee8	-7.037107e-08
9	0xbc837696	-0.016047757
10	0x1c9ddb38	1.0446055e-21
11	0x37304612	1.0506732e-05
12	0x275a975b	3.0335627e-15
13	0xb678b0cb	-3.7057787e-06
14	0x9f4b3a5c	-4.3035196e-20
15	0x1d70f947	3.1892609e-21
16	0xba2f4efe	-0.0006687491
17	0xbad5c591	-0.001630949
18	0xbbfbd0c1	-0.0076847975
19	0xba50a02d	-0.00079584384
20	0x9fcb0aa9	-8.599148e-20
21	0xbc9f8cd7	-0.019476337
22	0x9f58fbdb	-4.594811e-20
23	0xbb932eda	-0.004491669
24	0xb484a0fd	-2.470405e-07
25	0xba2318b9	-0.00062216405
26	0xbc8bb165	-0.017052362
27	0xbc167b38	-0.009184651
28	0xb7911a40	-1.729757e-05
29	0xa938cab8	-4.1032038e-14

conv2.weight f4 [30, 10]
0	0x9a1d0dac	-3.2477883e-23
1	0xb5937741	-1.0987061e-06
2	0xa1000558	-4.337516e-19
3	0x9e2b4c0a	-9.068389e-21
4	0xaecfad60	-9.444068e-11
5	0x9b77c8ba	-2.049622e-22
6	0x1cc8ce97	1.3288292e-21
7	0x38186303	3.6331836e-05
8	0x39919e3e	0.00027774455
9	0x1bba0bf2	3.0778838e-22
10	0x9d9dc243	-4.1758416e-21
11	0x1ce54250	1.517109e-21
12	0x1bd209a8	3.4747826e-22
13	0x1c0a5636	4.5771795e-22
14	0x9a722e34	-5.008175e-23
15	0x1c346e7c	5.96998e-22
16	0x19021750	6.7255504e-24
17	0xb94c5fdd	-0.00019490668
18	0x24624170	4.9061366e-17
19	0x196635a0	1.1901551e-23
20	0x1ba59cd1	2.73983e-22
21	0xb88dade6	-6.755795e-05
22	0x241b8039	3.3718876e-17
23	0x9ff3376b	-1.03006184e-19
24	0xb4731041	-2.2637052e-07
25	0x1c1af76a	5.12741e-22
26	0x1c9fdc42	1.0578673e-21
27	0x3a6f7aec	0.0009135443
28	0xbc0e5c07	-0.008688933
29	0x1c1253e6	4.8415784e-22
30	0x1ab0134e	7.282308e-23
31	0xb698d64e	-4.5549014e-06
32	0xa101968c	-4.3906147e-19
33	0x9f1ced6b	-3.3230672e-20
34	0xb3b3353c	-8.34502e-08
35	0x1c0e4ea5	4.7085504e-22
36	0x9d07fc51	-1.7997546e-21
37	0x39398e87	0.0001769607
38	0xbb343c7b	-0.002750187
39	0x1b91993e	2.4087268e-22
40	0x1a436410	4.0405885e-23
41	0xb500764c	-4.785586e-07
42	0xa06a69a8	-1.985553e-19
43	0x1ed20ea3	2.2240668e-20
44	0xb2c41fec	-2.283192e-08
45	0x9c175a3e	-5.0078344e-22
46	0x1d0d5864	1.8706892e-21
47	0x37817a70	1.5435013e-05
48	0xba9302fe	-0.0011216102
49	0x1bba221e	3.0793167e-22
50	0x1b05371a	1.1019306e-22
51	0x9b5e2a74	-1.8377127e-22
52	0x1bae90fc	2.887958e-22
53	0x9b2bdd2e	-1.4216255e-22
54	0x1c191f4a	5.0663894e-22
55	0x1ac30d30	8.0671415e-23
56	0xa05c41dc	-1.8656516e-19
57	0x1af1c096	9.9986403e-23
58	0x9c2991bf	-5.610578e-22
59	0x1adf911c	9.2465075e-23
60	0x9cbb9b28	-1.2414729e-21
61	0x9b8255ca	-2.1562136e-22
62	0x1bc61eb0	3.2776184e-22
63	0x9c88561d	-9.021985e-22
64	0x9e8ecae0	-1.5118742e-20
65	0x1a2f2ec4	3.622693e-23
66	0x9b51582c	-1.7316565e-22
67	0x24106bfc	3.131649e-17
68	0x9de556ef	-6.0705683e-21
69	0xbb0a6dc5	-0.0021122557
70	0x9ba9bf22	-2.8082221e-22
71	0x1ca3833f	1.0820362e-21
72	0x9c8c9a73	-9.304347e-22
73	0x1c0e3228	4.7048684e-22
74	0x9ac9473a	-8.3246724e-23
75	0x98930470	-3.800309e-24
76	0x999f6bb8	-1.6483722e-23
77	0x19108200	7.470879e-24
78	0x1e680515	1.2283029e-20
79	0x1b62874e	1.8738001e-22
80	0x992cec30	-8.939889e-24
81	0x1a511128	4.3234046e-23
82	0x9a8ad798	-5.742377e-23
83	0x1c171928	4.9994223e-22
84	0x27201e3d	2.2220853e-15
85	0x9a88882b	-5.646827e-23
86	0x9cd032cd	-1.3777417e-21
87	0x9bab4300	-2.8332875e-22
88	0xa7ad6ede	-4.813735e-15
89	0x9c05e4ba	-4.430163e-22
90	0xa56d61e7	-2.0589644e-16
91	0xb70d9fc2	-8.441451e-06
92	0xa1979ace	-1.0273134e-18
93	0x1e41955a	1.024822e-20
94	0x22393b80	2.5103674e-18
95	0x1acac140	8.3857454e-23
96	0x9c1ac829	-5.1213027e-22
97	0xbca8e045	-0.020614753
98	0xbc18220b	-0.00928546
99	0x9789fa00	-8.916526e-25
100	0x1bb5e362	3.009088e-22
101	0x9a9b283c	-6.41715e-23
102	0x9ad3a914	-8.7540715e-23
103	0x9b92acbc	-2.42653e-22
104	0x1c441686	6.488007e-22
105	0x9bddbb6e	-3.6682507e-22
106	0x9ad8c7fc	-8.96586e-23
107	0x1bedce96	3.9341864e-22
108	0x990e2a20	-7.349735e-24
109	0x9aee9f8c	-9.8692255e-23
110	0x9e061230	-7.097662e-21
111	0x9d255988	-2.1883855e-21
112	0x9c28864a	-5.57601e-22
113	0x1c033817	4.341676e-22
114	0x1b5d8370	1.8323161e-22
115	0x1c1a1492	5.098091e-22
116	0xa2d81652	-5.857055e-18
117	0xbc0ea60c	-0.008706581
118	0x2b7388b0	8.6520634e-13
119	0x9d64a537	-3.0260963e-21
120	0x9a9bbbf8	-6.441018e-23
121	0x9b0d5734	-1.1691423e-22
122	0x9a192ae8	-3.1674318e-23
123	0x1b902c75	2.3851531e-22
124	0xa404703b	-2.8718e-17
125	0x1bbde0e3	3.1412757e-22
126	0x1c56d466	7.108118e-22
127	0x9a829304	-5.4004256e-23
128	0xa4975ff3	-6.5648356e-17
129	0x1a9c9ba7	6.477156e-23
130	0x9b2da0e3	-1.436221e-22
131	0x9b2a5759	-1.4090294e-22
132	0x19f373b8	2.517235e-23
133	0x9d2c76cb	-2.2825425e-21
134	0x249738c3	6.558197e-17
135	0x1acfbccc	8.591821e-23
136	0x1c1c37fe	5.168844e-22
137	0x99d9c560	-2.2516993e-23
138	0x234f1e22	1.1227873e-17
139	0x9a6fe508	-4.960905e-23
140	0x9c9b938a	-1.0295178e-21
141	0x9b2ef9b3	-1.4473625e-22
142	0x1b3b705a	1.550458e-22
143	0x1ac70c7e	8.2324653e-23
144	0x9b326246	-1.4755569e-22
145	0x1b5ede1d	1.8435178e-22
146	0x1a520720	4.3432738e-23
147	0x9e967ba7	-1.5933009e-20
148	0x1adb039c	9.058211e-23
149	0x9e81b309	-1.3732453e-20
150	0x1bc8e958	3.323802e-22
151	0x9b94b0d1	-2.459881e-22
152	0x9b67d636	-1.9177087e-22
153	0x1a7bd4fc	5.207763e-23
154	0x9b406b65	-1.5916569e-22
155	0x9c0940a0	-4.5413023e-22
156	0xa223c767	-2.2196182e-18
157	0x9d5bdb98	-2.9097936e-21
158	0x1d89b482	3.645024e-21
159	0x1b8b89ce	2.3084675e-22
160	0x9a9289ce	-6.060682e-23
161	0x9e0e7399	-7.5413224e-21
162	0x1ced1792	1.5689437e-21
163	0x1e152b28	7.896919e-21
164	0xb654abe2	-3.169051e-06
165	0x9a8f8b88	-5.936884e-23
166	0x9ce72d6e	-1.5298041e-21
167	0x9e7e6bc0	-1.346893e-20
168	0x3749dff0	1.2032673e-05
169	0x1b1774d6	1.2528179e-22
170	0x1afe35c9	1.0513883e-22
171	0x9b53f8b8	-1.7533876e-22
172	0x9af53448	-1.0141409e-22
173	0x9c51aa12	-6.937211e-22
174	0xa5528894	-1.8260871e-16
175	0x1b9411bf	2.4496014e-22
176	0x1c8a7323	9.161836e-22
177	0x1ae80dde	9.5975355e-23
178	0x25af5144	3.0412729e-16
179	0x1b1648ba	1.2431208e-22
180	0x1c0554b8	4.4115505e-22
181	0xb9d97283	-0.00041474783
182	0x2611f5ad	5.0639934e-16
183	0xa03e19b8	-1.6102136e-19
184	0xb0ed524b	-1.7267409e-09
185	0x1c1c23ed	5.1662503e-22
186	0x1c48ddf3	6.646131e-22
187	0x3bad6c05	0.005292418
188	0xbb852a4c	-0.00406388
189	0x1c040fd4	4.3695594e-22
190	0x9aed241c	-9.807924e-23
191	0x9b1b88e2	-1.2865529e-22
192	0x9ab00bca	-7.281094e-23
193	0x9d8337ae	-3.4732983e-21
194	0xac9569ec	-4.2465944e-12
195	0x99d4ebb0	-2.201548e-23
196	0x1c79b0d4	8.2615734e-22
197	0x1bafd56f	2.908925e-22
198	0x2d1facd4	9.076479e-12
199	0x1b9603b0	2.4817801e-22
200	0x1b11821e	1.2036162e-22
201	0x99c877a0	-2.0727831e-23
202	0x1bbeda51	3.1573947e-22
203	0x9ad542e4	-8.82028e-23
204	0x1bad31a8	2.865254e-22
205	0x1bf093f0	3.9800272e-22
206	0x9be301bb	-3.7555118e-22
207	0x9bee548e	-3.942844e-22
208	0x1b9c6155	2.5870934e-22
209	0x9b3d2177	-1.5644527e-22
210	0x197d56b0	1.30973e-23
211	0xb306fdf9	-3.1430293e-08
212	0x9f026d56	-2.761901e-20
213	0x9d917509	-3.850219e-21
214	0x1c59c8c4	7.205876e-22
215	0x9bc24bf6	-3.2143696e-22
216	0x1ba0211a	2.649117e-22
217	0x3622cf28	2.4260462e-06
218	0xb97f6e47	-0.00024359777
219	0x1b0f1bf0	1.183771e-22
220	0x9b8fb217	-2.3772453e-22
221	0x19d94970	2.2466935e-23
222	0x9ad4a714	-8.7951074e-23
223	0x9d585736	-2.8632449e-21
224	0x244de8b3	4.4649393e-17
225	0x1a142e1a	3.0642923e-23
226	0x1f5e9e82	4.7141443e-20
227	0x1a1ba8cc	3.2189602e-23
228	0xa4087cd5	-2.9596036e-17
229	0x1b81e614	2.1489944e-22
230	0x1d8310c6	3.4692755e-21
231	0x9d362255	-2.4105249e-21
232	0x9bd9bee2	-3.6022994e-22
233	0x1c42ca59	6.4450744e-22
234	0x9bd93cb2	-3.5938862e-22
235	0x1bf302d1	4.0202798e-22
236	0x1bc7d905	3.3062034e-22
237	0xb9c6a06d	-0.0003788503
238	0x2bef4ce5	1.7003314e-12
239	0x9b9eed0b	-2.6292093e-22
240	0x9b4bc084	-1.6853972e-22
241	0x1ab6d629	7.561943e-23
242	0x9bd46a3d	-3.5141113e-22
243	0x9cb2d3e1	-1.1833821e-21
244	0x9d47035f	-2.6339174e-21
245	0x9b7c45ca	-2.0867501e-22
246	0x1c04f4b8	4.399143e-22
247	0x1b484037	1.6564361e-22
248	0x9d0908dd	-1.8136381e-21
249	0x9b992f10	-2.534214e-22
250	0x1ba06db6	2.6540679e-22
251	0x2c8f74e3	4.0772815e-12
252	0x1e456879	1.0450698e-20
253	0x1d0159cd	1.7119434e-21
254	0x9bbc4234	-3.1144774e-22
255	0x1c3fd8e5	6.347693e-22

conv2.bias f4 [10]
0	0xb1962927	-4.370253e-09
1	0xbb8b62c0	-0.0042537153
2	0xaed52d8f	-9.6942114e-11
3	0xb1db31ef	-6.3794157e-09
4	0xbca64b8e	-0.0202997
5	0xbad823a7	-0.0016490117
6	0xbcb50db9	-0.02210127
7	0xbe4a41bc	-0.19751638
8	0xbd5e7247	-0.054308202
9	0xbccf33b6	-0.025293212

rnn.weight_ih_l0 f4 [30, 1]
0	0xbc543ab4	-0.012953449
1	0x3e3c5caf	0.18394731
2	0xbd162923	-0.036660325
3	0xbfd7185b	-1.6804308
4	0x400cf538	2.202467
5	0x3e9fc19f	0.3120241
6	0x3c48c49d	0.0122539075
7	0x3aa9d5e8	0.0012957426
8	0xbd001e7d	-0.031279076
9	0x3d5176ac	0.051138565
10	0x3be60588	0.0070197023
11	0x3e2381f8	0.15967548
12	0xbe201e79	-0.15636624
13	0xbe35a11d	-0.17737241
14	0xbddb60bd	-0.10711811
15	0xbc6d25ca	-0.014474342
16	0xbda0efc2	-0.0785823
17	0x3e47ddea	0.19518247
18	0x3cb08b9c	0.021550946
19	0x3e6957a1	0.22787334
20	0x3bfc05b4	0.0076911096
21	0x3dfa631a	0.122259334
22	0xbcef28bb	-0.029194226
23	0xbb853ddc	-0.004066212
24	0x3c844ab6	0.016148906
25	0x3cd63d3e	0.02615225
26	0xbc1f79d2	-0.009733634
27	0xbc9ce1d1	-0.019150646
28	0x3f40733a	0.7517582
29	0xc045b577	-3.0892007
