colagnn-master-Run-Epi/src/save/cola_gnn_epi.us_regions.w-20.h-4.RNN.lam-1.0.epo-500.pt (torch, 52278 bytes, 32 tensors)

V f4 [15]
000000 21 83 07 3f f2 20 1f 3f f2 e8 10 bd 9d 17 00 3f
       0.5293446 0.62159646 -0.035378404 0.5003603
000010 56 19 d3 be f3 d7 de bd 4f 59 b5 3e 90 0d 2b bf
       -0.41230267 -0.10881033 0.354197 -0.6681757
000020 86 90 2c bf 8f 6e 47 bf fd b4 58 bf 15 3e 70 bf
       -0.67408025 -0.77903074 -0.84651166 -0.9384473
000030 84 3c f3 3e 9d 0d 95 bf 48 4f d6 3e
       0.47507107 -1.164478 0.41857362

W1 f4 [15, 30]
000000 13 49 51 be 94 1f c5 3e 41 ec c1 be 65 7d c5 3e
       -0.20438032 0.38500655 -0.3787556 0.3857223
000010 9a a0 51 3e 0e 68 4f be ee b4 4a 3e 3e a4 5e be
       0.20471421 -0.20254537 0.19795582 -0.21742341
000020 b5 0a c2 3e f3 7b c4 3e bf 9d c5 3e 30 fc 62 be
       0.37898794 0.38375816 0.38596913 -0.22166514
000030 b2 b1 53 3e 04 6f 52 3e 4b cd 57 3e 41 6f 58 be
       0.20673254 0.20550162 0.21074407 -0.2113619
000040 17 cc 9a be 23 74 6b be 87 40 1a 3c c2 67 59 3e
       -0.30233833 -0.22993521 0.009414799 0.21230987
000050 fa 04 4d be 96 9a 50 3e 7f f4 55 be 40 31 61 3e
       -0.2002143 0.2037147 -0.20894049 0.21991444
000060 0e 40 ce be 7a 75 cc be e0 b6 61 3e e2 41 45 3e
       -0.40283245 -0.39933378 0.22042418 0.19263414
000070 77 c4 4e 3e 29 ad 4e be 11 15 1a be 6c ee 0a be
       0.20192133 -0.20183243 -0.15047099 -0.13567513
000080 46 49 1d 3e 9a b3 13 be 84 16 0c 3e 4f 64 f8 bd
       0.15359983 -0.14423981 0.13680464 -0.12128507
000090 e8 46 14 3e 84 d2 1e be 18 2a 12 be c1 c2 1d be
       0.14480174 -0.15509993 -0.1427387 -0.15406324
0000a0 d2 75 0e be 37 30 06 be b1 50 13 3e 63 7f 13 3e
       -0.13912132 -0.1310433 0.1438625 0.14404063
0000b0 2e 05 11 3e c9 ef 1b be a1 9f 02 3e 37 29 27 be
       0.14162132 -0.1522819 0.12756206 -0.16324316
0000c0 bb 39 43 38 2b a5 1e 3e 52 c0 19 be 13 bc 1c 3e
       4.654539e-05 0.15492694 -0.1501477 0.1530612
0000d0 65 57 05 be 1c 16 05 3e f9 c3 09 3e 1b 48 06 3e
       -0.1302162 0.12996715 0.13453664 0.13113444
0000e0 43 a3 16 3e 83 f8 1d 3e d3 01 07 3e c9 44 0e be
       0.14710717 0.15426831 0.1318429 -0.13893427
0000f0 3a c5 71 3c f2 82 70 bc 6d 35 6f 3c 97 f1 6e bc
       0.014756495 -0.014679657 0.01460014 -0.014583967
000100 5d 27 71 bc 8f 3f 72 3c 23 24 71 bc d3 10 71 3c
       -0.014718858 0.014785661 -0.014718088 0.014713484
000110 9a 03 60 bc 39 9b 6f bc d9 70 6b bc aa d7 72 3c
       -0.013672734 -0.01462441 -0.014370167 0.014821926
000120 49 84 6e bc 68 3e 72 bc 9f 58 70 bc c8 0f 72 3c
       -0.014557906 -0.014785387 -0.014669566 0.01477427
000130 ab 2b 22 3c 7e 89 71 3c 43 5f ae 38 71 5b 6f bc
       0.009898107 0.014742253 8.3147104e-05 -0.014609204
000140 db 79 72 3c 82 9f 71 bc 98 a5 72 3c fb 87 71 bc
       0.01479956 -0.014747502 0.014809988 -0.014741893
000150 be e9 70 3c 9c 5b 6f 3c ed 4d 70 bc 52 9a 6d bc
       0.014704166 0.014609244 -0.014667016 -0.014502125
000160 20 dc 6f bc cb 15 70 3c 85 3a 53 bd b5 51 3c 3d
       -0.014639884 0.014653633 -0.05156948 0.04597636
000170 2d 00 3d bd 67 a1 38 3d 8f a8 51 3d 16 61 53 bd
       -0.046142746 0.0450758 0.05118614 -0.05160626
000180 17 7c 53 3d 94 c9 53 bd 47 b0 e7 3c 2e 2a 38 3d
       0.051632013 -0.05170591 0.028282298 0.0449621
000190 46 d8 37 3d 93 a1 54 bd 39 59 4f 3d a8 ff 52 3d
       0.04488399 -0.0519119 0.0506222 0.051513344
0001a0 65 1e 53 3d 27 be 52 bd ea 10 af bc bd 8b 53 bd
       0.05154266 -0.051450875 -0.02137037 -0.051646937
0001b0 21 fd f3 39 75 db 4d 3d b4 cb 52 bd 37 72 53 3d
       0.00046537168 0.05025812 -0.051463798 0.051622596
0001c0 42 07 54 bd db 31 53 3d b3 64 3d bd 99 75 39 bd
       -0.051764734 0.051561218 -0.046238612 -0.045278165
0001d0 80 35 50 3d 2d c9 50 3d a0 d7 4f 3d 64 21 51 bd
       0.05083227 0.050973106 0.050742745 -0.051057234
0001e0 bd 16 53 3e 66 72 48 be da 5d 48 3e 80 f1 46 be
       0.20614143 -0.1957489 0.19567052 -0.19428062
0001f0 4d 55 53 be 0f 20 53 3e 5d c7 52 be 52 8b 52 3e
       -0.20638008 0.20617698 -0.20583864 0.20560959
000200 fc d2 38 be 5b 00 45 be 20 2a 43 be 28 43 54 3e
       -0.18049234 -0.19238417 -0.19059038 0.20728743
000210 70 c7 50 be 94 30 54 be 46 4e 53 be 35 62 53 3e
       -0.2038858 -0.20721656 -0.20635328 0.20642932
000220 88 64 08 3e 9c 82 53 3e bf c7 a3 b9 c5 81 52 be
       0.133196 0.20655292 -0.00031238605 -0.20557316
000230 28 26 55 3e 8e ac 52 be 73 7c 55 3e f1 1e 53 be
       0.20815337 -0.20573637 0.20848255 -0.20617272
000240 de ca 48 3e 74 c2 48 3e 19 16 52 be 1c 7e 50 be
       0.19608638 0.19605428 -0.20516242 -0.20360607
000250 c7 63 51 be 3b a1 52 3e 50 09 dd 3d 65 d4 d4 3e
       -0.20448218 0.20569317 0.10792792 0.41568294
000260 23 df cf be 5c 19 d9 3e 36 41 38 bd 86 47 73 3d
       -0.40599927 0.4240216 -0.044984065 0.059394382
000270 ea 35 4b bd ff 9f 6d 3d 30 00 af 3e b6 6a af 3e
       -0.049611963 0.058013912 0.3417983 0.342611
000280 d7 b6 c1 3e 99 59 52 3d 11 67 dd bd b9 d3 8e bd
       0.37834808 0.05135498 -0.10810674 -0.06973977
000290 6d 8d 25 bd 87 7d 38 3d 87 ce bb be ec 78 82 3d
       -0.040418077 0.045041587 -0.36681005 0.0637072
0002a0 9c 3d e0 3c 31 e2 92 bd 7e 46 c2 3d 15 ec c3 bd
       0.027373128 -0.07172049 0.094861016 -0.095665134
0002b0 aa 8b 49 3d 45 2a a6 bd ea d8 cb be ed 42 bf be
       0.04920546 -0.08113531 -0.3981393 -0.37355748
0002c0 b7 4c ea bd 3a 7e 11 bd e0 02 96 bd 1e 39 3e 3d
       -0.114404134 -0.03552077 -0.07324767 0.04644119
0002d0 78 50 5c be cf 8e 56 be 55 b5 4b 3e 6a 83 3f be
       -0.21515071 -0.20952915 0.19893391 -0.18702474
0002e0 37 98 3b 3e 02 99 2f be 41 6e 3a 3e 9c c3 3e be
       0.18319784 -0.17148212 0.18206121 -0.18629307
0002f0 02 43 18 be 68 6e 39 be ba a3 4b be 70 be 50 be
       -0.14869311 -0.18108523 -0.19886675 -0.20385146
000300 ec d8 59 3e d1 fb 58 3e 7b d3 5b 3e 14 c3 2f be
       0.21274155 0.2118981 0.21467392 -0.1716426
000310 09 5f 2f 3e 29 21 8b be 48 ae 05 b8 18 fd 68 3e
       0.17126097 -0.27173737 -3.1871983e-05 0.22752798
000320 d5 7a 37 be 58 88 5f 3e 0b 67 24 be c7 26 50 3e
       -0.1791795 0.21829355 -0.16054933 0.20327292
000330 e0 dc 2e 3e f7 20 35 3e e0 f2 5a 3e d1 76 32 3e
       0.17076445 0.17688356 0.21381712 0.17428137
000340 40 f0 42 3e ef ee 3e be b4 d9 06 3e b8 92 c4 bd
       0.1903696 -0.18645833 0.13168985 -0.09598297
000350 ef f4 c7 3d 85 ee be bd a8 24 05 be d2 15 08 3e
       0.09763514 -0.09322838 -0.13002264 0.13289574
000360 c4 1c 04 be c3 7b 05 3e 14 3b c3 bd 91 d3 c5 bd
       -0.12901598 0.13035493 -0.09532753 -0.09659494
000370 d8 58 c4 bd e1 c4 08 3e 4b b3 07 be a1 db 06 be
       -0.09587258 0.13356353 -0.13251989 -0.1316972
000380 42 b3 08 be 21 f0 05 3e 10 0f 8a 3d be 5a 06 3e
       -0.13349631 0.13079883 0.06741154 0.13120553
000390 a7 ec 3f 3a 49 f2 05 be f0 2e 06 3e e8 61 0a be
       0.0007321336 -0.13080706 0.13103843 -0.13513911
0003a0 f5 1a 0a 3e d5 f7 05 be b9 2b cb 3d 7d 50 ca 3d
       0.13486846 -0.13082822 0.09920449 0.09878633
0003b0 58 56 05 be df 3e 02 be d9 90 03 be b3 34 09 3e
       -0.13021219 -0.12719296 -0.12848224 0.1339901
0003c0 fe eb 86 3e e4 29 87 be b8 68 86 3e 60 41 86 be
       0.26351923 -0.26399148 0.2625177 -0.26221752
0003d0 95 86 86 be 31 39 87 3e 21 92 86 be dc 77 86 3e
       -0.26274553 0.2641082 -0.26283363 0.2626332
0003e0 b8 13 7b be c3 ba 86 be 86 09 84 be b8 7f 87 3e
       -0.24519241 -0.26314363 -0.25788516 0.2646463
0003f0 f1 e9 84 be 21 37 87 be b8 56 86 be bd 1c 87 3e
       -0.25959733 -0.26409248 -0.26238036 0.26389113

b1 f4 [15]
000000 9d bc 64 be 19 a6 28 be ce e6 72 3c 17 c1 52 bd
       -0.22337575 -0.16469611 0.014825536 -0.051453676
000010 56 ea 54 3e 2d 6f 71 3d 5b 30 42 be 02 c5 06 3e
       0.20792517 0.058943916 -0.18963759 0.1316109
000020 2e a3 87 3e 24 56 0a 3e d0 34 ff 3e 8b 8b f7 3e
       0.26491684 0.13509423 0.4984498 0.4834865
000030 a1 ff 66 bd 18 03 dc 3d 9f 2f 5e 3e
       -0.05639613 0.107427776 0.21697854

W2 f4 [15, 30]
000000 d7 00 58 be 38 b1 c0 3e 50 b2 c3 be 21 d5 c3 3e
       -0.2109407 0.37635207 -0.3822198 0.38248542
000010 5a 41 4c 3e d3 ee 4c be e6 c4 5d 3e 5b b2 57 be
       0.19946805 -0.20012979 0.21657142 -0.21064131
000020 fe 2a b4 3e 72 06 bd 3e 8e 5c c3 3e af 53 59 be
       0.3518905 0.3691898 0.3815655 -0.21223329
000030 d9 ca 56 3e fe 84 48 3e f1 de 6e 3e 84 b9 52 be
       0.20975818 0.19581982 0.23327233 -0.20578581
000040 85 46 06 bf e2 77 56 be 5c ff 97 3d a4 97 57 3e
       -0.52451354 -0.20944169 0.07421753 0.2105394
000050 7b ec 5a be 4d 70 4e 3e 96 17 62 be b5 72 5f 3e
       -0.21379273 0.20160027 -0.2207931 0.21821101
000060 f4 01 c7 be 7b 61 c8 be 22 56 62 3e 42 26 36 3e
       -0.38868678 -0.39136872 0.2210317 0.17788032
000070 72 cd 54 3e 52 ad 5f be f2 6e 2c be fc c8 0b be
       0.20781496 -0.2184346 -0.16839197 -0.13650888
000080 b4 ab 24 3e 18 87 0a be d7 75 0a 3e f7 f9 fa bd
       0.16081125 -0.13528097 0.13521515 -0.12254708
000090 fe e5 10 3e 7f e6 1a be ae 25 1a be b7 98 05 be
       0.14150235 -0.1512699 -0.15053436 -0.13046537
0000a0 9a 19 16 be df 2f 0c be 30 37 0f 3e f0 35 17 3e
       -0.14658204 -0.13690136 0.13985896 0.1476667
0000b0 dc 67 ec 3d 7c ae 03 be 60 d4 06 3e d4 18 0d be
       0.11543247 -0.1285953 0.13166952 -0.13779002
0000c0 fa 1e c2 37 49 50 10 3e e8 c2 0c be 94 b2 0e 3e
       2.3141027e-05 0.14093126 -0.13746226 0.1393531
0000d0 3b 76 18 be 29 5f 14 3e 0f 8b 14 3e 9f 09 12 3e
       -0.14888851 0.14489426 0.14506172 0.14261483
0000e0 8c 2c 08 3e f5 80 1a 3e 88 63 18 3e d8 76 07 be
       0.13298243 0.15088256 0.14881718 -0.13228929
0000f0 03 da 71 3c 1c b5 70 bc 3f 69 6f 3c f2 ec 6f bc
       0.014761451 -0.014691617 0.014612495 -0.0146438945
000100 54 e1 71 bc fe 29 72 3c bf c6 71 bc 32 72 71 3c
       -0.014763195 0.0147805195 -0.014756857 0.014736699
000110 ba 24 5e bc 5e 3c 6f bc 5c e8 69 bc 76 ad 72 3c
       -0.013558561 -0.014601795 -0.01427659 0.014811864
000120 ae e7 6b bc e6 88 72 bc 2b cc 6f bc b7 ab 71 3c
       -0.014398498 -0.014803147 -0.01463608 0.014750413
000130 d8 3f 94 3c d8 e4 71 3c fc 74 16 b9 ad f2 6f bc
       0.01809685 0.014764033 -0.00014348695 -0.014645261
000140 b3 64 72 3c fa e8 70 bc df 68 72 3c 5e ea 71 bc
       0.014794516 -0.014703983 0.014795511 -0.01476535
000150 c0 07 71 3c 05 de 6d 3c 11 77 6e bc 1b ba 6d bc
       0.01471132 0.014518266 -0.014554755 -0.014509703
000160 76 7c 71 bc 81 09 71 3c 5a 3b 55 bd a5 86 3b 3d
       -0.014739146 0.014711739 -0.052058555 0.045782704
000170 bf 20 3e bd fe 5a 3d 3d 6a 52 52 3d db 30 54 bd
       -0.046417948 0.046229355 0.051348127 -0.051804405
000180 31 24 52 3d 7a dc 54 bd ad e8 db 3c fa eb 35 3d
       0.051304046 -0.051968075 0.026844347 0.044414498
000190 ea a5 36 3d 9e 7e 55 bd 33 1b 4c 3d 0d 46 54 3d
       0.04459182 -0.052122705 0.049830627 0.051824618
0001a0 b3 66 52 3d 24 f2 52 bd 6f aa cf bd af 3c 53 bd
       0.051367473 -0.051500455 -0.101399295 -0.051571544
0001b0 ae 3e 82 ba 2a 61 4e 3d cb d2 51 bd eb bb 51 3d
       -0.0009936893 0.05038563 -0.05122642 0.051204603
0001c0 1a 2d 52 bd a5 a4 54 3d 81 fd 3a bd 36 84 34 bd
       -0.051312543 0.05191483 -0.045651916 -0.0440714
0001d0 c5 f0 4f 3d ac e9 50 3d 48 7e 52 3d 1f 6c 52 bd
       0.050766725 0.051004097 0.051389962 -0.051372644
0001e0 de 9b 53 3e de ce 48 be 5e 92 48 3e e0 ed 46 be
       0.20664927 -0.19610164 0.19587085 -0.1942668
0001f0 e0 19 53 be 96 70 53 3e 83 3c 53 be 3e 13 53 3e
       -0.2061534 0.20648417 -0.20628552 0.20612809
000200 7f 46 39 be 15 de 44 be ef c4 42 be 21 8e 55 3e
       -0.18093298 -0.19225343 -0.19020437 0.20854999
000210 0a d3 4f be 52 b3 53 be bc 99 53 be c8 86 54 3e
       -0.20295349 -0.20673874 -0.20664114 0.2075454
000220 99 f1 8a 3e ba 0e 54 3e 43 c4 8e 3b 40 96 50 be
       0.2713745 0.20708743 0.0043568923 -0.20369816
000230 b9 9b 53 3e b4 98 52 be ea 5c 55 3e 56 8c 53 be
       0.20664872 -0.20566064 0.20836225 -0.20659003
000240 65 66 48 3e a1 cb 47 3e 23 e6 50 be c8 a2 4c be
       0.1957031 0.19511272 -0.2040029 -0.19983971
000250 7f bb 52 be 8f 8f 52 3e c9 8b 5e 3d e6 f8 c1 3e
       -0.20579337 0.20562576 0.05433253 0.37885207
000260 f3 e7 b9 be bd 01 d0 3e b4 b4 9e bd 82 dd 9d 3d
       -0.36309776 0.40626326 -0.0774931 0.07708265
000270 13 fc 6d bd 07 9f 3e 3d f1 70 a8 3e 41 ce e4 3e
       -0.058101725 0.04653838 0.32898667 0.4468861
000280 90 e0 cb 3e 56 dc 47 3d 99 8f ad bd b0 84 ef bd
       0.39819765 0.048794113 -0.08474655 -0.1169523
000290 0d 54 15 be 3f 05 a9 3d 88 1f ee be 42 26 cc 3d
       -0.14582844 0.08252954 -0.4650843 0.099682346
0002a0 cb 8c b1 3d f5 44 81 bd 8d 2e 7e 3d 1c 70 f9 bd
       0.08669432 -0.06311981 0.062056113 -0.12179586
0002b0 19 91 3b 3d 7a 7a 8c bd 78 4a c1 be c1 b7 cd be
       0.045792673 -0.06859298 -0.37752128 -0.40179256
0002c0 a7 d1 62 bd 15 e0 24 be 74 e6 5d bd c1 30 a4 3c
       -0.05537572 -0.16101106 -0.054174855 0.020042779
0002d0 5f 6a 60 be 97 17 5e be 6c 2d 4c 3e 57 96 83 be
       -0.21915577 -0.21688686 0.19939202 -0.25700638
0002e0 d7 8e 6e 3e 58 00 39 be 33 e0 63 3e 87 a3 63 be
       0.23296677 -0.18066537 0.22253494 -0.2223035
0002f0 d5 de 7a be 7f 00 5b be de e2 64 be d3 f3 25 be
       -0.24499066 -0.21386908 -0.22352168 -0.16206293
000300 b2 8e 55 3e fc b5 52 3e bb 02 32 3e 84 1b 3a be
       0.20855215 0.20577234 0.17383854 -0.18174559
000310 b3 b7 39 3e 16 bc 4a be b8 99 1e bb 5f 95 70 3e
       0.18136482 -0.19798312 -0.002420051 0.2349448
000320 a6 b0 51 be 78 eb 62 3e c4 ea 12 be 2e d6 64 3e
       -0.20477542 0.22160137 -0.14347368 0.22347328
000330 bb 1a 4f 3e db b6 2e 3e aa 45 80 3e c5 af 35 3e
       0.2022504 0.17061941 0.2505315 0.17742832
000340 57 b1 53 3e 51 17 63 be 1e a1 06 3e c8 53 c4 bd
       0.20673119 -0.22176863 0.13147399 -0.095862925
000350 cf 47 ca 3d 9c 60 bf bd ce 35 09 be 42 e3 08 3e
       0.09876978 -0.09344599 -0.13399431 0.13367942
000360 9b a7 05 be fc 2a 06 3e 3e 6a c9 bd e5 16 ca bd
       -0.13052218 0.13102335 -0.09834717 -0.09867648
000370 aa 91 ba bd 7a e3 04 3e 1b 78 04 be d4 7a 07 be
       -0.091098145 0.129774 -0.12936442 -0.13230449
000380 91 1e 05 be 05 99 08 3e dc d2 fb 3d 5c 04 06 3e
       -0.12999941 0.13339622 0.122960776 0.130876
000390 20 59 63 ba 1a 40 08 be 1f 73 06 3e 67 50 09 be
       -0.00086726435 -0.13305703 0.13129853 -0.13409577
0003a0 bd ad 05 3e cf b1 05 be c5 5d c3 3d b9 1b c7 3d
       0.13054557 -0.1305611 0.095393695 0.097220846
0003b0 85 e1 04 be b6 2e 02 be 5f 69 08 be 16 01 07 3e
       -0.12976654 -0.12713131 -0.13321446 0.13184008
0003c0 22 ff 86 3e 9a 42 87 be 32 98 86 3e b3 bc 86 be
       0.26366526 -0.26418 0.2628799 -0.2631584
0003d0 e7 f2 86 be 27 1e 87 3e ed df 86 be ba b5 86 3e
       -0.26357195 0.26390192 -0.26342717 0.2631052
0003e0 60 12 79 be 4a 75 86 be 9b 09 83 be 35 76 87 3e
       -0.24323416 -0.2626136 -0.25593266 0.26457372
0003f0 92 46 83 be 9d 54 87 be 14 27 86 be 17 da 86 3e
       -0.25639778 -0.26431742 -0.2620169 0.26338264

Wb f4 [29, 29]
000000 8a 45 5b 3f f2 a9 53 be ea b9 3b 3f d8 58 52 3f
       0.85652983 -0.20670298 0.7333056 0.82166815
000010 f0 cf 92 be a3 75 4b 3f 08 ff e8 bc 03 43 bb be
       -0.2867427 0.79476374 -0.02844192 -0.36574563
000020 7b bd 78 be 65 84 1e 3f 20 5c da be 5a bb 89 3d
       -0.24291031 0.6192077 -0.4264841 0.067251876
000030 38 f2 da be 30 31 cb be 00 46 de be a5 93 41 be
       -0.42762923 -0.39685965 -0.4341278 -0.18903978
000040 50 b3 10 be c6 9a c4 be d6 e6 26 3e 1f fe a8 3e
       -0.14130902 -0.38399333 0.16298994 0.3300638
000050 d6 36 5f 3f cb 5d 4e be 50 6b c9 be 0b 9e cf be
       0.8719305 -0.20152967 -0.39339685 -0.40550265
000060 11 1f 27 3e 45 fc 92 be c6 ac e9 be cf ad b0 be
       0.16320445 -0.2870809 -0.45639628 -0.34507605
000070 2c fc 40 bb 33 2e 5b 3f 9d ab 53 be 58 b5 3b 3f
       -0.002944718 0.8561737 -0.20670934 0.73323584
000080 cd 49 52 3f 86 d7 92 be 15 76 4b 3f ea 42 e9 bc
       0.8214386 -0.28680056 0.79477054 -0.02847429
000090 d4 46 bb be bf af 78 be be 84 1e 3f 45 5d da be
       -0.36577475 -0.24285792 0.619213 -0.42649284
0000a0 f0 d3 87 3d 68 f3 da be 29 35 cb be 02 46 de be
       0.06632221 -0.4276383 -0.39688995 -0.43412787
0000b0 87 85 41 be 58 af 10 be 80 84 c4 be ac 17 27 3e
       -0.18898593 -0.14129388 -0.3838234 0.16317624
0000c0 b1 0c a9 3e c5 44 5f 3f a1 77 4e be 11 66 c9 be
       0.33017495 0.8721431 -0.20162822 -0.39335683
0000d0 3b b0 cf be e1 1c 27 3e c3 0b 93 be 4f a8 e9 be
       -0.4056414 0.1631961 -0.2871991 -0.45636222
0000e0 db b8 b0 be 27 d3 27 bb 8c 11 5b 3f b1 b4 53 be
       -0.34516034 -0.0025608034 0.8557365 -0.20674397
0000f0 6b bb 3b 3f 30 45 52 3f 19 e7 92 be 74 73 4b 3f
       0.7333285 0.8213682 -0.2869194 0.7947304
000100 39 0c e9 bc 8e 44 bb be 0c a5 78 be f7 84 1e 3f
       -0.028448211 -0.3657574 -0.2428171 0.6192164
000110 3e 5d da be 92 04 87 3d 77 f7 da be ea 31 cb be
       -0.42649263 0.065926686 -0.42766926 -0.3968652
000120 13 4f de be a1 83 41 be 1c a7 10 be a6 c9 c4 be
       -0.43419704 -0.18897869 -0.14126247 -0.38435096
000130 83 76 2a 3e d9 11 a9 3e 79 3e 5f 3f 84 78 4e be
       0.16646771 0.3302143 0.872047 -0.2016316
000140 1b 77 c9 be 5a 94 cf be fc e3 27 3e eb 06 93 be
       -0.39348683 -0.4054287 0.16395563 -0.28716215
000150 15 ac e9 be 38 b1 b0 be 20 7d 2d bb 43 3e 5b 3f
       -0.456391 -0.34510207 -0.0026472285 0.8564188
000160 2b a3 53 be 9a ba 3b 3f 89 54 52 3f 7a e5 92 be
       -0.20667712 0.73331606 0.8216024 -0.28690702
000170 75 76 4b 3f 46 ff e8 bc ce 41 bb be 15 c0 78 be
       0.79477626 -0.028442036 -0.36573642 -0.24292023
000180 6b 84 1e 3f 37 5c da be dc 96 89 3d 34 ec da be
       0.61920804 -0.4264848 0.06718227 -0.42758334
000190 86 32 cb be 54 46 de be 16 94 41 be 92 ac 10 be
       -0.39686984 -0.4341303 -0.18904147 -0.1412833
0001a0 b8 83 c4 be 5a 83 29 3e 6c 05 a9 3e cc 36 5f 3f
       -0.38381743 0.16554013 0.3301195 0.8719299
0001b0 b5 57 4e be b2 4d c9 be bd 9e cf be 65 3c 28 3e
       -0.20150645 -0.3931709 -0.40550795 0.16429289
0001c0 78 10 93 be a4 a9 e9 be a4 a3 b0 be 63 ca 44 bb
       -0.28723502 -0.45637238 -0.34499848 -0.0030027858
0001d0 de 2f 5b 3f 43 a2 53 be 0d ac 3b 3f 17 4b 52 3f
       0.85619915 -0.20667367 0.73309404 0.8214583
0001e0 45 bc 92 be a6 76 4b 3f b8 7b e9 bc cf 45 bb be
       -0.28659263 0.7947792 -0.028501377 -0.36576697
0001f0 aa c9 78 be 54 89 1e 3f c4 66 da be 8f a4 88 3d
       -0.24295679 0.61928296 -0.4265653 0.06672012
000200 7d 0b db be e3 37 cb be dc 4a de be 03 87 41 be
       -0.42782202 -0.39691076 -0.43416488 -0.18899159
000210 9c b2 10 be e6 59 c4 be 5f 5d 27 3e 2e 18 a9 3e
       -0.14130634 -0.38349837 0.16344212 0.3302626
000220 26 4f 5f 3f a3 c7 4e be c7 68 c9 be f6 c1 cf be
       0.87230146 -0.20193343 -0.3933775 -0.40577668
000230 7d 88 2a 3e e0 1d 93 be 76 9e e9 be 70 be b0 be
       0.16653629 -0.2873373 -0.4562871 -0.34520292
000240 cb 5f 1a bb f3 33 5b 3f 7f a5 53 be f7 bb 3b 3f
       -0.0023555632 0.85626143 -0.206686 0.73333687
000250 9d 42 52 3f b2 e1 92 be 1d 75 4b 3f 00 26 e9 bc
       0.82132894 -0.28687817 0.79475576 -0.028460503
000260 52 45 bb be 3f b8 78 be e1 84 1e 3f cc 5c da be
       -0.36576325 -0.24289034 0.6192151 -0.42648923
000270 6e fa 87 3d f8 00 db be 2f 33 cb be 47 49 de be
       0.066395625 -0.42774177 -0.39687487 -0.4341528
000280 c1 8f 41 be c0 ae 10 be 02 80 c4 be da 56 27 3e
       -0.18902494 -0.14129162 -0.38378912 0.16341725
000290 68 03 a9 3e 33 45 5f 3f 56 86 4e be 25 4a c9 be
       0.3301041 0.87214965 -0.20168433 -0.3931438
0002a0 45 a9 cf be 30 35 27 3e c6 fc 92 be 6b 9c e9 be
       -0.4055883 0.16328883 -0.28708476 -0.4562715
0002b0 c2 b8 b0 be 3b 65 2d bb fc 38 5b 3f 0e aa 53 be
       -0.3451596 -0.0026458043 0.85633826 -0.2067034
0002c0 4f bb 3b 3f 74 3e 52 3f 00 d6 92 be 68 73 4b 3f
       0.73332685 0.82126546 -0.28678894 0.7947297
0002d0 96 18 e9 bc 2f 44 bb be 7c ad 78 be 6d 84 1e 3f
       -0.028454106 -0.36575457 -0.24284929 0.61920816
0002e0 af 5c da be c2 4b 87 3d 1b fa da be c2 32 cb be
       -0.42648837 0.066062465 -0.4276894 -0.39687163
0002f0 50 4c de be b6 8d 41 be ba a7 10 be 72 ac c4 be
       -0.43417597 -0.18901715 -0.14126483 -0.38412815
000300 c4 23 27 3e 6b 04 a9 3e 44 40 5f 3f 40 6b 4e be
       0.16322237 0.33011183 0.87207437 -0.201581
000310 02 60 c9 be 7f 96 cf be c3 35 27 3e c1 05 93 be
       -0.3933106 -0.40544507 0.16329102 -0.28715327
000320 39 ae e9 be d0 b0 b0 be 61 65 2c bb 69 21 5b 3f
       -0.45640734 -0.34509897 -0.0026305544 0.85597855
000330 dc a5 53 be 82 ba 3b 3f b9 3c 52 3f 54 cc 92 be
       -0.20668739 0.73331463 0.82123905 -0.28671515
000340 ca 73 4b 3f 9a 02 e9 bc 90 43 bb be 5d b3 78 be
       0.79473555 -0.028443623 -0.36574984 -0.24287172
000350 ab 84 1e 3f c9 5c da be f6 a2 88 3d 0b f6 da be
       0.61921185 -0.42648914 0.06671707 -0.4276584
000360 60 31 cb be 6b 4c de be 0c 87 41 be fa a1 10 be
       -0.39686108 -0.43417677 -0.18899173 -0.14124289
000370 22 93 c4 be 71 3f 2b 3e 49 04 a9 3e eb 3c 5f 3f
       -0.38393503 0.1672342 0.33011082 0.8720233
000380 95 58 4e be c9 59 c9 be 71 93 cf be 52 4b 27 3e
       -0.20150979 -0.39326313 -0.40542176 0.16337326
000390 89 05 93 be e4 9d e9 be 78 c0 b0 be b3 9c 2f bb
       -0.2871516 -0.45628273 -0.34521842 -0.002679628
0003a0 7c 2f 5b 3f 64 a2 53 be b3 ab 3b 3f be 40 52 3f
       0.8561933 -0.20667416 0.7330887 0.8213004
0003b0 28 de 92 be 2a 74 4b 3f 1a 99 e9 bc b1 47 bb be
       -0.28685117 0.7947413 -0.028515387 -0.36578134
0003c0 58 9d 78 be a7 8a 1e 3f fd 66 da be cf 58 87 3d
       -0.24278772 0.61930317 -0.426567 0.06608736
0003d0 40 14 db be dd 3b cb be eb 45 de be 67 8c 41 be
       -0.42788887 -0.3969411 -0.43412718 -0.18901215
0003e0 dc a5 10 be a4 cd c4 be 1b e1 27 3e a3 15 a9 3e
       -0.1412577 -0.3843814 0.16394465 0.3302432
0003f0 de 4d 5f 3f 74 af 4e be 90 77 c9 be 97 d3 cf be
       0.8722819 -0.20184118 -0.3934903 -0.40591118

conv.weight f4 [10, 1, 20]
000000 b6 8f e3 9e b2 a0 bb 9f d0 b4 04 1c a6 ef 5e a0
       -2.4093997e-20 -7.946343e-20 4.390883e-22 -1.8883424e-19
000010 b3 f2 c2 9f f5 c7 b7 9e d0 2f f5 9c 5d fd b3 1c
       -8.256371e-20 -1.9458579e-20 -1.6225099e-21 1.1910719e-21
000020 32 a6 b2 1c a1 52 e0 1b ba 6a f0 9a c8 2b 01 1b
       1.1822012e-21 3.711109e-22 -9.94341e-23 1.0684776e-22
000030 94 15 68 9a 74 51 8a 1b 9c 92 14 1c ce 9e e1 9b
       -4.7993906e-23 2.2882823e-22 4.915858e-22 -3.7325753e-22
000040 62 e8 40 1c b0 0e 67 9d 91 7b 84 9b e5 27 48 1e
       6.382782e-22 -3.0580189e-21 -2.191742e-22 1.0596162e-20
000050 e9 35 1c 9d bf 1e bb 9c d1 00 51 9c 77 bd 25 1d
       -2.0674299e-21 -1.238257e-21 -6.9153354e-22 2.193552e-21
000060 a6 82 b2 1c d0 c7 2f 1c 9b 1d 4f 1b b4 bf 69 1b
       1.1812824e-21 5.8160894e-22 1.7132205e-22 1.9335251e-22
000070 ad b8 72 1b b7 23 f9 9b 5c 4f cb 1a eb 6a 7a 1b
       2.0077443e-22 -4.1216675e-22 8.4087044e-23 2.0714062e-22
000080 1a 51 3d 1b 8e 84 92 1b e1 a5 9a 1b 88 85 a9 9c
       1.5659919e-22 2.4239335e-22 2.558436e-22 -1.1217999e-21
000090 16 e9 b9 1c 12 11 7b 1d 24 2d 6d 1d 3e 97 d6 9d
       1.2302524e-21 3.3228399e-21 3.1390026e-21 -5.680171e-21
0000a0 e8 3e 22 9c 7b 90 98 1b 55 a9 27 1c 08 0d 71 9c
       -5.368261e-22 2.523966e-22 5.547452e-22 -7.9757054e-22
0000b0 d7 61 64 9c 65 da cd 9b 13 78 dc 1b 49 02 bb 9a
       -7.5565327e-22 -3.405554e-22 3.6473543e-22 -7.734508e-23
0000c0 78 14 45 1a 20 fc f4 96 5c aa 35 99 ce aa 52 9a
       4.075518e-23 -3.957944e-25 -9.3918845e-24 -4.3564957e-23
0000d0 8e 7a b0 9a 61 22 cf 9b 82 d6 04 9c dc 7c a4 9a
       -7.298989e-23 -3.4267494e-22 -4.395238e-22 -6.803053e-23
0000e0 6a 18 3f 1c ea 0d b5 1b 8b 02 4e 9b 40 4d 8f 1c
       6.3228153e-22 2.995293e-22 -1.7040742e-22 9.482915e-22
0000f0 3a dd 60 9b 8c 48 58 1a ad d5 44 1b 70 72 5e 1b
       -1.8600328e-22 4.4726356e-23 1.6281782e-22 1.8400386e-22
000100 c8 4e de 1a 2c 13 16 99 20 22 26 9b d9 6f 7d 1a
       9.1944326e-23 -7.75869e-24 -1.3742225e-22 5.2409524e-23
000110 1d 92 81 1a 65 8d 1f 1b 45 8e df 9a 03 96 49 1b
       5.358921e-23 1.3197859e-22 -9.246049e-23 1.6674802e-22
000120 14 73 17 9b 71 0e 74 9b d1 fc e1 1a 91 63 8b 9b
       -1.2527611e-22 -2.0187873e-22 9.3466266e-23 -2.3059964e-22
000130 da b0 a4 9b d4 4c eb 1a 97 ef 63 9b 94 b3 2e 9b
       -2.7245812e-22 9.7317845e-23 -1.8854416e-22 -1.4450967e-22
000140 eb 7b 43 1c cf 4e 45 9c 06 57 d1 1b f8 19 f6 1b
       6.468025e-22 -6.528369e-22 3.4632387e-22 4.0714068e-22
000150 ba 8d d8 9b 73 f3 92 9b ca a6 13 9b b4 f3 3b 1b
       -3.582579e-22 -2.4311e-22 -1.2213447e-22 1.5547022e-22
000160 c0 73 1d 9b 95 ac 5f 9b cf 5e 1f 1b 5d 3e 83 1b
       -1.3024136e-22 -1.8501892e-22 1.3182806e-22 2.1712433e-22
000170 58 4f 65 1b 20 a4 b1 9b e7 8b 18 9b ae ce c6 9a
       1.8968073e-22 -2.9388257e-22 -1.261835e-22 -8.222479e-23
000180 57 29 f7 9b 80 ef 6a 18 0c 72 4b 1c f5 8e 85 1c
       -4.0889438e-22 3.0364708e-24 6.731447e-22 8.838155e-22
000190 f8 cb 5d 9b 07 8d 73 9b e1 b4 06 9b 62 e4 62 9b
       -1.8346597e-22 -2.0146057e-22 -1.1142665e-22 -1.8768076e-22
0001a0 cf 82 6f 9a 96 e0 64 1b 59 61 48 1b 7e 7a 8f 99
       -4.9529708e-23 1.8932286e-22 1.6575067e-22 -1.4835328e-23
0001b0 7b 66 25 1b 15 32 2e 1b c0 f8 71 9b b7 60 e7 9a
       1.3681593e-22 1.4409125e-22 -2.0015428e-22 -9.569561e-23
0001c0 46 c2 49 9a 10 22 e5 9a a9 dc 08 1b 30 93 a2 9a
       -4.172276e-23 -9.476721e-23 1.1320955e-22 -6.7239424e-23
0001d0 e6 1f 2d 1b 16 a7 63 9a e0 9e 85 19 5a 58 d8 9a
       1.4320532e-22 -4.707747e-23 1.3816047e-23 -8.9478246e-23
0001e0 72 f5 bc 9a 85 73 51 1b b6 71 f0 1a af 3c e2 1a
       -7.8151516e-23 1.7325401e-22 9.9445383e-23 9.356945e-23
0001f0 b6 e7 43 9b c5 48 05 1b 40 1d 68 17 74 84 83 99
       -1.6204892e-22 1.1025015e-22 7.500016e-25 -1.359858e-23
000200 cf a0 ce 1a 4a a7 cf 9a 8a 42 ba 19 60 82 b6 17
       8.5459403e-23 -8.5883463e-23 1.9258824e-23 1.1794386e-24
000210 45 4f 8f 1a 73 ad 26 9b 06 1c aa 9a 32 30 64 1a
       5.927148e-23 -1.3787243e-22 -7.0355626e-23 4.7188227e-23
000220 c0 7c 59 1b 9e d4 1f 1b b0 0c d6 99 b1 9f fb 9a
       1.7990128e-22 1.3220872e-22 -2.2132206e-23 -1.0406916e-22
000230 0e dd 10 9b 78 df 85 1b f8 8e 8e 99 84 b5 03 1b
       -1.1982827e-22 2.2147418e-22 -1.47402e-23 1.0894717e-22
000240 4c 9d 89 1b 78 1e 63 9b af 4c d9 1a 40 2c e7 9a
       2.27664e-22 -1.8786845e-22 8.9872985e-23 -9.561085e-23
000250 97 ef a4 9a 0b 3f 51 9a c6 b5 d3 9a 8f 00 d6 1a
       -6.821589e-23 -4.3271113e-23 -8.7561225e-23 8.850923e-23
000260 54 53 5d 19 dc 75 8f 98 e2 e1 e3 99 d5 cc 2d 9b
       1.144226e-23 -3.708364e-24 -2.3562483e-23 -1.437641e-22
000270 fc a8 2c 9a 7a 46 ba 1a 08 29 89 9b ee 3c 13 9b
       -3.570527e-23 7.704166e-23 -2.2691265e-22 -1.2179242e-22
000280 23 8e 44 9b 78 72 2b 1b c3 e7 00 9a fc 15 dc 1a
       -1.6258667e-22 1.4181775e-22 -2.6656995e-23 9.1025385e-23
000290 e6 4c fe 1a d2 e9 7f 9b 4f 54 7b 1b ad 7f 43 9b
       1.05176174e-22 -2.1168657e-22 2.0789475e-22 -1.6171276e-22
0002a0 01 33 5f 1b 04 9d a4 99 ca 2e 29 9a 54 4c e7 19
       1.8462608e-22 -1.702062e-23 -3.4986177e-23 2.3915669e-23
0002b0 b9 c1 3d 9a 94 ce cb 19 35 fa 55 1b 76 60 ae 18
       -3.9240772e-23 2.1073144e-23 1.7699793e-22 4.5075346e-24
0002c0 d4 c6 a6 1a b0 bf 24 9c 73 82 81 1b 7a 06 ca 19
       6.8977215e-23 -5.45108e-22 2.142556e-22 2.0888926e-23
0002d0 f4 b0 ec 1a 59 dd 2c 1b da 1d 0b 1b 24 b9 97 9a
       9.7893195e-23 1.4299028e-22 1.1507456e-22 -6.275125e-23
0002e0 be 57 42 1b 7c 8a 83 1a d9 5b 41 9a fe ff 62 1a
       1.6075655e-22 5.4404064e-23 -3.998566e-23 4.6942493e-23
0002f0 08 e9 87 9a ab 37 36 9a 3a 58 7a 19 38 db 8f 9a
       -5.6211174e-23 -3.7681686e-23 1.2942514e-23 -5.949758e-23
000300 50 3a 09 9b 2d d2 43 1a 68 d5 d2 1a 54 de 8c 19
       -1.1351216e-22 4.0494834e-23 8.719874e-23 1.4565458e-23
000310 92 df ca 1a ba 90 a4 99 ee 90 2f 1b c1 ac 4c 9b
       8.390644e-23 -1.7015657e-23 1.452249e-22 -1.6930304e-22

conv.bias f4 [10]
000000 e3 35 af ba 81 48 ba b8 62 41 30 b7 41 14 76 1d
       -0.00133675 -8.882676e-05 -1.0505641e-05 3.25683e-21
000010 e0 65 4f ba eb 2c 74 1c d8 b8 9b b6 71 72 df ac
       -0.0007911604 8.0790883e-22 -4.6408786e-06 -6.3507468e-12
000020 35 c7 f3 34 53 a9 c2 1a
       4.540722e-07 8.051008e-23

conv_long.weight f4 [10, 1, 10]
000000 7d 39 85 1a f6 49 21 1b 00 cd bd 99 e0 fc ab 9a
       5.510039e-23 1.3341506e-22 -1.9624941e-23 -7.1132484e-23
000010 b3 c9 d5 19 41 59 bb 19 c6 a2 25 9a e8 7d d9 18
       2.210515e-23 1.9371396e-23 -3.4252688e-23 5.622032e-24
000020 05 a4 e3 19 3a 01 9d 19 2f b0 b0 9b 29 87 40 1b
       2.3537497e-23 1.6233915e-23 -2.9230614e-22 1.592554e-22
000030 e0 c3 36 1b 65 94 c2 9a b8 ee 9d 19 70 12 56 1b
       1.5117978e-22 -8.0476264e-23 1.6329837e-23 1.7707623e-22
000040 c4 67 c4 9b d2 c4 0b 1c 90 97 d0 1a cf 68 84 1b
       -3.2492537e-22 4.6245626e-22 8.6271646e-23 2.19053e-22
000050 30 d6 6e 19 4b 5e 02 9d 5a eb a0 1c ff 92 e3 1a
       1.23475664e-23 -1.7254105e-21 1.0648749e-21 9.4122485e-23
000060 80 eb 9d 1c c1 00 55 9c 46 21 ad 1a 21 d8 b0 1b
       1.0450264e-21 -7.0476763e-22 7.160488e-23 2.9256428e-22
000070 70 62 46 9a 3f 47 c4 9f 96 e1 08 26 09 be c7 26
       -4.1024958e-23 -8.3127096e-20 4.7490205e-16 1.3859908e-15
000080 28 5c 0e 24 94 ee 3f 9f 05 cb 12 20 ba 6a 81 9e
       3.08694e-17 -4.064317e-20 1.2433855e-19 -1.3702547e-20
000090 48 fb d9 21 e3 1b 2a 26 bd e5 e4 26 3d b3 30 27
       1.4771006e-18 5.901839e-16 1.5882949e-15 2.4522072e-15
0000a0 7c 74 2c 1a 33 ae 41 1b b2 d1 ed 19 cc 42 db 9a
       3.5662862e-23 1.6020873e-22 2.4589921e-23 -9.0684193e-23
0000b0 14 cb a7 19 4c 2b 6e 1a 2e ad b7 9a f4 ce 30 9a
       1.7349418e-23 4.925222e-23 -7.596681e-23 -3.6563122e-23
0000c0 90 77 99 1a 81 b2 a6 9a 9e 17 86 a8 60 53 92 a8
       6.347248e-23 -6.894438e-23 -1.4887231e-14 -1.6245414e-14
0000d0 74 b5 18 24 c0 69 1b 9f b9 07 98 9d 5f 5e 72 9c
       3.3113443e-17 -3.291e-20 -4.024205e-21 -8.0193055e-22
0000e0 5d 96 1f 1e d0 99 c3 a0 fa ff ff 20 6d c6 30 23
       8.448484e-21 -3.313607e-19 4.3368071e-19 9.582997e-18
0000f0 d0 3f 8d 9a 6f f6 85 9b bc c7 36 9b 88 70 df 9a
       -5.841933e-23 -2.2162258e-22 -1.5119225e-22 -9.241244e-23
000100 00 b5 0d 9b 9e c5 3d 9b 7e 84 57 1b 10 28 9b 9a
       -1.1721731e-22 -1.5697567e-22 1.7827194e-22 -6.417122e-23
000110 6d e9 1f 1b ce c5 ca 9a 72 61 3a 1b 00 1b 3b 18
       1.3227596e-22 -8.386481e-23 1.5417046e-22 2.4182815e-24
000120 67 2a 19 9c 2e eb 1f 9c 17 40 e0 1c 02 63 b7 9c
       -5.0678257e-22 -5.291265e-22 1.4839643e-21 -1.2135517e-21
000130 d3 2e dc 9b 78 5f 83 1b de d0 43 1b 04 0f 9a 1a
       -3.6426206e-22 2.1733827e-22 1.619751e-22 6.3717166e-23
000140 60 5e d4 21 52 e0 d4 a3 84 01 10 a2 8d 46 d2 9e
       1.439066e-18 -2.308009e-17 -1.9516441e-18 -2.2263794e-20
000150 b7 e5 d8 9d 5d 3b 62 9c df 14 91 9c ff c6 90 1f
       -5.7412244e-21 -7.4853853e-22 -9.60069e-22 6.1315584e-20
000160 8e bb 63 1f b2 4b 60 20 fa 7a 83 1b 3b bc e8 9b
       4.822426e-20 1.8998583e-19 2.1751604e-22 -3.8502822e-22
000170 61 d2 07 9c 75 56 08 9b 2a ab 34 1a 67 d4 47 9c
       -4.493966e-22 -1.1277592e-22 3.7361393e-23 -6.61181e-22
000180 0e 1e e6 1c 98 1f 90 9e ae 65 a5 9f 18 04 f5 1d
       1.5227892e-21 -1.525966e-20 -7.004843e-20 6.4855193e-21

conv_long.bias f4 [10]
000000 8c f6 90 9b b3 05 1d af 4c a4 73 bc 7c 58 cc bc
       -2.398213e-22 -1.4281092e-10 -0.014870714 -0.024944536
000010 5b 7e d1 1a 25 0c a7 bc df 7e fe 9b d4 e3 1f 1e
       8.664451e-23 -0.020391533 -4.2102764e-22 8.464504e-21
000020 1b 9e 01 b6 8c ea 10 b1
       -1.9314527e-06 -2.1088082e-09

conv1.weight f4 [30, 30]
000000 ab b6 05 b3 a6 25 16 9b 8c d8 d0 21 ca 71 c5 20
       -3.113261e-08 -1.2419874e-22 1.4151948e-18 3.3448397e-19
000010 2b 8a c2 b1 2e 7a c3 1a 1f b6 36 9b 64 44 3f 9d
       -5.661851e-09 8.08475e-23 -1.5113534e-22 -2.5313997e-21
000020 0a 3a d7 9c be 60 83 a3 be 4b f5 9a 29 2e 87 9e
       -1.4242509e-21 -1.424402e-17 -1.0145199e-22 -1.4312772e-20
000030 d0 6b 45 1b be 36 3d 9d 6e f9 45 1b 94 a5 10 19
       1.6330294e-22 -2.5042243e-21 1.6376053e-22 7.478064e-24
000040 2e 1a 34 a8 95 50 1f 24 49 3c c6 27 63 11 ed 22
       -9.997684e-15 3.4545885e-17 5.50214e-15 6.4257388e-18
000050 ac 8a 8f 1a ed 93 e3 b6 e4 d4 80 1a 99 d5 80 20
       5.936745e-23 -6.782348e-06 5.32835e-23 2.182539e-19
000060 b5 48 b6 1d 88 9c c4 1f a1 0b e3 b3 ec e9 25 1f
       4.8250176e-21 8.326819e-20 -1.05726265e-07 3.5133605e-20
000070 7b 72 d4 9d d8 44 a3 9b ae e7 20 1a f5 e9 de 99
       -5.6234303e-21 -2.7010577e-22 3.3274374e-23 -2.3048756e-23
000080 b4 51 28 9a fe 26 78 1a 43 41 99 19 b8 97 3f 1a
       -3.4807585e-23 5.1316696e-23 1.5846188e-23 3.9620432e-23
000090 ae cd b0 9a dc 41 12 9a fb f2 96 9a d5 08 1c 9b
       -7.312419e-23 -3.0245293e-23 -6.24311e-23 -1.2906871e-22
0000a0 14 3e 92 9a e9 09 1a 1a 64 5a 2b 99 c9 d7 8e 9a
       -6.048448e-23 3.185446e-23 -8.858747e-24 -5.9078443e-23
0000b0 60 19 7e 17 d2 46 64 19 f0 a9 de 99 c2 82 1d 9a
       8.2103854e-25 1.1801626e-23 -2.3022899e-23 -3.2572464e-23
0000c0 f8 42 55 9a e8 92 e3 18 2e 80 e2 1a 20 b6 0f 98
       -4.4101465e-23 5.8826462e-24 9.3678495e-23 -1.8574266e-24
0000d0 bc 23 05 9a 6a 42 7e 99 b5 aa 62 9a 8f f1 1c 9a
       -2.753262e-23 -1.31449044e-23 -4.68736e-23 -3.2455173e-23
0000e0 3d d4 26 9a f4 3b 67 19 bb 03 ac 1a 1e b5 79 1a
       -3.449944e-23 1.19545275e-23 7.114356e-23 5.16383e-23
0000f0 b0 4e 46 17 98 43 03 99 10 e8 a0 19 86 f2 39 9a
       6.407657e-25 -6.786192e-24 1.6637342e-23 -3.8453012e-23
000100 2e cd 6d 99 88 a3 25 9a 7b 5d f5 19 54 a7 08 9a
       -1.22940485e-23 -3.42533e-23 2.5370163e-23 -2.8259307e-23
000110 a8 52 fd 98 46 a8 51 9b b4 3e 64 99 64 36 fe 99
       -6.548243e-24 -1.7342447e-22 -1.17999865e-23 -2.6284953e-23
000120 48 d7 67 1a d2 ca df 19 f8 b3 88 19 2e ad 91 19
       4.7943583e-23 2.3139578e-23 1.413476e-23 1.5062595e-23
000130 11 b3 97 1a 87 fc f3 1a 04 9a 3e 19 e0 da b1 99
       6.2741434e-23 1.00910424e-22 9.853873e-24 -1.8389774e-23
000140 61 6f fd 99 02 bb 85 19 e4 43 9f 19 f4 63 8b 19
       -2.6204572e-23 1.382741e-23 1.6467635e-23 1.4412634e-23
000150 72 6f 41 9a 30 cb 32 18 db dc 05 9a fe 86 23 9a
       -4.000149e-23 2.3108544e-24 -2.768216e-23 -3.3816656e-23
000160 f0 23 79 1a b2 91 67 1a 26 91 e0 b1 3c fe 03 9b
       5.1521023e-23 4.7887372e-23 -6.5357595e-09 -1.0918214e-22
000170 ae 6f cd a4 6c 00 3b 21 a3 82 52 b0 c0 08 ce 19
       -8.909377e-17 6.3358623e-19 -7.65832e-10 2.1303435e-23
000180 18 e2 94 1a 0a 06 47 9c fd 24 b5 9b 16 f8 12 1d
       6.157664e-23 -6.585138e-22 -2.9967841e-22 1.9451197e-21
000190 a2 bb 7a 1b 90 e0 7a 1b 5c be 40 1b 5e 1b b7 1b
       2.0740143e-22 2.0752075e-22 1.5943376e-22 3.0292496e-22
0001a0 42 f2 66 1c b4 e7 bd 1b e3 fa 9c a4 c8 62 3e 1c
       7.6413727e-22 3.1417162e-22 -6.8079234e-17 6.29934e-22
0001b0 5b 06 6f 26 8e b9 bf 1b 57 7b 38 9b 6e 51 07 b7
       8.2928395e-16 3.1718211e-22 -1.5259977e-22 -8.065586e-06
0001c0 10 57 93 99 ad 14 89 1d 86 ba e3 9b b3 57 b7 1f
       -1.5234608e-23 3.6284976e-21 -3.7674538e-22 7.76486e-20
0001d0 62 82 16 b6 af 2a 96 1d 6e f9 c8 9b a7 31 78 1a
       -2.2427635e-06 3.9748803e-21 -3.3248415e-22 5.1325307e-23
0001e0 20 fe 04 19 22 0b 06 19 35 f0 33 1a 64 09 56 1b
       6.87556e-24 6.929886e-24 3.721037e-23 1.77047e-22
0001f0 de 69 47 9a b6 88 07 1b 8b 38 95 1a 74 65 0d 99
       -4.1237754e-23 1.1211112e-22 6.1716306e-23 -7.3100174e-24
000200 30 c2 f7 99 c8 e4 01 1b ea 57 f4 19 5b d6 a5 99
       -2.5617633e-23 1.0744553e-22 2.5264517e-23 -1.7147178e-23
000210 18 60 10 1b ee e2 e2 9b 2c 65 c3 19 17 0e 2b 9a
       1.194245e-22 -3.7535214e-22 2.020339e-23 -3.5373353e-23
000220 5b 83 fd 1b f1 c9 d0 9b f5 c0 f5 9b 9a 67 71 1b
       4.1940225e-22 -3.4541215e-22 -4.0656546e-22 1.9968528e-22
000230 7e a5 52 9b ce 52 f8 99 2f 17 67 9a 40 3b 7e 17
       -1.7424266e-22 -2.5676044e-23 -4.7788408e-23 8.214661e-25
000240 d4 56 f0 19 28 f7 c3 1a de 36 76 9a c6 f5 b0 1b
       2.4850488e-23 8.104941e-23 -5.091593e-23 2.9275585e-22
000250 28 38 06 1c 23 87 5a 1b 14 d5 99 1a 7a c1 7f 19
       4.440946e-22 1.8076202e-22 6.362356e-23 1.3222263e-23
000260 54 20 f2 9a a8 2f 8c 9b 84 68 2b 1a ac f1 b4 1a
       -1.0014108e-22 -2.3191854e-22 3.5446398e-23 7.48367e-23
000270 aa 02 6b 9a 03 50 77 19 5e de 24 1a 44 ef 9f 9b
       -4.8599013e-23 1.2785759e-23 3.4094032e-23 -2.6458965e-22
000280 9e 6f de 1a ac 50 eb 18 f4 6f 74 99 95 a2 7f 1b
       9.1997375e-23 6.0827534e-24 -1.2637113e-23 2.1145639e-22
000290 06 2c 2e 9a dc 81 81 18 65 4b ee 9b 01 b2 a2 9c
       -3.601792e-23 3.3476843e-24 -3.942252e-22 -1.0766274e-21
0002a0 27 72 91 9b 1c 78 75 1c ac fe 92 99 eb 27 6f 9b
       -2.4062007e-22 8.121894e-22 -1.5198907e-23 -1.9782515e-22
0002b0 20 9b 4e 18 0a 24 f3 19 2d 7e 84 9b 9b 24 00 9b
       2.6703194e-24 2.5140167e-23 -2.1919107e-22 -1.059974e-22
0002c0 a4 09 d8 99 8f ee 8b 9b 60 cd e8 9b 4e cd 4f 9b
       -2.233777e-23 -2.3149786e-22 -3.85139e-22 -1.7188976e-22
0002d0 96 8c 8e 31 39 f2 ec 9b ca 84 8f a4 cc 52 e9 21
       4.1487267e-09 -3.9199458e-22 -6.224132e-17 1.581061e-18
0002e0 f3 a7 19 b0 66 c9 ea 1a 16 18 ac 1a ba 7b 39 1c
       -5.5899746e-10 9.710551e-23 7.1176446e-23 6.137128e-22
0002f0 3c d2 e5 99 09 7d ec 9c fb 70 e5 9a e6 99 88 9c
       -2.3762958e-23 -1.5649491e-21 -9.489471e-23 -9.039507e-22
000300 fd 14 0a 1b 24 66 95 1b 40 c0 81 9b 81 21 03 9c
       1.1421874e-22 2.471599e-22 -2.1465498e-22 -4.3387567e-22
000310 14 19 d0 25 21 13 81 9d 9d dc 08 a6 38 61 a9 1c
       3.6099242e-16 -3.4165795e-21 -4.7483465e-16 1.1208612e-21
000320 21 66 72 9b bc 1c 6b b7 ac 1e 67 1a 69 9a af 1d
       -2.005077e-22 -1.4013782e-05 4.7794457e-23 4.648177e-21
000330 39 eb a4 9b 86 0c 60 20 12 36 02 b6 b4 80 d8 9d
       -2.7283533e-22 1.8977682e-19 -1.9402983e-06 -5.73078e-21
000340 0a 4c 1f 1c 37 47 e3 1a c3 c4 ad 9e 37 69 f2 1a
       5.2706965e-22 9.4000053e-23 -1.8398466e-20 1.0025884e-22
000350 74 f2 74 9a 06 82 cf 9c c6 e9 28 1e e7 06 ba 9b
       -5.065387e-23 -1.3731721e-21 8.942189e-21 -3.077558e-22
000360 74 92 1b 1b 5c 75 51 9b 32 09 d1 1c 1f 15 4d a3
       1.2868621e-22 -1.7325996e-22 1.3832837e-21 -1.1117545e-17
000370 45 76 01 9c c1 0e bf 9a 35 96 06 1c 7f 47 d2 1e
       -4.283538e-22 -7.9019585e-23 4.453102e-22 2.2264185e-20
000380 36 f2 9e 19 96 b9 81 99 d0 11 97 a2 31 05 0e 2b
       1.6434645e-23 -1.3413245e-23 -4.094749e-18 5.045574e-13
000390 3f 97 1c 22 5a c2 b0 26 22 d8 97 1a fa fc b1 25
       2.1222011e-18 1.2265132e-15 6.280132e-23 3.087603e-16
0003a0 56 2a 27 1a 08 13 4b 1b 54 e5 39 9e 3c 58 32 1b
       3.456899e-23 1.6797916e-22 -9.841242e-21 1.4752325e-22
0003b0 0e ca 33 23 30 6f 9d 9c 69 19 95 21 42 78 1d 9c
       9.746396e-18 -1.041813e-21 1.0103359e-18 -5.210237e-22
0003c0 84 53 2e 1f 14 fb d4 1a fc d3 be 99 6d 62 82 9c
       3.6915016e-20 8.8086784e-23 -1.973116e-23 -8.628121e-22
0003d0 55 b5 f8 9d b8 ee 0a 9b 6c d0 04 9b 78 30 09 1b
       -6.5832546e-21 -1.1492227e-22 -1.0986129e-22 1.1348035e-22
0003e0 b0 37 a6 1c bb f2 59 a4 71 82 48 1c 8d 30 e6 1a
       1.0999353e-21 -4.7259975e-17 6.634304e-22 9.520421e-23
0003f0 40 6b 0e 1c 54 86 0e 20 d0 a6 10 19 be 4e 11 9a
       4.7122476e-22 1.2072313e-19 7.478313e-24 -3.0048905e-23

conv1.bias f4 [30]
000000 84 27 41 bb 42 5c 3d a8 a1 53 03 b7 cf 40 04 b6
       -0.0029473016 -1.0511613e-14 -7.82768e-06 -1.9707256e-06
000010 7d e3 a9 ba a9 ae f4 9d 6d 2f 6e 20 ff e4 4b a8
       -0.0012961474 -6.4766857e-21 2.0175076e-19 -1.1318419e-14
000020 34 9f f8 af 3d a4 c2 b7 45 8a e6 a2 92 74 b2 b6
       -4.5224058e-10 -2.3203082e-05 -6.2488023e-18 -5.318384e-06
000030 dc 81 f1 a4 19 bd 0a b5 70 3a 67 9d aa c8 92 b8
       -1.0473708e-16 -5.168418e-07 -3.0602807e-21 -6.999199e-05
000040 2c 56 b2 b9 a6 df 89 ba 4e 91 f5 b9 42 8f ac b9
       -0.0003401501 -0.0010518923 -0.00046838302 -0.00032913132
000050 e9 bd c8 a4 92 32 31 bb e5 1e b2 a4 f7 af 47 b9
       -8.7057894e-17 -0.00270382 -7.724753e-17 -0.00019043671
000060 10 36 e2 b4 8a 87 dd b8 9d 2d b2 bb 2a fc b9 b7
       -4.2135116e-07 -0.00010563347 -0.0054375664 -2.2171142e-05
000070 99 da ad b6 ea 02 68 a8
       -5.18125e-06 -1.2879219e-14

conv2.weight f4 [30, 10]
000000 6d 0c a2 1b 09 74 a1 b7 df a3 53 a1 47 d4 92 1d
       2.6808682e-22 -1.9246729e-05 -7.170646e-19 3.8865368e-21
000010 b5 87 e0 af 20 b7 d1 1b 45 30 49 1b 41 fa 84 39
       -4.0841788e-10 3.4694491e-22 1.6641927e-22 0.00025363456
000020 28 e7 3b 3b ba aa 56 1a 4a 44 b3 99 3a f2 5a 9a
       0.0028671715 4.4392075e-23 -1.8535748e-23 -4.5277012e-23
000030 80 a2 28 18 ee 53 19 9a 3c 42 87 99 9c b6 47 19
       2.1795533e-24 -3.1707456e-23 -1.3985425e-23 1.03249365e-23
000040 ec 97 02 98 9a 15 81 1c 4a fe c3 1c 1c 9e 91 99
       -1.6878807e-24 8.542088e-22 1.296975e-21 -1.5056508e-23
000050 82 e6 48 9a 46 dd 5a b9 4b a9 ca a4 85 a2 9a 9e
       -4.1545233e-23 -0.00020872531 -8.789033e-17 -1.63726e-20
000060 14 ed 77 b3 f2 54 93 9b 49 f3 5d 1b 85 c5 88 3a
       -5.772479e-08 -2.4374005e-22 1.8359301e-22 0.0010434842
000070 26 81 ad bb 4d 91 03 9a e0 7a 66 98 c6 98 5f b7
       -0.0052949367 -2.7207538e-23 -2.978884e-24 -1.3327406e-05
000080 f2 cc f9 a0 c6 55 d2 9d 38 98 96 b3 ff e4 9a 9b
       -4.2317862e-19 -5.5675225e-21 -7.012608e-08 -2.5625148e-22
000090 00 31 94 1b 08 0f 63 39 80 07 cd b8 e0 ed 3a 99
       2.4516212e-22 0.00021654007 -9.776559e-05 -9.664013e-24
0000a0 80 7d 98 98 3c e1 09 b0 34 96 74 9c 0b cb db 1c
       -3.94178e-24 -5.0160387e-10 -8.092696e-22 1.454469e-21
0000b0 bc 02 b6 b1 c3 da 8a 1a 60 47 a5 9a a6 de 5e 34
       -5.297208e-09 5.742889e-23 -6.835771e-23 2.075636e-07
0000c0 bd 5f ea b7 34 2d 10 9a cd c4 49 19 60 db 74 17
       -2.7939555e-05 -2.9815017e-23 1.04312e-23 7.911754e-25
0000d0 fa e0 bb 99 28 e2 9a 98 0c 49 e8 9a 90 b5 52 17
       -1.9426214e-23 -4.0036426e-24 -9.6070965e-23 6.8083824e-25
0000e0 1a 9d e0 99 ac 57 f9 98 9b 63 b4 1a 40 ad 08 17
       -2.322451e-23 -6.4453517e-24 7.4607176e-23 4.416264e-25
0000f0 44 08 7e 19 1e 05 35 19 46 5a 77 19 59 76 96 1b
       1.31331615e-23 9.358514e-24 1.2787831e-23 2.48919e-22
000100 4d 62 e3 9d 85 91 38 1a 41 49 83 1e 07 b7 54 9b
       -6.018804e-21 3.8167858e-23 1.3900462e-20 -1.7595368e-22
000110 ce 54 9a 1f d5 37 b1 19 16 6c 00 1a 9f 79 1c 9f
       6.5361835e-20 1.8323921e-23 2.655709e-23 -3.3134888e-20
000120 e8 c5 8f 9b 2a 52 1a 1b 84 02 af 99 94 2c 55 19
       -2.378526e-22 1.276513e-22 -1.8095592e-23 1.1020844e-23
000130 b4 97 a7 98 c4 bf 5f a1 90 3e 27 2b 0d 3a df 19
       -4.332167e-24 -7.580914e-19 5.941714e-13 2.3081106e-23
000140 68 75 f2 19 1c 73 7d 9a 27 ff 52 19 f4 7a 9b 9a
       2.5069634e-23 -5.2412158e-23 1.0908273e-23 -6.430514e-23
000150 48 3d 6b a1 4c eb 92 19 e2 11 9b 9a 42 3e 32 9a
       -7.97022e-19 1.5191082e-23 -6.413539e-23 -3.685983e-23
000160 96 b8 3e a4 a4 bf a0 99 7a 8c 31 35 bd 98 69 b7
       -4.1356033e-17 -1.6621015e-23 6.614206e-07 -1.3923444e-05
000170 45 97 1a 20 b0 a7 08 1b 68 c8 cd 21 09 2b 8d b3
       1.3094358e-19 1.1303839e-22 1.3944387e-18 -6.573652e-08
000180 22 41 c5 9a e1 0a 71 3b 97 ff 4b 3c 3f 8e 49 a0
       -8.158252e-23 0.0036780166 0.012451074 -1.7072428e-19
000190 0b 81 6b 1a 80 ed ec 95 77 3a e1 19 fd 90 fa 19
       4.87011e-23 -9.569435e-26 2.3288068e-23 2.5907954e-23
0001a0 64 71 11 1b fc ef b1 19 c4 3a 5c 9a 6b 13 02 1a
       1.2030757e-22 1.83983e-23 -4.5542404e-23 2.6899056e-23
0001b0 84 85 77 1a 10 ca c5 98 58 5d 6c 19 40 27 6e 98
       5.1186256e-23 -5.1127337e-24 1.2219765e-23 -3.0780595e-24
0001c0 b6 18 80 9a 81 a2 b3 1a 6e ba 0f 1a 3a 92 22 1c
       -5.297948e-23 7.4295204e-23 2.9722304e-23 5.3790297e-22
0001d0 c9 6c 8f 99 03 c4 a4 b4 cf 36 0f 36 04 0a da 98
       -1.4829791e-23 -3.0689998e-07 2.1340563e-06 -5.6361792e-24
0001e0 0c fd 02 9a 8c 61 65 9a 98 5d a3 98 67 83 6d 1b
       -2.708778e-23 -4.7434888e-23 -4.2229018e-24 1.9646639e-22
0001f0 a9 4f a3 a1 96 c8 32 9a 0c f4 2d 1a a0 cc a6 99
       -1.1066395e-18 -3.697157e-23 3.59727e-23 -1.7246645e-23
000200 c2 9a b8 23 ca 0d 0e 19 4e 46 04 19 58 1f 6e 98
       2.0014862e-17 7.344013e-24 6.838438e-24 -3.0776604e-24
000210 5c 3e c2 98 d3 19 a9 1b 02 76 7a 21 e0 05 d7 97
       -5.021079e-24 2.7975393e-22 8.4859477e-19 -1.3895532e-24
000220 44 3b d0 1a a0 9a d8 96 bb 43 a8 a0 1a f7 93 19
       8.612253e-23 -3.4994264e-25 -2.8505127e-19 1.5299247e-23
000230 28 e5 c3 98 06 5c 4d 9a 5e 55 a2 99 65 0d f3 17
       -5.0637707e-24 -4.2467342e-23 -1.6784887e-23 1.5706888e-24
000240 2d 12 ac 19 18 f7 31 19 02 3b 3f 1a d1 c8 96 9a
       1.7791724e-23 9.200586e-24 3.954554e-23 -6.236298e-23
000250 20 e8 64 98 a0 87 84 99 88 94 55 2d fd 41 9c 19
       -2.9585502e-24 -1.3703259e-23 1.2140629e-11 1.6156674e-23
000260 7a 17 c5 19 32 ed d4 99 28 a5 ad 99 ff d9 07 a8
       2.0378805e-23 -2.2016089e-23 -1.7954487e-23 -7.541276e-15
000270 4c 9b b2 99 80 79 c4 b5 26 6e 55 b6 6d de d3 9c
       -1.8467493e-23 -1.4638499e-06 -3.1803588e-06 -1.4020304e-21
000280 8f 61 c3 19 89 e7 7a 9c 45 30 5b 1b 3a 76 97 9d
       2.0201931e-23 -8.3017313e-22 1.8130852e-22 -4.009161e-21
000290 28 58 d3 b5 f6 5a 00 19 5f 71 9f 9a bb ed 29 9c
       -1.5746382e-06 6.635814e-24 -6.594402e-23 -5.622467e-22
0002a0 b6 7f fa 36 a5 43 37 9a 29 6a 26 19 66 8e bd 19
       7.465448e-06 -3.7898156e-23 8.603438e-24 1.9599656e-23
0002b0 a9 e5 80 19 8c 23 05 9a 52 4c b3 26 f2 0c e6 19
       1.3327649e-23 -2.753247e-23 1.2441307e-15 2.3786671e-23
0002c0 64 43 07 9b 92 70 81 99 08 cd 16 a6 74 28 99 99
       -1.1188713e-22 -1.3383754e-23 -5.2319573e-16 -1.5836168e-23
0002d0 d1 a6 14 1e 6f 1a 1c ba 95 08 11 26 20 df 20 9f
       7.8695516e-21 -0.00059548666 5.031861e-16 -3.4065883e-20
0002e0 45 f9 80 b1 52 8a 9a a0 21 bd e9 1a 1f 87 9e 3b
       -3.753629e-09 -2.6180147e-19 9.6672096e-23 0.004837885
0002f0 99 3e 94 3c df c2 86 1a 90 e9 ee 18 80 b5 ba 99
       0.018096255 5.573593e-23 6.1757396e-24 -1.9305257e-23
000300 22 3a 94 99 2e 16 22 1b 01 c7 7b 29 36 9e ec 99
       -1.5326321e-23 1.3407493e-22 5.5905804e-14 -2.4465729e-23
000310 c0 2f f1 9a 9b c1 a6 99 f5 73 6b 28 17 52 b6 99
       -9.975241e-23 -1.7242194e-23 1.3070265e-14 -1.8851515e-23
000320 a8 fd 08 1a 7b 80 41 1a 6f 9a a8 19 44 cf 7a 9a
       2.8329043e-23 4.001525e-23 1.7433168e-23 -5.1866216e-23
000330 77 ee e6 1a 87 94 49 1a b0 a0 c4 19 20 4e 73 9a
       9.551103e-23 4.1685805e-23 2.0330826e-23 -5.031433e-23
000340 c8 67 ee 1a 80 f6 e5 16 39 54 03 1f 62 f2 03 b4
       9.860216e-23 3.7152509e-25 2.7809996e-20 -1.2288504e-07
000350 c6 64 b3 9c ec 67 07 9c cd f4 0b 1b a3 46 3b 9d
       -1.1871276e-21 -4.480207e-22 1.157691e-22 -2.4785762e-21
000360 64 4e 44 1a 54 84 d8 36 2f e5 fd b8 31 fa 0d 1b
       4.0595173e-23 6.4527067e-06 -0.00012106669 1.1744088e-22
000370 4e b7 f9 9b ca 54 a3 99 87 0a b4 19 f1 08 a8 1b
       -4.1312052e-22 -1.6888051e-23 1.8615816e-23 2.7799047e-22
000380 71 67 0f a1 96 ec 77 19 08 53 d8 9a 4c 6e d2 9c
       -4.858719e-19 1.2817379e-23 -8.946965e-23 -1.3925145e-21
000390 d3 66 06 a1 6e db ef 99 2a 9c 34 1a 15 c6 62 1a
       -4.5537053e-19 -2.4800648e-23 3.7349276e-23 4.6895714e-23
0003a0 c9 71 25 1a ec 7d 08 99 38 5d 43 9a 3c 1d 9a 9a
       3.4213115e-23 -7.056465e-24 -4.0400356e-23 -6.374014e-23
0003b0 ae 6d ed 99 db e2 ca a8 78 59 97 ab 18 43 24 19
       -2.4549525e-23 -2.2524888e-14 -1.0754028e-12 8.492151e-24
0003c0 38 b9 0f 1a c4 6c 14 99 79 9b 51 1a bb c4 46 1b
       2.9721325e-23 -7.673386e-24 4.3345777e-23 1.6441743e-22
0003d0 60 5e 11 9b f0 f6 b1 19 93 de 65 1a 04 8d 72 19
       -1.2024613e-22 1.8401108e-23 4.7535884e-23 1.2539585e-23
0003e0 a8 35 b9 1b e6 a6 32 19 6c 11 b1 a0 52 bd 8a b2
       3.0640357e-22 9.236089e-24 -2.9996495e-19 -1.6151407e-08
0003f0 ef f3 20 1d 4a 47 ac 9b f1 6a 81 1b 26 cf 23 a0
       2.1301934e-21 -2.8501083e-22 2.141037e-22 -1.3875177e-19

conv2.bias f4 [10]
000000 a6 0e 5f bb d6 d5 3e bb dd 52 1c af 08 e6 8c b0
       -0.003403583 -0.0029119155 -1.4217556e-10 -1.025172e-09
000010 9b 3f 82 bc 12 9e 33 ba ee 84 63 bd fb cb 04 bc
       -0.01589947 -0.00068518624 -0.055546694 -0.008105273
000020 5e 1a 42 ba 29 6f 28 b5
       -0.0007404442 -6.2746636e-07

rnn.weight_ih_l0 f4 [30, 1]
000000 69 6a 91 3e fa 60 1f be be 43 5b 3e 9c f8 48 be
       0.28401497 -0.15564337 0.2141256 -0.19626087
000010 b5 6b 62 be 7d 24 dc bd 0b e5 4f be 76 68 84 3e
       -0.221114 -0.10749147 -0.20302217 0.25860947
000020 74 74 4d be f1 31 75 3e 47 5d 37 bb f5 be 23 be
       -0.20063955 0.23944832 -0.0027979182 -0.15990813
000030 5a 8b 31 3f a7 a2 21 be 5a 41 49 be 03 55 5d be
       0.6935326 -0.15784703 -0.19653836 -0.2161446
000040 9a a1 26 3f 83 84 6c 3e 63 24 8e 3d 61 ab 9a be
       0.65090334 0.23097424 0.06940534 -0.30208877
000050 eb 84 8b be 16 90 18 3f bf ac 01 be 2b f4 85 be
       -0.27249846 0.5959486 -0.12663554 -0.26162848
000060 67 96 be 3d 13 75 08 bf 19 0a 2b 3f e2 fc c5 be
       0.09306031 -0.5330364 0.6681228 -0.38669497
000070 b5 60 94 be 20 d9 94 3e
       -0.28980032 0.29071903
