colagnn-master-Run-Epi/src/save/cola_gnn_epi.us_regions.w-20.h-1.RNN.lam-0.1.epo-500.pt (torch, 52278 bytes, 32 tensors)

V f4 [15]
0	0x3f09d88e	0.5384606
1	0x3eb6f931	0.35736993
2	0x276ea5a6	3.3118933e-15
3	0xbeda8118	-0.42676616
4	0xbebfe203	-0.3747712
5	0xbf54dee2	-0.8315259
6	0xa0bfa054	-3.2462755e-19
7	0x3ef06d1b	0.4695824
8	0xa29a1fc3	-4.1775413e-18
9	0x3be8340e	0.0070862835
10	0xb0da46d2	-1.5881716e-09
11	0x3e4c14e1	0.1992984
12	0xa87122e0	-1.338575e-14
13	0x3ef5fadf	0.48042962
14	0xbbaa864c	-0.0052039977

W1 f4 [15, 30]
0	0xbd1a5f2b	-0.037688415
1	0xbca7cba2	-0.020482842
2	0x3d192df1	0.03739733
3	0xbd1b02f0	-0.0378446
4	0xbd19c639	-0.037542555
5	0xbbe5674c	-0.0070008393
6	0x3d1b0807	0.037849452
7	0xbd1a9d4f	-0.037747677
8	0xbd1b03c1	-0.037845377
9	0xbd4174b4	-0.047230437
10	0x3d1a967b	0.037741166
11	0x3d1b62c2	0.03793598
12	0x3d15fa85	0.036615867
13	0xbd191d8a	-0.037381686
14	0xbd1acf96	-0.037795626
15	0x3d2246e8	0.039618403
16	0xbd403343	-0.046923887
17	0xbd4ab982	-0.04949332
18	0x3d2552d8	0.04036221
19	0x3d19e21a	0.037569143
20	0xbd17fd41	-0.037106756
21	0x3d50e942	0.051003702
22	0xbce7e4dd	-0.028307373
23	0x3d1a6e6d	0.037702966
24	0x3d1a4b73	0.03766961
25	0xbc8d636b	-0.01725932
26	0x3d2054d2	0.03914339
27	0x3d1b16c7	0.03786352
28	0xbd1f98ad	-0.038963962
29	0xbd19bbb6	-0.03753253
30	0xbca85889	-0.02055003
31	0xbc8d6c33	-0.017263507
32	0x3ca87acc	0.020566367
33	0xbca83a04	-0.020535477
34	0xbca7d2f1	-0.020486327
35	0xb9d0e5e2	-0.00039844128
36	0x3ca9536f	0.020669667
37	0xbca8c0af	-0.020599691
38	0xbca921d2	-0.02064601
39	0xbd2daa5d	-0.0423988
40	0x3ca37b74	0.019956328
41	0x3c8584d1	0.016298683
42	0x3ca74f24	0.02042348
43	0xbca807c8	-0.020511523
44	0xbca72e2e	-0.020407762
45	0x3ca5475c	0.020175628
46	0xbc2ee808	-0.010675438
47	0xbbcc0e7d	-0.006227313
48	0x3cad71f6	0.021172505
49	0x3ca8b0e2	0.020592157
50	0xbca518d1	-0.020153435
51	0x3bf241e3	0.007393108
52	0xbc364e6c	-0.011127096
53	0x3ca8442d	0.020540321
54	0x3ca8fe49	0.020629065
55	0xbc0cb1c1	-0.008587302
56	0x3ca91b41	0.020642878
57	0x3ca9231e	0.020646628
58	0xbc9c3f73	-0.019073224
59	0xbca65da0	-0.020308316
60	0x2647a359	6.926337e-16
61	0x2634a7a6	6.267725e-16
62	0xa6452aa8	-6.8405915e-16
63	0x264881b5	6.9564725e-16
64	0x2646f48a	6.902646e-16
65	0xa5a331e2	-2.8309795e-16
66	0xa64a5c48	-7.0207893e-16
67	0x26492bb5	6.979512e-16
68	0x264996c9	6.9940236e-16
69	0x2719b63d	2.1331807e-15
70	0xa647610e	-6.917353e-16
71	0xa646ad7f	-6.893018e-16
72	0xa6472d8f	-6.910374e-16
73	0x264783b9	6.922051e-16
74	0x2647d4f6	6.933061e-16
75	0xa6473fa9	-6.912827e-16
76	0xa4b2cb6f	-7.7539825e-17
77	0x2647be31	6.929975e-16
78	0xa61b9ed5	-5.3991685e-16
79	0xa645fa81	-6.86876e-16
80	0x264602a1	6.869861e-16
81	0xa641e304	-6.726799e-16
82	0xa618cc12	-5.301216e-16
83	0xa6488df1	-6.9581306e-16
84	0xa64488a2	-6.818633e-16
85	0xa609af7c	-4.776925e-16
86	0xa644b781	-6.8249854e-16
87	0xa6463550	-6.87673e-16
88	0xa4d40277	-9.194452e-17
89	0x26434d32	6.7758835e-16
90	0x3ce77851	0.028255614
91	0x3c74d3d2	0.01494308
92	0xbce6227c	-0.028092615
93	0x3ce90d38	0.028448686
94	0x3ce80c42	0.028326157
95	0x3c96f7af	0.018428652
96	0xbceaf1da	-0.028679777
97	0x3ce88b01	0.028386595
98	0x3ce8de82	0.028426412
99	0x3cf1d20d	0.029519105
100	0xbcf08c98	-0.029363915
101	0xbd1c10e6	-0.038102053
102	0xbce04fc6	-0.027381789
103	0x3ce79a69	0.02827187
104	0x3ce93b2a	0.028470594
105	0xbcec3747	-0.028834952
106	0x3cb0d788	0.021587148
107	0x3d8d94e3	0.069131635
108	0xbceedff6	-0.029159527
109	0xbce79149	-0.02826752
110	0x3ce61725	0.028087208
111	0xbd923af2	-0.07140149
112	0x3ba75930	0.0051070675
113	0xbce9165b	-0.028453043
114	0xbce287a6	-0.027652573
115	0x3c92db0a	0.017926712
116	0xbcec0e56	-0.02881543
117	0xbce8cf8e	-0.028419282
118	0x3d68961f	0.05678379
119	0x3ce8d7d7	0.028423233
120	0x3d435126	0.04768481
121	0x3d1e42e2	0.038638003
122	0xbd41835c	-0.047244415
123	0x3d439da0	0.047757745
124	0x3d42bf40	0.04754567
125	0x3bb1a7b5	0.0054216036
126	0xbd47ebce	-0.048808865
127	0x3d43715c	0.04771553
128	0x3d438de7	0.04774275
129	0x3d50f541	0.051015142
130	0xbd44ba77	-0.04802939
131	0xbd4a6d4c	-0.04942064
132	0xbd3e2f7a	-0.046431996
133	0x3d421a70	0.047388494
134	0x3d43a855	0.047767956
135	0xbd471844	-0.048607126
136	0x3d4c7bba	0.049922682
137	0x3d2d64ec	0.042332575
138	0xbd3992f3	-0.045306157
139	0xbd429f94	-0.047515467
140	0x3d418072	0.047241636
141	0xbd13f98f	-0.03612667
142	0xbb77ac9e	-0.0037792097
143	0xbd4378c9	-0.04772261
144	0xbd435b71	-0.047694627
145	0x3c7b08dd	0.015321937
146	0xbd490ff1	-0.04908747
147	0xbd438105	-0.047730464
148	0xbd9046cd	-0.07044754
149	0x3d43a5c8	0.047765523
150	0x3e40151a	0.1875805
151	0x3de0a0bb	0.10968157
152	0xbe3edd6c	-0.18639153
153	0x3e40ea0f	0.18839286
154	0x3e3fe7af	0.18740724
155	0x3d82a9c0	0.063800335
156	0xbe411be1	-0.18858291
157	0x3e40a3dd	0.18812509
158	0x3e411ecf	0.18859409
159	0x3e489460	0.1958785
160	0xbe3edd0d	-0.18639012
161	0xbe41a2eb	-0.18909805
162	0xbe3ac815	-0.18240388
163	0x3e3f203f	0.18664645
164	0x3e40bb98	0.18821561
165	0xbe418de3	-0.18901782
166	0x3e38bc5b	0.18040602
167	0x3e41da07	0.18930827
168	0xbe4306c7	-0.19045554
169	0xbe3fd4e4	-0.18733555
170	0x3e3d8d44	0.1851092
171	0xbe3e9045	-0.18609722
172	0x3db0f382	0.086401954
173	0xbe408146	-0.18799314
174	0xbe3e87cc	-0.1860649
175	0x3d937071	0.07199181
176	0xbe41847e	-0.18898198
177	0xbe412470	-0.18861556
178	0x3df4a40a	0.119453505
179	0x3e3faaa6	0.18717441
180	0x20d6910b	3.6348992e-19
181	0x208e9012	2.4151073e-19
182	0xa0d644e9	-3.629861e-19
183	0x20d819b5	3.6608835e-19
184	0x20d75b17	3.6482695e-19
185	0x1f7f9762	5.412357e-20
186	0xa0d88683	-3.6680836e-19
187	0x20d7d67a	3.6564345e-19
188	0x20d8924b	3.6688632e-19
189	0x21ea791e	1.5888516e-18
190	0xa0d65bb5	-3.6313697e-19
191	0xa0d84937	-3.6640273e-19
192	0xa0d28a14	-3.5666756e-19
193	0x20d68613	3.6341733e-19
194	0x20d7c093	3.6549852e-19
195	0xa0d89c98	-3.6695448e-19
196	0x205b4260	1.8571983e-19
197	0x20d7b3b9	3.6541347e-19
198	0xa0d76950	-3.6492107e-19
199	0xa0d73f59	-3.6464337e-19
200	0x20d4fea2	3.60827e-19
201	0xa0d32c7f	-3.5774235e-19
202	0x1fa2904e	6.88484e-20
203	0xa0d7ae36	-3.65377e-19
204	0xa0d5442d	-3.6128719e-19
205	0x1fb7e552	7.7882893e-20
206	0xa0d89804	-3.669242e-19
207	0xa0d89216	-3.6688495e-19
208	0x209ed4a1	2.6906947e-19
209	0x20dc26b4	3.729506e-19
210	0xbd30129c	-0.042986497
211	0xbcd21557	-0.025644941
212	0x3d2f371c	0.042777166
213	0xbd310b62	-0.043223746
214	0xbd300c99	-0.042980764
215	0xbc2214a7	-0.009892619
216	0x3d31430d	0.043276835
217	0xbd30bb6b	-0.043147486
218	0xbd313f1a	-0.04327307
219	0xbd467d0c	-0.048459098
220	0x3d30ead9	0.04319272
221	0x3d313566	0.043263815
222	0x3d2bc96a	0.04194013
223	0xbd2f6142	-0.04281736
224	0xbd30c9ac	-0.04316108
225	0x3d37fb26	0.04491725
226	0xbd1e0fa9	-0.038589153
227	0xbd6dc3d9	-0.058048103
228	0x3d364b4b	0.0445054
229	0x3d300d11	0.04298121
230	0xbd2e3aa6	-0.0425364
231	0x3d7925e1	0.06082714
232	0xbc89e5c3	-0.016833192
233	0x3d3095a8	0.043111473
234	0x3d2f61c7	0.042817857
235	0xbc99a9fe	-0.018757816
236	0x3d35fb82	0.04442931
237	0x3d313e1f	0.043272134
238	0xbdbb85b2	-0.0915636
239	0xbd304cc5	-0.043041963
240	0xa13bb24a	-6.359403e-19
241	0xa0b55dbe	-3.0724626e-19
242	0x213be28c	6.3657897e-19
243	0xa13d847c	-6.421103e-19
244	0xa13d2287	-6.4081387e-19
245	0xa03aebac	-1.583279e-19
246	0x213e081e	6.4385247e-19
247	0xa13d4dfb	-6.4138897e-19
248	0xa13e0de3	-6.4392883e-19
249	0xa2383f78	-2.497025e-18
250	0x213c61ae	6.3826156e-19
251	0x213de62e	6.434033e-19
252	0x2137d6c6	6.228706e-19
253	0xa13c555b	-6.3809845e-19
254	0xa13d40b3	-6.412132e-19
255	0x213e194e	6.4407994e-19

b1 f4 [15]
0	0xbd1b0186	-0.03784325
1	0xbca99ee3	-0.020705646
2	0x264a46f8	7.017901e-16
3	0x3ce8ce1b	0.028418591
4	0x3d4384ac	0.047733948
5	0x3e411b39	0.18858041
6	0x20d88dd2	3.6685672e-19
7	0xbd313db5	-0.04327174
8	0xa13e0985	-6.4387103e-19
9	0xba3402e9	-0.0006866889
10	0x321279f7	8.52605e-09
11	0xbc4b86d0	-0.0124222785
12	0xa71b007a	-2.151083e-15
13	0xbd2cb255	-0.04216226
14	0x3a9d0e73	0.0011982456

W2 f4 [15, 30]
0	0xbd19328e	-0.03740173
1	0xbd05b1b3	-0.03264017
2	0x3d18c679	0.037298653
3	0xbd1a7f0b	-0.037718814
4	0xbd193b33	-0.037409972
5	0x3dd2a0e5	0.102845944
6	0x3d1b0938	0.03785059
7	0xbd1a4bd3	-0.037669968
8	0xbd1b0369	-0.03784505
9	0xbd41978e	-0.047263674
10	0x3d188281	0.037233833
11	0x3d1b2317	0.03787526
12	0x3d15cb43	0.0365708
13	0xbd18659b	-0.037206274
14	0xbd1a6b35	-0.037699897
15	0x3d22d5b4	0.039754584
16	0x3e239b40	0.15977192
17	0xbd48d3aa	-0.049029984
18	0x3d25242a	0.04031769
19	0x3d194a50	0.037424386
20	0xbd16b45f	-0.03679311
21	0x3d4930ee	0.04911893
22	0xbe053b44	-0.1301089
23	0x3d1a1ece	0.037627034
24	0x3d18ff83	0.03735305
25	0xbd888d1d	-0.0666754
26	0x3d1fd6fe	0.039023392
27	0x3d1adb71	0.037806932
28	0xbedc80d0	-0.43067026
29	0xbd1a5898	-0.037682146
30	0xbca794bf	-0.02045667
31	0xbc9f7eab	-0.01946958
32	0x3ca88a00	0.020573616
33	0xbca80cf6	-0.020513993
34	0xbca7f230	-0.020501226
35	0x3cb37096	0.021904271
36	0x3ca945d1	0.020663174
37	0xbca8a6c4	-0.020587333
38	0xbca94af1	-0.020665618
39	0xbd3ddf6a	-0.046355642
40	0x3ca52b64	0.020162292
41	0x3c85cb04	0.016332157
42	0x3ca7752b	0.020441612
43	0xbca809ca	-0.02051248
44	0xbca70e3b	-0.020392528
45	0x3ca565d1	0.020190151
46	0x3d6da97d	0.058022965
47	0xbbc68867	-0.006058741
48	0x3cad24b7	0.021135671
49	0x3ca8ad5b	0.020590475
50	0xbca51122	-0.020149771
51	0x3bcf0cc6	0.0063186614
52	0xbcfa8480	-0.030580759
53	0x3ca8299a	0.02052765
54	0x3ca870c0	0.020561576
55	0xbc970383	-0.018434292
56	0x3ca8af4b	0.020591399
57	0x3ca92e7c	0.020652048
58	0xbd2fe5db	-0.042943817
59	0xbca6bb14	-0.020352878
60	0x2648ceff	6.966947e-16
61	0x265d4570	7.6768883e-16
62	0xa6456579	-6.8485626e-16
63	0x264b3cdf	7.051227e-16
64	0x264943d6	6.982782e-16
65	0xa5e59a28	-3.9829628e-16
66	0xa64a167a	-7.011329e-16
67	0x26497588	6.989517e-16
68	0x264b0ed2	7.044986e-16
69	0xa7331618	-2.4853217e-15
70	0xa6454b9e	-6.8450585e-16
71	0xa648fc5f	-6.9730966e-16
72	0xa644a5d6	-6.822591e-16
73	0x26462fa0	6.8759594e-16
74	0x264a6faa	7.023416e-16
75	0xa646412a	-6.8783363e-16
76	0x26c94525	1.3965918e-15
77	0x26481aed	6.942543e-16
78	0xa6243a8d	-5.697828e-16
79	0xa646557b	-6.8810897e-16
80	0x2644940d	6.8201806e-16
81	0xa6427a89	-6.7473337e-16
82	0xa5ed48fa	-4.1162397e-16
83	0xa6482408	-6.943777e-16
84	0xa646f0c9	-6.9021374e-16
85	0xa59636a4	-2.6057878e-16
86	0xa645ca1b	-6.862201e-16
87	0xa64601a0	-6.869725e-16
88	0x2568a1ac	2.0177569e-16
89	0x2643698c	6.779726e-16
90	0x3ce40fd4	0.027839579
91	0x3c89b229	0.016808586
92	0xbce72afe	-0.028218742
93	0x3ce8254d	0.028338099
94	0x3ce88b0d	0.028386617
95	0xbcb0ea0e	-0.021595981
96	0xbceae273	-0.028672433
97	0x3ce7d219	0.028298425
98	0x3ce8ddb6	0.028426033
99	0x3cf0bbb9	0.029386388
100	0xbced115a	-0.028938938
101	0xbd173589	-0.03691629
102	0xbce2e18c	-0.02769544
103	0x3ce81312	0.028329406
104	0x3ce86047	0.028366221
105	0xbcec5514	-0.028849162
106	0xbe3ae8e5	-0.18252905
107	0x3d86a45d	0.065743186
108	0xbcf24392	-0.029573236
109	0xbce7fb77	-0.02831815
110	0x3ce78aad	0.028264368
111	0xbd8f6cd7	-0.070031814
112	0x3d7cda95	0.061731894
113	0xbce87e02	-0.028380398
114	0xbcdda9c2	-0.027058486
115	0x3cb0c98a	0.021580476
116	0xbce98798	-0.028507039
117	0xbce8945a	-0.028391052
118	0x3db9e446	0.09076743
119	0x3ce8d2ef	0.028420893
120	0x3d416337	0.04721376
121	0x3d148ccd	0.03626709
122	0xbd42c58c	-0.047551677
123	0x3d431f33	0.047637176
124	0x3d4327b5	0.04764529
125	0xbd75a3a1	-0.0599705
126	0xbd47d3a5	-0.048785824
127	0x3d430827	0.047615197
128	0x3d438419	0.0477334
129	0x3d4fbe73	0.050718736
130	0xbd457956	-0.048211418
131	0xbd49ce5d	-0.04926907
132	0xbd4101b0	-0.04712075
133	0x3d428d82	0.047498234
134	0x3d4331be	0.04765486
135	0xbd474f26	-0.048659466
136	0xbe007c81	-0.12547494
137	0x3d4455be	0.047933333
138	0xbd3e45ec	-0.0464534
139	0xbd43507d	-0.04768418
140	0x3d42b820	0.047538877
141	0xbd30722c	-0.043077633
142	0x3d81340e	0.06308757
143	0xbd432336	-0.047641
144	0xbd3f1e59	-0.0466598
145	0xbaca4104	-0.0015430753
146	0xbd472852	-0.048622437
147	0xbd43837e	-0.047732823
148	0x3e0c5510	0.13704324
149	0x3d435db5	0.047696788
150	0x3e3f1578	0.18660533
151	0x3e08ace2	0.133472
152	0xbe3efe37	-0.18651663
153	0x3e408f5a	0.18804684
154	0x3e3f981c	0.18710369
155	0xbe06fe25	-0.13182886
156	0xbe411b44	-0.18858057
157	0x3e4067db	0.18789618
158	0x3e411428	0.18855345
159	0x3e4852ce	0.19562837
160	0xbe3de9b5	-0.18546183
161	0xbe41630a	-0.18885437
162	0xbe3b6f07	-0.18304072
163	0x3e3ec9b4	0.18631631
164	0x3e407728	0.18795455
165	0xbe41938d	-0.18903942
166	0xbede2436	-0.43387002
167	0x3e41ca3a	0.189248
168	0xbe43a3e8	-0.19105494
169	0xbe3fb59d	-0.18721624
170	0x3e3cd88c	0.18441981
171	0xbe3ae9d1	-0.18253256
172	0x3eb02538	0.34403396
173	0xbe40555f	-0.18782566
174	0xbe3c769f	-0.18404625
175	0x3e0bf78c	0.1366865
176	0xbe40b662	-0.18819574
177	0xbe410ab4	-0.18851739
178	0x3f1ab42a	0.6043116
179	0x3e3ff82e	0.18747017
180	0x20d61f3a	3.6273674e-19
181	0x20a8df55	2.8608096e-19
182	0xa0d60f20	-3.626302e-19
183	0x20d7c20e	3.6550831e-19
184	0x20d6cfc4	3.6390498e-19
185	0xa0a23460	-2.7478526e-19
186	0xa0d88d72	-3.6685424e-19
187	0x20d7b692	3.6543232e-19
188	0x20d88412	3.667922e-19
189	0xa1aac6a2	-1.1572226e-18
190	0xa0d523b4	-3.610723e-19
191	0xa0d80c04	-3.6599775e-19
192	0xa0d29116	-3.5671394e-19
193	0x20d6076b	3.625792e-19
194	0x20d78b40	3.6514565e-19
195	0xa0d8a404	-3.670036e-19
196	0xa0f25a6a	-4.1056226e-19
197	0x20d7b5bf	3.6542686e-19
198	0xa0d78f98	-3.651744e-19
199	0xa0d6e49e	-3.6404296e-19
200	0x20d3f8ff	3.5909562e-19
201	0xa0d05270	-3.5291123e-19
202	0x21130cb6	4.982236e-19
203	0xa0d78be5	-3.651499e-19
204	0xa0d44f24	-3.5966568e-19
205	0x209042a5	2.443865e-19
206	0xa0d82e98	-3.6622656e-19
207	0xa0d876ed	-3.6670522e-19
208	0x2171ab55	8.188073e-19
209	0x20ddfa7f	3.760462e-19
210	0xbd2fc757	-0.042914715
211	0xbd0dfd72	-0.034665532
212	0x3d2eae2b	0.04264657
213	0xbd30cb59	-0.043162677
214	0xbd2f6bd5	-0.042827446
215	0x3d84f815	0.064926304
216	0x3d314422	0.043277867
217	0xbd309928	-0.04311481
218	0xbd313f40	-0.04327321
219	0xbd468852	-0.04846985
220	0x3d2ee87f	0.042702194
221	0x3d30fced	0.04320996
222	0x3d2b2733	0.04178543
223	0xbd2e936c	-0.04262106
224	0xbd309bb6	-0.043117248
225	0x3d388a1c	0.045053586
226	0x3d7ecbb8	0.062206
227	0xbd6ad4cc	-0.057331845
228	0x3d363877	0.044487443
229	0x3d2f736b	0.04283468
230	0xbd2caa7d	-0.042154778
231	0x3d72f9b9	0.059320185
232	0xbdac95fd	-0.084270455
233	0x3d306de4	0.04307355
234	0x3d2f6c1b	0.042827707
235	0xbd7abf3b	-0.061217528
236	0x3d363945	0.04448821
237	0x3d311bec	0.04323952
238	0xbe73388c	-0.2375204
239	0xbd30dc4b	-0.043178838
240	0xa13ecb66	-6.46437e-19
241	0xa0f1eeed	-4.0985096e-19
242	0x213a0f0c	6.3039166e-19
243	0xa13e075f	-6.438426e-19
244	0xa13b4899	-6.3454147e-19
245	0xa0a2f848	-2.7608166e-19
246	0x213e0878	6.438571e-19
247	0xa13dd72d	-6.4320474e-19
248	0xa13e058d	-6.438185e-19
249	0x21b42350	1.2206622e-18
250	0x2138be1f	6.259325e-19
251	0x213d6c88	6.417933e-19
252	0x213444bd	6.1077347e-19
253	0xa13a6fe3	-6.316733e-19
254	0xa13dbd3e	-6.428615e-19
255	0x213e1b1d	6.441039e-19

Wb f4 [29, 29]
0	0x3ea502d4	0.3222872
1	0x3d600007	0.054687526
2	0x3e935e70	0.28782988
3	0x3e88a5ac	0.26688898
4	0x3d486037	0.048919883
5	0x3e9654b8	0.2936151
6	0x3dce967f	0.100872986
7	0xbdbb2541	-0.09137965
8	0xbe3eac26	-0.18620357
9	0x3dd1288e	0.10212813
10	0xbea5fc8b	-0.32419237
11	0x3d1816e0	0.03713119
12	0xbdc1681b	-0.09443685
13	0xbe56b150	-0.20966077
14	0xbe331a9d	-0.17490621
15	0xbe71d08a	-0.23614708
16	0x3d94698c	0.07246694
17	0xbcb8dd32	-0.022566412
18	0xbd6f78ce	-0.058464818
19	0x3e405e7a	0.1878604
20	0x3e283622	0.164269
21	0xbdf6cfe5	-0.120513715
22	0xbdf722b1	-0.12067164
23	0x3d606d96	0.05479201
24	0xbd6e1672	-0.058126874
25	0xbc9edc8f	-0.01939228
26	0xbe6045c1	-0.21901609
27	0xbe89a0aa	-0.2688039
28	0x3d44c3d8	0.048038334
29	0x3ea4f3d8	0.32217288
30	0x3d5f1586	0.054463886
31	0x3e93b5bc	0.2884959
32	0x3e88a245	0.26686302
33	0x3d48022d	0.0488302
34	0x3e9693bf	0.29409596
35	0x3dcd759f	0.100322
36	0xbdba68a1	-0.09101988
37	0xbe3ecfcd	-0.18633957
38	0x3dd0cdf8	0.101955354
39	0xbea4e8ee	-0.3220896
40	0x3d198166	0.03747692
41	0xbdbc64ad	-0.0919889
42	0xbe55b4ae	-0.20869705
43	0xbe3367c8	-0.17520058
44	0xbe722521	-0.23646976
45	0x3d9461d0	0.07245219
46	0xbcb84ef0	-0.022498578
47	0xbd70cb2f	-0.05878752
48	0x3e40f948	0.18845093
49	0x3e296e2c	0.16545933
50	0xbdf68ace	-0.12038194
51	0xbdf6d2c0	-0.12051916
52	0x3d59daf9	0.053187344
53	0xbd6e76e7	-0.058218863
54	0xbc985bc0	-0.018598437
55	0xbe5e13eb	-0.21687286
56	0xbe888746	-0.26665705
57	0x3d4b5a76	0.049646817
58	0x3ea4de2b	0.3220075
59	0x3d5e058e	0.054204516
60	0x3e932193	0.28736553
61	0x3e88e96d	0.2674059
62	0x3d47aa86	0.04874661
63	0x3e968f63	0.2940627
64	0x3dce5810	0.1007539
65	0xbdb9c827	-0.09071379
66	0xbe3ed086	-0.18634233
67	0x3dd1449e	0.10218166
68	0xbea4d666	-0.32194823
69	0x3d18153c	0.037129626
70	0xbdbd7a54	-0.09251848
71	0xbe54b1ba	-0.20770922
72	0xbe3322a8	-0.17493689
73	0xbe71a3b9	-0.23597611
74	0x3d950fec	0.072784275
75	0xbcb85496	-0.022501271
76	0xbd702887	-0.0586324
77	0x3e4255ca	0.18978038
78	0x3e2b010d	0.1669962
79	0xbdf66f91	-0.12032998
80	0xbdf6d2dd	-0.12051938
81	0x3d584447	0.05279949
82	0xbd6f2d9c	-0.058393106
83	0xbc9a6698	-0.018847749
84	0xbe5dfd36	-0.21678624
85	0xbe880bbe	-0.2657146
86	0x3d468564	0.048467055
87	0x3ea4e552	0.32206208
88	0x3d5f5bde	0.05453097
89	0x3e937d78	0.28806663
90	0x3e887176	0.26649064
91	0x3d487a0d	0.04894452
92	0x3e967ff1	0.29394487
93	0x3dcf1dd8	0.10113114
94	0xbdbb68cf	-0.0915085
95	0xbe3eab50	-0.18620038
96	0x3dd0fb1d	0.10204146
97	0xbea6167b	-0.32439026
98	0x3d182370	0.03714317
99	0xbdbed770	-0.09318435
100	0xbe560ff2	-0.2090452
101	0xbe335c30	-0.17515635
102	0xbe71b3e2	-0.23603776
103	0x3d93ecdf	0.07222914
104	0xbcb7dd5a	-0.022444416
105	0xbd6f852c	-0.058476612
106	0x3e40e462	0.18837121
107	0x3e287614	0.16451293
108	0xbdf6a867	-0.12043839
109	0xbdf72301	-0.12067223
110	0x3d61011c	0.0549327
111	0xbd6ea9ba	-0.058267333
112	0xbc9bdfaf	-0.01902756
113	0xbe605ec5	-0.21911152
114	0xbe8967de	-0.26837057
115	0x3d45cede	0.048292987
116	0x3ea4d791	0.32195714
117	0x3d5f8781	0.054572586
118	0x3e9477eb	0.2899774
119	0x3e889e5d	0.26683322
120	0x3d4875b5	0.04894038
121	0x3e967685	0.29387298
122	0x3dcd1f7b	0.1001577
123	0xbdba3edc	-0.09094021
124	0xbe3e3276	-0.18573937
125	0x3dd44521	0.10364748
126	0xbea49a52	-0.32148987
127	0x3d1a5332	0.037676997
128	0xbdba6549	-0.0910135
129	0xbe5566ff	-0.20840071
130	0xbe33f5b0	-0.17574191
131	0xbe730cba	-0.23735324
132	0x3dae6f89	0.085173674
133	0xbcb7a950	-0.022419602
134	0xbd70bb82	-0.05877257
135	0x3e41f8c8	0.18942559
136	0x3e29cbb0	0.16581607
137	0xbdf5f00d	-0.12008677
138	0xbdf741fc	-0.120731324
139	0x3d56de6e	0.05245822
140	0xbd70bae8	-0.058771998
141	0xbc97ccf2	-0.018530343
142	0xbe5dea08	-0.21671307
143	0xbe885e5f	-0.266345
144	0x3d4e870d	0.050421763
145	0x3ea5077e	0.3223228
146	0x3d60044b	0.054691594
147	0x3e937f21	0.2880793
148	0x3e88b01d	0.26696864
149	0x3d48662e	0.04892557
150	0x3e9687a0	0.2940035
151	0x3dcef666	0.101055905
152	0xbdbc2eb4	-0.091885954
153	0xbe3eb5c0	-0.1862402
154	0x3dd12b11	0.102132924
155	0xbea6055d	-0.32425967
156	0x3d18a2c0	0.037264585
157	0xbdbd988c	-0.09257612
158	0xbe566e70	-0.20940566
159	0xbe33d55e	-0.17561862
160	0xbe71cde8	-0.23613703
161	0x3d95398e	0.07286368
162	0xbcb89302	-0.022531036
163	0xbd6e951d	-0.058247674
164	0x3e40a78a	0.18813911
165	0x3e28370a	0.16427246
166	0xbdf6c3ec	-0.12049088
167	0xbdf6796c	-0.12034878
168	0x3d5d1806	0.05397799
169	0xbd6db0c9	-0.058029924
170	0xbc9d61d2	-0.019211683
171	0xbe607de7	-0.21923028
172	0xbe8977d5	-0.26849237
173	0x3d455aca	0.048182286
174	0x3ea538bc	0.32269847
175	0x3d6023b6	0.054721557
176	0x3e93799b	0.28803715
177	0x3e889ecf	0.2668366
178	0x3d4887d3	0.048957657
179	0x3e969244	0.29408467
180	0x3dcffc79	0.10155577
181	0xbdbc8f34	-0.09207001
182	0xbe3ec0e2	-0.18628266
183	0x3dd1372d	0.10215602
184	0xbea61311	-0.32436422
185	0x3d1870a8	0.037216812
186	0xbdbb342f	-0.091408126
187	0xbe567ed3	-0.20946817
188	0xbe33bc2d	-0.17552252
189	0xbe71f089	-0.23626913
190	0x3d95ae6e	0.073086604
191	0xbcb935aa	-0.022608597
192	0xbd704e8b	-0.058668654
193	0x3e40ca9e	0.18827292
194	0x3e281559	0.16414393
195	0xbdf6dede	-0.12054227
196	0xbdf6a63e	-0.12043427
197	0x3d58c961	0.052926425
198	0xbd6e2364	-0.05813922
199	0xbc9dc207	-0.019257559
200	0xbe60ce3d	-0.21953674
201	0xbe89a34c	-0.26882398
202	0x3d44be0c	0.048032805
203	0x3ea4d03b	0.32190117
204	0x3d5f9d72	0.05459351
205	0x3e93832a	0.28811008
206	0x3e891629	0.2677472
207	0x3d486def	0.048932966
208	0x3e969af1	0.29415086
209	0x3dce7997	0.10081785
210	0xbdbbe6b8	-0.091748655
211	0xbe3ebbd4	-0.18626338
212	0x3dd14ae1	0.1021936
213	0xbea5c115	-0.32373872
214	0x3d180515	0.03711422
215	0xbdbc6930	-0.091997504
216	0xbe547f90	-0.20751786
217	0xbe335083	-0.17511182
218	0xbe720dc5	-0.23638065
219	0x3d943e29	0.072384186
220	0xbcb9a9d4	-0.022663988
221	0xbd702fe3	-0.05863942
222	0x3e422028	0.18957579
223	0x3e29b594	0.16573173
224	0xbdf6da67	-0.12053376
225	0xbdf71ebd	-0.1206641
226	0x3d58a215	0.05288895
227	0xbd6eaa26	-0.058267735
228	0xbc9bbd68	-0.019011214
229	0xbe5f9540	-0.21834278
230	0xbe88dc93	-0.26730785
231	0x3d45e91a	0.048318006
232	0x3ea4aaca	0.32161552
233	0x3d5ef3fe	0.054431908
234	0x3e93f58a	0.2889827
235	0x3e88888c	0.26666677
236	0x3d47e4bc	0.048802122
237	0x3e9697dc	0.29412735
238	0x3dcdbf4a	0.10046251
239	0xbdba0e31	-0.09084738
240	0xbe3e1f3d	-0.18566604
241	0x3dd4b856	0.10386722
242	0xbea46405	-0.3210756
243	0x3d19ef2d	0.03758161
244	0xbdbb8ecc	-0.09158096
245	0xbe5486ea	-0.2075459
246	0xbe32d94a	-0.17465702
247	0xbe7269de	-0.23673198
248	0x3daf292e	0.08552776
249	0xbcb646e0	-0.022250593
250	0xbd715d76	-0.058927022
251	0x3e42a362	0.19007638
252	0x3e2a892f	0.16653894
253	0xbdf58c18	-0.119896114
254	0xbdf68e98	-0.12038916
255	0x3d57963a	0.0526335

conv.weight f4 [10, 1, 20]
0	0x80001cc8	-1.0325e-41
1	0x00001c2e	1.0109e-41
2	0x80000a28	-3.643e-42
3	0x000015b5	7.787e-42
4	0x80000bee	-4.28e-42
5	0x800013ef	-7.151e-42
6	0x00001fd6	1.142e-41
7	0x800022a5	-1.2428e-41
8	0x00001717	8.283e-42
9	0x00001f0a	1.1135e-41
10	0x00001be5	1.0007e-41
11	0x80001e06	-1.077e-41
12	0x00001e35	1.0836e-41
13	0x800019a7	-9.202e-42
14	0x80001ef8	-1.111e-41
15	0x800018d0	-8.901e-42
16	0x00001e62	1.09e-41
17	0x80002163	-1.1977e-41
18	0x0000080f	2.891e-42
19	0x00001c9b	1.0262e-41
20	0x00000c38	4.383e-42
21	0x80000082	-1.82e-43
22	0x00000d89	4.855e-42
23	0x000001b0	6.05e-43
24	0x00001679	8.062e-42
25	0x00000ecb	5.307e-42
26	0x80002072	-1.1639e-41
27	0x80002207	-1.2207e-41
28	0x00001dc9	1.0685e-41
29	0x000015f4	7.875e-42
30	0x00001546	7.631e-42
31	0x8000216f	-1.1994e-41
32	0x80001847	-8.709e-42
33	0x80001e25	-1.0814e-41
34	0x000020cf	1.177e-41
35	0x000006e7	2.476e-42
36	0x8000027c	-8.91e-43
37	0x80000035	-7.4e-44
38	0x00001e73	1.0923e-41
39	0x80000c60	-4.44e-42
40	0x80000aa4	-3.817e-42
41	0x00001f45	1.1217e-41
42	0x00000a18	3.621e-42
43	0x00000ca9	4.542e-42
44	0x80000177	-5.25e-43
45	0x00000209	7.3e-43
46	0x00001314	6.844e-42
47	0x000003a8	1.312e-42
48	0x00001868	8.755e-42
49	0x00000c23	4.354e-42
50	0x80000b71	-4.104e-42
51	0x00000e8b	5.217e-42
52	0x8000064f	-2.263e-42
53	0x00001118	6.132e-42
54	0x80001b30	-9.753e-42
55	0x000010b4	5.992e-42
56	0x00001d7f	1.0581e-41
57	0x800019a3	-9.197e-42
58	0x00001135	6.173e-42
59	0x0000171d	8.291e-42
60	0x00001e88	1.0953e-41
61	0x000066d7	3.6892e-41
62	0x0000610a	3.4811e-41
63	0x000020ac	1.172e-41
64	0x00006da1	3.9327e-41
65	0x80011ed3	-1.02893e-40
66	0x00000cb5	4.558e-42
67	0x800004d1	-1.728e-42
68	0x00001ee0	1.1076e-41
69	0x00002078	1.1648e-41
70	0x800011fd	-6.453e-42
71	0x80000ef2	-5.361e-42
72	0x800001a0	-5.83e-43
73	0x80000bf6	-4.291e-42
74	0x00001101	6.1e-42
75	0x00001fb8	1.1379e-41
76	0x8000096c	-3.38e-42
77	0x000017a2	8.478e-42
78	0x00000ba5	4.177e-42
79	0x80000c35	-4.379e-42
80	0x8000199a	-9.184e-42
81	0x800004fe	-1.791e-42
82	0x00001d32	1.0473e-41
83	0x0000009e	2.21e-43
84	0x00000e80	5.202e-42
85	0x000002fe	1.073e-42
86	0x00000f8b	5.576e-42
87	0x0000169b	8.11e-42
88	0x80001922	-9.016e-42
89	0x800004c7	-1.714e-42
90	0x80000ed0	-5.314e-42
91	0x000004bb	1.697e-42
92	0x80000337	-1.153e-42
93	0x80001661	-8.028e-42
94	0x00001c5b	1.0172e-41
95	0x000013ba	7.077e-42
96	0x00001c9d	1.0265e-41
97	0x80000c86	-4.493e-42
98	0x80001912	-8.994e-42
99	0x80000a00	-3.587e-42
100	0x80001c35	-1.0119e-41
101	0x800010ae	-5.984e-42
102	0x00001e81	1.0943e-41
103	0x80001b23	-9.735e-42
104	0x800016e6	-8.214e-42
105	0x00001728	8.307e-42
106	0x00000ab7	3.844e-42
107	0x00000bb7	4.202e-42
108	0x00000ab6	3.842e-42
109	0x800014fc	-7.528e-42
110	0x00001e8e	1.0961e-41
111	0x80001c28	-1.01e-41
112	0x80001775	-8.415e-42
113	0x0000224b	1.2302e-41
114	0x00000c35	4.379e-42
115	0x0000180a	8.624e-42
116	0x00000dc3	4.937e-42
117	0x00001d17	1.0435e-41
118	0x80001b13	-9.712e-42
119	0x0000168a	8.085e-42
120	0x000006ac	2.393e-42
121	0x0000019c	5.77e-43
122	0x80001382	-6.998e-42
123	0x80001ee9	-1.1088e-41
124	0x00001275	6.621e-42
125	0x000000ce	2.89e-43
126	0x0000136e	6.97e-42
127	0x000013f0	7.152e-42
128	0x8000127b	-6.63e-42
129	0x00000f0a	5.395e-42
130	0x00000967	3.373e-42
131	0x00001232	6.527e-42
132	0x000002c3	9.91e-43
133	0x000000f0	3.36e-43
134	0x0000200a	1.1493e-41
135	0x80000d9e	-4.885e-42
136	0x000022c8	1.2477e-41
137	0x800004c1	-1.705e-42
138	0x00000dab	4.903e-42
139	0x00000bc1	4.217e-42
140	0x9e4a9af4	-1.07258345e-20
141	0x9e2a50de	-9.016448e-21
142	0x21ca25a8	1.369802e-18
143	0xa0a34e5c	-2.7665128e-19
144	0xa25c3aa7	-2.984661e-18
145	0xa305b896	-7.249032e-18
146	0xa542825c	-1.6870985e-16
147	0xa3b3048d	-1.9409146e-17
148	0xa46c1f4d	-5.1200855e-17
149	0xa481ce78	-5.6294604e-17
150	0xa2280453	-2.2770535e-18
151	0xa6a99cd8	-1.1769243e-15
152	0xa51f46ef	-1.3815085e-16
153	0xa5f4968f	-4.2429275e-16
154	0xa3d8ab0e	-2.3491211e-17
155	0xa2ecb124	-6.4155483e-18
156	0x9d709ac2	-3.1843743e-21
157	0x1e0c7c03	7.437183e-21
158	0x1bd02e16	3.4440496e-22
159	0x98bd2f77	-4.8903282e-24
160	0x000010b3	5.99e-42
161	0x800017be	-8.517e-42
162	0x8000127a	-6.628e-42
163	0x00001ccb	1.0329e-41
164	0x80001ab9	-9.586e-42
165	0x00001651	8.006e-42
166	0x80001e85	-1.0948e-41
167	0x80001248	-6.558e-42
168	0x00000a2c	3.649e-42
169	0x80001565	-7.675e-42
170	0x0000080e	2.89e-42
171	0x80001701	-8.252e-42
172	0x80001666	-8.035e-42
173	0x000020b3	1.173e-41
174	0x80002083	-1.1663e-41
175	0x8000161a	-7.929e-42
176	0x800008f5	-3.213e-42
177	0x00001466	7.318e-42
178	0x80001ccc	-1.033e-41
179	0x000022cc	1.2483e-41
180	0x00082a2e	7.49815e-40
181	0x0006bd36	6.18889e-40
182	0x00046203	4.02502e-40
183	0x0008c0f3	8.03901e-40
184	0x8007ae43	-7.05362e-40
185	0x800b0206	-1.010916e-39
186	0x8006c939	-6.23198e-40
187	0x0005823b	5.05895e-40
188	0x00086f61	7.74639e-40
189	0x000dca4e	1.266435e-39
190	0x800a5a90	-9.50843e-40
191	0x000a2eb9	9.35116e-40
192	0x0007ed78	7.28036e-40
193	0x8008cd9f	-8.08447e-40
194	0x0009435f	8.50688e-40
195	0x800c7cb8	-1.146767e-39
196	0x00029e05	2.40358e-40
197	0x00160fe3	2.02608e-39
198	0x8002ba29	-2.50453e-40
199	0x800c766a	-1.144505e-39

conv.bias f4 [10]
0	0xb209a3ed	-8.011722e-09
1	0xa5c0fc41	-3.3477625e-16
2	0x1b3e0d3c	1.5720708e-22
3	0x800018a4	-8.84e-42
4	0xaca81d90	-4.7781293e-12
5	0x1d00a302	1.7024932e-21
6	0x995622c2	-1.107056e-23
7	0xb92f357b	-0.00016709224
8	0xa9c19998	-8.597566e-14
9	0x0030f6cf	4.496642e-39

conv_long.weight f4 [10, 1, 10]
0	0x110c538a	1.1069795e-28
1	0x9aea0112	-9.678186e-23
2	0xa31c1ead	-8.463273e-18
3	0x1da5e02d	4.390693e-21
4	0x196b0c04	1.2151642e-23
5	0x9bbcbc6d	-3.1223758e-22
6	0xa80aaa8b	-7.6975195e-15
7	0xaf999e07	-2.7942823e-10
8	0xb331faef	-4.1439247e-08
9	0x3632ac5a	2.6624389e-06
10	0x000aba36	9.85155e-40
11	0x800797e2	-6.97334e-40
12	0x0005af51	5.22069e-40
13	0x000f5c6a	1.410684e-39
14	0x8011b5d3	-1.62643e-39
15	0x8013e4ad	-1.826908e-39
16	0x001596b2	1.982605e-39
17	0x00207595	2.980916e-39
18	0x801b5f9d	-2.513858e-39
19	0x80016e16	-1.31327e-40
20	0x80000fe7	-5.705e-42
21	0x00001fa6	1.1353e-41
22	0x8000177f	-8.429e-42
23	0x0000023f	8.06e-43
24	0x80002307	-1.2565e-41
25	0x800003d6	-1.376e-42
26	0x800015ce	-7.822e-42
27	0x8000011b	-3.97e-43
28	0x00001ad0	9.619e-42
29	0x8000eb08	-8.4313e-41
30	0x00001525	7.585e-42
31	0x00000faf	5.626e-42
32	0x00001ff2	1.146e-41
33	0x80001afe	-9.683e-42
34	0x00001cf6	1.0389e-41
35	0x0000bbac	6.7324e-41
36	0x8018efd0	-2.29008e-39
37	0x00f166ef	2.216928e-38
38	0x00c6f900	1.8272753e-38
39	0x056849a9	1.0922117e-35
40	0x0072508e	1.0498144e-38
41	0x825679ea	-1.5757225e-37
42	0x01669b18	4.2355603e-38
43	0x003e0ce5	5.698426e-39
44	0x80514b6a	-7.465729e-39
45	0x80a5bf51	-1.5221488e-38
46	0x80642478	-9.196632e-39
47	0x80845c23	-1.2155338e-38
48	0x8099c684	-1.4122045e-38
49	0x80432b06	-6.168412e-39
50	0x0000173d	8.336e-42
51	0x80001bc6	-9.963e-42
52	0x80001650	-8.004e-42
53	0x0000212b	1.1898e-41
54	0x80001dd2	-1.0698e-41
55	0x80002218	-1.223e-41
56	0x000170d3	1.32309e-40
57	0x00003a68	2.0952e-41
58	0x80001c91	-1.0248e-41
59	0x0000966e	5.3964e-41
60	0x80000090	-2.02e-43
61	0x80001511	-7.557e-42
62	0x00001b1d	9.726e-42
63	0x00001ad9	9.631e-42
64	0x000008c1	3.14e-42
65	0x80000209	-7.3e-43
66	0x800089b4	-4.9399e-41
67	0x000009cc	3.514e-42
68	0x000006d3	2.448e-42
69	0x00002bc2	1.5697e-41
70	0x000253cf	2.13736e-40
71	0x0000ba50	6.6836e-41
72	0x00009baa	5.5842e-41
73	0x80000677	-2.319e-42
74	0x00005171	2.9216e-41
75	0x00001c1b	1.0082e-41
76	0x00000cc6	4.582e-42
77	0x000008c5	3.146e-42
78	0x8000ee10	-8.5401e-41
79	0x0006053f	5.52895e-40
80	0x8000040e	-1.455e-42
81	0x80002161	-1.1974e-41
82	0x000020d2	1.1774e-41
83	0x00001681	8.073e-42
84	0x00000baa	4.184e-42
85	0x80001ef8	-1.111e-41
86	0x000029b6	1.4963e-41
87	0x80001d30	-1.047e-41
88	0x80001d86	-1.0591e-41
89	0x8000187f	-8.788e-42
90	0x0002f185	2.70312e-40
91	0x80009e5d	-5.681e-41
92	0x00004a56	2.6667e-41
93	0x0001cdf6	1.6572e-40
94	0x00012a8d	1.071e-40
95	0x800190aa	-1.43731e-40
96	0x8001b9b8	-1.58459e-40
97	0x00014ebc	1.2008e-40
98	0x80010e3d	-9.6943e-41
99	0x80006ed9	-3.9765e-41

conv_long.bias f4 [10]
0	0xba7075f0	-0.00091728475
1	0x86a17bfd	-6.0743653e-35
2	0xb60da289	-2.1105245e-06
3	0xb7a6ddde	-1.9892057e-05
4	0x8147f46a	-3.6725886e-38
5	0xb8b84b11	-8.787786e-05
6	0x800018b6	-8.865e-42
7	0x00010432	9.334e-41
8	0x916ef7d0	-1.8851253e-28
9	0x8dc9aa8e	-1.2428641e-30

conv1.weight f4 [30, 30]
0	0x0e892db2	3.381711e-30
1	0x80000064	-1.4e-43
2	0x80006e4a	-3.9564e-41
3	0x80001c82	-1.0227e-41
4	0x0c6c9b51	1.8227518e-31
5	0x00009f84	5.7223e-41
6	0x80000e30	-5.09e-42
7	0x80001d41	-1.0494e-41
8	0x800016df	-8.205e-42
9	0x00006d8f	3.9302e-41
10	0x800017cd	-8.538e-42
11	0x80001727	-8.305e-42
12	0x80001d1f	-1.0447e-41
13	0x00001e82	1.0944e-41
14	0x8001ddeb	-1.71445e-40
15	0x80002114	-1.1866e-41
16	0x00f3d56d	2.2392588e-38
17	0x0001918b	1.44046e-40
18	0x028a9991	2.036542e-37
19	0x80006f7d	-3.9994e-41
20	0x800014e8	-7.5e-42
21	0x9d2dfbf7	-2.3026622e-21
22	0x8000ad55	-6.218e-41
23	0x000283d7	2.30966e-40
24	0x8000152f	-7.599e-42
25	0x800017af	-8.496e-42
26	0x8ff4c94a	-2.4137791e-29
27	0x00000c64	4.445e-42
28	0x80001d3f	-1.0492e-41
29	0x8000161d	-7.933e-42
30	0x00000c53	4.421e-42
31	0x00030818	2.7841e-40
32	0x00016712	1.2881e-40
33	0x80015039	-1.20614e-40
34	0x0000164f	8.003e-42
35	0x8015a972	-1.989331e-39
36	0x800144ae	-1.16473e-40
37	0x0009a700	8.86428e-40
38	0x00004929	2.6245e-41
39	0x2adbd0d5	3.904712e-13
40	0x80021964	-1.9278e-40
41	0x0001eb3d	1.76223e-40
42	0x00043810	3.87453e-40
43	0x0000174e	8.36e-42
44	0x00017b0e	1.35979e-40
45	0x85ce75c7	-1.9415411e-35
46	0x00006688	3.6781e-41
47	0x00003df6	2.2227e-41
48	0x03cac06c	1.1916671e-36
49	0x80004846	-2.5927e-41
50	0x00009002	5.166e-41
51	0x860e7cb6	-2.6798855e-35
52	0x0000b42a	6.463e-41
53	0x80001709	-8.263e-42
54	0x8000ac0c	-6.1719e-41
55	0x8001227a	-1.04203e-40
56	0x8001fcc4	-1.82511e-40
57	0x00002857	1.4471e-41
58	0x8000653f	-3.632e-41
59	0x0000a3ea	5.8801e-41
60	0x00001863	8.748e-42
61	0x000019f7	9.314e-42
62	0x0003a782	3.35597e-40
63	0x00010b8f	9.5982e-41
64	0x00001b25	9.738e-42
65	0x000a9280	9.70909e-40
66	0x00aaf708	1.5700652e-38
67	0x00032fe9	2.92693e-40
68	0x0000b217	6.3887e-41
69	0x2a42cc0d	1.7301456e-13
70	0x0001878f	1.40465e-40
71	0x00056c32	4.9799e-40
72	0x000152cb	1.21536e-40
73	0x000125b6	1.05364e-40
74	0x80037cb0	-3.20236e-40
75	0x04b7de52	4.3227262e-36
76	0x00008dbb	5.0843e-41
77	0x80003df3	-2.2223e-41
78	0x830e9128	-4.189668e-37
79	0x0000399d	2.0668e-41
80	0x800062aa	-3.5394e-41
81	0x0292612c	2.1508546e-37
82	0x8003a84f	-3.35884e-40
83	0x000a094d	9.21691e-40
84	0x0001d9d8	1.69983e-40
85	0x8000fe3e	-9.1205e-41
86	0x8000bfa7	-6.8752e-41
87	0x8000538f	-2.9975e-41
88	0x80009116	-5.2047e-41
89	0x8001f0dd	-1.78241e-40
90	0x8b39efa0	-3.5809978e-32
91	0x80000d37	-4.74e-42
92	0x00042ed0	3.84135e-40
93	0x00001b83	9.87e-42
94	0x8b32e441	-3.4453272e-32
95	0x00003607	1.9381e-41
96	0x8000127d	-6.632e-42
97	0x00001e82	1.0944e-41
98	0x000001b4	6.11e-43
99	0x000022db	1.2504e-41
100	0x000005ad	2.036e-42
101	0x000015fd	7.888e-42
102	0x00000c66	4.448e-42
103	0x80001653	-8.008e-42
104	0x00001162	6.236e-42
105	0x00001989	9.16e-42
106	0x0002f5d2	2.71855e-40
107	0x00001cd1	1.0337e-41
108	0x80041fed	-3.78795e-40
109	0x000005bb	2.056e-42
110	0x80000d9b	-4.881e-42
111	0x1c3db4b4	6.276841e-22
112	0x80018832	-1.40693e-40
113	0x80001b92	-9.89e-42
114	0x8000062c	-2.214e-42
115	0x8000107b	-5.912e-42
116	0x95dd5934	-8.9401927e-26
117	0x80000b74	-4.109e-42
118	0x00001ea9	1.0999e-41
119	0x0000023f	8.06e-43
120	0x0000acfe	6.2058e-41
121	0x25466b56	1.7210129e-16
122	0x00003937	2.0525e-41
123	0x8000208c	-1.1676e-41
124	0x80000c4b	-4.41e-42
125	0x800002ed	-1.05e-42
126	0x00006269	3.5303e-41
127	0x800390f5	-3.27507e-40
128	0x00000acc	3.873e-42
129	0x80000848	-2.971e-42
130	0x000019d1	9.261e-42
131	0x3c42d5c6	0.011891788
132	0x8000001b	-3.8e-44
133	0x8000044c	-1.541e-42
134	0x00107145	1.510001e-39
135	0x84439074	-2.298847e-36
136	0x80000449	-1.537e-42
137	0x0000198a	9.162e-42
138	0x80000409	-1.448e-42
139	0x00001631	7.961e-42
140	0x0000148c	7.371e-42
141	0x83457433	-5.8026487e-37
142	0x00024f0d	2.12029e-40
143	0x8003d1b5	-3.50735e-40
144	0x80000bc6	-4.224e-42
145	0x80001c8e	-1.0243e-41
146	0x00000fdf	5.693e-42
147	0x800020a6	-1.1712e-41
148	0x00000bae	4.19e-42
149	0x8000154c	-7.64e-42
150	0x00003757	1.9852e-41
151	0xb5b90e0b	-1.3787661e-06
152	0x0000307d	1.7394e-41
153	0x0000160b	7.908e-42
154	0x00001cb6	1.03e-41
155	0x000030b9	1.7478e-41
156	0x80006c7f	-3.8921e-41
157	0x8008a057	-7.92203e-40
158	0x80001cbc	-1.0308e-41
159	0x00000f0e	5.4e-42
160	0x800012eb	-6.786e-42
161	0xbac05460	-0.0014673583
162	0x80000c74	-4.467e-42
163	0x80001d14	-1.0431e-41
164	0x0002f807	2.72646e-40
165	0x83378bd8	-5.39394e-37
166	0x0000203a	1.1561e-41
167	0x80000abd	-3.852e-42
168	0x80001cae	-1.0288e-41
169	0x8000085a	-2.996e-42
170	0x80000111	-3.83e-43
171	0x02406d95	1.4137381e-37
172	0x80037250	-3.16514e-40
173	0x0016ef42	2.10621e-39
174	0x00000f0d	5.399e-42
175	0x000005cf	2.084e-42
176	0x80000950	-3.34e-42
177	0x80000fb7	-5.637e-42
178	0x00000d99	4.878e-42
179	0x00001b6f	9.841e-42
180	0x0d242710	5.058342e-31
181	0x00000167	5.03e-43
182	0x80001c62	-1.0182e-41
183	0x800013fe	-7.172e-42
184	0x0a037d1f	6.330953e-33
185	0x80000d52	-4.778e-42
186	0x000065db	3.6539e-41
187	0x8000151c	-7.573e-42
188	0x000014d1	7.468e-42
189	0x00001a22	9.375e-42
190	0x80000df2	-5.003e-42
191	0x00001eaf	1.1007e-41
192	0x80001c07	-1.0054e-41
193	0x00000153	4.75e-43
194	0x8000946a	-5.3241e-41
195	0x80000142	-4.51e-43
196	0x00092755	8.40629e-40
197	0x800021f3	-1.2179e-41
198	0x00005c3d	3.3089e-41
199	0x00000005	7e-45
200	0x80001a07	-9.337e-42
201	0x9b1b898d	-1.2865745e-22
202	0x0000163b	7.975e-42
203	0x00001bec	1.0016e-41
204	0x00001033	5.811e-42
205	0x80001a41	-9.418e-42
206	0x93d39302	-5.340885e-27
207	0x00002170	1.1995e-41
208	0x80001a12	-9.352e-42
209	0x00001745	8.348e-42
210	0x800022ac	-1.2438e-41
211	0x000015d5	7.832e-42
212	0x8000228a	-1.239e-41
213	0x00001d8f	1.0604e-41
214	0x80001cf2	-1.0384e-41
215	0x800009d4	-3.526e-42
216	0x800006a4	-2.382e-42
217	0x800006c9	-2.434e-42
218	0x00002067	1.1624e-41
219	0x8006f6e4	-6.3958e-40
220	0x00001dac	1.0644e-41
221	0x800011e0	-6.412e-42
222	0x000022f9	1.2546e-41
223	0x8000532e	-2.9839e-41
224	0x00015001	1.20535e-40
225	0x80001058	-5.863e-42
226	0x0000d939	7.7925e-41
227	0x07137c90	1.1095656e-34
228	0x8003d16e	-3.50636e-40
229	0x805d4cfa	-8.568315e-39
230	0x00000886	3.058e-42
231	0x02099d90	1.0110389e-37
232	0x80008b06	-4.9872e-41
233	0x000015b1	7.781e-42
234	0x80001f8c	-1.1317e-41
235	0x8000174d	-8.359e-42
236	0x00072628	6.56536e-40
237	0x80000a05	-3.594e-42
238	0x00011a39	1.01242e-40
239	0x00002029	1.1537e-41
240	0x80001d1d	-1.0444e-41
241	0x00001df8	1.0751e-41
242	0x00001d24	1.0454e-41
243	0x80001d85	-1.059e-41
244	0x00002045	1.1576e-41
245	0x00000de2	4.98e-42
246	0x80002dd5	-1.6441e-41
247	0x0000019e	5.8e-43
248	0x80001ac2	-9.599e-42
249	0x00057ce1	5.03976e-40
250	0x800016a7	-8.126e-42
251	0x80001f88	-1.1311e-41
252	0x0000215f	1.1971e-41
253	0x00002104	1.1844e-41
254	0x00022c5b	1.99583e-40
255	0x00003789	1.9922e-41

conv1.bias f4 [30]
0	0xb9f4e460	-0.0004670946
1	0x895f701b	-2.689536e-33
2	0x1f01c452	2.7479205e-20
3	0x18023cad	1.683274e-24
4	0xb820af4d	-3.8310234e-05
5	0x0cb239b4	2.7459971e-31
6	0xb08e5655	-1.0356397e-09
7	0x84d02644	-4.8935706e-36
8	0x0a1e021d	7.607821e-33
9	0xbcb626f0	-0.022235364
10	0x04ac898a	4.0563315e-36
11	0x1b4aa72b	1.6763063e-22
12	0x87001990	-9.637162e-35
13	0x16e4ce05	3.6965403e-25
14	0x88976f9f	-9.114224e-34
15	0xba407c7e	-0.00073427695
16	0xa8c42de5	-2.1780275e-14
17	0xadc542a0	-2.2425894e-11
18	0xbb832219	-0.0040018675
19	0xa7f267c6	-6.7281004e-15
20	0x07d17df7	3.152086e-34
21	0xbdb684a2	-0.089120165
22	0x88a62f9a	-1.0001953e-33
23	0xa93983f8	-4.1192717e-14
24	0x8db6e224	-1.1271057e-30
25	0xbacafe2e	-0.0015487128
26	0xb45ec8df	-2.0748438e-07
27	0xa4e75bf8	-1.0033608e-16
28	0x9a76c230	-5.102847e-23
29	0x1b6893f6	1.9238399e-22

conv2.weight f4 [30, 10]
0	0x800006a9	-2.389e-42
1	0x1d4c6c84	2.7055276e-21
2	0x00001abe	9.593e-42
3	0x800021fb	-1.219e-41
4	0x09a27787	3.9112484e-33
5	0xb763110e	-1.3534225e-05
6	0x800068ed	-3.764e-41
7	0x28ffe887	2.841153e-14
8	0xb8886267	-6.503314e-05
9	0x000018f5	8.953e-42
10	0x00208b90	2.988801e-39
11	0x8000f10b	-8.647e-41
12	0x0a4783d0	9.606293e-33
13	0x8652400c	-3.9543664e-35
14	0x0004720f	4.08258e-40
15	0x013ce844	3.469679e-38
16	0xae3238b1	-4.0522866e-11
17	0x00019c0b	1.47813e-40
18	0x02714144	1.7724614e-37
19	0xb8d51faa	-0.00010162529
20	0x80000e07	-5.032e-42
21	0xa8309872	-9.803019e-15
22	0x00009798	5.4382e-41
23	0x80002284	-1.2382e-41
24	0x8e4e7395	-2.5447111e-30
25	0x80000d5e	-4.795e-42
26	0x80001084	-5.925e-42
27	0x2ec9605c	9.1575386e-11
28	0xb5323009	-6.638007e-07
29	0x0000d5e2	7.6727e-41
30	0x8c9e4913	-2.4387734e-31
31	0x1ced1ddf	1.5691066e-21
32	0x80000e0b	-5.038e-42
33	0x1b03ed96	1.0912834e-22
34	0x1002af21	2.5772894e-29
35	0x80001238	-6.536e-42
36	0x00000a94	3.795e-42
37	0x2a0fd0c3	1.277338e-13
38	0x31e8fb34	6.780647e-09
39	0x80018523	-1.39596e-40
40	0x000011f2	6.438e-42
41	0x0c429d38	1.4992528e-31
42	0x000017c9	8.533e-42
43	0x8000170e	-8.27e-42
44	0x8b6f46ab	-4.608289e-32
45	0xb6a27ea8	-4.842721e-06
46	0x8000180e	-8.629e-42
47	0x16974e31	2.4444711e-25
48	0xb7413abe	-1.1517373e-05
49	0x80002043	-1.1573e-41
50	0x83826231	-7.663257e-37
51	0x0003373f	2.95325e-40
52	0x8e11d682	-1.7975912e-30
53	0x89ea5aab	-5.6418715e-33
54	0x800036d9	-1.9676e-41
55	0x837e51ce	-7.47378e-37
56	0x8000384a	-2.0193e-41
57	0x25c51b12	3.4192396e-16
58	0x8407d345	-1.5966184e-36
59	0x8a629e79	-1.09113096e-32
60	0x02b0c1e2	2.597216e-37
61	0x00047ba0	4.1169e-40
62	0x00017904	1.35248e-40
63	0x8000054e	-1.903e-42
64	0x000020bb	1.1741e-41
65	0x04f74d91	5.8140654e-36
66	0x00005d6c	3.3513e-41
67	0x8000a052	-5.7512e-41
68	0x088e7a8c	8.575125e-34
69	0x80020f90	-1.89254e-40
70	0x8001cb7d	-1.64833e-40
71	0x80001e97	-1.0974e-41
72	0x00068b56	6.00997e-40
73	0x82f2b8af	-3.5664707e-37
74	0x80018931	-1.4105e-40
75	0x2a5f2bec	1.9821617e-13
76	0xaaeceea7	-4.208762e-13
77	0x0000157a	7.704e-42
78	0x81d1e823	-7.7107575e-38
79	0x02878c07	1.991684e-37
80	0x816f9594	-4.4004684e-38
81	0x00000a8c	3.784e-42
82	0x0d506522	6.4216683e-31
83	0x000014bb	7.437e-42
84	0x8000d4e3	-7.637e-41
85	0x3a022654	0.0004964818
86	0x80001be6	-1.0008e-41
87	0x0002a3f4	2.42486e-40
88	0x8028ed22	-3.758487e-39
89	0x0002abe5	2.45335e-40
90	0x80001e98	-1.0975e-41
91	0x1dc371c5	5.1733705e-21
92	0x80001f6d	-1.1273e-41
93	0x000016e7	8.216e-42
94	0x80004640	-2.5201e-41
95	0x37eeda1b	2.8473374e-05
96	0xa9601006	-4.975189e-14
97	0xb5355124	-6.754583e-07
98	0x3a0c2239	0.0005345676
99	0x800002e9	-1.044e-42
100	0x8ab8d3e0	-1.7798254e-32
101	0x29083f2c	3.025286e-14
102	0x842f091e	-2.0575338e-36
103	0x80595bfc	-8.206357e-39
104	0x80000d79	-4.833e-42
105	0x0002e4a8	2.65697e-40
106	0x00016ddc	1.31246e-40
107	0x800346b9	-3.00877e-40
108	0x00009f15	5.7068e-41
109	0xa7673ed0	-3.209174e-15
110	0x8e033f40	-1.617745e-30
111	0x00001e56	1.0882e-41
112	0x80005dee	-3.3696e-41
113	0x8000ab23	-6.1392e-41
114	0x8008acec	-7.96717e-40
115	0x80000790	-2.713e-42
116	0x829107ce	-2.1310315e-37
117	0x956d7ce7	-4.79603e-26
118	0x1a988299	6.307672e-23
119	0x2a2e8d54	1.5503338e-13
120	0x0002b6fc	2.49313e-40
121	0x8004adec	-4.29733e-40
122	0x85d727d0	-2.0233128e-35
123	0x8775203c	-1.8441224e-34
124	0x8015120c	-1.93502e-39
125	0x806fb9d1	-1.0260398e-38
126	0x00000361	1.212e-42
127	0x80310fb9	-4.50558e-39
128	0x805caece	-8.511574e-39
129	0xabb3fd00	-1.2788937e-12
130	0x16c7ec7c	3.2299427e-25
131	0x00018203	1.38475e-40
132	0x93877d65	-3.420244e-27
133	0x995b75d8	-1.1345833e-23
134	0x00001dcb	1.0688e-41
135	0x8008673b	-7.71716e-40
136	0x00000d39	4.743e-42
137	0xa6248cb4	-5.708962e-16
138	0x0000116a	6.247e-42
139	0x3a30f605	0.0006750527
140	0xb7088bc9	-8.138778e-06
141	0x31f90570	7.247472e-09
142	0x8b6687ee	-4.439865e-32
143	0x108c8052	5.541797e-29
144	0x0014e2c4	1.918058e-39
145	0x00001fe5	1.1442e-41
146	0x8000b570	-6.5088e-41
147	0x8000e731	-8.2936e-41
148	0x80002c72	-1.5944e-41
149	0xb6957b3e	-4.4548933e-06
150	0x00001725	8.303e-42
151	0x000148d8	1.17967e-40
152	0x8fd5dd00	-2.1088548e-29
153	0x80008e84	-5.1125e-41
154	0x000df512	1.281776e-39
155	0xbada34e9	-0.0016647849
156	0x971391fc	-4.768252e-25
157	0x9bc22c8e	-3.21234e-22
158	0x3b465bf7	0.0030267218
159	0x1c92ff05	9.727391e-22
160	0x8008acfa	-7.96736e-40
161	0x80001000	-5.74e-42
162	0x00000851	2.983e-42
163	0x80001b1c	-9.725e-42
164	0x9906d85e	-6.971333e-24
165	0x8002d454	-2.5984e-40
166	0x800022cd	-1.2484e-41
167	0x00001a0c	9.344e-42
168	0x9cbd2f65	-1.2519222e-21
169	0x8002f908	-2.73007e-40
170	0xb31c12c8	-3.6338662e-08
171	0x800a6e3f	-9.57904e-40
172	0x31facf6a	7.299538e-09
173	0x00000339	1.156e-42
174	0x00588fa7	8.133056e-39
175	0x0001c148	1.61172e-40
176	0x8000379a	-1.9946e-41
177	0x3905d3b5	0.00012762735
178	0x009e473f	1.4535567e-38
179	0x8e62c596	-2.7951785e-30
180	0x000007c9	2.793e-42
181	0xa9e7544a	-1.02730826e-13
182	0x00011482	9.9192e-41
183	0x00001f4e	1.123e-41
184	0x0bee4d1a	9.1790275e-32
185	0x39404a86	0.00018338309
186	0x0ba0a54e	6.187848e-32
187	0x31b48bb4	5.254572e-09
188	0x3a281105	0.00064112275
189	0x80000d91	-4.867e-42
190	0x80023241	-2.01699e-40
191	0x00083af7	7.55837e-40
192	0x0016fa09	2.110077e-39
193	0x800019ae	-9.212e-42
194	0x00f651c6	2.2620867e-38
195	0x0001a80d	1.52121e-40
196	0x00001f66	1.1264e-41
197	0x0003b528	3.40493e-40
198	0x0107d5ea	2.494906e-38
199	0x800b0bf5	-1.01448e-39
200	0x000330de	2.93037e-40
201	0x80061a3b	-5.60423e-40
202	0x873ebcf3	-1.4349538e-34
203	0x8ae59144	-2.210654e-32
204	0x80001ee2	-1.1079e-41
205	0x82df17ec	-3.2780636e-37
206	0x0000888f	4.8988e-41
207	0x000006ba	2.413e-42
208	0x8176ec40	-4.5352565e-38
209	0x0489e13d	3.2415394e-36
210	0x000012c1	6.728e-42
211	0x914f94c0	-1.6375258e-28
212	0x92018b9c	-4.0877305e-28
213	0x80000027	-5.5e-44
214	0x000036f9	1.972e-41
215	0xba0c5b9e	-0.0005354228
216	0x00176a4d	2.15035e-39
217	0x1df8db4c	6.58718e-21
218	0xba3b6053	-0.00071478373
219	0xa0102198	-1.220839e-19
220	0x0002afe3	2.46767e-40
221	0x000fc81e	1.449321e-39
222	0x876cf310	-1.7826096e-34
223	0x8ac8d67a	-1.9339977e-32
224	0x00001e52	1.0877e-41
225	0x8008921d	-7.871e-40
226	0x0000a4d6	5.9132e-41
227	0x2f3af83c	1.7004792e-10
228	0x0002c050	2.5266e-40
229	0x82bd0cfe	-2.7778511e-37
230	0x000031ee	1.7911e-41
231	0x800039b3	-2.0699e-41
232	0x000016fb	8.244e-42
233	0x8002a8c3	-2.44211e-40
234	0x000018be	8.876e-42
235	0x80001067	-5.884e-42
236	0x800088cb	-4.9072e-41
237	0x8457be52	-2.536052e-36
238	0x876b744b	-1.771361e-34
239	0x80000bb0	-4.193e-42
240	0x054a719c	9.518861e-36
241	0xa63bf13b	-6.5205586e-16
242	0x90c5f04f	-7.8073053e-29
243	0x9150dcd9	-1.6476361e-28
244	0x00000e6e	5.176e-42
245	0x00015cab	1.25078e-40
246	0x80003f61	-2.2736e-41
247	0x8005e90a	-5.42776e-40
248	0x80001c12	-1.007e-41
249	0xaa258cea	-1.4703833e-13
250	0x80000823	-2.919e-42
251	0x0c96d9bb	2.32422e-31
252	0x8000114a	-6.202e-42
253	0x800013e1	-7.131e-42
254	0x00000e1f	5.066e-42
255	0x3904deb7	0.00012671469

conv2.bias f4 [10]
0	0xae950928	-6.777362e-11
1	0xb0a5aa79	-1.2053781e-09
2	0xbd6f1492	-0.058369227
3	0xbf0b6654	-0.54453015
4	0xb5d5b62b	-1.5922755e-06
5	0xb803860a	-3.1357667e-05
6	0xb8020e0c	-3.1007497e-05
7	0xba82259d	-0.0009929423
8	0xb883dcc3	-6.287687e-05
9	0xbf00da10	-0.50332737

rnn.weight_ih_l0 f4 [30, 1]
0	0x3dbda9f7	0.09260934
1	0x3da74c22	0.08168818
2	0x3e0409bc	0.12894338
3	0x3db2786d	0.08714376
4	0xbdc22a1b	-0.09480687
5	0x3eacaf91	0.33727697
6	0xb9c2aba5	-0.0003713045
7	0x3db65c41	0.08904315
8	0x3c82c716	0.015964072
9	0x3de38ada	0.11110468
10	0x3d123427	0.035694268
11	0xbc2b1f84	-0.010444526
12	0x3df3b504	0.1189976
13	0xbd807b85	-0.062735595
14	0x3d9c7deb	0.076412044
15	0x37f27528	2.8903203e-05
16	0x40890e1f	4.282974
17	0xbb86f56d	-0.0041186125
18	0x3e97efec	0.29675233
19	0x3dd86844	0.10566762
20	0xbdc63040	-0.09677172
21	0xbe47053e	-0.19435593
22	0xbebcf541	-0.36905864
23	0xbd93db23	-0.072195314
24	0xbd9339fa	-0.071887925
25	0x3e2d0f0f	0.16900276
26	0xbc27ad05	-0.010234122
27	0xbba8c330	-0.0051502213
28	0xbeaeba75	-0.3412663
29	0x3e19e8e5	0.15030248
