colagnn-master-Run-Epi/src/save/cola_gnn_epi.us_states_covid_mov_14.w-20.h-4.RNN.lam-1.0.epo-500.pt (torch, 61046 bytes, 32 tensors)

V f4 [15]
0	0x3cc165ec	0.02360817
1	0xbdc78e21	-0.09743906
2	0xbca1d474	-0.019754626
3	0xbe6eb087	-0.23309527
4	0x3cad40d0	0.02114907
5	0x3a495e1d	0.00076815655
6	0xbd3b6f01	-0.04576016
7	0x3c58d7ee	0.013235075
8	0x3bf7c57a	0.007561383
9	0xbd5fb4ac	-0.05461566
10	0x3dc4cd28	0.09609443
11	0xbf1e7a33	-0.6190521
12	0x3dbf7eff	0.093503945
13	0xbf51a4f1	-0.81892306
14	0xbdff24ee	-0.12458216

W1 f4 [15, 30]
0	0xbb77343d	-0.0037720345
1	0x3aed5fce	0.0018110217
2	0xbb3a05a9	-0.0028384721
3	0xbb8076d0	-0.0039204136
4	0xbb7c9662	-0.0038541784
5	0x3b7e62be	0.003881618
6	0x3b7aa7e1	0.0038247036
7	0x3b77ac56	0.003779193
8	0xbb707eae	-0.00366966
9	0x3b80a0d3	0.0039254217
10	0xbb41ad4e	-0.002955276
11	0x3b290c12	0.0025794548
12	0xbb7d0cc2	-0.003861234
13	0xbb7f483d	-0.003895297
14	0xbb80423e	-0.0039141467
15	0xbb80af68	-0.00392716
16	0x3b77a169	0.0037785417
17	0xbb68fb7c	-0.0035550287
18	0xbb721771	-0.0036940242
19	0xbb05a532	-0.0020392654
20	0xbb2eecea	-0.0026691505
21	0x3b6d93d0	0.0036251433
22	0xba8ddf7a	-0.0010824047
23	0xbb8091ec	-0.0039236452
24	0x3b7994c3	0.0038083054
25	0x3b7d9470	0.0038693212
26	0xbb1df0c2	-0.0024099802
27	0xbb7c988f	-0.003854308
28	0xbb566ba9	-0.003271798
29	0x3b6ad130	0.0035830252
30	0xbcb5719c	-0.0221489
31	0x3d489fd6	0.048980556
32	0xbcb9183e	-0.022594567
33	0xbc9fb39e	-0.019494828
34	0xbca300fe	-0.019897934
35	0x3cae27c9	0.021259205
36	0x3ca7547b	0.020426026
37	0x3cbd3498	0.023096368
38	0xbcab2ad5	-0.020894447
39	0x3c9b8b1c	0.018987231
40	0xbcb77969	-0.02239676
41	0x3cbf6264	0.023362346
42	0xbcaab9ab	-0.020840487
43	0xbc9d18de	-0.019176897
44	0xbca04cf2	-0.01956794
45	0xbc9df878	-0.019283518
46	0x3cd8e3a7	0.02647574
47	0xbca5b04e	-0.02022567
48	0xbcb75365	-0.022378633
49	0x3d582d50	0.05277759
50	0xbcb971f7	-0.02263735
51	0x3cdca1b7	0.02693258
52	0x3a061528	0.0005114847
53	0xbc9d7a8f	-0.01922348
54	0x3cb251ac	0.02176746
55	0x3cadf775	0.02123616
56	0xbd38e446	-0.045139574
57	0xbcc52f59	-0.024070429
58	0xbd07b11b	-0.033127885
59	0x3ce56535	0.02800236
60	0x3b7bb9af	0.0038410237
61	0xbbcd8027	-0.0062713805
62	0x3b574be6	0.0032851635
63	0x3bed6903	0.0072451844
64	0x3bfc68f3	0.0077029406
65	0xbb8e393a	-0.004340318
66	0xbb9f3535	-0.0048586377
67	0xbbec79d3	-0.007216671
68	0x3bcd77e6	0.0062703965
69	0xbbeeb611	-0.0072848876
70	0x3b81c839	0.003960636
71	0xbb11dc19	-0.0022256433
72	0x3b9e5288	0.004831616
73	0x3bbd07e3	0.0057687624
74	0x3bf6f290	0.00753624
75	0x3bf262b5	0.0073970207
76	0xbc0ed599	-0.008717918
77	0x3bb3effb	0.0054912544
78	0x3b7e5e98	0.0038813706
79	0x3b481d8d	0.0030535192
80	0x3b07e018	0.0020732936
81	0xbbe13dd8	-0.0068738274
82	0xba4dbd19	-0.0007848307
83	0x3be5923e	0.007005959
84	0xbba77341	-0.005110175
85	0xbbee2529	-0.0072676134
86	0x3be88164	0.0070955027
87	0x3c0e6c69	0.008692839
88	0x3be9f09e	0.0071392795
89	0xbbeed8b6	-0.0072890176
90	0xbd6ca1de	-0.057771556
91	0x3d8d285c	0.068924636
92	0xbd7081da	-0.058717586
93	0xbd6ad796	-0.057334505
94	0xbd6d8e7b	-0.057997208
95	0x3d6c5e75	0.05770727
96	0x3d6c1fd0	0.057647526
97	0x3d71aecf	0.0590046
98	0xbd6bfbd1	-0.057613198
99	0x3d6ba925	0.057534356
100	0xbd710dbc	-0.05885099
101	0x3d6fa7aa	0.058509506
102	0xbd6d30cf	-0.057907876
103	0xbd6bb68f	-0.05754715
104	0xbd6b6507	-0.057469394
105	0xbd6bb697	-0.057547178
106	0x3d7472b8	0.059679717
107	0xbd6c3438	-0.057666987
108	0xbd6cda7c	-0.05782555
109	0x3d8f979a	0.070113376
110	0xbd6e2efb	-0.058150273
111	0x3d799e51	0.060941998
112	0xbd271d10	-0.0407992
113	0xbd6b367b	-0.057425003
114	0x3d6c2cc0	0.057659864
115	0x3d6f7671	0.058462564
116	0xbd89bbdd	-0.06725285
117	0xbd701221	-0.05861104
118	0xbd81f856	-0.063461944
119	0x3d7b891e	0.061410062
120	0x3b89d067	0.0042057517
121	0xbbfa42dc	-0.007637365
122	0x3c24d777	0.010061136
123	0x3b8a7fa1	0.0042266403
124	0x3b96c31c	0.0046008956
125	0xbb8c36bc	-0.004278986
126	0xbb99d592	-0.004694649
127	0xbb980aec	-0.004639974
128	0x3bd33cc5	0.0064464533
129	0xbb8ad9e0	-0.0042373985
130	0x3c218655	0.009858687
131	0xbc2202fa	-0.009888405
132	0x3b8900c1	0.004180998
133	0x3b8aa956	0.004231612
134	0x3b8df67f	0.004332363
135	0x3b8c532a	0.004282375
136	0xbb9e15c5	-0.0048243725
137	0x3be84d31	0.00708928
138	0x3b8f37a6	0.0043706475
139	0x3b5e11a7	0.0033885033
140	0x3c213a8c	0.009840619
141	0xbba4e2b1	-0.0050319065
142	0xbb452ce6	-0.0030086576
143	0x3b89d3d2	0.004206159
144	0xbb9cff9b	-0.0047912127
145	0xbb90b0a4	-0.0044155885
146	0x3bdf9bd0	0.006823994
147	0x3b904cfd	0.004403709
148	0x3bbce80e	0.0057649678
149	0xbba8a100	-0.005146146
150	0x3c9da2d4	0.019242682
151	0x3b4d47ec	0.0031323386
152	0x3c9cff6a	0.01916476
153	0x3ca20aaf	0.019780485
154	0x3ca1d01e	0.019752558
155	0xbc9d7a1b	-0.019223263
156	0xbca10279	-0.0196545
157	0xbc94494d	-0.018101359
158	0x3c9ff3f3	0.019525504
159	0xbca31f7c	-0.019912474
160	0x3c9aab7c	0.018880598
161	0xbc9b9b96	-0.018995088
162	0x3c9e3da7	0.019316508
163	0x3ca34f37	0.019935234
164	0x3ca1d7cd	0.019756222
165	0x3ca29663	0.0198471
166	0xbc89cc0b	-0.016820928
167	0x3ca09e64	0.019606777
168	0x3c9bb22e	0.019005861
169	0x3c278f1c	0.010226991
170	0x3c9ca7d1	0.01912299
171	0xbc84bacd	-0.016202355
172	0x3c26ce7d	0.010181067
173	0x3ca29d4b	0.019850394
174	0xbc9e48f0	-0.019321889
175	0xbc9bc0da	-0.019012857
176	0x3b272fe0	0.0025510713
177	0x3c932649	0.017962592
178	0x3c4b1064	0.012394045
179	0xbc8005cf	-0.01562777
180	0x3c7ffafd	0.015623805
181	0x3cbfefa4	0.0234297
182	0x3c906660	0.017626941
183	0x3c9fa052	0.019485626
184	0x3c96ed34	0.018423654
185	0xbc8a55e0	-0.016886652
186	0xbc927f5d	-0.017882997
187	0xbc80d46a	-0.015726287
188	0x3c941cc3	0.01808012
189	0xbca014ed	-0.019541228
190	0x3c93c8e3	0.018040126
191	0xbc8b5fe2	-0.017013494
192	0x3c8c6cb4	0.017141677
193	0x3ca018be	0.019543048
194	0x3c9db148	0.019249573
195	0x3c9fc3f5	0.01950262
196	0xbc371b86	-0.011175996
197	0x3c9e3936	0.01931439
198	0x3c7dc1cf	0.015488102
199	0x3d05a6ca	0.032629766
200	0x3c91a43a	0.017778505
201	0xbc3b7c9e	-0.011443285
202	0x3caaa98b	0.020832798
203	0x3ca08382	0.019593958
204	0xbc86c843	-0.016452914
205	0xbc90813c	-0.017639749
206	0xbc8a4eea	-0.016883332
207	0x3c5b420e	0.013382448
208	0x3b602eaa	0.0034207501
209	0xbc29679c	-0.010339644
210	0x3bcb1959	0.00619809
211	0xbc521c54	-0.012824137
212	0x3bc80aaf	0.006104789
213	0x3bb6f5f1	0.0055835177
214	0x3bbe4cfc	0.005807517
215	0xbbc98ec0	-0.0061510503
216	0xbbbf7c52	-0.0058436776
217	0xbbdc5a35	-0.0067246207
218	0x3bbd8889	0.0057840985
219	0xbbb43c7c	-0.0055003744
220	0x3bc875aa	0.0061175423
221	0xbbcaad4b	-0.006185209
222	0x3bc4263e	0.005986004
223	0x3bb557e1	0.0055341576
224	0x3bb5b6d8	0.0055454783
225	0x3bb3313d	0.005468516
226	0xbbfde518	-0.0077482574
227	0x3bbb03cc	0.0057072397
228	0x3bd32844	0.006444009
229	0xbc2db42d	-0.010602039
230	0x3bc31836	0.005953814
231	0xbc02bdb7	-0.007979802
232	0x3a7a57c2	0.000954982
233	0x3bb52267	0.0055277827
234	0xbbc7a6e8	-0.006092895
235	0xbbc8a98a	-0.0061237263
236	0x3c532e48	0.012889452
237	0x3bdff7a9	0.0068349433
238	0x3c230b00	0.009951353
239	0xbc06af17	-0.008220456
240	0x3b11d950	0.0022254772
241	0xbb956d2e	-0.0045601344
242	0x3c6fe4cb	0.014641951
243	0x3b09ca7a	0.0021025226
244	0x3b561542	0.003266648
245	0xbb0db696	-0.0021623722
246	0xbb763cef	-0.003757294
247	0xbb1b9de0	-0.0023745224
248	0x3c043d32	0.008071231
249	0xbb0c9332	-0.002145004
250	0x3c8a67d9	0.016895222
251	0xbbe31674	-0.006930167
252	0x3b00ebb2	0.0019671735
253	0x3b04f7ca	0.0020289295
254	0x3b19c252	0.0023461771
255	0x3b0b507f	0.0021257696

b1 f4 [15]
0	0x3b80a353	0.0039257198
1	0x3c9e840e	0.019350078
2	0xbbec819f	-0.0072176005
3	0x3d6c42a6	0.05768075
4	0xbb89817a	-0.004196343
5	0xbca2505e	-0.019813713
6	0xbc9f765a	-0.019465614
7	0xbbb71c4b	-0.0055880896
8	0xbb097cb7	-0.0020978877
9	0x3d5e4a80	0.054270267
10	0xbe1f96da	-0.15584889
11	0xbc061f62	-0.008186193
12	0x3b1d4d65	0.002400243
13	0x3ee1449e	0.43997663
14	0xbc7e1cb0	-0.015509769

W2 f4 [15, 30]
0	0xba8f1610	-0.0010916609
1	0x3af0c71b	0.0018369885
2	0xbb904473	-0.004402691
3	0xbb80ad3f	-0.0039269025
4	0xbb55c51d	-0.003261871
5	0x3b7db588	0.0038712937
6	0x3b803850	0.003912963
7	0x3b756c5f	0.0037448627
8	0xbb672eee	-0.0035275775
9	0x3b808ce8	0.0039230473
10	0xbb30004d	-0.0026855648
11	0x3b28dbc8	0.0025765765
12	0xbb76f70d	-0.0037683875
13	0xbb7fc7e1	-0.003902905
14	0xbb8110c7	-0.0039387676
15	0xbb806c32	-0.003919148
16	0x39e3902c	0.0004340423
17	0xbb7b7df9	-0.0038374646
18	0xba6b3fba	-0.00089740346
19	0x398fdde0	0.00027440395
20	0xbb351394	-0.0027630078
21	0x3b67defa	0.0035380707
22	0x3a776b9a	0.0009438336
23	0xbb80fdfc	-0.0039365273
24	0x3b7e385c	0.0038790917
25	0x3b7f0ca5	0.003891745
26	0x3a15e402	0.0005717875
27	0xb9730200	-0.00023175031
28	0xbb5c2c49	-0.0033595732
29	0x3b63d7c2	0.0034766053
30	0xbd2bc061	-0.041931514
31	0x3d51898a	0.051156558
32	0xbca4ba57	-0.020108385
33	0xbc732e76	-0.01484262
34	0xbcd7b00f	-0.026329068
35	0x3ca5613c	0.020187967
36	0x3ca6134f	0.020272879
37	0x3cc6bdb7	0.024260385
38	0xbcb30ca1	-0.021856608
39	0x3c9d72b5	0.019219736
40	0xbc9f232e	-0.019425955
41	0x3cbeac9f	0.023275672
42	0xbca41d8b	-0.020033618
43	0xbc9af52c	-0.018915735
44	0xbc8337ca	-0.016017813
45	0xbc9a1e22	-0.018813197
46	0x3d3866eb	0.045020025
47	0xbc9ebe71	-0.019377919
48	0xbd2b601b	-0.0418397
49	0x3d3c135c	0.0459169
50	0xbcb3e780	-0.021960974
51	0x3c506c24	0.012721095
52	0x3bcf1baa	0.0063204365
53	0xbc84668d	-0.016162181
54	0x3cafa1ba	0.021439422
55	0x3ca99678	0.020701632
56	0xbd5aa159	-0.05337653
57	0xbd42599b	-0.047448736
58	0xbd096db9	-0.033551905
59	0x3cdfca93	0.027318275
60	0x3bb490f3	0.0055104434
61	0xbbcf5218	-0.006326925
62	0x3b09cd2c	0.0021026833
63	0x3be449ee	0.006966821
64	0x3bed053f	0.0072332914
65	0xbb96b454	-0.0045991335
66	0xbb9e14e1	-0.0048242663
67	0xbbf0d9a5	-0.007350164
68	0x3bbe22dc	0.0058024954
69	0xbbe6b6eb	-0.0070408485
70	0x3b2ae594	0.002607678
71	0xbb101c13	-0.002198939
72	0x3b84cb44	0.0040525515
73	0x3bd5e57e	0.0065276017
74	0x3c116bb8	0.00887578
75	0x3be1a717	0.0068863737
76	0xbbbb8ea3	-0.0057237907
77	0x3bb2811d	0.0054475204
78	0x3bb2fe92	0.005462476
79	0x39ac80ac	0.00032902265
80	0x3b24282a	0.0025048354
81	0xbbc4b321	-0.006002799
82	0xb922ed7e	-0.00015537997
83	0x3bfe7b47	0.0077661606
84	0xbbac7e33	-0.0052640676
85	0xbbda7f48	-0.006668005
86	0x3bb5d723	0.005549328
87	0x3bba16b4	0.005678976
88	0x3beb75ae	0.0071856594
89	0xbbd00cf2	-0.0063491995
90	0xbd91b8fd	-0.07115362
91	0x3d89ac5a	0.067223266
92	0xbd63e2d2	-0.055636235
93	0xbd6cbf4b	-0.05779962
94	0xbd85ce1c	-0.06533453
95	0x3d6c2a93	0.05765779
96	0x3d6d2bbf	0.057903048
97	0x3d71719a	0.05894623
98	0xbd6c17ed	-0.057640005
99	0x3d6c4b83	0.0576892
100	0xbd6f05b0	-0.058355033
101	0x3d700179	0.058595154
102	0xbd682a85	-0.056681175
103	0xbd69cdd5	-0.057081062
104	0xbd6cbcb8	-0.057797164
105	0xbd6b7fdb	-0.05749498
106	0x3d9196a1	0.07108808
107	0xbd6cabc4	-0.057780996
108	0xbd919a07	-0.071094565
109	0x3d843236	0.064548895
110	0xbd70710a	-0.058701552
111	0x3d77faa3	0.06054176
112	0x3d1106eb	0.035406988
113	0xbd6c7a90	-0.057734072
114	0x3d6bf904	0.057610527
115	0x3d69e2ec	0.057101175
116	0xbd9179e1	-0.07103325
117	0xbd91ae74	-0.071133524
118	0xbd7b2081	-0.061310295
119	0x3d782490	0.060581744
120	0x3c0729d6	0.008249721
121	0xbbf5f97e	-0.0075065484
122	0x39565d80	0.00020443462
123	0x3b839ac6	0.004016253
124	0x3bb5393b	0.005530504
125	0xbb8554ee	-0.0040689623
126	0xbb8ada5f	-0.0042374576
127	0xbb9a2457	-0.004704039
128	0x3bf6a3f3	0.0075268685
129	0xbb8b0380	-0.0042423606
130	0x3c2402ca	0.010010431
131	0xbc217e61	-0.009856791
132	0x3b8a87b0	0.004227601
133	0x3b88dcc7	0.0041767093
134	0x3b8233da	0.0039734663
135	0x3b8b16fe	0.0042446842
136	0xbc0bac67	-0.008524991
137	0x3b996385	0.004681053
138	0x3c066439	0.008202606
139	0xbb9aa3ce	-0.004719234
140	0x3c24e60a	0.010064611
141	0xbb8c1f0b	-0.0042761615
142	0xba6e7396	-0.0009096203
143	0x3b83db86	0.004023972
144	0xbb8747bf	-0.004128426
145	0xbb8d2300	-0.004307151
146	0x3c16aad5	0.009196003
147	0x3c0fd1c6	0.008778041
148	0x3bb5aab6	0.005544032
149	0xbba351d7	-0.0049841213
150	0x3c068c0c	0.008212101
151	0x3be7e641	0.007077009
152	0x3ca2e192	0.019882951
153	0x3ca6456f	0.02029678
154	0x3c8ba409	0.017045991
155	0xbc9ee122	-0.019394461
156	0xbca08325	-0.019593785
157	0xbc8e61c6	-0.017380606
158	0x3c9d677b	0.019214382
159	0xbca2af9d	-0.01985913
160	0x3c9df592	0.019282136
161	0xbc9a2dcc	-0.018820666
162	0x3c9d509b	0.019203475
163	0x3ca3123c	0.019906156
164	0x3ca7df4b	0.020492217
165	0x3ca3a07a	0.019973982
166	0xbb8094cf	-0.0039239894
167	0x3ca2db7b	0.019880047
168	0x3be112dc	0.0068687033
169	0xb9a23a64	-0.00030942552
170	0x3c9c7263	0.019097513
171	0xbc904701	-0.017611982
172	0xbbf2e567	-0.007412601
173	0x3ca6d9f0	0.020367593
174	0xbc9fb7ec	-0.01949688
175	0xbc9e6617	-0.01933579
176	0xbc33935b	-0.010960425
177	0x3b4d1950	0.0031295605
178	0x3c48fec2	0.01226777
179	0xbc721bf8	-0.014777176
180	0xbd2e36d6	-0.042532764
181	0x3ca4560d	0.020060563
182	0x3c8e6dca	0.017386336
183	0x3cb02a3f	0.02150452
184	0x3a63eec4	0.00086949416
185	0xbc9492d0	-0.018136412
186	0xbc8af1d1	-0.01696101
187	0xbc798f42	-0.015231909
188	0x3c8aa6be	0.016925212
189	0xbca12ef7	-0.019675715
190	0x3ca2896f	0.019840924
191	0xbc83b32e	-0.01607665
192	0x3c8d7d0f	0.017271547
193	0x3ca1a0ad	0.019729936
194	0x3cac72db	0.021050861
195	0x3ca28df1	0.019843074
196	0x3d3c7dfb	0.04601858
197	0x3ca1f53a	0.019770253
198	0xbd36da3f	-0.04464173
199	0x3bea4ae6	0.007150042
200	0x3c8b1cd2	0.016981516
201	0xbc94d563	-0.018168157
202	0xbc48edc4	-0.012263719
203	0x3caac614	0.020846404
204	0xbc896896	-0.016773503
205	0xbc97e84e	-0.018543389
206	0xbd32d03c	-0.04365562
207	0xbd3f0cbf	-0.046643015
208	0x3bdb4498	0.0066915266
209	0xbc3500c2	-0.011047544
210	0x3c545988	0.012960799
211	0xbc4e047c	-0.012574311
212	0x3bc3041e	0.0059514185
213	0x3b911c5e	0.0044284305
214	0x3c0eaa2a	0.008707562
215	0xbbbfcb79	-0.0058531133
216	0xbbc63cf4	-0.0060497466
217	0xbbe89e08	-0.007098917
218	0x3bc5b5bc	0.0060336273
219	0xbbb37427	-0.005476493
220	0x3bac2eec	0.005254617
221	0xbbcc74b4	-0.006239498
222	0x3bc05f62	0.0058707455
223	0x3bb4412c	0.005500933
224	0x3b990626	0.0046699224
225	0x3bade81a	0.0053072097
226	0xbc4ae140	-0.012382805
227	0x3bb53c6b	0.005530884
228	0x3c52c08a	0.012863288
229	0xbc51434f	-0.012772395
230	0x3bbfc92e	0.00585284
231	0xbb87f770	-0.00414937
232	0xbbdb636c	-0.0066952016
233	0x3b9a02af	0.004700027
234	0xbbc41509	-0.005983953
235	0xbbc4042c	-0.0059819426
236	0xb979c110	-0.00023818412
237	0x3c3c7f8f	0.011505022
238	0x3c1e536f	0.009663447
239	0xbc02743c	-0.007962283
240	0x3ba52f8d	0.005041069
241	0xbb949fa9	-0.0045356345
242	0xbb68bd98	-0.0035513397
243	0x3b02015b	0.0019837234
244	0x3b4cd256	0.00312533
245	0xbb084bbe	-0.00207971
246	0xbb214715	-0.0024609019
247	0xbb182ce7	-0.0023220123
248	0x3c327d84	0.010894183
249	0xbb0b245b	-0.0021231386
250	0x3c2d5ba6	0.010580933
251	0xbbc09636	-0.0058772815
252	0x3af35db7	0.0018567358
253	0x3b00b0a8	0.0019636545
254	0x3b00581b	0.0019583765
255	0x3b133668	0.0022462849

Wb f4 [55, 55]
0	0xbc2ab0f3	-0.010418165
1	0xbb04f027	-0.0020284744
2	0x3d0ac8b1	0.0338828
3	0x3d146cfd	0.03623675
4	0x3d12b09e	0.035812967
5	0x3d8b2e78	0.067959726
6	0xbc2d9664	-0.010594938
7	0xbb3c107b	-0.0028696347
8	0xbc01b75a	-0.00791725
9	0x3cb08dc2	0.02155197
10	0xbcd324e1	-0.025774421
11	0xbb057fa8	-0.0020370279
12	0xbb1436d4	-0.0022615688
13	0x3d454a6b	0.048166674
14	0x3ca75a40	0.020428777
15	0x3b9eb106	0.00484288
16	0x3cb4e709	0.022082822
17	0xbc871cb5	-0.01649318
18	0x3d4c3ad1	0.04986078
19	0x3d069422	0.032856114
20	0xbc87a327	-0.01655729
21	0x3ceb5cd2	0.028730784
22	0x3bf43e09	0.007453684
23	0x3d51a2c5	0.05118062
24	0xbc7b63ea	-0.015343646
25	0xbc1a48c0	-0.009416759
26	0x3d8be656	0.068310425
27	0x39f47ceb	0.00046632378
28	0xbc770b12	-0.015078323
29	0x3d004226	0.031313084
30	0x3c189999	0.009313964
31	0x3cf28759	0.029605554
32	0x3d29bd6b	0.04144041
33	0x3c8690b4	0.016426422
34	0xbc44b876	-0.01200687
35	0x3d06c752	0.03290493
36	0xbabd6474	-0.0014449493
37	0x3bfe61b3	0.0077631115
38	0xbc138e94	-0.009006161
39	0x3d27be89	0.040953193
40	0x3c9de765	0.019275377
41	0xbabea876	-0.0014546055
42	0xbc4bb7aa	-0.012433926
43	0xbc72f6a5	-0.014829312
44	0x3d47dd79	0.048795197
45	0x3d08fec4	0.03344609
46	0xbbb8b231	-0.0056364764
47	0x3cde7b5a	0.027158428
48	0x3d47b9a1	0.048761014
49	0xbaff691b	-0.001948628
50	0xbafb778f	-0.0019185412
51	0xbc472cd0	-0.01215668
52	0x3d1af2bd	0.03782915
53	0x3ce29244	0.027657636
54	0x3cf5b4e4	0.029993482
55	0xbc2aacd6	-0.010417184
56	0xbaebebf2	-0.0017999394
57	0x3d0a79d7	0.0338076
58	0x3d146b5e	0.036235206
59	0x3d12aeaf	0.035811123
60	0x3d8b3e99	0.06799049
61	0xbc2a764f	-0.0104041835
62	0xbb4af588	-0.0030969102
63	0xbc026a3e	-0.0079599
64	0x3cb11288	0.021615282
65	0xbcd3dc63	-0.025861925
66	0xbad50096	-0.0016250785
67	0xbaf85516	-0.0018946256
68	0x3d454278	0.048159093
69	0x3ca81c6a	0.020521361
70	0x3ba0c880	0.004906714
71	0x3cb4ebcd	0.022085095
72	0xbc86f8e0	-0.016476095
73	0x3d4d1402	0.05006791
74	0x3d06e439	0.032932494
75	0xbc87b2c9	-0.016564744
76	0x3ceb7f1a	0.02874713
77	0x3bef021b	0.007293952
78	0x3d51b08e	0.051193766
79	0xbc7c8775	-0.015413155
80	0xbc1b1e4f	-0.009467675
81	0x3d8be89e	0.068314776
82	0x39cdb081	0.00039232153
83	0xbc77900c	-0.015110027
84	0x3d00eb2c	0.031474277
85	0x3c19312d	0.009350103
86	0x3cf2198a	0.029553194
87	0x3d29ed80	0.041486263
88	0x3c86f1e0	0.016472757
89	0xbc427b40	-0.011870205
90	0x3d06a7e9	0.032874975
91	0xbab6df10	-0.0013951976
92	0x3c007d23	0.007842335
93	0xbc14738b	-0.009060751
94	0x3d281b80	0.04104185
95	0x3c9c3054	0.019066013
96	0xbb02fbb8	-0.0019986462
97	0xbc4de568	-0.012566902
98	0xbc72af7c	-0.014812347
99	0x3d478f90	0.048720896
100	0x3d0921d5	0.03347953
101	0xbbbc1794	-0.0057401154
102	0x3cdf1023	0.027229374
103	0x3d48122b	0.04884545
104	0xbae98a11	-0.0017817636
105	0xbb0476da	-0.0020212443
106	0xbc461468	-0.012089826
107	0x3d1b0878	0.037849873
108	0x3ce35e61	0.027754964
109	0x3cf56a80	0.02995801
110	0xbc2a93f6	-0.010411253
111	0xbae1c68c	-0.0017225309
112	0x3d0a452b	0.03375737
113	0x3d145b96	0.036220156
114	0x3d123e58	0.035703987
115	0x3d8b48f9	0.06801028
116	0xbc2b281a	-0.010446573
117	0xbb2afcda	-0.0026090653
118	0xbc030db0	-0.007998869
119	0x3cb09428	0.021555021
120	0xbcd3b5fe	-0.025843617
121	0xbaceab2b	-0.0015767565
122	0xbadc3b86	-0.0016802407
123	0x3d4549cb	0.048166078
124	0x3ca6a48d	0.020342136
125	0x3ba25506	0.0049539832
126	0x3cb4d5d9	0.022074627
127	0xbc8732ee	-0.016503777
128	0x3d4d697d	0.05014943
129	0x3d066bd8	0.03281769
130	0xbc87bdd0	-0.016570002
131	0x3cea98b6	0.028637271
132	0x3bf46361	0.007458136
133	0x3d51b4fd	0.051197995
134	0xbc7d86df	-0.01547405
135	0xbc1b2e6d	-0.009471518
136	0x3d8be5fa	0.06830974
137	0x3a005a72	0.000489629
138	0xbc76c982	-0.015062692
139	0x3d0006b1	0.03125638
140	0x3c18f3c7	0.009335465
141	0x3cf2a9b3	0.029621935
142	0x3d29ee21	0.041486863
143	0x3c869375	0.016427735
144	0xbc4316b5	-0.011907269
145	0x3d06c873	0.032906007
146	0xbacb6668	-0.001551819
147	0x3c037f9c	0.00802603
148	0xbc12fb3d	-0.008971033
149	0x3d281e4d	0.041044522
150	0x3c9ecd6c	0.019385062
151	0xbafd0f45	-0.0019306919
152	0xbc4bd658	-0.01244124
153	0xbc72ebd3	-0.014826733
154	0x3d47f7d1	0.04882032
155	0x3d08c8e7	0.03339472
156	0xbbb5407b	-0.0055313683
157	0x3cde58ae	0.027141895
158	0x3d47c6ce	0.04877358
159	0xbaf8fa56	-0.0018995504
160	0xbb00b032	-0.001963627
161	0xbc4762cb	-0.01216955
162	0x3d1af493	0.0378309
163	0x3ce27474	0.02764342
164	0x3cf52766	0.029926013
165	0xbc2aa622	-0.010415586
166	0xbadafecc	-0.0016708015
167	0x3d0aca82	0.033884533
168	0x3d144070	0.036194265
169	0x3d128453	0.035770725
170	0x3d8b293e	0.06794976
171	0xbc2de3d6	-0.010613402
172	0xbb32fdac	-0.0027311845
173	0xbc027b1a	-0.00796392
174	0x3cb11dd3	0.021620667
175	0xbcd2fc20	-0.025754988
176	0xbad9154e	-0.0016562135
177	0xbb0d3daf	-0.002155166
178	0x3d45501e	0.04817211
179	0x3ca81316	0.020516913
180	0x3bae82f6	0.0053256704
181	0x3cb4c84f	0.02206817
182	0xbc86da8f	-0.016461639
183	0x3d4c7b05	0.049922008
184	0x3d06802b	0.032837074
185	0xbc87aa20	-0.016560614
186	0x3ceb14e7	0.02869649
187	0x3bf42f3c	0.00745192
188	0x3d519018	0.05116281
189	0xbc7bbed4	-0.015365321
190	0xbc1a68f2	-0.009424435
191	0x3d8be237	0.068302564
192	0x39fbb2db	0.00048007708
193	0xbc79980b	-0.015234004
194	0x3d004052	0.03131134
195	0x3c18fb36	0.009337237
196	0x3cf28e06	0.029608738
197	0x3d29d500	0.0414629
198	0x3c86b302	0.01644278
199	0xbc43877c	-0.011934157
200	0x3d06d056	0.03291353
201	0xbac39e38	-0.0014924472
202	0x3c008e38	0.007846408
203	0xbc13f35f	-0.009030192
204	0x3d27cd86	0.040967487
205	0x3c9c95fe	0.01911449
206	0xbb0d7280	-0.002158314
207	0xbc487651	-0.01223524
208	0xbc72a698	-0.014810227
209	0x3d47dbdd	0.048793662
210	0x3d08f541	0.033437017
211	0xbbb78239	-0.0056002405
212	0x3cde78f1	0.027157279
213	0x3d47bd68	0.048764616
214	0xbaea0fa9	-0.001785745
215	0xbb00f0ba	-0.0019674734
216	0xbc47c04e	-0.012191845
217	0x3d1af7d4	0.037834004
218	0x3ce272ec	0.02764269
219	0x3cf5803e	0.029968377
220	0xbc2a940a	-0.010411272
221	0xbb08817a	-0.0020829127
222	0x3d0a2e49	0.033735547
223	0x3d144d55	0.036206562
224	0x3d11e627	0.03561988
225	0x3d8b4153	0.06799569
226	0xbc2c819b	-0.010528947
227	0xbb28f86c	-0.0025782837
228	0xbc02feaf	-0.007995292
229	0x3cb0fd1c	0.021605067
230	0xbcd3b7e3	-0.02584452
231	0xbad4c445	-0.0016232809
232	0xbb00f986	-0.0019679978
233	0x3d454cb2	0.048168845
234	0x3ca63ae6	0.020291757
235	0x3ba338b3	0.0049811243
236	0x3cb4c1d0	0.022065073
237	0xbc871bac	-0.016492687
238	0x3d4d5fc5	0.05014016
239	0x3d0675bf	0.032827135
240	0xbc87c472	-0.016573165
241	0x3cea679c	0.028613858
242	0x3bf4dd07	0.0074726376
243	0x3d5195db	0.051168304
244	0xbc7e34b4	-0.015515495
245	0xbc1b45de	-0.009477107
246	0x3d8be17f	0.06830119
247	0x3a01ac06	0.0004946593
248	0xbc7ba131	-0.015358255
249	0x3d00e34e	0.031466775
250	0x3c195083	0.009357574
251	0x3cf2a498	0.0296195
252	0x3d29f1c6	0.04149034
253	0x3c8670a4	0.016411133
254	0xbc424ec0	-0.011859596
255	0x3d06c027	0.032898095

conv.weight f4 [10, 1, 20]
0	0xbd4de000	-0.05026245
1	0xbd4fcc87	-0.05073216
2	0xbd34a948	-0.04410675
3	0xbce49b24	-0.027906008
4	0xbccd3715	-0.02505068
5	0xbd5219b3	-0.05129404
6	0xbd46f2f1	-0.04857153
7	0xbd0f50f5	-0.034989316
8	0xbd2b5265	-0.041826624
9	0xbd56c8ae	-0.052437477
10	0xbd0e5f12	-0.034758635
11	0xbd5be2b5	-0.053683
12	0xbd2139c0	-0.039361715
13	0xbd0a0819	-0.03369913
14	0xbccc71a5	-0.024956534
15	0xbd63e6a9	-0.055639897
16	0xbce3f46b	-0.027826509
17	0xbd1ae019	-0.037811372
18	0xbccceb92	-0.025014672
19	0xbcbbf6b9	-0.022944795
20	0x36670b8b	3.4428401e-06
21	0x3644f89c	2.9350986e-06
22	0x361724b7	2.2522124e-06
23	0x35a27a72	1.2105577e-06
24	0x3529f786	6.33176e-07
25	0xb2b7b4d0	-2.1386228e-08
26	0xb43a6256	-1.7358374e-07
27	0xb52d44d6	-6.454769e-07
28	0xb591f41c	-1.0874387e-06
29	0xb588d997	-1.0196117e-06
30	0xb5e7d5ee	-1.7273103e-06
31	0xb60a2a59	-2.0588252e-06
32	0xb620ba32	-2.3950238e-06
33	0xb60c8518	-2.0939096e-06
34	0xb612e114	-2.1886708e-06
35	0xb61bd8ad	-2.3222922e-06
36	0xb61e5f84	-2.3599432e-06
37	0xb629ffae	-2.5331788e-06
38	0xb628eb74	-2.5171003e-06
39	0xb63ad74d	-2.7841481e-06
40	0x37288a60	1.0045798e-05
41	0x372679fa	9.922771e-06
42	0x37247915	9.803353e-06
43	0x372b8fd1	1.0225879e-05
44	0x372aafdd	1.0173736e-05
45	0x372866d5	1.0037523e-05
46	0x372cbe67	1.029633e-05
47	0x372f9329	1.0465076e-05
48	0x3732b4c8	1.0651718e-05
49	0x37304ead	1.0508736e-05
50	0x3732df2e	1.066159e-05
51	0x3735d68d	1.0838395e-05
52	0x3735192e	1.0794303e-05
53	0x373690d0	1.0881762e-05
54	0x37367ffb	1.0877843e-05
55	0x3737fc23	1.0966355e-05
56	0x373a1a9b	1.10926585e-05
57	0x37389040	1.10008405e-05
58	0x3739f707	1.1084375e-05
59	0x3738cf2a	1.1015489e-05
60	0xbde92e6c	-0.113858074
61	0xbd8dc926	-0.06923132
62	0xbdaa0f5b	-0.0830371
63	0xbdb24b08	-0.08705717
64	0xbde3ab1c	-0.11116621
65	0xbda2733c	-0.079321355
66	0xbdbb6901	-0.09150887
67	0xbd89fd4e	-0.06737767
68	0xbdb62a34	-0.08894768
69	0xbd8a09fa	-0.06740184
70	0xbd8d7c67	-0.069084935
71	0xbdb3bc34	-0.08776131
72	0xbe06bfb1	-0.13159062
73	0xbdad1e1e	-0.0845301
74	0xbdf85592	-0.12125696
75	0xbda8bbee	-0.0823897
76	0xbdbba6bc	-0.091626614
77	0xbd5ba3d5	-0.05362304
78	0xbde5f2ef	-0.112279765
79	0xbdecbc87	-0.11559396
80	0x359653a2	1.1200211e-06
81	0xb2fd3a20	-2.9479509e-08
82	0xb5ede2f4	-1.7723928e-06
83	0xb634fb09	-2.6968212e-06
84	0xb66553ca	-3.417243e-06
85	0xb6a4b645	-4.9088e-06
86	0xb6bd73f0	-5.646136e-06
87	0xb6be9241	-5.6794674e-06
88	0xb6d595e9	-6.3653465e-06
89	0xb6ca20ac	-6.0238726e-06
90	0xb6c99ee0	-6.0087623e-06
91	0xb6c307a3	-5.812342e-06
92	0xb6b5e806	-5.4212314e-06
93	0xb6ac6eab	-5.138883e-06
94	0xb68331a8	-3.909885e-06
95	0xb5f5937c	-1.8296846e-06
96	0xb52f7e8f	-6.537675e-07
97	0x35b26f7d	1.3294481e-06
98	0x3673709c	3.627537e-06
99	0x36c5396b	5.877742e-06
100	0xb53d68ba	-7.0560384e-07
101	0xb5f43ae1	-1.8196553e-06
102	0xb60bd7f4	-2.0838315e-06
103	0xb61506aa	-2.220661e-06
104	0xb60b7a6f	-2.078388e-06
105	0xb61b3666	-2.3128464e-06
106	0xb62a883b	-2.541127e-06
107	0xb638f9be	-2.7563506e-06
108	0xb62a2c20	-2.5357658e-06
109	0xb63e542f	-2.8361208e-06
110	0xb642f28e	-2.9049438e-06
111	0xb6443094	-2.9234552e-06
112	0xb6464614	-2.954509e-06
113	0xb6530794	-3.1445861e-06
114	0xb6489639	-2.9889763e-06
115	0xb6479692	-2.9740954e-06
116	0xb65086c6	-3.1072864e-06
117	0xb64e3d18	-3.0731953e-06
118	0xb650a032	-3.1087661e-06
119	0xb64d68fe	-3.0608494e-06
120	0xbbcd3d65	-0.0062634223
121	0xbc1c9721	-0.009557516
122	0xbbe41414	-0.0069604013
123	0xbc12b035	-0.008953144
124	0xbc249dff	-0.010047435
125	0xbc38f11f	-0.0112879565
126	0xbc37affe	-0.011211393
127	0xbc0ea26a	-0.008705715
128	0xbc13f9b3	-0.009031701
129	0xbc169301	-0.009190322
130	0xbc2a3336	-0.010388186
131	0xbc53f981	-0.012937904
132	0xbc442081	-0.01197064
133	0xbc54e43a	-0.012993867
134	0xbc62980f	-0.013830199
135	0xbc47a66b	-0.012185673
136	0xbc2f4f98	-0.010700129
137	0xbc745d90	-0.014914885
138	0xbc7a879a	-0.015291119
139	0xbc64e04f	-0.013969495
140	0xbe6a60cd	-0.22888489
141	0xbe7795f1	-0.24178292
142	0xbe5e90e6	-0.21734962
143	0xbe549d4f	-0.20763133
144	0xbe6208a4	-0.22073609
145	0xbe183024	-0.14862114
146	0xbe247a39	-0.16062249
147	0xbe357f61	-0.17724372
148	0xbe5fa2ef	-0.21839498
149	0xbe4d17d4	-0.20028621
150	0xbe1880f0	-0.14892936
151	0xbe3d3e08	-0.18480694
152	0xbe823d21	-0.25437263
153	0xbe37c3f5	-0.17945845
154	0xbe16ed56	-0.14738974
155	0xbe4a2157	-0.1973928
156	0xbe414f68	-0.18877947
157	0xbe39957b	-0.18123429
158	0xbe02b586	-0.12764558
159	0xbde1365d	-0.10996697
160	0x361469b0	2.2115237e-06
161	0x35c48a77	1.4643437e-06
162	0x3644c0c7	2.9318487e-06
163	0x36624193	3.3714794e-06
164	0x36a32aac	4.862746e-06
165	0x36a7c22e	4.9995933e-06
166	0x3604c34b	1.9783208e-06
167	0x363daaf7	2.826271e-06
168	0x36630f84	3.3834667e-06
169	0x35f0aea8	1.7932225e-06
170	0x352744ee	6.2312654e-07
171	0x33b8b240	8.600591e-08
172	0xb5acde47	-1.287969e-06
173	0xb60144dd	-1.9262582e-06
174	0xb62ef9ee	-2.6073499e-06
175	0xb66b9660	-3.5105259e-06
176	0xb6888d23	-4.0695463e-06
177	0xb6b99ada	-5.5314567e-06
178	0xb6e34486	-6.7731044e-06
179	0xb6fb9564	-7.4977743e-06
180	0x33bd6af0	8.82045e-08
181	0x35843b6c	9.85206e-07
182	0x35db1f51	1.6325886e-06
183	0x35f0fdc4	1.7955249e-06
184	0x361d4d9a	2.3439993e-06
185	0x3620d249	2.396426e-06
186	0x36045606	1.9719605e-06
187	0x3623e990	2.4424844e-06
188	0x36053f30	1.9855324e-06
189	0x361d0ad3	2.3401124e-06
190	0x360411bd	1.9679858e-06
191	0x36286640	2.5093468e-06
192	0x35ca7a6a	1.50858e-06
193	0x3607db29	2.0244136e-06
194	0x361c4008	2.3283083e-06
195	0x35d39cbc	1.5766341e-06
196	0x35fcb443	1.8827926e-06
197	0x362a6a8a	2.5393988e-06
198	0x36143e2f	2.2089914e-06
199	0x35c80d89	1.49051e-06

conv.bias f4 [10]
0	0x3d99ba45	0.07506231
1	0x35a4ee9e	1.2288399e-06
2	0x3781bcf7	1.5465992e-05
3	0xbe92b5d8	-0.2865436
4	0xbde2398d	-0.11046133
5	0xbc778b6b	-0.015108923
6	0xbe3451a2	-0.17609265
7	0xbe80eff1	-0.2518306
8	0xbb45cf9f	-0.0030183566
9	0xb53d2ff7	-7.0477785e-07

conv_long.weight f4 [10, 1, 10]
0	0xbd86522d	-0.065586425
1	0xbe2b47ee	-0.16726658
2	0xbe4868cf	-0.19571231
3	0xbe0b0d52	-0.135793
4	0xbdd726b2	-0.105054274
5	0xbdeda69b	-0.11604043
6	0xbd06790c	-0.032830283
7	0xbd8fbe59	-0.07018728
8	0xbe0935a9	-0.13399376
9	0xbdcd878f	-0.100356214
10	0xb631f31a	-2.651656e-06
11	0xb5df3632	-1.6630568e-06
12	0xb582c87e	-9.744106e-07
13	0xb5bafff7	-1.3932575e-06
14	0xb5bd1b10	-1.4089474e-06
15	0xb63154d4	-2.6424432e-06
16	0xb68be81b	-4.1695434e-06
17	0xb6c9a80f	-6.0098314e-06
18	0xb69e8acb	-4.7249246e-06
19	0xb695a83e	-4.460132e-06
20	0x360b1b7d	2.0728614e-06
21	0x362850fc	2.508109e-06
22	0x3616ab0a	2.24513e-06
23	0x360307a7	1.9524975e-06
24	0x35ee9d6d	1.7778199e-06
25	0x36059125	1.990303e-06
26	0x35fadf2a	1.8691401e-06
27	0x35468c8b	7.3965265e-07
28	0x355b29ac	8.16445e-07
29	0xb5596f49	-8.100074e-07
30	0x33c92d97	9.3680846e-08
31	0x34abf4ed	3.202944e-07
32	0x33bdd248	8.839248e-08
33	0x350f362b	5.3350476e-07
34	0x3506d7d2	5.023295e-07
35	0x33a7997c	7.804462e-08
36	0xb48a7ee4	-2.5796828e-07
37	0xb49eb30e	-2.9560073e-07
38	0xb4516888	-1.950267e-07
39	0x34d80318	4.0235386e-07
40	0x3593f544	1.1023735e-06
41	0x353170d4	6.6101825e-07
42	0x362c5b3f	2.568311e-06
43	0x35fdfb6e	1.8923145e-06
44	0x3624480a	2.4479837e-06
45	0x35d2b7f8	1.5699761e-06
46	0x35372178	6.8221516e-07
47	0x35524638	7.833328e-07
48	0xb54dd6b7	-7.66809e-07
49	0xb615de4d	-2.2332126e-06
50	0x36068a9a	2.0048233e-06
51	0x366f66d0	3.567362e-06
52	0x369e90de	4.7256317e-06
53	0x36c5382a	5.877596e-06
54	0x36df578b	6.6561092e-06
55	0x36efacd0	7.142873e-06
56	0x36c6347e	5.9069707e-06
57	0x368e5a0a	4.2424117e-06
58	0x354e1837	7.677622e-07
59	0xb608fceb	-2.0412797e-06
60	0x35ac1aa2	1.282275e-06
61	0x35d0e459	1.5563666e-06
62	0x35ce9da5	1.5394077e-06
63	0x35d1791e	1.5606963e-06
64	0x35c48703	1.4642432e-06
65	0x34b352e2	3.3401653e-07
66	0x358fb5ce	1.0707242e-06
67	0xb400dc7c	-1.200114e-07
68	0xb45f7cc8	-2.0813889e-07
69	0xb4b16190	-3.3039805e-07
70	0xbaa185a5	-0.0012323154
71	0xba13968f	-0.000563004
72	0xba004d4d	-0.0004894331
73	0xba7bec11	-0.0009610067
74	0xbab55976	-0.0013835866
75	0xba48deca	-0.00076625927
76	0xba3b1841	-0.0007137098
77	0xb9981dde	-0.00029013952
78	0xba308c60	-0.00067347847
79	0xba6be772	-0.00089990266
80	0xb7e9bd8e	-2.7864033e-05
81	0xb7ddcaba	-2.6439655e-05
82	0xb7e4a51e	-2.7256607e-05
83	0xb7dd65ba	-2.6392623e-05
84	0xb7dabf01	-2.6076568e-05
85	0xb7d7120f	-2.5638406e-05
86	0xb7b8adfe	-2.201553e-05
87	0xb7ac9b05	-2.0576184e-05
88	0xb7b6abcf	-2.1776095e-05
89	0xb7b74962	-2.1849472e-05
90	0xb6415663	-2.8809525e-06
91	0xb6521d05	-3.130933e-06
92	0xb6419c00	-2.8850045e-06
93	0xb6891392	-4.0851965e-06
94	0xb6b55efe	-5.405279e-06
95	0xb6f47534	-7.285411e-06
96	0xb72130f7	-9.607748e-06
97	0xb7348133	-1.0758918e-05
98	0xb754f630	-1.2693505e-05
99	0xb77e0ef8	-1.5143065e-05

conv_long.bias f4 [10]
0	0xbec5b446	-0.386141
1	0xbd9aa21b	-0.075504504
2	0xbe0cb220	-0.13739824
3	0xbcee8a8f	-0.029118804
4	0xbc817a71	-0.015805455
5	0x380c474e	3.344501e-05
6	0xbc0e070d	-0.008668673
7	0xbe740eec	-0.23833817
8	0xbd847c91	-0.06469072
9	0xb84d9cd5	-4.902187e-05

conv1.weight f4 [30, 30]
0	0xb55d143f	-8.235838e-07
1	0x3610a918	2.1556098e-06
2	0x365b2683	3.265596e-06
3	0xbe29e6ae	-0.16591904
4	0x367d9e5e	3.779212e-06
5	0x355ee260	8.3030864e-07
6	0xbb6816a6	-0.003541389
7	0x3c725df0	0.014792904
8	0x3a5ecd3b	0.00084992097
9	0x3be3d963	0.0069534048
10	0x35df9b36	1.6659967e-06
11	0xbc2c8476	-0.010529628
12	0x348e438f	2.6498716e-07
13	0xbcba0ffe	-0.022712704
14	0x36309373	2.631187e-06
15	0x3865d4b1	5.479594e-05
16	0xb68f10d7	-4.2636925e-06
17	0xbd17d3a0	-0.037067056
18	0x36a9a819	5.0561616e-06
19	0x3c0918e7	0.008367754
20	0xb4543f5a	-1.9767086e-07
21	0xbb080901	-0.002075732
22	0xb50b30c4	-5.18525e-07
23	0x34295f46	1.5774012e-07
24	0xbb08a1fa	-0.0020848499
25	0xb9a2a8bf	-0.00031024773
26	0x3588de6f	1.0197526e-06
27	0xbbb5928e	-0.0055411523
28	0x31d74c20	6.265978e-09
29	0xb48a43d0	-2.5753843e-07
30	0xb45f4ec3	-2.0797147e-07
31	0x3522289b	6.040879e-07
32	0xb746da4c	-1.1852546e-05
33	0xbc92fb4c	-0.017942093
34	0xb493afb3	-2.7508722e-07
35	0xb4d4aec1	-3.9615227e-07
36	0xb5d39d5f	-1.5766526e-06
37	0x38b7d7e0	8.76633e-05
38	0x3a2cd221	0.0006592591
39	0x3c3a1a50	0.011358812
40	0xbb664dea	-0.0035141655
41	0xbc0a7942	-0.008451762
42	0x35ae8b0a	1.3004476e-06
43	0xbb9573b8	-0.004560914
44	0xb73b17a2	-1.1151571e-05
45	0xbc58bd85	-0.013228779
46	0xb590e5d2	-1.0795723e-06
47	0x3c2c2297	0.010506294
48	0xb6500897	-3.0999415e-06
49	0x3b091088	0.0020914394
50	0x34c48cfc	3.6610425e-07
51	0x36b07fe5	5.2600976e-06
52	0x35437a44	7.282108e-07
53	0xb4d7da8a	-4.020588e-07
54	0xb7271895	-9.959699e-06
55	0xbd1791b1	-0.037004177
56	0xb52b8a6a	-6.3903883e-07
57	0xbdcf54de	-0.10123609
58	0xb4b1afee	-3.3096825e-07
59	0x3313d590	3.442034e-08
60	0x35155a90	5.563861e-07
61	0x3533018e	6.668496e-07
62	0xb752d419	-1.2566358e-05
63	0xbc1f7d94	-0.00973453
64	0xb44f194c	-1.928758e-07
65	0xb4f49693	-4.55581e-07
66	0xb60da321	-2.110559e-06
67	0x381dd29b	3.762786e-05
68	0x39e95c6c	0.00044510083
69	0x3c61b6ed	0.013776523
70	0xbb113655	-0.0022157629
71	0xbd07ac82	-0.0331235
72	0x359c7f66	1.1659984e-06
73	0xbbe9a1ee	-0.007129899
74	0xb72cc4f4	-1.0297856e-05
75	0xbc8f669c	-0.017504983
76	0xb4629964	-2.1103693e-07
77	0x3c19a297	0.009377143
78	0xb65047cc	-3.1036207e-06
79	0x3a0b9190	0.00053241197
80	0x3434753f	1.680646e-07
81	0x36e7168b	6.886961e-06
82	0x349301f9	2.738232e-07
83	0x34d14387	3.8978416e-07
84	0xb72467b9	-9.799312e-06
85	0xbd3e7d5f	-0.046506282
86	0xb5eb021c	-1.7509478e-06
87	0xbd8c6c24	-0.06856564
88	0xb0678800	-8.423058e-10
89	0x34a6efab	3.109429e-07
90	0xb481d1fc	-2.4180906e-07
91	0xb4940c6a	-2.757618e-07
92	0x337101cc	5.611382e-08
93	0x35980290	1.1325628e-06
94	0x33e46c47	1.0636773e-07
95	0xb50fa6d6	-5.351443e-07
96	0x336918d4	5.427212e-08
97	0x33b0c123	8.23077e-08
98	0x346abf32	2.1862505e-07
99	0xb702bdcf	-7.792797e-06
100	0xb3ff6036	-1.18918635e-07
101	0x35517ad4	7.8037306e-07
102	0xb4eec44e	-4.4473785e-07
103	0xb4b5eb1a	-3.3884936e-07
104	0xb412fae0	-1.3688577e-07
105	0xb441c2b2	-1.8045355e-07
106	0xb46bab85	-2.1948479e-07
107	0xb3a6136c	-7.73351e-08
108	0x3450ac11	1.9434107e-07
109	0x3728cb44	1.0060907e-05
110	0xb39673d4	-7.005988e-08
111	0xb57534a4	-9.1346215e-07
112	0x34896cdf	2.5597453e-07
113	0x34f991ca	4.648594e-07
114	0x3424ecb6	1.5359805e-07
115	0xb42fe44b	-1.6381198e-07
116	0xb5af9cf3	-1.3084194e-06
117	0xb54104d8	-7.190515e-07
118	0x34baae4b	3.4772015e-07
119	0x346468ff	2.1272352e-07
120	0x34dd2905	4.1194303e-07
121	0x36329e22	2.6616112e-06
122	0xb280dba0	-1.5001035e-08
123	0xb99295f0	-0.00027959002
124	0x33a542c0	7.695553e-08
125	0xb4e56214	-4.2725935e-07
126	0x34e055b2	4.1785603e-07
127	0x33de4d98	1.0351795e-07
128	0x357bd796	9.3818505e-07
129	0x35aaeb3c	1.2734449e-06
130	0xb510b92c	-5.391364e-07
131	0xb5fdc199	-1.8906313e-06
132	0x35ac39b0	1.2831788e-06
133	0xb5e187ad	-1.6803293e-06
134	0xb535543a	-6.755032e-07
135	0x356b949c	8.7760577e-07
136	0x333e06a8	4.4243876e-08
137	0xb6911303	-4.32355e-06
138	0xb36b2e92	-5.4757557e-08
139	0x361b8ea6	2.3179832e-06
140	0x3542b1bf	7.2529286e-07
141	0xb515fe1f	-5.587662e-07
142	0x359dc0ad	1.1753488e-06
143	0x35c8bb4b	1.4955671e-06
144	0x362d50c2	2.5826016e-06
145	0x335f97e8	5.205939e-08
146	0xb57c7baa	-9.405727e-07
147	0x35673570	8.613197e-07
148	0x35a59129	1.2335705e-06
149	0xb58ae6d5	-1.0348982e-06
150	0xb54eddca	-7.7063726e-07
151	0x363414d2	2.683421e-06
152	0xb5492344	-7.4929653e-07
153	0x3941b15f	0.0001847199
154	0xb4ba8b30	-3.4746472e-07
155	0x34fe6fb1	4.7392453e-07
156	0x339f9a18	7.432044e-08
157	0x34fca8ff	4.706162e-07
158	0x34adeea8	3.2397406e-07
159	0xb55f14b6	-8.310411e-07
160	0xb40cf436	-1.312736e-07
161	0xb5e10204	-1.6764393e-06
162	0x35dd7fc0	1.6502963e-06
163	0xb5bdb404	-1.4133989e-06
164	0x34862966	2.4989566e-07
165	0x34b68353	3.3995693e-07
166	0x34811f85	2.4051056e-07
167	0xb6acbfe0	-5.1483366e-06
168	0x348bb084	2.60192e-07
169	0x35db74e6	1.6350793e-06
170	0xb42607d3	-1.5462801e-07
171	0x3506ad6d	5.017126e-07
172	0x3514e231	5.546345e-07
173	0x3583e9a5	9.82826e-07
174	0x36390473	2.7569738e-06
175	0x31913740	4.2263366e-09
176	0xb431ad15	-1.6547376e-07
177	0xb47c8030	-2.3515963e-07
178	0x359b40cf	1.1567262e-06
179	0xb56fec53	-8.9378335e-07
180	0x34a98c24	3.158067e-07
181	0x33e20fc8	1.0526816e-07
182	0x338ff654	6.703763e-08
183	0xb710e349	-8.635988e-06
184	0x34b7f201	3.4262487e-07
185	0xb499a22d	-2.861647e-07
186	0x335bfe8c	5.122142e-08
187	0x36d0d9fe	6.2242607e-06
188	0x36ccf705	6.1084306e-06
189	0xb6db902a	-6.5434915e-06
190	0xb4462231	-1.8452626e-07
191	0xb523ae0a	-6.097549e-07
192	0xb3d6de16	-1.0005549e-07
193	0xb79c15d9	-1.8606823e-05
194	0x341e9e01	1.4772378e-07
195	0xb4206eae	-1.4941426e-07
196	0xb3955753	-6.9542374e-08
197	0xb55e4065	-8.279515e-07
198	0x3452b8f1	1.9625055e-07
199	0xb6733638	-3.6241381e-06
200	0xb2e93d48	-2.7152637e-08
201	0xb4550a48	-1.9840911e-07
202	0x33d80e26	1.00608574e-07
203	0x33df3b5f	1.0395046e-07
204	0xb47b069e	-2.3378604e-07
205	0xb2880038	-1.5832583e-08
206	0xb3c58098	-9.1969184e-08
207	0xb5353d0c	-6.751659e-07
208	0xb34affa4	-4.7264294e-08
209	0x33882c99	6.341106e-08
210	0x35cc8253	1.5237114e-06
211	0x360ad132	2.068537e-06
212	0xb4dc4229	-4.102633e-07
213	0x355b9f52	8.18157e-07
214	0x34db18a0	4.0809846e-07
215	0x34de8684	4.1448595e-07
216	0xb4df42ea	-4.1585673e-07
217	0xb3975952	-7.047733e-08
218	0x359d23e1	1.1707854e-06
219	0xb354d01a	-4.9549364e-08
220	0x34efbae4	4.46532e-07
221	0x365b66b8	3.2693333e-06
222	0x3583a5d3	9.808522e-07
223	0x34860ec3	2.4970186e-07
224	0x343d2238	1.7614445e-07
225	0x3432b63e	1.6643841e-07
226	0x34bdf412	3.5381578e-07
227	0xb615cac6	-2.232076e-06
228	0xb5b21162	-1.3267093e-06
229	0xb5f4e2f7	-1.8245472e-06
230	0xb5aae2d2	-1.2732e-06
231	0x3518555e	5.674864e-07
232	0xb56d8db4	-8.8495585e-07
233	0x34fd9576	4.723367e-07
234	0xb3622af0	-5.2658777e-08
235	0xb4515bc7	-1.949803e-07
236	0xb5af26f8	-1.3049857e-06
237	0x35c080ca	1.4342597e-06
238	0xb50535ee	-4.962484e-07
239	0x33430f50	4.5415902e-08
240	0xb50120bc	-4.810388e-07
241	0x36041f36	1.96877e-06
242	0x344cb93b	1.9066367e-07
243	0x352a7824	6.350476e-07
244	0xb4fcc53c	-4.7082165e-07
245	0xb51982a6	-5.718706e-07
246	0xb555d132	-7.96531e-07
247	0x340b4a20	1.297235e-07
248	0xb57fa638	-9.523678e-07
249	0xb49c47c2	-2.9109475e-07
250	0xb3add4de	-8.0946606e-08
251	0x36194825	2.284077e-06
252	0x3559d79e	8.1152564e-07
253	0x3552130b	7.825881e-07
254	0xb42d32ac	-1.6130315e-07
255	0xb38cd9c8	-6.558872e-08

conv1.bias f4 [30]
0	0xb512e1b0	-5.4717657e-07
1	0xb961d988	-0.00021538709
2	0xba46efe9	-0.000758885
3	0xbdaafc4c	-0.08348903
4	0xbd013fd9	-0.03155503
5	0xbdc9a8ab	-0.09846624
6	0xbd71b993	-0.059014868
7	0xbd6981dc	-0.05700861
8	0x3de24d3e	0.11049889
9	0x3cfb58fc	0.03068208
10	0xbd25e6b8	-0.040503234
11	0xbe8a9139	-0.2706392
12	0x3726bd21	9.938406e-06
13	0xbe6fe90e	-0.23428747
14	0xbb116ea3	-0.0022191189
15	0xbdea035a	-0.114264205
16	0xbad26796	-0.00160526
17	0xbe257f0c	-0.16161746
18	0xbc474e4d	-0.012164664
19	0x3ea715ed	0.32633916
20	0x35a53f42	1.2311868e-06
21	0xbd174040	-0.036926508
22	0x368c7cc8	4.1868516e-06
23	0x37f39054	2.9035065e-05
24	0xbd147015	-0.036239702
25	0xbe039b44	-0.12852198
26	0x361b8b12	2.317775e-06
27	0xbee430d9	-0.44568518
28	0xb77662ba	-1.4685729e-05
29	0xb5b999f0	-1.3828376e-06

conv2.weight f4 [30, 10]
0	0x34b6a8bc	3.4022912e-07
1	0x333f56e0	4.4549665e-08
2	0x329e80b0	1.8452141e-08
3	0x3711f677	8.700058e-06
4	0x346d09de	2.2075935e-07
5	0xb37930b4	-5.8019126e-08
6	0xb5ef10f2	-1.7811819e-06
7	0x341ef4e6	1.480399e-07
8	0xb2e78c10	-2.6955632e-08
9	0xb5068594	-5.011327e-07
10	0x34d76f92	4.012805e-07
11	0x3622ad6b	2.4240824e-06
12	0x34f478d8	4.5536467e-07
13	0x3c590eaa	0.013248125
14	0xb4636226	-2.1176729e-07
15	0x34463e3d	1.8462829e-07
16	0x3781ed2d	1.5488442e-05
17	0x34bbba44	3.496699e-07
18	0x3454e5f0	1.982769e-07
19	0xb516d2cd	-5.618611e-07
20	0x3870b1e4	5.7386133e-05
21	0x338a1795	6.430415e-08
22	0xb50d2570	-5.258107e-07
23	0x3599c8dc	1.1457846e-06
24	0x33a661e2	7.747782e-08
25	0xb50b0b29	-5.1797775e-07
26	0xb3893f60	-6.3910875e-08
27	0xb3a2cf8c	-7.5814654e-08
28	0xbc050c50	-0.008120611
29	0xbd017b6d	-0.03161185
30	0xb52d1c49	-6.448868e-07
31	0x352c8018	6.4261394e-07
32	0xb64a7be6	-3.0172464e-06
33	0x3c3ca7c2	0.011514606
34	0xbb7bd7d2	-0.00384282
35	0xba1cd7c0	-0.0005983077
36	0xbc06773c	-0.008207139
37	0x37012b85	7.699132e-06
38	0x35919e67	1.0849443e-06
39	0x3cbd2259	0.023087667
40	0xb27def00	-1.47808805e-08
41	0xb4a55603	-3.0796227e-07
42	0xb7cf09d4	-2.46809e-05
43	0x377db066	1.5121046e-05
44	0x31ce1cc0	5.9986576e-09
45	0xb3e0a7c8	-1.0461332e-07
46	0xb4243f70	-1.5296769e-07
47	0xb690af1d	-4.3119203e-06
48	0x34e32c74	4.231439e-07
49	0x3423c078	1.5250578e-07
50	0xb3005ae0	-2.9884973e-08
51	0xb453d8c8	-1.9729771e-07
52	0x368238d8	3.8809194e-06
53	0x35e070c0	1.6722115e-06
54	0x3454c2e4	1.981494e-07
55	0xb50c4d5c	-5.2266637e-07
56	0xb60b2aab	-2.073745e-06
57	0x33f89990	1.1576333e-07
58	0xb45975d5	-2.0252567e-07
59	0xb47c52c0	-2.3499433e-07
60	0x35a2a886	1.2118987e-06
61	0xb5bba756	-1.3981287e-06
62	0xb3cd4cb8	-9.5600114e-08
63	0xbc901a5f	-0.0175907
64	0xb99551c7	-0.00028480423
65	0x3844f0e4	4.695439e-05
66	0xbb15ce2e	-0.0022858488
67	0xb42ee4cc	-1.6288249e-07
68	0x34f2721a	4.5159032e-07
69	0x3cad5595	0.021158973
70	0xb548e66c	-7.4841114e-07
71	0x33fca7b2	1.1765168e-07
72	0xbec848ea	-0.3911813
73	0xbec0ac05	-0.3763124
74	0x34c942a4	3.7487655e-07
75	0x3484d58c	2.4742292e-07
76	0xb5260ed6	-6.186141e-07
77	0xbecca887	-0.39972326
78	0xba76debc	-0.0009417345
79	0xbca2bd7d	-0.019865746
80	0xbc737dca	-0.014861533
81	0xb4bcead0	-3.5188577e-07
82	0xbe5f236d	-0.21790858
83	0xbf260ebd	-0.6486624
84	0xba66cb26	-0.0008804075
85	0xb995129e	-0.00028433366
86	0xbbccb890	-0.0062475875
87	0xbe8d3cef	-0.2758555
88	0xbdfeea5b	-0.124470435
89	0xbe411973	-0.18857364
90	0xb782a675	-1.557472e-05
91	0x3807d8f2	3.2388554e-05
92	0xbebdea57	-0.3709285
93	0xbea9c6fd	-0.3315963
94	0xb41f9ef4	-1.4865856e-07
95	0x34e175bc	4.199518e-07
96	0xb590a18f	-1.0775856e-06
97	0xbef079f6	-0.4696805
98	0xbd587116	-0.052842222
99	0xbe1cfa54	-0.15329868
100	0xbbde0083	-0.0067749633
101	0x3357ae80	5.0217295e-08
102	0x34b9fb9d	3.4642008e-07
103	0x3556e631	8.0056185e-07
104	0xb561f6a0	-8.417792e-07
105	0x3590c33f	1.078566e-06
106	0x353393f4	6.6897996e-07
107	0x30e80358	1.6881172e-09
108	0xbd9b2331	-0.075750716
109	0xbdcd5344	-0.10025647
110	0xbe077789	-0.13229193
111	0x354720e0	7.4181116e-07
112	0x37cbb2aa	2.4282683e-05
113	0xb514ec7e	-5.547844e-07
114	0xb4a41602	-3.0563393e-07
115	0xb5620b0c	-8.4207636e-07
116	0xb54159f4	-7.2029e-07
117	0xb4c9644d	-3.7512146e-07
118	0xbdf0c1ed	-0.117557384
119	0xbe86591e	-0.26239866
120	0x35937cd3	1.0988682e-06
121	0xb41aaf02	-1.4406035e-07
122	0xb50037de	-4.7765013e-07
123	0x36a8c75c	5.0299986e-06
124	0x35bb5f6b	1.3960356e-06
125	0xb5956134	-1.1129655e-06
126	0xb38da074	-6.5950104e-08
127	0x33e8b48c	1.0836183e-07
128	0xb82c6336	-4.1100393e-05
129	0x3bbed712	0.005823978
130	0xbdab0350	-0.08350241
131	0x34ebe8d3	4.3941563e-07
132	0xbe423d56	-0.1896871
133	0xbf389f59	-0.72118145
134	0xbae52cbc	-0.0017484645
135	0xba112a92	-0.00055376545
136	0xbbfaa578	-0.00764912
137	0xbe8bdcb9	-0.27316836
138	0xbe8d23d5	-0.275664
139	0xbeb1f061	-0.34753707
140	0xb5971e2b	-1.1259157e-06
141	0x351d197c	5.852414e-07
142	0x345bcbe7	2.0470144e-07
143	0xb50b7e7e	-5.1965606e-07
144	0xb2e22aa0	-2.6329246e-08
145	0xb42776e0	-1.5596333e-07
146	0xb3efdf38	-1.1169908e-07
147	0xb5002d1a	-4.774935e-07
148	0xb60f9eae	-2.1401024e-06
149	0xb64c5c65	-3.045215e-06
150	0xbd808008	-0.0627442
151	0x3440dede	1.7962472e-07
152	0x35f6b356	1.8380622e-06
153	0xb53e45d5	-7.0882135e-07
154	0xb5120108	-5.439074e-07
155	0xb4022ccb	-1.2123489e-07
156	0xb48c0d04	-2.6086502e-07
157	0x34ad2d92	3.2256918e-07
158	0xbe079812	-0.13241604
159	0xbe53fd44	-0.20702082
160	0xb538c540	-6.883238e-07
161	0xb4804b6b	-2.3896732e-07
162	0xb3d940f0	-1.0116662e-07
163	0x35f0e5da	1.7948289e-06
164	0x352e57e0	6.4947926e-07
165	0xb5b38b82	-1.3377141e-06
166	0xb563363b	-8.4643005e-07
167	0x348c9e2c	2.6192117e-07
168	0xb2bb81d0	-2.1828697e-08
169	0xb67252f0	-3.6109086e-06
170	0xbe4f406e	-0.20239422
171	0x36024039	1.9408892e-06
172	0x3e091a5c	0.13388962
173	0xbd4f1e82	-0.050566204
174	0x360a834b	2.0640025e-06
175	0x341a6bec	1.438163e-07
176	0xb5301a22	-6.560314e-07
177	0xbca5bc78	-0.02023147
178	0xbea314dc	-0.31851852
179	0xbec1f737	-0.37883922
180	0x3531b7ad	6.620492e-07
181	0x340a7704	1.2895549e-07
182	0x33e890de	1.0829693e-07
183	0xbdbcf021	-0.092254885
184	0xbc7de96f	-0.015497549
185	0xbb2a8fe6	-0.0026025712
186	0xbc7cad21	-0.0154221365
187	0x348bfdb2	2.6075355e-07
188	0xb75d9b34	-1.32087625e-05
189	0x3e4453e2	0.19172624
190	0xbe775134	-0.2415207
191	0xbebcb6b9	-0.36858156
192	0xbec9fd7a	-0.394512
193	0xbf22f75e	-0.636587
194	0xb69766fb	-4.512139e-06
195	0xb6cbe785	-6.076824e-06
196	0xb701a114	-7.726503e-06
197	0xbed5c609	-0.4175265
198	0xbea848ad	-0.32867947
199	0xbee968dc	-0.45587814
200	0x3483c644	2.454491e-07
201	0x342356bd	1.5212113e-07
202	0xb2b1d424	-2.0701982e-08
203	0x35fbe2e5	1.8766992e-06
204	0xb38e82ce	-6.6361835e-08
205	0xb3043d08	-3.0789153e-08
206	0xb56d42ce	-8.8386594e-07
207	0xb4dd6ee4	-4.124514e-07
208	0xb385d784	-6.232497e-08
209	0xb4a3fb7a	-3.054409e-07
210	0xb4fe6421	-4.738404e-07
211	0xb4e479be	-4.2556889e-07
212	0xb3372324	-4.2639968e-08
213	0xbd4aeddc	-0.049543247
214	0xbb33c58c	-0.002743098
215	0xba308a50	-0.00067344774
216	0xbbe6a34f	-0.007038511
217	0x3462c45c	2.1119325e-07
218	0x3699f80c	4.588632e-06
219	0x3dee56c9	0.11637647
220	0x344d34b0	1.911128e-07
221	0xb17a2ec0	-3.6406362e-09
222	0xb2a514d0	-1.9217993e-08
223	0xb5de57f9	-1.6565892e-06
224	0xb34c4600	-4.7561116e-08
225	0x34036a3c	1.2238974e-07
226	0x355f9c1b	8.3301137e-07
227	0xb33115cc	-4.1230848e-08
228	0xb406a175	-1.253846e-07
229	0x34b1a7c3	3.3090882e-07
230	0xb4af81dc	-3.2690775e-07
231	0x34ddcd98	4.1314047e-07
232	0x34425e52	1.8101971e-07
233	0x34360e16	1.6955195e-07
234	0x3475b960	2.2884842e-07
235	0x3430ec80	1.6477316e-07
236	0x35082052	5.071098e-07
237	0xb4f49fcd	-4.5564812e-07
238	0x339e9c6c	7.385901e-08
239	0x344dfa3a	1.9183145e-07
240	0x338e0e44	6.614985e-08
241	0xb31b8b52	-3.621546e-08
242	0x34896708	2.5593204e-07
243	0xba072696	-0.0005155591
244	0xb674f75f	-3.6502822e-06
245	0x35e8d384	1.7346906e-06
246	0x34299ac8	1.579566e-07
247	0x33963e04	6.9962e-08
248	0x3738b240	1.1008757e-05
249	0x3be5fbb5	0.007018531
250	0x35e128f8	1.677573e-06
251	0x3460b3f8	2.0927098e-07
252	0x348ecc9e	2.659844e-07
253	0xb5518a90	-7.80602e-07
254	0xb3f6f84c	-1.15004326e-07
255	0x32f01a50	2.7951643e-08

conv2.bias f4 [10]
0	0xbe334440	-0.17506504
1	0xbda7b67c	-0.08189103
2	0xbe0c745a	-0.1371626
3	0xbe39f4c7	-0.18159781
4	0xbe150694	-0.1455329
5	0xbdef042d	-0.11670718
6	0xbd2f1506	-0.04274466
7	0xbe345635	-0.1761101
8	0xbea8b28f	-0.3294873
9	0xbe0d97a6	-0.1382738

rnn.weight_ih_l0 f4 [30, 1]
0	0xc00182da	-2.0236115
1	0x3f6c984d	0.9241989
2	0xbd68ab59	-0.056804035
3	0xbf6520ad	-0.89502984
4	0x3f11ac78	0.5690379
5	0x3f3e178e	0.7425469
6	0x3efb6178	0.490978
7	0x3e8363a9	0.25661972
8	0x3dfb42e2	0.12268616
9	0x3ec86759	0.39141348
10	0xbf8f1b33	-1.1180176
11	0x3e4507bc	0.19241232
12	0xbee6c131	-0.45069268
13	0xbf281118	-0.65651083
14	0x3f088984	0.5333483
15	0xbf426158	-0.75929785
16	0x3f00a86b	0.50256985
17	0xbfcb4578	-1.5880575
18	0xbed061d7	-0.40699646
19	0x3f324a8b	0.69644994
20	0xbe400727	-0.18752728
21	0x3fd5d4ff	1.6705626
22	0x4097078e	4.719672
23	0xbef28c34	-0.47372591
24	0x3e2b3866	0.16720733
25	0xbe80060d	-0.25004616
26	0x3cdeee12	0.02721313
27	0x3f0efc26	0.558535
28	0x3f312069	0.6919008
29	0x3e241740	0.16024494
