colagnn-master-Run-Epi/src/save/cola_gnn_epi.us_hhs.w-20.h-8.RNN.lam-1.0.epo-500.pt (torch, 49334 bytes, 32 tensors)

V f4 [15]
000000 81 3c ec be 9f 70 5a bd 6a 48 3c be 1c ad 0c 37
       -0.4613991 -0.05333006 -0.18386999 8.384955e-06
000010 3d 72 e1 bc 8b b2 1f bd 97 44 80 be 96 0f c1 bc
       -0.027520293 -0.03898863 -0.2505233 -0.023567002
000020 51 53 f0 3d 85 c4 2d 3d 0e 51 ba 3d 5d a5 15 bd
       0.11734641 0.042423744 0.09097491 -0.036534656
000030 f5 3d a4 bd 08 67 0a c0 cf db c9 bd
       -0.0801963 -2.1625385 -0.09856378

W1 f4 [15, 30]
000000 f4 ca 1f 3c 1f d4 24 3c 2e ab 1a 3b 6e 1f 22 bc
       0.009752978 0.010060339 0.0023600566 -0.009895189
000010 7b 54 26 bc da 11 63 bc da 9f 31 bb 5e b2 1d 3c
       -0.010151978 -0.013859237 -0.0027103336 0.009625046
000020 29 8e 0b bc 1e f5 2e 3b 7a b6 03 ba c6 81 34 3b
       -0.00851778 0.0026696394 -0.00050244445 0.0027543171
000030 43 1d 14 bb 66 07 16 bb 47 50 1e 3c 0c ab 17 3c
       -0.002260045 -0.0022892593 0.009662694 0.009257089
000040 1b 54 1e bc 04 2e 26 3c f8 b9 24 bc 7e c1 2a 3b
       -0.009663607 0.010142807 -0.010054104 0.0026055272
000050 21 39 1f 3c ac 26 34 bb 9e f5 49 bb 69 5f 25 3c
       0.00971821 -0.002748887 -0.0030816565 0.010093548
000060 83 35 18 bc 16 79 19 3b 74 0d 2a bc 18 03 32 3b
       -0.009290102 0.002341812 -0.010379184 0.0027162489
000070 b9 b2 39 bb 0c 5e 24 bc c5 46 15 bc f0 51 19 bc
       -0.0028335287 -0.010032188 -0.009111111 -0.009357914
000080 bd f8 6c 3c 38 dd 15 3c fc 84 19 3c 76 fb 68 bc
       0.014463601 0.009146981 0.009370085 -0.014220109
000090 de c3 68 bc f2 c3 15 bc 7d 17 1a 3c 04 ea 68 3c
       -0.014206855 -0.009140955 0.009405014 0.01421595
0000a0 30 72 48 3c 16 b8 68 3c 9a cb 6c bc f5 ed 6c bc
       0.012234256 0.014204046 -0.014452839 -0.01446103
0000b0 2a 75 15 bc 16 00 0e bc a4 81 10 3c 64 91 19 bc
       -0.009122172 -0.008667013 0.008819971 -0.009373043
0000c0 d1 f4 19 3c 7e d3 59 3b 3e 12 16 bc c1 c9 68 bc
       0.009396748 0.0033237631 -0.009159623 -0.014208258
0000d0 b9 59 6b bc ff 49 19 bc 37 7b 0f 3c 64 fd 6c 3c
       -0.014364653 -0.009356021 0.008757404 0.01446471
0000e0 aa bb 18 3c d1 c4 68 3c 59 46 68 bc 58 88 19 3c
       0.009322086 0.014207081 -0.014176928 0.009370886
0000f0 36 5f c0 3b 78 58 c0 3b b0 0a 69 3b 06 cd bf bb
       0.005870725 0.0058699213 0.0035559349 -0.005853298
000100 be da c1 bb e9 09 07 bc 35 6e 6c bb 19 ed be 3b
       -0.0059159687 -0.008242109 -0.003607643 0.005826604
000110 1d 15 b0 bb 64 c3 6a 3b 83 11 21 3b 58 18 6c 3b
       -0.0053736106 0.0035822028 0.0024577088 0.0036025252
000120 f4 2c 68 bb c8 40 68 bb 3e 48 be 3b 5d 84 bc 3b
       -0.0035427185 -0.0035439003 0.005806952 0.0057530836
000130 5d 59 bf bb a3 22 c1 3b 5b b9 c0 bb 50 5a d7 3b
       -0.0058395104 0.0058940216 -0.005881471 0.0065720454
000140 f4 f5 bf 3b c1 c9 6b bb 06 ef 6a bb 17 05 c1 3b
       0.0058581773 -0.003597841 -0.0035848035 0.0058904993
000150 32 52 bc bb c1 97 68 3b a8 2d c5 bb fc 05 6c 3b
       -0.005747103 0.0035490843 -0.0060174055 0.003601431
000160 cc a2 6e bb 55 18 c0 bb 96 e6 01 b6 be 19 03 b6
       -0.0036412952 -0.0058622756 -1.9356717e-06 -1.9535505e-06
000170 38 6e 03 b6 b6 f2 00 36 76 9c 01 36 fc a3 4a 36
       -1.9584677e-06 1.9214763e-06 1.931357e-06 3.0195797e-06
000180 d4 bb 01 36 78 49 01 b6 1e b9 01 36 9c a9 01 b6
       1.9331828e-06 -1.9265262e-06 1.933025e-06 -1.9321224e-06
000190 16 56 0d b6 93 58 01 b6 4d e7 00 36 9f 9f 01 36
       -2.1060746e-06 -1.9274055e-06 1.920812e-06 1.931541e-06
0001a0 cd 10 00 b6 9e f1 0b b6 71 ab 02 36 70 f5 03 b6
       -1.9083266e-06 -2.0853254e-06 1.9471302e-06 -1.9663385e-06
0001b0 ec 9c 01 36 57 f4 a4 b6 cb a7 01 b6 a9 94 01 36
       1.9313838e-06 -4.916026e-06 -1.9320166e-06 1.930903e-06
0001c0 ea 65 f9 35 d1 a4 01 b6 be f1 0a 36 b4 c0 03 b6
       1.8581607e-06 -1.9318434e-06 2.0704315e-06 -1.963269e-06
0001d0 5b c7 01 36 27 ac 01 b6 60 f6 01 36 98 aa 01 36
       1.9338538e-06 -1.9322704e-06 1.9365907e-06 1.9321797e-06
0001e0 52 24 25 3d 6f ca 25 3d 7d 2c 29 bd 9f 10 25 bd
       0.04031784 0.04047626 -0.041302193 -0.040299054
0001f0 1e ab 28 bd b8 6b 29 3d c5 eb 27 3d 0e 4e 25 3d
       -0.041178815 0.041362494 0.04099633 0.040357642
000200 2c de 22 bd e8 c6 27 bd 8b cf 26 bd fe e5 27 bd
       -0.03976266 -0.040961176 -0.040725272 -0.040990822
000210 ad 7b 2a 3d 39 09 2b 3d 71 40 25 3d 7b 33 22 3d
       0.041621853 0.041756842 0.04034466 0.039599877
000220 0c ee 21 bd 56 65 27 3d 58 85 27 bd 51 a5 03 3a
       -0.03953366 0.040868126 -0.04089865 0.00050218875
000230 5b 4c 25 3d 75 23 28 3d 74 01 2a 3d 7d 57 27 3d
       0.04035602 0.04104944 0.041505292 0.04085492
000240 f1 26 24 bd ac 48 29 bd 66 1a 26 bd 61 01 28 bd
       -0.0400762 -0.04132907 -0.04055252 -0.04101694
000250 3b 0b 26 3d 89 a9 25 bd 01 c0 88 bb a3 3e 93 bb
       0.040538054 -0.040444884 -0.0041732793 -0.004493551
000260 5d 72 16 3c 51 4d 8a 3b ff 71 93 3b ee 50 0f bc
       0.00918254 0.0042206426 0.0044996734 -0.0087473225
000270 40 2e 11 bc b3 86 8a bb af f4 91 3b ea 91 11 3c
       -0.0088611245 -0.004227483 0.0044542174 0.008884886
000280 ce 4f ee 3b ca 1c 11 3c a6 67 16 bc ae 56 16 bc
       0.007272697 0.0088569615 -0.009179985 -0.0091759395
000290 6a 34 89 bb fd ad 7e bb 4d 07 83 3b a2 93 93 bb
       -0.0041871564 -0.003886103 0.003998673 -0.004503683
0002a0 8c ff 93 3b 65 3f 2d 3b 9f 13 8a bb c3 38 11 bc
       0.0045165475 0.002643549 -0.004213765 -0.008863631
0002b0 5a de 14 bc ac 1b 93 bb 83 97 7e 3b 70 75 16 3c
       -0.009086216 -0.0044893827 0.0038847632 0.009183273
0002c0 60 1a 92 3b ff 32 11 3c e0 0e 11 bc 22 88 93 3b
       0.0044587106 0.008862256 -0.008853644 0.0045023123
0002d0 e2 72 ae 3c f8 63 ae 3c 68 7a ae 3c d0 68 ad bc
       0.021295015 0.021287903 0.021298602 -0.021168143
0002e0 f7 77 ae bc 7c d8 96 bb 10 6e ae bc 6d 25 ad 3c
       -0.021297438 -0.0046034437 -0.021292716 0.02113601
0002f0 20 93 ae bc e9 2c ae 3c 4a f5 b0 3c e0 cf ac 3c
       -0.021310389 0.02126165 0.021601338 0.021095216
000300 fe b2 ad bc e4 85 ae bc 79 f2 ac 3c 6e 72 d9 3c
       -0.021203514 -0.021304078 0.021111714 0.026543822
000310 70 cf ae bc 29 79 ae 3c 39 5c ae bc d6 f2 ee 3c
       -0.021339148 0.021298008 -0.02128421 0.029168528
000320 23 77 ae 3c 31 a3 ad bc 90 b4 a6 bc ec 87 ae 3c
       0.021297043 -0.02119598 -0.02034977 0.021305047
000330 be 10 d8 bc 2f 79 ae 3c 3b da ae bc d0 77 ae 3c
       -0.02637517 0.02129802 -0.021344295 0.021297365
000340 f7 80 ae bc a7 7c ae bc 64 86 1c 3d c9 29 1b 3d
       -0.02130173 -0.021299673 0.038214102 0.037881646
000350 e6 83 26 bd bf 57 1d bd 6e d4 1c bd 26 a7 20 3d
       -0.040653132 -0.03841376 -0.038288526 0.039221905
000360 35 58 28 3d 8f f2 1c 3d 2d 16 1e bd 6c 7c 28 bd
       0.041099746 0.03831726 -0.038595367 -0.041134283
000370 1a 4c 1e bd 52 25 28 bd 92 68 28 3d 6a 72 28 3d
       -0.038646795 -0.041051216 0.04111535 0.04112474
000380 16 7c 1c 3d d3 87 1c 3d ba 62 19 bd d4 4a 1a 3d
       0.038204275 0.03821547 -0.03744767 0.037669018
000390 fb 42 1d bd 2e db b1 38 7e 05 1d 3d 5e 7a 28 3d
       -0.038393956 8.480843e-05 0.038335316 0.041132323
0003a0 d7 a3 27 3d 70 d6 1c 3d 94 72 1c bd 3f 21 26 bd
       0.040927734 0.03829044 -0.038195208 -0.04055905
0003b0 f6 bc 1c bd 33 67 28 bd b7 87 26 3d 2a d6 1c bd
       -0.038266145 -0.041114043 0.04065677 -0.03829018
0003c0 2b a0 e8 3c 52 ef f1 3c ef 56 1d bd 8e e4 e9 bc
       0.028396687 0.029533062 -0.038412984 -0.028551366
0003d0 be f7 ef bc 04 59 17 3d 28 63 18 3d fc 74 e8 3c
       -0.029292937 0.036950126 0.037203938 0.028376095
0003e0 d1 ad f0 bc cb b4 18 bd 91 75 14 bd 01 63 18 bd
       -0.029379757 -0.037281793 -0.036244933 -0.037203792
0003f0 a1 40 1c 3d c4 6f 1c 3d af 5a e8 3c 17 74 e6 3c
       0.038147572 0.038192526 0.028363554 0.028131528

b1 f4 [15]
000000 b7 e0 20 3c 5d e4 14 bc c4 f7 c0 3b 58 9b 01 b6
       0.009819201 -0.009087649 0.005888911 -1.931292e-06
000010 8b b7 26 3d d1 bd 87 bb b2 75 ae 3c b4 0b 1b 3d
       0.040702384 -0.004142501 0.021296356 0.037852958
000020 08 94 ea 3c b0 ab cd 3d a6 17 18 3d f2 c1 13 bc
       0.02863504 0.100425124 0.037131928 -0.009018408
000030 5c c7 9f 3b 28 f5 1d 3e da e8 6f ba
       0.0048760604 0.15425551 -0.0009151824

W2 f4 [15, 30]
000000 8e 69 1f 3c 77 e5 24 3c 1e 1a 18 3b f6 8b 51 bc
       0.009729756 0.010064474 0.0023208926 -0.012789717
000010 c4 59 26 bc 96 76 5d 3e 9e 93 33 bb 7c 11 04 3c
       -0.010153238 0.21627268 -0.002740122 0.008060809
000020 82 8d b8 3a 72 32 30 3b c6 d0 9d ba fc f4 08 3b
       0.0014080259 0.0026885536 -0.0012040369 0.0020897975
000030 50 51 20 bb 55 a2 11 bb a1 aa 25 3c 5b 93 1a 3c
       -0.0024462529 -0.0022222002 0.010111482 0.009434546
000040 c0 57 1e bc 24 8a 25 3c 9c 98 24 bc 9d ec 50 3b
       -0.009664476 0.010103736 -0.010046151 0.0031879314
000050 16 94 1e 3c 1e 25 0d bb e0 1a 82 bb f9 19 25 3c
       0.009678861 -0.0021537016 -0.003970489 0.010076993
000060 d9 aa 2d bc e6 4d 1b 3b 0c b8 63 bc ec 49 2f 3b
       -0.010599815 0.0023697554 -0.013898861 0.0026746942
000070 2a ca 3b bb 17 25 25 bc bd 2e 15 bc 70 24 19 bc
       -0.0028654435 -0.010079644 -0.009105382 -0.009347066
000080 8a b8 6c 3c 3a c6 0f 3c d3 14 19 3c 0c 1e 3c 3c
       0.014448294 0.008775288 0.009343344 0.011481773
000090 14 e6 68 bc 7a 0e 19 bc 6c f7 23 3c de b0 68 3c
       -0.014215011 -0.00934183 0.01000772 0.014202325
0000a0 fd ed 45 3c 90 60 67 3c 77 b9 6c bc cb d8 6c bc
       0.012080667 0.014122143 -0.014448515 -0.014455984
0000b0 b4 de 13 bc a3 d7 0f bc 1e 88 10 3c d0 1d 19 bc
       -0.0090252645 -0.008779439 0.008821515 -0.009345487
0000c0 bd 0d 1a 3c d8 ec 47 3b 58 07 16 bc 7f c0 67 bc
       0.0094026895 0.003050616 -0.009157024 -0.014145016
0000d0 d1 85 6d bc 4a 45 19 bc 0b 8b 0d 3c eb b9 6c 3c
       -0.014497236 -0.009354899 0.008639107 0.014448623
0000e0 98 2b 0f 3c f8 c5 68 3c 5c 66 68 bc ee 6f 19 3c
       0.008738421 0.014207356 -0.014184561 0.009365065
0000f0 d9 2f c0 3b 10 6b c0 3b e1 22 68 3b 4e 76 e9 bb
       0.005865079 0.005872138 0.003542118 -0.0071246987
000100 a2 db c1 bb 02 1a d6 3d b2 b5 6d bb a1 cc a6 3b
       -0.005916075 0.10454179 -0.003627163 0.0050903116
000110 c0 73 b4 ba a4 5e 6b 3b 4e 9e 0a 3b 04 88 54 3b
       -0.0013767406 0.0035914565 0.0021151486 0.0032429704
000120 66 ba 6d bb 80 99 66 bb e5 9d c5 3b 9e a1 be 3b
       -0.0036274432 -0.0035186708 0.0060307854 0.005817606
000130 59 75 bf bb e8 c2 c0 3b 2c 87 c0 bb b7 e1 c3 3b
       -0.0058428464 0.0058826096 -0.0058754887 0.005977835
000140 bb 71 bf 3b f6 64 58 bb da cd 80 bb 05 c1 c0 3b
       0.005842415 -0.0033019162 -0.0039307894 0.0058823847
000150 1e c5 cf bb f3 60 69 3b ba 07 fa bb fc 36 69 3b
       -0.006340637 0.0035610765 -0.0076303156 0.0035585752
000160 a1 a6 6f bb 22 d8 c0 bb 71 80 02 b6 f8 0a 01 b6
       -0.0036567824 -0.00588514 -1.9446272e-06 -1.9228883e-06
000170 d8 90 fe b5 fd 7c 00 36 f7 9b 01 36 2f 16 67 b7
       -1.896663e-06 1.914624e-06 1.9313281e-06 -1.3773838e-05
000180 5e a4 01 36 32 56 fd b5 91 20 02 36 a3 89 01 b6
       1.9318172e-06 -1.8875055e-06 1.9390466e-06 -1.9302613e-06
000190 2a 53 0d b6 93 56 fc b5 50 80 01 36 b8 9d 01 36
       -2.1059045e-06 -1.880066e-06 1.9297186e-06 1.9314302e-06
0001a0 df b0 02 b6 41 e3 0b b6 03 2e 03 36 ac fb 01 b6
       -1.9474462e-06 -2.0844893e-06 1.9547304e-06 -1.936899e-06
0001b0 29 9d 01 36 38 ee 98 b6 be aa 01 b6 d7 a7 fd 35
       1.9313977e-06 -4.5576853e-06 -1.9321883e-06 1.8898817e-06
0001c0 f5 85 ee 35 e9 9f 01 b6 0c fa 0b 36 6e ee 00 b6
       1.7771368e-06 -1.9315578e-06 2.085816e-06 -1.921227e-06
0001d0 19 80 03 36 8d 9e 01 b6 87 d3 02 36 0f a9 01 36
       1.9595084e-06 -1.9314787e-06 1.9494635e-06 1.9320903e-06
0001e0 9d f2 24 3d 5c 2e 26 3d 47 a8 29 bd 14 05 27 bd
       0.040270437 0.040571555 -0.041420247 -0.040776327
0001f0 1e b6 28 bd eb 3d 23 3d 4e 2c 28 3d e8 a2 25 3d
       -0.041189305 0.03985397 0.041057877 0.040438563
000200 bb b4 12 bd 87 8e 27 bd 4a e3 26 bd 54 2a 28 bd
       -0.03581689 -0.04090741 -0.040744103 -0.041055992
000210 8c 4c 29 3d 1f dd 2b 3d d1 53 25 3d e2 ff 25 3d
       0.041332766 0.041958924 0.040363137 0.040527232
000220 70 fc 21 bd 56 0a 27 3d 12 96 27 bd c3 48 a6 39
       -0.039547384 0.04078134 -0.040914603 0.000317162
000230 6d ef 24 3d 57 25 29 3d e3 56 2a 3d 18 ec 26 3d
       0.040267397 0.041295376 0.041586768 0.0407525
000240 ac bc 27 bd a4 6c 29 bd c6 be 25 bd f4 84 28 bd
       -0.040951416 -0.041363373 -0.04046514 -0.04114242
000250 e8 05 26 3d 50 fe 26 bd dc 74 88 bb 74 cc 92 bb
       0.040532976 -0.040769875 -0.0041643213 -0.004479939
000260 53 31 16 3c e4 db 79 3b 9f d9 92 3b 0c 42 25 3c
       0.009167033 0.003812545 0.004481509 0.010086548
000270 96 64 11 bc 76 5a 8f bb 04 07 aa 3b c1 15 11 3c
       -0.008874079 -0.0043747975 0.0051888246 0.008855284
000280 e2 ff e9 3b f8 ed 0f 3c c0 52 16 bc da 4c 16 bc
       0.0071410993 0.0087847635 -0.009175003 -0.009173596
000290 94 a9 86 bb 0f 1d 80 bb 90 d6 82 3b e5 40 92 bb
       -0.0041095708 -0.003909714 0.003992863 -0.0044633024
0002a0 5a 9b 94 3b a4 70 23 3b dd 17 8a bb 83 5d 10 bc
       0.004535121 0.0024938965 -0.0042142705 -0.008811357
0002b0 d0 89 17 bc c2 1b 93 bb 59 0f 76 3b bc 29 16 3c
       -0.009249166 -0.004489393 0.003754577 0.009165224
0002c0 42 3f 81 3b 29 3a 11 3c 77 5b 11 bc 46 26 93 3b
       0.0039443085 0.008863964 -0.008871905 0.0044906465
0002d0 e9 71 ae 3c 91 09 ae 3c 66 77 ae 3c 0f df ad bc
       0.021294551 0.021244796 0.021297168 -0.021224527
0002e0 26 76 ae bc 0c e6 7e 3e 08 45 ae bc 42 5c a7 3c
       -0.021296572 0.24892443 -0.021273151 0.020429734
0002f0 be 2a ae bc 08 22 ae 3c ea a8 b0 3c 8f 37 a9 3c
       -0.021260615 0.021256462 0.02156492 0.020656375
000300 fd 75 ae bc 21 66 ae bc 6c aa af 3c 76 4e d9 3c
       -0.021296496 -0.021288933 0.021443568 0.02652667
000310 be c7 ae bc b0 f4 ad 3c 88 79 ae bc b8 49 e9 3c
       -0.021335479 0.02123484 -0.021298185 0.028477535
000320 79 76 ae 3c 58 e9 aa bc 1c 16 a3 bc aa 89 ae 3c
       0.021296727 -0.02086322 -0.019908004 0.021305878
000330 c9 26 d9 bc f1 74 ae 3c 5f c4 b2 bc 1e 76 ae 3c
       -0.026507752 0.021295996 -0.021822153 0.021296557
000340 0f 7f ae bc 72 66 ae bc b5 de 1b 3d 7b 8d 1a 3d
       -0.02130082 -0.021289084 0.038054187 0.037732583
000350 d0 56 24 bd 28 95 19 bd 9f d6 1c bd ae db 61 3d
       -0.040121853 -0.037495762 -0.038290616 0.055141144
000360 50 27 28 3d 93 49 1d 3d cf 84 23 bd 1e a2 28 bd
       0.041053116 0.038400244 -0.039921578 -0.041170232
000370 09 5d 1d bd 4d 2f 27 bd d3 a2 28 3d 06 28 28 3d
       -0.038418803 -0.040816594 0.041170906 0.041053794
000380 78 e2 1b 3d 2a d1 1c 3d 65 ea 18 bd c9 55 1c 3d
       0.038057774 0.038285412 -0.03733291 0.03816775
000390 4f 61 1d bd 25 8e 3f b9 28 0d 1d 3d 05 fd 27 3d
       -0.03842288 -0.00018268132 0.038342625 0.041012783
0003a0 3a 91 2a 3d 53 e2 1c 3d f5 26 1c bd fe 63 26 bd
       0.041642405 0.038301777 -0.03812309 -0.040622704
0003b0 a5 4e 1b bd c1 77 28 bd f2 fb 26 3d 82 d3 1c bd
       -0.0379168 -0.04112983 0.040767618 -0.038287647
0003c0 de 03 e9 3c ad 0e f3 3c b8 d7 1d bd 03 b7 d7 bc
       0.028444227 0.029670084 -0.038535804 -0.026332384
0003d0 e2 1d f0 bc 71 43 80 3c 60 83 18 3d 63 43 ec 3c
       -0.029311124 0.015657159 0.037234664 0.028840726
0003e0 9f 01 15 bd 1f bc 18 bd b6 f6 13 bd 4c 99 17 bd
       -0.0363785 -0.03728878 -0.036123954 -0.03701143
0003f0 ea aa 1c 3d e7 ef 1b 3d 99 b3 e7 3c 65 49 e9 3c
       0.038248934 0.038070586 0.028283881 0.02847738

Wb f4 [10, 10]
000000 97 9e 65 bf 74 27 b9 bf 4a 60 c8 3e d0 28 4d 3f
       -0.89695114 -1.4465165 0.39135963 0.801404
000010 3f 81 7d 3f f5 c2 38 3f e8 cd 89 3e 44 0f 51 3f
       0.9902534 0.7217248 0.26914907 0.8166392
000020 8a a4 ca bf 5d bc ac be af 20 65 bf b8 42 b9 bf
       -1.5831463 -0.3373746 -0.89502996 -1.4473486
000030 81 d9 c8 3e db c9 4c 3f 73 8b 7d 3f 60 fd 38 3f
       0.39228442 0.79995507 0.9904091 0.7226162
000040 91 f4 89 3e 94 ed 50 3f cb b6 ca bf 76 43 ac be
       0.26944402 0.81612515 -1.5837034 -0.3364522
000050 cc 97 65 bf 6b 27 b9 bf 3e 71 c8 3e 2a 22 4d 3f
       -0.8968475 -1.4465154 0.39148897 0.80130255
000060 a6 7e 7d 3f af b6 38 3f a2 d1 89 3e 9a 08 51 3f
       0.99021375 0.72153753 0.2691775 0.8165375
000070 55 a7 ca bf 09 9c ac be 8f 3d 65 bf d5 41 b9 bf
       -1.5832316 -0.33712795 -0.89547056 -1.4473215
000080 fb b7 c8 3e fb e0 4c 3f 54 89 7d 3f a7 e0 38 3f
       0.39202866 0.8003079 0.9903767 0.7221779
000090 24 34 8a 3e da d4 50 3f 2b b6 ca bf 08 3f ac be
       0.26992905 0.81574786 -1.5836843 -0.3364184
0000a0 ef 9d 65 bf 85 26 b9 bf e9 5b c8 3e 5d 33 4d 3f
       -0.8969411 -1.446488 0.39132622 0.801565
0000b0 6d 88 7d 3f 64 99 38 3f e8 0d 8a 3e 2c f1 50 3f
       0.99036294 0.72109056 0.26963735 0.81618
0000c0 13 a4 ca bf ba c3 ac be 4b 67 65 bf 83 3d b9 bf
       -1.5831321 -0.33743078 -0.8961074 -1.4471897
0000d0 9a bc c8 3e e2 18 4d 3f 79 86 7d 3f 68 a0 38 3f
       0.39206392 0.80116093 0.99033314 0.7211976
0000e0 5f 5e 8a 3e ea d5 50 3f 13 ab ca bf e6 e5 ac be
       0.27025124 0.81576407 -1.5833458 -0.3376915
0000f0 00 77 65 bf 86 2d b9 bf cb 9d c8 3e 53 1d 4d 3f
       -0.89634705 -1.4467018 0.39182886 0.8012287
000100 a5 7d 7d 3f 7c 78 38 3f 57 4c 8a 3e 8f d5 50 3f
       0.99019843 0.72058845 0.27011368 0.81575865
000110 3e a5 ca bf 7c 1c ad be 4e 80 65 bf a3 2b b9 bf
       -1.5831678 -0.33810794 -0.896489 -1.4466442
000120 2b 88 c8 3e ec 3d 4d 3f 2d 89 7d 3f e5 65 38 3f
       0.39166388 0.8017261 0.9903744 0.7203048
000130 e6 62 8a 3e fe d1 50 3f 90 a0 ca bf 7f 3a ad be
       0.2702858 0.8157042 -1.583025 -0.3383369
000140 40 03 65 bf 51 3e b9 bf 56 4a c9 3e 3c e5 4c 3f
       -0.89458084 -1.4472142 0.39314526 0.80037284
000150 58 91 7d 3f 58 73 38 3f 2a 4e 8a 3e 31 a4 50 3f
       0.990499 0.72051 0.2701276 0.81500536
000160 7c ac ca bf 5f 13 ad be f7 61 65 bf d7 2c b9 bf
       -1.5833888 -0.3380384 -0.8960261 -1.4466809
000170 a6 a0 c8 3e 8c 20 4d 3f 7d 8e 7d 3f 85 69 38 3f
       0.39185065 0.8012779 0.99045545 0.7203601
000180 80 d5 89 3e 4d fb 50 3f 5b a0 ca bf 46 1d ad be
       0.269207 0.81633455 -1.5830187 -0.33811396

conv.weight f4 [10, 1, 20]
000000 0d 23 00 80 c7 16 00 80 4e 20 00 80 c6 17 00 00
       -1.2574e-41 -8.171e-42 -1.1589e-41 8.528e-42
000010 d3 21 00 00 a1 21 00 00 5f 1f 00 00 6e 1f 00 00
       1.2134e-41 1.2064e-41 1.1254e-41 1.1275e-41
000020 de 21 00 00 1b 1f 00 00 c3 07 00 80 5b 1c 00 80
       1.2149e-41 1.1159e-41 -2.784e-42 -1.0172e-41
000030 78 18 00 80 16 07 00 80 7d 0c 00 00 c8 22 00 80
       -8.778e-42 -2.542e-42 4.48e-42 -1.2477e-41
000040 d6 03 00 80 03 cf 01 80 00 53 00 80 bf 45 15 00
       -1.376e-42 -1.66097e-40 -2.9775e-41 1.953566e-39
000050 f8 c5 e1 95 13 ef 12 17 4f 7f 82 97 d2 c2 98 96
       -9.1189116e-26 4.74769e-25 -8.43319e-25 -2.4679873e-25
000060 9e a0 94 17 6d b6 19 97 d4 5c c4 16 ab d5 a1 97
       9.604821e-25 -4.966722e-25 3.172409e-25 -1.0458319e-24
000070 80 c9 b5 94 82 9b 30 17 25 46 cc 17 22 4e b7 17
       -1.8355807e-26 5.7064946e-25 1.3200898e-24 1.1845821e-24
000080 87 e5 1b 97 17 ae 06 18 6e 87 cf 17 40 31 92 96
       -5.0372905e-25 1.7406987e-24 1.3411249e-24 -2.3618653e-25
000090 fe cf 41 18 54 89 59 17 c7 28 04 98 be 03 93 18
       2.5049675e-24 7.0289814e-25 -1.7081187e-24 3.800239e-24
0000a0 e1 12 00 00 7b 13 00 80 e0 20 00 00 2a 20 00 80
       6.772e-42 -6.988e-42 1.1793e-41 -1.1538e-41
0000b0 e0 14 00 00 88 1d 00 80 ef 14 00 00 08 22 00 00
       7.489e-42 -1.0594e-41 7.51e-42 1.2208e-41
0000c0 97 1e 00 00 75 18 00 00 62 1e 00 00 9b 1e 00 80
       1.0974e-41 8.774e-42 1.09e-41 -1.0979e-41
0000d0 a5 22 00 80 b9 18 00 80 dc 18 00 00 92 1a 00 00
       -1.2428e-41 -8.869e-42 8.918e-42 9.532e-42
0000e0 c4 22 00 00 97 0e 00 80 ed 0e 00 80 79 22 00 00
       1.2472e-41 -5.234e-42 -5.354e-42 1.2366e-41
0000f0 79 41 c2 15 54 f4 b4 15 f2 df 6a 95 0e 78 17 96
       7.8459274e-26 7.30869e-26 -4.7432585e-26 -1.2235565e-25
000100 8d 91 0a 96 62 28 50 96 d2 15 51 96 e9 e9 8a 96
       -1.1193479e-25 -1.6814849e-25 -1.6889771e-25 -2.244272e-25
000110 50 df 85 16 60 04 b2 95 5c f1 8b 96 28 0a 45 96
       2.162824e-25 -7.190053e-26 -2.260898e-25 -1.5916738e-25
000120 29 9b 1b 17 3c 8c 5d 17 00 8f 81 96 e0 53 c6 94
       5.027904e-25 7.158595e-25 -2.093132e-25 -2.0025974e-26
000130 3e 71 89 17 4e e0 3e 17 a1 da 9a 17 93 83 95 97
       8.882004e-25 6.1675423e-25 1.0007206e-24 -9.662113e-25
000140 9e 22 00 80 2f 1c 00 80 55 1b 00 00 b2 0b 00 00
       -1.2418e-41 -1.011e-41 9.805e-42 4.195e-42
000150 5b 21 00 80 00 0e 00 80 95 22 00 80 dd 1b 00 80
       -1.1966e-41 -5.022e-42 -1.2406e-41 -9.995e-42
000160 6e 1c 00 80 6f 21 00 80 1b 22 00 00 cd 20 00 00
       -1.0199e-41 -1.1994e-41 1.2235e-41 1.1767e-41
000170 e7 1d 00 80 76 06 00 00 15 10 00 80 62 1e 00 80
       -1.0727e-41 2.318e-42 -5.769e-42 -1.09e-41
000180 30 0e 00 80 f6 1e 00 80 69 22 00 80 15 0a 00 80
       -5.09e-42 -1.1107e-41 -1.2344e-41 -3.617e-42
000190 4c 9d aa 2a 7e e0 a8 aa dc a1 84 2a 05 e5 8c aa
       3.0307213e-13 -2.9998568e-13 2.3560223e-13 -2.502791e-13
0001a0 e3 29 1c 2a 4d 60 ac 29 9d e0 6b aa ef 0d 00 2a
       1.3870116e-13 7.65504e-14 -2.0950121e-13 1.1373518e-13
0001b0 7c 11 44 aa 34 51 72 a9 51 fc 46 aa ae 75 30 aa
       -1.7414363e-13 -5.3805227e-14 -1.7673473e-13 -1.5672769e-13
0001c0 3f 14 fe 29 70 18 fc 27 8e 03 a9 a8 54 13 26 aa
       1.1283378e-13 6.9970546e-15 -1.876431e-14 -1.4750468e-13
0001d0 3c 8c a3 a9 6a ed f9 28 92 06 e0 29 72 89 98 a9
       -7.262981e-14 2.7747515e-14 9.948738e-14 -6.773999e-14
0001e0 9a 0c 00 00 7f 02 00 80 15 20 00 00 af 17 00 80
       4.52e-42 -8.95e-43 1.1509e-41 -8.496e-42
0001f0 86 03 00 80 c5 06 00 00 e5 13 00 00 f0 06 00 80
       -1.264e-42 2.428e-42 7.137e-42 -2.489e-42
000200 0d 05 00 00 ee 01 00 00 90 0b 00 80 c6 03 00 80
       1.812e-42 6.92e-43 -4.148e-42 -1.354e-42
000210 5c 05 00 80 2e 16 00 00 42 0f 00 80 3e 0b 00 00
       -1.923e-42 7.957e-42 -5.473e-42 4.033e-42
000220 b7 15 00 80 07 09 00 00 9d 0e 00 80 86 1b 00 80
       -7.79e-42 3.238e-42 -5.242e-42 -9.874e-42
000230 bc 1f 00 00 ab 15 00 00 10 1f 00 00 7d 1a 00 80
       1.1384e-41 7.773e-42 1.1143e-41 -9.502e-42
000240 cb 1e 00 80 1b 22 00 80 45 22 00 80 7e 0b 00 80
       -1.1046e-41 -1.2235e-41 -1.2294e-41 -4.123e-42
000250 fd 1e 00 80 cb 0b 00 80 8c 09 00 00 e0 20 00 00
       -1.1117e-41 -4.23e-42 3.425e-42 1.1793e-41
000260 59 22 00 00 8f 22 00 00 2a 1f 00 80 69 21 00 00
       1.2322e-41 1.2397e-41 -1.118e-41 1.1985e-41
000270 fa 1f 00 00 2e 22 00 80 2b 18 00 80 8d 04 00 80
       1.1471e-41 -1.2261e-41 -8.67e-42 -1.633e-42
000280 b1 20 00 00 a5 17 00 00 0b 09 00 00 9b 1b 00 00
       1.1727e-41 8.482e-42 3.244e-42 9.903e-42
000290 c9 06 00 80 6d 05 00 80 96 06 00 80 45 07 00 80
       -2.434e-42 -1.946e-42 -2.363e-42 -2.608e-42
0002a0 cd 08 00 80 75 08 00 80 b1 1f 00 80 2b 05 00 00
       -3.157e-42 -3.034e-42 -1.1369e-41 1.854e-42
0002b0 f2 1f 00 80 27 1f 00 80 c1 22 00 00 c2 1f 00 80
       -1.146e-41 -1.1175e-41 1.2467e-41 -1.1393e-41
0002c0 7e 20 00 80 15 23 00 00 8a 3f 00 00 5c c3 01 80
       -1.1656e-41 1.2585e-41 2.2794e-41 -1.61917e-40
0002d0 59 1c 00 00 0f 14 00 00 e7 07 00 00 42 21 00 00
       1.0169e-41 7.196e-42 2.835e-42 1.193e-41
0002e0 78 09 00 80 db 1f 00 00 1d 23 00 00 3e 02 00 80
       -3.397e-42 1.1428e-41 1.2596e-41 -8.04e-43
0002f0 6b 08 00 00 51 0c 00 80 b4 22 00 80 fd 0e 00 00
       3.02e-42 -4.418e-42 -1.2449e-41 5.377e-42
000300 6b 21 00 80 3b 1f 00 80 ff 20 00 00 3e 20 00 80
       -1.1988e-41 -1.1203e-41 1.1837e-41 -1.1566e-41
000310 70 1f 00 80 08 21 00 00 d8 1e 00 00 d7 08 00 00
       -1.1278e-41 1.185e-41 1.1065e-41 3.171e-42

conv.bias f4 [10]
000000 58 92 cc b3 3a 3f e6 98 e4 2f 9d a9 f9 5a 02 18
       -9.52611e-08 -5.951745e-24 -6.980508e-14 1.6848036e-24
000010 6e 2e 9d a9 53 c1 21 2b d4 22 00 80 f0 12 2f b2
       -6.980255e-14 5.746698e-13 -1.2494e-41 -1.01906465e-08
000020 7c 8b 09 b3 46 80 a9 b0
       -3.202466e-08 -1.2332826e-09

conv_long.weight f4 [10, 1, 10]
000000 ab 19 00 00 c1 1c 00 00 3d 00 00 80 31 19 00 80
       9.208e-42 1.0315e-41 -8.5e-44 -9.037e-42
000010 93 1d 00 00 1b 1f 00 00 74 11 00 80 b0 1b 00 80
       1.0609e-41 1.1159e-41 -6.261e-42 -9.932e-42
000020 e8 0e 00 80 9b 22 00 00 2b 90 95 a4 65 f4 92 a4
       -5.347e-42 1.2414e-41 -6.486268e-17 -6.373143e-17
000030 9f d5 78 a4 61 f1 8a a4 61 84 47 a4 26 d9 57 a4
       -5.3957372e-17 -6.025687e-17 -4.3263376e-17 -4.6804625e-17
000040 66 4b 2e a4 8b 63 00 a4 ed d0 e7 a3 25 80 d0 a3
       -3.77941e-17 -2.7839892e-17 -2.5133554e-17 -2.2605677e-17
000050 a1 43 3a 9b e8 ef a6 9c 16 8d 3f 18 5c c6 7e 18
       -1.5407411e-22 -1.1046973e-21 2.4757402e-24 3.2928876e-24
000060 77 74 59 18 e2 09 96 16 ad 8b fd 14 8f 75 2a 9a
       2.8105392e-24 2.4240044e-25 2.5601564e-26 -3.525014e-23
000070 68 2d 8e 9f 37 73 2e a3 15 46 bf a3 83 04 c8 a4
       -6.021446e-20 -9.456957e-18 -2.0737942e-17 -8.674382e-17
000080 59 94 ca 24 f3 64 a6 a4 4e ca 56 a4 1a 1a 80 a4
       8.7854846e-17 -7.216204e-17 -4.6575212e-17 -5.555537e-17
000090 74 9b 1f a4 42 bd 87 24 b5 45 a3 a3 91 80 67 24
       -3.4609303e-17 5.886753e-17 -1.7702017e-17 5.019904e-17
0000a0 e2 11 00 00 5a 1c 00 80 e3 1f 00 80 d5 0b 00 80
       6.415e-42 -1.017e-41 -1.1439e-41 -4.245e-42
0000b0 a0 1e 00 80 75 22 00 00 df 0e 00 00 bc 08 00 80
       -1.0986e-41 1.2361e-41 5.335e-42 -3.133e-42
0000c0 89 15 00 00 8a 22 00 80 56 8a 7a 00 64 7b 71 80
       7.725e-42 -1.239e-41 1.1253556e-38 -1.0421675e-38
0000d0 d8 3d 12 00 9a 2b 13 00 db aa 09 00 5c 01 00 00
       1.675224e-39 1.760516e-39 8.87811e-40 4.88e-43
0000e0 78 19 00 80 b7 31 97 01 67 2c 76 06 b5 65 89 88
       -9.136e-42 5.5539977e-38 4.630008e-35 -8.269299e-34
0000f0 c9 44 0a 00 d1 b3 09 00 c5 0d 09 00 0f 14 08 00
       9.4303e-40 8.91025e-40 8.31459e-40 7.4188e-40
000100 2b 74 04 00 6c dc 07 00 f0 d2 02 00 8c 71 03 00
       4.09015e-40 7.21921e-40 2.59341e-40 3.1624e-40
000110 94 ef 04 00 c7 7e 08 00 10 05 32 85 c0 33 38 07
       4.53286e-40 7.80163e-40 -8.3704496e-36 1.385783e-34
000120 a7 6d dc 06 5f f0 dc 86 ca cb e3 06 18 2b b0 06
       8.291592e-35 -8.3107996e-35 8.568735e-35 6.626716e-35
000130 15 9c 8e 06 a1 9c ab 86 b0 f9 f3 05 5e 03 09 87
       5.3643805e-35 -6.4553196e-35 2.2943331e-35 -1.0307724e-34
000140 c0 cc 67 a3 af 43 e6 a2 e5 7e 62 a1 bf 71 a4 a0
       -1.2565893e-17 -6.2413288e-18 -7.673972e-19 -2.7857952e-19
000150 6b ff f5 a0 59 60 09 9f 29 22 aa 9e 1c e9 6b a3
       -4.1673636e-19 -2.9090575e-20 -1.8013578e-20 -1.2788738e-17
000160 55 c6 88 a6 8b f2 71 a8 15 78 65 93 d0 27 81 92
       -9.490654e-16 -1.34307806e-14 -2.8963069e-27 -8.150859e-28
000170 44 97 a1 10 34 7f 3d 10 7a 6b 99 0f cd 58 57 8d
       6.3736364e-29 3.737167e-29 1.5128363e-29 -6.635888e-31
000180 e0 bd 29 8d a2 55 d0 92 78 8d f5 17 28 a3 a6 9b
       -5.23057e-31 -1.3147756e-27 1.5868466e-24 -2.7567834e-22

conv_long.bias f4 [10]
000000 6e 22 1e a8 e5 5d c6 a4 72 aa 98 b9 08 83 29 25
       -8.778228e-15 -8.6027876e-17 -0.0002911869 1.4702808e-16
000010 21 e0 0f b2 57 ec 07 b6 40 6f 05 80 c9 01 97 06
       -8.3746565e-09 -2.0254136e-06 -4.99086e-40 5.680251e-35
000020 73 e6 20 ba b2 6e 8c b8
       -0.0006137855 -6.696339e-05

conv1.weight f4 [30, 30]
000000 83 12 00 80 24 88 00 80 92 50 50 2c e2 17 00 00
       -6.641e-42 -4.8838e-41 2.9603303e-12 8.568e-42
000010 d5 b7 01 00 7f cc fc 0a 9b 1e 00 00 d7 1a 00 00
       1.57782e-40 2.434364e-32 1.0979e-41 9.628e-42
000020 2e 08 00 80 1e 9f 07 0b 56 13 00 80 40 18 00 00
       -2.934e-42 2.611976e-32 -6.936e-42 8.699e-42
000030 c6 0e 81 04 92 19 00 80 e6 1e 00 00 a7 10 49 9c
       3.034132e-36 -9.173e-42 1.1084e-41 -6.6526844e-22
000040 a2 3b 18 80 53 03 41 a8 0f 0f 00 00 0e 15 23 1e
       -2.225444e-39 -1.0714373e-14 5.402e-42 8.633502e-21
000050 b4 1c 00 80 69 76 00 80 67 f8 03 00 1d 38 4a 9f
       -1.0297e-41 -4.2478e-41 3.64616e-40 -4.282158e-20
000060 d2 09 00 00 d9 63 00 80 92 68 8e a5 74 03 00 80
       3.523e-42 -3.5819e-41 -2.4703933e-16 -1.239e-42
000070 5f 01 8c 8c 2a 16 d1 a2 d8 05 9b b5 f2 50 01 80
       -2.157124e-31 -5.667303e-18 -1.1550101e-06 -1.20873e-40
000080 e8 84 03 80 c0 04 00 80 40 f0 01 00 99 19 00 80
       -3.23184e-40 -1.704e-42 1.78021e-40 -9.183e-42
000090 4d a9 0f 80 c5 c6 00 00 1b 1a 00 00 33 13 00 00
       -1.438266e-39 7.1305e-41 9.365e-42 6.887e-42
0000a0 df 09 00 80 3e 18 00 00 0d 1e 00 80 1b 21 00 80
       -3.541e-42 8.696e-42 -1.078e-41 -1.1876e-41
0000b0 72 33 02 80 2d 0e 00 80 cc da 2d 00 5c 12 00 00
       -2.02126e-40 -5.085e-42 4.211087e-39 6.586e-42
0000c0 0c 10 00 80 64 19 03 80 63 1b 00 00 c8 08 00 00
       -5.757e-42 -2.84615e-40 9.825e-42 3.15e-42
0000d0 c3 86 98 1c cf 00 00 80 5b 1a 00 00 32 dc 32 00
       1.0093351e-21 -2.9e-43 9.455e-42 4.670766e-39
0000e0 5c 0d 00 80 41 22 00 00 96 21 00 00 2f 02 00 80
       -4.792e-42 1.2288e-41 1.2048e-41 -7.83e-43
0000f0 44 be 0d b0 2b 99 00 00 f2 47 5a 27 a4 22 00 80
       -5.1565885e-10 5.4946e-41 3.029258e-15 -1.2427e-41
000100 2b 5e 02 00 df 03 00 80 11 40 04 00 d8 94 00 00
       2.17452e-40 -1.389e-42 3.90325e-40 5.3395e-41
000110 a8 1f 00 80 7b 19 00 00 36 07 00 80 cb 1f 00 80
       -1.1356e-41 9.14e-42 -2.587e-42 -1.1405e-41
000120 0d 1f 00 00 32 4a 00 80 6c a8 00 00 a3 03 00 80
       1.1139e-41 -2.6616e-41 6.0418e-41 -1.305e-42
000130 30 37 42 2e 62 0c 00 80 fe 1e 00 80 ed 0a 02 80
       4.415951e-11 -4.442e-42 -1.1118e-41 -1.8759e-40
000140 38 84 00 80 2a 09 00 00 7e 78 0d 80 b5 19 00 00
       -4.7431e-41 3.287e-42 -1.237086e-39 9.222e-42
000150 d9 22 00 80 7d 81 08 b5 5c 1b 00 00 7a 1c 00 00
       -1.2501e-41 -5.085238e-07 9.815e-42 1.0215e-41
000160 e4 1b 00 80 04 0c 00 00 6e 01 0e 00 fe 14 11 06
       -1.0005e-41 4.31e-42 1.28621e-39 2.7286892e-35
000170 23 a5 68 20 40 cd 28 9a e7 55 8a 25 3a e0 0d 80
       1.9705804e-19 -3.4907385e-23 2.3997394e-16 -1.274299e-39
000180 0e 8a 56 9e ac a0 db 9c ad 60 12 80 2c 06 ea 32
       -1.1357615e-20 -1.4533737e-21 -1.68772e-39 2.7243992e-08
000190 25 7d 00 80 ee d5 00 80 d6 13 75 1f f4 4a d6 9a
       -4.4893e-41 -7.6744e-41 5.1897176e-20 -8.862942e-23
0001a0 af 49 02 00 55 6e 10 00 10 a1 04 80 c8 da 83 b5
       2.10104e-40 1.508948e-39 -4.2512e-40 -9.823934e-07
0001b0 e4 b7 0b 00 fe 45 09 91 e8 c0 1d 2f a3 fd 01 00
       1.076158e-39 -1.0828962e-28 1.4347601e-10 1.82823e-40
0001c0 28 12 00 80 23 1f 6d a5 b1 89 05 80 d3 1c ed 19
       -6.513e-42 -2.0567023e-16 -5.08572e-40 2.4516868e-23
0001d0 03 d6 02 80 eb 10 0d 00 ac e9 02 80 e6 d3 02 00
       -2.60444e-40 1.19993e-39 -2.67497e-40 2.59686e-40
0001e0 c1 f5 f1 b3 19 ea 01 80 9f 1d 00 80 15 21 00 00
       -1.12671394e-07 -1.75814e-40 -1.0626e-41 1.1868e-41
0001f0 f9 1a 0d 80 bb 09 00 00 57 49 25 23 c4 f7 01 80
       -1.203537e-39 3.49e-42 8.960198e-18 -1.80717e-40
000200 d1 22 00 80 a0 0f 00 80 3c 0a 00 00 66 1e 00 80
       -1.249e-41 -5.605e-42 3.671e-42 -1.0905e-41
000210 a3 0d 00 00 fd 89 01 80 b1 44 06 00 57 02 00 80
       4.892e-42 -1.41336e-40 5.75655e-40 -8.4e-43
000220 0c fd 34 aa 94 0b 00 00 84 eb 00 80 de be ae 2c
       -1.6075005e-13 4.153e-42 -8.4487e-41 4.966568e-12
000230 7c 76 00 80 e7 11 00 80 66 ed 01 80 f9 03 00 00
       -4.2504e-41 -6.422e-42 -1.76998e-40 1.425e-42
000240 1e 08 00 80 20 f4 06 10 99 1a 00 00 c8 17 00 00
       -2.912e-42 2.6614907e-29 9.541e-42 8.531e-42
000250 ce 15 00 80 17 05 00 80 13 42 7f 2d c2 38 01 80
       -7.822e-42 -1.826e-42 1.4509743e-11 -1.12196e-40
000260 a6 b8 b7 27 2d 03 00 00 03 1d 01 80 c6 00 00 80
       5.09929e-15 1.139e-42 -1.02243e-40 -2.77e-43
000270 a1 be 3c 00 07 ed 01 00 d6 07 00 80 b9 05 00 00
       5.578515e-39 1.76865e-40 -2.811e-42 2.053e-42
000280 4b 17 00 00 f3 1c 00 80 a1 0a 00 00 10 09 00 80
       8.356e-42 -1.0385e-41 3.813e-42 -3.251e-42
000290 b6 84 01 80 d0 20 00 80 58 b6 da 95 d1 0b 00 00
       -1.39443e-40 -1.1771e-41 -8.8337187e-26 4.239e-42
0002a0 da 4c 00 80 e6 23 16 a6 e0 87 01 00 42 57 00 80
       -2.7569e-41 -5.2090356e-16 1.40578e-40 -3.1302e-41
0002b0 63 e5 0c 00 fc 0d 00 80 77 19 00 00 0d 06 c8 1e
       1.184314e-39 -5.017e-42 9.135e-42 2.1178326e-20
0002c0 49 1a 00 80 1a 11 00 80 d3 14 00 00 80 12 00 80
       -9.43e-42 -6.135e-42 7.47e-42 -6.637e-42
0002d0 27 18 00 80 47 5c 00 00 c5 87 00 80 33 1a 00 80
       -8.664e-42 3.3103e-41 -4.8705e-41 -9.399e-42
0002e0 00 e0 a6 35 4c 4d 95 0f 6a 17 00 80 9c 1e 00 80
       1.2433156e-06 1.4722308e-29 -8.4e-42 -1.098e-41
0002f0 cb 07 00 80 e2 e1 33 0f c2 1c 00 80 e5 21 00 80
       -2.796e-42 8.868885e-30 -1.0316e-41 -1.2159e-41
000300 e7 ef 33 0b 63 1f 00 00 df 16 00 00 82 81 97 a0
       3.4654628e-32 1.126e-41 8.205e-42 -2.5666096e-19
000310 98 fd 00 80 7f 3b 8b aa 87 d3 00 00 bd 70 00 00
       -9.0972e-41 -2.4732644e-13 7.5882e-41 4.0443e-41
000320 8c 1f 00 80 57 01 00 80 e4 05 00 80 61 e7 1a a3
       -1.1317e-41 -4.8e-43 -2.113e-42 -8.397353e-18
000330 36 03 00 80 37 0d 00 00 61 29 75 a8 91 1e 00 80
       -1.152e-42 4.74e-42 -1.3609205e-14 -1.0965e-41
000340 8d b9 f9 8f 30 4e 3e a6 5c 1d 00 00 09 8c 00 80
       -2.4624767e-29 -6.6025456e-16 1.0532e-41 -5.0235e-41
000350 1d 05 00 80 3d 09 00 00 a3 67 00 80 40 9b 57 05
       -1.834e-42 3.314e-42 -3.7178e-41 1.0137766e-35
000360 09 05 00 80 ca 1b 00 80 6d 19 00 80 e6 e5 28 06
       -1.806e-42 -9.969e-42 -9.121e-42 3.176619e-35
000370 7a 13 00 80 ad 19 00 00 56 53 87 01 69 20 00 80
       -6.987e-42 9.211e-42 4.971075e-38 -1.1627e-41
000380 c6 1c 00 00 7c d4 af 16 ee a2 00 00 de f1 15 a6
       1.0322e-41 2.8406871e-25 5.8448e-41 -5.202255e-16
000390 a7 18 00 00 73 e5 02 00 26 02 00 00 11 13 00 80
       8.844e-42 2.65982e-40 7.71e-43 -6.84e-42
0003a0 b8 20 00 00 c1 f1 54 9b 12 00 00 80 10 22 00 00
       1.1737e-41 -1.7614344e-22 -2.5e-44 1.222e-41
0003b0 7d 8b 09 a3 3e 1a 00 00 74 d7 ac 08 32 89 1f 9f
       -7.456323e-18 9.414e-42 1.0402526e-33 -3.3783045e-20
0003c0 ec 04 00 00 9b 74 00 00 cf 14 00 80 09 22 00 00
       1.766e-42 4.183e-41 -7.465e-42 1.221e-41
0003d0 71 a5 01 00 f9 95 2c 06 ea 1c 00 80 b3 1c 00 00
       1.51185e-40 3.2459787e-35 -1.0372e-41 1.0295e-41
0003e0 bb 22 00 00 0c e7 47 05 1b 05 00 00 2e 1e 00 00
       1.2459e-41 9.399372e-36 1.831e-42 1.0826e-41
0003f0 2b 07 a6 82 03 23 00 80 32 20 00 00 49 47 d3 17
       -2.4395622e-37 -1.256e-41 1.155e-41 1.365355e-24

conv1.bias f4 [30]
000000 06 5a ed 84 83 a0 26 26 90 f7 81 0e d7 22 00 80
       -5.5801106e-36 5.7810353e-16 3.203935e-30 -1.2498e-41
000010 47 0b 00 80 df 12 53 a7 76 9b fa 95 5b ab 06 80
       -4.046e-42 -2.9292362e-15 -1.0121947e-25 -6.12484e-40
000020 f7 fa 90 00 17 d2 5e a9 e8 19 00 00 2c c9 92 81
       1.331434e-38 -4.9476126e-14 9.293e-42 -5.39206e-38
000030 5a 95 52 a8 e3 8f 40 1d ac 62 3a 0d 25 b5 2a b0
       -1.1689727e-14 2.5485376e-21 5.7434447e-31 -6.210306e-10
000040 75 c0 4f 10 5c b9 c6 b4 fe 1d 00 80 50 a6 4c 2f
       4.0971815e-29 -3.701524e-07 -1.0759e-41 1.8612778e-10
000050 97 23 56 1c 3f 5c 39 80 57 06 84 9f 0a 52 6c b1
       7.085266e-22 -5.267715e-39 -5.591466e-20 -3.4389154e-09
000060 e2 d1 1b 9c f6 46 c6 2a f1 e5 08 b4 ec 91 aa 88
       -5.1556465e-22 3.5221104e-13 -1.2749639e-07 -1.0265809e-33
000070 1f 32 8e ac db 3a b7 b2
       -4.0414473e-12 -2.1330768e-08

conv2.weight f4 [30, 10]
000000 3a 7f c7 a3 9f 05 00 80 28 1f 00 00 39 23 96 9b
       -2.1629506e-17 -2.016e-42 1.1177e-41 -2.483818e-22
000010 e7 1b 00 80 a2 13 00 80 a0 1d 00 00 17 ed 0b 04
       -1.001e-41 -7.043e-42 1.0627e-41 1.6448238e-36
000020 09 2b 00 00 d3 8b 03 80 24 68 00 00 42 2d 01 00
       1.5438e-41 -3.25666e-40 3.7359e-41 1.08071e-40
000030 60 5a 00 00 a8 4c 15 1f a3 99 02 00 f2 04 00 00
       3.242e-41 3.1615386e-20 2.38785e-40 1.774e-42
000040 75 aa 10 00 58 30 24 36 14 c0 f5 1d 72 6e 1a 9c
       1.530516e-39 2.4466044e-06 6.5049564e-21 -5.1097073e-22
000050 72 7e 16 25 5d 22 00 80 5d 19 00 00 42 94 32 22
       1.3053267e-16 -1.2327e-41 9.099e-42 2.4201985e-18
000060 dc 19 00 80 bd 0a 00 00 6c 96 00 00 46 81 74 85
       -9.277e-42 3.852e-42 5.3961e-41 -1.1496569e-35
000070 05 12 0b 00 2c 16 9c 1e 47 89 85 32 89 08 00 80
       1.016655e-39 1.6526313e-20 1.5545664e-08 -3.062e-42
000080 d3 1b 00 00 cd 1d 00 00 8d 1f 00 00 86 14 00 80
       9.981e-42 1.069e-41 1.1318e-41 -7.362e-42
000090 c6 ac 10 00 54 05 00 00 1d 1c 00 00 da 22 00 00
       1.531347e-39 1.911e-42 1.0085e-41 1.2502e-41
0000a0 40 3b 2d b8 d9 1e 00 80 64 1e 00 00 f0 90 51 00
       -4.1301595e-05 -1.1066e-41 1.0902e-41 7.490669e-39
0000b0 40 17 00 80 5b 0c 00 80 ea cf 65 02 a5 09 00 80
       -8.34e-42 -4.432e-42 1.6883931e-37 -3.46e-42
0000c0 30 1d 00 00 29 1d 00 80 a6 04 00 80 32 e3 f3 99
       1.047e-41 -1.046e-41 -1.668e-42 -2.5217375e-23
0000d0 9f ee af 80 ec 9a 01 80 40 1c 00 80 89 ef d0 09
       -1.6156813e-38 -1.47411e-40 -1.0134e-41 5.0299436e-33
0000e0 8a e5 03 80 da e3 04 00 9b 20 00 80 12 15 00 80
       -3.5785e-40 4.4908e-40 -1.1697e-41 -7.559e-42
0000f0 9a 10 06 80 5d 18 00 80 39 1f 00 80 ae 67 19 1a
       -5.56968e-40 -8.74e-42 -1.12e-41 3.172341e-23
000100 7e 22 00 80 e8 1f 00 80 e9 18 00 80 22 2a 64 af
       -1.2373e-41 -1.1446e-41 -8.936e-42 -2.0751448e-10
000110 60 59 b5 85 1c 46 95 8b 6f a4 03 00 53 16 00 00
       -1.705399e-35 -5.74982e-32 3.34494e-40 8.008e-42
000120 b0 04 00 00 70 e4 03 80 66 04 00 80 e6 1b 00 80
       1.682e-42 -3.57454e-40 -1.578e-42 -1.0008e-41
000130 0a 2c 2c a7 35 31 12 00 a4 02 00 00 40 82 b9 8f
       -2.3893669e-15 1.670691e-39 9.47e-43 -1.8292579e-29
000140 5f ad 07 00 07 af 74 08 16 0e 00 00 76 22 00 00
       7.05042e-40 7.3631823e-34 5.053e-42 1.2362e-41
000150 08 20 00 80 23 05 00 00 ad 91 13 00 fd f0 54 00
       -1.149e-41 1.843e-42 1.797133e-39 7.800632e-39
000160 24 81 11 80 7a 49 09 00 ac 17 00 00 fb 4d 14 b7
       -1.60753e-39 8.52878e-40 8.492e-42 -8.839644e-06
000170 3e 15 ee b1 30 20 00 00 ba d6 30 af 9e 32 66 b4
       -6.9291266e-09 1.1547e-41 -1.6083393e-10 -2.1438834e-07
000180 bc 20 00 80 b0 19 00 80 fe ac 9b 9e 5d 20 00 80
       -1.1743e-41 -9.215e-42 -1.6482811e-20 -1.161e-41
000190 60 38 02 80 a9 58 75 03 31 22 00 00 3c 08 00 00
       -2.03895e-40 7.2100806e-37 1.2266e-41 2.954e-42
0001a0 30 15 00 80 95 09 00 00 3f 09 0d 80 1d 1b 00 00
       -7.6e-42 3.437e-42 -1.197178e-39 9.726e-42
0001b0 ed 03 00 80 b5 07 00 80 39 b2 03 00 4c 1e 00 00
       -1.408e-42 -2.765e-42 3.39441e-40 1.0868e-41
0001c0 35 09 00 80 8f 2a 00 80 bf 14 00 00 e1 21 00 80
       -3.303e-42 -1.5267e-41 7.442e-42 -1.2153e-41
0001d0 7e 97 8d 80 9e 6f 8f 03 0b fb c7 81 ff 15 00 00
       -1.300315e-38 8.430411e-37 -7.3461284e-38 7.891e-42
0001e0 67 02 00 80 45 06 fa b4 f9 89 ad ac bf 03 00 00
       -8.62e-43 -4.657069e-07 -4.9322738e-12 1.344e-42
0001f0 60 c3 30 ab dd c6 60 b1 b1 09 00 80 88 1f 00 80
       -6.27989e-13 -3.270933e-09 -3.477e-42 -1.1311e-41
000200 e7 2b f8 93 89 22 00 80 d3 d6 38 34 1f 0d 00 00
       -6.2647292e-27 -1.2389e-41 1.7214488e-07 4.707e-42
000210 d2 1b 00 80 25 16 1c 80 bb 05 00 00 2a 1b 00 80
       -9.98e-42 -2.579338e-39 2.056e-42 -9.745e-42
000220 7d 0b 00 80 e0 13 09 1c 15 f0 37 80 83 46 ed b1
       -4.121e-42 4.5355185e-22 -5.137077e-39 -6.905624e-09
000230 b9 3f 01 80 a3 1d 00 80 24 21 00 00 22 42 06 80
       -1.14695e-40 -1.0632e-41 1.1889e-41 -5.74737e-40
000240 b4 21 00 80 a2 13 00 00 ab 34 86 b7 78 de e0 0f
       -1.209e-41 7.043e-42 -1.599857e-05 2.2173797e-29
000250 da 0e 00 00 40 f1 41 02 d1 21 00 80 fd dc b3 ae
       5.328e-42 1.4248636e-37 -1.2131e-41 -8.179233e-11
000260 78 92 f5 a0 c2 00 00 00 b6 4f 4c 9c 91 0d 76 a8
       -4.160154e-19 2.72e-43 -6.760096e-22 -1.3658685e-14
000270 97 bd 05 00 ff 16 00 80 3a 1d 04 80 c1 10 00 00
       5.2719e-40 -8.25e-42 -3.77826e-40 6.01e-42
000280 02 87 0d 80 23 1c 00 80 3c 0e 00 00 a2 08 00 80
       -1.242293e-39 -1.0094e-41 5.106e-42 -3.097e-42
000290 41 22 00 80 c1 17 00 80 9f dc 06 80 41 b3 b6 13
       -1.2288e-41 -8.521e-42 -6.30157e-40 4.6120017e-27
0002a0 92 81 01 00 53 67 00 00 f6 1b 00 80 36 d2 12 b4
       1.38317e-40 3.7066e-41 -1.003e-41 -1.3673784e-07
0002b0 ab 7e 39 ab 58 0b 00 00 ec f0 21 a9 45 06 4a af
       -6.590099e-13 4.07e-42 -3.5958148e-14 -1.837402e-10
0002c0 e5 c5 00 80 dd 09 00 00 18 b4 0d 10 25 21 00 00
       -7.0991e-41 3.538e-42 2.7946086e-29 1.189e-41
0002d0 f0 25 3b 3c 8b 17 00 00 6f 1d 00 00 08 23 00 00
       0.011422619 8.446e-42 1.0559e-41 1.2567e-41
0002e0 87 0b 00 00 d2 11 00 00 f0 55 ac 29 da 12 00 00
       4.135e-42 6.393e-42 7.653242e-14 6.763e-42
0002f0 72 16 00 80 f9 21 00 00 4b 81 04 00 98 12 00 80
       -8.052e-42 1.2187e-41 4.13724e-40 -6.67e-42
000300 11 5f 00 80 a8 0d 48 35 b3 15 01 80 81 1f 00 80
       -3.4103e-41 7.452568e-07 -9.962e-41 -1.1301e-41
000310 88 2d 49 a5 c6 b8 0c b4 90 cd e7 06 d4 a6 a8 2c
       -1.7449398e-16 -1.3105736e-07 8.719459e-35 4.793369e-12
000320 9f 02 00 00 9a 5e a6 a9 e8 8b c6 93 1f 76 02 80
       9.4e-43 -7.3882916e-14 -5.0120185e-27 -2.26045e-40
000330 64 5d d9 8b 48 c4 f7 9e 38 6f 04 00 1c e4 75 1c
       -8.372588e-32 -2.6233322e-20 4.0724e-40 8.1358524e-22
000340 9e 15 53 92 75 12 00 00 3f b0 01 3b f7 1b 00 00
       -6.6606506e-28 6.621e-42 0.0019788889 1.0032e-41
000350 59 0e 00 00 18 1d 00 80 f0 15 00 80 1b 1c 00 00
       5.147e-42 -1.0437e-41 -7.87e-42 1.0082e-41
000360 68 a7 05 80 80 1e 12 01 43 20 00 00 bf 1d 00 80
       -5.19232e-40 2.6837848e-38 1.1573e-41 -1.0671e-41
000370 a1 0f 00 80 4b d2 21 1c 7d 6e 2d 24 ed 27 0c 00
       -5.607e-42 5.354223e-22 3.7606982e-17 1.116349e-39
000380 98 1e 66 80 51 19 00 80 a0 dd 01 00 f8 a2 5b 8d
       -9.378196e-39 -9.082e-42 1.7134e-40 -6.768075e-31
000390 18 83 f4 32 b8 fb 85 38 3c 00 00 00 13 32 9d b5
       2.8464953e-08 6.3888205e-05 8.4e-44 -1.1711985e-06
0003a0 7a 14 b8 af f3 20 00 00 4c 8d 0f ae fb 75 0b b3
       -3.3483954e-10 1.182e-41 -3.2639932e-11 -3.2470762e-08
0003b0 b8 19 00 80 c5 1c 00 80 8c aa b0 99 66 16 00 80
       -9.226e-42 -1.032e-41 -1.8266857e-23 -8.035e-42
0003c0 05 0e 00 80 ae 80 18 b9 ea c4 43 b5 15 20 00 00
       -5.029e-42 -0.00014543787 -7.292971e-07 1.1509e-41
0003d0 f0 ae 89 b3 98 3a 83 b7 c0 09 00 80 54 1f 00 00
       -6.4113806e-08 -1.5643702e-05 -3.498e-42 1.1238e-41
0003e0 29 6e 1d aa 0c 20 00 00 46 fd cb ad 17 20 00 80
       -1.398262e-13 1.1496e-41 -2.3190904e-11 -1.1512e-41
0003f0 9e 0e 00 00 e4 21 98 34 02 12 00 00 e9 22 00 00
       5.244e-42 2.8336865e-07 6.46e-42 1.2523e-41

conv2.bias f4 [10]
000000 e3 6d 85 b4 ca 60 fa b7 f3 61 5e b4 73 97 09 b1
       -2.4853134e-07 -2.9847393e-05 -2.0710995e-07 -2.0022213e-09
000010 45 57 66 b0 4e 35 fe ae 7a 44 3a be 86 f6 75 b9
       -8.379753e-10 -1.15600515e-10 -0.18190184 -0.00023456858
000020 f8 22 b0 b2 33 40 06 af
       -2.0504999e-08 -1.2210037e-10

rnn.weight_ih_l0 f4 [30, 1]
000000 10 5c a2 3b 7d 33 87 39 f0 14 1f bd 03 92 e5 3d
       0.0049548224 0.00025787568 -0.038838327 0.1120949
000010 a9 5a 1f bc 74 c5 06 40 99 fe 71 be 03 80 d1 be
       -0.009726205 2.1058016 -0.23632278 -0.40917978
000020 82 81 9f be d8 25 02 3d 72 b1 be 3d 9f 4b 47 bd
       -0.31153494 0.03177437 0.09311189 -0.048656102
000030 a8 43 2f 3c 96 54 00 3e 0a 8a ff 3d 0a d9 eb ba
       0.010697283 0.12532267 0.12477501 -0.001799376
000040 60 fb 71 bb 06 e1 18 3f 08 8b 2d bd 9a cc ed bb
       -0.0036923513 0.5971836 -0.04236892 -0.0072570564
000050 bc da 37 3d 05 61 48 bc 61 39 9e 3d 7e 32 dd b8
       0.044886336 -0.0122301625 0.07725788 -0.00010547506
000060 d0 70 27 be d1 2f b8 bd ca 1b 2a bd c7 ed b2 3d
       -0.16351628 -0.08993495 -0.041530408 0.08736759
000070 19 61 ad bd 8f b6 72 be
       -0.084657855 -0.23702453

rnn.weight_hh_l0 f4 [30, 30]
000000 cb f3 c4 bf a8 cc da 3f 8e e8 b6 be 8e 1c d2 bf
       -1.53869 1.7093706 -0.357243 -1.6414964
000010 fa 25 c3 bf d4 87 0f 3f 9c 62 67 be 88 a6 cd 3f
       -1.5245965 0.5606663 -0.2259621 1.6066446
000020 85 9d fb be 4f 33 b8 3f a7 67 9e bf 37 8e 06 3f
       -0.49143615 1.4390658 -1.2375382 0.5256075
000030 5f 6c 02 3f 67 27 0e 3f 70 2b c4 3c 36 a1 c0 3f
       0.5094661 0.55528873 0.023946494 1.5049198
000040 52 06 cc 3e 51 a7 9e 3f 99 1b 11 bf 72 0e ab bd
       0.39848572 1.2394811 -0.56682736 -0.083523646
000050 f9 d6 57 3f 7e 05 8a 3f b9 ac 49 3f dd f3 e3 3f
       0.843124 1.0782926 0.7877918 1.7808796
000060 12 58 ed bf 68 67 6a bf f9 15 b7 bf aa bb 96 3e
       -1.8542502 -0.91564035 -1.430358 0.2944005
000070 b5 72 c0 be e8 68 bc bf 21 72 1b 3f 74 fe 16 bf
       -0.37587515 -1.4719515 0.6072102 -0.58982015
000080 6e 0e a2 be 65 69 fe bd 41 91 4b bf 10 d4 4f bf
       -0.31651634 -0.12422446 -0.79518515 -0.81182957
000090 f0 44 d0 bf 5b f9 7c 3d 3a b0 5b 3f 18 2f 27 bf
       -1.6271038 0.06176124 0.85815775 -0.65306234
0000a0 ce 82 25 bf d1 59 62 3f d2 68 13 bf 1b 95 0d 3f
       -0.6465272 0.884183 -0.5758182 0.5530564
0000b0 17 09 0b 3f 18 9f 1a 3d 0d e9 e1 be 47 62 89 3f
       0.54310745 0.03774938 -0.44123116 1.0733117
0000c0 f7 34 bf 3f 0d 98 ab 3f 8c bf 27 bf 24 09 d1 bf
       1.4938039 1.3405777 -0.6552665 -1.6330914
0000d0 92 cc 16 bf fb 3c 37 3f 58 a0 34 bf 73 9b 37 bd
       -0.589059 0.71577424 -0.70557165 -0.044825982
0000e0 00 72 51 bf b0 5e e1 3f c3 1a 75 3d f7 42 57 bf
       -0.81814575 1.7607021 0.059839975 -0.84086555
0000f0 2d e0 a6 3f 66 20 e6 bf cd 32 9c bd 71 96 21 c0
       1.3037163 -1.7978637 -0.07626877 -2.5248072
000100 f4 c9 f7 be 43 81 13 3f 09 a9 a0 3e 21 a1 d3 3f
       -0.48396266 0.5761911 0.31378964 1.6533548
000110 74 27 79 3e b8 e6 37 bf e3 8e bf bf 2f d5 5d c0
       0.24331456 -0.71836424 -1.496548 -3.4661367
000120 e8 20 0d c0 2a e8 02 c0 ba 7b 9d 3f 34 b3 ea 3f
       -2.2051334 -2.0454202 1.2303383 1.8335938
000130 63 32 8c bf 5f c7 26 c0 8b 72 31 c0 6b c6 f7 3f
       -1.0952877 -2.6059186 -2.7726161 1.9357427
000140 e1 0e 29 40 07 35 01 be d6 5e 53 bc f4 e2 bf 3f
       2.6415331 -0.12617885 -0.012901029 1.4991136
000150 b9 1f 03 bf b7 d8 99 be a9 30 2b 3f c3 f3 ec 3d
       -0.5122028 -0.30048153 0.66871125 0.11569931
000160 74 ec 12 c0 9b 5a f4 3f 46 0f af be 80 1b 3c 3d
       -2.295682 1.909015 -0.3419134 0.045924664
000170 77 45 8c bd e8 47 0e 3e b7 40 95 3e 85 2d 0e be
       -0.06849187 0.13894618 0.29150936 -0.13884552
000180 35 84 84 be 9c 79 f7 bd a4 bf c2 3e aa cc ab 3d
       -0.25882116 -0.12083742 0.38036835 0.08388646
000190 3b a8 e0 3e 67 c8 65 3e eb 03 ac 3d 17 43 a0 bd
       0.4387835 0.22439729 0.08399185 -0.07825296
0001a0 7d b6 31 be 27 c3 a4 be 45 db b2 3d c9 d9 4a 3e
       -0.1735477 -0.3218014 0.087332286 0.19809641
0001b0 9e 35 2a 3f 96 f5 ff bd b8 e0 93 be 8b c9 c0 be
       0.66488063 -0.12498014 -0.28882384 -0.37653765
0001c0 96 0f a1 bc 7b 71 df be 19 a3 0c 3e e1 d0 9d bd
       -0.019660752 -0.43641266 0.13734092 -0.07705856
0001d0 e1 fd c3 3e 56 b4 5b 3d ca 68 06 3f be 12 d7 3e
       0.38279632 0.05363878 0.52503645 0.42006487
0001e0 90 0d ba be ae e3 c4 be 7f 81 b5 bd be e9 d1 3e
       -0.36338472 -0.38454956 -0.0886259 0.40998644
0001f0 24 c9 24 3f 12 19 00 3e df ce d7 3d 3d a6 27 3d
       0.64369416 0.12509564 0.105375044 0.04093002
000200 9a 53 a6 3c e4 ef 75 3d 74 15 85 3e fd 7b 8b be
       0.020303536 0.06004323 0.2599293 -0.27243033
000210 93 6f 9c be 9b 4d 81 bc c9 90 11 bf 19 4f 10 bf
       -0.30553874 -0.015784075 -0.5686155 -0.56370693
000220 ed b6 6f 3e 0a bf 91 be 95 a0 02 3e 8c 0b 08 3f
       0.23409624 -0.28466064 0.1275657 0.5314262
000230 96 03 c0 be b4 a7 1d 3d ae 5a 9d bd d8 6f 42 bf
       -0.37502736 0.038490012 -0.076833114 -0.7595191
000240 98 9a 2b 3f 23 75 b4 be e5 49 53 3f 65 49 3d be
       0.67032766 -0.35245618 0.8253463 -0.18485029
000250 20 b6 ef 3e ad 99 12 3f d4 13 83 bf 18 29 35 40
       0.46818638 0.5726574 -1.0240426 2.8306332
000260 5f 5a 6e be 33 81 7b 3f 39 0b 9d bf d3 d5 54 bf
       -0.23276661 0.9824402 -1.226905 -0.8313877
000270 66 5b e0 bf a2 1f cc bf fd 5b ec 3f b1 0d 17 40
       -1.7527893 -1.5947154 1.8465573 2.3602107
000280 a5 0c a2 3f eb 95 0a 40 43 32 18 40 79 4b 3c 40
       1.2660109 2.1654003 2.3780677 2.9421065
000290 7a ab 0a bf 07 c6 86 be ae c0 fd 3f b2 8a 22 40
       -0.541679 -0.26322958 1.9824426 2.5397153
0002a0 b4 e4 8b 3f c9 9e 0d c0 03 5c ef bf d1 51 b5 bf
       1.092917 -2.2128165 -1.8699955 -1.4165593
0002b0 85 1a 9d 3e 65 e4 d2 be 61 3d 07 bd d9 b8 d3 3e
       0.30684295 -0.41189876 -0.03301752 0.41351965
0002c0 c1 af 28 bf b1 55 86 3f 9a 89 d0 3f 31 73 37 c0
       -0.6589318 1.0494901 1.6291993 -2.8664057
0002d0 ce e1 2f 3f c6 1e b1 3f 48 72 e2 be d0 4d 85 3f
       0.68703926 1.3837516 -0.44227815 1.0414371
0002e0 d8 be af bf 28 7e 40 3f f7 fd 87 bf f5 3f a9 bf
       -1.3730116 0.751925 -1.0624379 -1.3222643
0002f0 c7 62 f2 bd ee 65 99 3f fe dd 20 3f ea 8d 54 3f
       -0.118352465 1.1984231 0.62838733 0.83029044
000300 de 81 a7 3f 14 71 dc 3f a1 a5 48 3e c2 7b 4d 3d
       1.3086507 1.7222009 0.19594432 0.050166853
000310 a0 6a c9 3e 11 53 8d 3f 89 a0 66 3f 0a fe 81 bf
       0.3933916 1.1040975 0.9008871 -1.0155652
000320 60 b8 9f bf 64 30 8c bc 14 36 9f 3f 58 d0 44 3f
       -1.2478142 -0.017112918 1.2438378 0.7688041
000330 27 8e 37 bd 6c 41 a9 be 21 00 93 be 0f 5d 78 bf
       -0.0448133 -0.33057725 -0.28711036 -0.97016996
000340 6b 9a 62 3f 5a 2b 50 bf af 8f 0e 3e bc d5 1e 3e
       0.88516873 -0.8131615 0.13921998 0.1551122
000350 c1 0c 62 bd c1 75 bb be cd 69 6f bf b6 85 1b 3a
       -0.055187944 -0.36613277 -0.93520814 0.0005932705
000360 1c fc 93 be d0 5d 0d be cb d0 84 b9 9c e1 6c 3e
       -0.28903282 -0.13805318 -0.00025332565 0.23132938
000370 48 56 40 be c1 dc e9 3e 62 23 72 3d 91 2f 0e 3d
       -0.18782914 0.45676234 0.059115775 0.03471333
000380 f6 69 af 3e f0 28 97 3e 45 6e 73 be e2 7d f0 3e
       0.3426053 0.2952342 -0.23772533 0.4697104
000390 29 54 32 3e 00 b6 23 bd 9c 61 cd be 74 e8 ba bd
       0.17414917 -0.03996849 -0.40113533 -0.09126368
0003a0 92 8b a8 3d 69 4c 2a 3f 23 f5 1a bf 31 cc 09 3e
       0.08229746 0.6652284 -0.605303 0.13456799
0003b0 ac 31 19 bf 79 2b 0e be e0 bd 8d be bc a6 64 be
       -0.5984142 -0.13883771 -0.27683926 -0.22329229
0003c0 e4 c2 26 be f8 c2 ad be b4 9c 6f 3e b8 5c 52 3e
       -0.16285282 -0.33937812 0.23399621 0.20543182
0003d0 d0 ed c1 3e be a7 6d be 8b d3 41 3e c0 4e ee bd
       0.3787675 -0.2320852 0.18928353 -0.11636114
0003e0 01 fb c4 bd b9 8d bb be d1 24 a6 3d 2d 76 97 be
       -0.09618188 -0.36631563 0.08112491 -0.29582348
0003f0 b0 10 c4 3d 52 24 e5 bd 74 81 0e bd d6 c3 5b be
       0.095734954 -0.11188568 -0.034791425 -0.21461424
